snapshots/Epoch43.pth (torch, 304045 bytes, 14 tensors)

e_conv1.weight f4 [32, 3, 3, 3]
000000 b4 3e 00 00 13 d1 00 00 7e 79 00 80 d5 8a 00 80
       2.2494e-41 7.5002e-41 -4.3583e-41 -4.9804e-41
000010 c6 5a 00 80 a9 f5 4e 15 f6 91 00 80 56 59 8b a4
       -3.2563e-41 4.179516e-26 -5.2361e-41 -6.043298e-17
000020 fd 55 c0 83 36 a0 00 00 a6 da a4 1e 99 95 00 80
       -1.1304488e-36 5.7473e-41 1.7454606e-20 -5.3666e-41
000030 74 54 00 80 bb 89 00 80 ab 55 00 80 fb 33 01 00
       -3.0296e-41 -4.9408e-41 -3.0732e-41 1.10483e-40
000040 f1 ca 00 00 18 54 00 00 f7 dd 00 00 43 b9 00 80
       7.2802e-41 3.0167e-41 7.9626e-41 -6.646e-41
000050 7f 88 3f 0a 55 05 00 80 8f 21 00 00 3a dc 2e 1a
       9.2219875e-33 -1.913e-42 1.2039e-41 3.6160254e-23
000060 58 ed 00 80 5d 00 00 00 4d bb 00 80 d4 17 00 bc
       -8.5143e-41 1.3e-43 -6.7191e-41 -0.007818181
000070 af f3 09 ba ff 52 a1 bc 17 f0 03 3c a7 93 f5 3b
       -0.0005262447 -0.019692896 0.008052847 0.007494408
000080 e1 56 ed 3b cc 0b 9f 3c 6d 2a 25 3c 8f 43 87 3c
       0.007243023 0.019414805 0.010080916 0.016511707
000090 58 af f2 3b 43 c7 e5 bb 7f 47 04 3d 94 63 87 3b
       0.0074061565 -0.0070122792 0.032294746 0.0041317437
0000a0 19 b2 85 3c ee f9 85 3c 16 1e fa 3c f7 46 10 3d
       0.016320275 0.016354527 0.030531924 0.035223927
0000b0 1a 88 89 3c f2 27 db bb eb c6 4e bb 13 91 e4 bc
       0.016788531 -0.0066881115 -0.003155167 -0.027901208
0000c0 6b d8 d6 b9 96 9c 6c bb c6 42 96 bc 15 4b 40 bc
       -0.00040978505 -0.0036104075 -0.018342387 -0.011736651
0000d0 6a 4c e9 bb 84 8f 91 3c d5 ac c9 bb 4e c6 23 bd
       -0.007119705 0.017768629 -0.0061546364 -0.03998404
0000e0 a2 3c 18 bc db 2c 2d 3a 85 09 ca bc c3 79 8a bc
       -0.0092918 0.000660611 -0.024662742 -0.016903764
0000f0 1e f2 2c 3b 31 81 c1 bb dc 6b 3f bb 96 9c ae bb
       0.002638943 -0.0059052934 -0.0029208576 -0.005328725
000100 8e 7b 23 3c 71 4f ef 3b 65 7c fe bb 1a ec d1 3b
       0.009978188 0.0073031713 -0.007766294 0.0064063193
000110 12 f6 7b 3b f0 a7 28 3d 5d 68 b2 3c c5 a2 b6 bc
       0.003844623 0.041175783 0.02177828 -0.022294411
000120 82 0a 87 3c 62 9c b9 3c 0e 47 8b 3c c6 29 e5 3c
       0.016484503 0.022657577 0.017001655 0.02797402
000130 30 51 97 3c 52 72 eb 3c 3d 91 ba 3c 0e 27 b1 3b
       0.01847133 0.028741036 0.022774333 0.005406267
000140 d4 f8 f0 3b 2d 72 39 3b 37 73 6c 3c 48 42 57 3b
       0.0073538814 0.0028296814 0.014431766 0.0032845903
000150 b2 5a a8 bc 3f 1e e7 bb 46 e6 79 3b bd f9 41 bc
       -0.02055106 -0.007053166 0.0038131638 -0.011839327
000160 bf 28 81 bc e4 0c c0 3c 48 f5 e7 bc cf 5f 45 3c
       -0.0157665 0.023443647 -0.028315201 0.012046768
000170 0d a5 41 3c f5 ee b1 bb 36 fc d8 b9 8e cf 0e 3c
       0.011819136 -0.005430097 -0.00041386642 0.008716477
000180 aa a8 e6 bc a5 73 53 3c d5 69 b1 3c 12 dc e1 bb
       -0.028156597 0.01290599 0.02165691 -0.0068926895
000190 74 6f 15 3b 7b b5 3c bc 1d 00 01 bc 9c c7 9b 3c
       0.0022802027 -0.011517878 -0.007873562 0.01901608
0001a0 f9 f8 f5 ba 6f 4b bc bc fc 0f f9 3b d7 53 d1 3c
       -0.0018766216 -0.022985188 0.0076007824 0.025552673
0001b0 62 75 64 3a 87 31 af 3b 82 37 fb 3c 72 ed 9b 3c
       0.0008715001 0.0053464803 0.030666117 0.019034121
0001c0 43 4c 24 3c 5b 83 fe 3c 8b c9 ab ba b3 f4 87 bc
       0.010027948 0.031068495 -0.0013106329 -0.016596174
0001d0 f9 d5 43 3b d0 ae 61 3c be c3 aa 3c b2 7c 08 3d
       0.0029882176 0.013774589 0.02084529 0.033322044
0001e0 ba 96 1b 3c c6 6d ea ba 6f 60 6d 3a e9 66 a4 3b
       0.009496385 -0.0017885498 0.0009055202 0.0050171507
0001f0 6a e9 cc 3c b2 64 f5 3c b4 1f 19 3c 95 87 2b 3c
       0.025013644 0.029955242 0.0093459375 0.010469337
000200 7a 5d fb 3c 6f 78 ef bc b0 61 2f bc ea dd d1 3b
       0.030684222 -0.029232232 -0.010704443 0.006404628
000210 71 ee 2a bd 89 0c 0f bc 8c aa 09 bb b4 4d 01 00
       -0.0417313 -0.008731016 -0.0021006195 1.1971e-40
000220 0e 75 01 80 34 7c 01 80 08 0f 01 80 94 e3 00 00
       -1.33827e-40 -1.36391e-40 -9.7228e-41 8.164e-41
000230 c0 81 00 80 b5 ca 00 00 82 03 01 00 49 65 a0 1a
       -4.6546e-41 7.2718e-41 9.3094e-41 6.6338084e-23
000240 fc 9f 5c 99 1e bd 00 80 b6 a1 08 80 21 5e 15 0d
       -1.1406042e-23 -6.7842e-41 -7.92695e-40 4.6027473e-31
000250 e7 1e 00 80 e1 99 01 00 f3 1c 00 80 96 6a 00 00
       -1.1086e-41 1.47037e-40 -1.0385e-41 3.8236e-41
000260 12 93 00 00 be 7b 00 80 c7 21 00 80 2e d4 01 00
       5.2759e-41 -4.439e-41 -1.2117e-41 1.67951e-40
000270 79 88 0e 85 00 d5 00 00 06 75 00 80 db ba 00 00
       -6.701874e-36 7.641e-41 -4.198e-41 6.7031e-41
000280 62 31 00 80 fb b4 01 80 f5 7d a5 3c 3d 22 82 3a
       -1.7715e-41 -1.56759e-40 0.020201663 0.0009928417
000290 78 49 4c bc cb 9c de 3b 70 3a ac 3a 80 0c 0f bd
       -0.012468688 0.0067935935 0.0013139974 -0.03492403
0002a0 36 57 a9 3c 20 ee bd 39 95 12 a5 bb 8c f3 0b 3d
       0.020671468 0.00036226306 -0.0050376155 0.03416781
0002b0 86 e8 04 3d 02 f4 d1 bc f2 06 67 3c 52 fd 1a 3c
       0.032448314 -0.025629047 0.014100777 0.00945981
0002c0 49 cb 03 ba 5e 0a 47 3c df 6d 0a bd f7 a6 1d bd
       -0.0005027545 0.012148468 -0.033796187 -0.03848931
0002d0 6c c7 f3 3b 31 da 11 bc 41 bf 34 bc 4b 07 f5 39
       0.0074395444 -0.008902119 -0.011031927 0.00046735475
0002e0 9c 7e 8a 3b 3f fa e9 bb 39 2e 10 3d 74 00 88 bc
       0.004226519 -0.0071404274 0.03520033 -0.016601779
0002f0 de 98 20 bd 6c 81 00 00 6a 1d 00 80 b2 0a 00 00
       -0.039208286 4.6428e-41 -1.0552e-41 3.837e-42
000300 91 44 00 80 1b 7d 00 80 85 2f eb 0c 20 a3 00 00
       -2.4597e-41 -4.488e-41 3.6236083e-31 5.8518e-41
000310 f0 ed 00 80 21 35 03 00 5d 14 00 80 fd bd 00 00
       -8.5356e-41 2.94566e-40 -7.305e-42 6.8155e-41
000320 d4 fc 95 00 c7 3f 1d 04 32 bd 00 80 7f 98 00 80
       1.3774187e-38 1.8484546e-36 -6.787e-41 -5.4705e-41
000330 bc a1 00 00 06 e3 00 80 f8 8c 00 80 70 7c 00 00
       5.802e-41 -8.144e-41 -5.057e-41 4.464e-41
000340 23 17 00 00 ed 8b 00 80 db af 00 80 c8 b7 00 80
       8.3e-42 -5.0196e-41 -6.3085e-41 -6.5928e-41
000350 f4 a4 00 80 c3 d3 00 00 5b d3 20 9d ab 0a 88 90
       -5.9174e-41 7.5966e-41 -2.1285092e-21 -5.365898e-29
000360 95 78 00 80 c9 d0 00 00 e8 2e 00 80 48 87 f8 8c
       -4.3257e-41 7.4898e-41 -1.6827e-41 -3.829187e-31
000370 c4 0c 1e 1f 66 60 c8 2a ac 9c 00 00 ff ab 2c 89
       3.346836e-20 3.5594027e-13 5.6203e-41 -2.0784619e-33
000380 38 bb 15 2b 6b 96 00 00 d7 63 00 00 a6 8c 00 00
       5.319525e-13 5.396e-41 3.5816e-41 5.0455e-41
000390 4a 2c 00 80 ca f5 ae 89 a8 85 b7 24 9c 39 00 80
       -1.5888e-41 -4.2120115e-33 7.959002e-17 -2.0666e-41
0003a0 3d 8e 30 0e 8e 02 00 80 e6 5a 00 80 8f 8a 00 00
       2.176216e-30 -9.16e-43 -3.2608e-41 4.9705e-41
0003b0 6c 42 00 80 ae 39 00 80 e3 83 0b 87 af ae 00 80
       -2.3828e-41 -2.0692e-41 -1.0495956e-34 -6.2665e-41
0003c0 d6 c6 00 80 7f 92 ed 19 31 85 76 2b 8e f8 03 bd
       -7.1329e-41 2.4564395e-23 8.7581597e-13 -0.032219462
0003d0 35 70 64 bc 7a a4 17 bd 56 ed a4 bc 82 78 8c bc
       -0.013942768 -0.03702209 -0.020132702 -0.017147306
0003e0 ee 5c 3d bc a5 37 0e bc 19 c6 64 3c 14 37 03 3c
       -0.011557801 -0.008680259 0.013963246 0.008008737
0003f0 1c 13 17 bd 9f d0 5a bb 87 d2 b3 bc 2c c3 91 bc
       -0.03688346 -0.0033388508 -0.021950973 -0.01779326

e_conv1.bias f4 [32]
000000 0b 41 41 bb a4 72 84 3d 94 c7 8d 3c 40 37 fe 3d
       -0.0029488232 0.064671785 0.01730708 0.12412882
000010 8a 98 84 3d 0a f3 8b ba 71 b0 5b 3d 77 f1 29 bc
       0.06474407 -0.001067729 0.053635065 -0.010372511
000020 0f 4f 11 bc 33 a7 93 3d 85 d2 da bb 05 c2 53 ba
       -0.008868947 0.07209625 -0.006677928 -0.00080779224
000030 83 91 e1 bc ff 98 60 3d dc 95 6b bb 7c d4 23 3e
       -0.027535206 0.05483341 -0.0035947477 0.15999025
000040 92 40 03 3e 10 39 bf 3d 27 6e 3c 3e 01 02 24 3e
       0.128176 0.09337056 0.18401395 0.1601639
000050 2f dd db b9 5b 3e 22 3e 55 67 95 bc 27 e5 f2 3d
       -0.0004193573 0.15844099 -0.01823775 0.118601136
000060 c9 0d 9a a7 2e 96 07 b9 ac e5 12 3d 50 2f fa b9
       -4.2758532e-15 -0.0001293055 0.035863563 -0.00047718966
000070 a1 e2 12 b5 6c 0d 71 ba 31 26 01 3e 64 70 05 bb
       -5.4719027e-07 -0.00091954204 0.12612225 -0.002036118

e_conv2.weight f4 [32, 32, 3, 3]
000000 da 44 00 00 8e 21 0d 2a 0d 71 ad 16 4b 0f 00 00
       2.4699e-41 1.2534957e-13 2.8021002e-25 5.486e-42
000010 29 8c 00 80 d3 45 00 00 19 74 00 00 de 28 00 80
       -5.028e-41 2.5048e-41 4.1648e-41 -1.466e-41
000020 63 32 44 04 ff 11 16 3c fb 41 b2 bc 66 4c 42 3b
       2.3062826e-36 0.009159564 -0.021759978 0.0029647588
000030 6e 9c 8c bb ef 17 6d ba d7 69 f3 bb e9 e7 54 3c
       -0.004291109 -0.0009044399 -0.0074283886 0.012994745
000040 fa a4 f3 3c 23 17 d8 3a d0 f2 4e bc e5 fc 6e bc
       0.029741753 0.0016486387 -0.012631133 -0.014586662
000050 77 ee 10 bc 8e cf a7 3b 98 d3 d1 bb 5b cb 91 bb
       -0.008845917 0.005121178 -0.006403398 -0.0044492907
000060 05 aa a9 3b f3 6e a2 3a 8a b7 f2 3b 60 0b f3 bc
       0.0051777386 0.0012392685 0.0074071335 -0.02966851
000070 16 93 9f 3c 49 80 21 3d 7c 76 7e bc 3e 1d f2 bb
       0.019479316 0.039428983 -0.015531179 -0.00738874
000080 17 09 cf bb a7 46 26 bd 00 7f a3 3b ff 16 9e 3c
       -0.0063182223 -0.040594723 0.004989505 0.019298075
000090 38 21 57 39 e0 4f 36 bb 5b ac a3 3a 5d e5 50 3c
       0.00020516373 -0.0027818605 0.0012487279 0.012749997
0000a0 a0 72 74 bc 2b d8 07 3c bd dc 6f 3c b5 af 90 bc
       -0.014919907 0.008291285 0.01464003 -0.017661909
0000b0 e7 ce 15 bc 23 98 3f a3 38 9b 30 02 2e 29 00 80
       -0.009143568 -1.0386347e-17 1.2974983e-37 -1.4772e-41
0000c0 a1 23 01 00 6f ee 00 80 fd 54 cb 91 ac 09 01 80
       1.04617e-40 -8.5534e-41 -3.208013e-28 -9.5305e-41
0000d0 85 d6 00 80 f8 89 00 80 68 8e 28 bb 47 e2 30 3c
       -7.6955e-41 -4.9494e-41 -0.0025719646 0.010796136
0000e0 fd a0 3a bc cc 17 40 bc ff 5f e3 3b 98 64 21 3c
       -0.011390922 -0.011724424 0.006938934 0.009850644
0000f0 5e b0 eb 3b 83 7b 1e 3c 50 82 b4 3c ba f0 00 00
       0.0071926555 0.009673002 0.022034794 8.6356e-41
000100 dc d5 00 00 72 75 01 80 9f aa 00 00 49 45 00 00
       7.6718e-41 -1.33967e-40 6.1207e-41 2.4855e-41
000110 ba 25 00 00 65 33 52 2b d4 47 00 00 57 37 01 80
       1.3534e-41 7.467831e-13 2.5767e-41 -1.11688e-40
000120 39 39 00 80 96 c1 00 00 74 cc 86 0c 07 07 00 00
       -2.0528e-41 6.9446e-41 2.076902e-31 2.521e-42
000130 cd 1e 00 00 6d 39 00 00 31 f3 58 a1 d4 5e 01 00
       1.1049e-41 2.06e-41 -7.350551e-19 1.25853e-40
000140 c9 fc 14 85 ac c1 88 3c 88 8f cd ba 0c 4f 11 3c
       -7.005356e-36 0.016693912 -0.0015683034 0.008868944
000150 56 fb 9e bb ea b3 14 3c c9 f8 1f 3c 9a b2 18 3a
       -0.004851739 0.009076098 0.009763905 0.00058249536
000160 59 03 c3 39 ea e2 8c bb b4 c0 00 80 3d c2 7f 21
       0.00037195793 -0.004299511 -6.9129e-41 8.6654433e-19
000170 da 50 00 00 20 0e 00 80 03 fd 01 80 49 64 83 8c
       2.9004e-41 -5.067e-42 -1.82599e-40 -2.0244103e-31
000180 fe 9d 00 80 86 37 00 00 dc 08 00 00 f4 bb 87 aa
       -5.6677e-41 1.9918e-41 3.178e-42 -2.4111236e-13
000190 50 61 00 00 69 20 00 80 02 78 00 00 21 f5 e9 31
       3.4909e-41 -1.1627e-41 4.305e-41 6.8090604e-09
0001a0 ac 93 f1 85 ae 04 01 00 8e 20 00 00 01 76 00 80
       -2.2717777e-35 9.3514e-41 1.1678e-41 -4.2332e-41
0001b0 51 87 f8 bb 04 a6 00 bc b5 35 01 bc fe f7 28 b9
       -0.0075844903 -0.007852081 -0.00788634 -0.00016114113
0001c0 14 dd a1 b9 ee 61 d2 b9 08 f2 86 3a 3a 2e 6c 3a
       -0.0003087303 -0.00040127285 0.001029552 0.0009009574
0001d0 5d 34 4b 3a 39 a9 0a 3b c6 5b cb 3c 4f 01 98 3b
       0.0007751638 0.0021157993 0.024824034 0.004638828
0001e0 9b 0b 78 3c eb 96 ae 3b 25 69 43 3c a0 b3 57 bc
       0.015139486 0.0053280494 0.011926924 -0.0131653845
0001f0 fb b6 70 3c ce ca 70 ba 81 34 00 80 8d 0e 00 80
       0.014692063 -0.00091854937 -1.8835e-41 -5.22e-42
000200 2b 8b cb 82 de ca 00 80 b7 4b d7 28 51 91 01 00
       -2.9908048e-37 -7.2775e-41 2.3902631e-14 1.43965e-40
000210 fa ff 89 b3 30 8e 00 80 a8 e2 bb 02 33 6f c5 3b
       -6.4261215e-08 -5.1007e-41 2.7607275e-37 0.006025219
000220 83 c1 43 3c 23 ac 8c 3b 4b 6b 85 3c 26 df 8d 3c
       0.011947992 0.0042929812 0.016286513 0.01731832
000230 70 35 74 3c cf 2a 3a bb a6 e6 9e bc 9d 73 f2 bb
       0.014905319 -0.0028406864 -0.019397091 -0.007399036
000240 c2 98 89 bc a7 11 ab bc a6 48 0f bc 5c 02 ab bc
       -0.016796473 -0.02088244 -0.008745348 -0.020875148
000250 7e 34 81 3c 44 44 94 3c 9e 03 04 bd fc 80 af 39
       0.0157721 0.018098958 -0.032230012 0.00033474702
000260 6f 83 0c ba 61 c0 b8 3c 1c 81 58 bb fc 44 1f bb
       -0.00053601613 0.02255267 -0.003303594 -0.0024302593
000270 1a e5 fb bb 7e 04 5f 3c 09 24 d8 3b ad 7f e5 3b
       -0.007687223 0.013611911 0.0065960926 0.0070037455
000280 fe 01 9c 3c 66 8b b4 3c 69 9b 66 b9 e8 45 c8 bc
       0.019043919 0.022039127 -0.00021992404 -0.024447396
000290 46 c5 8f bc fb f1 04 bb 11 28 ea 39 a1 86 98 3c
       -0.017550122 -0.0020285833 0.0004466181 0.018618884
0002a0 b7 ad 17 bd d8 2a 81 3c fd 75 0e 3d 8d 84 ab 3c
       -0.0370309 0.0157675 0.03478049 0.020937229
0002b0 05 2a 9a 3c 31 98 aa bb 6e 96 18 3c 80 cc 33 3c
       0.018818865 -0.005206131 0.009313209 0.01097405
0002c0 1d 13 e8 ba ee 89 50 bc 00 b9 23 bc 82 ff f3 3c
       -0.0017705892 -0.0127281975 -0.009992838 0.029784922
0002d0 c4 07 12 a6 71 e4 00 80 21 44 00 80 e4 ae 00 80
       -5.066445e-16 -8.195e-41 -2.444e-41 -6.2739e-41
0002e0 2a 33 d3 97 d1 d5 00 80 79 35 00 00 89 90 09 80
       -1.3648471e-24 -7.6703e-41 1.9182e-41 -8.78369e-40
0002f0 f8 17 00 00 e3 74 b3 bc 2f 0a 48 3c 92 1d 91 3c
       8.598e-42 -0.021906322 0.012209459 0.017714296
000300 bd 68 98 bc 26 a1 4c 3d 1d 89 0a 3d 24 29 40 3c
       -0.01860463 0.04995837 0.033822168 0.011728559
000310 bb 4a f2 3c b5 f8 96 3c 87 6e a0 3b 3b 52 ea 3b
       0.02957665 0.01842914 0.0048959884 0.007150916
000320 ca a8 3b bb 42 d4 66 bb b6 2a 89 3a 3b fc ee ba
       -0.0028634542 -0.003522173 0.0010464999 -0.001823313
000330 a4 4d 57 bc aa c4 c4 3b 52 8a 28 bc aa 4f a1 3c
       -0.01314107 0.0060048895 -0.010286884 0.019691307
000340 a8 fb 55 3c 92 54 bb 3c f7 22 5b 3c 8f 23 c7 3c
       0.013060488 0.022867475 0.0133750355 0.024308948
000350 78 48 b3 3b 3f 54 40 bd 34 ee e6 3c 5e c6 bf bb
       0.0054712854 -0.046955343 0.028189756 -0.0058525046
000360 a3 98 35 a3 5c 06 00 80 ba 55 00 80 ca c3 00 80
       -9.844352e-18 -2.281e-42 -3.0753e-41 -7.0236e-41
000370 b8 4c 00 80 0d a6 00 00 67 6f 02 89 ec f3 e6 83
       -2.7522e-41 5.9568e-41 -1.5700562e-33 -1.3574187e-36
000380 9f 6e 00 00 11 35 00 00 d5 ac 00 80 a4 63 00 80
       3.9683e-41 1.9037e-41 -6.2e-41 -3.5744e-41
000390 d1 c4 00 80 84 f6 00 00 50 95 00 80 6d bf 00 00
       -7.0604e-41 8.8433e-41 -5.3563e-41 6.867e-41
0003a0 a8 cd 00 00 cf b8 00 80 f9 8f 95 3b 73 18 34 3b
       7.3776e-41 -6.6297e-41 0.004564282 0.0027480393
0003b0 db f2 bc 3b 45 fd 66 bb f8 03 6b bb a9 cb 67 bc
       0.0057662553 -0.0035246175 -0.003586052 -0.014147677
0003c0 6c 41 75 3c 05 39 0d bc 07 12 a5 bc b1 b6 23 a7
       0.014969211 -0.008619552 -0.020150198 -2.2719831e-15
0003d0 6e 54 00 00 de 34 00 00 4d 8f 00 80 21 cf 00 80
       3.0288e-41 1.8965e-41 -5.1407e-41 -7.4304e-41
0003e0 af 4f 00 00 3c b6 00 00 cc a4 00 a1 30 3a 01 80
       2.8585e-41 6.5373e-41 -4.3586194e-19 -1.12709e-40
0003f0 4c 3c 01 00 89 1a 00 80 03 1e 00 80 45 b6 6f 35
       1.13466e-40 -9.519e-42 -1.0766e-41 8.9299675e-07

e_conv2.bias f4 [32]
000000 dd 70 0f bd 3c 54 72 2b bf 47 ab 3a e1 81 71 13
       -0.035019744 8.609257e-13 0.0013067647 3.0482512e-27
000010 30 6f 18 3d 35 dc ec 3c da 70 2b 3a 15 9b 20 3d
       0.03721541 0.028913597 0.00065399485 0.039210398
000020 00 cf 59 3d 2b a6 0d 3d bb 84 dd bc 30 31 08 af
       0.053175926 0.0345823 -0.02704083 -1.2386603e-10
000030 a9 6d 80 af 5e fe 00 bc fa e4 0a 3c f7 ed fd b1
       -2.3360983e-10 -0.007873146 0.008477444 -7.3903226e-09
000040 8a 53 00 3d 60 cb ff 3b b1 3b 8c 90 e1 05 4d bc
       0.03132967 0.0078062266 -5.531223e-29 -0.012513609
000050 46 51 7a b1 da ae 51 3c ec 47 c4 a4 e4 9d 06 3d
       -3.6425987e-09 0.0127980355 -8.512329e-17 0.03286542
000060 3b 93 9c ad af 03 30 3d 20 19 40 3d 5a 6d dd bb
       -1.780053e-11 0.042972263 0.04689896 -0.0067574205
000070 09 77 28 ae 06 44 ca ba c9 cf 07 bc 6b 1a 4d 3d
       -3.8304502e-11 -0.001543165 -0.008289286 0.050074022

e_conv3.weight f4 [32, 64, 3, 3]
000000 97 5a 00 80 6a 89 0a 80 af 5e 00 00 ea c1 00 00
       -3.2498e-41 -9.6765e-40 3.3966e-41 6.9563e-41
000010 dd 0f 00 80 1d e9 00 80 81 5b 00 00 7f 0a b4 a2
       -5.69e-42 -8.3625e-41 3.2825e-41 -4.880021e-18
000020 4f 45 5f 28 83 bc 14 3b 87 89 79 3c 32 f4 d5 3c
       1.2394016e-14 0.002269537 0.015230543 0.026117418
000030 3e b9 11 bc a1 67 58 3b 5b 6a 2f 3c 52 cd f6 bc
       -0.008894263 0.0033020752 0.010706509 -0.030127201
000040 eb fc b3 bb 2a 17 2d bc 4a 74 82 bc 08 41 8b bb
       -0.0054927967 -0.010564605 -0.015924592 -0.0042496957
000050 eb 7c 54 b8 73 ee 8d bc 45 be cf bb bc 2d 24 bb
       -5.0661078e-05 -0.017325616 -0.0063398206 -0.0025051674
000060 9e 50 b6 bc d2 f5 6d bc 25 7b 36 bc 27 37 2f 3c
       -0.022255238 -0.01452394 -0.011137758 0.010694302
000070 d0 4a 2d 3c 1c 97 8d 3c f1 c2 0f ba c5 a1 2d 3b
       0.010576919 0.017283969 -0.00054840656 0.0026494127
000080 cd 64 f3 3b 76 65 13 3b 8c 7d 24 bc 3d 21 a7 bc
       0.007427788 0.0022490895 -0.010039698 -0.020401591
000090 85 2a 0c 3c 01 95 dc 3c 23 91 a9 3c 4b c8 a4 3b
       0.008555059 0.02692652 0.02069909 0.0050287596
0000a0 9c 89 68 3c c0 37 ea 3b 2b 70 8b bb 2e ae 62 bb
       0.014192965 0.007147759 -0.004255315 -0.0034588682
0000b0 68 83 95 bb 13 d5 00 80 e3 5c 00 00 76 97 00 80
       -0.004562784 -7.6437e-41 3.3321e-41 -5.4334e-41
0000c0 aa 26 00 80 b9 5b 1d 81 dc bf 46 a7 c5 6f 00 00
       -1.387e-41 -2.8902154e-38 -2.7582027e-15 4.0095e-41
0000d0 e5 2e 00 80 60 1f 01 80 cf 02 c6 3b 90 62 d9 3b
       -1.6823e-41 -1.03091e-40 0.0060428153 0.006634064
0000e0 f8 26 fb b7 80 d5 00 3c 07 00 55 3c 25 00 90 3b
       -2.9939678e-05 0.007863402 0.013000495 0.0043945485
0000f0 4d 81 06 3b ae 80 b3 3b 96 5f 04 bc db 20 00 80
       0.0020523847 0.0054779863 -0.00807943 -1.1786e-41
000100 d4 16 00 80 ce e8 16 19 7f 01 01 00 d7 18 00 80
       -8.189e-42 7.801833e-24 9.2372e-41 -8.911e-42
000110 1f 16 00 00 72 73 11 05 f2 e1 00 80 7e d9 00 00
       7.936e-42 6.839071e-36 -8.1054e-41 7.8021e-41
000120 55 40 01 00 f2 cc 00 80 a0 3b 00 80 fc 38 00 80
       1.14913e-40 -7.352e-41 -2.139e-41 -2.0442e-41
000130 d2 30 00 80 aa 06 02 b0 21 c1 00 00 b4 28 00 80
       -1.7513e-41 -4.7303195e-10 6.9282e-41 -1.4602e-41
000140 bf ad 00 80 f0 96 72 bb e3 f2 9b bb c2 3b 93 bc
       -6.2328e-41 -0.0037016235 -0.004759179 -0.01797283
000150 30 4f f5 3b b3 59 97 3b c1 c4 24 bc e0 fc a6 3b
       0.0074862465 0.0046188473 -0.010056675 0.005096063
000160 60 a4 aa b9 de 72 23 bc 25 4e 00 80 69 58 00 00
       -0.00032547396 -0.009976117 -2.8033e-41 3.1716e-41
000170 7a b5 71 23 b6 73 ca 02 8c 44 e3 04 17 70 00 80
       1.3103065e-17 2.9747647e-37 5.3430394e-36 -4.021e-41
000180 a3 c9 00 00 0b 2e 00 80 c7 3d a6 1a a7 cc 00 00
       7.2334e-41 -1.6517e-41 6.87558e-23 7.3415e-41
000190 e8 d9 00 80 83 8f 00 80 c1 76 00 00 d8 43 00 00
       -7.817e-41 -5.1482e-41 4.2601e-41 2.4338e-41
0001a0 f4 c1 00 80 ff 59 00 80 20 67 00 00 8e 01 a1 02
       -6.9577e-41 -3.2285e-41 3.6994e-41 2.3657716e-37
0001b0 1c 41 74 3a 27 3b 21 3b 68 21 37 3b 8b 47 9e b9
       0.00093175634 0.0024601908 0.0027943496 -0.00030189412
0001c0 49 b8 a4 39 32 4a 9d 39 79 c2 8b b8 19 dc af b9
       0.0003141782 0.00030000653 -6.66426e-05 -0.00033542587
0001d0 70 44 e3 b8 5b f2 da bb 70 cb d6 bb 3e b2 16 bc
       -0.00010836951 -0.006681723 -0.0065550134 -0.00919777
0001e0 46 c1 0b bc fc 9c fd bb 04 75 ff bb 35 f7 24 bc
       -0.008529967 -0.0077396613 -0.007795932 -0.010068704
0001f0 b4 2b 21 bc f5 c9 06 bc 06 65 0c 8e 6d 54 4e 00
       -0.00983708 -0.008226861 -1.7304973e-30 7.193455e-39
000200 b5 04 00 00 73 eb 00 80 ce 0f ce 1f 51 8c 00 80
       1.689e-42 -8.4463e-41 8.727054e-20 -5.0336e-41
000210 43 cc 6a 00 24 23 97 9c 6c 4b 57 00 51 d5 a9 bc
       9.807838e-39 -1.0001425e-21 8.016744e-39 -0.0207316
000220 a6 73 ad 3b f8 ee 9c 3c a3 b6 9d 3b b2 7c 2a bb
       0.0052933274 0.019156918 0.0048130318 -0.0026014266
000230 fc 3d 47 3b 8a 37 34 bd e3 8d e2 bc dd 78 6e bc
       0.0030401936 -0.04399828 -0.027655547 -0.014555183
000240 83 08 32 3b 3f b5 10 3c e7 09 dc 3c 2c 41 73 bc
       0.0027165718 0.008832275 0.02686019 -0.014847081
000250 1d 0a ed 3b 4e 3f 5f bc a6 7e f9 bc d0 d5 bc bb
       0.0072338716 -0.013625933 -0.030455898 -0.005762793
000260 71 0b 94 bb c5 2b f3 3b 4c 32 f3 3b 80 12 10 3b
       -0.0045179655 0.007420989 0.0074217673 0.0021983683
000270 f8 18 46 3b eb 72 98 3b 73 69 82 bb 95 bd 9d 3b
       0.0030227285 0.004652371 -0.0039798557 0.0048138597
000280 e2 30 6d 39 5e a1 38 bc 3c 36 23 3b 97 e7 6c 3c
       0.00022620292 -0.011268942 0.0024904152 0.014459512
000290 97 f7 a5 3c e7 85 c4 3b 80 3c cd bb 92 33 ba 3c
       0.020259662 0.0059974077 -0.0062633157 0.022729669
0002a0 4a c3 03 bd ba 7e 83 bc d7 95 fd ba 16 9c 8e 3c
       -0.032168664 -0.016051639 -0.0019347024 0.017408412
0002b0 12 2e 4f bb dc fc 06 3c de 54 73 3b 06 32 15 bc
       -0.0031613153 0.008238997 0.0037129442 -0.009106165
0002c0 44 c0 cc bc 0b 56 72 bc ad 1a 31 bc 7a a4 b2 bb
       -0.024994023 -0.014791022 -0.010809583 -0.005451736
0002d0 1e b2 00 00 0c f9 c2 1a 2d c4 80 b3 00 2c 01 80
       6.3896e-41 8.0638876e-23 -5.9961486e-08 -1.0762e-40
0002e0 47 6e 00 80 62 cf 00 00 dc 2b d0 82 92 2a 7d 15
       -3.956e-41 7.4395e-41 -3.0588027e-37 5.1126525e-26
0002f0 69 08 00 80 ab f1 b1 ba b6 d2 37 ba 2f 49 ba bb
       -3.017e-42 -0.0013576051 -0.00070122944 -0.0056849937
000300 4d 10 b2 3a 04 e3 2f 3c e6 54 6e 3c 80 8c 78 bc
       0.001358518 0.010735277 0.014546609 -0.015170217
000310 18 51 a1 bc d6 99 79 3a 42 88 18 3b 95 77 6f 3c
       -0.019691989 0.00095215195 0.0023274575 0.014615913
000320 0a b5 f7 3c 8b 6a 62 bc fd 15 c4 39 e7 cf 80 3c
       0.030237693 -0.013819347 0.00037400416 0.015724136
000330 9b 56 e8 bc ce b8 64 bc 2e ff 0d 3a e6 f6 2d bc
       -0.02836161 -0.0139600765 0.0005416748 -0.010617947
000340 b0 a7 2f 3b b2 2a 87 bb b2 4b 00 3b a7 ab ae 3a
       0.002680283 -0.0041249627 0.0019576368 0.0013326303
000350 c8 30 93 3b e0 02 92 bc 5b 73 83 bc e5 1c e4 ba
       0.004491899 -0.017823637 -0.016046217 -0.0017403631
000360 85 6b 8f 00 32 ab 8a 03 4a 2d 01 00 06 ca 3f a0
       1.3171047e-38 8.1502155e-37 1.08082e-40 -1.6245173e-19
000370 4d 6f 00 80 32 6e 00 80 b1 b9 66 04 f5 ca c2 08
       -3.9927e-41 -3.953e-41 2.7121635e-36 1.1723665e-33
000380 ec c4 cf 82 8d 29 01 00 9b 1a 01 00 1a c3 00 00
       -3.0528944e-37 1.06741e-40 1.0138e-40 6.9989e-41
000390 72 fd 32 9d 0b e0 00 80 67 35 00 00 c5 b4 00 80
       -2.3689132e-21 -8.0371e-41 1.9157e-41 -6.4848e-41
0003a0 8e ef 00 00 6a 55 4b 94 b1 8e 04 bc f1 c9 b8 bb
       8.5936e-41 -1.0265726e-26 -0.008090661 -0.0056393077
0003b0 e1 f2 62 3c af 4f 29 bc e8 1f b2 3c 62 c3 e7 3b
       0.013851852 -0.010333939 0.02174373 0.007072852
0003c0 b9 49 b1 bc 27 06 7c bc 43 19 2c bc e8 5d 00 00
       -0.021641599 -0.015382326 -0.01050407 3.3687e-41
0003d0 13 c4 18 15 0b fe 00 00 93 33 01 00 c7 cd 00 80
       3.085083e-26 9.1133e-41 1.10337e-40 -7.3819e-41
0003e0 ed d1 00 00 cb e3 00 00 fd 9e 00 00 f9 11 ff 23
       7.5307e-41 8.1717e-41 5.7034e-41 2.7654767e-17
0003f0 22 a9 0a a1 57 e0 00 00 e3 60 01 00 be 69 06 80
       -4.6980064e-19 8.0478e-41 1.26592e-40 -5.88946e-40

e_conv3.bias f4 [32]
000000 31 41 0f 3d 1f b1 ef 3c 96 0d 4a b0 a6 83 19 3c
       0.03497428 0.029259263 -7.350648e-10 0.009369766
000010 c8 05 14 3d fe 35 6a b7 f0 58 7c bc 9a 5f df b1
       0.036138326 -1.3960058e-05 -0.015402064 -6.501023e-09
000020 90 13 06 3d 04 9d ca 3b c2 42 01 3d 47 b8 ed b7
       0.0327335 0.0061832685 0.031557806 -2.8338412e-05
000030 f9 94 3e b4 dc 4e 68 a0 a0 29 00 00 2f 34 2a bc
       -1.7749325e-07 -1.9677257e-19 1.4932e-41 -0.010388418
000040 e7 e7 15 3d a3 71 74 bc 18 72 47 3d 5d 53 20 bc
       0.036598112 -0.014919671 0.048692793 -0.0097855
000050 33 dc ea b4 df 8c 78 3c 6d e3 49 ba e4 21 24 bc
       -4.3746113e-07 0.015170305 -0.00077014306 -0.010017846
000060 07 78 2f 3c e2 80 98 b1 61 e2 29 3c 53 85 23 3d
       0.010709769 -4.4384345e-09 0.010368914 0.03992207
000070 ab d5 51 b4 19 63 9c bc ed ff 0b 3d 9e 13 98 bc
       -1.9542374e-07 -0.019090222 0.034179617 -0.018564042

e_conv4.weight f4 [32, 64, 3, 3]
000000 0e e8 aa bb 0c ea 5c 3c 8b 99 3f bd 45 f1 b2 3b
       -0.0052156514 0.0134835355 -0.04677729 0.0054608905
000010 cc ba fe bb 4f c9 0f bc 00 dc 7e 3c 00 b2 9c bb
       -0.0077737328 -0.008776023 0.015555382 -0.0047819614
000020 fa de 76 bc e1 e0 0a a0 3a b2 e3 a7 7e ca 44 a9
       -0.01506781 -1.1763461e-19 -6.319839e-15 -4.3696377e-14
000030 ec fd 9c 28 6e d7 5f a7 3f 4c 1d a8 66 bc 1e 28
       1.74296e-14 -3.1064251e-15 -8.731784e-15 8.811614e-15
000040 ba fb 70 28 56 b6 1c 9c 1c 42 97 39 c7 a1 84 38
       1.3377261e-14 -5.1851734e-22 0.0002885022 6.324384e-05
000050 30 40 81 39 3e 47 51 3a 2b 42 43 3a 33 8e 82 3a
       0.0002465262 0.0007983333 0.00074485195 0.0009960592
000060 6d 30 39 3a 44 21 15 3a bf 91 37 3a 3d 4a 62 05
       0.0007064406 0.0005688856 0.0007002614 1.0640104e-35
000070 5a f2 dd 85 d1 fe c2 0a 79 16 79 84 57 56 8c 05
       -2.0871766e-35 1.8777372e-32 -2.9280128e-36 1.3197253e-35
000080 19 72 dc 03 6a d8 bd 05 19 fa 81 05 ad cb 43 85
       1.2956633e-36 1.7852973e-35 1.2222973e-35 -9.206265e-36
000090 0f 15 db ba ff e1 f0 bb 7e 1a ba bc c7 3c 8b bb
       -0.001671465 -0.0073511596 -0.02271771 -0.0042491886
0000a0 b8 db 26 3d cb c7 71 3a 95 56 03 bd d2 ba f0 bb
       0.040736884 0.0009223192 -0.032064993 -0.0073464895
0000b0 9a 79 24 3b d3 f9 0d bb 70 17 0c 3b 3d a6 2d ba
       0.0025096894 -0.00216638 0.0021376275 -0.00066241977
0000c0 14 01 10 bb fb e5 f9 3a 2c d4 b5 39 6c 24 71 38
       -0.00219733 0.0019065732 0.0003468109 5.7492798e-05
0000d0 56 26 91 3b 54 1e 78 3b 01 1f c0 3a 9e e1 21 3b
       0.004429619 0.0037859874 0.0014657677 0.0024701129
0000e0 fc 6f 05 3b 02 11 bf bb 8f 01 cc 3a af a8 dd b9
       0.0020360937 -0.005830885 0.0015564429 -0.00042278084
0000f0 44 05 11 bb 03 42 4f b7 ad ad e3 39 d3 fe 47 bc
       -0.0022128383 -1.2353531e-05 0.00043426213 -0.012206751
000100 2d c9 84 bc 62 aa c3 bc 2e 13 b3 bc 69 dc 8f 3c
       -0.01620921 -0.023884956 -0.021859732 0.017561154
000110 8b 0a 13 3c 26 95 1d bc 9e 21 e0 3b b3 2b 14 bc
       0.008974682 -0.009618079 0.006839945 -0.009043622
000120 a9 d4 82 bc 72 38 c3 3b 55 52 30 3c 79 63 f8 bb
       -0.015970545 0.0059576565 0.010761817 -0.0075802174
000130 45 3a ca 3c 0b 8d a7 bb af 28 a6 bb 2c 58 10 bc
       0.024685988 -0.005113249 -0.005070768 -0.008810084
000140 79 d5 9b bc 97 35 bc bc c0 4b a4 3a 88 e2 ce bc
       -0.01902269 -0.022974772 0.0012534782 -0.025254503
000150 ab 63 05 3d 39 d7 72 bc 6e 51 9f 3c be 1f 4d 3b
       0.032565754 -0.014821821 0.019448008 0.0031299437
000160 47 ea 4c 3b 4c a2 6a bc 60 34 07 3c f1 22 84 bc
       0.003126757 -0.014320921 0.008252233 -0.016129943
000170 5b 55 bf bb bf 6c 34 bc df 1f 74 3c 9c 98 1f 3d
       -0.0058390326 -0.011012255 0.014900177 0.0389639
000180 c9 d0 0e bc 4c c8 79 3c 57 cd 1f 3b 07 fd 4e 2c
       -0.00871677 0.015245508 0.0024383867 2.941482e-12
000190 47 18 22 2c dd 14 82 ac 06 7d 3d 2c 69 db 74 ac
       2.3035061e-12 -3.6971385e-12 2.6927917e-12 -3.4796283e-12
0001a0 99 76 80 2c 47 dd b8 ab 83 c9 6d 2b 7d ff 01 ac
       3.651146e-12 -1.3135403e-12 8.447897e-13 -1.8473827e-12
0001b0 68 15 80 aa 0b d6 36 2e 17 c4 ef 29 0b 62 37 2a
       -2.275222e-13 4.1572117e-11 1.0647748e-13 1.628768e-13
0001c0 a1 2c 90 a9 09 8a 4d 2d 47 c5 4f aa 2b fa 81 aa
       -6.4026265e-14 1.1683551e-11 -1.8453738e-13 -2.3088592e-13
0001d0 28 7c 22 2d ff db 2f bc cb 14 e0 3c f1 29 17 3c
       9.236202e-12 -0.0107336035 0.027353665 0.009226308
0001e0 0e 99 1e 3c b9 0d 8e 3c 0a 77 b8 bb 5a 56 39 bd
       0.009680046 0.017340528 -0.005629425 -0.045248367
0001f0 34 66 d4 3c ba ec 87 ba ff fe 83 ba 85 3e 16 ba
       0.02592764 -0.0010370233 -0.0010070502 -0.0005731362
000200 1f 3b 44 3a e1 d7 5c b9 06 9f 84 b9 ce 96 1d 3a
       0.00074856164 -0.00021061256 -0.00025295484 0.00060115464
000210 12 e9 66 39 bb 8e 27 ba a6 a7 97 ba b3 14 a5 a6
       0.00022021335 -0.0006391813 -0.0011570349 -1.1454785e-15
000220 6e 4e 06 ae 3f 73 29 27 f7 15 25 26 22 59 30 a7
       -3.0537732e-11 2.3515936e-15 5.727564e-16 -2.4473226e-15
000230 13 2b 27 27 86 fb ff a6 22 b0 56 27 c3 db 00 a7
       2.3199256e-15 -1.7762355e-15 2.9793948e-15 -1.7882701e-15
000240 bf de 8e 3b 5b 8f 3c bd 98 78 b8 bc 23 62 ba bc
       0.0043600495 -0.046035152 -0.022518441 -0.022751873
000250 2f 39 ed bc 86 f8 4a 3c d3 cb 40 3c 9f d2 81 3c
       -0.028957931 0.012388354 0.0117673455 0.015847502
000260 69 56 f6 3c 68 bc 7a 3a b3 d1 75 ba 12 26 98 b8
       0.0300705 0.0009564818 -0.0009377256 -7.255016e-05
000270 e5 60 1b 3b 76 cc fa 39 e4 bf 81 3a 3d 28 ea 3a
       0.0023708877 0.0004783605 0.0009899107 0.0017864775
000280 76 73 e0 38 9e 53 d5 39 e9 38 00 00 84 6d ee 20
       0.000107026586 0.00040688826 2.0416e-41 4.039124e-19
000290 39 4a 00 80 1d 87 00 80 4c e0 98 9e af b8 00 00
       -2.6626e-41 -4.847e-41 -1.6186393e-20 6.6252e-41
0002a0 8c c7 00 00 e5 8a 00 00 29 4a 85 99 00 a9 e9 bb
       7.1584e-41 4.9826e-41 -1.378183e-23 -0.007130742
0002b0 69 81 96 bc ef 85 45 3c 8f 6d ef bb 0f 65 0e 3c
       -0.018372254 0.012055858 -0.0073067616 0.008691086
0002c0 36 53 eb bb 82 c6 73 bb cf eb 2d 3c 5d 88 37 bc
       -0.0071815504 -0.0037197177 0.010615303 -0.011201945
0002d0 fa 21 00 80 23 c4 01 00 36 e0 0c 00 41 98 76 8c
       -1.2188e-41 1.62196e-40 1.182458e-39 -1.8996968e-31
0002e0 ad 0d 38 0b 57 45 01 80 f2 08 08 00 0e bf 62 98
       3.54474e-32 -1.1671e-40 7.37893e-40 -2.9306273e-24
0002f0 bb 12 22 00 ce e0 79 3b 28 7a 09 ba c3 d6 c8 ba
       3.129126e-39 0.0038128379 -0.0005244338 -0.0015322793
000300 ec 7d 23 3b a3 63 e2 ba 14 3f 4b bb 4b 3b 35 3b
       0.0024946881 -0.0017272126 -0.003101294 0.002765375
000310 bc ec 86 ba 42 6e e8 ba 4e 5e 00 00 21 3c ba 24
       -0.0010293941 -0.0017733055 3.383e-41 8.0766504e-17
000320 c3 6f 01 00 7a c1 00 00 6b 9a 00 80 c4 30 00 00
       1.31928e-40 6.9406e-41 -5.5395e-41 1.7494e-41
000330 85 01 bd 19 d8 0b 00 00 87 0a 00 80 04 b9 30 ba
       1.9542756e-23 4.249e-42 -3.776e-42 -0.00067414367
000340 26 de 81 bb ef 35 3f 3a 5d 40 c7 bb 60 8c 16 bb
       -0.0039632497 0.00072941085 -0.0060806707 -0.0022971854
000350 89 31 59 3b 34 94 28 bb 9a 1f 3c 3a a8 b2 96 3a
       0.0033141098 -0.0025723102 0.000717634 0.0011497336
000360 1f c2 00 00 55 a9 00 00 70 86 00 80 88 ab 00 00
       6.9638e-41 6.0745e-41 -4.8227e-41 6.1534e-41
000370 c0 06 00 80 ab 04 00 00 aa d2 00 80 57 3e 01 80
       -2.421e-42 1.675e-42 -7.5572e-41 -1.14199e-40
000380 13 76 00 80 bb 95 92 3b 8f b1 1c bb 69 c8 f1 b9
       -4.2357e-41 0.0044734157 -0.0023909544 -0.0004611642
000390 6f 4a 92 3b c8 85 33 bb 17 a8 33 ba 98 43 21 3b
       0.0044644396 -0.0027392972 -0.00068533554 0.002460694
0003a0 dd a8 97 bb 66 7d 02 bb 68 ae 30 3c 62 b8 6f bc
       -0.0046282844 -0.001991117 0.010783769 -0.014631363
0003b0 7c d2 aa ba 23 76 8d bb 8b 93 c8 bb e8 e1 01 3c
       -0.00130327 -0.0043170615 -0.006121104 0.007927395
0003c0 aa 91 60 3c 43 3b 98 3c b5 e2 3b 3c 1e bc e3 07
       0.013706604 0.018582946 0.011467625 3.426573e-34
0003d0 a5 66 cf 14 52 c5 27 0d 5d ea f1 90 20 a9 2c 01
       2.0942145e-26 5.1698364e-31 -9.541883e-29 3.1712752e-38
0003e0 e0 e7 b9 84 a7 a9 84 91 5f d7 7f 85 fc 60 95 86
       -4.3706235e-36 -2.0930484e-28 -1.20296e-35 -5.6190076e-35
0003f0 e6 9b 00 80 6e c9 00 80 6d b2 00 00 17 81 00 80
       -5.5926e-41 -7.226e-41 6.4007e-41 -4.6309e-41

e_conv4.bias f4 [32]
000000 c2 ac 06 3d 2e 0b 98 3a ed 98 c1 bc 64 2d 17 9f
       0.0328796 0.0011600011 -0.023632491 -3.201304e-20
000010 80 35 89 3c 92 bc 83 3c f4 4f 4a 3c c5 13 70 3c
       0.016749144 0.016081128 0.012348164 0.014653151
000020 08 19 d1 b1 4f 0c 15 b9 39 ae 35 3c d7 af d6 3c
       -6.0855463e-09 -0.00014214333 0.011088901 0.026206894
000030 d8 47 a2 3c b1 1e c4 3b 89 4b b9 3c 30 3e 47 3c
       0.019809648 0.005985104 0.022619026 0.012160823
000040 5f b0 86 bc b3 a3 17 3d 29 0c 20 ba d2 51 ff 3c
       -0.016441522 0.03702135 -0.00061053276 0.031166945
000050 e6 95 23 bb bb 9c 31 b9 36 16 60 3c 32 95 d4 b9
       -0.0024961173 -0.00016938422 0.0136771705 -0.0004054695
000060 e1 ae fa ae 33 04 16 3d b5 b7 d8 3a 65 e2 00 3d
       -1.13997485e-10 0.0366251 0.0016534241 0.031465907
000070 fa dc e8 3c 74 a6 5c 3c 05 4f a9 b7 d4 70 b8 3c
       0.028425682 0.01346742 -2.0183166e-05 0.022514738

e_conv5.weight f4 [32, 64, 3, 3]
000000 77 65 c6 3b cf a7 dc 3b 72 c4 05 3c 1c 85 0d 3c
       0.006054576 0.0067338715 0.008164512 0.008637693
000010 0c a5 04 3c ba 45 e9 3b cc 3e f9 3b 89 6b ff 3b
       0.008095991 0.0071189078 0.007606363 0.0077948016
000020 76 ea b8 3b 5a 49 39 3c 92 62 a3 3b 91 1b 06 3c
       0.0056431843 0.011308992 0.0049861157 0.008185283
000030 ad 31 d8 3b dd c7 6b 3a 0d dc ba 3a e6 23 46 3b
       0.0065977187 0.00089943205 0.0014256254 0.00302338
000040 09 59 1b ba 2b 95 f5 39 d3 1b c6 13 2c ac 00 00
       -0.0005926048 0.0004684118 5.0009664e-27 6.1764e-41
000050 dc 22 00 00 b3 c9 00 00 6d 4b 00 00 ce 20 01 00
       1.2505e-41 7.2356e-41 2.7058e-41 1.03604e-40
000060 bf 41 57 0b 87 e5 00 80 0d 98 14 05 b9 90 53 3c
       4.1456956e-32 -8.2339e-41 6.986854e-36 0.012912923
000070 ab 3d 13 bb 98 07 96 3c 18 b5 83 3b 48 e2 46 3c
       -0.0022467177 0.018314168 0.004019391 0.012138911
000080 20 5a 89 3c 73 7c 5e bb b9 37 60 3c f1 04 5b 3c
       0.016766608 -0.003394869 0.01368516 0.013367877
000090 b3 ce 57 3c bc c9 0b 3c 90 f7 11 3b 67 28 70 3c
       0.0131718395 0.008531984 0.0022272803 0.01465807
0000a0 3e 1b b8 bb 98 83 a1 3b 17 59 91 bc 57 ea 47 bc
       -0.005618482 0.0049290173 -0.017742677 -0.012201867
0000b0 44 a7 98 bc 7b ab 00 80 b6 bc 00 80 e4 34 00 00
       -0.018634446 -6.1516e-41 -6.7697e-41 1.8974e-41
0000c0 3b 54 01 00 80 f2 00 80 09 b9 00 80 75 0a 09 00
       1.22052e-40 -8.6993e-41 -6.6378e-41 8.30271e-40
0000d0 32 91 00 80 8f 2a 82 13 a6 ac 06 3c 65 c3 31 3c
       -5.2086e-41 3.285858e-27 0.0082198735 0.010849808
0000e0 36 da 27 3c 19 f1 fb 3b df b5 16 3c d2 c4 18 3c
       0.010244897 0.007688653 0.009198635 0.009324269
0000f0 8c 96 b1 3b d4 ba db 3b b1 25 20 3c 6c dd ff ac
       0.005419558 0.0067056213 0.009774611 -7.2721187e-12
000100 9d 50 8e ad 51 23 9d ae 52 b5 10 ad b9 b9 1b 2d
       -1.617933e-11 -7.145807e-11 -8.2257135e-12 8.851969e-12
000110 c6 31 48 2e 86 1d 09 2d 29 47 c5 2d c5 25 8c 2d
       4.5518943e-11 7.794104e-12 2.2427908e-11 1.593293e-11
000120 66 b4 cc bc 5a fa 66 3c 0a 0c e5 bc e7 b2 b7 bc
       -0.024988364 0.014097774 -0.027959842 -0.022424174
000130 ea f6 da 3c 2c 94 8e bc 98 19 3a 3c 33 db 9a bc
       0.026729066 -0.017404638 0.011358641 -0.01890335
000140 1d a8 46 3c 12 9a b6 3c 7f 77 14 bb be 8f 61 bc
       0.012125042 0.022290263 -0.0022654233 -0.013767181
000150 4a ca 29 3c 5a 5b b9 bc 6f eb fd bb fc b9 bf bb
       0.010363171 -0.022626568 -0.007749013 -0.0058510285
000160 21 da 37 3b e5 89 b2 3a b6 fa ad ba 7e 7b 4c 3b
       0.00280536 0.0013621418 -0.001327357 0.0031201537
000170 9c fe 7a 3c 11 d5 c8 b9 64 ac 49 3b 12 f7 92 3c
       0.015319493 -0.0003830572 0.0030772919 0.017940078
000180 ec 91 23 3b c1 09 06 3c 14 31 db 3c b3 09 01 80
       0.0024958802 0.008181036 0.0267568 -9.5315e-41
000190 8e eb 00 80 c3 45 14 26 04 b2 00 80 29 db 00 80
       -8.4501e-41 5.144236e-16 -6.386e-41 -7.862e-41
0001a0 56 b5 9b 02 e7 8b 00 00 93 ec 00 80 43 51 00 00
       2.2879285e-37 5.0188e-41 -8.4867e-41 2.9151e-41
0001b0 b9 40 00 00 fb 7f 81 b1 5e b6 b6 00 c1 f8 00 80
       2.3218e-41 -3.768944e-09 1.6779481e-38 -8.9236e-41
0001c0 a8 16 21 17 78 1a 00 00 e2 4d 00 00 9f 4a 00 80
       5.20505e-25 9.495e-42 2.7939e-41 -2.6769e-41
0001d0 42 88 00 80 a5 11 00 00 a9 84 1a 09 78 99 00 00
       -4.888e-41 6.33e-42 1.8599452e-33 5.5054e-41
0001e0 14 bd 00 80 10 fa 00 00 2e 5d 00 00 15 2c 00 80
       -6.7828e-41 8.9706e-41 3.3427e-41 -1.5814e-41
0001f0 f0 04 26 14 18 b7 e4 26 35 9c ac 21 4b 8f 00 00
       8.381832e-27 1.5870306e-15 1.1696521e-18 5.1404e-41
000200 3a 9c 15 83 16 2a 00 00 b5 71 00 81 25 27 00 80
       -4.3966504e-37 1.5098e-41 -2.3591468e-38 -1.4042e-41
000210 68 3f 00 80 a1 1d 00 80 8a 12 1d a2 07 e7 00 80
       -2.2746e-41 -1.0629e-41 -2.1287282e-18 -8.2877e-41
000220 72 27 27 00 0a 8a 00 00 cd bf 00 80 5a 58 34 89
       3.595735e-39 4.9519e-41 -6.8805e-41 -2.1708255e-33
000230 63 7c df 90 06 77 a8 94 f8 f8 02 80 46 e9 00 00
       -8.814964e-29 -1.7010611e-26 -2.72984e-40 8.3683e-41
000240 06 71 a3 bb 54 46 78 ba 51 af 02 3b 73 d6 b5 bb
       -0.0049878387 -0.0009470929 0.0019940923 -0.005549246
000250 6a 9a 4e ba d8 96 f7 3a 33 69 0c bb d9 5d 42 3b
       -0.0007881286 0.001888956 -0.0021425008 0.0029657988
000260 9e 30 99 3b 92 e7 f0 bc d2 4c 3a 3c 50 63 e1 3c
       0.004674985 -0.029407296 0.011370854 0.027513176
000270 8d f8 0b 3b 6f 5a 87 3c 50 64 52 bc 1f 8e 54 3c
       0.0021357865 0.016522614 -0.012841299 0.012973337
000280 e1 ce 43 bc 66 e8 8c bc 56 2d 85 b9 0c e4 76 ba
       -0.011951179 -0.01720066 -0.00025401515 -0.0009418137
000290 11 fa a0 3b 3e b9 aa 38 29 f5 51 b7 88 f6 c0 3b
       0.0049126227 8.140736e-05 -1.2514452e-05 0.005888764
0002a0 92 75 00 3b 36 5d 7a 3a b0 96 a9 3b 3d 54 70 bc
       0.0019601327 0.00095506327 0.005175434 -0.0146685215
0002b0 5c 5e 17 3c f5 2c b3 3c f5 a9 8d 3c 98 2c ad 3b
       0.009238806 0.021872023 0.017292956 0.005284857
0002c0 7c 24 11 3a ae 59 6b bc 6f eb 8d bb 7b 69 17 3b
       0.00055367476 -0.014364643 -0.0043310444 0.0023103643
0002d0 c4 bf c0 a3 d4 4f 2c ac be 43 00 80 a2 c2 00 80
       -2.0897898e-17 -2.4486984e-12 -2.4301e-41 -6.9821e-41
0002e0 e2 14 00 00 85 2a 23 93 a3 1c 03 80 5c 24 00 00
       7.491e-42 -2.0594456e-27 -2.8578e-40 1.3043e-41
0002f0 b7 a5 00 00 87 20 eb bb 98 04 ab bb 5e 8f bf bb
       5.9447e-41 -0.0071755084 -0.0052190535 -0.005845948
000300 9e eb 26 ba f5 9c 8f ba d9 be a0 bc af 30 f2 39
       -0.0006367507 -0.0010956811 -0.019622253 0.0004619411
000310 68 9b ac ba 22 11 2c 3b 6e 7d b9 b9 8b 40 43 3b
       -0.0013168873 0.002625533 -0.00035379402 0.002979311
000320 90 f9 a2 3c cb 84 1e 3c 5c b1 47 3c 03 a8 73 bc
       0.019894391 0.009675215 0.012188282 -0.0148716
000330 28 7a 4a bb 2a b4 f4 bb ba 8a ab bc 3a 0c 0d bc
       -0.0030895565 -0.0074677663 -0.020940173 -0.008608872
000340 2d 28 3c 3c 50 3f c0 3b c0 97 a5 3c bc 05 09 bc
       0.011484188 0.0058669224 0.020213962 -0.008363184
000350 e8 4b dc 3a 25 0a b0 bc 4c 21 eb 3c b4 26 b8 bc
       0.001680729 -0.021489212 0.0287024 -0.022479393
000360 bc e7 9d 3c 52 e9 2a 3d d8 ba 2f bd cd d8 c4 3a
       0.019275539 0.041726418 -0.042902797 0.0015018225
000370 96 f7 7e bc dd cf b1 bb 48 f2 06 bd c1 9d 1b bd
       -0.015561959 -0.0054263906 -0.0329459 -0.037992243
000380 e3 57 72 3c 99 1e d0 a8 d6 c5 00 00 1f 20 00 00
       0.014791462 -2.3105909e-14 7.097e-41 1.1523e-41
000390 aa 4f 07 00 70 5c 05 80 51 ae 08 80 e0 08 01 80
       6.71427e-40 -4.92338e-40 -7.97217e-40 -9.5019e-41
0003a0 83 39 0f 00 7e 03 07 00 a0 5d 06 3b 37 c9 e6 3b
       1.398164e-39 6.44101e-40 0.0020502582 0.0070430296
0003b0 3d 02 ec 3b 2f bb 49 3a 34 0a b8 3b 5c 87 b8 3b
       0.0072024153 0.0007695434 0.0056164507 0.0056313705
0003c0 84 dc 97 ba b5 dc 71 3b c5 2b 7c 3b 48 9a 89 bc
       -0.0011586105 0.0036905233 0.0038478237 -0.0167972
0003d0 8d b8 49 bc 17 41 ce bb 9d 83 22 bc e1 cf 1c 3b
       -0.012312067 -0.0062943804 -0.009919074 0.0023927616
0003e0 1a c8 2c 3d a8 54 49 3c 12 30 69 bc 0f 30 f4 3a
       0.04218302 0.01228825 -0.014232652 0.0018630045
0003f0 e4 21 4e 1d b4 84 00 80 01 a9 00 80 61 9a 00 80
       2.7281394e-21 -4.7605e-41 -6.0627e-41 -5.5381e-41

e_conv5.bias f4 [32]
000000 24 d6 a7 3c 03 01 2b ba e5 71 48 b2 ec 30 b3 3b
       0.020487852 -0.0006523283 -1.1667429e-08 0.0054684784
000010 02 13 98 b1 43 4c ad 3b 55 a9 61 3b f1 27 eb 3c
       -4.425943e-09 0.005288632 0.0034433205 0.028705569
000020 06 bc 0b 3c 78 fe 4d ba 9f 90 2d 3d 69 c4 e7 3c
       0.008528715 -0.0007858048 0.04237425 0.028291898
000030 ef 02 13 ae d7 1f 64 bb 7f 8e d8 3c f0 e6 0d 3d
       -3.3426536e-11 -0.0034809017 0.026435135 0.034644067
000040 91 81 f1 3a 5f 19 99 ba 98 73 f4 ad 6d c9 e4 3b
       0.0018425455 -0.0011680535 -2.7790922e-11 0.0069820196
000050 94 3f d1 3c 1f cb ed 3c 67 bf 18 3c dd fb 3d b4
       0.025543012 0.02902752 0.009322978 -1.7693624e-07
000060 3f 63 9c 3c 3a 86 59 b0 d3 de 97 3c ab 3a 12 3c
       0.019090293 -7.913489e-10 0.018538868 0.00892512
000070 99 7b 19 3d a2 50 8e ba 31 ee bc b8 e9 73 00 00
       0.037471388 -0.0010857771 -9.008905e-05 4.1581e-41

e_conv7.weight f4 [8, 64, 3, 3]
000000 e0 cc 61 bb f2 18 ad 3b f5 53 de b9 e3 95 33 3c
       -0.003445439 0.0052825147 -0.00042405693 0.010961029
000010 9e dd c8 3b b5 97 b3 3b 02 34 3c 3c 23 72 89 3b
       0.0061299345 0.0054807314 0.011487009 0.0041945144
000020 d7 af f7 3b 5e 75 0a 3b c5 3f a8 3b bc e5 1c 3c
       0.0075588035 0.0021127085 0.005134555 0.009576257
000030 aa 79 ba 3b 3b ea ef 3b a3 66 46 3c af a1 ba 3b
       0.005690773 0.0073216236 0.012109431 0.0056955437
000040 8f 71 0d 3c e7 cf 5e 3c 88 bb 00 80 5e 8e ad 20
       0.0086330315 0.0135993725 -6.7274e-41 2.940155e-19
000050 e8 91 00 00 91 2c 00 00 e4 94 00 80 ef e0 00 00
       5.2341e-41 1.5987e-41 -5.3412e-41 8.0691e-41
000060 43 f0 00 80 e5 02 00 00 6c d3 a2 a7 e8 af 00 00
       -8.619e-41 1.038e-42 -4.5193257e-15 6.3103e-41
000070 a3 e4 00 80 d2 1b 61 13 c4 a9 ad 87 0e c8 02 86
       -8.202e-41 2.841271e-27 -2.6129926e-34 -2.459726e-35
000080 9c bf 12 80 19 40 fe 09 ef 0e 19 89 15 5a 00 80
       -1.721775e-39 6.1208553e-33 -1.8423727e-33 -3.2315e-41
000090 39 80 5f ba c8 b7 b2 b9 af 3e 02 bc 61 f1 e0 3b
       -0.00085258816 -0.00034087733 -0.007949515 0.006864712
0000a0 82 c7 00 3b c7 3b 11 ba 5c 6b 0b 3b 06 64 77 3b
       0.0019650166 -0.00055402186 0.0021273708 0.0037748828
0000b0 fa 21 69 ba 8d fb 24 bc 27 4a 16 bc 24 9b fa ba
       -0.00088933075 -0.01006974 -0.009172953 -0.0019119722
0000c0 8d c7 39 ba 4c c3 bc 3b 4b 67 d9 3b 01 92 57 3b
       -0.00070869253 0.005760586 0.006634628 0.0032893422
0000d0 00 0f 0e 3c 44 7e 73 3c ed b7 53 3c ec 78 f3 3b
       0.0086705685 0.014861647 0.012922269 0.0074301865
0000e0 78 ea fb 3b 7e 7a 88 bb 38 4d 03 3c fd da cb 3a
       0.007687863 -0.004164993 0.008014016 0.0015552934
0000f0 00 f7 ac 3b ce 2f 9b 3b 77 c2 d9 3b 9b 48 5f bc
       0.005278468 0.0047359234 0.0066454965 -0.01362815
000100 d4 a0 be bc 2a aa 00 bd 9a 41 c5 bb 4f 00 7e bc
       -0.023270048 -0.03141228 -0.006019783 -0.015503003
000110 62 b3 c1 bc 7e 58 ba 3b 56 c1 d6 bb 0e 11 7d bc
       -0.023645107 0.0056868186 -0.006553809 -0.015445961
000120 72 23 0c ac 86 43 14 2c 99 bc 65 aa 86 09 a1 2b
       -1.9914873e-12 2.1069548e-12 -2.0404719e-13 1.1442381e-12
000130 d6 39 dd 2b ec 2a 78 2a 3f a9 64 aa 0d ff 14 2c
       1.5719047e-12 2.2041716e-13 -2.0309187e-13 2.1173647e-12
000140 92 bf 27 aa a7 a9 00 80 e7 88 00 80 53 bc 00 00
       -1.4899044e-13 -6.086e-41 -4.9111e-41 6.7558e-41
000150 0d ff 00 80 48 69 2b 0f c4 09 01 00 ac 04 00 00
       -9.1495e-41 8.451227e-30 9.5339e-41 1.676e-42
000160 92 7f 01 80 c3 8e 27 13 c4 a0 5d ba 39 75 42 3a
       -1.37599e-40 2.114875e-27 -0.0008454437 0.000741798
000170 12 23 5d 39 f2 52 2a 3a 5d fd 12 3b 4f ff 04 3b
       0.00021089267 0.0006497345 0.0022428848 0.0020293777
000180 d1 f4 7c bb ef 43 17 bb ea fc 29 bb 60 23 fa bb
       -0.003859807 -0.0023081263 -0.0025938102 -0.0076336116
000190 9b dc df bb be dd 18 bc cf b9 41 bb 64 4c 71 ba
       -0.006831718 -0.009330211 -0.0029560213 -0.00092048035
0001a0 dd aa a7 bb 35 81 50 bb e1 b6 56 bb ce 14 f9 bb
       -0.005116804 -0.0031815295 -0.0032762813 -0.007601357
0001b0 ed bc df 39 9f c4 db 3b d6 f5 c1 3b 5d 29 25 3b
       0.00042674635 0.0067067887 0.0059191985 0.0025201656
0001c0 54 74 0a 3c 04 c3 f2 3b eb e8 ee bb 60 cd ab ba
       0.008450586 0.0074085016 -0.0072909496 -0.0013107471
0001d0 8a 41 20 bb a3 5b 9f bc 21 da a7 bc f9 47 10 bc
       -0.0024453127 -0.019452875 -0.020489754 -0.008806222
0001e0 b2 ff 97 bc 44 66 a4 bc 14 2d 02 bc 71 be c2 bb
       -0.018554542 -0.020068295 -0.007945318 -0.0059431125
0001f0 c6 8a f0 bb 95 79 cf 3b a4 c9 0a bb 44 4f c1 3b
       -0.007340762 0.0063316324 -0.0021177316 0.005899342
000200 de 89 d3 3a e9 11 10 3b 70 b8 3e 3b 31 e6 d2 3b
       0.001613911 0.0021983332 0.0029101633 0.0064361324
000210 ef 98 a6 3a 78 fe 22 3c 27 79 ed 3b 11 9e 99 bb
       0.0012710373 0.009948365 0.0072471085 -0.0046880324
000220 81 d1 47 ba 46 0b 79 bb 8e c6 22 3b 42 b8 d6 ba
       -0.0007622466 -0.0038001104 0.0024837586 -0.0016381817
000230 23 ba d6 ba 47 8a 8e 3a bf 37 3e bb 2a 32 e3 ba
       -0.0016382377 0.001087495 -0.0029024926 -0.0017333676
000240 6f 0e 01 80 3c cb 00 00 a0 b0 01 00 a3 c2 00 80
       -9.7013e-41 7.2907e-41 1.55197e-40 -6.9822e-41
000250 b9 34 00 00 0c ad 4f 93 fe e4 00 80 6e 1e 00 80
       1.8913e-41 -2.6212392e-27 -8.2147e-41 -1.0916e-41
000260 c9 1b 00 00 f8 77 5a 3c d7 4b 29 3d cd d4 be 3c
       9.967e-42 0.013334267 0.041332092 0.02329483
000270 da 03 08 3d 55 be 77 3d 5d ea 31 3d 4c 88 35 3a
       0.033206798 0.06048425 0.043436397 0.0006924912
000280 29 e1 ea 3c 59 1a 31 3c b5 c0 00 00 35 8b 00 00
       0.028671818 0.010809504 6.913e-41 4.9938e-41
000290 fa e4 00 80 c3 d2 01 80 ba c6 00 80 8f 0c 01 00
       -8.2141e-41 -1.67443e-40 -7.129e-41 9.634e-41
0002a0 7c 33 00 00 4e 49 d2 29 4e d9 00 00 ac d2 54 bc
       1.8469e-41 9.33859e-14 7.7954e-41 -0.012989681
0002b0 38 68 91 bb 49 d9 28 bc 2f 22 41 bc 64 a2 8a bb
       -0.0044374727 -0.010305711 -0.011787935 -0.0042307843
0002c0 56 df 41 bc ff 22 91 bc 82 c9 40 bc 75 54 99 bc
       -0.011833033 -0.017716883 -0.011766793 -0.01871703
0002d0 51 f9 8d bb cb a9 8b 3a f6 c7 94 ba f2 5d 6b 3a
       -0.0043326993 0.0010655461 -0.0011351097 0.00089785375
0002e0 e2 b6 ce 3b 1f cd 8f 3b c4 a0 05 b9 94 df ac 3b
       0.0063084224 0.004388466 -0.00012743758 0.005275676
0002f0 8e 16 50 3b 40 20 01 80 49 1f 00 80 25 82 07 80
       0.0031751725 -1.03405e-40 -1.1223e-41 -6.89536e-40
000300 cd c8 00 00 0c 3c 00 00 bf 86 3a 07 e5 ee ab 20
       7.2034e-41 2.1541e-41 1.4032683e-34 2.9126614e-19
000310 07 48 05 00 d3 83 01 80 5f 56 82 ba c4 28 47 3b
       4.85016e-40 -1.39125e-40 -0.0009943953 0.0030389288
000320 16 7c c9 bb f4 77 c5 3b 24 2d 1c 3c fd 3f 48 3a
       -0.0061488254 0.0060262624 0.009532247 0.00076389295
000330 ea 41 ae 3b 8e b8 07 3c 29 ae 3e ba 87 18 00 80
       0.005317916 0.008283747 -0.00072738767 -8.799e-42
000340 84 ed 00 80 e4 dd 00 00 e3 3a 00 80 f0 40 01 80
       -8.5205e-41 7.96e-41 -2.1125e-41 -1.1513e-40
000350 99 90 00 00 e0 a6 00 80 5d fa 00 00 02 62 00 00
       5.1872e-41 -5.9863e-41 8.9813e-41 3.5159e-41
000360 bf 6f 79 27 a3 09 e1 a5 b1 46 87 29 e4 fc b6 27
       3.461627e-15 -3.9037808e-16 6.007467e-14 5.0789332e-15
000370 0b 2a 80 27 29 f0 04 a8 8f ac b6 26 0d 22 f9 a6
       3.557272e-15 -7.379548e-15 1.2675559e-15 -1.7287075e-15
000380 f0 b1 cd 28 ee 43 c0 3b 6c 76 26 3c e0 18 5a 3a
       2.283674e-14 0.005867473 0.01016007 0.00083197467
000390 64 ce a1 3b ff 6f d9 3b 80 91 9b 39 db 18 6a ba
       0.0049379338 0.0066356654 0.0002967231 -0.00089300954
0003a0 a1 d1 eb 3a 1c ff a3 bb 08 be e9 bb 64 86 f2 3b
       0.0017991551 -0.0050047766 -0.007133249 0.0074012745
0003b0 b2 d0 30 3d 12 01 2a bd 59 58 d1 bc 5b fa 08 3c
       0.043167777 -0.041504927 -0.025554823 0.008360471
0003c0 08 a6 67 bd ac 86 20 bd 46 80 3b bb 63 1f 03 3c
       -0.056554824 -0.039190933 -0.0028610392 0.008003089
0003d0 aa fa cb 3b 54 21 8a 3b 8f 7c 2b 3c 78 13 00 3c
       0.00622495 0.004215399 0.010466709 0.007817142
0003e0 8c 36 14 3c b9 12 d9 3b b6 ea 57 3c fe 75 f0 3b
       0.009046208 0.0066245464 0.013178518 0.0073382845
0003f0 d7 4b 36 bc c2 f6 9d 3c cb ad 50 bc a4 45 a4 3c
       -0.01112648 0.019282702 -0.012736748 0.020052738

e_conv7.bias f4 [8]
000000 fa d9 46 3c 41 9b 08 bb 59 fb 2e 3d 0a d0 bf 3c
       0.012136931 -0.0020844492 0.042720173 0.02341463
000010 ce a5 01 3b 65 13 22 3c 85 2c 43 bb 0d 60 60 bc
       0.0019782665 0.009892319 -0.0029781174 -0.013694775
