snapshots/Epoch72.pth (torch, 304045 bytes, 14 tensors)

e_conv1.weight f4 [32, 3, 3, 3]
4.5754e-41 -4.8097e-41 1.07729e-40 7.3142e-41 5.0112e-41 5.558e-42 3.0418e-41 6.7296e-41
2.0682e-41 1.9784e-41 1.5858e-41 -7.6179e-41 3.7737e-41 -1.05757e-40 5.1454e-41 -8.5978e-41
-1.49272e-40 6.5954e-41 -5.3322e-41 2.2966e-41 1.2829e-41 1.6827e-41 5.907e-41 1.8811e-41
6.611e-41 -3.129e-41 6.8442e-41 -0.002027378 0.0023782076 -0.012613274 0.012785619 0.010849945
0.013430629 0.029953076 0.019551424 0.02996067 0.00804033 -0.0064263633 0.029117076 0.0053333873
0.01430228 0.017169952 0.034967653 0.036594965 0.025612662 -0.009533062 -0.008463869 -0.028331783
-0.0051133805 -0.009415331 -0.019471664 -0.00869591 -0.0076709306 0.018208507 -0.011928398 -0.04073946
-0.016049031 -0.004257506 -0.027442677 -0.021703608 2.7422724e-05 -0.010675849 -0.010160538 -0.0033778097
0.009255872 0.005780998 -0.0033940675 0.0067722467 0.0037389365 0.040891178 0.021065775 -0.018222822
0.028488446 0.033665814 0.028898435 0.03891269 0.029262183 0.038346417 0.03754337 0.019520296
0.02032618 -0.002424007 0.011872738 0.0063557373 -0.023306115 -0.007273787 0.005484101 -0.01943473
-0.01349769 0.025446255 -0.027864913 0.008313778 0.01133027 -0.012370751 -0.0033784031 0.008235142
-0.032754906 0.008290324 0.023689033 -0.005203649 0.0031936648 -0.0062631755 -0.008700448 0.01374097
0.00017622863 -0.024110653 0.0054973224 0.026388276 0.015385679 0.016373081 0.05069856 0.015592266
0.007966078 0.036153078 -0.0015870847 -0.009682695 0.016392408 0.020916298 0.023494529 0.0488098
0.0055672014 -0.0035893873 0.011810619 -0.0011721622 0.0152509855 0.031231208 0.011650296 0.0074523375
0.035511676 -0.023889387 -0.015377814 0.0067386897 -0.035658803 -0.012617369 0.0021203263 -1.34156e-40
1.557e-40 1.206e-40 -5.1412e-41 -9.0762e-41 1.1428e-41 -6.8736e-41 -9.0752e-41 -5.8747e-41
-5.824e-41 -7.0244e-41 3.8593e-41 5.1276e-41 -8.8216e-41 7.3176e-41 -6.0291e-41 2.2522e-41
-7.557e-42 -2.19e-41 -1.6167e-41 -1.2268e-41 4.6702e-41 1.2177e-41 -8.6247e-41 -7.6326e-41
-1.1828e-41 -1.77605e-40 0.038760446 0.010122422 -0.018309793 0.022489058 0.008198306 -0.035843194
0.028687771 0.00059337204 -0.022431772 0.045516975 0.031463493 -0.031065747 0.025047563 0.011975383
-0.010633806 0.019518474 -0.028435702 -0.050396882 0.015661877 -0.0055902656 -0.019880772 0.0075698155
0.005176267 -0.014647005 0.032221507 -0.016568197 -0.04967414 6.6873e-41 1.7543e-41 7.5842e-41
4.1913e-41 5.4794e-41 7.2852e-41 -4.2976e-41 -1.14116e-40 6.2457e-41 -4.3664e-41 -5.0838e-41
-2.7583e-41 3.2046e-41 5.0253e-41 -7.4633e-41 -7.301e-42 -1.11913e-40 -1.08291e-40 -6.8945e-41
2.2545e-41 -2.4821e-41 -8.7702e-41 -3.5011e-41 -1.1706e-41 1.1362e-41 6.5347e-41 3e-44
6.0912e-41 -2.0166e-41 -7.2835e-41 -2.8629e-41 2.1996e-41 -5.4345e-41 5.2053e-41 -1.3396e-41
-1.824e-42 7.9215e-41 -6.4991e-41 1.4691e-41 8.5729e-41 -3.538e-41 -2.368e-41 7.4316e-41
-6.6209e-41 -7.226e-41 1.5605e-41 -1.214e-42 -1.7806e-41 8.311e-41 2.863e-42 6.6301e-41
-5.0329e-41 -1.862e-42 5.7804e-41 -0.047627244 -0.022826968 -0.048461586 -0.028135719 -0.017811669
-0.01682167 -0.012861966 0.0135378605 0.007155845 -0.045814555 -0.008364275 -0.030576915 -0.019776223
00000000: 8b7f 0000 1386 0080 4e2c 0100 e4cb 0000
00000010: b18b 0000 7e0f 0000 cb54 0000 98bb 0000
00000020: a739 0000 2637 0000 352c 0000 5bd4 0080
00000030: 3269 0000 cf26 0180 6f8f 0000 acef 0080
00000040: 1ca0 0180 dab7 0000 a494 0080 0540 0000
00000050: c323 0000 e82e 0000 aaa4 0000 7034 0000
00000060: 4ab8 0000 3957 0080 cabe 0000 c2dd 04bb
00000070: b4db 1b3b e8a7 4ebc c67a 513c f8c3 313c
00000080: 240c 5c3c 2760 f53c 4f2a a03c 1470 f53c
00000090: 97bb 033c 3e94 d2bb ef86 ee3c b2c3 ae3b
000000a0: 1c54 6a3c 00a8 8c3c 3e3a 0f3d 9ae4 153d
000000b0: a5d1 d13c 8f30 1cbc 0aac 0abc 0e18 e8bc
000000c0: 258e a7bb c342 1abc 0a83 9fbc 4a79 0ebc
000000d0: 6e5c fbbb 022a 953c 546f 43bc 6cde 26bd
000000e0: 4279 83bc 8d82 8bbb 77cf e0bc c4cb b1bc
000000f0: da09 e637 c2e9 2ebc 6378 26bc 3e5e 5dbb
00000100: f1a5 173c 876e bd3b 016f 5ebb b9e9 dd3b
00000110: f208 753b 827d 273d 2292 ac3c 0748 95bc
00000120: 9a60 e93c 2ae5 093d 69bc ec3c ea62 1f3d
00000130: 3fb7 ef3c 2211 1d3d 14c7 193d 07e9 9f3c
00000140: 1783 a63c 17dc 1ebb df85 423c ca43 d03b
00000150: 77ec bebc f358 eebb f9b3 b33b 9535 9fbc
00000160: 6a25 5dbc aa74 d03c f544 e4bc 8336 083c
00000170: 99a2 393c b1ae 4abc 3368 5dbb b0ec 063c
00000180: 022a 06bd 24d4 073c 810f c23c 5f83 aabb
00000190: ce4c 513b 533b cdbb 538c 0ebc ce21 613c
000001a0: 03ca 3839 b483 c5bc e222 b43b 3a2c d83c
000001b0: 3714 7c3c d720 863c 4ba9 4f3d b476 7f3c
000001c0: 2784 023c 4015 143d ba05 d0ba 2ba4 1ebc
000001d0: 5f49 863c a858 ab3c 9977 c03c c9ec 473d
000001e0: 126d b63b ed3b 6bbb 5481 413c 3da3 99ba
000001f0: 45df 793c 97d8 ff3c e2e0 3e3c bd32 f43b
00000200: b174 113d adb3 c3bc 3af3 7bbc 3ad0 dc3b
00000210: f70e 12bd 15b9 4ebc 2cf5 0a3b f975 0180
00000220: 07b2 0100 2f50 0100 518f 0080 02fd 0080
00000230: db1f 0000 9cbf 0080 fbfc 0080 c3a3 0080
00000240: 59a2 0080 d0c3 0080 956b 0000 f08e 0000
00000250: e9f5 0080 fccb 0000 11a8 0080 c83e 0000
00000260: 1115 0080 0c3d 0080 112d 0080 3322 0080
00000270: 3082 0000 f221 0000 6cf0 0080 c4d4 0080
00000280: f920 0080 17ef 0180 46c3 1e3d 84d8 253c
00000290: 6bfe 95bc f93a b83c 3052 063c 50d0 12bd
000002a0: 9e02 eb3c 868c 1b3a d6c2 b7bc 0270 3a3d
000002b0: dddf 003d 987d febc 8c30 cd3c 6634 443c
000002c0: 6a39 2ebc 35e5 9f3c fdf1 e8bc f66c 4ebd
000002d0: 564d 803c 8c2e b7bb 00dd a2bc 370c f83b
000002e0: ad9d a93b fef9 6fbc b3fa 033d 07ba 87bc
000002f0: 1c77 4bbd 6aba 0000 e730 0000 6bd3 0000
00000300: d674 0000 be98 0000 15cb 0000 cd77 0080
00000310: 1c3e 0180 1bae 0000 b879 0080 b78d 0080
00000320: e44c 0080 5559 0000 168c 0000 0cd0 0080
00000330: 5a14 0080 f837 0180 df2d 0180 31c0 0080
00000340: d93e 0000 3145 0080 7af4 0080 9961 0080
00000350: a220 0080 ac1f 0000 29b6 0000 1500 0000
00000360: cca9 0000 3738 0080 09cb 0080 ce4f 0080
00000370: 513d 0000 7e97 0080 1a91 0000 5825 0080
00000380: 1605 0080 d2dc 0000 2bb5 0080 f428 0000
00000390: faee 0000 a062 0080 0342 0080 2acf 0000
000003a0: 90b8 0080 6ec9 0080 802b 0000 6203 0080
000003b0: a331 0080 ade7 0000 fb07 0000 d2b8 0000
000003c0: 4c8c 0080 3105 0080 22a1 0000 c914 43bd
000003d0: 9fff babc a87f 46bd e17c e6bc c7e9 91bc
000003e0: 99cd 89bc ffba 52bc e7cd 5d3c 947b ea3b
000003f0: 0ba8 3bbd 500a 09bc 707c fabc bf01 a2bc

e_conv1.bias f4 [32]
-7.4018334e-07 0.06367167 0.018777492 0.11957992 0.06078919 -2.823743e-08 0.061060425 -3.7030688e-05
-2.2836826e-05 0.07493832 -9.591523e-06 -1.1347758e-08 -0.02191327 0.057875436 -1.3850373e-06 0.15475191
0.12454163 0.09493242 0.18189766 0.15828507 -1.3006322e-09 0.15349452 -0.017355694 0.117329046
-9.403336e-05 -2.4519223e-11 0.03355845 -1.998429e-09 -4.5862816e-20 -0.003990257 0.11608649 -2.2725408e-07
00000000: 03b1 46b5 4b66 823d 41d3 993c 51e6 f43d
00000010: 16fe 783d c48e f2b2 7f1a 7a3d 6651 1bb8
00000020: b691 bfb7 4379 993d 47eb 20b7 f8f3 42b2
00000030: 7583 b3bc cb0e 6d3d 85e5 b9b5 4977 1e3e
00000040: af0f ff3d ee6b c23d 6143 3a3e 7b15 223e
00000050: edc1 b2b0 ab2d 1d3e 872d 8ebc 364a f03d
00000060: c733 c5b8 62ac d7ad 9674 093d bc54 09b1
00000070: be94 589f b4c0 82bb c1be ed3d 2003 74b4

e_conv2.weight f4 [32, 32, 3, 3]
-1.1966e-41 3.2458e-41 6.8828e-41 2.5155e-41 -8.84e-42 3.6849e-41 3.5052e-41 8.4318e-41
1.798e-41 0.00821403 -0.018846434 0.003018925 -0.0039297454 -0.0008856527 -0.0067065773 0.011692859
0.026330242 0.0011571584 -0.009900468 -0.011616272 -0.0074193412 0.004058397 -0.005163789 -0.0040925127
0.005081754 0.0018101202 0.00603276 -0.025827855 0.018373007 0.035926394 -0.013952177 -0.0060685836
-0.0049497397 -0.03609082 0.0047339965 0.017483149 0.00021858612 -0.0021689606 0.0004711578 0.010908099
-0.013374986 0.00700155 0.012556983 -0.016088407 -0.008708846 3.9249e-41 -3.502e-41 -4.708e-41
3.9727e-41 1.01021e-40 5.8332e-41 -1.43692e-40 -6.992e-41 -1.7773e-41 -0.00027195644 0.0079192445
-0.006018263 -0.0066299904 0.004811218 0.007204976 0.0056578545 0.0070819235 0.01628071 7.7633e-41
9.9569e-41 -1.61561e-40 4.5965e-41 -1.49566e-40 -1.00037e-40 3.1246e-41 -6.7603e-41 -1.53763e-40
7.9608e-41 5.9435e-41 1.2266e-41 7.0967e-41 2.7359e-41 3.7259e-41 6.1014e-41 1.345e-42
4.4406e-41 0.012141055 -6.405749e-05 0.009184328 -0.0033225522 0.0060520424 0.008207133 0.0009705271
0.0002861062 -0.0022287508 -1.9107e-41 -3.9871e-41 2.6015e-41 -4.3223e-41 -1.94464e-40 2.3801e-41
-6.787e-41 4.861e-41 -6.5975e-41 3.3467e-41 1.575e-42 4.6666e-41 -5.6388e-41 7.0706907e-29
-5.583e-42 -1.1236e-40 2.4659e-41 -8.1358e-41 -0.005540341 -0.005335393 -0.0045059943 0.0014644949
0.0011584763 0.0013127194 0.0014839841 0.0010513901 0.0007750997 0.0019300074 0.015517432 0.0041060434
0.008221783 0.0037579276 0.006631986 -0.006452804 0.009391526 0.00048573685 4.2375e-41 -3.2371e-41
-7.97e-43 -8.3771e-41 2.4832e-41 1.72305e-40 -5.590559e-24 6.9789e-41 -7.4197e-41 0.0060576964
0.01182098 0.0044567357 0.015255301 0.016492749 0.014091782 -0.0024396542 -0.01766884 -0.006606147
-0.0145580545 -0.017963603 -0.0070493943 -0.018658437 0.014659154 0.016708463 -0.028846359 0.000816262
5.759698e-06 0.018252602 -0.0013132549 0.00061371917 -0.0053558354 0.010674055 0.0063907006 0.0054933573
0.014894602 0.017922118 0.00030673976 -0.02200569 -0.015526224 -0.0017332077 0.00080919795 0.017695881
-0.034285314 0.015163634 0.032825086 0.019529419 0.018169908 -0.0031247602 0.008480452 0.010455349
-0.0007987036 -0.011028221 -0.008124589 0.02724584 6.5715e-41 8.3772e-41 5.5581e-41 -3.1016e-41
2.3982e-41 3.3749e-41 4.5321e-41 -3.9629e-41 -7.351e-42 -0.019743353 0.012096686 0.017124383
-0.017175546 0.046350814 0.03136494 0.010983799 0.027657937 0.017165922 0.0035972323 0.004997913
-0.0043350025 -0.0032965592 0.00030334148 -0.0028611599 -0.010918744 0.0044629327 -0.009223721 0.017538188
0.012318396 0.021173539 0.011774287 0.021133583 0.0055084657 -0.039209 0.0243741 -0.0040241764
-4.039197e-15 -3.4460502e-15 -1.2676426e-15 2.2105953e-16 -4.9792213e-15 -2.434046e-15 4.95074e-15 -1.5737355e-15
-5.5890215e-15 1.16033e-40 -6.6597e-41 3.9759e-41 -7.8481e-41 -5.317e-42 1.41898e-40 2.493e-42
-5.4564e-41 5.2839e-41 0.003986418 0.0023027943 0.0052379896 -0.0034242363 -0.0037580766 -0.013227832
0.014085698 -0.007984842 -0.018748047 -3.8327e-41 -8.3327e-41 5.9166e-41 3.4136e-41 -1.30263e-40
-5.32e-43 -7.2959e-41 6.3894e-41 -1.17298e-40 1.00982e-40 -4.2127e-41 -4.1899e-41 3.195854e-19
00000000: 5b21 0080 7b5a 0000 ddbf 0000 1f46 0000
00000010: a418 0080 b866 0000 b661 0000 0beb 0000
00000020: 1f32 0000 2494 063c d663 9abc 28d9 453b
00000030: 18c5 80bb 262b 68ba d9c2 dbbb 6893 3f3c
00000040: 85b2 d73c cbab 973a 9335 22bc 2d52 3ebc
00000050: f21d f3bb 4dfc 843b 0035 a9bb 7c1a 86bb
00000060: d884 a63b 8e41 ed3a 75ae c53b f094 d3bc
00000070: fd82 963c 8e27 133d ac97 64bc f8da c6bb
00000080: 6d31 a2bb f8d3 13bd a41f 9b3b d238 8f3c
00000090: 4434 6539 1f25 0ebb bb05 f739 e2b7 323c
000000a0: c222 5bbc 426d e53b cebb 4d3c d6cb 83bc
000000b0: 8caf 0ebc 696d 0000 9f61 0080 3d83 0080
000000c0: be6e 0000 9b19 0100 9ba2 0000 8e90 0180
000000d0: e9c2 0080 8b31 0080 6095 8eb9 b8bf 013c
000000e0: d934 c5bb 6440 d9bb 6ca7 9d3b b817 ec3b
000000f0: 8665 b93b 7b0f e83b 205f 853c 69d8 0000
00000100: 8f15 0100 5ec2 0180 2280 0000 eea0 0180
00000110: dd16 0180 1a57 0000 73bc 0080 a1ac 0180
00000120: eadd 0000 aea5 0000 3122 0000 d4c5 0000
00000130: 444c 0000 dd67 0000 15aa 0000 c003 0000
00000140: c97b 0000 47eb 463c 9a56 86b8 dd79 163c
00000150: 2dbf 59bb 3650 c63b 3677 063c f96a 7e3a
00000160: 8600 9639 3c10 12bb 4335 0080 256f 0080
00000170: 8548 0000 7d78 0080 161e 0280 5942 0000
00000180: 32bd 0080 8187 0000 e9b7 0080 4b5d 0000
00000190: 6404 0000 1682 0000 309d 0080 6843 b310
000001a0: 900f 0080 3739 0180 bd44 0000 cbe2 0080
000001b0: c08b b5bb 85d4 aebb 05a7 93bb 4bf4 bf3a
000001c0: 04d8 973a 8e0f ac3a 3e82 c23a ccce 893a
000001d0: 0f30 4b3a 4df8 fc3a d43c 7e3c fd8b 863b
000001e0: a8b4 063c 9047 763b 2151 d93b 0b72 d3bb
000001f0: eade 193c 7faa fe39 2076 0000 3d5a 0080
00000200: 3902 0080 85e9 0080 3945 0000 51e0 0100
00000210: 3746 d898 8bc2 0000 d5ce 0080 a47f c63b
00000220: c9ac 413c cf09 923b 5ff1 793c cd1b 873c
00000230: 38e1 663c 9be2 1fbb 3ebe 90bc 6178 d8bb
00000240: e884 6ebc 6828 93bc 9bfe e6bb 94d9 98bc
00000250: f32c 703c 30e0 883c 334f ecbc 6afa 553a
00000260: 6e43 c136 7b86 953c 8621 acba ffe1 203a
00000270: 0180 afbb 3be2 2e3c 1569 d13b 9f01 b43b
00000280: 7d08 743c 68d1 923c ead1 a039 4745 b4bc
00000290: b461 7ebc cd2c e3ba 5b20 543a f4f6 903c
000002a0: c26e 0cbd e470 783c 9973 063d 29fc 9f3c
000002b0: 0fd9 943c c7c8 4cbb 98f1 0a3c ea4c 2b3c
000002c0: 1760 51ba b6af 34bc ff1c 05bc ab32 df3c
000002d0: 30b7 0000 86e9 0000 f09a 0000 7656 0080
000002e0: da42 0000 145e 0000 567e 0000 786e 0080
000002f0: 7e14 0080 d0bc a1bc 2e31 463c 6f48 8c3c
00000300: bbb3 8cbc 5ada 3d3d 8678 003d 64f5 333c
00000310: e692 e23c 8c9f 8c3c 8bbf 6b3b 88c5 a33b
00000320: a30c 8ebb 160b 58bb ce09 9f39 4c82 3bbb
00000330: 88e4 32bc cb3d 923b 171f 17bc 3fac 8f3c
00000340: 19d3 493c 2174 ad3c f0e8 403c 5620 ad3c
00000350: 5c80 b43b 9e99 20bd 31ac c73c 3ddd 83bb
00000360: 0487 91a7 6850 78a7 c2af b6a6 42dd 7e25
00000370: 3665 b3a7 3964 2fa7 845e b227 98cc e2a6
00000380: a05d c9a7 7443 0100 a5b9 0080 d56e 0000
00000390: c6da 0080 d20e 0080 8e8b 0100 f306 0000
000003a0: 1a98 0080 4b93 0000 7fa0 823b 7aea 163b
000003b0: 71a3 ab3b 2769 60bb 104a 76bb 8cb9 58bc
000003c0: b3c7 663c dbd2 02bc 8195 99bc d76a 0080
000003d0: 48e8 0080 eea4 0000 285f 0000 1f6b 0180
000003e0: 7c01 0080 61cb 0080 1cb2 0000 fb46 0180
000003f0: 7f19 0100 6f75 0080 cc74 0080 61a6 bc20

e_conv2.bias f4 [32]
-0.03397701 -5.4438688e-18 0.023932599 -5.624653e-08 0.037909422 0.031185443 0.0011977884 0.041325275
0.053808473 0.034474127 -0.026444726 -5.039069e-15 -0.0028755146 -0.008006086 0.009339758 -8.566358e-06
0.03152732 0.00974871 -0.0028798112 -0.011981372 -6.257078e-20 0.01473749 -5.6789956e-20 0.035089754
-0.000702767 0.047867082 0.046587713 -0.0017779329 -4.1625473e-23 -0.00048163394 -0.0040895105 0.050069038
00000000: 7a2b 0bbd e3d7 c8a2 4c0e c43c b793 71b3
00000010: e946 1b3d 9d78 ff3c 1cff 9c3a b144 293d
00000020: 4666 5c3d be34 0d3d 9ca2 d8bc 358d b5a7
00000030: 2173 3cbb f52b 03bc c905 193c 3ab8 0fb7
00000040: cb22 013d 0eb9 1f3c 37bb 3cbb 844d 44bc
00000050: b7bd 939f 8375 713c 6c17 869f 46ba 0f3d
00000060: e539 38ba 4610 443d c2d2 3e3d 8709 e9ba
00000070: d749 499a d083 fcb9 4d01 86bb 3115 4d3d

e_conv3.weight f4 [32, 64, 3, 3]
3.7883e-41 -3.4434e-41 -1.06604e-40 -5.4687e-41 6.3075e-41 1.13153e-40 -6.656e-42 -1.177e-42
4.5663e-41 0.000546157 0.01362685 0.021252643 -0.008588953 0.004072015 0.009525792 -0.028267635
-0.006694814 -0.009111179 -0.0087335305 0.003654259 0.0054494585 -0.008969379 0.0025367693 0.003279113
-0.014945865 -0.0068350513 -0.0065129185 0.008769508 0.0090023 0.012450431 0.0010400692 0.0032953941
0.005143895 -0.0034984031 -0.01108168 -0.018574659 0.0038423177 0.020326277 0.01769148 0.0010731024
0.010350617 0.005879325 -0.009897507 -0.006922518 -0.0069996505 7.0251e-41 -8.6838e-41 -8.3156e-41
2.1469e-41 -3.9284e-41 -2.0334e-41 -2.5983e-41 2.643e-41 -7.5834e-41 0.0019030455 0.00731169
0.0006151565 0.0018600527 0.012899495 0.0062372354 -0.003093072 0.005316233 -0.0065253214 7.8906e-41
3.5533e-41 6.234e-42 -1.15576e-40 7.0459e-41 -5.5018e-41 -5.8017e-41 1.00435e-40 2.468e-41
1.14315e-40 -4.19e-42 5.0436e-41 6.4018e-41 6.2208e-41 -7.451429e-35 -8.277e-41 -8.098e-42
5.2753e-41 0.0014539122 0.0018050164 -0.010308182 0.009658814 0.0069069886 -0.004856686 0.0031903316
-0.0009686834 -0.00831571 -6.6063e-41 1.239e-41 -1.787e-41 1.7284e-41 -1.119e-41 3.2601e-41
6.9291e-41 7.2636e-41 -6.2187e-41 1.1005e-40 7.8676e-41 2.5076e-41 -5.3289e-41 1.5232e-41
-8.2287e-41 -3.3073e-41 8.7847e-41 -6.8148e-41 -0.0029644673 -0.0019835457 -0.0029428788 -0.0008877983
-0.0008980521 -0.0012336986 -0.00046985297 -0.0010497554 -0.0007563866 -0.0048749587 -0.0024117383 -0.0044244337
-0.0066034333 -0.0032332651 -0.0039863107 -0.012795655 -0.009208851 -0.009584563 5.2057e-41 -6.9977e-41
-4.2504e-41 1.66609e-40 -9.1e-44 5.2473e-41 5.4068e-41 -1.0319e-41 -4.6096e-41 -0.019166276
0.0061689056 0.017791657 0.0019293207 0.0004605381 0.004929311 -0.04290874 -0.025532866 -0.015032781
0.00045785276 0.008336861 0.021240275 -0.011916646 0.007696256 -0.008139177 -0.028961647 -0.007829944
-0.0073349397 0.004857647 0.0063956734 0.0005270444 0.0011013299 0.0061192024 -0.00034984754 -0.0046354486
-0.0017446724 -0.010521077 0.000769904 0.014501662 0.019113112 0.003251757 -0.0022038533 0.0213659
-0.033838086 -0.016539324 -0.004933019 0.011959395 0.0005267034 0.007524381 0.0030059193 -0.004353905
-0.016189108 -0.015887622 -0.012362426 -0.008897357 -6.8895e-41 -6.7784e-41 -4.100874e-24 8.381e-41
1.08745e-40 -8.7674e-41 5.2155e-41 4.0258e-41 -4.1347e-41 -0.0018893854 0.0018956629 -0.0023521178
-0.0004314843 0.010283284 0.01336064 -0.01908259 -0.019583536 -0.0023622192 -0.002272895 0.009285877
0.023496997 -0.016335785 -0.0026095763 0.0109752 -0.026901528 -0.013636009 -0.0017405135 -0.00683561
0.004971366 -7.744449e-07 0.0014375745 0.006883739 0.0083492575 -0.015871672 -0.009433245 -0.0019618375
-1.7165765e-16 1.0781286e-16 4.2496503e-16 3.276125e-18 1.5790789e-16 7.9943425e-16 -2.6629144e-16 9.6257585e-17
-6.79818e-17 -3.9477e-41 -7.0506e-41 2.0561e-41 6.7453e-41 -5.3032e-41 2.135e-41 -8.4944e-41
1.9037e-41 7.2069e-41 -0.0068514985 -0.0014886807 0.012434738 -0.009388698 0.020600947 0.0070056356
-0.022342691 -0.01294554 -0.010020127 3.259e-41 3.103e-41 1.40571e-40 -1.15749e-40 -5.7057e-41
1.29721e-40 -5.6076e-41 4.5574e-41 5.1704e-41 6.9064e-41 -3.3408e-41 8.051e-41 1.9209e-41
00000000: 9a69 0000 fd5f 0080 2b29 0180 7298 0080
00000010: d4af 0000 6d3b 0100 8e12 0080 4803 0080
00000020: 4a7f 0000 fa2b 0f3a 2743 5f3c 061a ae3c
00000030: aeb8 0cbc 8a6e 853b 1112 1c3c 8791 e7bc
00000040: 2c60 dbbb 0e47 15bc 1517 0fbc 4b7c 6f3b
00000050: 5f91 b23b 4df4 12bc ed3f 263b 63e6 563b
00000060: 80df 74bc 91f8 dfbb 526a d5bb fcad 0f3c
00000070: 627e 133c e4fc 4b3c ee52 883a 8af7 573b
00000080: 1e8e a83b 7745 65bb ef8f 35bc e229 98bc
00000090: 65cf 7b3b 4b83 a63c b9ed 903c 57a7 8c3a
000000a0: a295 293c 5aa7 c03b 2729 22bc 4ad6 e2bb
000000b0: 535d e5bb d5c3 0000 12f2 0080 cee7 0080
000000c0: d93b 0000 826d 0080 af38 0080 6e48 0080
000000d0: ad49 0000 65d3 0080 9c6f f93a e796 ef3b
000000e0: 7442 213a 03cd f33a 6758 533c b961 cc3b
000000f0: 23b5 4abb cb33 ae3b 5dd2 d5bb f5db 0000
00000100: 0d63 0000 6111 0000 2e42 0180 69c4 0000
00000110: 5e99 0080 baa1 0080 f917 0100 cc44 0000
00000120: aa3e 0100 ae0b 0080 988c 0000 75b2 0000
00000130: 69ad 0000 cc17 c686 bbe6 0080 9316 0080
00000140: 0e93 0000 3391 be3a 4d96 ec3a a6e3 28bc
00000150: 0140 1e3c 0554 e23b d624 9fbb e214 513b
00000160: 3eef 7dba 9e3e 08bc 28b8 0080 8a22 0000
00000170: d031 0080 2e30 0000 311f 0080 e15a 0000
00000180: 28c1 0000 7bca 0000 5aad 0080 c632 0100
00000190: 51db 0000 e745 0000 8c94 0080 762a 0000
000001a0: 62e5 0080 325c 0080 e2f4 0000 f8bd 0080
000001b0: 8247 42bb 60fe 01bb 50dd 40bb 23bb 68ba
000001c0: 426b 6bba 0eb4 a1ba 9956 f6b9 f297 89ba
000001d0: 3f48 46ba 1ebe 9fbb 410e 1ebb d7fa 90bb
000001e0: 9d61 d8bb 30e5 53bb 999f 82bb dea4 51bc
000001f0: b8e0 16bc 9208 1dbc 1d91 0000 11c3 0080
00000200: 7c76 0080 70d0 0100 4100 0080 4692 0000
00000210: b896 0000 c41c 0080 7f80 0080 9802 9dbc
00000220: 8824 ca3b cfbf 913c 43e1 fc3a 6174 f139
00000230: 0f86 a13b 13c1 2fbd 4d2a d1bc 0e4c 76bc
00000240: f50b f039 5497 083c 1600 ae3c 093e 43bc
00000250: e030 fc3b 2f5a 05bc fa40 edbc 2a49 00bc
00000260: ef59 f0bb e62c 9f3b cc92 d13b 5a29 0a3a
00000270: 805a 903a 9783 c83b be6b b7b9 f6e4 97bb
00000280: 7ead e4ba 9860 2cbc 62d3 493a 6198 6d3c
00000290: 1a93 9c3c 6e1b 553b 866e 10bb 8a07 af3c
000002a0: ce99 0abd 7a7d 87bc 2aa5 a1bb 57f1 433c
000002b0: 7812 0a3a 158f f63b f5fe 443b 34ab 8ebb
000002c0: 059f 84bc c226 82bc c68b 4abc 38c6 11bc
000002d0: 0dc0 0080 f4bc 0080 17a5 9e98 a1e9 0000
000002e0: 232f 0100 66f4 0080 6391 0000 3970 0000
000002f0: 4273 0080 41a5 f7ba e477 f83a fd25 1abb
00000300: d838 e2b9 387b 283c 96e6 5a3c 1753 9cbc
00000310: a76d a0bc 76cf 1abb daf4 14bb cb23 183c
00000320: c67c c03c a0d2 85bc 6d05 2bbb 53d1 333c
00000330: 9860 dcbc 9169 5fbc f121 e4ba 41fd dfbb
00000340: d7e6 a23b 73e3 4fb5 ff6c bc3a fd90 e13b
00000350: 53cb 083c 4f05 82bc e68d 1abc 2c92 00bb
00000360: 65e8 45a5 7b99 f824 c5f9 f425 40bc 7122
00000370: 2f0e 3625 d66b 6626 ae81 99a5 73f4 dd24
00000380: 5fc1 9ca4 0c6e 0080 8bc4 0080 5139 0000
00000390: 08bc 0000 d593 0080 843b 0000 caec 0080
000003a0: 1135 0000 e6c8 0000 8982 e0bb d61f c3ba
000003b0: 12bb 4b3c 0ed3 19bc 51c3 a83c 888f e53b
000003c0: 0508 b7bc 8819 54bc 752b 24bc d95a 0000
000003d0: 8056 0000 db87 0100 a942 0180 0d9f 0080
000003e0: 9c69 0100 519c 0080 0b7f 0000 2190 0000
000003f0: 86c0 0000 215d 0080 6ee0 0000 8c35 0000

e_conv3.bias f4 [32]
0.03630413 0.030007614 -9.170831e-31 0.0099177025 0.037459802 -6.042607e-14 -0.014488644 -0.0017243652
0.03349878 0.0063431086 0.032516733 -2.1500628e-10 -1.09048825e-17 -3.116857e-05 7.3352e-41 -0.0031740135
0.065229736 -0.0142673785 0.057205774 -0.009241413 -4.09722e-17 0.016808948 -0.000567449 -0.010047114
0.011622981 -6.7974314e-23 0.0072512543 0.039343875 -1.5147506e-19 -0.018721417 0.035248805 -0.01832401
00000000: a4b3 143d 87d2 f53c 24ce 948d dc7d 223c
00000010: 736f 193d 4211 88a9 c761 6dbc 1804 e2ba
00000020: 0436 093d dad9 cf3b 4430 053d e366 6caf
00000030: da28 49a3 ffba 02b8 7acc 0000 1c03 50bb
00000040: 2b97 853d b9c1 69bc 9a50 6a3d 4c69 17bc
00000050: 70f3 3ca4 ebb2 893c dcc0 14ba a79c 24bc
00000060: 516e 3e3c 105a a49a ee9b ed3b 0b27 213d
00000070: 87d4 32a0 a85d 99bc 0d61 103d 3c1c 96bc

e_conv4.weight f4 [32, 64, 3, 3]
-0.0040000346 0.011761598 -0.040651582 0.005119599 -0.0069729527 -0.007994741 0.014231573 -0.00410052
-0.013331834 5.2410955e-19 -9.4353235e-20 3.4338125e-20 -1.8442787e-19 -2.6439965e-19 -2.2759975e-19 -1.5147696e-19
-2.756721e-19 -1.5560071e-19 0.0003606018 0.0020873046 0.0025184753 -0.00055535027 0.0012211334 0.0012129567
-0.0019751345 -0.0005458756 -0.0015289227 -2.289968e-19 1.1499169e-19 -1.0064595e-20 -1.5521862e-19 2.644808e-19
-2.0996999e-19 -9.0965336e-20 -2.3302463e-20 -1.804846e-19 -0.0014773753 -0.0068696253 -0.021335388 -0.003723236
0.037522223 0.00034981515 -0.029338311 -0.0068429653 0.0019226517 -0.0018210344 0.0008624767 -0.0039849514
-9.4388495e-05 0.001984074 -0.0026896012 0.0025971173 0.005035926 0.001407542 0.001645058 0.002339591
0.0013924604 -0.0054112403 0.0013118823 -0.0011932867 -0.001721082 -5.7660083e-05 -0.00024244227 -0.011402393
-0.014798298 -0.021886608 -0.019747637 0.016171368 0.0084153125 -0.00884324 0.006375562 -0.008008115
-0.015667265 0.005851372 0.010388259 -0.0074258274 0.024210472 -0.0052139233 -0.0049661184 -0.0086257085
-0.018854741 -0.01923258 0.00073267816 -0.022433756 0.028776925 -0.012945587 0.016188854 0.0035618497
0.0027388905 -0.012493047 0.007369267 -0.0155036 -0.0058833314 -0.011103766 0.013878788 0.036630202
-0.00877966 0.014310172 0.002056416 2.0139397e-16 8.656774e-17 3.0560544e-16 -6.753887e-16 3.517412e-16
-6.7021106e-16 -8.4747876e-17 -5.525547e-16 -3.7278672e-16 -0.0021493165 -0.002223339 -0.0022157035 -0.0022214737
-0.0021721907 -0.002234291 -0.002210921 -0.002239587 -0.0022361306 -0.010533977 0.025859531 0.0085421195
0.008952859 0.016174085 -0.005790289 -0.043474093 0.024466291 -0.0013658613 -0.0012167685 -0.00075523567
-0.0005671696 -0.0003727405 -0.00072994834 -0.001488013 0.00072532735 -0.00054152025 -0.0022781282 5.5347664e-35
3.4393752e-33 -2.1681268e-34 1.9308335e-34 -3.7478116e-34 1.9182693e-34 -3.4631333e-34 -1.5013378e-34 -5.5641135e-35
0.0040881564 -0.043794155 -0.021600228 -0.021582901 -0.027512306 0.011643907 0.011142639 0.015010846
0.028322166 0.002143844 -0.0020449862 -0.0011326431 0.0022934715 -0.0019108767 -0.0011042343 0.0014984405
-0.0028280756 -0.0020968742 -3.5561286e-05 -3.2905064e-05 -2.794868e-05 -1.4701189e-05 -3.4800905e-05 9.127658e-06
-2.6211495e-05 -1.3846833e-05 -3.4984812e-05 -0.0066661173 -0.01357734 0.008099349 -0.0063901283 0.006240635
-0.005707326 -0.0037112364 0.0077241845 -0.008556575 2.0966983e-20 1.4000486e-20 2.206829e-20 9.120628e-21
9.3889854e-21 2.9288427e-20 2.4979625e-20 7.221691e-21 3.0642318e-20 0.0039134137 -0.0004851745 -0.0028431276
0.0027267665 -0.001620134 -0.0046646427 0.0043427744 0.00020057584 -0.0028008486 6.551527e-20 3.9016946e-20
-1.543779e-19 -5.0466027e-20 6.649776e-20 6.668819e-20 4.697488e-20 6.590543e-20 6.337199e-20 -0.0014012542
-0.0031102137 -0.00050164224 -0.004486315 -0.0006749279 0.002662437 -0.0031584357 0.00010729043 -0.00019972785
2.8195911e-08 2.8666685e-08 2.9218521e-08 2.8581727e-08 2.9077594e-08 2.8387179e-08 2.9088698e-08 2.9002724e-08
2.8841063e-08 0.0032864003 -0.006999507 -0.005116173 0.007144237 -0.0035414556 -0.0012993338 0.0059233354
-0.004227321 -0.001940637 0.01038243 -0.013899055 -0.0013609113 -0.003844835 -0.005606852 0.0076425695
0.0132763935 0.017848622 0.010915173 4.7231e-41 -5.94e-41 4.0579e-41 -4.0516e-41 -2.2276e-41
8.58e-42 4.5197e-41 -4.2088e-41 2.9605e-41 5.4504924e-24 -2.1706936e-24 1.517143e-24 3.3907916e-24
00000000: b912 83bb b8b3 403c 4682 26bd 4fc2 a73b
00000010: 5e7d e4bb 60fc 02bc 8b2b 693c a85d 86bb
00000020: c46d 5abc 99b0 1a21 08c9 de9f 3f28 221f
00000030: e7bb 59a0 f212 9ca0 e759 86a0 1ad5 32a0
00000040: 64ba a2a0 6eb3 37a0 280f bd39 29cb 083b
00000050: 010d 253b ed94 11ba 700e a03a 13fc 9e3a
00000060: 4271 01bb 1719 0fba 2266 c8ba 052d 87a0
00000070: 1bc2 0720 651d 3e9e f33f 37a0 351f 9c20
00000080: 89e3 77a0 2cc9 d69f e615 dc9e 2014 55a0
00000090: 7da4 c1ba 981a e1bb 8dc7 aebc 8901 74bb
000000a0: e7b0 193d 6567 b739 e656 f0bc f43a e0bb
000000b0: 7c01 fc3a c6af eeba d517 623a 3294 82bb
000000c0: 70f2 c5b8 3d07 023b 0544 30bb 6634 2a3b
000000d0: 6904 a53b 467d b83a fd9e d73a d353 193b
000000e0: 3883 b63a c650 b1bb 77f3 ab3a 0f68 9cba
000000f0: ee95 e1ba 0bd8 71b8 1a38 7eb9 1ad1 3abc
00000100: 8f74 72bc 8b4b b3bc ccc5 a1bc d179 843c
00000110: 61e0 093c 3de3 10bc 17ea d03b 7834 03bc
00000120: a358 80bc debc bf3b 8433 2a3c 5b54 f3bb
00000130: 0a55 c63c 8fd9 aabb d2ba a2bb d852 0dbc
00000140: 4275 9abc a58d 9dbc 3311 403a ffc6 b7bc
00000150: 96bd eb3c ba19 54bc 7d9e 843c ec6d 693b
00000160: f57e 333b a3af 4cbc e479 f13b d002 7ebc
00000170: f6c8 c0bb 92ec 35bc db63 633c 8d09 163d
00000180: 90d8 0fbc 3675 6a3c efc4 063b 0231 6825
00000190: 939c c724 672b b025 e4aa 42a6 d7c3 ca25
000001a0: d92c 41a6 516a c3a4 5743 1fa6 9ce5 d6a5
000001b0: 8cdb 0cbb 70b5 11bb 5635 11bb 2596 11bb
000001c0: 505b 0ebb 2f6d 12bb 19e5 10bb 09c6 12bb
000001d0: 0c8c 12bb b496 2cbc 5ed7 d33c 3ff4 0b3c
000001e0: 03af 123c 847f 843c 77bc bdbb e411 32bd
000001f0: 886d c83c b306 b3ba fa7b 9fba 02fb 45ba
00000200: 1cae 14ba 626c c3b9 015a 3fba 6e09 c3ba
00000210: e523 3e3a cff4 0dba a64c 15bb ab23 9306
00000220: b6dd 8e09 c418 9087 6e53 8007 b615 f987
00000230: 52fb 7e07 292a e687 e18f 4787 65eb 9386
00000240: f1f5 853b 8061 33bd f6f2 b0bc a0ce b0bc
00000250: 7d61 e1bc 16c6 3e3c 9e8f 363c 0df0 753c
00000260: e303 e83c bc7f 0c3b 2d05 06bb 3275 94ba
00000270: 114e 163b 6276 faba f4bb 90ba 5267 c43a
00000280: 3c57 39bb b66b 09bb a427 15b8 8b03 0ab8
00000290: 5573 eab7 20a5 76b7 30f7 11b8 fe22 1937
000002a0: c2e0 dbb7 b24f 68b7 a8bc 12b8 726f dabb
000002b0: 7e73 5ebc 22b3 043c 4864 d1bb 3e7e cc3b
000002c0: 8504 bbbb 3738 73bb 281b fd3b e030 0cbc
000002d0: 0e07 c61e 193b 841e da6d d01e a748 2c1e
000002e0: 595a 311e 894f 0a1f 07ed eb1e f469 081e
000002f0: 4ab4 101f 183c 803b 055f feb9 c453 3abb
00000300: 8db3 323b ad5a d4ba dcd9 98bb d54d 8e3b
00000310: ab51 5239 718e 37bb 8db1 9a1f 9840 381f
00000320: db41 36a0 af51 6e9f 6e03 9d1f 8a76 9d1f
00000330: 25d5 5d1f 639d 9b1f 04a2 951f 4aaa b7ba
00000340: bad4 4bbb a480 03ba f001 93bb a5ed 30ba
00000350: 487c 2e3b c2fd 4ebb 1c01 e138 096e 51b9
00000360: 7733 f232 b53e f632 35fc fa32 e283 f532
00000370: 4ec6 f932 11d8 f332 b9de f932 aa21 f932
00000380: 2bbe f732 a660 573b 1f5c e5bb 92a5 a7bb
00000390: 341a ea3b c417 68bb 684e aaba 8a18 c23b
000003a0: 5785 8abb f95c feba 111b 2a3c ddb8 63bc
000003b0: 9b60 b2ba a1f9 7bbb afb9 b7bb 856e fa3b
000003c0: 3b85 593c 4637 923c 8ed5 323c a983 0000
000003d0: 95a5 0080 1e71 0000 f170 0080 193e 0080
000003e0: eb17 0000 fe7d 0000 5375 0080 8752 0000
000003f0: 10db d218 04f3 2798 3ac4 ea17 c62c 8318

e_conv4.bias f4 [32]
0.0329904 0.002056391 -0.017308753 -6.4387646e-09 0.016749216 0.016123444 0.012923393 0.016943188
-0.000101370715 -9.2147445e-08 0.015681323 0.025894145 0.022745483 0.010488892 0.022508226 0.012318927
-0.003236255 0.05611824 -1.6670561e-05 0.031581286 0.0010440641 -6.923638e-08 0.019108333 -7.998715e-06
-1.1064103e-19 0.036804263 0.0002289566 0.03168637 0.044389807 0.017608996 -1.7423432e-10 0.022672538
00000000: f120 073d 84c4 063b 16cb 8dbc f93b ddb1
00000010: a735 893c 5015 843c a4bc 533c 71cc 8a3c
00000020: fd96 d4b8 98e2 c5b3 1e76 803c f51f d43c
00000030: bc54 ba3c 9ad9 2b3c 2c63 b83c 53d5 493c
00000040: 5917 54bb 3ddc 653d c2d7 8bb7 615b 013d
00000050: fad8 883a 1aaf 94b3 1489 9c3c 3832 06b7
00000060: 339f 02a0 11c0 163d 1214 7039 91c9 013d
00000070: 16d2 353d be40 903c 9a92 3faf c2bb b93c

e_conv5.weight f4 [32, 64, 3, 3]
0.00246307 0.0028654707 9.237858e-05 0.00583117 0.0051747523 0.0015322923 0.0074659693 0.007372535
0.0036341348 0.0096692415 0.0026943155 0.0045285337 0.005954381 -1.8014034e-05 0.0011445833 0.0020134535
-0.0026775913 -0.00058612064 3.1515e-41 -4.3891e-41 -1.17418e-40 -7.4684e-41 9.5482e-41 4.8008e-41
3.0222e-41 -1.091e-40 -5.961e-42 0.011280445 -0.00090875477 0.016488766 0.003644229 0.010813627
0.014899123 -0.002982602 0.012167903 0.012851228 0.010780827 0.007124962 0.0016910378 0.012561427
-0.0046236594 0.0041738986 -0.015334465 -0.010653517 -0.017244777 -2.3975e-41 2.9382e-41 -5.4501e-41
3.5777e-41 -1.57087e-40 -6.8333e-41 4.3568e-41 -4.2393e-41 6.8956e-41 0.0046507875 0.010857134
0.011018447 0.0033945574 0.0079846075 0.009270261 0.0028774298 0.0063862335 0.009864802 -1.1076326e-06
-1.1271895e-06 -1.2865071e-06 -1.0946854e-06 -1.206088e-06 -1.140879e-06 -1.0627067e-06 -1.219444e-06 -1.0622606e-06
-0.023157738 0.013464654 -0.024910634 -0.0205642 0.02539343 -0.015203597 0.010253104 -0.017825173
0.011387465 0.017683199 -0.0017049682 -0.010417375 0.008365177 -0.017922923 -0.0055966675 -0.0057723518
0.0013279123 3.6529687e-05 -0.003770716 0.0024421318 0.015067424 -0.0032094815 0.0021429264 0.016897328
0.00036778804 0.009390197 0.027673865 8.4945e-41 -9.687e-41 -6.2153e-41 -6.7742e-41 -6.4042e-41
2.0495e-41 -1.22396e-40 -1.0113e-40 6.727e-41 1.37822e-40 -8.030241e-31 -1.6465e-41 -1.09783e-40
3.7409e-41 -1.7254e-41 2.0528e-41 5.6443e-41 -6.7188e-41 -9.641249e-17 2.6958756e-16 -1.5697915e-16
1.255417e-16 -1.2650273e-16 -1.3282674e-16 -1.2889382e-16 -9.583671e-16 1.768751e-14 -1.5654e-41 -5.63e-41
6.1567e-41 5.6214e-41 -3.3634e-41 9.7861e-41 -1.04613e-40 -9.2987e-41 -4.716e-41 3.1882e-41
9.44e-43 7.2144e-41 -4.306e-41 4.0516e-41 5.8217e-41 4.5395e-41 5.8437e-41 1.09394e-40
-0.008436703 -0.0052246503 -0.0018118288 -0.008558406 -0.0040774816 -0.000900481 -0.000904085 0.0039011776
0.0050683417 -0.017223017 0.0058436515 0.016223006 0.001103159 0.008220193 -0.00903152 0.0071253655
-0.009460182 -0.012670761 -0.0026773477 -0.0010555144 0.002539425 -0.0018645877 0.001203912 0.0049221255
0.0014791413 0.003634808 0.004602322 -0.011949692 0.007998526 0.019510424 0.015005149 0.0047395886
0.0018544345 -0.012085837 -0.0037122143 0.0028986705 -6.7634e-41 3.8449e-41 7.3456e-41 1.04464e-40
-4.3789e-41 -2.287e-41 7.595e-41 4.5091e-41 6.258e-42 -0.0061240196 -0.0035108745 -0.004220935
-4.083978e-05 0.00045128004 -0.015567673 0.0003296166 -0.00020783365 0.0030119522 -0.00015640126 0.0028446517
0.016523724 0.00817893 0.010219011 -0.011361864 -0.0032099318 -0.006724643 -0.017557604 -0.006712619
0.008858764 0.0039350176 0.016603865 -0.006643743 0.0013997003 -0.016206646 0.0232016 -0.017820777
0.014815243 0.028688448 -0.0316252 0.0024203714 -0.011255416 -0.0065520834 -0.02194583 -0.027756086
0.0062967665 -2.4207e-41 1.03636e-40 2.0043e-41 5.1359e-41 8.4624e-41 -4.1846e-41 -5.66e-43
-7.5395e-41 -4.2744e-41 0.004361347 0.012070902 0.011519927 0.0017586682 0.008728972 0.0075302855
-0.0012673521 0.0055862954 0.004959092 -0.015645286 -0.011571785 -0.005568142 -0.009406301 0.002053696
0.039918575 0.011331927 -0.013645127 0.002163683 -4.2452e-41 2.3674e-41 3.8515e-41 -3.7573e-41
00000000: 756b 213b 9fca 3b3b 5fbb c138 6613 bf3b
00000010: f890 a93b 33d7 c83a 17a5 f43b 4e95 f13b
00000020: aa2a 6e3b bd6b 1e3c 1d93 303b 1864 943b
00000030: f81c c33b d81c 97b7 d805 963a 25f4 033b
00000040: 877a 2fbb e4a5 19ba da57 0000 5a7a 0080
00000050: 5047 0180 30d0 0080 2a0a 0100 d485 0000
00000060: 3f54 0000 2030 0180 9e10 0080 9ed1 383c
00000070: 8039 6eba 7313 873c 04d4 6e3b a42b 313c
00000080: 741b 743c c277 43bb e25b 473c f58d 523c
00000090: 11a2 303c 8378 e93b d0a5 dd3a 72ce 4d3c
000000a0: 1182 97bb 33c5 883b 683d 7bbc 178c 2ebc
000000b0: eb44 8dbc d542 0080 e851 0000 ed97 0080
000000c0: bb63 0000 e5b5 0180 7cbe 0080 7379 0000
000000d0: 2d76 0080 39c0 0000 a265 983b 1fe2 313c
000000e0: b786 343c 3977 5e3b dfd1 023c 4be2 173c
000000f0: 4393 3c3b 9c43 d13b fa9f 213c f7a9 94b5
00000100: f049 97b5 0cac acb5 1bed 92b5 dee0 a1b5
00000110: 4e20 99b5 53a2 8eb5 c7ab a3b5 ff92 8eb5
00000120: 4cb5 bdbc da9a 5c3c 6311 ccbc 4176 a8bc
00000130: e205 d03c 8218 79bc a3fc 273c 1906 92bc
00000140: 7d92 3a3c 5bdc 903c 3d79 dfba a3ad 2abc
00000150: 180e 093c 18d3 92bc 4064 b7bb ff25 bdbb
00000160: 580d ae3a 7437 1938 1e1e 77bb 2c0c 203b
00000170: 5bdd 763c 2a56 52bb 5770 0c3b 446c 8a3c
00000180: add3 c039 57d9 193c 4db4 e23c cbec 0000
00000190: 090e 0180 42ad 0080 d6bc 0080 86b2 0080
000001a0: 2239 0000 3155 0180 e919 0180 85bb 0000
000001b0: 3180 0100 514c 828d e62d 0080 0832 0180
000001c0: 4868 0000 1930 0080 3939 0000 579d 0000
000001d0: 4bbb 0080 e44f dea4 1a68 9b25 11fc 34a5
000001e0: 5fbd 1025 04d9 11a5 8923 19a5 be9a 14a5
000001f0: 811d 8aa6 9f50 9f28 a32b 0080 f19c 0080
00000200: a0ab 0000 b49c 0000 c25d 0080 cc10 0100
00000210: 9e23 0180 3603 0180 7783 0080 e058 0000
00000220: a202 0000 1cc9 0000 0978 0080 f170 0000
00000230: 49a2 0000 8b7e 0000 e6a2 0000 f230 0100
00000240: 193a 0abc 8b33 abbb e37a edba 8e38 0cbc
00000250: 659c 85bb 420e 6cba 1e00 6dba e6aa 7f3b
00000260: 5514 a63b 4917 8dbc 1a7c bf3b 1ce6 843c
00000270: e097 903a fdad 063c f1f8 13bc e67b e93b
00000280: e1fe 1abc 0699 4fbc 7176 2fbb 3059 8aba
00000290: 7b6c 263b 2e65 f4ba 95cc 9d3a c849 a13b
000002a0: bfdf c13a f535 6e3b 13cf 963b a4c8 43bc
000002b0: 400c 033c 53d4 9f3c 28d8 753c 8d4e 9b3b
000002c0: 7f10 f33a ad03 46bc 9f48 73bb 9ff7 3d3b
000002d0: 89bc 0080 2e6b 0000 c4cc 0000 3423 0100
000002e0: 117a 0080 c13f 0080 b8d3 0000 b27d 0000
000002f0: 7211 0000 00ac c8bb b316 66bb c54f 8abb
00000300: 614b 2bb8 c899 ec39 8e0f 7fbc 64d0 ac39
00000310: eced 59b9 2c64 453b a5ff 23b9 566d 3a3b
00000320: c35c 873c eb00 063c a46d 273c 1d27 3abc
00000330: b85d 52bb 655a dcbb f7d4 8fbc 88f5 dbbb
00000340: 5924 113c 52f1 803b d404 883c c1b3 d9bb
00000350: 2676 b73a cdc3 84bc 4811 be3c e1fc 91bc
00000360: a2bb 723c 0904 eb3c 6d89 01bd 189f 1e3b
00000370: a368 38bc dcb2 d6bb bec7 b3bc bb60 e3bc
00000380: 1b55 ce3b 7b43 0080 e520 0100 df37 0000
00000390: 2b8f 0000 e6eb 0000 a674 0080 9401 0080
000003a0: 2cd2 0080 2777 0080 a1e9 8e3b 08c5 453c
000003b0: 13be 3c3c 1d83 e63a f603 0f3c 9dc0 f63b
000003c0: 481d a6ba 3e0d b73b e17f a23b 8b2a 80bc
000003d0: 9697 3dbc f674 b6bb e31c 1abc 4d97 063b
000003e0: a981 233d 8ca9 393c d08f 5fbc 94cc 0d3b
000003f0: 5776 0080 fe41 0000 5d6b 0000 bd68 0080

e_conv5.bias f4 [32]
0.020796925 -1.409862e-05 -4.0529535e-26 0.017372113 -1.9982638e-25 0.0059999516 0.016900929 0.028630435
0.01309605 -1.3338635e-06 0.04222633 0.028551726 -1.2673439e-30 -0.0011105487 0.02651742 0.03409258
0.003173951 0.0014289519 -5.8563115e-34 0.007362554 0.025986642 0.029180566 0.009937042 -3.339495e-19
0.020085718 -7.8964005e-23 0.021925109 0.009337544 0.042050578 -4.469714e-05 -6.1628924e-09 -0.0016462262
00000000: 505e aa3c 1d89 6cb7 4ab1 4895 f64f 8e3c
00000010: 825f 7796 3e9b c43b d173 8a3c 608a ea3c
00000020: d190 563c 3307 b3b5 84f5 2c3d 4fe5 e93c
00000030: 68a3 cd8d d58f 91ba 0f3b d93c a9a4 0b3d
00000040: 1002 503b ab4b bb3a fd9b 4288 9441 f13b
00000050: f0e1 d43c 150c ef3c face 223c 0621 c5a0
00000060: ce8a a43c 5aec be9a 499c b33c 80fc 183c
00000070: 3a3d 2c3d 3079 3bb8 60c1 d3b1 2fc6 d7ba

e_conv7.weight f4 [8, 64, 3, 3]
0.00066861574 0.0021719588 -0.0024346162 0.009236208 0.008623048 0.0054495404 0.010360881 0.009224236
0.005388452 0.0017215166 0.0017805526 0.0057041873 0.005672362 0.0049634515 0.009136569 0.008486555
0.009748512 0.013961494 -3.1102e-41 -2.7604e-41 3.4066e-41 -7.8019e-41 -4.2737e-41 -7.4353e-41
4.9526e-41 -4.183e-41 4.9766e-41 -9.126588e-10 -8.1108636e-10 -4.790926e-10 1.15762205e-10 3.9374218e-10
1.3788201e-09 -2.030596e-10 2.0438012e-10 -2.4936334e-10 -0.00036123156 -0.0014139262 -0.0060923137 0.0056306757
0.003548472 -0.0010053603 0.0049936147 0.003467224 -0.0013495678 -0.009876041 -0.0071169287 -0.0058741206
0.0005415918 0.004740227 0.0051783468 0.005691427 0.009984782 0.010326813 0.0060963235 0.0058214767
0.0059384233 0.003238699 0.00627161 0.0058272327 0.00428813 0.005521723 0.006498256 -0.014401369
-0.025619313 -0.039433055 0.0015196067 -0.009547018 -0.023613548 0.012951861 -0.0024389105 -0.017044857
-2.0146966e-20 6.07564e-21 -1.3673105e-20 1.32050305e-20 5.5815276e-21 3.7527165e-21 1.1438079e-20 1.01860596e-20
1.971189e-20 -5.107e-41 -1.0719e-40 -3.4438e-41 -4.4462e-41 3.3357e-41 1.48632e-40 -2.5557e-41
-1.75033e-40 5.7516e-41 0.0018611513 -0.00092459633 0.00017248016 0.0013253668 -0.0013693271 -7.952614e-05
-0.0012544404 -0.0040945793 -0.0026997442 -0.0071645747 -0.0052122693 -0.0098965755 -0.0022773505 0.00049320154
-0.0050448524 -0.0031312888 -0.001089413 -0.0059734406 0.0006794591 0.005718434 0.0029370924 -0.0008458927
0.0042771343 0.0018512248 -0.00613538 -0.0014020035 -0.0036358421 -0.01967504 -0.023241516 -0.009244095
-0.017835025 -0.022139985 -0.007924137 -0.0024839188 -0.0064940136 0.009138307 -0.0013997459 0.0037534228
0.0027327354 -9.1714996e-05 0.0044558165 0.00465755 0.0022586691 0.007102742 0.0069767023 -0.0031735648
-0.0027182675 -0.0030421698 0.0020401673 0.001335156 0.0012462148 0.0021382642 0.0017001239 0.0021443148
1.06984e-40 -5.5445e-41 1.82528e-40 -3.202e-42 5.4076e-41 -6.534e-41 -1.22496e-40 -8.092e-41
2.5829e-41 0.007219774 0.04943099 0.013367103 0.039663553 0.08165178 0.04662597 -0.008547382
0.033391856 -0.002078072 -7.2244e-41 -8.0412e-41 -4.8485e-41 -1.81377e-40 5.2619e-41 1.45428e-40
-2.847e-41 5.3895e-41 -8.7284e-41 -0.010006095 -0.0023363444 -0.0086201355 -0.008698779 -0.001919122
-0.009713821 -0.015337223 -0.009959222 -0.01666815 -0.0037453314 0.0037601928 -0.00020359336 0.0013501446
0.009180702 0.0048486083 -0.004426523 0.003125741 -0.00090414076 1.00804e-40 -4.7458e-41 -3.995e-42
5.7651e-41 -6.6192e-41 -5.1237e-41 -6.663e-42 -6.4177e-41 7.9476e-41 -0.0025484127 -0.001284915
-0.0067020855 0.0047952104 0.006239994 0.0005745865 0.0029902349 0.0044859825 -0.0009792998 -1.1867e-40
4.0357e-41 2.981e-41 9.9443e-41 1.51999e-40 -1.9489e-41 4.784e-41 2.285e-41 8.159e-41
2.1595967e-23 -9.09495e-24 -3.420477e-23 3.5945683e-22 1.7567044e-22 -8.281479e-23 3.3326214e-24 -8.2504633e-23
1.3365008e-23 0.0046881633 0.007854735 0.002099522 0.0026288494 0.006247061 0.0013314254 -0.0016781659
0.0021304947 -0.0034759736 0.0057426905 0.0047772783 0.05097154 -0.041928127 -0.041969296 -0.00055727665
-0.04456458 -0.040382195 0.0036689239 0.004220726 0.004599857 0.0029671234 0.011006689 0.011021589
0.01091431 0.008023771 0.010130283 0.009221793 -0.021325788 0.021928612 -0.019924192 0.014963482
00000000: 0b46 2f3a 6c57 0e3b 158e 1fbb 7753 173c
00000010: af47 0d3c 0f92 b23b afc0 293c 4021 173c
00000020: 9d91 b03b 83a4 e13a 6e61 e93a 31ea ba3b
00000030: 39df b93b 73a4 a23b 8cb1 153c 310b 0b3c
00000040: 39b8 1f3c c0be 643c b356 0080 f34c 0080
00000050: f65e 0000 7cd9 0080 2277 0080 44cf 0080
00000060: 0f8a 0000 9b74 0080 ba8a 0000 a7de 7ab0
00000070: 21f3 5eb0 25b1 03b0 5490 fe2e 4976 d82f
00000080: eb80 bd30 3244 5faf e4b7 602f c516 89af
00000090: ae63 bdb9 7e53 b9ba 08a2 c7bb 8881 b83b
000000a0: 7b8d 683b 4bc6 83ba 7aa1 a33b 5e3a 633b
000000b0: fbe3 b0ba 1ecf 21bc 2035 e9bb b27b c0bb
000000c0: 9cf9 0d3a e853 9b3b 1faf a93b 267f ba3b
000000d0: 3697 233c cb31 293c abc3 c73b 16c2 be3b
000000e0: 1b97 c23b 5a40 543b 1482 cd3b 5ff2 be3b
000000f0: 7183 8c3b 92ef b43b 53ef d43b b8f3 6bbc
00000100: 98df d1bc 8e84 21bd 8a2d c73a 196b 1cbc
00000110: 3371 c1bc 0b34 543c 21d6 1fbb a8a1 8bbc
00000120: 6048 be9e fc87 e51d 8a23 819e 9c6f 791e
00000130: 39dd d21d 0cc6 8d1d 280f 581e c368 401e
00000140: 6d2c ba1e 5d8e 0080 cd2a 0180 0060 0080
00000150: f17b 0080 fc5c 0000 539e 0100 3e47 0080
00000160: ece7 0180 55a0 0000 e0f1 f33a 9c60 72ba
00000170: cadb 3439 eeb7 ad3a fe7a b3ba 45c7 a6b8
00000180: 096c a4ba d22b 86bb 31ee 30bb cfc4 eabb
00000190: afcb aabb 3f25 22bc 9a3f 15bb 324a 013a
000001a0: 4a4f a5bb 4f36 4dbb a2ca 8eba dabc c3bb
000001b0: ba1d 323a b461 bb3b 3c7c 403b e6be 5dba
000001c0: 3427 8c3b cca4 f23a 4c0b c9bb 6ec3 b7ba
000001d0: 4f47 6ebb 8d2d a1bc fe64 bebc 8b74 17bc
000001e0: c21a 92bc ea5e b5bc 3dd4 01bc 3ec9 22bb
000001f0: bccb d4bb d6b8 153c ae77 b7ba fcfb 753b
00000200: b117 333b 1d57 c0b8 1902 923b 5c9e 983b
00000210: 2e06 143b 1ebe e83b d29c e43b 95fb 4fbb
00000220: f624 32bb 245f 47bb 54b4 053b 6700 af3a
00000230: 0858 a33a 1f22 0c3b b1d6 de3a a287 0c3b
00000240: 3a2a 0100 8f9a 0080 d0fc 0100 ed08 0080
00000250: be96 0000 24b6 0080 7855 0180 92e1 0080
00000260: 0048 0000 db93 ec3b 2678 4a3d b201 5b3c
00000270: 4076 223d 0c39 a73d e0fa 3e3d 520a 0cbc
00000280: e6c5 083d 4330 08bb 63c9 0080 28e0 0080
00000290: 2887 0080 9bf9 0180 ae92 0000 6595 0100
000002a0: 5d4f 0080 3d96 0000 50f3 0080 9bf0 23bc
000002b0: 5b1d 19bb 783b 0dbc 5385 0ebc 0c8b fbba
000002c0: b826 1fbc fa48 7bbc 012c 23bc a58b 88bc
000002d0: 3c74 75bb 916d 763b ad7b 55b9 56f7 b03a
000002e0: a86a 163c 13e1 9e3b 5e0c 91bb 3bd9 4c3b
000002f0: dc03 6dba 0019 0100 4b84 0080 230b 0080
00000300: b5a0 0000 84b8 0080 d48e 0080 9312 0080
00000310: e6b2 0080 8cdd 0000 4503 27bb 986a a8ba
00000320: 2b9d dbbb 2421 9d3b dd78 cc3b d99f 163a
00000330: d1f7 433b 26ff 923b d95b 80ba ce4a 0180
00000340: 8070 0000 1953 0000 3515 0100 b6a7 0100
00000350: 5436 0080 5c85 0000 b23f 0000 71e3 0000
00000360: 06dd d019 03ec 2f99 7467 259a 4047 d91b
00000370: 5e5f 541b df3b c89a afec 8018 e57b c79a
00000380: 2842 8119 2a9f 993b 25b1 003c 2298 093b
00000390: c648 2c3b 25b4 cc3b 3983 ae3a e7f5 dbba
000003a0: c59f 0b3b 29cd 63bb 2e2d bc3b b78a 9c3b
000003b0: 89c7 503d d4bc 2bbd ffe7 2bbd 3416 12ba
000003c0: 5989 36bd cd67 25bd 5472 703b 044e 8a3b
000003d0: 66ba 963b 1274 423b 6655 343c e593 343c
000003e0: efd1 323c 2376 033c 7df9 253c 0117 173c
000003f0: 6bb3 aebc a2a3 b33c 0f38 a3bc 6429 753c

e_conv7.bias f4 [8]
0.021094397 0.008039021 0.051817015 0.033664845 0.013247867 0.021171302 0.008937676 -0.0012946674
00000000: 28ce ac3c 19b6 033c 143e 543d 26e4 093d
00000010: 950d 593c 706f ad3c 556f 123c d4b1 a9ba

e_conv8.weight f4 [8, 64, 3, 3]
0.046469588 0.038043987 0.0026060347 -0.020076515 -5.321376e-06 0.009854001 0.0053231744 0.010984681
-0.028044216 -0.01524368 0.0073825093 -0.00877377 0.012943406 0.03014467 0.019695861 -0.020246474
0.009919789 0.01497567 -7.766691e-14 2.2574872e-15 -1.7559979e-14 9.443841e-16 4.2969088e-15 -1.9363363e-14
3.4049094e-16 4.1938322e-16 1.1117314e-14 -2.969514e-08 -4.0395268e-08 -4.2464315e-08 4.5128164e-08 1.8053175e-08
-3.418034e-08 1.5079234e-08 2.292767e-08 -4.7716195e-08 -0.0035528925 0.010963389 -0.005274526 -0.034306653
0.0022627774 0.03789272 -0.027868504 0.01644877 0.01744764 -0.0016854979 0.023608927 0.038186256
0.05686868 -0.009717468 0.017152308 -0.012649607 0.031218503 0.024735602 0.022008607 0.012489508
-0.0064779967 0.014819493 0.009651008 -0.02852582 0.012556713 0.036615834 -0.035976924 0.00809256
0.0021459837 0.0042258915 -0.008342118 0.0029056258 -0.0036466033 -0.0019851108 -0.003438666 0.0009451085
-3.947643e-18 -3.4243313e-18 -1.0309484e-18 3.2825674e-18 -2.8027969e-18 3.6710172e-18 5.873764e-17 -3.2236887e-18
-4.119453e-18 -4.14e-41 1.1439e-41 -2.507e-42 -1.4915e-41 4.4706e-41 1.244e-42 1.244e-42
-4.5995e-41 4.6567e-41 0.0021016633 0.01165903 0.003816904 0.0077842586 0.021117002 0.011489866
-0.0010986027 0.0016629129 -0.001163791 0.0053007947 -0.014967968 0.012745031 0.017746644 -0.011474405
-0.00030790977 0.024279708 0.0061083944 0.022864368 0.0016709138 0.0060380157 0.00057494256 0.015929421
0.02574893 0.015497592 -0.0016962306 -0.0028183924 -0.004981166 0.00113621 0.007664916 0.0041405074
-0.0046974984 0.0059475545 0.00017255181 -0.005984616 0.0016030018 -0.0070322403 0.029229391 0.010940246
-0.0018372574 -0.008040983 -0.015574213 0.012515333 -0.017441995 0.008256817 0.01088362 0.052843276
0.025703907 0.009601789 0.03816974 0.022897836 0.0024932101 -0.021507114 -0.016196677 -8.613167e-05
6.0148e-41 6.8682e-41 -4.8956e-41 -6.8246e-41 -1.22164e-40 -4.2833e-41 9.7067e-41 -3.6721e-41
2.5683e-41 0.0011298198 0.0020375766 -0.013203114 0.0048986864 -0.002096706 0.007055014 -0.002422935
0.01271596 -0.0064610913 -3.6588e-41 8.7138e-41 5.7107e-41 3.4095e-41 4.0858e-41 8.0315e-41
-8.8656e-41 -3.428e-42 -1.841e-42 -0.00021742772 0.0112535 -0.007807352 -0.003647324 0.02493629
-0.0022746904 -0.014436737 -0.010364891 0.022534305 -0.003577477 -0.0047834856 -0.0038362006 -0.0007200173
-0.000933109 -0.0015674275 0.0011859897 -0.00031872423 0.00058942783 -1.085776e-33 -1.2878787e-33 -1.15429045e-33
5.1258542e-26 -9.09659e-32 -6.624878e-34 -5.5750244e-34 -1.8406179e-33 2.9385651e-30 -0.0023581786 0.03065102
-0.008510953 0.01621106 0.0514819 0.005311617 0.0038481234 0.03545982 -0.003082258 6.7512e-41
3.514e-42 5.2987e-41 6.3257e-41 6.7565e-41 4.1742e-41 -3.9884e-41 -1.8169e-41 2.7655e-41
-3.1508675e-21 7.6819957e-22 -2.4916871e-21 -2.2936054e-21 1.2108673e-22 -7.1585474e-22 -1.9472379e-21 2.7803134e-21
-2.4931498e-21 -0.024093365 -0.009942335 0.019663436 0.0032011713 0.005958321 0.0058044204 -0.007400866
0.011229198 0.029378353 -0.0028916374 0.0037460923 -0.0034823783 0.0011196765 0.0051905117 -0.0034202216
0.00048265466 0.0039081587 -0.00390025 -0.027870307 0.0015505238 -0.014904273 0.016189028 -0.010166391
-0.0030293583 0.00802635 0.031391505 -0.017527178 -0.0009967445 0.0100218095 -0.006226633 0.016750885
00000000: e556 3e3d 03d4 1b3d 02ca 2a3b 8177 a4bc
00000010: 468e b2b6 ad72 213c 066e ae3b 17f9 333c
00000020: fcbc e5bc a1c0 79bc fae8 f13b dcbf 0fbc
00000030: 9410 543c f4f1 f63c 3759 a13c efdb a5bc
00000040: 9c86 223c 835c 753c ede3 aea9 4aab 2227
00000050: 8e2a 9ea8 a019 8826 fdcf 9a27 e068 aea8
00000060: 9847 c425 0ac2 f125 9045 4828 4e14 ffb2
00000070: 117f 2db3 0262 36b3 f1d2 4133 5a13 9b32
00000080: aecd 12b3 9687 8132 7bf2 c432 83f0 4cb3
00000090: a5d7 68bb c99f 333c eed5 acbb 2285 0cbd
000000a0: 1b4b 143b 6635 1b3d 7d4c e4bc 92bf 863c
000000b0: 5aee 8e3c edeb dcba 8267 c13c 3169 1c3d
000000c0: 22ef 683d 0436 1fbc ff82 8c3c 4c40 4fbc
000000d0: f2bd ff3c 51a2 ca3c 654b b43c cba0 4c3c
000000e0: 6045 d4bb 75cd 723c 431f 1e3c fbae e9bc
000000f0: acba 4d3c 7cfa 153d 8a5c 13bd a896 043c
00000100: a2a3 0c3b 5979 8a3b 61ad 08bc 506c 3e3b
00000110: dafb 6ebb a218 02bb 3e5b 61bb 28c1 773a
00000120: 6fa4 91a2 caab 7ca2 2124 98a1 f235 7222
00000130: 56cf 4ea2 c76f 8722 9570 8724 c2dd 6da2
00000140: 22fb 97a2 6873 0080 e31f 0000 fd06 0080
00000150: 9429 0080 9f7c 0000 7803 0000 7803 0000
00000160: 3780 0080 cf81 0000 0fbc 093b 8405 3f3c
00000170: 0625 7a3b 1813 ff3b 90fd ac3c fe3f 3c3c
00000180: fdfe 8fba 19f6 d93a 598a 98ba 4ab2 ad3b
00000190: 353c 75bc 89d0 503c 6961 913c 25ff 3bbc
000001a0: f36e a1b9 3de6 c63c ed28 c83b 0e4e bb3c
000001b0: 9002 db3a 8cda c53b beb7 163a 6b7e 823c
000001c0: 6cef d23c 9de9 7d3c 0e54 deba c7b4 38bb
000001d0: 0d39 a3bb e2ec 943a fa29 fb3b 18ad 873b
000001e0: 79ed 99bb b4e3 c23b 06ef 3439 991a c4bb
000001f0: d11b d23a b56e e6bb 7a72 ef3c b83e 333c
00000200: 21d0 f0ba 54be 03bc fc2a 7fbc 1c0d 4d3c
00000210: 84e2 8ebc 9a47 073c 3651 323c 3172 583d
00000220: 0091 d23c d250 1d3c e057 1c3d 3e94 bb3c
00000230: 2065 233b b02f b0bc e5ae 84bc 97a1 b4b8
00000240: aba7 0000 75bf 0000 7888 0080 3ebe 0080
00000250: 8b54 0180 6777 0080 950e 0100 5d66 0080
00000260: 9847 0000 7616 943a dd88 053b e051 58bc
00000270: 2985 a03b e468 09bb bf2d e73b 1bca 1ebb
00000280: 9a56 503c 90b7 d3bb fe65 0080 e8f2 0000
00000290: 319f 0000 0b5f 0000 e571 0000 e3df 0000
000002a0: 23f7 0080 8e09 0080 2205 0080 4ffd 63b9
000002b0: 9a60 383c d1d4 ffbb f107 6fbb 3147 cc3c
000002c0: f912 15bb 1088 6cbc 81d1 29bc dd99 b83c
000002d0: 1b74 6abb c9be 9cbb c468 7bbb 8bbf 3cba
000002e0: e39b 74ba 2472 cdba 3673 9b3a 711a a7b9
000002f0: d583 1a3a ce67 b488 4dfc d588 16ca bf88
00000300: ecd1 7d15 3629 ec8b 3b26 5c88 1043 3988
00000310: 9de9 1889 9c67 6e0e ac8b 1abb d917 fb3c
00000320: 8671 0bbc 0fcd 843c afde 523d 130d ae3b
00000330: cc30 7c3b 513e 113d b5ff 49bb 32bc 0000
00000340: cc09 0000 b593 0000 56b0 0000 58bc 0000
00000350: 5c74 0000 2e6f 0080 a632 0080 174d 0000
00000360: a412 6e9d 902c 681c 3d44 3c9d c84c 2d9d
00000370: 8762 121b 945a 589c 0f21 139d 1513 521d
00000380: 8860 3c9d 735f c5bc 2de5 22bc 3715 a13c
00000390: beca 513b 053e c33b 0233 be3b f782 f2bb
000003a0: acfa 373c dfaa f03c a081 3dbb 0081 753b
000003b0: 9d38 64bb 1cc2 923a 2b15 aa3b cc25 60bb
000003c0: d00c fd39 0310 803b 569b 7fbb 4550 e4bc
000003d0: f23a cb3a 0d31 74bc da9e 843c ef90 26bc
000003e0: 3388 46bb f480 033c 6194 003d 2895 8fbc
000003f0: 32a5 82ba 8432 243c c908 ccbb 2739 893c

e_conv8.bias f4 [8]
-0.028933069 -0.0030145186 0.0013686572 -0.007921466 0.03094358 0.0058267806 -0.007981647 0.01845058
00000000: 0b05 edbc 3b8f 45bb 8464 b33a 09c9 01bc
00000010: 647d fd3c 94ee be3b 74c5 02bc ac25 973c
