snapshots/Epoch169.pth (torch, 304045 bytes, 14 tensors)

e_conv1.weight f4 [32, 3, 3, 3]
000000 f0 9c 3d a2 d1 43 26 a2 f1 d8 13 a2 da 58 56 a2
       -2.5697358e-18 -2.2533097e-18 -2.0037063e-18 -2.9049446e-18
000010 e3 31 53 a2 3f 3e 4b a2 c8 31 83 a2 f2 b8 92 a2
       -2.8622242e-18 -2.7544583e-18 -3.556033e-18 -3.9769198e-18
000020 80 f3 7e a2 99 c7 b9 a3 35 6e bb a3 2e 80 b6 a3
       -3.4552327e-18 -2.0142273e-17 -2.0321255e-17 -1.9786766e-17
000030 f4 26 bb a3 d1 af bb a3 96 5d b7 a3 81 e4 ba a3
       -2.0291078e-17 -2.0349042e-17 -1.9880535e-17 -2.0262936e-17
000040 3e a3 ba a3 ae 8c b8 a3 8f 5f d3 a3 41 4b d3 a3
       -2.0235296e-17 -2.00089e-17 -2.2917136e-17 -2.2908537e-17
000050 bc fa d0 a3 85 58 d5 a3 7c 8b d5 a3 05 ae d2 a3
       -2.2657595e-17 -2.3130996e-17 -2.315258e-17 -2.2841946e-17
000060 39 2f d4 a3 68 d4 d3 a3 9e 50 d1 a3 76 05 30 3c
       -2.3005086e-17 -2.2966623e-17 -2.2693968e-17 0.0107434895
000070 ab ff ac 3b dd 6e 44 3b 22 5e c5 3c 42 c4 89 3c
       0.0052795014 0.0029973306 0.024092738 0.016817216
000080 b2 1e e6 3c 2e 16 63 3d 9a 2a 32 3d f2 0b 84 3d
       0.028090809 0.055441074 0.04349766 0.06447591
000090 14 93 b0 3b 56 2b 0a bc 46 1f 4b 3c 15 40 0e 3c
       0.005388627 -0.008433184 0.012397593 0.0086822705
0000a0 52 ef db 3b 43 6f 94 3c 6d 2a 35 3d c4 64 1c 3d
       0.006711879 0.01811946 0.044229914 0.038182035
0000b0 85 59 4a 3d d2 c6 71 bc e4 b8 a4 bc f2 e6 ca bc
       0.04940178 -0.014756875 -0.020107694 -0.024768326
0000c0 0b 65 39 bc 23 74 92 bc 4e 01 52 bc c8 a1 99 3b
       -0.011315594 -0.017877644 -0.012817694 0.0046884753
0000d0 6e 7b ad ba b7 5b ca 3c 88 a7 a9 bc dc 50 21 bd
       -0.0013235637 0.024701936 -0.020709768 -0.039383754
0000e0 b6 85 f4 bc d0 4f 27 bc ec 56 f5 bc b0 c2 ef bc
       -0.029848915 -0.0102119 -0.029948674 -0.029267639
0000f0 4a f8 58 3b 21 04 77 bc 16 75 a5 bc 12 d2 be 3b
       0.0033106976 -0.015076668 -0.020197432 0.005823382
000100 63 b2 c0 3b 3b 5c 53 3b 54 16 4a 3c 19 99 03 3c
       0.0058806404 0.0032251019 0.012334425 0.008032107
000110 26 ed a6 3b ca 6b 34 3d 54 bc b3 3c 9e 8d 8b ba
       0.0050941883 0.04404811 0.021940388 -0.0010647064
000120 e0 93 33 3d bb 64 27 3d cf 37 23 3d 7e 5f 55 3d
       0.043842196 0.04086755 0.039848145 0.05209302
000130 63 c3 1e 3d 9f 4e 36 3d 99 9f 7c 3d 15 8f 25 3d
       0.038760554 0.044508573 0.06167564 0.040419657
000140 4c df 1f 3d 1d 0e 97 bc 0f 95 16 3b 06 d5 82 3c
       0.039031312 -0.018439347 0.002297703 0.015970718
000150 41 2c 0b bd 8d 7a 49 bc 1e 33 47 3c e0 1b 1e bd
       -0.03397775 -0.012297285 0.012158183 -0.038600802
000160 5b 9a 65 bc 89 2f f3 3c 5b cb f5 bc 94 b4 53 ba
       -0.014013852 0.029685752 -0.030004194 -0.00080759195
000170 e4 b9 82 3c 16 23 e9 bc da be 2f bc 50 54 4f 3c
       0.01595778 -0.028459113 -0.010726655 0.012654379
000180 44 63 2f bd 9f a4 64 bb 47 d0 ef 3c 99 d3 0a bc
       -0.042819276 -0.003488816 0.029274119 -0.0084733
000190 f7 af 4b 3b 99 17 2c 3c b0 30 7b bc 37 e1 20 3b
       0.0031080225 0.010503673 -0.015331432 0.00245483
0001a0 d3 48 33 3c f8 07 f4 bc f1 90 09 ba ea fe f9 3c
       0.010942656 -0.029788956 -0.0005247733 0.03051706
0001b0 93 b1 18 3d 18 24 1c 3d 5c b9 b9 3d 0d e7 ec 3b
       0.037278723 0.03812036 0.090685576 0.007229692
0001c0 2a 28 f3 3b f7 f1 54 3d a3 e2 3e bb 74 e4 43 3b
       0.0074205594 0.05198857 -0.0029126785 0.0029890807
0001d0 95 57 43 3d 61 bd f8 3c 7d d5 fe 3c 4a ff a3 3d
       0.047690947 0.03036374 0.031107659 0.08007677
0001e0 1c f5 26 ba c5 33 4b ba f6 50 22 3d f0 39 17 bc
       -0.00063689216 -0.000775155 0.03962799 -0.009230122
0001f0 d9 ee 77 3a f6 c8 2c 3d 4d b4 6d 3c 84 91 32 3c
       0.00094578933 0.04218384 0.014508319 0.010898951
000200 9f f0 53 3d bf df 46 bc af 23 4b bc 46 ab a3 3c
       0.051743146 -0.012138306 -0.012398644 0.01997913
000210 53 aa b9 bc 3f f3 66 bc 4b bb 9d 3c 94 33 f3 ac
       -0.022664225 -0.01409608 0.019254347 -6.9122017e-12
000220 06 a9 f7 ac 27 66 f6 ac 27 ff f5 ac 35 44 fb ac
       -7.0389276e-12 -7.0030817e-12 -6.9916464e-12 -7.1414216e-12
000230 fd d4 f9 ac 38 d9 f5 ac 36 25 fb ac cd 21 fa ac
       -7.100652e-12 -6.987435e-12 -7.1379803e-12 -7.10918e-12
000240 12 ff ef ac fc 6d f4 ac e9 85 f3 ac 1b ae f2 ac
       -6.821107e-12 -6.947108e-12 -6.9213424e-12 -6.8973833e-12
000250 2d b2 f7 ac bd 73 f6 ac f2 ef f1 ac 48 dc f6 ac
       -7.0399437e-12 -7.00459e-12 -6.8762713e-12 -7.0161967e-12
000260 33 f4 f5 ac 94 c2 e6 ac 6e b1 ea ac cf 54 e9 ac
       -6.9904304e-12 -6.5585957e-12 -6.6703787e-12 -6.631674e-12
000270 ce 6f e9 ac a8 16 ee ac e7 74 ec ac 66 e7 e7 ac
       -6.634671e-12 -6.766882e-12 -6.720502e-12 -6.5911053e-12
000280 7e 56 ec ac 82 16 eb ac 6f ba 99 3d 8f 93 d6 3c
       -6.717126e-12 -6.6816006e-12 0.075062625 0.026193408
000290 9f 5d c4 bc 01 a8 5b 3d 6f 8e 95 3c 8a 01 0a bd
       -0.023970423 0.053627018 0.018256394 -0.033692874
0002a0 27 fb 37 3d bf 02 85 39 63 e5 4b bd a4 8c 80 3d
       0.044917252 0.00025369783 -0.049779307 0.06276825
0002b0 45 c2 b9 3c 40 c3 22 bd 12 47 2a 3d 26 4b 0f 3c
       0.022675643 -0.039736986 0.041571684 0.008745944
0002c0 5e 33 00 bd 79 2f f3 3c ea 77 b5 bc 0f eb 8d bd
       -0.031298988 0.029685723 -0.022151906 -0.069295995
0002d0 07 44 0c 3d bd 0e 4c ba e2 eb ff bc ff 2d b1 3c
       0.034244563 -0.00077841786 -0.031240407 0.021628378
0002e0 20 62 f2 3a 57 09 dc bc 87 c5 d9 3c 5a c2 95 bc
       0.0018492378 -0.026859922 0.026583446 -0.01828115
0002f0 8e 7d 7c bd c8 50 10 b5 7c 64 14 b5 a1 09 1e b5
       -0.061643176 -5.376173e-07 -5.528052e-07 -5.88736e-07
000300 91 9c 10 b5 28 c4 15 b5 f4 de 1c b5 c4 df 12 b5
       -5.3872014e-07 -5.579227e-07 -5.843897e-07 -5.471486e-07
000310 8e b5 15 b5 77 51 1e b5 6f cb 16 b5 72 e7 19 b5
       -5.577102e-07 -5.8978134e-07 -5.617539e-07 -5.733374e-07
000320 a0 4a 23 b5 f9 16 13 b5 36 c8 16 b5 2c 3f 1d b5
       -6.0830826e-07 -5.4795197e-07 -5.61707e-07 -5.8578985e-07
000330 2f 88 10 b5 fb 79 11 b5 f9 35 19 b5 d6 a0 85 b4
       -5.3842354e-07 -5.4194214e-07 -5.707548e-07 -2.4890204e-07
000340 df 0f 89 b4 26 d0 92 b4 c0 e6 82 b4 c1 d3 86 b4
       -2.5529786e-07 -2.7346067e-07 -2.438228e-07 -2.5113516e-07
000350 42 95 8d b4 92 21 7f b4 a7 53 80 b4 de 12 88 b4
       -2.6371896e-07 -2.3760938e-07 -2.3902723e-07 -2.5345702e-07
000360 e9 35 10 b1 a0 4b 03 b1 94 b0 f6 b0 68 ae 1f b1
       -2.0985402e-09 -1.9105997e-09 -1.7949042e-09 -2.3236684e-09
000370 55 20 13 b1 79 3a 05 b1 3d 61 3a b1 39 8a 23 b1
       -2.1409694e-09 -1.9387285e-09 -2.7121836e-09 -2.3798192e-09
000380 1d c1 18 b1 ee ed 07 b0 99 71 ea af ce 3c d3 af
       -2.2228683e-09 -4.945083e-10 -4.2645068e-10 -3.842388e-10
000390 b1 2a 07 b0 39 00 eb af c1 8d cb af 77 e3 17 b0
       -4.917338e-10 -4.274641e-10 -3.7026207e-10 -5.5256727e-10
0003a0 1c e5 fa af d6 43 df af 0f 5e 46 af c7 99 30 af
       -4.5637527e-10 -4.0611664e-10 -1.8041411e-10 -1.606174e-10
0003b0 bf f6 17 af a7 92 3d af 3d a5 29 af 72 b5 08 af
       -1.3821032e-10 -1.7241551e-10 -1.5429165e-10 -1.243359e-10
0003c0 e7 42 3e af 53 b5 1f af 55 fc 0a af 28 1a 89 bd
       -1.7304168e-10 -1.4525385e-10 -1.2640673e-10 -0.06694442
0003d0 ac ba 22 bd 8e a0 81 bd 2e d1 02 bd af 3b 8a bc
       -0.039728805 -0.063294515 -0.03193777 -0.016874162
0003e0 85 33 9b bc e1 7a e2 bb 73 37 8f 3c a4 90 7e 3c
       -0.018945465 -0.006911621 0.017482495 0.015537415
0003f0 ae 72 6d bd 71 09 c6 bc 2d 14 3b bd 71 38 99 bc
       -0.057970695 -0.024174424 -0.045673538 -0.018703671

e_conv1.bias f4 [32]
000000 17 85 f2 a4 ba 42 7f 3d 1b cd ae 3c f0 c2 e5 3d
       -1.0517623e-16 0.062319495 0.021338036 0.11218822
000010 0c af 61 3d 27 21 15 ad 1e e1 98 3d 6a 43 81 b8
       0.05509858 -8.477031e-12 0.07464813 -6.163756e-05
000020 84 62 52 b6 e0 f4 a8 3d 31 8b d8 90 5d 0e b7 9e
       -3.1349782e-06 0.08249831 -8.5411436e-29 -1.9381819e-20
000030 c7 ac 4a 3c bc b6 86 3d 8b 6a 4f ba ff ea 13 3e
       0.012370295 0.065778226 -0.00079122995 0.14445113
000040 28 83 ef 3d 42 a3 c4 3d 97 09 34 3e 05 53 1f 3e
       0.11694938 0.096014515 0.17581783 0.15559013
000050 fe 97 ab 9e ff 3c 0f 3e 75 f8 57 bc 1e 39 ef 3d
       -1.8168192e-20 0.13988112 -0.013181795 0.11680816
000060 2f 14 b3 ae 47 07 e6 a5 65 05 da 3c 12 2d 69 9d
       -8.143563e-11 -3.990357e-16 0.0266139 -3.0860594e-21
000070 64 76 7a a0 d2 b3 cb bc 8d 7b cb 3d ae 94 1e b5
       -2.1214996e-19 -0.024866018 0.09935675 -5.9075944e-07

e_conv2.weight f4 [32, 32, 3, 3]
000000 9f 59 67 a2 43 6e 34 a2 38 3c d3 a2 7e 1d 89 a2
       -3.1353783e-18 -2.445292e-18 -5.7255424e-18 -3.716515e-18
000010 84 70 2d a2 df 8f 7e a2 f2 44 c9 a2 95 de 8f a2
       -2.3505437e-18 -3.4499584e-18 -5.4554158e-18 -3.8995896e-18
000020 0d c8 e1 a2 d3 d8 8d 3b 3a 35 bc bb c8 d8 f7 3a
       -6.1198184e-18 0.004328826 -0.00574365 0.001890921
000030 ba 41 67 ba 8a 16 00 ba 22 cb 49 bb b8 82 dd 3b
       -0.00088217447 -0.0004886171 -0.0030791243 0.0067599677
000040 9f f2 39 3c 14 59 60 3a 3d d3 58 bb dd 76 82 bb
       0.011349349 0.00085581955 -0.0033084892 -0.0039814548
000050 dc 92 82 bb f2 0f 06 ba bc 21 43 bb 93 b2 7f bb
       -0.003984792 -0.00051140704 -0.0029774746 -0.003901635
000060 91 80 af 3a 1b b0 be 38 29 a6 cf b8 60 6a af bb
       0.0013389756 9.092708e-05 -9.901479e-05 -0.005353257
000070 6a ad ae 3b 26 b8 12 3c a2 66 8b bb 65 de 15 ba
       0.005330731 0.008955037 -0.004254178 -0.00057170383
000080 34 3b 30 3a ca 85 09 bc 63 2e d3 3a e4 87 9b 3b
       0.0006722689 -0.008393714 0.0016111847 0.004746424
000090 a6 df 4c ba 15 b3 e0 ba c5 92 f2 ba b3 3d 63 3b
       -0.00078153086 -0.0017143214 -0.0018506875 0.0034674227
0000a0 af c0 e4 bb a4 86 ef 3a fd 72 9f 3b fc 4a 05 bc
       -0.0069809775 0.0018274379 0.0048660026 -0.008135553
0000b0 c2 3c a2 bb b0 36 21 a8 ec 85 ae a8 01 84 fd a8
       -0.0049510906 -8.949154e-15 -1.937596e-14 -2.814589e-14
0000c0 8d 7d 90 a8 7c 4b a2 a8 66 80 a2 a8 f6 4a 9d a8
       -1.604166e-14 -1.8018349e-14 -1.8041297e-14 -1.746301e-14
0000d0 0c 91 a7 a8 5f 8e ce a8 19 19 67 3b d2 74 7d 3b
       -1.8603629e-14 -2.2932338e-14 0.0035262762 0.0038674367
0000e0 30 34 c5 39 95 c4 7a 3b 62 db 8f 3b e2 47 af 3a
       0.0003761365 0.0038264145 0.004390166 0.0013372863
0000f0 08 a0 9e 3b ba 96 92 3b e1 1d 33 3b 64 0f 01 00
       0.0048408546 0.0044735344 0.0027331042 9.7357e-41
000100 ef dd 00 80 97 00 01 80 2b 34 00 80 b6 92 00 80
       -7.9615e-41 -9.2047e-41 -1.8714e-41 -5.263e-41
000110 37 07 00 80 db 72 00 00 cc 7f 00 00 18 f8 00 80
       -2.588e-42 4.1202e-41 4.5845e-41 -8.8999e-41
000120 0b 2b 00 80 b5 e4 00 80 ff cf 00 80 fd 47 00 00
       -1.5441e-41 -8.2045e-41 -7.4615e-41 2.5825e-41
000130 c9 56 00 80 f7 d6 00 80 92 3b 00 00 f2 4b 00 00
       -3.1133e-41 -7.7115e-41 2.137e-41 2.7244e-41
000140 d7 88 00 80 24 fb cf 3a f7 23 75 3a 2d ba 35 3b
       -4.9089e-41 0.0015867692 0.00093513675 0.0027729378
000150 2d 9f 5d b9 f6 89 9b b9 7c f1 9e 3a 95 db 03 3b
       -0.000211355 -0.00029666693 0.0012126411 0.0020119895
000160 4a e3 c8 3a 89 1d f2 3a 07 04 39 0e a3 10 b8 0d
       0.0015326526 0.0018471937 2.280495e-30 1.1343881e-30
000170 55 30 1e 0e 25 0e 06 0e 26 0a 43 0e 13 c4 a0 0d
       1.9498275e-30 1.6523586e-30 2.4040492e-30 9.907964e-31
000180 b0 7f 6e 0e 5a 1c b6 0d 03 50 42 0e 4a 2f 00 80
       2.9397244e-30 1.1223441e-30 2.395087e-30 -1.6964e-41
000190 54 ec 00 80 f5 4f 01 00 2d 87 00 00 ab 08 01 80
       -8.4779e-41 1.20519e-40 4.8492e-41 -9.4945e-41
0001a0 7a 12 00 00 24 20 01 00 11 4d 00 00 eb a8 00 00
       6.628e-42 1.03365e-40 2.7646e-41 6.0596e-41
0001b0 ad fe 9d 39 4e fe bf 39 02 7e 6f b9 d3 9f 90 3a
       0.00030135122 0.0003661983 -0.00022839758 0.001103396
0001c0 e6 a4 61 3a 3d 31 7e 39 c5 ad 23 3b 14 d9 17 3b
       0.00086076406 0.0002424167 0.00249754 0.002317016
0001d0 eb f8 c7 3a a3 b8 6c 3a 03 a6 e6 3a 35 11 a4 3a
       0.0015256678 0.00090301986 0.0017597083 0.0012517335
0001e0 e6 2f 63 3a 47 ae df 3a 56 49 a1 3a 17 33 86 3a
       0.00086665 0.0017065489 0.0012305181 0.0010238615
0001f0 ac 59 06 3b a8 51 dc 3a 1e 5e 4d 2e 8f c4 f8 2d
       0.0020500226 0.0016809003 4.6695196e-11 2.8281625e-11
000200 b7 8b 07 2e 24 be 8c 2e c6 9f e9 2e 42 5b 26 2e
       3.0819538e-11 6.400239e-11 1.0623995e-10 3.7825083e-11
000210 32 33 d3 2c 83 f1 81 2e 0d c5 83 2e 2f 0d 52 3b
       6.0026645e-12 5.909142e-11 5.9921935e-11 0.0032051315
000220 0c 1b d7 3b 71 4c 20 3b 03 e1 e8 3b fe 67 06 3c
       0.0065645035 0.0024459625 0.0071069016 0.008203505
000230 3b cd d9 3b 69 af 16 ba 40 b9 fb bb b8 d2 2f bb
       0.00664678 -0.0005748184 -0.0076819956 -0.002682848
000240 af 5d 53 bb 3c dc 73 bb bb 74 ca b9 18 72 a7 bb
       -0.0032251885 -0.0037210127 -0.00038615413 -0.0051100366
000250 9c 50 c3 3b 5d 20 d0 3b 2c 69 03 bc 1b 79 03 3b
       0.005960537 0.0063515143 -0.00802068 0.0020061198
000260 fe e8 d6 3a a9 19 43 3b 13 76 b9 3a f9 45 f4 3a
       0.0016396341 0.0029769933 0.0014149569 0.0018636576
000270 0c e5 93 3a 5b 9e 38 3b 91 7d 13 3b 4b ee e2 3a
       0.0011283471 0.002817056 0.0022505263 0.0017313448
000280 bd cf 4c 3b 2c bf 37 3b 58 f1 a3 3a cf e4 15 bc
       0.0031251751 0.0028037531 0.0012507839 -0.0091487905
000290 3e 07 cb bb 50 2f 93 b9 8b bc c1 3a a2 4e 17 3c
       -0.0061959317 -0.00028073275 0.0014780922 0.009235056
0002a0 e1 c0 80 bc 89 cf 17 3c 6c 72 8f 3c 00 17 f5 3b
       -0.015716972 0.009265789 0.017510615 0.0074795485
0002b0 22 28 08 3c cb 9c 3e 3b 04 c2 4d 3b e3 2d 9c 3b
       0.00831035 0.0029085155 0.003139616 0.0047662123
0002c0 9e c7 0e 3b 9b f0 d9 ba c6 77 e0 39 35 be 2d 3c
       0.0021786462 -0.0016627492 0.00042813848 0.010604431
0002d0 b9 f6 96 07 74 d3 b7 87 ad ca a9 87 33 32 ac 07
       2.2714502e-34 -2.765906e-34 -2.5547416e-34 2.5909188e-34
0002e0 cf 6e ab 87 6d 65 7b 86 8e d2 70 87 c4 1e 9e 87
       -2.5794348e-34 -4.728237e-35 -1.811747e-34 -2.379128e-34
0002f0 1f 92 71 07 58 2d ed bb e5 b5 fb 3b 6b f8 1e 3c
       1.8173766e-34 -0.0072380714 0.0076815956 0.009702782
000300 c5 12 ea bb 9b e8 b1 3c 97 9a 70 3c a9 fd dd 3b
       -0.007143351 0.02171736 0.014685295 0.0067746234
000310 c4 68 6e 3c 80 5d 18 3c 8d b2 fb 39 8e cb 3a 36
       0.014551345 0.009299636 0.0004800748 2.7834644e-06
000320 96 bb 09 bb dd d6 3f 39 fd 09 a1 39 26 a7 9f ba
       -0.002101635 0.00018295222 0.00030715755 -0.0012180551
000330 27 f6 36 ba 02 51 87 3a 94 0c bf ba 6a bb 94 3b
       -0.00069794286 0.0010323825 -0.0014575892 0.004538943
000340 fd dd 92 3b 16 2f be 3b ae 4d 6b 3b d7 19 b4 3b
       0.0044820295 0.005803953 0.0035904455 0.0054962444
000350 e2 32 2e 3b 77 14 80 bb 7a 85 be 3b 72 9a 9a 3a
       0.0026580621 -0.0039086896 0.0058142515 0.0011795296
000360 f9 f6 ab 0a 96 7c bc 0b b7 43 c8 8b 28 5b b6 8b
       1.6559602e-32 7.260242e-32 -7.7139084e-32 -7.0241007e-32
000370 db e6 d7 0b 0d c5 96 0b aa 05 77 8b f0 2c 55 0b
       8.316234e-32 5.807439e-32 -4.757473e-32 4.1056115e-32
000380 72 6f de 0b 5d 48 8a a1 76 e2 8e a1 28 09 9c a1
       8.5678974e-32 -9.370398e-19 -9.682238e-19 -1.0573395e-18
000390 28 e3 6a a1 ad 60 86 a1 b6 6a 93 a1 b3 a5 7b a1
       -7.9582923e-19 -9.105783e-19 -9.989354e-19 -8.526141e-19
0003a0 ad 2c 83 a1 a8 a4 86 a1 8f d0 ca 3a e2 ca d6 38
       -8.888731e-19 -9.123777e-19 0.0015473532 0.00010242105
0003b0 d2 9f 52 3a 72 4c f9 ba 72 36 67 bb 92 c8 0d bc
       0.00080346793 -0.0019019975 -0.0035280255 -0.008653777
0003c0 4f 1b 09 3c 50 a4 74 bb 52 a0 26 bc 0b 60 00 80
       0.008368327 -0.0037329383 -0.010170059 -3.4454e-41
0003d0 89 1c 01 80 3e 5c 01 80 ab 30 01 80 0c ec 00 80
       -1.02072e-40 -1.24926e-40 -1.09294e-40 -8.4678e-41
0003e0 8b 24 01 00 83 28 01 80 c7 46 00 80 be 38 01 80
       1.04945e-40 -1.06368e-40 -2.539e-41 -1.12191e-40
0003f0 05 f8 37 9e 7c f0 4b 9e e9 2c 3e 9e 33 8c 00 1e
       -9.7392286e-21 -1.07964615e-20 -1.00678035e-20 6.805256e-21

e_conv2.bias f4 [32]
000000 28 8c e1 bc d1 63 05 93 2d 55 49 3d b9 02 d8 95
       -0.027532652 -1.6836173e-27 0.049153496 -8.7246e-26
000010 0b 5a 21 3d 32 f1 11 3d 47 64 20 3b da 47 42 3d
       0.039392512 0.035630412 0.0024473832 0.047431804
000020 9e 11 6a 3d 75 24 16 3d 11 16 d2 bc 30 2a fb ba
       0.057145707 0.036655862 -0.025645288 -0.0019162353
000030 02 fc 0d b4 0c 46 0b bc 7c 8e 39 3c c1 d3 15 a7
       -1.3223328e-07 -0.008500587 0.011325475 -2.0792696e-15
000040 bc 6d 02 3d 6b 61 6e 3c c4 36 7a a0 f5 48 12 bc
       0.031842932 0.014549593 -2.1193944e-19 -0.008928527
000050 d4 1d 17 b8 c7 ad 7f 3c b4 b4 de a1 d1 6c 33 3d
       -3.6028985e-05 0.015605397 -1.5091137e-18 0.043804947
000060 e3 82 0d a2 1e f5 5d 3d 7d 42 37 3d 2f 88 b3 94
       -1.9178354e-18 0.05418884 0.044741143 -1.8128096e-26
000070 0e f9 ee b8 2d dd 1e 3b 70 34 86 ae 62 d7 4f 3d
       -0.000113951144 0.0024240718 -6.102929e-11 0.050742514

e_conv3.weight f4 [32, 64, 3, 3]
000000 53 b3 a0 a1 9d 7e f1 a0 5c cb f2 1f cb 87 b1 a1
       -1.0889488e-18 -4.0910774e-19 1.02827416e-19 -1.2029931e-18
000010 31 85 03 a1 f1 0d 44 20 57 a7 0c a2 49 bf 61 a0
       -4.4560804e-19 1.6606459e-19 -1.9062127e-18 -1.9121532e-19
000020 7a 3a 95 20 7b a6 9f ba 8b 95 52 3c 53 ca 79 3c
       2.5280278e-19 -0.0012180352 0.012853037 0.015245992
000030 9f ac fe bb ba e5 c8 3b 91 54 10 3c 5f c9 d6 bc
       -0.007772043 0.006130901 0.008809225 -0.026219068
000040 2e 12 2c bc 98 fa ef bb 23 61 7c bb 9e 59 e3 3b
       -0.010502381 -0.0073235743 -0.0038510046 0.0069381734
000050 e9 6c ca 3b 34 8d c3 bb 15 3b a1 3b 26 22 83 3b
       0.006177534 -0.0059677605 0.004920373 0.0040018735
000060 13 be 72 bc bf 8e bd bb 2c 43 c4 bb 2f 2d 68 3b
       -0.014815825 -0.005784839 -0.005989453 0.0035427322
000070 e5 6c 89 3b a5 6d 57 3b fd 83 81 3b 6b 33 8b 3b
       0.0041938894 0.003287175 0.003952502 0.004248073
000080 02 2f 35 3b 10 92 fa bb c0 e7 b8 bb 43 87 c7 bb
       0.0027646427 -0.0076468065 -0.005642861 -0.0060891225
000090 0f a3 50 bb 2e de 36 3c fd bd 47 3c 86 98 13 bb
       -0.0031835472 0.01116137 0.012191293 -0.002252133
0000a0 09 fb 2a 3c b4 c5 24 3c ec 07 9f bc 50 2f 0b bc
       0.010435828 0.010056902 -0.019412957 -0.008495167
0000b0 eb 86 c9 bb 30 3b d8 a9 42 e7 9e a9 49 2f ac a9
       -0.0061501167 -9.602594e-14 -7.0567264e-14 -7.646537e-14
0000c0 30 9b 51 a9 dd 6b 68 2a a0 05 4e aa 9a 91 9e a9
       -4.6541926e-14 2.0643162e-13 -1.8298427e-13 -7.0418674e-14
0000d0 8d d7 b7 a8 f2 d3 29 aa d8 8b 85 bb b0 73 f1 3b
       -2.0410562e-14 -1.5083749e-13 -0.0040755086 0.0073685274
0000e0 41 9b 56 3b 8f 95 3c bb d4 05 36 3c 63 42 05 3c
       0.0032746347 -0.0028775667 0.011109788 0.008133504
0000f0 d5 30 14 bc 81 17 95 3a 52 9a b5 bb df 86 00 00
       -0.009044846 0.0011374803 -0.005542078 4.8383e-41
000100 33 42 00 00 74 d1 00 00 9a a8 00 80 85 0e 00 80
       2.3748e-41 7.5138e-41 -6.0483e-41 -5.209e-42
000110 43 bd 00 80 e0 1e 00 80 36 cf 00 00 34 e2 00 80
       -6.7894e-41 -1.1076e-41 7.4333e-41 -8.1146e-41
000120 48 30 00 80 35 c4 00 80 45 b5 00 00 36 e0 00 00
       -1.732e-41 -7.0386e-41 6.5027e-41 8.0432e-41
000130 1e 4c 00 80 34 93 00 80 20 49 00 80 7a d7 00 00
       -2.7306e-41 -5.2807e-41 -2.6232e-41 7.7298e-41
000140 7a 0a 00 80 be 98 fc 3a 66 79 af 3b 03 98 09 3b
       -3.758e-42 0.0019271595 0.005355048 0.0020995147
000150 ad 50 1a 3a 97 6e df 3a 4c b4 ae ba 08 f8 e2 bb
       0.00058866554 0.0017046508 -0.0013328879 -0.0069265403
000160 90 da bd bb 8d 9b af bb 94 a7 79 90 0c 2a 58 90
       -0.005793877 -0.0053591193 -4.923569e-29 -4.263088e-29
000170 24 9b 20 90 7f 65 81 90 39 3d 5f 90 9b 24 61 90
       -3.1673952e-29 -5.103791e-29 -4.402616e-29 -4.4401626e-29
000180 c9 44 a9 90 88 c3 8d 90 e5 b9 68 90 15 87 00 80
       -6.6764727e-29 -5.591596e-29 -4.589714e-29 -4.8458e-41
000190 9d c6 00 80 e6 2d 00 00 fb 90 00 80 10 b8 00 00
       -7.1249e-41 1.6465e-41 -5.2009e-41 6.6029e-41
0001a0 2b f0 00 00 7b 98 00 80 aa 8c 00 80 90 54 01 00
       8.6156e-41 -5.47e-41 -5.0461e-41 1.22171e-40
0001b0 05 2e e0 ba bd ce 94 39 92 d0 0a ba d8 c0 d6 ba
       -0.0017103559 0.00028382792 -0.00052953616 -0.0016384376
0001c0 f9 05 49 ba 5e dc e0 ba 73 01 94 3a d5 88 c9 3a
       -0.00076684315 -0.0017155518 0.0011291936 0.0015375862
0001d0 9e bd e2 3a 7b 18 b3 bb 2a c6 2d ba 0f 44 05 bb
       0.0017298942 -0.005465565 -0.0006628955 -0.0020334756
0001e0 73 76 d7 bb 0a ba d6 ba 72 b1 45 bb 6c d7 32 bc
       -0.0065753995 -0.0016382348 -0.003016558 -0.010915618
0001f0 d8 fb d9 bb 1e 68 0f bc 1a bd 2a 2f 6c 39 8a ae
       -0.0066523366 -0.008752851 1.5528592e-10 -6.2857136e-11
000200 cb 33 3d af 01 96 c2 2f 96 03 3a 2f 2e 1f 4a 2e
       -1.720785e-10 3.539498e-10 1.6917875e-10 4.5957176e-11
000210 58 24 d6 2f 34 12 e5 2f bb ec d3 2f 49 66 3a bc
       3.8952197e-10 4.1667791e-10 3.8548884e-10 -0.011376926
000220 4f 89 1d 3c 6c 3b 63 3c 98 8e 7d bb d9 2e 0c 3c
       0.009615256 0.013869148 -0.0038689729 0.008556091
000230 1c 53 27 3c 3e e7 0e bd a4 7f 86 bc e2 6a 44 bc
       0.010212686 -0.0348885 -0.016418286 -0.0119883735
000240 f8 c9 3a bb 26 d2 f0 3b 70 f7 19 3c 27 31 9a bb
       -0.002850173 0.0073492704 0.009397373 -0.0047055664
000250 a1 2b fa 3b ea f3 a1 3b 18 0d a0 bc c8 4d f6 bb
       0.0076345955 0.004942407 -0.019537494 -0.0075165965
000260 6d 02 f3 bb 4a 3e 0e bb c2 25 3f 3b 2f 37 bc 3a
       -0.0074160607 -0.0021704608 0.0029166793 0.0014359708
000270 4a b2 92 38 46 6e d4 3b 32 fa 9f 3b ea 83 f7 bb
       6.9950314e-05 0.006482872 0.0048821205 -0.007553567
000280 40 e6 aa ba 19 48 9c bb 0c 11 8b bb ef 3a 5c 3c
       -0.001303859 -0.004769337 -0.0042439755 0.013441785
000290 58 79 76 3c 59 82 7d bb 03 5b 01 3c 25 7f 85 3c
       0.015043579 -0.003868243 0.007895234 0.016295979
0002a0 9b e0 05 bd 84 2a 68 bc ae 03 22 bc 13 66 c2 3a
       -0.032684904 -0.014170293 -0.009888573 0.0014831446
0002b0 83 a7 f0 3b 55 1b 01 3c 8b a1 bc b9 d5 0a 93 3b
       0.0073441877 0.007880052 -0.00035978513 0.0044873753
0002c0 1a 3a 38 3b 3b 62 82 bc 57 27 2a bc ce d1 1c bc
       0.0028110803 -0.01591598 -0.010385356 -0.009571506
0002d0 74 59 a3 87 5c 1b 52 87 85 90 66 86 f2 8a ba 07
       -2.457809e-34 -1.5806684e-34 -4.3364368e-35 2.8067834e-34
0002e0 1f 59 78 87 7c 5f da 06 57 32 b1 87 72 7b c1 87
       -1.8683637e-34 8.214279e-35 -2.6661587e-34 -2.9111967e-34
0002f0 40 4c 1b 07 22 80 39 bb 79 5a 1e 3c 9d b0 0a 3c
       1.1683312e-34 -0.0028305133 0.009665125 0.008464959
000300 b0 3b af bb 63 3e 18 3c a7 35 36 3c bb 41 dc bc
       -0.0053476915 0.009292218 0.01112119 -0.026886811
000310 66 9a 84 bc 7c b9 08 bc e5 89 ed bb d9 28 a2 3a
       -0.016186904 -0.008345004 -0.0072491043 0.0012371793
000320 1d 6d a6 3b 37 ff f7 bb b5 07 21 3b 09 26 db 3b
       0.0050789253 -0.007568266 0.0024571244 0.0066878838
000330 9e 30 65 bc fa 6d af bb 2e 75 07 bb 14 28 22 bb
       -0.013988642 -0.0053536864 -0.002066921 -0.0024743127
000340 47 d4 e3 3b 2d b0 a0 3b f0 bd 15 bb d1 53 e7 3b
       0.0069527957 0.0049038143 -0.0022848807 0.0070595522
000350 48 4e ac 3b 75 a8 2e bc 67 06 2c bb 42 5b b8 bb
       0.0052583553 -0.0106602805 -0.0026248933 -0.005626113
000360 34 89 d8 0c c8 26 42 8d 83 83 ff 0c fd 9b 3a 8d
       3.3362646e-31 -5.9827547e-31 3.9368122e-31 -5.750344e-31
000370 59 5f a2 8c d8 80 23 8d db fa 5e 8c bf 3e e3 0c
       -2.5017437e-31 -5.0383343e-31 -1.7177747e-31 3.5012652e-31
000380 8e c1 2c 0d a0 1a a1 22 2a e3 b1 22 db 5e d4 22
       5.3234575e-31 4.3667328e-18 4.8216465e-18 5.7563147e-18
000390 06 5c 2f 22 46 95 a7 22 7a 8c cc 22 cf 85 94 22
       2.376564e-18 4.542349e-18 5.5443046e-18 4.0257156e-18
0003a0 f9 4c a4 22 fd 73 8b 22 c0 ae 74 bb 29 72 07 3c
       4.4533787e-18 3.7798833e-18 -0.0037335604 0.008266964
0003b0 c8 14 48 3c b8 b6 f1 bb bb b4 7d 3c 23 55 15 3c
       0.012211986 -0.007376518 0.015484984 0.009114536
0003c0 e6 44 ca bc 66 bd 27 bc 78 01 06 bc a2 93 00 80
       -0.024691056 -0.010238027 -0.008179061 -5.296e-41
0003d0 e5 fd 00 80 60 12 01 80 4b 8a 00 00 3a 0c 01 80
       -9.108e-41 -9.8427e-41 4.961e-41 -9.6222e-41
0003e0 05 f5 00 00 23 42 01 80 18 6d 01 80 a8 64 00 00
       8.7896e-41 -1.15561e-40 -1.30971e-40 3.6109e-41
0003f0 f0 bb 84 1e 03 56 91 1e a9 ae aa 1e 21 62 31 1e
       1.4053773e-20 1.5388046e-20 1.8071688e-20 9.3905946e-21

e_conv3.bias f4 [32]
000000 86 89 2a 3d d4 8a 00 3d 52 b9 b6 9a 50 0a 40 3c
       0.04163506 0.031382397 -7.557284e-23 0.011721209
000010 41 19 21 3d 67 90 c4 a2 4b e9 24 bc f8 f7 8e 96
       0.039330725 -5.32788e-18 -0.010065387 -2.3097828e-25
000020 0c 78 0f 3d ee 55 bb 3b 4c 18 05 3d 59 c6 16 ac
       0.035026595 0.0057170307 0.032493874 -2.1426387e-12
000030 69 af a1 8b 89 5b 83 b7 3e 38 9d ba 82 72 40 9a
       -6.227887e-32 -1.5659041e-05 -0.0011994911 -3.9797168e-23
000040 86 e9 de 3d aa 88 b8 bb 63 e5 b2 3d c4 92 f6 bb
       0.10884385 -0.005631526 0.08735158 -0.00752482
000050 5d 65 30 94 d3 70 a5 3c a3 f7 34 bb 0d f9 0d bc
       -8.90572e-27 0.0201954 -0.0027613423 -0.008665335
000060 40 0f 6c 3c b5 5d 00 bb b0 a7 f7 3b fc 0f 22 3d
       0.014407933 -0.0019587104 0.0075578317 0.039566025
000070 05 2d 39 ad d5 6c 65 bc 97 5e 12 3d a5 a7 81 bc
       -1.0526029e-11 -0.014002998 0.03573474 -0.01582701

e_conv4.weight f4 [32, 64, 3, 3]
000000 f1 51 68 ba af 71 b5 3b 69 8f 64 bc dd 5c 18 3b
       -0.0008862308 0.005537234 -0.013950207 0.002324871
000010 4a eb 1a bb 4e 73 22 bb 82 7c e1 3b be d6 69 ba
       -0.0023638778 -0.0024787965 0.0068812976 -0.00089202437
000020 6d 38 a1 bb 42 13 00 00 48 14 00 80 8c c5 00 00
       -0.0049200566 6.908e-42 -7.276e-42 7.0866e-41
000030 c8 d1 00 00 ce 7c 00 80 8d c6 00 00 29 c0 00 00
       7.5255e-41 -4.4771e-41 7.1227e-41 6.8934e-41
000040 da 63 00 00 02 28 00 80 23 fd 8b b9 40 f8 9e 3a
       3.582e-41 -1.4352e-41 -0.00026700748 0.0012128428
000050 73 00 6f 3a bb 49 b3 ba 1b 7a 96 b9 b8 c8 9c ba
       0.00091171934 -0.001367859 -0.00028701205 -0.0011961674
000060 e6 15 48 bb 85 95 1a bb 52 4b 94 bb 7e 26 00 00
       -0.003053063 -0.0023587656 -0.0045255804 1.3808e-41
000070 09 a1 00 00 17 95 00 00 d2 d1 00 80 52 b6 00 80
       5.7769e-41 5.3483e-41 -7.527e-41 -6.5404e-41
000080 06 9a 00 00 78 80 00 80 76 6a 00 80 73 aa 00 80
       5.5253e-41 -4.6086e-41 -3.8191e-41 -6.1146e-41
000090 b0 d6 e1 ba 26 c8 bf bb 90 d0 8b bc e1 6c 51 bb
       -0.001723012 -0.005852717 -0.017067224 -0.0031955766
0000a0 66 e8 e0 3c 13 e9 b1 ba c3 f4 b3 bc c9 c2 b2 bb
       0.027454566 -0.001357349 -0.021967297 -0.005455349
0000b0 92 cc 3e 39 f4 0c ea ba d8 f7 1e 3a c6 3f 6a bb
       0.0001819602 -0.0017856644 0.0006064153 -0.0035743578
0000c0 ea d4 cd 39 ca d0 ee 3a 12 2f 46 bb 60 2d 3a 3b
       0.0003925928 0.0018220183 -0.0030240458 0.0028408393
0000d0 7f 6a 79 3b 63 2c 14 bb b7 eb db 3a 8e dc 0f 3b
       0.0038057861 -0.0022609464 0.0016778623 0.002195153
0000e0 ef 8a c2 3a b6 c3 a3 bb 15 b9 8c 3a 12 ff 9c ba
       0.0014842431 -0.004997696 0.0010736311 -0.0011977872
0000f0 41 38 7b ba fd 2a 88 39 c3 49 a1 b9 63 ed 1d bc
       -0.00095832726 0.0002597197 -0.0003076327 -0.009639117
000100 54 7b 42 bc a3 27 97 bc 82 e1 7f bc fd ca 4f 3c
       -0.011870224 -0.018451517 -0.01561773 0.0126826735
000110 da 2a bf 3b 86 1f ef bb d8 66 a0 3b a6 08 dd bb
       0.0058339657 -0.007297459 0.0048950724 -0.0067454157
000120 70 ce 76 bc ae bc af 3b ff 69 19 3c 75 0c ef bb
       -0.015063867 0.0053630685 0.00936365 -0.007295186
000130 91 05 b9 3c 4c 9f b4 bb 67 e6 99 bb 91 c5 03 bc
       0.022585662 -0.0055121537 -0.0046966556 -0.008042709
000140 9b 86 94 bc 5a 9a e7 bb a3 0d 06 3a 79 88 0b bc
       -0.018130591 -0.0070679607 0.00051137264 -0.008516424
000150 83 17 4e 3c f8 1d b0 bb cb 21 c0 3b fa af 5e 3b
       0.012578848 -0.0053746663 0.0058634034 0.0033979402
000160 82 d4 19 3b c7 21 b9 bb 82 cf b2 3b 47 47 5c bc
       0.0023472612 -0.0056497785 0.0054568658 -0.013444728
000170 15 e8 bf bb b0 26 2f bc e1 8a 33 3c e7 e7 f5 3c
       -0.0058565238 -0.010690376 0.010958404 0.030017806
000180 24 e8 09 bc a2 22 3b 3c a8 78 9d 3a 7e e1 d6 b2
       -0.008417163 0.011421831 0.0012014108 -2.501542e-08
000190 22 88 d4 b2 6b cc d6 b2 c4 a9 d3 b2 36 01 cd b2
       -2.4741954e-08 -2.5005837e-08 -2.4640833e-08 -2.3865692e-08
0001a0 87 e2 d1 b2 82 1f d1 b2 f5 3e cf b2 18 dd cf b2
       -2.4433815e-08 -2.434513e-08 -2.4126601e-08 -2.4198513e-08
0001b0 17 98 93 1f 37 e3 99 1f fc 06 97 1f 0f d2 99 1f
       6.250853e-20 6.5173916e-20 6.396254e-20 6.5145533e-20
0001c0 0e 9d 9d 1f fc 78 9d 1f d6 8b 95 1f 3e c2 9a 1f
       6.675191e-20 6.669224e-20 6.3335294e-20 6.5542884e-20
0001d0 78 28 9a 1f ce 55 17 bc 23 ad a8 3c e1 d8 c5 3b
       6.528849e-20 -0.009236766 0.02059037 0.006037817
0001e0 b3 c8 d6 3b a5 ac 47 3c 2e 5e c7 bb ec 1e 14 bd
       0.006554687 0.012187158 -0.006084225 -0.036162302
0001f0 9b 8c 9d 3c f7 02 14 bb 2b 34 3c bb 31 08 99 ba
       0.019232085 -0.0022584775 -0.0028717618 -0.0011675415
000200 23 f4 e8 ba ef 0e d3 ba c0 19 a4 ba f1 46 58 bb
       -0.0017772954 -0.0016102473 -0.0012519881 -0.0033001269
000210 1d 72 67 3a 4a 51 90 38 bb 2a 72 bb fb 85 00 80
       0.0008828955 6.881596e-05 -0.003695174 -4.8063e-41
000220 03 88 00 00 d2 7a 00 80 0a d4 00 80 23 a1 00 80
       4.8792e-41 -4.406e-41 -7.6065e-41 -5.7805e-41
000230 34 3d 00 80 be 5b 00 00 58 73 00 00 9c d8 00 00
       -2.1956e-41 3.2911e-41 4.1378e-41 7.7705e-41
000240 0f b8 42 3b 1f 33 15 bd 3d ab 98 bc 38 03 91 bc
       0.0029711758 -0.036425706 -0.01863634 -0.01770173
000250 1b 18 ba bc ad 2b 11 3c ec ae 18 3c c5 f0 4c 3c
       -0.022716573 0.008860511 0.009319048 0.012508576
000260 1d e8 b8 3c eb 93 48 3a 91 34 dd b9 d2 50 d4 b9
       0.022571618 0.0007651436 -0.0004219157 -0.00040496007
000270 93 15 42 b9 68 b1 df ba 4a df f0 ba 7f 7c 0a ba
       -0.00018509319 -0.0017066421 -0.0018377092 -0.00052828336
000280 b7 54 29 bb d2 9e 45 bb b8 39 00 80 ab cc 00 00
       -0.0025837847 -0.0030154479 -2.0706e-41 7.3421e-41
000290 76 b8 00 00 95 a8 00 80 59 5c 00 00 37 a0 00 00
       6.6172e-41 -6.0476e-41 3.3128e-41 5.7474e-41
0002a0 9a d3 00 80 80 c0 00 80 5d 42 00 00 67 b7 57 bb
       -7.5908e-41 -6.9056e-41 2.3807e-41 -0.0032915713
0002b0 85 72 99 bb ea ce 10 3b fb 9b 57 bb df e7 79 3b
       -0.0046828412 0.0022095987 -0.0032899368 0.003813259
0002c0 b7 50 87 bb 2a 2b e5 39 a6 63 ea 3b 70 63 01 bb
       -0.004129495 0.00043710443 0.0071529923 -0.0019743107
0002d0 96 ab 8f 32 d8 b9 91 32 40 78 8e 32 76 ac 98 32
       1.672542e-08 1.6964734e-08 1.6585659e-08 1.7773555e-08
0002e0 bc ba 9a 32 48 0f 97 32 e6 e6 9b 32 0b 6a 9f 32
       1.8012877e-08 1.7585663e-08 1.8149375e-08 1.8558259e-08
0002f0 df 59 9b 32 2a 18 5f 3b 65 e5 c5 39 4f e9 17 39
       1.8085244e-08 0.0034041503 0.0003774568 0.00014487396
000300 95 45 0e 3b fc 20 17 ba 86 ba 0d bb 74 3f ba 3b
       0.0021708955 -0.0005765108 -0.002162607 0.0056838337
000310 7f 20 32 3b 7b 11 a9 ba 22 86 00 00 74 5c 00 00
       0.0027180014 -0.0012898886 4.8118e-41 3.3166e-41
000320 ce 7d 00 00 8a c4 00 00 c4 32 00 00 1b 81 00 00
       4.513e-41 7.0505e-41 1.8211e-41 4.6314e-41
000330 5c b6 00 00 3d aa 00 00 c7 af 00 00 ea 56 4a bb
       6.5418e-41 6.107e-41 6.3057e-41 -0.0030874559
000340 08 d8 4d bb 24 a6 12 bb 3c f9 04 bb 87 91 b0 3a
       -0.0031409282 -0.002237686 -0.0020290157 0.0013471105
000350 4e 2b 66 3b 33 f8 d3 ba 4c f8 b7 b9 99 4c a3 ba
       0.0035121026 -0.0016171992 -0.00035089476 -0.0012458741
000360 24 9e 00 80 28 69 00 80 92 8f 00 80 3b 10 00 80
       -5.673e-41 -3.7723e-41 -5.1503e-41 -5.822e-42
000370 6d 19 00 00 58 71 00 80 70 c3 00 80 65 c0 00 80
       9.121e-42 -4.066e-41 -7.011e-41 -6.9018e-41
000380 7c ac 00 80 d5 31 11 bb eb 05 bb bb 46 bf 93 bb
       -6.1876e-41 -0.0022154946 -0.0057074926 -0.0045088856
000390 15 82 9c 38 81 2e 80 bb 69 00 1b bb 00 a5 bb 3a
       7.462889e-05 -0.0039117937 -0.0023651368 0.0014316142
0003a0 14 8b fd ba 59 31 2e ba e9 f2 ec 3b 17 53 2c bc
       -0.0019343817 -0.00066449266 0.0072311056 -0.010517857
0003b0 bc 94 cc ba 3b c2 26 bb 22 84 7a bb ac 41 bc 3b
       -0.0015608291 -0.002544536 -0.003822573 0.0057451334
0003c0 48 a8 24 3c 94 cb 5b 3c 48 a3 00 3c 5e df 00 00
       0.010049887 0.013415236 0.007851429 8.0129e-41
0003d0 bb 79 01 00 35 05 00 80 d1 b8 00 80 1d fe 00 00
       1.35504e-40 -1.868e-42 -6.63e-41 9.1159e-41
0003e0 ff f3 00 80 e0 25 00 00 41 82 01 00 fa 8f 00 00
       -8.753e-41 1.3587e-41 1.38562e-40 5.1649e-41
0003f0 a8 87 93 a4 b0 d1 a8 a4 52 c1 a6 a4 d4 27 ae a4
       -6.39809e-17 -7.321361e-17 -7.231852e-17 -7.552794e-17

e_conv4.bias f4 [32]
000000 b2 dd 07 3d 15 09 7d 3b 63 be ad b4 96 f6 f2 ba
       0.03317041 0.003861015 -3.2362286e-07 -0.0018536623
000010 c4 e7 88 3c 22 fd 86 3c 71 19 64 3c 50 b3 b3 3c
       0.016712077 0.016478125 0.013922081 0.021936089
000020 b7 af 62 ba 44 13 96 b6 23 15 b2 3c f8 3a d6 3c
       -0.00086473994 -4.472591e-06 0.021738594 0.026151165
000030 c4 2f 4a 3d 67 d2 8b 3c b2 64 b9 3c 7d 94 53 3c
       0.04936196 0.017068101 0.022631023 0.01291382
000040 67 b9 30 89 25 5d a4 3d f7 e0 d8 b4 cd 0b 05 3d
       -2.1272405e-33 0.080255784 -4.039682e-07 0.032481957
000050 54 6d c7 3c ab 2b 0f b9 26 63 06 3d cf a7 ee ba
       0.024344124 -0.0001365381 0.0328094 -0.001820797
000060 83 ef 8d ab 19 75 17 3d 8b ad 14 bb 91 d6 02 3d
       -1.008513e-12 0.036976907 -0.0022686447 0.031942908
000070 a2 d1 bd 3d 90 4e eb 3c 85 1d a2 ba 0f 86 bc 3c
       0.092685 0.028723985 -0.0012368417 0.023013143

e_conv5.weight f4 [32, 64, 3, 3]
000000 3c 93 1d bb 9c 60 5d 3a d2 c6 62 bb 75 7c b5 3b
       -0.0024044057 0.0008444877 -0.003460337 0.005538518
000010 ba ea bd 3b 0c 3b 7f 39 39 7e be 3b 4f 1f d4 3b
       0.005795804 0.00024340692 0.0058133868 0.006473459
000020 57 4c b2 3a 62 86 af 3b 96 a0 6b ba e9 4b de b9
       0.0013603073 0.005356596 -0.0008988468 -0.00042399697
000030 72 51 4b 3b f4 6a e9 ba 46 b6 e0 ba 19 c4 c0 3a
       0.0031023887 -0.0017808364 -0.0017144165 0.0014706879
000040 1e 6b f6 ba 00 19 08 bb e9 46 00 00 f3 c7 00 80
       -0.0018800234 -0.0020766854 2.5438e-41 -7.1728e-41
000050 b9 9f 00 80 50 29 01 00 dc 16 00 00 4e 0e 01 80
       -5.7298e-41 1.06656e-40 8.2e-42 -9.6967e-41
000060 6b 55 01 80 d7 1a 00 80 0a 10 01 00 db fa de 3b
       -1.22478e-40 -9.628e-42 9.7589e-41 0.0068048066
000070 b7 24 c5 37 a1 c0 1a 3c d4 4d 14 3b b4 fa d6 3b
       2.3501327e-05 0.00944534 0.0022629397 0.006560648
000080 29 b4 06 3c 2e 3d db ba 7b 49 04 3c e4 1b 0e 3c
       0.0082216645 -0.0016726607 0.00807416 0.008673642
000090 c3 2a df 3b f1 c0 a9 3b 93 2f 12 3b 1c 5d 17 3c
       0.0068105175 0.005180471 0.0022306188 0.009238508
0000a0 58 d5 e2 ba f5 61 9c 3b c7 02 3a bc 8e 87 02 bc
       -0.0017306013 0.0047724196 -0.011353201 -0.007966889
0000b0 d4 f0 54 bc c5 88 00 80 1e cb 00 80 38 b6 00 80
       -0.012996871 -4.9064e-41 -7.2865e-41 -6.5368e-41
0000c0 51 1a 00 00 52 be 00 80 df cb 00 80 2a f7 00 80
       9.44e-42 -6.8274e-41 -7.3135e-41 -8.8666e-41
0000d0 16 f9 00 80 10 ee 00 00 72 6c 2a 3b 54 6c 0f 3c
       -8.9355e-41 8.5401e-41 0.002600458 0.008753855
0000e0 c9 61 08 3c c0 2a 87 39 f9 45 a7 3b 62 b7 ef 3b
       0.008324095 0.00025781058 0.005104777 0.007315562
0000f0 49 6a 54 3a 84 1c 9b 3b c4 cb 09 3c 9d 2d 00 00
       0.0008102996 0.004733624 0.008410398 1.6363e-41
000100 5a 8d 00 00 3d a6 00 00 64 66 00 80 4c 18 00 80
       5.0707e-41 5.9635e-41 -3.6731e-41 -8.716e-42
000110 27 04 01 00 fd c4 00 80 e6 62 00 80 af 3e 00 80
       9.3325e-41 -7.0666e-41 -3.5478e-41 -2.2487e-41
000120 5f 7a 97 bc ce 11 34 3c 29 f8 98 bc bc a0 81 bc
       -0.018490968 0.010990573 -0.01867302 -0.015823714
000130 5a fb ad 3c 3e 4b 31 bc 03 cc f5 3b ea 6e 75 bc
       0.021238018 -0.010821162 0.0075011267 -0.014980057
000140 e9 ac 12 3c 2d 80 ca 3b ad 7e e5 ba a9 3f 3e bb
       0.008952358 0.0061798305 -0.0017509066 -0.0029029644
000150 3f 4d 72 3b 05 ac cc bb a8 7b a8 ba 07 92 ac bb
       0.0036972312 -0.0062460923 -0.0012854235 -0.0052664313
000160 7d 70 0a bb 72 7c 39 bb 3c f9 31 bb 2f 5e 1e 3b
       -0.0021124177 -0.0028302935 -0.0027156612 0.0024165025
000170 cb be 2f 3c 11 94 1e bb 27 23 e2 b9 ab 7d 19 3c
       0.010726641 -0.0024197141 -0.0004313227 0.0093683405
000180 3e 1d 6a 3a fd 1a c0 3b 02 29 9d 3c 67 72 00 00
       0.0008930749 0.0058625923 0.019184593 4.104e-41
000190 14 28 00 80 3b cc 00 80 c2 64 00 00 e6 26 00 80
       -1.4377e-41 -7.3264e-41 3.6145e-41 -1.3954e-41
0001a0 1e ce 00 80 72 8b 00 00 15 2a 00 80 7f 67 00 80
       -7.3941e-41 5.0024e-41 -1.5096e-41 -3.7127e-41
0001b0 51 b1 be 0a 45 40 ab 0a fc 87 b6 0a a9 6e bf 0a
       1.8363033e-32 1.6490877e-32 1.7577114e-32 1.8434257e-32
0001c0 ae 56 b8 0a 88 10 b8 0a 14 dc c0 0a e2 dc bc 0a
       1.7751161e-32 1.7724774e-32 1.8571712e-32 1.8186828e-32
0001d0 50 04 ba 0a 9e 66 00 80 d5 34 00 80 1e 53 00 00
       1.791277e-32 -3.6812e-41 -1.8953e-41 2.9817e-41
0001e0 22 0d 00 80 8e 15 00 80 c4 bd 00 00 ce 00 00 80
       -4.711e-42 -7.732e-42 6.8075e-41 -2.89e-43
0001f0 9b 4e 00 00 14 3e 00 00 9e 4c 59 b7 7a 6c 00 b7
       2.8198e-41 2.227e-41 -1.2952047e-05 -7.654651e-06
000200 df 5c 2a b7 d7 9d fb b6 f8 2f 25 b7 57 3a 05 b7
       -1.0154413e-05 -7.498758e-06 -9.845935e-06 -7.941001e-06
000210 ed ec ee b6 b3 97 00 b7 69 07 65 b7 ad 68 00 80
       -7.1205345e-06 -7.664715e-06 -1.3651189e-05 -3.755e-41
000220 c5 24 01 00 29 07 01 00 df 22 00 80 1c 45 00 80
       1.05026e-40 9.4404e-41 -1.251e-41 -2.4792e-41
000230 57 1e 01 00 48 08 01 00 ba 59 01 00 85 b1 01 80
       1.0272e-40 9.4806e-41 1.24023e-40 -1.55518e-40
000240 f5 6d 98 bb 52 30 5d bb 20 51 30 bb 8c bb c2 bb
       -0.00465178 -0.0033750725 -0.0026903823 -0.0059427675
000250 15 56 42 bb 7e b2 37 bb 71 76 0f bb 35 3c cb 3a
       -0.002965336 -0.0028029974 -0.0021890665 0.0015505614
000260 7e 7e 14 3a bb b9 01 bb d2 14 0c bb 2b ec 0d 3a
       0.0005664601 -0.0019794542 -0.0021374715 0.0005413915
000270 12 a8 09 bb 8c 2e 23 bb a2 d4 08 bb 3c e8 2f b9
       -0.0021004719 -0.002489957 -0.0020878692 -0.00016775815
000280 1c 37 40 bb 2d 3e 22 bb 74 df d2 bb 30 5d 80 ba
       -0.0029329723 -0.0024756298 -0.006435329 -0.0009793397
000290 fe 77 a0 3b 18 9c 1d bb e1 80 93 3b 9a 69 0e 3c
       0.0048971167 -0.0024049338 0.0045014475 0.00869217
0002a0 57 5d bf ba d5 7f 9a 3b 0e ce d4 3b 08 94 8d bb
       -0.0014599961 0.004714946 0.00649429 -0.004320625
0002b0 9e 28 99 3b 37 e5 2f 3c 54 63 06 3c 6d e3 3a 3b
       0.0046740314 0.010735801 0.008202393 0.0028516904
0002c0 ff 2d 3a 3b c6 ce b4 bb fd 3b 12 bb 34 34 25 3b
       0.0028408763 -0.0055178134 -0.0022313588 0.0025208117
0002d0 86 1b 01 80 25 d1 00 80 9a 07 00 00 2b 3b 01 00
       -1.01709e-40 -7.5027e-41 2.727e-42 1.13061e-40
0002e0 b9 d0 00 00 1d e4 00 00 2f 73 00 00 7e 41 01 00
       7.4876e-41 8.1832e-41 4.132e-41 1.1533e-40
0002f0 8f fd 00 00 d4 8e b2 bb 51 25 51 ba 79 83 1d bb
       9.096e-41 -0.0054491553 -0.0007978278 -0.0024034663
000300 c2 9f ce b8 b8 d5 4f 3b 92 e8 0d bc e3 c1 8d ba
       -9.852603e-05 0.003171308 -0.008661406 -0.0010815229
000310 8b 63 af 3a 82 56 28 3b c9 f4 32 3a d8 92 03 3b
       0.0013381107 0.0025686328 0.0006826637 0.002007654
000320 a2 5e fd 3b 1b 7c 94 3b 90 09 bd 3b a2 a4 ed ba
       0.0077322284 0.004531396 0.005768962 -0.001813073
000330 99 53 32 bb 34 eb 47 bb 4d 5d dd bb 5b e5 24 39
       -0.0027210473 -0.0030505182 -0.006755507 0.000157257
000340 0a 71 1a 3b 1b 45 67 3a 2b 14 e7 3b 71 43 ac ba
       0.0023565912 0.0008822248 0.0070519648 -0.0013142658
000350 03 17 16 3b 13 f0 b6 ba 81 42 e5 3b 86 99 30 bb
       0.00229019 -0.0013957046 0.0069964533 -0.0026946976
000360 e6 ed bc 3a 48 f0 b2 ba 21 8e 06 bc d7 1a e5 b9
       0.0014414161 -0.0013651932 -0.008212597 -0.0004369828
000370 4e 3d 9f bb 1e cd dd bb 9d 7f b2 bb c1 f7 0a bc
       -0.004859603 -0.0067688366 -0.0054473416 -0.008481921
000380 43 66 fc bb 31 10 97 25 33 0a 90 25 d6 d7 9b 25
       -0.0077026202 2.6205296e-16 2.498693e-16 2.703447e-16
000390 87 d5 86 25 18 f2 7c 25 dc d2 88 25 c1 31 86 25
       2.3389986e-16 2.193954e-16 2.3735123e-16 2.327901e-16
0003a0 12 ff 77 25 61 1e 82 25 73 af 2b 3b 33 73 13 3c
       2.1510256e-16 2.257199e-16 0.0026197105 0.008999634
0003b0 ca c3 29 3c 93 eb 12 3b 3b ac fd 3b 3e 49 11 3c
       0.010361621 0.0022418245 0.0077414787 0.00886756
0003c0 f6 fe ce ba 79 45 53 3b 7e 71 9c 3b 0b 9f 4f bc
       -0.0015792537 0.0032237454 0.0047742715 -0.012672196
0003d0 f7 1a 1f bc ec 2e 95 bb 3a fd fc bb 7e 4b c8 3a
       -0.009711019 -0.0045527127 -0.0077206166 0.0015281287
0003e0 9c c9 05 3d 09 f4 0b 3c 1d 54 3b bc ca 11 15 3b
       0.032662973 0.008542069 -0.011433628 0.0022746199
0003f0 56 48 00 00 64 9b 00 00 33 48 00 00 8d a4 00 80
       2.5949e-41 5.5744e-41 2.59e-41 -5.903e-41

e_conv5.bias f4 [32]
000000 5c b4 b2 3c 9b f1 fa b7 3a 63 c3 b8 d4 bf 2c 3d
       0.021814518 -2.9914829e-05 -9.316807e-05 0.04217513
000010 d1 1c 94 a8 f1 6f ee 3b 53 66 87 3d af 8a ee 3c
       -1.6443798e-14 0.007276528 0.06611314 0.029118864
000020 a8 8b aa 3c 70 84 4b b7 41 51 2b 3d a1 63 f0 3c
       0.020818546 -1.2130578e-05 0.041825537 0.029344382
000030 55 3c 45 b5 ee a5 cb b7 65 70 dd 3c 09 f2 05 3d
       -7.3476014e-07 -2.4276753e-05 0.027031133 0.032701526
000040 4f 23 dc 3b 8d 63 ab 3b 27 7c 24 b5 73 3c 21 3c
       0.0067180763 0.0052303732 -6.1275426e-07 0.009841072
000050 40 0c df 3c 67 94 ff 3c a3 9c 2d 3c 17 74 b9 ae
       0.027227521 0.031198693 0.010596427 -8.433448e-11
000060 17 06 b2 3c f4 46 86 b8 a8 1a d8 3c 59 d2 31 3c
       0.02173142 -6.402834e-05 0.026379898 0.010853373
000070 87 9c 48 3d 81 5d 05 bb c6 61 81 b9 67 01 5f b8
       0.0489774 -0.0020349922 -0.00024677644 -5.316865e-05

e_conv7.weight f4 [8, 64, 3, 3]
000000 11 49 13 bb 6f 82 0b bb 62 e2 ad bb 05 8c c2 3b
       -0.002247397 -0.0021287461 -0.005306528 0.005937102
000010 dc 63 d1 3b ca 88 71 3b c5 f7 df 3b 91 2b f6 3b
       0.006390078 0.0036855214 0.0068349564 0.0075125177
000020 a7 2d a1 3b e8 4c ae 3a e3 a3 90 3a 43 98 45 3b
       0.0049187723 0.0013298066 0.001103517 0.003015057
000030 b2 36 f2 3a e1 4c 0b 3b 25 7a b3 3b 6c 58 03 3c
       0.0018479435 0.002125554 0.0054772072 0.008016687
000040 92 32 2d 3c 44 bf 65 3c c8 41 01 00 1e e4 00 00
       0.010571139 0.014022652 1.15433e-40 8.1833e-41
000050 41 fb 00 80 eb 9f 00 00 74 35 00 00 b5 5d 01 80
       -9.0133e-41 5.7368e-41 1.9175e-41 -1.25451e-40
000060 a8 df 01 80 95 67 01 00 3e 9c 00 00 7b 14 1c 9b
       -1.72068e-40 1.28994e-40 5.6049e-41 -1.2910635e-22
000070 5f fa db 9b 1f 7f a1 1b ee b2 f5 99 98 79 d6 9b
       -3.639231e-22 2.6717366e-22 -2.5404675e-23 -3.5481908e-22
000080 ee bb ba 9b 15 9b 55 9b 74 be cb 1b 6d f0 03 9c
       -3.0892566e-22 -1.7669057e-22 3.370661e-22 -4.3655007e-22
000090 91 a1 80 ba c3 f0 65 bb ed 1e ad bb 8d b8 97 3b
       -0.0009813776 -0.0035086132 -0.0052832277 0.0046301545
0000a0 7e 44 d6 3a 1a 32 46 ba 8a 5b 73 3b b7 c7 83 39
       0.0016347317 -0.00075605663 0.003713342 0.00025135066
0000b0 de 27 21 bb 6a fc 3d bc 6e 85 0c bc 7e 4f da bb
       -0.0024590413 -0.011595825 -0.008576734 -0.0066623082
0000c0 e5 17 f2 ba c2 0c 84 3a 93 74 14 3b 07 db bc 3b
       -0.0018470256 0.0010074603 0.0022652491 0.005763415
0000d0 83 33 0f 3c 28 94 1a 3c bd 36 2c 3b 0d 15 16 3a
       0.008740309 0.009434737 0.0026277744 0.0005725183
0000e0 3b 5d 26 3b 9b 79 8d 3b cf 7b 36 3b 98 18 b3 3b
       0.002538516 0.004317475 0.0027844792 0.0054655783
0000f0 51 b7 c7 3b 92 b3 b4 3b 2d 07 ff 3b 69 30 50 bc
       0.006094851 0.0055145705 0.007782838 -0.012706854
000100 6a 63 e8 bc 18 a7 16 bd 5c b6 0a 3c 21 36 13 bc
       -0.028367717 -0.036780447 0.008466329 -0.008985073
000110 2d 45 a5 bc dc de ba 3c 26 41 a7 ba bb 0c 59 bc
       -0.020174587 0.022811346 -0.0012760505 -0.013247664
000120 9e 4d 00 00 39 3b 00 00 60 44 00 00 74 34 00 00
       2.7844e-41 2.1245e-41 2.4528e-41 1.8817e-41
000130 6e 01 00 00 28 ea 00 00 f7 e6 00 00 4b 23 00 80
       5.13e-43 8.4e-41 8.2855e-41 -1.2661e-41
000140 72 9a 00 00 1f 33 f4 33 96 bd 02 34 9d 7c 04 34
       5.5405e-41 1.1371434e-07 1.2176164e-07 1.2338792e-07
000150 f8 31 0b 34 de 1b d1 33 8f b1 0e 34 43 df 1b 34
       1.2963562e-07 9.73739e-08 1.3289376e-07 1.4516722e-07
000160 d4 5a 17 34 ab 12 f6 33 6f c2 34 ba 19 2f 92 bb
       1.4096014e-07 1.1458663e-07 -0.0006895428 -0.004461181
000170 7a d7 f4 ba 7b c2 82 b9 40 67 6d bb 2b 0d ad ba
       -0.001867994 -0.00024940431 -0.0036224872 -0.0013202777
000180 c8 10 8f 3a c7 d8 26 bb ff 6a 5e b7 68 b2 e7 bb
       0.0010915035 -0.00254588 -1.3257143e-05 -0.007070828
000190 05 f6 ac bb 17 28 e1 bb 1c 02 62 bb 4f f8 b0 ba
       -0.0052783513 -0.006871234 -0.003448612 -0.0013501736
0001a0 22 62 87 bb 45 97 45 bb 47 d3 0a bb 35 f6 a3 bb
       -0.0041315714 -0.0030149978 -0.002118306 -0.0050037154
0001b0 a1 25 e9 bb 8f 25 7a 3c a1 43 a6 bb b1 82 26 3c
       -0.0071150814 0.015267744 -0.00507398 0.010162995
0001c0 7a 5f 06 3d 0c 35 48 3c f3 58 48 bc 09 ee 21 3c
       0.032805897 0.012219679 -0.012228238 0.009883412
0001d0 f4 b2 2b bc 60 6f 5b bc 71 9a 97 bc eb ab b3 bb
       -0.0104796775 -0.013393253 -0.01850626 -0.0054831407
0001e0 80 4b 85 bc 41 b6 b2 bc e5 62 12 bc b4 58 cd 3a
       -0.016271353 -0.021815421 -0.008934711 0.0015666694
0001f0 ca b5 89 bb f0 b3 1a 3c 1d bb 20 bb 83 35 a6 b9
       -0.004202579 0.0094423145 -0.002452559 -0.00031701857
000200 3a 25 94 ba 93 7d a4 b9 f9 ff 13 3b 7b 47 de 3a
       -0.0011302598 -0.00031374078 0.0022582992 0.0016958559
000210 1c d5 cf 3a 2b 61 94 3b 92 09 5b 3b 7d fb 8b bb
       0.0015856358 0.004528185 0.0033422452 -0.004271923
000220 9b 16 b0 bb a3 2c 3e bb 67 b2 ee b9 bf 88 ba ba
       -0.0053737885 -0.0029018305 -0.00045527818 -0.0014231427
000230 42 e5 1f 3a 8f ee d6 3a a6 8f 45 3a 35 15 3f 3b
       0.0006099531 0.0016398 0.0007536359 0.0029156927
000240 17 6d 01 80 90 9d 00 80 99 06 00 80 82 c7 00 80
       -1.3097e-40 -5.6523e-41 -2.367e-42 -7.157e-41
000250 4c 85 01 00 8b 3c 01 00 5e 63 01 80 cb 27 00 80
       1.39653e-40 1.13554e-40 -1.27482e-40 -1.4275e-41
000260 be 46 01 00 2f 2c 82 ba 78 18 15 3d db 44 3e ba
       1.17213e-40 -0.0009931381 0.03640029 -0.0007258185
000270 6d 56 de 3c ef 19 86 3d 9e c7 e9 3c 7f 24 2f bc
       0.02714082 0.06547915 0.028537568 -0.010689854
000280 0c c2 df 3c 4f a5 0f bc 99 19 77 04 da 65 51 87
       0.027314208 -0.00876744 2.9046464e-36 -1.5753344e-34
000290 d7 1a 48 07 6b cf c9 06 00 e4 53 06 4b de 69 87
       1.5054215e-34 7.591257e-35 3.9852197e-35 -1.7594298e-34
0002a0 9f fe 3e 07 6c 5d 4b 07 7f e1 5e 87 ef d5 04 bc
       1.4368838e-34 1.5299477e-34 -1.6767691e-34 -0.008107646
0002b0 2a 41 71 bb 99 0f d0 bb 86 9d e0 bb c7 55 3f bb
       -0.0036812522 -0.0063495156 -0.0068547158 -0.0029195414
0002c0 ab d5 f2 bb 03 6d 45 bc 81 7f 1d bc 15 18 6b bc
       -0.007410725 -0.012049916 -0.009612919 -0.014349003
0002d0 d7 42 84 bb be ef c7 3b 50 e0 55 ba 16 f4 8b 3b
       -0.0040362882 0.0061015775 -0.00081587303 0.0042710407
0002e0 1e a6 7a 3c 66 f7 00 3c 37 3e cc bb c9 03 77 3b
       0.0152983945 0.007871484 -0.0062330025 0.0037691465
0002f0 2c 8e 2e bb e6 3b 01 80 36 23 01 00 53 ac 01 00
       -0.0026635034 -1.13323e-40 1.04467e-40 1.53654e-40
000300 f8 62 01 00 1f e1 01 00 d4 7a 00 80 ed 82 01 00
       1.27339e-40 1.72594e-40 -4.4062e-41 1.38803e-40
000310 01 1d 01 00 c7 11 00 80 fb c0 5d bb 46 5f 24 bb
       1.0224e-40 -6.377e-42 -0.003383695 -0.0025081201
000320 46 0b df bb 6a 72 7d 3b e4 8e ad 3b 6c 3d 4c 3a
       -0.006806764 0.0038672932 0.005296575 0.0007791135
000330 24 db f1 3a 2c a0 6e 3b e8 f2 26 ba d8 a3 15 83
       0.001845215 0.0036411388 -0.00063685933 -4.397525e-37
000340 ae 59 d0 00 a0 07 03 84 86 05 00 84 cb 2a 93 83
       1.9133954e-38 -1.5402477e-36 -1.5048864e-36 -8.649708e-37
000350 b5 24 0f 83 d2 1f 26 04 f8 07 b3 03 4b 91 f2 03
       -4.206606e-37 1.9527817e-36 1.0522504e-36 1.4256839e-36
000360 4b 31 01 00 8d 3f 01 80 52 75 01 00 82 5a 00 80
       1.09518e-40 -1.14633e-40 1.33922e-40 -3.2468e-41
000370 8b b4 01 00 ed 4a 00 80 59 2e 00 00 a4 b3 01 00
       1.56602e-40 -2.6878e-41 1.6626e-41 1.56278e-40
000380 e2 c9 00 00 e6 76 8b 3b 3e 13 d0 3b c9 87 b9 b9
       7.2422e-41 0.004256117 0.00634995 -0.00035387118
000390 b3 b0 10 3a fe fe 2f 3b 4e a2 3c bb 9b e9 96 ba
       0.00055194943 0.0026854868 -0.0028783265 -0.0011513712
0003a0 0a 3d 99 3a 0d be 76 bb 41 dc ac 3b 46 fa 4a 3b
       0.0011691165 -0.00376499 0.0052752797 0.0030971928
0003b0 63 e1 36 3d 2a 61 2a bd ad 8c 32 bd 50 0f b6 bb
       0.04464854 -0.04159657 -0.04359119 -0.0055560246
0003c0 1a 76 11 bd 65 be 0f bd 2e 8d 49 3b ef ab e5 3a
       -0.03551302 -0.035093684 0.0030754316 0.0017522554
0003d0 b5 24 47 ba 9e 75 f8 ba 85 20 ec 3b 7a 18 b9 3b
       -0.00075967173 -0.0018955951 0.007206025 0.00564867
0003e0 74 2f c1 3b f5 9e ef 3b 20 96 d4 3b 9e a0 e7 3b
       0.0058955494 0.0073126503 0.006487623 0.0070687076
0003f0 74 97 a1 bc ee a5 af 3c f9 b4 9c bc b9 d1 9f 3c
       -0.019725539 0.021441426 -0.019129263 0.019509183

e_conv7.bias f4 [8]
000000 0c f5 b1 3c bc 79 57 3c fc 43 62 3d 90 4b 26 3d
       0.021723293 0.013151582 0.055240616 0.040599406
000010 8d 9c bd 3c 53 e3 ff 3c f8 0b a9 3c 91 4c 3e 3c
       0.023145938 0.031236326 0.02063559 0.011614935
