snapshots/Epoch47.pth (torch, 304045 bytes, 14 tensors)

e_conv1.weight f4 [32, 3, 3, 3]
00000000: fec8 0000 0833 0080 8226 0080 c186 0000
00000010: 527c 0000 0a35 b98a 31f1 0000 a42e 7f9e
00000020: 4f89 0080 b3fc 0080 01cc 4415 28c2 0080
00000030: 3434 0080 890e 0000 e1dc 0080 234d 0100
00000040: 334e 0000 7449 0080 64d7 0080 18d6 0000
00000050: d639 9981 ab24 0080 888e 0000 6384 498f
00000060: 3669 0000 8ba4 0080 ecc5 0000 ee1c e2bb
00000070: bb5f e2b7 0913 98bc b84b 113c a76b 033c
00000080: aa93 053c 76ce ae3c 2591 3f3c f1bb 983c
00000090: c930 f43b 981b e6bb e156 023d 0c8e 8c3b
000000a0: cb55 823c 38ac 853c 6ccd 003d 9785 113d
000000b0: db1e 943c a87c f4bb 64e5 8dbb 2155 e8bc
000000c0: 2b54 b5ba 7fac a0bb cfea 9bbc 9e87 38bc
000000d0: 090b f2bb 8703 903c 1155 fabb eee1 26bd
000000e0: 13de 31bc 05b7 3fba bcaf d2bc 4006 95bc
000000f0: a797 ce3a 34b5 eabb 4606 92bb 8099 b1bb
00000100: 11ca 1d3c bd04 e03b 3c30 f7bb e570 ca3b
00000110: ecc8 6b3b 8a3c 273d 60fd af3c 5665 b3bc
00000120: 4c1c 993c 8eec cb3c 0f2d 9f3c ae4e f53c
00000130: 487a a83c 8445 fc3c ff61 cf3c e553 033c
00000140: 75a9 223c 5446 f13a 52c1 673c 6a69 6d3b
00000150: 4298 adbc dc65 e7bb 7104 803b e68c 59bc
00000160: d360 7cbc fe44 c23c c04a e9bc 97b1 3d3c
00000170: cbb6 3e3c 814d dabb a47b 58ba 6f6c 0b3c
00000180: d2c5 eebc 7b94 493c 7bfe b33c db6b d4bb
00000190: 40e7 333b 0ecd 2fbc d451 00bc 6bea 973c
000001a0: c2a6 ccba 30fe bcbc bdd9 fa3b 3a5c d43c
000001b0: 1a41 643b 209f f73b 9579 0c3d 643e 983c
000001c0: 0c00 223c 24ba 033d b0b4 c5ba b28e 7fbc
000001d0: f71d a23b f82e 763c 2193 b03c 2c88 133d
000001e0: a42f 0e3c 4bd2 0fbb 25c3 263b 9f44 723b
000001f0: af51 bf3c 611e f53c 185f 1f3c 08b6 243c
00000200: c70d 013d 80ff ebbc 0b70 40bc 3f00 cd3b
00000210: a5b5 28bd e3d2 1cbc a3eb eeba 9969 0180
00000220: 572a 0180 b966 0100 0187 0100 0f93 0000
00000230: 9b5f 0080 9596 0080 afa1 0080 4e55 6990
00000240: f2aa fe8e 9f91 0000 43b9 0080 3cc5 e281
00000250: 82a8 0080 afa1 0180 59b8 0000 5db9 0080
00000260: 8e4e 0000 17a9 0080 86c5 0080 54a4 0180
00000270: 839e 0000 766b 0080 982f 0000 1199 0080
00000280: 5dc6 0080 04ab 0100 1c60 bf3c 444d 283b
00000290: 97f8 58bc 8f19 193c 8c9e 253b 5d6a 0fbd
000002a0: c81f b63c 6842 2d3a 58f8 f6bb 4eb2 143d
000002b0: ff89 053d 1d35 d8bc 6ff2 823c 7bde 243c
000002c0: 2d95 f8ba 5be7 5e3c 445d 06bd 000f 25bd
000002d0: 1861 0a3c 2643 0ebc 0d6a 51bc 56ed 953a
000002e0: a385 863b 6aa9 0dbc c455 0d3d c43e 8abc
000002f0: 2266 29bd e629 0000 e81f 0080 3171 0080
00000300: f60e 0000 729f 0080 3e17 9682 3089 0100
00000310: 38ea 0080 e06a 0080 e553 0000 9c15 0080
00000320: 018c 0000 8cb2 0000 9ba8 0000 4da9 0080
00000330: 6457 0080 0e13 0100 6765 0000 fa28 0080
00000340: ebc2 0000 f244 0080 df06 0180 07ad 0080
00000350: dac8 0000 8549 0080 e8a6 7f13 6c51 b086
00000360: 9762 0000 775d 0000 add4 0080 e44e 3484
00000370: e139 8116 baaa a026 507c 0000 2d14 0101
00000380: 4a5c 0527 3bc6 0000 0dcd 0000 7784 0080
00000390: ceb8 0000 a8c7 1e01 b2a2 c51e 65a7 0080
000003a0: ad47 e584 3213 0000 a883 0080 0f13 0080
000003b0: 3e5d 0000 28aa 0000 9112 0200 a7af 0080
000003c0: d337 0080 e369 e08e 3ec6 7927 7fbf 11bd
000003d0: e84c 81bc 5e8a 21bd 800b b5bc 49a4 90bc
000003e0: 5e0b 54bc 8841 22bc fc1b 5f3c dba1 f53b
000003f0: 08a3 1ebd df68 83bb 9f7f bfbc 8cda 95bc
7.2102e-41 -1.8307e-41 -1.3814e-41 4.834e-41 4.4598e-41 -1.7834803e-32 8.6523e-41 -1.3509233e-20
-4.9257e-41 -9.0651e-41 3.9742815e-26 -6.965e-41 -1.8727e-41 5.214e-42 -7.9236e-41 1.19507e-40
2.8053e-41 -2.635e-41 -7.7268e-41 7.6802e-41 -5.6286314e-38 -1.3154e-41 5.113e-41 -9.935562e-30
3.7743e-41 -5.9027e-41 7.1001e-41 -0.0069004213 -2.6985877e-05 -0.018563764 0.00886815 0.008021272
0.008152882 0.021338683 0.01169232 0.018644305 0.0074521047 -0.0070223324 0.031821135 0.0042893942
0.01591005 0.016317472 0.031445906 0.03552779 0.01808112 -0.0074611492 -0.004330324 -0.028360905
-0.0013834288 -0.0049033756 -0.019032864 -0.011262802 -0.0073865694 0.017579807 -0.0076395352 -0.040742807
-0.010856169 -0.0007313344 -0.025718562 -0.018191457 0.0015761749 -0.0071627144 -0.0044563143 -0.00541991
0.009630696 0.0068365023 -0.007543592 0.006178009 0.0035977913 0.04082922 0.021483123 -0.021898907
0.01869025 0.024893072 0.019430665 0.029944744 0.02056612 0.030794866 0.025315283 0.0080156075
0.009928097 0.00184078 0.014145212 0.0036226162 -0.021190766 -0.007061703 0.0039067795 -0.013278222
-0.015403944 0.023714539 -0.028478026 0.011577985 0.011640261 -0.006662071 -0.000825817 0.008509739
-0.029147062 0.012303467 0.021971932 -0.006482584 0.0027451068 -0.010730041 -0.007832009 0.018544396
-0.0015613663 -0.023070425 0.007655351 0.025922883 0.0034828843 0.007556811 0.034295637 0.018584438
0.0098877065 0.03215994 -0.0015083756 -0.015597986 0.0049474197 0.015025847 0.021554532 0.036018535
0.008678351 -0.0021945413 0.0025445905 0.003696717 0.02335438 0.029921712 0.009727262 0.010053165
0.03150728 -0.028808355 -0.011745463 0.006256133 -0.041188855 -0.009571764 -0.0018228184 -1.29717e-40
-1.07024e-40 1.28685e-40 1.40266e-40 5.2755e-41 -3.4297e-41 -5.4019e-41 -5.8001e-41 -4.6016864e-29
-6.278045e-30 5.2239e-41 -6.646e-41 -8.3302306e-38 -6.0449e-41 -1.49837e-40 6.6131e-41 -6.6496e-41
2.818e-41 -6.0658e-41 -7.0858e-41 -1.50785e-40 5.6863e-41 -3.855e-41 1.7073e-41 -5.491e-41
-7.116e-41 1.53184e-40 0.023361258 0.002568082 -0.013242862 0.009344473 0.0025271503 -0.035013545
0.022231951 0.00066093216 -0.007536929 0.036302857 0.032602306 -0.026392514 0.015984742 0.010062809
-0.0018965356 0.013604964 -0.03280379 -0.04029751 0.0084460005 -0.008683002 -0.012781632 0.001143853
0.004105286 -0.0086463485 0.03450562 -0.016875632 -0.041357167 1.503e-41 -1.1446e-41 -4.0605e-41
5.367e-42 -5.7198e-41 -2.205386e-37 1.41049e-40 -8.4022e-41 -3.834e-41 3.0096e-41 -7.752e-42
5.0224e-41 6.405e-41 6.0484e-41 -6.0734e-41 -3.135e-41 9.8671e-41 3.6376e-41 -1.47e-41
6.9923e-41 -2.4733e-41 -9.43e-41 -6.207e-41 7.2052e-41 -2.6374e-41 3.2267816e-27 -6.632348e-35
3.5367e-41 3.3529e-41 -7.6294e-41 -2.1195123e-36 2.08776e-25 1.1148506e-15 4.4595e-41 2.3708033e-38
1.8507488e-15 7.1112e-41 7.3558e-41 -4.752e-41 6.6295e-41 2.9163263e-38 2.0925476e-20 -6.005e-41
-5.3903465e-36 6.886e-42 -4.723e-41 -6.837e-42 3.3449e-41 6.104e-41 1.90331e-40 -6.3012e-41
-2.0026e-41 -5.532223e-30 3.466316e-15 -0.035583016 -0.015783742 -0.039438598 -0.02210021 -0.017656462
-0.012942163 -0.009903319 0.013617512 0.0074961013 -0.038729697 -0.0040103043 -0.023376284 -0.018292688

e_conv1.bias f4 [32]
00000000: fff3 bbba 51ce 833d f82f 8f3c cf78 fc3d
00000010: 3fce 823d d304 e1b9 a3b6 5f3d 6946 cfbb
00000020: aa5b acbb 0c92 943d 82f1 76bb 7f6d a1b9
00000030: 6847 f4bc 124d 623d 57a2 edba fdfd 223e
00000040: 3a9d 023e 3ef7 bf3d 890f 3c3e 1fa8 233e
00000050: babf 13b9 e75e 213e 3339 96bc d96d f23d
00000060: 0db6 8aa2 09c2 10b8 88b7 103d a760 2cb9
00000070: 3815 4cb3 df43 a9ba 24dc fe3d f04b 72ba
-0.0014339684 0.06435836 0.017478928 0.1232773 0.063869946 -0.0004291894 0.054617535 -0.006325532
-0.0052599506 0.07254419 -0.003768057 -0.00030789894 -0.029819205 0.05524928 -0.0018130046 0.15917201
0.1275529 0.093733296 0.18365301 0.15982102 -0.00014090436 0.15758859 -0.018337822 0.11837358
-3.759773e-18 -3.4512985e-05 0.03533128 -0.00016439204 -4.751675e-08 -0.0012913904 0.12444332 -0.0009242883

e_conv2.weight f4 [32, 32, 3, 3]
00000000: 2579 0000 5c98 a525 6521 a40d db48 0080
00000010: 24d6 0000 35d4 0000 51be 0080 b4a5 0080
00000020: 99a3 0080 3a58 143c 15c6 aebc 196d 453b
00000030: 6fd6 89bb 2a12 63ba f8fc eebb c1a1 523c
00000040: ec13 f03c a5c4 d13a 4584 48bc a496 68bc
00000050: 7beb 0ebc 3fa0 a03b 89e0 ccbb 50d8 92bb
00000060: 4f56 aa3b c7bf b13a 6c11 ea3b 0936 efbc
00000070: abe2 9e3c 0ee7 1f3d d050 7bbc 194c ebbb
00000080: 88d2 c7bb 7530 24bd 4a35 a23b d94d 9c3c
00000090: 3a1b 6739 74f1 2dbb bf49 933a 53aa 4c3c
000000a0: c86a 70bc 55ca 043c db51 6a3c 1912 8fbc
000000b0: 0d86 15bc 3512 b79c e75f 0000 9257 0000
000000c0: d381 0080 4737 0000 c31e df07 c402 0100
000000d0: b486 0080 5375 0000 6db1 0ebb ec0c 283c
000000e0: 2ff0 2abc a94f 32bc d7aa d63b 3cfc 1b3c
000000f0: 7c84 e03b 83ab 153c 1bf0 ac3c e206 0100
00000100: 00b3 0080 d0a0 0100 3890 0080 c8d6 0000
00000110: bb82 0000 cb44 4627 8ad1 0000 1b9d 0000
00000120: a5e5 0000 4aa8 0080 dd3b b282 1f0e 0080
00000130: 0e63 0000 3c02 0080 98b9 039a c5da 0000
00000140: 709b 0000 38af 823c 0b12 b5ba b2e0 133c
00000150: e214 9abb 6d3c 0d3c 411c 1e3c 4cf0 103a
00000160: 36ed a239 aeb6 80bb f580 0080 1c06 281a
00000170: 9bb7 0080 be0f 0080 1cba 0100 1e36 b502
00000180: 0fd2 0080 0c14 0000 065b 0080 5af4 3da6
00000190: dbc0 0080 4498 0000 5097 0080 2bec 782f
000001a0: 6730 0200 a905 0100 2861 0080 19c8 0000
000001b0: ba02 02bc a673 04bc ef09 04bc af42 033a
000001c0: 4835 ae39 bda7 8c39 2b6b b83a 9bc8 9e3a
000001d0: ab5e 8a3a c83a 073b 80de bf3c 0f1f 963b
000001e0: 71aa 663c 8d3b ab3b 73cf 363c 16ba 46bc
000001f0: e8d9 633c 966a 34ba a8c8 0000 cd15 0000
00000200: 862e 0080 03af 0080 f09f 1f24 2c7c 0180
00000210: 7294 71b1 5024 0080 d359 0000 0fb1 c53b
00000220: f4af 433c 0654 8d3b 9a70 843c cd32 8d3c
00000230: ddbe 723c f8cb 37bb 182d 9dbc fe96 efbb
00000240: ad2f 87bc 5ed1 a7bc 8e4d 0bbc 9290 a8bc
00000250: f763 803c 8a26 933c 0a55 02bd 1a30 d139
00000260: 0c2b f5b9 5f4a b43c a10a 44bb def5 f2ba
00000270: 4352 f0bb 1cbb 583c c39f db3b 0162 db3b
00000280: f58e 963c b4ed af3c 4a09 17b9 ca93 c5bc
00000290: c874 8dbc bf07 01bb 3641 093a 06d3 973c
000002a0: 4a4d 16bd e584 803c 4d6e 0d3d fe46 aa3c
000002b0: 5104 9a3c 3d46 a0bb 2d5b 173c fdd9 333c
000002c0: 8bc6 cfba b86d 4dbc 6ea4 1fbc 6299 f13c
000002d0: f049 88a0 06f9 0080 99be 0080 3080 0080
000002e0: 0ecf 668e 8935 0000 723d 0080 8404 0000
000002f0: d319 0000 4221 b1bc e463 483c dfbd 903c
00000300: 3fc3 96bc c5eb 4a3d 3563 093d c77b 3e3c
00000310: a859 f03c 8ea0 953c 867f 9b3b 7523 e03b
00000320: 747f 50bb d6e8 60bb dba8 7b3a 53af 05bb
00000330: c8ea 51bc 8f01 bd3b 8082 27bc bd5e 9f3c
00000340: deee 543c d918 ba3c 454c 583c c727 c43c
00000350: cdca b43b 4d91 3cbd 59fb e23c 19a9 b8bb
00000360: 88ed a99c fc82 0080 4a89 0000 96b8 0080
00000370: 6b3b 0100 917e 0080 52b5 1d00 c6a1 0080
00000380: bf92 0080 3366 0180 e0db 0000 996f 0080
00000390: 0f34 0080 b1b2 0000 9366 0000 25ab 0080
000003a0: 8f0a 0080 de13 0080 8260 923b 505c 2e3b
000003b0: 589a ba3b 1bfb 65bb 2509 6ebb 529a 65bc
000003c0: 8cd1 733c 99cc 0bbc 8469 a3bc 1bd4 f3a1
000003d0: 5f3f 0000 caa2 0000 249c 0000 21e0 0080
000003e0: 02a8 0080 772e 0080 4370 6f99 8bb6 0100
000003f0: 1268 0180 9408 0000 11e4 0080 c6c4 b833
4.3458e-41 2.872618e-16 1.011532e-30 -2.6136e-41 7.6819e-41 7.6126e-41 -6.8273e-41 -5.9443e-41
-5.8688e-41 0.009054238 -0.021334687 0.0030124842 -0.0042064707 -0.00086620694 -0.00729334 0.012855948
0.029306374 0.0016004039 -0.012238567 -0.014196072 -0.008723135 0.0049019153 -0.0062523526 -0.004481353
0.005198277 0.0013561182 0.00714319 -0.02920057 0.019395193 0.03903871 -0.015339091 -0.0071807024
-0.0060980953 -0.040085275 0.0049502 0.01908009 0.0002204002 -0.0026541622 0.0011237188 0.01249178
-0.014673896 0.00810488 0.014301742 -0.017464684 -0.0091261985 -1.2114631e-21 3.4403e-41 3.1414e-41
-4.6572e-41 1.983e-41 3.357139e-34 9.2828e-41 -4.8322e-41 4.2088e-41 -0.0021773234 0.010256987
-0.010433241 -0.01088325 0.0065511274 0.009520587 0.006851731 0.00913513 0.021110585 9.4305e-41
-6.4213e-41 1.49524e-40 -5.1736e-41 7.7049e-41 4.6897e-41 2.7515313e-15 7.5168e-41 5.6359e-41
8.2381e-41 -6.0371e-41 -2.618911e-37 -5.066e-42 3.5534e-41 -8.02e-43 -2.7240086e-23 7.848e-41
5.576e-41 0.015952691 -0.0013814581 0.0090257395 -0.0047021965 0.008620364 0.009650291 0.0005528971
0.00031075784 -0.003928027 -4.6261e-41 3.474652e-23 -6.5865e-41 -5.647e-42 1.58599e-40 2.6626621e-37
-7.5355e-41 7.191e-42 -3.2653e-41 -6.5903706e-16 -6.9184e-41 5.4623e-41 -5.428e-41 2.2639372e-10
2.01034e-40 9.3866e-41 -3.4853e-41 7.1782e-41 -0.00793522 -0.008084213 -0.008059009 0.000500719
0.00033227564 0.00026827856 0.0014070024 0.0012114228 0.0010556778 0.0020634402 0.023421526 0.004581339
0.014078722 0.005225605 0.011157858 -0.012129327 0.013906933 -0.00068823376 7.1982e-41 7.82e-42
-1.669e-41 -6.2782e-41 3.46131e-17 -1.3638e-40 -3.5154497e-09 -1.3026e-41 3.2223e-41 0.00603307
0.011943806 0.004312995 0.016166974 0.017236138 0.014816013 -0.0028045159 -0.019186541 -0.007311701
-0.016502226 -0.020485576 -0.008502377 -0.020576749 0.015672667 0.017962713 -0.03181938 0.00039899425
-0.00046762114 0.02200812 -0.0029913562 -0.0018536409 -0.007334025 0.013228204 0.0067023947 0.0066950326
0.018378714 0.02147565 -0.00014403943 -0.024118323 -0.0172676 -0.0019688455 0.00052358524 0.018533241
-0.036694802 0.015688369 0.03452902 0.020785805 0.018800886 -0.0048911856 0.009238047 0.010977265
-0.0015852017 -0.012538366 -0.009743793 0.029492084 -2.3088224e-19 -8.9333e-41 -6.8374e-41 -4.5985e-41
-2.8449382e-30 1.9205e-41 -2.2042e-41 1.62e-42 9.264e-42 -0.021622304 0.012230847 0.017668663
-0.018403647 0.049541254 0.033541877 0.0116261905 0.029339626 0.018265035 0.0047454266 0.0068401643
-0.003181425 -0.0034318469 0.00096000516 -0.002039869 -0.012812324 0.005768008 -0.010223985 0.019454354
0.0129964035 0.022716926 0.013201778 0.023944749 0.00551734 -0.046037007 0.027707743 -0.0056353924
-1.1244882e-21 -4.6988e-41 4.925e-41 -6.6217e-41 1.1315e-40 -4.5403e-41 2.728275e-39 -5.8033e-41
-5.2643e-41 -1.28498e-40 7.8876e-41 -4.0034e-41 -1.8675e-41 6.4102e-41 3.6797e-41 -6.1395e-41
-3.788e-42 -7.127e-42 0.004467071 0.0026605316 0.0056946687 -0.0035092297 -0.0036321369 -0.014013844
0.014881503 -0.008532667 -0.019947775 -1.6522464e-18 2.2733e-41 5.8398e-41 5.6013e-41 -8.0402e-41
-6.027e-41 -1.6668e-41 -1.23786815e-23 1.5732e-40 -1.29169e-40 3.077e-42 -8.1815e-41 8.6039606e-08

e_conv2.bias f4 [32]
00000000: a1c2 0ebd b5a2 8a2b 66c4 723b a82b 808a
00000010: 68a9 183d 2fc4 ef3c cdaa 2d3a fc08 223d
00000020: 190a 5a3d 747f 0d3d a3d4 dcbc 76a1 08bb
00000030: 515b 00ac a6c8 01bc 6cef 0b3c d6ec 6daf
00000040: 2858 003d 2d98 013c c748 bd86 fd9e 4bbc
00000050: f9ad b3b2 a497 563c a385 ca9e df7e 073d
00000060: 47ce 24aa 07f8 313d 7bcc 3f3d f4cb c4bb
00000070: 2f9c f9aa fddd b1ba 121c 00bc f103 4d3d
-0.03485358 9.85065e-13 0.0037043332 -1.2342373e-32 0.037270933 0.029268352 0.00066248776 0.03955935
0.053232286 0.034545377 -0.026956862 -0.0020848191 -1.8240585e-12 -0.0079213735 0.008540969 -2.1639165e-10
0.031334072 0.007909817 -7.1200835e-35 -0.0124280425 -2.0917456e-08 0.013097677 -2.1442853e-20 0.033079978
-1.4637693e-13 0.043449428 0.046825867 -0.0060057584 -4.433966e-13 -0.0013570186 -0.0078191925 0.050052587

e_conv3.weight f4 [32, 64, 3, 3]
00000000: c250 0080 a141 0000 2c9e 0000 dd7a 0000
00000010: c267 0000 5d77 0000 a03e 0000 a062 fe9b
00000020: dc3c 8923 0037 f23a 163f 753c 2253 cf3c
00000030: 7270 14bc d3a9 5d3b 6583 2b3c 265c f7bc
00000040: 16da bfbb 8e73 2bbc 09d5 7fbc e317 54bb
00000050: 895e 2d3a c978 89bc 93cc a6bb 26a6 d7ba
00000060: 16c2 b4bc 1af4 5fbc d1f6 2dbc c741 2d3c
00000070: 7d32 2c3c 643c 873c c41f ecb8 82e5 403b
00000080: b3ab e63b 93e2 bb3a 2cff 25bc a207 a6bc
00000090: 9016 fb3b 2011 d33c 6b55 a43c 9d34 8d3b
000000a0: 5151 5d3c 341c de3b 313c afbb 5aae 88bb
000000b0: 4f7b aabb 486e 0000 922e 0000 2cfc 0000
000000c0: bdbd 0080 bb3a 0080 29f2 1ca2 784f 0080
000000d0: 7cc9 0080 a67b 0000 3626 b33b c8de ed3b
000000e0: 264a 153a d73d e33b 6f94 5c3c 6ab8 aa3b
000000f0: 9102 b43a 4b9f bf3b da7d f8bb 0eac 0000
00000100: 4a7c 0080 5012 020f 3430 0180 31f7 0080
00000110: 28e5 0080 da53 0000 bd94 0000 9b4a 0080
00000120: c007 0180 7fb2 0080 3fc4 0000 a910 0000
00000130: a3b4 0080 6122 16ad 7aac 0000 793c 0080
00000140: 827e 0000 0a0a 1fbb 5235 4cbb 8a92 89bc
00000150: cc2d 093c aba8 b73b dafe 14bc ea90 a33b
00000160: 1a0a 05b9 29a3 22bc 5334 0000 c50f 0000
00000170: 6ba7 fc1c f926 0000 1616 0000 2471 0080
00000180: 1e3f 0000 fd07 0000 b02f 7a90 a825 0180
00000190: e1f1 0080 10a2 0080 67b6 0080 af5d 0080
000001a0: 42e7 0080 6e04 0000 a30a 0100 2651 0000
000001b0: e2bf 9c39 f98d dd3a 26da 003b 6c26 27ba
000001c0: fe9b 33b9 f4eb fcb8 49f9 01b9 9da3 0aba
000001d0: 5c23 bfb9 5d80 d8bb f37a bdbb f7cb 02bc
000001e0: 5ed2 0abc 683e dfbb cac6 dabb 1274 3abc
000001f0: afe7 22bc 5aac 0abc 4b7b 1c05 942b 0000
00000200: ce1a 0080 7d50 0080 2df4 9117 0fd7 0080
00000210: 1e6e 0000 9c4c 0c13 ad2d 0000 0df2 a9bc
00000220: 5c58 b03b 9d25 9b3c de3e 893b 8230 0cbb
00000230: dbcc 5a3b 320c 35bd e927 e1bc 028d 71bc
00000240: 7af7 1b3b b096 113c b0e6 d53c 2355 6bbc
00000250: 21f7 f43b 73bf 4fbc 909f f8bc 1c39 c7bb
00000260: 203a a3bb 9529 f43b 04db fc3b 24ea 0f3b
00000270: a8c9 483b 4beb b03b ddfe 41bb f899 5c3b
00000280: eecc 7d39 a3ce 32bc ae23 073b 3261 6c3c
00000290: f55f a43c 1264 b13b 8756 babb e893 b83c
000002a0: c630 06bd 17a3 85bc 1045 25bb 6249 8a3c
000002b0: 6351 15bb 665f 083c e99c 803b 7992 04bc
000002c0: 24a1 c0bc fcf7 70bc d12f 32bc 1a9a c2bb
000002d0: feaa 0000 9638 a890 b506 5eb1 9d3d 0180
000002e0: d2f8 0000 ef94 0000 854f 0080 d953 040d
000002f0: 5ffb 0000 3648 bdba 5b7f 7eb9 a0f3 a8bb
00000300: 8382 8b3a e8c8 2f3c 6ae5 6b3c ad6a 82bc
00000310: b1da a1bc 9ee8 c439 91a1 9d3a 54fa 5d3c
00000320: b54d ef3c 3d64 72bc d266 f6b9 69d7 723c
00000330: b2a5 ecbc b0c6 6cbc d44f 2fb9 d065 27bc
00000340: 4852 483b eb76 55bb 2392 e03a 1b6b 193b
00000350: 2904 b33b cee7 91bc 7b80 76bc 1aa5 d3ba
00000360: a197 0000 1771 0000 0703 0000 8844 4c98
00000370: 1c68 0080 ebe2 0000 1ba6 0000 291a 1d01
00000380: 1149 0080 f652 0080 b9b1 0000 87d0 0000
00000390: 97ab 8713 9ba1 0080 8c3c 0000 07b8 0000
000003a0: ea02 0180 31a4 a48a 0552 08bc 27fa a9bb
000003b0: 5416 5b3c b7e8 2ebc a940 af3c a3ea df3b
000003c0: 1fef b7bc d848 7bbc cde1 2fbc 8c0a 0000
000003d0: 075c f58b 578c 0080 1d91 0100 68c0 0080
000003e0: 4665 0080 981a 0000 56b4 0000 1965 b01d
000003f0: 0330 8699 13f9 0000 d3b5 0000 4f52 0000
-2.897e-41 2.3543e-41 5.6741e-41 4.4075e-41 3.7221e-41 4.282e-41 2.2466e-41 -4.208451e-22
1.4879345e-17 0.0018479526 0.014968654 0.025308196 -0.009060012 0.0033823147 0.010468339 -0.030195307
-0.0058548553 -0.010464562 -0.015614756 -0.003236287 0.0006613513 -0.016781228 -0.005090305 -0.0016452714
-0.022065204 -0.013669038 -0.010617928 0.010574765 0.010510084 0.016508289 -0.00011259274 0.0029433672
0.007039511 0.0014334492 -0.0101316385 -0.020267311 0.007662602 0.025765002 0.020060262 0.0043092505
0.013508157 0.0067782644 -0.0053477515 -0.004171175 -0.005202688 3.9561e-41 1.6706e-41 9.0462e-41
-6.8065e-41 -2.1069e-41 -2.127014e-18 -2.8508e-41 -7.2279e-41 4.4357e-41 0.0054672016 0.0072592236
0.0005694948 0.006934862 0.013463124 0.005209972 0.0013733675 0.0058478466 -0.007583362 6.1722e-41
-4.4587e-41 6.413022e-30 -1.09128e-40 -8.8676e-41 -8.2206e-41 3.008e-41 5.3357e-41 -2.6763e-41
-9.4616e-41 -6.4032e-41 7.04e-41 5.977e-42 -6.48e-41 -8.5341465e-12 6.1873e-41 -2.1694e-41
4.5382e-41 -0.0024267458 -0.003115971 -0.016793508 0.008372735 0.0056048236 -0.0090939645 0.0049916403
-0.00012687632 -0.009926596 1.877e-41 5.657e-42 1.6719238e-21 1.3981e-41 7.923e-42 -4.0587e-41
2.2642e-41 2.866e-42 -4.9340544e-29 -1.05344e-40 -8.677e-41 -5.8137e-41 -6.5434e-41 -3.3607e-41
-8.296e-41 1.589e-42 9.5651e-41 2.911e-41 0.00029897603 0.0016903273 0.0019661277 -0.000637627
-0.00017128882 -0.00012060246 -0.00012395265 -0.00052886625 -0.00036456704 -0.006607099 -0.005782479 -0.007983199
-0.008473007 -0.0068128593 -0.0066765295 -0.011380212 -0.009942933 -0.008463943 7.35773e-36 1.5633e-41
-9.616e-42 -2.8874e-41 9.432044e-25 -7.7148e-41 3.9503e-41 1.7708256e-27 1.6385e-41 -0.020745302
0.005381627 0.018938834 0.0041884026 -0.0021391218 0.0033386264 -0.044201083 -0.027484851 -0.014743092
0.002379863 0.008886024 0.026110977 -0.01436356 0.007475749 -0.012679922 -0.030349523 -0.006079806
-0.0049812943 0.007451246 0.0077165384 0.0021959627 0.0030637775 0.005399143 -0.0029601373 0.0033661108
0.00024204302 -0.010913524 0.0020620632 0.01442747 0.020065287 0.0054135406 -0.0056865844 0.022531465
-0.032761358 -0.016313119 -0.0025218166 0.016880695 -0.0022784106 0.008323526 0.003924955 -0.008091562
-0.023514338 -0.014707562 -0.010875658 -0.0059387805 6.134e-41 -6.63515e-29 -3.2309064e-09 -1.13938e-40
8.926e-41 5.3427e-41 -2.8526e-41 4.077657e-31 9.0175e-41 -0.0014441076 -0.00024270771 -0.0051559955
0.0010643754 0.010729052 0.014397958 -0.015920008 -0.0197576 0.00037557347 0.00120263 0.013548452
0.029211858 -0.0147944065 -0.00046997383 0.014821866 -0.028887603 -0.014451668 -0.00016719039 -0.010217145
0.0030566622 -0.0032572101 0.0017133396 0.0023409787 0.0054631424 -0.017810728 -0.015045281 -0.0016147227
5.4394e-41 4.0569e-41 1.086e-42 -2.6400981e-24 -3.7347e-41 8.1403e-41 5.9587e-41 2.8855115e-38
-2.6211e-41 -2.9761e-41 6.3755e-41 7.4806e-41 3.424799e-27 -5.7973e-41 2.172e-41 6.6017e-41
-9.2881e-41 -1.5854387e-32 -0.008320336 -0.005187291 0.013372023 -0.010675601 0.021393137 0.006833391
-0.022452889 -0.0153371915 -0.010734987 3.784e-42 -9.4509035e-32 -5.0344e-41 1.43892e-40 -6.9022e-41
-3.633e-41 9.54e-42 6.4692e-41 4.6691345e-21 -1.3874667e-23 8.9351e-41 6.5226e-41 2.9527e-41

e_conv3.bias f4 [32]
00000000: 1753 103d 0bbe f03c 79b9 c5ad 16c5 1a3c
00000010: 9f36 153d 3d72 38b6 72be 7cbc b64d b0b2
00000020: 5f17 073d 0b02 cd3b 8fe5 023d 391d 2cb7
00000030: 4273 d7b2 efe2 8a98 d867 0080 3345 19bc
00000040: 20f8 2a3d 6067 73bc f894 4c3d 155f 1ebc
00000050: 681c 89b3 c6d2 7e3c f95f 2fba 2a9c 24bc
00000060: b251 313c 0e17 bcaf 1e4a 1c3c 73ec 223d
00000070: 0e13 abb2 ef12 9cbc ce25 0d3d c88d 99bc
0.03523549 0.029387495 -2.2478673e-11 0.009446403 0.036429044 -2.7484632e-06 -0.015426265 -2.0524435e-08
0.032981273 0.006256347 0.031957205 -1.0258803e-05 -2.5081707e-08 -3.590131e-24 -3.7252e-41 -0.009354877
0.041740537 -0.0148561895 0.049946755 -0.009666224 -6.384727e-08 0.015553182 -0.0006690021 -0.010046998
0.0108227 -3.4213382e-10 0.009539155 0.039776277 -1.9915685e-08 -0.019051997 0.03445988 -0.018744364

e_conv4.weight f4 [32, 64, 3, 3]
00000000: 19af a4bb 642b 593c 9582 3cbd f179 b33b
00000010: dfb8 fabb 063a 0ebc 90c4 7c3c a845 99bb
00000020: 4d3c 73bc fd6f 11a7 60d4 12a8 8740 8aa8
00000030: 10bf 2627 b842 a52a d432 84a5 cc6c bb28
00000040: a789 c7a6 fe08 e426 0aa8 ba39 8e4d fb38
00000050: 7353 193a 5f2d 6d3a 9c79 4f3a c251 a13a
00000060: 2975 403a 12cf 073a 21d3 3c3a a837 0000
00000070: 7c2c 0080 7bab 1500 2d87 0080 e89c 0000
00000080: 87bd 0080 8faf 0080 feb2 0000 896a 0000
00000090: a827 d5ba 4897 eebb 87c4 b8bc f0e3 87bb
000000a0: 5244 253d 2487 5d3a 17c1 01bd 4f9b edbb
000000b0: 5bdb 1f3b 34a0 06bb 81aa fd3a 73cf b5ba
000000c0: 7800 f7ba a037 f13a 69b7 f4b9 ce06 1f3a
000000d0: 0bdf 973b c470 5a3b 9d44 bf3a d4f8 1d3b
000000e0: 9c41 f23a d457 bebb 6eee be3a c96e 2dba
000000f0: e610 0dbb 6862 70b8 a44c 7539 e172 45bc
00000100: 05bd 82bc 5eb0 c0bc cf1c b0bc d88f 8e3c
00000110: 820e 133c ab62 1bbc f5ef de3b 909d 10bc
00000120: 94b3 82bc c5d2 c13b d8db 2e3c 4862 f8bb
00000130: 4882 c93c 042b a9bb 228e a6bb d064 10bc
00000140: abf3 9bbc c143 b8bc 5bf5 9e3a 6341 ccbc
00000150: 94c3 033d c1f3 6ebc 6425 9c3c 0d07 553b
00000160: cdae 4d3b 1697 66bc 469f 043c 20a9 83bc
00000170: 5273 c0bb 7c38 35bc be78 713c f62f 1e3d
00000180: 1d92 0fbc 6155 773c 3d5d 1a3b 3ec8 f337
00000190: 883a ee37 ede0 19b8 22b6 1737 2a6e ee37
000001a0: 4669 34b8 fc56 e137 00e0 6237 dbfe a037
000001b0: f2c0 c7a8 00d7 b7a8 19b6 0aa9 ab7a 07a9
000001c0: 4a76 69a9 9967 e5a8 b369 80a8 1352 3ba7
000001d0: 1b02 39a8 bd30 30bc ac04 de3c a4e5 143c
000001e0: bb55 1c3c df5a 8c3c a4de babb ea8c 38bd
000001f0: d366 d23c 8fbe 93ba 3352 1eba 384f aeb9
00000200: 7a20 563a 67a3 8138 0e9c 5cb9 cb7d b439
00000210: 632a 1b3a f213 03ba 04fe 98ba 1fad c82c
00000220: a94e 072c 1af4 122e b17b 7e2d 4030 e82d
00000230: 0a96 a02d 0b55 d92d f8d1 0d2e 656d 152e
00000240: 3213 8e3b 564b 3bbd 866a b7bc 231f b9bc
00000250: 9ca6 ebbc f555 493c 563c 3f3c f6d3 803c
00000260: ad5a f43c a426 e03a 4ff7 7bba 603c 17b8
00000270: c85f 373b f333 1939 b375 4b3a 4a28 0a3b
00000280: 38d1 a9b9 4b34 e138 6f02 0000 bf29 5519
00000290: d5c8 0000 f36c 0080 0a7d 2295 9dfc 0000
000002a0: 95c1 0000 1870 0000 49db e78e 375d e9bb
000002b0: d8ec 90bc fd6f 3a3c e0f5 eebb aa08 063c
000002c0: dc59 e7bb 2236 7cbb 2c35 253c aaa1 31bc
000002d0: 6635 1a2c 26ef c1ab 983f 53ab d7dd 47ab
000002e0: 2f7f 1caa 75dc ceac f19e 3cac 0542 b6ab
000002f0: bebc 032d 5e07 823b 0563 ebb9 37ff f8ba
00000300: ffa3 283b 0a69 e5ba 8a3e 6ebb 9323 503b
00000310: 888a 4bba a150 09bb 9bbd 0000 b2b1 bc1e
00000320: 0ba1 0180 b81d 0100 4c3b 0000 1c5c 0000
00000330: a600 820e 435b 0080 5e35 0000 7caf 56ba
00000340: d062 78bb 9ea0 3c3a e096 c2bb 4070 0abb
00000350: e75a 583b 7da9 3fbb a81d bf39 cc46 5a3a
00000360: e493 0080 8f62 0000 7e83 0000 e664 0000
00000370: b7c0 0080 83a3 0000 06a2 0000 ad57 0180
00000380: 2b45 0000 82f0 813b d9a0 8bbb 2c5c e0ba
00000390: aa1a 8f3b 7b56 88bb d145 aeba 3e98 203b
000003a0: 1daa cbbb 3887 20bb 206c 2f3c 1a9b 6ebc
000003b0: b221 afba 36a2 8cbb bc6f c7bb a6c8 003c
000003c0: b20f 5f3c d32a 973c 1f13 3a3c 7ad7 0280
000003d0: 96a2 280b 8955 2d83 ae10 a086 86a8 0000
000003e0: b194 0080 79ac de87 1364 0080 3297 0000
000003f0: f38b 0080 f0c6 0080 6ca1 0080 ba31 0000
-0.005025756 0.013254974 -0.04602297 0.005477183 -0.007651433 -0.008680826 0.0154277235 -0.004677493
-0.01484592 -2.0183501e-15 -8.1506796e-15 -1.5349062e-14 2.3140703e-15 2.9356183e-13 -2.2932792e-16 2.0808354e-14
-1.384571e-15 1.5823115e-15 0.00035601883 0.00011983058 0.0005848922 0.00090475933 0.00079145445 0.0012307691
0.0007341677 0.0005180697 0.00072030915 1.9966e-41 -1.5958e-41 1.990061e-39 -4.8492e-41 5.6287e-41
-6.799e-41 -6.2979e-41 6.421e-41 3.8218e-41 -0.0016262429 -0.0072812177 -0.022554649 -0.0041470453
0.04034836 0.00084506185 -0.031678285 -0.0072511802 0.002439222 -0.0020542266 0.0019353182 -0.0013871029
-0.0018844744 0.0018403418 -0.00046675958 0.00060663826 0.004634743 0.0033331374 0.0014592592 0.0024104612
0.0018482688 -0.00580881 0.0014566907 -0.00066159345 -0.0021524965 -5.7312107e-05 0.00023393572 -0.012051315
-0.015959272 -0.023521598 -0.021498112 0.017402574 0.008975627 -0.0094839735 0.0068035075 -0.008826628
-0.01595477 0.0059150183 0.010672532 -0.0075800754 0.024598256 -0.0051625986 -0.0050828615 -0.008813098
-0.019037088 -0.022493245 0.0012127565 -0.024933523 0.03216894 -0.014584483 0.019060798 0.0032505423
0.0031384707 -0.014074108 0.008094614 -0.016071856 -0.0058731223 -0.01106083 0.01473826 0.038619958
-0.008762863 0.0150960395 0.002355411 2.9061102e-05 2.8399067e-05 -3.668752e-05 9.0427075e-06 2.842311e-05
-4.3013388e-05 2.6862595e-05 1.3522804e-05 1.9192163e-05 -2.2177115e-14 -2.0410323e-14 -3.08001e-14 -3.008242e-14
-5.1838992e-14 -2.5469036e-14 -1.4256694e-14 -2.5995956e-15 -1.02700195e-14 -0.010753808 0.027101837 0.009087954
0.009541924 0.017133174 -0.0057028104 -0.04505626 0.025683796 -0.0011272001 -0.00060394703 -0.0003324689
0.00081682915 6.1816354e-05 -0.0002103897 0.00034425998 0.0005919097 -0.00050002255 -0.0011672382 5.703562e-12
1.922832e-12 3.3413362e-11 1.4465693e-11 2.6396774e-11 1.8256525e-11 2.470781e-11 3.2246178e-11 3.397584e-11
0.0043357844 -0.045726143 -0.022389662 -0.022597855 -0.028765969 0.01228856 0.0116721 0.01572607
0.029828394 0.001710136 -0.0009611742 -3.6057434e-05 0.0027980674 0.0001461057 0.0007761374 0.0021081143
-0.00032390072 0.000107385764 8.73e-43 1.10202725e-23 7.2045e-41 -3.9084e-41 -3.2814278e-26 9.062e-41
6.9444e-41 4.0212e-41 -5.715706e-30 -0.007121708 -0.01769106 0.011379239 -0.007292494 0.008180777
-0.0070602726 -0.0038484414 0.010083478 -0.010841766 2.1914358e-12 -1.3779852e-12 -7.505051e-13 -7.1006867e-13
-1.3899709e-13 -5.879348e-12 -2.6804637e-12 -1.2950202e-12 7.488397e-12 0.0039681634 -0.00044896468 -0.0018996958
0.0025732515 -0.0017502618 -0.0036353194 0.0031759485 -0.0007764478 -0.00209526 6.8018e-41 1.9978767e-20
-1.49607e-40 1.02497e-40 2.1272e-41 3.3043e-41 3.20481e-30 -3.2739e-41 1.9145e-41 -0.00081896014
-0.0037900694 0.00071955647 -0.005938396 -0.0021124035 0.0033013166 -0.002924531 0.00036452455 0.00083265896
-5.3053e-41 3.5356e-41 4.717e-41 3.6196e-41 -6.9133e-41 5.8657e-41 5.8123e-41 -1.23288e-40
2.4813e-41 0.0039654383 -0.004261118 -0.0017117313 0.0043671923 -0.0041607 -0.0013295953 0.0024504806
-0.0062153474 -0.002449466 0.010706931 -0.014563346 -0.0013361482 -0.004291798 -0.006086318 0.007860338
0.013614582 0.018453037 0.011357098 -2.6097e-40 3.247794e-32 -5.093832e-37 -6.020982e-35 6.0455e-41
-5.334e-41 -3.3504218e-34 -3.59e-41 5.4239e-41 -5.0204e-41 -7.1365e-41 -5.7907e-41 1.7839e-41

e_conv4.bias f4 [32]
00000000: 6ba3 063d 0a53 ab3a 8055 bcbc ddd1 3f96
00000010: e906 893c fb98 833c c0e6 4b3c 5ce2 763c
00000020: f3eb ccb4 6d3c 9db8 9804 423c 4a03 d63c
00000030: 851f a73c 968f e03b 9504 b93c 6bfb 463c
00000040: 644a 69bc da91 273d 8d47 e9b9 50c2 ff3c
00000050: 439e 01bb 041f b4b8 22f6 6a3c b899 96b9
00000060: 0d1e ceac 9b23 163d 9480 ab3a 17fd 003d
00000070: d781 003d b6c6 653c 99d3 f7b6 5d8a b83c
0.03287069 0.0013071012 -0.022989988 -1.5495078e-25 0.016726928 0.016064158 0.012445152 0.015068617
-3.8169637e-07 -7.4975986e-05 0.011841916 0.026124615 0.020400772 0.0068530543 0.022585193 0.012144904
-0.0142389275 0.04091058 -0.00044494533 0.031220585 -0.001977817 -8.588846e-05 0.014340909 -0.0002872476
-5.8582084e-12 0.03665505 0.0013084584 0.031491365 0.031373825 0.014024427 -7.385807e-06 0.022526914

e_conv5.weight f4 [32, 64, 3, 3]
00000000: 4841 b63b fd99 c93b c5a6 d43b 1049 023c
00000010: e18c f13b bab9 b53b b09e fb3b 088e ff3b
00000020: 6f8f a33b 9c8a 3c3c ae6c 983b af95 f53b
00000030: 7671 db3b 60ae 003a 1c5a a93a 0a1f 3d3b
00000040: 802b b6ba 1409 0639 cd96 0d0a 6867 0080
00000050: 3950 0000 82dd 0080 42d5 0000 e313 0080
00000060: 6271 2c82 dd36 0100 8779 0100 1d1f 4f3c
00000070: 4c7d 01bb f541 943c 7638 803b 39d1 423c
00000080: 6131 873c dc90 5ebb 02bd 5b3c 6b81 5b3c
00000090: 389e 513c abcf 073c fa88 0a3b a7af 6b3c
000000a0: 477a b0bb e706 9e3b 0dc5 8cbc 39fc 41bc
000000b0: 3983 96bc 1768 0080 c379 0000 483a 0000
000000c0: b5ab 0080 280e 0100 ae50 0000 6000 0000
000000d0: ad7c 0000 ce04 a709 f14e e73b da8b 303c
000000e0: 8c69 313c 084a ce3b 848b 0e3c a80a 1d3c
000000f0: 358c 8c3b e4c1 ca3b 78e7 223c deb5 9630
00000100: 0c07 9730 8984 7eb0 ecdc ee30 c358 15b0
00000110: e33d 422f 967f 0b31 8bc2 5db0 70c0 d9b0
00000120: 951a cabc 1b60 663c e779 e0bc eff3 b4bc
00000130: 35cb d93c 6926 8bbc 46c5 373c 0023 99bc
00000140: ee85 453c e2b1 b13c abf3 0abb f837 59bc
00000150: 8d36 263c 005c b3bc aba1 f1bb 7d6f bebb
00000160: bd93 2c3b 7aeb 9c3a 28a1 08bb d3bb 483b
00000170: 3203 7e3c 24f7 9dba ed37 4f3b f0d8 953c
00000180: 80dd 043b 0062 153c 1a6e e53c bab8 0080
00000190: 0b1a 0180 0b27 8d20 73d7 0000 31e2 0000
000001a0: b90b 0080 c097 0000 60e8 0000 4f30 0000
000001b0: 8316 0080 9b1d f1ae fdb9 0000 83da 0000
000001c0: 436a f70d 4b61 0080 a6c7 0000 4e95 0080
000001d0: b9eb 0000 3a4d 0000 4757 2380 e043 0080
000001e0: ce8d 0080 4b5d 0080 77ff 0080 90f3 0080
000001f0: 7f0b 840a 10a7 9821 75b7 821a 6aa5 0080
00000200: 9f45 0080 4059 0000 5233 0080 c3ea 0080
00000210: 3218 0000 6bb8 0000 e2ff 1b9b 5673 0000
00000220: 4610 0080 e44b 0000 7cc3 0000 393d 2900
00000230: cf64 a587 aa99 078b 47c3 0000 a202 0100
00000240: 4481 d6bb 9b97 e5ba 2afd f03a d902 debb
00000250: aadd 78ba 868c 183b 698d d1ba b1d2 943b
00000260: e094 ca3b 628d e2bc 445a 2e3c 9ec9 d53c
00000270: 39d1 fe3a cf8e 793c 4bbb 49bc e960 473c
00000280: 7065 3fbc b9b4 87bc f2e5 a2ba 01d0 ccba
00000290: db2a 703b 41c1 b1ba 03f2 45ba a62b 913b
000002a0: 6a6b d23a f07a 7b3a 90dd 7f3b 37fa 69bc
000002b0: 13e6 143c 83c6 b03c c625 8b3c fe68 ab3b
000002c0: c084 473a 90e0 65bc f9bd 8abb dcab 1c3b
000002d0: 93e8 729d e7d9 5da8 fa27 0000 04d0 0000
000002e0: 61a4 0000 6a3b c388 bb42 0080 e07f 0080
000002f0: f665 0080 ae2a e2bb 6bf0 9fbb 21a3 b5bb
00000300: 0339 e3b9 4b8f 4dba 91b4 9abc 06eb 083a
00000310: 6774 8dba c977 313b cea6 a2b9 cdef 473b
00000320: 3fa7 9f3c 9cec 1b3c 66cf 443c 6a66 6bbc
00000330: da19 49bb 8a06 f0bb 6ae8 a7bc 8310 09bc
00000340: c299 343c b3b1 b33b 75cf a13c 1988 04bc
00000350: 8bf0 d13a ae32 a9bc 33c7 e43c 2307 b3bc
00000360: 408e 993c 24e2 233d 2676 29bd 74ab df3a
00000370: fd31 75bc d63c b9bb 7f58 00bd ebe9 15bd
00000380: 38d2 5d3c d02e 1aa4 de91 0080 0150 0000
00000390: 5b54 0080 1e6e 0000 c50e 0000 6900 0000
000003a0: 02cc 0000 4fc2 0000 5b68 7e3b cbfe 243c
000003b0: 16e9 203c c5bd de3a 1ea3 f83b 3311 e83b
000003c0: bf5f 9fba 3d9e 963b ec19 8d3b 3212 88bc
000003d0: 428b 47bc 205f c9bb 8741 21bc 7ff6 193b
000003e0: 37a2 2b3d 0d42 473c cae0 67bc 5f70 ff3a
000003f0: 4850 bb93 a801 0000 e70f 0000 6b6f 0000
0.0055619814 0.00615239 0.006489607 0.00795199 0.0073715304 0.005545822 0.007678829 0.007798914
0.004991464 0.011507656 0.0046516275 0.0074946503 0.006696875 0.00049087964 0.0012920531 0.0028857612
-0.0013898462 0.00012782618 6.8172655e-33 -3.7095e-41 2.8778e-41 -7.9462e-41 7.6502e-41 -7.134e-42
-1.2669104e-37 1.11517e-40 1.35431e-40 0.012641695 -0.001975852 0.018097857 0.0039129807 0.011890703
0.016503038 -0.0033960855 0.013411762 0.013397555 0.01279407 0.008289258 0.0021138773 0.0143851405
-0.0053856703 0.0048226 -0.017183805 -0.01183992 -0.018373119 -3.734e-41 4.368e-41 2.0907e-41
-6.1597e-41 9.6914e-41 2.8942e-41 1.35e-43 4.4725e-41 4.0208306e-33 0.007058971 0.010775531
0.010828387 0.0062954463 0.008700255 0.00958506 0.004289175 0.0061876643 0.009942882 1.0965626e-09
1.0988699e-09 -9.2593005e-10 1.7379569e-09 -5.433202e-10 1.7666184e-10 2.0299686e-09 -8.0675794e-10 -1.5843522e-09
-0.024670878 0.014060999 -0.027401878 -0.022088973 0.026586154 -0.016986089 0.011216467 -0.018693447
0.012055857 0.021691266 -0.0021202366 -0.013257973 0.010144842 -0.021894455 -0.0073740087 -0.0058116303
0.0026333176 0.0011972033 -0.002084801 0.003062953 0.0155036915 -0.0012051803 0.0031619028 0.01829192
0.0020273626 0.009117603 0.028006602 -6.6267e-41 -1.01178e-40 2.3912166e-19 7.7289e-41 8.1142e-41
-4.205e-42 5.4438e-41 8.336e-41 1.733e-41 -8.076e-42 -1.096467e-10 6.672e-41 7.8387e-41
1.5248132e-30 -3.4902e-41 7.162e-41 -5.356e-41 8.4561e-41 2.7704e-41 -3.245552e-39 -2.4349e-41
-5.087e-41 -3.3467e-41 -9.1644e-41 -8.7374e-41 1.2715462e-32 1.0344142e-18 5.406313e-23 -5.934e-41
-2.4975e-41 3.2017e-41 -1.841e-41 -8.4217e-41 8.68e-42 6.6157e-41 -1.290398e-22 4.1375e-41
-5.838e-42 2.7224e-41 7.0127e-41 3.787218e-39 -2.488569e-34 -2.6115658e-32 7.0052e-41 9.278e-41
-0.0065461714 -0.0017516495 0.0018385996 -0.006775242 -0.000949348 0.0023277118 -0.0015987578 0.004541718
0.006182298 -0.027655307 0.010641638 0.026097115 0.0019441015 0.015231802 -0.0123127205 0.012169101
-0.011681899 -0.016565667 -0.0012428148 -0.0015625955 0.0036646638 -0.0013561622 -0.0007551016 0.004430252
0.001605374 0.0009593209 0.0039041974 -0.014280847 0.009088057 0.021579033 0.016985785 0.005231022
0.0007611029 -0.014030591 -0.0042340723 0.0023906147 -3.2148671e-21 -1.23152145e-14 1.4341e-41 7.4622e-41
5.8968e-41 -1.1750104e-33 -2.3938e-41 -4.5873e-41 -3.6577e-41 -0.0069020605 -0.004880955 -0.005543128
-0.0004333929 -0.0007841482 -0.018884929 0.00052230095 -0.0010792137 0.0027079454 -0.00031023327 0.0030507923
0.019488929 0.009516861 0.012012338 -0.014367679 -0.0030685575 -0.0073249983 -0.020496566 -0.008365753
0.011022987 0.00548383 0.019752244 -0.008089089 0.0016017122 -0.020654049 0.027927017 -0.021853989
0.018744588 0.040010586 -0.04137244 0.0017064647 -0.014965531 -0.005653004 -0.031334396 -0.036600035
0.01353889 -3.343308e-17 -5.2327e-41 2.87e-41 -3.0261e-41 3.9503e-41 5.298e-42 1.47e-43
7.3184e-41 6.9705e-41 0.0038819525 0.010070513 0.009821197 0.0016993812 0.0075878045 0.0070821284
-0.0012159272 0.0045965 0.0043060686 -0.016610239 -0.012179198 -0.006145373 -0.009842283 0.002349287
0.041902747 0.012161744 -0.014152715 0.0019488445 -4.72846e-27 5.94e-43 5.705e-42 3.9969e-41

e_conv5.bias f4 [32]
00000000: d03a a83c 0d39 f4b9 f6da 1cb0 8933 bf3b
00000010: ef7e 7faf aa42 b23b 1c5f 803b b0d3 ea3c
00000020: 4e1a 183c 4407 ecb9 0e52 2d3d e8ce e73c
00000030: 343e 40ab 872a 38bb 34a6 d83c e08c 0d3d
00000040: 1a9e 053b 287d 2aba 4c25 33ab 9395 e63b
00000050: d02e d23c 26e5 ed3c 81a0 1a3c 2956 a5b2
00000060: f9d3 9d3c 6c84 1cae 5545 993c 4dc4 123c
00000070: 2bfe 1c3d 98ff 56ba 4794 24b8 9008 0000
0.020535856 -0.00046581813 -5.706363e-10 0.005835001 -2.3237211e-10 0.005440076 0.003917588 0.028665394
0.009283615 -0.0004501884 0.04231458 0.028296903 -6.8298427e-13 -0.002810152 0.02644644 0.034558177
0.0020388425 -0.0006503635 -6.3645335e-13 0.0070368736 0.025657088 0.02903993 0.009437681 -1.924771e-08
0.019266116 -3.5587908e-11 0.018709818 0.008957935 0.03832833 -0.00082015386 -3.923874e-05 3.072e-42

e_conv7.weight f4 [8, 64, 3, 3]
00000000: ee2a fbba 12c4 a83b 03e7 08ba 620e 373c
00000010: a3ba f13b b82f c43b b1ad 3e3c c09c be3b
00000020: 67c8 ea3b 2247 113b 11dd a43b 2850 1e3c
00000030: 1e9d ce3b 5408 fe3b affa 503c f216 d73b
00000040: eb80 1c3c 00ec 713c ef76 0000 a8a3 0219
00000050: c247 0080 72f3 0000 8ecf 0080 6ed0 0080
00000060: edc3 0000 a9a7 0000 f3f8 94a2 6722 0080
00000070: be43 0100 5677 8809 ca34 0a80 e259 0580
00000080: 39b7 0000 0195 4380 00f3 0280 4369 0000
00000090: 91e7 12ba 9f1d c8b8 c505 f4bb d5a9 e53b
000000a0: 9252 543b 6be1 a7b9 43e1 483b 1d62 8c3b
000000b0: 25dd 5cba db98 27bc d396 10bc b93c 47bb
000000c0: 652a beb6 6499 ca3b ee43 e73b 743b 8d3b
000000d0: 719e 1e3c ff21 6b3c c46c 413c ed37 fa3b
000000e0: 938b f03b d153 0dbb 64c1 063c 5832 303b
000000f0: d377 ab3b 22e7 b13b 3b85 dc3b 2ef3 72bc
00000100: 9cf3 c4bc a4e4 09bd 876f 97bb 442a 61bc
00000110: 308e c0bc 26f2 e83b 796d aabb ba04 81bc
00000120: e128 bb2d 6677 d12e 30f3 752f 3854 24ae
00000130: 8deb 4e2f d0ff 002f f8a5 d4ac f387 7a2e
00000140: 3154 922f 2b43 0080 0f4f 0000 3932 0000
00000150: 2016 0180 d81b 1b08 e462 0180 3845 0180
00000160: bd10 0100 aa3e 2e09 e82d 82b8 a1e8 453a
00000170: 64bd 453a 8e59 9e3a 371d 023b acec 083b
00000180: 2430 74bb a7ff 41bb 926d 3fbb 7e02 f0bb
00000190: d459 d5bb aea3 23bc cefc 0fbb 2461 70b9
000001a0: a4c1 acbb 15c8 29bb 0310 16bb 5ec3 ecbb
000001b0: ff24 253a c8b5 f63b ff87 c93b de06 1e3b
000001c0: 1c51 123c 6fd4 f33b 8f97 05bc 6789 dbba
000001d0: b0eb 56bb e82f b0bc 14dc b9bc f6cd 18bc
000001e0: 588e a1bc 5c86 afbc 9c79 f5bb e254 9cbb
000001f0: c99b c8bb 8ee7 153c eb92 deba b9a3 be3b
00000200: 2917 0c3b b54e 023b 6c0b 893b e33e d43b
00000210: 4d8b 063b 361f 223c 62df fb3b 4668 8abb
00000220: 009c 83ba 74f1 6cbb 187e 323b be82 2eba
00000230: a62c 73ba 8a7b ca3a cdab e3ba a01a 83ba
00000240: 70d4 0080 ab45 0080 a880 0180 6d4c 0080
00000250: fb67 0000 60fa 7289 08e9 0000 3dc7 0000
00000260: 7834 0080 8509 553c 8d0e 413d 65e2 c73c
00000270: 066d 183d b3d8 8f3d 4065 483d 36f4 1cbb
00000280: 152a 023d 9392 163c 86a2 0080 0e06 0000
00000290: 5ff9 0080 38d1 0100 3abe 0000 18f5 0080
000002a0: 5629 0080 b2c8 6325 cc62 0000 7363 49bc
000002b0: 0020 6fbb a6e3 25bc 3001 33bc e6cb 57bb
000002c0: ad5d 3cbc 8d2f 8dbc ade3 37bc 4041 98bc
000002d0: 9d03 83bb 749f ea3a 8f46 6bba 5062 093a
000002e0: 33ba cf3b 8196 753b 9291 89ba 81ff 9a3b
000002f0: d102 0c3b 2f56 0100 5d1a 0180 4d94 0000
00000300: e83c 0080 7987 0080 596d 0900 8c2b 0b19
00000310: 8fb1 0080 5472 0100 005a dfba 6526 1d3b
00000320: 04a0 e1bb 45fb d93b ae91 2b3c 55a3 bd3a
00000330: 2b95 9f3b f266 0a3c 3dd8 3dba 38f7 0080
00000340: 3802 0180 5408 0180 56df 0080 c6b1 0080
00000350: 1123 0080 f132 0000 696f 0080 5944 0080
00000360: 9cba 6c26 228a e226 c7ee 12a8 2e5c 97a5
00000370: 2e23 da26 026a 9824 7056 1227 89bc 94a7
00000380: e45b d7a7 cadd c73b 6ee9 283c bcf5 d33a
00000390: 409e a43b ff6a f63b 0b1a 943a 27ed 83ba
000003a0: bedb 143b 5bf1 9fbb 6769 15bb b3c5 203c
000003b0: 2995 503d 4db8 30bd 705d f2bc b785 103c
000003c0: 0279 6cbd 21f4 2abd 0dbf e4b9 de61 f63b
000003d0: 1c36 d53b 42bd 8b3b ed7a 373c 6233 183c
000003e0: 7bc2 213c a96a f13b 35ff 553c 701e 033c
000003f0: 8653 83bc de61 b93c 60dc 80bc 3c26 a03c
-0.0019162574 0.0051503265 -0.0005222412 0.011172863 0.007376985 0.005987134 0.011638091 0.005817026
0.007165003 0.0022167643 0.005031236 0.009662665 0.006305351 0.0077524576 0.01275508 0.0065640146
0.009552221 0.014765739 4.2665e-41 6.7538926e-24 -2.5742e-41 8.7332e-41 -7.4457e-41 -7.477e-41
7.0285e-41 6.0145e-41 -4.0379066e-18 -1.2341e-41 1.16137e-40 3.2853032e-33 -9.37292e-40 -4.91421e-40
6.5728e-41 -6.206431e-39 -2.70843e-40 3.7761e-41 -0.0005603964 -9.5422605e-05 -0.007446977 0.007008771
0.0032397849 -0.00032020672 0.0030651845 0.004284157 -0.0008425287 -0.010229315 -0.008825022 -0.0030401184
-5.6673766e-06 0.0061828364 0.0070576584 0.004310066 0.00968133 0.014351367 0.011805717 0.0076360614
0.0073408573 -0.002156485 0.008224819 0.0026885476 0.00523279 0.0054291645 0.0067297495 -0.014828486
-0.024041943 -0.033665314 -0.0046214494 -0.013742987 -0.0235053 0.0071089445 -0.0052010384 -0.015749324
2.1277593e-11 9.525429e-11 2.2369018e-10 -3.7364084e-11 1.8819275e-10 1.1732415e-10 -6.0438286e-12 5.6964166e-11
2.6617067e-10 -2.4095e-41 2.8361e-41 1.8016e-41 -9.9772e-41 4.6676346e-34 -1.27311e-40 -1.16667e-40
9.784e-41 2.0973953e-33 -6.207434e-05 0.0007549618 0.0007543175 0.0012081133 0.001985384 0.002089302
-0.003726014 -0.0029601844 -0.0029209596 -0.007324516 -0.0065109525 -0.009987755 -0.0021970752 -0.00022924371
-0.005272107 -0.0025906612 -0.0022897727 -0.007225438 0.00062997633 0.007528994 0.006150245 0.002411298
0.008930471 0.0074410955 -0.00815381 -0.0016749323 -0.003279429 -0.021507218 -0.02268795 -0.009326449
-0.019721195 -0.021426372 -0.0074913036 -0.004770861 -0.0061220867 0.009149445 -0.0016981041 0.005817857
0.002137611 0.0019883339 0.00418227 0.0064772232 0.0020529807 0.009895137 0.0076865414 -0.004223856
-0.0010040998 -0.003615466 0.0027235802 -0.00066570553 -0.00092763675 0.0015448194 -0.0017369926 -0.0010002442
-7.6208e-41 -2.4992e-41 -1.37989e-40 -2.7416e-41 3.7301e-41 -2.9247416e-33 8.3596e-41 7.1473e-41
-1.8822e-41 0.013002758 0.047133017 0.024399946 0.037213348 0.07023754 0.048924685 -0.0023949272
0.031778414 0.009190219 -5.8302e-41 2.172e-42 -8.9457e-41 1.66889e-40 6.824e-41 -8.7923e-41
-1.4829e-41 1.975711e-16 3.5442e-41 -0.012291777 -0.003648758 -0.010125076 -0.010925576 -0.003292793
-0.011496943 -0.017234588 -0.011223716 -0.018585801 -0.0039982335 0.0017900304 -0.00089750526 0.0005240785
0.0063393353 0.003747374 -0.0010495654 0.0047301655 0.0021363983 1.22752e-40 -1.01293e-40 5.32e-41
-2.1849e-41 -4.8598e-41 8.65746e-40 7.194926e-24 -6.3696e-41 1.32849e-40 -0.0017040372 0.0023979184
-0.0068855304 0.006652268 0.010471744 0.0014468232 0.004870077 0.008447396 -0.0007242 -8.8685e-41
-9.2631e-41 -9.4823e-41 -8.0118e-41 -6.3773e-41 -1.258e-41 1.8274e-41 -3.9966e-41 -2.4519e-41
8.213185e-16 1.5719341e-15 -8.156405e-15 -2.6256788e-16 1.5136324e-15 6.6099076e-17 2.0308428e-15 -4.1282662e-15
-5.9774116e-15 0.0060994374 0.01030956 0.0016171257 0.0050237477 0.007520079 0.0011299265 -0.0010065184
0.0022713984 -0.0048810667 -0.002279842 0.00981276 0.0509235 -0.043144513 -0.02958557 0.008820943
-0.05773259 -0.041736726 -0.00043629893 0.007518991 0.0065066945 0.0042645046 0.011198741 0.009289594
0.009873028 0.007367451 0.013061334 0.008002862 -0.016031038 0.022629675 -0.015730083 0.019549482

e_conv7.bias f4 [8]
00000000: 1943 683c 6e69 ed38 9a62 373d 58f9 d13c
00000010: e725 8e3b dbd5 483c 8060 06ba dac6 36bc
0.014176154 0.000113206785 0.04477177 0.025631592 0.0043380144 0.012258018 -0.0005126074 -0.011155808

e_conv8.weight f4 [8, 64, 3, 3]
00000000: d5c7 403d 636f 1d3d 1d33 3d3b c974 a9bc
00000010: 3a81 03ba 0396 233c 2348 af3b 1a17 353c
00000020: d9b3 e6bc 0fcc 7abc 85ec 043c 5553 08bc
00000030: 6ed8 5a3c 6607 ff3c 09b3 a73c afc7 a4bc
00000040: 28fb 343c 3e1b 843c 0660 28b6 a945 b234
00000050: 2277 98b5 c47f 0834 1093 0f35 0532 9cb5
00000060: e441 3233 6a03 6133 e25d 7b35 a238 0000
00000070: 3a5e 0000 12db 0000 4983 0081 fa2e 6e83
00000080: 7953 0000 385f 2a80 50f2 7c01 2d9d b62c
00000090: d79e 70bb 6a46 313c 8fa5 a9bb 538a 10bd
000000a0: 3ffb d43a b27e 1e3d 2ee5 e9bc 3b65 863c
000000b0: c3fe 933c a10b c7ba ccec c53c ead4 203d
000000c0: 5f48 6d3d 8fe0 1fbc 1185 923c 7bd4 4fbc
000000d0: ae00 033d 35bd d23c 4ec1 b63c e82e 4f3c
000000e0: ba27 cbbb c4e0 733c abac 1c3c f8c7 eabc
000000f0: 091f 503c e8ac 173d 78dd 13bd 8bbe 093c
00000100: d594 fb3a 8a1c 893b 2889 0abc 3061 3d3b
00000110: 0992 47bb cbaf 2cbb 5ba4 85bb 420f d03a
00000120: e885 c631 e7ef 6933 0bf9 e331 4a99 8d32
00000130: c168 8eb2 d815 c032 49aa fab2 26f2 bd31
00000140: dbc9 7333 81ef 2d01 31e5 f300 87fc 1302
00000150: ab02 f420 fd64 ca02 7020 ff02 2e92 2622
00000160: 7810 be98 5c84 d202 3eb9 113b 6942 8c3c
00000170: 9459 753b b2a6 243c a362 db3c 8760 663c
00000180: 705b 44bb f6e8 66bb b3fc 76ba a6ad b83b
00000190: e399 7dbc 1b4d 563c a906 983c 796f 41bc
000001a0: 614d a3b7 adb0 ce3c eaeb d53b 5e17 c53c
000001b0: 1f52 d0ba 9c6d 093c 785f 493b 8ad1 cc3c
000001c0: d180 103d 8622 803c 289a 27bb 36f5 1bbb
000001d0: 980e f1ba c734 763b 5de7 253c fe31 883b
000001e0: d404 13bb fa19 d13b c74a 10bb 9387 67bb
000001f0: 80d7 e93a eb4c 11bc 37f2 f53c e285 363c
00000200: aada cdba 2925 0dbc f10d 88bc b2bc 503c
00000210: 36a6 93bc d575 063c 6a6f 393c a883 5c3d
00000220: fd78 d73c cd5a 243c 4655 1f3d 2821 c03c
00000230: 4e0f 3e3b ebbd b0bc 90b7 83bc b37f c539
00000240: 4131 0080 f105 0080 3f9b 0000 cf7b 0000
00000250: 230d 53aa a416 0000 ef82 0080 e718 0080
00000260: fd10 0000 46bf b83a ca80 393b 0c46 4ebc
00000270: dbc4 8f3b 4ecb 1cbb ff70 f03b d849 5cbb
00000280: 32bf 533c 6dc8 d0bb bc6b 0000 2fae 0080
00000290: 8bbe 0080 cd6b 0000 e905 0080 8a42 0000
000002a0: 34d9 0000 6603 0000 bf75 0000 4a6b a8b9
000002b0: 4276 333c 9ded 01bc a204 78bb e771 cc3c
000002c0: a0ad 02bb 0d6c 75bc e258 33bc 771c bf3c
000002d0: 5389 5fb9 cc1b d53b 263c d7b9 2340 903b
000002e0: 2198 393c 40b8 8a3b ae57 0b3b 6f33 2f3c
000002f0: a7f7 763b 8873 cb2d 8f08 cf2d ff16 cc2d
00000300: 0e9c 1530 87ab 6a2e 3310 ba2d 7829 ba2d
00000310: e21c d82d 2c66 fb2e 2caa 103b f6f4 173d
00000320: 29ed 29bc 6cb7 bd3c 4bee 593d a406 7c3b
00000330: ecb4 923b c11d 073d 03e1 fdbb cc63 ae23
00000340: 519e 8e26 5566 8623 738f 3b25 0772 6525
00000350: 2cb1 ef23 146b 9324 abb0 8224 30e6 0425
00000360: 4e41 f02a 840d 0ea9 f143 8cab 85fa ad2a
00000370: a82b 4d2a a17e a02a 2304 24ab 49f3 53a8
00000380: 899d 1dac 93a1 c8bc 922c 26bc 05d6 a73c
00000390: 2a16 3b3b ebf0 af3b 0f52 bf3b 8068 fbbb
000003a0: f090 393c 59f4 f83c 1267 6abb 172b f73a
000003b0: e267 8abb 1f72 293a d74c 653b bdb4 98bb
000003c0: 0461 013b 51d5 933b 1aa3 62bb cf21 e7bc
000003d0: eb67 c63a a3b1 73bc 561e 843c c7da 2dbc
000003e0: 10f0 47bb ce81 023c 30aa 013d 4bd1 8fbc
000003f0: d115 4ebb 0c7c 313c 483f d7bb ddbe 963c
0.047065575 0.038436305 0.0028869577 -0.02068557 -0.00050165097 0.009984496 0.0053491755 0.011052871
-0.02816193 -0.01530744 0.008113031 -0.008320649 0.013357265 0.031131458 0.020471113 -0.020114748
0.011046208 0.016126271 -2.5089844e-06 3.3205768e-07 -1.1359555e-06 1.2712468e-07 5.3485655e-07 -1.1637463e-06
4.150378e-08 5.239e-08 9.3641404e-07 2.0316e-41 3.3802e-41 7.8588e-41 -2.360408e-38 -6.999584e-37
2.9944e-41 -3.891249e-39 4.645894e-38 5.190201e-12 -0.003671577 0.010820011 -0.005177207 -0.035288166
0.0016249194 0.038695045 -0.028551664 0.016405692 0.018065816 -0.0015185961 0.024160765 0.03926555
0.057930347 -0.009758129 0.017885717 -0.012684937 0.03198307 0.025724987 0.022308972 0.012645461
-0.006199804 0.014885131 0.009562652 -0.028659806 0.012702712 0.03703013 -0.03609988 0.008407245
0.0019194136 0.0041843103 -0.008455552 0.002889704 -0.0030452034 -0.0026349898 -0.0040784306 0.0015873688
5.777782e-09 5.446773e-08 6.6348824e-09 1.6484268e-08 -1.6578612e-08 2.2361675e-08 -2.9181267e-08 5.528153e-09
5.6761433e-08 3.1946917e-38 2.2398244e-38 1.0872326e-37 4.1336973e-19 2.9739197e-37 3.74875e-37 2.2574582e-18
-4.913048e-24 3.0932697e-37 0.0022235657 0.01712151 0.0037437426 0.010049509 0.026780432 0.0140611
-0.0029961728 -0.003523407 -0.00094218104 0.005635935 -0.015478584 0.013079907 0.018557863 -0.011806362
-1.9467147e-05 0.02523073 0.0065283673 0.024058994 -0.0015893615 0.008387949 0.003072707 0.02500226
0.0352791 0.015641462 -0.0025574062 -0.002379728 -0.001839119 0.003756808 0.010125962 0.00415635
-0.0022433298 0.0063812705 -0.0022017227 -0.0035328611 0.0017840713 -0.008868436 0.030022724 0.011140319
-0.0015705426 -0.008614817 -0.01660821 0.012740301 -0.018023591 0.008206804 0.011318067 0.053836495
0.026302809 0.010031414 0.038899682 0.02345331 0.0029000822 -0.021574935 -0.01607874 0.0003766991
-1.7669e-41 -2.131e-42 5.5692e-41 4.4414e-41 -1.8745122e-13 8.122e-42 -4.697e-41 -8.933e-42
6.094e-42 0.001409509 0.0028305524 -0.012589943 0.0043874807 -0.002392489 0.007337689 -0.003361335
0.0129240025 -0.006371549 3.8648e-41 -6.2485e-41 -6.8354e-41 3.8672e-41 -2.12e-42 2.387e-41
7.7918e-41 1.219e-42 4.224e-41 -0.00032123394 0.010953488 -0.007930187 -0.0037844558 0.024956657
-0.0019939914 -0.014979375 -0.010946484 0.023329003 -0.00021318095 0.006503558 -0.0004105281 0.004402177
0.011327774 0.00423339 0.0021261978 0.010693415 0.0037684233 2.3129734e-11 2.3536976e-11 2.3202327e-11
5.442765e-10 5.3357787e-11 2.1152946e-11 2.1164168e-11 2.4569183e-11 1.1432308e-10 0.0022074087 0.037098847
-0.010371485 0.023158751 0.05320577 0.0038456107 0.004477134 0.03298736 -0.0077477708 1.8907383e-17
9.896141e-16 1.4571648e-17 1.6268267e-16 1.9901218e-16 2.5987467e-17 6.3932485e-17 5.66778e-17 1.1527166e-16
4.2677878e-13 -3.1542057e-14 -9.966456e-13 3.0904806e-13 1.8222804e-13 2.8509576e-13 -5.8270245e-13 -1.1765607e-14
-2.2398491e-12 -0.024491107 -0.010142462 0.020487795 0.0028547146 0.005369296 0.0058386396 -0.0076723695
0.01132606 0.030389952 -0.0035767 0.0018857446 -0.0042238096 0.0006463844 0.0034988427 -0.0046602176
0.0019741664 0.0045115133 -0.003458208 -0.028214363 0.0015137171 -0.014873895 0.016127747 -0.010611243
-0.0030508079 0.007965518 0.031656444 -0.017555853 -0.003144611 0.010832798 -0.006568823 0.018401558

e_conv8.bias f4 [8]
00000000: 69f7 f2bc 2fc4 4cbb c4ae bf3a 56fe 09bc
00000010: 62cf 013d f415 c13b 1adf 07bc c2d2 9a3c
-0.02965899 -0.0031244864 0.0014624228 -0.008422455 0.031691916 0.0058925096 -0.008292938 0.018899325
