snapshots/Epoch198.pth (torch, 304045 bytes, 14 tensors)

e_conv1.weight f4 [32, 3, 3, 3]
000000 47 55 02 b6 33 bd 0d b6 7d 83 10 b6 84 0f 05 b6
       -1.9421147e-06 -2.1120766e-06 -2.1534208e-06 -1.9827576e-06
000010 c5 b6 13 b6 a9 31 14 b6 d7 f3 03 b6 2d 1c 11 b6
       -2.2011093e-06 -2.2082625e-06 -1.9662455e-06 -2.1623084e-06
000020 fe bd 13 b6 89 81 52 b6 e5 a9 62 b6 ce 47 64 b6
       -2.2015297e-06 -3.1367838e-06 -3.3775516e-06 -3.4016443e-06
000030 e1 1c 50 b6 5a 0d 64 b6 6e 98 62 b6 b2 56 48 b6
       -3.1011225e-06 -3.398242e-06 -3.376535e-06 -2.9852786e-06
000040 ac a3 59 b6 94 87 5b b6 75 58 9e b5 0b 11 ae b5
       -3.243079e-06 -3.271246e-06 -1.1797662e-06 -1.296897e-06
000050 2d 6b ad b5 46 dd 9c b5 6f 36 b0 b5 69 b9 ac b5
       -1.2920697e-06 -1.1687305e-06 -1.3128864e-06 -1.286896e-06
000060 50 7d 94 b5 04 b6 a4 b5 ce a0 a4 b5 46 e1 5f 3c
       -1.106333e-06 -1.2271926e-06 -1.2265753e-06 0.013664549
000070 a5 c7 b7 3b 1b 04 e5 3b 7f d4 e3 3c ad 12 97 3c
       0.0056085163 0.006989015 0.027811287 0.018441522
000080 a8 25 02 3d ce 92 7f 3d 9d 9c 4c 3d 35 ad 95 3d
       0.031774193 0.062395863 0.049954046 0.07308427
000090 f0 04 82 3b f4 82 1f bc da 51 fd 3b 16 1b 2a 3c
       0.0039678738 -0.0097358115 0.0077307047 0.010382434
0000a0 51 a1 a0 3b 6f 3e 95 3c 6e f4 40 3d fc ca 1f 3d
       0.004902043 0.018218247 0.047108106 0.03901194
0000b0 09 0b 62 3d 7c 18 82 bc 1e f2 bb bc 15 f5 c0 bc
       0.055186305 -0.015880816 -0.022942599 -0.023554364
0000c0 c6 1d 30 bc c2 ab 9a bc 35 93 2c bc 71 5a 1f 3c
       -0.010749286 -0.018880729 -0.010533144 0.009726153
0000d0 a5 0c fa 3a 62 25 e0 3c 7b f2 b6 bc 63 db 21 bd
       0.0019077255 0.027361576 -0.02233242 -0.039515864
0000e0 13 d7 06 bd 87 68 3c bc 18 3d f9 bc 0e 0c fd bc
       -0.032919955 -0.011499531 -0.03042464 -0.030889537
0000f0 47 e7 5b 3b d4 bd 81 bc d6 5e b1 bc d7 44 f3 3b
       0.00335546 -0.015837587 -0.021651667 0.007423978
000100 1c 06 9c 3b 8c e9 14 3b ac 9f 74 3c 8f 99 04 3c
       0.0047614705 0.0022722213 0.014930647 0.008093252
000110 08 4c a7 3b 72 f5 32 3d 97 28 b3 3c 7c 4a 23 3b
       0.005105499 0.043691106 0.02186994 0.0024916222
000120 27 b1 38 3d 71 d0 24 3d a7 af 22 3d ff a2 58 3d
       0.04509082 0.040237848 0.039718296 0.05288982
000130 8d 74 20 3d 27 ef 33 3d 4c 36 83 3d 80 1e 30 3d
       0.03917365 0.043929245 0.06406841 0.042997837
000140 bf 95 29 3d 3a 3c a7 bc 36 26 04 3b 22 08 9b 3c
       0.041402575 -0.02041446 0.0020164377 0.018924776
000150 23 b2 10 bd 6b 84 4e bc 92 fd 5e 3c 4f d3 2a bd
       -0.035326134 -0.012604813 0.013610261 -0.041705426
000160 41 24 6b bc 5b 0e f0 3c 98 54 f2 bc 04 27 1f ba
       -0.014351905 0.02930372 -0.029581353 -0.00060711824
000170 80 e0 97 3c a3 24 f7 bc f8 b5 33 bc 23 4f 66 3c
       0.018539667 -0.030168837 -0.010968678 0.014056954
000180 5d d8 34 bd 59 0c a6 bb d3 19 f0 3c f2 7e 09 bc
       -0.044151653 -0.00506739 0.029309189 -0.0083920825
000190 cc 93 96 3b 64 0a 72 3c c6 eb 81 bc eb 5c e0 3a
       0.0045952555 0.014772985 -0.015859496 0.0017117535
0001a0 88 87 59 3c 2d 76 f8 bc cf 43 66 ba 58 d5 fb 3c
       0.013276942 -0.030329788 -0.0008783908 0.030741379
0001b0 28 30 24 3d b2 51 2f 3d 76 46 c9 3d 06 18 c6 3b
       0.040084988 0.04280252 0.098278925 0.0060453443
0001c0 f8 65 09 3c 4a eb 65 3d fd 54 89 bb 04 26 8d 3b
       0.008386128 0.056132592 -0.0041910396 0.0043075103
0001d0 83 3f 58 3d b7 02 03 3d 7d d8 0c 3d 3c 3d b1 3d
       0.052794944 0.03198501 0.034386147 0.08654258
0001e0 3f 8f 97 ba 05 62 52 3a 19 17 38 3d 14 e2 2b bc
       -0.0011563076 0.00080254703 0.044943903 -0.010490913
0001f0 ed 67 16 39 b2 44 3a 3d 3e ee 71 3c 7a 12 59 3c
       0.0001434383 0.04547567 0.014766274 0.013249034
000200 d0 b2 65 3d d1 60 42 bc 60 20 3b bc 52 1b be 3c
       0.056078732 -0.011863903 -0.011421293 0.023206387
000210 55 e6 ba bc 45 0a 6a bc bc a7 b5 3c bb 36 89 b6
       -0.022814909 -0.014284675 0.022174709 -4.0892896e-06
000220 e7 de 95 b6 11 1e 92 b6 67 21 91 b6 23 01 a0 b6
       -4.4664953e-06 -4.3546393e-06 -4.3252253e-06 -4.768504e-06
000230 50 43 98 b6 3e 6b 8c b6 03 41 97 b6 b9 77 90 b6
       -4.537789e-06 -4.1848098e-06 -4.507719e-06 -4.305472e-06
000240 bf 98 85 b6 b8 c2 91 b6 c2 e2 8c b6 90 d1 89 b6
       -3.981491e-06 -4.344005e-06 -4.198723e-06 -4.1073145e-06
000250 67 cc 97 b6 4f 42 8f b6 ea 6c 82 b6 10 63 8c b6
       -4.5239462e-06 -4.2694514e-06 -3.886981e-06 -4.1838575e-06
000260 30 dd 84 b6 6d 66 80 b5 e0 aa 94 b5 41 6d 8d b5
       -3.959656e-06 -9.566553e-07 -1.107659e-06 -1.0537116e-06
000270 a0 ac 86 b5 32 af 9d b5 6b c0 90 b5 9c 43 78 b5
       -1.0034018e-06 -1.17484e-06 -1.0784837e-06 -9.2485584e-07
000280 50 5a 8c b5 a6 50 81 b5 77 9b a5 3d c1 59 f0 3c
       -1.0457097e-06 -9.634721e-07 0.08086293 0.029339673
000290 b5 13 bf bc 8b 5d 6e 3d ab a1 a1 3c d4 5b 04 bd
       -0.023324827 0.05819468 0.01973041 -0.032314137
0002a0 f1 25 43 3d 07 0c 91 3a 22 90 53 bd 30 85 85 3d
       0.047643606 0.0011066206 -0.051651128 0.06519544
0002b0 79 32 b0 3c 43 b4 22 bd f5 c5 31 3d b9 4c ff 3b
       0.021508442 -0.039722692 0.043401677 0.0077911285
0002c0 94 f2 0a bd c3 0d fe 3c 68 8e a7 bc c7 4f 8f bd
       -0.033922747 0.031012421 -0.020453647 -0.06997638
0002d0 d0 94 19 3d aa 02 1a 3a da 55 02 bd b6 96 bf 3c
       0.037495434 0.0005875031 -0.031820156 0.023387294
0002e0 a2 4d 5d 3a 96 e7 e8 bc b4 81 cf 3c fd 43 95 bc
       0.0008442049 -0.028430741 0.025330402 -0.018220896
0002f0 f5 a1 7c bd af 53 bd a5 f5 c2 ca a5 62 2c f7 a5
       -0.06167789 -3.284298e-16 -3.5173522e-16 -4.2877745e-16
000300 98 15 c2 a5 be e1 d1 a5 0d 83 f2 a5 46 3d c6 a5
       -3.3668268e-16 -3.640869e-16 -4.2069112e-16 -3.4389045e-16
000310 9a 78 cb a5 1b 56 f1 a5 c6 1e 9e a5 be 53 a5 a5
       -3.529661e-16 -4.1865183e-16 -2.7429484e-16 -2.8679683e-16
000320 67 aa c8 a5 b0 86 93 a5 6e 1b 9b a5 f0 47 b2 a5
       -3.4809939e-16 -2.5591703e-16 -2.69068e-16 -3.0926825e-16
000330 4c e0 87 a5 59 60 86 a5 4f bc 9e a5 63 84 3c a3
       -2.3570756e-16 -2.3310582e-16 -2.7536234e-16 -1.0219534e-17
000340 00 3e 48 a3 d8 78 80 a3 ae 62 32 a3 7f 02 3e a3
       -1.0855151e-17 -1.3928967e-17 -9.6702956e-18 -1.0300449e-17
000350 a0 55 63 a3 82 18 21 a3 07 79 1d a3 97 ba 41 a3
       -1.23238265e-17 -8.733017e-18 -8.536616e-18 -1.0502063e-17
000360 74 b9 f2 95 4b 66 97 95 35 57 5b 95 c2 2a 36 96
       -9.8035615e-26 -6.1149804e-26 -4.4295492e-26 -1.4715335e-25
000370 d1 d3 ec 95 5b 26 92 95 e3 a5 a9 96 13 a0 38 96
       -9.565383e-26 -5.9029445e-26 -2.7408112e-25 -1.4913912e-25
000380 5d cc ff 95 0c 30 bb 91 15 41 29 91 ce 7e bd 90
       -1.0331611e-25 -2.953301e-28 -1.3351804e-28 -7.474273e-29
000390 04 ee b6 91 9b 73 2b 91 03 d9 a0 90 4a bd 17 92
       -2.8861225e-28 -1.3525145e-28 -6.344323e-29 -4.7880515e-28
0003a0 d6 d8 68 91 e0 ef 02 91 a0 f8 78 8f 80 67 ea 8e
       -1.8368391e-28 -1.0329109e-28 -1.22752275e-29 -5.778512e-30
0003b0 00 6a 3e 8e b0 c6 46 8f b9 8c be 8e e9 b1 f3 8d
       -2.3470345e-30 -9.8004195e-30 -4.6974127e-30 -1.5018862e-30
0003c0 df 5e 3b 8f 9c fa 87 8e 22 d0 db 8d b2 7b 8f bd
       -9.238083e-30 -3.3521397e-30 -1.3547023e-30 -0.07006015
0003d0 d4 aa 33 bd ac e5 86 bd ae d8 01 bd 29 66 8d bc
       -0.043864086 -0.06586775 -0.031700782 -0.017260628
0003e0 3a 8d 9e bc 3c 92 8e bb 60 6e 93 3c b3 b9 8d 3c
       -0.019354451 -0.0043509286 0.017996967 0.017300462
0003f0 ea 6b 73 bd fb 6d e4 bc 3c 78 44 bd 37 d8 90 bc
       -0.059429087 -0.027884474 -0.047966227 -0.017681224

e_conv1.bias f4 [32]
000000 6d 97 7a b8 86 33 7a 3d 27 06 ad 3c ee 9a e5 3d
       -5.974567e-05 0.061084293 0.021121098 0.11211191
000010 2e 8f 59 3d 64 2d 00 b8 5c 28 9c 3d dd ec 73 b1
       0.053115062 -3.055985e-05 0.076248854 -3.5495795e-09
000020 68 e1 af a9 00 09 ab 3d 49 de 81 ba 1a 82 bd a5
       -7.810663e-14 0.08351326 -0.0009908165 -3.2874434e-16
000030 01 62 80 3c da d2 88 3d 0d ad c4 b6 e5 59 11 3e
       0.015671732 0.06680842 -5.861401e-06 0.14194448
000040 d4 24 ec 3d 46 f9 c4 3d 9a cf 31 3e 61 05 1f 3e
       0.11530462 0.09617858 0.1736435 0.15529396
000050 6a bd 5c ba a4 12 0b 3e 38 3b 39 bc 2c a0 ee 3d
       -0.0008420559 0.1358133 -0.011305623 0.11651644
000060 fd fd 0b a5 de e5 a3 b7 55 bb c3 3c a4 8e 9f 17
       -1.2142383e-16 -1.9538154e-05 0.023893038 1.0311142e-24
000070 6f 99 cc b0 c1 55 ea bc ef 03 c5 3d 5e f9 87 a9
       -1.4886562e-09 -0.028605344 0.09619891 -6.0384626e-14

e_conv2.weight f4 [32, 32, 3, 3]
000000 6f 24 71 84 b0 8a 6d 84 b8 8f 9c 83 61 d8 5a 04
       -2.8346143e-36 -2.7922898e-36 -9.201852e-37 2.5725133e-36
000010 a9 af d8 02 61 70 55 03 dc 66 8a 03 f6 fc 6d 04
       3.1839171e-37 6.272408e-37 8.134526e-37 2.797537e-36
000020 44 32 6b 84 79 d2 1d 3b 63 77 21 bb 72 36 5b 3a
       -2.7647198e-36 0.002408175 -0.002463781 0.00083623
000030 58 2c 7e 39 c2 70 bc b9 45 6b c7 ba a8 3c ad 3b
       0.00024239847 -0.00035942165 -0.0015214464 0.005286772
000040 57 55 d3 3b 38 c3 cb 3a 94 f9 9c ba 90 ed dd ba
       0.0064493823 0.0015545851 -0.0011976236 -0.0016931761
000050 a2 01 ff ba 21 ee 9d b9 da 11 b7 ba 20 2e 01 bb
       -0.0019455443 -0.00030122793 -0.0013967112 -0.001971133
000060 56 65 bc 3a e4 5b e8 39 a7 55 82 b6 39 7a 92 ba
       0.0014373462 0.00044318952 -3.884273e-06 -0.0011175341
000070 e4 71 ef 3a a6 49 49 3b e1 bf b2 ba 12 2b 84 39
       0.0018268195 0.0030714064 -0.0013637507 0.00025209092
000080 b0 93 a8 3a 5e 33 37 bb 01 4c bb 39 e3 ad eb 3a
       0.0012861397 -0.0027954201 0.00035724047 0.00179809
000090 af d6 57 ba d8 4e cd ba 65 41 b6 ba 96 35 8b 3a
       -0.00082335895 -0.0015663756 -0.0013904987 0.0010620828
0000a0 36 9f 97 bb 8a 08 c5 39 14 74 04 3b 7f 0e a9 bb
       -0.0046271337 0.0003758113 0.002021079 -0.005159199
0000b0 1f df 42 bb 14 3c 0c 80 02 e8 06 00 e6 f8 00 80
       -0.0029735041 -1.123578e-39 6.34242e-40 -8.9288e-41
0000c0 2a 36 08 00 0a 3a 09 80 e4 a2 02 00 38 ab 06 00
       7.54114e-40 -8.4734e-40 2.42105e-40 6.12435e-40
0000d0 c2 e3 0b 80 48 70 06 00 aa 8f 52 3b 42 f5 2b 3b
       -1.091895e-39 5.91292e-40 0.0032129087 0.0026238714
0000e0 a4 3e 09 3a f5 27 5b 3b 70 a5 40 3b 4a 38 da 39
       0.00052354694 0.0033440564 0.0029395483 0.0004162214
0000f0 a8 e2 5f 3b 9c 9d 28 3b 72 45 8d 39 c2 f2 00 00
       0.0034162197 0.0025728708 0.00026945357 8.7085e-41
000100 cd 9d 00 80 16 25 01 00 27 59 00 80 67 9b 00 00
       -5.6608e-41 1.0514e-40 -3.1982e-41 5.5748e-41
000110 ab 0b 00 80 28 03 01 00 f4 1b 01 00 dd 58 01 80
       -4.186e-42 9.2968e-41 1.01863e-40 -1.23714e-40
000120 08 db 00 00 78 1b 00 00 07 12 00 80 59 44 00 00
       7.8574e-41 9.854e-42 -6.467e-42 2.4519e-41
000130 ed 83 00 00 6f c8 00 80 5b 1d 00 80 61 7d 00 80
       4.7326e-41 -7.1902e-41 -1.0531e-41 -4.4977e-41
000140 0c f7 00 00 29 6f 19 3a e3 d7 d5 39 94 48 84 3a
       8.8624e-41 0.0005853051 0.00040787374 0.0010092431
000150 54 e9 48 3a d9 d6 b0 39 be 74 7f 3a 0b 24 4d 3b
       0.0007664163 0.0003372941 0.0009744874 0.0031302
000160 7a f7 32 3b b1 7b 46 3b 99 44 3f ab f9 d1 79 ab
       0.0027308152 0.0030286128 -6.795203e-13 -8.8753966e-13
000170 70 67 d4 a8 61 2d 72 2b bf 5c 67 aa 61 4c 8a ab
       -2.3581587e-14 8.6038647e-13 -2.0549099e-13 -9.826689e-13
000180 17 74 ae 2b af 7c 8a 2b 40 4b 3b ab 88 03 44 23
       1.2395665e-12 9.840096e-13 -6.6540176e-13 1.0625929e-17
000190 05 cc 48 23 f0 b6 3e 23 b6 f8 5f 23 aa 54 14 23
       1.08852245e-17 1.0338659e-17 1.2141521e-17 8.041024e-18
0001a0 fe fa 44 23 52 ad 6b 23 32 5f 5d 23 2b 4c 51 23
       1.0678331e-17 1.27760775e-17 1.2000592e-17 1.1346042e-17
0001b0 e1 dd b0 39 a2 93 ad 39 5d 93 7d 37 6b d3 6e 3a
       0.0003373465 0.00033107126 1.5114286e-05 0.0009110483
0001c0 62 df 36 3a e5 0f e7 39 30 f0 1f 3b 7b 4e 0b 3b
       0.00069760357 0.00044071596 0.0024404638 0.0021256495
0001d0 c2 c8 e3 3a dd e0 93 3a fd 94 aa 3a eb 21 89 3a
       0.0017378556 0.0011282224 0.0013014373 0.0010462379
0001e0 33 53 95 3a 67 4a ba 3a bc d3 95 3a 9c 41 8f 3a
       0.0011392593 0.0014212847 0.00114309 0.0010929587
0001f0 06 5c b8 3a ba b7 9a 3a 82 de 00 00 80 29 01 00
       0.0014065511 0.0011804022 7.9821e-41 1.06723e-40
000200 d4 07 01 80 0b 3b 01 00 c3 ec 00 80 8b 6e 00 80
       -9.4644e-41 1.13016e-40 -8.4934e-41 -3.9655e-41
000210 cd 20 01 00 35 3a 01 00 6e 34 01 00 84 b4 09 3b
       1.03602e-40 1.12716e-40 1.10644e-40 0.0021012137
000220 94 ec 75 3b ad 6c d4 3a 6f 47 82 3b ee ca 90 3b
       0.0037525045 0.0016206704 0.0039758007 0.0044187224
000230 bd 5d 70 3b b9 33 9c 39 f5 18 6c bb b0 57 79 ba
       0.0036676966 0.00029793175 -0.0036025618 -0.00095116626
000240 0c d3 e5 b8 2f 1d 73 b9 15 aa 70 3a 80 1e 6e ba
       -0.000109588815 -0.00023185158 0.00091806176 -0.00090835243
000250 42 5e 3e 3b 3e a0 46 3b 91 ee 01 bb c9 e0 c4 3a
       0.0029047881 0.0030307914 -0.0019826035 0.0015020604
000260 30 d9 b8 3a de 1a f2 3a 14 5a b8 3a 1e 6c 9c 3a
       0.0014102813 0.0018471142 0.0014064931 0.0011934077
000270 f9 4e ad 3a 22 78 d7 3a 0d a1 97 3a 77 9e 2c 3a
       0.0013222388 0.0016439001 0.0011568383 0.00065848924
000280 d7 8d 82 3a fc d1 eb 39 89 77 d0 3a d8 21 82 bb
       0.0009960484 0.00044979143 0.0015904765 -0.0039713196
000290 59 17 23 bb 4d 20 2f 3a a1 6a c6 3a 51 d6 b2 3b
       -0.0024885742 0.00066805334 0.0015137979 0.0054576774
0002a0 63 50 f3 bb b4 58 bc 3b 35 69 23 3c a9 d0 70 3b
       -0.0074253543 0.005747879 0.009973814 0.0036745465
0002b0 83 24 8a 3b 3b fc 30 3b 14 17 0b 3b bd 1a 38 3b
       0.0042157783 0.002700581 0.0021223472 0.002809211
0002c0 83 80 14 3b 5f f4 2c 3a 7e 2b d7 3a 93 39 b3 3b
       0.0022659607 0.00065976934 0.001641616 0.00546951
0002d0 c0 3a c1 a4 37 ff 34 24 1a 66 a4 24 6c 65 af a4
       -8.3799934e-17 3.9247454e-17 7.129663e-17 -7.606597e-17
0002e0 40 de 20 a4 7d 1f 98 24 2e 8e 22 23 05 98 ba a4
       -3.4882723e-17 6.5972835e-17 8.812145e-18 -8.092217e-17
0002f0 54 14 20 a3 d6 54 32 bb 9e 73 95 3b e1 a1 b6 3b
       -8.677922e-18 -0.002721121 0.004560902 0.0055734967
000300 b1 b0 31 bb 0c 07 3a 3c f2 43 01 3c 0e c4 a4 3b
       -0.0027113373 0.011354219 0.007889735 0.0050282544
000310 4c 9a 0c 3c 2c a9 c2 3b 15 f2 6a 39 e7 08 70 b9
       0.008581709 0.005940577 0.00022406162 -0.000228915
000320 ac 36 07 ba ab 13 88 39 5c 93 fa b8 dd de e3 b9
       -0.0005157988 0.00025954595 -0.00011948377 -0.0004346286
000330 6a 22 8b b5 f5 31 45 b9 91 0d 2e ba 52 fa 28 3b
       -1.0366323e-06 -0.00018805994 -0.0006639595 0.0025783968
000340 50 d7 24 3b fe 3c 1f 3b a8 55 14 3b 24 cd 31 3b
       0.002515275 0.0024297829 0.0022634063 0.002713033
000350 25 aa cc 3a 77 d5 14 3a d9 5a 2b 3b b5 76 87 3a
       0.0015614672 0.00056775607 0.0026146679 0.001033506
000360 07 57 dc a0 47 63 68 1f 10 ad ac 9e 72 0e a5 9f
       -3.732704e-19 4.921003e-20 -1.8282785e-20 -6.9904116e-20
000370 fe 45 a2 1e 13 a8 1b a0 b0 d1 74 a0 c0 30 54 a0
       1.7181365e-20 -1.3184622e-19 -2.0736984e-19 -1.7973229e-19
000380 0a 7a 5c 9f 0b 8c 07 80 06 ce 09 00 4d 36 0a 80
       -4.668776e-20 -6.93086e-40 9.00427e-40 -9.37834e-40
000390 46 77 03 00 28 1b 04 80 77 da 0a 00 cf fb 05 00
       3.18294e-40 -3.77084e-40 9.96725e-40 5.4951e-40
0003a0 c0 20 02 00 0e 3b 07 00 11 d1 35 3a 2a ec 41 ba
       1.9542e-40 6.64033e-40 0.00069357554 -0.0007397557
0003b0 70 d3 3c ba 8a 19 63 ba c4 29 2f bb 46 92 b5 bb
       -0.00072031375 -0.00086631684 -0.0026727775 -0.005541119
0003c0 4b 76 c2 3b e0 b9 b5 ba e1 4f a7 bb 67 c3 57 15
       0.005934512 -0.0013864599 -0.005105958 4.357305e-26
0003d0 e1 2c 62 15 9e 9e 5e 15 e1 a9 6b 15 75 22 5f 15
       4.567574e-26 4.495767e-26 4.7591883e-26 4.5061673e-26
0003e0 7f c7 56 15 a7 f3 75 15 d9 a3 5b 15 03 3c 66 15
       4.337433e-26 4.9669564e-26 4.435595e-26 4.649547e-26
0003f0 ec fb 38 a7 cf 61 13 a7 d5 4d 41 26 b8 de 19 27
       -2.5671697e-15 -2.045337e-15 6.706581e-16 2.1353751e-15

e_conv2.bias f4 [32]
000000 50 c8 bd bc 94 de 28 b6 7d 98 41 3d f2 d0 ac b5
       -0.023166806 -2.5163508e-06 0.047264565 -1.287581e-06
000010 01 36 22 3d 94 88 16 3d b3 a7 3a 3b 92 b8 4b 3d
       0.039602283 0.036751345 0.0028481304 0.049736567
000020 4c 07 70 3d 6f bf 16 3d 4b 92 ce bc c8 85 2b b2
       0.05860071 0.03680366 -0.025216242 -9.983928e-09
000030 f9 d1 be 92 20 96 0b bc 7b a4 40 3c f1 db 47 b3
       -1.2042448e-27 -0.008519679 0.011757965 -4.6533334e-08
000040 2a f7 01 3d af ee 7f 3c 54 68 c5 ba ae 5a b2 bb
       0.031729855 0.015620871 -0.0015061 -0.005442939
000050 b5 5a 85 af 89 60 7e 3c 20 0b 1a b7 f0 85 3a 3d
       -2.425701e-10 0.015525945 -9.1817055e-06 0.04553789
000060 7c 1d 24 b9 0c 84 4e 3d 4a 02 33 3d ca 2d 75 ba
       -0.00015651243 0.0504189 0.043703355 -0.00093528314
000070 91 7a 17 b4 b8 1a 30 3b 80 ab 30 98 6e f4 51 3d
       -1.410756e-07 0.0026871394 -2.2834052e-24 0.051258497

e_conv3.weight f4 [32, 64, 3, 3]
000000 7d ea 50 05 60 bb e6 85 b6 67 09 06 de 4d 08 86
       9.823182e-36 -2.1697927e-35 2.584303e-35 -2.5635965e-35
000010 fc d9 a3 85 9e 5a 35 85 dc c8 93 85 d1 f9 08 86
       -1.5408521e-35 -8.527223e-36 -1.3897598e-35 -2.5762293e-35
000020 84 af 0b 06 9d e8 08 bb c9 dc 4f 3c 77 2f 6c 3c
       2.6271943e-35 -0.0020890601 0.012686917 0.014415613
000030 b2 6a 09 bc 19 71 c7 3b 12 46 08 3c ef b0 dd bc
       -0.008387255 0.0060864803 0.008317487 -0.027061908
000040 1e c8 40 bc 16 fc 00 bc bd 1c 6e bb 87 38 ec 3b
       -0.011766462 -0.007872602 -0.0036333047 0.007208887
000050 94 8c cc 3b fc 10 c8 bb c0 6c a2 3b b9 75 7a 3b
       0.006242344 -0.0061055403 0.0049568117 0.003821714
000060 0d ed 7a bc 06 a3 c8 bb 8e c1 d0 bb e6 71 57 3b
       -0.015315306 -0.0061229495 -0.0063707298 0.0032874285
000070 a6 a7 90 3b ff 97 46 3b 29 59 90 3b 41 a6 99 3b
       0.0044145165 0.0030303 0.00440516 0.0046890085
000080 c1 bd 34 3b 7e 75 e5 bb d5 89 91 bb de e7 9a bb
       0.0027578922 -0.0070025316 -0.0044414797 -0.0047273478
000090 ae aa 78 bb 76 68 32 3c 0d 03 40 3c 90 92 06 bb
       -0.003794353 0.010889163 0.011719477 -0.0020534135
0000a0 e0 38 3f 3c b0 dc 39 3c 0d 65 ab bc 70 a9 0c bc
       0.011671275 0.01134412 -0.020922208 -0.008585319
0000b0 44 ac c7 bb 6b 8f 65 85 c5 61 16 07 ec 21 1a 07
       -0.0060935337 -1.079387e-35 1.1313478e-34 1.1595641e-34
0000c0 31 d0 5f 04 97 d3 e5 85 99 6d f0 05 d8 2d 58 02
       2.630912e-36 -2.1612782e-35 2.2609751e-35 1.588233e-37
0000d0 69 fd 81 82 37 c1 86 04 86 b0 a4 bb 05 fc f2 3b
       -1.9100297e-37 3.168069e-36 -0.005025926 0.007415297
0000e0 8b dd 98 3b 0b d4 82 bb 7c 90 36 3c 0f 01 1c 3c
       0.004665082 -0.0039925626 0.011142846 0.009521737
0000f0 e1 f6 29 bc bc 73 54 3a e7 30 9c bb 3b 35 00 00
       -0.010373802 0.0008104404 -0.004766572 1.9095e-41
000100 5b d3 00 80 69 e8 00 80 19 22 00 00 80 0a 01 80
       -7.582e-41 -8.3373e-41 1.2232e-41 -9.5602e-41
000110 d3 04 00 00 22 18 01 80 23 f9 00 00 75 00 01 00
       1.73e-42 -1.00493e-40 8.9373e-41 9.2e-41
000120 1d 01 01 80 b7 17 01 00 63 12 01 80 fe 01 00 80
       -9.2235e-41 1.00343e-40 -9.8431e-41 -7.15e-43
000130 e2 18 01 80 27 3a 01 00 cf 5e 00 80 b2 35 01 00
       -1.00762e-40 1.12697e-40 -3.4011e-41 1.11098e-40
000140 38 c7 00 80 84 16 d7 3a fa 28 b9 3b c9 2c 35 3b
       -7.1466e-41 0.0016409908 0.0056506367 0.0027645102
000150 8d 69 37 ba ce a1 47 3a b4 d0 10 bb 78 d6 e9 bb
       -0.0006996624 0.00076153583 -0.0022097053 -0.0071361624
000160 e2 f5 b4 bb ae 53 98 bb 96 38 93 b4 44 b7 b5 b4
       -0.0055224756 -0.0046486473 -2.7422055e-07 -3.384722e-07
000170 32 a5 ca b4 82 27 77 b4 d0 5c 99 b4 c8 a2 b3 b4
       -3.7745627e-07 -2.301804e-07 -2.8566e-07 -3.3459787e-07
000180 c7 0a 79 b4 d4 d1 98 b4 26 1b b5 b4 98 35 20 a5
       -2.3193853e-07 -2.8464876e-07 -3.373363e-07 -1.3895946e-16
000190 0a 2d 33 a5 c9 cd 3c a5 82 6c 24 a5 43 8a 2f a5
       -1.5541035e-16 -1.6376123e-16 -1.4261496e-16 -1.5225675e-16
0001a0 58 d4 33 a5 43 df 01 a5 c1 06 19 a5 f9 00 32 a5
       -1.559772e-16 -1.126461e-16 -1.3272923e-16 -1.5439368e-16
0001b0 21 98 b9 ba 14 ae 86 3a b2 06 d1 b6 04 20 ce ba
       -0.0014159718 0.0010275268 -6.229465e-06 -0.0015726094
0001c0 85 e6 13 b9 f3 4e c3 ba 2b 7e a6 3a 63 5c 0f 3b
       -0.00014104888 -0.0014900848 0.0012702396 0.0021875135
0001d0 96 47 17 3b f0 e3 ae bb 80 9f 1a ba 08 1e d9 ba
       0.002308344 -0.005337231 -0.0005898401 -0.0016564736
0001e0 11 3e cf bb 29 52 b1 ba 58 74 22 bb da ea 24 bc
       -0.0063245376 -0.0013528514 -0.0024788585 -0.010065759
0001f0 76 64 bc bb 0a 87 fc bb b2 4a 00 80 a6 22 00 00
       -0.0057492806 -0.0077065276 -2.6796e-41 1.243e-41
000200 f6 bc 00 00 8e 50 00 80 93 78 00 80 10 66 00 00
       6.7786e-41 -2.8898e-41 -4.3254e-41 3.6613e-41
000210 d9 6f 00 80 23 b4 00 00 7a 2f 00 80 77 8f 27 bc
       -4.0123e-41 6.4621e-41 -1.7031e-41 -0.010227076
000220 6a f6 26 3c 92 91 57 3c 98 95 99 bb e7 40 20 3c
       0.010190586 0.013157265 -0.0046870224 0.009781099
000230 4e 37 32 3c a5 40 08 bd 02 49 70 bc 2d d0 36 bc
       0.0108774435 -0.033264775 -0.014665844 -0.011158031
000240 5a a1 55 bb 93 41 df 3b 01 6d 00 3c 9e 29 88 bb
       -0.0032597394 0.006813237 0.007838489 -0.004155352
000250 f8 43 eb 3b 9d b8 bd 3b b2 04 8f bc 25 b0 d7 bb
       0.0071797334 0.00578983 -0.017458294 -0.0065822774
000260 50 37 d5 bb 5c 1d 23 bb 67 8b 2e 3b 8c c3 11 3b
       -0.006506838 -0.0024889326 0.0026633383 0.00222418
000270 86 1f e9 39 ea df e1 3b b5 81 c9 3b f8 fc e0 bb
       0.0004446471 0.0068931477 0.0061494955 -0.0068660937
000280 e9 a6 fa b9 05 03 63 bb 29 f4 af bb 3f 3c 51 3c
       -0.00047808074 -0.003463925 -0.0053696823 0.012770711
000290 cc 25 64 3c 6d 6f a9 bb fa 97 14 3c 6f 06 78 3c
       0.013925027 -0.0051707537 0.009069437 0.015138253
0002a0 a2 a6 01 bd 80 28 58 bc c9 3a 25 bc 16 65 ea 39
       -0.031653054 -0.01319325 -0.010084816 0.00044707273
0002b0 11 31 f3 3b ba be f0 3b 42 55 56 ba 1e 16 a0 3b
       0.0074216207 0.007346955 -0.00081761566 0.004885449
0002c0 bc 05 73 3b 0a a3 74 bc 66 15 15 bc 05 51 08 bc
       0.0037082275 -0.01493145 -0.00909934 -0.008320098
0002d0 c9 1d 83 25 9b eb 03 25 b9 76 e4 a4 80 a2 7f 25
       2.274506e-16 1.1442265e-16 -9.908036e-17 2.2172781e-16
0002e0 77 6a 2f 25 39 0c 9c a4 4e e5 7a 25 52 16 24 a3
       1.5214902e-16 -6.767492e-17 2.1761735e-16 -8.895184e-18
0002f0 71 74 8a a5 12 79 63 bb df fd 28 3c 22 25 1a 3c
       -2.4018088e-16 -0.0034709615 0.010314434 0.009408267
000300 bb 78 d0 bb 7f 6a 10 3c eb 9b 28 3c d8 04 e2 bc
       -0.0063620484 0.008814453 0.01029108 -0.0275902
000310 ea b8 7d bc 5c ba 12 bc 38 43 f0 bb 68 5e 4d 3a
       -0.0154859815 -0.008955564 -0.007332232 0.0007834197
000320 ef a4 5f 3b 73 0f b4 bb 81 fa 8a 3b 16 a3 f5 3b
       0.0034125408 -0.0054950058 0.004241288 0.007496248
000330 75 8b 4f bc ef 53 97 bb 31 d2 05 bb e7 2c 22 bb
       -0.0126675265 -0.00461816 -0.0020419473 -0.0024746002
000340 02 44 db 3b 5d 80 af 3b b0 29 4f bb 1d 78 c7 3b
       0.006691457 0.0053558783 -0.003161054 0.0060873167
000350 b3 89 9b 3b bc e6 23 bc f5 ad 03 bb 8a 52 a3 bb
       0.0047466396 -0.010003742 -0.00200927 -0.0049842047
000360 7e 12 b3 21 75 08 4c 22 25 24 37 22 78 c5 e2 21
       1.2134407e-18 2.7651633e-18 2.482026e-18 1.5366625e-18
000370 ca 16 e4 21 d2 2d 0c 22 7b 6c 92 a1 81 d3 32 21
       1.5455913e-18 1.8997795e-18 -9.922059e-19 6.058867e-19
000380 ff 17 a7 21 9a f7 1d 00 15 0b 06 00 50 f3 3a 00
       1.1322712e-18 2.752052e-39 5.54988e-40 5.413743e-39
000390 4e 16 13 80 19 06 15 80 0b 71 2d 80 08 8d 11 00
       -1.752876e-39 -1.930733e-39 -4.17315e-39 1.611796e-39
0003a0 d2 bd 23 80 fd b3 00 80 f1 70 7e bb 1a 99 1c 3c
       -3.282337e-39 -6.4568e-41 -0.0038824643 0.009557987
0003b0 87 81 4b 3c 33 fc fa bb 2a 2d 6d 3c 6c ba 19 3c
       0.012421018 -0.007659459 0.0144761 0.009382825
0003c0 c7 6c d4 bc d5 4a 2f bc f1 39 0b bc 8a 87 97 96
       -0.025930775 -0.010698994 -0.008497701 -2.4480903e-25
0003d0 f6 86 81 96 63 33 89 96 f7 eb 96 96 42 bd 87 96
       -2.0926246e-25 -2.2165973e-25 -2.4382722e-25 -2.1929865e-25
0003e0 b6 17 88 96 74 87 a3 96 c8 8f 93 96 04 bd 85 96
       -2.1986949e-25 -2.6419553e-25 -2.383987e-25 -2.1606595e-25
0003f0 f4 7b b8 a6 84 f5 70 26 aa 59 91 25 66 36 bc 26
       -1.2801162e-15 8.359946e-16 2.521425e-16 1.3059865e-15

e_conv3.bias f4 [32]
000000 0f 2b 2f 3d 76 65 04 3d 30 f7 5f ba 58 e0 50 3c
       0.042765673 0.032323323 -0.0008543609 0.0127488
000010 aa 39 22 3d b4 25 dc b8 53 88 10 bc 97 c9 8f b9
       0.039605774 -0.0001049744 -0.008821565 -0.00027425282
000020 2e 75 12 3d 5c 21 df 3b 59 e9 04 3d 6a 93 02 8a
       0.035756283 0.0068093967 0.0324491 -6.286998e-33
000030 dd ee f0 a4 61 41 8a af 41 4e 4c b2 c2 38 66 ba
       -1.0448806e-16 -2.5148508e-10 -1.1892156e-08 -0.0008782261
000040 ca 6c f2 3d 5d 09 fa 38 fd 24 c3 3d d2 73 d4 bb
       0.11837156 0.00011922673 0.09528539 -0.0064835334
000050 9e 04 74 b4 c6 95 a5 3c d5 ad 73 bb 8a 65 e9 bb
       -2.272595e-07 0.02021302 -0.003718247 -0.0071227
000060 59 8a 73 3c 58 43 60 b9 70 6c 1b 3c 8e 5d 23 3d
       0.014864528 -0.00021387392 0.009486303 0.039884143
000070 cf 59 fe 91 79 19 39 bc d0 fc 11 3d dc ec 72 bc
       -4.0129483e-28 -0.011297577 0.03564149 -0.0148269795

e_conv4.weight f4 [32, 64, 3, 3]
000000 c3 f5 20 b9 e9 34 46 3b a5 3d a9 bb ee 31 9d 3a
       -0.00015350342 0.003024394 -0.0051648193 0.001199303
000010 6f de 1d ba 97 c5 de b9 7a 88 4d 3b a8 96 2d b9
       -0.000602222 -0.00042490356 0.0031361864 -0.0001655469
000020 77 b4 fc ba 20 2c d6 19 fb 7d e5 19 f1 34 e4 19
       -0.0019279857 2.2144903e-23 2.3728928e-23 2.359603e-23
000030 ba b8 e9 19 20 ed ee 19 dd ba ee 19 ad 48 e9 19
       2.4166246e-23 2.4704397e-23 2.4684097e-23 2.4120989e-23
000040 aa c7 ee 19 c8 76 ee 19 6f 4d a7 b7 d6 7d 83 3a
       2.4689267e-23 2.4656599e-23 -1.994401e-05 0.0010032009
000050 5f 38 4d 3a ca 06 68 ba 64 d6 e2 b9 f1 75 a0 ba
       0.00078285293 -0.00088511093 -0.00043265813 -0.001224218
000060 23 38 3b bb fe ec 25 bb c8 19 8d bb aa a4 7e a4
       -0.0028567396 -0.002531826 -0.004306052 -5.5216946e-17
000070 a5 92 7a a4 41 72 7e a4 44 50 68 a4 a2 8e 60 a4
       -5.433432e-17 -5.5174247e-17 -5.037497e-17 -4.8693072e-17
000080 4c dc 6a a4 54 16 5e a4 93 00 57 a4 f6 00 61 a4
       -5.092726e-17 -4.815749e-17 -4.662118e-17 -4.8789912e-17
000090 49 33 f1 ba 3a 4a b5 bb 1c 8c 82 bc 84 02 48 bb
       -0.0018402125 -0.00553253 -0.01593595 -0.0030519078
0000a0 5b 53 cd 3c ac a1 ce ba 0e 61 a5 bc 0d f0 a2 bb
       0.025064161 -0.0015764735 -0.02018788 -0.004972464
0000b0 9f 76 f5 b8 8e 0c b6 ba 19 0b 7d 3a bf 00 3e bb
       -0.00011704605 -0.001388924 0.0009652838 -0.0028992144
0000c0 b7 e7 a9 38 0e e0 c3 3a 2c 01 3d bb 01 0b 30 3b
       8.101708e-05 0.0014944093 -0.002883981 0.0026862028
0000d0 f4 6b 60 3b 77 4f 35 bb ef d8 e5 3a 65 66 11 3b
       0.0034244033 -0.0027665773 0.0017535965 0.0022186276
0000e0 c2 39 d0 3a 34 15 a3 bb 2b 48 7d 3a 74 d1 9c ba
       0.0015886354 -0.004976893 0.0009661938 -0.0011964277
0000f0 94 15 61 ba 2d cf a3 39 88 21 a1 b9 28 60 18 bc
       -0.0008586284 0.0003124414 -0.00030733296 -0.009300269
000100 b1 d1 38 bc 2b 2a 91 bc a7 8d 71 bc 76 19 44 3c
       -0.011280463 -0.017720303 -0.014743245 0.011968961
000110 85 f9 ad 3b 94 31 e3 bb 65 85 95 3b 60 50 d4 bb
       0.005309286 -0.0069334004 0.004563021 -0.006479308
000120 ee 48 74 bc c5 59 ab 3b db fc 14 3c 13 d8 ee bb
       -0.014909966 0.005229207 0.009093489 -0.0072889416
000130 57 69 b5 3c fc 83 b7 bb ed 14 9a bb 92 6c 02 bc
       0.022144957 -0.0056004506 -0.0047022016 -0.0079604555
000140 d5 4d 93 bc 61 e7 aa bb a5 0f 45 3a 01 2e c4 bb
       -0.01798145 -0.005215571 0.0007517285 -0.0059869294
000150 31 8a 1d 3c e3 66 87 bb 71 d7 94 3b c8 30 3f 3b
       0.009615467 -0.004132138 0.004542284 0.0029173363
000160 97 ce 16 3b ef 31 92 bb 27 e1 a2 3b f1 d9 51 bc
       0.002301132 -0.004461519 0.004970688 -0.012808309
000170 96 14 be bb 9a a9 2b bc 61 31 25 3c e1 c7 e5 3c
       -0.005800794 -0.010477448 0.010082574 0.028049411
000180 8f 84 07 bc 1c b0 2c 3c 25 3a 75 3a 3e 08 01 00
       -0.0082713505 0.010540035 0.00093546725 9.4792e-41
000190 da bb 00 80 c5 14 00 80 42 61 00 80 62 c0 00 80
       -6.7388e-41 -7.451e-42 -3.489e-41 -6.9014e-41
0001a0 28 2a 00 00 02 b7 00 80 60 ef 00 80 48 72 00 80
       1.5123e-41 -6.5651e-41 -8.5872e-41 -4.0996e-41
0001b0 04 56 24 92 7f fd 25 92 98 01 26 92 60 94 25 92
       -5.18553e-28 -5.237728e-28 -5.238233e-28 -5.2247706e-28
0001c0 49 20 27 92 d9 7d 27 92 cc 05 25 92 f0 9e 26 92
       -5.2735703e-28 -5.285103e-28 -5.2071965e-28 -5.257627e-28
0001d0 7a f8 26 92 af 03 0a bc c1 0d 96 3c fc 8b a4 3b
       -5.2686635e-28 -0.00842373 0.018317105 0.0050215703
0001e0 16 8a b9 3b 70 b9 2d 3c c6 03 c5 bb 2e 21 06 bd
       0.005662213 0.010603294 -0.0060124127 -0.032746486
0001f0 ff 25 8a 3c c3 2c 25 bb 7d 3a 48 bb 89 ca 95 ba
       0.016863821 -0.0025203682 -0.003055244 -0.0011428158
000200 cf 7b e5 ba 27 e6 02 bb 9c 81 c3 ba b2 3c 65 bb
       -0.0017508211 -0.0019973607 -0.0014915946 -0.0034978804
000210 8d 73 67 3a a7 f7 53 39 82 37 74 bb ad 02 57 b1
       0.0008829169 0.00020214786 -0.003726453 -3.1288139e-09
000220 b3 43 b0 b0 c3 ba a5 b1 be 2d 95 b1 bd 9a 96 b1
       -1.2824927e-09 -4.8233644e-09 -4.341671e-09 -4.3831663e-09
000230 50 a6 b5 b1 5b ad df b1 2a 39 df b1 89 2f 01 b2
       -5.286701e-09 -6.5098624e-09 -6.496653e-09 -7.5195965e-09
000240 51 52 29 3b 2c a2 0a bd 4f 4a 8f bc f0 d4 86 bc
       0.0025836418 -0.033846065 -0.017491488 -0.016458958
000250 5b 18 ad bc 56 a3 01 3c 3a 77 0d 3c 07 d0 3d 3c
       -0.021129778 0.0079124775 0.008634383 0.011585242
000260 e0 fb a8 3c 3f 0d e6 39 51 97 64 b9 e9 9a 1c b9
       0.020627916 0.00043878888 -0.00021800144 -0.00014935028
000270 11 37 0a ba 45 48 cf ba 3d 85 d4 ba b2 c0 24 ba
       -0.0005272488 -0.0015814385 -0.0016214025 -0.00062848174
000280 d6 75 0f bb ad 98 27 bb 9b 9f 70 ad e2 ab 81 ad
       -0.0021890304 -0.002557318 -1.367786e-11 -1.4741933e-11
000290 c0 c5 81 ad e8 6c 54 ad 84 9a 53 ad cf 8c 62 ad
       -1.475342e-11 -1.2074987e-11 -1.2028271e-11 -1.28778785e-11
0002a0 53 4c 00 ad 8e a1 d8 ac 98 e7 04 ad d4 ab 33 bb
       -7.292905e-12 -6.1570254e-12 -7.554755e-12 -0.002741565
0002b0 d6 7b 74 bb d7 45 e4 3a ca 84 5a bb 31 cd 58 3b
       -0.0037305257 0.0017415833 -0.0033343309 0.0033081288
0002c0 7e 03 96 bb a5 b1 3a 3a 73 b2 e7 3b 9f 66 c6 ba
       -0.004578053 0.0007121808 0.0070708334 -0.0015136785
0002d0 13 5a c9 18 e0 2d d7 18 c0 55 c2 18 d0 1b 04 19
       5.2048234e-24 5.562252e-24 5.023441e-24 6.829857e-24
0002e0 f7 57 0d 19 39 5e 00 19 3e c9 13 19 e5 18 20 19
       7.3072935e-24 6.636473e-24 7.6403624e-24 8.2768335e-24
0002f0 30 ef 11 19 c0 b2 61 3b ae 07 09 3a f9 3b 82 3a
       7.544628e-24 0.0034438819 0.00052272796 0.0009936086
000300 34 65 ef 3a d9 2b 08 ba 0b af b0 ba 49 d0 b5 3b
       0.0018264414 -0.0005194522 -0.0013479901 0.005548511
000310 e9 ee 3e 3b a9 b9 64 ba 5a 7f ab b6 61 b8 ac b6
       0.00291341 -0.0008725175 -5.111023e-06 -5.147464e-06
000320 af 4e ac b6 af 75 ab b6 f6 56 ac b6 3c 6c ac b6
       -5.1351594e-06 -5.1098973e-06 -5.136123e-06 -5.1385996e-06
000330 f1 cc aa b6 07 77 ab b6 ef 98 ab b6 ea da 4c bb
       -5.090253e-06 -5.1100537e-06 -5.114001e-06 -0.0031258413
000340 12 e0 41 bb de 27 03 bb 38 9d f8 ba 6e 97 8f 3a
       -0.002958302 -0.0020012776 -0.0018967753 0.0010955164
000350 e4 76 6a 3b e9 5b 5d ba f7 cf d3 b9 8d 08 9d ba
       0.003577643 -0.00084441766 -0.00040400002 -0.0011980698
000360 db 87 fb b5 95 5f ff b5 d5 3f fd b5 ad aa 01 b6
       -1.8740496e-06 -1.9026799e-06 -1.8868546e-06 -1.9321844e-06
000370 b3 b4 03 b6 8e 9c 02 b6 2c 4e 01 b6 de 60 03 b6
       -1.9625702e-06 -1.9462636e-06 -1.9268e-06 -1.9576905e-06
000380 2f 55 02 b6 b8 33 14 bb 7d 54 96 bb 00 88 57 bb
       -1.9421093e-06 -0.0022613835 -0.0045877085 -0.0032887459
000390 e5 bd b5 ba 44 c8 87 bb 47 c6 25 bb 1d df f6 39
       -0.0013865797 -0.0041437466 -0.0025295184 0.0004708701
0003a0 d9 b0 d3 ba 0c d4 da b9 d3 3c b0 3b 36 fe 07 bc
       -0.0016150727 -0.00041738187 0.0053783446 -0.008300355
0003b0 3f 94 b4 ba 5c 11 f0 ba fb 18 38 bb 7e fd 99 3b
       -0.0013777091 -0.001831572 -0.0028091061 0.004699408
0003c0 94 2f 01 3c dd c9 2a 3c 94 fe c1 3b 82 4b ba 37
       0.007884879 0.0104241045 0.0059202407 2.2208089e-05
0003d0 10 96 bc 37 d0 1e ba 37 7f 30 bf 37 2c ee c0 37
       2.2481225e-05 2.2187276e-05 2.2791557e-05 2.2999091e-05
0003e0 11 92 be 37 64 34 be 37 d0 ef bf 37 57 70 bd 37
       2.2717782e-05 2.2674161e-05 2.2880646e-05 2.2582868e-05
0003f0 b8 17 00 00 95 38 00 80 83 3f 00 80 9f 45 00 80
       8.509e-42 -2.0298e-41 -2.2784e-41 -2.4975e-41

e_conv4.bias f4 [32]
000000 2a 29 08 3d 8c 1e 8f 3b ea ae 78 a7 89 7c 0e ba
       0.033242382 0.004367655 -3.4511735e-15 -0.00054354273
000010 6a e1 88 3c ee 20 88 3c f1 93 67 3c 04 22 bd 3c
       0.016709048 0.016617265 0.014134393 0.023087509
000020 9a 66 d1 b9 7f 97 c2 a6 1f 33 bb 3c 99 3e d7 3c
       -0.0003994003 -1.3502517e-15 0.022851525 0.026274966
000030 13 f9 85 3d 5c 71 94 3c 43 a2 b8 3c c0 be 56 3c
       0.06541648 0.01812046 0.02253831 0.013107002
000040 cf f9 ee ba 67 85 ad 3d 0a ee 19 9e ca 36 06 3d
       -0.0018232408 0.0847271 -8.148978e-21 0.032767095
000050 d7 ca 15 3d 54 14 3a b4 61 87 0f 3d 5b ec 55 ba
       0.036570396 -1.7329995e-07 0.035041217 -0.0008160525
000060 5a 15 d5 8b 7c f2 17 3d 12 cf 4b bb 70 f6 02 3d
       -8.207674e-32 0.037096485 -0.0031098765 0.031973302
000070 fc 9f d5 3d 9c 65 10 3d 02 00 cb b9 d6 3c bd 3c
       0.10430905 0.035253152 -0.00038719183 0.023100298

e_conv5.weight f4 [32, 64, 3, 3]
000000 ff ba 4d bb a2 f3 4e 3a e1 f7 5a bb 17 bd b4 3b
       -0.0031391976 0.00078945805 -0.0033411907 0.0055157053
000010 f3 26 bc 3b 2b 53 89 39 2f 00 b3 3b 06 d0 c1 3b
       0.005741948 0.0002619264 0.0054626684 0.005914691
000020 68 70 69 3a ed 0e aa 3b d6 07 a5 ba f3 fe 82 ba
       0.00089049945 0.0051897676 -0.0012590836 -0.0009994194
000030 79 19 30 3b c2 6a 14 bb fa bd 1e bb 4d 8c c6 3a
       0.0026870652 -0.002264664 -0.0024222122 0.0015148014
000040 ed 51 db ba 24 61 25 bb 3d 3c 07 34 6d 1f 0c 34
       -0.001673279 -0.0025234902 1.259477e-07 1.3049949e-07
000050 de 42 0c 34 f5 f7 04 34 54 f7 09 34 4b 2a 0a 34
       1.3062842e-07 1.2383664e-07 1.2849097e-07 1.2867638e-07
000060 7e a4 f9 33 8b c2 01 34 4f 6e 02 34 c9 2c bd 3b
       1.1624887e-07 1.2084836e-07 1.2147324e-07 0.005773161
000070 9c 52 04 39 e0 ec 02 3c 7a ce d5 3a 36 60 ad 3b
       0.00012619275 0.007991046 0.0016312145 0.0052910103
000080 f8 b0 d9 3b bb 2a d7 ba 36 62 e2 3b ed 7f f5 3b
       0.006643411 -0.0016415933 0.0069086803 0.0074920566
000090 57 e7 cc 3b fc 42 a0 3b 89 fd 14 3b 90 2a 13 3c
       0.006253164 0.0048907977 0.0022734127 0.008982316
0000a0 3b 48 81 ba 48 cb a3 3b 0f e4 29 bc 35 0e f5 bb
       -0.0009863445 0.0049985982 -0.010369315 -0.0074785003
0000b0 85 c4 47 bc 3b f3 3b 30 2b 9d 40 30 06 0b 45 30
       -0.01219285 6.8375855e-10 7.007254e-10 7.168385e-10
0000c0 2a b2 37 30 e9 73 3d 30 a7 21 43 30 19 46 30 30
       6.68282e-10 6.892252e-10 7.098841e-10 6.412804e-10
0000d0 35 e8 37 30 f1 13 40 30 02 26 16 3b 12 b4 03 3c
       6.6905e-10 6.987753e-10 0.0022910838 0.008038538
0000e0 7c 57 fb 3b 88 f3 81 b9 0e 6d 8e 3b 63 eb df 3b
       0.007670341 -0.00024786242 0.0043464964 0.00683348
0000f0 12 f0 e4 39 9d d6 8a 3b 0d cf 03 3c 2e a1 39 30
       0.00043666415 0.0042370097 0.00804497 6.753166e-10
000100 51 78 43 30 c9 12 42 30 59 52 41 30 3e d1 4b 30
       7.1111567e-10 7.0603484e-10 7.0330014e-10 7.414832e-10
000110 f6 0a 4a 30 17 33 36 30 9a 87 40 30 d2 4e 3f 30
       7.350275e-10 6.628382e-10 7.0041895e-10 6.9597406e-10
000120 53 29 8d bc 14 dd 2c 3c 45 02 90 bc 1b 63 6f bc
       -0.017231619 0.010550756 -0.017579207 -0.014611031
000130 fa 0b a7 3c 12 fb 25 bc ad ea e6 3b 6c f4 6b bc
       0.020391453 -0.010130661 0.0070470185 -0.014401536
000140 64 e2 06 3c e1 96 93 3b 3c 5d d8 ba b3 b8 e1 ba
       0.008232687 0.00450407 -0.0016507278 -0.0017221182
000150 7a 48 5f 3b d7 32 7d bb 53 0b 3b ba b3 fc a1 bb
       0.00340703 -0.003863504 -0.00071351713 -0.004943454
000160 b4 a7 33 bb c3 07 6c bb d1 71 00 bb 73 49 2a 3b
       -0.0027413191 -0.0036015369 -0.001959909 0.002598372
000170 7b 0b 18 3c 9f 74 01 bb 4a 40 4f ba 0a c1 f7 3b
       0.009280081 -0.001975335 -0.0007906003 0.007560854
000180 5e ea 67 3a 05 17 a1 3b cd 23 8b 3c af 6f 00 00
       0.0008846874 0.004916074 0.016984845 4.0065e-41
000190 03 ef 00 80 44 ae 00 00 b7 9e 00 00 7d ec 00 80
       -8.5741e-41 6.2515e-41 5.6936e-41 -8.4836e-41
0001a0 fb 57 00 00 7e a7 00 00 13 d7 00 80 79 77 00 80
       3.1561e-41 6.0085e-41 -7.7154e-41 -4.2859e-41
0001b0 f2 c8 60 a4 8d 31 5d a4 3d ab 60 a4 9b ab 5e a4
       -4.8742465e-17 -4.7963707e-17 -4.8717302e-17 -4.8283932e-17
0001c0 9f 25 5e a4 84 03 60 a4 24 6f 5e a4 84 af 5e a4
       -4.8170443e-17 -4.8575235e-17 -4.8232716e-17 -4.8287244e-17
0001d0 d2 ba 5f a4 c8 d5 00 80 e2 b5 00 00 ed 99 00 80
       -4.851366e-17 -7.669e-41 6.5247e-41 -5.5218e-41
0001e0 b7 48 00 00 6c 04 00 00 db 4d 00 80 2a 00 00 00
       2.6085e-41 1.586e-42 -2.7929e-41 5.9e-44
0001f0 fe 22 00 80 c2 cd 00 00 5d d1 f3 af 47 79 9d 2f
       -1.2553e-41 7.3812e-41 -4.4350204e-10 2.8644306e-10
000200 12 1d ba 2d ce 7b 98 2f bd 93 82 2e 32 8a 87 2f
       2.1158662e-11 2.7736607e-10 5.937959e-11 2.465455e-10
000210 69 38 ae 2f bb 24 99 2f 41 8a 22 b0 60 c5 64 95
       3.1690497e-10 2.7856636e-10 -5.913173e-10 -4.6199935e-26
000220 1c 53 c0 94 fc e1 40 95 c0 6f 61 95 7d 78 2d 94
       -1.9419826e-26 -3.895236e-26 -4.5526543e-26 -8.75803e-27
000230 3b ef 23 94 cc 9a 49 95 fa 01 2b 95 63 b6 65 95
       -8.276577e-27 -4.071374e-26 -3.4534734e-26 -4.639006e-26
000240 48 5b 9d bb e6 55 70 bb ef 9b 33 bb 8c 40 d7 bb
       -0.0048021413 -0.0036672293 -0.0027406176 -0.006568974
000250 71 c8 6b bb d9 5d 5d bb af a7 51 bb c4 bd 07 3a
       -0.0035977627 -0.0033777861 -0.0031990816 0.00051781186
000260 f3 f9 ab b9 a1 05 27 bb ad d9 4e bb 98 4c 87 b8
       -0.00032801888 -0.0025485533 -0.003156285 -6.451568e-05
000270 0d 33 75 bb c1 a5 53 bb 7e dc a6 ba bd a2 f3 ba
       -0.0037414462 -0.0032294842 -0.0012730507 -0.0018587928
000280 fa 03 25 bb 80 02 2b ba 56 47 d8 bb 3b 63 de ba
       -0.0025179372 -0.0006523505 -0.006600301 -0.0016966829
000290 2f 2d 94 3b 5d e0 36 bb 0a 36 7d 3b 48 d5 08 3c
       0.004521988 -0.0027904727 0.0038636946 0.008351631
0002a0 e6 2c 00 bb d4 4b 8a 3b 6f 60 d8 3b 32 92 28 bb
       -0.0019558012 0.004220465 0.0066032927 -0.0025721905
0002b0 6c 4d 8f 3b 35 bc 0f 3c 28 f6 f0 3b 5b ac 2a 3b
       0.004373243 0.008772899 0.007353563 0.0026042673
0002c0 f4 a8 15 3b 31 43 86 bb d8 58 00 bb c9 54 f5 3a
       0.00228363 -0.0040973653 -0.0019584205 0.0018717285
0002d0 0c e6 86 11 ee 42 76 11 24 98 79 11 bf 9e 86 11
       2.128325e-28 1.9426603e-28 1.9689518e-28 2.1239307e-28
0002e0 24 8e 74 11 3a 90 71 11 cc fa 86 11 ba d8 79 11
       1.9292007e-28 1.9055991e-28 2.1296038e-28 1.970942e-28
0002f0 cc 0b 7a 11 1b ac a8 bb 54 5b cc b9 1b fd 0d bb
       1.9725158e-28 -0.0051474697 -0.00038977957 -0.0021665755
000300 a9 66 b0 38 2f 32 66 3b 92 01 f7 bb d1 c1 93 ba
       8.411456e-05 0.0035125127 -0.007538029 -0.0011272972
000310 79 71 bb 3a e1 8f 15 3b 04 8b 9f 3a 76 b8 0c 3b
       0.0014300785 0.0022821354 0.0012172167 0.0021472252
000320 15 61 ce 3b 85 d6 92 3b fc 3c b4 3b a1 6f 9b 38
       0.006298194 0.004481139 0.005500434 7.4117685e-05
000330 df a2 0d bb 89 19 0a bb 3a ba 9a bb 63 2d 33 3a
       -0.0021611971 -0.002107235 -0.004721907 0.0006835071
000340 33 35 0d 3a 2b dc a9 b9 4c 29 c3 3b f9 e7 0e ba
       0.00053866504 -0.0003239823 0.0059558507 -0.0005451437
000350 6d ba 0a 3b dd 53 bf 3a 78 9d 8f 3b 0c d8 b7 b9
       0.0021168247 0.0014597137 0.0043827854 -0.00035065447
000360 fd 6f cb ba 83 8e 9a bb 69 a9 01 bc 57 14 bb ba
       -0.0015521046 -0.0047166958 -0.007913926 -0.001427303
000370 11 ee a7 bb 66 47 e7 bb ea fb af bb 53 06 0d bc
       -0.0051248153 -0.007058072 -0.0053706067 -0.008607465
000380 5b 82 1a bc e5 1e 00 80 2d 14 00 80 29 01 00 00
       -0.009430493 -1.1083e-41 -7.238e-42 4.16e-43
000390 75 07 00 80 f3 17 00 80 0c 03 00 00 8f 27 00 80
       -2.675e-42 -8.591e-42 1.093e-42 -1.4191e-41
0003a0 dc 16 00 80 c4 1d 00 80 9b da 3b 3b f1 37 0e 3c
       -8.2e-42 -1.0678e-41 0.0028664235 0.00868033
0003b0 63 49 1b 3c 66 81 42 3b 3b 7a ff 3b 40 3c 0b 3c
       0.009477946 0.0029679178 0.0077965534 0.008498251
0003c0 fe 7f 9e ba a8 cf 2f 3b 1c 8d 82 3b 2d fa 41 bc
       -0.0012092588 0.0026826654 0.0039841067 -0.011839432
0003d0 b7 bd 17 bc ad 27 92 bb bc 84 ec bb c6 ae b9 3a
       -0.00926154 -0.004460296 -0.0072179716 0.0014166466
0003e0 30 71 fc 3c 67 5e 02 3c 15 7a 33 bc 4c 49 07 3b
       0.03081569 0.007957078 -0.0109544 0.0020643054
0003f0 b5 cf 00 80 e5 c9 00 80 9d 24 00 80 60 47 00 00
       -7.4511e-41 -7.2426e-41 -1.3134e-41 2.5605e-41

e_conv5.bias f4 [32]
000000 5e 99 b5 3c 12 ae bf ac 7b 07 9a b4 c8 92 26 3d
       0.022167858 -5.447872e-12 -2.8690178e-07 0.040667325
000010 d4 f4 f0 97 c6 7a fb 3b fa 26 93 3d ee ba f0 3c
       -1.557144e-24 0.007674548 0.071851686 0.02938601
000020 8f b7 ab 3c 8a 4d 8d ae 35 56 2b 3d e9 41 f2 3c
       0.020961551 -6.4257114e-11 0.04183026 0.029572444
000030 3d 3c 34 a7 58 ec 23 b4 36 b8 df 3c 85 f9 04 3d
       -2.5012673e-15 -1.526654e-07 0.027309518 0.032464523
000040 bd f4 fe 3b f2 11 c1 3b 68 b4 24 ab 65 32 44 3c
       0.00778064 0.005892032 -5.851487e-13 0.011974906
000050 78 8f e2 3c 4b f5 02 3d 48 b6 26 3c 4d 2b b6 9e
       0.027656302 0.03197221 0.010175295 -1.9287908e-20
000060 a6 ff b4 3c 97 e3 8f ac f5 87 d9 3c 34 e4 3a 3c
       0.022094559 -4.089572e-12 0.026554087 0.011406947
000070 ec 82 4d 3d 30 44 95 b9 a1 71 b1 b5 09 fa 8d a7
       0.050173685 -0.00028470298 -1.3220598e-06 -3.940645e-15

e_conv7.weight f4 [8, 64, 3, 3]
000000 ac db 42 bb 17 19 2c bb d6 23 b2 bb 44 e1 af 3b
       -0.0029732985 -0.0026260072 -0.005436401 0.00536743
000010 bd 1f ca 3b 01 69 7b 3b 19 4b b0 3b 85 78 d4 3b
       0.0061683343 0.0038362148 0.005380046 0.0064840936
000020 cc 05 8e 3b f5 01 6a 3a 48 c4 6c 3a 44 fe 08 3b
       0.004334187 0.0008926683 0.0009031934 0.0020903507
000030 07 39 e5 3a 67 83 27 3b 4b 22 b2 3b e2 aa f0 3b
       0.0017488309 0.00255605 0.005436217 0.0073445896
000040 5d 43 2c 3c 60 f5 5d 3c d2 22 01 80 3f da 01 80
       0.0105141075 0.0135472715 -1.04327e-40 -1.70127e-40
000050 36 48 01 80 41 0b 00 00 70 14 01 00 b4 50 01 00
       -1.1774e-40 4.037e-42 9.9167e-41 1.20786e-40
000060 9a 96 01 80 0f 79 00 80 84 23 01 80 82 b7 00 80
       -1.45861e-40 -4.3428e-41 -1.04576e-40 -6.583e-41
000070 8e 2c 01 00 92 28 00 80 e1 b1 00 80 89 9a 01 80
       1.07819e-40 -1.4554e-41 -6.3811e-41 -1.47272e-40
000080 dd 5b 01 80 e1 5f 00 00 5d 80 01 00 c9 af 01 80
       -1.2479e-40 3.4395e-41 1.37884e-40 -1.54895e-40
000090 68 68 8c ba ee a6 41 bb 56 f6 9f bb cb c5 86 3b
       -0.0010712268 -0.002954896 -0.0048816605 0.004112934
0000a0 61 71 eb 3a 04 4f 3d ba 06 bc 22 3b 5f 4c e1 b9
       0.0017962867 -0.0007221552 0.002483131 -0.00042972245
0000b0 2a 48 54 bb 4a 3d 49 bc b0 6d 15 bc dd ed de bb
       -0.0032391646 -0.012282679 -0.00912039 -0.006803258
0000c0 8b 47 1c bb 53 eb 43 3a e1 0b 20 3b 15 94 b2 3b
       -0.0023846354 0.0007473726 0.0024421143 0.0054497817
0000d0 e0 3c 0c 3c 18 d1 1c 3c bc 36 0d 3b d9 6e 89 38
       0.008559436 0.009571336 0.0021547517 6.553316e-05
0000e0 76 5d a5 3a 93 09 95 3b 93 04 52 3b 48 3f ab 3b
       0.0012616355 0.0045482605 0.0032046183 0.0052260496
0000f0 82 ec bc 3b 75 af b1 3b 16 5d e8 3b 21 a8 54 bc
       0.0057654986 0.0054225274 0.007091175 -0.012979538
000100 db 45 f1 bc c2 d6 15 bd 93 08 01 3c 07 05 2d bc
       -0.029452255 -0.036581762 0.007875579 -0.010560281
000110 78 45 a8 bc 36 63 ce 3c 99 c3 d1 b8 a0 e0 37 bc
       -0.020540938 0.025193792 -0.000100023295 -0.011222988
000120 1b 54 00 00 1a af 00 80 dd 3e 00 00 87 bb 00 80
       3.0171e-41 -6.2815e-41 2.2551e-41 -6.7272e-41
000130 e5 a2 00 00 a0 6d 00 80 7a 3d 00 80 10 c1 00 80
       5.8436e-41 -3.9326e-41 -2.2054e-41 -6.9258e-41
000140 23 62 00 80 25 77 00 00 9c 93 01 80 fa 3e 01 80
       -3.5205e-41 4.2741e-41 -1.44788e-40 -1.14427e-40
000150 c1 0e 00 00 ea 2c 01 00 89 14 00 80 ae 9c 00 80
       5.293e-42 1.07948e-40 -7.367e-42 -5.6206e-41
000160 70 09 01 80 bb dc 01 00 0f ea 1b bb a3 38 8d bb
       -9.5221e-41 1.71019e-40 -0.0023790633 -0.00430973
000170 a0 34 b9 ba 14 46 79 ba 15 b1 27 bb e6 a9 3d 39
       -0.0014130063 -0.00095090386 -0.0025587727 0.00018087737
000180 6a 9e da b9 1f 14 11 bb bf bf 69 3a 35 ba e9 bb
       -0.00041698228 -0.0022137237 0.0008916817 -0.0071327933
000190 9c c2 ae bb 0f f4 c2 bb de 07 77 bb d0 ca e5 ba
       -0.005333258 -0.005949504 -0.0037693898 -0.0017531756
0001a0 73 d4 6d bb 83 ed 40 bb 72 89 15 bb 32 18 95 bb
       -0.003628996 -0.0029438443 -0.002281752 -0.0045500034
0001b0 f1 26 19 bc f8 98 96 3c ad cf 02 bc 7e a7 60 3c
       -0.009347663 0.018383488 -0.007984084 0.013711808
0001c0 99 21 26 3d 19 5d 76 3c bc c4 6f bc 9a 27 50 3c
       0.040559385 0.015036845 -0.0146343075 0.012704754
0001d0 d8 19 61 bc bd 45 3a bc 93 83 87 bc 00 c1 68 bb
       -0.013739072 -0.011369166 -0.016542232 -0.0035515428
0001e0 cc fc 82 bc 7a c3 b0 bc eb 1b 0e bc 40 39 cf 3a
       -0.015989684 -0.021577585 -0.008673648 0.0015809909
0001f0 0a 75 85 bb 4d cb 1a 3c 9b 80 1d bb 4c 9b f6 b9
       -0.00407279 0.009447885 -0.0024032954 -0.00047036482
000200 b9 2b d7 ba 1c 3e e5 b8 67 be 19 3b 72 75 af 3a
       -0.0016416229 -0.0001093114 0.0023459436 0.0013386442
000210 8f 32 94 3a ae 53 83 3b 17 db 1d 3b 7b 5f 9d bb
       0.0011306572 0.004007778 0.0024086887 -0.004802642
000220 ed ca bc bb 4f b2 2f bb 65 f0 8c ba d5 22 07 bb
       -0.0057614953 -0.002680916 -0.0010752795 -0.0020620127
000230 b7 37 fc 39 84 6e ac 3a a7 73 5f 39 15 f8 30 3b
       0.00048106696 0.0013155495 0.00021310021 0.0027003337
000240 e1 ad 00 00 3e 46 00 00 0c 6b 00 00 a0 84 00 00
       6.2376e-41 2.5198e-41 3.8401e-41 4.7577e-41
000250 d6 63 01 80 34 9c 00 80 6c d2 00 00 5a 84 01 00
       -1.2765e-40 -5.6035e-41 7.5485e-41 1.39314e-40
000260 54 08 01 80 65 24 0b bb b3 58 0c 3d b3 4d 01 bb
       -9.4823e-41 -0.002123141 0.034264278 -0.001973015
000270 c2 31 d1 3c 51 ad 80 3d aa 84 db 3c 33 30 3d bc
       0.025536422 0.062830575 0.026796658 -0.011547136
000280 18 d0 d1 3c 90 63 1d bc 70 58 01 80 e1 a4 00 00
       0.025611922 -0.009606257 -1.23561e-40 5.9147e-41
000290 aa 80 00 00 ee 36 01 80 5c 47 01 00 9f 20 00 00
       4.6156e-41 -1.1154e-40 1.17434e-40 1.1702e-41
0002a0 be 86 01 00 5d b5 00 00 7e d6 00 80 0c d0 f8 bb
       1.40172e-40 6.5061e-41 -7.6945e-41 -0.0075931605
0002b0 86 13 78 bb 30 0e b3 bb dc bd e9 bb 28 4e 82 bb
       -0.0037853434 -0.0054643378 -0.0071332287 -0.003976602
0002c0 35 03 f9 bb 73 db 38 bc 8a 48 1e bc 2c 63 62 bc
       -0.0075992593 -0.0112827895 -0.009660849 -0.01381759
0002d0 2c 67 d1 bb f4 c8 16 3c 7c e4 50 bb 87 ba de 3b
       -0.006390473 0.009203184 -0.0031874469 0.006797138
0002e0 a9 c7 ad 3c 3e 95 21 3c 7e 2f 0c bc 6a f3 e0 3b
       0.02121337 0.009862242 -0.008556245 0.0068649547
0002f0 21 c7 bd bb 62 50 00 80 0b 58 01 80 93 32 01 80
       -0.0057915603 -2.8836e-41 -1.2342e-40 -1.09978e-40
000300 d5 59 00 80 6f 14 02 00 58 17 01 80 7c b4 01 80
       -3.2226e-41 1.91001e-40 -1.0021e-40 -1.56581e-40
000310 4c 41 00 00 ef 81 00 00 bb d0 8f bb 3f bf 33 bb
       2.3424e-41 4.6611e-41 -0.0043888963 -0.0027427224
000320 3a 33 ff bb f4 1a 9a 3b ce 78 c9 3b 77 db 82 3a
       -0.007788089 0.00470292 0.0061484342 0.0009983619
000330 60 b3 2c 3b db e6 89 3b b1 1c 7b ba 4a 1c 01 00
       0.0026352033 0.0042084283 -0.00095791655 1.01984e-40
000340 d1 74 00 00 46 51 00 80 98 08 01 80 99 aa 00 80
       4.1906e-41 -2.9155e-41 -9.4918e-41 -6.1199e-41
000350 06 46 00 00 9a 02 01 80 6f ee 00 80 45 19 01 00
       2.512e-41 -9.2769e-41 -8.5534e-41 1.009e-40
000360 e8 41 01 80 65 ad 01 80 2d b3 01 80 b1 69 01 80
       -1.15478e-40 -1.54038e-40 -1.56112e-40 -1.2975e-40
000370 a9 b0 00 80 9d a5 01 00 b1 01 01 00 47 32 00 80
       -6.3374e-41 1.51246e-40 9.2442e-41 -1.8036e-41
000380 f2 61 00 80 af 85 6f 3b 7c 91 be 3b 2b d4 98 ba
       -3.5136e-41 0.0036548187 0.005815683 -0.0011659911
000390 e5 c5 82 3a 9b b7 47 3b 94 4d 3b bb c2 4c 9f ba
       0.000997719 0.0030474428 -0.0028580176 -0.0012153613
0003a0 79 62 99 3a ea 28 7c bb d8 bb ac 3b 74 cf 4a 3b
       0.0011702321 -0.0038476535 0.005271416 0.0030946406
0003b0 2a bd 2e 3d 5c f7 25 bd c1 94 2d bd 73 2e d5 bb
       0.04266087 -0.040519103 -0.04237819 -0.0065057813
0003c0 d9 81 12 bd 84 1b 0d bd cb 2e df 3a 27 4d 9b 3a
       -0.035768364 -0.03445007 0.0017027495 0.0011848555
0003d0 8a 79 b4 ba 99 bd 37 bb c8 fc e0 3b a0 08 b1 3b
       -0.0013769132 -0.0028036593 0.0068660714 0.0054026395
0003e0 94 2a ae 3b 10 f5 d7 3b e7 81 c1 3b 1e 70 ca 3b
       0.0053151343 0.006590493 0.005905378 0.006177916
0003f0 97 f7 9f bc bb 8c ae 3c 9b 74 a0 bc be 21 a2 3c
       -0.01952724 0.02130734 -0.019586852 0.01979148

e_conv7.bias f4 [8]
000000 1f 71 a6 3c 02 71 57 3c 12 af 61 3d 86 89 29 3d
       0.020317612 0.013149502 0.0550986 0.04139092
000010 19 64 ca 3c 02 b4 06 3d a2 f1 b9 3c c2 d1 64 3c
       0.024705933 0.032886513 0.022698227 0.013966026
