snapshots/Epoch61.pth (torch, 304045 bytes, 14 tensors)

e_conv1.weight f4 [32, 3, 3, 3]
00000000: e08c 0080 6a2a 0080 340b 0000 bdde 0000
00000010: 3001 0080 3323 0000 8cd2 0080 fc24 0400
00000020: 3fb9 0000 f0c7 0000 c0b9 0000 8748 0000
00000030: f72b 0080 8042 0100 bc1a 0180 eb4b 0180
00000040: 6744 0100 dcd5 0000 8c88 0000 794c 0100
00000050: 974a 0000 5eaa 0000 b259 0080 f0ae 0080
00000060: 34d9 0080 f743 0080 7b03 0000 8589 83bb
00000070: 2df0 c13a 4e7b 77bc 344d 373c ee0b 1e3c
00000080: d9cc 343c f513 d83c 8a7e 843c e322 cc3c
00000090: 078a 013c ff49 d8bb 65d8 f83c 378b a23b
000000a0: 2f81 753c 185b 883c 77aa 093d 171d 143d
000000b0: d3a4 b53c c00a 0fbc 39c4 dfbb 8816 eabc
000000c0: 76b2 6bbb 3292 fdbb 0fb5 a1bc b6e8 1fbc
000000d0: d3a0 fcbb 292e 903c ae1f 28bc 4b21 27bd
000000e0: 9278 61bc 1be5 4abb 941b dcbc 402c a6bc
000000f0: b24c 8138 24c9 1abc cb6e 00bc 8a45 92bb
00000100: d0e0 1b3c a014 cf3b 02a8 b6bb 6865 d33b
00000110: 6c0c 6f3b 3c55 253d 1794 ac3c 54b5 a3bc
00000120: 9a4b ca3c 74e9 fa3c e766 d13c 0e9c 103d
00000130: 43aa d53c c54f 123d 0562 043d b651 753c
00000140: 761b 863c 9028 0dba 71c9 543c eea1 a83b
00000150: c151 b8bc d6b9 edbb 408d 953b e1be 8abc
00000160: 86b7 6bbc 015a c83c 1962 e6bc 64fe 1f3c
00000170: 8df4 393c e402 26bc 9c6a 21bb 78a9 033c
00000180: 41b7 00bd 3028 213c 35a5 b93c a858 b6bb
00000190: f477 503b 1517 06bc ade9 08bc 459d 803c
000001a0: 1cd6 4eba b3c5 c1bc 7dec d13b 8e7e d53c
000001b0: 5483 2a3c 02a9 513c fc89 323d 53a6 893c
000001c0: 9273 0f3c 0f08 0c3d 17f2 ceba 4993 48bc
000001d0: 2dca 333c 30e0 963c 5e88 ba3c a2d3 303d
000001e0: 0f1b db3b 1591 50bb 69c5 f33b c3e1 483a
000001f0: 546d 983c 884f f63c 0726 2d3c eaec 073c
00000200: 877a 083d fa36 d9bc f7b1 6bbc 4567 be3b
00000210: b5d0 1cbd b6bd 3ebc fb5b d9b9 d2c0 0100
00000220: bb79 0180 febd 0080 0097 0000 1a2c 0000
00000230: 15b7 0000 f1cf 0080 de3f 0100 382c 0080
00000240: 4032 0000 399f 0000 8775 0080 0b40 0000
00000250: 47b4 0080 ae16 0100 54bb 0000 1187 0000
00000260: 31ae 0080 dacf 0080 6dd6 0080 b331 0180
00000270: 9b1c 0000 b583 0080 41e0 0080 5dd6 0080
00000280: 036e 0000 94e9 0100 b0fc 013d 4253 d83b
00000290: 55a7 84bc 6774 863c 879e b53b ba87 11bd
000002a0: 6055 d33c 623c 2d3a 7cb1 80bc 9d91 293d
000002b0: 12df 023d a29f edbc b6b0 ab3c f6ae 363c
000002c0: b26c dbbb 096a 8b3c 8363 f7bc bd5e 3bbd
000002d0: 4ab8 453c e835 edbb d964 8cbc e6dc 8d3b
000002e0: be62 923b 5651 49bc b7d8 063d 5c00 8abc
000002f0: 9a7e 3dbd 1e55 0080 e2cc 0080 9a7e 0000
00000300: 652f 0000 3b59 0000 2a2d 0080 6d65 0000
00000310: ab4e 0000 508b 0080 0721 0080 5369 0080
00000320: 699d 0000 8838 0080 59a0 0080 8c22 0080
00000330: c9d5 0080 ad40 0080 8c90 0080 7cc9 0000
00000340: 769a 0080 9a34 0000 e7f7 0080 7ad0 0000
00000350: a172 0000 8585 0080 a6bf 0000 557d 0000
00000360: 323c 0000 3546 0000 04ae 0000 d2a1 0080
00000370: 7533 0080 52ac 048e 236e 0000 7969 0000
00000380: a320 9d8e 238b 0080 156e 0000 176a 0000
00000390: c4bc 0000 bca1 0000 73b0 0a80 4d23 0080
000003a0: 4a9e 0000 b41d 0000 c2a5 0000 614a 0080
000003b0: 89e1 0080 d9a6 0000 095a 0000 de1e 0080
000003c0: d3aa 0080 f49b 0080 011e 088e 8491 30bd
000003d0: c4f7 a3bc 7cd9 37bd 8748 d7bc 6dac 94bc
000003e0: 6eb1 80bc 335d 4bbc 40f1 553c 2c90 dc3b
000003f0: 2197 30bd dec0 d0bb 850b e1bc 0447 a0bc
-5.0536e-41 -1.5215e-41 4.019e-42 7.9903e-41 -4.26e-43 1.2627e-41 -7.553e-41 3.8061e-40
6.6454e-41 7.1724e-41 6.6635e-41 2.6018e-41 -1.5772e-41 1.15691e-40 -1.01426e-40 -1.1907e-40
1.16374e-40 7.6718e-41 4.8984e-41 1.19269e-40 2.6758e-41 6.1116e-41 -3.2177e-41 -6.2756e-41
-7.7918e-41 -2.4381e-41 1.249e-42 -0.0040141963 0.0014796309 -0.015105082 0.01118784 0.009646399
0.011035168 0.026376704 0.01617362 0.024918979 0.007906443 -0.006600618 0.030376622 0.0049604434
0.014984413 0.016645 0.033609834 0.036160555 0.02217332 -0.00873059 -0.0068288115 -0.028575197
-0.0035964525 -0.007738375 -0.019739656 -0.009760072 -0.0077096014 0.017600136 -0.010261459 -0.040803235
-0.013761656 -0.0030959311 -0.026868619 -0.020284772 6.165485e-05 -0.00944737 -0.007838915 -0.004463856
0.009514049 0.0063195974 -0.0055742273 0.0064512976 0.003647591 0.04036449 0.021066708 -0.019983925
0.024694253 0.030628897 0.025561763 0.035305075 0.026082164 0.035720605 0.03232004 0.014973095
0.016370516 -0.00053847674 0.0129874805 0.0051462566 -0.02249992 -0.0072548194 0.0045639575 -0.016936721
-0.014387017 0.02445698 -0.028122948 0.009765241 0.011349809 -0.010132525 -0.0024630195 0.00803601
-0.031424765 0.009836242 0.022661785 -0.005564768 0.003180978 -0.008184214 -0.008356494 0.015699992
-0.0007890181 -0.02365384 0.0064063654 0.026061323 0.010407288 0.012796642 0.043588623 0.016802942
0.008755581 0.034187373 -0.0015788701 -0.012242147 0.010973495 0.018417448 0.022770103 0.04317058
0.0066865752 -0.0031824757 0.0074393046 0.00076630356 0.01860682 0.03006722 0.010568148 0.008296231
0.033319976 -0.026515473 -0.014385692 0.0058106505 -0.038284976 -0.01164191 -0.00041457996 1.61006e-40
-1.35504e-40 -6.8156e-41 5.4169e-41 1.582e-41 6.5677e-41 -7.4595e-41 1.14747e-40 -1.5863e-41
1.8026e-41 5.7118e-41 -4.2161e-41 2.2974e-41 -6.4671e-41 9.9971e-41 6.72e-41 4.8453e-41
-6.2488e-41 -7.4563e-41 -7.6921e-41 -1.09664e-40 1.0262e-41 -4.7248e-41 -8.0447e-41 -7.6899e-41
3.9465e-41 1.75628e-40 0.031735122 0.006601722 -0.016193071 0.016412927 0.0055425796 -0.03552983
0.025797546 0.0006608424 -0.015709631 0.041398633 0.031951018 -0.029006783 0.020958286 0.011150112
-0.006696307 0.017018335 -0.030198818 -0.045744646 0.012067864 -0.007239092 -0.017137932 0.0043293117
0.0044673374 -0.012287458 0.03292152 -0.016845874 -0.046263315 -3.0534e-41 -7.3498e-41 4.5416e-41
1.7002e-41 3.201e-41 -1.6202e-41 3.6385e-41 2.8221e-41 -4.9976e-41 -1.1848e-41 -3.7783e-41
5.6468e-41 -2.028e-41 -5.7522e-41 -1.2393e-41 -7.6692e-41 -2.3201e-41 -5.1854e-41 7.2279e-41
-5.541e-41 1.887e-41 -8.893e-41 7.4787e-41 4.1121e-41 -4.7898e-41 6.875e-41 4.496e-41
2.1594e-41 2.5186e-41 6.2425e-41 -5.805e-41 -1.846e-41 -1.6353225e-30 3.951e-41 3.7836e-41
-3.8734916e-30 -4.9913e-41 3.949e-41 3.8058e-41 6.7716e-41 5.802e-41 -9.81653e-40 -1.2664e-41
5.6783e-41 1.0655e-41 5.9463e-41 -2.6682e-41 -8.0907e-41 5.9854e-41 3.2299e-41 -1.1073e-41
-6.128e-41 -5.5945e-41 -1.677774e-30 -0.043107525 -0.020015605 -0.044885144 -0.0262797 -0.018148625
-0.015709605 -0.012412357 0.013058007 0.006731054 -0.043112878 -0.006370648 -0.027471313 -0.019565113

e_conv1.bias f4 [32]
00000000: a9b6 3eb8 89b2 823d 17dd 933c 2f12 f73d
00000010: 3afa 7c3d 35f9 b4b6 901a 6d3d a7bb 1dba
00000020: 5d12 e5b9 10c7 963d aed5 80b9 7b60 48b6
00000030: 462c e9bc 231c 673d f2e2 8fb8 f718 203e
00000040: 8aa5 003e 534b c13d cae6 3a3e f291 223e
00000050: 11ee 45b5 73ba 1e3e d9f2 93bc 6cc6 f03d
00000060: 4332 d5ae 06b6 79b3 31ec 0b3d 8c7f 82b5
00000070: e665 96aa 3e98 20bb f654 f43d a60c b0b7
-4.5469646e-05 0.06381709 0.01804976 0.12064015 0.061762072 -5.3934295e-06 0.05788666 -0.0006017037
-0.00043691965 0.07362187 -0.00024573266 -2.9858481e-06 -0.028463494 0.056423318 -6.861043e-05 0.15634523
0.12563148 0.09438195 0.18252102 0.15875986 -7.373465e-07 0.15500812 -0.018060135 0.11756596
-9.695047e-11 -5.814038e-08 0.034160797 -9.722876e-07 -2.671606e-13 -0.0024504806 0.119302675 -2.0986725e-05

e_conv2.weight f4 [32, 32, 3, 3]
00000000: 2351 0080 06f2 c98a d27d 0080 5f52 0080
00000010: dc18 0080 a54f 0080 bbcd 0000 e3e2 0080
00000020: 3eb0 0080 2c9f 0d3c 2135 a4bc 6c51 483b
00000030: cd70 83bb 466c 57ba 7855 e3bb 158c 493c
00000040: e0ea e33c dd71 b83a ab58 34bc 4a57 52bc
00000050: 22c5 03bc 369d 923b d49d b8bb ce75 8bbb
00000060: 7cc0 aa3b ec3a db3a 3bd6 d73b cd13 e1bc
00000070: 4c85 9b3c e3f9 193d 932e 6fbc 7e58 d6bb
00000080: 15b6 b1bb c716 1cbd de69 9f3b 613b 963c
00000090: 63f1 8f39 36b6 17bb b1ee 623a 8eb1 3f3c
000000a0: 16d2 64bc cd80 f83b c85e 5b3c bd50 89bc
000000b0: def1 11bc 6532 0080 e9c7 0080 6cc0 0000
000000c0: 07b4 0000 dbd1 0000 bc28 0000 40b9 0100
000000d0: de6f 0080 a82b 0000 89cc 87ba d14a 133c
000000e0: 7aae 01bc 4a74 0bbc 8544 b83b 9b14 093c
000000f0: 4d9a ca3b 13df 023c 075a 973c 6322 0100
00000100: 94f0 0080 43e6 0100 fb4e 0000 b196 0100
00000110: 633d 0000 8803 dd8e a968 0000 7bae 0100
00000120: 195e 0080 1310 0080 6d9b 0080 2dd6 0080
00000130: 6748 0000 5edf 0000 adb9 0080 1c04 0000
00000140: 4a58 0000 2907 633c 78b5 3aba 219a 163c
00000150: 2f09 7fbb afff f03b ddcc 143c 3f34 4c3a
00000160: 4ab7 a339 1dec 3cbb fea7 0000 e08d 0000
00000170: 858e 0000 6538 0080 e4ee 0100 ccbf 0000
00000180: afaa 0000 cb61 0000 f665 0000 89c1 fd0c
00000190: b690 0000 daaa 0080 c22a 0080 7a0b ff22
000001a0: 7faf 0080 4aa7 0000 5fab 0000 f305 0000
000001b0: 8235 f0bb e935 f0bb b25f ebbb 2e23 8c3a
000001c0: b995 653a 1a10 583a 3e1c 413a 1862 043a
000001d0: 5e54 8439 d591 023b af72 9c3c bc50 8e3b
000001e0: e6a0 323c a4f5 953b 680d 0f3c 3c36 13bc
000001f0: 0999 3b3c eab3 f1b7 a4e5 0000 4c2f 0080
00000200: 750c 0080 e8c3 0000 cc69 1d08 59c2 0180
00000210: 2b99 f3a6 297f 0000 de7c 0080 fce1 c73b
00000220: 1fd2 433c 2ed8 913b b032 813c 23c7 8a3c
00000230: a807 6e3c fd12 2abb d6ab 96bc 77d1 e2bb
00000240: e259 7dbc 35cb 9cbc d7f2 fbbb d218 a0bc
00000250: 0e14 7a3c 24cf 8e3c a639 f8bc b2b3 2c3a
00000260: d67b 40b9 5267 a53c 1308 04bb 537e c8b9
00000270: 50e2 cbbb ad05 443c ab4f db3b b22a c53b
00000280: 9752 873c 59ee a03c 44b9 1139 9564 bcbc
00000290: d0bd 85bc 308a e9ba 9d6b 433a 100f 953c
000002a0: ff45 11bd 2f62 7d3c 1e19 0a3d 5ac5 a53c
000002b0: 2357 983c 5a0c 80bb ebeb 123c cfd0 313c
000002c0: 180e 8bba ff89 40bc 086b 11bc 2ff9 e83c
000002d0: 2ead 5b81 fa3a 0100 4e31 0080 e054 0000
000002e0: 8a6a 0080 3699 0080 3dbc 0000 c2b0 0000
000002f0: f70f 0080 8617 a9bc 6769 483c 9c0b 8f3c
00000300: 3135 91bc 98bf 443d 3441 053d cba0 393c
00000310: a4c6 e93c d964 913c c286 893b f306 c23b
00000320: 3cd3 79bb a6df 5cbb 7489 1d3a ff49 26bb
00000330: 054c 42bc c583 a53b da81 20bc 560e 983c
00000340: 8f5e 503c 5f53 b43c edc8 4d3c 3b41 b93c
00000350: de1e b73b 0d83 2ebd 1a8d d53c 66b4 9dbb
00000360: d5a8 79ac 6b1e 1ead e0cb af2c b62a f92b
00000370: bc28 83ad 5b80 b6ab 70f0 27ac e1dd 30ac
00000380: bbf2 5ead 70dd 0180 9588 0000 c2c6 0080
00000390: c8d2 0080 070a 0080 6c39 0180 0d85 0000
000003a0: bdd7 0000 ed00 0000 de07 8a3b 069c 213b
000003b0: 9acb b33b 1b2d 62bb 2632 72bb f18a 5ebc
000003c0: 02ce 6d3c d00b 07bc f12d 9ebc 4616 5f03
000003d0: 482e 0000 6c6c 0080 934e 0080 7a34 0100
000003e0: df3e 0000 b774 0080 0aae 0080 f783 0100
000003f0: 65f1 0080 5f43 0080 1124 0000 d93e 6a2b
-2.9106e-41 -1.9446635e-32 -4.5136e-41 -2.9549e-41 -8.918e-42 -2.8571e-41 7.3802e-41 -8.1392e-41
-6.3224e-41 0.008643907 -0.020044865 0.003056611 -0.0040112496 -0.0008217733 -0.006937679 0.012301465
0.027821958 0.001407202 -0.011007468 -0.012838194 -0.008042606 0.0044743074 -0.005634049 -0.004255987
0.005210934 0.0016725934 0.0065868176 -0.027475262 0.01898446 0.037591826 -0.0145985065 -0.006541311
-0.005423317 -0.03810766 0.0048649153 0.018338861 0.00027454933 -0.0023149378 0.00086567836 0.011700047
-0.013966104 0.0075837136 0.013389297 -0.016762132 -0.008907763 -1.8078e-41 -7.1714e-41 6.9028e-41
6.4582e-41 7.5282e-41 1.4613e-41 1.5829e-40 -4.013e-41 1.5661e-41 -0.0010360639 0.008990006
-0.007915134 -0.008511612 0.0056234025 0.008366729 0.006182945 0.007987755 0.018475546 1.04171e-40
-8.6303e-41 1.74438e-40 2.8333e-41 1.45893e-40 2.2021e-41 -5.4484107e-30 3.7545e-41 1.54427e-40
-3.3756e-41 -5.766e-42 -5.5756e-41 -7.6832e-41 2.5973e-41 8.0129e-41 -6.6608e-41 1.474e-42
3.1672e-41 0.013856688 -0.0007122378 0.009192021 -0.0038915386 0.0073546986 0.009082046 0.00077897677
0.00031226344 -0.0028827258 6.0264e-41 5.0895e-41 5.1126e-41 -2.023e-41 1.77533e-40 6.8804e-41
6.123e-41 3.5082e-41 3.6577e-41 3.9097302e-31 5.1913e-41 -6.129e-41 -1.5339e-41 6.913004e-18
-6.2956e-41 6.0012e-41 6.1476e-41 2.134e-42 -0.0073305974 -0.0073306453 -0.0071830386 0.0010691637
0.0008757967 0.00082421454 0.0007366574 0.00050500175 0.0002523986 0.0019923348 0.019097654 0.0043431204
0.010902619 0.004576402 0.008731224 -0.008985098 0.011450061 -2.8813218e-05 8.238e-41 -1.6967e-41
-4.469e-42 7.0278e-41 4.7369833e-34 -1.61554e-40 -1.6903028e-15 4.5616e-41 -4.4794e-41 0.0060999375
0.011951952 0.0044508195 0.01577124 0.016940659 0.014528193 -0.002595126 -0.018392485 -0.006921943
-0.015463324 -0.019139865 -0.007688861 -0.019543085 0.0152635705 0.017432757 -0.030300926 0.0006588056
-0.0001835668 0.020190869 -0.0020146414 -0.00038241092 -0.006222047 0.011964244 0.006692847 0.0060170526
0.016518874 0.019644903 0.00013897294 -0.02299718 -0.016325861 -0.0017817672 0.00074546953 0.018195659
-0.035467144 0.015465303 0.03371536 0.020235706 0.018596238 -0.0039077224 0.00896738 0.0108530065
-0.0010609059 -0.011751651 -0.008875616 0.028439132 -4.0348198e-38 1.12992e-40 -1.7687e-41 3.0447e-41
-3.8219e-41 -5.4962e-41 6.7527e-41 6.3409e-41 -5.727e-42 -0.0206411 0.012232161 0.01746159
-0.017725559 0.04803428 0.032532886 0.01132984 0.028537102 0.017748283 0.0041969726 0.0059212386
-0.003812029 -0.003370264 0.0006009557 -0.0025373695 -0.011858945 0.0050511085 -0.009796584 0.018561523
0.012717857 0.02201241 0.0125601115 0.022614112 0.0055883965 -0.04260545 0.026068259 -0.004812765
-3.5478749e-12 -8.988014e-12 4.996434e-12 1.7704369e-12 -1.4911065e-11 -1.2967504e-12 -2.3865597e-12 -2.5134272e-12
-1.2673136e-11 -1.71272e-40 4.8996e-41 -7.1301e-41 -7.5614e-41 -3.597e-42 -1.12435e-40 4.773e-41
7.7392e-41 3.32e-43 0.0042123636 0.0024659648 0.0054869177 -0.0034511748 -0.003695616 -0.013582931
0.014514448 -0.008242562 -0.019309016 6.555938e-37 1.6603e-41 -3.8894e-41 -2.8187e-41 1.1066e-40
2.2554e-41 -4.187e-41 -6.2433e-41 1.39176e-40 -8.6596e-41 -2.4168e-41 1.2938e-41 8.322072e-13

e_conv2.bias f4 [32]
00000000: c6a2 0cbd 1ad1 b99f d93a 683c 67ee a9ba
00000010: f30d 1a3d 507f fa3c 4a76 883a 4b59 263d
00000020: ce24 5b3d c929 0d3d 1077 dabc 6fc8 e4ab
00000030: b82d 4fa3 13fa 02bc 8302 143c 4ca2 99b9
00000040: bca1 003d b20d 163c 6f79 b4a6 3dc4 47bc
00000050: db92 26a5 2d95 693c dd25 080e a784 0b3d
00000060: 06a2 4097 3651 3a3d 7604 3f3d 63de 60bb
00000070: ed84 ce99 76d7 5aba 70c5 bdbb 6cec 4c3d
-0.03433492 -7.869648e-20 0.014174187 -0.0012964726 0.03761096 0.030578285 0.001041123 0.0406125
0.053501897 0.034463678 -0.026668102 -1.6256006e-12 -1.1231174e-17 -0.007994193 0.009033802 -0.00029303355
0.031404242 0.009158539 -1.2522924e-15 -0.012192783 -1.4447961e-16 0.014256758 1.6781525e-30 0.034062054
-6.224305e-25 0.045487605 0.046635114 -0.003431224 -2.1353589e-23 -0.0008348146 -0.0057913586 0.050030157

e_conv3.weight f4 [32, 64, 3, 3]
00000000: d1c2 0080 824b 0000 49f0 0000 934c 0080
00000010: eb01 0000 3f85 0080 3c7d 0080 77ae 0000
00000020: deb7 1404 1b46 a03a 2e28 6c3c 749c bd3c
00000030: 2ac8 0cbc ff95 853b 1818 273c 6151 ecbc
00000040: 24b8 c5bb 1636 18bc 2f79 35bc 8ab3 d33a
00000050: 8283 8c3b b88e 3cbc 19e1 b339 6597 0a3b
00000060: a7c2 8cbc b7b6 0fbc afff f2bb 85b2 203c
00000070: 75c6 223c 54d1 693c 674e 593a 6a09 5f3b
00000080: ae18 c53b 425d a3ba aa43 2cbc 34ad 9dbc
00000090: daf4 b73b fde0 ba3c c85a 9b3c 953d 293b
000000a0: 1b1f 423c 428f d33b 6de6 00bc 78c4 b7bb
000000b0: 482e c7bb 4475 0080 afb2 0080 a8c9 0000
000000c0: 779c 0080 d57e 0080 5751 0704 2e0c 0000
000000d0: cedb 0000 8eb3 0080 68b1 5b3b a5ed ef3b
000000e0: 91e0 373a 8e05 6e3b 159c 563c 7c50 c23b
000000f0: 2490 a7ba 1992 b93b c5b0 e4bb 3add 0000
00000100: 805f 0080 770e 0000 9e22 0180 1509 0000
00000110: bc22 0000 fc94 0000 d297 0080 c4d1 0080
00000120: b834 0180 6c08 0180 f31b 0080 b837 0080
00000130: 3951 0080 e136 069e 3f92 0080 1a42 0080
00000140: 5dc6 0080 a7af 9d39 669c c739 4ba5 55bc
00000150: 9915 233c 9f67 e73b 09a3 d1bb c5ca 923b
00000160: 37a6 3cb9 8fd0 11bc 71d7 0080 012a 0000
00000170: aa5c 0000 5e17 0000 1fc5 0000 0162 0080
00000180: 9014 0000 fc7a 0080 d823 0080 ad96 0000
00000190: 9600 0000 14a5 0080 2653 0080 cab5 0000
000001a0: aef9 0080 02b0 0000 0a8d 0080 c4b7 0080
000001b0: 0d24 80ba 138c 7b39 e0f9 5839 75b5 8bba
000001c0: af21 81ba a44e 66ba ebdf a7ba a38f adba
000001d0: 56ab 9dba bbe8 bbbb 5e74 83bb 77c6 c3bb
000001e0: 308a f9bb b4bf 9fbb 7fd8 a7bb 6524 56bc
000001f0: 6cd0 24bc e22a 1dbc 6db8 0080 4074 0000
00000200: fc57 0080 dc60 0180 8093 0080 45b7 0000
00000210: f957 0080 333a 0000 8a5f 0000 6a45 a2bc
00000220: d5ca c43b cc8f 973c aea4 423b be86 e8b9
00000230: 3c78 923b 84f2 31bd c4d2 d6bc eec0 71bc
00000240: 7b13 b33a 4424 0f3c 991f c03c f7e9 51bc
00000250: 7fdb ff3b 8151 22bc af8a f1bc 4dbf e4bb
00000260: 7568 cdbb a7dd c73b 262d e43b 81c9 813a
00000270: 8036 ee3a 1d00 bf3b 7307 c3ba c094 e9ba
00000280: 22c4 88ba 6316 33bc 3d54 ba3a 1c9b 6f3c
00000290: ed5a a13c 75b9 8b3b e87e 67bb 70aa b43c
000002a0: 8cad 08bd a8f6 85bc 6f90 77bb 5e79 683c
000002b0: 56f5 fdb9 8b32 013c 28eb 6f3b 85f7 bbbb
000002c0: 63a5 9dbc 8897 77bc 52ca 3dbc ef01 f9bb
000002d0: a79c 0080 8e19 0000 233d cea6 a7e6 0080
000002e0: eb9d 0080 902c 0080 e274 0000 82c1 0080
000002f0: 8152 0000 290b caba 09a1 993a acd7 5dbb
00000300: 98b0 cd39 6bfe 2e3c 092e 653c a60d 90bc
00000310: 6aa2 9fbc 2f0d 83ba fc65 49ba 90d4 373c
00000320: 1ee9 d73c 9551 82bc dc81 e6ba ceab 513c
00000330: 2831 e5bc 164d 66bc 3006 7eba a923 09bc
00000340: b5c3 853b 9799 aaba a5c2 bb3a d3fe a63b
00000350: e7df f23b 40e5 89bc b00d 40bc 9f9e ddba
00000360: 8f87 92aa 8559 deaa 4356 8eac 7722 75ab
00000370: 726e 8d2b 4c6c 99ac df67 b4aa 6521 f1a8
00000380: 38ef ac2b 0379 0000 4ec6 0000 efc7 0080
00000390: 70be 0000 2b21 0180 125b 0000 b72a 0100
000003a0: 75f3 0080 57ad 0000 0a6b f0bb 5e26 34bb
000003b0: 994d 563c 2d81 20bc 3e14 ae3c af65 ec3b
000003c0: 3dc5 b6bc 0257 5fbc 3ccd 23bc d0ca 0000
000003d0: 5e4c 0000 598a 0180 d668 0100 4077 0000
000003e0: 7446 0180 9df5 0080 4ebc 0000 b049 0000
000003f0: f2bd 0080 8b49 0080 751a 0000 26a1 0000
-6.9887e-41 2.7087e-41 8.6198e-41 -2.747e-41 6.88e-43 -4.78e-41 -4.4926e-41 6.2586e-41
1.7481744e-36 0.0012227924 0.014413876 0.023145892 -0.008592645 0.004076719 0.0101986155 -0.028847398
-0.006033914 -0.009290239 -0.011076256 0.0016151529 0.004288138 -0.011508636 0.0003430925 0.0021147367
-0.017182661 -0.00877159 -0.0074157338 0.009808187 0.009935011 0.014271099 0.0008289576 0.003403271
0.006014905 -0.0012463706 -0.010514179 -0.019247629 0.0056139054 0.02281236 0.018964186 0.002582406
0.011848236 0.0064562866 -0.007867438 -0.0056081377 -0.006078515 -4.2067e-41 -6.41e-41 7.234e-41
-5.6129e-41 -4.5499e-41 1.5906523e-36 4.369e-42 7.8851e-41 -6.4412e-41 0.003352249 0.0073220306
0.0007014359 0.0036319229 0.013098736 0.0059300046 -0.0012784046 0.005663168 -0.0069790804 7.9361e-41
-3.4259e-41 5.189e-42 -1.04254e-40 3.258e-42 1.246e-41 5.3446e-41 -5.4463e-41 -7.525e-41
-1.10747e-40 -9.4857e-41 -1.0026e-41 -1.9988e-41 -2.9137e-41 -7.10525e-21 -5.2463e-41 -2.3713e-41
-7.116e-41 0.00030076245 0.00038072764 -0.013039897 0.00995388 0.007061913 -0.006397609 0.0044797384
-0.00017990997 -0.008899822 -7.7286e-41 1.5068e-41 3.3242e-41 8.383e-42 7.0714e-41 -3.5157e-41
7.376e-42 -4.4118e-41 -1.2858e-41 5.4052e-41 2.1e-43 -5.9219e-41 -2.9828e-41 6.5214e-41
-8.9568e-41 6.314e-41 -5.0595e-41 -6.5923e-41 -0.0009776369 0.00023989407 0.00020692451 -0.0010658937
-0.0009851957 -0.0008785522 -0.0012807822 -0.001324166 -0.0012029212 -0.0057345307 -0.004011675 -0.0059745866
-0.00761535 -0.0048751477 -0.005122244 -0.013070201 -0.010059457 -0.009592744 -6.616e-41 4.1703e-41
-3.1563e-41 -1.26582e-40 -5.2913e-41 6.5745e-41 -3.1559e-41 2.0878e-41 3.4273e-41 -0.01980849
0.006005625 0.018501185 0.0029700208 -0.0004435088 0.0044698995 -0.04344417 -0.026223548 -0.014755471
0.0013662422 0.008736674 0.023452567 -0.012812129 0.0078081484 -0.009907127 -0.029485075 -0.0069808126
-0.0062685558 0.006099421 0.00696339 0.0009901972 0.0018174201 0.005828871 -0.0014879539 -0.001782082
-0.0010434429 -0.01093063 0.0014215779 0.014624383 0.019696677 0.0042640516 -0.0035323445 0.022053927
-0.033368632 -0.016352966 -0.0037775298 0.014189092 -0.0004843871 0.007885586 0.003660867 -0.0057362937
-0.019243902 -0.015111811 -0.011583881 -0.0075991075 -5.6196e-41 9.167e-42 -1.4310693e-15 -8.2742e-41
-5.665e-41 -1.5986e-41 4.193e-41 -6.9418e-41 2.9597e-41 -0.0015414703 0.0011720966 -0.0033850474
0.0003923222 0.010680775 0.013988026 -0.017584633 -0.019486625 -0.0009998436 -0.00076827384 0.011220112
0.026356276 -0.015908042 -0.0017586309 0.012797309 -0.027977541 -0.014056465 -0.0009690253 -0.008370318
0.004082168 -0.0013015744 0.0014324976 0.0050962954 0.007411945 -0.016832948 -0.011722013 -0.0016908235
-2.6028873e-13 -3.9497238e-13 -4.0454597e-12 -8.7089315e-13 1.0049307e-12 -4.360545e-12 -3.2046498e-13 -2.6770857e-14
1.2287732e-12 4.3411e-41 7.1138e-41 -7.1723e-41 6.8316e-41 -1.03734e-40 3.267e-41 1.07159e-40
-8.7336e-41 6.2183e-41 -0.007336979 -0.002748869 0.013080024 -0.009796423 0.021249887 0.00721427
-0.022310847 -0.013631584 -0.009997662 7.2755e-41 2.7395e-41 -1.41465e-40 1.29444e-40 4.2779e-41
-1.1711e-40 -8.811e-41 6.7551e-41 2.6434e-41 -6.814e-41 -2.6382e-41 9.491e-42 5.7809e-41

e_conv3.bias f4 [32]
00000000: 3f57 133d 7056 f43c 148d fba0 1ac3 1f3c
00000010: c7dd 173d faea 8bb0 a616 74bc f5d3 03b5
00000020: 4a7a 083d ce79 d23b 5ec1 043d 0611 a6b3
00000030: 36f8 f4ab 4af9 afb3 cfc5 0000 af6f babb
00000040: 140c 683d af1e 6ebc 14c1 5c3d 04b5 1abc
00000050: d0bc b7ac 9723 853c 239c 09ba fcfe 24bc
00000060: d217 393c bb2f 94a6 a579 063c cfa8 213d
00000070: d622 91aa eb6a 9abc f6d1 0e3d 9417 98bc
0.035971876 0.029826373 -4.2614412e-19 0.009751106 0.037076738 -1.0180365e-09 -0.014897978 -4.910974e-07
0.03331975 0.0064232117 0.03241097 -7.733074e-08 -1.7406135e-12 -8.194418e-08 7.096e-41 -0.0056895833
0.056652144 -0.014533683 0.05389507 -0.009442572 -5.2221352e-12 0.016252322 -0.00052494014 -0.010070559
0.011297183 -1.02825e-15 0.008207713 0.03946763 -2.5781346e-13 -0.01884981 0.034868203 -0.01856593

e_conv4.weight f4 [32, 64, 3, 3]
00000000: 1e48 8dbb 6ef7 4c3c 1bda 2fbd 80bb b13b
00000010: 22c9 eabb c047 06bc 4bc8 733c c544 8bbb
00000020: 1f88 63bc f288 661e 357d 181d df80 291e
00000030: 1622 131e c1c1 b91d cfdb 119e 560b 929d
00000040: 9ead 2b9e 73bd 0f1c 2b24 cd39 4245 953a
00000050: 90c9 d03a 265b 0a3a 4092 a13a 9a8f af3a
00000060: 2837 2bba 769f 30b9 8d4a 22ba 3c51 acba
00000070: 01b9 aeba 4e98 48ba 6088 8dba 55c0 66ba
00000080: 074b 93ba 3ebf 74ba 6e07 99ba c2c2 80ba
00000090: d847 c4ba a283 e5bb d8d7 b2bc ab82 7cbb
000000a0: 7c03 1f3d 8121 213a 2b5e f8bc d95c e4bb
000000b0: 0cd4 0f3b 8ab1 f9ba a5f7 963a fd3d 59bb
000000c0: a81d 48ba 2a59 ed3a ab62 10bb 1754 073b
000000d0: 8cdd a33b 7e1e 093b 64db cf3a 1451 1a3b
000000e0: 6245 c63a 2b6a b6bb 0bc7 ae3a 5700 8cba
000000f0: d548 f5ba 995c 96b8 6524 e7b8 8781 40bc
00000100: 3d4f 7bbc e703 b9bc 4c28 a8bc 90ec 873c
00000110: 43f2 0c3c 25c0 16bc a7a4 d33b d993 09bc
00000120: 8d3d 81bc 56ea c03b 1038 2c3c 3904 f5bb
00000130: 76c8 c73c f207 aabb 4a34 a4bb b49b 0ebc
00000140: 6a1c 9bbc e6ba aabc 4994 613a 3d89 c2bc
00000150: 968a f83c 7176 62bc 5ef7 8e3c 1a0c 5d3b
00000160: 539f 3b3b 3123 5abc c0b4 f93b ff59 81bc
00000170: 882f c2bb 1e9d 36bc 6a9a 683c c445 193d
00000180: 55c4 10bc 942d 6f3c 1213 0b3b 542c 6115
00000190: 39d9 a093 d33c d296 f514 8a96 1bfe 5e95
000001a0: 0f55 8696 1478 c095 ceaa 3c15 cc0a a695
000001b0: d5f3 c520 ed11 43a0 9b7c 09a0 b0cb 15a0
000001c0: fdc4 7d20 f7d0 56a0 08d2 6f9f 1073 69a0
000001d0: 874f 5ba0 a1e0 2dbc fb56 d83c e900 103c
000001e0: c723 173c 62fc 873c f852 bcbb 5ed4 34bd
000001f0: 74d5 cc3c 7730 a4ba caeb 70ba 1dbc 2eba
00000200: 1eef 06b9 3e77 93b9 5406 47ba 2e42 8aba
00000210: ef41 3c3a 7d52 28ba 7ba0 feba d142 5ca2
00000220: 0ca0 9225 4b2c 1fa2 1abe 4422 da3f c6a1
00000230: 78a6 c021 4c4f f7a1 b056 28a2 4eee 31a2
00000240: bb76 8b3b 8197 36bd 7653 b3bc 5718 b4bc
00000250: c283 e5bc e81a 443c bdde 3a3c 7592 7b3c
00000260: 6bb4 ed3c b613 133b 0a3d f2ba c1d5 46ba
00000270: 6a6d 2d3b b5bf b7ba 4d2d e7b9 9c99 023b
00000280: f86e 04bb e872 9bba 77c7 35a4 0ded bea3
00000290: ac8d 10a4 d6b0 43a1 0bd7 e9a3 ad17 4c24
000002a0: a915 f7a3 758f b721 c293 06a4 a81e e3bb
000002b0: 9e2b 7abc 4bbe 183c 057b e2bb 4869 df3b
000002c0: e3c6 d0bb 368e 80bb 6b7b 0b3c 9738 1cbc
000002d0: 91a5 af0a b645 980a 0d2f 2a0a b609 4a8a
000002e0: 1d2f 218a 2260 5a0b b555 0a0b b0ab 9f0a
000002f0: cda6 6d0b 981d 823b 460f 12ba 7baa 31bb
00000300: 881d 2e3b 4194 ecba 70d2 94bb 5263 833b
00000310: a3d4 4fb9 d38f 2dbb 1d01 a40a 0be5 f209
00000320: 8c8d 0200 afbc 3c8b e18f ac8b 4b7e 0e80
00000330: e954 930b d2d4 0f0c 8d70 0280 6285 8bba
00000340: c6f0 54bb d942 4439 97a6 a5bb 98be a6ba
00000350: 68e6 423b 0611 4fbb 7b5e 9338 232a 3539
00000360: fe57 0000 9999 0080 fa96 0080 a0e7 0080
00000370: 23d0 0080 1d36 0080 41e0 0000 ee32 0080
00000380: 667c 0080 cf73 723b ac9c d4bb 1474 87bb
00000390: cef9 c73b ed0d 91bb 3750 e1ba 0dbd a13b
000003a0: 684d b0bb 159d 10bb f244 2d3c daf5 67bc
000003b0: 73f5 abba e057 83bb b0b2 bdbb 26b2 fe3b
000003c0: f195 5c3c 97a8 943c af7d 363c 0072 0080
000003d0: d84c 0080 cc4f 0080 3bbc 0000 e193 0000
000003e0: 5049 0000 a74a 0000 7933 0080 167d 0080
000003f0: cf11 0080 f9db 0080 64c0 0000 3bcc 0080
-0.0043115756 0.012510164 -0.04293261 0.005423963 -0.00716509 -0.0081958175 0.0148792965 -0.0042501413
-0.013887434 1.2204418e-20 2.0181763e-21 8.9734354e-21 7.789164e-21 4.916943e-21 -7.7216914e-21 -3.86576e-21
-9.088568e-21 4.755959e-22 0.00039127594 0.0011388438 0.0015929211 0.00052778644 0.0012326911 0.0013394237
-0.0006531351 -0.00016844072 -0.00061909185 -0.0013146768 -0.0013330282 -0.00076520897 -0.0010798089 -0.00088024634
-0.001123757 -0.00093363586 -0.0011675188 -0.0009823667 -0.0014975024 -0.0070042172 -0.021831438 -0.0038530033
0.038821682 0.0006146655 -0.03031834 -0.006969076 0.0021946458 -0.0019050103 0.0011517896 -0.003314852
-0.00076338137 0.0018108238 -0.0022031467 0.0020649487 0.0050007757 0.0020922716 0.001585823 0.0023546861
0.0015126879 -0.0055668554 0.0013334466 -0.0010681254 -0.0018713722 -7.169805e-05 -0.000110217174 -0.011749632
-0.015338716 -0.022584869 -0.020527028 0.016592294 0.008602682 -0.009201084 0.006458837 -0.008397066
-0.01577642 0.00588731 0.010511413 -0.00747731 0.02438758 -0.0051889354 -0.005011116 -0.008704115
-0.018934447 -0.020841073 0.0008605165 -0.023747081 0.03033952 -0.013822184 0.017451938 0.0033729137
0.00286289 -0.013314054 0.007620424 -0.015789984 -0.0059260763 -0.011145858 0.014196971 0.03742005
-0.008835872 0.014598269 0.0021221084 4.5473357e-26 -4.0603876e-27 -3.3965715e-25 -2.2308328e-25 -4.5032997e-26
-2.1702547e-25 -7.773763e-26 3.810104e-26 -6.70639e-26 3.3534453e-19 -1.6523074e-19 -1.164558e-19 -1.2688185e-19
2.1495112e-19 -1.8195646e-19 -5.0783952e-20 -1.9773939e-19 -1.8576335e-19 -0.010612638 0.026408663 0.0087892795
0.009224839 0.016599838 -0.0057471953 -0.04414784 0.025004126 -0.0012526651 -0.0009190409 -0.00066656043
-0.00012868314 -0.00028126867 -0.00075921905 -0.0010548288 0.0007181456 -0.0006420983 -0.0019426489 -2.9850932e-18
2.5435415e-16 -2.1571967e-18 2.6663592e-18 -1.3433903e-18 1.305449e-18 -1.6758361e-18 -2.2814138e-18 -2.411413e-18
0.004256097 -0.04457808 -0.021890383 -0.021984262 -0.028016929 0.011969306 0.011405644 0.015354742
0.029016694 0.0022442169 -0.0018481326 -0.00075849524 0.002646292 -0.0014018925 -0.00044093505 0.0019927984
-0.0020207744 -0.0011859806 -3.9417072e-17 -2.0700236e-17 -3.1345023e-17 -6.630261e-19 -2.5352985e-17 4.4255503e-17
-2.6788967e-17 1.2438535e-18 -2.9181774e-17 -0.0069311447 -0.015269188 0.009322713 -0.0069116377 0.0068179704
-0.0063713654 -0.003923203 0.008513312 -0.009534976 1.6914166e-32 1.466329e-32 8.1940515e-33 -9.727773e-33
-7.760729e-33 4.2057595e-32 2.6642312e-32 1.5375725e-32 4.5770027e-32 0.003970813 -0.0005571734 -0.002710967
0.0026567895 -0.0018049554 -0.0045416877 0.0040096426 -0.00019820272 -0.002648343 1.5793044e-32 5.847477e-33
2.34448e-40 -3.6349433e-32 -6.6468475e-32 -1.331002e-39 5.67501e-32 1.1080363e-31 -2.24047e-40 -0.001064461
-0.0032492145 0.0001871692 -0.0050552594 -0.0012721596 0.0029739384 -0.003159584 7.0271046e-05 0.00017277202
3.1566e-41 -5.51e-41 -5.416e-41 -8.3091e-41 -7.4665e-41 -1.9412e-41 8.0447e-41 -1.827e-41
-4.4626e-41 0.0036995297 -0.0064884033 -0.0041337106 0.006102777 -0.004426709 -0.0017190044 0.0049358667
-0.0053803213 -0.0022066284 0.01057552 -0.014157737 -0.0013119414 -0.0040082783 -0.0057891235 0.007772702
0.013463483 0.018146796 0.011138364 -4.0895e-41 -2.7566e-41 -2.8626e-41 6.7524e-41 5.3049e-41
2.63e-41 2.678e-41 -1.8465e-41 -4.4872e-41 -6.389e-42 -7.8911e-41 6.9017e-41 -7.3264e-41

e_conv4.bias f4 [32]
00000000: 1fcf 063d 3ff0 e73a 7542 a5bc 05df 41ab
00000010: e22a 893c 2ac6 833c 75da 503c 89bc 853c
00000020: c89e 9bb5 3e10 6cb6 e789 673c aba7 d43c
00000030: 6161 b43c 0f6d 123c 615e b83c f04f 483c
00000040: 0bf8 ebbb 7cd5 4d3d dae6 ceb8 8481 003d
00000050: e440 0eba e77f 5fb6 ecec 8b3c ec4b 69b8
00000060: f000 539c 848a 163d 63be 343a 286e 013d
00000070: c94a 1f3d d92c 843c 6912 7cb3 0128 b93c
0.03291237 0.00176955 -0.02017329 -6.8876876e-13 0.01674408 0.016085703 0.012747397 0.016325252
-1.1594611e-06 -3.5176195e-06 0.014132 0.025958857 0.02201909 0.008937134 0.02250594 0.01222609
-0.0072012 0.050252423 -9.865845e-05 0.031373516 -0.00054265396 -3.3304038e-06 0.017080747 -5.5622237e-05
-6.9815255e-22 0.036753193 0.0006894825 0.031599194 0.03888968 0.016134666 -5.8690066e-08 0.022602083

e_conv5.weight f4 [32, 64, 3, 3]
00000000: ef22 723b 16d3 883b 5611 0d3b 86dd d93b
00000010: b383 c83b 32fc 353b f233 f83b bfb4 fa3b
00000020: 7516 7e3b 82e1 2e3c 2e04 6b3b ddfa bc3b
00000030: 41e4 d23b 71e9 5339 9726 ab3a c948 1e3b
00000040: 9abb 12bb 2fbc 2ab9 e887 0000 52ae 0000
00000050: c679 0080 3f58 0000 d2d3 0000 0fb3 0000
00000060: 3a30 0000 665f 0080 039c 0080 6fad 443c
00000070: 69fd a4ba 8142 8e3c 01c9 7b3b 7723 3a3c
00000080: eaf5 803c faa2 4dbb 2221 513c 06fa 583c
00000090: 1a7d 3c3c af74 f53b a733 e13a e6de 583c
000000a0: b73f a6bb 2e45 8d3b 89a1 84bc cc39 38bc
000000b0: 876d 92bc c56d 0080 912e 0100 e150 0000
000000c0: f56f 0080 34f1 0080 13c1 0080 78a9 0080
000000d0: 3328 0000 c4be 0000 abe1 bb3b ac36 333c
000000e0: cc2a 383c 0cb7 993b 5c27 093c a5f6 1c3c
000000f0: bcab 643b 6af1 cd3b f084 233c bd1e 8d31
00000100: d90b 8e31 aa10 8f30 3a29 4a32 8852 c030
00000110: 8033 0731 249c 6532 e379 9b30 c3ff fd31
00000120: 9802 c4bc b754 603c 9c99 d5bc c5b0 aebc
00000130: 962b d43c 406c 83bc 840c 2e3c ddc1 95bc
00000140: badb 3e3c d072 9f3c 973e f8ba e80f 40bc
00000150: 2516 163c 1e91 a1bc 07db d0bb 0490 bebb
00000160: 8647 fb3a 31a6 123a fe1c 61bb 2528 223b
00000170: 900e 793c e79d 2fbb fd5a 293b d716 913c
00000180: 2cdf 353a ce87 183c ce90 e53c 9744 0000
00000190: e92f 0100 d026 7801 8fb5 0080 d65d 0100
000001a0: 4bc3 0000 b418 0080 f4fd 0000 5806 0000
000001b0: 0793 0180 b35a e6a1 3db7 0000 a151 0100
000001c0: 6e34 0080 1009 0080 9d3c 0000 0e94 0080
000001d0: 59fd 0000 8774 522f 49b0 b4b1 7a0f 4fb2
000001e0: fda4 8db1 4687 50b2 1cb3 5bb2 6ad2 2532
000001f0: f7a5 a4b1 0768 8fb1 8163 0000 c070 0000
00000200: 33c4 0000 4354 0000 838a 0080 80b4 0000
00000210: 8c42 0100 28e9 0080 0a06 0000 3714 0080
00000220: 8400 0000 1cf1 0000 babc 0000 8744 0080
00000230: 7230 0080 aec1 0000 a312 0080 774b 0080
00000240: f4ea 05bc 4d14 83bb 8d6a ad38 ed8b 09bc
00000250: e3a8 47bb 66b9 4a3a a7d4 a5ba ddc5 8d3b
00000260: 0e83 c93b 4d89 b2bc b3ad 003c 5203 a83c
00000270: 0ee1 b33a 706a 353c 4372 2dbc 2b28 173c
00000280: 4d76 2dbc aa6a 6cbc abde a7ba 6404 3aba
00000290: 3dbe 383b 113a 96ba 27f0 363a 00cc 883b
000002a0: f671 173b 7bf2 463b bff3 803b fca2 57bc
000002b0: 56ef 093c 3829 a73c e59c 813c 69c1 9f3b
000002c0: fc2b a33a b8e7 56bc 7cf7 84bb 8314 273b
000002d0: 8095 0080 2867 5692 5c04 0180 31da 0000
000002e0: e847 0080 377a 0080 7d9f 0000 9d1d 0080
000002f0: cdd6 0000 f3fd d6bb 4c93 8cbb dad2 a2bb
00000300: 67a8 a7b9 1dc1 98b9 54ee 8cbc e62a a039
00000310: 79f9 4aba f350 313b 06b3 68b9 62a3 463b
00000320: 5906 933c b98a 103c 8d35 363c dd27 50bc
00000330: acf4 4bbb 6821 e4bb dfdc 9abc 4640 f2bb
00000340: fc1a 233c 4e27 9a3b 164a 953c 7934 eabb
00000350: e025 ce3a 7142 94bc 443e d13c 40df a0bc
00000360: dc9d 873c 7372 0a3d 8f16 14bd 7e25 063b
00000370: 6ffb 55bc 63e5 d0bb 8ebe d6bc 32c1 02bd
00000380: a68b 183c f50e 1788 6686 0080 4acd 0080
00000390: 5440 0080 fa80 0000 95f7 0080 3b33 0000
000003a0: 75c6 0080 3122 0080 b1a7 b33b 7706 503c
000003b0: f9f3 413c 4dd0 233b 5d53 133c b19c f83b
000003c0: 1299 9cba 763a a83b f35a 8a3b ffdd 83bc
000003d0: 5356 42bc 39fe bebb 39b5 1dbc 4a03 0e3b
000003e0: 6254 273d 06c5 3f3c 3e0d 64bc b232 073b
000003f0: 4787 0080 479a 0080 ae40 0000 b9a0 0080
0.0036947092 0.004175554 0.0021525226 0.006648722 0.0061192154 0.0027768728 0.0075745517 0.007650941
0.003877071 0.010673882 0.0035860646 0.00576721 0.0064359014 0.00020209492 0.0013057765 0.002415227
-0.0022389651 -0.00016282567 4.8754e-41 6.2534e-41 -4.3684e-41 3.1657e-41 7.5987e-41 6.4234e-41
1.73e-41 -3.4223e-41 -5.5966e-41 0.01200424 -0.0012587729 0.017365696 0.0038419368 0.011360995
0.015742261 -0.003137766 0.012764247 0.013243204 0.011504436 0.0074907164 0.0017181531 0.013236737
-0.0050735134 0.0043112254 -0.016190307 -0.011244249 -0.017874492 -3.9378e-41 1.0854e-40 2.9014e-41
-4.0163e-41 -8.6527e-41 -6.9262e-41 -6.0794e-41 1.4421e-41 6.8434e-41 0.005733689 0.010938328
0.011240672 0.0046910103 0.0083712 0.009580289 0.00348924 0.0062848823 0.009980425 4.1071346e-09
4.134091e-09 1.0409356e-09 1.1767321e-08 1.3993295e-09 1.967436e-09 1.3365057e-08 1.1312377e-09 7.392346e-09
-0.023927018 0.013692073 -0.026074223 -0.021324525 0.02589969 -0.016042829 0.010623101 -0.018280918
0.011649067 0.019463927 -0.0018939552 -0.011722542 0.009160553 -0.019722518 -0.0063737663 -0.005815508
0.0019171096 0.00055942225 -0.0034349556 0.0024743166 0.015201226 -0.0026796998 0.0025841587 0.017711086
0.0006937857 0.009309722 0.02802315 2.4605e-41 1.09022e-40 4.5578253e-38 -6.5131e-41 1.25497e-40
7.0058e-41 -8.862e-42 9.1101e-41 2.276e-42 -1.44579e-40 -1.5609414e-18 6.5734e-41 1.21118e-40
-1.8808e-41 -3.251e-42 2.1744e-41 -5.3112e-41 9.0884e-41 1.9140788e-10 -5.258731e-09 -1.2052505e-08
-4.122397e-09 -1.2137951e-08 -1.27882025e-08 9.652107e-09 -4.791896e-09 -4.1736743e-09 3.5695e-41 4.0447e-41
7.0383e-41 3.0227e-41 -4.9689e-41 6.4751e-41 1.15708e-40 -8.3641e-41 2.166e-42 -7.252e-42
1.85e-43 8.6494e-41 6.7702e-41 -2.4583e-41 -1.7379e-41 6.9479e-41 -6.686e-42 -2.7072e-41
-0.008173693 -0.004000223 8.2691295e-05 -0.008395177 -0.0030465655 0.0007733315 -0.0012651876 0.0043265657
0.006149656 -0.021793986 0.007853913 0.020509396 0.0013723688 0.01107274 -0.010586324 0.009225885
-0.010587287 -0.014429728 -0.0012807449 -0.0007095991 0.0028189563 -0.0011461397 0.00069785345 0.0041747093
0.0023108697 0.0030356932 0.003935307 -0.013161417 0.008418879 0.020405397 0.015821883 0.004875351
0.0012449021 -0.0131167695 -0.0040578227 0.0025494404 -5.363e-41 -6.7653643e-28 -9.34e-41 7.8272e-41
-2.5795e-41 -4.3842e-41 5.7214e-41 -1.0623e-41 7.7056e-41 -0.006561035 -0.00429002 -0.004968983
-0.00031978192 -0.0002913558 -0.017203487 0.0003054954 -0.0007742863 0.0027056306 -0.00022191936 0.0030309786
0.017947363 0.008822137 0.011121166 -0.012704817 -0.0031121178 -0.00696199 -0.018904148 -0.007392916
0.009955164 0.0047043925 0.018223803 -0.0071473685 0.001572784 -0.018098088 0.025542386 -0.019637704
0.016554765 0.033800554 -0.036154326 0.0020469124 -0.013060435 -0.0063750013 -0.02621391 -0.031922527
0.0093106385 -4.545749e-34 -4.8213e-41 -7.3644e-41 -2.3077e-41 4.6268e-41 -8.8816e-41 1.8378e-41
-7.1193e-41 -1.2266e-41 0.005482637 0.012696854 0.011837953 0.0024995983 0.008992043 0.0075870384
-0.0011947474 0.005133922 0.004222268 -0.016097067 -0.011861402 -0.0058286455 -0.009625726 0.002166944
0.040851958 0.011704689 -0.013919173 0.0020629582 -4.8528e-41 -5.5344e-41 2.3203e-41 -5.7656e-41

e_conv5.bias f4 [32]
00000000: 2609 a93c 867f c4b8 94ff 2ba5 80fa 283c
00000010: 2a25 cea4 7409 bd3b 2bb4 033c 05a4 ea3c
00000020: 2267 3b3c b9f3 03b8 c713 2d3d fcc5 e83c
00000030: fe7c 10a1 70e4 efba 4986 d83c 1e67 0c3d
00000040: 891e 2f3b ba61 263a f431 249d d424 eb3b
00000050: 5b58 d33c 37d2 ed3c 6dd7 1f3c 10a0 c4aa
00000060: dbae a13c e177 d4a2 2b03 ac3c ec6b 163c
00000070: 6afd 253d 8f4c 62b9 cd88 43b5 4f74 0080
0.020634245 -9.3697614e-05 -1.4918479e-16 0.01031363 -8.940122e-17 0.005768949 0.008038561 0.028642664
0.011438163 -3.145982e-05 0.04225519 0.028414719 -4.8954524e-19 -0.0018302333 0.02643122 0.034278028
0.0026721081 0.000634696 -2.1731044e-21 0.007176021 0.025798967 0.029030902 0.009755951 -3.492766e-13
0.019736698 -5.758964e-18 0.020997604 0.009181004 0.040524878 -0.0002158156 -7.284223e-07 -4.1724e-41

e_conv7.weight f4 [8, 64, 3, 3]
00000000: 2556 6839 17d3 643b 38c6 b5ba eb93 203c
00000010: 56ce 0a3c 8709 c13b 121a 2b3c fad5 053c
00000020: 9c19 bd3b 5eb2 d73a 3634 3e3b 083f dd3b
00000030: 53fa be3b a705 c93b 8c0c 273c d0ed f23b
00000040: ce05 1c3c a5f7 603c a1fe 0080 5180 0000
00000050: ab13 0080 f61a 0100 1931 0000 33a6 0000
00000060: 0156 0080 be43 0080 fe08 1e05 2fec 48a6
00000070: 698a 76a6 fd1f a3a4 dc3b 1da6 3b4c d4a6
00000080: 98ac cea6 e7f2 d8a4 7c08 62a5 da18 b7a5
00000090: 9aaa fbb9 b179 48ba 8d91 d0bb 5209 c33b
000000a0: 5267 7d3b 1726 29ba 92ad 8a3b d5f0 7a3b
000000b0: 2228 9bba cf2c 23bc eb4e f9bb f829 a8bb
000000c0: b4fe 193a b6e9 b33b 2ef4 c83b 4c21 ad3b
000000d0: 5775 233c 9da0 3b3c f45e 033c 6d5d e03b
000000e0: 201b cf3b 71c9 d33a 7f4c ec3b 9196 9c3b
000000f0: ea0d 8c3b f7e4 b73b 33b5 cd3b 4e18 6ebc
00000100: 078a cfbc 670e 1cbd f50f bbb9 1175 34bc
00000110: 7e1e c4bc 241b 393c 128f 4bbb 3277 88bc
00000120: f781 a2b2 2652 97b1 4861 27b2 ace4 3cb2
00000130: d0bf ecb1 16d2 beb1 1d4b ddb1 50e5 80b1
00000140: 1cb2 3ab2 dd8a 0000 35cc 0000 35c3 0080
00000150: e581 0000 76ab 0000 89b0 0180 3358 0080
00000160: 8ad1 0100 5e9d 0000 fdbc e13a 57fd 8bba
00000170: fb53 f4b9 6d5e d93a 9bdf 41ba f1c4 03b9
00000180: 1899 d8ba 9336 8fbb 247a 61bb b759 e5bb
00000190: 8399 b5bb 5e2b 24bc 73b6 ffba b4c7 eb39
000001a0: f2d7 a5bb 7706 39bb d2b5 abba 60dc cdbb
000001b0: 4daa 8b3a b821 be3b 4069 983b 1a1d 173a
000001c0: 4ca0 b73b 4b8f 8c3b f858 e3bb cf1c 1bbb
000001d0: d39d 59bb a4fa b3bc e944 c5bc 0518 1cbc
000001e0: 5a0d a1bc c7fa b7bc 77eb f7bb 8022 25bb
000001f0: 662c b0bb 097b 363c 3b0b a0ba 964e 993b
00000200: 8443 3e3b e12d 2b3a b3d7 a13b 2633 b03b
00000210: ea46 223b 1576 033c d3e4 ef3b b5a9 5fbb
00000220: 0f3e 05bb e7ce 4dbb e0e3 153b 7f22 4e3a
00000230: 48ed 023a f39d ee3a 8a38 023a 978a 623a
00000240: 732a 0080 bf5b 0000 e2fd 0180 3962 0080
00000250: 63d9 0080 c2bb 0080 7b64 0100 230f 0000
00000260: d082 0100 7739 0f3c fc37 483d 7e1a 903c
00000270: 9f3b 1d3d b892 9f3d ce4c 443d 0a66 fdbb
00000280: 8c35 043d fb5e bc3a c80c 0000 854b 0000
00000290: 3171 0000 4608 0200 453e 0000 54aa 0180
000002a0: 8622 0080 cde7 2909 f9ec 0000 8f64 2fbc
000002b0: 9dd0 2bbb d3a4 12bc 2bfc 1ebc 2577 29bb
000002c0: 2088 2bbc 9acf 83bc 705b 2bbc 8e65 8dbc
000002d0: effc 4dbb f518 303b c905 d2b9 824a 233a
000002e0: 192d d23b cdb2 613b ad17 17bb 399d 653b
000002f0: cf4a 8539 cfac 0000 6f31 0180 e864 0000
00000300: 1f12 0180 16f4 0080 a504 0000 5f3f 0000
00000310: 9117 0000 22d7 0000 4fd6 12bb 8ced 3ab9
00000320: 2b07 d0bb 5d1b bd3b c40d fd3b 1186 cf3a
00000330: dca2 7f3b bd1c c33b 259b 37b7 3746 0100
00000340: b4ff 0080 d1ec 0080 6607 0080 ac2f 0100
00000350: 6524 0000 99d8 0080 1f2a 0180 61a4 0000
00000360: 8d04 5a15 c75f dc16 d816 5896 8a96 dd17
00000370: cc4b 6716 a2ba 1d17 e6a2 6b16 8627 af17
00000380: 7049 a416 97a1 a93b 9f5d 113c 0dcf 1c3b
00000390: 6bbc 5c3b 1aff e53b 3fa3 cd3a 1aba edba
000003a0: 78bd 0c3b 6971 88bb e79b 803b 7be9 ef3b
000003b0: 6099 573d 614d 30bd 2b1a 1ebd a0f3 1d3b
000003c0: 9877 50bd 8c5d 2dbd d1d9 dc3a b633 ae3b
000003d0: 542b bc3b 47eb 6d3b f59e 373c 5f63 343c
000003e0: 3506 303c 3816 f93b 1be7 363c ba26 0e3c
000003f0: 8e53 adbc 8cd2 c23c acb2 a3bc 248b 823c
0.00022157335 0.0034915858 -0.0013868278 0.009800891 0.008472046 0.0058910283 0.010443227 0.008168692
0.005770875 0.0016456356 0.002902282 0.0067518987 0.005828181 0.006134707 0.0101958625 0.0074136034
0.009522868 0.013730918 -9.1344e-41 4.6031e-41 -7.056e-42 1.01507e-40 1.7613e-41 5.9621e-41
-3.0852e-41 -2.4301e-41 7.430776e-36 -6.970903e-16 -8.5535976e-16 -7.074417e-17 -5.455144e-16 -1.4731117e-15
-1.4340903e-15 -9.408656e-17 -1.960525e-16 -3.176228e-16 -0.0004800156 -0.0007647528 -0.0063650073 0.005952039
0.003866632 -0.0006452514 0.004232117 0.003829052 -0.0011837522 -0.009959414 -0.0076082847 -0.005131956
0.00058744405 0.005490507 0.006132624 0.0052835103 0.0099767065 0.011451867 0.008018244 0.0068470747
0.006320372 0.0016158057 0.0072112675 0.004778691 0.0042741196 0.0056120115 0.006277704 -0.014532162
-0.025334371 -0.038099673 -0.00035679308 -0.011014239 -0.023940321 0.011297975 -0.0031060618 -0.0166584
-1.8918383e-08 -4.4040176e-09 -9.742799e-09 -1.0995034e-08 -6.8903105e-09 -5.553612e-09 -6.440486e-09 -3.75136e-09
-1.0867122e-08 4.9815e-41 7.3256e-41 -7.0027e-41 4.6597e-41 6.1509e-41 -1.55164e-40 -3.164e-41
1.67004e-40 5.6453e-41 0.0017222461 -0.001068036 -0.00046601877 0.0016583927 -0.00073956855 -0.000125665
-0.0016525118 -0.0043705194 -0.0034405077 -0.0069992202 -0.0055419817 -0.010020105 -0.001950933 0.00044971483
-0.005061143 -0.0028232613 -0.0013100451 -0.0062823743 0.0010655612 0.0058023594 0.0046512187 0.00057645293
0.0056038257 0.004289543 -0.006938096 -0.0023668294 -0.0033205643 -0.0219701 -0.02408071 -0.009527211
-0.019659687 -0.022458447 -0.0075659114 -0.0025197566 -0.0053763865 0.011137732 -0.0012210378 0.0046785576
0.0029031942 0.0006529969 0.0049390434 0.005377191 0.0024761506 0.008023758 0.007320979 -0.0034128253
-0.002033118 -0.003140384 0.002287142 0.00078634167 0.0004994464 0.0018205032 0.00049675314 0.00086418673
-1.5228e-41 3.2912e-41 -1.82911e-40 -3.5236e-41 -7.7984e-41 -6.7355e-41 1.27881e-40 5.43e-42
1.38762e-40 0.008741728 0.048881516 0.017590757 0.038386937 0.07791656 0.04792481 -0.0077331113
0.03227763 0.0014371568 4.585e-42 2.7091e-41 4.0605e-41 1.86639e-40 2.2338e-41 -1.52938e-40
-1.2385e-41 2.0451627e-33 8.501e-41 -0.010705127 -0.0026216873 -0.00895043 -0.009703676 -0.002585837
-0.010469466 -0.016090203 -0.010458812 -0.01726034 -0.0031431278 0.0026870344 -0.00040058632 0.0006229059
0.0064140675 0.003443885 -0.0023054883 0.003503634 0.00025423474 6.1992e-41 -1.09569e-40 3.6198e-41
-9.8336e-41 -8.7562e-41 1.666e-42 2.2733e-41 8.454e-42 7.7175e-41 -0.002240557 -0.00017826835
-0.0063485107 0.005771084 0.0077225883 0.0015832802 0.0039006984 0.0059543536 -1.0943772e-05 1.17024e-40
-9.1729e-41 -8.4954e-41 -2.654e-42 1.08937e-40 1.3056e-41 -7.77e-41 -1.06946e-40 5.8968e-41
4.402834e-26 3.560336e-25 -1.7455549e-25 1.4319792e-24 1.8683949e-25 5.0965e-25 1.903455e-25 1.1319087e-24
2.6541975e-25 0.0051767337 0.008872419 0.0023927123 0.0033681642 0.007018936 0.001568891 -0.0018137128
0.0021475237 -0.00416391 0.003924835 0.007321534 0.052636504 -0.043042544 -0.038599174 0.002410151
-0.050895303 -0.04232554 0.0016849582 0.005316223 0.00574247 0.0036303566 0.011207332 0.01101002
0.010743667 0.0076015256 0.011163498 0.008676225 -0.021158006 0.023782037 -0.019982658 0.015935488

e_conv7.bias f4 [8]
00000000: 6ab7 973c 56ee a33b 9c40 493d e53e fa3c
00000010: 30b1 1f3c 4bb6 903c 4691 aa3b ec69 aabb
0.018520076 0.005002777 0.049133882 0.030547569 0.009746835 0.017665049 0.005205306 -0.005200615

e_conv8.weight f4 [8, 64, 3, 3]
00000000: a7bb 3f3d ecd6 1c3d 0e2f 373b e8f1 a5bc
00000010: 68c0 10b9 5597 233c ba35 b13b d7a9 353c
00000020: c0aa e5bc d0d7 78bc ac58 fe3b ca25 0bbc
00000030: ac67 583c 4503 fb3c ccbb a43c 24bc a4bc
00000040: 8470 2b3c 5e7a 7e3c dd16 94b0 3531 a32e
00000050: 95b3 c6af 54cc 012e 8d31 0d2f dc1f d2af
00000060: 83e2 302d e0f0 5c2d f431 922f d964 5f28
00000070: 4b0f a328 717e 1c29 6ba4 3b28 4883 b426
00000080: 6a8c 4929 f391 8e28 153f 8c28 fae9 a028
00000090: 0419 6bbb a5e3 323c 72ff aabb d230 0ebd
000000a0: 2eba 033b 88c0 1c3d d8a4 e6bc 60be 863c
000000b0: a139 913c 3f78 d2ba d276 c33c 7c53 1e3d
000000c0: 35ea 6a3d 0c35 1fbc fc2e 8f3c 6bfb 4ebc
000000d0: ee59 013d 0353 ce3c 8bb2 b53c c560 4e3c
000000e0: e41e cfbb c81d 743c 8b4e 1e3c fdd8 e9bc
000000f0: de99 4f3c 83ed 163d b26f 13bd f390 063c
00000100: 3448 043b ed05 8a3b d0fb 08bc 3844 3c3b
00000110: 24de 5ebb 60af 0fbb 6a26 71bb 88b0 9d3a
00000120: e8ac a034 0f1d 6835 b1bf b634 5285 3834
00000130: b1e2 8b33 3625 f534 38e5 b832 3562 aa34
00000140: e12c 6635 ea83 0080 4d5f 0080 7535 0080
00000150: 3f61 1602 1a29 0000 8f51 0000 8929 5384
00000160: be07 0000 b32c 0000 8931 f23a f45a 563c
00000170: 2f9d 853b fbc1 0d3c 1b2a bf3c 3a39 573c
00000180: abe1 00bb 3fc2 dfb9 9430 baba 877e b43b
00000190: 1ef0 77bc 614a 543c 1fc9 943c b655 3dbc
000001a0: 48c7 f1b8 50d1 ca3c 9915 d03b dc1a c03c
000001b0: b01d 3a3a 70dd dc3b e6ba b83a ac9f a03c
000001c0: 067a f73c 7f05 8e3c 7653 14bb e5c0 35bb
000001d0: 0d29 8ebb 655a ef3a d468 0e3c 18f5 913b
000001e0: 6026 94bb c195 bb3b 08f4 7cba c12a b6bb
000001f0: 184e b23a dc14 04bc c502 f23c 36c2 333c
00000200: 98b1 e9ba e8f3 08bc 1ff6 83bc 4ae6 4d3c
00000210: 5b79 91bc 625a 063c d9c0 343c f499 5a3d
00000220: b781 d53c 9a01 223c c806 1e3d 6d5e be3c
00000230: 6897 353b 6fb5 afbc 0682 83bc d970 6139
00000240: fd9b 0080 0eab 0080 b290 0000 74e0 0080
00000250: eb76 b297 9c0a 0080 79f7 0000 d24a 0000
00000260: c1c4 0000 0d23 a23a 768e 1b3b 8630 54bc
00000270: 9274 9b3b de0b 0dbb 3d1d ec3b 05cc 34bb
00000280: 309a 523c 285d d2bb 7d7e 0000 fe90 0000
00000290: 732b 0080 5d9e 0080 cea1 0000 f5da 0000
000002a0: 1222 0000 cb34 0000 1225 0000 5e35 86b9
000002b0: 8b91 363c 86f2 00bc ef46 72bb 8c74 cc3c
000002c0: 1ffb 0dbb d70f 70bc dca3 2dbc 240c bb3c
000002d0: e478 beba 8879 563a bac6 d0ba fc9f 003b
000002e0: 27d2 a83b 1607 ab3a 3943 1e3b 4cac 9f3b
000002f0: aca0 0d3b 141b 611f 339d 6b1f 7b31 641f
00000300: 8adc dd24 4d1f c820 df84 401f b0c9 3b1f
00000310: 18e8 821f 9f3a 1222 3f42 56ba 1688 083d
00000320: f534 20bc 1fff 9d3c 3c55 583d 74bb 8e3b
00000330: c5ab 813b 4a21 0f3d 0769 bebb 61a7 0607
00000340: 3c33 1c8e dabf cb05 5a65 5a09 274d 1b89
00000350: 1db4 8e07 8c88 3b09 d373 1509 38bc af09
00000360: b2c3 0e1a efb4 1e19 f027 9c18 32f4 381a
00000370: 5d9d 0999 274b bf99 fd09 0699 6829 6919
00000380: 3208 7a19 e0a8 c6bc 950b 24bc 3a64 a43c
00000390: db11 4a3b 9018 bc3b 9f4c c03b 9ecb f5bb
000003a0: a82e 393c 4da1 f43c 0c5c 4bbb 2695 4e3b
000003b0: ba88 73bb 530f 7e3a c65d 963b fb81 7dbb
000003c0: d9e1 893a ec75 863b be74 74bb a2a9 e5bc
000003d0: c8d0 c73a 0909 74bc 4874 843c e89b 29bc
000003e0: 6a78 46bb b631 033c 1814 013d 9dad 8fbc
000003f0: 4cfa 06bb 9fc6 153c 0826 f0bb e7e0 903c
0.04680982 0.038290903 0.002795163 -0.020256951 -0.00013804587 0.009984811 0.005408016 0.011087856
-0.028035522 -0.015188172 0.0077620354 -0.008492896 0.013208311 0.030641207 0.02010908 -0.020109244
0.0104638375 0.015532104 -1.0774915e-09 7.421123e-11 -3.614359e-10 2.9512684e-11 1.2841479e-10 -3.8221415e-10
1.0054737e-11 1.2559037e-11 2.659274e-10 1.24008546e-14 1.8103268e-14 3.474863e-14 1.0416238e-14 1.2525593e-15
4.4752755e-14 1.5828462e-14 1.557048e-14 1.786504e-14 -0.0035873065 0.0109185325 -0.0052184397 -0.034714527
0.0020099985 0.03826955 -0.028154776 0.0164482 0.017727675 -0.0016057565 0.023860369 0.038653836
0.057352263 -0.009717237 0.017478459 -0.012633185 0.031579904 0.025186067 0.022179862 0.012596314
-0.006320821 0.0148996785 0.009662281 -0.02854585 0.012670962 0.036847603 -0.035995193 0.0082132695
0.0020184638 0.004212132 -0.008360818 0.0028727185 -0.0034006918 -0.00219246 -0.0036796578 0.001203076
2.9928128e-07 8.646902e-07 3.4039616e-07 1.7184837e-07 6.513927e-08 4.566188e-07 2.1524656e-08 3.1736423e-07
8.5746984e-07 -4.7322e-41 -3.4187e-41 -1.9177e-41 1.1048168e-37 1.4744e-41 2.9258e-41 -2.4822003e-36
2.777e-42 1.6035e-41 0.0018477897 0.013083208 0.0040775756 0.008652206 0.023335507 0.0131362025
-0.0019665759 -0.000426786 -0.0014205151 0.0055082473 -0.015132932 0.012957186 0.018162308 -0.01155608
-0.000115288945 0.024758011 0.006350231 0.023450308 0.00070997607 0.0067402646 0.0014093786 0.019607387
0.030209552 0.017336605 -0.0022632754 -0.0027733382 -0.0043383897 0.0018261193 0.008691985 0.0044542663
-0.004521176 0.005724639 -0.00096494006 -0.005559296 0.0013603596 -0.008061614 0.029542336 0.010971596
-0.0017829416 -0.008358933 -0.01610857 0.012567112 -0.017758062 0.00820026 0.011032307 0.053369477
0.02606283 0.009888077 0.038580686 0.023238385 0.0027708653 -0.021448819 -0.016053211 0.00021499711
-5.5958e-41 -6.1363e-41 5.1907e-41 -8.0519e-41 -1.1533e-24 -3.806e-42 8.8776e-41 2.684e-41
7.0582e-41 0.0012370065 0.0023736036 -0.012951022 0.004744121 -0.0021521966 0.007205634 -0.0027587425
0.012854144 -0.0064197965 4.5375e-41 5.2013e-41 -1.5587e-41 -5.681e-41 5.8045e-41 7.8547e-41
1.2222e-41 1.8939e-41 1.3298e-41 -0.00025598233 0.011143099 -0.007870322 -0.003696855 0.024957918
-0.0021664572 -0.014652214 -0.010598149 0.022832938 -0.0014531878 0.0008181562 -0.0015928366 0.0019626608
0.0051520052 0.0013048376 0.0024148955 0.0048728343 0.002161066 4.7668002e-20 4.9893218e-20 4.8321807e-20
9.621708e-17 3.390203e-19 4.076749e-20 3.9765622e-20 5.544111e-20 1.9817723e-18 -0.00081733236 0.033332907
-0.009778251 0.01928669 0.05281566 0.0043558422 0.003957244 0.034943856 -0.00581086 1.0130228e-34
-1.9253153e-30 1.9160503e-35 2.628845e-33 -1.8693723e-33 2.1471646e-34 2.257351e-33 1.7989683e-33 4.2306718e-33
2.9522993e-23 8.204948e-24 4.036538e-24 3.8247568e-23 -7.114513e-24 -1.9779291e-23 -6.929655e-24 1.20541796e-23
1.2926352e-23 -0.024250448 -0.010012527 0.020067323 0.0030833397 0.0057402328 0.005868509 -0.0075010797
0.011302628 0.02986207 -0.0031030206 0.0031522005 -0.0037160353 0.00096916145 0.0045888154 -0.003868221
0.0010519578 0.004103413 -0.003730103 -0.028034989 0.0015244717 -0.014894732 0.016168728 -0.010352112
-0.0030284175 0.0080074575 0.031513304 -0.01753884 -0.0020595966 0.009141593 -0.0073287524 0.017685367

e_conv8.bias f4 [8]
00000000: cea6 efbc cf6e 4abb d8d4 b73a 24e2 04bc
00000010: 9400 003d 1ecc bf3b 9d40 05bc 4fd0 983c
-0.029254343 -0.00308888 0.0014025224 -0.008110557 0.03125055 0.00585319 -0.008133081 0.018654017
