snapshots/Epoch146.pth (torch, 304045 bytes, 14 tensors)

e_conv1.weight f4 [32, 3, 3, 3]
00000000: 8368 04b0 a50e 04b0 b7cd 02b0 ab82 05b0
00000010: 9374 05b0 6e59 03b0 f067 04b0 0cd2 03b0
00000020: 161f 02b0 77aa deaf 66b6 ddaf 3e7b dcaf
00000030: db6f dfaf 1630 dfaf d893 dcaf 1820 deaf
00000040: 3b70 ddaf 10a9 daaf 467c efaf f2c3 efaf
00000050: 1946 eeaf 240e f0af 1697 f0af b109 eeaf
00000060: b711 eeaf cd0b eeaf 6678 ebaf 5d94 0d3c
00000070: c233 ab3b 30af 2539 2473 b23c 1f6d 823c
00000080: 9b71 d23c dc01 4f3d c5e3 1e3d a334 6e3d
00000090: 47b7 df3b 5c7e eebb 615f 8a3c 8a9f 023c
000000a0: 7513 0e3c 6701 993c 29ce 2e3d 2b64 1c3d
000000b0: 2186 393d 274b 5dbc c8a5 8fbc ac85 d0bc
000000c0: 9dd7 33bc 258d 88bc 70e6 6abc 160b 923a
000000d0: 1895 6abb 3593 be3c 7a1a a4bc c98b 25bd
000000e0: 6033 e6bc ddf0 22bc 8911 fabc 1558 ecbc
000000f0: 9d7d 0a3b 77a9 7dbc f218 a3bc b2eb 683b
00000100: c2c2 c83b bbc9 513b 8d6e 133c dbfb eb3b
00000110: 676e 8a3b 630e 323d 30ee ac3c 2687 b1bb
00000120: 984d 2b3d 05ea 253d 542a 1f3d f9cd 4e3d
00000130: 93e0 193d 8ad2 343d d712 6f3d f89a 173d
00000140: d2d5 123d dcf2 86bc 660e 413b 8004 5e3c
00000150: ff60 05bd be6f 40bc f8e7 323c 00f8 12bd
00000160: cb69 62bc d819 f33c e6c1 f7bc e46a f1b9
00000170: f95c 663c 58d8 d8bc 2d0a 25bc 12cd 3d3c
00000180: 12a2 2abd 2b30 f5ba ef43 ed3c 3c4a 0abc
00000190: 39e2 003b 33e1 d73b de2f 6fbc d5ec 623b
000001a0: 149c 0d3c 82bb f0bc 7f7d 33b9 49dd f43c
000001b0: 0a0e 103d e206 0e3d dc5a af3d 96ba 113c
000001c0: 6fe6 e43b 8bd8 4a3d dba8 16bb 20bd a23a
000001d0: 7bd6 313d cdd1 f53c 5ac6 f23c cfa6 9c3d
000001e0: 4050 203a 5684 dcba 3f8e 123d 972b 05bc
000001f0: 8daa 1b3b ffd2 253d 2765 793c ac2d 203c
00000200: 295a 4c3d 10eb 50bc 1722 5bbc 4194 913c
00000210: 39aa c4bc 337a 6bbc bfc8 893c ffbd 0000
00000220: 158c 0000 7263 0000 4c75 0000 fa38 0000
00000230: e115 0000 866f 0000 ee42 0000 fd25 0000
00000240: e721 0080 d559 0080 5763 0080 783e 0080
00000250: c471 0080 0d5a 0080 f057 0080 4960 0080
00000260: d46a 0080 e17e 0000 246a 0000 d374 0000
00000270: f339 0000 b711 0000 265d 0000 e073 0000
00000280: 1f59 0000 fc8b 0000 518d 8f3d 83ac c13c
00000290: 7f4c c8bc dc12 4b3d 01bb 8b3c 412b 0fbd
000002a0: fa1a 2f3d b373 a8b8 38d1 42bd 9d3e 793d
000002b0: c95d c53c d075 22bd bba2 233d 1934 1f3c
000002c0: 9271 ecbc dcc6 ea3c 27ed bfbc afdf 8bbd
000002d0: 55a9 013d fc24 dcba 2c04 fabc 3e14 a53c
000002e0: 32d8 3d3b 2cd7 cfbc 7bc4 e53c 67da 93bc
000002f0: d3f0 7abd 3851 feb9 a834 01ba e944 04ba
00000300: e525 fdb9 8d70 01ba 9bbd 03ba a557 00ba
00000310: 0e8e 02ba df80 05ba 6ed9 0dba 25c2 0fba
00000320: 72a7 12ba bb2b 0cba afa1 0eba 3596 10ba
00000330: ac5a 0cba b3ff 0dba a3a0 10ba 761c 00ba
00000340: 751b 02ba 5765 04ba 6078 fdb9 b04c 01ba
00000350: 48d8 02ba c565 fcb9 3ff9 ffb9 181e 02ba
00000360: 92ba 11b9 f275 10b9 2fd2 0fb9 619a 16b9
00000370: c22e 16b9 eb3b 14b9 16f4 1db9 1b9c 1ab9
00000380: aa8a 1ab9 dacf adb8 0c23 aab8 71f3 a7b8
00000390: 0c6f adb8 c331 aab8 e9c6 a5b8 254a b4b8
000003a0: 0b63 adb8 39a7 a8b8 28a2 3fb8 5c10 3fb8
000003b0: 2ee3 3ab8 6129 3db8 cbf0 3cb8 4fd2 31b8
000003c0: 11fd 3fb8 b186 3ab8 9c52 38b8 00e6 84bd
000003d0: 4db9 17bd 163c 7dbd ecc0 04bd b9e9 8bbc
000003e0: b847 9cbc b11a 17bc b6a2 873c 27be 5d3c
000003f0: 7993 6abd 0079 b2bc 59a7 35bd 3ae0 a2bc
-4.816984e-10 -4.804213e-10 -4.7586063e-10 -4.857081e-10 -4.855078e-10 -4.778461e-10 -4.8169024e-10 -4.7956017e-10
-4.73379e-10 -4.0502687e-10 -4.0329268e-10 -4.0105336e-10 -4.0642942e-10 -4.059763e-10 -4.0122816e-10 -4.040437e-10
-4.027941e-10 -3.9774095e-10 -4.3562148e-10 -4.3613074e-10 -4.3341755e-10 -4.3665793e-10 -4.37631e-10 -4.3298834e-10
-4.3304535e-10 -4.3300333e-10 -4.28318e-10 0.00864133 0.005224676 0.00015800889 0.021783419 0.015921174
0.025688937 0.050538883 0.038791437 0.058155667 0.0068272683 -0.007278247 0.016891183 0.007972607
0.008671631 0.018677427 0.04267708 0.038181465 0.04529393 -0.013506687 -0.017535105 -0.025454365
-0.010976699 -0.016668865 -0.014337167 0.001114222 -0.0035794433 0.023263553 -0.020032156 -0.040416513
-0.02810067 -0.009945122 -0.03052594 -0.028850595 0.0021132 -0.015482298 -0.019909356 0.0035540876
0.0061267326 0.003201111 0.008998525 0.0072016544 0.0042245868 0.04347075 0.02110967 -0.0054177223
0.041822046 0.04050638 0.038858727 0.0504894 0.037567686 0.0441461 0.058367576 0.037013024
0.035848446 -0.016473226 0.0029458045 0.013550878 -0.032563206 -0.011745391 0.0109195635 -0.035881042
-0.013819168 0.02967541 -0.030243825 -0.00046046742 0.014060252 -0.026470348 -0.010073227 0.011584537
-0.04165847 -0.0018706372 0.028963057 -0.00844055 0.001966609 0.006588125 -0.014598815 0.0034626026
0.008643169 -0.029386286 -0.00017117521 0.029890673 0.03516964 0.034674533 0.08562252 0.008894583
0.0069854776 0.049522918 -0.002298883 0.0012415983 0.043417435 0.030007267 0.029635597 0.07649004
0.0006115474 -0.0016824107 0.035780188 -0.008128068 0.002375278 0.040484425 0.0152218705 0.009776514
0.04989067 -0.012751356 -0.013374827 0.017770888 -0.02400695 -0.014372396 0.016819356 6.8158e-41
5.0252e-41 3.5674e-41 4.2078e-41 2.044e-41 7.849e-42 4.0007e-41 2.401e-41 1.3628e-41
-1.2162e-41 -3.2226e-41 -3.5636e-41 -2.241e-41 -4.0811e-41 -3.2304e-41 -3.1546e-41 -3.454e-41
-3.8323e-41 4.5516e-41 3.8076e-41 4.1909e-41 2.0788e-41 6.355e-42 3.3415e-41 4.1568e-41
3.197e-41 5.0217e-41 0.07009376 0.02364183 -0.024450539 0.049578533 0.017056944 -0.03495336
0.042750336 -8.032415e-05 -0.047562808 0.06085073 0.024092572 -0.039663136 0.039950114 0.009717011
-0.028862748 0.028659277 -0.023428513 -0.06829774 0.03165563 -0.001679569 -0.030519567 0.020151254
0.0028967974 -0.025371157 0.02804779 -0.018048478 -0.061264824 -0.00048507168 -0.0004928806 -0.0005045669
-0.00048284154 -0.0004937731 -0.0005025507 -0.00048958726 -0.0004980274 -0.00050927507 -0.00054111227 -0.0005483947
-0.00055944093 -0.00053470925 -0.0005440963 -0.00055155467 -0.00053540873 -0.00054168253 -0.0005517101 -0.00048870535
-0.0004963198 -0.0005050501 -0.00048345607 -0.0004932387 -0.0004991335 -0.0004814101 -0.00048823093 -0.0004963591
-0.0001389778 -0.00013776848 -0.00013715842 -0.00014362625 -0.00014322533 -0.00014136701 -0.00015063616 -0.00014744738
-0.00014738241 -8.287998e-05 -8.11276e-05 -8.008525e-05 -8.269967e-05 -8.1155005e-05 -7.904863e-05 -8.596879e-05
-8.267731e-05 -8.042012e-05 -4.568897e-05 -4.5553184e-05 -4.4557433e-05 -4.509965e-05 -4.504695e-05 -4.2395954e-05
-4.5773635e-05 -4.4471297e-05 -4.3945955e-05 -0.064891815 -0.03704195 -0.06182488 -0.032410547 -0.017079221
-0.019077167 -0.009222672 0.016557079 0.013534105 -0.057269547 -0.021786213 -0.04434905 -0.01988231

e_conv1.bias f4 [32]
00000000: f2d7 97b0 58a8 813d bf3f ab3c fbf1 e63d
00000010: d009 693d a757 05a4 793a 963d 7741 d4ba
00000020: 899d 75ba 712b a63d ac3b 8baf 163e 9db5
00000030: 1c5e e03b 4b48 843d b9ff 9c9c 2306 163e
00000040: 349e f23d 709d c43d 0bde 353e 2bb8 1f3e
00000050: f366 07ba a302 133e d792 64bc 1eb2 ef3d
00000060: 5480 0d33 20f0 c812 9809 e93c 1669 b7b0
00000070: 9ac2 a5b5 41a5 aabc 7a38 d23d b393 f0b8
-1.1048071e-09 0.06330937 0.02090442 0.11276623 0.056894124 -2.8914022e-17 0.073353715 -0.0016193826
-0.0009369483 0.081137545 -2.5326352e-10 -1.1715481e-06 0.006847156 0.06459101 -1.0389317e-21 0.14650778
0.11846581 0.09600341 0.17760484 0.15597598 -0.0005165182 0.14356475 -0.013951025 0.11703895
3.2945835e-08 1.268097e-27 0.028446957 -1.334487e-09 -1.2350094e-06 -0.020830752 0.10264678 -0.00011471603

e_conv2.weight f4 [32, 32, 3, 3]
00000000: ac65 722e b428 192e 8fd2 552e 729c 7e2e
00000010: 19b5 672e 4ec6 712e 2448 632e c96d 7c2e
00000020: f0e2 422e 99d5 b43b fefc 18bc c109 213b
00000030: cc34 07bb 0ecb 47ba 3ec5 8cbb 3597 033c
00000040: 1540 7f3c a905 183a efcd a9bb e495 cebb
00000050: acad b1bb 3b19 ff38 7878 88bb d440 9bbb
00000060: 0711 023b d0b5 1539 8d0b 663a 2fe4 31bc
00000070: 3483 183c f1d5 853c 8ccc f2bb 5e54 00bb
00000080: d16f 53ba c8cd 80bc 1a55 3c3b c424 083c
00000090: 0470 3fba 356e 04bb a567 fbba 1293 b23b
000000a0: f0aa 12bc 1171 4a3b 4030 e63b 4e0a 2dbc
000000b0: a1ee cfbb 8599 0080 ec0e 0000 12ed 0080
000000c0: 334d 0080 4445 0080 fb2f 0080 eec6 0080
000000d0: 5cdf 0080 a712 0080 a404 553b 63f7 923b
000000e0: 50da 16b9 7eaf 393b eca7 8d3b 68cf 1c3b
000000f0: 97e3 ba3b 958d aa3b c93d c03b 417d 6822
00000100: 7869 ad22 7fa2 b822 8667 6121 11c8 9722
00000110: 5b99 aa22 07de 98a1 53ac 8622 370a a222
00000120: 1bc3 c198 1ae8 589b 1690 929b 185a 281b
00000130: 2fd8 659a e32c 749b 8e2b a41b 28c7 071a
00000140: f0f7 939a 68c3 463b 4b07 b03a 4dc1 9b3b
00000150: e2e0 daba f2e8 9fb9 1254 f53a ec4b 843a
00000160: d934 033a 0ac8 b939 572d 8414 6002 4394
00000170: 7172 b212 683e 9094 8834 7c14 50ac 3893
00000180: 8d28 0115 7129 0914 33cd c594 dc73 249d
00000190: 7546 309b b8ef 939e aaeb 131d 3db8 1b1e
000001a0: 8c13 a21e 5ef8 909e 7939 a09e 5591 639e
000001b0: 493e 4539 2623 0e39 aede 0aba 2963 c13a
000001c0: da8d 6a3a 79c6 f638 2423 423b 68b9 213b
000001d0: e3e3 9f3a 8a9c 763a 9a28 2c3b 3ad2 e03a
000001e0: 4943 5d3a b2e4 d73a 7794 a63a 03b0 7f3a
000001f0: 12ab 303b 8af3 083b 4da4 3c99 b20c 6399
00000200: 02dc 0f99 1986 8099 9b6c 1999 42a4 8f99
00000210: 3d08 a597 3a17 1c99 5126 dd97 262e 863b
00000220: 2fd2 093c f2be 463b c2ee 1c3c 172f 323c
00000230: c445 123c 7f9e 9fba f9dc 33bc 48d4 82bb
00000240: 1684 d6bb cb5a febb b0c1 0cbb eb2c 1abc
00000250: d2de 0a3c 4ce1 183c 7189 67bc 2995 003b
00000260: 3c63 bf3a c75c aa3b 87b6 863a ce67 173b
00000270: ce9f 8e38 ce50 7f3b 638a 4f3b e675 363b
00000280: 68b6 b43b cc2b c63b e093 793a e341 5bbc
00000290: 371a 16bc 9108 84ba 4267 933a 9d78 443c
000002a0: f9a1 b3bc a4bc 3c3c 9036 bc3c a041 353c
000002b0: 20e6 3f3c 3ec8 023b 8491 873b 74df ce3b
000002c0: 6379 b53a 5946 87bb 08f1 b8ba 9b70 7e3c
000002d0: 0135 85b8 b32e 90b6 baae dfb6 2912 a3b7
000002e0: bfc9 7eb8 161a 17b7 9ddf 40b8 2d0c 47b8
000002f0: 3eef 27b7 fd7c 37bc 2434 1b3c cd8a 4c3c
00000300: b04b 30bc 8faa f23c 1b89 a33c d12b 053c
00000310: 646f 9b3c 9a95 423c 56fb 833a 21de fa39
00000320: 6936 6ebb 994b b4b9 2623 ab39 2aca fdba
00000330: 64f4 26bb fa7f 043b 04a6 43bb fe90 f23b
00000340: 7823 d73b 4d39 233c 43c9 ab3b 907d 0d3c
00000350: a86b 663b 0718 31bc 0ab1 213c 9e4a 543a
00000360: d8b2 5230 46c4 242f 19b1 16b0 0051 55b0
00000370: f7bc 562f 49f9 03b0 2282 2d2f efda c4ae
00000380: deef 8c2f e311 9e90 261b a890 db0d 9c90
00000390: 5c95 a690 29bb b890 c1e5 a890 4bd4 8290
000003a0: 984f 9790 a584 8890 b029 0e3b 5f53 303a
000003b0: b7f0 0d3b 65b4 2fbb ec6a 82bb 24ab 2bbc
000003c0: a876 263c b2a1 b2bb 50b4 5cbc 3118 0000
000003d0: 4128 0100 60d8 0080 42f1 0000 d005 0100
000003e0: 21d9 0000 121c 0080 1c2c 0080 75fd 0000
000003f0: b7aa 0c2a 5636 94ab 0ba6 102c f59a b42a
5.5114732e-11 3.4824324e-11 4.8617606e-11 5.7891865e-11 5.2684166e-11 5.4973186e-11 5.1677898e-11 5.7395675e-11
4.4312054e-11 0.005518627 -0.009337662 0.0024572464 -0.0020630835 -0.0007621505 -0.004295974 0.008031656
0.015579243 0.0005799183 -0.00518202 -0.0063044894 -0.0054223146 0.00012164047 -0.0041647516 -0.0047379527
0.0019846575 0.00014277478 0.0008775525 -0.010857626 0.009308625 0.016337367 -0.007409638 -0.0019581537
-0.0008065673 -0.015723124 0.0028737248 0.008309547 -0.00073027634 -0.002020729 -0.0019180669 0.005449661
-0.0089518875 0.0030890147 0.007024795 -0.010561539 -0.0063455855 -5.5072e-41 5.353e-42 -8.5045e-41
-2.7694e-41 -2.4848e-41 -1.7212e-41 -7.1363e-41 -8.0126e-41 -6.691e-42 0.0032503987 0.004485057
-0.00014386442 0.0028333361 0.0043229964 0.0023927335 0.0057034004 0.005204866 0.0058667404 3.1508172e-18
4.7003413e-18 5.004535e-18 7.6369977e-19 4.114046e-18 4.6240964e-18 -1.0358691e-18 3.650323e-18 4.3921003e-18
-5.0086337e-24 -1.7942097e-22 -2.4246787e-22 1.3925745e-22 -4.7530722e-23 -2.019771e-22 2.715967e-22 2.8078223e-23
-6.119834e-23 0.0030328874 0.0013429908 0.004753268 -0.00166991 -0.000305004 0.0018717072 0.0010093427
0.00050051283 0.0003543499 1.3346477e-26 -9.8454525e-27 1.1261591e-27 -1.4564899e-26 1.2733109e-26 -2.3309022e-27
2.608333e-26 6.924905e-27 -1.9972853e-26 -2.1765117e-21 -1.4581145e-22 -1.5663376e-20 1.9577123e-21 8.243731e-21
1.7160502e-20 -1.5349315e-20 -1.6964429e-20 -1.2047334e-20 0.00018810587 0.00013555269 -0.0005297464 0.0014754283
0.0008947529 0.000117671625 0.0029622996 0.002467716 0.0012198653 0.00094074814 0.0026269318 0.0017152496
0.0008440507 0.0016471355 0.0012709041 0.0009753706 0.0026957435 0.0020897114 -9.7525525e-24 -1.1738189e-23
-7.437357e-24 -1.3289051e-23 -7.931847e-24 -1.4852197e-23 -1.0664955e-24 -8.0697015e-24 -1.4291463e-24 0.004094857
0.008411928 0.0030326215 0.009578409 0.010875485 0.008927766 -0.0012177973 -0.010977977 -0.003992591
-0.0065465076 -0.007762288 -0.0021477751 -0.009410123 0.008475976 0.009331059 -0.01413189 0.0019620156
0.0014601718 0.005199048 0.0010277786 0.0023102644 6.8008536e-05 0.0038958075 0.0031668178 0.002784127
0.0055149086 0.0060477015 0.0009520631 -0.013382408 -0.009161524 -0.0010073354 0.0011245983 0.011991647
-0.02192782 0.011519585 0.022975236 0.0110630095 0.011712581 0.001995578 0.00413722 0.006313259
0.001384538 -0.004128259 -0.0014109919 0.015529777 -6.351807e-05 -4.296971e-06 -6.6662587e-06 -1.943957e-05
-6.074621e-05 -9.006375e-06 -4.5984623e-05 -4.7456637e-05 -1.0009679e-05 -0.011199233 0.0094728805 0.012484265
-0.010760233 0.029622344 0.019962838 0.008128122 0.018974014 0.011876488 0.0010069411 0.00047849215
-0.003634835 -0.000343886 0.0003264185 -0.0019362618 -0.0025475258 0.0020217882 -0.0029853592 0.0074025383
0.0065655075 0.009962392 0.005242498 0.008635893 0.0035159383 -0.010808951 0.00986887 0.0008098277
7.6651707e-10 1.4985443e-10 -5.4821353e-10 -7.7604057e-10 1.953032e-10 -4.801178e-10 1.5780491e-10 -8.9519385e-11
2.5636288e-10 -6.234757e-29 -6.6306145e-29 -6.15525e-29 -6.570558e-29 -7.286357e-29 -6.661831e-29 -5.160305e-29
-5.968163e-29 -5.384691e-29 0.0021692328 0.00067262904 0.002165837 -0.0026810404 -0.0039800312 -0.010477815
0.010160126 -0.0054514045 -0.013470724 8.678e-42 1.06276e-40 -7.7621e-41 8.6547e-41 9.392e-41
7.7891e-41 -1.007e-41 -1.5823e-41 9.0923e-41 1.2493726e-13 -1.0531114e-12 2.0555803e-12 3.2081946e-13

e_conv2.bias f4 [32]
00000000: 5a81 f7bc 5d14 a6aa 3318 4b3d acb0 12ad
00000010: 7581 203d e745 0f3d 7d68 143b 5388 3c3d
00000020: 5077 663d 7edf 153d a53d d4bc c865 9d98
00000030: 0cf7 23a5 7c1a 0bbc 8311 333c 447d 43b6
00000040: b292 023d 4d83 5f3c 72e5 9caf 6772 36bc
00000050: b936 f7ba 9c94 803c 81db 8cb0 79d2 2d3d
00000060: fdbf 9db4 9c14 683d 9753 393d a103 eeaa
00000070: 10b2 8fba 8e01 0c3b f970 56b5 0906 4f3d
-0.030213047 -2.9501653e-13 0.049583625 -8.338368e-12 0.03918596 0.034978773 0.0022645288 0.046028446
0.05626613 0.036590092 -0.0259083 -4.068632e-24 -1.4221699e-16 -0.008490201 0.010929468 -2.9130179e-06
0.03187818 0.013642144 -2.8539265e-10 -0.011135674 -0.0018860913 0.015695862 -1.0248727e-09 0.04243705
-2.938322e-07 0.05666028 0.045245733 -4.227981e-13 -0.0010963101 0.0021363231 -7.988561e-07 0.050542865

e_conv3.weight f4 [32, 64, 3, 3]
00000000: 4eef 16af b790 17af fd6d 29af b21a 13af
00000010: a965 06af 8cdc 1eaf 7390 22af acb5 f7ae
00000020: 235c d6ae 1cc3 35ba cc89 533c 2469 823c
00000030: 6112 f8bb ed47 c13b e6b7 103c 06a6 d1bc
00000040: d43d 18bc 0978 e8bb 0b17 8dbb 758b d63b
00000050: 59df c13b 283d c4bb 07db 9c3b 2dcb 7a3b
00000060: 67ea 67bc a626 afbb 17cc bfbb d5bc 843b
00000070: 8aa2 903b 9019 8f3b 9ed3 5c3b d286 753b
00000080: b478 463b fc2c 0bbc b1cf fcbb 5140 0abc
00000090: cdfd 2dbb 39b6 3f3c f8cd 4f3c 55be 1fbb
000000a0: 211c 1a3c 50b1 0e3c b3b0 95bc a94d 11bc
000000b0: db91 e0bb 4354 0100 bc6b 0100 0d95 0080
000000c0: a15a 0080 5e3a 0180 719c 0000 553f 0180
000000d0: 5e10 0100 c013 0100 7989 3abb 43fc fb3b
000000e0: 82e8 163b e006 c3ba ca6a 433c d5eb fa3b
000000f0: ade5 04bc be17 ec3a b6d6 c7bb 9ba2 d223
00000100: 05ea c023 98c6 a022 8639 8ba1 d2c6 f523
00000110: 056d e823 71bc e0a3 9d5e 88a3 96cc f822
00000120: efaa cb1a 6ffc d21b bbf7 031c 58cb 499b
00000130: df11 521a 85b3 c41b 1b94 b79b ac40 4c9b
00000140: c8eb 209a 4cb5 0d3b 88fa 9a3b 4dd8 2e3a
00000150: c9c6 073b 1e26 163b 82a6 bcba 1f32 c5bb
00000160: 817c c1bb 01b5 cebb 02a4 6115 d2c2 8895
00000170: 18b9 8395 ee31 5915 210b c413 7b09 1d95
00000180: d1ee 4215 f293 fd12 593c e714 4225 e31e
00000190: 6181 b31e e761 4b9d f7cf cb9e b832 331e
000001a0: b688 d11e e8ed 8c1e 7b0d 001e 5a07 e61e
000001b0: 0587 0bbb ad38 dfb8 138d 58ba b5fa dfba
000001c0: 6484 8aba 400a eeba 7595 9f3a 9681 a93a
000001d0: 58f8 de3a a28b cabb 6e7b c1ba d1d0 55bb
000001e0: d75f f7bb 0273 33bb 1993 92bb 6db1 4bbc
000001f0: cbd1 06bc a0d4 2dbc 90c1 9b1b 909c b71b
00000200: fad8 ec1b 1e4f fb1b e504 841b f79b ec1b
00000210: f7ab 991b 861c 731b 646d a01b 1711 51bc
00000220: f50d 123c a218 6d3c 5347 41bb 884a ec3b
00000230: 31c9 183c b4cc 15bd 40f1 95bc 45a8 54bc
00000240: 446c 19bb 611f fd3b 586d 363c eea3 b3bb
00000250: 65d3 023c 203e 653b 90e4 b0bc 3ae4 06bc
00000260: f542 05bc 4b2e b2ba 22c7 5e3b 556d 6f3a
00000270: 38fb 2d39 5f51 d63b c82b 883b b5df 08bc
00000280: 6357 12bb f806 cfbb 48eb 4dbb dcf0 633c
00000290: f4c7 823c 8ec9 21bb 7977 d43b 7e8a 8e3c
000002a0: 93ed 08bd 4954 75bc e74d 1bbc ff44 473b
000002b0: 1a2e e73b fc4c 093c 2bbd 8d39 aff2 723b
000002c0: 83a2 8a3a 9cab 87bc af8d 3bbc d3bd 28bc
000002d0: 66e0 dc34 31fb 7f38 8769 b638 b6b7 6db8
000002e0: 858e 5ab8 2d30 47b8 daad 9d37 60fe 4e38
000002f0: 2967 70b8 b26e 1dbb c56d 0d3c 7a9f e33b
00000300: a97c 90bb 91d4 1c3c f824 3e3c 51da d2bc
00000310: f29f 89bc 1691 f6bb e19e e6bb 9b6f 063b
00000320: 7da3 f33b a73f 1fbc a2f0 863a 466b d73b
00000330: 84d1 83bc 75c5 d6bb febc 11bb f7ae 0ebb
00000340: 4dd8 f13b 0ca5 963b 985a 79ba fabd 083c
00000350: 1766 cd3b 0083 37bc 9432 47bb 3228 bcbb
00000360: 3d30 9330 343d b930 8cdc 7fae 8696 0cb0
00000370: a575 bc2e 5677 2fae a814 ee2f 46df de2f
00000380: bba5 5530 d84f 8d13 6ff3 9313 7d2b 8713
00000390: 75e7 1313 9682 9013 fbfc 7e13 a926 7d13
000003a0: 2056 8513 625f 1913 028d 81bb e885 db3b
000003b0: 3b7f 423c c1fe f1bb c080 863c fc0e 0b3c
000003c0: f5f0 c0bc 502b 24bc d543 08bc 271d 0180
000003d0: c3f2 0080 d32b 0180 d530 0000 1930 0100
000003e0: b9de 0080 5b0c 0080 a6da 0080 81ab 0080
000003f0: ef7e 13ac c81b 79ac eca7 51ac 2b76 4a2c
-1.3727439e-10 -1.3784783e-10 -1.5409536e-10 -1.3379056e-10 -1.2223346e-10 -1.444837e-10 -1.4785133e-10 -1.1264531e-10
-9.74796e-11 -0.00069336756 0.012911271 0.015919276 -0.0075705503 0.005898467 0.008832907 -0.025591861
-0.009292085 -0.0070943874 -0.0043057255 0.0065473863 0.0059165177 -0.0059887357 0.0047868523 0.0038268075
-0.014155007 -0.0053451834 -0.005853187 0.004050831 0.0044139074 0.004367061 0.003369547 0.0037464392
0.0030284347 -0.008494612 -0.0077151884 -0.008438186 -0.0026548982 0.01170116 0.012683384 -0.0024374921
0.0094061205 0.008709267 -0.018272733 -0.008868613 -0.006853325 1.22063e-40 1.30483e-40 -5.347e-41
-3.2512e-41 -1.12774e-40 5.612e-41 -1.14555e-40 9.7707e-41 9.892e-41 -0.0028463288 0.007689984
0.002302677 -0.0014879368 0.011927316 0.007657508 -0.0081114 0.0018012447 -0.0060985936 2.2837112e-17
2.0915793e-17 4.3578356e-18 -9.434233e-19 2.6647157e-17 2.5199662e-17 -2.4365937e-17 -1.478522e-17 6.743715e-18
8.423499e-23 3.4904717e-22 4.366445e-22 -1.6692034e-22 4.3441418e-23 3.2541492e-22 -3.0370521e-22 -1.6895381e-22
-3.3277687e-23 0.0021622954 0.0047295727 0.00066698046 0.002071785 0.0022910903 -0.0014392885 -0.006017938
-0.0059047346 -0.0063081984 4.5567767e-26 -5.5237335e-26 -5.3202505e-26 4.386219e-26 4.948833e-27 -3.1713376e-26
3.936638e-26 1.6003016e-27 2.3348842e-26 2.404997e-20 1.9005872e-20 -2.691744e-21 -2.1579473e-20 9.4866695e-21
2.2185278e-20 1.4921472e-20 6.779051e-21 2.4355238e-20 -0.0021290195 -0.00010644025 -0.0008260768 -0.0017088266
-0.001056802 -0.0018161014 0.0012175279 0.0012932296 0.0017011268 -0.0061811963 -0.0014761516 -0.0032625685
-0.007549267 -0.0027381782 -0.004473102 -0.012432438 -0.0082287295 -0.010609776 2.5767686e-22 3.0375987e-22
3.9183143e-22 4.1575595e-22 2.184073e-22 3.9143715e-22 2.5422856e-22 2.0109705e-22 2.6540472e-22 -0.012760422
0.00891446 0.014471205 -0.0029491975 0.0072110333 0.0093253115 -0.036572173 -0.018303514 -0.012979572
-0.0023410479 0.007724688 0.011134468 -0.0054821884 0.007984971 0.0034979656 -0.021593362 -0.008233124
-0.00813364 -0.0013594119 0.0033993204 0.0009133418 0.00016592152 0.006540462 0.0041556098 -0.008354117
-0.0022329919 -0.0063179694 -0.0031420756 0.013912406 0.015964486 -0.0024686786 0.006483969 0.017400023
-0.033429693 -0.014973708 -0.009479023 0.0030406115 0.0070550563 0.008380171 0.00027034557 0.003707092
0.0010576997 -0.016561322 -0.011447354 -0.010299164 4.1141465e-07 6.1030678e-05 8.698092e-05 -5.6676297e-05
-5.2107982e-05 -4.7490164e-05 1.8796814e-05 4.9351132e-05 -5.7316534e-05 -0.0024022278 0.008632128 0.0069465013
-0.004409392 0.009572164 0.011605494 -0.025738867 -0.0167999 -0.00752462 -0.007037983 0.00205133
0.007435261 -0.009719766 0.0010295103 0.0065740673 -0.016091116 -0.0065543004 -0.0022237892 -0.0021771768
0.0073805214 0.004597312 -0.0009512096 0.008346075 0.0062682736 -0.011200666 -0.0030395137 -0.0057420963
1.0709368e-09 1.3477917e-09 -5.8176172e-11 -5.114561e-10 8.570148e-11 -3.9896385e-11 4.3306625e-10 4.054021e-10
7.7724466e-10 3.5672136e-27 3.734806e-27 3.4121674e-27 1.8668126e-27 3.647948e-27 3.2184036e-27 3.195215e-27
3.3658846e-27 1.9358342e-27 -0.003953577 0.0066993125 0.011871154 -0.0073851054 0.016418815 0.008487459
-0.023552397 -0.010020092 -0.008316954 -1.02293e-40 -8.7086e-41 -1.07557e-40 1.7518e-41 1.0909e-40
-7.9898e-41 -4.432e-42 -7.8436e-41 -6.1524e-41 -2.0960419e-12 -3.540045e-12 -2.9793902e-12 2.8771523e-12

e_conv3.bias f4 [32]
00000000: 841f 263d 9aaf fd3c b52d e7ad da85 363c
00000010: 693e 203d 21ca 4db5 3d9a 34bc 4ab3 92ab
00000020: 3352 0e3d 0d37 b23b fa60 053d a8ad 73b5
00000030: 76e2 d7a9 7dbe 22ba e509 7fa1 603f 38ad
00000040: c243 ce3d ac9c 1bbc 7afb a53d c617 02bc
00000050: 4849 d3ac 486f a33c e379 02bb 4c4c 1abc
00000060: 2ba0 643c 6584 2990 7083 d43b 649e 213d
00000070: 56e6 43b5 6210 7ebc bb58 123d 6571 87bc
0.0405574 0.030967522 -2.6281958e-11 0.011140311 0.03912202 -7.666259e-07 -0.011023101 -1.0423687e-12
0.03474636 0.0054386915 0.032563187 -9.077726e-07 -9.587203e-14 -0.00062081945 -8.6410456e-19 -1.0473261e-11
0.100715175 -0.009497803 0.08104606 -0.007940238 -6.0051165e-12 0.019950524 -0.0019909076 -0.009417605
0.013954203 -3.3431366e-29 0.006485395 0.039457694 -7.2978344e-07 -0.015506836 0.03572915 -0.016533563

e_conv4.weight f4 [32, 64, 3, 3]
00000000: d222 dbba 0f79 ec3b 3481 afbc 0ceb 4b3b
00000010: abc7 7dbb 0206 8bbb 61ae 183c 636b e9ba
00000020: 3ebd f2bb 7937 0000 ab3a 0000 d026 0080
00000030: 9734 0080 bb77 0000 0ea4 0080 9998 0000
00000040: fabf 0080 84b9 0080 ee40 b338 4fb7 f53a
00000050: a097 9f3a 7558 bfba 12f8 2239 587a 8dba
00000060: be8c 7abb 7ca1 30bb f912 afbb 889b 0000
00000070: 2cbb 0000 d1cf 0000 dd05 0000 4d60 0080
00000080: d3ba 0000 35ba 0080 5bc8 0080 202e 0080
00000090: 0151 c9ba f1f2 c4bb b3fe 92bc f013 52bb
000000a0: 4bca f23c fc3f 85ba 0ed2 bfbc 63ef bbbb
000000b0: 7c71 163a 047f 12bb 8ec4 3d39 4523 8abb
000000c0: 1414 dd39 a63b f63a d81f 53bb 59f7 363b
000000d0: 33c3 823b 9205 eaba 3b80 d23a 2511 0e3b
000000e0: 9cd6 b43a 28bf a5bb db69 943a 9f19 a1ba
000000f0: 2f19 92ba e089 3339 80ed b0b9 873b 24bc
00000100: df9a 4cbc f81a 9dbc 5cdf 86bc 42a7 593c
00000110: 6348 cd3b 290a fbbb 5b6a a83b 3a0e e7bb
00000120: d2bb 78bc 39d8 b33b b84e 1d3c c313 efbb
00000130: db24 bc3c c2eb b1bb f34a 9abb 0e27 05bc
00000140: 6e9e 95bc c970 13bc 0dc9 ab39 0645 35bc
00000150: 7f62 7d3c e8b3 d8bb dd5f f13b 5ab0 6b3b
00000160: 5cb3 163b da03 dfbb 1895 bd3b 90f7 65bc
00000170: de93 c3bb 67bd 32bc 11a8 3d3c 1a11 013d
00000180: 4acb 0cbc 0a6d 453c cc0e b03a 47d8 0080
00000190: 4adf 0080 21a4 0080 6298 0000 5ead 0000
000001a0: d478 0000 adcb 0080 2dc3 0080 c14e 0080
000001b0: c2a8 3891 4a6b 6892 2b02 8e91 cbf0 1792
000001c0: 9528 1792 6a01 7292 42ae 2092 f7c6 7192
000001d0: 01bd 7092 311b 1ebc 971d b53c 8d4b de3b
000001e0: f2ec ec3b bf14 5a3c a374 c4bb 3daf 1cbd
000001f0: 0648 aa3c 2020 02bb 15fc 2cbb b0fa 93ba
00000200: 1d6f e5ba 3075 a8ba 0129 89ba 3c5a 4abb
00000210: 9ffb 433a 7e56 13b9 4d85 71bb e407 aa15
00000220: bae9 0116 90c1 cb14 fcf3 2b15 5038 2915
00000230: 54d5 ed13 832d 2295 9ff6 1995 c85b 9395
00000240: 2e21 5a3b c985 1cbd 6d78 9ebc fefc 97bc
00000250: 1a09 c3bc 1921 1e3c 5610 223c 02f2 583c
00000260: 583e c53c f606 893a 2fa3 18ba 65f9 20ba
00000270: 18f2 3939 e624 e5ba c071 00bb b8fd 36ba
00000280: 0aa9 4ebb 18ba 6cbb 155f 0000 e7b9 0000
00000290: 4a98 0080 319d 0080 ec69 0080 9804 0000
000002a0: b21c 0080 1093 0080 9e9f 0000 9d3c 78bb
000002b0: 29b9 bbbb ea0d 3d3b 6230 59bb bb9f 8b3b
000002c0: 474a 72bb 1afa 97b8 ca22 e43b 1357 30bb
000002d0: d75e 3b3a 1dba 3b3a defe 3a3a 8a6d 3d3a
000002e0: 9787 3d3a 963b 3c3a c14b 3d3a 3aec 3e3a
000002f0: 2e08 3d3a f88e 5f3b 865b 6b39 10e1 2dba
00000300: 749f 1d3b ad9d 29ba d3dd 39bb de3a b63b
00000310: e235 1e3b 9b31 d8ba bcb4 a482 f835 b682
00000320: 8ac7 8e82 2e49 5f82 0840 7382 2287 6182
00000330: 12e6 2482 d681 2082 8f6a 1482 acdd 41bb
00000340: 04ad 50bb 3852 14bb 02aa 0fbb bd9b c03a
00000350: 4e29 5f3b 6b77 07bb f1c1 c1b8 7d2e 8dba
00000360: 603e 0a9f e7b8 0a9f d6c2 089f 9bce 0a9f
00000370: 94b5 0a9f b157 0a9f aa53 079f 704f 089f
00000380: deab 049f 2ec7 27bb 2873 d6bb 6c82 acbb
00000390: f2fd 983a 9846 60bb 17d1 d1ba bfb5 ae3a
000003a0: 1d0e 27bb f113 00ba 6111 0b3c 6ed0 3ebc
000003b0: 7409 c4ba b800 38bb 9e30 8cbb a166 d53b
000003c0: 7841 3b3c 13b4 793c 91e5 143c 56ec 0080
000003d0: c10f 0100 55a7 0000 5c33 0100 bc2e 0180
000003e0: 7e52 0080 7462 0000 4f5e 0180 212d 0000
000003f0: 6a8d 00b5 f615 05b5 50ba 04b5 d113 06b5
-0.0016718751 0.0072165797 -0.021423914 0.003111544 -0.0038723748 -0.0042426595 0.009318919 -0.0017808493
-0.0074078133 1.99e-41 2.1046e-41 -1.3923e-41 -1.8866e-41 4.2951e-41 -5.8852e-41 5.4742e-41
-6.8868e-41 -6.655e-41 8.547479e-05 0.0018746647 0.0012175925 -0.0014598506 0.00015541937 -0.0010793908
-0.0038230862 -0.002695172 -0.005342838 5.5794e-41 6.7145e-41 7.455e-41 2.103e-42 -3.4546e-41
6.702e-41 -6.6798e-41 -7.1874e-41 -1.6547e-41 -0.0015359224 -0.006010406 -0.017943716 -0.003205534
0.029637476 -0.0010166164 -0.023415592 -0.005735324 0.00057389564 -0.002235354 0.00018097667 -0.0042156302
0.00042167364 0.0018786087 -0.0032215025 0.0027918427 0.0039905547 -0.0017854443 0.0016059944 0.00216777
0.0013796869 -0.005058188 0.0011323051 -0.0012290961 -0.0011146421 0.00017122133 -0.00033746287 -0.010023958
-0.012488096 -0.019177899 -0.016463928 0.013284506 0.0062647327 -0.0076611233 0.0051396317 -0.0070512565
-0.015181499 0.0054884222 0.009601288 -0.007296057 0.022966793 -0.005429716 -0.0047086417 -0.008126987
-0.018264022 -0.008999058 0.00032765456 -0.01106382 0.015465378 -0.0066132434 0.007366164 0.0035963268
0.002299509 -0.006805879 0.0057855956 -0.014036074 -0.005968555 -0.010909415 0.011575715 0.03151045
-0.00859339 0.012049923 0.0013432144 -7.7586e-41 -8.0101e-41 -5.8878e-41 5.4665e-41 6.2192e-41
4.3345e-41 -7.3065e-41 -7.0016e-41 -2.8252e-41 -1.4567043e-28 -7.3338536e-28 -2.2404986e-28 -4.7944e-28
-4.769722e-28 -7.636348e-28 -5.0701887e-28 -7.6291434e-28 -7.596361e-28 -0.009650038 0.022108836 0.0067839087
0.0072303945 0.01331061 -0.0059953495 -0.038253058 0.020786297 -0.0019855574 -0.002639537 -0.0011289921
-0.0017504428 -0.0012852307 -0.0010464491 -0.0030876538 0.0007476154 -0.00014051233 -0.0036853135 6.86749e-26
1.0494288e-25 2.0574109e-26 3.4725645e-26 3.41737e-26 6.003757e-27 -3.2751542e-26 -3.1092654e-26 -5.951763e-26
0.0033283937 -0.038213525 -0.019344533 -0.018553253 -0.02380805 0.009651446 0.00989159 0.013241293
0.02407758 0.0010454345 -0.0005822656 -0.00061406783 0.00017733162 -0.001748231 -0.001959905 -0.0006980556
-0.003153386 -0.0036121663 3.4109e-41 6.6689e-41 -5.4631e-41 -5.639e-41 -3.7998e-41 1.648e-42
-1.0294e-41 -5.2756e-41 5.726e-41 -0.0037877925 -0.00572886 0.0028847405 -0.003314041 0.0042609847
-0.0036970542 -7.246826e-05 0.006962155 -0.002690737 0.0007147616 0.0007161217 0.0007133315 0.00072261004
0.00072299823 0.000718051 0.0007221066 0.00072831253 0.00072109967 0.0034112316 0.00022445442 -0.0006632963
0.002405134 -0.0006470334 -0.0028360977 0.0055612167 0.0024141003 -0.0016494276 -2.420137e-37 -2.6773473e-37
-2.0979555e-37 -1.6404454e-37 -1.7871197e-37 -1.656917e-37 -1.2114844e-37 -1.1792205e-37 -1.0903904e-37 -0.002958159
-0.0031841407 -0.0022632014 -0.00219214 0.0014694851 0.003405172 -0.0020670544 -9.2390816e-05 -0.0010771301
-2.9274232e-20 -2.9375584e-20 -2.8960285e-20 -2.9393537e-20 -2.9372835e-20 -2.9295173e-20 -2.8656567e-20 -2.886483e-20
-2.8094252e-20 -0.0025600898 -0.0065444894 -0.005264571 0.0011672361 -0.0034221765 -0.0016007748 0.0013329311
-0.002549059 -0.0004885784 0.00848803 -0.011646373 -0.001495643 -0.00280766 -0.0042782566 0.0065124785
0.011429183 0.015240687 0.009087936 -8.4781e-41 9.7487e-41 6.0027e-41 1.1026e-40 -1.086e-40
-2.9593e-41 3.5318e-41 -1.25667e-40 1.6189e-41 -4.78895e-07 -4.957832e-07 -4.944495e-07 -4.9947727e-07

e_conv4.bias f4 [32]
00000000: 8a9c 073d 0340 613b fc0f 03b9 802e b196
00000010: 30b4 883c d1c8 853c cb46 603c 4350 ac3c
00000020: bde0 93ba 8707 7dae d899 ab3c 1e7f d53c
00000030: 636c 183d 5799 843c e872 b93c 4991 503c
00000040: 6391 9ea7 eae3 9b3d 421f 6a96 a009 043d
00000050: ff23 8e3c 26c4 aaba 666f fa3c 58f4 f3ba
00000060: f9ba 84b4 03fa 163d ba47 e5ba 6eb5 023d
00000070: ec8d aa3d 4411 d33c 1fb6 f1ba 9d8a bb3c
0.03310827 0.003437043 -0.00012499088 -2.8625238e-25 0.016687483 0.016331108 0.013688753 0.021034366
-0.0011282187 -5.7532226e-11 0.020947382 0.02606159 0.03721274 0.0161864 0.0226378 0.012729951
-4.401144e-15 0.076118305 -1.8912233e-25 0.03223574 0.017351149 -0.0013028427 0.030570697 -0.0018612249
-2.4722956e-07 0.036859524 -0.001749269 0.031911306 0.08327851 0.025765069 -0.0018441117 0.022893244

e_conv5.weight f4 [32, 64, 3, 3]
00000000: 7765 f6ba c41e c739 01cd 88bb 75c7 a63b
00000010: 6a8b a23b a520 19ba 0214 b83b 6fd0 c73b
00000020: 8b6c 9f3a 4b1a bf3b 9564 01ba 5079 ac39
00000030: df53 663b 374e c3ba 1078 84ba 6031 bf3a
00000040: 896d 0fbb 0295 dbba 1d55 0080 4ded 0080
00000050: 4cf3 0000 af98 0080 5c16 0000 e035 0000
00000060: a90a 0180 7436 0100 a0a9 0080 03ae fd3b
00000070: 9de5 15b9 c388 303c 7bf7 313b 73a6 f63b
00000080: 7ce5 1c3c 9d09 eaba ca6e 133c b915 1e3c
00000090: c552 f03b dea5 b13b 9336 063b 283a 1c3c
000000a0: 23ed 20bb bd0a 923b 5058 4abc e459 0cbc
000000b0: a798 64bc 42fa 8292 b68c df91 c828 b390
000000c0: d92b a991 d658 2192 b666 6792 e5e1 a892
000000d0: aa41 3991 85e4 2293 0cb2 3a3b 31a0 173c
000000e0: af01 113c acb1 303a b75c b83b 57ec fa3b
000000f0: f123 983a 3cbe a63b 39d2 0e3c b39d 0000
00000100: 9f61 0000 cd70 0080 ff2e 0000 256e 0080
00000110: 0772 0000 f1d2 0000 5e49 0080 00ce 0000
00000120: baf1 a0bc 3f8c 3a3c d1d4 a2bc c9fd 8abc
00000130: 4933 b43c 18fc 3ebc 4d52 013c 0c00 80bc
00000140: e2c9 1a3c e38c 043c b486 f2ba d76d 90bb
00000150: 3279 8a3b 3378 0ebc c5ef 0ebb 694c b7bb
00000160: 37e0 caba 0f0e 1cbb ba47 5dbb 6dc6 0c3b
00000170: 3144 403c 1400 3fbb 3f1f 7bb9 2663 303c
00000180: 8ab7 4d3a a4a6 d93b edbe ac3c dac8 2600
00000190: d02c 1e01 554d c901 12c9 3300 3b85 2601
000001a0: 3b3d a701 d73a 0400 99b8 df00 f9ea 6901
000001b0: 312b 0080 b93d 0080 c398 0000 bc51 0080
000001c0: ff21 0080 2e77 0000 f543 0000 4ceb 0000
000001d0: 7a52 0000 3551 e58f 3f0c 2e90 42eb f48f
000001e0: 7605 2b90 faaa 2690 2891 e10f 95af 2490
000001f0: 51e6 3a0e 1b05 4511 ea2d 0180 30e2 0080
00000200: b022 0000 9228 0100 214d 0180 2357 0000
00000210: 2843 0180 26ba 0080 570c 0000 a32a 0180
00000220: a4e0 0000 9293 0080 1943 0100 445b 0080
00000230: 7af7 0080 3843 0000 2515 0180 757e 0100
00000240: 54fa a3bb d3cb 6abb 8421 44bb 6a7e c9bb
00000250: 6328 4abb 71f7 3dbb 9521 d8ba 5033 103b
00000260: b30b 923a 892a 3fbb a354 abba 15d0 c03a
00000270: a519 89ba cde0 9dba 9581 42bb a1e3 463a
00000280: 855c 7dbb ac24 96bb 0909 b7bb 4ba2 d6b9
00000290: 57d7 9c3b 8c72 dfba d665 983b 2f18 0a3c
000002a0: 39bb 67ba f360 973b 5de0 bf3b aaa0 c5bb
000002b0: 1bc7 a53b 0e5e 4d3c 65e9 153c 37db 4b3b
000002c0: b35c 4a3b d5e3 e3bb 44aa 27bb 6def 3e3b
000002d0: 32c9 0000 f785 0000 91b2 0080 cb5c 0000
000002e0: 1499 0000 7fcd 0080 6c41 0000 db21 0180
000002f0: 0297 0000 6afd bfbb 2088 b6ba 5b08 3abb
00000300: fe5b b3b9 b766 2d3b e92e 23bc 9e94 89ba
00000310: 6626 8e3a 64df 2d3b caaf 6c39 ac73 043b
00000320: b678 183c e8e8 9f3b 601d d13b 835f 71bb
00000330: 8c52 4cbb 14db 7cbb 3f81 11bc 8846 80ba
00000340: cd52 893b 8f67 013b aaed 0a3c 0e37 17bb
00000350: 76f4 1e3b 9828 96bb 75a2 293c 4c09 b3bb
00000360: de44 8d3b 36b4 563b 0a98 2bbc e555 353a
00000370: 849d 92bb 3ea3 c4bb c9c9 ddbb 559e 19bc
00000380: 97ec a4bb 3310 0080 7bf5 0000 a564 0000
00000390: 200e 0000 9400 0080 6aca 0000 10dd 0080
000003a0: f805 0100 3c6c 0080 2de6 3e3b 360b 1f3c
000003b0: b5dd 333c 9f71 2b3b 5b4a 083c 9ef8 153c
000003c0: 175d b7ba 9b21 5b3b c410 9b3b aa96 5bbc
000003d0: cf4d 26bc 0cf0 9abb 3dfd 05bc 83ff ce3a
000003e0: ff37 0c3d 4281 143c 8a69 43bc 056e 193b
000003f0: 1e78 0000 2314 0080 8d8b 0000 bbc4 0000
-0.001879855 0.0003797916 -0.004174829 0.005089695 0.004960467 -0.0005841351 0.0056176195 0.0060978453
0.0012163086 0.005831992 -0.00049359474 0.0003289678 0.0035145206 -0.0014900629 -0.0010106582 0.0014586858
-0.0021885356 -0.0016752782 -3.0533e-41 -8.5127e-41 8.7278e-41 -5.4773e-41 8.021e-42 1.9327e-41
-9.566e-41 1.1137e-40 -6.085e-41 0.007741691 -0.00014295285 0.010774794 0.0027155566 0.0075271665
0.009576198 -0.0017855648 0.008998582 0.009648734 0.0073340856 0.0054213842 0.0020479306 0.00953535
-0.0024555407 0.0044568465 -0.012350157 -0.0085663535 -0.013952411 -8.265847e-28 -3.5269916e-28 -7.0665884e-29
-2.6690522e-28 -5.091214e-28 -7.301735e-28 -1.0657978e-27 -1.4614161e-28 -2.0559943e-27 0.0028487472 0.009254501
0.008850499 0.00067403424 0.005626287 0.0076575684 0.0011607391 0.0050885957 0.008717113 5.6572e-41
3.502e-41 -4.0465e-41 1.6859e-41 -3.9512e-41 4.0905e-41 7.5672e-41 -2.6319e-41 7.3899e-41
-0.019646514 0.011385976 -0.01987687 -0.016966717 0.02199711 -0.0116567835 0.007893157 -0.015625022
0.009447547 0.008090231 -0.001850328 -0.004407625 0.0042258734 -0.00869565 -0.0021810394 -0.0055938256
-0.0015478198 -0.002381209 -0.0033764676 0.0021480576 0.011735008 -0.0029144334 -0.00023948865 0.010765826
0.0007847479 0.0066421796 0.021087134 3.561801e-39 2.9052168e-38 7.3946705e-38 4.755741e-39 3.0584973e-38
6.1433973e-38 3.8845e-40 2.0545537e-38 4.2963926e-38 -1.5494e-41 -2.2142e-41 5.48e-41 -2.9321e-41
-1.2196e-41 4.2754e-41 2.4378e-41 8.4409e-41 2.9587e-41 -2.2612423e-29 -3.4324883e-29 -2.4150876e-29
-3.372801e-29 -3.2869443e-29 2.2242625e-29 -3.247856e-29 2.3037163e-30 1.5542133e-28 -1.08306e-40 -8.1141e-41
1.2444e-41 1.0639e-40 -1.19504e-40 3.1259e-41 -1.15927e-40 -6.6777e-41 4.427e-42 -1.0713e-40
8.0586e-41 -5.2938e-41 1.15906e-40 -3.274e-41 -8.8778e-41 2.4114e-41 -9.9421e-41 1.372e-40
-0.0050042067 -0.0035827055 -0.0029927203 -0.006149103 -0.0030846826 -0.0028986598 -0.00164895 0.002200324
0.0011142403 -0.002916964 -0.0013071488 0.0014710451 -0.0010459913 -0.0012045145 -0.0029679288 0.000758702
-0.0038659882 -0.0045820083 -0.005585794 -0.00040938178 0.0047864127 -0.0017047687 0.0046508117 0.008428617
-0.0008839849 0.0046197115 0.0058556036 -0.0060311155 0.0050591356 0.012534631 0.009149884 0.0031106004
0.0030878007 -0.00695465 -0.0025583664 0.0029134408 7.2175e-41 4.8058e-41 -6.4058e-41 3.3288e-41
5.4914e-41 -7.3718e-41 2.3469e-41 -1.0398e-40 5.4171e-41 -0.0058590667 -0.0013926066 -0.0028386328
-0.0003421008 0.0026458928 -0.009959915 -0.0010496562 0.0010845184 0.0026530856 0.000225722 0.0020210547
0.0093061235 0.0048800595 0.0063816756 -0.003683061 -0.0031177131 -0.003858273 -0.008880912 -0.0009786645
0.004190779 0.0019745564 0.008479515 -0.0023073587 0.0024254597 -0.004582476 0.010353674 -0.0054637548
0.004311188 0.0032761223 -0.010473261 0.00069174013 -0.0044743437 -0.0060009053 -0.0067684394 -0.009376128
-0.0050330865 -5.811e-42 8.8062e-41 3.6104e-41 5.067e-42 -2.07e-43 7.2612e-41 -7.9302e-41
9.3977e-41 -3.8827e-41 0.0029128895 0.009707263 0.010978152 0.0026160253 0.008318509 0.009153513
-0.0013989535 0.0033436778 0.004732223 -0.01340262 -0.010150387 -0.004728323 -0.0081780525 0.0015792701
0.03423309 0.009064021 -0.011927018 0.0023411524 4.309e-41 -7.224e-42 5.0061e-41 7.0574e-41

e_conv5.bias f4 [32]
00000000: e0b6 af3c 40dc 5eb2 3ba2 2dba 6aae 2d3d
00000010: 5839 c4b3 3349 e33b b9ae 773d 3140 ec3c
00000020: 05eb a53c 2ea7 33ba 1e43 2b3d b0a9 ee3c
00000030: c5e9 c1a9 3ca3 2938 8a77 db3c 64cc 063d
00000040: 5b83 bf3b 4c7c 973b b260 79b8 e014 113c
00000050: 5024 dc3c 9899 fa3c 83f1 2d3c 209a 2dbb
00000060: b763 af3c a8c8 93aa c52e d73c a229 2b3c
00000070: b78d 443d e6da 738c b82b bfba b135 8c8f
0.021449506 -1.297218e-08 -0.00066236005 0.042402662 -9.137392e-08 0.0069362163 0.060469363 0.028839203
0.020253668 -0.000685322 0.041812055 0.029133648 -8.611474e-14 4.0444764e-05 0.0267904 0.032909766
0.005844516 0.0046229716 -5.945628e-05 0.008855075 0.026872784 0.030590817 0.010616663 -0.002648957
0.021409852 -2.625168e-13 0.026267419 0.010446938 0.047986712 -1.8785911e-31 -0.0014585173 -1.3825747e-29

e_conv7.weight f4 [8, 64, 3, 3]
00000000: 798f c9ba 313d faba 3d5c b3bb 9a92 d23b
00000010: 197a cd3b 37e0 553b a1b7 093c 45dd 093c
00000020: 68a9 ac3b 8882 e63a d598 6b3a 75e1 683b
00000030: 5d51 003b e78d b53a 2c08 b03b 610f 0f3c
00000040: 3283 2d3c f237 6f3c bef5 0080 0e5a 0080
00000050: 27fd 0000 940f 0180 827a 0080 f63d 0100
00000060: f382 0080 8310 0100 683f 0000 44d8 0000
00000070: 9b69 0180 82f6 0080 6c73 0080 b03d 0180
00000080: fa88 0180 c126 0180 c030 0180 0d58 0100
00000090: 7171 73ba c705 7ebb 1a23 b8bb 0200 a23b
000000a0: dff4 bf3a 8064 80ba b826 a03b 0d0f 873a
000000b0: 27f0 e8ba b926 3cbc 0f6e 0abc 7e34 dbbb
000000c0: 51db d8ba c7f6 963a 5bc5 133b 4b9c c53b
000000d0: 872b 143c 30bb 1c3c 4dee 573b 52df 983a
000000e0: d22c 763b 7acb 8e3b 5c09 293b 94c9 c03b
000000f0: 9288 d03b 54a5 b33b a008 083c ea9a 4fbc
00000100: 2112 dfbc 7643 18bd c317 183c d964 e1bb
00000110: 994f 9fbc f9e1 ad3c 0a26 d5ba 0250 72bc
00000120: 2b66 5b8d 2409 4b8d 1756 428c be69 548d
00000130: 4694 cd8c 88f8 f50a e5a0 838d f911 558d
00000140: 332a ac0b 7cf6 a706 f5af 0e86 cd11 8086
00000150: 10ad c486 1fca 4585 6dce fb86 3fe4 c106
00000160: e22c 6686 b7f8 8e86 7330 abba 7d8e 9ebb
00000170: d045 43bb e734 d0b9 233d 8fbb fb05 09bb
00000180: a34b e839 4fd1 3fbb 0016 4cba b7d8 ecbb
00000190: 5cef a3bb 20c6 f9bb 9285 49bb 8bfe deb9
000001a0: 2528 8abb 2c00 4cbb 72cb d8ba 5bfd abbb
000001b0: c882 f7bb 0790 703c 1f46 92bb c14b 103c
000001c0: c7fc fb3c c130 453c bc53 58bc 86cb 0e3c
000001d0: ec8f 26bc c139 81bc 7031 aebc b9d7 f2bb
000001e0: 0c74 8bbc bf04 bdbc 2bf4 17bc 5f6f b63a
000001f0: f948 9dbb 2e3d 223c 5a6a 2abb 010e 20b9
00000200: cd3a 66ba cc63 1aba bf6b 1a3b 80ff 063b
00000210: c2d2 063b 672d b13b 1f48 903b 9858 80bb
00000220: 5a57 a4bb da11 4cbb 3815 3c39 cf33 17ba
00000230: 90ef 7d3a 5695 033b 7ffb c73a 2dfe 5d3b
00000240: 6623 0100 8938 0000 84a4 0100 5013 0100
00000250: d59f 0100 1e1f 0000 85db 0000 c354 0180
00000260: c464 0180 9241 9739 3f23 233d 4791 163a
00000270: f28d f33c 7f81 8f3d 36e5 ff3c 4710 23bc
00000280: f425 f73c eeb2 03bc 07b2 ae94 5b7a bc94
00000290: 80d7 ba94 c39c b094 4adf c494 4a82 bb94
000002a0: f639 d894 4a2a 7594 6b73 de94 c8e9 0dbc
000002b0: 6ca8 60bb e3a3 e5bb bddb dbbb 729d f9ba
000002c0: a835 eebb fa53 51bc 8d56 1bbc bf78 72bc
000002d0: a171 9abb 9f6b bd3b 5306 0838 e653 913b
000002e0: 2c35 7b3c 203c 193c 23ca efbb 2283 4c3b
000002f0: d60a 24bb 1fa7 118a ab87 d189 70ef 018a
00000300: 3c4e 5f87 36b8 dd09 9d32 e789 9996 6b89
00000310: 132e b689 bbf4 1a0a cb28 8fbb 9e48 19bb
00000320: 69b6 02bc 7a86 983b c14e cf3b efca 3a3a
00000330: 893b 1f3b d3f3 8c3b a49b c6ba 3e2b 813a
00000340: 82a9 4f3a a83b 553a 8b0c 7a3a f5e0 423a
00000350: 96a8 463a 96be 8e3a 4b5f 6a3a 4e6a 6d3a
00000360: 093a 0000 544a 0180 6d28 0100 72cb 0000
00000370: 5dc8 0000 ac47 0080 2ae2 0080 d78e 0180
00000380: fde0 0080 2fdd a73b 70bf ec3b 3011 033a
00000390: da10 e939 47ff 353b 69c4 29bb b314 8aba
000003a0: eb22 be3a 38a7 63bb e82d c33b d4a0 563b
000003b0: a0b2 3f3d 66e3 29bd 32cb 33bd 2346 94bb
000003c0: 47c5 0dbd fe6a 0dbd a774 a83b eb5c 283b
000003d0: 7267 c536 f5e4 55ba f610 013c 22df c73b
000003e0: e84f de3b 01af 033c 1d54 e43b 5735 033c
000003f0: 7afe bfbc 7661 c53c 685d b6bc 3f98 ae3c
-0.0015377841 -0.0019091723 -0.005473642 0.0064261677 0.0062706587 0.0032634863 0.008405597 0.008414571
0.0052692182 0.0017586509 0.00089873123 0.0035534773 0.0019579746 0.0013851494 0.005372068 0.008731694
0.010590361 0.014600741 -8.8156e-41 -3.2306e-41 9.0814e-41 -9.7424e-41 -4.3948e-41 1.14063e-40
-4.6976e-41 9.7759e-41 2.2746e-41 7.7581e-41 -1.2972e-40 -8.843e-41 -4.1406e-41 -1.13965e-40
-1.40973e-40 -1.05738e-40 -1.09324e-40 1.23422e-40 -0.00092866184 -0.0038760768 -0.005619419 0.0049438486
0.0014645121 -0.0009795576 0.004887428 0.0010304168 -0.0017771766 -0.011483842 -0.008449092 -0.006689607
-0.0016544854 0.0011517637 0.0022548053 0.0060305945 0.009043581 0.009566113 0.0032948435 0.0011663234
0.0037563336 0.0043577524 0.0025792932 0.005883405 0.0063639367 0.005482355 0.008302838 -0.012671212
-0.027230324 -0.03717371 0.009283009 -0.006878477 -0.019447135 0.021225916 -0.0016261947 -0.014789583
-6.7607565e-31 -6.2565207e-31 -1.4971123e-31 -6.5454826e-31 -3.167449e-31 2.3686129e-32 -8.112232e-31 -6.5657326e-31
6.6315484e-32 6.3180594e-35 -2.6836504e-35 -4.8174405e-35 -7.39813e-35 -9.300019e-36 -9.471902e-35 7.293391e-35
-4.3291167e-35 -5.3779917e-35 -0.0013060704 -0.0048387633 -0.002979625 -0.00039712267 -0.0043713017 -0.0020908106
0.00044306842 -0.0029269045 -0.00077852607 -0.007227983 -0.005002899 -0.0076224953 -0.003074978 -0.0004253279
-0.0042162114 -0.0031128032 -0.0016540124 -0.005248708 -0.007553432 0.014682776 -0.0044639255 0.008807124
0.030760182 0.01203555 -0.013203558 0.008715516 -0.01016615 -0.01577461 -0.021263808 -0.00741097
-0.017023109 -0.023073552 -0.009274523 0.0013918689 -0.004799959 0.009902282 -0.0026003332 -0.00015264006
-0.0008782566 -0.00058895047 0.0023562757 0.0020599067 0.0020572399 0.0054070237 0.0044031288 -0.003916811
-0.005015296 -0.003113857 0.00017936982 -0.0005767913 0.00096868817 0.0020078025 0.0015257447 0.0033873424
1.04534e-40 2.0281e-41 1.50853e-40 9.8764e-41 1.49172e-40 1.1163e-41 7.8749e-41 -1.22242e-40
-1.27983e-40 0.00028849818 0.039828535 0.0005743694 0.02973077 0.07007121 0.031237226 -0.009952611
0.030169465 -0.008038266 -1.763973e-26 -1.903141e-26 -1.88662e-26 -1.783329e-26 -1.9879014e-26 -1.8933565e-26
-2.1833288e-26 -1.2377679e-26 -2.2461796e-26 -0.008661695 -0.0034280075 -0.007008062 -0.0067095445 -0.0019044115
-0.00726958 -0.012776369 -0.0094810845 -0.014799296 -0.0047132527 0.0057806517 3.2430817e-05 0.0044350503
0.015332501 0.009352714 -0.0073177977 0.003120609 -0.0025030873 -7.012928e-33 -5.04425e-33 -6.256157e-33
-1.6799646e-34 5.3377046e-33 -5.5658824e-33 -2.8357907e-33 -4.3858234e-33 7.460859e-33 -0.0043688766 -0.002338923
-0.00797806 0.0046547027 0.006326527 0.00071255764 0.002429696 0.004301527 -0.0015152586 0.0009854806
0.0007921682 0.00081341946 0.0009538612 0.0007434034 0.0007578222 0.0010890539 0.00089405914 0.0009056673
2.0819e-41 -1.185e-40 1.06338e-40 7.2982e-41 7.1877e-41 -2.5711e-41 -8.1132e-41 -1.43077e-40
-8.071e-41 0.0051228027 0.0072249696 0.00049998146 0.00044453779 0.0027770565 -0.0025904423 -0.0010534733
0.0014506256 -0.0034737121 0.0059564 0.003274967 0.04680121 -0.04147663 -0.043894954 -0.0045249625
-0.034611966 -0.034525864 0.005140859 0.002569015 5.8831e-06 -0.00081594224 0.007877579 0.0060995976
0.006784428 0.00803733 0.006968035 0.008008323 -0.023436774 0.024094325 -0.022261336 0.021312831

e_conv7.bias f4 [8]
00000000: 0a8b ba3c 34d0 573c be71 633d 6e70 243d
00000010: 1fce b43c 16bd f63c 4a21 9d3c 007d 223c
0.022771377 0.013172198 0.055528395 0.040146284 0.022070942 0.03011946 0.019180913 0.009917498

e_conv8.weight f4 [8, 64, 3, 3]
00000000: 473a 353d b741 153d 84b5 043b bf4e 98bc
00000010: 5609 813a 72af 1c3c 1aa5 aa3b 8f84 2f3c
00000020: 8304 debc 6fd3 76bc bba6 c03b 428a 1bbc
00000030: 2111 463c 2f7d e53c 858a 963c 0578 a3bc
00000040: fe8b 033c fd11 5a3c 4dcf 0000 2676 0080
00000050: 3472 0080 be4e 0080 d1cf 0000 0734 0080
00000060: 27a8 0000 3b7d 0000 178d 0000 1f45 0000
00000070: baef 0080 5fbf 0080 335f 0080 dd46 0000
00000080: e50c 0180 1e78 0000 4ba7 0080 746e 0000
00000090: 3142 5cbb fa95 373c 56f3 b2bb b184 00bd
000000a0: f1e5 7a3b 48b1 0e3d 22f4 d1bc 88e6 853c
000000b0: ac38 7d3c c168 29bb 0144 b03c a341 0f3d
000000c0: b198 5b3d 2f9b 1cbc 5b83 7d3c 85de 4cbc
000000d0: 8088 ee3c 8e3a b73c ad58 aa3c c5ab 3f3c
000000e0: 84c8 f2bb 1bf5 673c 6992 193c 3bb8 e6bc
000000f0: 61a7 403c 450c 0f3d c1fd 10bd 0f9e d43b
00000100: ef34 1b3b 0891 323b 1601 0dbc 56f7 623b
00000110: dfa4 b7bb 0815 c1ba 3552 08bb 7ab0 a6ba
00000120: 5cab 94b6 e314 0fb7 541c 1bb7 3946 c1b6
00000130: ee39 fdb6 b972 4bb7 d7f0 1a37 2d72 9bb6
00000140: 2cb4 e0b6 9aef b089 0739 bd89 1da5 bb89
00000150: f434 aa88 3399 c689 d271 c589 c84c b787
00000160: d745 7689 3b7e c489 ac8b 9dba 3e5f f23b
00000170: 5909 c2b9 9be7 c83b 9a00 883c fda2 e33b
00000180: d72c edba 492f 6c3b 10b7 41bb fb27 8e3b
00000190: 63cb 5fbc 510c 393c dd33 833c 7c9e 27bc
000001a0: f494 92ba 65a1 b63c c1fa b83b 88cf a13c
000001b0: 40d9 22bb c789 0cb9 34e6 56bb 207e 4bbb
000001c0: 6ed9 9a3b f829 60bb c21c 6f3a 5641 7dba
000001d0: fb40 90ba b2df edba a3a1 893b dc86 fa39
000001e0: 604d a0bb 8435 bc3b 0487 44b9 ae14 9ebb
000001f0: 4b7a 613b 4cfa a3bb a0dc ce3c f621 1c3c
00000200: d506 44bb badd e7bb 37b3 52bc 310d 313c
00000210: 3367 86bc 873a e13b e532 0c3c 63b1 4c3d
00000220: 6626 c43c 6809 073c 99c1 143d 4420 b03c
00000230: b391 c43a 0f32 a9bc 7f65 82bc ab3f 86ba
00000240: 1bc6 0000 b82c 0180 d847 0000 e0b6 0100
00000250: 1f73 0080 f61d 0080 fa49 0100 fb9f 0000
00000260: 0f1e 0080 e4b1 9a3a d8bc 123a 3a88 4abc
00000270: 24fa 9a3b fec5 55bb 1ac4 e13b 9642 9dba
00000280: fa55 333c 05cc acbb b514 d295 bfad 0696
00000290: 2e28 0b96 407e ef95 31be a595 f675 ca95
000002a0: ab57 fc95 600f ac95 21d1 be95 b577 47b8
000002b0: b6be 413c b174 fabb ccf6 51bb 3695 cc3c
000002c0: a373 39bb c85d 56bc e208 11bc 29d2 ac3c
000002d0: 0a09 5639 4f76 34bb f6b3 b4ba 8b93 d3ba
000002e0: 008a 14bb 5d95 1fbb d27b 453b b9d4 e3ba
000002f0: 1737 8e3a ee0e b735 5cf9 b735 c72d b535
00000300: 46bf b735 ff08 b835 9afd b435 10fd b335
00000310: c8b3 b435 b2eb b135 f60d d1bb 9903 9f3c
00000320: 93fd c1bb dbf0 4f3c 0dd2 333d 8065 363c
00000330: 5979 6639 4513 e03c dfae ccb8 597f c33a
00000340: 6874 c43a 6c0b c53a 5cbe c43a e063 c53a
00000350: b9ec c53a 6472 c63a 5d09 c73a 627a c73a
00000360: b487 3506 9cd5 8a06 6256 ea05 1659 a506
00000370: ec13 f306 02e0 4c06 a416 f905 6c9d 1d06
00000380: f33b c605 eb17 babc 4f1d 14bc ba14 8a3c
00000390: 751e 833b 6233 f13b 7da7 ab3b a674 cebb
000003a0: 7c01 363c b841 d83c a8a9 f4ba 0ad1 c83b
000003b0: a285 29bb a9dc ca3a 7d31 fe3b 562f ceba
000003c0: 1393 f4ba 78d3 793b 39d7 78bb 3996 d9bc
000003d0: 7aa7 f93a dbeb 71bc 5938 853c 33ee 12bc
000003e0: bd8c 3ebb d0e2 073c dd12 fc3c 9591 8abc
000003f0: 03b3 1ebb aa26 573c b3c5 a4bb 24bd 263c
0.04424503 0.036439624 0.0020249793 -0.018592237 0.0009844701 0.009563314 0.00520767 0.010712757
-0.02710176 -0.015065058 0.005879251 -0.009493412 0.012089045 0.028013794 0.018376598 -0.01995469
0.008028982 0.013309953 7.4366e-41 -4.2384e-41 -4.0968e-41 -2.8247e-41 7.455e-41 -1.8664e-41
6.0322e-41 4.4924e-41 5.0613e-41 2.4796e-41 -8.5998e-41 -6.8651e-41 -3.4151e-41 2.5421e-41
-9.6461e-41 4.309e-41 -6.0013e-41 3.9623e-41 -0.003360879 0.011205191 -0.005461137 -0.031376544
0.0038284028 0.034837037 -0.025629107 0.016345277 0.015455406 -0.0025849792 0.021516802 0.034974705
0.053612415 -0.009558483 0.015473212 -0.012504225 0.029117823 0.022366788 0.020794237 0.011698668
-0.007409157 0.014157559 0.009373286 -0.02816402 0.011758656 0.03492381 -0.03539825 0.0064885686
0.0023682674 0.002724709 -0.008606216 0.0034632287 -0.005604371 -0.0014730999 -0.0020800952 -0.0012717389
-4.4306926e-06 -8.528327e-06 -9.245316e-06 -5.760023e-06 -7.5467315e-06 -1.2126454e-05 9.23519e-06 -4.632652e-06
-6.696695e-06 -4.259578e-33 -4.5553723e-33 -4.5173884e-33 -1.0243952e-33 -4.7810834e-33 -4.753306e-33 -2.7579908e-34
-2.9644011e-33 -4.730399e-33 -0.0012019775 0.0073966077 -0.00037009528 0.006131125 0.01660185 0.00694692
-0.0018095028 0.0036038926 -0.0029558577 0.004338262 -0.013659331 0.01129444 0.016015941 -0.010230657
-0.0011183308 0.022293756 0.0056451266 0.019752279 -0.002484873 -0.00013402766 -0.003279102 -0.0031050518
0.0047256267 -0.0034204703 0.0009121412 -0.000966092 -0.0011005694 -0.0018148331 0.004200177 0.00047784194
-0.0048920363 0.0057436842 -0.00018742314 -0.0048242426 0.0034405168 -0.005004203 0.025251687 0.009529581
-0.0029911299 -0.0070759924 -0.012860111 0.010806368 -0.016406631 0.006873432 0.008557056 0.049973857
0.023944091 0.008241989 0.03631744 0.02149976 0.0014997035 -0.020653753 -0.015917538 -0.0010242363
7.1067e-41 -1.07878e-40 2.5773e-41 1.57439e-40 -4.1298e-41 -1.0748e-41 1.18373e-40 5.739e-41
-1.0783e-41 0.0011802283 0.0005597598 -0.0123615805 0.004729526 -0.0032619233 0.006889832 -0.0011997994
0.010945791 -0.0052733445 -8.4850994e-26 -1.0879258e-25 -1.1241009e-25 -9.673052e-26 -6.694304e-26 -8.177326e-26
-1.01920305e-25 -6.9494504e-26 -7.7070336e-26 -4.7556783e-05 0.011825254 -0.007643305 -0.0032037972 0.024973493
-0.0028297685 -0.013083883 -0.0088522155 0.021096306 0.00020411998 -0.0027536338 -0.0013786543 -0.0016141994
-0.0022665262 -0.0024350502 0.0030133617 -0.0017382122 0.0010850158 1.3638908e-06 1.3707136e-06 1.3498874e-06
1.369023e-06 1.3711687e-06 1.3484853e-06 1.341019e-06 1.3463368e-06 1.3256124e-06 -0.006379838 0.019410895
-0.005920121 0.012691702 0.043901492 0.011132598 0.00021979715 0.027352938 -9.76005e-05 0.0014915272
0.0014988305 0.0015033311 0.0015010345 0.0015059672 0.0015100456 0.0015140292 0.0015185286 0.0015218968
3.4142015e-35 5.22237e-35 2.2036986e-35 6.2197e-35 9.1435713e-35 3.853271e-35 2.3424164e-35 2.9644073e-35
1.8641852e-35 -0.022716483 -0.009040191 0.016855586 0.0040014335 0.0073608616 0.005238472 -0.0063005267
0.011108752 0.026398525 -0.0018666284 0.006128435 -0.0025867005 0.0015477139 0.0077573643 -0.001573066
-0.0018659554 0.003812043 -0.003797008 -0.02656089 0.0019047104 -0.014765705 0.01626222 -0.008967924
-0.0029075586 0.008293822 0.030770713 -0.016915122 -0.0024215586 0.013131777 -0.0050284504 0.010176931
