snapshots/Epoch87.pth (torch, 304045 bytes, 14 tensors)

e_conv1.weight f4 [32, 3, 3, 3]
3.3937e-41 -4.1556e-41 9.927e-41 7.7944e-41 4.5024e-41 -5.8e-42 4.44e-43 -3.55e-41
-6.0222e-41 4.6745e-41 -5.641e-41 -4.7199e-41 -8.712e-42 -5.0503e-41 1.13413e-40 -1.8964e-41
3.1291e-41 -8.559e-41 1.7752e-41 1.05774e-40 6.8818e-41 -3.1159e-41 1.1981e-41 -6.5116e-41
9.8845e-41 9.4635e-41 -5.8213e-41 0.00040225545 0.0032054135 -0.009648737 0.014717276 0.012170305
0.016468521 0.03457972 0.023906633 0.036644798 0.008076273 -0.0063945837 0.027131472 0.0057694064
0.013271137 0.017876226 0.036730405 0.037135866 0.030310595 -0.010744562 -0.0107847955 -0.028134916
-0.007211834 -0.011650303 -0.018945966 -0.007427841 -0.007652653 0.01904704 -0.014386474 -0.0410819
-0.019436898 -0.0059671025 -0.02860048 -0.023925142 0.00015086228 -0.012490827 -0.013455257 -0.0022255222
0.008314149 0.0046758624 -0.0007415373 0.0066506937 0.0034352434 0.04151238 0.020695578 -0.016133295
0.03277647 0.036666073 0.03248787 0.042966675 0.03249543 0.040967144 0.04390613 0.024714429
0.024805069 -0.00558522 0.009892037 0.0077969353 -0.025104553 -0.0077955294 0.0067866854 -0.023286136
-0.012935764 0.026839975 -0.028339287 0.00603278 0.01133875 -0.015732488 -0.0048217564 0.008746743
-0.03501083 0.006047329 0.02517688 -0.0055594025 0.0027921423 -0.0038459126 -0.009705688 0.01122365
0.0017141101 -0.02531984 0.004125954 0.027029343 0.020813063 0.020339359 0.059692252 0.013634639
0.0068037924 0.03900217 -0.0021664412 -0.007079989 0.023381917 0.023312205 0.023999697 0.055894736
0.003824234 -0.0041668257 0.017577073 -0.0039544767 0.010811455 0.03307892 0.012161064 0.006072103
0.038176052 -0.021211073 -0.01653733 0.008236537 -0.033292145 -0.014328607 0.0052929264 -7.9896e-41
1.69833e-40 -1.1425e-41 -1.06764e-40 5.087e-42 -3.0686e-41 -2.7723e-41 -1.0071e-40 4.7758e-41
-1.9583e-41 5.073e-41 -6.3113e-41 1.4233e-41 8.9401e-41 -7.0389e-41 1.962e-41 -4.1567e-41
-4.3971e-41 8.7243e-41 6.6906e-41 -1.52053e-40 -2.6824e-41 -3.5887e-41 -7.7915e-41 -5.918e-41
6.4205e-41 -1.83517e-40 0.04767154 0.014024008 -0.021225587 0.030361427 0.011181266 -0.036498316
0.03258969 0.0002743705 -0.030987063 0.050494872 0.030113155 -0.034251142 0.030072832 0.012335798
-0.016020788 0.022542676 -0.02688793 -0.056684572 0.020140437 -0.004330024 -0.023738459 0.0115647055
0.005350294 -0.01799722 0.03144332 -0.016803151 -0.05421391 1.2784e-41 -1.30359e-40 -5.9508e-41
-4.2777e-41 3.7867e-41 7.2378e-41 -1.31e-42 -3.8575e-41 -4.514e-42 5.5128e-41 1.7665e-41
2.9304e-41 4.9264e-41 -4.6753e-41 7.8831e-41 -5.9876e-41 1.17694e-40 -1.02249e-40 2.3278e-41
-2.5448e-41 5.2636e-41 -1.1872e-40 5.9891e-41 2.4786e-41 -1.5e-42 4.0116e-41 -6.6985e-41
-7.5955e-41 8.3995e-41 -3.5107e-41 7.1618e-41 -2.0713e-41 1.1166e-41 -7.572e-41 1.8302e-41
-6.8315e-41 4.8629e-41 -1.5706e-41 6.8337e-41 -7.7915e-41 6.679e-42 5.315e-42 5.853e-42
7.381e-41 2.1842e-41 9.3384e-41 5.089e-41 2.5593e-41 -8.5766e-41 -3.393e-42 8.9027e-41
1.958e-41 -3.8627e-41 5.4327e-41 -0.05320715 -0.026616454 -0.052881286 -0.030156866 -0.017491652
-0.01788934 -0.013035864 0.014175394 0.008100855 -0.049728364 -0.011748152 -0.034965415 -0.020395393
00000000: 9a5e 0000 d773 0080 b914 0100 47d9 0000
00000010: 827d 0000 2b10 0080 3d01 0000 f662 0080
00000020: e0a7 0080 4e82 0000 409d 0080 9283 0080
00000030: 4918 0080 c88c 0080 263c 0100 dd34 0080
00000040: 3a57 0000 97ee 0080 7c31 0000 db26 0100
00000050: d6bf 0000 dc56 0080 6621 0000 84b5 0080
00000060: 8a13 0100 ce07 0100 46a2 0080 d0e5 d239
00000070: ea11 523b bc15 1ebc bb20 713c f565 473c
00000080: fee8 863c 77a3 0d3d d8d7 c33c db18 163d
00000090: 5852 043c a889 d1bb d242 de3c 4a0d bd3b
000000a0: 2f6f 593c 2a71 923c 9f72 163d c71b 183d
000000b0: ed4d f83c f609 30bc b6b2 30bc 327b e6bc
000000c0: 4051 ecbb eae0 3ebc 9234 9bbc 3f65 f3bb
000000d0: 1bc3 fabb 8a08 9c3c 3fb5 6bbc 7f45 28bd
000000e0: 213a 9fbc af87 c3bb 8e4b eabc a9fe c3bc
000000f0: c930 1e39 53a6 4cbc 7073 5cbc 11da 11bb
00000100: 1238 083c fa37 993b ba63 42ba 10ee d93b
00000110: d221 613b e308 2a3d c689 a93c f929 84bc
00000120: 9f40 063d 2a2f 163d 0012 053d d3fd 2f3d
00000130: ee19 053d 2acd 273d ead6 333d ea75 ca3c
00000140: 0034 cb3c 3904 b7bb 3612 223c 6f7d ff3b
00000150: 10a8 cdbc a471 ffbb d862 de3b 91c2 bebc
00000160: 87f0 53bc 82df db3c cb27 e8bc a0ae c53b
00000170: 2ac6 393c 6be1 80bc d3ff 9dbb 804e 0f3c
00000180: 8467 0fbd ac28 c63b bf3f ce3c a62b b6bb
00000190: 60fc 363b b50b 7cbb 9b04 1fbc 66e3 373c
000001a0: feab e03a 8e6b cfbc 0333 873b a46c dd3c
000001b0: 2880 aa3c ba9e a63c dd7f 743d d263 5f3c
000001c0: 59f2 de3b bdc0 1f3d dafa 0dbb 41ff e7bb
000001d0: 6f8b bf3c 3df9 be3c 039b c43c e1f1 643d
000001e0: 00a0 7a3b de89 88bb cbfd 8f3c 8e94 81bb
000001f0: 8722 313c c37d 073d 333f 473c 7ef8 c63b
00000200: 7e5e 1c3d d8c2 adbc 4b79 87bc 8af2 063c
00000210: 585d 08bd 89c2 6abc 4970 ad3b b8de 0080
00000220: 6dd9 0100 d91f 0080 9d29 0180 2e0e 0000
00000230: 8a55 0080 484d 0080 bd18 0180 2185 0000
00000240: 9736 0080 6a8d 0000 efaf 0080 ad27 0000
00000250: 37f9 0000 37c4 0080 b136 0000 df73 0080
00000260: 937a 0080 33f3 0000 82ba 0000 dda7 0180
00000270: c64a 0080 0a64 0080 32d9 0080 f8a4 0080
00000280: fab2 0000 92ff 0180 3c43 433d f4c4 653c
00000290: 48e1 adbc 87b8 f83c a131 373c 427f 15bd
000002a0: c47c 053d 63d9 8f39 95d8 fdbc b6d3 4e3d
000002b0: ddaf f63c ed4a 0cbd 4d5b f63c 161c 4a3c
000002c0: 073e 83bc 6bab b83c 1444 dcbc 152e 68bd
000002d0: 8ffd a43c e0e2 8dbb 2877 c2bc e479 3d3c
000002e0: 8551 af3b e86e 93bc b6ca 003d c3a6 89bc
000002f0: 680f 5ebd a323 0000 636b 0180 e2a5 0080
00000300: 3f77 0080 8f69 0000 c3c9 0000 a703 0080
00000310: 886b 0080 950c 0080 ad99 0000 3e31 0000
00000320: b051 0000 5489 0000 5482 0080 c0db 0000
00000330: e9a6 0080 1548 0100 071d 0180 e440 0000
00000340: f046 0080 ba92 0000 f14a 0180 f4a6 0000
00000350: 1845 0000 2e04 0080 d46f 0000 baba 0080
00000360: bbd3 0080 25ea 0000 dd61 0080 a4c7 0000
00000370: bd39 0080 201f 0000 14d3 0080 0533 0000
00000380: 6fbe 0080 8f87 0000 c82b 0080 7fbe 0000
00000390: 32d9 0080 9e12 0000 d10e 0000 5110 0000
000003a0: c1cd 0000 e33c 0000 5104 0100 dc8d 0000
000003b0: 5847 0000 15ef 0080 7509 0080 2cf8 0000
000003c0: 9536 0000 ad6b 0080 7197 0000 beef 59bd
000003d0: c00a dabc 0c9a 58bd 880b f7bc a74a 8fbc
000003e0: aa8c 92bc 6094 55bc e93f 683c 73b9 043c
000003f0: f8af 4bbd 527b 40bc e537 0fbd 3d14 a7bc

e_conv1.bias f4 [32]
-1.0991206e-10 0.06366834 0.019212045 0.11807164 0.059842516 -3.233958e-13 0.06491389 -1.01831866e-07
-4.4067e-08 0.07637545 -9.798195e-09 -6.213492e-14 -0.014382611 0.059480395 -3.3171182e-10 0.15257937
0.12310185 0.09549926 0.18107739 0.1577667 -1.1791825e-15 0.15148528 -0.016219225 0.11724128
-6.470773e-09 -6.7789007e-19 0.03241013 -2.6018027e-15 -0.0010719249 -0.007101269 0.112464316 -1.3552279e-11
00000000: fdb2 f1ae 8c64 823d 9462 9d3c 8bcf f13d
00000010: 6d1d 753d 3f0e b6aa 93f1 843d a9ae dab3
00000020: 2e44 3db3 bb6a 9c3d eb54 28b2 58ea 8ba9
00000030: 0ba5 6bbc b7a1 733d 4a5c b6af c43d 1c3e
00000040: d31c fc3d 1e95 c33d 5a6c 393e 988d 213e
00000050: 28f0 a9a6 f51e 1b3e 2ede 84bc 321c f03d
00000060: 8555 deb1 ed13 48a1 7cc0 043d ca7a 3ba7
00000070: d57f 8cba c3b1 e8bb b153 e63d 0a6a 6ead

e_conv2.weight f4 [32, 32, 3, 3]
-1.6196e-41 -7.0103e-41 6.1657e-41 -9.5759e-41 -6.0514e-41 -3.7297e-41 -6.2474e-41 -4.5188e-41
-5.2472e-41 0.007709285 -0.017145375 0.0029923513 -0.0037530905 -0.0009387197 -0.00634431 0.010974045
0.024387855 0.00094208017 -0.008530166 -0.010177805 -0.0067208475 0.0035581652 -0.004679489 -0.003978451
0.0049210107 0.0019073131 0.005331067 -0.023362277 0.01728666 0.033210624 -0.0130252475 -0.005431703
-0.00431688 -0.03295095 0.004539295 0.016136263 0.00012358489 -0.0020495348 -6.8457695e-05 0.009865634
-0.012593989 0.006224257 0.011515285 -0.015127123 -0.008380195 -6.7936e-41 -6.2005e-41 9.7832e-41
-9.853e-41 2.0296e-41 3.0625e-41 -1.2748e-40 -9.9604e-41 7.5639e-41 0.0006877572 0.00695706
-0.0040119076 -0.0043353983 0.0041361125 0.005865176 0.0053913356 0.006258719 0.013855833 1.8953e-41
-1.01743e-40 -1.6992e-40 8.4732e-41 8.1471e-41 -1.7843e-41 -2.6506e-41 -1.5128e-41 -1.11754e-40
8.7498e-41 4.4815e-41 5.1991e-41 7.1389e-41 3.997e-41 1.2797e-41 5.689e-42 9.0165e-41
-3.0494e-41 0.010086612 0.00071100815 0.008878756 -0.0028200848 0.0044071376 0.00687059 0.0012325855
0.0004086391 -0.0014924482 8.6641e-41 1.9538e-41 1.742e-42 -7.603e-41 -1.97587e-40 4.3309e-41
7.3808e-41 -7.124e-41 -4.7542e-41 -5.9003e-41 2.979e-42 4.1532e-41 -8.6717e-41 3.025e-41
-7.6333e-41 1.1551e-40 -5.3751e-41 8.7512e-41 -0.00443154 -0.0041664806 -0.0031141748 0.0009519287
0.00059937616 0.00096757483 0.0017673259 0.0011631419 0.00082560675 0.0019232797 0.011503272 0.0037653951
0.0053884718 0.002742723 0.0043293815 -0.0035517735 0.0071754046 0.0011141406 -1.3e-44 -9.2797e-41
-9.872e-42 -6.8224e-41 3.4527e-41 1.80968e-40 2.0375e-41 1.9912e-41 -7.8536e-41 0.005961943
0.011546063 0.0044079702 0.014460544 0.01574855 0.013375762 -0.0021654253 -0.016576963 -0.006128134
-0.01319202 -0.016229643 -0.0061215265 -0.017312517 0.013708271 0.015578269 -0.026580127 0.0010777285
0.00032264087 0.015519284 -0.0005214275 0.0016016788 -0.004322316 0.0089160325 0.0057251803 0.0048317336
0.012770978 0.015508599 0.00055721035 -0.02055687 -0.014373527 -0.0016500963 0.0008698442 0.016904049
-0.032437023 0.014733817 0.031512287 0.018413203 0.017436754 -0.0020332076 0.0076739164 0.009762863
-0.00048784458 -0.009903411 -0.0069758715 0.025458002 4.9635e-41 2.1556e-41 -6.5984e-41 -6.873e-42
4.347e-41 -8.1316e-41 4.9509e-41 -3.2391e-41 2.0996e-41 -0.018382281 0.011855025 0.016591137
-0.016339628 0.04379655 0.029602544 0.010540755 0.026386486 0.01636166 0.0029598258 0.0038902971
-0.00470401 -0.002956179 7.232439e-05 -0.0030080155 -0.009423009 0.003834067 -0.008191351 0.015925435
0.011616377 0.019734295 0.0105530685 0.018827813 0.005251582 -0.034049716 0.021795716 -0.002903375
1.1713506e-36 -8.682276e-37 -1.3591463e-37 -6.4334877e-37 9.035852e-37 -9.9623855e-37 -3.1444806e-37 -1.29976975e-36
1.4519302e-36 -1.32252e-40 -4.6572e-41 2.1496e-41 -7.0394e-41 1.28645e-40 1.33967e-40 -2.8596e-41
-1.0747e-40 7.7783e-41 0.003735744 0.0021122526 0.00486329 -0.0033171137 -0.0037990191 -0.012733755
0.013551948 -0.00753847 -0.017889353 5.169e-41 3.1238e-41 1.3716e-41 -4.8991e-41 1.17315e-40
-7.6669e-41 -7.9647e-41 -1.8265e-41 6.6681e-41 0.00050294853 0.00036260468 0.0004515488 3.8085607e-05
00000000: 262d 0080 6bc3 0080 e0ab 0000 f00a 0180
00000010: b0a8 0080 f867 0080 27ae 0080 f77d 0080
00000020: 4592 0080 2b9e fc3b 7574 8cbc 531b 443b
00000030: 69f6 75bb 6a14 76ba eee3 cfbb 7bcc 333c
00000040: 0ac9 c73c eef5 763a 1cc2 0bbc cfc0 26bc
00000050: 8e3a dcbb 1b30 693b 6656 99bb aa5d 82bb
00000060: 6e40 a13b cffe f93a 3bb0 ae3b 3f62 bfbc
00000070: c19c 8d3c dd07 083d d967 55bc 6dfc b1bb
00000080: 9d74 8dbb 93f7 06bd 5ebe 943b 3230 843c
00000090: 9196 0139 7d51 06bb f290 8fb8 78a3 213c
000000a0: 0557 4ebc daf4 cb3b 9baa 3c3c c1d7 77bc
000000b0: 164d 09bc 61bd 0080 d8ac 0080 b710 0100
000000c0: a912 0180 9438 0000 5f55 0000 5d63 0180
000000d0: a815 0180 dad2 0000 9b4a 343a 0df8 e33b
000000e0: 5276 83bb f50f 8ebb 3a88 873b aa30 c03b
000000f0: cda9 b03b f115 cd3b 9303 633c d534 0000
00000100: 9e1b 0180 abd9 0180 33ec 0000 1ce3 0000
00000110: bd31 0080 e349 0080 2c2a 0080 8637 0180
00000120: e9f3 0000 ed7c 0000 ee90 0000 01c7 0000
00000130: 6c6f 0000 ac23 0000 dc0f 0000 58fb 0000
00000140: 0155 0080 5142 253c f362 3a3a 3478 113c
00000150: 2cd1 38bb c069 903b b022 e13b b58e a13a
00000160: 9d3e d639 409e c3ba 85f1 0000 7736 0000
00000170: db04 0000 f1d3 0080 cb26 0280 ba78 0000
00000180: bfcd 0000 97c6 0080 8784 0080 7aa4 0080
00000190: 4e08 0000 c673 0000 bbf1 0080 5354 0000
000001a0: c9d4 0080 ff41 0100 d695 0080 f3f3 0000
000001b0: 7436 91bb f986 88bb 2f17 4cbb db8a 793a
000001c0: 741f 1d3a d9a4 7d3a 9ea5 e73a 9174 983a
000001d0: 886d 583a 8f16 fc3a 3878 3c3c d9c4 763b
000001e0: c791 b03b 42bf 333b 7cdd 8d3b dfc4 68bb
000001f0: a81f eb3b 5b08 923a 0900 0080 ae02 0180
00000200: 851b 0080 2ebe 0080 3f60 0000 77f8 0100
00000210: cc38 0000 8237 0000 edda 0080 675c c33b
00000220: b32b 3d3c bc70 903b ebeb 6c3c 1a03 813c
00000230: 0326 5b3c cfe9 0dbb 69cc 87bc 84ce c8bb
00000240: 5823 58bc 07f4 84bc 1697 c8bb fbd2 8dbc
00000250: a898 603c ff3b 7f3c 91be d9bc 9142 8d3a
00000260: 2028 a939 9844 7e3c 68b0 08ba 6cef d13a
00000270: 37a2 8dbb 8d14 123c 4b9a bb3b 8553 9e3b
00000280: 5d3d 513c c717 7e3c c111 123a e266 a8bc
00000290: f17e 6bbc 0b48 d8ba 4206 643a 5c7a 8a3c
000002a0: afdc 04bd 1c66 713c 0713 013d 49d7 963c
000002b0: 86d7 8e3c 903f 05bb 7a75 fb3b 6af4 1f3c
000002c0: 64c5 ffb9 eb41 22bc da95 e4bb 4d8d d03c
000002d0: 5d8a 0000 173c 0000 f0b7 0080 2913 0080
000002e0: 2d79 0000 ade2 0080 038a 0000 4b5a 0080
000002f0: 873a 0000 7096 96bc 943b 423c 23ea 873c
00000300: afda 85bc 0364 333d 0981 f23c 22b3 2c3c
00000310: 7928 d83c e308 863c a3f9 413b 5bf4 7e3b
00000320: 1924 9abb 74bc 41bb dcac 9738 2022 45bb
00000330: f762 1abc f844 7b3b 0435 06bc 0f76 823c
00000340: 9e52 3e3c d1a9 a13c c7e6 2c3c c93c 9a3c
00000350: 7615 ac3b b777 0bbd ee8c b23c 8d46 3ebb
00000360: 844b c703 a5b8 9383 56ff 3882 95eb 5a83
00000370: b0bc 9903 4f80 a983 9400 d682 f524 dd83
00000380: 7b08 f703 aa70 0180 d381 0080 ec3b 0000
00000390: 3bc4 0080 9c66 0100 7275 0100 b74f 0080
000003a0: 952b 0180 d4d8 0000 62d3 743b b86d 0a3b
000003b0: 3c5c 9f3b ef63 59bb f7f8 78bb 3da1 50bc
000003c0: fd08 5e3c 4505 f7bb b18c 92bc 1790 0000
000003d0: 1457 0000 3c26 0000 9188 0080 0747 0100
000003e0: b9d5 0080 06de 0080 ea32 0080 e1b9 0000
000003f0: 4ed8 033a fa1b be39 dbbd ec39 1cbe 1f38

e_conv2.bias f4 [32]
-0.03348081 -0.0008846653 0.035040583 -9.033786e-21 0.038211863 0.03224432 0.0013865628 0.042335346
0.054184433 0.03498756 -0.0263293 -0.00087474595 -6.6763573e-07 -0.008128101 0.0096907485 -4.644762e-09
0.031653855 0.010648771 -0.0010490033 -0.01191601 -6.577871e-05 0.015222471 -0.002437193 0.036855355
-1.1679729e-07 0.05163101 0.04651459 -0.00045284937 -4.0386363e-05 -0.00026628328 -0.0019793967 0.050143193
00000000: 2c23 09bd e2e8 67ba b786 0f3d b5a4 2a9e
00000010: 0b84 1c3d 9f12 043d 54bd b53a d467 2d3d
00000020: 7ff0 5d3d 1e4f 0f3d 8bb0 d7bc 354f 65ba
00000030: 9437 33b5 ba2b 05bc f2c5 1e3c c297 9fb1
00000040: 79a7 013d 2f78 2e3c b67e 89ba 5e3b 43bc
00000050: adf2 89b8 ac67 793c 50b9 1fbb a4f5 163d
00000060: fdd1 fab3 0a7b 533d 1586 3e3d 6a6c edb9
00000070: 8764 29b8 f09b 8bb9 c4b8 01bb f362 4d3d

e_conv3.weight f4 [32, 64, 3, 3]
3.8222e-41 -6.523e-41 -5.167e-42 7.9961e-41 -4.9498e-41 6.9e-42 -6.4905e-41 6.2005e-41
-5.947e-42 0.00010537399 0.0131487455 0.019454358 -0.0083383415 0.0044004684 0.009069876 -0.027252093
-0.0071761217 -0.008539639 -0.006262605 0.0056381766 0.0064971754 -0.0066252695 0.0044700434 0.0042818785
-0.012954941 -0.0050402195 -0.0055769025 0.007398262 0.008034488 0.010519851 0.0013488323 0.003512098
0.0045718346 -0.0061693583 -0.011242975 -0.016985333 0.0018721229 0.017685957 0.016449273 -0.00039738492
0.009230952 0.005887126 -0.012250209 -0.008011068 -0.007572462 -4.3732e-41 9.1365e-41 3.1426e-41
-5.0192e-41 6.9869e-41 4.5558e-41 2.3106e-41 8.1296e-41 -1.18087e-40 0.0011874369 0.007928328
0.00088547665 0.0012909112 0.01344709 0.0070317215 -0.004350392 0.005056217 -0.0060156034 -1.15833e-40
-2.5918e-41 7.0852e-41 -2.4943e-41 4.62e-42 6.9154e-41 6.3948e-41 7.865e-41 9.978e-41
1.49409e-40 1.06712e-40 8.039e-41 4.7019e-41 -8.8831e-41 -1.0798e-41 -8.2504e-41 1.9356e-41
-8.0677e-41 0.002176745 0.003008093 -0.007256617 0.0078976005 0.0057469946 -0.0039207414 0.00093452877
-0.0022420445 -0.007891831 6.8402e-41 8.1236e-41 5.9208e-41 3.4993e-41 -1.302e-42 6.0617e-41
8.9722e-41 -2.9995e-41 4.2466e-41 7.8508e-41 -2.1671e-41 8.0286e-41 -7.7992e-41 -5.137e-41
2.6417e-41 4.3695e-41 1.9736e-41 -4.3684e-41 -0.0024376106 -0.001079955 -0.001907231 -0.00043101117
-0.00036273547 -0.0007649663 -5.1679806e-05 -0.0006007389 -0.00016046599 -0.004418106 -0.0012887686 -0.0035426738
-0.0060965777 -0.0022644901 -0.0036826308 -0.012396146 -0.008553719 -0.009921567 -1.7085e-41 7.156e-42
4.769e-42 -2.9011e-41 2.1836e-41 2.4708e-41 1.1542e-41 -7.2883e-41 1.8447e-41 -0.01778504
0.0068579884 0.017234448 0.00092511607 0.0021248052 0.0060190014 -0.041704725 -0.024087224 -0.014848747
-0.0002971904 0.008268617 0.018801479 -0.010339252 0.007960675 -0.005269423 -0.027753573 -0.008387387
-0.008103361 0.0035669035 0.0058861324 0.00046190163 0.0009985018 0.0067818756 0.0013900789 -0.0069288085
-0.002275943 -0.009644317 0.00018748865 0.014677025 0.018676106 0.0022062175 -2.3209817e-05 0.020780198
-0.034009993 -0.016336773 -0.0060712816 0.009383409 0.0022577392 0.007627778 0.0022246626 -0.0022405642
-0.011756235 -0.01665438 -0.012798012 -0.009953989 7.1801e-41 6.719e-41 4.396e-41 1.27528e-40
9.2907e-41 2.1214e-41 3.6882e-41 -5.458e-42 3.3446e-41 -0.0020257346 0.0033391693 -0.00041869868
-0.0013135053 0.010118042 0.012926832 -0.020745672 -0.019191775 -0.0037228186 -0.0038368383 0.007171306
0.0198055 -0.015856128 -0.0027352418 0.009289987 -0.024733778 -0.012350306 -0.002162131 -0.0044783955
0.006338917 0.001707464 0.0018403092 0.0088947695 0.0090758065 -0.014166377 -0.0067099263 -0.0025953853
1.9247709e-38 1.015281e-38 1.4870087e-37 9.826823e-39 7.6796167e-38 -9.72059e-39 -8.737948e-38 1.9558581e-38
-5.404e-40 3.81e-42 7.8946e-41 -9.972e-41 5.5853e-41 -8.9711e-41 9.1115e-41 8.9777e-41
9.8514e-41 -5.1663e-41 -0.005849219 0.0005524081 0.012114534 -0.0085736085 0.019974202 0.0071892706
-0.022054909 -0.01177541 -0.009606379 -1.37333e-40 7.0625e-41 1.04442e-40 -1.49552e-40 -4.7374e-41
1.01345e-40 1.20914e-40 -2.6995e-41 -6.1357e-41 0.0002873442 0.00057125924 0.00053956395 0.0004336906
00000000: 8c6a 0000 d6b5 0080 670e 0080 e6de 0000
00000010: fb89 0080 3c13 0000 eeb4 0080 d8ac 0000
00000020: 9410 0080 3bfc dc38 d66d 573c bf5e 9f3c
00000030: 8a9d 08bc ce31 903b d199 143c c83f dfbc
00000040: ac25 ebbb d8e9 0bbc 8a36 cdbb 74c0 b83b
00000050: 42e6 d43b ca18 d9bb 7179 923b 004f 8c3b
00000060: f640 54bc 6d28 a5bb 73be b6bb 1f6d f23b
00000070: 16a3 033c 745b 2c3c 4dcb b03a 3a2b 663b
00000080: 54cf 953b 5428 cabb 7434 38bc d324 8bbc
00000090: 0562 f53a 24e2 903c a0c0 863c 1a58 d0b9
000000a0: 6b3d 173c cbe8 c03b 1ab5 48bc db40 03bc
000000b0: 6a22 f8bb e879 0080 b0fe 0000 9a57 0000
000000c0: ea8b 0080 c4c2 0000 ff7e 0000 6940 0000
000000d0: 9fe2 0000 2e49 0180 c5a3 9b3a d1e5 013c
000000e0: 551f 683a cb33 a93a 2f51 5c3c 5b6a e63b
000000f0: bc8d 8ebb 9fae a53b 8a1e c5bb e542 0180
00000100: 4048 0080 82c5 0000 8845 0080 e10c 0000
00000110: c6c0 0000 43b2 0000 3fdb 0000 2516 0100
00000120: 7ea0 0100 7829 0100 18e0 0000 1283 0000
00000130: a0f7 0080 1a1e 0080 fde5 0080 f535 0000
00000140: e5e0 0080 b9a7 0e3b 6d23 453b eac8 edbb
00000150: f064 013c 4951 bc3b 9079 80bb 2afb 743a
00000160: 44ef 12bb bd4c 01bc adbe 0000 74e2 0000
00000170: 0ca5 0000 8c61 0000 a103 0080 faa8 0000
00000180: 1cfa 0000 9d53 0080 6176 0000 d9da 0000
00000190: 693c 0080 cedf 0000 69d9 0080 338f 0080
000001a0: a449 0000 ce79 0000 0437 0000 c679 0080
000001b0: 52c0 1fbb 478d 8dba 0efc f9ba 57f9 e1b9
000001c0: 882d beb9 0588 48ba c5c2 58b8 e87a 1dba
000001d0: c342 28b9 c2c5 90bb e6eb a8ba 342c 68bb
000001e0: cdc5 c7bb d767 14bb 4b58 71bb 3419 4bbc
000001f0: e624 0cbc 118e 22bc a02f 0080 f313 0000
00000200: 4b0d 0000 df50 0080 df3c 0000 e044 0000
00000210: 2d20 0000 2bcb 0080 6c33 0000 efb1 91bc
00000220: fab8 e03b 422f 8d3c 7d83 723a 5140 0b3b
00000230: 0b3b c53b 93d2 2abd 9252 c5bc 2948 73bc
00000240: 38d0 9bb9 1879 073c 8f05 9a3c f765 29bc
00000250: 7e6d 023c 20ab acbb 765b e3bc 406b 09bc
00000260: f6c3 04bc b6c2 693b 75e0 c03b 632b f239
00000270: 29e0 823a 7f3a de3b 4f33 b63a 0f0b e3bb
00000280: fd27 15bb 3303 1ebc 9a98 4439 e877 703c
00000290: a2fe 983c 3096 103b b4b2 c2b7 3c3b aa3c
000002a0: 104e 0bbd b2d4 85bc 9af1 c6bb dfbc 193c
000002b0: 94f6 133b 71f2 f93b a5cb 113b 6ed6 12bb
000002c0: 399d 40bc c46e 88bc c1ae 51bc 0e16 23bc
000002d0: 27c8 0000 4cbb 0000 8b7a 0000 7f63 0100
000002e0: fd02 0100 233b 0000 d066 0000 370f 0080
000002f0: 3c5d 0000 30c2 04bb f7d5 5a3b c984 dbb9
00000300: ed29 acba 25c6 253c 10cb 533c d4f2 a9bc
00000310: 1238 9dbc 88fa 73bb 7773 7bbb 46fd ea3b
00000320: 253f a23c b6e4 81bc be41 33bb 0835 183c
00000330: 7e9e cabc f058 4abc 8ab2 0dbb 81bf 92bb
00000340: b1b6 cf3b fccc df3a 8836 f13a 5ebb 113c
00000350: b1b2 143c 171a 68bc f1de dbbb 5717 2abb
00000360: c896 d100 e78d 6e00 b166 4a02 2f01 6b00
00000370: 1e0f d101 0dd9 6980 9cde ed81 5ef9 d400
00000380: 6ae2 0580 9f0a 0000 12dc 0000 fb15 0180
00000390: b29b 0000 14fa 0080 fefd 0000 43fa 0000
000003a0: 9e12 0100 0490 0080 ceaa bfbb 7bcf 103a
000003b0: 0a7c 463c 5278 0cbc f0a0 a33c f993 eb3b
000003c0: 7fac b4bc a6ed 40bc 1364 1dbc d47e 0180
000003d0: e0c4 0000 2423 0100 e4a0 0180 0f84 0080
000003e0: 821a 0100 0f51 0100 404b 0080 0aab 0080
000003f0: b0a6 9639 8fc0 153a 8671 0d3a f860 e339

e_conv3.bias f4 [32]
0.03722863 0.030282024 -0.0027811497 0.01008299 0.037944682 -9.094164e-24 -0.013807593 -0.00046384014
0.03375332 0.006166437 0.03254704 -5.6908385e-16 -1.0410271e-30 -4.0929515e-10 -0.0021377776 -0.0009434749
0.07481125 -0.013742708 0.06257356 -0.008941535 -9.445088e-30 0.017598081 -0.00065561733 -0.009994613
0.012202608 -0.0010384676 0.0061535453 0.03926422 -6.4012225e-20 -0.018343488 0.03556996 -0.018047266
00000000: 0c7d 183d 0212 f83c f343 36bb 2033 253c
00000010: e26b 1b3d 1ee8 2f99 3e39 62bc 922f f3b9
00000020: ec40 0a3d d30f ca3b 0c50 053d fa06 24a6
00000030: 93ea a88d 2c03 e1af f519 0cbb 8753 77ba
00000040: a436 993d 1829 61bc 9126 803d 847f 12bc
00000050: b391 3f8f da29 903c bcdd 2bba 72c0 23bc
00000060: 73ed 473c 311d 88ba aea3 c93b 85d3 203d
00000070: 0425 979f 1545 96bc ceb1 113d dcd7 93bc

e_conv4.weight f4 [32, 64, 3, 3]
-0.0033329711 0.011180013 -0.03727912 0.004970794 -0.00637959 -0.0073457914 0.013682513 -0.0035730065
-0.012270032 4.185233e-06 3.9626048e-06 4.120506e-06 3.9712945e-06 4.0831515e-06 3.762571e-06 3.929863e-06
3.759025e-06 3.6539598e-06 0.00018957727 0.0025105025 0.0024789602 -0.0012818853 0.0009866158 0.0004350593
-0.0032257813 -0.0012344309 -0.0029563834 -3.5125e-41 3.6983e-41 -4.1972e-41 -7.1926e-41 1.2033e-41
2.0615e-41 7.6612e-41 -7.4137e-41 -1.805e-42 -0.0014196449 -0.0066550127 -0.020641562 -0.003575171
0.03592415 4.777063e-05 -0.02809571 -0.0066437693 0.0016301654 -0.00197917 0.00048887567 -0.00446835
0.00033773185 0.002064211 -0.003016498 0.0029404438 0.004953989 0.00069271005 0.0016688227 0.0023150144
0.0013297898 -0.0052609476 0.0013114387 -0.001232442 -0.001551329 -9.867085e-07 -0.00029337328 -0.011152494
-0.014341735 -0.02130074 -0.019052519 0.015506082 0.007957675 -0.00859558 0.0061120344 -0.0077772685
-0.015525156 0.005824335 0.010266931 -0.0073566507 0.024005804 -0.005222483 -0.004877949 -0.008491108
-0.018713037 -0.016962519 0.00043688863 -0.020353729 0.026046941 -0.011717492 0.014078724 0.0036649408
0.0024467832 -0.011341662 0.0069675855 -0.01528308 -0.0059533324 -0.011167193 0.013370086 0.035575908
-0.008823644 0.013832472 0.0018714495 2.936208e-07 2.9723486e-07 2.527896e-07 2.8536485e-07 3.4980866e-07
2.7570826e-07 2.9790593e-07 2.987908e-07 2.8826656e-07 -1.3564802e-12 -3.6608026e-12 -1.4588199e-12 -1.7783346e-12
-1.6727144e-12 -3.157099e-12 -1.7666985e-12 -2.653764e-12 -3.1559345e-12 -0.010416822 0.025192168 0.0082475785
0.008626741 0.015656287 -0.005822735 -0.04260199 0.023816602 -0.0014773095 -0.0015728638 -0.0008804921
-0.0010155939 -0.00047445716 -0.00071151915 -0.0019214364 0.0007548022 -0.00043337242 -0.002653022 5.1704e-41
2.6615e-41 -5.8887e-41 6.8825e-41 5.6615e-41 -4.4728e-41 6.8498e-41 -7.6596e-41 -6.7847e-41
0.0040044063 -0.042695124 -0.02112054 -0.020937558 -0.026745815 0.011356228 0.010981612 0.014746418
0.027597882 0.002061351 -0.0018283254 -0.0012389726 0.0018378666 -0.002161774 -0.0017174113 0.00088261557
-0.00338061 -0.00300593 -1.3617145e-09 -1.3686942e-09 -1.053061e-09 -5.627636e-10 -1.4587718e-09 3.4774e-10
-9.804468e-10 -5.269672e-10 -1.380192e-09 -0.0060731573 -0.01152998 0.0068904073 -0.00550636 0.0058711586
-0.004774108 -0.0030838472 0.007187914 -0.007206871 2.1607417e-16 -2.5235846e-16 1.3263563e-16 -2.6246383e-16
-2.3182834e-16 -1.3214889e-16 -6.7871877e-17 -6.132626e-17 -2.0738759e-16 0.0038232014 -0.00032719807 -0.0026572433
0.0027738109 -0.0013380849 -0.00450457 0.00474492 0.00078509166 -0.0027055275 -0.00021005959 -0.00020296019
-0.00019405848 -0.00019321125 -0.00020662008 -0.00020716133 -0.00019924298 -0.00020502038 -0.00020455607 -0.0019108328
-0.0031458142 -0.001364141 -0.0038498624 2.1056929e-05 0.0024532105 -0.0029649225 0.00028783592 -0.00049489044
7.0128466e-30 6.9670576e-30 5.1453964e-30 7.009052e-30 5.2277743e-30 7.055165e-30 5.725323e-30 5.2884784e-30
6.789697e-30 0.0018101815 -0.0074984026 -0.0058870423 0.006710417 -0.0030467082 -0.0011607462 0.005664209
-0.0033355043 -0.0012188815 0.010204241 -0.013461979 -0.0013239412 -0.0035425408 -0.0052693384 0.0075701643
0.013132559 0.01757597 0.010742187 4.75e-43 3.5533e-41 4.0771e-41 -3.4286e-41 -7.6957e-41
-7.7014e-41 -1.8141e-41 -4.7825e-41 2.9279e-41 2.371025e-11 2.2344317e-11 2.0814683e-11 2.3593903e-11
00000000: fa6d 5abb 602c 373c feb1 18bd 0be2 a23b
00000010: e10b d1bb f7b4 f0bb 9e2c 603c 1a29 6abb
00000020: 3f08 49bc e16e 8c36 84f6 8436 e142 8a36
00000030: 2941 8536 0102 8936 7a80 7c36 44dd 8336
00000040: 8f43 7c36 8d36 7536 43c9 4639 3e87 243b
00000050: 0d76 223b ef04 a8ba 5551 813a ac18 e439
00000060: a167 53bb a1cc a1ba e2bf 41bb ea61 0080
00000070: 1867 0000 0075 0080 80c8 0080 8b21 0000
00000080: 7739 0000 90d5 0000 aace 0080 0805 0080
00000090: 6113 baba 4b12 dabb 7e18 a9bc 6b4d 6abb
000000a0: 3425 133d 535d 4838 f928 e6bc fab3 d9bb
000000b0: 46ab d53a f6b4 01bb e427 003a 3d6b 92bb
000000c0: 9a11 b139 b747 073b 70b0 45bb 76b4 403b
000000d0: 1255 a23b fc96 353a 66bc da3a 7fb7 173b
000000e0: 574c ae3a 0764 acbb 95e4 ab3a e489 a1ba
000000f0: f755 cbba 0c6f 84b5 e5cf 99b9 f3b8 36bc
00000100: 99f9 6abc e47e aebc 0714 9cbc 390d 7e3c
00000110: e860 023c 7ad4 0cbc 7647 c83b 75d8 febb
00000120: 395d 7ebc 10da be3b a136 283c 0f10 f1bb
00000130: d2a7 c43c 5d21 abbb 34d7 9fbb 4a1e 0bbc
00000140: 154c 99bc fbf4 8abc 330e e539 ddbc a6bc
00000150: 6560 d53c b9fa 3fbc 73aa 663c 812f 703b
00000160: 365a 203b 61d2 39bc 5850 e43b e265 7abc
00000170: 2c14 c3bb 9af6 36bc 350e 5b3c 0bb8 113d
00000180: 0c91 10bc 98a1 623c 6d4b f53a efa2 9d34
00000190: a693 9f34 23b7 8734 3f34 9934 56cd bb34
000001a0: 0e05 9434 e1ef 9f34 7f69 a034 0ec3 9a34
000001b0: 5ae8 beab 94cd 80ac 874f cdab 4247 faab
000001c0: e369 ebab 3d29 5eac 06a4 f8ab f6bd 3aac
000001d0: 4314 5eac 51ab 2abc ce5f ce3c da20 073c
000001e0: 2d57 0d3c 9d41 803c a4cc bebb 6d7f 2ebd
000001f0: 091b c33c 48a2 c1ba 8d28 ceba d3d0 66ba
00000200: ad1d 85ba 90c0 f8b9 3e85 3aba b5d8 fbba
00000210: ebdd 453a 4336 e3b9 53de 2dbb 2190 0000
00000220: 314a 0000 27a4 0080 dbbf 0000 d29d 0000
00000230: af7c 0080 f2be 0000 85d5 0080 21bd 0080
00000240: 6537 833b 15e1 2ebd fc04 adbc 3e85 abbc
00000250: 0a1a dbbc 790f 3a3c 38ec 333c f69a 713c
00000260: f414 e23c bb17 073b 6ca4 efba 0665 a2ba
00000270: 92e4 f03a 8dac 0dbb c31a e1ba 545f 673a
00000280: 398d 5dbb 23ff 44bb 1227 bbb0 a51c bcb0
00000290: 4abb 90b0 f8b0 1ab0 f87d c8b0 0e2c bf2f
000002a0: 68c0 86b0 05da 10b0 30b1 bdb0 5601 c7bb
000002b0: 3ee8 3cbc edc8 e13b b26e b4bb d962 c03b
000002c0: 1f70 9cbb 5f1a 4abb 9888 eb3b 9e27 ecbb
000002d0: d71d 7925 8979 91a5 21eb 1825 d34c 97a5
000002e0: d3a3 85a5 785b 18a5 7c80 9ca4 a268 8da4
000002f0: 031a 6fa5 ad8e 7a3b c88b abb9 2525 2ebb
00000300: d3c8 353b ae62 afba 129b 93bb 467b 9b3b
00000310: 9cce 4d3a 384f 31bb 7143 5cb9 b6d1 54b9
00000320: 2d7c 4bb9 c098 4ab9 28a8 58b9 7239 59b9
00000330: e1eb 50b9 bdfa 56b9 1a7e 56b9 e974 faba
00000340: 012a 4ebb facc b2ba f94d 7cbb 69a3 b037
00000350: 0bc6 203b 254f 42bb afe8 9639 89bb 01ba
00000360: c83c 0e0f 084f 0d0f dab8 d00e 1429 0e0f
00000370: 5010 d40e 8318 0f0f 273f e80e b386 d60e
00000380: 1fb6 090f 9d43 ed3a 29b5 f5bb 17e8 c0bb
00000390: 0fe3 db3b 48ab 47bb 2e24 98ba d49a b93b
000003a0: 7a98 5abb e0c2 9fba b02f 273c a28f 5cbc
000003b0: 1888 adba f929 68bb 6aaa acbb 240f f83b
000003c0: f229 573c 7bfb 8f3c ffff 2f3c 5301 0000
000003d0: 0d63 0000 a771 0000 935f 0080 86d6 0080
000003e0: afd6 0080 9232 0080 5185 0080 9e51 0000
000003f0: bd8e d02d ee8a c42d 8016 b72d bf88 cf2d

e_conv4.bias f4 [32]
0.033024088 0.0023649363 -0.012603427 -0.00036473473 0.01674715 0.01614667 0.013118069 0.017895296
-3.83515e-08 -3.9247137e-11 0.017945305 0.025894675 0.02325705 0.012226001 0.022583555 0.012386224
-0.00061260397 0.062129796 -4.0013117e-07 0.031715803 0.0036663683 -1.769756e-11 0.022067232 -1.3618642e-07
-0.0027956597 0.03680204 -0.00023603921 0.03178231 0.05321257 0.019510765 -5.374349e-16 0.022720754
00000000: 4444 073d 0cfd 1a3b 9b7e 4ebc de39 bfb9
00000010: 5231 893c 0546 843c 2bed 563c 2899 923c
00000020: ecb7 24b3 599c 2cae 0802 933c 1221 d43c
00000030: 9285 be3c 914f 483c 2601 b93c 97ef 4a3c
00000040: 2897 20ba d07b 7e3d 9cd1 d6b4 6ee8 013d
00000050: 7447 703b 5dab 9bad 57c6 b43c a33a 12b4
00000060: 6337 37bb bcbd 163d 4b81 77b9 2b2e 023d
00000070: 6cf5 593d 0ad5 9f3c b2e7 1aa6 e020 ba3c

e_conv5.weight f4 [32, 64, 3, 3]
0.00094972126 0.001254685 -0.0019774796 0.0045668343 0.0036296847 -0.00022179494 0.0068236087 0.0064503793
0.0028538804 0.008392065 0.0016325249 0.0031690607 0.005237825 -0.00037720994 0.00073873997 0.0017148324
-0.0028294781 -0.0010025229 -2.56568e-06 2.2069253e-06 -2.9512594e-06 -2.6191276e-06 -1.4935061e-06 -3.2806888e-06
-2.254712e-06 -3.5937708e-06 -1.826582e-06 0.010455416 -0.00053713867 0.015295948 0.0035042956 0.01020346
0.0138062 -0.002615533 0.011574225 0.012329072 0.009875237 0.006645104 0.0017010501 0.011686677
-0.0041726567 0.004060977 -0.014542404 -0.01011623 -0.016511576 5.1953e-41 7.5747e-41 1.7645e-41
-4.292e-42 1.26736e-40 7.5894e-41 -4.5965e-41 1.11975e-40 -1.1519e-41 0.003811212 0.010601284
0.010504888 0.0023088017 0.0074145566 0.008786516 0.0024200322 0.006347396 0.009679412 -8.837156e-16
-9.535478e-16 -1.4439529e-15 -8.526541e-16 -1.1341296e-15 -9.298732e-16 -7.60543e-16 -1.1742898e-15 -7.496496e-16
-0.02239514 0.012942249 -0.023691302 -0.019792758 0.024549918 -0.014357753 0.009605824 -0.017398322
0.010883902 0.015453124 -0.0015853171 -0.008887586 0.0073806313 -0.015711868 -0.0047084293 -0.0057446244
0.00058594474 -0.0006249206 -0.004104408 0.0022563192 0.014366603 -0.0036378724 0.0013836456 0.015329648
0.00016044549 0.009012446 0.026504617 -9.102e-41 -1.18299e-40 -6.1922e-41 6.6723e-41 -1.05404e-40
-6.3655e-41 1.27971e-40 -6.8507e-41 4.004e-42 1.41311e-40 -6.0309e-41 7.746e-42 -8.4823e-41
5.1508e-41 -7.8669e-41 -8.22e-41 -6.0203e-41 -5.7902e-41 5.653328e-38 1.1674781e-37 5.502294e-38
-2.6144583e-38 5.848938e-38 5.828579e-38 5.8741473e-38 -2.247167e-37 2.8689961e-36 2.9361061e-08 1.9667857e-08
-2.094862e-08 1.428131e-08 2.758233e-10 1.8397746e-08 -3.482372e-08 -6.3495498e-09 4.8699075e-08 -8.6987e-41
-5.2757e-41 9.7572e-41 -4.0685e-41 -7.9269e-41 7.4095e-41 -6.852e-41 2.3591e-41 -9.51e-41
-0.0077463933 -0.0052080015 -0.0029281157 -0.0081438 -0.0042100265 -0.0021322302 -0.000494348 0.0039548296
0.004195231 -0.012975274 0.0031347747 0.0110773165 0.0002236477 0.004788703 -0.007600687 0.004488012
-0.008482142 -0.010983982 -0.0028395995 -0.0011258968 0.0020717415 -0.0015679394 0.0017368468 0.0052436176
0.0010330509 0.0037592456 0.0047204047 -0.010669298 0.0071340217 0.017918501 0.013558972 0.004267263
0.002326254 -0.01098914 -0.00352266 0.003058976 6.4011e-41 -5.737e-42 5.5887e-41 -9.9631e-41
1.1489e-41 6.2035e-41 -1.2053e-41 1.6845e-41 2.8273e-41 -0.006067468 -0.0029170923 -0.0037477948
-0.00011012471 0.0010852541 -0.013972709 -1.3974649e-05 0.00022378124 0.0030713414 -2.3164575e-05 0.0026660834
0.014808764 0.007387198 0.009210982 -0.009492149 -0.0032355404 -0.006159919 -0.015564955 -0.005256368
0.007908854 0.003576941 0.01491173 -0.005561579 0.0017939 -0.013293174 0.020506965 -0.014779569
0.012025326 0.021686861 -0.026205737 0.002296521 -0.009323155 -0.006672377 -0.017261477 -0.02272177
0.0027984832 3.7123886e-05 -6.1450184e-05 -6.4712265e-05 -6.6593806e-05 -6.0153812e-05 -6.2369596e-05 -6.8218906e-05
-5.6394158e-05 -5.8290345e-05 0.003212619 0.010917071 0.012179235 0.0015115618 0.008132844 0.008751525
-0.0014316157 0.004885103 0.0064200447 -0.015136919 -0.011248284 -0.005322275 -0.009150177 0.0019135216
0.038651455 0.010823943 -0.013251311 0.0022765484 -1.4078677e-20 -3.0005382e-20 -2.7846612e-20 -2.8444812e-20
00000000: b7f6 783a 3e74 a43a 9a98 01bb 62a5 953b
00000010: 01e0 6d3b a091 68b9 9498 df3b b45d d33b
00000020: 2b08 3b3b df7e 093c 72fa d53a 04b0 4f3b
00000030: 10a2 ab3b 43c4 c5b9 00a8 413a 3ac4 e03a
00000040: c46e 39bb 1667 83ba 0c2e 2cb6 b01a 1436
00000050: 400e 46b6 45c4 2fb6 7b74 c8b5 ce29 5cb6
00000060: a84f 17b6 832c 71b6 e128 f5b5 314d 2b3c
00000070: c4ce 0cba db9b 7a3c 53a8 653b 6a2c 273c
00000080: 6633 623c 5d69 2bbb d1a1 3d3c e0ff 493c
00000090: bfcb 213c 2cbf d93b c5f5 de3a 7a79 3f3c
000000a0: c8ba 88bb f211 853b 4343 6ebc 8bbe 25bc
000000b0: 4943 87bc d390 0000 27d3 0000 3031 0000
000000c0: f70b 0080 4a61 0100 90d3 0000 2280 0080
000000d0: 2438 0100 1c20 0080 87c5 793b 02b1 2d3c
000000e0: b21c 2c3c 444f 173b cff5 f23b 52f5 0f3c
000000f0: 6799 1e3b d1fd cf3b 6596 1e3c b4b6 7ea6
00000100: b46b 89a6 7618 d0a6 c5c2 75a6 ff71 a3a6
00000110: 4402 86a6 2b36 5ba6 a63b a9a6 6112 58a6
00000120: 0376 b7bc ba0b 543c 4314 c2bc 6c24 a2bc
00000130: e91c c93c c83c 6bbc bf61 1d3c ed86 8ebc
00000140: 6552 323c 1a2f 7d3c 6aca cfba 3d9d 11bc
00000150: 39d9 f13b 2db6 80bc 2b49 9abb 673d bcbb
00000160: 169a 193a b6d1 23ba 457e 86bb c1de 133b
00000170: e761 6b3c 5f69 6ebb 715b b53a 3429 7b3c
00000180: 423d 2839 f0a8 133c 3620 d93c bafd 0080
00000190: c549 0180 9dac 0080 ffb9 0000 d325 0180
000001a0: 72b1 0080 bb64 0100 f8be 0080 290b 0000
000001b0: eb89 0100 1ea8 0080 9815 0000 74ec 0080
000001c0: 958f 0000 4cdb 0080 24e5 0080 d2a7 0080
000001d0: 68a1 0080 f2e5 9901 ade8 1e02 65c9 9501
000001e0: 3b58 0e81 2639 9f01 44ab 9e01 d5e8 9f01
000001f0: 2cef 9882 3411 7404 a835 fc32 13f2 a832
00000200: 81f2 b3b2 de59 7532 aea2 972f 1209 9e32
00000210: 1691 15b3 3b2b dab1 3329 5133 7cf2 0080
00000220: 1193 0080 fe0f 0100 6a71 0080 f8dc 0080
00000230: 8cce 0000 02bf 0080 c341 0000 1a09 0180
00000240: 75d5 fdbb e2a7 aabb a1e5 3fbb 936d 05bc
00000250: 43f4 89bb e3bc 0bbb 2297 01ba 8497 813b
00000260: 2678 893b 3e96 54bc cb70 4d3b a27d 353c
00000270: f982 6a39 8dea 9c3b 2f0f f9bb 2c10 933b
00000280: aff8 0abc 29f6 33bc 9318 3abb d492 93ba
00000290: 0ec6 073b 5183 cdba e8a6 e33a a7d2 ab3b
000002a0: 7067 873a ad5d 763b a0ad 9a3b 47ce 2ebc
000002b0: 83c4 e93b d2c9 923c 7326 5e3c 66d4 8b3b
000002c0: 1174 183b cb0b 34bc 6ddc 66bb 1a79 483b
000002d0: 70b2 0000 fe0f 0080 ca9b 0000 bb15 0180
000002e0: 0720 0000 eeac 0000 9921 0080 f52e 0000
000002f0: d04e 0000 9cd1 c6bb b02c 3fbb 909d 75bb
00000300: c1f2 e6b8 163f 8e3a caed 64bc a974 6ab7
00000310: d2a6 6a39 8f48 493b 8c51 c2b7 75b9 2e3b
00000320: 75a0 723c 4f10 f23b a9e9 163c f584 1bbc
00000330: 5c0b 54bb 25d9 c9bb 2704 7fbc 9c3d acbb
00000340: 2394 013c 1d6b 6a3b 5450 743c e83d b6bb
00000350: 4c21 eb3a 9dcb 59bc 39fe a73c 0126 72bc
00000360: df05 453c a5a8 b13c 6aad d6bc 3b81 163b
00000370: 25c0 18bc f5a3 dabb f167 8dbc 0123 babc
00000380: c266 373b 78b5 1b38 d1de 80b8 22b6 87b8
00000390: 47a8 8bb8 aa4d 7cb8 6ccc 82b8 bf10 8fb8
000003a0: c488 6cb8 c87c 74b8 ce8a 523b 84dd 323c
000003b0: 6a8b 473c 991f c63a 9f3f 053c 8e62 0f3c
000003c0: 0da5 bbba 3713 a03b 3d5f d23b d700 78bc
000003d0: b94a 38bc 7b66 aebb a0ea 15bc 21cf fa3a
000003e0: fd50 1e3d e856 313c 071c 59bc 2532 153b
000003f0: 27f8 849e 48b2 0d9f 7d80 039f ab53 069f

e_conv5.bias f4 [32]
0.020909332 -2.6437846e-07 -1.0567538e-28 0.027580088 -2.1539856e-29 0.006206311 0.03345992 0.02857901
0.015239894 -1.6322923e-09 0.042125445 0.028667612 -5.3150865e-32 -0.00014940047 0.026547715 0.03379477
0.0037648608 0.002313556 -0.0020962034 0.007633594 0.026129331 0.029450879 0.010173292 -2.0880831e-33
0.020457575 -0.0015556674 0.02317759 0.009525648 0.043757264 -1.6525179e-06 -2.1062366e-13 -6.250154e-05
00000000: 0c4a ab3c e6ef 8db4 9ff5 0591 a3ef e13c
00000010: aa70 da8f 4f5e cb3b 450d 093d 871e ea3c
00000020: c0b0 793c 2e57 e0b0 bb8b 2c3d 57d8 ea3c
00000030: cffc 898b 62a8 1cb9 987a d93c 626c 0a3d
00000040: e2bb 763b 079f 173b 7560 09bb 3a23 fa3b
00000050: 2e0d d63c f842 f13c e1ad 263c 9e78 2d89
00000060: a596 a73c 89e7 cbba eede bd3c 7711 1c3c
00000070: d13a 333d 15cc ddb5 2324 6daa 4213 83b8

e_conv7.weight f4 [8, 64, 3, 3]
0.00043847694 0.00037843015 -0.003940894 0.008332164 0.0076378393 0.0042060255 0.010635484 0.009650981
0.0052171703 0.001835351 0.0006055019 0.004802598 0.004527743 0.0027587444 0.0074497396 0.00922737
0.009707848 0.014359532 2.2914e-41 7.0967e-41 7.148e-42 -1.38193e-40 -4.5475e-41 -1.07464e-40
7.385e-42 -3.6319e-41 -6.4195e-41 5.248931e-19 3.3613022e-19 2.5212036e-19 -3.472177e-19 -4.0883172e-19
-5.586239e-19 3.0959962e-19 -3.1407172e-19 3.3007743e-19 -0.0003474951 -0.0026029125 -0.005975886 0.00516652
0.002220056 -0.0016091281 0.0056160954 0.0026455156 -0.0014506883 -0.01018463 -0.0072019915 -0.0064063054
-8.3316736e-05 0.0034349402 0.0038781664 0.0059080403 0.009726557 0.00964058 0.004532154 0.004062586
0.0056231697 0.0039739036 0.0045526796 0.006397403 0.004719445 0.005071669 0.0071458146 -0.013824129
-0.025165273 -0.039411 0.004383984 -0.0070883213 -0.02212202 0.014970675 -0.0017522874 -0.017354272
2.478e-41 5.7162e-41 8.9804e-41 6.5487e-41 -5.0099e-41 -7.7628e-41 5.685e-41 -4.1987e-41
-1.0671e-41 -3.2558e-41 8.6317e-41 -6.6039e-41 1.50518e-40 1.2351e-41 1.6123e-40 7.988e-41
-1.51342e-40 2.4188e-41 0.0013626778 -0.003024457 -0.0010896306 0.0015878117 -0.002740772 -0.0006455889
0.0006157784 -0.0036897135 -0.0014573883 -0.0074223997 -0.004946477 -0.0096082445 -0.0026403537 0.00050192676
-0.0050712987 -0.0034143366 -0.0010506901 -0.0059193075 -5.0416264e-05 0.009389017 0.0028582036 -0.0035347466
0.0056435475 -0.000592743 -0.005895561 0.0032820574 -0.0030923556 -0.019557491 -0.023866892 -0.009027796
-0.016864445 -0.022079008 -0.007149699 -0.000956998 -0.0061487556 0.009962547 -0.0019667142 0.002134864
0.0018615194 -0.00087937666 0.0031546173 0.0037518165 0.0020178754 0.006268224 0.0066221915 -0.0031718235
-0.003458707 -0.0031404512 0.0016179178 0.0013478674 0.0015583803 0.0024005373 0.0024885458 0.0031733783
-9.1747e-41 -8.6212e-41 1.73143e-40 7.4168e-41 8.2078e-41 -2.3382e-41 -7.4427e-41 -7.5851e-41
1.28568e-40 0.0056402273 0.048006073 0.008962626 0.038281336 0.08096396 0.042596284 -0.007968256
0.034099083 -0.0041120015 -9.397e-42 -4.1449e-41 1.43392e-40 -1.85119e-40 4.0342e-41 1.29875e-40
1.215e-42 -3.4925e-41 -1.8587e-41 -0.009504798 -0.0023583858 -0.008260893 -0.007776758 -0.001395162
-0.008868341 -0.01467515 -0.009693803 -0.016221225 -0.0041134935 0.0035711636 4.6892233e-06 0.0021317368
0.0098257875 0.0062505635 -0.0054211123 0.0021605035 -0.0013096477 7.8995e-41 7.4601e-41 3.4078e-41
7.6263e-41 -5.3234e-41 2.8e-42 6.6075e-41 4.749e-41 1.4851e-40 -0.0031819723 -0.0019394272
-0.0060871015 0.0032450221 0.004546793 0.0002758916 0.0024032341 0.0037586293 -0.00022960466 8.9882e-41
6.8168e-41 -3.6319e-41 1.05825e-40 9.9593e-41 7.8642e-41 -1.166e-42 -1.0584e-40 7.5187e-41
2.349657e-06 3.300854e-06 -2.0188802e-06 -1.5970419e-06 -2.3232183e-06 -6.473023e-06 3.4309019e-06 -7.285964e-06
-8.8337566e-07 0.0048229764 0.0072731324 0.002097751 0.0013010525 0.004443763 0.0002599894 -0.0013488746
0.0019592685 -0.002663944 0.0064726057 0.0033810667 0.04970678 -0.040777765 -0.043063212 -0.0021787551
-0.03863069 -0.037026852 0.005861515 0.0034552864 0.0029658151 0.0020661468 0.010130566 0.009590422
0.010138903 0.008429585 0.008933686 0.009548387 -0.022892335 0.022976395 -0.020880854 0.018592175
00000000: 61e3 e539 0968 c639 9d22 81bb a183 083c
00000010: d746 fa3b b3d2 893b 7440 2e3c 261f 1e3c
00000020: ccf4 aa3b 2990 f03a 8bba 1e3a 1d5f 9d3b
00000030: 765d 943b 0dcc 343b f21c f43b 652e 173c
00000040: aa0d 1f3c 3e44 6b3c e03f 0000 d4c5 0000
00000050: ed13 0000 3a81 0180 c47e 0080 912b 0180
00000060: 9614 0000 3e65 0080 f3b2 0080 cdeb 1a21
00000070: 906a c620 5ad3 9420 0ef6 cca0 e754 f1a0
00000080: 6ee0 24a1 5fc1 b620 2d65 b9a0 e4d7 c220
00000090: 0130 b6b9 a095 2abb 5dd1 c3bb e94b a93b
000000a0: 5c7e 113b 61e9 d2ba 3907 b83b 6360 2d3b
000000b0: 0625 beba 6fdd 26bc affe ebbb fceb d1bb
000000c0: 55ba aeb8 bc1c 613b d628 7e3b 3c98 c13b
000000d0: 235c 1f3c 86f3 1d3c 7782 943b 711f 853b
000000e0: 9142 b83b 8537 823b a52e 953b 4ea1 d13b
000000f0: 93a5 9a3b 3e30 a63b 7027 ea3b 997e 62bc
00000100: 6727 cebc 6e6d 21bd 86a7 8f3b 2645 e8bb
00000110: 3d39 b5bc 9047 753c 02ad e5ba 8c2a 8ebc
00000120: 1445 0000 589f 0000 56fa 0000 8db6 0000
00000130: a88b 0080 65d8 0080 7a9e 0000 0b75 0080
00000140: bf1d 0080 c25a 0080 9ef0 0000 17b8 0080
00000150: 95a3 0100 6e22 0000 72c1 0100 acde 0000
00000160: e1a5 0180 6d43 0000 e19b b23a f835 46bb
00000170: f0d1 8eba 1f1e d03a 869e 33bb bd3c 29ba
00000180: 306c 213a 1fcf 71bb d605 bfba 9a37 f3bb
00000190: 0e16 a2bb e66b 1dbc c909 2dbb bc93 033a
000001a0: 232d a6bb 10c3 5fbb 4fb7 89ba c0f6 c1bb
000001b0: 0d76 53b8 64d4 193c b350 3b3b 35a7 67bb
000001c0: 82ed b83b 4f62 1bba 8d2f c1bb c917 573b
000001d0: 1ea9 4abb 0837 a0bc 8084 c3bc 52e9 13bc
000001e0: 4e27 8abc 09df b4bc 0648 eabb 0cdf 7aba
000001f0: 807b c9bb f339 233c fde3 00bb 13e9 0b3b
00000200: 3afe f33a f885 66ba b2bd 4e3b 09e1 753b
00000210: 553e 043b ad65 cd3b f8fe d83b 5ede 4fbb
00000220: 79ab 62bb 07d0 4dbb 5010 d43a edaa b03a
00000230: 9142 cc3a 5552 1d3b df16 233b 74f8 4f3b
00000240: c1ff 0080 53f0 0080 a7e2 0100 c0ce 0000
00000250: cde4 0000 2e41 0080 79cf 0080 71d3 0080
00000260: 6566 0100 a8d1 b83b 04a2 443d fad7 123c
00000270: e4cc 1c3d 6fd0 a53d 7179 2e3d 4a8d 02bc
00000280: 7bab 0b3d f8bd 86bb 321a 0080 8b73 0080
00000290: b88f 0100 0904 0280 7570 0000 0a6a 0100
000002a0: 6303 0000 5b61 0080 d033 0080 03ba 1bbc
000002b0: 268f 1abb b258 07bc 2dd4 febb dedd b6ba
000002c0: 854c 11bc 0a70 70bc c2d2 1ebc 60e2 84bc
000002d0: 7cca 86bb 2f0a 6a3b 1f58 9d36 9cb4 0b3b
000002e0: 57fc 203c 87d1 cc3b 96a3 b1bb 3c97 0d3b
000002f0: 7ca8 abba 35dc 0000 f5cf 0000 ff5e 0000
00000300: 97d4 0000 6594 0080 ce07 0000 31b8 0000
00000310: 6284 0000 fc9d 0100 a388 50bb 6134 feba
00000320: 4f76 c7bb 70aa 543b 44fd 943b 8ba5 9039
00000330: 947f 1d3b 5653 763b 08c2 70b9 8efa 0000
00000340: 06be 0000 3e65 0080 ff26 0100 a015 0100
00000350: 39db 0000 4003 0080 0a27 0180 97d1 0000
00000360: cdae 1d36 3d84 5d36 197c 07b6 f159 d6b5
00000370: 96e8 1bb6 d832 d9b6 723e 6636 f479 f4b6
00000380: 1d21 6db5 0f0a 9e3b 7553 ee3b 6c7a 093b
00000390: 1488 aa3a fc9c 913b 304f 8839 b9cc b0ba
000003a0: 1267 003b 9095 2ebb 2718 d43b e394 5d3b
000003b0: 5699 4b3d 9606 27bd 0d63 30bd 72c9 0ebb
000003c0: 373b 1ebd 78a9 17bd f411 c03b 1672 623b
000003d0: 1f5e 423b 3168 073b acfa 253c 2521 1d3c
000003e0: a41d 263c 3e1c 0a3c 985e 123c d670 1c3c
000003f0: b588 bbbc fe38 bc3c 530e abbc 9e4e 983c

e_conv7.bias f4 [8]
0.022911275 0.010541009 0.053946022 0.036387578 0.016480483 0.024426367 0.012481759 0.0024699257
00000000: 6db0 bb3c 32b4 2c3c 81f6 5c3d 240b 153d
00000010: 1402 873c ce19 c83c 4b80 4c3c 7ade 213b

e_conv8.weight f4 [8, 64, 3, 3]
0.04612178 0.037825603 0.0025184448 -0.019693756 0.0003018916 0.009840039 0.005365799 0.010994362
-0.027862456 -0.015090271 0.0071263514 -0.008870916 0.012829658 0.029728897 0.019439487 -0.020154463
0.009476093 0.014559057 -2.0208739e-23 4.7970746e-26 -1.4890338e-24 2.3380893e-26 1.2165608e-25 -1.85271e-24
9.99161e-27 1.1801397e-26 6.0879783e-25 1.6235409e-18 1.1614402e-18 -1.6049967e-18 -1.6341236e-18 -1.5788266e-18
-1.5168065e-18 -1.7617698e-18 -1.3320149e-18 3.0644762e-19 -0.003503977 0.0110294195 -0.0053477837 -0.033731785
0.002613348 0.03734586 -0.027433934 0.016472906 0.01707651 -0.0017736157 0.023272006 0.037592
0.05624413 -0.009669576 0.016786909 -0.012606058 0.030788062 0.02420795 0.02182205 0.0123878075
-0.006631429 0.014748008 0.009666368 -0.028427063 0.0124515155 0.036335032 -0.03585936 0.007777899
0.0022109535 0.0039476673 -0.0084313955 0.0029241121 -0.004175323 -0.0018281749 -0.003151927 0.00044167513
8.57365e-40 -1.072666e-39 -4.40837e-40 -9.68458e-40 3.18661e-40 -7.96855e-40 5.775955e-39 -8.36065e-40
-6.446e-42 -3.2949e-41 5.18e-43 -8.0638e-41 6.0395e-41 -4.2777e-41 7.3662e-41 -1.5989e-41
4.3714e-41 -2.3679e-41 0.0016992292 0.010107745 0.0026087514 0.0066948496 0.018469911 0.008605537
-0.00040765398 0.0029493365 -0.0016993358 0.0052072564 -0.0145533 0.01258958 0.017401086 -0.011154051
-0.00041833933 0.023884702 0.0060313744 0.022237763 -7.825628e-05 0.002949019 -0.0013532148 0.008878153
0.017101435 0.009190272 -0.0021094389 -0.004147023 -0.005394787 -5.5413526e-05 0.0059429794 0.0029515014
-0.004598376 0.0061327415 0.0009637716 -0.0061101946 0.0019318912 -0.0062138797 0.028431877 0.0105950935
-0.0021812434 -0.007884422 -0.015085021 0.012130183 -0.017273564 0.007989265 0.010371483 0.052378234
0.02545239 0.009438675 0.037887987 0.022692332 0.0023634247 -0.02126928 -0.016094645 -0.00022565897
4.1222e-41 -6.5851e-41 7.4256e-41 -4.5548e-41 4.6422e-41 -5.7669e-41 1.00353e-40 -8.223e-42
-7.7081e-41 0.0011166957 0.0017145715 -0.0131754065 0.004992478 -0.0021614942 0.0070155 -0.0021184066
0.012382469 -0.0063527725 1.748e-41 5.0699e-41 -9.7907e-41 -4.782e-41 4.261e-42 6.0175e-41
9.7589e-41 -7.4293e-41 6.35e-41 -0.00020557655 0.011351457 -0.007789827 -0.0036101115 0.024872923
-0.002473822 -0.014167771 -0.010074286 0.022132035 -0.0027343237 -0.006034102 -0.0021932619 -0.0017522891
-0.0040195677 -0.0015396387 0.0016887352 -0.002775931 0.0017070726 1.6807e-41 2.9064e-41 2.3578e-41
4.5687e-41 -6.4933e-41 8.298e-42 -2.693e-42 4.2706e-41 -1.7756e-41 -0.005339779 0.02721544
-0.0075665945 0.012874293 0.049629066 0.0064610564 0.0021196872 0.03563887 -0.00041848657 5.5095e-41
-6.8606e-41 -2.64e-42 -2.3894e-41 5.5797e-41 7.0717e-41 -2.6734e-41 1.5542e-41 6.927e-41
-0.0021675783 -0.0022164949 -0.002274703 -0.00216968 -0.0022282146 -0.0022366415 -0.0022673928 -0.002186911
-0.002294542 -0.02382444 -0.009801905 0.019077012 0.0033767198 0.006251698 0.005677379 -0.00718674
0.011170777 0.028720623 -0.0025866823 0.0043472354 -0.0031580895 0.0013132091 0.0058596814 -0.0028281035
-7.880756e-05 0.00380373 -0.0039022383 -0.027619867 0.0016014194 -0.014902923 0.016202865 -0.009928974
-0.0030353405 0.008068973 0.031235317 -0.017467247 -0.0012678017 0.010392608 -0.0048438795 0.014377558
00000000: 31ea 3c3d 05ef 1a3d 7e0c 253b cd54 a1bc
00000010: 3447 9e39 1d38 213c 96d3 af3b b221 343c
00000020: ce3f e4bc 2f3d 77bc 2b84 e93b 5257 11bc
00000030: 7c33 523c 048a f33c 8f3f 9f3c f91a a5bc
00000040: 9d41 1b3c 1c89 6e3c 6a72 c399 258a 6d15
00000050: b56a e697 9b8d e714 5a9a 1616 b458 0f98
00000060: 7be7 4514 31c0 6914 ef69 3c17 a497 ef21
00000070: f865 ab21 10db eca1 7227 f1a1 62fe e8a1
00000080: 54d7 dfa1 e4fe 01a2 1a92 c4a1 0ee5 b420
00000090: fba2 65bb bdb4 343c 763c afbb 572a 0abd
000000a0: b444 2b3b f9f7 183d 21bd e0bc 30f2 863c
000000b0: 09e4 8b3c ab78 e8ba efa4 be3c 12fa 193d
000000c0: 3f60 663d 246d 1ebc b384 893c a489 4ebc
000000d0: 3f37 fc3c c04f c63c 28c4 b23c 3bf6 4a3c
000000e0: 754c d9bb a1a1 713c b05f 1e3c dfdf e8bc
000000f0: 7101 4c3c 0bd4 143d 44e1 12bd bfdd fe3b
00000100: a5e5 103b 6f5b 813b d623 0abc 76a2 3f3b
00000110: 26d1 88bb 5f9f efba 8f90 4ebb a290 e739
00000120: fc55 0900 28ae 0b80 e0cc 0480 ab8b 0a80
00000130: 4c78 0300 4fad 0880 03e5 3e00 9c1a 0980
00000140: f811 0080 d95b 0080 7201 0000 c9e0 0080
00000150: 5ba8 0000 3f77 0080 57cd 0000 922c 0080
00000160: db79 0000 0242 0080 acb8 de3a f59a 253c
00000170: 96f7 2a3b 7860 db3b 364e 973c 3dfe 0c3c
00000180: 64ba d5b9 a849 413b 3fbc deba a2a1 aa3b
00000190: f770 6ebc 8744 4e3c b98c 8e3c 7bbf 36bc
000001a0: 8e54 dbb9 daa9 c33c d6a2 c53b f82b b63c
000001b0: 851d a4b8 5444 413b 5b5e b1ba ac75 113c
000001c0: 4f18 8c3c cb92 163c 833e 0abb c0e3 87bb
000001d0: c1c6 b0bb d26b 68b8 53bd c23b fa6d 413b
000001e0: f9ad 96bb 2af5 c83b 9ea5 7c3a 0738 c8bb
000001f0: 8337 fd3a cd9d cbbb f8e9 e83c 0b97 2d3c
00000200: 31f3 0ebb aa2d 01bc 2a27 77bc adbd 463c
00000210: 4a81 8dbc 68e5 023c 27ed 293c 8f8a 563d
00000220: 8881 d03c aca4 1a3c 6f30 1b3d 45e5 b93c
00000230: b0e3 1a3b ea3c aebc ebd8 83bc de9e 6cb9
00000240: e972 0000 91b7 0080 ffce 0000 f87e 0080
00000250: 6881 0000 c2a0 0080 be17 0100 ec16 0080
00000260: dfd6 0080 175e 923a 79bb e03a a9dd 57bc
00000270: f197 a33b dba7 0dbb 48e2 e53b f7d4 0abb
00000280: d7df 4a3c eb2a d0bb ba30 0000 548d 0000
00000290: ed10 0180 4d85 0080 e10b 0000 bea7 0000
000002a0: 0a10 0100 19cf 0080 03b1 0000 0990 57b9
000002b0: 76fb 393c ce41 ffbb 9f97 6cbb 4dc2 cb3c
000002c0: d91f 22bb f01f 68bc 9e0e 25bc 3e4e b53c
000002d0: 5732 33bb b7b9 c5bb d4bc 0fbb 11ad e5ba
000002e0: 94b6 83bb b4cd c9ba 8d58 dd3a 65ec 35bb
000002f0: dabf df3a da2e 0000 0551 0000 ba41 0000
00000300: 5b7f 0000 02b5 0080 2217 0000 8207 0080
00000310: 0c77 0000 7f31 0080 50f9 aebb eaf2 de3c
00000320: 32f1 f7bb b3ee 523c d947 4b3d 45b7 d33b
00000330: 73ea 0a3b 10fa 113d 5168 dbb9 9599 0000
00000340: 3fbf 0080 5c07 0080 9b42 0080 8a9b 0000
00000350: 21c5 0000 864a 0080 532b 0000 19c1 0000
00000360: ee0d 0ebb 9d42 11bb 2f13 15bb 3131 0ebb
00000370: 3d07 12bb 9e94 12bb 8a98 14bb 4752 0fbb
00000380: 0760 16bb 792b c3bc 2b98 20bc 6547 9c3c
00000390: f54b 5d3b 0bdb cc3b 4f09 ba3b bf7e ebbb
000003a0: a205 373c 8347 eb3c 5485 29bb 4173 8e3b
000003b0: f3f7 4ebb fc1f ac3a 9202 c03b b457 39bb
000003c0: 7d45 a5b8 0048 793b b2bc 7fbb 0f43 e2bc
000003d0: b8e6 d13a 642b 74bc dfbb 843c 23ad 22bc
000003e0: 90ec 46bb ba33 043c 35e1 ff3c 7917 8fbc
000003f0: 5e2c a6ba c245 2a3c 68b9 9ebb d98f 6b3c

e_conv8.bias f4 [8]
-0.028567232 -0.0029635024 0.0013000421 -0.0076753967 0.030564329 0.0058140517 -0.0078026606 0.01823849
00000000: d405 eabc 5237 42bb 2d66 aa3a e581 fbbb
00000010: 0b62 fa3c cd83 be3b 76ad ffbb e368 953c
