snapshots/Epoch22.pth (torch, 304045 bytes, 14 tensors)

e_conv1.weight f4 [32, 3, 3, 3]
0	0xa58ea433	-2.474434e-16
1	0x12c943a1	1.2701555e-27
2	0x86439192	-3.6782372e-35
3	0x0a08438f	6.560868e-33
4	0x0bc22927	7.4788e-32
5	0xb3a42e80	-7.6453034e-08
6	0x85d5fdbd	-2.0123632e-35
7	0xb6869e8a	-4.0119676e-06
8	0xaf27c292	-1.5257687e-10
9	0x887e2b63	-7.6486346e-34
10	0x352dadc3	6.470038e-07
11	0xa15b1e87	-7.424049e-19
12	0x8e41a8b9	-2.3870324e-30
13	0x8153c0ce	-3.889291e-38
14	0x86a8987a	-6.341862e-35
15	0x04e8202a	5.4572476e-36
16	0x83b53476	-1.0650268e-36
17	0x10a4bf76	6.4981587e-29
18	0x8c20b605	-1.2380726e-31
19	0x04b00173	4.1378732e-36
20	0xb14f062d	-3.0125975e-09
21	0x8927dd40	-2.0205925e-33
22	0x83b8faba	-1.0872112e-36
23	0x345871c8	2.0157961e-07
24	0x05f199f2	2.2720082e-35
25	0x8cf67364	-3.797175e-31
26	0x2a05f417	1.1897459e-13
27	0xbc36b304	-0.011151079
28	0xbab8e8a9	-0.0014107424
29	0xbcca8fa9	-0.024726706
30	0x3bb30dc1	0.005464286
31	0x3bc8515e	0.0061132153
32	0x3b5b5c9a	0.0033471943
33	0x3c3a2996	0.011362454
34	0x3b2fb440	0.0026810318
35	0x3be72a99	0.0070546386
36	0x3bf67699	0.007521462
37	0xbbd2b270	-0.006429963
38	0x3d0e5fd8	0.034759372
39	0x3b606342	0.003423885
40	0x3c964ecb	0.018348118
41	0x3c8325d7	0.016009254
42	0x3cd5e39c	0.02610951
43	0x3d078401	0.033084873
44	0x3c268123	0.0101626245
45	0xbb883505	-0.004156711
46	0x3afbe3d3	0.0019217677
47	0xbce19a47	-0.027539385
48	0x3b0c4a93	0.0021406754
49	0x3a0c4a53	0.00053516513
50	0xbc91e128	-0.017807558
51	0xbc8fb76c	-0.017543517
52	0xbc20f87f	-0.009824871
53	0x3c813533	0.015772438
54	0xbb26c9d1	-0.0025449882
55	0xbd1b6131	-0.037934486
56	0xbb212bc1	-0.002459273
57	0x3b4f0882	0.0031590764
58	0xbcb2a274	-0.02180598
59	0xbc47cd9d	-0.012195018
60	0x3b216783	0.0024628348
61	0xbb52f275	-0.0032187973
62	0x3b0940db	0.0020943198
63	0xbbfb0216	-0.007660161
64	0x3c398538	0.011323266
65	0x3c214be3	0.009844753
66	0xbc4b33d5	-0.012402494
67	0x3bcee5ee	0.006314031
68	0x3b935ddf	0.0044972743
69	0x3d1e75dc	0.03868662
70	0x3cab31a9	0.020897703
71	0xbcd478bb	-0.025936475
72	0x3bac751b	0.0052629835
73	0x3c625acb	0.013815592
74	0x3c04ce80	0.008105874
75	0x3c8a0f6f	0.016853062
76	0x3c13403c	0.008987483
77	0x3ca87959	0.020565676
78	0x3c01b8fe	0.007917641
79	0xbc01aa68	-0.007914163
80	0xbb931212	-0.004488238
81	0x3c076e61	0.0082660625
82	0x3c753cac	0.014968079
83	0x3a9c509c	0.0011925879
84	0xbc987d25	-0.018614361
85	0xbc197e59	-0.009368503
86	0x3b4323ab	0.0029775898
87	0xbbdf2879	-0.0068102446
88	0xbca8698d	-0.020558143
89	0x3cb956eb	0.022624454
90	0xbce1be02	-0.027556423
91	0x3c5273b4	0.012844969
92	0x3c3c358e	0.011487378
93	0xba012aed	-0.0004927356
94	0xba94958c	-0.0011336072
95	0x3c0eb008	0.008708961
96	0xbcd0e6fe	-0.02550077
97	0x3c55496d	0.013017994
98	0x3ca59269	0.020211415
99	0xbbdb72af	-0.006697021
100	0xba56527e	-0.00081757444
101	0xbc8a0313	-0.016847169
102	0xbbfd06a0	-0.007721737
103	0x3c9f7f26	0.019469809
104	0xbb937d48	-0.0045010187
105	0xbcc0788b	-0.02349498
106	0x3ba3d416	0.004999648
107	0x3cc7055e	0.024294551
108	0xbc50e808	-0.012750633
109	0xbc13810f	-0.009002938
110	0x3c3d2c1f	0.011546164
111	0x3cb1b362	0.021691982
112	0x3bf1061a	0.0073554637
113	0x3cbf4faf	0.023353426
114	0xb9aea45c	-0.00033310323
115	0xbcc89cbf	-0.024488805
116	0xbbfff576	-0.0078112436
117	0x3c12305e	0.008922664
118	0x3c808a3f	0.01569092
119	0x3ca1925b	0.019723108
120	0x3c768b00	0.015047789
121	0xbb23a2bf	-0.002496883
122	0xbc244513	-0.010026234
123	0x3c5a433c	0.013321694
124	0x3d092d1c	0.033490285
125	0x3d001bd7	0.03127655
126	0x3c1ec145	0.009689634
127	0x3c3167b2	0.010827946
128	0x3cd548d2	0.0260357
129	0xbcfa5485	-0.03055788
130	0xbc008918	-0.007845186
131	0x3b9e1d38	0.0048252605
132	0xbd3599ae	-0.044336013
133	0xbbac3478	-0.005255278
134	0xbb6c0e9d	-0.0036019452
135	0x041150e7	1.7081817e-36
136	0x04274136	1.9660699e-36
137	0x03e021a7	1.3173263e-36
138	0x834dad1b	-6.04428e-37
139	0x86249bd7	-3.0959465e-35
140	0x07b7c132	2.764833e-34
141	0x8600d52d	-2.423074e-35
142	0x85ebc0dd	-2.217014e-35
143	0x346fd990	2.2337758e-07
144	0xb433c77c	-1.6743246e-07
145	0x91797831	-1.9679673e-28
146	0x2d55df71	1.2157262e-11
147	0xb1bb7638	-5.455856e-09
148	0x8ddd97c8	-1.3656717e-30
149	0x042c6692	2.02656e-36
150	0xa776c8f4	-3.4248295e-15
151	0x2c0e9f0e	2.0267707e-12
152	0x26d17bd4	1.4535852e-15
153	0x898e2493	-3.421965e-33
154	0x8f690fd4	-1.1490835e-29
155	0x80f592ae	-2.2552315e-38
156	0xaf9f3b01	-2.8963856e-10
157	0x11ca4302	3.1911277e-28
158	0x97a01787	-1.0345697e-24
159	0x88a59c13	-9.967269e-34
160	0x17d7dde5	1.3950063e-24
161	0x03ae7617	1.0253913e-36
162	0x3c0888a7	0.008333362
163	0xbb83154d	-0.004000342
164	0xbbe5e5e1	-0.007015929
165	0xbaef7231	-0.0018268285
166	0xba95ed9e	-0.0011438613
167	0xbd00f182	-0.03148032
168	0x3c7bb47f	0.015362858
169	0xb5af164d	-1.3045006e-06
170	0x3bf0be17	0.007346879
171	0x3ccac4e7	0.024752093
172	0x3d047dcb	0.032346528
173	0xbcafd5d6	-0.02146427
174	0x3bd6c963	0.006554769
175	0x3c06f9d1	0.008238272
176	0x3c02f101	0.00799203
177	0x3bb3e1d1	0.005489566
178	0xbd1fb8a7	-0.038994458
179	0xbcf9d867	-0.030498696
180	0xba550590	-0.0008126134
181	0xbc40847d	-0.011750338
182	0xbb2d617d	-0.0026455813
183	0xbb9044d9	-0.0044027385
184	0x3ba39d82	0.0049931416
185	0x3b0b10f2	0.0021219817
186	0x3d1636ef	0.036673483
187	0xbc8a3053	-0.016868746
188	0xbcf0febf	-0.029418347
189	0xa7ceced1	-5.7400717e-15
190	0x84e27faf	-5.3249604e-36
191	0x250687cd	1.1668658e-16
192	0x966dd1aa	-1.9210866e-25
193	0x8a255d04	-7.961955e-33
194	0xb1ae302e	-5.069544e-09
195	0x04a7c1e4	3.943957e-36
196	0x87831b63	-1.9726786e-34
197	0x2d7d7172	1.4406575e-11
198	0x0a50e388	1.00576296e-32
199	0x1e7a26e0	1.3242929e-20
200	0x2de5e2ec	2.613506e-11
201	0x2f3657db	1.6584016e-10
202	0x1a1205e4	3.019685e-23
203	0x06294854	3.1838506e-35
204	0x1e67bf46	1.22685926e-20
205	0x8702d5f6	-9.84299e-35
206	0x05bf93e3	1.8015879e-35
207	0xa63be6ff	-6.5191716e-16
208	0x97c08878	-1.2442159e-24
209	0x932f9cfb	-2.2165503e-27
210	0x868cc2b7	-5.2948255e-35
211	0xa13413b4	-6.101245e-19
212	0x9be8c612	-3.850918e-22
213	0x11d62063	3.3783207e-28
214	0xb4e36780	-4.235735e-07
215	0xb28bba98	-1.6266583e-08
216	0x1832e721	2.3122651e-24
217	0x17694696	7.537545e-25
218	0x0fde3e80	2.1914964e-29
219	0x31cd1cf6	5.9695777e-09
220	0x35229648	6.056839e-07
221	0x3809859e	3.2787786e-05
222	0x93604413	-2.8306338e-27
223	0x30de8d2d	1.619275e-09
224	0x38195350	3.6555633e-05
225	0x215ce1d7	7.4837796e-19
226	0x9387943c	-3.422496e-27
227	0x8db9ed8f	-1.1458695e-30
228	0x1864053c	2.9470952e-24
229	0x30e4e725	1.6654879e-09
230	0x3678afdb	3.705724e-06
231	0x96717d9a	-1.9507458e-25
232	0x31d0fdd2	6.0824528e-09
233	0x21db35a1	1.4854213e-18
234	0x893a554f	-2.2429048e-33
235	0x28c6c1cd	2.2066464e-14
236	0x134410fc	2.4747052e-27
237	0x1864306a	2.9492752e-24
238	0x2fca33f0	3.678049e-10
239	0x21eabf4a	1.5907091e-18
240	0x1851bf4e	2.7109201e-24
241	0x341be313	1.4518109e-07
242	0x382fbc88	4.1898835e-05
243	0xbc8af373	-0.016961789
244	0xbbc71e43	-0.0060766055
245	0xbcdbefe9	-0.026847797
246	0xbc4f3f84	-0.012649421
247	0xbc80c874	-0.015720583
248	0xbbae9f28	-0.0053290315
249	0xbbb82878	-0.0056200586
250	0x3c7e8fad	0.015537185
251	0x3c380210	0.0112309605
252	0xbced83e7	-0.02899356
253	0xb9fdbb8a	-0.00048395648
254	0xbc828f68	-0.015937522
255	0xbc8c9c72	-0.017164443

e_conv1.bias f4 [32]
0	0xbd15c514	-0.0365649
1	0x3d891d3c	0.06695029
2	0x3c8b670e	0.017016914
3	0x3e05cd67	0.13066636
4	0x3d8f7e68	0.07006532
5	0xbcccc238	-0.024994954
6	0x3d5656ff	0.05232906
7	0xbd799e89	-0.060942207
8	0xbd69eea2	-0.057112344
9	0x3d966400	0.07343292
10	0xbd4f6371	-0.050631944
11	0xbcb9172e	-0.02259406
12	0xbc813f47	-0.015777243
13	0x3d55662a	0.052099384
14	0xbd21c1ef	-0.03949159
15	0x3e296cc6	0.165454
16	0x3e0744de	0.13209864
17	0x3dbe1606	0.092815444
18	0x3e3f62a1	0.18689968
19	0x3e26cd2a	0.16289201
20	0xbc92ab09	-0.017903822
21	0x3e277125	0.16351755
22	0xbc6c437e	-0.014420388
23	0x3df982ee	0.12183176
24	0xb73fc394	-1.1430024e-05
25	0xbc43bebf	-0.011947333
26	0x3d1c1de7	0.038114455
27	0xbc997a43	-0.018735057
28	0xbb080cde	-0.0020759623
29	0x39a649b3	0.00031716898
30	0x3e0ae6a4	0.13564545
31	0xbd020962	-0.03174723

e_conv2.weight f4 [32, 32, 3, 3]
0	0x0d6b26b7	7.2461567e-31
1	0x37e4a13e	2.7254802e-05
2	0x33e06415	1.0449018e-07
3	0x921c41c4	-4.9305983e-28
4	0x04071b84	1.5881808e-36
5	0x0f3dc97a	9.3572224e-30
6	0x29428e36	4.32e-14
7	0x93a79988	-4.230812e-27
8	0x2fb8445e	3.3517983e-10
9	0x3c1fe29c	0.009758618
10	0xbcc20f16	-0.023688834
11	0x3b3e6c23	0.0029056154
12	0xbb924dfd	-0.0044648633
13	0xba5cfd73	-0.0008430101
14	0xbc01254e	-0.007882429
15	0x3c6571ae	0.014004154
16	0x3d03c027	0.032165673
17	0x3b066372	0.0020506051
18	0xbc7b8098	-0.015350483
19	0xbc8d3260	-0.017235935
20	0xbc239ad9	-0.009985649
21	0x3bdf9c95	0.006824086
22	0xbbeb0c91	-0.007173129
23	0xbb85cd4d	-0.0040833117
24	0x3bc68401	0.0060582166
25	0x3abc0adb	0.0014346497
26	0x3c22439c	0.009903815
27	0xbd00e35d	-0.03146683
28	0x3ca53e97	0.020171447
29	0x3d2afc00	0.041744232
30	0xbc848936	-0.016178709
31	0xbc0591d6	-0.008152446
32	0xbbe32d62	-0.0069329003
33	0xbd2effe0	-0.04272449
34	0x3babe961	0.005246327
35	0x3ca81cac	0.020521484
36	0x3943f8ae	0.0001868929
37	0xbb595e1b	-0.0033167663
38	0x3b075a2b	0.002065311
39	0x3c6464d8	0.013940059
40	0xbc848ea0	-0.01618129
41	0x3c1aea5e	0.009455292
42	0x3c846d05	0.016165266
43	0xbc9a244b	-0.018816134
44	0xbc15328a	-0.009106288
45	0xb631abf9	-2.6475157e-06
46	0xae891618	-6.233963e-11
47	0x0dc51096	1.2145055e-30
48	0x0511f89b	6.863529e-36
49	0x8826677f	-5.0075467e-34
50	0x32f7be63	2.8841162e-08
51	0x02bb8e1e	2.7558752e-37
52	0x08f0c1b7	1.4490017e-33
53	0xaa8cb269	-2.4992793e-13
54	0xbb6d4bea	-0.0036208578
55	0x3c6a88de	0.014314858
56	0xbc8b1d03	-0.016981607
57	0xbc80fc41	-0.015745284
58	0x3c14c81b	0.009080912
59	0x3c2d9d5f	0.010596602
60	0x3c16d062	0.009204956
61	0x3c51c1a5	0.012802516
62	0x3cd6f399	0.026239203
63	0x85ded7b5	-2.0956018e-35
64	0x8888b66e	-8.228091e-34
65	0x02b5dc99	2.6722177e-37
66	0x28f972d5	2.7694354e-14
67	0x830eead9	-4.199964e-37
68	0x0c6299c6	1.7456681e-31
69	0x3837482f	4.3697826e-05
70	0x0f3e2439	9.3746995e-30
71	0x00168dd4	2.071259e-39
72	0x0cdc182e	3.391092e-31
73	0x1bdd2a9b	3.6588916e-22
74	0xb1951e3a	-4.339907e-09
75	0xa1fc4858	-1.7095333e-18
76	0x23d5e7f3	2.319174e-17
77	0x1c2acc5b	5.6512405e-22
78	0xb5c1d957	-1.4442875e-06
79	0x066701aa	4.3447494e-35
80	0xaf991d6b	-2.785144e-10
81	0x3cac0da1	0.021002593
82	0xbb14a5e0	-0.0022681877
83	0x3c0eae67	0.008708573
84	0xbb9a1068	-0.004701663
85	0x3c41c2f4	0.011826266
86	0x3c3103f8	0.010804169
87	0x3afacd0f	0.0019134599
88	0x3aa29f5a	0.001240711
89	0xbbc211e7	-0.0059225443
90	0xa10103b6	-4.371181e-19
91	0x35c97bac	1.501166e-06
92	0x2bfeac04	1.8095529e-12
93	0x22231d88	2.2106253e-18
94	0x8136a64d	-3.3547436e-38
95	0x3197777a	4.4082613e-09
96	0x0c701817	1.8496177e-31
97	0xa9c109b1	-8.572603e-14
98	0x1559470e	4.3878853e-26
99	0xb807c56d	-3.2370375e-05
100	0x2bfafda5	1.7833969e-12
101	0x1b8fe14f	2.3802968e-22
102	0xa85607fa	-1.1881116e-14
103	0x3a1266e6	0.0005584791
104	0x308679ee	9.784438e-10
105	0x061ed21a	2.9870855e-35
106	0x83180f3b	-4.468627e-37
107	0x19ff4bbc	2.6396971e-23
108	0xbbcd1458	-0.0062585287
109	0xbbd1ab94	-0.0063986275
110	0xbbd6549b	-0.0065408475
111	0xbb309706	-0.0026945486
112	0xbb3fe4f6	-0.0029280758
113	0xbb5abed4	-0.0033377903
114	0xba37d078	-0.000701196
115	0xba84795d	-0.001010697
116	0x38e2a12a	0.00010806539
117	0x3b1df996	0.0024105064
118	0x3d04b42a	0.03239838
119	0x3ba78041	0.0051117246
120	0x3ca876c6	0.020564448
121	0x3ba9ff4a	0.0051879035
122	0x3c7d671f	0.0154664805
123	0xbc9cf9da	-0.019162107
124	0x3c9812fc	0.01856374
125	0xbb27e0de	-0.002561621
126	0x182a21ad	2.1988987e-24
127	0x9afea43a	-1.0531726e-22
128	0x2ed5ef54	9.728632e-11
129	0x968e35f3	-2.2975384e-25
130	0x3794abf8	1.7723054e-05
131	0x03f450d6	1.435959e-36
132	0xba8e2d14	-0.0010847175
133	0x93226bae	-2.0500365e-27
134	0xaeb428ec	-8.1927215e-11
135	0x3bce3922	0.006293432
136	0x3c498c39	0.012301498
137	0x3b962131	0.0045815934
138	0x3c8bcbd4	0.017064966
139	0x3c92f648	0.017939702
140	0x3c7feb3c	0.015620049
141	0xbb35cf32	-0.0027741906
142	0xbca4b34b	-0.020105025
143	0xbbf5dd4f	-0.0075031887
144	0xbc922d23	-0.017843788
145	0xbcb72523	-0.022356575
146	0xbc1c7356	-0.009548983
147	0xbcb48b63	-0.022039121
148	0x3c8709b3	0.016484117
149	0x3c9b5c5c	0.018964939
150	0xbd0b07c3	-0.03394295
151	0x3990f15b	0.00027645644
152	0xba249daf	-0.00062796
153	0x3cd7bf7f	0.02633643
154	0xbb7d9b53	-0.0038697317
155	0xbb9e3edd	-0.004829271
156	0xbc1406b2	-0.009034799
157	0x3c8236dd	0.015895301
158	0x3bbe5d7c	0.005809484
159	0x3c0c87e1	0.008577318
160	0x3cb8380a	0.022487659
161	0x3cc80da9	0.024420576
162	0xb9a27058	-0.0003098275
163	0xbcd222e4	-0.025651403
164	0xbc983520	-0.01858002
165	0xbb0c9bfe	-0.0021455283
166	0x39a0fed0	0.00030707428
167	0x3c9d3585	0.01919056
168	0xbd1d7579	-0.03844211
169	0x3c85d412	0.016336475
170	0x3d13ce0d	0.036085177
171	0x3cb4a8d7	0.022053165
172	0x3c9ee38c	0.019395612
173	0xbbc5ac2b	-0.006032487
174	0x3c23b806	0.009992605
175	0x3c39c512	0.011338489
176	0xbb0cfc04	-0.0021512518
177	0xbc59cede	-0.01329395
178	0xbc317305	-0.010830645
179	0x3d00cfcf	0.03144818
180	0xb6e16ed8	-6.7184264e-06
181	0x058ed7db	1.3432909e-35
182	0x87611e45	-1.6936014e-34
183	0x90e0df61	-8.869659e-29
184	0xb40544ec	-1.2411664e-07
185	0x08087583	4.1064146e-34
186	0xaca779d3	-4.7599507e-12
187	0x2d140030	8.412868e-12
188	0x8726e8ab	-1.2556827e-34
189	0xbcbbeb1e	-0.022939261
190	0x3c4b65b9	0.012414389
191	0x3c95d693	0.018290794
192	0xbc9e6381	-0.019334557
193	0x3d5563fe	0.052097313
194	0x3d10eb61	0.035380725
195	0x3c4b0bf2	0.012392985
196	0x3cfcebc3	0.030874139
197	0x3c9ee67c	0.019397013
198	0x3bb233ca	0.0054383026
199	0x3c0c6ec0	0.008571327
200	0xbab9b23a	-0.0014167496
201	0xbb98d435	-0.004663969
202	0x3a8ac938	0.0010588532
203	0xba6b2846	-0.000897054
204	0xbc7d06e6	-0.015443539
205	0x3bdf87cb	0.0068216077
206	0xbc2ef2af	-0.010677977
207	0x3cace182	0.021103624
208	0x3c624baf	0.01381199
209	0x3cc428d5	0.023945251
210	0x3c6c2111	0.0144121805
211	0x3cd762a0	0.026292145
212	0x3bb3a03a	0.005481747
213	0xbd50bce5	-0.050961394
214	0x3cfb0f14	0.030646838
215	0xbbd9f3fa	-0.0066513987
216	0xb62f7793	-2.6146633e-06
217	0x85303606	-8.285403e-36
218	0x182d64a8	2.2410544e-24
219	0x21dcdcc1	1.4966213e-18
220	0x051477ba	6.980917e-36
221	0x2c46e7b7	2.826612e-12
222	0xb0b4ce01	-1.3155274e-09
223	0xaf2ca470	-1.5701729e-10
224	0x03e9281f	1.37037205e-36
225	0x019c1e8a	5.734917e-38
226	0x8b651f81	-4.4127497e-32
227	0x8a782381	-1.1947443e-32
228	0x1e986fd0	1.613987e-20
229	0x078170ad	1.9475988e-34
230	0x04c95145	4.7329507e-36
231	0x8d2f0e62	-5.394335e-31
232	0x8d35e797	-5.6053697e-31
233	0x1ec8f4f2	2.127713e-20
234	0x3ba7068f	0.0050972174
235	0x3b5078f3	0.0031810373
236	0x3bc76d5e	0.0060860356
237	0xbb5c46d6	-0.0033611557
238	0xbb4fce58	-0.0031708684
239	0xbc719bbc	-0.014746603
240	0x3c81e568	0.01585646
241	0xbc0e7d67	-0.00869689
242	0xbcac4fc2	-0.021034125
243	0xb723941a	-9.75004e-06
244	0x157f5301	5.1562318e-26
245	0x089814fe	9.1531025e-34
246	0x0b647bd0	4.400435e-32
247	0x04e2b327	5.329687e-36
248	0x2bfedf19	1.8109708e-12
249	0x288acac2	1.540901e-14
250	0xb5acee0c	-1.2884279e-06
251	0x041d290b	1.8474107e-36
252	0x840ec6bb	-1.6783272e-36
253	0x9ab8f5e1	-7.6497855e-23
254	0x0cff1690	3.930255e-31
255	0x3b1e327c	0.0024138978

e_conv2.bias f4 [32]
0	0xbd115d35	-0.03548928
1	0x35cb0e73	1.5128884e-06
2	0xbba8284c	-0.005131757
3	0xb9faa846	-0.0004780909
4	0x3d179963	0.037011515
5	0x3cdabdc7	0.026701821
6	0x394f94be	0.00019796469
7	0x3d1bbbce	0.0380209
8	0x3d59a523	0.053136002
9	0x3d0f4a57	0.034983005
10	0xbce0190b	-0.027355691
11	0xb7273b4e	-9.967784e-06
12	0xb9a96398	-0.00032308395
13	0xbbfcd861	-0.007716224
14	0x3c0abc37	0.0084677255
15	0xb90a2939	-0.00013176062
16	0x3d009263	0.031389605
17	0x3b97f595	0.00463743
18	0xb28cf891	-1.641118e-08
19	0xbc553e5f	-0.013015359
20	0xba2fa6aa	-0.0006700555
21	0x3c2e597e	0.010641454
22	0xb6922238	-4.3551227e-06
23	0x3d04e182	0.032441624
24	0xb8d89fdb	-0.00010329458
25	0x3d3047ce	0.04303723
26	0x3d42aa73	0.047525834
27	0xbc26b1bc	-0.010174211
28	0xb8a8b6ed	-8.044937e-05
29	0xbb155aa0	-0.0022789612
30	0xbc2a2888	-0.01038564
31	0x3d4e0e4b	0.0503066

e_conv3.weight f4 [32, 64, 3, 3]
0	0x22176f32	2.0523182e-18
1	0xad86846d	-1.5292845e-11
2	0x851469c5	-6.978353e-36
3	0xa020a652	-1.3607558e-19
4	0xa9a2aa93	-7.223835e-14
5	0x85bfa137	-1.8020775e-35
6	0x19564aa0	1.1078611e-23
7	0xb61526e9	-2.222538e-06
8	0x377b425e	1.4976218e-05
9	0x3ae98135	0.0017814996
10	0x3c60743c	0.013699587
11	0x3cf4b337	0.029870613
12	0xbc3a039b	-0.011353399
13	0xbac70b0a	-0.0015185785
14	0x3c0ff7ab	0.008787076
15	0xbd076be4	-0.033061877
16	0xbbaafda0	-0.0052182227
17	0xbc81a2b0	-0.015824646
18	0xbbea7d98	-0.007156085
19	0xbb0992cf	-0.0020992046
20	0x3b17a4ef	0.002313908
21	0xbc1c2f1a	-0.009532714
22	0xbb910cf9	-0.0044265953
23	0x39fef976	0.00048632518
24	0xbc52ae34	-0.012858916
25	0xbc089fcb	-0.008338879
26	0xbb5ac2c9	-0.003338026
27	0x3c1f4455	0.0097208815
28	0x3c23624e	0.009972168
29	0x3cb62938	0.022236452
30	0xbbf2c36c	-0.00740855
31	0xbaee364f	-0.0018174144
32	0x3c0dbf99	0.0086516375
33	0x3ba13201	0.004919291
34	0xbc5a5741	-0.013326467
35	0xbcd62be4	-0.026143976
36	0x3c21008b	0.00982679
37	0x3d007b73	0.03136773
38	0x3c9147da	0.017734457
39	0x3bd30823	0.006440179
40	0x3c7f805d	0.015594569
41	0x3b677d94	0.0035322653
42	0x3ae5fc74	0.001754655
43	0xbaa57abd	-0.001262508
44	0xbb915a14	-0.004435787
45	0x08aa6144	1.025437e-33
46	0x0a5b0580	1.0545501e-32
47	0x051920f1	7.200076e-36
48	0x17ce595f	1.3334998e-24
49	0x2e542bbf	4.8242074e-11
50	0xb72bba9a	-1.0235841e-05
51	0x982dc9ef	-2.2461676e-24
52	0x96729c06	-1.9597837e-25
53	0x854a34d9	-9.507701e-36
54	0x3b30ad43	0.002695874
55	0xbb98370e	-0.004645235
56	0x3b20af91	0.0024518708
57	0x3c522ac9	0.012827584
58	0x3c01fa2c	0.007933181
59	0x3b1cb98f	0.0023914312
60	0xbb83da87	-0.004023853
61	0xbb851068	-0.0040607937
62	0xbc3ad48a	-0.011403212
63	0x06c33f01	7.3443423e-35
64	0x8dffc7e6	-1.5763712e-30
65	0x3429a706	1.5800114e-07
66	0x839ff17e	-9.400624e-37
67	0x07de1621	3.3415854e-34
68	0x0b4e47ed	3.9728268e-32
69	0xafcef8dd	-3.764801e-10
70	0x892af5c1	-2.0578559e-33
71	0x870179a1	-9.740625e-35
72	0x820af915	-1.0210122e-37
73	0x8a0bfdf3	-6.740369e-33
74	0x28657a18	1.27385285e-14
75	0xab07ef0a	-4.829337e-13
76	0x0f82db2b	1.290341e-29
77	0xb987b2b3	-0.00025882348
78	0x8703a637	-9.904191e-35
79	0x8e868335	-3.31599e-30
80	0x0978d4ab	2.995191e-33
81	0xb9fd69ad	-0.00048334655
82	0xbb0ed38f	-0.002179358
83	0xbb6bbd0a	-0.003597083
84	0x3b6f1f25	0.003648707
85	0x3be39a3f	0.006945878
86	0xbbc2b845	-0.005942377
87	0x3b14ada6	0.002268651
88	0x3a1ff16e	0.00061013445
89	0xbbbe0872	-0.0057993466
90	0x1f0e5a0f	3.0144164e-20
91	0x98128bf5	-1.8940718e-24
92	0x363b9268	2.795039e-06
93	0xaed70c71	-9.779278e-11
94	0x2f71de66	2.1997834e-10
95	0x9eb304af	-1.89543e-20
96	0x93b514cc	-4.571133e-27
97	0xaa5e2697	-1.973095e-13
98	0x3471543f	2.2475523e-07
99	0x84090560	-1.610674e-36
100	0x0793ee61	2.2258208e-34
101	0x1a1287c4	3.0301763e-23
102	0xab5f378d	-7.9302607e-13
103	0x1b990452	2.5314519e-22
104	0x0a305e7e	8.491864e-33
105	0x85053c84	-6.264745e-36
106	0x055c92a7	1.0371286e-35
107	0xaea644cb	-7.561026e-11
108	0xba8346e2	-0.0010015632
109	0xba1ac814	-0.0005904448
110	0xb9e22ae1	-0.00043138026
111	0xb85ec4c8	-5.311219e-05
112	0x38da589e	0.00010411556
113	0x38e297be	0.00010804784
114	0x394251e6	0.00018531791
115	0x3863114b	5.4137123e-05
116	0x3891c278	6.9503614e-05
117	0xba8bcb00	-0.0010665357
118	0x3b7f79df	0.0038982553
119	0xbbad344d	-0.0052857758
120	0xbbb953de	-0.0056557497
121	0xba886bcf	-0.0010408106
122	0xbb0690fa	-0.002053319
123	0x3b0161ee	0.0019742209
124	0xbb3aad69	-0.0028484708
125	0x3b57a846	0.0032906695
126	0xb21fe634	-9.30736e-09
127	0x2db6e9a3	2.079476e-11
128	0x158402dc	5.3318887e-26
129	0x81044ea9	-2.4301007e-38
130	0x3573b7b7	9.0791895e-07
131	0x94e87d48	-2.3475428e-26
132	0x2e274ec0	3.8041348e-11
133	0xb4c47f50	-3.6600477e-07
134	0x2dbc6f2c	2.1422496e-11
135	0xbcaf5960	-0.021404922
136	0x3bac39dc	0.005255921
137	0x3cad08a4	0.021122284
138	0x3c2463ad	0.01003353
139	0xbbafa0d9	-0.0053597507
140	0x3a9b6c3f	0.0011857821
141	0xbd30fe9f	-0.043211576
142	0xbcebcac6	-0.028783213
143	0xbc556104	-0.013023619
144	0x3b744131	0.0037270302
145	0x3bfbd996	0.0076858504
146	0x3d06d43a	0.03291724
147	0xbcb27385	-0.0217836
148	0x3b815ee9	0.0039480818
149	0xbcbf7b01	-0.023374083
150	0xbd0fe9c8	-0.03513506
151	0xbbaa11c3	-0.0051901056
152	0xbb2fc955	-0.0026822884
153	0x388cf56a	6.721432e-05
154	0x3bd5efc8	0.0065288283
155	0x3c484944	0.012224499
156	0xbb3d0e1b	-0.002884752
157	0xb9b45b9f	-0.00034400538
158	0xbbe71c18	-0.0070529096
159	0x3c373b72	0.011183606
160	0xbb3d0d69	-0.0028847104
161	0xbc6aebbb	-0.014338429
162	0x3b87b57f	0.004141509
163	0x3c6e2e1d	0.014537361
164	0x3cb21e11	0.021742852
165	0x3c1523f0	0.009102806
166	0xbc3deefd	-0.011592624
167	0x3cc65de3	0.02421469
168	0xbcf66b81	-0.030080559
169	0xbc75b468	-0.0149966255
170	0x3af165f1	0.0018417222
171	0x3cba2d8b	0.022726795
172	0xbc1b26be	-0.009469686
173	0x3c0f55aa	0.008748451
174	0x39ccbecb	0.00039052064
175	0xbc910875	-0.017704228
176	0xbd1a8030	-0.037719905
177	0xbca9a84d	-0.020710135
178	0xbc520bd8	-0.012820207
179	0xbb463764	-0.0030245418
180	0x24393da2	4.0167685e-17
181	0x347812d7	2.3103654e-07
182	0xba8b42aa	-0.0010624726
183	0x02a9e6d0	2.4964798e-37
184	0x854b7257	-9.566015e-36
185	0x07587a47	1.6285968e-34
186	0x2ecbf7f7	9.2754186e-11
187	0x33c810e9	9.316302e-08
188	0x81f6cf99	-9.0664016e-38
189	0xbb5682d8	-0.0032731798
190	0xbbcdbdd4	-0.006278733
191	0xbc4c9615	-0.012486954
192	0x3ac1a91f	0.0014775133
193	0x3c1d8e4e	0.009616448
194	0x3c6a2de2	0.014293166
195	0xbc451ed2	-0.012031274
196	0xbcae10b7	-0.021248205
197	0x3b754d3b	0.0037430066
198	0xb9db461e	-0.00041823176
199	0x3c1eb5e6	0.009686923
200	0x3cb33803	0.021877294
201	0xbc311cff	-0.010810136
202	0x39c8ed9c	0.00038324005
203	0x3c5a1f9b	0.013313199
204	0xbccd2f45	-0.025046954
205	0xbc58369e	-0.0131966155
206	0x3a1d0a1c	0.0005990581
207	0xbc45f250	-0.012081698
208	0x3bbdc7fb	0.005791662
209	0xbb9f0dac	-0.0048539247
210	0x3b8eec89	0.0043616933
211	0xbb8459db	-0.004039032
212	0xb8883634	-6.4950815e-05
213	0xbcabbe10	-0.020964652
214	0xbcc66a2f	-0.024220554
215	0xba9ffaae	-0.0012205446
216	0x2de0c3d4	2.5552817e-11
217	0x2f205c2b	1.458466e-10
218	0x051cbdd4	7.369951e-36
219	0xb58b52d6	-1.0380415e-06
220	0x222898e4	2.2849185e-18
221	0x8526deb7	-7.846189e-36
222	0x2f45b15b	1.7980055e-10
223	0x313f4356	2.7832434e-09
224	0x2ec87b3e	9.116839e-11
225	0x04437c7e	2.2979304e-36
226	0x836e2e06	-6.9994746e-37
227	0x0eb09215	4.352802e-30
228	0xb4e83936	-4.3254994e-07
229	0x86a072ba	-6.0353886e-35
230	0x959529c0	-6.024649e-26
231	0x845cb4e5	-2.5943938e-36
232	0x84f41820	-5.738628e-36
233	0x334a97ec	4.7169962e-08
234	0xbc05f248	-0.00817544
235	0xbc3d3046	-0.011547154
236	0x3c84f9ea	0.01623245
237	0xbbd64cdc	-0.006539924
238	0x3cd13d74	0.025541998
239	0x3c0d278b	0.008615385
240	0xbc381b59	-0.011236989
241	0xbc6ae81c	-0.014337566
242	0xbc0c5947	-0.008566207
243	0x06898602	5.173058e-35
244	0xb3b005f6	-8.196723e-08
245	0x033dfb49	5.583057e-37
246	0x8454b905	-2.5005437e-36
247	0x0e2a1b72	2.0967332e-30
248	0x045c8c22	2.5925222e-36
249	0x07875042	2.0359714e-34
250	0x20db8900	3.7190702e-19
251	0x365f94b0	3.3316137e-06
252	0xb5afd257	-1.3099733e-06
253	0x0831eb49	5.3540576e-34
254	0x03dbb17b	1.2912411e-36
255	0x2cfc64f8	7.1734806e-12

e_conv3.bias f4 [32]
0	0x3d065311	0.032794062
1	0x3cec8213	0.028870618
2	0xb8a46769	-7.839391e-05
3	0x3c10c2d3	0.008835512
4	0x3d10518b	0.035234015
5	0xbb694a81	-0.0035597386
6	0xbc8b54ae	-0.017008152
7	0xb913bc54	-0.0001408917
8	0x3d04ed3f	0.032452818
9	0x3bce9e82	0.0063055167
10	0x3d01613e	0.031586878
11	0xba738c5a	-0.00092906284
12	0xb90ec8bd	-0.00013616956
13	0xb5913f73	-1.0821808e-06
14	0x18084cb6	1.7616317e-24
15	0xbc74e2e3	-0.014946672
16	0x3d0a136b	0.033709925
17	0xbc7519c1	-0.0149597535
18	0x3d3c49cf	0.045968827
19	0xbc24b9b6	-0.010054043
20	0xb99e1fb9	-0.00030159744
21	0x3c61b697	0.013776443
22	0xba348d13	-0.0006887477
23	0xbc24c851	-0.010057525
24	0x3c2f9669	0.010717013
25	0xb7d04347	-2.482686e-05
26	0x3c745bf6	0.014914503
27	0x3d26bf61	0.040709857
28	0xb9e66fae	-0.00043952226
29	0xbc9fb1ef	-0.019494025
30	0x3d0896bb	0.033346873
31	0xbc9ba577	-0.018999798

e_conv4.weight f4 [32, 64, 3, 3]
0	0xbbcda24f	-0.006275452
1	0x3c6cef3a	0.014461333
2	0xbd4f9d9c	-0.050687417
3	0x3baaff2b	0.0052184067
4	0xbc0e43d4	-0.008683164
5	0xbc1c8ae6	-0.0095546
6	0x3c85969e	0.016307171
7	0xbbb05685	-0.0053814077
8	0xbc861a57	-0.016369982
9	0x26faf012	1.7412306e-15
10	0xb2cc47a4	-2.3781304e-08
11	0xb360a5e8	-5.2304955e-08
12	0x276db126	3.298639e-15
13	0x370b2abc	8.2949955e-06
14	0xb1b77efe	-5.3404383e-09
15	0xb57f6342	-9.513934e-07
16	0xa46c3127	-5.1215976e-17
17	0xa84e8524	-1.14641674e-14
18	0x364bbd92	3.0359702e-06
19	0x3a178089	0.0005779346
20	0x3a75ce64	0.0009376763
21	0xba121fdb	-0.0005574205
22	0x370b7109	8.311364e-06
23	0x39c070da	0.00036705175
24	0xbaa5a07a	-0.0012636327
25	0xbaa1bd91	-0.001233982
26	0xba9907b8	-0.0011675274
27	0xb7b530cb	-2.1599602e-05
28	0xb77f8d1f	-1.5232042e-05
29	0x38054851	3.177702e-05
30	0x37a9700e	2.019855e-05
31	0x38027787	3.1105734e-05
32	0x376e352d	1.4198286e-05
33	0x37fbce58	3.0017618e-05
34	0x370e0ed6	8.467314e-06
35	0x37e9730f	2.7829343e-05
36	0xbad52a88	-0.0016263286
37	0xbbf5ae3f	-0.0074975784
38	0xbcbf220c	-0.023331665
39	0xbb923f95	-0.004463146
40	0x3d301f25	0.04299845
41	0x3ac80a39	0.0015261836
42	0xbd09f828	-0.033683926
43	0xbbf86cad	-0.0075813145
44	0x3b4d586b	0.0031333219
45	0xbb73a86d	-0.0037179247
46	0x3b2b0435	0.0026095037
47	0x3ab1eb02	0.0013574066
48	0xbb691ecb	-0.0035571333
49	0x3afc6546	0.0019256256
50	0x3b8167ce	0.003949142
51	0xbb0f971c	-0.0021910137
52	0x3b57cbcf	0.0032927876
53	0x3bb134c1	0.0054079
54	0x3aad3cbe	0.0013216955
55	0x3b208700	0.0024494529
56	0x3b2d45fe	0.0026439424
57	0xbbd1ca7a	-0.006402311
58	0x3add722d	0.0016894989
59	0x39f3beae	0.0004649064
60	0xbb3c3ca1	-0.002872266
61	0xb91c676d	-0.00014915848
62	0x3a9ddb6b	0.0012043541
63	0xbc569204	-0.013096336
64	0xbc90ffd9	-0.017700123
65	0xbcd53f98	-0.0260313
66	0xbcc37e7c	-0.023864023
67	0x3c9d1ba8	0.019178227
68	0x3c1d5abe	0.009604154
69	0xbc225935	-0.009908964
70	0x3bfd91b0	0.0077383146
71	0xbc206629	-0.009789982
72	0xbc847253	-0.016167795
73	0x3bc755cb	0.0060832254
74	0x3c365c3c	0.011130389
75	0xbbfbbe0b	-0.007682567
76	0x3ccd56f4	0.025065877
77	0xbba2dcab	-0.0049701533
78	0xbba52a32	-0.0050404305
79	0xbc10d5f0	-0.008840069
80	0xbc9bd641	-0.019023063
81	0xbccde084	-0.025131471
82	0x3acca7f4	0.0015614019
83	0xbcdc3c72	-0.026884291
84	0x3d0f2a95	0.03495272
85	0xbc8312e1	-0.016000213
86	0x3cb01e31	0.021498771
87	0x3b4350e6	0.0029802858
88	0x3b556277	0.003255991
89	0xbc7d302f	-0.015453382
90	0x3c1555b7	0.009114674
91	0xbc85f2f1	-0.016351195
92	0xbbb4caa1	-0.0055173193
93	0xbc320871	-0.01086627
94	0x3c81a04c	0.015823506
95	0x3d27b941	0.040948156
96	0xbc0afb7f	-0.008482813
97	0x3c846bb5	0.01616464
98	0x3b4379aa	0.0029827156
99	0xb35e6f09	-5.178939e-08
100	0xb37146af	-5.617647e-08
101	0x32d4434a	2.4710648e-08
102	0xb30b1c40	-3.2389153e-08
103	0xb3f72e2d	-1.1510233e-07
104	0x3312a248	3.4140868e-08
105	0xb34135a3	-4.4985097e-08
106	0xb31b46ff	-3.615332e-08
107	0xb3421f64	-4.5197694e-08
108	0xb9836249	-0.00025059495
109	0xb8432f2e	-4.6535562e-05
110	0xb8fc61be	-0.00012034502
111	0xb8f515e7	-0.0001168659
112	0xb98a66ae	-0.00026397913
113	0xb83aa5ee	-4.450039e-05
114	0xb914dbd3	-0.00014196271
115	0xb8731f4d	-5.7964866e-05
116	0xb8488e47	-4.7816222e-05
117	0xbc30f7fd	-0.0108013125
118	0x3cea2ac9	0.028584855
119	0x3c215dc4	0.009849016
120	0x3c27a48d	0.010232103
121	0x3c958771	0.01825306
122	0xbbb1fdbc	-0.005431859
123	0xbd3e4351	-0.046450917
124	0x3cde941b	0.027170232
125	0xba2e16ae	-0.0006640953
126	0xbb25e4f1	-0.0025313462
127	0xb7c26fa1	-2.3178583e-05
128	0x3ac6d541	0.0015169756
129	0xbb0bdba2	-0.0021340628
130	0x3a11f919	0.00055684295
131	0x3b5daa4e	0.0033823433
132	0xbad79553	-0.00164477
133	0xb9f7bc5a	-0.00047251844
134	0xbb47cb52	-0.0030486179
135	0x3707eae8	8.10132e-06
136	0xb6a37d50	-4.872367e-06
137	0x3749e6d6	1.2034279e-05
138	0x36fb73b7	7.493854e-06
139	0x368fc76a	4.284947e-06
140	0x370716aa	8.051904e-06
141	0x36869998	4.011392e-06
142	0x36de51ee	6.6256534e-06
143	0x37461adb	1.1807972e-05
144	0x3b936150	0.0044976845
145	0xbd43825b	-0.04773174
146	0xbcbe33e1	-0.023218097
147	0xbcc0a86b	-0.023517808
148	0xbcf555b0	-0.029948086
149	0x3c54eb70	0.012995586
150	0x3c4b2fcb	0.012401531
151	0x3c883c54	0.01663033
152	0x3d010104	0.03149511
153	0xb9422c3e	-0.00018517763
154	0xba1fc686	-0.0006094951
155	0x39ead14e	0.00044787902
156	0x3b3ee5d3	0.0029128685
157	0x3b2dee5c	0.0026539778
158	0x3aebb889	0.0017984073
159	0x3baec472	0.0053334767
160	0x3b8bde90	0.004268475
161	0x3b495cf2	0.0030725566
162	0xaba7d99a	-1.192646e-12
163	0x35aa0c1c	1.2669511e-06
164	0x99ce2c35	-2.1317756e-23
165	0x8e5f04ac	-2.7489122e-30
166	0xb52afe56	-6.370004e-07
167	0x0709262c	1.0317952e-34
168	0x963f014c	-1.5429266e-25
169	0x8e16798a	-1.8547446e-30
170	0xb4392942	-1.7244477e-07
171	0xbc0b4331	-0.008499906
172	0xbcc1e429	-0.023668366
173	0x3c7e4773	0.0155199645
174	0xbc029470	-0.007969961
175	0x3c3ec450	0.011643484
176	0xbc0fa828	-0.008768119
177	0xbb2fe2c7	-0.002683805
178	0x3c6bb2b6	0.01438587
179	0xbc605c4c	-0.01369388
180	0x314541c6	2.870466e-09
181	0xb1e5cc31	-6.687991e-09
182	0x317218e7	3.522979e-09
183	0x35ecee6c	1.765276e-06
184	0x35c55ee8	1.4705265e-06
185	0x30c12aad	1.4054727e-09
186	0xb16ec8c0	-3.4747671e-09
187	0x36a9216f	5.0404847e-06
188	0xb1805c64	-3.735794e-09
189	0x3b040ce0	0.0020149276
190	0xbab304ef	-0.0013658087
191	0x39488e25	0.0001912644
192	0x3abbe43a	0.0014334985
193	0xbb25ea22	-0.0025316556
194	0xbaa316c3	-0.0012442697
195	0x3ab21b62	0.0013588483
196	0xbb102296	-0.002199327
197	0xb9921e4e	-0.0002786987
198	0x2420f83c	3.4904732e-17
199	0x36904d77	4.3005525e-06
200	0x8356affa	-6.309096e-37
201	0x86665093	-4.331739e-35
202	0x1a11c93d	3.0147856e-23
203	0x1b6c593b	1.9550294e-22
204	0x3443b78f	1.8227568e-07
205	0x24da15d5	9.4579414e-17
206	0x2a4de48e	1.8286953e-13
207	0x3ad41d27	0.0016183004
208	0xbb8d62cd	-0.0043147565
209	0x3ae5ede3	0.0017542209
210	0xbbdf1008	-0.006807331
211	0xbb004bca	-0.0019576424
212	0x3bb88268	0.00563078
213	0x38af3673	8.354792e-05
214	0x3b967d95	0.0045926073
215	0x3b97f222	0.004637019
216	0x9c2f5d43	-5.802318e-22
217	0x16867c1f	2.17272e-25
218	0x0d32bc54	5.5077177e-31
219	0x168ebe22	2.3061328e-25
220	0x83f3acd0	-1.4321932e-36
221	0x18c3083c	5.0414633e-24
222	0x8a767127	-1.1865751e-32
223	0x05106575	6.789482e-36
224	0x12ceca40	1.3050286e-27
225	0x3acc9b95	0.0015610332
226	0xbb84396a	-0.0040351646
227	0xbaa698b5	-0.0012710305
228	0x3b0f2eac	0.0021847887
229	0xbb1f7da4	-0.0024336362
230	0xba9a2b66	-0.0011762201
231	0x3ad428ce	0.0016186477
232	0xbaf196cf	-0.0018431785
233	0xba0e63c7	-0.0005431738
234	0x3c34c34a	0.011032889
235	0xbc78eb22	-0.015192779
236	0xbab7a02a	-0.0014009525
237	0xbb951bc4	-0.004550429
238	0xbbd2cc89	-0.006433074
239	0x3c04efcd	0.008113814
240	0x3c66d57a	0.014088983
241	0x3c9cd599	0.01914482
242	0x3c431196	0.011906048
243	0xb15200e7	-3.0559535e-09
244	0xb3c25045	-9.04843e-08
245	0xb2193d3d	-8.919696e-09
246	0xb329bf88	-3.9522575e-08
247	0xafba1b7b	-3.385273e-10
248	0xb0e90d54	-1.6956769e-09
249	0xb36e6ffb	-5.551554e-08
250	0xb111ca78	-2.1215367e-09
251	0xb11c8ac1	-2.277986e-09
252	0x25832849	2.2752176e-16
253	0xa32c59ca	-9.343152e-18
254	0xa3ccdaa2	-2.2210319e-17
255	0x24639e1f	4.9356712e-17

e_conv4.bias f4 [32]
0	0x3d068cad	0.032849003
1	0x390c9dd1	0.00013410232
2	0xbcd50bea	-0.026006658
3	0xb546263e	-7.38164e-07
4	0x3c89225f	0.016740022
5	0x3c8318d3	0.016003048
6	0x3c3ee4d2	0.011651235
7	0x3c60c3c4	0.013718549
8	0xb71f7480	-9.504263e-06
9	0xbaa9427a	-0.0012913488
10	0x3bf4d361	0.0074714874
11	0x3cd8c018	0.026458785
12	0x3c7b7700	0.015348196
13	0x3b565d2e	0.0032709348
14	0x3cba7120	0.02275902
15	0x3c44d155	0.012012799
16	0xbcde1dee	-0.027113881
17	0x3c91475f	0.017734228
18	0xbaef4620	-0.0018255152
19	0x3cfe2c34	0.031026937
20	0xbbb4b4f7	-0.0055147368
21	0xbae6de9e	-0.0017613953
22	0x3c1562ba	0.0091177765
23	0xbaaf35c0	-0.0013367459
24	0xb82c2d33	-4.105009e-05
25	0x3d155241	0.036455397
26	0x3b7ef5fc	0.0038903942
27	0x3cffd883	0.03123117
28	0x3c796c55	0.015223582
29	0x3c33f198	0.010982893
30	0xba2737b2	-0.00063788437
31	0x3cb79e06	0.022414219

e_conv5.weight f4 [32, 64, 3, 3]
0	0x3c09e97e	0.008417485
1	0x3bbd0121	0.005767957
2	0x3beee6d5	0.007290701
3	0x3c30e6c6	0.010797208
4	0x3c05551b	0.0081379665
5	0x3c09a787	0.008401758
6	0x3c137df3	0.009002197
7	0x3bfaac57	0.007649939
8	0x3bf8ef28	0.007596869
9	0x3bffa542	0.0078016827
10	0xb9cbb3cd	-0.0003885314
11	0x3bd52860	0.006505057
12	0x3c06d9ff	0.008230685
13	0x3b532d4b	0.0032223042
14	0xbb8a3b09	-0.0042184633
15	0x3bb613f8	0.0055565797
16	0x3be1a9da	0.006886703
17	0x3a9c318e	0.0011916624
18	0xb33be6b2	-4.3749147e-08
19	0xaa37381e	-1.6273135e-13
20	0x97f0c9f3	-1.5560616e-24
21	0x9902ee8e	-6.769018e-24
22	0x17c97795	1.3019507e-24
23	0x183fb200	2.4776038e-24
24	0xb183382e	-3.8189887e-09
25	0x9af96fb2	-1.0316444e-22
26	0x307e55c6	9.2526553e-10
27	0x3c6b133b	0.014347847
28	0xbb85b117	-0.0040799486
29	0x3c993a89	0.01870467
30	0x3b9ea1e1	0.004841075
31	0x3c630f82	0.013858678
32	0x3c9381cc	0.018006228
33	0xbb6a1c28	-0.003572235
34	0x3c7af926	0.015318191
35	0x3c52d132	0.012867259
36	0x3c8472a3	0.016167944
37	0x3c3c92eb	0.011509637
38	0x3b9d956a	0.0048090713
39	0x3c83dd9e	0.016096886
40	0xbbd773aa	-0.0065750675
41	0x3bcc62b0	0.0062373504
42	0xbca99625	-0.020701477
43	0xbc60cad0	-0.013720229
44	0xbca0900b	-0.019599935
45	0x25fa3433	4.3403458e-16
46	0x050015b1	6.022515e-36
47	0x876d17ea	-1.7836926e-34
48	0x843c53d0	-2.2137779e-36
49	0x0463edd1	2.6792922e-36
50	0x201e5d7a	1.341405e-19
51	0xad1065f2	-8.208089e-12
52	0x89262f8b	-2.0003878e-33
53	0xb325625b	-3.850651e-08
54	0x3c14d4e2	0.009083958
55	0x3c23c2ee	0.009995205
56	0x3c1e189b	0.009649421
57	0x3bd13468	0.006384421
58	0x3be07fdb	0.006851179
59	0x3bb9861f	0.0056617404
60	0x3a59671d	0.0008293258
61	0x3b0d0f9a	0.0021524192
62	0x3afb2ecf	0.001916373
63	0x3349c6f3	4.6979903e-08
64	0x33e8d9b5	1.08429425e-07
65	0xb5a47b12	-1.225477e-06
66	0xb41886b3	-1.4205106e-07
67	0xb4776323	-2.3039733e-07
68	0xb457b919	-2.0090773e-07
69	0x32cedaff	2.4081144e-08
70	0xb48f7f3c	-2.67284e-07
71	0xb27118bc	-1.403367e-08
72	0xbcd7f830	-0.026363462
73	0x3c6c826e	0.014435394
74	0xbcf9d1c9	-0.030495541
75	0xbcc46dd7	-0.023978157
76	0x3ce1b7b0	0.02755341
77	0xbc9e74d7	-0.019342823
78	0x3c4a0437	0.012330106
79	0xbca25982	-0.019818071
80	0x3c4f02bd	0.01263493
81	0x3cce9b2b	0.025220474
82	0xbb2cdd84	-0.002637715
83	0xbc7dcc40	-0.0154905915
84	0x3c3cc585	0.011521702
85	0xbcd2f131	-0.025749775
86	0xbc13519c	-0.008991625
87	0xbbbab7a5	-0.0056981617
88	0x3b82d9e1	0.0039932583
89	0x3b2a5bea	0.0025994726
90	0xbb7058e3	-0.0036674074
91	0x3b4262a4	0.0029660845
92	0x3c73c538	0.014878564
93	0xb9f5393c	-0.00046772684
94	0x3ba2c3c0	0.004967183
95	0x3c90b145	0.017662654
96	0x3a5e2d6c	0.00084753963
97	0x3bc1bfbb	0.0059127486
98	0x3ca84fd0	0.02054587
99	0x23e400fc	2.4720226e-17
100	0x23d79af2	2.3375969e-17
101	0x36da6ff2	6.5099384e-06
102	0x2311383d	7.872375e-18
103	0x23dd1997	2.3971706e-17
104	0xb011fdf7	-5.31116e-10
105	0xa3d3cd95	-2.2963733e-17
106	0xa39ad7f6	-1.6788176e-17
107	0x279eb4a4	4.404966e-15
108	0x1186e4f1	2.1282568e-28
109	0xb9f65dea	-0.00046990748
110	0x2e073885	3.0745646e-11
111	0x111359ce	1.1623929e-28
112	0x33f2da27	1.1308685e-07
113	0x94081f30	-6.872396e-27
114	0x9e00727f	-6.799941e-21
115	0x95ce2aa9	-8.3270043e-26
116	0x111b73a9	1.2262985e-28
117	0x9150f27c	-1.6483028e-28
118	0x30ba0012	1.3533301e-09
119	0x041bdba0	1.832101e-36
120	0xa0eb9fed	-3.9916379e-19
121	0x83251243	-4.8510105e-37
122	0x8419071b	-1.7988326e-36
123	0x86a6b5e8	-6.2709547e-35
124	0xb342a4d8	-4.531907e-08
125	0x37158c94	8.913823e-06
126	0x35d78300	1.6056874e-06
127	0x9cc8cce7	-1.3287856e-21
128	0xaf161924	-1.3651352e-10
129	0x19a9a572	1.7541013e-23
130	0x2e4fdb6d	4.726124e-11
131	0x8b0d68e5	-2.7234526e-32
132	0x843ad84c	-2.1963514e-36
133	0x07098caf	1.0348078e-34
134	0xb5f6be6a	-1.8383846e-06
135	0x083f8b90	5.7641027e-34
136	0x2d9a0310	1.7509133e-11
137	0x8b63d2c0	-4.387716e-32
138	0x89196ca4	-1.8467788e-33
139	0xb0c052f9	-1.3993421e-09
140	0xb2adecb8	-2.0247498e-08
141	0x335f6211	5.2010424e-08
142	0x2cc98833	5.7278847e-12
143	0x06b4ba16	6.7981903e-35
144	0xbb5260a7	-0.0032101066
145	0xbb30d554	-0.0026982622
146	0xbac2ade5	-0.001485285
147	0xbbb14d16	-0.0054108007
148	0xbb20e84b	-0.002455252
149	0x3bb54681	0.0055320864
150	0xbaf6c663	-0.0018827434
151	0xbb434ded	-0.0029801086
152	0xbaddf85b	-0.0016934978
153	0xbd19f8c4	-0.037590757
154	0x3c6251a0	0.013813406
155	0x3d0a52d1	0.033770386
156	0x3b513b2b	0.0031926136
157	0x3cb54da9	0.022131758
158	0xbc759f0e	-0.014991535
159	0x3c8836ca	0.016627688
160	0xbc5e9e73	-0.013587582
161	0xbca49394	-0.020089902
162	0x3bb0ca9b	0.005395246
163	0x3b46cbcb	0.0030333872
164	0x3c2352d1	0.009968475
165	0x3ba71680	0.0050991178
166	0x3b009dc5	0.0019625288
167	0x3c90c44c	0.017671727
168	0x3b49a375	0.0030767594
169	0x3a3f7135	0.0007302941
170	0x3c05c216	0.0081639495
171	0xbc8813bc	-0.016610973
172	0x3c1ef136	0.009701064
173	0x3cc09481	0.023508312
174	0x3c9919db	0.018689087
175	0x3bacc984	0.005273046
176	0xb91f4e99	-0.00015192702
177	0xbc846470	-0.016161174
178	0xbba66ada	-0.0050786557
179	0x3b0ecceb	0.002178962
180	0xb64cce40	-3.0518422e-06
181	0xb878a6bc	-5.928309e-05
182	0xa4a46173	-7.128875e-17
183	0x21a15dee	1.0934647e-18
184	0xa62a703d	-5.913271e-16
185	0x337eaf6d	5.9298532e-08
186	0xad8d30c7	-1.6051506e-11
187	0x2f000b3b	1.1645522e-10
188	0xa39e3c4a	-1.7155928e-17
189	0xbc02cddd	-0.007983652
190	0xbbd2c95f	-0.0064326967
191	0xbbeccf2b	-0.007226845
192	0xba918462	-0.0011102075
193	0xbb18914b	-0.002327996
194	0xbcc44833	-0.023960209
195	0x3a0a2f3b	0.000527132
196	0xbb25bb3a	-0.0025288598
197	0x3af03fcf	0.0018329563
198	0xb9d7306b	-0.0004104407
199	0x3b30eea9	0.0026997721
200	0x3cb484a4	0.022035904
201	0x3c2a74b3	0.0104038
202	0x3c51ee44	0.012813155
203	0xbc8a11ff	-0.016854284
204	0xbb52341b	-0.0032074514
205	0xbc06caaa	-0.00822703
206	0xbcbac5b5	-0.022799352
207	0xbc1c6ba6	-0.00954715
208	0x3c6e5a71	0.01454793
209	0x3c06ba80	0.008223176
210	0x3cb86122	0.022507254
211	0xbc1dd798	-0.009633921
212	0x3b1b6a27	0.0023714395
213	0xbcd07a97	-0.02544908
214	0x3d0841d8	0.03326592
215	0xbccdc169	-0.02511664
216	0x3cb6d209	0.02231695
217	0x3d4c0e8d	0.049818564
218	0xbd4a4476	-0.049381696
219	0x3a8fe277	0.0010977526
220	0xbc91b414	-0.017786063
221	0xbb950976	-0.004548247
222	0xbd20ed5e	-0.03928887
223	0xbd329b95	-0.043605406
224	0x3ca55766	0.020183276
225	0xb7900321	-1.7167595e-05
226	0xad2e0508	-9.891872e-12
227	0x2b6ef1b9	8.4890043e-13
228	0xaf0a484b	-1.257671e-10
229	0xafb3e2be	-3.272102e-10
230	0xae9be8c3	-7.089931e-11
231	0x2ed542e9	9.698004e-11
232	0xaebbfc3e	-8.548583e-11
233	0xaf76d01c	-2.2447505e-10
234	0x3b61b2af	0.003443878
235	0x3b61f04a	0.0034475499
236	0x3b19812f	0.0023422947
237	0x3b2c4eb1	0.002629202
238	0x3b278ac7	0.0025564895
239	0x3ae058f2	0.0017116352
240	0x3b16ca72	0.002300885
241	0x3b1a92db	0.0023586068
242	0x3ac424a0	0.0014964528
243	0xbc91608b	-0.01774623
244	0xbc55b177	-0.013042799
245	0xbbe3c5e4	-0.0069510806
246	0xbc291902	-0.010320904
247	0x3b253d65	0.0025213596
248	0x3d325def	0.043546613
249	0x3c50a3e8	0.012734391
250	0xbc7182ca	-0.014740655
251	0x3abc90bb	0.0014386395
252	0x355e4d29	8.281373e-07
253	0xa712963b	-2.034301e-15
254	0xa766af21	-3.201385e-15
255	0xa3ca8e6b	-2.19612e-17

e_conv5.bias f4 [32]
0	0x3ca5f68f	0.02025917
1	0xbb09229a	-0.0020925165
2	0xb993b953	-0.00028176102
3	0x3b9867c1	0.0046510403
4	0xb8b2b43c	-8.521273e-05
5	0x3b93693d	0.0044986294
6	0x3a984f0f	0.0011620241
7	0x3ceb6859	0.02873628
8	0x3ba1e375	0.004940445
9	0xbbb050f9	-0.0053807464
10	0x3d2e25b6	0.042516433
11	0x3ce65970	0.028118819
12	0xb85c3ba2	-5.2507625e-05
13	0xbbd2151e	-0.006411209
14	0x3cdd6423	0.027025288
15	0x3d0fd810	0.035118163
16	0x3a354272	0.0006914503
17	0xbb7c56b4	-0.0038503828
18	0xb5ec8ad4	-1.7623775e-06
19	0x3be010c7	0.0068379375
20	0x3ccdea03	0.025136
21	0x3cee7e9f	0.029113112
22	0x3c0e3b3e	0.008681117
23	0xb9a87680	-0.00032131746
24	0x3c955203	0.018227583
25	0xb899adb3	-7.3279625e-05
26	0x3c505dc5	0.012717669
27	0x3c08b502	0.008343937
28	0x3d09c86b	0.0336384
29	0xbb3c0684	-0.0028690407
30	0xbace5f59	-0.0015744969
31	0x0d31707b	5.467773e-31

e_conv7.weight f4 [8, 64, 3, 3]
0	0xbc733b8f	-0.014845743
1	0x3bf1ec03	0.007382871
2	0x3a3bdeb4	0.0007166669
3	0x3c7d2eba	0.015453035
4	0xbac5bffc	-0.0015087123
5	0x3b91f998	0.0044548027
6	0x3c887d86	0.016661417
7	0xbbe8b0ae	-0.00710114
8	0x3c75bfe6	0.014999365
9	0x3b50465a	0.0031780214
10	0x3bd0479c	0.0063561928
11	0x3c2829c9	0.010263869
12	0x3bb40174	0.0054933373
13	0x3bf19e65	0.0073736184
14	0x3c305743	0.010762992
15	0x3bfcb8da	0.0077124657
16	0x3c212562	0.009835573
17	0x3c538d31	0.012912081
18	0x0d3604c1	5.60888e-31
19	0x359e8d43	1.181303e-06
20	0x2724a543	2.284916e-15
21	0x069b7e4b	5.849009e-35
22	0x968b34d5	-2.2490003e-25
23	0x055b92a3	1.03242634e-35
24	0x051d9392	7.409209e-36
25	0x1e094061	7.266033e-21
26	0xb742b135	-1.160456e-05
27	0x050b0c64	6.5380244e-36
28	0x048a3b02	3.2497834e-36
29	0xb32160da	-3.757382e-08
30	0x880290ad	-3.9290518e-34
31	0x035c7b1b	6.4793507e-37
32	0x044dfbd6	2.4213272e-36
33	0xae2f92df	-3.992084e-11
34	0x289662ee	1.669625e-14
35	0x12885930	8.604793e-28
36	0xbaf1c48e	-0.0018445419
37	0xbb170f2c	-0.0023049815
38	0xbc8d3987	-0.017239345
39	0x3c3c3929	0.011488237
40	0xbc07e6dd	-0.008294788
41	0xbb47c1e5	-0.003048056
42	0xbb1e2a22	-0.0024134
43	0x3b0f15b7	0.0021833011
44	0xbac082b7	-0.0014687394
45	0xbbbaaeaa	-0.005697091
46	0xbc534100	-0.012893915
47	0x3bc177f8	0.005904194
48	0x3a81c771	0.0009901357
49	0x3be94797	0.00711913
50	0x3b6f53a4	0.003651836
51	0x3b4927f0	0.003069397
52	0x3bba6f05	0.005689504
53	0x3cbfdd60	0.02342099
54	0x3cd9fa3d	0.02660858
55	0x3c0d0395	0.008606811
56	0x3c7c388b	0.01539434
57	0xbc91793c	-0.017758004
58	0x3c0610d5	0.008182724
59	0xbb8d9478	-0.0043206774
60	0x3c0fc137	0.008774093
61	0x38fce4d8	0.00012058922
62	0x3c171596	0.009221455
63	0xbc06416a	-0.008194307
64	0xbc7e3be0	-0.015517205
65	0xbc71e87c	-0.014764901
66	0xbc14b692	-0.009076731
67	0xbc88475e	-0.016635593
68	0xbc791ecd	-0.015205097
69	0xba4a1b00	-0.0007709712
70	0xbc141156	-0.009037336
71	0xbc0a96a6	-0.008458769
72	0x31b27cc8	5.194668e-09
73	0xb2b9c275	-2.1625263e-08
74	0x3131a2f7	2.5849525e-09
75	0xb04366f1	-7.1086875e-10
76	0xb116cba3	-2.1943627e-09
77	0xb10520ff	-1.9372803e-09
78	0xb1a545bd	-4.8100604e-09
79	0xb4cc085c	-3.8004043e-07
80	0xb03f38dc	-6.95662e-10
81	0xa51e5694	-1.3733649e-16
82	0x18ace905	4.4696248e-24
83	0x1930b62a	9.1357745e-24
84	0x9891a209	-3.7645235e-24
85	0x32d153f3	2.4368978e-08
86	0x991474eb	-7.675032e-24
87	0x1980cf79	1.3318687e-23
88	0x1980e84c	1.3328714e-23
89	0xb31bae93	-3.6247524e-08
90	0xbb17a997	-0.0023141855
91	0x3b010ccf	0.0019691472
92	0x399d7047	0.00030029027
93	0xbb1d2bc5	-0.0023982388
94	0x3ad7b3f0	0.0016456824
95	0x3a4719d9	0.0007595099
96	0xbbb3636e	-0.0054744994
97	0xba8c0390	-0.0010682214
98	0xbb1c9b41	-0.002389625
99	0xbc4f1f0b	-0.012641679
100	0xbc0eaa75	-0.008707632
101	0xbb590472	-0.0033114222
102	0xbc071e92	-0.008247035
103	0xbad6e03d	-0.0016393733
104	0x3a05cec8	0.000510436
105	0xbbadff59	-0.005309981
106	0xbc066451	-0.008202628
107	0xbc17585e	-0.009237377
108	0x3969cd9d	0.00022297208
109	0x3b77bf1d	0.0037803121
110	0x3acccc43	0.001562484
111	0x3aea3932	0.0017869829
112	0x3badb4cb	0.005301093
113	0x3b6540a2	0.003498115
114	0xbba13fab	-0.00492092
115	0xbac3780d	-0.0014913097
116	0xbb68d5a0	-0.003552772
117	0xbc2d6fbc	-0.010585722
118	0xbc47bd7e	-0.012191175
119	0xbbe9fad5	-0.007140497
120	0xbc3e5949	-0.011617967
121	0xbc57371e	-0.0131357
122	0xbc040cde	-0.008059708
123	0xbba7b9c2	-0.0051185796
124	0xbbd6740a	-0.0065445947
125	0xb9a93b5b	-0.00032278415
126	0xbbb4c3d1	-0.005516507
127	0x3c2fc997	0.010729215
128	0x3a3a2c0c	0.00071019004
129	0x3be82af1	0.007085197
130	0xbc026a0a	-0.007959852
131	0x3c2f0b4f	0.0106838485
132	0xbb7a1000	-0.003815651
133	0x3c6d93c5	0.014500563
134	0x3be8f8ef	0.0071097533
135	0xbbe6f280	-0.007047951
136	0x3b017c3c	0.0019757887
137	0xbb89b0fa	-0.0042020055
138	0x3b95d355	0.004572312
139	0xbbb7caba	-0.0056088837
140	0xbb309e21	-0.002694972
141	0x3ac6b8d4	0.0015161284
142	0xbc019ca0	-0.0079108775
143	0xbb03c187	-0.0020104365
144	0x06656873	4.314685e-35
145	0x086c1da7	7.1053523e-34
146	0x039cb643	9.210701e-37
147	0x26068eb8	4.668401e-16
148	0x19288f47	8.714331e-24
149	0x331f5cc5	3.7104446e-08
150	0x035d1d06	6.497938e-37
151	0x186ad0fe	3.0349305e-24
152	0x84ea049c	-5.501737e-36
153	0x3c284152	0.01026948
154	0x3c9f5d96	0.019453805
155	0x3c46967c	0.012120839
156	0x3cacbd69	0.021086412
157	0x3cf7a226	0.030228686
158	0x3cb270cd	0.021782303
159	0x3c2a7a26	0.010405099
160	0x3cabb3df	0.020959793
161	0x3c4a5be8	0.012351014
162	0xab8e684d	-1.0118656e-12
163	0x17070622	4.3628593e-25
164	0x11366bd5	1.4390497e-28
165	0x907a1570	-4.932032e-29
166	0x915dd13e	-1.7498304e-28
167	0x111c7cf4	1.2344734e-28
168	0x151cc140	3.1656396e-26
169	0x37d38a2a	2.5217498e-05
170	0x90fa92f6	-9.883404e-29
171	0xbc94c8a3	-0.018162077
172	0xbc0c6b60	-0.008570522
173	0xbc2497c7	-0.010045952
174	0xbc8654e5	-0.016397903
175	0xbc10308e	-0.008800639
176	0xbc5fbbe7	-0.013655639
177	0xbca48029	-0.020080643
178	0xbc5d0d4f	-0.013491943
179	0xbc9ce85d	-0.019153768
180	0xbb29d780	-0.0025915802
181	0x3b6d9ea3	0.0036257885
182	0x39c6186d	0.00037783702
183	0x3b80af0c	0.003927117
184	0x3c270274	0.010193456
185	0x3be59107	0.007005814
186	0x3b754dad	0.0037430332
187	0x3c210210	0.009827152
188	0x3bdd1ef3	0.006748074
189	0xab185911	-5.412485e-13
190	0x2922e8a1	3.6173e-14
191	0xb00fb5db	-5.228153e-10
192	0x2abbfd1a	3.3393497e-13
193	0x28b141f6	1.9679554e-14
194	0xb2599cf2	-1.2666748e-08
195	0x358dab68	1.0555204e-06
196	0xb0005596	-4.6687754e-10
197	0x2b8fe404	1.0224048e-12
198	0xbab3dbb5	-0.0013722094
199	0x3af2ef3a	0.001853443
200	0xbbfa944e	-0.007647074
201	0x3b2937b9	0.0025820567
202	0x3bace5ef	0.0052764337
203	0xbb837b31	-0.0040124883
204	0x3b3cc8e1	0.0028806257
205	0x3bb90b6e	0.0056471145
206	0xbb7880b6	-0.0037918515
207	0xa109a0eb	-4.663038e-19
208	0x21104c1f	4.8889843e-19
209	0xa10cd74f	-4.7718804e-19
210	0x209b3575	2.6293396e-19
211	0x1f836b38	5.5658037e-20
212	0x2a96309e	2.6679088e-13
213	0xa10da472	-4.79903e-19
214	0x20faf029	4.2510572e-19
215	0xa14eacef	-7.002439e-19
216	0xad23e691	-9.316673e-12
217	0xae2ad798	-3.884501e-11
218	0x363c833e	2.8090576e-06
219	0x23d51a90	2.3104756e-17
220	0xa322ef63	-8.83273e-18
221	0x237cbfdf	1.3701578e-17
222	0xacd98583	-6.1823337e-12
223	0x2123ebcb	5.553862e-19
224	0xb52b1074	-6.3726407e-07
225	0x3b9fcf94	0.00487704
226	0x3c475e0b	0.012168418
227	0xbb8f095e	-0.0043651303
228	0x3c06d566	0.008229589
229	0x39128624	0.00013973616
230	0xbb5dfe47	-0.0033873485
231	0x3aeae5b9	0.0017921246
232	0xbb5d562b	-0.0033773284
233	0xbb3ab45a	-0.0028488846
234	0xbc7af8ad	-0.015318078
235	0xba08043f	-0.0005188621
236	0x3c802f68	0.015647605
237	0xbce52b6f	-0.027974812
238	0xbc6b0f80	-0.014346957
239	0x3abfeaaf	0.0014642085
240	0xbd1c37e8	-0.038139254
241	0xbcc7430a	-0.024323959
242	0xbc04e0a2	-0.008110197
243	0x3c83f7af	0.016109316
244	0x3ba74a87	0.00510532
245	0x3baa20a4	0.0051918793
246	0x3c256af1	0.010096298
247	0xba27b0df	-0.00063969
248	0x3be44900	0.00696671
249	0x3b64cd74	0.0034912499
250	0x3c885567	0.016642286
251	0x3ba949b6	0.0051662577
252	0x3b70c3ff	0.0036737917
253	0x3c40c363	0.011765334
254	0xbb0df77f	-0.0021662412
255	0x3c6bd756	0.014394602

e_conv7.bias f4 [8]
0	0x3b8465ef	0.0040404717
1	0xbc34477f	-0.011003374
2	0x3d0f1210	0.034929335
3	0x3c709178	0.01468312
4	0xbbf98452	-0.0076146508
5	0x39b35aaf	0.00034209105
6	0xbc57ba8d	-0.013167036
7	0xbcc77577	-0.024348004
