snapshots/Epoch190.pth (torch, 304045 bytes, 14 tensors)

e_conv1.weight f4 [32, 3, 3, 3]
-5.2399522e-05 -5.5117143e-05 -5.5800698e-05 -5.3114374e-05 -5.6616722e-05 -5.6755835e-05 -5.2833744e-05 -5.596979e-05
-5.663805e-05 -6.984043e-05 -7.297494e-05 -7.327616e-05 -6.947501e-05 -7.342086e-05 -7.310918e-05 -6.7901485e-05
-7.133579e-05 -7.175089e-05 -3.981368e-05 -4.2128537e-05 -4.2092313e-05 -3.970651e-05 -4.2601685e-05 -4.2141743e-05
-3.845176e-05 -4.091385e-05 -4.0984563e-05 0.012881047 0.005528382 0.0058963173 0.026793404 0.018026235
0.030769339 0.060492232 0.048228104 0.070753835 0.004294003 -0.0094148535 0.008864205 0.009864601
0.005351744 0.01811992 0.046251625 0.038734846 0.053582363 -0.015641442 -0.02223709 -0.02394384
-0.010956838 -0.018614266 -0.011159142 0.008365465 0.0010687303 0.026615914 -0.021738041 -0.03927481
-0.031919416 -0.0109536005 -0.030085066 -0.030251998 0.003589879 -0.015405063 -0.021056686 0.007213291
0.0052624955 0.002744047 0.014506767 0.008311676 0.0053391936 0.04404627 0.02214732 0.0018302588
0.044844568 0.040497333 0.039865464 0.05279024 0.03916986 0.04418684 0.063588 0.04246134
0.04090359 -0.01997299 0.00198711 0.018048955 -0.035048842 -0.012610365 0.0131671075 -0.04094683
-0.014320822 0.029389003 -0.029712757 -0.00071769685 0.01780194 -0.02976012 -0.010946197 0.013673779
-0.04380445 -0.0046745 0.029337613 -0.008461785 0.0041481876 0.013609185 -0.015780821 0.0018465883
0.012656208 -0.030228093 -0.00082901155 0.030702371 0.039297935 0.041497033 0.09609536 0.0063448665
0.008151863 0.054985505 -0.0037596845 0.0040673898 0.05147569 0.031378593 0.03332512 0.08456095
-0.0011030922 0.00035388928 0.043481577 -0.010172881 0.00027689754 0.044484172 0.014506454 0.012475832
0.054684583 -0.011929616 -0.01165676 0.022325827 -0.022673232 -0.014200844 0.021397745 -5.224919e-05
-5.5001343e-05 -5.4164404e-05 -5.4426175e-05 -5.7743255e-05 -5.5895693e-05 -5.3677635e-05 -5.5968878e-05 -5.4320175e-05
-5.18871e-05 -5.4602664e-05 -5.3492648e-05 -5.3149644e-05 -5.6372734e-05 -5.4299613e-05 -5.1603274e-05 -5.3799013e-05
-5.1926963e-05 -2.1090264e-05 -2.309847e-05 -2.2435512e-05 -2.1852873e-05 -2.4153798e-05 -2.2869617e-05 -2.083681e-05
-2.2434218e-05 -2.1299094e-05 0.0792421 0.028413098 -0.02356176 0.056933124 0.019277366 -0.03271305
0.046839073 0.00077768933 -0.051266603 0.064483255 0.021721102 -0.039788954 0.04288719 0.007992881
-0.03327586 0.030612381 -0.020970542 -0.06988376 0.036594693 0.00017090629 -0.031714484 0.022917708
0.0010908184 -0.028031254 0.025626233 -0.018277923 -0.061723683 -1.1936744e-12 -1.2574117e-12 -1.4510457e-12
-1.2124038e-12 -1.2882682e-12 -1.4304108e-12 -1.2355141e-12 -1.2645571e-12 -1.4316173e-12 -1.0919693e-12 -1.1305766e-12
-1.2992104e-12 -1.0374082e-12 -1.0795425e-12 -1.1927068e-12 -9.809893e-13 -9.771426e-13 -1.1015945e-12 -1.12317375e-13
-1.1758926e-13 -1.4003456e-13 -1.0781445e-13 -1.13255474e-13 -1.2838763e-13 -1.00481526e-13 -9.939575e-14 -1.1498757e-13
-4.544274e-19 -3.4014626e-19 -2.7949037e-19 -5.895354e-19 -4.5300107e-19 -3.3637726e-19 -8.78878e-19 -6.004904e-19
-4.80078e-19 -1.21751034e-20 -7.751762e-21 -5.6066435e-21 -1.20075e-20 -7.808308e-21 -5.0983903e-21 -1.6245913e-20
-9.328203e-21 -6.703871e-21 -1.6421437e-21 -1.1088731e-21 -6.965913e-22 -1.4503959e-21 -9.921421e-22 -5.456918e-22
-1.4163999e-21 -8.312499e-22 -5.288325e-22 -0.069179565 -0.042697906 -0.06512576 -0.03172594 -0.01710027
-0.019195547 -0.0049963663 0.01792899 0.016906451 -0.058924336 -0.02676832 -0.04724342 -0.0178374
00000000: 8fc7 5bb8 952d 67b8 8b0b 6ab8 20c7 5eb8
00000010: be77 6db8 1d0d 6eb8 cd99 5db8 1bc1 6ab8
00000020: a58e 6db8 4c77 92b8 1f0a 99b8 d7ab 99b8
00000030: 1db3 91b8 86f9 99b8 3152 99b8 5566 8eb8
00000040: 1c9a 95b8 f778 96b8 9dfd 26b8 2cb3 30b8
00000050: 478c 30b8 8a8a 26b8 36af 32b8 5ac1 30b8
00000060: 4347 21b8 e99a 2bb8 d7e6 2bb8 070b 533c
00000070: 6e27 b53b e535 c13b d77d db3c c1ab 933c
00000080: fb0f fc3c b4c6 773d d58a 453d 63e7 903d
00000090: b5b4 8c3b c240 1abc 2c3b 113c 239f 213c
000000a0: af5d af3b 3a70 943c 5872 3d3d 6ea8 1e3d
000000b0: 2e79 5b3d 7b22 80bc 8f2a b6bc df25 c4bc
000000c0: 4f84 33bc f27c 98bc d5d4 36bc 4e0f 093c
000000d0: a314 8c3a 9e09 da3c fa13 b2bc a0de 20bd
000000e0: efbd 02bd bb76 33bc f574 f6bc 0ad3 f7bc
000000f0: 2d44 6b3b 8465 7cbc 127f acbc 785d ec3b
00000100: 0371 ac3b 78d5 333b caad 6d3c b22d 083c
00000110: 67f4 ae3b dd69 343d 4c6e b53c 4be5 ef3a
00000120: f0ae 373d 88e0 253d f849 233d 943a 583d
00000130: 9370 203d 43fd 343d 6d3a 823d f1eb 2d3d
00000140: 868a 273d 659e a3bc 2c3a 023b 67db 933c
00000150: 608f 0fbd b49b 4ebc daba 573c ddb7 27bd
00000160: e2a1 6abc 35c1 f03c 2b68 f3bc d223 3cba
00000170: 60d5 913c 7fcb f3bc ae57 33bc fc07 603c
00000180: 4c6c 33bd 8c2c 99bb 6f55 f03c 4ca3 0abc
00000190: 85ed 873b 0ff9 5e3c c846 81bc 3909 f23a
000001a0: fc5b 4f3c e8a0 f7bc 0652 59ba 8a83 fb3c
000001b0: dff6 203d cbf8 293d a5cd c43d 99e8 cf3b
000001c0: 648f 053c 7b38 613d 0a65 76bb bd47 853b
000001d0: 2cd8 523d d786 003d ec7f 083d 4b2e ad3d
000001e0: a295 90ba 378a b939 bd19 323d 28ac 26bc
000001f0: 8f2c 9139 0935 363d 7aac 6d3c 6f67 4c3c
00000200: f1fc 5f3d 7074 43bc fffb 3ebc a7e4 b63c
00000210: 37bd b9bc a8aa 68bc 534a af3c 2426 5bb8
00000220: 3eb1 66b8 962e 63b8 a947 64b8 5931 72b8
00000230: 8b71 6ab8 ec23 61b8 20c0 6ab8 d8d5 63b8
00000240: 59a1 59b8 2a05 65b8 4b5d 60b8 ffec 5eb8
00000250: c371 6cb8 c4bf 63b8 9870 58b8 40a6 61b8
00000260: 27cc 59b8 ffea b0b7 96c3 c1b7 e533 bcb7
00000270: b050 b7b7 e39d cab7 21d8 bfb7 b5ca aeb7
00000280: 1e31 bcb7 75ab b2b7 af49 a23d 96c2 e83c
00000290: 9804 c1bc b532 693d 91eb 9d3c 1efe 05bd
000002a0: 54da 3f3d d9dd 4b3a eefc 51bd cc0f 843d
000002b0: 74f0 b13c bef9 22bd 7aaa 2f3d 93f4 023c
000002c0: 454c 08bd d1c6 fa3c 6aca abbc 371f 8fbd
000002d0: 51e4 153d 4f35 3339 0ce7 01bd ebbd bb3c
000002e0: cbf9 8e3a cda1 e5bc 1bee d13c 95bb 95bc
000002f0: f9d1 7cbd a7fe a7ab 08f7 b0ab 6e37 ccab
00000300: 73a1 aaab c14e b5ab fb4f c9ab 16e2 adab
00000310: 79f8 b1ab 737b c9ab 57ae 99ab 511d 9fab
00000320: fdd8 b6ab 9200 92ab 9eee 97ab cbdb a7ab
00000330: dd0f 8aab 4685 89ab 2009 9bab 8fea fca9
00000340: cc64 04aa 37aa 1daa cdc6 f2a9 5607 ffa9
00000350: 378d 10aa a843 e2a9 c0d1 dfa9 e976 01aa
00000360: 901f 06a1 73c9 c8a0 64fb a4a0 0900 2ea1
00000370: cbb3 05a1 e58f c6a0 12b3 81a1 c63b 31a1
00000380: abb1 0da1 30fb 659e 396d 129e 21d0 d39d
00000390: b5d0 629e a97e 139e 9b9c c09d 3570 999e
000003a0: 6c34 309e dd43 fd9d 5b27 f89c 7391 a79c
000003b0: 2488 529c 792d db9c a3ed 959c dcec 249c
000003c0: 510a d69c d93a 7b9c 6fd4 1f9c 04ae 8dbd
000003d0: 00e4 2ebd a860 85bd 0ff3 01bd de15 8cbc
000003e0: fb3f 9dbc 8fb8 a3bb d1df 923c 667f 8a3c
000003f0: a55a 71bd 3c49 dbbc 5182 41bd bd1f 92bc

e_conv1.bias f4 [32]
-0.00024463757 0.061441448 0.021192776 0.11207771 0.053635214 -0.00010785846 0.07588484 -1.4149519e-07
-6.399181e-11 0.08325934 -1.1326503e-08 -3.7886928e-26 0.01504214 0.06652295 -3.6811918e-05 0.1425934
0.11574814 0.09613986 0.1742461 0.15536204 -0.0029271895 0.13690062 -0.011869386 0.11659673
-4.4503513e-28 -0.000102536316 0.024597025 -1.8068008e-32 -5.242424e-05 -0.027837526 0.09703535 -2.8283298e-11
00000000: b342 80b9 07aa 7b3d 799c ad3c 0089 e53d
00000010: 99b0 5b3d 1232 e2b8 8369 9b3d e7ed 17b4
00000020: 30b8 8cae df83 aa3d 7d96 42b2 639b 3b95
00000030: 4f73 763c 2f3d 883d 7f66 1ab8 0104 123e
00000040: 5c0d ed3d fae4 c43d 926d 323e 3a17 1f3e
00000050: 17d6 3fbb ad2f 0c3e d077 42bc 44ca ee3d
00000060: 8a09 0d92 c408 d7b8 b37f c93c 01a1 bb8a
00000070: 19e2 5bb8 860b e4bc 78ba c63d 53c8 f8ad

e_conv2.weight f4 [32, 32, 3, 3]
-9.401106e-25 -9.134351e-25 8.975926e-25 6.225701e-25 -5.2190204e-25 -3.1458777e-25 8.0833295e-25 2.9252486e-25
-9.137612e-25 0.0030201632 -0.0031105306 0.0011847449 8.499429e-05 -0.00029819 -0.0018752514 0.0057460074
0.007747817 0.0014048481 -0.0016432282 -0.0021412757 -0.0024328132 -0.00036536987 -0.0017171213 -0.0024745036
0.0014325045 0.00041815938 -6.862079e-05 -0.0019621132 0.002436727 0.0041202223 -0.002034409 7.0191318e-06
0.0011516343 -0.0039071585 0.0005153489 0.002295556 -0.00075404777 -0.00153169 -0.0015282885 0.0017492691
-0.0051806304 0.0007722625 0.0028721606 -0.0058617606 -0.003458871 -1.7376241e-28 -2.8510715e-29 2.4311201e-28
3.7381942e-28 -2.8226025e-28 6.5000864e-29 3.4745035e-28 -1.8119384e-28 -1.5152922e-29 0.0033488409 0.0030232554
0.00055047695 0.003611513 0.0034923076 0.0006449678 0.0038194864 0.0031866005 0.0007888361 1.02256e-40
1.1125e-40 -1.06898e-40 9.1649e-41 2.3347e-41 -2.2275e-41 8.113e-41 -5.785e-41 1.09126e-40
4.938e-42 -2.2663e-41 3.2973e-41 8.97e-42 7.0143e-41 7.808e-41 5.0845e-41 -7.5412e-41
-6.149e-42 0.0008157592 0.0004912779 0.0013518146 0.0006471706 0.00012365842 0.0009686489 0.002934439
0.0024563523 0.002800639 -6.566189e-11 -2.9969794e-11 -8.0691405e-11 -6.020259e-11 -7.837581e-11 -6.717651e-11
-5.385291e-11 -5.827447e-11 -8.051966e-11 -1.5458406e-28 -7.228764e-29 -5.7363637e-29 -8.634717e-29 -1.2519734e-28
-8.131396e-29 -7.4570954e-29 -6.7408896e-29 -6.7933826e-29 0.0003259841 0.00036219662 -4.2663087e-06 0.00090005086
0.0006926002 0.00038101446 0.0025200872 0.002221541 0.0017734095 0.0010658405 0.0013585499 0.0010537341
0.0010603622 0.0014712489 0.0011422263 0.0010613119 0.0015220735 0.0012736747 6.8095e-41 -1.9938e-41
-4.5394e-41 9.6307e-41 -7.3299e-41 -3.4609e-41 8.8233e-41 9.6828e-41 9.4739e-41 0.0023906075
0.0045252447 0.0018197632 0.004801261 0.0054398784 0.004433333 9.326079e-05 -0.004641313 -0.0014106105
-0.00078745757 -0.0009710598 0.0006535672 -0.0018397319 0.0036287643 0.0037883562 -0.003327349 0.0016567603
0.0014875846 0.001984659 0.0013772128 0.001300826 0.0013126036 0.0018662157 0.0013648061 0.0008653445
0.0013949408 0.00084007246 0.0014942522 -0.005320451 -0.003481015 0.00041224295 0.0015330571 0.006442835
-0.009631487 0.0067242444 0.011982781 0.0045478093 0.0051589203 0.0028236296 0.0023391112 0.003230864
0.002272096 0.000111710615 0.0013577109 0.0066024074 -2.5695888e-05 -2.5196085e-05 -2.3974646e-05 -2.5266425e-05
-2.455307e-05 -2.3812683e-05 -2.45004e-05 -2.488159e-05 -2.482502e-05 -0.0038113045 0.005468232 0.006705218
-0.0038079973 0.0140857715 0.009661998 0.0055178204 0.010182652 0.0068299714 0.00029892923 -0.00011590018
-0.00079521706 0.0003526676 0.00010874138 -0.0005246665 3.1973916e-05 0.00019849674 -0.00067860924 0.002894319
0.0028860949 0.0030578852 0.0024878415 0.0032572988 0.0017715285 -0.0002713619 0.0031979035 0.0010407247
-6.53737e-30 -3.868503e-30 -4.502639e-30 -6.072397e-30 -4.1303163e-30 -6.2096364e-30 -8.0569286e-30 -7.348025e-30
-4.2786603e-30 -3.37997e-29 -1.966884e-28 3.0291142e-28 2.493057e-28 4.7866684e-29 -1.4180418e-28 2.8281703e-28
1.7034588e-28 -2.5732827e-28 0.000992736 -0.00043836056 -0.00031406165 -0.0010412486 -0.002838895 -0.0063855434
0.006698374 -0.0019000223 -0.0064340057 -8.2012965e-36 -4.0907172e-35 -4.0443027e-35 -2.4836795e-35 -4.4539828e-35
-4.3531796e-35 -5.6660596e-36 -1.9483265e-35 -3.25145e-35 8.95861e-06 8.3163e-06 8.091866e-06 4.961137e-06
00000000: 9e79 9197 e458 8d97 4ee5 8a17 16ad 4017
00000010: 5785 2197 6cb8 c296 bc2a 7a17 6a10 b516
00000020: cf65 8d97 eeed 453b 0bda 4bbb 7149 9b3a
00000030: f63e b238 6256 9cb9 ffca f5ba 0149 bc3b
00000040: 66e1 fd3b e122 b83a 9761 d7ba a554 0cbb
00000050: d56f 1fbb 1d8f bfb9 0811 e1ba 482b 22bb
00000060: e0c2 bb3a 673c db39 82e8 8fb8 cc96 00bb
00000070: 7fb1 1f3b ee02 873b b853 05bb e285 eb36
00000080: 6ff2 963a 9f07 80bb 7b18 073a 0a71 163b
00000090: 4aab 45ba fdc2 c8ba da50 c8ba bb47 e53a
000000a0: 47c2 a9bb a971 4a3a dc3a 3c3b 0314 c0bb
000000b0: 3aae 62bb 2045 5c91 0691 1090 2e17 9a11
000000c0: abef ec11 58e7 b291 f9cb a410 0b39 dc11
000000d0: c3b0 6591 3cab 998f 3a78 5b3b cf21 463b
000000e0: e24d 103a 22af 6c3b 33df 643b 0e13 293a
000000f0: 5950 7a3b 49d6 503b e5c9 4e3a 0c1d 0100
00000100: 1f36 0100 fd29 0180 7bff 0000 1541 0000
00000110: 183e 0080 28e2 0000 43a1 0080 3330 0100
00000120: c40d 0000 2d3f 0080 ea5b 0000 0119 0000
00000130: 88c3 0000 a8d9 0000 bc8d 0000 38d2 0080
00000140: 2411 0080 acd8 553a 1ac9 003a 5f2f b13a
00000150: e2a6 293a 4eaa 0139 edec 7d3a b84f 403b
00000160: c1fa 203b ed8a 373b 5c64 90ae fdce 03ae
00000170: 3971 b1ae 0c63 84ae a959 acae 03b9 93ae
00000180: fdd8 6cae 9c25 80ae 8a10 b1ae 65f5 4391
00000190: 5c45 b790 216f 9190 84ea da90 dcb4 1e91
000001a0: c727 ce90 510f bd90 e0e6 aa90 933b ac90
000001b0: d8e8 aa39 35e5 bd39 5027 8fb6 64f1 6b3a
000001c0: 9d8f 353a e5c2 c739 0c28 253b 4697 113b
000001d0: c071 e83a acb3 8b3a 5f11 b23a 731d 8a3a
000001e0: dafb 8a3a ecd6 c03a c1b6 953a b81b 8b3a
000001f0: 5080 c73a 6ef1 a63a d2bd 0000 9437 0080
00000200: 8a7e 0080 770c 0100 54cc 0080 7a60 0080
00000210: f5f5 0000 eb0d 0100 1808 0100 bdab 1c3b
00000220: 8148 943b 1f85 ee3a e553 9d3b 0241 b23b
00000230: 7e45 913b 0195 c338 2816 98bb 3ce4 b8ba
00000240: 626d 4eba b88e 7eba 2754 2b3a 2923 f1ba
00000250: 90d0 6d3b 1246 783b a70f 5abb a727 d93a
00000260: 0efb c23a 0d11 023b 9883 b43a 7a80 aa3a
00000270: ab0b ac3a cf9b f43a 4be3 b23a 49d8 623a
00000280: 72d6 b63a 4f38 5c3a c9da c33a 2e57 aebb
00000290: be21 64bb 5022 d839 dcf0 c83a 6b1e d33b
000002a0: 62cd 1dbc 0d57 dc3b 6d53 443c ca05 953b
000002b0: 290c a93b a50c 393b c64b 193b e7bc 533b
000002c0: 72e7 143b 2e46 ea38 38f5 b13a 0259 d83b
000002d0: 808d d7b7 2e5c d3b7 291d c9b7 3cf3 d3b7
000002e0: 51f7 cdb7 59c1 c7b7 3586 cdb7 cfb8 d0b7
000002f0: 533f d0b7 14c7 79bb db2e b33b 72b7 db3b
00000300: 988f 79bb 02c8 663c 5b4d 1e3c d5ce b43b
00000310: 23d5 263c f4cd df3b 9ab9 9c39 6f0f f3b8
00000320: 1d76 50ba 3ee6 b839 150c e438 c689 09ba
00000330: bb1b 0638 9023 5039 b2e4 31ba 9dae 3d3b
00000340: a324 3d3b cd66 483b 0e0b 233b 6878 553b
00000350: a232 e83a 9445 8eb9 eb93 513b ed68 883a
00000360: f797 048f d5ec 9c8e 14a6 b68e 6053 f68e
00000370: a88b a78e 8de4 fb8e f769 238f 2109 158f
00000380: 2690 ad8e 8562 2b90 0955 7991 30fe bf11
00000390: 2a04 9e11 82b6 7210 16c2 3391 b041 b311
000003a0: 66f0 5711 e619 a391 b11e 823a c2d3 e5b9
000003b0: a4a8 a4b9 817a 88ba c10c 3abb d23d d1bb
000003c0: 097e db3b 2b0a f9ba 5ad4 d2bb 1b6c 2e85
000003d0: f57f 5986 3208 5786 180e 0486 79d0 6c86
000003e0: 6974 6786 ed01 f184 7e2e cf85 72e0 2c86
000003f0: f04c 1637 3d86 0b37 4dc2 0737 d877 a636

e_conv2.bias f4 [32]
-0.024537122 -0.00011352081 0.047769036 -0.0013438795 0.039541807 0.036485747 0.002679256 0.049059235
0.058143783 0.036840186 -0.025341175 -1.0052537e-06 -1.03614905e-20 -0.0084942905 0.011629684 -2.9006982e-28
0.031770628 0.015359995 -2.0591143e-11 -0.006382123 -2.2116563e-08 0.015495972 -9.761501e-27 0.045074176
-0.0010931195 0.051575035 0.04402258 -0.002333281 -1.743763e-06 0.0025983804 -4.9430173e-19 0.05105046
00000000: 1302 c9bc 0512 eeb8 77a9 433d 1d25 b0ba
00000010: 97f6 213d 1472 153d 7596 2f3b 56f2 483d
00000020: 2d28 6e3d bce5 163d 4c98 cfbc 41ec 86b5
00000030: 18b9 439e a32b 0bbc 6e8a 3e3c 85da b791
00000040: eb21 023d 7da8 7b3c 221f b5ad 2121 d1bb
00000050: d6fa bdb2 d1e2 7d3c b158 4194 b39f 383d
00000060: 0147 8fba 5840 533d 0551 343d f6e9 18bb
00000070: 3e0b eab5 9749 2a3b 62e4 11a1 4a1a 513d

e_conv3.weight f4 [32, 64, 3, 3]
6.893499e-24 -6.4001528e-24 4.9431022e-24 6.650105e-24 -9.136094e-24 -3.4627073e-24 -4.8639767e-24 7.3682125e-24
2.2216205e-24 -0.0017122818 0.012839081 0.014729154 -0.008064006 0.0062297247 0.008584726 -0.026711533
-0.011349648 -0.007604756 -0.0036026528 0.0071953256 0.006258364 -0.006003291 0.0049909996 0.003901322
-0.0151659725 -0.006036032 -0.006270642 0.003174871 0.0041276454 0.002849022 0.004148289 0.0043800185
0.0025467975 -0.0072768573 -0.004830776 -0.005128393 -0.0035130316 0.011026616 0.011932893 -0.0019830745
0.011433821 0.01111519 -0.020371808 -0.008407351 -0.005938314 -2.9332915e-24 -2.1552684e-24 6.3683346e-23
9.219483e-25 -8.9138135e-24 -1.5067814e-23 -5.7853943e-26 3.1850873e-25 9.627757e-25 -0.004748645 0.0074387067
0.0043393997 -0.0036806478 0.011142361 0.009173317 -0.009907499 0.0009697755 -0.0048970277 -3.7832e-41
2.112e-42 -2.7432e-41 6.1531e-41 -9.48e-42 2.7749e-41 2.4205e-41 -5.7837e-41 -8.412e-41
2.5414e-41 8.0416e-41 1.8381e-41 -7.3396e-41 -9.4533e-41 1.6961e-41 5.3925e-41 -4.2192e-41
7.9661e-41 0.0015763348 0.0054161414 0.0024419972 -0.00057076325 0.00079073355 -0.0021747788 -0.007335859
-0.005854694 -0.0050542857 -2.4097293e-09 -2.3644682e-09 -1.6532559e-09 -2.2061608e-09 -2.1256374e-09 -2.2589566e-09
-2.1972655e-09 -2.1081312e-09 -1.8309624e-09 -1.0724771e-27 -1.1383961e-27 -1.15302065e-27 -9.107682e-28 -1.0367643e-27
-1.1564483e-27 -7.8043626e-28 -1.0026505e-27 -1.0343641e-27 -0.0018226268 0.00047326647 -0.00050981226 -0.0018867205
-0.00066790194 -0.0019172182 0.001069209 0.0017913927 0.001927389 -0.005752793 -0.0009900846 -0.0021260027
-0.0067780316 -0.0018132231 -0.0030008184 -0.010628255 -0.0063368184 -0.008344962 5.9889e-41 -2.48304e-40
-2.4513e-41 1.00927e-40 1.22255e-40 -1.70992e-40 1.60908e-40 3.8337e-41 -2.229e-40 -0.010456144
0.010078062 0.013357666 -0.0044613164 0.009500708 0.010738762 -0.033627436 -0.015069189 -0.011333939
-0.0031890424 0.006932664 0.008182288 -0.0042938716 0.0072747767 0.0056067035 -0.01798863 -0.0068540853
-0.0067689926 -0.0025691579 0.0025700235 0.0018764392 0.00021328223 0.0066492246 0.005691043 -0.0070863375
-0.00073018775 -0.003837276 -0.0050830133 0.012951924 0.014212817 -0.0048553543 0.008790685 0.015418462
-0.03192926 -0.01345855 -0.01006634 0.0005562604 0.0072920863 0.007363871 -0.0008219638 0.00469219
0.0034415156 -0.015283857 -0.009539429 -0.0087537505 7.152539e-05 7.305577e-05 7.826803e-05 7.08936e-05
7.308555e-05 7.9369885e-05 8.185181e-05 8.419301e-05 8.992711e-05 -0.0032417416 0.010223857 0.00925757
-0.00605133 0.008990445 0.0105683515 -0.02741511 -0.015641415 -0.0087863915 -0.0072058607 0.0009794299
0.0038825169 -0.0058659376 0.003899779 0.0073652887 -0.012769889 -0.004619668 -0.0019067329 -0.0026648594
0.0065738126 0.005060644 -0.003148707 0.006138577 0.0046753692 -0.010306898 -0.0023112195 -0.005319198
-1.89617e-29 -1.5976368e-29 -2.2504913e-29 -4.149435e-30 -2.3440048e-29 -2.418232e-29 -1.9468786e-29 -1.5997236e-29
-1.6548126e-29 -1.3625973e-27 1.6075477e-27 1.3765895e-27 6.7711903e-28 -1.0454617e-27 5.6921355e-28 -9.058688e-28
1.1670208e-27 2.8929692e-28 -0.003681949 0.009359368 0.0124605885 -0.0074310964 0.014839645 0.009431211
-0.025488546 -0.010464771 -0.008292289 1.0597899e-34 1.4164823e-34 2.1452779e-34 8.8855974e-35 1.5524082e-34
1.6690522e-34 5.913888e-36 9.052136e-36 -1.2718569e-34 -5.4817017e-05 -5.9295893e-05 -5.957493e-05 -5.9403075e-05
00000000: f456 0519 0b98 f798 1d3a bf18 baa1 0019
00000010: bfb7 3099 fef4 8598 7e2a bc98 9f85 0e19
00000020: bae3 2b18 a56e e0ba 025b 523c 8d52 713c
00000030: e51e 04bc b822 cc3b f3a6 0c3c 25d2 dabc
00000040: e0f3 39bc 5131 f9bb 7c1a 6cbb c4c6 eb3b
00000050: f612 cd3b 41b7 c4bb 8a8b a33b 52ad 7f3b
00000060: b37a 78bc e8c9 c5bb f579 cdbb 7f11 503b
00000070: 3341 873b a8b6 3a3b 5fee 873b 4286 8f3b
00000080: 2ce8 263b b472 eebb 7c4b 9ebb 140c a8bb
00000090: e43a 66bb fba8 343c 2e82 433c 78f6 01bb
000000a0: ec54 3b3c 7c1c 363c c7e2 a6bc fcbe 09bc
000000b0: 3096 c2bb d3f3 6298 7dc1 2698 15fa 991a
000000c0: 23aa 8e17 116b 2c99 1aba 9199 4b3d 8f95
000000d0: b925 c516 7afb 9417 859a 9bbb 65c0 f33b
000000e0: 8631 8e3b 0637 71bb 738e 363c ae4b 163c
000000f0: 1053 22bc 8838 7e3a 3f77 a0bb 7669 0080
00000100: e305 0000 784c 0080 86ab 0000 6d1a 0080
00000110: 5a4d 0000 7943 0000 3aa1 0080 7eea 0080
00000120: d846 0000 2be0 0000 3d33 0000 99cc 0080
00000130: 8507 0180 482f 0000 5296 0000 9d75 0080
00000140: 10de 0000 059d ce3a e379 b13b ea09 203b
00000150: 469f 15ba 3b49 4f3a bc86 0ebb a561 f0bb
00000160: bcd8 bfbb 6c9e a5bb 6898 25b1 2a7c 22b1
00000170: c538 e3b0 319b 17b1 9c12 12b1 fc3b 1bb1
00000180: b4fe 16b1 a3de 10b1 43a5 fbb0 d7f0 a992
00000190: d562 b492 13b4 b692 2651 9092 2848 a492
000001a0: 1e3f b792 8354 7792 56e0 9e92 cbe6 a392
000001b0: 35e5 eeba c020 f839 eca4 05ba d64b f7ba
000001c0: 2416 2fba 2b4b fbba b324 8c3a 2acd ea3a
000001d0: 71a0 fc3a ed81 bcbb bac5 81ba 6854 0bbb
000001e0: 401a debb aca9 edba 61a9 44bb 2222 2ebc
000001f0: 16a5 cfbb 4fb9 08bc f2a6 0000 2cb4 0280
00000200: 5544 0080 5819 0100 cc54 0100 a8dc 0180
00000210: 8cc0 0100 de6a 0000 5b6d 0280 3f50 2bbc
00000220: 751e 253c 1dda 5a3c 3c30 92bb dca8 1b3c
00000230: a2f1 2f3c ecbc 09bd c2e4 76bc fcb1 39bc
00000240: 41ff 50bb 672b e33b 010f 063c 9bb3 8cbb
00000250: 4061 ee3b 70b8 b73b e45c 93bc 3c98 e0bb
00000260: 6dce ddbb 515f 28bb d76d 283b daf2 f53a
00000270: 83a4 5f39 bde1 d93b ee7b ba3b 8234 e8bb
00000280: 126a 3fba cf7a 7bbb 688f a6bb 4f34 543c
00000290: e0dc 683c aa19 9fbb ce06 103c b89d 7c3c
000002a0: 41c8 02bd 4081 5cbc 4aed 24bc 01d2 113a
000002b0: 74f2 ee3b a14c f13b 0f79 57ba f1c0 993b
000002c0: 0d8b 613b 2469 7abc 444b 1cbc e46b 0fbc
000002d0: e7ff 9538 8535 9938 d423 a438 b6ac 9438
000002e0: 8245 9938 6273 a638 dba7 ab38 c790 b038
000002f0: 4097 bc38 6673 54bb f781 273c 10ad 173c
00000300: 3c4a c6bb a94c 133c e126 2d3c a795 e0bc
00000310: 6d22 80bc ccf4 0fbc 241f ecbb 3760 803a
00000320: d371 7e3b 0d37 c0bb 6f93 7f3b 8558 f13b
00000330: cc38 51bc 9560 97bb 57eb f9ba eca4 2ebb
00000340: 2369 d73b c2d3 a53b 8a5a 4ebb 1e26 c93b
00000350: d733 993b 43de 28bc d477 17bb ab4c aebb
00000360: 634b c08f 0605 a28f 183a e48f 3252 a88e
00000370: d8b5 ed8f e43c f58f dc6f c58f 333b a28f
00000380: 64d1 a78f 83e9 d792 e2b9 fe12 1b21 da12
00000390: 6c96 5612 f7a8 a592 1764 3412 678a 8f92
000003a0: fdeb b812 1c5d b711 db4c 71bb 0958 193c
000003b0: 7f27 4c3c 8e80 f3bb fb21 733c 5e85 1a3c
000003c0: 5bcd d0bc 6e74 2bbc 62dc 07bc c8de 0c07
000003d0: 6548 3c07 0394 8e07 3e38 ec06 b759 4e07
000003e0: e7da 5d07 8a8c fb04 8484 4005 0c0f 2987
000003f0: 53eb 65b8 7bb4 78b8 18e0 79b8 9127 79b8

e_conv3.bias f4 [32]
0.042443104 0.03204725 -0.0012363838 0.012430415 0.03955811 -2.2776323e-14 -0.00916683 -0.0009782461
0.0355353 0.006480593 0.03244267 -5.4830503e-24 -1.0231857e-15 -1.6386176e-08 -4.679187e-19 -0.0018971496
0.11601983 -0.0015496021 0.09314159 -0.0068682204 -4.1702086e-05 0.020285087 -0.0034516887 -0.007645899
0.0148764495 -0.0004886847 0.00892794 0.03975745 -2.0513492e-21 -0.0121891545 0.03570619 -0.01516893
00000000: d2d8 2d3d fa43 033d 280e a2ba f0a8 4b3c
00000010: af07 223d a026 cda8 7930 16bc 7e38 80ba
00000020: 768d 113d 275b d43b 9be2 043d 801d d498
00000030: e474 93a6 95c1 8cb2 f01a 0aa1 c7a9 f8ba
00000040: ce9b ed3d 051c cbba 05c1 be3d cf0e e1bb
00000050: 46e9 2eb8 e92c a63c ba35 62bb 738a fabb
00000060: 5abc 733c 131b 00ba 7f46 123c b5d8 223d
00000070: ddfe 1a9d 05b5 47bc a740 123d 1b87 78bc

e_conv4.weight f4 [32, 64, 3, 3]
-0.0002521916 0.0038427182 -0.00731743 0.0015661492 -0.0009839307 -0.0008537732 0.0042578788 -0.0002565499
-0.002636332 -8.806395e-12 -9.806263e-12 -9.699579e-12 -1.0219052e-11 -1.1359049e-11 -1.1160976e-11 -1.0169646e-11
-1.1216324e-11 -1.1044233e-11 2.0175154e-05 0.0011291424 0.00092627766 -0.00093434413 -0.00033582185 -0.0011400486
-0.002899412 -0.0024751031 -0.0043210355 -3.3433491e-06 -3.1994462e-06 -3.335537e-06 -2.7329431e-06 -2.5735221e-06
-2.785424e-06 -2.5284794e-06 -2.3970185e-06 -2.5814252e-06 -0.001816505 -0.005628145 -0.016240483 -0.0030970296
0.02568467 -0.001530062 -0.020657256 -0.005108491 -4.7246027e-05 -0.0014858025 0.0008897691 -0.0030651558
0.00017546635 0.0016011473 -0.002914744 0.0027399634 0.0035400304 -0.0026396525 0.0017446203 0.0022261732
0.0015755784 -0.004972125 0.0010065737 -0.0011845917 -0.00087064604 0.00031178643 -0.00029581322 -0.0094094025
-0.011456352 -0.017934863 -0.014990301 0.012126407 0.0054184105 -0.0070547354 0.0046216985 -0.0065716505
-0.014946513 0.005269878 0.009170544 -0.0072856178 0.022267103 -0.0055718133 -0.0046939114 -0.007974873
-0.018014671 -0.0057240934 0.00063634163 -0.0066626766 0.010302402 -0.0045019733 0.004796889 0.0030317158
0.0022851902 -0.004802368 0.0050706984 -0.013008879 -0.0058464496 -0.010570497 0.010291702 0.028554553
-0.008346037 0.010749192 0.0009760604 7.989097e-39 4.286377e-39 6.650354e-39 3.857238e-39 -4.678176e-39
3.71023e-40 9.70954e-40 -2.36091e-39 -2.220008e-39 -1.6719e-41 -4.5242e-41 -2.3348e-41 -3.2661e-41
-5.2984e-41 -6.2009e-41 -2.132e-41 -3.422e-41 -2.4118e-41 -0.008693593 0.01899671 0.0053095142
0.005912806 0.01106324 -0.0060647833 -0.033812314 0.01757259 -0.002468126 -0.0029929467 -0.0011316524
-0.0017418942 -0.0018852572 -0.0014179071 -0.0034409233 0.00090630475 0.00018602188 -0.003709863 4.127631e-29
4.188578e-29 4.0826522e-29 4.1114102e-29 4.122262e-29 4.0902076e-29 4.038785e-29 4.0492108e-29 4.010185e-29
0.0027149406 -0.03456569 -0.01780624 -0.016790053 -0.021562893 0.008198232 0.00884791 0.011867684
0.02119895 0.0005260194 -0.0002823813 -0.00023385925 -0.00045237088 -0.0016391742 -0.0017068407 -0.00059064187
-0.0022931907 -0.0026822262 2.6171123e-13 2.9139207e-13 2.9363632e-13 2.6032857e-13 2.8777396e-13 2.896859e-13
2.4965295e-13 2.6402182e-13 2.7686198e-13 -0.0028153912 -0.0039002849 0.0018899763 -0.003256584 0.0034985342
-0.004427034 0.0007257277 0.007176485 -0.0015638091 9.8317215e-18 1.02539765e-17 9.6097286e-18 1.1693807e-17
1.219982e-17 1.1458657e-17 1.2538373e-17 1.32236195e-17 1.2433611e-17 0.0034390006 0.0005039977 0.0008008807
0.0019272576 -0.000523512 -0.0015512507 0.00562663 0.0028945536 -0.00096570735 -1.092979e-27 -1.0941717e-27
-1.0947673e-27 -1.1018927e-27 -1.104241e-27 -1.1038681e-27 -1.1030794e-27 -1.1060735e-27 -1.1057161e-27 -0.0031131138
-0.0030038229 -0.0020762624 -0.0019249665 0.0011808549 0.0035741974 -0.0010755426 -0.00040933542 -0.0012277068
-0.00021914541 -0.00022020184 -0.00021963067 -0.0002214013 -0.00022250375 -0.00022192071 -0.00022127166 -0.00022239468
-0.00022183683 -0.0020754684 -0.004828553 -0.0033891348 -0.00088039535 -0.004096833 -0.0023732616 0.0010037547
-0.0015584357 4.3545606e-06 0.0059375134 -0.00896066 -0.0014183244 -0.002045727 -0.0031071722 0.0050285878
0.008565145 0.0113566425 0.006529337 0.0004669818 0.00046907493 0.00046649866 0.00047157862 0.00047244824
0.00047023484 0.00047056843 0.00047148514 0.00046904277 -6.6892e-41 -4.7388e-41 -4.9336e-41 -5.504e-41
00000000: 9538 84b9 1dd6 7b3b 0dc7 efbb 3f47 cd3a
00000010: 3cf7 80ba c0cf 5fba ad85 8b3b 8b81 86b9
00000020: 50c6 2cbb 7aec 1aad 7b83 2cad 05a3 2aad
00000030: 85c6 33ad 9cd4 47ad 9158 44ad 04e8 32ad
00000040: d551 45ad ce4a 42ad d03d a937 bbff 933a
00000050: 71d1 723a c6ee 74ba 3f11 b0b9 af6d 95ba
00000060: 1004 3ebb 5735 22bb 7997 8dbb 4d5e 60b6
00000070: 11b6 56b6 17d8 5fb6 9b67 37b6 c6b4 2cb6
00000080: 38ed 3ab6 f2ae 29b6 77dc 20b6 8c3c 2db6
00000090: cb17 eeba 4d6c b8bb c30a 85bc 89f7 4abb
000000a0: a868 d23c 5d8c c8ba 6839 a9bc 2165 a7bb
000000b0: 092a 46b8 42bf c2ba 653f 693a c8e0 48bb
000000c0: 64fd 3739 97dd d13a 4a05 3fbb f590 333b
000000d0: dbff 673b 05fe 2cbb beab e43a fde4 113b
000000e0: a383 ce3a 35ed a2bb 02ef 833a 4d44 9bba
000000f0: 113c 64ba 4477 a339 6117 9bb9 e529 1abc
00000100: 6cb3 3bbc 22ec 92bc e199 75bc d6ad 463c
00000110: ec8c b13b 692b e7bb 9e71 973b 0057 d7bb
00000120: 38e2 74bc f1ae ac3b 0d40 163c 31bc eebb
00000130: 8069 b63c c293 b6bb 62cf 99bb 0ba9 02bc
00000140: 8193 93bc 2d91 bbbb 2ad0 263a 9552 dabb
00000150: 68cb 283c 4a85 93bb 392f 9d3b c0af 463b
00000160: 21c3 153b 2f5d 9dbb 1a28 a63b 3123 55bc
00000170: 9393 bfbb e12f 2dbc 879e 283c 3deb e93c
00000180: d1bd 08bc 611d 303c 4ede 7f3a 5afe 5600
00000190: adac 2e00 7b6a 4800 6900 2a00 daf0 3280
000001a0: 430a 0400 a092 0a00 42b5 1980 7b2c 1880
000001b0: 9b2e 0080 1e7e 0080 1641 0080 0c5b 0080
000001c0: b393 0080 dbac 0080 6e3b 0080 645f 0080
000001d0: 3b43 0080 926f 0ebc fd9e 9b3c 6ffb ad3b
000001e0: 36c0 c13b 9742 353c 17bb c6bb c87e 0abd
000001f0: 64f4 8f3c 48c0 21bb 5025 44bb f453 94ba
00000200: 4550 e4ba bc1a f7ba 11d9 b9ba 1d81 61bb
00000210: 1595 6d3a de0e 4339 2c21 73bb b74b 5110
00000220: da62 5410 db03 4f10 2879 5010 0506 5110
00000230: ee65 4f10 6dca 4c10 c351 4d10 2d57 4b10
00000240: 25ed 313b c194 0dbd 64de 91bc 4b8b 89bc
00000250: aaa4 b0bc e151 063c d3f6 103c ad70 423c
00000260: 6ca9 ad3c 90e4 093a 940c 94b9 1d38 75b9
00000270: 312c edb9 8fd9 d6ba 12b8 dfba 4ed5 1aba
00000280: 5b49 16bb 4ac8 2fbb 9054 932a 060a a42a
00000290: 744d a52a 4d8d 922a 9900 a22a 2314 a32a
000002a0: c88a 8c2a 8ea1 942a 04dc 9b2a 6d82 38bb
000002b0: ec9b 7fbb 15b9 f73a 6a6c 55bb aa47 653b
000002c0: a710 91bb c33e 3e3a b828 eb3b baf8 ccba
000002d0: fe5c 3523 0927 3d23 a944 3123 71b6 5723
000002e0: 050c 6123 fa5f 5323 cb4a 6723 c7ee 7323
000002f0: 115c 6523 db60 613b b71e 043a 32f2 513a
00000300: 099c fc3a 4c3c 09ba 5653 cbba 985f b83b
00000310: 8db2 3d3b 8627 7dba 7f30 ad92 e160 ad92
00000320: 0a79 ad92 149a ae92 56f9 ae92 36ea ae92
00000330: 37ca ae92 ac43 af92 2c35 af92 6205 4cbb
00000340: c9db 44bb e711 08bb 284f fcba eac6 9a3a
00000350: 153d 6a3b 39f9 8cba 129c d6b9 01eb a0ba
00000360: 66ca 65b9 fbe5 66b9 a94c 66b9 f527 68b9
00000370: e54f 69b9 63b3 68b9 2905 68b9 9e32 69b9
00000380: df9c 68b9 9504 08bb d738 9ebb 3f1c 5ebb
00000390: 55ca 66ba ba3e 86bb b988 1bbb 6b90 833a
000003a0: 6d44 ccba 641d 9236 798f c23b bbcf 12bc
000003b0: 12e7 b9ba 9b11 06bb b3a1 4bbb dac6 a43b
000003c0: d254 0c3c 3611 3a3c 0cf4 d53b 3cd5 f439
000003d0: 2cee f539 6494 f439 363e f739 eeb2 f739
000003e0: da89 f639 a0b6 f639 aa31 f739 dbe9 f539
000003f0: 78ba 0080 1984 0080 8789 0080 6e99 0080

e_conv4.bias f4 [32]
0.03321783 0.0042160964 -3.9650744e-12 -0.00085853925 0.016701601 0.016569583 0.014068933 0.022726053
-0.0005325197 -1.1237325e-10 0.022512367 0.026204774 0.06122097 0.018004386 0.022563377 0.013047383
-0.0023549395 0.08362428 -2.3167323e-15 0.032675408 0.0329104 -2.1219269e-06 0.034429852 -0.0011003122
-9.935174e-24 0.037057348 -0.0028963627 0.031959552 0.10119269 0.033145558 -0.00059683307 0.023069857
00000000: 6b0f 083d 2e27 8a3b 3782 8bac 980f 61ba
00000010: ccd1 883c efbc 873c 6281 663c fd2b ba3c
00000020: cb98 0bba 841c f7ae db6b b83c 65ab d63c
00000030: d7c2 7a3d ef7d 933c d5d6 b83c b1c4 553c
00000040: 5455 1abb 3543 ab3d 2bf0 26a7 a6d6 053d
00000050: 0ecd 063d 6d66 0eb6 5106 0d3d 5a38 90ba
00000060: 992c 4099 72c9 173d e7d0 3dbb 05e8 023d
00000070: 1d3e cf3d a3c3 073d ca74 1cba fffc bc3c

e_conv5.weight f4 [32, 64, 3, 3]
-0.0029667658 0.0008210186 -0.0033171242 0.00557598 0.0058144266 0.00033342763 0.0056225043 0.006161191
0.0011158185 0.005187131 -0.0011760986 -0.0008608596 0.0027845192 -0.0021219486 -0.0022295075 0.0015070273
-0.0016987629 -0.0023796144 5.2294214e-05 5.3005344e-05 5.3017695e-05 5.1552437e-05 5.22846e-05 5.2306226e-05
4.9956132e-05 5.0726547e-05 5.0849365e-05 0.006049755 0.0001153226 0.008380515 0.0018115825 0.005644856
0.0070657446 -0.0016399013 0.0072259684 0.0078092488 0.00633949 0.0049131187 0.0022231794 0.008988083
-0.001224145 0.0049021374 -0.010665429 -0.0076397643 -0.012426477 4.6502996e-17 5.0386446e-17 5.229717e-17
5.1092283e-17 4.9499338e-17 4.757553e-17 4.4475993e-17 5.1890582e-17 3.282703e-17 0.002389286 0.008255064
0.007872059 -9.729672e-05 0.004573546 0.006989188 0.0005470587 0.004385051 0.008156638 3.9465235e-06
4.0319674e-06 4.020949e-06 4.0135124e-06 4.10279e-06 4.088011e-06 3.9157903e-06 4.0068976e-06 3.996092e-06
-0.017608993 0.010602662 -0.017897781 -0.014973611 0.020548886 -0.0103443265 0.0071087866 -0.014595347
0.008377693 0.0047728433 -0.001782572 -0.0020765965 0.00335615 -0.0045183636 -0.0009083927 -0.0051215696
-0.0026789769 -0.003473432 -0.002136 0.0025514085 0.0096568195 -0.0020824836 -0.0007198047 0.00800227
0.0008836486 0.0051219217 0.017509043 -9.173e-42 6.3647e-41 -3.8387e-41 -5.2715e-41 7.4591e-41
-3.1023e-41 -2.6045e-41 7.6921e-41 2.2693e-41 1.3545602e-24 -4.5344375e-23 -2.1577605e-23 -4.862946e-25
-1.9235378e-23 -1.9831299e-23 4.929806e-24 -4.4211615e-24 -1.0390262e-23 1.2603e-41 -2.676e-41 7.4329e-41
-1.003e-42 2.2342e-41 2.7278e-41 2.0956e-41 6.4266e-41 -7.5702e-41 1.0868795e-20 1.7077162e-20
1.5542307e-20 1.713133e-20 1.57194e-20 1.7346737e-20 1.7476158e-20 1.7364891e-20 9.331067e-21 2.294222e-14
2.5325018e-14 2.3648005e-14 2.3024937e-14 2.6056873e-14 2.602189e-14 2.3428415e-14 2.4090225e-14 2.2895987e-14
-0.0047700224 -0.003571854 -0.0026738404 -0.0064270897 -0.0034335142 -0.0031848198 -0.002963392 0.0007865113
-5.0093287e-05 -0.0024869086 -0.002969948 1.9555395e-05 -0.0034351049 -0.0031422812 -0.0015167785 -0.0014816973
-0.0026178893 -0.0011142027 -0.006664418 -0.0015600871 0.00461895 -0.0027713578 0.0040157507 0.008463114
-0.0018936069 0.004352889 0.0066093598 -0.003015076 0.0044259885 0.009254464 0.007541213 0.002647689
0.0024321198 -0.004462393 -0.0020369203 0.0020432973 -6.0290945e-17 -6.634573e-17 -6.6028806e-17 -6.098924e-17
-6.655052e-17 -6.687331e-17 -6.006998e-17 -6.5831176e-17 -6.595086e-17 -0.005266176 -0.00052973273 -0.0022575727
-1.2343275e-05 0.003387899 -0.007850548 -0.0011741597 0.0013645792 0.0023232114 0.0010943082 0.0020998248
0.006620282 0.0044755903 0.0055363504 -0.00038142575 -0.002317671 -0.002357109 -0.005212474 0.0006174634
0.00095790613 -8.732527e-06 0.006220298 -0.000675781 0.002203347 0.00084277336 0.004933309 -0.0008281007
-0.0010077514 -0.0041507445 -0.007938505 -0.0013580197 -0.0052084364 -0.0071384683 -0.005422562 -0.008631495
-0.009189301 -6.9579e-41 -6.9858e-41 -6.7718e-41 -6.8783e-41 -6.7342e-41 -6.1943e-41 -6.8295e-41
-6.3204e-41 -6.8853e-41 0.0024957354 0.008399953 0.009350474 0.002559937 0.007430407 0.0082606515
-0.0012407864 0.0026032054 0.003872536 -0.012060319 -0.009381718 -0.004481471 -0.00735276 0.001441159
0.031292483 0.008101244 -0.011080515 0.0021238308 8.5177e-41 2.3208e-41 -5.6605e-41 -1.6115e-41
00000000: 126e 42bb a039 573a 1c64 59bb b6b6 b63b
00000010: f286 be3b e6cf ae39 fc3c b83b d1e3 c93b
00000020: a840 923a cff8 a93b 5227 9aba 4fab 61ba
00000030: 7b7c 363b 6410 0bbb ee1c 12bb 7287 c53a
00000040: 06a9 deba 4ef3 1bbb 7c56 5b38 0e52 5e38
00000050: 515f 5e38 023a 5838 294c 5b38 6263 5b38
00000060: fd87 5138 37c3 5438 1747 5538 063d c63b
00000070: 59d9 f138 6d4e 093c 9f72 ed3a 7cf8 b83b
00000080: c387 e73b f5f1 d6ba d1c7 ec3b bae4 ff3b
00000090: 7fbb cf3b 3afe a03b c3b2 113b c142 133c
000000a0: 7d73 a0ba 1ca2 a03b 0dbe 2ebc fd56 fabb
000000b0: 6c98 4bbc 0c75 5624 d15d 6824 9a2d 7124
000000c0: 1f9f 6b24 8146 6424 4667 5b24 fc1b 4d24
000000d0: 964d 6f24 5163 1724 9195 1c3b 3f40 073c
000000e0: cff9 003c c70b ccb8 afdd 953b 8f05 e53b
000000f0: 7d68 0f3a 79b0 8f3b 6ba3 053c 616c 8436
00000100: 564a 8736 b0eb 8636 cfab 8636 b3aa 8936
00000110: bf2b 8936 6264 8336 fd72 8636 2b16 8636
00000120: bc40 90bc cab6 2d3c 5e9e 92bc e053 75bc
00000130: 2356 a83c 407b 29bc d3f0 e83b 5321 6fbc
00000140: 9742 093c 8365 9c3b 31a5 e9ba 8217 08bb
00000150: daf2 5b3b c80e 94bb 3421 6eba d7d2 a7bb
00000160: c691 2fbb 85a2 63bb 22fc 0bbb 8835 273b
00000170: a337 1e3c 477a 08bb 47b1 3cba f41b 033c
00000180: a7a4 673a cbd5 a73b 206f 8f3c 9219 0080
00000190: 6cb1 0000 026b 0080 f392 0080 eecf 0000
000001a0: 7b56 0080 9a48 0080 6dd6 0000 423f 0000
000001b0: a89b d117 9e45 5b9a 90af d099 3a80 1697
000001c0: 7d08 ba99 ebcb bf99 6fb6 be18 1009 ab98
000001d0: 16fa 4899 2223 0000 994a 0080 33cf 0000
000001e0: cc02 0080 483e 0000 0a4c 0000 6b3a 0000
000001f0: 26b3 0000 07d3 0080 454e 4d1e 0b4a a11e
00000200: feca 921e 04cd a11e 2d77 941e d6d5 a31e
00000210: c20e a51e bb01 a41e 4542 301e 28a5 ce28
00000220: 841b e428 9600 d528 e463 cf28 0fb3 ea28
00000230: 6562 ea28 3f06 d328 47fc d828 8d3a ce28
00000240: d94d 9cbb c415 6abb 993b 2fbb 569a d2bb
00000250: cf04 61bb 69b8 50bb 7835 42bb e12d 4e3a
00000260: 421b 52b8 67fb 22bb 76a3 42bb e40a a437
00000270: 7f1f 61bb bbee 4dbb a4ce c6ba 8335 c2ba
00000280: e590 2bbb 700a 92ba 3161 dabb d67b ccba
00000290: 905a 973b ab9f 35bb 8f96 833b dfa8 0a3c
000002a0: e732 f8ba aea2 8e3b 5493 d83b 9598 45bb
000002b0: e207 913b 09a0 173c 481c f73b da84 2d3b
000002c0: 3364 1f3b 4439 92bb da7d 05bb d7e8 053b
000002d0: 7e05 8ba4 9bfb 98a4 8740 98a4 b1a1 8ca4
000002e0: 7e74 99a4 0933 9aa4 0f83 8aa4 decb 97a4
000002f0: 8412 98a4 e38f acbb c3dd 0aba c9f3 13bb
00000300: f615 4fb7 8307 5e3b 969f 00bc 43e6 99ba
00000310: aedb b23a 0541 183b e46e 8f3a 379d 093b
00000320: f3ee d83b f9a7 923b 466a b53b 19fa c7b9
00000330: 11e4 17bb ba79 1abb 67cd aabb 44dd 213a
00000340: fe1b 7b3a eb81 12b7 a4d3 cb3b e526 31ba
00000350: 0766 103b 90ed 5c3a 98a7 a13b e614 59ba
00000360: 8716 84ba f802 88bb 8110 02bc 94ff b1ba
00000370: 88ab aabb d0e9 e9bb bfaf b1bb 1d6b 0dbc
00000380: b98e 16bc f5c1 0080 bcc2 0080 c5bc 0080
00000390: bdbf 0080 b9bb 0080 acac 0080 61be 0080
000003a0: 30b0 0080 efbf 0080 7e8f 233b f59f 093c
000003b0: bb32 193c 9ec4 273b c67a f33b af57 073c
000003c0: e2a1 a2ba 8a9a 2a3b 5fca 7d3b a598 45bc
000003d0: c7b5 19bc 4ed9 92bb 6cef f0bb 46e5 bc3a
000003e0: 8c2c 003d 15bb 043c 0c8b 35bc f82f 0b3b
000003f0: 70ed 0000 b240 0000 cb9d 0080 ec2c 0080

e_conv5.bias f4 [32]
0.022041358 -2.0322615e-09 -2.5106406e-06 0.041288327 -3.7198476e-29 0.0075516235 0.07058945 0.029314166
0.020940606 -6.4289805e-09 0.04181706 0.02950509 -4.818606e-09 -1.0199611e-06 0.027188985 0.03251005
0.0074847704 0.0057360344 -1.1400519e-10 0.011241847 0.027509848 0.031716343 0.010342486 -2.5943511e-28
0.021975687 -2.306603e-09 0.026498526 0.011226899 0.049845163 -0.00059291034 -9.383825e-06 -3.3938543e-11
00000000: 1490 b43c eca7 0bb1 7a7c 28b6 f31d 293d
00000010: 629e 3c90 9c73 f73b 3491 903d 4324 f03c
00000020: a28b ab3c e9e5 dcb1 5e48 2b3d a9b4 f13c
00000030: e890 a5b1 99e5 88b5 6fbb de3c 4229 053d
00000040: ce42 f53b 58f5 bb3b 37b3 faae b92f 383c
00000050: 555c e13c ffe8 013d 8873 293c c16f a491
00000060: 5b06 b43c 3082 1eb1 7013 d93c 07f1 373c
00000070: 712a 4c3d 8a6d 1bba 396f 1db7 6743 15ae

e_conv7.weight f4 [8, 64, 3, 3]
-0.002715749 -0.0024313773 -0.0053384113 0.005613535 0.0063257758 0.0038857176 0.0058487654 0.006848785
0.004582072 0.0011030665 0.0010759096 0.0024651622 0.0018578743 0.0025475777 0.005555311 0.0076143676
0.010637151 0.013784202 -1.02784e-40 1.63398e-40 -1.14297e-40 -1.05204e-40 1.22779e-40 1.20303e-40
-4.826e-41 -4.2443e-41 -1.1691e-41 -1.77818e-40 1.02953e-40 -9.4911e-41 7.2436e-41 -1.28213e-40
-4.31e-41 3.2587e-41 5.7673e-41 -9.358e-41 -0.001091204 -0.0031394935 -0.005030031 0.004240659
0.0017573641 -0.0007420498 0.0028355573 -0.00020819863 -0.0030107242 -0.012092734 -0.0089797815 -0.0067898836
-0.0022344294 0.00080856524 0.0023673829 0.005510926 0.008582182 0.009499975 0.002323436 0.00025422178
0.0016767194 0.004553524 0.0031676057 0.005379974 0.0059504304 0.005554542 0.0073927585 -0.013013016
-0.029334702 -0.0367976 0.007912748 -0.010331783 -0.020648133 0.024489267 -0.00053801795 -0.011889286
2.5214e-41 -5.4104e-41 -7.0567e-41 -4.3077e-41 5.0005e-41 -3.431e-41 1.09e-41 -7.8956e-41
-3.02e-41 -3.936419e-34 3.8030773e-34 4.133639e-34 -4.7797228e-35 -3.3826644e-35 -1.6498307e-34 -2.9558804e-35
1.4749767e-34 -9.448944e-35 -0.0012972413 -0.003911475 -0.0015314262 -0.0004532019 -0.002912349 -0.0004868741
0.00029880684 -0.0021926041 0.00026743725 -0.007166515 -0.005427349 -0.0063069183 -0.0037142425 -0.0017369458
-0.0038604562 -0.00298099 -0.002314157 -0.0047559547 -0.00828837 0.016457664 -0.0066664075 0.011572355
0.037854593 0.0132091865 -0.013421227 0.010744563 -0.012173872 -0.011403665 -0.01647687 -0.0038318736
-0.01548218 -0.021042254 -0.008424548 0.0016515387 -0.003718921 0.009443674 -0.0022703558 -0.0003387156
-0.0014047947 -5.9936643e-05 0.0023692292 0.0014798386 0.0013356504 0.004170873 0.0026942752 -0.004704753
-0.0056964136 -0.002795193 -0.0009491949 -0.0019345278 0.0004565851 0.0013647658 0.0003180369 0.0027016737
4.4816525e-30 -2.5373394e-30 -6.9298382e-31 6.332739e-30 -7.245424e-30 -6.336526e-30 -6.553425e-30 3.0254061e-30
1.0218225e-30 -0.001529252 0.034917228 -0.0013219393 0.026016688 0.0633984 0.027327366 -0.011087562
0.026079575 -0.009140994 -3.8417e-41 -3.8386e-41 -5.3783e-41 -1.70482e-40 -6.9553e-41 1.10931e-40
6.3119e-41 -1.12922e-40 -1.49188e-40 -0.0078123976 -0.0038603502 -0.005821318 -0.007113131 -0.0037651297
-0.007637751 -0.0115409605 -0.009721419 -0.014056316 -0.005368913 0.0072720856 -0.0021668493 0.005169099
0.018501196 0.008368542 -0.0074305544 0.0050254874 -0.004512248 -1.594e-40 -1.21444e-40 -1.2967e-40
1.367e-40 1.491e-40 -1.52437e-40 -1.16878e-40 -1.30888e-40 1.37071e-40 -0.0036261927 -0.0024984223
-0.0069046817 0.0042594983 0.0058424408 0.0011091192 0.00224095 0.0036830434 -0.00059383916 2.3745e-41
-7.7548e-41 9.327e-41 7.828e-41 6.3283e-41 6.3257e-41 7.9278e-41 8.602e-41 -8.5178e-41
-1.11619e-40 -1.3586e-40 -1.16692e-40 -1.56788e-40 9.2126e-41 1.23105e-40 1.12503e-40 1.59731e-40
1.21699e-40 0.003933656 0.0060402662 -0.00085233175 0.0010396161 0.0030767089 -0.0027165096 -0.0010908209
0.0012423096 -0.0037349917 0.0052558794 0.003286535 0.04328577 -0.040739153 -0.042452887 -0.0060724085
-0.03581185 -0.0346081 0.0019854587 0.0013694171 -0.0011875634 -0.0025308116 0.0070007504 0.005507843
0.005510751 0.0068461495 0.0061223963 0.0064723175 -0.018765992 0.020518411 -0.018569624 0.018809102
00000000: b5fa 31bb be57 1fbb d7ed aebb bff1 b73b
00000010: 7448 cf3b 86a7 7e3b 00a7 bf3b c66b e03b
00000020: 3525 963b c594 903a 8905 8d3a 8f8e 213b
00000030: eb83 f33a 43f5 263b 5409 b63b f281 f93b
00000040: 7247 2e3c 22d7 613c 851e 0180 7dc7 0100
00000050: 9d3e 0180 4425 0180 4256 0100 5b4f 0100
00000060: 8786 0080 5076 0080 9720 0080 afef 0180
00000070: fe1e 0100 9308 0180 ecc9 0000 6865 0180
00000080: 2578 0080 d75a 0000 c5a0 0000 dd04 0180
00000090: bb06 8fba f6bf 4dbb f5d2 a4bb 3af5 8a3b
000000a0: 5b57 e63a 1e86 42ba c2d4 393b e54f 5ab9
000000b0: 924f 45bb 9a20 46bc ef1f 13bc ac7d debb
000000c0: 816f 12bb e5f5 533a 1826 1b3b ff94 b43b
000000d0: 489c 0c3c c8a5 1b3c ca44 183b 1249 8539
000000e0: 5ec5 db3a ba35 953b 9b97 4f3b 7e4a b03b
000000f0: d4fb c23b e002 b63b f43e f23b 8c34 55bc
00000100: 544f f0bc 15b9 16bd 78a4 013c a446 29bc
00000110: 4626 a9bc b79d c83c c609 0dba 48cb 42bc
00000120: 4946 0000 d296 0080 b6c4 0080 1578 0080
00000130: 658b 0000 a45f 0080 621e 0000 19dc 0080
00000140: 2f54 0080 59cf 0288 02c2 fc07 1d5d 0908
00000150: 3722 7e86 71da 3386 d44c 5b87 5c29 1d86
00000160: db0e 4407 2e32 fb86 3208 aaba d52b 80bb
00000170: 23ba c8ba bb9b edb9 1cdd 3ebb 2343 ffb9
00000180: 2da9 9c39 cbb1 0fbb d236 8c39 16d5 eabb
00000190: e7d7 b1bb 44aa cebb a66a 73bb 3baa e3ba
000001a0: b5ff 7cbb b75c 43bb 1da9 17bb d7d7 9bbb
000001b0: f2cb 07bc 39d2 863c e171 dabb fa99 3d3c
000001c0: 6b0d 1b3d 586b 583c b5e4 5bbc f709 303c
000001d0: ec74 47bc 70d6 3abc 80fa 86bc 2c20 7bbb
000001e0: f8a8 7dbc ce60 acbc 1e07 0abc 7178 d83a
000001f0: 24b9 73bb a4b9 1a3c 40ca 14bb a395 b1b9
00000200: 1721 b8ba 7b64 7bb8 1245 1b3b 25f7 c13a
00000210: fe10 af3a d2ab 883b 7092 303b 542a 9abb
00000220: fba8 babb 8f2f 37bb 64d3 78ba fb8f fdba
00000230: d161 ef39 f1e1 b23a 31be a639 900e 313b
00000240: 24cc b50e 7ada 4d8e d8e2 608d 7671 000f
00000250: 64f4 128f 2085 008f 54eb 048f 3a73 750e
00000260: d9cc a50d 2f71 c8ba 5e05 0f3d ec44 adba
00000270: f320 d53c 05d7 813d a4dd df3c 9ba8 35bc
00000280: d5a4 d53c 1cc4 15bc 176b 0080 016b 0080
00000290: ed95 0080 3cdb 0180 e3c1 0080 3b35 0100
000002a0: f3af 0000 c83a 0180 e09f 0180 24ff ffbb
000002b0: eefd 7cbb c1c0 bebb 4515 e9bb 65c0 76bb
000002c0: 1946 fabb 4c16 3dbc 9646 1fbc 764c 66bc
000002d0: b5ed afbb ad4a ee3b b301 0ebb 8c61 a93b
000002e0: d28f 973c 361c 093c 027c f3bb d8ac a43b
000002f0: 7bdb 93bb 58bc 0180 8952 0180 7869 0180
00000300: 107d 0100 a19f 0100 efa8 0180 cf45 0180
00000310: dd6c 0180 197e 0100 6ba5 6dbb 92bc 23bb
00000320: ab40 e2bb 4393 8b3b f271 bf3b dd5f 913a
00000330: e7dc 123b 375f 713b dfab 1bba 3142 0000
00000340: 2cd8 0080 0004 0100 36da 0000 68b0 0000
00000350: 56b0 0000 ffdc 0000 caef 0000 71ed 0080
00000360: 2637 0180 b97a 0180 4a45 0180 10b5 0180
00000370: cf00 0100 2b57 0100 9d39 0100 44bd 0100
00000380: 3f53 0100 e6e5 803b 6ded c53b 046f 5fba
00000390: ba43 883a 9ca2 493b 7807 32bb e0f9 8eba
000003a0: fed4 a23a c3c6 74bb 8339 ac3b e862 573b
000003b0: 6b4c 313d 19de 26bd 14e3 2dbd 0efb c6bb
000003c0: 72af 12bd 39c1 0dbd 781e 023b 037e b33a
000003d0: 04a8 9bba f9db 25bb 8d66 e53b 237b b43b
000003e0: 8893 b43b aa55 e03b 629e c83b bc15 d43b
000003f0: 23bb 99bc 3a16 a83c 531f 98bc 8c15 9a3c

e_conv7.bias f4 [8]
0.020707596 0.013138055 0.055100907 0.04113562 0.024240658 0.032391828 0.022091761 0.0132824285
00000000: faa2 a93c ff40 573c 7db1 613d d37d 283d
00000010: 5894 c63c 4bad 043d c8f9 b43c 8b9e 593c
