snapshots/Epoch37.pth (torch, 304045 bytes, 14 tensors)

e_conv1.weight f4 [32, 3, 3, 3]
000000 0c f2 6b 81 df 27 00 00 1d e9 00 80 b1 a8 00 00
       -4.3336343e-38 1.4303e-41 -8.3625e-41 6.0515e-41
000010 5a a8 00 00 e4 06 e4 a2 cd d3 00 00 87 be 89 ab
       6.0393e-41 -6.180682e-18 7.598e-41 -9.787317e-13
000020 87 ad 34 92 57 b2 00 80 ed 15 b3 27 8f 60 01 80
       -5.7011874e-28 -6.3976e-41 4.9706252e-15 -1.26474e-40
000030 2b 55 00 80 ab ae 01 00 8f 90 00 80 0d 0a 01 80
       -3.0553e-41 1.54495e-40 -5.1858e-41 -9.5441e-41
000040 c3 47 00 00 c0 2a 00 00 8c 97 00 80 28 55 01 80
       2.5743e-41 1.5336e-41 -5.4365e-41 -1.22384e-40
000050 60 a8 92 98 4d c4 00 80 29 5b 01 00 da e2 21 25
       -3.791013e-24 -7.042e-41 1.24538e-40 1.4041384e-16
000060 92 d2 00 00 92 cc 00 00 0d ee fb 86 c6 32 15 bc
       7.5538e-41 7.3386e-41 -9.476549e-35 -0.009106344
000070 cb 70 a4 ba c8 cd af bc 68 fa e6 3b 4d 77 e0 3b
       -0.0012545822 -0.021460429 0.0070488937 0.0068501593
000080 b0 4a c5 3b 54 22 8b 3c 80 8b 02 3c c5 cc 61 3c
       0.0060208663 0.016984142 0.00796783 0.013781731
000090 ac 25 f1 3b 99 5e e7 bb 10 ba 06 3d b9 d9 81 3b
       0.007359227 -0.0070608375 0.032892287 0.003962722
0000a0 44 bb 8a 3c cb 7d 86 3c f6 26 f1 3c 3c f2 0e 3d
       0.016934998 0.016417405 0.029437523 0.03489898
0000b0 c9 2e 78 3c 73 a2 bf bb 7c ea e7 ba ed dc e2 bc
       0.015147873 -0.005848223 -0.0017693783 -0.027693236
0000c0 c0 73 31 3a a7 8e 09 bb ff 3f 91 bc b0 71 50 bc
       0.0006769262 -0.0020989568 -0.017730711 -0.012722418
0000d0 b6 09 ea bb 0e 30 92 3c 3f c8 96 bb c9 36 21 bd
       -0.007142271 0.01784518 -0.004601508 -0.039358888
0000e0 32 8f f0 bb fd a6 0b 3b 39 2f c1 bc e0 87 7b bc
       -0.007341289 0.002130925 -0.023582088 -0.015352219
0000f0 05 2e 6b 3b 9f 9a 96 bb 66 12 8c ba 0d bb c2 bb
       0.0035885584 -0.004596069 -0.0010686636 -0.0059427083
000100 78 0b 23 3c 99 a4 f6 3b dc 37 10 bc b6 ea ca 3b
       0.009951465 0.007526946 -0.00880238 0.0061925305
000110 38 44 76 3b b5 0e 28 3d 9e ff b0 3c aa fb bf bc
       0.0037577283 0.04102965 0.021606263 -0.023435432
000120 a9 43 52 3c 3c 0f 9d 3c 0c 2a 5a 3c cb 6d ca 3c
       0.012833514 0.019172303 0.013315689 0.024710556
000130 e2 2c 78 3c ee e6 d1 3c 42 c3 98 3c dd 18 a0 3a
       0.01514742 0.025622811 0.018647794 0.0012214441
000140 d6 59 5c 3b 84 7e 84 3b 92 e7 6d 3c 7a 55 20 3b
       0.0033622882 0.004043402 0.014520543 0.002446501
000150 15 28 a3 bc 62 8e f1 bb 79 77 64 3b 71 e7 27 bc
       -0.019916574 -0.0073717097 0.003486125 -0.010248051
000160 72 ac 88 bc fc f4 bc 3c d2 59 e8 bc 87 d4 49 3c
       -0.01668379 0.023066036 -0.028363142 0.012318737
000170 a0 82 3e 3c eb 03 80 bb ef 50 51 b9 0a 30 0f 3c
       0.011627823 -0.003906717 -0.00019961943 0.008739481
000180 a1 15 df bc c4 da 5b 3c 7c 6a ad 3c 14 52 ed bb
       -0.027231993 0.013418857 0.02116894 -0.0072424505
000190 2b 1b c1 3a 48 8d 54 bc 1f 0d ff bb 28 a8 a0 3c
       0.0014732828 -0.012973137 -0.0077835466 0.019611433
0001a0 89 77 21 bb 21 b0 bc bc 92 1f f1 3b b8 15 ce 3c
       -0.00246379 -0.023033204 0.0073585 0.02515684
0001b0 02 02 48 bb eb 4b de 3a cc 7e cf 3c 29 28 a1 3c
       -0.0030518775 0.0016959881 0.025329016 0.01967247
0001c0 6b 3d 1f 3c 68 cc ee 3c 16 61 c1 ba 9a c1 9a bc
       0.009719233 0.029150203 -0.0014753665 -0.018891145
0001d0 de 4f cc b9 b8 7e 4a 3c fe d8 a2 3c 50 cc f2 3c
       -0.00038969418 0.012359314 0.01987886 0.02963844
0001e0 6c 25 33 3c b9 d3 c7 ba 14 ef f8 ba 1f 36 e3 3b
       0.010934215 -0.0015245593 -0.0018992149 0.006933942
0001f0 c0 b6 e0 3c 2d 90 f6 3c 91 bc 19 3c a8 1d 37 3c
       0.027430892 0.030098045 0.009383337 0.011176504
000200 01 2c f4 3c 95 70 f5 bc de d7 1b bc 1b 5f cf 3b
       0.029806139 -0.02996091 -0.009511916 0.006328476
000210 46 bb 30 bd cc a4 01 bc 21 d7 39 bb 96 fa 00 80
       -0.043147348 -0.007912826 -0.0028356987 -8.9893e-41
000220 60 05 00 00 7a 3d 00 80 29 d2 01 80 08 1a 00 00
       1.928e-42 -2.2054e-41 -1.67227e-40 9.338e-42
000230 72 f0 00 80 74 78 00 00 f9 a9 00 80 2f 44 5f 25
       -8.6256e-41 4.321e-41 -6.0975e-41 1.9365268e-16
000240 a8 54 b4 a4 07 ac 00 80 99 7c 9f 0d 33 7e 96 9b
       -7.820597e-17 -6.1712e-41 9.829127e-31 -2.4896973e-22
000250 1b 3b 00 80 af 29 00 80 ee 94 4e 03 de a9 ad 8a
       -2.1203e-41 -1.4953e-41 6.070892e-37 -1.6723191e-32
000260 01 e1 64 82 8e 62 00 00 51 2e 00 00 8d f9 01 00
       -1.6815367e-37 3.5355e-41 1.6615e-41 1.81357e-40
000270 bc be dc 93 dd 4d 00 00 7b 1f 00 80 d1 9d 00 00
       -5.5723886e-27 2.7932e-41 -1.1293e-41 5.6614e-41
000280 65 6a 00 80 a6 73 00 80 70 69 87 3c fb 21 49 ba
       -3.8167e-41 -4.1487e-41 0.016529769 -0.0007672605
000290 27 03 3b bc ee dc 7b 3b dc f8 f4 37 46 57 0e bd
       -0.011414326 0.0038431245 2.920295e-05 -0.0347512
0002a0 35 e2 99 3c 05 3d 05 b9 10 33 03 bb 9f 82 01 3d
       0.018784622 -0.000127066 -0.002001945 0.03161871
0002b0 b2 14 05 3d 46 2d ca bc 51 f4 41 3c 07 6e 11 3c
       0.03249044 -0.024679791 0.011838035 0.00887633
0002c0 7e 8a c1 3a a2 57 27 3c b6 fc 10 bd c7 5f 15 bd
       0.0014766005 0.010213764 -0.035397254 -0.036468294
0002d0 7d 12 c5 3b b0 44 16 bc b2 c1 0c bc 7a 57 de b9
       0.006014167 -0.00917165 -0.008591102 -0.00042408315
0002e0 26 c3 95 3b ac 83 9e bb 20 e3 13 3d 6b ee 86 bc
       0.0045703826 -0.004837474 0.036105275 -0.016471108
0002f0 e1 c3 15 bd 6f 92 f4 02 67 1b 00 00 55 bf 7b 00
       -0.036563758 3.5936626e-37 9.83e-42 1.1364403e-38
000300 16 65 00 00 d6 be 00 80 77 ec 4e 9b 49 e2 00 80
       3.6263e-41 -6.8459e-41 -1.7116327e-22 -8.1176e-41
000310 5a a5 00 80 16 ff d5 0d a4 d1 00 00 92 28 00 80
       -5.9317e-41 1.3188548e-30 7.5205e-41 -1.4554e-41
000320 8a 10 b4 8d 31 07 89 12 06 2f 00 80 56 81 00 80
       -1.1097338e-30 8.647688e-28 -1.6869e-41 -4.6397e-41
000330 2e 11 00 80 2a 82 00 00 1b e4 00 00 0f 13 79 81
       -6.163e-42 4.6694e-41 8.1829e-41 -4.574775e-38
000340 b3 54 00 00 34 66 00 80 6b 50 00 80 46 5a 01 80
       3.0384e-41 -3.6664e-41 -2.8849e-41 -1.2422e-40
000350 73 ab 00 00 95 4c 00 00 21 16 c8 a6 b4 73 f7 9e
       6.1504e-41 2.7472e-41 -1.3883786e-15 -2.6199996e-20
000360 4a 64 00 80 e7 86 00 00 88 31 00 80 a9 22 84 1c
       -3.5977e-41 4.8394e-41 -1.7768e-41 8.743987e-22
000370 5b af f3 27 0d 69 cf 2f 0a 22 00 80 f2 7f ac 17
       6.763617e-15 3.7727724e-10 -1.2211e-41 1.1147537e-24
000380 3c d2 09 30 73 61 01 00 4a 06 00 80 0f 91 00 80
       5.013907e-10 1.26794e-40 -2.256e-42 -5.2037e-41
000390 2b 3a 00 80 7a 24 0c 18 84 c9 9b 2b eb 04 00 80
       -2.0867e-41 1.8112992e-24 1.1069344e-12 -1.764e-42
0003a0 45 f1 2e 1d eb 5c 06 80 52 92 00 80 bc 2d d3 04
       2.3153442e-21 -5.84346e-40 -5.249e-41 4.9647862e-36
0003b0 6b 9a 00 00 55 45 00 80 48 f7 59 95 0a ef 04 80
       5.5395e-41 -2.4872e-41 -4.401787e-26 -4.53093e-40
0003c0 23 bd 00 80 ef 71 e3 24 21 57 44 30 ef c7 e0 bc
       -6.785e-41 9.863857e-17 7.14282e-10 -0.027439086
0003d0 44 57 37 bc cd 76 09 bd 6f 36 8b bc 75 7c 82 bc
       -0.011190239 -0.033560563 -0.01699373 -0.015928486
0003e0 6b 2e 13 bc 36 c0 d9 bb 9f f5 77 3c f2 0f 1c 3c
       -0.008983235 -0.006645228 0.015134244 0.009525286
0003f0 c2 37 0e bd 59 5a 2b bb cc 2b a6 bc 74 65 8c bc
       -0.034721144 -0.002614638 -0.020284556 -0.01713822

e_conv1.bias f4 [32]
000000 77 90 f0 bb 56 74 85 3d c3 c8 8c 3c 06 f4 00 3e
       -0.0073414403 0.0651633 0.017185574 0.12593088
000010 ea 9f 87 3d 37 21 5d bb 41 b9 58 3d 55 89 9f bc
       0.06622298 -0.0033741721 0.052911047 -0.019474665
000020 c2 36 8d bc 28 7e 94 3d 78 3d 62 bc 58 d0 32 bb
       -0.017238025 0.07250625 -0.013808601 -0.0027284827
000030 5b e7 d7 bc 54 3d 5f 3d aa 17 0c bc 5e 6c 25 3e
       -0.026355436 0.054501846 -0.008550564 0.1615462
000040 12 3f 04 3e 11 ee be 3d bb 30 3d 3e 5c b1 24 3e
       0.12914684 0.09322751 0.1847562 0.16083282
000050 93 6b d9 ba 71 a6 23 3e 0d 70 91 bc 2c a7 f4 3d
       -0.0016587846 0.15981461 -0.017753625 0.11945948
000060 e4 28 9d ad d8 c9 32 ba 99 74 15 3d 73 c9 ef ba
       -1.7866993e-11 -0.0006820238 0.03648815 -0.001829429
000070 39 69 42 b7 ea 43 1a ba 06 11 04 3e 44 0c b5 bb
       -1.15878e-05 -0.0005884754 0.12897119 -0.005525144

e_conv2.weight f4 [32, 32, 3, 3]
000000 4e bc 00 00 5a 6d 4e 2f 8d ed 9e 23 d6 0e 00 80
       6.7551e-41 1.877444e-10 1.7231001e-17 -5.322e-42
000010 d5 96 01 80 f4 4c 00 80 98 cc 24 83 40 93 00 80
       -1.45944e-40 -2.7606e-41 -4.843013e-37 -5.2823e-41
000020 9d cf 0e 14 8b e5 18 3c 12 a3 b6 bc 98 c2 41 3b
       7.2101124e-27 0.009332071 -0.022294555 0.002956545
000030 96 20 8f bb 41 08 6e ba bf bd f7 bb 5f e1 58 3c
       -0.004367898 -0.00090802094 -0.0075604613 0.013237326
000040 b0 f1 f8 3c d8 19 e6 3a 13 a5 56 bc aa 9a 76 bc
       0.030388683 0.001755531 -0.01310088 -0.015051523
000050 49 f2 11 bc fd 9c b7 3b 76 47 d4 bb 9b 06 8b bb
       -0.008907863 0.0056034313 -0.0064782454 -0.004242731
000060 71 a5 b0 3b f5 3e aa 3a 2c 6a 03 3c 75 af f7 bc
       0.005390816 0.0012988733 0.008020919 -0.030235032
000070 84 1a a1 3c 21 f6 23 3d ef 0b 81 bc fb a1 f9 bb
       0.019665964 0.04002965 -0.01575276 -0.0076181865
000080 56 d1 d6 bb ac e2 28 bd 75 d9 a6 3b fa ee a0 3c
       -0.0065557165 -0.041231796 0.005091841 0.019645203
000090 51 ae 4a 39 42 95 40 bb d9 e0 b9 3a d6 b2 56 3c
       0.00019329159 -0.002938584 0.001418139 0.013104161
0000a0 b4 98 79 bc bb 93 0c 3c 7d c0 77 3c 37 a2 92 bc
       -0.015234161 0.008580144 0.015121576 -0.017899616
0000b0 8b 55 15 bc 2b db a9 aa b9 ce 99 10 bf 20 00 00
       -0.009114633 -3.017251e-13 6.0666366e-29 1.1747e-41
0000c0 70 33 00 80 12 05 00 80 89 14 80 20 c7 1f 00 00
       -1.8452e-41 -1.819e-42 2.1697632e-19 1.14e-41
0000d0 11 11 00 80 18 ef 83 86 cc 02 48 bb a0 1b 3d 3c
       -6.122e-42 -4.962804e-35 -0.0030519245 0.011542231
0000e0 b0 aa 51 bc 55 90 53 bc 54 17 f2 3b 3b ac 26 3c
       -0.012797043 -0.012912829 0.007388035 0.010172899
0000f0 14 74 fc 3b 6a d5 2a 3c 68 e7 be 3c 42 c5 00 00
       0.0077042673 0.010426858 0.023303702 7.0763e-41
000100 b7 d9 00 00 37 4f 00 80 8b 4d 1c 05 db d4 00 80
       7.8101e-41 -2.8417e-41 7.349327e-36 -7.6358e-41
000110 c0 a2 00 00 23 6f 35 30 59 4b 00 80 33 39 01 00
       5.8384e-41 6.600535e-10 -2.703e-41 1.12355e-40
000120 30 d7 00 80 c0 7b 00 80 45 5d c8 9a ac 0a 02 00
       -7.7195e-41 -4.4393e-41 -8.2868746e-23 1.875e-40
000130 96 ad 4d 80 38 02 00 80 31 06 6f a9 d6 1f 01 80
       -7.133604e-39 -7.96e-43 -5.307403e-14 -1.03256e-40
000140 64 55 ca 93 cc 01 92 3c 20 9e e2 ba c4 a2 10 3c
       -5.107617e-27 0.017823122 -0.0017289557 0.008827869
000150 fa 7e a3 bb ee 7d 1f 3c 1d 87 23 3c b2 d4 42 3a
       -0.004989502 0.009734614 0.009980944 0.0007432207
000160 cd fe 04 3a 5f b2 9c bb 67 32 01 80 a1 13 85 29
       0.00050733687 -0.0047820057 -1.09916e-40 5.9097916e-14
000170 ef 5f 6f 8a 52 86 09 80 d8 9b 00 80 f0 21 c1 1a
       -1.15254745e-32 -8.74705e-40 -5.5906e-41 7.987776e-23
000180 90 c9 00 80 6f 05 95 06 16 8d 00 00 7a 74 a3 af
       -7.2307e-41 5.6055555e-35 5.0612e-41 -2.973229e-10
000190 66 fc 62 8a db 00 00 80 2b e8 5c 84 4d 85 f8 34
       -1.0928975e-32 -3.07e-43 -2.5967482e-36 4.629059e-07
0001a0 05 f3 d8 96 bc 85 00 80 79 ac 01 00 35 6a 00 80
       -3.505005e-25 -4.7975e-41 1.53707e-40 -3.81e-41
0001b0 6e 0a df bb 4c 6f e0 bb 79 b0 e1 bb 32 91 8a ba
       -0.0068066632 -0.006849205 -0.0068874923 -0.0010571836
0001c0 eb 31 9d ba 7d 9e af ba ec 95 6f 3a b6 c5 64 3a
       -0.0011993026 -0.0013398674 0.00091394666 0.0008726971
0001d0 f3 4d 46 3a 48 86 11 3b 35 0e dc 3c 0b 2a 9b 3b
       0.0007564716 0.0022205282 0.026862243 0.0047352365
0001e0 19 4e 88 3c 49 6e af 3b 45 6f 53 3c c7 ce 70 bc
       0.016638802 0.005353723 0.012904947 -0.014697737
0001f0 ad 13 81 3c b2 af b0 ba e6 2b 00 80 f9 98 00 00
       0.015756452 -0.0013480096 -1.5748e-41 5.4876e-41
000200 7a 6d 7e 90 5f 0f 00 80 e6 9a 81 2e 50 6e 00 00
       -5.0177005e-29 -5.514e-42 5.893756e-11 3.9573e-41
000210 95 8f 20 b6 fa 67 00 80 b6 f7 c4 10 cc 36 c7 3b
       -2.3925434e-06 -3.73e-41 7.769003e-29 0.0060795303
000220 e5 05 45 3c 58 20 8e 3b cb 2a 87 3c cc 45 8f 3c
       0.012025331 0.004337352 0.016499897 0.017489336
000230 9a 37 77 3c bc a3 38 bb 4c 91 a0 bc 30 9c f3 bb
       0.01508894 -0.0028173765 -0.019600533 -0.0074343905
000240 23 56 8c bc 3e e1 ae bc 14 8b 13 bc 4c f6 ad bc
       -0.017130917 -0.021347638 -0.009005327 -0.021235608
000250 34 b6 82 3c 15 2e 96 3c b8 09 06 bd 40 b4 a6 39
       0.015956022 0.01833252 -0.032724112 0.00031796284
000260 54 55 12 ba 98 81 bf 3c 66 f1 70 bb 64 d3 50 bb
       -0.0005582173 0.023377225 -0.0036764978 -0.003186428
000270 c0 28 06 bc 0d 47 67 3c 7b 81 d1 3b de 35 f3 3b
       -0.0081884265 0.014116061 0.006393609 0.007422193
000280 4d 85 a3 3c 9d aa ba 3c 00 bf 8e b9 a5 6e cb bc
       0.019961024 0.022786433 -0.00027226657 -0.024833033
000290 81 66 92 bc de 21 08 bb 7d 15 c8 39 33 cb 99 3c
       -0.017871143 -0.002077214 0.00038162983 0.01877365
0002a0 e7 53 19 bd 45 82 82 3c b5 13 10 3d de cf ad 3c
       -0.03743353 0.015931258 0.035175044 0.021217283
0002b0 f0 15 9b 3c 42 65 b5 bb 48 f7 1a 3c 58 94 34 3c
       0.018931359 -0.0055357525 0.0094583705 0.011021696
0002c0 b2 f2 00 bb 3b ed 53 bc 9f 5e 28 bc c9 95 f7 3c
       -0.0019675908 -0.012934978 -0.010276466 0.03022279
0002d0 04 6a 91 ac 02 14 00 80 d8 39 00 80 52 81 00 80
       -4.132918e-12 -7.177e-42 -2.075e-41 -4.6391e-41
0002e0 1c ab 0a a4 d7 c9 00 00 b9 1b 10 0b cd 63 d9 0c
       -3.0068915e-17 7.2406e-41 2.7754247e-32 3.349421e-31
0002f0 6d e8 00 00 85 37 b6 bc 3e 72 48 3c 71 1a 92 3c
       8.3379e-41 -0.02224327 0.012234269 0.017834874
000300 24 63 9a bc f3 11 4f 3d 4c 3c 0c 3d 92 1c 43 3c
       -0.018846102 0.050554227 0.03423719 0.011908667
000310 8b 44 f5 3c 32 1c 99 3c ad d9 a4 3b 01 9a f5 3b
       0.02993991 0.018690202 0.005030832 0.0074951653
000320 72 b7 25 bb 84 3a 73 bb f6 cb 92 3a 79 21 cb ba
       -0.0025286344 -0.0037113735 0.0011199701 -0.0015497647
000330 a7 8e 5f bc 18 d7 ce 3b af db 29 bc 82 62 a4 3c
       -0.013644851 0.0063122623 -0.010367318 0.020066503
000340 df 62 58 3c 72 9d bd 3c 72 3a 5f 3c e4 3c cb 3c
       0.013207166 0.023146365 0.013624774 0.024809308
000350 98 ae b1 3b 00 45 45 bd dc 79 ec 3c f5 49 c8 bb
       0.0054224245 -0.048161507 0.0288667 -0.006112332
000360 07 ec a3 aa 2f 8a 00 00 57 47 00 80 39 13 0f 80
       -2.9118393e-13 4.9571e-41 -2.5592e-41 -1.384428e-39
000370 6f 11 01 00 b0 3d 39 8b ad 0a 9e 17 88 df 51 92
       9.809e-41 -3.5676112e-32 1.0213206e-24 -6.6224295e-28
000380 95 3b 01 80 d2 35 01 00 03 38 00 80 bd 82 00 00
       -1.1321e-40 1.11143e-40 -2.0093e-41 4.69e-41
000390 b5 03 00 00 1c 16 00 00 f8 56 00 00 43 3c 00 00
       1.33e-42 7.931e-42 3.1199e-41 2.1618e-41
0003a0 c2 50 00 00 af 2a 00 80 c0 47 9b 3b 8e 4c 3f 3b
       2.897e-41 -1.5312e-41 0.004738778 0.0029189917
0003b0 2e 26 c2 3b b1 03 64 bb c0 21 62 bb 29 7a 69 bc
       0.0059249615 -0.003479224 -0.003450498 -0.014250317
0003c0 27 d4 78 3c 6c a7 0d bc 70 a9 a6 bc 67 46 4b ad
       0.0151873 -0.0086458735 -0.020344466 -1.15548465e-11
0003d0 5f b0 00 80 3b f0 00 00 c3 b2 00 80 5b 09 01 00
       -6.327e-41 8.6178e-41 -6.4128e-41 9.5192e-41
0003e0 4a 12 70 8a aa 60 c1 04 10 b3 2a a9 91 59 01 80
       -1.15590195e-32 4.5462854e-36 -3.7902895e-14 -1.23966e-40
0003f0 5b 5d 01 00 3e a3 00 00 4d 2b 00 00 20 a2 8b 37
       1.25325e-40 5.856e-41 1.5533e-41 1.6645587e-05

e_conv2.bias f4 [32]
000000 e8 29 10 bd 4f 8e 7b 2f 29 1d 9b ba a6 14 a5 a1
       -0.035196215 2.2878875e-10 -0.0011834252 -1.11863e-18
000010 0e fa 17 3d 95 2a e7 3c 92 67 05 3a 10 00 1f 3d
       0.037103705 0.028218547 0.00050889805 0.03881842
000020 3e 99 59 3d 25 f7 0d 3d 26 82 de bc cf 9d 98 b2
       0.05312466 0.034659524 -0.027161669 -1.7766892e-08
000030 7f 78 46 b3 33 88 00 bc fb 86 0c 3c f6 47 7e b6
       -4.6210058e-08 -0.007844972 0.008577104 -3.7890836e-06
000040 09 43 00 3d 38 ed df 3b ff f0 ff 9e 9a 7b 4f bc
       0.03131393 0.0068336986 -2.7098849e-20 -0.012663746
000050 cc 31 b5 b4 83 06 49 3c 2f 7c ad ab 85 cd 05 3d
       -3.375011e-07 0.012269619 -1.2326857e-12 0.0326667
000060 c5 74 d8 b1 4e 26 2f 3d 72 e2 40 3d 28 91 00 bc
       -6.2997025e-09 0.04276114 0.047090955 -0.007847108
000070 cd 78 1c b2 09 ec f8 ba 8f b9 14 bc 28 5e 4d 3d
       -9.107862e-09 -0.0018991242 -0.009077444 0.050138623

e_conv3.weight f4 [32, 64, 3, 3]
000000 3a 79 05 80 80 23 e5 8d cd 34 00 80 d1 41 00 00
       -5.02665e-40 -1.4121761e-30 -1.8941e-41 2.361e-41
000010 8b 92 42 06 b7 d7 00 00 4d 1c 00 80 82 1c 4e aa
       3.6595007e-35 7.7384e-41 -1.0152e-41 -1.8306366e-13
000020 38 2d 24 2e e2 c3 20 3b 79 6b 79 3c c8 78 de 3c
       3.7329445e-11 0.0024530818 0.015223377 0.027157202
000030 bd 92 15 bc d5 40 33 3b d7 0b 30 3c 78 69 fb bc
       -0.009129223 0.0027351875 0.01074501 -0.03068994
000040 5d 0e ae bb 14 f4 39 bc 31 89 92 bc 9c 29 f0 bb
       -0.005311771 -0.011349697 -0.017887684 -0.007329179
000050 5b c3 2c bb 75 cc a1 bc 29 4d 20 bc 00 55 a8 bb
       -0.0026361558 -0.019750813 -0.009784021 -0.005137086
000060 3d 06 c7 bc 4b 47 8d bc be c0 55 bc ef 3d 33 3c
       -0.024294967 -0.01724591 -0.013046442 0.010940059
000070 d9 e5 2e 3c bb 68 98 3c 3f 09 ac ba 6c 5b 0a 3b
       0.010674917 0.018604627 -0.0013125314 0.002111162
000080 37 a4 03 3c 3a 10 69 3b 28 01 27 bc f5 54 ad bc
       0.008034757 0.003556265 -0.010193147 -0.021158675
000090 cc fc 19 3c 11 55 e8 3c 68 77 ab 3c 6b 72 ba 3b
       0.00939865 0.028360875 0.02093096 0.005689909
0000a0 91 1f 73 3c 1e 54 e6 3b 1b c4 39 bb e8 13 36 bb
       0.014839069 0.0070290705 -0.0028345648 -0.002778286
0000b0 da 57 88 bb 69 de 00 80 1b 90 00 00 e5 58 00 00
       -0.0041608633 -7.9786e-41 5.1695e-41 3.189e-41
0000c0 3d 77 00 80 c3 8e 26 90 ed 4e 68 ad d6 5c 00 00
       -4.2775e-41 -3.2847707e-29 -1.3205198e-11 3.3303e-41
0000d0 c1 ac 00 80 6a 07 00 80 38 21 db 3b 6b 13 b8 3b
       -6.1972e-41 -2.66e-42 0.0066873096 0.005617549
0000e0 fa b2 65 b9 9b 86 19 3c ec 23 49 3c 77 82 68 3b
       -0.00021905816 0.009370471 0.012276631 0.0035478154
0000f0 64 29 0e 3b 51 a7 8e 3b dc 6f 0a bc 02 44 00 00
       0.0021692151 0.0043534418 -0.008449521 2.4397e-41
000100 32 c7 00 80 94 08 96 24 5d 0c 00 00 bf 30 00 80
       -7.1458e-41 6.506666e-17 4.435e-42 -1.7487e-41
000110 3e 8a 00 00 f6 d0 1c 94 4d 81 00 80 6d e2 00 80
       4.9592e-41 -7.9171976e-27 -4.6384e-41 -8.1226e-41
000120 a3 98 00 00 5f 25 00 00 6a 58 83 04 12 cd b8 88
       5.4756e-41 1.3406e-41 3.0879147e-36 -1.1122309e-33
000130 3d 80 00 00 e8 44 8f b3 89 8e 00 80 68 9b 00 80
       4.6003e-41 -6.6714904e-08 -5.1132e-41 -5.5749e-41
000140 b9 2c 00 00 46 45 88 bb 23 fc ca bb b2 fe 94 bc
       1.6043e-41 -0.0041586487 -0.006194608 -0.018187854
000150 3f 62 e6 3b f7 33 83 3b c1 c2 2c bc 5a cc b7 3b
       0.007030755 0.0040039974 -0.01054448 0.0056090774
000160 f6 4c ab b9 fa ad 22 bc d9 b0 00 80 49 88 00 00
       -0.00032673002 -0.009929175 -6.3441e-41 4.889e-41
000170 12 34 c6 2a 89 90 75 10 91 86 4f 13 b7 77 00 00
       3.5207996e-13 4.8429076e-29 2.619342e-27 4.2946e-41
000180 44 ce 00 80 f2 78 ba 06 81 99 63 25 34 30 00 00
       -7.3994e-41 7.0143137e-35 1.974112e-16 1.7292e-41
000190 73 c6 00 00 ba aa 00 80 a8 d9 1f 89 7b a5 00 80
       7.119e-41 -6.1245e-41 -1.924127e-33 -5.9363e-41
0001a0 bc 8e 00 80 8b bd 00 80 89 e8 00 80 2a 58 c3 10
       -5.1203e-41 -6.7995e-41 -8.3418e-41 7.7049777e-29
0001b0 6a 1d 4e 3a 49 0a f7 3a e5 73 14 3b c1 cd 45 b9
       0.00078626594 0.001884767 0.0022652086 -0.00018864033
0001c0 79 6a 9b 39 3b ca af 39 46 c3 c4 38 c5 2d 41 b9
       0.00029643232 0.00033529275 9.382381e-05 -0.00018422965
0001d0 c2 eb b1 b8 90 14 b9 bb 3d 8d bf bb df 46 18 bc
       -8.483931e-05 -0.005648203 -0.0058456943 -0.009294241
0001e0 08 6d fc bb 59 ea f6 bb 2f a6 00 bc f5 34 fc bb
       -0.007703427 -0.0075352606 -0.007852121 -0.0076967427
0001f0 17 a6 14 bc f0 90 e5 bb fc bd 54 9d 38 f0 b7 0d
       -0.009072802 -0.0070058033 -2.8156186e-21 1.1336076e-30
000200 40 7e 00 80 71 4a 00 00 76 b8 74 28 3a 73 00 00
       -4.529e-41 2.6705e-41 1.35847195e-14 4.1336e-41
000210 85 68 91 8f 35 3c 80 a6 1d 61 9f 0d a8 17 ad bc
       -1.4338363e-29 -8.898103e-16 9.822511e-31 -0.021129444
000220 2b 5d 9f 3b 93 7e 9d 3c bd c0 b6 3b fa b7 70 bb
       0.0048634014 0.019225394 0.0055771754 -0.0036730752
000230 0d 0e 12 3b 8d 09 35 bd d8 7f e8 bc 29 ed 6f bc
       0.0022286207 -0.04419856 -0.028381273 -0.014643946
000240 13 ee 4b 3b 62 94 0d 3c 77 8c e6 3c 97 35 83 bc
       0.0031117245 0.008641334 0.02814315 -0.016016765
000250 7c 90 da 3b fb d5 7d bc 2b 2d ff bc e4 47 b4 bb
       0.006670056 -0.015492911 -0.031149467 -0.005501734
000260 3e 07 82 bb 5d fb fa 3b b1 76 ff 3b aa ad 6c 3b
       -0.0039681485 0.0076593594 0.0077961315 0.0036114254
000270 54 b6 5c 3b a4 b9 86 3b 0c 96 9d bb 13 c6 f2 3b
       0.0033678012 0.0041114856 -0.0048091467 0.007408866
000280 0c ef 98 39 e9 ba 3d bc 4b b1 3e 3b c1 d0 6b 3c
       0.00029169803 -0.011580207 0.0029097374 0.0143930325
000290 40 ea a7 3c a3 58 dc 3b fc 64 f3 bb 1e 73 bc 3c
       0.020497441 0.0067244335 -0.0074278098 0.02300411
0002a0 f0 b5 01 bd eb 4c 82 bc ec e8 98 ba 88 73 9a 3c
       -0.03166765 -0.015905818 -0.0011666096 0.018853918
0002b0 56 3d 8c bb 61 7d 0c 3c b7 0b 6d 3b 4a 8a 2c bc
       -0.0042797728 0.008574815 0.0036170313 -0.010531018
0002c0 f7 16 df bc aa de 78 bc 68 6d 30 bc ec 8c 97 bb
       -0.02723263 -0.015189806 -0.010768272 -0.0046249535
0002d0 b9 f6 43 80 3d 08 78 25 1b 9a 18 b6 d1 57 00 80
       -6.241486e-39 2.1513362e-16 -2.2739466e-06 -3.1503e-41
0002e0 5c f7 00 80 ea cb 00 80 13 54 a0 90 8d 9d 5a 23
       -8.8736e-41 -7.315e-41 -6.323841e-29 1.1851166e-17
0002f0 1a 5e 01 80 81 17 c0 ba dd 7c d9 ba f6 c0 de bb
       -1.25593e-40 -0.0014655442 -0.0016592998 -0.006797905
000300 7b ae d7 3a da 2c 2f 3c 27 d1 71 3c d1 34 6a bc
       0.0016455197 0.010691846 0.014759338 -0.014294819
000310 c2 f7 a2 bc a7 fe db 3a ff 56 34 3b db c0 78 3c
       -0.01989353 0.0016784266 0.0027517674 0.015182699
000320 4d f1 f9 3c 17 84 57 bc 43 38 83 3a 57 bc 85 3c
       0.030510569 -0.013154051 0.0010011274 0.016325159
000330 95 69 e8 bc 72 7c 62 bc 8b 9a 87 3a ee 63 34 bc
       -0.028370658 -0.013823615 0.001034574 -0.011010153
000340 a0 6b 36 3b 59 1b 9e bb 5d 50 28 3b 27 2b 31 38
       0.0027835146 -0.0048250374 0.0025682666 4.2240277e-05
000350 3b 45 5a 3b e6 dc 94 bc dc a6 91 bc 92 a7 e3 ba
       0.0033305425 -0.018171739 -0.01777976 -0.0017368665
000360 f9 31 75 8d c3 62 0c 12 01 03 01 80 56 76 b5 a8
       -7.5556606e-31 4.4297944e-28 -9.2913e-41 -2.0146357e-14
000370 9d b5 09 80 ce 47 00 00 e2 fd c3 12 6f c6 f2 16
       -8.9167e-40 2.5759e-41 1.2368817e-27 3.9222438e-25
000380 8a 40 a9 90 d3 f9 00 00 54 52 01 80 44 1a 00 80
       -6.6758185e-29 8.962e-41 -1.21369e-40 -9.422e-42
000390 ff 3b d5 a6 c4 db 00 80 62 7f 00 00 70 06 00 00
       -1.4796106e-15 -7.8837e-41 4.5696e-41 2.31e-42
0003a0 49 3b 01 80 4a 34 b3 21 b4 7b 0e bc dd fe f0 bb
       -1.13103e-40 1.2143353e-18 -0.008696485 -0.007354601
0003b0 0f f1 63 3c 6e f5 2b bc 6e 5d b2 3c 9e a3 e0 3b
       0.013912453 -0.010495527 0.021773066 0.006855442
0003c0 37 e5 aa bc ec cd 83 bc 2a 4e 30 bc 2b 8a 00 80
       -0.020861251 -0.016089402 -0.010760823 -4.9565e-41
0003d0 36 8a 0f a3 51 02 01 80 6a fe 00 80 24 51 00 80
       -7.781313e-18 -9.2666e-41 -9.1267e-41 -2.9108e-41
0003e0 5d b7 00 80 87 f6 00 00 3d 33 03 00 60 14 23 2b
       -6.5778e-41 8.8437e-41 2.93887e-40 5.793751e-13
0003f0 cf 25 33 a9 d1 d8 00 80 d4 d9 00 80 41 66 54 0c
       -3.9778778e-14 -7.7779e-41 -7.8142e-41 1.6362657e-31

e_conv3.bias f4 [32]
000000 3e 86 0d 3d f3 2e ef 3c e3 52 6d b3 ab 4d 17 3c
       0.03455185 0.029197192 -5.5256248e-08 0.009234826
000010 d0 ab 12 3d e8 99 e1 b8 59 c1 7e bc 54 6a 88 b4
       0.035808384 -0.00010757503 -0.015549027 -2.5409338e-07
000020 18 cb 05 3d dc f2 ca 3b 46 ce ff 3c d3 15 d6 b8
       0.03266439 0.006193502 0.031226289 -0.0001020838
000030 63 79 0a b6 7c 0a cd a8 89 4b 00 80 9c 64 42 bc
       -2.0634259e-06 -2.2764119e-14 -2.7097e-41 -0.011864807
000040 8f 67 09 3d 05 79 75 bc a8 1b 43 3d fd 4d 21 bc
       0.033546027 -0.014982467 0.047633797 -0.009845254
000050 6f f6 a3 b6 d8 f5 72 3c 03 0c 63 ba 88 dd 23 bc
       -4.886467e-06 0.0148291215 -0.00086611527 -0.010001548
000060 32 ff 2c 3c 09 91 e9 b3 b3 4e 3e 3c 39 39 24 3d
       0.01055889 -1.087629e-07 0.011615443 0.040093634
000070 31 2a 64 b6 86 5e 9d bc b9 95 0a 3d 5b 5e 98 bc
       -3.3999206e-06 -0.019210111 0.033834193 -0.01859968

e_conv4.weight f4 [32, 64, 3, 3]
000000 34 13 b2 bb 1e dc 62 3c 4d e4 43 bd 4a 54 b3 3b
       -0.005434418 0.013846425 -0.047825146 0.0054726945
000010 13 22 02 bc 10 fd 11 bc e6 88 81 3c 5b 46 a0 bb
       -0.007942694 -0.008910432 0.015812349 -0.0048911995
000020 ba ba 7b bc ce f6 c1 21 11 8c 00 ac 2e ef 6f ac
       -0.015364343 1.3143517e-18 -1.8267647e-12 -3.4096714e-12
000030 d3 de aa 2c 18 23 fa 2c a5 b4 ad ab b8 7b d9 2c
       4.856429e-12 7.1093235e-12 -1.2342528e-12 6.1812465e-12
000040 65 eb af 2c f5 11 e8 1f fb c0 f9 39 6b e8 27 3a
       4.999933e-12 9.828553e-20 0.00047636763 0.00064051774
000050 4f 3c 23 3a b0 ec a7 3a 73 0a d5 3a 40 8d da 3a
       0.0006226943 0.0012811627 0.0016253724 0.0016674176
000060 70 97 1b 3a fc 71 46 3a 79 5b 48 3a 3f bc 6f 93
       0.00059353467 0.00075700856 0.0007643025 -3.0258854e-27
000070 2e 8a 28 14 ee 44 8b 98 71 e2 d4 13 45 c9 82 14
       8.5090836e-27 -3.600026e-24 5.3739612e-27 1.3206032e-26
000080 93 f6 c2 13 87 7e a3 13 5f 42 cb 13 d8 c3 90 13
       4.9215626e-27 4.127175e-27 5.130985e-27 3.6543827e-27
000090 82 24 d9 ba 81 b0 f1 bb ff 6e bb bc d2 4e 8d bb
       -0.0016566666 -0.0073757772 -0.022880075 -0.0043123746
0000a0 3c 79 29 3d 49 3c 90 3a ce 3b 05 bd 75 7b f2 bb
       0.041375384 0.0011004295 -0.032527737 -0.007399971
0000b0 79 3d 30 3b f5 32 13 bb b4 08 25 3b cb 65 88 39
       0.002689211 -0.0022460793 0.002518219 0.00026015783
0000c0 bc 72 1d bb ca 09 0f 3b 16 f8 c0 3a d0 82 d5 b9
       -0.0024024686 0.0021825903 0.0014722373 -0.0004072399
0000d0 8a 52 90 3b dd 8e 92 3b 30 22 af 3a 1e 88 1c 3b
       0.0044043707 0.004472597 0.0013361629 0.0023884843
0000e0 87 e1 09 3b 75 36 c5 bb 4e a8 c7 3a 9f 2c 97 b9
       0.0021038966 -0.0060184547 0.0015232654 -0.0002883421
0000f0 eb d2 1f bb 9a a1 ec b8 1e 8b 0a 3a b6 df 4a bc
       -0.0024387192 -0.000112834576 0.00052850123 -0.012382438
000100 6b 44 87 bc 81 81 c7 bc 23 e3 b6 bc 5b e5 92 3c
       -0.016512116 -0.024353744 -0.022325104 0.01793163
000110 29 4c 15 3c 45 3e 1f bc af 31 e6 3b 80 64 17 bc
       0.009112396 -0.009719436 0.0070249657 -0.00924027
000120 d2 6f 83 bc 16 9a c3 3b 53 80 31 3c c6 08 fa bb
       -0.016044531 0.005969296 0.0108338175 -0.0076304404
000130 b4 de ca 3c d1 20 a7 bb e7 f3 a6 bb 01 f4 10 bc
       0.024764396 -0.0051003476 -0.0050949934 -0.008847238
000140 dd 15 9c bc 89 e9 c0 bc c4 4f b5 3a 22 47 d2 bc
       -0.019053394 -0.023548858 0.0013832976 -0.025668684
000150 ef 3d 08 3d 2d 34 77 bc a7 5a a4 3c f5 6f 4b 3b
       0.03326219 -0.015088123 0.020062758 0.0031042073
000160 95 57 52 3b 01 13 6f bc 54 4e 0a 3c 89 05 85 bc
       0.003209566 -0.014591933 0.008441526 -0.01623799
000170 be 7c be bb 14 5c 34 bc 1d 57 77 3c e1 81 21 3d
       -0.0058132103 -0.011008281 0.015096453 0.039430503
000180 0d 8d 0e bc 9b e0 7c 3c 18 b1 25 3b 7b 7c 83 31
       -0.008700621 0.0154344095 0.0025282558 3.8267536e-09
000190 ba 2d 63 30 0d 05 6f 31 02 33 2c 30 25 ac 13 32
       8.26471e-10 3.4781948e-09 6.264572e-10 8.595667e-09
0001a0 4f c2 07 b1 e2 ca 00 b1 3b 94 f9 af 5a 2a 00 b1
       -1.9755537e-09 -1.8741777e-09 -4.539816e-10 -1.8650526e-09
0001b0 a5 fd 2a af ab 95 25 b2 10 ee 8d 2d ca f8 d6 ad
       -1.5551523e-10 -9.638295e-09 1.6135565e-11 -2.4439468e-11
0001c0 55 97 51 2d f8 15 c4 b1 8f 7a f2 2e ba 53 c4 b0
       1.1913877e-11 -5.7068483e-09 1.1026657e-10 -1.4284673e-09
0001d0 42 bb b1 b1 40 6a 30 bc e6 96 e2 3c 58 63 19 3c
       -5.1726667e-09 -0.0107675195 0.027659845 0.009362064
0001e0 91 c8 20 3c 2e ec 8f 3c ec 94 b7 bb 38 bd 3a bd
       0.009813444 0.017568674 -0.0056024697 -0.04559061
0001f0 47 d4 d6 3c 63 ae 7f ba 84 b0 fc ba d9 bb 82 ba
       0.026224269 -0.00097534637 -0.001927868 -0.0009974196
000200 a1 d0 15 3a 7e 5b 8b ba 9f 3c 0f ba 02 53 39 3a
       0.0005714987 -0.0010632125 -0.00054640503 0.0007069559
000210 df c1 7b ba 74 07 ad ba d5 e3 f0 ba 3f a6 07 b4
       -0.0009603779 -0.0013201074 -0.0018378446 -1.2633335e-07
000220 10 7c 78 b3 29 2b ad b5 83 e9 fa b4 38 93 88 b5
       -5.7854834e-08 -1.2902066e-06 -4.673603e-07 -1.0175636e-06
000230 f2 49 28 b5 6a 02 81 b5 5a 1c ab b5 0c 78 b1 b5
       -6.269248e-07 -9.611952e-07 -1.2748744e-06 -1.3222466e-06
000240 99 80 90 3b 18 57 3e bd 53 e1 b9 bc a7 0a bc bc
       0.0044098613 -0.046469778 -0.02269045 -0.022954298
000250 ce 53 ef bc de bb 4d 3c 0d 86 43 3c 04 87 83 3c
       -0.029214766 0.012556998 0.011933816 0.016055591
000260 ac 76 f9 3c c0 72 bf 38 b2 da 87 ba 51 07 54 b9
       0.030452095 9.1289636e-05 -0.0010364859 -0.00020220621
000270 0a e8 f7 3a b9 81 41 3a 0b ab 92 3a b8 62 5b 3a
       0.0018913758 0.0007381696 0.0011189891 0.0008368897
000280 5d 27 2d b9 67 de 65 b8 02 93 18 08 1d 89 22 29
       -0.0001651323 -5.4804983e-05 4.5913643e-34 3.6090153e-14
000290 cb c6 00 80 c0 3f 00 80 fe f0 aa a7 5b d0 00 00
       -7.1313e-41 -2.2869e-41 -4.7445763e-15 7.4744e-41
0002a0 e8 54 00 80 db 0e 00 80 9f fa c5 a4 47 ca ee bb
       -3.0459e-41 -5.329e-42 -8.58597e-17 -0.007287297
0002b0 e7 c2 9f bc 6a ef 55 3c 00 83 f2 bb ed 45 1b 3c
       -0.019502116 0.013057569 -0.0074008703 0.009477121
0002c0 69 53 f3 bb b7 f7 64 bb 93 ce 3c 3c 32 47 40 bc
       -0.0074257147 -0.0034937689 0.0115238605 -0.011735724
0002d0 c5 ba 93 0d 76 68 94 8d 84 a6 5e 0d 87 fe 77 19
       9.104538e-31 -9.146352e-31 6.8609468e-31 1.2821002e-23
0002e0 50 60 a7 19 d9 9e a0 0d 05 85 25 0d 28 c9 d8 25
       1.7306296e-23 9.8990025e-31 5.1004667e-31 3.7606336e-16
0002f0 db 0e f0 8d 51 f0 5e 3b 6f b2 56 ba 4f 52 ac ba
       -1.4794718e-30 0.0034017751 -0.0008190041 -0.0013147088
000300 d3 2b 0d 3b 60 d4 fd ba 4d ae 32 bb 6b a0 0e 3b
       0.0021541014 -0.0019365661 -0.0027264536 0.0021763097
000310 2b 08 ba ba b6 21 c9 ba d1 1e 49 80 a7 72 a7 2b
       -0.0014193108 -0.001534513 -6.715046e-39 1.1897886e-12
000320 84 85 01 00 9f ac 00 80 e3 22 00 00 82 a2 00 80
       1.39732e-40 -6.1925e-41 1.2515e-41 -5.8297e-41
000330 b8 df eb 24 79 c8 39 00 88 4b ec 86 ec 30 17 b9
       1.02294e-16 5.30654e-39 -8.8884317e-35 -0.00014418707
000340 51 ed 7f bb be 57 8d 3a 4a 2a c6 bb 30 21 0f bb
       -0.0039051364 0.0010783595 -0.0060475217 -0.002183985
000350 e2 8f 77 3b e1 0e ef ba f3 17 d0 3a 75 ab 00 3b
       0.003777497 -0.0018238687 0.0015876278 0.0019633446
000360 e1 c2 00 80 f0 3e 00 80 43 c4 00 80 c8 3d 00 80
       -6.991e-41 -2.2578e-41 -7.0405e-41 -2.2163e-41
000370 1f af 01 80 e3 4f 00 80 97 0e 00 80 a8 0e 01 00
       -1.54657e-40 -2.8658e-41 -5.234e-42 9.7093e-41
000380 3b ca 00 00 0b 5e a6 3b c4 2b 57 ba 27 b9 03 3a
       7.2547e-41 0.0050771288 -0.00082081207 0.0005024843
000390 0b be a7 3b 91 fc 8e ba 55 a8 cf 39 70 da 53 3b
       0.0051190904 -0.0010909011 0.00039607534 0.0032326244
0003a0 7d f0 34 bb 5a ca 8b ba 4b 75 31 3c 14 6f 72 bc
       -0.0027609162 -0.0010665164 0.0108311875 -0.014796991
0003b0 fc 5f af ba 5f 63 90 bb 1a 10 cc bb 91 57 02 3c
       -0.0013380046 -0.004406377 -0.0062275054 0.007955448
0003c0 14 e4 61 3c e1 4e 99 3c 6d 69 3d 3c 0c 4b bb 94
       0.013787288 0.01871437 0.01156078 -1.8911775e-26
0003d0 7b 95 32 a2 15 f0 84 9b b9 46 5d 9f ea 3d f5 8f
       -2.4202633e-18 -2.1992718e-22 -4.685707e-20 -2.4182714e-29
0003e0 69 e9 7d 93 ab 51 fa 9f 1d f2 00 94 8d a9 09 95
       -3.204817e-27 -1.06014227e-19 -6.510097e-27 -2.7800682e-26
0003f0 fb 72 73 82 d9 62 10 00 67 97 2c 00 10 67 84 00
       -1.7885818e-37 1.504828e-39 4.095075e-39 1.2159257e-38

e_conv4.bias f4 [32]
000000 52 73 06 3d 39 52 67 3a 40 7c c8 bc 5c 24 01 a8
       0.03282482 0.0008824203 -0.02447331 -7.168823e-15
000010 3b 21 89 3c 34 6c 83 3c 85 f2 46 3c d6 81 6a 3c
       0.016739478 0.016042806 0.012142782 0.014313182
000020 ad e0 d0 b1 dc 48 a7 b9 6a f6 24 3c 93 11 d7 3c
       -6.0791394e-09 -0.00031907007 0.010068515 0.026253497
000030 2e 6c 99 3c 14 2a b4 3b a8 a2 b9 3c 48 06 46 3c
       0.018728342 0.00549818 0.022660568 0.0120864585
000040 33 a9 a1 bc 42 53 02 3d 4e ea 6e ba 07 f3 fe 3c
       -0.019734 0.031817682 -0.00091138936 0.031121744
000050 72 83 54 bb 32 7f d1 b9 6f f8 3f 3c 8d 73 24 ba
       -0.003242698 -0.00039958354 0.011716946 -0.0006273322
000060 8a 30 df b1 b3 b0 15 3d 0d 9a 0e 3b 99 8a 00 3d
       -6.4956724e-09 0.036545467 0.0021759302 0.031382177
000070 bf 8a cb 3c bf 31 52 3c 30 6d 96 b8 d9 2c b8 3c
       0.024846433 0.012829243 -7.172895e-05 0.022482323

e_conv5.weight f4 [32, 64, 3, 3]
000000 af e4 dd 3b 06 51 e3 3b 24 3e 1f 3c 20 e8 14 3c
       0.006771646 0.006937149 0.009719405 0.009088546
000010 b0 d6 03 3c 85 13 06 3c 56 1e fd 3b 3d d2 f6 3b
       0.008046791 0.008183365 0.0077245636 0.0075323866
000020 c1 9b d0 3b 4d 37 37 3c 41 09 9d 3b 22 56 0e 3c
       0.0063662236 0.011182618 0.004792363 0.008687528
000030 67 43 d4 3b 35 bd 5c 3a 4b e5 48 3a 89 5d 4c 3b
       0.0064777615 0.0008420528 0.0007663562 0.003118368
000040 0a e3 d2 37 13 4a cd 39 34 f9 67 a1 e3 c0 29 07
       2.5139674e-05 0.00039155837 -7.859566e-19 1.2770831e-34
000050 e8 3d 00 00 1a 89 00 80 c4 81 00 00 c4 41 00 00
       2.2208e-41 -4.9183e-41 4.6551e-41 2.3592e-41
000060 13 28 8d 99 fd 4f 00 80 a2 fa d5 96 29 b7 58 3c
       -1.4595244e-23 -2.8694e-41 -3.4570177e-25 0.0132272625
000070 3a ce 33 bb 3e ae 97 3c ec 61 87 3b 97 23 4c 3c
       -0.0027436153 0.018515702 0.0041315462 0.012459657
000080 c8 03 8c 3c 95 50 62 bb 6a 62 66 3c 28 46 5a 3c
       0.017091647 -0.0034532894 0.01406155 0.013322391
000090 3d 8c 61 3c 06 b9 13 3c 39 e6 24 3b 5c 1b 76 3c
       0.013766346 0.009016281 0.0025161637 0.015021171
0000a0 78 4b c2 bb 8c 32 a7 3b f3 ff 97 bc d8 ca 4f bc
       -0.0059294067 0.005102461 -0.018554663 -0.012682639
0000b0 9f ef 9b bc a3 04 a6 01 6c 01 01 80 1a 10 00 00
       -0.019035159 6.0985423e-38 -9.2346e-41 5.776e-42
0000c0 b1 2d 01 80 ae eb 00 80 08 47 00 80 23 54 c3 8c
       -1.08226e-40 -8.4546e-41 -2.5481e-41 -3.0095145e-31
0000d0 ac c1 00 80 af db 30 a1 ab 11 0d 3c c7 7c 26 3c
       -6.9476e-41 -5.992187e-19 0.008610169 0.010161585
0000e0 bf eb 11 3c 2e 48 07 3c 2b 1e 11 3c 62 3d 06 3c
       0.008906304 0.008256955 0.00885729 0.008193346
0000f0 c9 dd b9 3b aa 98 cf 3b 07 53 0f 3c 1a a8 93 32
       0.005672191 0.0063353376 0.008747823 1.7189496e-08
000100 fe c5 8b 32 58 15 2d 31 81 a1 8d 33 80 08 d3 31
       1.6271766e-08 2.5186946e-09 6.5952015e-08 6.1418746e-09
000110 0b 61 19 32 43 47 b2 33 e9 9b 57 31 a2 50 27 33
       8.927837e-09 8.301733e-08 3.1375242e-09 3.8956053e-08
000120 3f c0 d0 bc ac 13 67 3c c9 b4 eb bc 0c ef bb bc
       -0.025482295 0.014103811 -0.028772729 -0.022941135
000130 e2 40 dc 3c 23 be 93 bc 56 bd 3c 3c 85 c0 9d bc
       0.026886407 -0.018035 0.011519751 -0.01925684
000140 36 51 47 3c e3 33 bd 3c 1a 06 21 bb 11 4d 6c bc
       0.012165358 0.02309603 -0.0024570287 -0.014422671
000150 5f 86 2e 3c 1e 8e c1 bc 77 eb 06 bc 7b 12 c2 bb
       0.010652154 -0.023627337 -0.00823485 -0.005922613
000160 59 a8 46 3b 54 93 cd 3a 12 19 b4 ba ff d9 54 3b
       0.0030312745 0.0015684166 -0.0013740382 0.0032478569
000170 5a ac 81 3c 56 eb 6d 39 d4 da 64 3b 75 bc 96 3c
       0.015829254 0.00022689751 0.003492047 0.01840041
000180 31 87 3a 3b 7a 2a f9 3b c2 69 d5 3c 03 80 19 00
       0.0028461928 0.0076039406 0.026051406 2.34181e-39
000190 59 74 1a 00 09 c4 90 2c 4f 4a 34 80 79 dd 05 00
       2.42946e-39 4.1144904e-12 -4.802103e-39 5.38627e-40
0001a0 15 34 d5 11 09 3c 0e 00 20 96 02 80 13 ae 0c 84
       3.3637573e-28 1.307234e-39 -2.37526e-40 -1.6536852e-36
0001b0 c9 10 00 80 a6 7c a1 b4 fc b5 ae 8e 1c f9 00 00
       -6.021e-42 -3.007928e-07 -4.3069556e-30 8.9364e-41
0001c0 bf 34 c4 23 ba 15 00 00 7d 6c 00 80 0f 77 00 00
       2.1272701e-17 7.794e-42 -3.8918e-41 4.271e-41
0001d0 5b 3d 00 80 af 67 00 80 99 85 ac 97 1d 88 01 80
       -2.201e-41 -3.7195e-41 -1.1148964e-24 -1.40664e-40
0001e0 9d 68 01 80 6d bc 00 80 4f 62 01 00 e5 6c 00 80
       -1.29364e-40 -6.7594e-41 1.27102e-40 -3.9064e-41
0001f0 f6 2e 9c a1 87 d8 1e 2d af b5 a1 29 6e 49 00 80
       -1.0583402e-18 9.029339e-12 7.1813534e-14 -2.6342e-41
000200 7f c6 b8 91 a2 51 00 00 0d 7f 1c 90 58 a6 00 80
       -2.9152414e-28 2.9284e-41 -3.0863452e-29 -5.9673e-41
000210 8a ab 00 00 64 33 00 80 da 05 ef a9 bb c8 00 80
       6.1537e-41 -1.8435e-41 -1.0614747e-13 -7.2009e-41
000220 a6 86 ea 0d 72 2b 00 80 50 17 00 80 43 06 bc 17
       1.4453779e-30 -1.5585e-41 -8.363e-42 1.2150796e-24
000230 64 bb 8a 9f 14 a3 01 22 21 ba 39 0b 63 62 00 80
       -5.8755285e-20 1.7569093e-18 3.5769732e-32 -3.5295e-41
000240 94 7f 36 bb c0 02 0e bb 13 43 10 b8 58 ea 78 bb
       -0.0027847039 -0.002166912 -3.4394743e-05 -0.0037981477
000250 1b a8 38 bb f2 36 b4 b9 f6 60 43 bb 41 99 f0 ba
       -0.002817637 -0.00034373213 -0.0029812432 -0.001835622
000260 e8 55 f6 37 0b ec 02 bd 4d 89 47 3c a8 9e f0 3c
       2.9365488e-05 -0.03196339 0.012178731 0.029372528
000270 1b a1 19 3b ef c5 94 3c 7f 95 60 bc 26 8b 65 3c
       0.0023441974 0.018160788 -0.013707518 0.014010226
000280 1f 4a 4d bc 25 9d 95 bc c8 9c 16 3b fc a4 63 3a
       -0.012529879 -0.018263409 0.0022981633 0.00086839474
000290 27 b6 dc 3b b9 d6 f9 3a 42 e2 84 3a 4e b8 f7 3b
       0.0067355814 0.0019061185 0.0010138231 0.0075598126
0002a0 ec 78 31 3b a3 a8 8f 3a 8a 52 c4 3b cb af 7a bc
       0.0027080132 0.0010960292 0.0059912847 -0.015300701
0002b0 74 e3 18 3c f9 30 b6 3c eb 85 90 3c 70 ea ab 3b
       0.009331573 0.022240149 0.017641982 0.005246453
0002c0 73 65 76 39 63 9e 74 bc 71 5c 96 bb 7a 36 0d 3b
       0.00023498181 -0.01493034 -0.0045886566 0.0021547363
0002d0 8f fa 05 ab 64 51 d1 b0 b3 52 e0 00 ee d6 29 00
       -4.759881e-13 -1.5229884e-09 2.0600818e-38 3.842358e-39
0002e0 71 c4 95 03 bf 96 3a 21 58 82 7a 0c 61 ef b5 8c
       8.802534e-37 6.321876e-19 1.9298523e-31 -2.8031537e-31
0002f0 23 f4 75 80 6a be f8 bb 90 ea ba bb ef c0 ce bb
       -1.0832333e-38 -0.0075910585 -0.0057042316 -0.0063096206
000300 e3 53 72 ba b1 38 c9 ba d8 fe a9 bc 37 02 bc 39
       -0.00092440675 -0.0015351978 -0.020751402 0.00035859804
000310 17 b2 dc ba f9 7a 20 3b 8b 7d cb b9 c9 e0 3d 3b
       -0.0016837743 0.002448736 -0.00038812714 0.0028973094
000320 36 fd a7 3c f2 9f 22 3c f0 c1 4b 3c 8d 6c 7e bc
       0.020506483 0.009925829 0.012436375 -0.01552881
000330 a6 72 4c bb 24 08 fc bb b5 9f b0 bc f1 b2 11 bc
       -0.0031196265 -0.0076914 -0.02156053 -0.008892761
000340 22 61 48 3c f5 f6 d3 3b 51 69 ab 3c cf 37 0e bc
       0.0122301895 0.0064686486 0.020924242 -0.008680298
000350 02 a7 f6 3a 22 d4 b8 bc a7 39 f5 3c 17 5e be bc
       0.0018818083 -0.02256209 0.029934717 -0.023238225
000360 f8 7c a4 3c 7c cc 34 3d 71 c3 38 bd c0 05 a4 3a
       0.020079121 0.044140324 -0.045108262 0.0012513921
000370 be 62 86 bc da 7e ac bb 45 f6 0f bd e0 b4 23 bd
       -0.016404506 -0.0052641453 -0.03514697 -0.039967418
000380 e7 ee 85 3c ff c7 7a ae b7 f6 f4 88 2c 7f 77 87
       0.01634927 -5.702105e-11 -1.4743218e-33 -1.8619587e-34
000390 45 b5 48 0c 31 e4 2a 0c bb 62 1f 0d 06 06 2d 0b
       1.5461988e-31 1.3164992e-31 4.91145e-31 3.332312e-32
0003a0 73 ca 45 8d 4a 62 e6 0b 04 ed a7 3a 7c 0d 82 3b
       -6.0949e-31 8.8740666e-32 0.0012811725 0.0039688926
0003b0 c8 a3 83 3b 55 5d 1c 3a 4f d5 57 3b 92 76 5e 3b
       0.004017327 0.0005964835 0.0032933538 0.0033945185
0003c0 8a c0 41 ba 43 55 02 3b 2e b3 0c 3b 64 e6 8b bc
       -0.0007391056 0.0019887246 0.0021469104 -0.017077632
0003d0 41 39 4d bc 72 3a d5 bb 9d 95 24 bc 22 e1 1e 3b
       -0.012525857 -0.0065072114 -0.010045436 0.0024243076
0003e0 c1 58 2e 3d b7 d6 4b 3c 08 66 6b bc d9 1d e5 3a
       0.04256511 0.012441329 -0.014367588 0.0017480209
0003f0 48 e8 1e 27 5f 36 8c 82 89 3b e7 81 23 89 4f 02
       2.2052825e-15 -2.0602359e-37 -8.494143e-38 1.5247314e-37

e_conv5.bias f4 [32]
000000 ed f8 a6 3c 1f f7 82 ba 7a 98 05 b5 52 4f ac 3b
       0.020382369 -0.0009991861 -4.9768244e-07 0.005258479
000010 9e ff 39 b4 0d 93 a5 3b 0f 3d 41 3b 61 06 eb 3c
       -1.732246e-07 0.00505293 0.0029485857 0.028689565
000020 9c 8e f6 3b 39 58 d0 ba 6c 9f 2d 3d a7 36 e7 3c
       0.0075243246 -0.0015895433 0.042388365 0.028224302
000030 44 8e 8c b1 a2 9a 65 bb 8b 97 d9 3c 20 65 0e 3d
       -4.09071e-09 -0.0035034795 0.02656152 0.03476441
000040 4f 01 c6 3a 8a bf ec ba ae 2c e2 b4 87 86 e3 3b
       0.0015106591 -0.0018062454 -4.212829e-07 0.006943527
000050 6c f2 cf 3c 56 cc ed 3c 4c ce 15 3c ff a2 3e b6
       0.02538415 0.029028099 0.009143423 -2.8407082e-06
000060 4f ff 99 3c 90 d8 d3 b2 0a 15 8a 3c 26 ee 0f 3c
       0.018798498 -2.4662114e-08 0.016855735 0.008784806
000070 59 e5 14 3d b2 09 cb ba 4a e6 86 b9 fc 88 00 00
       0.036351535 -0.001549056 -0.0002573005 4.9141e-41

e_conv7.weight f4 [8, 64, 3, 3]
000000 e9 05 c7 bb da d2 bd 3b b3 5f 24 b9 85 05 3d 3c
       -0.0060737026 0.0057929577 -0.0001567591 0.0115369605
000010 df 3c 91 3b 4a 89 a8 3b 6d 6c 47 3c 27 6f df 3a
       0.004432305 0.0051433193 0.012171847 0.0017046676
000020 76 c6 11 3c 2c 2e 16 3b 5d 2a b2 3b 5d 55 22 3c
       0.008897414 0.0022915704 0.005437179 0.0099080475
000030 57 a6 ae 3b 41 c5 e2 3b 27 48 3e 3c 1c 5c ae 3b
       0.005329888 0.006920487 0.011613882 0.005321039
000040 86 60 04 3c 42 ea 53 3c 2f 8c 00 80 f8 89 04 29
       0.008079654 0.012934269 -5.0288e-41 2.9429557e-14
000050 91 b5 0d 83 31 6d 00 00 e7 2c 00 80 32 d5 00 80
       -4.1644604e-37 3.917e-41 -1.6108e-41 -7.648e-41
000060 d9 d9 00 80 05 aa 00 80 79 5d a3 ad cb f6 f8 8b
       -7.8149e-41 -6.0992e-41 -1.8572465e-11 -9.589746e-32
000070 3b fc a7 8c d9 20 23 a1 16 4a ce 15 88 0d d8 94
       -2.588223e-31 -5.527002e-19 8.3319624e-26 -2.1815763e-26
000080 35 47 84 8d 97 64 05 98 ee 5f 88 97 1f 44 58 8b
       -8.152271e-31 -1.7240632e-24 -8.81301e-25 -4.1651335e-32
000090 7f b5 9c ba 69 1f 3e ba e1 91 1b bc 1f 72 f5 3b
       -0.0011955946 -0.0007252605 -0.009495229 0.007490411
0000a0 b7 96 91 b8 01 1c 7a ba 7b 75 7f 3a dd 8f 58 3b
       -6.9422116e-05 -0.0009540916 0.0009744984 0.0033044734
0000b0 91 59 83 ba c8 9c 21 bc 2d 86 24 bc c2 4a cf b8
       -0.00100212 -0.00986404 -0.010041756 -9.884454e-05
0000c0 df ee a9 ba d6 34 bc 3b 0d 08 cb 3b 2d 6d 1b 3b
       -0.0012964866 0.005743603 0.006196028 0.0023716197
0000d0 5f d3 ff 3b da aa 88 3c b7 92 80 3c 72 97 f5 3b
       0.00780718 0.01668303 0.01569496 0.0074948603
0000e0 ca e8 14 3c e8 ec f3 bb 33 99 02 3c 3d e6 4c 38
       0.009088704 -0.007444013 0.007971096 4.8851816e-05
0000f0 2e eb bd 3b df 79 6e 3b c5 83 e6 3b 10 d5 2f bc
       0.005795858 0.0036388559 0.007034751 -0.01073195
000100 35 9c b2 bc ae d0 f1 bc 6a 2b 92 bb 0c 90 79 bc
       -0.021803001 -0.029518452 -0.0044607418 -0.015232097
000110 23 24 b8 bc 5c 06 08 3c de a6 a3 bb 63 09 56 bc
       -0.022478169 0.008302297 -0.0049942574 -0.013063761
000120 2b ab 18 aa 3c 56 3d ab 48 f4 6b a6 f6 f3 3b aa
       -1.3559698e-13 -6.7265963e-13 -8.1863066e-16 -1.6693577e-13
000130 75 6d 49 29 88 0e 7e 25 61 b2 e3 29 90 d5 c9 ad
       4.4725904e-14 2.2035912e-16 1.0111769e-13 -2.2945895e-11
000140 35 4a bd 25 e2 ea 1e 00 af 41 00 80 ae be 00 80
       3.2836558e-16 2.839325e-39 -2.3563e-41 -6.8403e-41
000150 dd 1b 01 80 55 41 13 20 8b 38 01 00 5e 44 00 00
       -1.01831e-40 1.2473001e-19 1.12119e-40 2.4526e-41
000160 59 7f 00 00 2a 48 0c a1 d8 08 7e b9 89 a3 70 3a
       4.5684e-41 -4.7529353e-19 -0.00024226622 0.0009179642
000170 2d 84 f5 38 81 8d 93 3a 56 24 26 3b bb 2a e1 3a
       0.0001170713 0.0011257381 0.0025351248 0.0017178872
000180 78 39 2d bb 9b 80 b6 ba cc a5 f6 ba 6d 26 11 bc
       -0.002643196 -0.0013923825 -0.0018817722 -0.008859259
000190 9f 4d f7 bb be f3 0c bc dc d9 8d bb d1 7f c3 ba
       -0.007547095 -0.008603035 -0.0043289494 -0.0014915412
0001a0 d8 47 95 bb 29 40 87 bb 13 e4 95 bb 35 ea 06 bc
       -0.0045556836 -0.0041275215 -0.0045743077 -0.00823455
0001b0 e6 1f a6 3a 69 e3 c7 3b 03 c8 85 3b a7 79 62 3b
       0.0012674301 0.0061001075 0.004082681 0.0034557374
0001c0 0a 0a 0e 3c bc f6 f0 3b f0 74 b5 bb ff e3 19 ba
       0.008669386 0.007353632 -0.0055376217 -0.0005870461
0001d0 9f cc d9 ba 11 e9 89 bc ee 30 94 bc 7f f1 f8 bb
       -0.0016616768 -0.016834768 -0.018089738 -0.007597148
0001e0 d3 f5 84 bc ea 33 92 bc 3d 64 f2 bb 32 81 bc bb
       -0.0162305 -0.01784702 -0.0073972032 -0.005752706
0001f0 5e 66 e6 bb 5a 25 86 3b ac b5 42 bb b9 56 d6 3b
       -0.007031246 0.004093808 -0.0029710336 0.0065411
000200 8c d3 90 3a d5 d8 3e 3b 27 54 41 3a fc ad e8 3b
       0.0011049374 0.0029120941 0.00073749054 0.0071008187
000210 6c 95 e7 37 33 30 2f 3c 90 11 ea 3b 09 08 b3 bb
       2.7606926e-05 0.010692644 0.007143207 -0.0054636043
000220 12 26 70 b9 06 65 85 bb ec 51 27 3b c3 3f 3d bb
       -0.00022902366 -0.004070881 0.0025531007 -0.0028877116
000230 02 9b 1a bb d4 19 35 3a 44 df 93 bb b4 0f 1f bb
       -0.0023590927 0.0006908451 -0.0045126993 -0.0024270834
000240 cb f8 00 00 a8 65 00 00 75 06 00 80 77 99 a6 01
       8.925e-41 3.6467e-41 -2.316e-42 6.119898e-38
000250 bc 3c 00 80 84 2f 1c 21 ae 06 01 00 01 6d 00 80
       -2.1787e-41 5.291774e-19 9.4232e-41 -3.9103e-41
000260 90 1d 01 00 a6 24 5b 3c 02 90 12 3d f3 aa b3 3c
       1.0244e-40 0.013375437 0.035781868 0.0219321
000270 c8 44 f3 3c 1e 00 53 3d d6 0a 1d 3d 9a 59 5b 3b
       0.029695883 0.051513784 0.038340412 0.0033470155
000280 6b 10 d3 3c 0d 29 44 3c 09 96 e1 88 e6 1a 00 00
       0.025764665 0.011972678 -1.3576968e-33 9.65e-42
000290 6d 18 01 00 94 78 00 80 3f aa 00 80 f9 11 01 00
       1.00598e-40 -4.3255e-41 -6.1073e-41 9.8283e-41
0002a0 98 41 00 80 4d e0 27 2f 1b c6 00 80 fc 6b 68 bc
       -2.353e-41 1.5268249e-10 -7.1067e-41 -0.014185902
0002b0 92 77 ac bb f1 5e 30 bc e5 43 4f bc 54 2c 9e bb
       -0.0052632773 -0.010764823 -0.012650465 -0.0048270617
0002c0 6f 54 48 bc 66 75 97 bc 7a a3 48 bc df d7 9d bc
       -0.012227162 -0.018488597 -0.012246007 -0.019267974
0002d0 71 2b 45 bb 74 eb b2 3a 98 f9 1a ba 14 6e d5 3a
       -0.0030085708 0.0013650493 -0.0005911826 0.0016283416
0002e0 5d 68 d2 3b 80 7e 81 3b a9 aa 79 3a 32 30 c3 3b
       0.0064211325 0.0039518476 0.00095240265 0.005956673
0002f0 fb f2 52 3b 23 88 44 87 00 f9 79 06 ca 2c f0 0c
       0.0032188285 -1.4785408e-34 4.701463e-35 3.7004811e-31
000300 6b ff bb 06 9f 59 5f 05 e3 d0 a7 96 ee 71 fa 28
       7.0716885e-35 1.05018704e-35 -2.711213e-25 2.7804985e-14
000310 b2 29 b7 0c 2c 04 e6 86 5f 13 f7 b8 61 10 6a 3b
       2.822071e-31 -8.6522514e-35 -0.00011781486 0.003571533
000320 c1 95 aa bb f4 1d b3 3b ab bc 15 3c 91 76 cd 39
       -0.0052058403 0.005466217 0.00913922 0.00039188986
000330 5d 6d 1a 3b 9e c9 03 3c af df 8b b9 75 c3 01 80
       0.002356372 0.008043675 -0.00026678803 -1.61952e-40
000340 af 24 01 80 0b 11 00 00 da 3b 00 80 c6 52 01 00
       -1.04995e-40 6.114e-42 -2.147e-41 1.21529e-40
000350 af 72 38 86 0b a0 00 00 dd 37 01 80 e9 80 00 80
       -3.469081e-35 5.7413e-41 -1.11875e-40 -4.6244e-41
000360 c7 04 0e ac d1 7e c3 a9 c8 1d a3 2c a0 61 d7 2a
       -2.0182066e-12 -8.681739e-14 4.636045e-12 3.8259413e-13
000370 e2 53 cd aa 70 31 30 ab bd 40 cd ac 41 cd 8f 2c
       -3.647352e-13 -6.259637e-13 -5.833638e-12 4.087092e-12
000380 8e c3 86 ac e5 54 c3 3b 14 fc 2e 3c 52 e7 56 b9
       -3.83022e-12 0.005961048 0.010680217 -0.00020494804
000390 d5 fb b4 3b 0f 81 b7 3b e9 f6 1e ba d3 b6 00 ba
       0.005523185 0.005600102 -0.0006064014 -0.00049100554
0003a0 15 01 88 3a 40 ea a3 bb 82 83 2b bc 95 dd b9 3b
       0.0010376299 -0.00500229 -0.010468366 0.0056721666
0003b0 14 3e 12 3d 50 15 1b bd e1 2e a5 bc 83 89 09 3c
       0.035703734 -0.037862122 -0.020163955 0.008394602
0003c0 a6 6a 59 bd 99 e2 0c bd 0a eb 6c bb b7 7f 1a 3c
       -0.053080224 -0.034395788 -0.0036150836 0.009429864
0003d0 fe 70 c5 3b 49 07 96 3b 7a aa 23 3c 4a 2d bf 3b
       0.0060254326 0.004578505 0.009989375 0.0058342563
0003e0 e4 b3 0b 3c 0d c6 bc 3b f9 4e 65 3c 10 77 e2 3b
       0.008526776 0.005760914 0.013995879 0.006911166
0003f0 b9 00 f8 bb e1 41 87 3c 32 40 e6 bb 09 db 92 3c
       -0.0075684455 0.016510906 -0.0070266956 0.01792671

e_conv7.bias f4 [8]
000000 63 6c 1c 3c 3e 04 a1 bb 35 ac 24 3d ee fa a8 3c
       0.009547326 -0.004913836 0.040203292 0.020627465
000010 68 ee 89 ba d1 2a e1 3b 9d 3e ca bb 93 68 8b bc
       -0.0010523321 0.006871559 -0.006172015 -0.017017638
