snapshots/Epoch100.pth (torch, 304045 bytes, 14 tensors)

e_conv1.weight f4 [32, 3, 3, 3]
000000 5b f9 00 80 85 37 00 80 33 09 00 80 11 3e 00 80
       -8.9452e-41 -1.9917e-41 -3.3e-42 -2.2265e-41
000010 2a a3 00 80 4d a0 00 00 07 05 01 00 64 08 00 00
       -5.8532e-41 5.7505e-41 9.3639e-41 3.01e-42
000020 9b 29 00 80 ff 11 01 00 ef d7 00 80 2d fe 00 00
       -1.4925e-41 9.8291e-41 -7.7462e-41 9.1181e-41
000030 6d 15 01 00 11 12 02 80 b4 0a 00 80 30 b4 00 80
       9.9522e-41 -1.90152e-40 -3.84e-42 -6.4639e-41
000040 0a 3e 00 80 c6 89 00 00 33 5c 00 80 89 d6 00 00
       -2.2255e-41 4.9424e-41 -3.3075e-41 7.6961e-41
000050 d4 45 00 80 bd 10 00 80 bb 46 00 00 03 2b 00 00
       -2.505e-41 -6.005e-42 2.5373e-41 1.543e-41
000060 ab 54 01 00 0d 45 01 80 42 e9 00 80 d0 64 27 3b
       1.22209e-40 -1.16606e-40 -8.3677e-41 0.0025542267
000070 fd 57 80 3b 6b 1d ed bb 2b f5 86 3c 86 a2 59 3c
       0.003916739 -0.007236173 0.016474327 0.0132833775
000080 f1 be 9a 3c 10 55 1d 3d 16 13 e1 3c 45 a9 2b 3d
       0.018889876 0.0384112 0.027474921 0.041909475
000090 5d 89 04 3c 79 db d1 bb 9a 2a ce 3c 33 38 cd 3b
       0.008089391 -0.006404337 0.025166798 0.006262803
0000a0 8a e7 4a 3c 1e ec 95 3c eb 35 1c 3d 5d 71 19 3d
       0.012384305 0.018301066 0.038137358 0.037461627
0000b0 29 ee 0a 3d 6c 79 38 bc d0 e3 48 bc fb c3 e1 bc
       0.033918533 -0.011259418 -0.012261346 -0.027559271
0000c0 dd f5 07 bc c0 8b 53 bc 0d 4a 93 bc 0c 20 be bb
       -0.0082983645 -0.012911737 -0.017979646 -0.00580216
0000d0 e0 80 e7 bb 3c 92 a3 3c 2b ce 80 bc 0d e3 26 bd
       -0.0070649236 0.01996719 -0.015723309 -0.040743876
0000e0 af 9d af bc fa c9 e1 bb aa e1 ed bc 8b ab cd bc
       -0.021437494 -0.0068905326 -0.02903827 -0.025106212
0000f0 99 a1 2a 3a 91 fb 5b bc 55 55 7c bc d8 d8 2a ba
       0.0006509065 -0.013426677 -0.015401204 -0.00065172976
000100 ab 75 04 3c cf d1 93 3b c1 1a f0 3a d6 7a e4 3b
       0.008084695 0.004511095 0.001831852 0.006972651
000110 27 d5 76 3b b4 1b 2d 3d c8 7d aa 3c 39 22 61 bc
       0.003766367 0.042262748 0.02081193 -0.0137410695
000120 ac 8a 12 3d 73 cd 1d 3d 1e 18 0f 3d 18 c2 3a 3d
       0.03577678 0.03852601 0.03493511 0.04559526
000130 ab 3c 0d 3d 47 3e 2e 3d ef a7 45 3d 35 b7 e7 3c
       0.034481686 0.04253986 0.048255857 0.028285602
000140 d2 1e e5 3c a7 e4 04 bc 32 a3 06 3c a4 a1 16 3c
       0.027968798 -0.008111156 0.00821762 0.009193812
000150 5f 41 d9 bc 53 70 08 bc 61 2f 04 3c 50 c8 d6 bc
       -0.02652043 -0.008327561 0.008067937 -0.026218563
000160 92 5e 4e bc 5d 08 e6 3c a7 31 e9 bc fd 5e 8f 3b
       -0.0125957895 0.02808016 -0.028466059 0.004375337
000170 55 69 41 3c 96 78 94 bc 29 bc be bb ce 43 1d 3c
       0.011804898 -0.018123906 -0.0058207703 0.009598685
000180 10 17 15 bd ae 52 8f 3b e8 47 da 3c a2 06 c3 bb
       -0.036398947 0.00437387 0.026645616 -0.0059517184
000190 33 81 20 3b 45 e3 d2 ba 5d 0b 2c bc c6 bf 17 3c
       0.0024491071 -0.001608946 -0.010500756 0.009262031
0001a0 c8 42 58 3b 70 e2 d5 bc c6 e3 49 3b 3a 73 e3 3c
       0.003299879 -0.02610895 0.003080593 0.027764905
0001b0 2f 38 cd 3c ed 49 c3 3c 1d 8b 88 3d b9 56 4f 3c
       0.025051204 0.023838961 0.06667159 0.012654954
0001c0 17 5a da 3b 58 aa 2a 3d 8f 56 01 bb 1c e2 98 bb
       0.0066635716 0.04166636 -0.001973543 -0.004665626
0001d0 5f 01 ed 3c d0 31 cf 3c c1 43 cc 3c 6b 67 7b 3d
       0.028931318 0.025292307 0.024934651 0.061377924
0001e0 7b 8f 4c 3b 47 69 76 bb ed d4 b7 3c ec 6e ab bb
       0.003121345 -0.0037599371 0.022440398 -0.005231729
0001f0 db f1 04 3c 18 a3 0e 3d 1c 2e 59 3c 00 23 d1 3b
       0.008114303 0.034823507 0.013255622 0.006382346
000200 5b 13 28 3d b8 a4 94 bc 1c c9 81 bc 79 ad 2d 3c
       0.041034084 -0.01814495 -0.015842967 0.010600441
000210 64 c8 f8 bc a2 7d 6d bc a1 0a 0a 3c 20 53 01 80
       -0.030368991 -0.014495285 0.008425386 -1.21655e-40
000220 59 95 00 00 40 46 00 00 34 aa 01 00 35 ef 00 80
       5.3576e-41 2.5201e-41 1.52893e-40 -8.5811e-41
000230 64 42 01 80 2e 6f 00 00 70 3d 01 80 22 35 00 00
       -1.15652e-40 3.9884e-41 -1.13875e-40 1.906e-41
000240 76 28 00 00 28 b4 00 00 d4 8c 00 80 c5 1b 00 00
       1.4515e-41 6.4628e-41 -5.052e-41 9.962e-42
000250 e5 f2 00 80 37 e2 00 00 5b 31 00 80 f0 05 01 00
       -8.7134e-41 8.115e-41 -1.7705e-41 9.3965e-41
000260 93 15 00 00 db e6 00 00 65 1a 00 00 4f a8 01 80
       7.74e-42 8.2815e-41 9.469e-42 -1.52213e-40
000270 d5 47 00 80 49 5f 00 00 ee 61 00 00 dc 6a 00 80
       -2.5768e-41 3.4182e-41 3.513e-41 -3.8334e-41
000280 9b 97 00 00 ae 90 00 80 d4 39 5d 3d 23 4c 89 3c
       5.4386e-41 -5.1901e-41 0.054010227 0.016759938
000290 a2 4e b9 bc d2 54 13 3d 4c 65 58 3c d2 b1 14 bd
       -0.022620503 0.035969563 0.013207745 -0.036302395
0002a0 de 95 11 3d 46 87 94 39 75 fe 13 bd c0 22 5c 3d
       0.035543315 0.00028329546 -0.03613134 0.053744078
0002b0 5f dd eb 3c 46 d7 13 bd 6e a7 08 3d 17 53 48 3c
       0.028792081 -0.036093973 0.0333628 0.012226841
0002c0 8f e9 9f bc ab ac c9 3c cf b6 d2 bc 63 41 77 bd
       -0.01952055 0.024618467 -0.025721936 -0.060365092
0002d0 26 42 bf 3c ce ec 69 bb a1 12 d5 bc 66 42 6a 3c
       0.023346972 -0.0035694125 -0.02600986 0.014298057
0002e0 f7 04 aa 3b 67 ec a3 bc 35 15 fd 3c 6c 62 8a bc
       0.00518858 -0.020010186 0.030893901 -0.016892634
0002f0 f1 d8 67 bd 35 03 00 80 63 5a 00 80 a5 02 00 00
       -0.056603376 -1.15e-42 -3.2425e-41 9.49e-43
000300 46 80 00 80 87 c1 00 00 a4 dd 00 00 2c e2 01 80
       -4.6016e-41 6.9425e-41 7.951e-41 -1.7297e-40
000310 86 30 00 00 7a 9e 00 80 4d fc 00 00 0d 14 01 00
       1.7407e-41 -5.685e-41 9.0508e-41 9.9028e-41
000320 0a 5d 00 80 e3 db 00 80 8c 95 00 00 7b d1 00 00
       -3.3376e-41 -7.888e-41 5.3647e-41 7.5147e-41
000330 3b d4 00 80 e3 de 00 80 4a 3f 01 80 cf d9 00 00
       -7.6134e-41 -7.9957e-41 -1.1454e-40 7.8135e-41
000340 a1 4c 00 00 83 40 00 00 f3 22 00 80 4b 96 00 80
       2.7489e-41 2.3142e-41 -1.2537e-41 -5.3915e-41
000350 96 3f 00 80 f4 0b 01 00 bf 7f 00 80 56 df 00 00
       -2.281e-41 9.6123e-41 -4.5827e-41 8.0118e-41
000360 ea df 00 80 18 5b 00 80 a3 b6 00 00 79 08 00 80
       -8.0325e-41 -3.2678e-41 6.5518e-41 -3.04e-42
000370 51 94 00 80 f2 66 00 00 56 f4 00 80 95 d1 00 80
       -5.3206e-41 3.693e-41 -8.7651e-41 -7.5184e-41
000380 7b 15 00 80 16 60 00 80 fb 67 00 80 9a d4 00 80
       -7.706e-42 -3.4469e-41 -3.7301e-41 -7.6267e-41
000390 89 e7 00 80 c9 bd 00 80 a9 9e 00 00 ba bc 00 00
       -8.3059e-41 -6.8082e-41 5.6917e-41 6.7702e-41
0003a0 d1 99 00 80 bc 7f 00 00 9d 3a 01 00 82 7d 00 80
       -5.5179e-41 4.5822e-41 1.12862e-40 -4.5024e-41
0003b0 d9 1f 00 80 66 12 01 80 a1 13 00 80 51 bc 00 00
       -1.1425e-41 -9.8436e-41 -7.042e-42 6.7555e-41
0003c0 8b 80 00 00 9c 95 00 00 0a 5a 00 00 6b ee 68 bd
       4.6113e-41 5.367e-41 3.23e-41 -0.056867998
0003d0 9b d0 f0 bc e9 08 64 bd 7e a4 00 bd 73 32 8f bc
       -0.029396346 -0.05567256 -0.031406872 -0.01748011
0003e0 7f 98 97 bc 0a 3f 54 bc fd 85 6c 3c 78 1a 13 3c
       -0.018505333 -0.012954483 0.014436242 0.008978479
0003f0 1b 4c 55 bd 6b 25 68 bc 73 37 1a bd 61 c8 a8 bc
       -0.052074533 -0.014169077 -0.037650537 -0.02060336

e_conv1.bias f4 [32]
000000 44 db d0 a5 e5 98 82 3d 78 63 a2 3c ac 02 ef 3d
       -3.6230828e-16 0.063768186 0.019822821 0.116704315
000010 95 be 72 3d 31 01 9f 9e ab cc 8a 3d 34 02 ee ad
       0.059263784 -1.6835273e-20 0.067773186 -2.7058446e-11
000020 b3 4f f5 ac a9 ab 9e 3d 70 7a 2a ab d6 60 89 9c
       -6.972167e-12 0.07747585 -6.056605e-13 -9.090931e-22
000030 b3 b0 2d bc 1f 84 78 3d 62 03 25 a7 ae d0 1a 3e
       -0.01060121 0.060672875 -2.2900184e-15 0.15118667
000040 27 e4 f9 3d 4d 13 c4 3d 04 b6 38 3e d8 25 21 3e
       0.1220172 0.09573994 0.18038183 0.15737092
000050 43 83 44 97 d6 80 19 3e 39 20 7e bc 1e 22 f0 3d
       -6.349669e-25 0.14990553 -0.015510612 0.11725257
000060 b9 34 e5 a7 8f 15 9f 8b da 8e 01 3d bb e8 58 98
       -6.361743e-15 -6.127701e-32 0.031630374 -2.8034845e-24
000070 6a 2e 0f b0 dd 3a 2f bc 86 b3 e1 3d 2a a3 43 a3
       -5.2089055e-10 -0.010695186 0.110205695 -1.06055225e-17

e_conv2.weight f4 [32, 32, 3, 3]
000000 03 00 01 00 08 7e 00 00 45 15 00 80 e9 42 00 80
       9.184e-41 4.5211e-41 -7.63e-42 -2.4003e-41
000010 e9 c7 01 00 f4 da 00 00 1a 9f 00 00 57 35 01 00
       1.6355e-40 7.8546e-41 5.7075e-41 1.1097e-40
000020 d0 f3 00 00 ba 9f f0 3b b5 e0 7f bc 64 ce 43 3b
       8.7463e-41 0.0073432596 -0.015617539 0.0029877657
000030 80 19 67 bb a4 91 78 ba 90 0b c4 bb 01 9a 2a 3c
       -0.0035263002 -0.00094821514 -0.0059828237 0.010412694
000040 83 36 ba 3c 18 d8 58 3a 65 05 f6 bb 1f 96 15 bc
       0.022731071 0.00082719466 -0.0075079673 -0.00913003
000050 1f ae cc bb a2 38 4a 3b 28 49 90 bb 63 2c 82 bb
       -0.006246343 0.003085651 -0.004403252 -0.0039725765
000060 05 a1 98 3b c6 57 ef 3a d5 a9 98 3b f1 39 ac bc
       0.004657867 0.0018260411 0.0046589174 -0.021023722
000070 2f 9d 83 3c 81 9d f8 3c ba 31 47 bc c7 43 a0 bb
       0.016066162 0.030348541 -0.012157852 -0.004890892
000080 60 e2 7a bb da 1d f5 bc d9 a6 8b 3b 4b c4 70 3c
       -0.0038281903 -0.02992146 0.004261833 0.014695237
000090 a1 f4 9e 38 d7 04 02 bb bc 7a 09 ba 93 88 14 3c
       7.579593e-05 -0.001983931 -0.0005244424 0.009065765
0000a0 08 c9 42 bc 34 e8 b6 3b 70 08 2f 3c 36 c7 69 bc
       -0.01188875 0.00558188 0.010683164 -0.014268687
0000b0 99 13 04 bc 12 7c 00 80 d7 21 00 00 a6 07 00 80
       -0.008061313 -4.4508e-41 1.214e-41 -2.744e-42
0000c0 fe ed 00 80 08 52 01 80 07 93 00 00 83 22 00 00
       -8.5376e-41 -1.21263e-40 5.2743e-41 1.238e-41
0000d0 eb 67 00 00 65 cd 00 00 54 9b b3 3a e6 02 d0 3b
       3.7279e-41 7.3682e-41 0.0013702908 0.006348002
0000e0 e0 15 2c bb b3 c3 2d bb c6 96 78 3b e0 c3 a2 3b
       -0.0026258156 -0.002651435 0.0037931665 0.004967198
0000f0 de 9f ad 3b ec 69 bb 3b 72 b5 45 3c b9 d1 01 80
       0.0052985987 0.005719414 0.012067186 -1.6707e-40
000100 b0 87 00 80 9c e6 01 80 49 ef 00 80 dc 4a 00 00
       -4.8676e-41 -1.74563e-40 -8.584e-41 2.6854e-41
000110 eb 67 00 00 4f c6 00 80 bd 33 00 00 d3 fa 01 80
       3.7279e-41 -7.114e-41 1.856e-41 -1.81814e-40
000120 f0 f6 00 00 54 1c 01 00 af b7 00 00 f2 53 00 00
       8.8584e-41 1.01998e-40 6.5893e-41 3.0114e-41
000130 e4 a8 00 80 c4 d2 00 80 e4 71 00 80 9e 01 01 80
       -6.0587e-41 -7.5608e-41 -4.0856e-41 -9.2416e-41
000140 b9 d6 00 00 52 df 0b 3c 58 93 ae 3a 9a b5 09 3c
       7.7028e-41 0.00853713 0.0013319058 0.008405114
000150 09 31 2a bb 02 cc 4e 3b 67 2d b9 3b 51 24 b4 3a
       -0.0025969169 0.0031554704 0.0056511643 0.0013743733
000160 d5 d1 15 3a 27 cb 83 ba 36 11 01 80 ea c1 00 00
       0.00057151663 -0.0010055051 -9.801e-41 6.9563e-41
000170 38 da 00 00 b2 1b 00 80 2f ac 00 80 a2 05 00 00
       7.8282e-41 -9.935e-42 -6.1768e-41 2.02e-42
000180 4f a5 00 80 e9 23 00 80 65 ab 00 00 7f cc 00 00
       -5.9302e-41 -1.2882e-41 6.1485e-41 7.336e-41
000190 24 df 00 00 d3 07 01 80 d6 56 00 00 29 57 00 80
       8.0048e-41 -9.4642e-41 3.1151e-41 -3.1267e-41
0001a0 f2 ba 00 80 8f c3 01 00 2d 4a 00 00 14 91 00 80
       -6.7063e-41 1.61989e-40 2.6609e-41 -5.2044e-41
0001b0 76 dc 48 bb d4 e7 3d bb 49 4b 09 bb 29 ac 5e 3a
       -0.0030648983 -0.0028977292 -0.0020949414 0.0008494282
0001c0 8d a9 e6 39 29 56 39 3a 29 cd e9 3a 0f c9 9f 3a
       0.00043995344 0.0007070029 0.0017837632 0.0012190657
0001d0 17 55 55 3a 06 50 03 3b 58 54 0f 3c 3e 22 65 3b
       0.00081379846 0.0020036711 0.008748136 0.0034963037
0001e0 02 d5 6d 3b fc 97 05 3b 20 f7 3d 3b 7d 04 d2 ba
       0.0036290293 0.002038478 0.002898641 -0.0016023066
0001f0 52 1d b9 3b 4b c0 ca 3a 92 c3 00 80 34 e2 00 80
       0.005649247 0.0015468685 -7.0157e-41 -8.1146e-41
000200 a2 cb 00 80 90 d9 00 00 44 9b 00 00 33 96 00 00
       -7.305e-41 7.8047e-41 5.5699e-41 5.3881e-41
000210 2b 3f 00 00 5a d5 00 80 38 a5 00 00 04 75 be 3b
       2.266e-41 -7.6536e-41 5.927e-41 0.005812289
000220 d2 35 37 3c 9a 76 8c 3b bf d0 5f 3c 88 fe 74 3c
       0.011182265 0.0042865993 0.013660609 0.014953263
000230 ef d0 4e 3c 61 e3 ff ba 41 a7 7f bc ec 02 bc bb
       0.012623056 -0.001952272 -0.015603841 -0.005737653
000240 6a 85 43 bc ff 0e 70 bc f5 24 ae bb 38 74 83 bc
       -0.011933664 -0.014652013 -0.005314464 -0.016046628
000250 3d 5f 50 3c 9b 38 6c 3c 01 2f c8 bc c1 07 a3 3a
       0.012718019 0.014417793 -0.024436476 0.0012438224
000260 65 dc 0d 3a 04 1e 57 3c ac a2 6c 38 da f8 10 3b
       0.00054115645 0.013129715 5.6418285e-05 0.0022120983
000270 5f 25 65 bb a0 28 f5 3b cd e3 a5 3b 0c bd 8a 3b
       -0.0034964902 0.0074816495 0.0050625564 0.004233962
000280 e9 be 33 3c fb 0d 5b 3c 4b 05 46 3a 66 a3 9d bc
       0.0109708095 0.013370032 0.00075538893 -0.019242954
000290 4b b0 5a bc b5 9e d0 ba 7b 6e 63 3a 7d bc 83 3c
       -0.013347696 -0.0015916439 0.00086758257 0.01608109
0002a0 f4 63 fb bc 7c 5d 69 3c 05 2a f7 3c 3f 30 8d 3c
       -0.03068731 0.01424348 0.030171404 0.01723492
0002b0 b4 eb 87 3c 5f 86 93 ba e7 a7 df 3b c8 53 13 3c
       0.016591884 -0.0011255256 0.0068254354 0.008992143
0002c0 1c 3c 9e b9 dd 75 11 bc 93 3d c3 bb 87 96 c1 3c
       -0.00030180893 -0.008878198 -0.005958268 0.023631347
0002d0 16 6f 00 00 a2 05 01 80 6a da 00 80 fa 19 00 80
       3.985e-41 -9.3856e-41 -7.8352e-41 -9.319e-42
0002e0 63 35 00 00 9f 93 00 80 fc 53 00 00 0c e0 00 80
       1.9152e-41 -5.2956e-41 3.0128e-41 -8.0373e-41
0002f0 61 50 01 00 e3 ed 8b bc 65 8a 3d 3c 3f 55 83 3c
       1.2067e-40 -0.017081207 0.01156864 0.01603186
000300 e0 38 7e bc ca 43 29 3d 81 91 e4 3c 34 e2 25 3c
       -0.01551649 0.041324414 0.027901413 0.010124732
000310 44 ec cd 3c 85 45 7f 3c 6f 9d 27 3b f0 f9 46 3b
       0.025137074 0.01558054 0.0025576015 0.0030361377
000320 b2 e3 9b bb 9f 75 1d bb 7a 7b 58 38 08 fd 3c bb
       -0.004757368 -0.0024026406 5.161341e-05 -0.0028837342
000330 e4 c4 02 bc 88 d6 5e 3b ae 28 ea bb 23 90 6a 3c
       -0.007981513 0.0034002382 -0.0071459627 0.014316591
000340 be 64 31 3c c1 19 95 3c f1 a3 18 3c ff 8a 87 3c
       0.010827241 0.018200757 0.00931643 0.01654577
000350 27 47 a0 3b 3f 71 ef bc 45 d4 9d 3c 16 7c 01 bb
       0.0048912945 -0.029228805 0.019266257 -0.00197578
000360 5d 72 00 80 a9 0b 00 00 4e e2 00 00 94 08 00 80
       -4.1026e-41 4.183e-42 8.1183e-41 -3.077e-42
000370 d7 da 00 80 11 55 00 80 b0 e5 00 00 46 ea 00 80
       -7.8505e-41 -3.0516e-41 8.2396e-41 -8.4041e-41
000380 5c 1e 00 00 d8 fd 00 80 8a 94 00 00 ed f6 00 00
       1.0891e-41 -9.1062e-41 5.3286e-41 8.858e-41
000390 85 49 00 00 93 5a 01 00 5c 8c 01 00 69 fe 00 80
       2.6374e-41 1.24327e-40 1.42187e-40 -9.1265e-41
0003a0 6e 2b 01 80 e6 6e 00 00 8e 2b 69 3b f1 5a 01 3b
       -1.07415e-40 3.9783e-41 0.003557894 0.0019738043
0003b0 31 fd 93 3b d9 e6 4f bb e8 56 78 bb cb 1f 49 bc
       0.0045162668 -0.003172329 -0.0037893597 -0.012275646
0003c0 7b 1f 56 3c f1 24 e9 bb d0 f3 8b bc 9b d6 00 80
       0.013069029 -0.0071149995 -0.017084032 -7.6986e-41
0003d0 f4 e4 00 80 94 1b 01 80 2a a0 00 00 cf d3 00 80
       -8.2133e-41 -1.01729e-40 5.7456e-41 -7.5983e-41
0003e0 47 ad 00 00 ed 28 00 80 ae 70 00 80 9a f5 00 80
       6.216e-41 -1.4681e-41 -4.0422e-41 -8.8105e-41
0003f0 89 a8 20 9b 3e fc 14 1b 87 9e 22 9b 6c 15 c2 9a
       -1.3289346e-22 1.2323777e-22 -1.3451549e-22 -8.027113e-23

e_conv2.bias f4 [32]
000000 65 5a 07 bd 49 11 05 b9 c5 e5 28 3d f3 12 32 bb
       -0.03304519 -0.00012690308 0.04123475 -0.002717194
000010 6d 84 1d 3d b3 c7 06 3d e1 cd c2 3a 59 88 30 3d
       0.03845637 0.03290529 0.0014862382 0.04309878
000020 32 c0 5f 3d 09 f2 10 3d 56 fb d6 bc ed 67 9a b7
       0.05462665 0.035387073 -0.026242893 -1.8406625e-05
000030 6b 53 94 ac d2 0e 05 bc 98 d3 21 3c 55 6f fa a9
       -4.2156743e-12 -0.008121209 0.009877108 -1.1121543e-13
000040 eb fc 01 3d 31 de 3a 3c e8 2d 8c b9 2f 09 43 bc
       0.031735342 0.011405514 -0.00026737084 -0.011904045
000050 6d fa 83 b1 9c 9c 7b 3c aa 24 29 ba 22 d2 1c 3d
       -3.841072e-09 0.015357163 -0.0006452302 0.038286336
000060 c9 1a 01 ab 62 49 5e 3d eb f0 3d 3d 3d 99 94 b8
       -4.586718e-13 0.054269202 0.046372335 -7.085733e-05
000070 2e da dd ad b3 d8 d1 39 72 7c 3d ba 43 b6 4d 3d
       -2.5221682e-11 0.0004002504 -0.00072283216 0.050222646

e_conv3.weight f4 [32, 64, 3, 3]
000000 e6 28 00 00 04 12 00 80 2c 15 01 80 70 5a 00 80
       1.4672e-41 -6.463e-42 -9.943e-41 -3.2443e-41
000010 6c eb 00 00 e9 ac 01 00 4c 23 00 80 ae dc 00 00
       8.4453e-41 1.53864e-40 -1.2662e-41 7.9165e-41
000020 25 d5 00 80 cc 75 35 b9 9a ab 52 3c cd 26 95 3c
       -7.6462e-41 -0.00017305388 0.012858296 0.018206978
000030 fb 75 05 bc 76 32 98 3b ba 72 0f 3c c0 98 d8 bc
       -0.0081458045 0.0046446873 0.00875538 -0.026440024
000040 8b b7 f6 bb bf 7d 04 bc 23 35 a2 bb f5 b7 d4 3b
       -0.0075292042 -0.008086621 -0.004950182 0.006491656
000050 88 8a df 3b 6c 0c b9 bb 73 43 a8 3b b9 39 95 3b
       0.006821934 -0.0056472328 0.0051349937 0.004554
000060 13 5e 4a bc d2 dc 90 bb 3b dc aa bb 11 07 c8 3b
       -0.012351531 -0.004420855 -0.005214242 0.006104358
000070 4d 82 ea 3b 98 85 11 3c da eb bd 3a e7 cc 6f 3b
       0.0071566463 0.008881949 0.0014489845 0.0036590637
000080 1e 5a 88 3b e3 0a 03 bc fc e5 33 bc 65 2c 7b bc
       0.0041611334 -0.007998201 -0.0109801255 -0.015330409
000090 98 30 fe 39 c4 f2 81 3c e0 7a 7c 3c 9c 8e a6 ba
       0.0004848286 0.01586283 0.015410155 -0.0012707296
0000a0 7a 4d 10 3c 37 a3 cb 3b 3a ba 64 bc 90 fb 0b bc
       0.008807534 0.006214525 -0.0139604155 -0.008543864
0000b0 cf 45 fe bb bc 5f 01 80 66 b6 00 00 5c 61 00 80
       -0.0077597867 -1.26179e-40 6.5432e-41 -3.4926e-41
0000c0 df 0e 00 80 80 f6 00 00 55 be 00 80 7f 53 00 80
       -5.335e-42 8.8428e-41 -6.8278e-41 -2.9953e-41
0000d0 6a 23 01 80 e8 ea 00 00 df d9 de 39 b2 e7 02 3c
       -1.0454e-40 8.4268e-41 0.00042505466 0.007989811
0000e0 f5 bd a0 3a 64 5d 81 3a 48 fb 59 3c 2a cf f2 3b
       0.0012263643 0.0009869752 0.013304539 0.00740995
0000f0 7f 73 ae bb d5 ce 88 3b 5a b9 c0 bb 8f 24 00 80
       -0.005323827 0.004175047 -0.0058814706 -1.3115e-41
000100 18 f8 00 00 3a c8 00 00 9a ae 00 80 9e 1a 01 00
       8.8999e-41 7.1828e-41 -6.2635e-41 1.01384e-40
000110 de fe 00 80 fa 01 00 80 3c 3b 00 00 20 2f 00 80
       -9.1429e-41 -7.09e-43 2.1249e-41 -1.6905e-41
000120 87 94 00 80 0b 2b 01 80 cb 2a 00 00 0b 6a 00 00
       -5.3282e-41 -1.07276e-40 1.5351e-41 3.8041e-41
000130 a9 f4 00 80 03 7c 00 80 15 25 00 00 be d6 00 00
       -8.7768e-41 -4.4487e-41 1.3303e-41 7.7035e-41
000140 99 12 01 80 8a ba 0f 3b 09 c7 67 3b d7 68 9e bb
       -9.8507e-41 0.0021931254 0.0035366437 -0.004834275
000150 8b c4 c0 3b c4 8a 93 3b 03 3d 58 bb e4 e5 ad ba
       0.0058828047 0.004502626 -0.003299535 -0.0013267365
000160 f1 12 60 bb 79 f0 fa bb 42 43 00 00 a3 17 00 00
       -0.0034190977 -0.007658061 2.4128e-41 8.479e-42
000170 c8 59 00 80 8d e3 00 00 78 3c 00 00 98 b2 00 00
       -3.2207e-41 8.163e-41 2.1692e-41 6.4067e-41
000180 a1 ab 00 00 fa dd 00 80 d8 0d 00 80 af 32 01 80
       6.1569e-41 -7.963e-41 -4.966e-42 -1.10017e-40
000190 45 21 01 80 0a e5 00 80 50 eb 00 00 d8 be 00 80
       -1.0377e-40 -8.2164e-41 8.4414e-41 -6.8462e-41
0001a0 35 06 01 00 44 c6 00 00 56 ff 00 80 83 89 00 80
       9.4062e-41 7.1124e-41 -9.1597e-41 -4.933e-41
0001b0 84 f5 fc ba 6c b5 46 ba 81 21 9e ba 2c 53 a5 b9
       -0.0019299244 -0.00075801346 -0.0012064428 -0.0003153322
0001c0 c9 33 a3 b9 fb 60 1f ba db 38 b3 39 3d c7 41 b8
       -0.00031128366 -0.000607982 0.000341839 -4.620034e-05
0001d0 ac 63 95 39 f4 1b ac bb e3 2c e1 ba de dd 74 bb
       0.00028493756 -0.0052523557 -0.0017179515 -0.0037363688
0001e0 2a 4b df bb d0 f3 39 bb fb 3e 8f bb d0 f1 50 bc
       -0.00681438 -0.0028374083 -0.0043715215 -0.012752965
0001f0 fe 8c 12 bc 70 af 2e bc 01 45 00 80 0a 51 00 00
       -0.008944748 -0.010661945 -2.4754e-41 2.9071e-41
000200 1b 37 01 80 1e 4b 00 00 ff da 00 80 f7 05 01 80
       -1.11604e-40 2.6947e-41 -7.8561e-41 -9.3975e-41
000210 61 ea 00 80 7d 33 00 00 23 86 00 80 74 68 87 bc
       -8.408e-41 1.847e-41 -4.8119e-41 -0.0165293
000220 a0 42 f3 3b 1e a7 88 3c 58 95 8b 38 ac 53 62 3b
       0.007423714 0.01668125 6.655854e-05 0.0034534736
000230 b9 d7 e1 3b 21 12 26 bd 2e 9d ba bc 3f 7f 6e bc
       0.006892171 -0.040544633 -0.022780027 -0.014556705
000240 34 e1 5f ba a3 df 05 3c 8b 88 89 3c 94 be 13 bc
       -0.0008540333 0.008170995 0.016788742 -0.009017605
000250 9e 6b 04 3c 37 8b 3e bb 0e c6 d8 bc 8e 68 0d bc
       0.008082299 -0.0029074678 -0.026461627 -0.008630885
000260 26 5f 0a bc f8 c1 11 3b f4 3f a9 3b 83 9d 0c 3a
       -0.008445537 0.0022240859 0.0051650945 0.0005364047
000270 54 d0 6b 3a 0b 36 e1 3b 1c 98 23 3b 11 49 04 bc
       0.0008995582 0.0068728975 0.002496249 -0.008074061
000280 87 67 36 bb 08 d1 11 bc db 6c f6 b9 ba 4e 6f 3c
       -0.0027832703 -0.008899935 -0.0004700188 0.014606172
000290 b3 83 94 3c b4 ca 9c 3a 62 ba d5 3a 71 86 a4 3c
       0.018129205 0.0011962266 0.0016306157 0.020083638
0002a0 c5 6c 0b bd e6 5d 84 bc 14 1b e6 bb 41 cf f0 3b
       -0.034039278 -0.016158056 -0.007022271 0.0073489253
0002b0 f4 4c 69 3b 31 ce fb 3b 82 04 c1 3a cb 74 25 ba
       0.0035598846 0.007684492 0.0014726075 -0.0006311654
0002c0 69 26 07 bc a0 07 8c bc 18 1f 52 bc f7 10 2c bc
       -0.008248904 -0.01709348 -0.012824796 -0.010502092
0002d0 bb 0b 01 80 b4 07 00 80 aa 11 00 80 77 20 01 80
       -9.6044e-41 -2.763e-42 -6.337e-42 -1.03482e-40
0002e0 b2 01 01 80 7a 2c 01 00 4c 15 00 80 31 e4 00 80
       -9.2444e-41 1.0779e-40 -7.64e-42 -8.186e-41
0002f0 f2 7b 00 80 00 fd 0d bb ef 70 94 3b f2 3a a2 3a
       -4.4463e-41 -0.0021665692 0.0045300643 0.0012377186
000300 2c 9c 0a bb 8f 4f 22 3c db cc 4c 3c fc 6d b4 bc
       -0.0021150215 0.009906664 0.012500013 -0.0220251
000310 7f 48 99 bc 27 e6 9c bb 4b 81 9f bb b7 ab b6 3b
       -0.018711327 -0.0047881785 -0.004867708 0.005574669
000320 55 72 87 3c 6e 66 71 bc c1 ae 15 bb fd 10 06 3c
       0.01653401 -0.014733894 -0.0022839757 0.008182761
000330 37 2a b9 bc 5d 0e 35 bc c1 6d 1b bb 27 ca 53 bb
       -0.022603137 -0.011050788 -0.0023716541 -0.0032316537
000340 8b c9 e0 3b 8c 6f 34 3b 4f 27 cf 3a fd 9c 1a 3c
       0.0068599633 0.0027532307 0.0015804562 0.009436843
000350 09 4e 10 3c 37 16 57 bc 2f 44 ae bb 74 49 66 bb
       0.0088076675 -0.013127855 -0.0053181867 -0.0035138996
000360 3f 23 00 00 8d 78 00 80 14 34 00 80 87 32 00 00
       1.2644e-41 -4.3245e-41 -1.8682e-41 1.8126e-41
000370 e3 f8 00 80 29 82 01 80 cb 65 00 00 d4 13 00 00
       -8.9284e-41 -1.38528e-40 3.6516e-41 7.113e-42
000380 94 a7 00 80 d7 dc 01 80 01 d6 00 80 60 be 00 80
       -6.0116e-41 -1.71058e-40 -7.677e-41 -6.8294e-41
000390 8c 40 00 80 09 77 01 80 92 07 00 80 40 9c 00 00
       -2.3155e-41 -1.34537e-40 -2.716e-42 5.6052e-41
0003a0 5b c4 00 00 5a 36 00 80 ca 75 a7 bb 6a 83 0f 3b
       7.0439e-41 -1.9498e-41 -0.005110477 0.0021898397
0003b0 1b ca 44 3c c8 77 03 bc aa d5 9d 3c 43 c1 f3 3b
       0.012011076 -0.008024164 0.019266922 0.00743881
0003c0 de cd b3 bc a4 e0 33 bc 4a b9 16 bc 7d 84 00 00
       -0.021948751 -0.0109788515 -0.00919945 4.7528e-41
0003d0 e2 b3 00 80 14 e5 01 00 14 af 00 00 43 da 00 00
       -6.453e-41 1.74013e-40 6.2806e-41 7.8298e-41
0003e0 69 d9 01 00 a5 a7 00 00 3a 3a 00 80 a2 be 00 00
       1.69828e-40 6.014e-41 -2.0888e-41 6.8386e-41
0003f0 5c 59 47 9b 27 b9 a9 98 e2 1c 5c 1b b7 16 1c 9b
       -1.6489768e-22 -4.3872432e-24 1.8207306e-22 -1.2911357e-22

e_conv3.bias f4 [32]
000000 29 6b 1b 3d 26 9f f8 3c 01 ec 0a ba 6e 41 27 3c
       0.037943993 0.030349325 -0.00052994495 0.010208471
000010 60 9a 1c 3d 13 8a 21 a8 d7 d8 58 bc 9e fb a3 b8
       0.03823316 -8.967235e-15 -0.013235292 -7.819313e-05
000020 7d 04 0b 3d c5 b5 bc 3b 98 7e 05 3d 77 98 30 98
       0.033939827 0.0057589733 0.032591432 -2.2824442e-24
000030 dd 10 ae af b0 96 f7 a3 33 e2 d6 b8 6a 29 3f b9
       -3.1662398e-10 -2.6843612e-17 -0.00010246448 -0.00018230607
000040 a7 15 a6 3d 6c 74 58 bc 0a a1 88 3d ea 9a 0f bc
       0.081095986 -0.013211351 0.06671341 -0.008764962
000050 f8 92 a4 ae 85 5d 95 3c e0 8c 6c ba 99 08 23 bc
       -7.4839634e-11 0.01823307 -0.00090236776 -0.00995078
000060 d1 d0 50 3c 03 2c 32 bb 5f a0 b8 3b 52 d4 20 3d
       0.012745098 -0.0027186878 0.005634352 0.039264984
000070 d0 f7 ca ba 31 05 93 bc 84 4b 12 3d fd 10 92 bc
       -0.0015485231 -0.017946811 0.03571655 -0.017830366

e_conv4.weight f4 [32, 64, 3, 3]
000000 5c 60 50 bb 7b f9 26 3c 93 04 0d bd b8 44 8f 3b
       -0.0031795716 0.010191317 -0.03442819 0.0043722056
000010 4b 58 cb bb a9 a4 e7 bb f2 ea 4f 3c 21 2b 64 bb
       -0.0062055937 -0.0070691896 0.012690293 -0.0034815746
000020 30 60 3e bc 26 52 87 2b 1f e4 80 2b 87 29 71 2b
       -0.011619613 9.615128e-13 9.158263e-13 8.567803e-13
000030 0e 2e 6f 2b 5c 61 92 2b 37 41 52 2b f6 e6 7f 2b
       8.497377e-13 1.0400947e-12 7.469749e-13 9.091472e-13
000040 bf 4a 4e 2b 30 66 40 2b 1a 93 48 39 9b 5f 21 3b
       7.3289633e-13 6.8353916e-13 0.00019128286 0.0024623636
000050 dc d5 e9 3a ca d0 68 ba 1d 3a a2 3a 6c d2 61 38
       0.0017840224 -0.00088812097 0.0012376938 5.384015e-05
000060 9b c9 5a bb 6d 26 c1 ba a3 92 7f bb ec 36 7c 38
       -0.0033384326 -0.0014736183 -0.0038997314 6.0132632e-05
000070 ec ca 7b 38 9b c9 87 38 3f 90 72 38 77 2b 78 38
       6.003205e-05 6.4748536e-05 5.7831636e-05 5.9168287e-05
000080 c7 72 7a 38 02 c0 72 38 ba 51 6d 38 2c 0f 7b 38
       5.971154e-05 5.7876117e-05 5.6581317e-05 5.9857193e-05
000090 09 3c b5 ba 01 51 d4 bb d3 fa a3 bc 65 f8 61 bb
       -0.0013827096 -0.006479383 -0.020017063 -0.003448033
0000a0 8a 16 0d 3d 52 53 76 b9 90 de dc bc 85 6d d3 bb
       0.034445323 -0.00023491427 -0.026961595 -0.0064522647
0000b0 04 d9 b1 3a 1c 04 0b bb 30 85 92 39 4a ed 96 bb
       0.0013568704 -0.0021212166 0.00027946522 -0.004605924
0000c0 31 ac 03 3a 06 7b 07 3b 18 da 4e bb bf 52 44 3b
       0.0005022912 0.0020672693 -0.00315631 0.0029956547
0000d0 7c 0f 9b 3b 5e d3 05 38 8d 93 cf 3a 60 b2 10 3b
       0.0047320705 3.1906522e-05 0.001583682 0.0022078976
0000e0 c9 5c a4 3a 9a d6 ab bb c5 26 a0 3a a5 cb a9 ba
       0.0012539859 -0.0052440884 0.0012218585 -0.0012954368
0000f0 0c e2 c3 ba 56 2a c5 b7 cb 0e c2 b9 a2 7f 31 bc
       -0.0014944687 -2.3503944e-05 -0.00037013585 -0.010833653
000100 ac e9 62 bc 23 db a9 bc 7d 7e 96 bc 51 52 75 3c
       -0.013849657 -0.020734375 -0.018370861 0.014973239
000110 01 e4 f7 3b 5b 6d 08 bc de ca c1 3b 80 ce f7 bb
       0.007565022 -0.008326854 0.005914076 -0.0075624585
000120 90 70 7d bc c4 83 bb 3b 0d 43 25 3c b6 52 f1 bb
       -0.0154687315 0.005722495 0.010086787 -0.0073645962
000130 1c 7b c2 3c f5 8b ad bb 37 36 9f bb 8f 1a 0a bc
       0.023740344 -0.005296225 -0.004858758 -0.008429184
000140 94 ac 98 bc 5c 38 6f bc 94 96 ee 39 eb b6 92 bc
       -0.01863698 -0.0146008395 0.00045507087 -0.017909488
000150 c3 84 c0 3c db 28 28 bc c5 d9 49 3c 8f 50 7e 3b
       0.023500806 -0.010263647 0.012319987 0.003880534
000160 6c 7f 1e 3b d7 0f 24 bc a6 22 dc 3b 28 58 75 bc
       0.0024184836 -0.010013542 0.0067179976 -0.014974631
000170 25 28 c2 bb a0 c6 35 bc e2 18 55 3c 98 24 0e 3d
       -0.0059251958 -0.011094719 0.013006421 0.034702867
000180 71 60 0f bc b3 d0 5c 3c d2 79 eb 3a cc b7 2d 1a
       -0.008751021 0.013477492 0.0017965382 3.592403e-23
000190 59 b7 37 1a 4a 8b 9c 19 1b 0f 14 1a b2 33 a6 1a
       3.799162e-23 1.618628e-23 3.0617885e-23 6.873951e-23
0001a0 0f 5f 01 1a f3 b9 38 1a a0 c4 3a 1a 85 d9 1c 1a
       2.6753362e-23 3.8200517e-23 3.862273e-23 3.2435755e-23
0001b0 f8 89 49 90 e6 38 6c 92 6c ca 82 90 c7 aa 18 91
       -3.9746548e-29 -7.45386e-28 -5.158784e-29 -1.204331e-28
0001c0 34 c8 ff 90 92 19 3b 92 1a c4 16 91 03 20 00 92
       -1.0088823e-28 -5.9038314e-28 -1.1893342e-28 -4.0429136e-28
0001d0 b0 d6 3a 92 5f cb 28 bc c5 05 c9 3c 66 25 02 3c
       -5.8955874e-28 -0.010302394 0.024538884 0.007943487
0001e0 34 27 08 3c 1d 3f 78 3c 26 2e c0 bb ab 01 2b bd
       0.008310128 0.015151766 -0.0058648763 -0.041749638
0001f0 13 f0 bd 3c a6 a6 d0 ba c6 5b f8 ba cd eb 84 ba
       0.023185765 -0.0015918806 -0.0018948249 -0.0010141075
000200 4b 73 b5 ba 73 0a 29 ba 47 be 4e ba d6 97 19 bb
       -0.0013843564 -0.00064483954 -0.000788663 -0.0023436449
000210 d1 21 39 3a 8f 12 e1 b9 84 1a 49 bb b5 0c 00 80
       0.0007062229 -0.00042929171 -0.003068597 -4.558e-42
000220 7b 8b 00 80 be 24 00 00 3b 95 00 80 11 ae 00 80
       -5.0036e-41 1.318e-41 -5.3534e-41 -6.2443e-41
000230 71 63 00 80 07 7a 00 80 de dd 00 00 de a2 00 00
       -3.5673e-41 -4.3775e-41 7.9591e-41 5.8426e-41
000240 7a 39 7a 3b ce 0c 2b bd f9 27 aa bc fa 70 a7 bc
       0.0038181231 -0.04176026 -0.020771014 -0.020439614
000250 c3 12 d6 bc f4 a5 33 3c 1c bb 2f 3c 66 cd 6b 3c
       -0.026131993 0.010964859 0.010725763 0.0143922325
000260 71 8a db 3c 0c 35 f5 3a 5d 58 cb ba 37 bb a4 ba
       0.026799412 0.0018707826 -0.0015514005 -0.0012568001
000270 37 80 be 3a b8 25 0d bb 92 11 06 bb ed 6a a5 39
       0.0014534061 -0.0021537375 -0.002045725 0.00031550918
000280 98 b2 6f bb 9c 06 6f bb da 9d 16 a6 93 12 2d a6
       -0.0036574956 -0.0036472445 -5.2255633e-16 -6.0046605e-16
000290 17 ef e2 a5 ec db 78 a5 4e c7 3a a6 c9 95 18 25
       -3.9366764e-16 -2.1585084e-16 -6.480182e-16 1.3234648e-16
0002a0 96 ce d0 a5 2c d4 66 a5 7b 36 20 a6 2a 61 b7 bb
       -3.6222236e-16 -2.0021207e-16 -5.5584986e-16 -0.0055962997
0002b0 35 33 23 bc 66 b5 b8 3b f1 13 9e bb 19 77 b0 3b
       -0.009960939 0.0056368588 -0.0048241545 0.0053852913
0002c0 0e 95 89 bb ab bf 25 bb d4 a6 da 3b bc 26 c9 bb
       -0.004198677 -0.0025291245 0.0066727195 -0.0061386507
0002d0 db 76 ac 05 89 6b 0a 06 15 a9 3a 86 04 ea 67 06
       1.6218463e-35 2.603392e-35 -3.5106934e-35 4.36182e-35
0002e0 89 78 e1 85 f2 c1 69 05 83 9b 03 86 aa 0e 4d 06
       -2.1203176e-35 1.09912295e-35 -2.4752614e-35 3.8566988e-35
0002f0 c2 d0 80 06 08 87 70 3b d9 cf 56 b9 43 8f 16 bb
       4.845499e-35 0.0036701579 -0.0002048606 -0.0022973574
000300 12 87 30 3b 5e 74 97 ba 20 3b 8a bb bb ad a2 3b
       0.0026935977 -0.0011555066 -0.004218474 0.004964558
000310 0e 4a 9e 3a 8f 52 26 bb f8 41 5d b5 9e c7 57 b5
       0.0012076513 -0.0025378799 -8.242491e-07 -8.038422e-07
000320 0c 8a 4b b5 95 8d 47 b5 f2 a5 55 b5 6d 2e 55 b5
       -7.582428e-07 -7.4339306e-07 -7.9590166e-07 -7.941624e-07
000330 6d c2 49 b5 a6 f5 4e b5 7d 9f 4d b5 77 bb 12 bb
       -7.516126e-07 -7.7098446e-07 -7.6600537e-07 -0.002238957
000340 6c cd 47 bb 42 39 e5 ba 05 90 58 bb 8b 6e 2d 3a
       -0.0030487431 -0.0017488378 -0.0033044827 0.00066158985
000350 57 44 2b 3b 48 f5 36 bb e9 1a c0 39 cf 6e 2c ba
       0.0026133263 -0.0027917195 0.00036641143 -0.0006577791
000360 3f 0c 00 00 ed 08 00 00 0c 13 00 00 ce 33 00 00
       4.393e-42 3.202e-42 6.833e-42 1.8584e-41
000370 23 04 00 00 26 12 00 00 91 27 00 00 0a 05 00 00
       1.484e-42 6.51e-42 1.4194e-41 1.808e-42
000380 4f 10 00 00 32 ce 9f 39 c0 1b ee bb 15 87 b9 bb
       5.85e-42 0.0003048047 -0.0072664917 -0.005661855
000390 8a 18 ae 3b 19 2b 3a bb d6 fa 88 ba fa c8 8b 3b
       0.005312984 -0.0028407036 -0.0010450731 0.0042659016
0003a0 df aa 39 bb a2 d8 45 ba 63 89 21 3c 2a eb 57 bc
       -0.0028330607 -0.00075472344 0.009859416 -0.013178626
0003b0 dd ed b9 ba 45 b8 60 bb 03 93 a7 bb 36 5d f0 3b
       -0.0014185269 -0.003428952 -0.0051139607 0.0073353304
0003c0 00 ce 51 3c 0c 52 8c 3c 89 79 2a 3c 44 df 00 80
       0.012805462 0.017128967 0.010404953 -8.0093e-41
0003d0 10 8e 00 00 62 4c 00 00 8e ba 00 00 42 61 00 80
       5.0962e-41 2.7401e-41 6.6923e-41 -3.489e-41
0003e0 10 72 00 80 24 b1 00 80 a4 aa 00 00 cd 4e 00 80
       -4.0918e-41 -6.3546e-41 6.1214e-41 -2.8268e-41
0003f0 c4 55 8e 0e e2 47 49 0e 8c b8 e6 0d 1e f8 89 0e
       3.5088292e-30 2.4809773e-30 1.4219272e-30 3.4012036e-30

e_conv4.bias f4 [32]
000000 e8 34 07 3d 54 71 28 3b 27 ad 06 bc a3 8c e4 b6
       0.03300944 0.0025702314 -0.008219994 -6.811302e-06
000010 e7 fd 88 3c 92 69 84 3c 45 4f 58 3c 60 a7 98 3c
       0.016722633 0.016163621 0.013202493 0.018634498
000020 ea e7 15 ab 43 0a 3c a6 74 93 9c 3c dd 55 d4 3c
       -5.325728e-13 -6.523951e-16 0.01911328 0.025919849
000030 fa c8 c3 3c d1 b8 5a 3c cb 0a b9 3c a9 cb 4b 3c
       0.023899544 0.013349728 0.022588154 0.012438693
000040 54 f0 85 b8 43 22 87 3d 7d bd 22 b1 5e 58 02 3d
       -6.386699e-05 0.06598332 -2.3681814e-09 0.031822555
000050 fa c8 c2 3b 6b ad 1b a5 94 a3 c7 3c 31 6f 08 b0
       0.0059443684 -1.3502863e-16 0.024369992 -4.9634524e-10
000060 6f f4 9b ba c6 b4 16 3d 5a bd 37 ba 99 1f 02 3d
       -0.0011898408 0.036793493 -0.00070091116 0.031768415
000070 be a4 76 3d 1b ad ab 3c 15 e6 5b 98 32 4a ba 3c
       0.060215704 0.020956567 -2.8421248e-24 0.022740457

e_conv5.weight f4 [32, 64, 3, 3]
000000 d2 dd c0 39 f3 80 0f 3a eb f2 40 bb 58 29 97 3b
       0.00036786363 0.0005474232 -0.0029441665 0.004613083
000010 cd 5b 5f 3b a9 a1 2b ba c8 4c d5 3b df f3 c1 3b
       0.0034081817 -0.00065472216 0.006509397 0.0059189643
000020 91 9e 1a 3b a9 83 f8 3b 0f 23 73 3a 80 48 17 3b
       0.0023593048 0.0075840545 0.00092749385 0.0023083985
000030 52 56 9b 3b 3f 4c 3a ba e1 57 b8 39 f5 79 d7 3a
       0.004740515 -0.00071066985 0.0003516069 0.0016439544
000040 21 81 33 bb c4 a4 94 ba 10 d3 1d 17 ed 0c 16 97
       -0.00273902 -0.0011340608 5.0995834e-25 -4.848393e-25
000050 12 f1 e7 96 b9 64 31 97 b4 10 47 17 f0 be 8d 95
       -3.74722e-25 -5.7318914e-25 6.432145e-25 -5.725069e-26
000060 57 50 19 17 2a 11 61 17 12 1f f9 96 9c be 1f 3c
       4.953837e-25 7.2723085e-25 -4.0247728e-25 0.009750035
000070 d6 ab e7 b9 17 6f 67 3c 54 8e 5a 3b b3 04 1d 3c
       -0.0004418778 0.014125607 0.0033348994 0.00958364
000080 60 c4 50 3c 31 a9 1c bb f3 c3 33 3c e7 63 3f 3c
       0.012742132 -0.0023904557 0.010972011 0.011681533
000090 82 9f 18 3c 7d a8 d2 3b eb 70 f7 3a 27 c8 36 3c
       0.009315373 0.006428777 0.0018878257 0.0111561185
0000a0 76 0d 72 bb 7f 3d 89 3b f3 54 64 bc 44 f4 1d bc
       -0.0036934293 0.004188239 -0.013936269 -0.009640757
0000b0 d0 86 81 bc 9f 43 33 26 8f fe 3f a7 7f ce 19 a7
       -0.015811354 6.2194744e-16 -2.6644571e-15 -2.1344957e-15
0000c0 45 a5 3d a7 c1 b4 3e a7 a0 be e7 25 2c f9 83 26
       -2.6318612e-15 -2.6465784e-15 4.0201285e-16 9.157489e-16
0000d0 dd eb 06 a7 b8 8b a4 26 3b 8c 61 3b 43 1b 29 3c
       -1.8724097e-15 1.1417657e-15 0.003441586 0.010321441
0000e0 d4 9c 25 3c c3 9c e3 3a b5 46 e3 3b 44 c8 0a 3c
       0.0101081915 0.0017365444 0.006935919 0.008470599
0000f0 a4 11 06 3b f5 d3 c6 3b 65 dc 1a 3c b1 a5 b6 8b
       0.0020457292 0.0060677477 0.00945196 -7.0353155e-32
000100 e4 ca e2 8b 62 7a 90 8c b3 bb a5 8b c3 ae 28 8c
       -8.735731e-32 -2.226037e-31 -6.3838107e-32 -1.299484e-31
000110 c9 93 ca 8b 0d 6c 69 8b a0 c3 36 8c 47 87 5c 8b
       -7.802993e-32 -4.4955456e-32 -1.4079639e-31 -4.247223e-32
000120 c9 a0 b1 bc 9e 08 4f 3c 0b aa b9 bc 71 2b 9c bc
       -0.021683114 0.012636332 -0.02266409 -0.019063683
000130 e0 a1 c4 3c b3 fa 5e bc 4b 62 17 3c 97 85 8a bc
       0.02400297 -0.013609576 0.009239743 -0.016909404
000140 0f db 2d 3c 0e 36 61 3c 9b f8 c5 ba fe 43 fc bb
       0.01061131 0.013745798 -0.0015103997 -0.007698535
000150 fb 4f da 3b 8d 5c 64 bc 9a 0f 83 bb 42 f0 b8 bb
       0.0066623664 -0.013938081 -0.0039996626 -0.0056438753
000160 e7 bc 13 39 9b 38 84 ba 32 2f 79 bb d6 c4 1c 3b
       0.00014089384 -0.001008767 -0.0038022515 0.0023921034
000170 90 ed 62 3c 36 f1 5c bb d0 5e 88 3a e5 b0 67 3c
       0.013850585 -0.003371311 0.0010404233 0.014141296
000180 95 05 08 3a 24 fa 0d 3c 8d 45 cf 3c 84 d1 00 80
       0.000518882 0.008665595 0.02530172 -7.516e-41
000190 68 84 01 00 c2 a0 00 80 2c 10 01 00 6c f4 00 00
       1.39334e-40 -5.7669e-41 9.7637e-41 8.7682e-41
0001a0 fa b3 00 80 ea ab 01 80 c0 b2 00 00 b0 97 00 00
       -6.4563e-41 -1.53507e-40 6.4123e-41 5.4415e-41
0001b0 1f c1 4d ae 66 8b 6b 2d 75 aa 56 2d b6 11 52 ae
       -4.678313e-11 1.3389156e-11 1.2202341e-11 -4.7764202e-11
0001c0 9c 96 8e 2c 31 51 d0 ad f9 99 08 2d ae dd 98 ad
       4.0526037e-12 -2.3682918e-11 7.764894e-12 -1.7378845e-11
0001d0 03 a0 0e ac 18 c6 00 80 79 6d 00 80 e2 ac 00 00
       -2.0268238e-12 -7.1063e-41 -3.9271e-41 6.2019e-41
0001e0 9b 9d 00 80 46 45 00 00 d9 8f 00 00 5d 52 00 00
       -5.6538e-41 2.485e-41 5.1603e-41 2.9546e-41
0001f0 6d 97 00 80 00 be 00 00 b0 d3 07 94 75 d2 16 14
       -5.4321e-41 6.8159e-41 -6.857506e-27 7.61457e-27
000200 1b 76 36 94 d1 04 46 13 c8 0d bd 13 e8 d3 12 14
       -9.211944e-27 2.4993488e-27 4.7723897e-27 7.4129074e-27
000210 81 ad 43 14 1e c2 60 94 e6 50 23 14 91 9c 00 80
       9.879202e-27 -1.1347393e-26 8.245351e-27 -5.6165e-41
000220 db 8e 00 00 47 ff 00 00 fe 06 01 80 a2 89 00 00
       5.1247e-41 9.1576e-41 -9.4344e-41 4.9373e-41
000230 cd 08 00 00 47 c8 00 00 99 7f 00 00 0f 85 01 80
       3.157e-42 7.1846e-41 4.5773e-41 -1.39568e-40
000240 08 cf da bb 7b 70 90 bb 46 09 3f bb 65 50 ee bb
       -0.006677512 -0.00440794 -0.0029149815 -0.0072727674
000250 05 db 68 bb 95 83 15 bb e0 34 f7 b9 48 0c 7e 3b
       -0.0035530936 -0.0022814025 -0.00047150906 0.0038764644
000260 7c d9 63 3b 28 9d 1b bc ab 48 05 3b 58 04 0b 3c
       0.0034767082 -0.009497918 0.0020337503 0.008484922
000270 ec 12 88 39 26 1e 53 3b 4a 18 bb bb 09 34 6b 3b
       0.0002595404 0.0032214015 -0.0057096826 0.003588917
000280 8e 1a e2 bb dc 98 0f bc 2b 07 3e bb 16 c8 12 ba
       -0.006900138 -0.008764472 -0.0028995972 -0.0005599273
000290 64 71 20 3b a9 db 78 ba 36 3d 3c 3b c9 57 c4 3b
       0.0024481649 -0.0009493181 0.0028723008 0.00599191
0002a0 55 de 2b 3a bb 10 83 3b cd 82 9c 3b fa 79 1d bc
       0.00065562624 0.003999797 0.004776335 -0.009611601
0002b0 0f 07 d5 3b 38 19 88 3c 95 d6 4a 3c 12 6f 80 3b
       0.0065010856 0.016613588 0.012380262 0.0039194906
0002c0 70 73 2d 3b 5c fa 24 bc 4b e0 5a bb 8b b4 4c 3b
       0.0026466511 -0.010069456 -0.003339785 0.0031235542
0002d0 ec 55 96 ac 1d af 90 ac ad 5c da 2c dc a1 16 2d
       -4.2727957e-12 -4.1121676e-12 6.2062217e-12 8.562453e-12
0002e0 61 e3 07 2c 7a 1f 72 ac 09 92 9b ab 1b 55 75 ab
       1.9310875e-12 -3.4407741e-12 -1.1053945e-12 -8.715959e-13
0002f0 9c b6 12 2d e0 7a c1 bb db 94 1a bb e3 af 5b bb
       8.339687e-12 -0.0059045404 -0.002358726 -0.0033521585
000300 17 db 83 b8 6b 57 d9 3a 9d 41 51 bc f6 82 35 b9
       -6.2873754e-05 0.0016581839 -0.012771991 -0.00017310292
000310 c0 44 24 3a ba 03 4d 3b fd 6d 2d b9 cc 8c 18 3b
       0.0006266348 0.0031282739 -0.0001653954 0.002327728
000320 62 42 59 3c 36 c2 d5 3b da 6e 07 3c 13 ff 06 bc
       0.013260456 0.006523396 0.008266175 -0.008239525
000330 01 87 62 bb 57 76 be bb bd 9d 67 bc c2 9c 8f bb
       -0.0034565332 -0.005812447 -0.014136729 -0.0043827007
000340 11 62 de 3b c1 c4 45 3b b5 83 57 3c 39 20 a6 bb
       0.006786593 0.003017709 0.01315396 -0.005069759
000350 d7 5c ea 3a dc 36 3a bc 0d 59 92 3c f9 53 4f bc
       0.0017880452 -0.011365619 0.017864728 -0.012654298
000360 10 59 22 3c 1b 51 87 3c d5 aa b1 bc 88 87 0d 3b
       0.0099089295 0.016518166 -0.021687904 0.0021595675
000370 fe 9c f7 bb 3a 2b cc bb 92 da 61 bc 09 48 97 bc
       -0.0075565567 -0.006230739 -0.013785021 -0.018466966
000380 2a 01 54 3a e5 6d 0f 37 47 03 db b6 e2 8e db b6
       0.00080873317 8.549051e-06 -6.52709e-06 -6.5433424e-06
000390 9d 4a c5 b6 47 8b b0 b6 d2 6e df b6 3e 68 db b6
       -5.8797436e-06 -5.2614228e-06 -6.658819e-06 -6.538844e-06
0003a0 05 7d b2 b6 35 05 ba b6 06 ef 4b 3b 57 57 2c 3c
       -5.3193676e-06 -5.543838e-06 0.003111781 0.01051887
0003b0 bf 82 43 3c 26 92 f7 3a 0f f0 08 3c d9 e0 13 3c
       0.011933028 0.001888816 0.008358016 0.009025776
0003c0 e7 4e ac ba ff f2 9e 3b 82 a2 c2 3b aa 4f 71 bc
       -0.0013146073 0.0048507447 0.0059397826 -0.014728466
0003d0 44 d7 33 bc dc 7b a8 bb 03 3e 12 bc 34 86 f0 3a
       -0.010976616 -0.0051417183 -0.008925918 0.0018350543
0003e0 b8 25 1a 3d 92 ac 2a 3c 47 9b 53 bc 48 05 1a 3b
       0.037633628 0.0104171205 -0.012915439 0.0023501683
0003f0 10 aa bd b3 91 60 b3 b3 83 04 b5 b3 55 50 ad b3
       -8.8319325e-08 -8.3529024e-08 -8.42929e-08 -8.0705526e-08

e_conv5.bias f4 [32]
000000 af 67 ac 3c 7b cf 97 b0 2d ef 13 bb b7 dd 08 3d
       0.021045534 -1.1045665e-09 -0.002257298 0.03341457
000010 81 8e 1d bb 06 89 cf 3b 97 d3 2d 3d 5c b8 e9 3c
       -0.0024041238 0.006333473 0.042438116 0.028530292
000020 9d db 88 3c 69 86 14 aa 97 22 2c 3d 02 69 eb 3c
       0.016706282 -1.3191674e-13 0.042025175 0.028736595
000030 28 b1 80 b9 0c 51 11 3a e1 4d d9 3c 64 88 09 3d
       -0.00024546054 0.0005543388 0.026526393 0.033577338
000040 36 f8 88 3b 4b 3e 3f 3b ed 7b c5 ba 5f 23 00 3c
       0.0041799797 0.0029181417 -0.001506684 0.007820933
000050 e4 54 d7 3c 3c f6 f2 3c 2d c7 28 3c 8d 54 53 a2
       0.026285596 0.02965843 0.010301393 -2.8640593e-18
000060 2b 54 a9 3c 90 53 ef b6 e7 5f c6 3c 6f 7c 1d 3c
       0.020670017 -7.132483e-06 0.024215652 0.009612187
000070 0e a0 37 3d fb 15 9a b2 52 ae 9e 9f fb 0a 3d b5
       0.044830374 -1.7937955e-08 -6.720399e-20 -7.0423965e-07

e_conv7.weight f4 [8, 64, 3, 3]
000000 f8 05 46 39 02 b5 15 ba b7 70 95 bb 5d 4e f9 3b
       0.00018884975 -0.0005710871 -0.004560556 0.0076082186
000010 49 0e da 3b 94 31 5c 3b bf 42 2a 3c c4 db 17 3c
       0.006654535 0.0033598887 0.01039189 0.009268705
000020 8f 2f a7 3b 1e 00 06 3b 59 41 0f 3a 84 7f 91 3b
       0.005102105 0.0020446847 0.00054647546 0.00444025
000030 65 2c 6b 3b 66 5e e9 3a 72 37 d2 3b ed be 14 3c
       0.0035884615 0.0017804622 0.006415301 0.009078723
000040 ce 55 1d 3c bd 54 68 3c 5a 4a 00 80 79 71 00 80
       0.009602977 0.014180359 -2.6672e-41 -4.0706e-41
000050 c0 99 00 00 4b 1d 01 80 f3 b7 00 00 63 51 00 00
       5.5155e-41 -1.02344e-40 6.5989e-41 2.9196e-41
000060 c5 f5 01 00 db 07 00 00 e1 ce 00 00 7d 8e bc 81
       1.80001e-40 2.818e-42 7.4214e-41 -6.9264754e-38
000070 b8 45 38 81 ed b8 0f 01 d0 19 db 01 4d 7e c9 01
       -3.3845483e-38 2.639763e-38 8.0484934e-38 7.401697e-38
000080 7c 4e 98 81 25 98 54 00 f5 ed 3c 01 1d 82 5c 80
       -5.59486e-38 7.768761e-39 3.4700872e-38 -8.495541e-39
000090 53 dc c6 b9 b7 6f 5b bb 3b 72 b8 bb f3 d7 9b 3b
       -0.00037929657 -0.0033483335 -0.0056288517 0.0047559678
0000a0 a8 c4 9d 3a 4b 37 de ba c2 8f b6 3b bb 58 f6 3a
       0.0012036758 -0.0016953734 0.0055713365 0.0018794754
0000b0 3b e2 ac ba 0f b5 27 bc ca 5a ee bb 55 dc d2 bb
       -0.001318998 -0.010236039 -0.0072740065 -0.006434957
0000c0 a4 9d 2b ba 3b a8 21 3b a4 5d 43 3b e0 b9 bc 3b
       -0.00065466226 0.0024666924 0.0029810453 0.0057594627
0000d0 68 17 17 3c 1e f0 15 3c c2 3b 82 3b ac 2e 40 3b
       0.009221889 0.009151487 0.003974409 0.0029324694
0000e0 56 88 b2 3b 39 f8 85 3b e7 71 60 3b 6e 19 d4 3b
       0.0054483814 0.0040884283 0.0034247579 0.006472758
0000f0 a2 c8 a8 3b 77 ed 9c 3b 06 0e fa 3b b2 99 5e bc
       0.0051508704 0.00478905 0.0076310663 -0.0135864485
000100 d6 8e cd bc 4f 4b 1d bd 61 70 be 3b d9 a4 cb bb
       -0.025092524 -0.038401898 0.0058117365 -0.0062147197
000110 46 e4 aa bc b8 86 81 3c 68 cf 03 bb 7c 6f 8d bc
       -0.020860802 0.01581131 -0.0020112637 -0.017265074
000120 88 b1 01 80 a4 e8 00 00 65 f6 00 00 f6 3c 01 80
       -1.55522e-40 8.3456e-41 8.839e-41 -1.13704e-40
000130 23 d1 00 00 c8 ff 00 80 d8 92 00 80 39 ce 00 00
       7.5024e-41 -9.1757e-41 -5.2678e-41 7.3979e-41
000140 cf cf 00 00 fe bc 00 80 14 98 00 00 48 00 01 80
       7.4548e-41 -6.7798e-41 5.4555e-41 -9.1936e-41
000150 8c 29 00 80 61 6b 00 00 23 74 00 00 ee ad 00 00
       -1.4904e-41 3.852e-41 4.1662e-41 6.2394e-41
000160 74 aa 01 80 e0 20 00 80 63 38 4f 3a c8 f3 40 bb
       -1.52983e-40 -1.1793e-41 0.00079048256 -0.002944218
000170 0e 75 23 ba fc 86 a3 3a eb 4e 20 bb 45 d7 c8 b8
       -0.0006235399 0.0012476142 -0.0024461101 -9.57684e-05
000180 a1 b8 d5 39 7f 7d 54 bb 41 22 6b ba 72 7a ef bb
       0.00040764085 -0.0032423434 -0.0008969643 -0.007308298
000190 61 ea 9e bb 76 fd 14 bc ef 5d 35 bb 29 ca 7c 39
       -0.0048497175 -0.009093633 -0.0027674397 0.00024107903
0001a0 2d 97 a3 bb 79 44 5f bb a6 7b a3 ba a7 6b bf bb
       -0.004992387 -0.0034067912 -0.0012472763 -0.0058416906
0001b0 55 28 0e ba 6b 07 2d 3c 7b d1 15 3b 5c ce 2d bb
       -0.000542288 0.010560851 0.0022860456 -0.0026520705
0001c0 82 72 05 3c 5e 55 d1 37 0d e6 c7 bb 2b 51 9d 3b
       0.008144977 2.4954494e-05 -0.0061004222 0.0048009357
0001d0 8b 18 6f bb 41 f4 92 bc c9 a1 b6 bc 9c cd 07 bc
       -0.0036483135 -0.017938735 -0.022293942 -0.008288767
0001e0 d9 65 81 bc 1a 00 ac bc 1c ee e3 bb 9a 1f 9a ba
       -0.015795635 -0.020996142 -0.006955875 -0.0011758686
0001f0 af bf ce bb 99 a3 0f 3c 61 b1 08 bb 3f 89 9d 3a
       -0.0063094716 0.008767032 -0.002085768 0.0012019052
000200 21 72 93 3a ea 22 8b ba c5 51 1e 3b 7f 90 4c 3b
       0.0011249223 -0.0010615264 0.0024157625 0.0031214056
000210 59 e9 fc 3a 4d 3a ba 3b 20 8a c4 3b c1 2c 53 bb
       0.0019295617 0.0056832195 0.005997911 -0.003222272
000220 a2 ec 78 bb 96 b7 4e bb 31 54 9a 3a 05 1c 7e 3a
       -0.003798284 -0.0031542531 0.0011774359 0.0009693506
000230 02 38 b9 3a 4f db 1a 3b da aa 25 3b 06 02 61 3b
       0.0014131072 0.0023629253 0.0025278837 0.0034333481
000240 f0 26 00 00 6e fb 00 00 2c 2a 01 00 84 39 00 00
       1.3968e-41 9.0196e-41 1.06964e-40 2.0633e-41
000250 87 5e 00 80 3d 24 00 00 71 4e 00 80 a5 b8 00 80
       -3.391e-41 1.3e-41 -2.814e-41 -6.6238e-41
000260 fd 3f 01 80 da f7 6e 3b 2c 28 36 3d ee c5 b7 3b
       -1.1479e-40 0.003646365 0.044471905 0.005608312
000270 c4 3a 0f 3d 48 c5 9c 3d b3 ae 1b 3d 40 73 01 bc
       0.034968153 0.07654816 0.038008403 -0.007901013
000280 31 11 06 3d 70 9c a8 bb 14 28 00 00 b1 97 00 80
       0.03273124 -0.005145602 1.4377e-41 -5.4417e-41
000290 48 0f 01 80 f1 8b 00 80 e7 68 00 00 c6 77 01 00
       -9.7317e-41 -5.0202e-41 3.7632e-41 1.34802e-40
0002a0 92 1a 00 80 ce 31 00 80 de 5c 01 80 db e0 18 bc
       -9.532e-42 -1.7867e-41 -1.2515e-40 -0.0093309535
0002b0 b3 44 34 bb b0 35 03 bc 30 f5 f2 bb 56 7b c1 ba
       -0.0027506768 -0.008008406 -0.0074144825 -0.0014761488
0002c0 a7 e0 08 bc 32 25 67 bc 2a 2d 1d bc 6c fc 80 bc
       -0.008354343 -0.014107989 -0.0095932875 -0.015745364
0002d0 88 f0 65 bb 63 03 5f 3b ef 16 2b 39 e4 02 1a 3b
       -0.0035085995 0.0034029118 0.00016316374 0.0023500258
0002e0 96 46 13 3c d4 cb c7 3b 1d f2 a2 bb 58 1c ef 3a
       0.008988997 0.0060972963 -0.00497271 0.00182427
0002f0 63 e8 a5 ba e0 96 01 00 30 bc 00 80 53 49 00 00
       -0.0012657758 1.45959e-40 -6.7509e-41 2.6304e-41
000300 90 78 00 00 4f 1f 00 80 1a ee 00 00 18 94 00 80
       4.325e-41 -1.1231e-41 8.5415e-41 -5.3126e-41
000310 e1 0e 00 80 3d ca 01 00 2c e8 43 bb 2e 08 02 bb
       -5.338e-42 1.64385e-40 -0.0029893024 -0.0019841301
000320 86 42 b4 bb 8f 54 21 3b cc c1 6b 3b 61 b2 85 b8
       -0.0055010943 0.0024617051 0.0035973666 -6.37516e-05
000330 b3 8c 10 3b c8 9a 57 3b 86 f0 0c b9 f7 c7 01 00
       0.002205652 0.0032898653 -0.00013441042 1.6357e-40
000340 2f 97 00 00 ed 60 00 00 0a 44 01 80 49 0b 00 00
       5.4234e-41 3.477e-41 -1.16243e-40 4.048e-42
000350 66 ae 00 80 2c 1d 01 80 62 55 00 00 15 15 00 00
       -6.2562e-41 -1.023e-40 3.063e-41 7.563e-42
000360 24 03 5d 17 af ed a0 16 f7 1d e8 96 b7 f5 81 17
       7.1412915e-25 2.5999394e-25 -3.7500532e-25 8.398457e-25
000370 71 7e 8c 16 14 35 bf 97 7e 37 6f 97 7c 43 d3 17
       2.2698016e-25 -1.23564845e-24 -7.7295106e-25 1.3652591e-24
000380 3b b4 0d 97 d4 f9 9f 3b ad b1 e0 3b ce 88 fa 3a
       -4.578704e-25 0.0048820768 0.006857118 0.0019114257
000390 e5 48 07 3a 19 50 4d 3b 0e 4c 30 ba dc f5 97 ba
       0.00051607034 0.003132826 -0.00067252 -0.0011593658
0003a0 6d ba d9 3a a7 57 19 bb ce b6 c1 3b cc bc 1b 3b
       0.0016611345 -0.0023398192 0.0059116846 0.0023763655
0003b0 91 7d 3d 3d af 90 20 bd 30 9a 2c bd bf 6c 69 bb
       0.046262328 -0.03920048 -0.042139232 -0.0035617796
0003c0 d6 5d 0d bd da 2e 0c bd 21 25 ba 3b a5 97 54 3b
       -0.034513317 -0.03422437 0.0056806956 0.003243902
0003d0 1e ba 04 3b 5c 9b c4 3a c8 05 17 3c 73 e1 05 3c
       0.0020252536 0.0014999914 0.009217687 0.008171427
0003e0 7c 7f 15 3c 3d 56 08 3c 64 40 03 3c 63 2e 18 3c
       0.009124633 0.008321342 0.008010957 0.009288403
0003f0 df 4d ac bc 59 87 af 3c 9d 9b 9e bc 99 b2 91 3c
       -0.021033226 0.021426843 -0.019361312 0.017785357

e_conv7.bias f4 [8]
000000 7d 2c bf 3c 61 5c 3d 3c 49 08 60 3d 27 1b 1a 3d
       0.023336643 0.011557669 0.0546954 0.03762355
000010 35 7f 94 3c 65 c0 d5 3c 1a 8b 6b 3c 34 a6 94 3b
       0.018127063 0.026092717 0.014376426 0.0045364145
