snapshots/Epoch92.pth (torch, 304045 bytes, 14 tensors)

e_conv1.weight f4 [32, 3, 3, 3]
000000 0f b3 00 80 9f 74 00 00 c3 a0 00 80 18 77 00 00
       -6.4234e-41 4.1836e-41 -5.767e-41 4.2723e-41
000010 34 27 01 00 b9 19 00 00 ee d7 00 00 03 8c 00 00
       1.05899e-40 9.228e-42 7.7461e-41 5.0227e-41
000020 9a 70 00 80 29 8d 00 00 c6 70 00 00 52 6d 00 80
       -4.0394e-41 5.0639e-41 4.0455e-41 -3.9217e-41
000030 8b 34 01 80 e3 9c 01 80 13 d1 00 80 d4 ab 00 80
       -1.10684e-40 -1.48116e-40 -7.5002e-41 -6.164e-41
000040 ca b1 01 80 d6 10 01 00 57 98 00 80 bc ce 00 00
       -1.55614e-40 9.7875e-41 -5.4649e-41 7.4162e-41
000050 ff e7 00 80 c7 95 00 00 60 ee 01 00 9f b8 00 00
       -8.3225e-41 5.373e-41 1.77348e-40 6.623e-41
000060 9d f8 00 80 f9 20 01 00 cd 97 00 80 4a 43 9c 3a
       -8.9186e-41 1.03664e-40 -5.4456e-41 0.0011921909
000070 e5 d4 61 3b 38 4c 0f bc ad 66 7b 3c 94 d4 4d 3c
       0.003445917 -0.008746199 0.015344304 0.01256289
000080 86 43 8e 3c 51 68 13 3d df 9c ce 3c 9f 2a 1e 3d
       0.017366182 0.035988156 0.025221286 0.038614865
000090 f5 f0 03 3c bc 71 d2 bb 74 ef d7 3c 10 c5 c1 3b
       0.008053054 -0.0064222496 0.026359297 0.0059133843
0000a0 4a 4f 53 3c fe 86 93 3c b3 65 18 3d 6e 62 18 3d
       0.012897322 0.018008705 0.037206363 0.037203245
0000b0 72 9c 01 3d ad 1b 34 bc 10 cf 3a bc 79 fc e4 bc
       0.03164334 -0.010992927 -0.011401907 -0.02795242
0000c0 b8 71 fc bb cc d7 47 bc 6c a0 98 bc 0d cc e1 bb
       -0.007703986 -0.012197446 -0.018631183 -0.00689078
0000d0 c6 15 f6 bb 50 4c 9e 3c ee fb 72 bc 79 4a 27 bd
       -0.00750992 0.019323498 -0.0148305725 -0.040842507
0000e0 ed bf a4 bc ea ca cd bb 9d 0f eb bc c1 1f c7 bc
       -0.020111049 -0.0062802928 -0.028693968 -0.024307134
0000f0 cb 2b ad 39 29 56 52 bc f6 80 68 bc 46 d8 c8 ba
       0.0003302976 -0.012837925 -0.014190903 -0.0015323244
000100 d5 bf 08 3c 60 99 9a 3b 25 98 a6 39 c9 25 e1 3b
       0.008346518 0.0047179908 0.00031775344 0.0068709594
000110 5e 5b 6f 3b 93 4e 2b 3d fc 44 aa 3c 08 97 78 bc
       0.0036522965 0.04182298 0.020784847 -0.015172727
000120 bd 74 0b 3d 85 b8 19 3d 40 79 09 3d 30 92 34 3d
       0.034046877 0.037529487 0.0335629 0.044084728
000130 0e c6 08 3d af c9 2a 3d ab f7 3a 3d d9 6e d6 3c
       0.033392005 0.041696247 0.04564635 0.026175903
000140 f7 d3 d5 3c 93 2f d5 bb c7 13 18 3c 32 d4 08 3c
       0.02610205 -0.0065059154 0.009282059 0.008351373
000150 af 40 d1 bc 8d 83 01 bc 02 c0 ef 3b 57 32 c7 bc
       -0.025543539 -0.007904899 0.0073165903 -0.024315996
000160 c3 b7 4f bc c3 20 e0 3c 59 f8 e7 bc 22 cd b0 3b
       -0.01267809 0.027359372 -0.028316664 0.0053955475
000170 65 30 3c 3c 45 09 88 bc 9f 26 a9 bb a6 8b 14 3c
       0.0114861475 -0.016605983 -0.0051620747 0.009066498
000180 e7 39 11 bd 67 72 b2 3b 25 f7 d2 3c d8 ea b9 bb
       -0.03545561 0.0054457667 0.025752613 -0.0056737475
000190 21 05 2e 3b f6 92 44 bb 4a 50 23 bc c3 39 2b 3c
       0.002655335 -0.0029994822 -0.009967873 0.010450783
0001a0 19 2a 17 3b cf 4e d1 bc f5 5d 75 3b 9d 83 df 3c
       0.0023065864 -0.025550274 0.0037440036 0.027284438
0001b0 32 96 b7 3c ad ee b0 3c 8d e4 7e 3d f4 f4 59 3c
       0.022410486 0.021598184 0.06222968 0.01330303
0001c0 d3 6f dd 3b 1d b7 23 3d d5 75 03 bb ef 1c c7 bb
       0.0067577153 0.039969552 -0.0020059247 -0.006076447
0001d0 0a 2c d1 3c 44 d1 c4 3c a3 af c6 3c cc f5 6c 3d
       0.025533695 0.024025567 0.024253672 0.057851598
0001e0 40 d4 6b 3b 33 13 83 bb 44 07 9f 3c 7d 7f 8f bb
       0.0035984665 -0.0040000915 0.019412644 -0.0043792115
0001f0 2e 9c 20 3c 84 31 0a 3d 14 91 4d 3c 88 06 c8 3b
       0.009802861 0.033738628 0.012546796 0.006104294
000200 fc 5c 20 3d 79 53 a3 bc 4b 01 85 bc 65 c9 15 3c
       0.039151177 -0.019937264 -0.016235968 0.0091422545
000210 b1 3f 03 bd dd 8f 6a bc ba f3 d6 3b 68 93 01 80
       -0.032043163 -0.014316526 0.006559816 -1.44715e-40
000220 c8 7d 00 80 a9 75 01 00 d1 19 02 00 b7 df 00 00
       -4.5122e-41 1.34044e-40 1.92932e-40 8.0254e-41
000230 97 e2 00 80 7d bf 00 00 98 6a 00 80 e1 44 00 80
       -8.1285e-41 6.8693e-41 -3.8239e-41 -2.4709e-41
000240 35 c7 00 00 b7 d5 00 00 3c 1d 00 80 8c 01 00 80
       7.1462e-41 7.6666e-41 -1.0487e-41 -5.55e-43
000250 e8 a2 00 80 53 dd 00 00 a5 82 00 00 fe c0 00 80
       -5.844e-41 7.9396e-41 4.6866e-41 -6.9233e-41
000260 c7 8b 00 80 16 cd 00 00 1b 72 00 00 63 22 00 80
       -5.0143e-41 7.3571e-41 4.0933e-41 -1.2336e-41
000270 6b 3b 00 80 bc 6d 00 00 b1 0a 00 00 b9 5e 00 80
       -2.1315e-41 3.9365e-41 3.835e-42 -3.398e-41
000280 5e c8 00 00 db 9a 00 00 cd 32 4d 3d 0d 4a 77 3c
       7.1878e-41 5.5552e-41 0.050097276 0.015093339
000290 43 5d b2 bc 04 50 05 3d 3e c3 44 3c 4c 0b 15 bd
       -0.021772986 0.032547012 0.01200944 -0.036387727
0002a0 11 31 0a 3d ae 87 a5 39 94 03 07 bd d6 cc 53 3d
       0.0337382 0.00031572342 -0.032962397 0.05170902
0002b0 00 65 f2 3c bb 3a 0f bd 57 69 00 3d ea f6 49 3c
       0.029589176 -0.03496812 0.03135046 0.012326935
0002c0 16 3a 8e bc a1 4c bf 3c 8a 26 d8 bc 3a e4 6d bd
       -0.017361682 0.02335197 -0.026385564 -0.058078982
0002d0 f4 e1 ae 3c 42 2e 84 bb c7 de c9 bc 30 0b 4f 3c
       0.021347977 -0.0040338347 -0.024642361 0.012636945
0002e0 fc 57 ae 3b a9 c7 99 bc 90 dd ff 3c b7 92 89 bc
       0.005320547 -0.018771963 0.031233579 -0.016793592
0002f0 ff c2 61 bd c5 cf 00 80 a4 43 01 00 93 a0 00 80
       -0.055117603 -7.4534e-41 1.161e-40 -5.7603e-41
000300 c6 58 00 00 fa 04 01 00 44 82 00 80 86 b0 01 80
       3.1846e-41 9.3621e-41 -4.673e-41 -1.5516e-40
000310 3c 2f 00 80 ab 62 00 00 ae 19 01 00 4b f0 00 00
       -1.6945e-41 3.5395e-41 1.01048e-40 8.6201e-41
000320 d5 23 00 00 ea d7 00 00 27 a0 00 00 90 79 00 00
       1.2854e-41 7.7455e-41 5.7452e-41 4.3608e-41
000330 4a 5b 00 00 ef 44 01 80 a3 32 00 80 be ce 00 00
       3.2748e-41 -1.16564e-40 -1.8165e-41 7.4165e-41
000340 91 50 00 80 19 a2 00 80 3a 82 00 80 65 d9 00 00
       -2.8902e-41 -5.815e-41 -4.6716e-41 7.7986e-41
000350 39 62 00 80 52 03 00 80 b9 be 00 80 0b 18 00 00
       -3.5236e-41 -1.191e-42 -6.8418e-41 8.625e-42
000360 3c ca 00 80 f0 43 00 00 9c 66 00 00 d0 af 00 80
       -7.2548e-41 2.4371e-41 3.681e-41 -6.307e-41
000370 1e 6f 00 00 2d 00 00 80 ed 47 00 00 6f c2 00 00
       3.9861e-41 -6.3e-44 2.5802e-41 6.975e-41
000380 81 93 00 80 28 24 00 00 4a 7f 00 80 e6 d8 00 80
       -5.2914e-41 1.297e-41 -4.5663e-41 -7.7808e-41
000390 68 12 00 80 54 c6 00 00 b6 26 00 80 e5 f1 00 00
       -6.603e-42 7.1147e-41 -1.3887e-41 8.6775e-41
0003a0 ad 3a 00 80 a7 ee 00 00 cc 1a 01 00 76 89 00 80
       -2.1049e-41 8.5612e-41 1.01448e-40 -4.9312e-41
0003b0 42 1b 00 80 4c 42 00 80 95 15 00 00 e3 c2 00 00
       -9.778e-42 -2.3783e-41 7.742e-42 6.9912e-41
0003c0 62 51 00 80 2a c8 00 00 5a b0 00 00 92 04 60 bd
       -2.9195e-41 7.1805e-41 6.3263e-41 -0.05469186
0003d0 43 05 e3 bc c1 37 5d bd 2c c9 fb bc 14 96 8f bc
       -0.02771247 -0.05400825 -0.030735575 -0.017527618
0003e0 cb 1a 95 bc ea 48 57 bc 49 5b 68 3c 00 3e 08 3c
       -0.018201252 -0.013139943 0.01418192 0.008315563
0003f0 3f 75 4f bd 1a 61 4f bc b6 7c 13 bd b4 15 a8 bc
       -0.050648924 -0.012657428 -0.036007605 -0.020518161

e_conv1.bias f4 [32]
000000 ef 18 f5 ab 70 48 82 3d 60 01 a1 3c af df f0 3d
       -1.7415217e-12 0.063614726 0.019653976 0.11761414
000010 71 e3 73 3d 6d 34 cc a6 12 50 87 3d cf 52 e3 b1
       0.059543077 -1.4169554e-15 0.06607069 -6.6159838e-09
000020 cc 30 26 b1 95 83 9d 3d 84 fc d9 af 7f 87 56 a5
       -2.4183917e-09 0.07691113 -3.9651493e-10 -1.8607449e-16
000030 c4 b5 53 bc 77 38 76 3d 02 cd e9 ac fc c2 1b 3e
       -0.012921754 0.060112443 -6.6450187e-12 0.152111
000040 31 4d fb 3d 2f e2 c3 3d 4c 2f 39 3e f8 66 21 3e
       0.122705825 0.095646255 0.18084449 0.15761936
000050 59 32 c9 a1 1c 6b 1a 3e 2b 64 82 bc a2 43 f0 3d
       -1.3633617e-18 0.15079921 -0.015916904 0.1173165
000060 8c 17 9a ae 67 57 02 9b 70 cd 03 3d 6e d2 86 a2
       -7.007292e-11 -1.0781589e-22 0.032178342 -3.6543574e-18
000070 94 65 a3 b7 45 42 0a bc a1 53 e4 3d 4b dd 19 aa
       -1.9478415e-05 -0.008438651 0.111487634 -1.3665906e-13

e_conv2.weight f4 [32, 32, 3, 3]
000000 0a 62 00 80 06 9e 00 80 a4 51 00 00 81 25 01 00
       -3.517e-41 -5.6688e-41 2.9287e-41 1.0529e-40
000010 0b e5 01 00 80 cc 00 00 f4 62 00 00 2f 07 01 00
       1.74e-40 7.3361e-41 3.5498e-41 9.4412e-41
000020 a5 8d 00 80 32 d8 f7 3b 15 0c 88 bc 4a 6e 43 3b
       -5.0812e-41 0.0075636143 -0.016607324 0.0029820376
000030 e0 70 71 bb 25 bd 78 ba 26 e6 cb bb 24 46 30 3c
       -0.003684096 -0.0009488634 -0.006222504 0.01075891
000040 b4 d8 c2 3c d8 52 69 3a 21 f5 05 bc 24 bd 20 bc
       0.023784973 0.00089005893 -0.008176119 -0.00981072
000050 48 fd d6 bb 74 be 5c 3b d1 81 96 bb 3e b5 82 bb
       -0.006560955 0.0033682855 -0.004593112 -0.003988891
000060 54 92 9d 3b cc 06 f4 3a 89 20 a6 3b 03 5d b8 bc
       0.0048087034 0.0018617748 0.0050697965 -0.022505289
000070 e6 56 8a 3c 9d 00 04 3d f8 ee 4f bc 52 95 aa bb
       0.01688714 0.032227147 -0.012691252 -0.0052057886
000080 71 b7 86 bb 7a 74 02 bd 66 a1 92 3b 5a 40 80 3c
       -0.0041112234 -0.031849362 0.0044748066 0.015655685
000090 0b de cc 38 23 a9 04 bb 74 45 76 b9 9a ba 1c 3c
       9.768837e-05 -0.0020242415 -0.00023486261 0.009565974
0000a0 4b 3e 4a bc 81 36 c4 3b 2f 97 37 3c 59 d7 72 bc
       -0.012343953 0.0059879427 0.011205479 -0.014821851
0000b0 5d 8c 07 bc 38 a1 00 80 71 cc 00 00 f2 ba 00 00
       -0.008273211 -5.7834e-41 7.334e-41 6.7063e-41
0000c0 d7 85 00 00 f1 2a 01 80 ee a0 00 00 3b 87 01 00
       4.8013e-41 -1.0724e-40 5.773e-41 1.40347e-40
0000d0 7d 2f 01 80 2e e0 00 00 fc f3 7a 3a d4 dd dc 3b
       -1.08871e-40 8.042e-41 0.00095730997 0.006740311
0000e0 5d 66 63 bb b0 58 72 bb c4 7e 83 3b 3e 36 b6 3b
       -0.0034698464 -0.0036979131 0.0040129144 0.0055606654
0000f0 0f 08 b0 3b 61 d8 c6 3b ed c3 58 3c 43 0f 01 80
       0.0053720544 0.006068275 0.013230306 -9.731e-41
000100 0d 79 00 80 4c af 00 00 dd 54 00 00 cf a7 01 80
       -4.3425e-41 6.2885e-41 3.0443e-41 -1.52034e-40
000110 0a e8 00 80 c3 13 00 00 b2 c6 00 80 87 37 01 80
       -8.324e-41 7.089e-42 -7.1278e-41 -1.11755e-40
000120 2d 11 00 00 aa 78 00 80 60 a2 00 80 de b9 00 00
       6.162e-42 -4.3286e-41 -5.8249e-41 6.6677e-41
000130 9d c8 00 00 67 0b 01 00 56 b8 00 80 69 f6 00 80
       7.1966e-41 9.5926e-41 -6.6127e-41 -8.8395e-41
000140 08 47 00 80 1a 6a 1c 3c 55 11 81 3a d4 8b 0f 3c
       -2.5481e-41 0.009546781 0.0009847084 0.008761365
000150 54 8c 2f bb 6e 03 83 3b a5 71 d4 3b f2 24 ae 3a
       -0.0026786523 0.0039982116 0.006483274 0.0013286157
000160 c7 f9 06 3a b4 a6 a4 ba 44 f3 00 00 69 86 00 00
       0.0005148914 -0.0012561888 8.7267e-41 4.8217e-41
000170 68 d6 00 80 9e 32 00 80 c7 85 00 00 73 5d 00 80
       -7.6914e-41 -1.8158e-41 4.799e-41 -3.3523e-41
000180 91 f2 00 00 3f f1 00 80 7d 4b 00 80 4d 9a 00 80
       8.7016e-41 -8.6543e-41 -2.708e-41 -5.5353e-41
000190 79 f8 00 80 36 d6 00 00 eb 1c 00 80 9f bd 00 00
       -8.9135e-41 7.6844e-41 -1.0374e-41 6.8023e-41
0001a0 75 35 00 80 b4 a1 01 00 08 49 00 00 82 69 00 00
       -1.9177e-41 1.49844e-40 2.6199e-41 3.7849e-41
0001b0 73 70 73 bb 35 d6 66 bb 27 74 2c bb 7f 89 7d 3a
       -0.0037145882 -0.0035222892 -0.002631435 0.00096716726
0001c0 86 ea 1d 3a 51 d4 6b 3a 3a 40 e0 3a 8a d9 96 3a
       0.00060240214 0.0008996176 0.0017108985 0.0011508923
0001d0 46 f0 4e 3a f6 c4 04 3b c5 1d 2c 3c bd c1 75 3b
       0.000789408 0.0020259 0.0105051445 0.003749951
0001e0 4d 5e 9c 3b 24 1f 27 3b ce 68 7c 3b f7 9a 31 bb
       0.0047719837 0.002550074 0.0038514617 -0.0027100423
0001f0 4b 1e da 3b f7 2f b3 3a cf be 00 00 21 1e 00 00
       0.0066564432 0.0013670911 6.8449e-41 1.0808e-41
000200 43 9c 00 00 69 3f 00 80 5c a1 00 00 3d 8e 00 80
       5.6056e-41 -2.2747e-41 5.7885e-41 -5.1025e-41
000210 89 5a 00 80 17 b6 00 80 a8 20 00 00 70 ce c1 3b
       -3.2478e-41 -6.5322e-41 1.1715e-41 0.005914502
000220 6d 3a 3b 3c 9d 4e 8f 3b 40 63 68 3c c4 97 7d 3c
       0.011427504 0.004373385 0.014183819 0.015478078
000230 d8 f1 56 3c 80 96 08 bb 54 e8 84 bc ab 02 c4 bb
       0.0131191835 -0.0020841658 -0.016224064 -0.0059817634
000240 d4 9a 50 bc e0 3a 80 bc af a9 be bb 65 07 8a bc
       -0.012732226 -0.015653074 -0.0058185677 -0.01684923
000250 46 23 5b 3c fd ca 78 3c 6f 66 d3 bc 6d 57 97 3a
       0.013375109 0.015185115 -0.02580568 0.0011546441
000260 66 89 db 39 40 cf 70 3c a3 87 86 b9 c3 29 f8 3a
       0.00041873305 0.01469785 -0.0002565953 0.0018933344
000270 fe 09 82 bb 60 2d 0a 3c 15 b4 b5 3b 64 e3 98 3b
       -0.0039684763 0.00843367 0.005545149 0.004665779
000280 3c 35 47 3c bb 52 72 3c 07 fe 26 3a fa 7f a4 bc
       0.012158688 0.014790232 0.00063702505 -0.020080555
000290 b8 57 65 bc 20 2d d4 ba 96 57 67 3a c8 38 88 3c
       -0.013997965 -0.0016187765 0.0008825002 0.016628638
0002a0 6c 4a 02 bd 81 ca 6e 3c 3c 66 fe 3c fd af 93 3c
       -0.031809255 0.014574648 0.031054609 0.018028254
0002b0 6c b0 8c 3c 26 69 db ba 17 cc f2 3b c7 22 1c 3c
       0.017173968 -0.0016739711 0.0074095833 0.009529776
0002c0 a1 75 c8 b9 77 b5 1b bc 07 6e d7 bb fa 8b cb 3c
       -0.00038234613 -0.009503714 -0.0065743956 0.02484702
0002d0 51 b7 00 80 49 30 01 80 c4 3c 00 80 48 b0 00 00
       -6.5762e-41 -1.09157e-40 -2.1799e-41 6.3238e-41
0002e0 07 66 00 00 7d 01 00 80 e6 12 00 80 e0 0b 00 00
       3.66e-41 -5.34e-43 -6.78e-42 4.26e-42
0002f0 8f 31 01 00 d7 c5 92 bc 92 c0 40 3c 55 60 86 3c
       1.09614e-40 -0.017916603 0.011764662 0.016403357
000300 13 6a 83 bc 8b dc 2f 3d 8f aa ed 3c 44 67 2a 3c
       -0.016041791 0.042934936 0.029011993 0.010400597
000310 91 a2 d4 3c 6c da 83 3c 01 8d 36 3b 74 0f 69 3b
       0.025956424 0.016095363 0.002785504 0.003556219
000320 77 e2 9b bb 70 09 37 bb f7 07 05 38 53 8f 44 bb
       -0.0047572213 -0.002792921 3.171709e-05 -0.0029992654
000330 41 3f 12 bc 31 27 6f 3b f0 78 00 bc dc 17 7c 3c
       -0.008926214 0.0036491866 -0.007841334 0.015386548
000340 41 52 3a 3c 60 84 9d 3c b4 58 26 3c e6 da 93 3c
       0.01137215 0.01922816 0.010152984 0.018048715
000350 0c 73 a9 3b 5e 2b 04 bd a1 6b ab 3c 05 11 25 bb
       0.0051711854 -0.03226792 0.020925345 -0.0025187146
000360 8c 5f 00 00 e9 f6 00 00 5a 9c 00 80 2b 8b 00 80
       3.4276e-41 8.8575e-41 -5.6088e-41 -4.9924e-41
000370 5b 8e 00 00 6e d8 00 80 df 4b 00 00 9d 28 00 00
       5.1068e-41 -7.764e-41 2.7217e-41 1.457e-41
000380 49 c9 00 80 9d 46 01 00 bf 3d 00 00 3b 01 01 80
       -7.2208e-41 1.17167e-40 2.215e-41 -9.2277e-41
000390 10 e7 00 80 dc 3b 01 00 63 99 00 00 8f dd 00 80
       -8.289e-41 1.13309e-40 5.5025e-41 -7.948e-41
0003a0 75 1c 00 80 01 97 00 80 21 40 6f 3b 94 fc 05 3b
       -1.0208e-41 -5.417e-41 0.003650673 0.0020444738
0003b0 af d5 9a 3b 8b 6f 57 bb a7 f8 79 bb 12 32 4e bc
       0.00472518 -0.0032872881 -0.0038142593 -0.01258518
0003c0 d0 e1 5a 3c 28 b7 f2 bb f5 57 90 bc 2b 52 00 80
       0.013359502 -0.007407088 -0.017620066 -2.9476e-41
0003d0 a9 69 00 80 cd 95 00 80 e7 36 01 80 78 52 01 80
       -3.7904e-41 -5.3738e-41 -1.11531e-40 -1.2142e-40
0003e0 70 dc 00 80 02 44 00 00 48 8c 00 80 94 f1 00 80
       -7.9078e-41 2.4397e-41 -5.0323e-41 -8.6662e-41
0003f0 02 5f 2d 2e 3b 29 6a 2d 59 25 c0 2d 48 c9 16 2c
       3.942003e-11 1.3310515e-11 2.1844459e-11 2.1428016e-12

e_conv2.bias f4 [32]
000000 1b 6c 08 bd ec 8f f1 b9 a2 f7 1a 3d f9 5a b9 9c
       -0.033306222 -0.00046074332 0.037833817 -1.2265789e-21
000010 1b e9 1c 3d af 8b 04 3d 4d a1 b4 3a b6 92 2e 3d
       0.038308244 0.032359775 0.0013780982 0.042620383
000020 e7 9a 5e 3d 77 c5 0f 3d fd 64 d7 bc 1d b1 7b b9
       0.054346945 0.035100427 -0.026293272 -0.00024003205
000030 4e 57 5f b2 a1 b3 05 bc a1 00 20 3c b8 41 18 af
       -1.3000159e-08 -0.008160503 0.009765775 -1.3847667e-10
000040 a9 d5 01 3d 12 f1 33 3c 2f a8 2d ba 3d 3b 43 bc
       0.031697903 0.010982769 -0.00066244876 -0.011915979
000050 81 62 2f b6 91 f5 79 3c 4a 50 cc ba 41 05 19 3d
       -2.613437e-06 0.0152563015 -0.0015587893 0.037358526
000060 63 6b 06 b1 af 9f 57 3d 7f 39 3e 3d c0 9c 7e b9
       -1.9560609e-09 0.05264252 0.04644155 -0.00024281722
000070 12 ca cb b4 5a 72 59 b7 83 ba b8 ba d2 86 4d 3d
       -3.7958722e-07 -1.29608325e-05 -0.0014093671 0.050177403

e_conv3.weight f4 [32, 64, 3, 3]
000000 51 77 00 00 62 46 00 00 95 62 01 00 4d c2 00 80
       4.2803e-41 2.5249e-41 1.272e-40 -6.9702e-41
000010 94 06 00 00 f4 75 01 00 bf 05 00 00 6a c4 00 00
       2.36e-42 1.34149e-40 2.061e-42 7.046e-41
000020 16 95 00 80 8c 8f a2 38 f5 ab 56 3c 72 d8 9b 3c
       -5.3482e-41 7.7515e-05 0.013102521 0.019024108
000030 1a ef 05 bc 1d f1 95 3b 8a ae 13 3c 0d fa db bc
       -0.008174682 0.004575862 0.009013781 -0.026852632
000040 36 0f ed bb fc 34 08 bc 5d f4 bd bb f8 bd c1 3b
       -0.0072344793 -0.008313414 -0.0057969526 0.0059125386
000050 7a 06 d8 3b f6 0c ce bb 83 2e 99 3b 80 2b 8f 3b
       0.006592569 -0.006288166 0.004674734 0.0043691993
000060 85 5b 51 bc 95 7d 9e bb 7e 20 b2 bb ef 42 e0 3b
       -0.012778168 -0.004836748 -0.0054360023 0.0068439166
000070 12 d2 fb 3b b7 0d 21 3c de 96 ae 3a 91 73 69 3b
       0.0076849544 0.00982993 0.0013320108 0.0035621861
000080 41 d4 8e 3b 9c c2 e3 bb 75 45 37 bc 6c ba 86 bc
       0.0043587987 -0.0069506895 -0.011185993 -0.016446315
000090 88 e6 b5 3a 7e 86 8b 3c 63 c0 83 3c 6c a1 30 ba
       0.0013877908 0.017031904 0.016082948 -0.0006737921
0000a0 6b 61 15 3c 60 15 c6 3b 27 26 52 bc bd 7d 05 bc
       0.009117465 0.0060450286 -0.012826479 -0.008147654
0000b0 d5 38 f9 bb 36 3b 01 80 20 7b 00 80 b4 5c 00 80
       -0.007605652 -1.13076e-40 -4.4169e-41 -3.3256e-41
0000c0 74 9d 00 80 7c 38 00 00 78 2e 00 80 bb 12 01 00
       -5.6484e-41 2.0263e-41 -1.667e-41 9.8555e-41
0000d0 1b fe 00 00 b5 71 01 00 48 04 6a 3a 9f 19 02 3c
       9.1156e-41 1.32626e-40 0.00089270296 0.007940679
0000e0 ff b1 90 3a c7 bb a3 3a bf 2b 5b 3c 14 bc ed 3b
       0.0011039375 0.0012491875 0.013377129 0.0072550867
0000f0 bd ea 99 bb 38 23 9a 3b 19 a5 bd bb 9a 26 01 80
       -0.0046971724 0.0047039054 -0.0057875034 -1.05683e-40
000100 33 8c 00 00 eb 17 00 80 5f 6d 01 80 66 fb 00 00
       5.0294e-41 -8.58e-42 -1.3107e-40 9.0185e-41
000110 c6 3f 01 00 23 4c 00 00 59 28 01 00 b9 e6 00 00
       1.14713e-40 2.7313e-41 1.0631e-40 8.2768e-41
000120 46 7b 01 80 d9 d2 00 00 00 43 00 80 91 e3 00 00
       -1.36058e-40 7.5638e-41 -2.4035e-41 8.1635e-41
000130 c4 8f 00 00 c3 aa 00 80 72 20 00 00 cd d1 00 80
       5.1573e-41 -6.1258e-41 1.1639e-41 -7.5262e-41
000140 f7 f3 00 80 50 82 00 3b bb f4 46 3b 6d 5f d1 bb
       -8.7518e-41 0.0019608922 0.0030358273 -0.0063895495
000150 4d 07 dc 3b 16 1b a4 3b 9b 9d 7a bb 6d 02 d2 b9
       0.0067147375 0.0050081117 -0.0038240913 -0.0004005613
000160 f0 c1 43 bb a8 86 04 bc 94 f4 00 00 a9 54 00 80
       -0.0029870234 -0.008088745 8.7738e-41 -3.037e-41
000170 31 15 00 00 6b 4c 00 80 36 1e 00 80 d9 f1 00 00
       7.602e-42 -2.7414e-41 -1.0838e-41 8.6759e-41
000180 24 2c 01 80 ca 7e 00 80 37 30 00 80 ff 6d 01 80
       -1.0767e-40 -4.5483e-41 -1.7296e-41 -1.31295e-40
000190 41 c3 00 80 8c 5a 00 80 9e 16 00 00 74 d7 00 80
       -7.0044e-41 -3.2482e-41 8.114e-42 -7.729e-41
0001a0 6e e7 00 00 a8 aa 00 80 e9 e8 00 80 9f 9e 00 00
       8.3021e-41 -6.122e-41 -8.3552e-41 5.6903e-41
0001b0 ac 5d 0e bb 8a f1 8d ba c7 5a db ba 54 d9 d9 b9
       -0.0021723313 -0.001082943 -0.0016735428 -0.00041551387
0001c0 e6 1d c0 b9 26 ee 2d ba 20 df ae 38 2b 38 9c b9
       -0.0003664337 -0.0006634913 8.338527e-05 -0.00029796487
0001d0 81 aa ed 37 ab 0a a2 bb 9b 62 d2 ba c6 00 6e bb
       2.8331999e-05 -0.0049451194 -0.0016051115 -0.003631638
0001e0 a9 b4 d6 bb 88 9a 2c bb 19 bd 82 bb 3e 83 50 bc
       -0.006552298 -0.0026337225 -0.0039898274 -0.012726603
0001f0 e8 68 11 bc be 1c 28 bc db de 00 00 6d 6c 00 00
       -0.008875109 -0.010260759 7.9945e-41 3.8896e-41
000200 59 24 01 00 14 d1 01 00 a7 c7 00 00 0d ce 00 00
       1.04875e-40 1.66839e-40 7.1622e-41 7.3917e-41
000210 f7 e1 00 80 2e b9 00 00 e9 a5 00 80 83 f0 8d bc
       -8.1061e-41 6.643e-41 -5.9517e-41 -0.017326599
000220 7e 4f e7 3b 38 59 8b 3c 80 16 18 3a 73 c4 2b 3b
       0.0070590368 0.017010316 0.00058016926 0.0026209622
000230 c2 d4 cf 3b 2d 1b 29 bd 85 67 c1 bc f8 d4 71 bc
       0.0063425014 -0.041285682 -0.023608932 -0.014760248
000240 29 e7 09 ba 22 c9 06 3c 16 8e 93 3c 16 17 21 bc
       -0.0005260581 0.008226665 0.018012088 -0.009832164
000250 ea 38 03 3c f3 a5 8e bb 83 75 df bc ed 42 0b bc
       0.008009175 -0.004353279 -0.027277714 -0.008499843
000260 9d 47 07 bc 33 65 3e 3b c8 ac b4 3b 84 f9 f2 39
       -0.00825682 0.0029052019 0.005513761 0.0004634374
000270 86 43 65 3a 46 dd dc 3b a7 a7 ec 3a a6 f3 f5 bb
       0.00087457185 0.006740245 0.0018055335 -0.007505852
000280 b4 a1 29 bb b5 7a 19 bc ba b1 8f b8 8f 0a 70 3c
       -0.0025883736 -0.009367635 -6.8518755e-05 0.014650955
000290 0e 56 97 3c 2b c1 ee 3a 9e 86 21 3a 4d 24 a8 3c
       0.018473651 0.0018215528 0.0006161722 0.020525122
0002a0 ab 68 0b bd af 4f 85 bc bd bd d2 bb c5 51 0c 3c
       -0.034035366 -0.016273348 -0.00643131 0.008564417
0002b0 61 df 34 3b ab 97 f9 3b 8a 1f f7 3a 30 d7 d4 ba
       0.0027598965 0.007616957 0.0018854004 -0.0016238447
0002c0 f2 86 2a bc 6f 7d 8a bc bd ba 52 bc 51 ec 27 bc
       -0.01040815 -0.016905515 -0.012861905 -0.010249213
0002d0 e4 e6 00 80 57 75 00 80 47 9a 00 80 9d c1 01 80
       -8.2828e-41 -4.2094e-41 -5.5344e-41 -1.61291e-40
0002e0 6d 79 01 80 dc ca 00 00 df ed 00 00 6f c2 00 00
       -1.35395e-40 7.2772e-41 8.5332e-41 6.975e-41
0002f0 12 7a 00 80 95 76 06 bb 41 93 7a 3b 4b 2e 7b 39
       -4.379e-41 -0.0020517458 0.0038234743 0.00023954471
000300 d0 c6 d0 ba 5e f7 24 3c 88 82 51 3c a1 e4 ad bc
       -0.0015928391 0.010068743 0.012787469 -0.021227183
000310 d0 93 9b bc 34 73 87 bb 9d 75 87 bb 41 e2 d9 3b
       -0.01899138 -0.0041336063 -0.0041338936 0.006649286
000320 dd 9b 98 3c e3 b9 7a bc 0f fd 21 bb f6 62 12 3c
       0.018629009 -0.015303108 -0.0024717485 0.008934727
000330 63 b1 c2 bc ee 1c 40 bc ef a0 0b bb e2 ad 84 bb
       -0.023766225 -0.011725647 -0.002130564 -0.0040490488
000340 1a 8b d3 3b 05 fa 08 3b 42 f6 d9 3a 40 2c 14 3c
       0.006455791 0.0020900976 0.0016629177 0.009043753
000350 7f 82 12 3c 89 ed 62 bc 24 83 cc bb 6c bf 44 bb
       0.0089422455 -0.013850578 -0.006241219 -0.0030021323
000360 d6 1c 00 00 b1 11 00 80 c2 2f 00 80 22 7d 00 00
       1.0344e-41 -6.346e-42 -1.7132e-41 4.4889e-41
000370 40 2f 00 80 68 82 01 80 6c 03 00 00 bb d7 00 00
       -1.695e-41 -1.38616e-40 1.228e-42 7.739e-41
000380 f1 6c 00 80 3b ac 01 80 39 d2 00 80 fc 63 00 80
       -3.9081e-41 -1.5362e-40 -7.5414e-41 -3.5868e-41
000390 89 ca 00 80 75 51 01 80 e6 0f 01 80 45 05 01 80
       -7.2656e-41 -1.21057e-40 -9.7539e-41 -9.3726e-41
0003a0 92 20 01 80 19 ba 00 80 12 5f b5 bb 83 6e 9f 3a
       -1.0352e-40 -6.6759e-41 -0.005535015 0.0012163672
0003b0 95 74 46 3c 8f 56 08 bc a1 bc a1 3c e4 1d f0 3b
       0.012112756 -0.008321418 0.019743266 0.007327782
0003c0 36 07 b4 bc 53 26 3b bc 85 33 1a bc 04 2c 01 00
       -0.021976095 -0.011422711 -0.009411697 1.07625e-40
0003d0 37 71 00 00 1c 25 01 00 70 a1 01 00 b6 f1 00 80
       4.0614e-41 1.05148e-40 1.49748e-40 -8.671e-41
0003e0 0c 1f 01 00 a3 99 00 00 04 e3 00 80 79 00 00 80
       1.02973e-40 5.5114e-41 -8.1438e-41 -1.7e-43
0003f0 25 9c 6a 2e 56 ff aa ae 0c 2f a7 ae ca 5e 74 ae
       5.3344124e-11 -7.776062e-11 -7.602638e-11 -5.5563366e-11

e_conv3.bias f4 [32]
000000 71 8a 19 3d 59 6d f7 3c d7 ca d0 ba da 17 26 3c
       0.037485544 0.030203508 -0.0015929592 0.010137523
000010 fa 14 1c 3d 51 02 30 90 d1 a7 5e bc 85 b1 85 b9
       0.038105942 -3.4711664e-29 -0.013589815 -0.000255
000020 ee 7b 0a 3d 2b ce c5 3b c1 1a 05 3d 39 f2 ab a1
       0.033809595 0.00603654 0.032496218 -1.1651527e-18
000030 ed 6b 9b 98 bb 57 07 ac 78 4a 4a ba 4f 55 0e ba
       -4.017554e-24 -1.9233354e-12 -0.0007716785 -0.0005429582
000040 d6 78 9e 3d 3f 0a 5f bc 5e 15 83 3d 78 de 11 bc
       0.077378914 -0.013613283 0.0640056 -0.008903138
000050 db 89 03 8b 9e 38 92 3c 30 cf 39 ba 8b 96 23 bc
       -2.5333393e-32 0.017849263 -0.0007088063 -0.009984623
000060 37 31 4c 3c 6d 0e 00 b1 a4 ab c2 3b 52 c4 20 3d
       0.012462906 -1.8634652e-09 0.0059408713 0.039249726
000070 95 98 29 bb c0 6f 95 bc 8a 46 12 3d 42 2e 93 bc
       -0.00258783 -0.018241763 0.035711803 -0.017966393

e_conv4.weight f4 [32, 64, 3, 3]
000000 dc 6d 53 bb bc e0 31 3c 64 1d 14 bd 6d ff 9c 3b
       -0.0032261526 0.0108568035 -0.03616084 0.0047911913
000010 fb 7d cd bb 38 c9 eb bb d5 c1 5a 3c fc 4a 65 bb
       -0.0062711216 -0.007195618 0.013351877 -0.003498732
000020 3f 4d 44 bc 7b e0 f7 32 02 20 eb 32 74 a9 ec 32
       -0.0119813075 2.8856666e-08 2.7372156e-08 2.7551074e-08
000030 5c 1c e6 32 41 a7 f9 32 6f 0c d5 32 76 40 e9 32
       2.678842e-08 2.9063473e-08 2.4802118e-08 2.7154083e-08
000040 c8 aa d3 32 82 26 cb 32 e4 44 b1 38 81 6f 17 3b
       2.4641295e-08 2.3649822e-08 8.4528496e-05 0.0023107233
000050 b0 6c 03 3b 5c 8d 84 ba 7b 12 8e 3a c3 5c 82 39
       0.0020053796 -0.0010112929 0.0010839248 0.00024864645
000060 9b d6 60 bb 0f 0c c4 ba c2 0e 64 bb 34 8a 0f 1d
       -0.0034307602 -0.0014957207 -0.0034798835 1.8997342e-21
000070 f2 85 13 1d 44 1f ab 1c df 35 ef 1c 8f a6 c3 1c
       1.9524536e-21 1.1323913e-21 1.5829619e-21 1.2947072e-21
000080 00 f8 f9 1c 88 f7 cb 1c d5 4b ff 1c 06 61 d7 1c
       1.6541544e-21 1.3497398e-21 1.6894087e-21 1.4252587e-21
000090 4c ef b5 ba ba 55 d7 bb e2 fb a6 bc 69 38 66 bb
       -0.001388052 -0.0065714987 -0.020383779 -0.0035128838
0000a0 fd e7 10 3d ff a4 22 b8 b5 8f e2 bc f8 12 d7 bb
       0.03537749 -3.8777474e-05 -0.027656415 -0.0065635405
0000b0 5e 58 ca 3a 3e e3 04 bb 16 c3 d1 39 42 39 94 bb
       0.0015437712 -0.0020277048 0.00040008937 -0.004523427
0000c0 02 b9 db 39 69 47 07 3b a0 18 49 bb 42 10 43 3b
       0.00041908777 0.002064193 -0.0030684844 0.002976433
0000d0 d6 7b 9f 3b 80 2c eb 39 1f d8 d6 3a 09 18 15 3b
       0.0048670573 0.00044855848 0.0016391313 0.0022749922
0000e0 b0 10 aa 3a 3d eb ab bb 6b 07 a8 3a 2d 98 a4 ba
       0.0012974944 -0.0052465484 0.0012819594 -0.0012557559
0000f0 f5 6f c7 ba 7f f2 9c b6 78 bf a7 b9 a1 7d 34 bc
       -0.0015215861 -4.6773926e-06 -0.00031995378 -0.01101628
000100 32 a9 67 bc 93 92 ac bc 7e d4 99 bc aa eb 7a 3c
       -0.01413946 -0.021065986 -0.018778082 0.015314976
000110 d8 2e 00 3c 33 f1 0a bc 16 38 c6 3b 35 ae fb bb
       0.007823668 -0.008480358 0.0060491664 -0.007680679
000120 d3 af 7d bc cb 3b be 3b 3c 6a 27 3c cc 80 f0 bb
       -0.015483814 0.0058054677 0.010218199 -0.0073395725
000130 1d ff c3 3c b8 66 ab bb 62 f9 9e bb 33 6e 0a bc
       0.023925358 -0.005230751 -0.004851506 -0.008449125
000140 1e e9 98 bc 65 92 83 bc a5 86 e5 39 12 35 9f bc
       -0.018665846 -0.016061017 0.00043778602 -0.019434486
000150 b4 94 cd 3c 29 00 37 bc 61 dd 5b 3c db e6 75 3b
       0.025095321 -0.011169472 0.01341948 0.0037521634
000160 9d e4 1e 3b fe 75 31 bc 46 db e1 3b df 26 78 bc
       0.002424515 -0.010831354 0.0068925945 -0.015145986
000170 9d 0c c2 bb 04 33 36 bc 4e 27 59 3c eb 73 10 3d
       -0.005921914 -0.0111205615 0.013254 0.035266798
000180 58 ca 0f bc 2b cb 60 3c e2 29 f4 3a 58 b2 b4 2c
       -0.00877627 0.013720314 0.0018628205 5.135708e-12
000190 b1 37 ba 2c 42 6d 7c 2c 45 0f a7 2c 5a 97 0d 2d
       5.292621e-12 3.5872004e-12 4.7481207e-12 8.048529e-12
0001a0 83 d6 9b 2c a1 e3 ba 2c 70 13 bc 2c 3d bd ab 2c
       4.4291805e-12 5.31171e-12 5.3454394e-12 4.881122e-12
0001b0 79 04 96 a3 d6 84 ce a4 ef f2 a6 a3 16 49 ec a3
       -1.6264927e-17 -8.956329e-17 -1.8100642e-17 -2.5618124e-17
0001c0 6c 8d d7 a3 80 9d 9f a4 d1 5b ea a3 d3 1f 6c a4
       -2.3370241e-17 -6.9222074e-17 -2.5409217e-17 -5.12013e-17
0001d0 5f 6b 9f a4 e0 a1 29 bc ad 96 cc 3c 47 b9 05 3c
       -6.913715e-17 -0.010353535 0.024974192 0.008161849
0001e0 d4 c6 0b 3c 52 df 7d 3c b6 63 be bb 0c 1b 2d bd
       0.008531291 0.015495138 -0.0058102263 -0.042262122
0001f0 20 68 c1 3c 54 84 c3 ba 65 8d e5 ba a7 25 82 ba
       0.023609221 -0.0014916756 -0.0017513452 -0.0009929434
000200 f3 64 a0 ba 71 e2 18 ba 59 f0 4e ba 83 f9 0b bb
       -0.0012237116 -0.0005832082 -0.0007894091 -0.0021358437
000210 2b 43 34 3a 70 5b fd b9 36 93 3b bb 37 76 00 00
       0.0006876464 -0.00048324047 -0.002862168 4.2407e-41
000220 92 7a 00 00 f9 8f 00 80 00 c8 00 00 0e 37 00 80
       4.397e-41 -5.1648e-41 7.1746e-41 -1.975e-41
000230 65 c8 00 80 c2 0c 00 80 4d 15 00 80 72 17 00 00
       -7.1888e-41 -4.577e-42 -7.641e-42 8.41e-42
000240 cb d8 80 3b 0b 75 2d bd fc f8 ab bc de ff a9 bc
       0.0039320937 -0.04234795 -0.020992748 -0.02075189
000250 68 3c d9 bc f5 9d 37 3c 07 54 32 3c cd 62 6f 3c
       -0.026518062 0.0112070935 0.0108842915 0.014610958
000260 f0 9b df 3c b8 dd 00 3b 9a c7 e6 ba 16 1a aa ba
       0.027296036 0.0019663405 -0.0017607093 -0.0012977745
000270 30 8b db 3a eb d1 0f bb 2b 2c f8 ba ef 5c 27 3a
       0.0016749855 -0.002194519 -0.0018934062 0.00063843926
000280 0e ab 67 bb 2a f8 58 bb 6e 8b 41 ad 0e c8 4a ad
       -0.003534976 -0.0033106902 -1.10017395e-11 -1.1526792e-11
000290 41 77 14 ad 22 f3 9f ac 3a f7 58 ad 3b 32 45 2c
       -8.439306e-12 -4.546045e-12 -1.2333074e-11 2.8023267e-12
0002a0 52 b9 09 ad 06 56 95 ac 0e 21 47 ad 38 23 c0 bb
       -7.828698e-12 -4.2443852e-12 -1.131918e-11 -0.0058635734
0002b0 65 62 32 bc c9 1e d3 3b e1 ee aa bb a0 21 bb 3b
       -0.010887717 0.006442879 -0.005216465 0.0057107955
0002c0 a6 d0 93 bb f5 bd 3b bb b7 1a e5 3b f0 31 de bb
       -0.004510957 -0.0028647159 0.00699171 -0.0067808554
0002d0 1d 8f 91 19 5e 8c 9d 19 8b 1a a8 19 b1 72 4f 99
       1.5050452e-23 1.6290113e-23 1.7381513e-23 -1.0724811e-23
0002e0 af b7 a2 99 40 01 49 98 e2 67 b2 18 bb aa 52 19
       -1.6824597e-23 -2.5979272e-24 4.6116816e-24 1.0891224e-23
0002f0 51 67 62 99 84 71 77 3b cd a4 97 b9 b5 1c 27 bb
       -1.1704791e-23 0.003775687 -0.0002892375 -0.0025499288
000300 42 e6 34 3b 2a 0a a7 ba c4 e5 90 bb 64 ab 9e 3b
       0.0027603065 -0.0012744118 -0.0044219214 0.0048422087
000310 5e 9f 75 3a 1e d2 2e bb b6 89 0a b8 ac 44 06 b8
       0.0009369756 -0.0026675533 -3.3030017e-05 -3.2012045e-05
000320 a0 9c ff b7 2e 34 fd b7 93 70 07 b8 51 94 07 b8
       -3.0471303e-05 -3.0184248e-05 -3.229135e-05 -3.232464e-05
000330 9d b4 01 b8 0d 54 05 b8 6b d7 04 b8 76 11 07 bb
       -3.0924206e-05 -3.178795e-05 -3.1671876e-05 -0.0020609773
000340 0e ce 4d bb 32 a6 cd ba 98 cd 6f bb 5b ac 72 39
       -0.0031403336 -0.0015689789 -0.003659105 0.00023143126
000350 cf 3e 20 3b d7 88 3f bb 98 d4 98 39 6e d9 1d ba
       0.00244515 -0.002922585 0.00029150094 -0.0006021474
000360 df 2e d5 02 56 00 87 02 8f 9c 25 82 eb 93 96 02
       3.132444e-37 1.983666e-37 -1.2167216e-37 2.212542e-37
000370 94 8b 16 82 6e 76 bd 02 66 a6 8a 81 76 5c 0b 82
       -1.1060316e-37 2.783903e-37 -5.0931964e-38 -1.0238642e-37
000380 dc 2b 3b 02 d9 47 a1 3a 57 79 f1 bb be b1 bc bb
       1.3751177e-37 0.0012304737 -0.007369201 -0.005758493
000390 38 97 c9 3b 13 cd 41 bb ab b6 99 ba 23 42 a5 3b
       0.00615206 -0.0029571697 -0.0011727413 0.0050432845
0003a0 ef 66 4c bb e3 9c a3 ba 2b 77 25 3c cf 86 5a bc
       -0.0031189283 -0.0012482669 0.010099213 -0.013337805
0003b0 0e c3 af ba ab df 63 bb 91 15 aa bb 83 d9 f5 3b
       -0.0013409571 -0.0034770768 -0.005190559 0.007502736
0003c0 b1 92 55 3c 48 ce 8e 3c 17 49 2e 3c 45 80 00 00
       0.013035462 0.017432347 0.010637543 4.6014e-41
0003d0 35 af 00 00 98 be 00 80 35 56 00 00 ee c8 00 00
       6.2852e-41 -6.8372e-41 3.0925e-41 7.208e-41
0003e0 8d 41 00 80 17 db 00 80 4e d3 00 80 56 77 00 00
       -2.3515e-41 -7.8595e-41 -7.5802e-41 4.281e-41
0003f0 ec fd 8c a1 a0 64 42 a1 0a 42 ed a0 e2 a0 87 a1
       -9.553982e-19 -6.5862933e-19 -4.0193063e-19 -9.190541e-19

e_conv4.bias f4 [32]
000000 ec 54 07 3d c0 41 22 3b 69 ce 32 bc ae b9 c9 b8
       0.033039972 0.0024758428 -0.01091347 -9.6190124e-05
000010 c6 64 89 3c f9 85 84 3c 96 0f 58 3c 18 54 95 3c
       0.016771685 0.016177164 0.01318731 0.018228576
000020 b4 f7 83 b0 52 7c 92 ab 06 98 97 3c 14 4d d4 3c
       -9.601906e-10 -1.040843e-12 0.018505108 0.02591566
000030 2e 2d bf 3c 57 48 4f 3c 84 01 b9 3c 4b 9d 4b 3c
       0.023336973 0.0126515245 0.02258373 0.012427638
000040 74 53 96 b9 7b a0 82 3d 99 c8 9a b3 55 ff 01 3d
       -0.00028672407 0.063782655 -7.207672e-08 0.031737644
000050 5e a3 92 3b 70 09 ce aa ec 8a bc 3c 8f 83 b3 b2
       0.0044750413 -3.65995e-13 0.023015462 -2.0898169e-08
000060 2b 81 09 bb f4 e0 16 3d e1 31 da b9 ff 33 02 3d
       -0.002098153 0.036835626 -0.00041617363 0.03178787
000070 1f 8a 64 3d af 6d a4 3c 78 00 b0 a1 e9 7a ba 3c
       0.055795785 0.020071832 -1.1926348e-18 0.022763686

e_conv5.weight f4 [32, 64, 3, 3]
000000 8e 55 56 3a c2 bc 85 3a 75 55 0e bb 6f 43 99 3b
       0.0008176201 0.0010203349 -0.0021718417 0.004677228
000010 11 44 6e 3b 7d c0 23 b9 b6 a5 db 3b 02 df cb 3b
       0.0036356489 -0.00015616599 0.006703104 0.006221653
000020 88 c6 32 3b 6f 40 04 3c d4 51 b1 3a 76 f8 37 3b
       0.0027278978 0.008072003 0.0013528415 0.0028071678
000030 fb 7e a5 3b a2 9a 03 ba 10 36 18 3a 23 7a de 3a
       0.0050505376 -0.00050202955 0.0005806396 0.0016973655
000040 d3 6d 37 bb 09 a4 8c ba fd 13 81 a9 d1 69 00 2a
       -0.0027989044 -0.0010730039 -5.732218e-14 1.1405396e-13
000050 84 b3 75 29 53 4e 04 aa b9 d9 7a aa 21 46 f7 29
       5.4556633e-14 -1.1751129e-13 -2.2279998e-13 1.0981169e-13
000060 68 de 56 29 96 61 80 2a 8b 3c 39 2a 30 e3 27 3c
       4.7710452e-14 2.2805081e-13 1.6452306e-13 0.010247037
000070 27 e7 d8 b9 cf 5a 74 3c e0 17 66 3b 83 91 24 3c
       -0.00041370952 0.014914229 0.0035109445 0.010044458
000080 10 a4 5c 3c ea cd 20 bb 3d 11 3b 3c 32 0f 47 3c
       0.01346685 -0.0024536797 0.011417684 0.012149619
000090 d2 66 1d 3c 3f 47 d5 3b 1e 8f e2 3a 82 3c 3b 3c
       0.009607034 0.0065087373 0.0017285084 0.011428
0000a0 2d 09 84 bb 23 26 85 3b e5 e3 6a bc dc 48 23 bc
       -0.004029414 0.004063384 -0.014336561 -0.0099661015
0000b0 67 47 85 bc b0 d9 00 00 b4 a9 01 80 2c d2 00 80
       -0.016269399 7.8092e-41 -1.52714e-40 -7.5395e-41
0000c0 d5 96 01 00 a8 b5 00 80 5c e3 00 80 ee 31 00 00
       1.45944e-40 -6.5166e-41 -8.1561e-41 1.7911e-41
0000d0 da 9b 00 00 75 10 00 80 59 65 6f 3b 63 1b 2c 3c
       5.5909e-41 -5.904e-42 0.0036528914 0.010504576
0000e0 f6 a6 29 3c a7 ff 07 3b a1 40 ed 3b b6 fb 0d 3c
       0.010354748 0.0020751746 0.0072403704 0.00866597
0000f0 da ea 14 3b 28 fb cc 3b 9b 23 1d 3c 01 d6 7b 9e
       0.002272299 0.006255526 0.009591009 -1.3332084e-20
000100 f4 f2 8d 9e 97 5c 04 9f 81 a4 6e 9e 1d 9f b6 9e
       -1.5029439e-20 -2.8028676e-20 -1.2633634e-20 -1.9335807e-20
000110 0d a1 86 9e b1 b0 47 9e c1 6f c0 9e 8d c0 42 9e
       -1.4254411e-20 -1.0571511e-20 -2.0375011e-20 -1.0310093e-20
000120 43 6a b5 bc 64 83 51 3c 67 06 bf bc e8 0f a0 bc
       -0.022145396 0.012787674 -0.023318483 -0.019538835
000130 b5 0a c7 3c e3 f5 66 bc 86 68 1a 3c 4c 3e 8d bc
       0.024297098 -0.01409671 0.009424334 -0.01724162
000140 9e ee 2f 3c f7 0b 72 3c 63 9a cb ba b7 f6 09 bc
       0.010738043 0.01477336 -0.0015533682 -0.008420638
000150 01 35 e8 3b e4 0a 76 bc de 28 91 bb 12 0c bb bb
       0.0070863967 -0.015017245 -0.0044299206 -0.005708226
000160 43 75 d4 39 49 8d 4b ba 23 43 81 bb e5 d3 1a 3b
       0.00040523158 -0.00077648886 -0.003944771 0.0023624834
000170 7e 53 68 3c c6 47 65 bb c3 a4 a9 3a 55 75 73 3c
       0.014180062 -0.0034985407 0.001294278 0.014859517
000180 58 59 a7 39 b9 f7 11 3c a3 1d d5 3c f3 6d 00 00
       0.00031919288 0.008909159 0.026015108 3.9442e-41
000190 62 46 00 80 dc ca 00 00 01 30 00 00 fb 72 01 00
       -2.5249e-41 7.2772e-41 1.722e-41 1.33083e-40
0001a0 7f 5b 00 80 af ae 01 80 3a 38 00 80 6f 0d 01 80
       -3.2823e-41 -1.545e-40 -2.017e-41 -9.6655e-41
0001b0 0f 39 9e 19 89 f9 ae 17 e3 b9 93 18 57 92 a1 19
       1.6359863e-23 1.1307478e-24 3.8186307e-24 1.6706116e-23
0001c0 a7 cc 4e 18 5f 5c 11 19 42 c9 d1 18 60 43 05 19
       2.6728199e-24 7.5149785e-24 5.4228452e-24 6.889545e-24
0001d0 01 e0 78 19 fa bb 00 00 82 55 00 00 cf 8b 00 80
       1.2866537e-23 6.7433e-41 3.0674e-41 -5.0154e-41
0001e0 9b c8 00 00 eb 3a 00 80 53 65 00 80 db 44 00 80
       7.1964e-41 -2.1136e-41 -3.6348e-41 -2.47e-41
0001f0 72 bb 00 80 81 92 00 80 68 b5 e9 26 8a 92 48 27
       -6.7243e-41 -5.2556e-41 1.6216793e-15 2.7835015e-15
000200 57 8c 25 a7 87 b9 69 27 66 8e 90 26 18 57 82 27
       -2.2974428e-15 3.243582e-15 1.0030604e-15 3.6176676e-15
000210 7c e7 0c a7 18 46 3d 27 e7 8f 17 27 3a 8c 00 80
       -1.955439e-15 2.6267017e-15 2.103347e-15 -5.0304e-41
000220 51 3c 00 00 74 e0 00 00 bc e5 00 80 29 4a 00 00
       2.1637e-41 8.0519e-41 -8.2413e-41 2.6604e-41
000230 6c 31 00 00 25 c7 00 80 90 11 00 00 1a 5f 01 80
       1.7729e-41 -7.144e-41 6.3e-42 -1.25952e-40
000240 e7 ae f7 bb 09 0a a9 bb 3b ed 54 bb 4e 0e 03 bc
       -0.007558692 -0.005158667 -0.0032490033 -0.007999016
000250 23 27 89 bb 64 c2 22 bb e1 cb 44 ba 3f 83 6d 3b
       -0.0041855737 -0.0024835104 -0.0007507187 0.003624156
000260 bd 99 69 3b 8e 0b 3e bc 20 56 2c 3b 22 19 23 3c
       0.0035644614 -0.011599435 0.0026296452 0.009954723
000270 5f ae 4e 39 ab 17 86 3b f8 ae e1 bb a7 1b 85 3b
       0.00019710649 0.004092177 -0.006887313 0.0040621343
000280 6b 84 01 bc a4 6b 26 bc 98 05 3d bb c9 ff 6c ba
       -0.007905106 -0.010157499 -0.0028842445 -0.00090408005
000290 a2 b4 11 3b 8c 7f a6 ba 8a fc 13 3b 57 02 b9 3b
       0.002223291 -0.0012702807 0.0022580945 0.005646031
0002a0 9e 57 55 3a f7 b4 7b 3b e3 20 9d 3b 6f a0 29 bc
       0.0008138361 0.0038407424 0.00479518 -0.010353192
0002b0 72 fb dd 3b a6 b9 8d 3c 82 df 54 3c 31 b5 83 3b
       0.0067743594 0.017300438 0.012992742 0.0040194024
0002c0 54 f3 19 3b 91 cb 2f bc 0c 6f 69 bb c2 35 43 3b
       0.0023490982 -0.010729686 -0.0035619168 0.002978668
0002d0 92 56 08 08 ad 43 a6 07 6a bc 94 88 4b 34 a3 86
       4.1027774e-34 2.501668e-34 -8.951722e-34 -6.1390623e-35
0002e0 68 85 8a 87 d4 5f 10 08 04 bd 4d 07 7c 22 1b 07
       -2.0842341e-34 4.344607e-34 1.5478033e-34 1.1671038e-34
0002f0 ca cb 87 86 00 17 c6 bb 67 7b 33 bb c1 ef 6d bb
       -5.1080797e-35 -0.0060452223 -0.0027386786 -0.0036306235
000300 17 41 10 b9 18 e4 a5 3a de bd 5d bc 76 36 06 b9
       -0.00013757158 0.0012656478 -0.013534037 -0.00012799524
000310 0a c2 ae 39 12 7b 47 3b b1 76 ec b8 17 61 23 3b
       0.00033332437 0.0030438346 -0.00011275465 0.0024929696
000320 88 e6 67 3c d3 98 e5 3b 47 04 10 3c c2 e5 13 bc
       0.014154084 0.0070067435 0.008790082 -0.0090269465
000330 23 fe 5b bb f0 b3 c6 bb 12 41 76 bc 8f ad a0 bb
       -0.0033568225 -0.0060639307 -0.015030162 -0.0049035023
000340 15 b3 f4 3b 0e d4 5b 3b dc 2f 69 3c 53 e0 af bb
       0.0074676373 0.0033543142 0.014232602 -0.0053673177
000350 eb 06 ea 3a c2 0e 4d bc b4 8c 9f 3c 01 6c 64 bc
       0.0017854845 -0.012515726 0.019476272 -0.013941766
000360 3e 2a 36 3c af 15 a0 3c 02 4f c8 bc 8b 9b 10 3b
       0.01111847 0.01954159 -0.024451736 0.0022065367
000370 fd 28 0e bc 8a e9 d6 bb 9d 22 82 bc 6d b4 ac bc
       -0.008676765 -0.0065586017 -0.015885646 -0.021082127
000380 01 92 fb 3a 5f 67 43 ac ce a4 8c 2c cb 11 df aa
       0.0019193293 -2.776855e-12 3.9973363e-12 -3.9625104e-13
000390 ad 67 44 2b 12 1c ce 2c 56 77 6c 2c 75 87 e9 ac
       6.9777067e-13 5.8579886e-12 3.3603862e-12 -6.637297e-12
0003a0 94 3c 91 2c 28 fe bc 2c c7 76 53 3b 31 86 2d 3c
       4.1278734e-12 5.3714984e-12 0.0032266842 0.010591076
0003b0 ca 61 48 3c 28 2d c7 3a 1e 7a 02 3c db 25 13 3c
       0.012230346 0.0015195953 0.007963685 0.008981193
0003c0 d2 27 b2 ba b7 7e 9f 3b 34 a6 da 3b 51 a3 75 bc
       -0.001359219 0.0048674005 0.006672645 -0.014992551
0003d0 74 c6 36 bc 54 81 ac bb 26 c4 14 bc 13 75 f4 3a
       -0.011155713 -0.0052644406 -0.009079969 0.0018650613
0003e0 20 9a 1c 3d 21 67 2e 3c ea 3c 57 bc d0 f1 15 3b
       0.038232923 0.010644705 -0.013137082 0.0022879727
0003f0 41 43 f0 b9 19 40 ec b9 bc aa ec b9 5e ed ea b9
       -0.00045826475 -0.00045061184 -0.00045140635 -0.0004480881

e_conv5.bias f4 [32]
000000 4b a8 ab 3c 9c 49 36 b3 d4 5e 55 95 05 99 f5 3c
       0.020954272 -4.2442124e-08 -4.3089814e-26 0.029980192
000010 9c 62 8b 9b 8f 68 ce 3b ab 3d 19 3d 36 2b ea 3c
       -2.3059346e-22 0.0062990854 0.037412327 0.028585058
000020 c0 f5 81 3c 61 6a 9e ae 10 83 2c 3d e5 54 eb 3c
       0.015864253 -7.203905e-11 0.04211718 0.028727004
000030 7d e6 2a 93 f6 a4 fe 38 6c 8d d9 3c 0c 28 0a 3d
       -2.1570656e-27 0.0001214239 0.026556693 0.033729598
000040 82 4f 81 3b 89 0d 28 3b 37 d6 f5 ba 45 ba fc 3b
       0.0039462456 0.0025642833 -0.0018755858 0.0077126347
000050 5f 53 d6 3c 48 e2 f1 3c 26 66 27 3c 68 06 d4 86
       0.026162801 0.029526845 0.010217225 -7.975495e-35
000060 51 73 a8 3c 77 01 87 b9 c6 20 c2 3c bb df 1c 3c
       0.0205628 -0.00025750298 0.023697268 0.009574826
000070 d3 15 35 3d f7 63 c3 b4 27 9f e7 a6 f4 d0 69 b7
       0.044210266 -3.6394314e-07 -1.6071983e-15 -1.3936533e-05

e_conv7.weight f4 [8, 64, 3, 3]
000000 09 aa 5b 39 3b 74 e8 b8 49 45 8b bb 26 84 00 3c
       0.0002094881 -0.00011084272 -0.004250203 0.007844007
000010 9d cb e8 3b 49 49 75 3b d2 b0 28 3c 6c b7 18 3c
       0.0071043507 0.0037427715 0.0102960635 0.009321075
000020 7b 02 a4 3b 73 97 e1 3a 10 df f7 39 23 0b 92 3b
       0.0050051785 0.0017211273 0.00047277706 0.004456894
000030 22 49 83 3b 8e 10 18 3b c5 9d e1 3b a9 b6 11 3c
       0.004006521 0.0023203227 0.0068852627 0.008893647
000040 64 bf 1a 3c 1b af 64 3c aa fd 00 00 a9 ad 00 00
       0.009445045 0.013957764 9.0998e-41 6.2298e-41
000050 b8 15 00 00 95 57 00 80 96 18 01 00 0f f6 00 00
       7.791e-42 -3.1419e-41 1.00655e-40 8.8269e-41
000060 6e c4 01 00 63 fe 00 80 ff 9d 00 00 10 0d 17 13
       1.62301e-40 -9.1257e-41 5.6678e-41 1.906532e-27
000070 1f 64 20 15 98 d1 88 14 2c 34 13 15 e5 59 0c 15
       3.2390724e-26 1.3815161e-26 2.972757e-26 2.834369e-26
000080 2c 88 29 15 d6 af b8 14 38 94 23 12 50 94 a3 14
       3.42367e-26 1.8648607e-26 5.1616425e-28 1.6517293e-26
000090 5d 48 e5 b9 5b 4d 3f bb 41 1b bf bb 8f 1d 9e 3b
       -0.00043732199 -0.0029190395 -0.0058321063 0.004825301
0000a0 42 2b e1 3a 29 28 e2 ba ac cc b0 3b 5e c3 10 3b
       0.001717903 -0.00172544 0.0053954925 0.0022089104
0000b0 95 c8 c5 ba dc 04 26 bc d0 3e eb bb 99 c5 d1 bb
       -0.0015089685 -0.0101329945 -0.0071791187 -0.0064017293
0000c0 78 3f c0 b9 10 5e 41 3b f3 77 5f 3b fa 87 bb 3b
       -0.00036668382 0.0029505529 0.0034098595 0.005722997
0000d0 07 77 19 3c 17 f4 17 3c 2b bb 87 3b b9 53 66 3b
       0.009366757 0.009274504 0.004142185 0.0035145117
0000e0 00 25 b1 3b 18 e3 7f 3b c7 99 82 3b 85 90 cd 3b
       0.005406022 0.003904527 0.003985617 0.0062733316
0000f0 3e fe 9a 3b 0d 3d 9e 3b 81 0b ea 3b f8 95 62 bc
       0.004730015 0.004829055 0.0071424847 -0.013829701
000100 22 7c cd bc b3 4e 1f bd 34 86 97 3b a1 ff e1 bb
       -0.025083605 -0.038893413 0.0046241526 -0.0068969284
000110 11 a2 b1 bc 58 e9 72 3c 85 09 0a bb 43 28 8f bc
       -0.021683725 0.014826141 -0.0021062803 -0.017475253
000120 0a b6 01 80 6a d6 00 00 48 95 00 80 0e 18 01 80
       -1.57139e-40 7.6917e-41 -5.3552e-41 -1.00465e-40
000130 9d 49 00 00 5c 4b 00 00 ea 5a 00 00 6a bb 00 00
       2.6407e-41 2.7034e-41 3.2614e-41 6.7231e-41
000140 4f 48 01 80 b4 81 00 80 15 c7 00 00 85 d3 00 00
       -1.17775e-40 -4.6529e-41 7.1417e-41 7.5879e-41
000150 9f 0c 01 80 9b 65 00 00 6a a4 00 80 28 55 00 80
       -9.6363e-41 3.6449e-41 -5.898e-41 -3.0548e-41
000160 01 9e 00 80 41 62 00 00 b7 e8 71 3a c5 7b 2a bb
       -5.6681e-41 3.5247e-41 0.00092280976 -0.0026013714
000170 06 c1 44 ba 29 c8 94 3a f2 a5 14 bb db be ce b9
       -0.00075055694 0.0011351156 -0.002268192 -0.0003943358
000180 79 be 02 39 cf f4 56 bb 5c ba b4 ba 4d 18 f1 bb
       0.00012468723 -0.0032799726 -0.001378845 -0.007357633
000190 12 c7 a0 bb 63 96 18 bc 4e 7d 36 bb cc 7c 90 39
       -0.0049065435 -0.009313199 -0.0027845684 0.000275588
0001a0 e8 4c a5 bb 05 e9 67 bb 84 fd a4 ba 0f 78 c1 bb
       -0.0050445683 -0.0035386693 -0.001258776 -0.0059042047
0001b0 61 8c b4 37 d0 cd 20 3c 4e dd 28 3b 32 c6 52 bb
       2.1523041e-05 0.0098146945 0.0025766673 -0.003216159
0001c0 e3 98 d9 3b 7e 5f fa b9 96 06 c3 bb 04 79 78 3b
       0.00664054 -0.00047754863 -0.005951713 0.0037913928
0001d0 8f b5 5a bb 99 c2 93 bc e4 84 b5 bc d1 ce 0c bc
       -0.0033372378 -0.018037127 -0.022158094 -0.008594231
0001e0 d8 d2 81 bc fa cb aa bc 7f f0 e9 bb 29 5b 00 bb
       -0.015847608 -0.020849217 -0.007139265 -0.0019585586
0001f0 f3 61 dd bb a4 13 05 3c c2 2f 06 bb e8 d0 d9 3a
       -0.006756061 0.0081223585 -0.0020475243 0.0016618045
000200 83 29 bb 3a 58 00 89 ba aa 9c 31 3b 4b 44 57 3b
       0.0014279339 -0.0010452373 0.0027101436 0.0032847102
000210 9a 57 e6 3a 14 31 bc 3b 5d 7a c5 3b 30 df 53 bb
       0.0017573715 0.0057431553 0.0060265497 -0.0032329075
000220 bc 97 6e bb b8 0f 50 bb 02 29 af 3a 05 6d 92 3a
       -0.0036406359 -0.003174765 0.0013363662 0.0011171406
000230 af 64 bc 3a 1b aa 15 3b 09 31 1f 3b 5a 6c 52 3b
       0.0014373268 0.0022836986 0.0024290702 0.003210804
000240 0b a7 01 80 65 03 01 80 b0 06 00 80 ce 64 00 00
       -1.51759e-40 -9.3053e-41 -2.399e-42 3.6162e-41
000250 e4 c7 00 00 f4 35 00 80 50 6c 01 00 2f ee 00 80
       7.1707e-41 -1.9355e-41 1.3069e-40 -8.5444e-41
000260 97 4e 00 00 6c e2 95 3b 10 24 3c 3d bd a6 eb 3b
       2.8193e-41 0.0045741107 0.04593283 0.0071915076
000270 8d 55 15 3d 12 9e a0 3d cf 50 24 3d fb 85 03 bc
       0.03645854 0.078426495 0.040116128 -0.008027549
000280 ed 56 07 3d e9 23 9c bb 75 e0 00 00 8c 73 00 00
       0.033041883 -0.004765023 8.052e-41 4.145e-41
000290 da a6 00 00 b8 a4 00 00 7e da 00 80 a5 76 00 00
       5.9855e-41 5.909e-41 -7.838e-41 4.2562e-41
0002a0 49 51 00 00 9a 19 00 80 13 38 01 80 b0 6d 1a bc
       2.916e-41 -9.184e-42 -1.11951e-40 -0.009425566
0002b0 b9 69 25 bb 40 aa 05 bc ac 02 fc bb 2d 48 c4 ba
       -0.0025240018 -0.008158267 -0.007690748 -0.0014975123
0002c0 13 a1 0e bc 2c 42 6d bc f9 98 1e bc d5 50 83 bc
       -0.008705395 -0.014481109 -0.009680026 -0.016029755
0002d0 eb f8 56 bb 4e 22 51 3b 22 e6 9e 39 be eb 05 3b
       -0.0032802175 0.0031911316 0.0003030757 0.0020434703
0002e0 1c 8d 0d 3c 66 74 b7 3b a1 2b 97 bb d8 2e f3 3a
       0.0086396 0.0055985926 -0.0046133553 0.0018553389
0002f0 94 13 9c ba e7 e2 00 00 87 49 00 80 fc c4 00 00
       -0.001190769 8.1397e-41 -2.6377e-41 7.0665e-41
000300 26 21 01 00 b4 f4 00 00 05 44 00 80 69 b2 00 00
       1.03727e-40 8.7783e-41 -2.4401e-41 6.4002e-41
000310 f8 75 00 00 18 e5 00 00 a7 4f 34 bb f1 85 de ba
       4.2319e-41 8.2183e-41 -0.0027513297 -0.0016977174
000320 5c d8 af bb f2 bd 1f 3b e1 52 7b 3b 05 4b c4 b7
       -0.005366368 0.002437469 0.003834896 -2.3399954e-05
000330 a6 b0 09 3b b0 59 5c 3b ce 37 02 b9 29 a7 01 00
       0.0021009832 0.0033622794 -0.00012418555 1.51801e-40
000340 b3 55 00 80 4a 5d 00 00 f0 40 01 00 01 0b 00 00
       -3.0743e-41 3.3466e-41 1.1513e-40 3.947e-42
000350 9c 41 00 00 5e 02 00 80 b9 82 00 80 2d 5a 00 00
       2.3536e-41 -8.49e-43 -4.6894e-41 3.2349e-41
000360 65 21 49 aa 48 46 41 2a 2f 7f 85 29 ea b4 de 2a
       -1.7863972e-13 1.7166227e-13 5.928449e-14 3.9560656e-13
000370 95 d3 ab aa 90 6c a7 aa 6e 49 57 aa 38 1b c4 2a
       -3.0522516e-13 -2.974049e-13 -1.9121312e-13 3.483548e-13
000380 78 3b 05 29 21 26 93 3b 15 6b e0 3b b2 a2 ef 3a
       2.9583513e-14 0.0044906293 0.0068487027 0.001828274
000390 42 6d 3e 3a ee 61 75 3b ea ca 87 b9 03 5f c2 ba
       0.00072642055 0.0037442404 -0.0002590039 -0.0014829341
0003a0 da c3 de 3a 7d 65 2c bb bc 6c bb 3b 2f 4d 1f 3b
       0.0016995624 -0.002630561 0.0057197493 0.002430748
0003b0 f5 cb 40 3d 10 1e 23 bd c5 dc 2d bd 1b 61 4d bb
       0.04706951 -0.03982359 -0.04244687 -0.0031338397
0003c0 95 2c 15 bd cd a6 11 bd 7c 31 b1 3b 50 16 4f 3b
       -0.03641947 -0.035559464 0.0054075103 0.0031598993
0003d0 8b 9c 20 3b c8 64 de 3a 43 3e 1c 3c be 4f 11 3c
       0.002450737 0.0016967291 0.009536329 0.00886911
0003e0 fd 90 1c 3c a3 b5 05 3c b8 1a 09 3c cf 74 17 3c
       0.009556052 0.008160981 0.008368187 0.009244158
0003f0 e0 1a a9 bc 3d 2a af 3c be a3 99 bc ed 62 8f 3c
       -0.020642698 0.021382445 -0.018754836 0.017503226

e_conv7.bias f4 [8]
000000 3f fe bc 3c d2 f4 32 3c 52 0e 5e 3d d7 e6 16 3d
       0.023070453 0.0109226275 0.054212876 0.03684124
000010 23 07 8c 3c ff 28 cd 3c f8 12 58 3c 84 8c 54 3b
       0.017093247 0.025043963 0.013188116 0.0032432387
