snapshots/Epoch195.pth (torch, 304045 bytes, 14 tensors)

e_conv1.weight f4 [32, 3, 3, 3]
0	0xb6f8f549	-7.419531e-06
1	0xb7058a2f	-7.959591e-06
2	0xb707c2e8	-8.092007e-06
3	0xb6fd6cb6	-7.552643e-06
4	0xb70a596e	-8.246263e-06
5	0xb70ac110	-8.270392e-06
6	0xb6fba12d	-7.4991462e-06
7	0xb70842c2	-8.121775e-06
8	0xb70a62de	-8.24846e-06
9	0xb739dd1d	-1.1078341e-05
10	0xb745afda	-1.1783059e-05
11	0xb746daaa	-1.1852631e-05
12	0xb7383747	-1.0980125e-05
13	0xb746e594	-1.18551725e-05
14	0xb745cce4	-1.178982e-05
15	0xb7326fd4	-1.0635664e-05
16	0xb73f35f8	-1.1397053e-05
17	0xb740a5ba	-1.1482678e-05
18	0xb6a5bc24	-4.9392856e-06
19	0xb6b35df6	-5.345554e-06
20	0xb6b2e8d4	-5.331918e-06
21	0xb6a4a2c7	-4.9065306e-06
22	0xb6b57f78	-5.4090597e-06
23	0xb6b29258	-5.32185e-06
24	0xb69d4e07	-4.688048e-06
25	0xb6ab8aba	-5.112347e-06
26	0xb6ab9cb7	-5.114441e-06
27	0x3c5b6d86	0.013392812
28	0x3bb63d1e	0.005561485
29	0x3bd87752	0.006606021
30	0x3ce157c9	0.02750768
31	0x3c962d1f	0.018332062
32	0x3d0113bb	0.031512957
33	0x3d7d8da9	0.061902676
34	0x3d4ac3c4	0.049503103
35	0x3d948388	0.0725165
36	0x3b8228ab	0.003972133
37	0xbc1ff776	-0.009763589
38	0x3c039798	0.008031748
39	0x3c25e6a0	0.010125786
40	0x3ba30214	0.004974613
41	0x3c94b938	0.018154725
42	0x3d3fecf6	0.046856843
43	0x3d1f8b8e	0.03895145
44	0x3d604025	0.054748673
45	0xbc837c55	-0.016050497
46	0xbcbc1c25	-0.02296264
47	0xbcc42940	-0.02394545
48	0xbc352b04	-0.011057619
49	0xbc9be627	-0.019030644
50	0xbc334a64	-0.010943029
51	0x3c1507af	0.00909607
52	0x3abe8cb9	0.0014537788
53	0x3cddaab3	0.027058935
54	0xbcb62cea	-0.022238214
55	0xbd2235d3	-0.039602112
56	0xbd06121b	-0.03273211
57	0xbc3abad2	-0.0113970805
58	0xbcf982de	-0.03045791
59	0xbcfc79c8	-0.030819789
60	0x3b5eab8a	0.0033976757
61	0xbc8165bf	-0.015795587
62	0xbcb0ac0c	-0.021566413
63	0x3bf2f043	0.0074138953
64	0x3ba2be07	0.0049665007
65	0x3b2187f3	0.0024647682
66	0x3c7379d9	0.014860594
67	0x3c066b83	0.008204344
68	0x3bab0536	0.005219127
69	0x3d340b8a	0.043956317
70	0x3cb48adf	0.022038875
71	0x3b16e790	0.0023026206
72	0x3d391bf2	0.045192666
73	0x3d25d2a9	0.040484104
74	0x3d238fcc	0.039932057
75	0x3d5949b2	0.053048797
76	0x3d210cd8	0.03931889
77	0x3d34f640	0.044180155
78	0x3d8356ca	0.06413038
79	0x3d300a99	0.042978857
80	0x3d299186	0.041398548
81	0xbca6a5ad	-0.020342672
82	0x3b0104fc	0.0019686809
83	0x3c98a084	0.018631227
84	0xbd10bb5c	-0.03533493
85	0xbc4f860b	-0.012666236
86	0x3c5c79ab	0.013456742
87	0xbd2a4669	-0.041571055
88	0xbc6bfc6c	-0.014403444
89	0x3cf0827f	0.0293591
90	0xbcf33c40	-0.029691815
91	0xba2d9df0	-0.0006622961
92	0x3c960950	0.018314987
93	0xbcf69193	-0.030098712
94	0xbc341b08	-0.010992773
95	0x3c6489bb	0.013948853
96	0xbd34c4ac	-0.044132873
97	0xbba26838	-0.0049562715
98	0x3cf09c62	0.029371444
99	0xbc0a8e0e	-0.00845672
100	0x3b90f90e	0.004424221
101	0x3c6bb35b	0.014386023
102	0xbc82275d	-0.01588791
103	0x3ae3640a	0.001734854
104	0x3c563a11	0.013075368
105	0xbcf8f081	-0.030388119
106	0xba694364	-0.00088982866
107	0x3cfc15f8	0.030772194
108	0x3d236276	0.03988882
109	0x3d2de61b	0.042455774
110	0x3dc88c26	0.09792356
111	0x3bc65f2a	0.006053825
112	0x3c073023	0.008251223
113	0x3d651b09	0.055933986
114	0xbb89f4df	-0.004210099
115	0x3b87d6be	0.0041454723
116	0x3d57281b	0.052528482
117	0x3d0206d5	0.031744797
118	0x3d0b4e64	0.034010306
119	0x3db067e5	0.08613566
120	0xbaadea22	-0.001326863
121	0x3a0187d0	0.0004941197
122	0x3d366167	0.044526484
123	0xbc2e59de	-0.010641543
124	0x37a1038c	1.9194347e-05
125	0x3d393cf8	0.04522416
126	0x3c6d3c3f	0.014479696
127	0x3c51609e	0.012779383
128	0x3d63f8fd	0.055657376
129	0xbc47f702	-0.012204887
130	0xbc415ffd	-0.011802671
131	0x3cbad61f	0.022807179
132	0xbcbdd656	-0.023173492
133	0xbc6ec9e2	-0.0145745
134	0x3cb2ce16	0.021826785
135	0xb74124ad	-1.1512236e-05
136	0xb74fced8	-1.2386321e-05
137	0xb74b6f2c	-1.2125627e-05
138	0xb74b04ae	-1.21008325e-05
139	0xb75c58a7	-1.3133663e-05
140	0xb7532682	-1.2585546e-05
141	0xb745f7d4	-1.1799817e-05
142	0xb7526ed8	-1.2542783e-05
143	0xb74a4ed0	-1.2058488e-05
144	0xb73d92e3	-1.1299478e-05
145	0xb74bcf00	-1.2147939e-05
146	0xb7461410	-1.1806391e-05
147	0xb7430054	-1.1622982e-05
148	0xb7538022	-1.2606413e-05
149	0xb74945d3	-1.1996791e-05
150	0xb73a7a8a	-1.1114995e-05
151	0xb7461fb5	-1.1809102e-05
152	0xb73d0441	-1.1266268e-05
153	0xb661d2e8	-3.3650376e-06
154	0xb67f9829	-3.808653e-06
155	0xb67538e8	-3.6540969e-06
156	0xb66bae8a	-3.5119324e-06
157	0xb686c37e	-4.0162695e-06
158	0xb67a91e1	-3.7337816e-06
159	0xb65c4379	-3.282183e-06
160	0xb6741d19	-3.637577e-06
161	0xb663b055	-3.3928275e-06
162	0x3da4b2ed	0.0804194
163	0x3ceda3b9	0.029008733
164	0xbcc0c650	-0.023532063
165	0x3d6cdfff	0.057830807
166	0x3ca02370	0.019548148
167	0xbd05742e	-0.0325815
168	0x3d422d9e	0.047406785
169	0x3a706631	0.0009170501
170	0xbd53d034	-0.05171223
171	0x3d851ae3	0.06499269
172	0x3cb047de	0.021518644
173	0xbd23886e	-0.03992503
174	0x3d311192	0.043229647
175	0x3bfefae4	0.0077813733
176	0xbd0aadaf	-0.033857044
177	0x3cfcba86	0.03085066
178	0xbcaa28e4	-0.020771451
179	0xbd8fbe06	-0.07018666
180	0x3d181f5a	0.037139274
181	0x39a64e34	0.00031720253
182	0xbd02ef28	-0.03196636
183	0x3cbdb920	0.023159564
184	0x3a551c9a	0.0008129567
185	0xbce914b3	-0.028452253
186	0x3ccfc7ef	0.02536389
187	0xbc96bc01	-0.018400194
188	0xbd7dac58	-0.061931938
189	0xa82c0fd5	-9.551351e-15
190	0xa836feb0	-1.0158256e-14
191	0xa859ff13	-1.210123e-14
192	0xa82fb36b	-9.7533565e-15
193	0xa83c9add	-1.0469677e-14
194	0xa8564f24	-1.1896547e-14
195	0xa83349fc	-9.952539e-15
196	0xa837cd99	-1.02031226e-14
197	0xa855c833	-1.18672865e-14
198	0xa8154f50	-8.28836e-15
199	0xa81b78b2	-8.6304e-15
200	0xa83869dc	-1.0237006e-14
201	0xa80c5eda	-7.792129e-15
202	0xa812f226	-8.157136e-15
203	0xa8261d17	-9.221159e-15
204	0xa802b9fe	-7.25678e-15
205	0xa801ac9c	-7.198367e-15
206	0xa816332d	-8.33777e-15
207	0xa608b036	-4.742329e-16
208	0xa6104d14	-5.0064496e-16
209	0xa633645d	-6.223912e-16
210	0xa6022181	-4.5148217e-16
211	0xa609cbb3	-4.7807487e-16
212	0xa621224a	-5.5904566e-16
213	0xa5ee3383	-4.1321324e-16
214	0xa5ea0599	-4.0596322e-16
215	0xa60c3e0e	-4.8656357e-16
216	0x9aa01b01	-6.6218076e-23
217	0x9a59b99a	-4.5024476e-23
218	0x9a277422	-3.4628602e-23
219	0x9ae06094	-9.280026e-23
220	0x9a9dce0a	-6.526655e-23
221	0x9a54993f	-4.3964364e-23
222	0x9b3c468a	-1.5573788e-22
223	0x9ae3f0cb	-9.427402e-23
224	0x9aa8ec8c	-6.9865334e-23
225	0x9734999b	-5.8355014e-25
226	0x96c31b16	-3.1521043e-25
227	0x967a1ee1	-2.0204583e-25
228	0x9731534f	-5.7296935e-25
229	0x96c50e5c	-3.1836129e-25
230	0x965c41cf	-1.7792224e-25
231	0x97847e0a	-8.562117e-25
232	0x96fa45a1	-4.043362e-25
233	0x96a00e3f	-2.5858385e-25
234	0x9560e3b3	-4.5416063e-26
235	0x95019465	-2.6168405e-26
236	0x94876b50	-1.3673844e-26
237	0x953de65f	-3.8349977e-26
238	0x94de8209	-2.2467561e-26
239	0x944368ae	-9.8656285e-27
240	0x953691f6	-3.686975e-26
241	0x94ae26f9	-1.7584882e-26
242	0x94380528	-9.290643e-27
243	0xbd8f0d87	-0.06985002
244	0xbd324c0c	-0.043529555
245	0xbd8695c5	-0.06571535
246	0xbd020458	-0.031742424
247	0xbc8d2699	-0.017230319
248	0xbc9e5d6b	-0.019331655
249	0xbb954166	-0.0045549152
250	0x3c93854b	0.018007895
251	0x3c8ce7d8	0.017200395
252	0xbd72d378	-0.059283704
253	0xbce13ddc	-0.027495317
254	0xbd439120	-0.047745824
255	0xbc91003b	-0.017700305

e_conv1.bias f4 [32]
0	0xb8ddf151	-0.0001058305
1	0x3d7a5b65	0.061122317
2	0x3caef109	0.021355169
3	0x3de5803f	0.112061016
4	0x3d5a2b06	0.053263687
5	0xb855bfa9	-5.0961655e-05
6	0x3d9b90e1	0.07595993
7	0xb288a9fb	-1.5909782e-08
8	0xabab7ce2	-1.2184943e-12
9	0x3dab1860	0.083542585
10	0xbab7e1e8	-0.0014029117
11	0x99b94acd	-1.9158763e-23
12	0x3c7b578f	0.0153407
13	0x3d88cb79	0.06679434
14	0xb74f4958	-1.2355238e-05
15	0x3e11a104	0.14221579
16	0x3dec5142	0.11538936
17	0x3dc4bfbd	0.09606884
18	0x3e31ff54	0.17382556
19	0x3e1ef7c5	0.15524204
20	0xbab7045d	-0.0013963092
21	0x3e0b4f68	0.1360451
22	0xbc3c59ae	-0.011495991
23	0x3dee8fa2	0.116484895
24	0x9e516c88	-1.1086812e-20
25	0xb82091ed	-3.8282877e-05
26	0x3cc6de0c	0.024275802
27	0x91019c3f	-1.0224453e-28
28	0xb596040b	-1.1177048e-06
29	0xbce7b3a0	-0.028283894
30	0x3dc53fec	0.09631333
31	0xab52372b	-7.468355e-13

e_conv2.weight f4 [32, 32, 3, 3]
0	0x8aba45d8	-1.7937421e-32
1	0x8a6f9b2e	-1.15366175e-32
2	0x8b86f7d3	-5.1987807e-32
3	0x0a5205ef	1.0112248e-32
4	0x8ba225e5	-6.245715e-32
5	0x0b9dfa9d	6.085128e-32
6	0x0b53850c	4.0737215e-32
7	0x8ad3eb2b	-2.0407021e-32
8	0x8aa8a58f	-1.6240088e-32
9	0x3b2e0cd2	0.0026557934
10	0xbb2fa129	-0.002679894
11	0x3a7f38dd	0.00097359513
12	0x3956008f	0.00020408838
13	0xb9b0184b	-0.00033587436
14	0xbad88df0	-0.0016521793
15	0x3bb4958d	0.005510992
16	0x3be3eb5a	0.0069555463
17	0x3ac87dc4	0.001529627
18	0xbaaaa8e6	-0.0013020306
19	0xbaec982a	-0.001805072
20	0xbb085933	-0.002080512
21	0xb994961b	-0.00028340597
22	0xbac1db74	-0.0014790134
23	0xbb0b6434	-0.0021269443
24	0x3ac6f673	0.0015179649
25	0x3a019df2	0.0004944495
26	0x37b7ebff	2.1925194e-05
27	0xbabcbfa0	-0.001440037
28	0x3b03b0ee	0.0020094472
29	0x3b5f5378	0.003407685
30	0xbad71c6e	-0.0016411671
31	0x3914ba92	0.00014183883
32	0x3aa0eee8	0.0012278231
33	0xbb54361a	-0.003238088
34	0x39c41359	0.00037398448
35	0x3afeecb9	0.0019449211
36	0xba4befaa	-0.0007779548
37	0xbaca9d0d	-0.0015458182
38	0xbabd397b	-0.0014436686
39	0x3aadbdcc	0.0013255416
40	0xbb9e4e1e	-0.0048310896
41	0x3a079bb2	0.0005173042
42	0x3b19a7a5	0.0023445871
43	0xbbb18268	-0.005417157
44	0xbb4e7eed	-0.003150876
45	0x053436a9	8.473599e-36
46	0x858b5303	-1.3101991e-35
47	0x05945227	1.3948031e-35
48	0x85ff18c9	-2.398919e-35
49	0x05bce3d3	1.7763124e-35
50	0x85c68332	-1.8668024e-35
51	0x860164a6	-2.4336148e-35
52	0x05408541	9.0522715e-36
53	0x85926ab2	-1.3768968e-35
54	0x3b595cf2	0.0033166972
55	0x3b37ab50	0.0028025694
56	0x3a12b2fd	0.00055961293
57	0x3b64d166	0.003491485
58	0x3b4fff7c	0.0031737974
59	0x3a0645ab	0.00051220757
60	0x3b6bf1f4	0.003600237
61	0x3b381f47	0.0028094815
62	0x39e75264	0.0004412114
63	0x00005fdf	3.4392e-41
64	0x00014ff9	1.20524e-40
65	0x00011704	1.00092e-40
66	0x00014f8f	1.20376e-40
67	0x00011c24	1.0193e-40
68	0x8000b8d9	-6.6311e-41
69	0x000088b5	4.9041e-41
70	0x80015b66	-1.24623e-40
71	0x00009b8e	5.5803e-41
72	0x8000dd63	-7.9419e-41
73	0x0000a919	6.0661e-41
74	0x0000c7db	7.1695e-41
75	0x800029e9	-1.5035e-41
76	0x800013a3	-7.044e-42
77	0x80005c4a	-3.3107e-41
78	0x800049fb	-2.6539e-41
79	0x800051dc	-2.9366e-41
80	0x00009fcb	5.7323e-41
81	0x3a3049db	0.00067248725
82	0x39edfd43	0.00045392857
83	0x3a972157	0.0011530322
84	0x3a3fb78f	0.0007313424
85	0x3989b7dd	0.00026267665
86	0x3a81278b	0.0009853704
87	0x3b4e5465	0.0031483409
88	0x3b319320	0.002709575
89	0x3b46c7d9	0.003033152
90	0xb2404335	-1.1191152e-08
91	0xb25c7467	-1.2832152e-08
92	0xb293d3fb	-1.720945e-08
93	0x31d50196	6.199296e-09
94	0xb18f76f0	-4.1753694e-09
95	0xb28ba2fd	-1.6255848e-08
96	0x3280274f	1.4919037e-08
97	0x320818b5	7.92186e-09
98	0xb24ca9e4	-1.19129915e-08
99	0x181d06a0	2.029512e-24
100	0x1829ba85	2.1936906e-24
101	0x182969e9	2.189621e-24
102	0x183cfcf6	2.4426143e-24
103	0x1804f1b9	1.7182639e-24
104	0x182b8113	2.2166398e-24
105	0x184eefa2	2.674586e-24
106	0x18431df2	2.5218278e-24
107	0x183c9627	2.4374238e-24
108	0x39a4973c	0.00031393196
109	0x39bbc39a	0.00035813154
110	0x385894af	5.1636885e-05
111	0x3a59f325	0.00083141244
112	0x3a23f8fc	0.0006255058
113	0x39d02bd8	0.00039705518
114	0x3b2a7cc2	0.0026014303
115	0x3b12a722	0.002237745
116	0x3af22cce	0.0018476488
117	0x3a905d3f	0.0011014118
118	0x3aad6e3b	0.0013231704
119	0x3a8a02bc	0.0010529379
120	0x3a90771f	0.0011021829
121	0x3abcb41f	0.0014396942
122	0x3a96301e	0.0011458432
123	0x3a8b8cdf	0.0010646841
124	0x3abc7b6e	0.0014380047
125	0x3a9e2ea9	0.0012068349
126	0x8000de3c	-7.9723e-41
127	0x80003bed	-2.1497e-41
128	0x8000f91f	-8.9368e-41
129	0x8000287d	-1.4524e-41
130	0x0000c689	7.1221e-41
131	0x80013223	-1.09821e-40
132	0x00005751	3.1323e-41
133	0x80005743	-3.1304e-41
134	0x80005da1	-3.3588e-41
135	0x3b118b50	0.002220828
136	0x3b849d56	0.004047076
137	0x3adedc9d	0.0017003004
138	0x3b8c6ae3	0.004285203
139	0x3b9d2d52	0.0047966624
140	0x3b81719b	0.0039503104
141	0x39746b38	0.00023309595
142	0xbb826d85	-0.003980341
143	0xba92399c	-0.0011156085
144	0xb9b4ae94	-0.00034462346
145	0xb9ffd789	-0.00048797976
146	0x3a59e507	0.0008312021
147	0xbaa25032	-0.0012383519
148	0x3b4f0325	0.0031587568
149	0x3b5817b0	0.0032973103
150	0xbb2133be	-0.002459749
151	0x3acbb60a	0.0015541923
152	0x3abc5402	0.0014368298
153	0x3af89593	0.0018965475
154	0x3ab7139f	0.001396764
155	0x3aa11f27	0.0012292609
156	0x3aacc1b7	0.001318029
157	0x3ae16f8b	0.001719938
158	0x3aa0d9e9	0.0012271974
159	0x3a35d198	0.0006935834
160	0x3a9091f6	0.0011029828
161	0x3a10117e	0.00054957706
162	0x3acca0da	0.0015611902
163	0xbb92566b	-0.004465868
164	0xbb3aeb09	-0.002852144
165	0x3a169841	0.00057447335
166	0x3ac71921	0.0015189984
167	0x3bbea2ac	0.005817732
168	0xbc06f721	-0.008237631
169	0x3bc82ea3	0.006109075
170	0x3c2f8e41	0.010715068
171	0x3b8210be	0.003969281
172	0x3b94d7fb	0.0045423484
173	0x3b342580	0.0027488172
174	0x3b0f008b	0.0021820392
175	0x3b40dd12	0.0029428643
176	0x3b143e17	0.0022620016
177	0x39f1208d	0.00045991354
178	0x3ac9b2ca	0.0015388366
179	0x3bc06eae	0.005872569
180	0xabe9676d	-1.6584352e-12
181	0xab4db0d0	-7.3076007e-13
182	0x2b2ad2df	6.0688775e-13
183	0xabc9d194	-1.4340079e-12
184	0xabcc10e6	-1.4499762e-12
185	0xa9e2bb95	-1.00689564e-13
186	0xaa8d5dda	-2.5111754e-13
187	0xabe0407b	-1.5934054e-12
188	0xabb08c31	-1.2544463e-12
189	0xbb4bd6ee	-0.003110345
190	0x3ba0a8b7	0.004902925
191	0x3bc47f6b	0.0059966347
192	0xbb4bc764	-0.0031094188
193	0x3c4a689f	0.012354045
194	0x3c0be064	0.008537386
195	0x3bab7a94	0.0052331183
196	0x3c167d44	0.009185139
197	0x3bcdd765	0.0062817805
198	0x398cb373	0.0002683658
199	0xb94e67ba	-0.00019684332
200	0xba220ce1	-0.00061817287
201	0x39a5e991	0.00031645273
202	0xb838a567	-4.402306e-05
203	0xb9f98fd2	-0.00047600135
204	0x3806ca2a	3.213637e-05
205	0xb88034b5	-6.113333e-05
206	0xba31dad6	-0.0006784623
207	0x3b306266	0.0026914119
208	0x3b2da5b7	0.0026496479
209	0x3b2ddadb	0.0026528153
210	0x3b194388	0.00233862
211	0x3b3e1a9d	0.0029007562
212	0x3ad68202	0.001636565
213	0x3994ae5c	0.00028358668
214	0x3b37e2a8	0.0028058682
215	0x3a86c320	0.001028154
216	0x1b87ae77	2.2446622e-22
217	0x1b89b2b2	2.2780228e-22
218	0x1b7e8c76	2.1055773e-22
219	0x1ba78e83	2.7719928e-22
220	0x1b94aae0	2.4594972e-22
221	0x1b8ce770	2.331062e-22
222	0x1bad789f	2.86984e-22
223	0x1ba368e6	2.7033877e-22
224	0x1b8e93e8	2.3587512e-22
225	0x05c8ad9d	1.8871685e-35
226	0x85bc2288	-1.769212e-35
227	0x05b8b8d3	1.737117e-35
228	0x85ce8233	-1.9419975e-35
229	0x05a06c78	1.5086173e-35
230	0x85d32f16	-1.9859641e-35
231	0x85df9e9a	-2.102908e-35
232	0x04fc3f91	5.9303292e-36
233	0x858e06cc	-1.3356113e-35
234	0x3a5d000e	0.0008430489
235	0xba1e156f	-0.00060304155
236	0xba122143	-0.00055744144
237	0xba6beb1d	-0.0008999573
238	0xbb326561	-0.002722107
239	0xbbbfad49	-0.0058495146
240	0x3bcdc4ec	0.0062795784
241	0xbac9598f	-0.0015361774
242	0xbbb667a5	-0.0055665546
243	0x0da3c67f	1.0093437e-30
244	0x0d889557	8.417599e-31
245	0x0d80a5a8	7.928489e-31
246	0x0d9867c9	9.392709e-31
247	0x0d91dc6a	8.989378e-31
248	0x0d9324f0	9.068467e-31
249	0x0da2957e	1.002001e-30
250	0x0daf1728	1.0790782e-30
251	0x0d90bc7d	8.920062e-31
252	0x2e2b57f5	3.895902e-11
253	0x2e584e22	4.918211e-11
254	0x2e561fb1	4.8686114e-11
255	0x2e1ff237	3.6367544e-11

e_conv2.bias f4 [32]
0	0xbcc23202	-0.023705486
1	0xb7471108	-1.186529e-05
2	0x3d435d19	0.047696207
3	0xb7ba64d9	-2.2219889e-05
4	0x3d22061c	0.039556608
5	0x3d15dfee	0.03659051
6	0x3b3b21e3	0.0028554134
7	0x3d4a83f1	0.049442235
8	0x3d6f1d26	0.058377407
9	0x3d16d527	0.03682437
10	0xbccf423a	-0.025300134
11	0xb38c9189	-6.545731e-08
12	0x942e7c16	-8.809227e-27
13	0xbc0c33a2	-0.008557232
14	0x3c418324	0.0118110515
15	0xa2ab09a8	-4.6359867e-18
16	0x3d01fc8b	0.031734984
17	0x3c7f6ed3	0.015590387
18	0xbb241e95	-0.0025042642
19	0xbbbfe584	-0.005856218
20	0xb0d1d676	-1.5267705e-09
21	0x3c7f1154	0.015568096
22	0xae333383	-4.074564e-11
23	0x3d3a0779	0.045417283
24	0xb9b49b98	-0.00034448202
25	0x3d514023	0.051086556
26	0x3d33a4af	0.043858226
27	0xbab190e0	-0.0013547204
28	0xb4d25c02	-3.9182493e-07
29	0x3b2e22ac	0.002657096
30	0x9be7d4f0	-3.8353352e-22
31	0x3d51ab5c	0.05118881

e_conv3.weight f4 [32, 64, 3, 3]
0	0x0d1cbd5a	4.8299135e-31
1	0x8d12b98c	-4.5213067e-31
2	0x0d11f620	4.4977837e-31
3	0x8cf96ced	-3.8430082e-31
4	0x8d0aeb80	-4.2808006e-31
5	0x8c8cecb5	-2.1712878e-31
6	0x0d07b232	4.181458e-31
7	0x8cc06cfa	-2.9647872e-31
8	0x0d2cf6d8	5.329872e-31
9	0xbb03a937	-0.0020089874
10	0x3c50434a	0.012711355
11	0x3c6d71c6	0.014492458
12	0xbc0894f6	-0.008336296
13	0x3bc7ce9d	0.0060976283
14	0x3c092811	0.008371369
15	0xbcdd90de	-0.027046617
16	0xbc3fccc2	-0.011706533
17	0xbc00ad02	-0.007853748
18	0xbb69ea49	-0.0035692623
19	0x3beea541	0.0072828834
20	0x3bceba28	0.0063088126
21	0xbbc558f4	-0.006022567
22	0x3ba549b1	0.005044185
23	0x3b8002bd	0.0039065764
24	0xbc79e35a	-0.015251959
25	0xbbc6ab55	-0.006062905
26	0xbbcf06ab	-0.0063179336
27	0x3b54377c	0.0032381704
28	0x3b8c8b3d	0.0042890594
29	0x3b420d74	0.002961007
30	0x3b8d7f36	0.0043181432
31	0x3b9545b6	0.0045554293
32	0x3b2ebc30	0.0026662461
33	0xbbea5565	-0.007151293
34	0xbb97ace1	-0.004628763
35	0xbba07128	-0.004896302
36	0xbb7504df	-0.0037386937
37	0x3c32b839	0.01090818
38	0x3c40dc29	0.01177124
39	0xbb070e50	-0.0020607896
40	0x3c3d8975	0.011568417
41	0x3c383719	0.011243605
42	0xbcaa4f69	-0.020789819
43	0xbc0c662b	-0.008569281
44	0xbbc75075	-0.0060825893
45	0x8c4f327e	-1.5961894e-31
46	0x0df27ebb	1.4944911e-30
47	0x8e3007b8	-2.1697391e-30
48	0x08d258ee	1.26598225e-33
49	0x0c3a2977	1.4341397e-31
50	0x0dd05c04	1.2841142e-30
51	0x899f7fc2	-3.8398e-33
52	0x0b0563da	2.5689988e-32
53	0x8aed8fa1	-2.2876297e-32
54	0xbba453ef	-0.0050148885
55	0x3bf27379	0.0073990193
56	0x3b93bc2e	0.0045085168
57	0xbb820d57	-0.0039688754
58	0x3c367db3	0.0111383675
59	0x3c19ccb5	0.009387185
60	0xbc28b8af	-0.010297938
61	0x3a5a4494	0.0008326259
62	0xbb9fcde7	-0.0048768404
63	0x0000f8a0	8.919e-41
64	0x0000e7e9	8.3194e-41
65	0x0000c3d3	7.0248e-41
66	0x00001eff	1.112e-41
67	0x8000f93f	-8.9413e-41
68	0x0000f036	8.6171e-41
69	0x8000e3c1	-8.1703e-41
70	0x0001153a	9.945e-41
71	0x0000eef7	8.5724e-41
72	0x0000861e	4.8112e-41
73	0x000053e7	3.0098e-41
74	0x800035a0	-1.9237e-41
75	0x0000df65	8.0139e-41
76	0x00005447	3.0233e-41
77	0x80003628	-1.9428e-41
78	0x8000ad81	-6.2241e-41
79	0x000026a9	1.3869e-41
80	0x0000ccac	7.3422e-41
81	0x3ae42e41	0.0017408804
82	0x3bba7994	0.005690763
83	0x3b348a6f	0.0027548333
84	0xba0f13bc	-0.0005457958
85	0x3a632275	0.0008664497
86	0xbb0a87ff	-0.002113819
87	0xbbe98b43	-0.007127197
88	0xbbb6aaaf	-0.0055745463
89	0xbb99ec7a	-0.0046973797
90	0xb8992cd1	-7.303956e-05
91	0xb8a61e54	-7.921146e-05
92	0xb8ada14d	-8.2793274e-05
93	0xb88ebf1c	-6.8066845e-05
94	0xb89afb79	-7.390133e-05
95	0xb8a5001d	-7.867834e-05
96	0xb88f73ed	-6.840364e-05
97	0xb89b325c	-7.400356e-05
98	0xb8a60e84	-7.9182006e-05
99	0x18f3901b	6.2959537e-24
100	0x18f544b3	6.3400384e-24
101	0x18f364f3	6.291596e-24
102	0x18f27042	6.2668885e-24
103	0x18f7a515	6.4014694e-24
104	0x18f6933c	6.373818e-24
105	0x1900cea4	6.659176e-24
106	0x19008d8e	6.646032e-24
107	0x18f9ec2e	6.460347e-24
108	0xbad8655f	-0.0016509703
109	0x3a676e58	0.0008828393
110	0xb9a2b10d	-0.0003103096
111	0xbaf8e0f9	-0.0018987946
112	0xb9cfa827	-0.000396074
113	0xbaf31336	-0.0018545154
114	0x3aa51657	0.0012595159
115	0x3b10891c	0.002205438
116	0x3b1aaed4	0.002360274
117	0xbbb1d62b	-0.005427142
118	0xba251047	-0.0006296676
119	0xbae5d536	-0.0017534855
120	0xbbd33ebc	-0.0064466875
121	0xbabaadc1	-0.0014242457
122	0xbb2a5bcf	-0.0025994664
123	0xbc27e30c	-0.010247003
124	0xbbc132d5	-0.005895952
125	0xbc01881f	-0.007905989
126	0x8000c2dc	-6.9902e-41
127	0x00006a55	3.8145e-41
128	0x00008569	4.7859e-41
129	0x00006239	3.5236e-41
130	0x8000d25e	-7.5466e-41
131	0x0000188a	8.803e-42
132	0x800046be	-2.5378e-41
133	0x000024a3	1.3143e-41
134	0x8000c808	-7.1758e-41
135	0xbc29450f	-0.010331406
136	0x3c266979	0.010156983
137	0x3c58cb75	0.013232102
138	0xbb978b99	-0.0046247956
139	0x3c1ecb01	0.009691955
140	0x3c318147	0.010834045
141	0xbd090662	-0.033453353
142	0xbc732089	-0.0148393
143	0xbc38562b	-0.011251013
144	0xbb5711d2	-0.0032817018
145	0x3be03ce8	0.006843198
146	0x3c022a07	0.00794459
147	0xbb8b4c8e	-0.0042510694
148	0x3bec056b	0.0072027943
149	0x3bbb33eb	0.005712976
150	0xbc914063	-0.017730897
151	0xbbdc9055	-0.006731073
152	0xbbda09a9	-0.0066539836
153	0xbb28fc23	-0.002578505
154	0x3b29ce33	0.0025910258
155	0x3b07c811	0.0020718614
156	0x39ac1504	0.00032822054
157	0x3bdf2b8e	0.006810612
158	0x3bc48aa3	0.005997972
159	0xbbe567e4	-0.00700091
160	0xba18a4d1	-0.00058228994
161	0xbb6dc836	-0.0036282665
162	0xbbae1ea9	-0.0053137136
163	0x3c521aad	0.012823743
164	0x3c65909b	0.014011527
165	0xbba7475b	-0.005104942
166	0x3c12c81c	0.008958843
167	0x3c797351	0.0152252475
168	0xbd026937	-0.031838622
169	0xbc5a9a2f	-0.013342424
170	0xbc2610ad	-0.010135812
171	0x39e19ad9	0.00043030715
172	0x3bf0a39b	0.007343722
173	0x3beff70a	0.0073231505
174	0xba679cad	-0.0008835297
175	0x3b9c29e1	0.0047657345
176	0x3b69e648	0.0035690237
177	0xbc784bef	-0.015154823
178	0xbc1921b5	-0.009346415
179	0xbc0c1b43	-0.008551422
180	0xaad9e8b6	-3.870842e-13
181	0x2c393c93	2.6323707e-12
182	0x2ca478d7	4.6745763e-12
183	0xaba56bf5	-1.1753919e-12
184	0x2c135c59	2.094122e-12
185	0x2ca0849d	4.5621965e-12
186	0x2bc81a2b	1.4218118e-12
187	0x2c9a89dc	4.3922487e-12
188	0x2cc888b2	5.699518e-12
189	0xbb61d6a6	-0.0034460216
190	0x3c280372	0.010254728
191	0x3c18bcaf	0.009322329
192	0xbbcef470	-0.0063157603
193	0x3c10e0b8	0.00884264
194	0x3c29a70a	0.010354767
195	0xbce26d73	-0.02764008
196	0xbc8005eb	-0.015627822
197	0xbc12fca1	-0.008971364
198	0xbbf467a9	-0.0074586463
199	0x3a3fd3d6	0.0007317638
200	0x3b630d69	0.0034645444
201	0xbbbcdeca	-0.005763863
202	0x3b8452e6	0.0040382026
203	0x3bf19915	0.007372985
204	0xbc530d87	-0.012881643
205	0xbb9bb850	-0.0047521964
206	0xbb0b9145	-0.0021296304
207	0xbb294128	-0.002582619
208	0x3bda1496	0.006655286
209	0x3babd38c	0.005243724
210	0xbb52db3f	-0.0032174138
211	0x3bc7d317	0.006098162
212	0x3b9a4009	0.0047073406
213	0xbc26b55b	-0.010175074
214	0xbb0c2fce	-0.0021390799
215	0xbba8a361	-0.0051464294
216	0x9be919eb	-3.8563366e-22
217	0x9c0b7a03	-4.614894e-22
218	0x9c1d2db1	-5.2005997e-22
219	0x9b94a585	-2.459151e-22
220	0x9c01b511	-4.291654e-22
221	0x9c08df42	-4.528718e-22
222	0x9b3f3dbc	-1.5819097e-22
223	0x9b8f6164	-2.3720303e-22
224	0x9b9e5585	-2.6194173e-22
225	0x06a64acf	6.255218e-35
226	0x87057023	-1.0038762e-34
227	0x86a3beee	-6.159433e-35
228	0x86c8bd2b	-7.5509596e-35
229	0x06e6774a	8.6691664e-35
230	0x85c5ef07	-1.8613596e-35
231	0x8508a4fc	-6.424992e-36
232	0x856467a1	-1.0739542e-35
233	0x86c7e461	-7.5191053e-35
234	0xbb7a6200	-0.0038205385
235	0x3c1b884e	0.009492947
236	0x3c4bb474	0.01243316
237	0xbbf8bfb3	-0.0075912117
238	0x3c6f714b	0.0146144135
239	0x3c19fac9	0.009398171
240	0xbcd38b6e	-0.025823321
241	0xbc2e75c9	-0.010648199
242	0xbc0a90b3	-0.008457351
243	0x0dd66e7e	1.3215368e-30
244	0x0d4f8978	6.395227e-31
245	0x0dcdef86	1.2691764e-30
246	0x0dd9acd2	1.34152625e-30
247	0x0dc3005d	1.201789e-30
248	0x0dcbb08c	1.2553343e-30
249	0x0dfeed2e	1.57110575e-30
250	0x0de5cf2b	1.41630885e-30
251	0x0d577486	6.639225e-31
252	0xadfe1063	-2.8883734e-11
253	0xac22c979	-2.3133424e-12
254	0x2d34ff3e	1.02884905e-11
255	0x2c97bca8	4.312623e-12

e_conv3.bias f4 [32]
0	0x3d2e9dc6	0.042630933
1	0x3d03aa99	0.032145116
2	0xba821097	-0.0009923157
3	0x3c4ef442	0.012631478
4	0x3d222d1d	0.039593805
5	0xba891955	-0.001045982
6	0xbc125fd2	-0.008933978
7	0xb9f0cfa1	-0.00045931063
8	0x3d121cf2	0.035672136
9	0x3bdb62cb	0.0066951266
10	0x3d04e62b	0.032446068
11	0x90b4d7e9	-7.1330144e-29
12	0xa6ca4f4f	-1.4038062e-15
13	0xb0bd80e9	-1.3788198e-09
14	0xb162606a	-3.2942133e-09
15	0xba9d4640	-0.0011999086
16	0x3df0de6c	0.117611736
17	0xb995195c	-0.0002843839
18	0x3dc22f1c	0.09481642
19	0xbbda90b0	-0.00667008
20	0xb6000843	-1.9078295e-06
21	0x3ca4879a	0.020084191
22	0xbb6d8f98	-0.0036248919
23	0xbbeeeb28	-0.0072912164
24	0x3c7594b1	0.014989064
25	0xb99cbbce	-0.00029894564
26	0x3c186783	0.009302023
27	0x3d231b4f	0.039820965
28	0x96afb646	-2.8387806e-25
29	0xbc3e5ab2	-0.011618303
30	0x3d11c5b6	0.035588942
31	0xbc7556df	-0.014974325

e_conv4.weight f4 [32, 64, 3, 3]
0	0xb97f7c70	-0.00024365052
1	0x3b5724a3	0.0032828234
2	0xbbc418c5	-0.005984398
3	0x3aa76f07	0.0012774178
4	0xba4fb980	-0.0007924065
5	0xba233071	-0.0006225175
6	0x3b653d2e	0.0034979093
7	0xb9826f8f	-0.0002487865
8	0xbb12a6f2	-0.002237734
9	0x2092997a	2.4834924e-19
10	0x20d130c2	3.5438242e-19
11	0x20ca3086	3.425224e-19
12	0x20ecb635	4.010053e-19
13	0x211e7260	5.3683856e-19
14	0x211740e2	5.124666e-19
15	0x20e95b28	3.9532057e-19
16	0x21194a90	5.19371e-19
17	0x211310dc	4.982785e-19
18	0xb91a0860	-0.00014689704
19	0x3a57d87e	0.0008233859
20	0x3a3cb48b	0.0007198534
21	0xbab2c774	-0.0013639764
22	0xba559adb	-0.00081483804
23	0xbacc4ed8	-0.0015587462
24	0xbb49c503	-0.0030787594
25	0xbb32f5c0	-0.0027307123
26	0xbb94ff5d	-0.0045470432
27	0x2b6bcc5c	8.3772377e-13
28	0x2b634264	8.0738736e-13
29	0x2b6b7460	8.3650274e-13
30	0x2b454d59	7.00958e-13
31	0x2b3a93db	6.6285665e-13
32	0x2b48fcd0	7.140512e-13
33	0x2b374932	6.511624e-13
34	0x2b2e357c	6.189144e-13
35	0x2b3b211b	6.648169e-13
36	0xbaf251b6	-0.0018487487
37	0xbbb71274	-0.0055869166
38	0xbc83a342	-0.016069058
39	0xbb4a0553	-0.0030825927
40	0x3ccf18c3	0.025280362
41	0xbaceaf19	-0.0015768736
42	0xbca6eb09	-0.020375745
43	0xbba511fa	-0.0050375434
44	0xb8e3de0d	-0.00010865564
45	0xbabca501	-0.0014392437
46	0x3a731da5	0.0009274132
47	0xbb424126	-0.0029640882
48	0x38cdbcc3	9.810321e-05
49	0x3ac72ed0	0.0015196446
50	0xbb3e3f6d	-0.0029029504
51	0x3b305786	0.0026907637
52	0x3b623576	0.0034516728
53	0xbb336b43	-0.0027377165
54	0x3ae69fa1	0.001759518
55	0x3b122c4f	0.0022304242
56	0x3ad116cd	0.001595223
57	0xbba2bc49	-0.004966293
58	0x3a81be03	0.0009898547
59	0xba9ac040	-0.0011806563
60	0xba5f22b0	-0.0008511944
61	0x39a9def5	0.00032400308
62	0xb997f4de	-0.00028983405
63	0xbc199d45	-0.009375875
64	0xbc3a7907	-0.011381394
65	0xbc921ff0	-0.017837495
66	0xbc73963a	-0.01486736
67	0x3c447f5c	0.0119932555
68	0x3bae20e3	0.005313979
69	0xbbe5bdf4	-0.0070111696
70	0x3b951ae2	0.004550324
71	0xbbd69138	-0.006548073
72	0xbc74b3aa	-0.014935413
73	0x3bab7249	0.0052321297
74	0x3c1542c8	0.00911016
75	0xbbef2619	-0.0072982428
76	0x3cb5b197	0.022179408
77	0xbbb785d9	-0.0056006727
78	0xbb9a48dd	-0.004708393
79	0xbc02aaff	-0.007975339
80	0xbc937b3d	-0.0180031
81	0xbbb098ae	-0.0053892946
82	0x3a3d6fff	0.00072264666
83	0xbbcb8417	-0.0062108147
84	0x3c21cfdb	0.009876217
85	0xbb8b9b7b	-0.004260478
86	0x3b986117	0.004650246
87	0x3b435206	0.0029803528
88	0x3b17bb9b	0.0023152593
89	0xbb95bb8e	-0.0045694774
90	0x3ba382ac	0.0049899425
91	0xbc53600e	-0.012901319
92	0xbbbf496e	-0.005837611
93	0xbc2c8e11	-0.010531918
94	0x3c262d2d	0.010142607
95	0x3ce72e34	0.028220274
96	0xbc0846f0	-0.008317694
97	0x3c2dae7c	0.010600682
98	0x3a74b520	0.0009334851
99	0x8000d863	-7.7625e-41
100	0x0000c9c5	7.2381e-41
101	0x000082f2	4.6974e-41
102	0x0000d18c	7.5171e-41
103	0x0000f2b6	8.7068e-41
104	0x0000266b	1.3782e-41
105	0x0000fc55	9.052e-41
106	0x00010053	9.1952e-41
107	0x0000c191	6.9439e-41
108	0x8000635d	-3.5645e-41
109	0x800011fc	-6.452e-42
110	0x80004d6b	-2.7772e-41
111	0x80004030	-2.3026e-41
112	0x00000059	1.25e-43
113	0x00002458	1.3038e-41
114	0x80007230	-4.0963e-41
115	0x80002f86	-1.7048e-41
116	0x80004ff5	-2.8683e-41
117	0xbc0bc3eb	-0.008530597
118	0x3c982f80	0.018577337
119	0x3ba7e00f	0.0051231454
120	0x3bbca8d6	0.0057574315
121	0x3c308f7c	0.010776397
122	0xbbc6126a	-0.0060446756
123	0xbd07d5c4	-0.033162847
124	0x3c8c58f4	0.01713226
125	0xbb249b1e	-0.002511687
126	0xbb45d619	-0.0030187427
127	0xba93176a	-0.0011222188
128	0xbae299d3	-0.0017288275
129	0xbafed53b	-0.001944221
130	0xbabe4b04	-0.0014518206
131	0xbb62fecc	-0.0034636734
132	0x3a700221	0.00091555907
133	0x3965a836	0.00021901805
134	0xbb729ef1	-0.0037021006
135	0xa1158788	-5.066254e-19
136	0xa1165703	-5.0937136e-19
137	0xa1156e96	-5.0629523e-19
138	0xa115ea52	-5.0793284e-19
139	0xa11629fd	-5.087755e-19
140	0xa115cfa6	-5.0757984e-19
141	0xa1159626	-5.0681883e-19
142	0xa115e883	-5.079089e-19
143	0xa1157f7e	-5.06519e-19
144	0x3b2cde4b	0.0026377614
145	0xbd0bbdb9	-0.03411648
146	0xbc903f88	-0.017608419
147	0xbc87d036	-0.016578775
148	0xbcae69e7	-0.021290733
149	0x3c0371b3	0.0080227135
150	0x3c0ee877	0.008722416
151	0x3c3fa787	0.0116976565
152	0x3caac80f	0.020847348
153	0x39d42862	0.0004046588
154	0xb9a075ba	-0.0003060529
155	0xb97bb67d	-0.00024005208
156	0xba15babf	-0.0005711726
157	0xbadb653a	-0.0016738542
158	0xbae16af3	-0.0017198011
159	0xba315225	-0.00067642546
160	0xbb161cea	-0.0022905418
161	0xbb2ea3ca	-0.002664792
162	0x34c080dc	3.5856544e-07
163	0x34d46318	3.9560177e-07
164	0x34d0d692	3.889914e-07
165	0x34e3a59c	4.2402542e-07
166	0x34fa6a45	4.664345e-07
167	0x34f78194	4.6101616e-07
168	0x34e9f3aa	4.357692e-07
169	0x3500af06	4.793841e-07
170	0x3500316d	4.775564e-07
171	0xbb367a07	-0.002784373
172	0xbb799fd9	-0.0038089661
173	0x3ae819d2	0.001770789
174	0xbb59f679	-0.0033258481
175	0x3b5c0431	0.0033571834
176	0xbb95251e	-0.004551544
177	0x3a37dcb9	0.0007013786
178	0x3be87292	0.007093736
179	0xbacb7957	-0.0015523833
180	0x1d2edfe8	2.3144465e-21
181	0x1d38cd10	2.4458212e-21
182	0x1d29c3b3	2.2468138e-21
183	0x1d5b5763	2.9029587e-21
184	0x1d67f9c7	3.0701727e-21
185	0x1d55f477	2.83167e-21
186	0x1d70a4b8	3.1848893e-21
187	0x1d80c0f0	3.408081e-21
188	0x1d6e1694	3.151071e-21
189	0x3b615b3f	0.0034386662
190	0x3a072f4c	0.0005156889
191	0x3a76693c	0.00093998364
192	0x3af39a27	0.001858537
193	0xba081f0f	-0.00051926164
194	0xbab7f922	-0.0014036039
195	0x3bb6fade	0.005584105
196	0x3b3f563c	0.0029195687
197	0xba681b2d	-0.0008854147
198	0x2dca7d70	2.3020447e-11
199	0x2dcab46d	2.3044866e-11
200	0x2dca6ab2	2.3012123e-11
201	0x2dcb8960	2.3139435e-11
202	0x2dcbc800	2.3167246e-11
203	0x2dcb6f47	2.3127845e-11
204	0x2dcbf18f	2.3185702e-11
205	0x2dcc38e7	2.3217385e-11
206	0x2dcbdf05	2.3177469e-11
207	0xbb4d39e6	-0.0031315028
208	0xbb438445	-0.0029833477
209	0xbb04b955	-0.0020252068
210	0xbafac3a6	-0.0019131794
211	0x3a934522	0.0011235813
212	0x3b6b3d45	0.0035894674
213	0xba726565	-0.00092466763
214	0xb9d5a1f1	-0.00040747182
215	0xba9dd390	-0.00120412
216	0xb75b39b6	-1.3066854e-05
217	0xb75da0d3	-1.3210071e-05
218	0xb75c4e63	-1.3131273e-05
219	0xb7602513	-1.3360072e-05
220	0xb762ace6	-1.3510906e-05
221	0xb761524e	-1.3430208e-05
222	0xb75fb920	-1.3334939e-05
223	0xb7624c3d	-1.34884e-05
224	0xb76100e1	-1.341125e-05
225	0xbb0cffe6	-0.0021514832
226	0xbb9b71d9	-0.0047437963
227	0xbb5326f5	-0.0032219265
228	0xba96e764	-0.0011513052
229	0xbb896a4b	-0.0041935793
230	0xbb19ff62	-0.0023498167
231	0x3a3d2bc1	0.00072162977
232	0xbadae1b7	-0.0016699348
233	0xb895ebfd	-7.14883e-05
234	0x3bb7e883	0.0056124344
235	0xbc0be077	-0.008537403
236	0xbab44103	-0.0013752285
237	0xbaf7765e	-0.0018879881
238	0xbb3e38a5	-0.0029025462
239	0x3b9ee54d	0.004849112
240	0x3c05e96e	0.00817333
241	0x3c31049a	0.01080432
242	0x3bca60a5	0.0061760717
243	0x38a0afd4	7.662145e-05
244	0x38a22607	7.731845e-05
245	0x38a087a4	7.6546596e-05
246	0x38a3d313	7.811761e-05
247	0x38a4d44a	7.859671e-05
248	0x38a351f8	7.7877135e-05
249	0x38a32e92	7.78112e-05
250	0x38a4308c	7.829172e-05
251	0x38a293c4	7.7522855e-05
252	0x00004bcc	2.7191e-41
253	0x00000efb	5.374e-42
254	0x00001568	7.679e-42
255	0x00000f95	5.59e-42

e_conv4.bias f4 [32]
0	0x3d080983	0.033212196
1	0x3b8c7820	0.004286781
2	0xa98b90f2	-6.197984e-14
3	0xba2b784c	-0.0006541058
4	0x3c88b9df	0.016690193
5	0x3c87cfec	0.016578637
6	0x3c66d026	0.014087712
7	0x3cbc0bf5	0.02295492
8	0xb9eb4594	-0.00044874533
9	0xaa282089	-1.4932685e-13
10	0x3cb93185	0.02260662
11	0x3cd7322a	0.026269037
12	0x3d83a312	0.064275876
13	0x3c93e4e3	0.018053478
14	0x3cb8b164	0.022545524
15	0x3c55f392	0.01305856
16	0xbb0488c5	-0.0020223123
17	0x3dad173d	0.08451698
18	0xa1e3cf33	-1.5436963e-18
19	0x3d061113	0.032731127
20	0x3d124c2a	0.035717167
21	0xb500b533	-4.7947395e-07
22	0x3d0ea0fa	0.034821488
23	0xba717290	-0.00092104916
24	0x91b62742	-2.8738731e-28
25	0x3d17cabe	0.037058584
26	0xbb466f48	-0.003027873
27	0x3d02e9f9	0.031961415
28	0x3dd3a4e6	0.10334186
29	0x3d0d9649	0.03456715
30	0xb9f1e35b	-0.00046136495
31	0x3cbcfc34	0.023069479

e_conv5.weight f4 [32, 64, 3, 3]
0	0xbb4e65df	-0.0031493825
1	0x3a57a433	0.0008226067
2	0xbb5901ba	-0.0033112601
3	0x3bb4aa2a	0.005513449
4	0x3bbde945	0.00579563
5	0x39a6ce04	0.0003181548
6	0x3bb3ced9	0.0054873046
7	0x3bc57506	0.006025913
8	0x3a84ef6e	0.0010142156
9	0x3ba8dbce	0.005153156
10	0xbaa707fb	-0.0012743467
11	0xba815f46	-0.0009870313
12	0x3b30042d	0.0026857958
13	0xbb13cc3a	-0.0022552148
14	0xbb1ca9e2	-0.002390497
15	0x3ac21b8b	0.0014809234
16	0xbae1060f	-0.0017167943
17	0xbb24521c	-0.0025073355
18	0x35c6e332	1.4818272e-06
19	0x35cc34cb	1.5214549e-06
20	0x35cc581d	1.5224829e-06
21	0x35c3c425	1.4585718e-06
22	0x35c93710	1.4991692e-06
23	0x35c96b65	1.5006923e-06
24	0x35ba34dd	1.3873465e-06
25	0x35bfb2c7	1.428264e-06
26	0x35c07890	1.4340203e-06
27	0x3bbeb39b	0.0058197505
28	0x3886d99c	6.430151e-05
29	0x3c047455	0.008084376
30	0x3ad6a1b1	0.0016375092
31	0x3bafa958	0.0053607635
32	0x3bdd0683	0.006745161
33	0xbade2611	-0.00169486
34	0x3be48779	0.0069741574
35	0x3bf7d8b2	0.007563674
36	0x3bce4d2e	0.0062958216
37	0x3ba101c1	0.004913539
38	0x3b146420	0.0022642687
39	0x3c136561	0.008996339
40	0xba8ae1a4	-0.0010595811
41	0x3ba2e998	0.004971694
42	0xbc2b8ddf	-0.010470836
43	0xbbf6c230	-0.007530473
44	0xbc492830	-0.012277648
45	0x370a9e81	8.262346e-06
46	0x3705a276	7.965244e-06
47	0x37005b41	7.650641e-06
48	0x370d9199	8.4381545e-06
49	0x3708d7ee	8.156507e-06
50	0x3703b718	7.850838e-06
51	0x37127c23	8.731181e-06
52	0x370def2f	8.459944e-06
53	0x370842c4	8.121777e-06
54	0x3b169e0d	0.002298239
55	0x3c048953	0.008089381
56	0x3bfd12da	0.0077231945
57	0xb971a4a1	-0.0002304488
58	0x3b8ff81a	0.0043935897
59	0x3be10449	0.006866966
60	0x39e97b8a	0.00044533267
61	0x3b8ba222	0.004261271
62	0x3c042bb2	0.008067058
63	0x32ce0e60	2.3988093e-08
64	0x32d63a99	2.4939526e-08
65	0x32d518ae	2.4807687e-08
66	0x32d473ff	2.4732797e-08
67	0x32dd16e2	2.5738192e-08
68	0x32dba3d3	2.5569454e-08
69	0x32cb2cd3	2.3652694e-08
70	0x32d3cd5c	2.465702e-08
71	0x32d2c894	2.453843e-08
72	0xbc8e4ea3	-0.017371481
73	0x3c2d2427	0.010567701
74	0xbc91040d	-0.017702127
75	0xbc719442	-0.01474482
76	0x3ca7818d	0.020447517
77	0xbc276245	-0.0102163
78	0x3be78f0c	0.007066613
79	0xbc6d3b35	-0.014479448
80	0x3c079bdd	0.008276907
81	0x3b9735ad	0.004614553
82	0xbadd6081	-0.0016889722
83	0xbaf13ec8	-0.0018405551
84	0x3b5f8b89	0.003411027
85	0xbb85b4c2	-0.004080386
86	0xba4c1fb9	-0.00077867095
87	0xbba41332	-0.005007171
88	0xbb322daa	-0.0027187862
89	0xbb69df47	-0.0035686062
90	0xbb083eed	-0.002078946
91	0x3b256a3e	0.0025240327
92	0x3c19624c	0.009361815
93	0xbb08238e	-0.0020773145
94	0xba5c524e	-0.00084045983
95	0x3bfacf42	0.0076541016
96	0x3a5aec6e	0.0008351271
97	0x3ba1ce83	0.004937948
98	0x3c8c6bf4	0.01714132
99	0x80006bc5	-3.866e-41
100	0x0000d0e9	7.4943e-41
101	0x80009462	-5.323e-41
102	0x0000580c	3.1585e-41
103	0x0000d34c	7.5799e-41
104	0x800048ea	-2.6157e-41
105	0x8000a162	-5.7893e-41
106	0x0000ee22	8.5426e-41
107	0x00006213	3.5182e-41
108	0xa25ad0f0	-2.965512e-18
109	0xa33b58d7	-1.0156103e-17
110	0xa2d46f09	-5.758028e-18
111	0xa268e34c	-3.1562193e-18
112	0xa2c7bd17	-5.4139265e-18
113	0xa2cb0289	-5.5025944e-18
114	0xa23701ca	-2.4802072e-18
115	0xa282c3a0	-3.5443697e-18
116	0xa29e55a4	-4.291666e-18
117	0x80003589	-1.9205e-41
118	0x000007f4	2.853e-42
119	0x8000d8c1	-7.7757e-41
120	0x80002fc1	-1.7131e-41
121	0x80006da7	-3.9336e-41
122	0x000028b1	1.4597e-41
123	0x800071e7	-4.086e-41
124	0x80006336	-3.559e-41
125	0x0000802d	4.5981e-41
126	0xaee4dea8	-1.0407791e-10
127	0xaf0bfcb4	-1.2731755e-10
128	0xaf088995	-1.2418007e-10
129	0xaf0459d9	-1.203725e-10
130	0xaf0625b4	-1.2200624e-10
131	0xaf0cabb5	-1.2793928e-10
132	0xaf01b0cf	-1.1795297e-10
133	0xaf097664	-1.2502138e-10
134	0xaee266d0	-1.0295553e-10
135	0x1bcdf84d	3.4074866e-22
136	0x1c71bf5c	7.9987537e-22
137	0x1c0f4c4b	4.7413337e-22
138	0x1bd611a8	3.541474e-22
139	0x1c90c2a3	9.579433e-22
140	0x1c916722	9.621954e-22
141	0x1c05097f	4.401828e-22
142	0x1c273c74	5.53338e-22
143	0x1bcb0cf6	3.3591909e-22
144	0xbb9a3bd9	-0.0047068414
145	0xbb685741	-0.0035452398
146	0xbb31df76	-0.002714125
147	0xbbd3e4cd	-0.006466484
148	0xbb62f848	-0.003463285
149	0xbb59f705	-0.0033258807
150	0xbb4760ee	-0.0030422765
151	0x3a3c213d	0.0007176584
152	0xb96ecce1	-0.00022773772
153	0xbb23003e	-0.002487197
154	0xbb47a727	-0.003046462
155	0xb5a6e5fc	-1.2434898e-06
156	0xbb6b17a1	-0.0035872238
157	0xbb4de09d	-0.0031414398
158	0xbaadc64a	-0.0013257947
159	0xbad9b005	-0.0016608244
160	0xbb2292ca	-0.0024806731
161	0xba492f8d	-0.0007674627
162	0xbbd9ae07	-0.00664306
163	0xbadb4b70	-0.0016730856
164	0x3b9468a0	0.004529074
165	0xbb3796ee	-0.0028013545
166	0x3b7f6cb1	0.0038974697
167	0x3c09116d	0.008365971
168	0xbaff2903	-0.0019467178
169	0x3b8b6cf0	0.0042549297
170	0x3bd7eea2	0.0065897265
171	0xbb316c11	-0.002707247
172	0x3b90be06	0.004417184
173	0x3c12dafe	0.008963345
174	0x3bf41871	0.0074492027
175	0x3b2d334a	0.0026428276
176	0x3b1a12bd	0.0023509704
177	0xbb89dea3	-0.0042074486
178	0xbb01170f	-0.0019697582
179	0x3aff0ce9	0.0019458804
180	0x98a7246c	-4.3205265e-24
181	0x98953bd8	-3.8576024e-24
182	0x989742be	-3.9099978e-24
183	0x98a636ef	-4.2965463e-24
184	0x98941c32	-3.8285573e-24
185	0x98924c47	-3.7817136e-24
186	0x98a7757f	-4.328713e-24
187	0x98976d73	-3.91431e-24
188	0x98978c68	-3.917436e-24
189	0xbbaa8dae	-0.005204878
190	0xb9eb6c0f	-0.00044903203
191	0xbb10d653	-0.0022100403
192	0x381ae428	3.692895e-05
193	0x3b62c9bc	0.0034605106
194	0xbbfb0bfe	-0.0076613417
195	0xba97bc37	-0.0011576478
196	0x3ab7424d	0.0013981551
197	0x3b16038d	0.00228903
198	0x3aa20c5c	0.0012363303
199	0x3b0fecd7	0.0021961236
200	0x3bd4486c	0.00647836
201	0x3b951c4e	0.0045504933
202	0x3bb710b1	0.0055867066
203	0xb7fa9a09	-2.987405e-05
204	0xbb0e38b5	-0.002170128
205	0xbb0cb938	-0.0021472704
206	0xbb9f27a4	-0.0048570205
207	0x3a25fb1c	0.00063316687
208	0x3a299eab	0.0006470482
209	0xb981d9ee	-0.00024767168
210	0x3bc5a58a	0.0060316967
211	0xba23f910	-0.000625507
212	0x3b0b8312	0.002128784
213	0x3a9fee84	0.001220182
214	0x3b94dfd2	0.004543283
215	0xba0cccb2	-0.0005371078
216	0xbab964dc	-0.0014144438
217	0xbb96128c	-0.0045798477
218	0xbc029e98	-0.007972382
219	0xbabfa7f5	-0.0014622199
220	0xbbaad0f9	-0.0052128998
221	0xbbea341c	-0.007147325
222	0xbbb2bfb8	-0.0054549836
223	0xbc0e5d3e	-0.008689223
224	0xbc1a8516	-0.009431144
225	0x0000c8df	7.2059e-41
226	0x0000c682	7.1211e-41
227	0x0000b8ba	6.6267e-41
228	0x0000b1ae	6.374e-41
229	0x0000c3f4	7.0295e-41
230	0x0000a6fa	5.99e-41
231	0x0000c207	6.9604e-41
232	0x0000b871	6.6165e-41
233	0x0000be85	6.8346e-41
234	0x3b2d6baf	0.002646189
235	0x3c0df255	0.0086637335
236	0x3c1962cf	0.009361937
237	0x3b3b094d	0.002853948
238	0x3c000348	0.007813282
239	0x3c0960cf	0.008384897
240	0xba5af01c	-0.0008351819
241	0x3b3a33a2	0.0028412123
242	0x3b80fee1	0.003936634
243	0xbc435253	-0.011921483
244	0xbc18850d	-0.0093090655
245	0xbb928599	-0.0044714925
246	0xbbee3790	-0.007269807
247	0x3aba5944	0.0014217277
248	0x3cfdda54	0.030987896
249	0x3c033391	0.0080079
250	0xbc345068	-0.0110054985
251	0x3b08731d	0.0020820566
252	0x0000686e	3.7462e-41
253	0x000047f9	2.5819e-41
254	0x0000c612	7.1054e-41
255	0x00004114	2.3346e-41

e_conv5.bias f4 [32]
0	0x3cb520b5	0.022110322
1	0xae86d5ac	-6.13157e-11
2	0xb539d069	-6.922115e-07
3	0x3d2781c6	0.040895246
4	0x88f916e7	-1.4991527e-33
5	0x3bf8b980	0.0075904727
6	0x3d92eb9a	0.07173844
7	0x3cf070a7	0.029350592
8	0x3cabc8e0	0.020969808
9	0xafe7006b	-4.2018952e-10
10	0x3d2b3779	0.04180095
11	0x3cf1e900	0.029530048
12	0xab9df51e	-1.1223555e-12
13	0xb4b12b79	-3.300045e-07
14	0x3cdf3c54	0.027250446
15	0x3d04f0b4	0.032456115
16	0x3bfb0968	0.0076610334
17	0x3bbff4ca	0.0058580386
18	0xacb12951	-5.0352296e-12
19	0x3c3fb225	0.011700188
20	0x3ce1fc55	0.027586142
21	0x3d02a582	0.03189612
22	0x3c280152	0.010254221
23	0x9586c601	-5.4434564e-26
24	0x3cb479e5	0.02203078
25	0xae704611	-5.4631914e-11
26	0x3cd922be	0.026505824
27	0x3c39c8ff	0.011339425
28	0x3d4cecc7	0.050030496
29	0xb9c8efb9	-0.0003832558
30	0xb6449112	-2.9290718e-06
31	0xaa39ab92	-1.6490826e-13

e_conv7.weight f4 [8, 64, 3, 3]
0	0xbb3e96d9	-0.0029081611
1	0xbb2c7799	-0.0026316403
2	0xbbb4fd12	-0.0055233324
3	0x3bb5cfba	0.0055484446
4	0x3bcdc74a	0.0062798606
5	0x3b7dcb5a	0.0038725943
6	0x3bb9c404	0.005669119
7	0x3bdbe7e8	0.006710995
8	0x3b931a14	0.0044891927
9	0x3a82a443	0.0009967167
10	0x3a6b63a3	0.00089793856
11	0x3b0f9ed8	0.0021914747
12	0x3aee1d2e	0.0018166655
13	0x3b24034f	0.0025026386
14	0x3bb4409f	0.0055008675
15	0x3bf7fdb9	0.007568088
16	0x3c2eb916	0.010664245
17	0x3c62448e	0.01381029
18	0x00017b19	1.35995e-40
19	0x00010e55	9.6977e-41
20	0x0001262b	1.05528e-40
21	0x8001265f	-1.056e-40
22	0x80009e27	-5.6734e-41
23	0x8001643e	-1.27796e-40
24	0x0002339b	2.02184e-40
25	0x00005aa9	3.2523e-41
26	0x000129e4	1.06863e-40
27	0x00005220	2.9461e-41
28	0x80011613	-9.9754e-41
29	0x800111e4	-9.8253e-41
30	0x0000d151	7.5089e-41
31	0x00017291	1.32934e-40
32	0x0001b120	1.55376e-40
33	0x80005a44	-3.2381e-41
34	0x80017c2b	-1.36379e-40
35	0x00019ad2	1.47375e-40
36	0xba9662e8	-0.0011473568
37	0xbb469bcc	-0.0030305265
38	0xbba6225d	-0.0050700144
39	0x3b8a6649	0.004223619
40	0x3af66dc7	0.0018801027
41	0xba523e14	-0.00080201146
42	0x3b32981f	0.0027251316
43	0xb97f0f3e	-0.00024324373
44	0xbb5498dc	-0.0032439744
45	0xbc49b483	-0.012311104
46	0xbc15b3a5	-0.009137069
47	0xbbe0393a	-0.0068427594
48	0xbb155324	-0.0022785151
49	0x3a5f60e8	0.0008521215
50	0x3b24232d	0.002504538
51	0x3bb8290a	0.0056201266
52	0x3c0f4f4e	0.008746935
53	0x3c1f28c8	0.009714313
54	0x3b1336e9	0.002246315
55	0x38fff8e5	0.00012205708
56	0x3ab75117	0.0013985959
57	0x3b97e924	0.004635947
58	0x3b54f1ba	0.0032492713
59	0x3baf7586	0.005354586
60	0x3bc36c3f	0.0059638317
61	0x3bb756bf	0.0055950577
62	0x3bf00faa	0.007326086
63	0xbc541a4b	-0.012945722
64	0xbcf056e9	-0.029338317
65	0xbd161b4b	-0.036647122
66	0x3c053642	0.008130612
67	0xbc278fb7	-0.010227135
68	0xbca751cc	-0.020424746
69	0x3ccedaa8	0.025250748
70	0xb7a7499f	-1.9942234e-05
71	0xbc39a7f5	-0.011331548
72	0x80012a31	-1.06971e-40
73	0x000097a8	5.4404e-41
74	0x0000694e	3.7776e-41
75	0x800056be	-3.1117e-41
76	0x8000777c	-4.2863e-41
77	0x80012e7e	-1.08514e-40
78	0x8000c18d	-6.9433e-41
79	0x8000b6f5	-6.5633e-41
80	0x000121e5	1.03995e-40
81	0x000074fa	4.1963e-41
82	0x0001178d	1.00284e-40
83	0x0001694c	1.29609e-40
84	0x00011f04	1.02962e-40
85	0x8000a1a4	-5.7986e-41
86	0x80012741	-1.05917e-40
87	0x00016384	1.27535e-40
88	0x0001c3d0	1.6208e-40
89	0x800123ad	-1.04634e-40
90	0xbb064359	-0.002048692
91	0xbb6e8f3f	-0.00364013
92	0xba9c9a15	-0.0011947775
93	0xba03ee2f	-0.00050327455
94	0xbb10256e	-0.0021994966
95	0x39f2d5a1	0.00046317003
96	0xba18bffa	-0.00058269466
97	0xbaf8fdb1	-0.0018996504
98	0x39c361eb	0.00037266253
99	0xbbea80b8	-0.0071564578
100	0xbbaedf8f	-0.005336709
101	0xbbc7043b	-0.0060735024
102	0xbb7023df	-0.0036642475
103	0xbad297fc	-0.0016067023
104	0xbb6de8b2	-0.0036302027
105	0xbb3a8961	-0.0028463232
106	0xbb0d720a	-0.0021582865
107	0xbb953598	-0.004553508
108	0xbc0b5eca	-0.008506486
109	0x3c902728	0.017596796
110	0xbbe93ef3	-0.0071181
111	0x3c52591f	0.012838631
112	0x3d27379b	0.040824514
113	0x3c6935a8	0.014233984
114	0xbc64ccf4	-0.01396488
115	0x3c3db20e	0.011578096
116	0xbc540c14	-0.012942333
117	0xbc31117e	-0.010807393
118	0xbc86c978	-0.01645349
119	0xbb7a9031	-0.0038232917
120	0xbc81a4e7	-0.015825702
121	0xbcb1a9ff	-0.021687506
122	0xbc12a03e	-0.0089493375
123	0x3ace6624	0.0015746993
124	0xbb80f4d1	-0.0039354344
125	0x3c17c34b	0.00926287
126	0xbb1f5f87	-0.0024318413
127	0xba17b486	-0.0005787093
128	0xbae47f56	-0.0017432969
129	0xb8d955ce	-0.00010363349
130	0x3b16a2a4	0.0022985125
131	0x3aab2428	0.001305704
132	0x3aae0768	0.0013277354
133	0x3b88e072	0.0041771466
134	0x3b2630ed	0.0025358752
135	0xbb9be8ca	-0.004757975
136	0xbbbbceb4	-0.005731428
137	0xbb310678	-0.0027011912
138	0xba763a6d	-0.00093928614
139	0xbafcce80	-0.0019287616
140	0x3a126577	0.00055845774
141	0x3abe0df8	0.0014500013
142	0x39bedea4	0.00036405504
143	0x3b38687e	0.0028138454
144	0x0301973f	3.8083315e-37
145	0x82e47ee0	-3.3574412e-37
146	0x824c3aaf	-1.5004394e-37
147	0x830f7500	-4.2158232e-37
148	0x02dc2883	3.2349347e-37
149	0x0311ed13	4.288382e-37
150	0x01e639e8	8.457175e-38
151	0x8270c33a	-1.7688443e-37
152	0x8310fe15	-4.260947e-37
153	0xbabfdfda	-0.0014638857
154	0x3d0fcd9c	0.035108194
155	0xbab66782	-0.0013916346
156	0x3cd7ce37	0.026343448
157	0x3d82a6b4	0.06379452
158	0x3ce1c090	0.027557641
159	0xbc3467e9	-0.011011102
160	0x3cd7df32	0.026351545
161	0xbc153b91	-0.00910844
162	0x0001dc38	1.70835e-40
163	0x80015cbb	-1.25101e-40
164	0x80018ceb	-1.42387e-40
165	0x80001c3b	-1.0127e-41
166	0x800173cb	-1.33374e-40
167	0x000139ce	1.12572e-40
168	0x80019464	-1.45068e-40
169	0x80002629	-1.3689e-41
170	0x000043f7	2.4381e-41
171	0xbbfa8583	-0.0076453104
172	0xbb7495b1	-0.0037320668
173	0xbbb5eb7e	-0.0055517545
174	0xbbe61ea0	-0.0070226938
175	0xbb758e9e	-0.003746904
176	0xbbf67696	-0.0075214608
177	0xbc391d38	-0.01129847
178	0xbc1cdcad	-0.009574098
179	0xbc631ecd	-0.013862324
180	0xbbb4a6b2	-0.0055130357
181	0x3c004c5f	0.007830708
182	0xbb257e44	-0.0025252262
183	0x3bbc365c	0.005743785
184	0x3caa886e	0.020817008
185	0x3c1137e5	0.008863424
186	0xbbf93e12	-0.0076062763
187	0x3bb51f0f	0.005527384
188	0xbb9d601e	-0.004802718
189	0x8000500a	-2.8713e-41
190	0x00013bef	1.13336e-40
191	0x0000c955	7.2224e-41
192	0x0000cae5	7.2785e-41
193	0x8001b6f0	-1.57461e-40
194	0x8000104e	-5.849e-42
195	0x00016bd2	1.30514e-40
196	0x8000cd1e	-7.3582e-41
197	0x0000810b	4.6292e-41
198	0xbb7bd9ef	-0.003842946
199	0xbb2792d8	-0.0025569703
200	0xbc0193af	-0.007908746
201	0x3b97d4f7	0.0046335417
202	0x3bd6087d	0.0065317736
203	0x3a649c14	0.0008720767
204	0x3b0c6163	0.0021420352
205	0x3b846ca6	0.004041272
206	0xbaae42ed	-0.0013295092
207	0x00010a2d	9.5486e-41
208	0x80001ae6	-9.65e-42
209	0x80001fa7	-1.1355e-41
210	0x8000e0b7	-8.0612e-41
211	0x8000196c	-9.12e-42
212	0x000040dd	2.3269e-41
213	0x800084e8	-4.7678e-41
214	0x80006607	-3.66e-41
215	0x0000c60a	7.1043e-41
216	0x00012066	1.03458e-40
217	0x0001932e	1.44634e-40
218	0x00016096	1.26484e-40
219	0x0000d7b7	7.7384e-41
220	0x80021a9c	-1.93217e-40
221	0x800158e4	-1.23723e-40
222	0x8000924a	-5.2479e-41
223	0x0000ffb3	9.1728e-41
224	0x000053b3	3.0026e-41
225	0x3b7f687d	0.0038972192
226	0x3bc69ef8	0.006061431
227	0xba8bbe18	-0.0010661511
228	0x3aa4b703	0.0012566749
229	0x3b58d692	0.0033086878
230	0xbb2f546a	-0.0026753196
231	0xba8c20eb	-0.0010690963
232	0x3aacd8a9	0.0013187128
233	0xbb76e9b7	-0.0037675926
234	0x3bb07a2e	0.0053856587
235	0x3b5f055c	0.0034030294
236	0x3d30d759	0.04317412
237	0xbd262fc0	-0.04057288
238	0xbd2d10ed	-0.04225247
239	0xbbcd2134	-0.0062600616
240	0xbd132247	-0.03592136
241	0xbd0d07a3	-0.03443111
242	0x3aee7f63	0.0018195923
243	0x3aac2569	0.0013133708
244	0xbaabdef7	-0.0013112713
245	0xbb321ae8	-0.0027176682
246	0x3be74776	0.0070580794
247	0x3bb59a85	0.005542102
248	0x3bb454f0	0.0055032894
249	0x3bdfbf89	0.0068282527
250	0x3bc7ff9a	0.006103468
251	0x3bd295fd	0.0064265714
252	0xbc9e5459	-0.01932733
253	0x3cad0643	0.02112115
254	0xbc9feafa	-0.019521225
255	0x3ca19b69	0.019727426

e_conv7.bias f4 [8]
0	0x3ca8797c	0.02056574
1	0x3c593c69	0.013259032
2	0x3d623e25	0.055235047
3	0x3d29b5ab	0.041433018
4	0x3cca1594	0.024668492
5	0x3d0686be	0.032843344
6	0x3cb93ca2	0.02261192
7	0x3c62e7c4	0.013849203
