snapshots/Epoch6.pth (torch, 304045 bytes, 14 tensors)

e_conv1.weight f4 [32, 3, 3, 3]
-0.00043632084 8.874371e-06 -9.822359e-14 3.023741e-11 -3.6116654e-09 -0.0046357107 1.828997e-12 -0.009139569
-0.0018545964 -4.0056583e-11 0.0066084233 0.00025884598 6.247362e-07 1.2959312e-15 5.8294294e-12 8.4028796e-13
1.0237034e-13 -4.820376e-06 -1.2162204e-08 2.8534225e-13 -0.0028232082 2.7240618e-10 1.4835495e-13 0.005429049
-2.0904144e-12 5.962756e-08 0.0007746265 -0.010563703 -0.00022186067 -0.028613817 0.008190401 0.0064489017
-0.00042865908 0.012033117 0.0001989976 0.0026349823 0.008721174 -0.0061181923 0.034688666 0.005324225
0.019024052 0.0127685405 0.027207082 0.032264084 0.005632854 -0.0036145297 0.0031846042 -0.031998906
0.0036258525 -0.00018018781 -0.02343721 -0.02092377 -0.014553037 0.01173306 -0.0037566382 -0.040670034
-0.0012222137 -0.00033006145 -0.025486978 -0.013644302 -0.0011053457 -0.005489347 0.0021242928 -0.008267468
0.012556355 0.012811241 -0.01600465 0.0051988023 0.004955542 0.038115054 0.020846182 -0.026882622
0.0034473008 0.01315651 0.009149993 0.012959522 0.0057909484 0.02009 0.0036832609 -0.011779042
-0.005874835 0.0138098635 0.016200664 -0.0024205386 -0.017081793 -0.011983377 0.00039861447 -0.003473969
-0.023397055 0.024483612 -0.025329975 0.014375796 0.009042312 0.0037660042 -0.0022881192 0.006780219
-0.023429347 0.014281074 0.021795416 -0.0037337958 -0.0027013652 -0.025305513 -0.0061477874 0.018731324
-0.010447312 -0.022937331 0.004099675 0.025018563 -0.020934347 -0.017878497 0.0053376486 0.024782065
0.0041449354 0.020784631 0.0011056699 -0.028911645 -0.009927776 0.0042636283 0.010703863 0.014936792
0.017383192 -0.0070742015 -0.017491018 0.017225502 0.03809944 0.03529804 0.0068514333 0.006940467
0.024435954 -0.03420708 -0.011998723 0.0013616027 -0.04937013 -0.0059320168 -0.0037226554 -1.6643319e-13
3.163404e-13 3.2544724e-13 -6.617511e-14 -2.2961414e-12 -2.1668123e-12 8.124114e-12 2.1050258e-12 0.0055221897
-0.0052653826 -3.758776e-06 0.0013326183 -0.0030821834 -2.4651294e-07 -1.0626984e-13 -0.00054313405 0.0010696468
0.0005032865 1.4779064e-10 -1.1936253e-06 4.6305106e-15 -0.0020241279 -7.80979e-06 4.0748633e-05 -1.2656133e-10
-4.230354e-05 -1.0052013e-13 0.0031882704 -0.005519749 0.001103805 -0.008856657 -0.001683533 -0.026129838
0.009918534 -0.0027000436 0.01512245 0.022134738 0.03586464 -0.01482521 0.0007596268 0.009033887
0.018432703 -0.001343074 -0.046958566 -0.027853237 -0.012532484 -0.01943263 0.002570221 -0.017236482
0.00063475774 0.008439265 0.030126683 -0.02670816 -0.030583484 -0.0005697678 1.0683448e-12 0.00041356127
-3.2351316e-05 3.4610883e-09 -0.0030486803 -1.4064212e-13 1.31103175e-11 0.001361506 -8.3640755e-10 0.00016691175
0.0014691293 0.0018756544 7.6581426e-05 -8.316914e-12 0.0001653142 2.5356561e-12 -6.036445e-13 -0.00047053452
4.16532e-05 -9.37515e-06 6.466045e-12 0.00025417123 0.00010568877 -7.7920295e-06 -0.0061475714 -0.003635876
-4.872578e-05 -4.9869413e-05 2.37475e-07 0.0025762469 0.0052726883 0.01237177 -1.097578e-05 0.0015631366
0.012677218 -0.00026379916 -1.7310143e-05 -2.1909254e-07 -6.32659e-05 0.0015722984 0.007675018 -7.144767e-05
0.0020489458 -0.00022590208 -3.4590308e-10 0.00048622364 -1.8627254e-05 -6.214741e-05 0.0011578217 -0.00022036198
-5.9645503e-05 0.0039381147 0.013085486 -0.0138726 -0.006582476 -0.025906088 -0.018005451 -0.022486001
-0.0054168045 -0.0051746964 0.01906805 0.019566366 -0.025660299 0.0025193375 -0.0107291145 -0.02131865
00000000: fec1 e4b9 22e3 1437 0b2e dda9 4cfc 042e
00000010: 1731 78b1 29e7 97bb 48b4 002c 21be 15bc
00000020: ee15 f3ba b42b 30ae 798b d83b b8b5 8739
00000030: 8bb3 2735 6cc3 ba26 d51a cd2c 2185 6c2b
00000040: 7c84 e629 b7be a1b6 f0f1 50b2 27a2 a02a
00000050: 9305 39bb c3c1 952f 6708 272a 2ae6 b13b
00000060: 8f19 13ac 990c 8033 4e10 4b3a 6213 2dbc
00000070: 45a3 68b9 8667 eabc 0831 063c 4f51 d33b
00000080: a6bd e0b9 8d26 453c 03aa 5039 abaf 2c3b
00000090: 41e3 0e3c 1e7b c8bb b415 0e3d d676 ae3b
000000a0: 54d8 9b3c 2433 513c 63e1 de3c 5827 043d
000000b0: ce93 b83b bfe1 6cbb cbb4 503b 4911 03bd
000000c0: b69f 6d3b ccf0 3cb9 64ff bfbc 5368 abbc
000000d0: dc6f 6ebc 053c 403c ee31 76bb 9f95 26bd
000000e0: b032 a0ba 190c adb9 11ca d0bc 5a8c 5fbc
000000f0: 3fe1 90ba fbdf b3bb b837 0b3b 4674 07bc
00000100: 2cb9 4d3c 3de6 513c 2f1c 83bc b75a aa3b
00000110: 1962 a23b 881e 1c3d 9dc5 aa3c f238 dcbc
00000120: 1cec 613b 678e 573c dae9 153c 2d54 543c
00000130: ffc1 bd3b c993 a43c dd62 713b e2fc 40bc
00000140: b081 c0bb c442 623c 41b7 843c e6a1 1ebb
00000150: 1eef 8bbc ed55 44bc 21fd d039 87ab 63bb
00000160: 2eab bfbc db91 c83c cf80 cfbc 7588 6b3c
00000170: 3526 143c 11cf 763b 45f4 15bb 992c de3b
00000180: e7ee bfbc 2afb 693c 4d8c b23c b3b2 74bb
00000190: 6309 31bb 824d cfbc 6173 c9bb 6f72 993c
000001a0: 342b 2bbc 12e7 bbbc 9156 863b bbf3 cc3c
000001b0: 827e abbc ed75 92bc 71e7 ae3b c203 cb3c
000001c0: 3dd2 873b 8844 aa3c 20ec 903a 1dd8 ecbc
000001d0: 1ca8 22bc e8b5 8b3b 415f 2f3c 72b9 743c
000001e0: 3267 8e3c b4ce e7bb 5349 8fbc 7f1c 8d3c
000001f0: 290e 1c3d ad94 103d fd81 e03b db6c e33b
00000200: e92d c83c b91c 0cbd 4b96 44bc ce77 b23a
00000210: 5538 4abd 5d61 c2bb cbf7 73bb 1a63 3baa
00000220: 7515 b22a e435 b72a 5b03 95a9 9b93 21ac
00000230: d279 18ac c2eb 0e2d c620 142c 7cf3 b43b
00000240: 3b89 acbb 483f 7cb6 40ab ae3a 75fe 49bb
00000250: 7b58 84b4 644c efa9 1c61 0eba 6433 8c3a
00000260: fcee 033a 5e7f 222f a734 a0b5 ecd4 a627
00000270: 3ba7 04bb cb06 03b7 83e9 2a38 d927 0baf
00000280: 156f 31b8 e959 e2a9 4df2 503b 03df b4bb
00000290: 8dad 903a 831b 11bc fea9 dcba 3e0e d6bc
000002a0: 5981 223c 37f3 30bb 27c4 773c e953 b53c
000002b0: cde6 123d 70e5 72bc b121 473a de02 143c
000002c0: 2e00 973c 160a b0ba a057 40bd 792c e4bc
000002d0: 0c55 4dbc 2e31 9fbc 2771 283b 8633 8dbc
000002e0: df65 263a d844 0a3c 3ccc f63c 12cb dabc
000002f0: 378a fabc 785c 15ba 2e5b 962b 41d3 d839
00000300: f6b0 07b8 1cd8 6d31 5ecc 47bb 5559 1eaa
00000310: 9fa3 662d 8f74 b23a f3e8 65b0 0805 2f39
00000320: cd8f c03a 85d8 f53a 579a a038 0d50 12ad
00000330: 3158 2d39 526e 322c 2ce9 29ab 13b2 f6b9
00000340: c8b4 2e38 f649 1db7 f580 e32c 4942 8539
00000350: 3aa5 dd38 83ba 02b7 9171 c9bb e147 6ebb
00000360: e85e 4cb8 e02a 51b8 a2fc 7e34 40d6 283b
00000370: 84c6 ac3b f7b2 4a3c 9e24 38b7 29e2 cc3a
00000380: 1bb4 4f3c 864e 8ab9 4035 91b7 b33f 6bb4
00000390: 9fad 84b8 9415 ce3a b87e fb3b 2dd6 95b8
000003a0: 9b47 063b 21e0 6cb9 8829 beaf d5eb fe39
000003b0: b941 9cb7 2355 82b8 0dc2 973a f810 67b9
000003c0: df2b 7ab8 4d0b 813b 8264 563c e749 63bc
000003d0: d0b1 d7bb 0139 d4bc 2b80 93bc 9034 b8bc
000003e0: 737f b1bb 8090 a9bb 9934 9c3c a549 a03c
000003f0: 8c35 d2bc 781b 253b 2bc9 2fbc 73a4 aebc

e_conv1.bias f4 [32]
-0.10382523 0.06850025 0.014658389 0.13488808 0.07388523 -0.087126 0.051239323 -0.13502187
-0.13083114 0.06488578 -0.12226647 -0.083377056 -0.03597389 0.049502436 -0.10779184 0.16916655
0.13507363 0.09081648 0.18886855 0.16473033 -0.07562261 0.16706659 -0.006708412 0.123841636
-0.011130466 -0.06453183 0.03994795 -0.07704619 -0.036526173 0.0022045278 0.14143495 -0.097097695
00000000: 52a2 d4bd dc49 8c3d bd29 703c 1a20 0a3e
00000010: 2451 973d 1e6f b2bd 53e0 513d 2c43 0abe
00000020: 99f8 05be d6e2 843d d866 fabd 97c1 aabd
00000030: 5c59 13bd 11c3 4a3d f8c1 dcbd ff39 2d3e
00000040: be50 0a3e fefd b93d c266 413e 11af 283e
00000050: 07e0 9abd 8113 2b3e 3dd2 dbbb afa0 fd3d
00000060: 8f5c 36bc 4429 84bd 76a0 233d 65ca 9dbd
00000070: 789c 15bd d779 103b 53d4 103e 28db c6bd

e_conv2.weight f4 [32, 32, 3, 3]
-3.363976e-07 0.013206431 0.004875319 5.570764e-06 1.409137e-13 1.2416123e-06 0.00069580745 -1.0574441e-05
0.0020653089 0.010174765 -0.025296714 0.0028973098 -0.0044448026 -0.0004813726 -0.008093447 0.015228446
0.034731757 0.0026750823 -0.020437583 -0.022886291 -0.013241509 0.008784958 -0.009638289 -0.003490392
0.007841183 0.0016613669 0.014869441 -0.03312626 0.020934302 0.043945674 -0.01679052 -0.00850228
-0.007129775 -0.04446785 0.005501738 0.021489253 0.0002516975 -0.0032211575 0.0033220067 0.014850669
-0.017033393 0.010926181 0.017142732 -0.019907465 -0.008850404 -0.00847189 -0.0016455015 2.5852404e-07
3.2428132e-13 -3.0924133e-10 0.0039729006 -1.6743304e-13 -1.7300918e-09 -0.00084029854 -0.0040233857 0.018070137
-0.022663455 -0.02039404 0.010160998 0.011010296 0.010606694 0.015424156 0.03055232 -2.0489565e-12
-1.3420227e-10 -1.7433984e-13 0.0006647438 -4.1537273e-14 -3.1832963e-07 0.014539776 1.2412748e-06 -2.0467836e-16
-4.6430152e-08 -9.0006295e-05 -0.0029117719 0.00028981044 0.00039099573 -0.00011242588 -0.0075861304 -3.1014572e-12
-0.002011866 0.024193777 -0.0026132306 0.0090481285 -0.0047168536 0.0153871775 0.01192936 0.0031273738
0.0022143451 -0.00884184 0.00024704254 0.0076535745 0.0010552988 -0.00031725183 -5.883019e-14 0.002986094
3.0573392e-07 -0.0007478344 -3.534926e-05 -0.013673586 0.0010534722 0.0001338254 -0.0006109398 0.025786674
0.0024000306 -3.743817e-12 1.1741546e-13 7.942818e-05 0.0116729075 -0.00019545086 -0.00011740279 -9.343159e-05
-0.0014466092 0.0072979424 -0.0075764493 -0.018282335 7.930416e-09 0.0037892861 0.03957229 0.006682123
0.025682885 0.005242421 0.018796 -0.0244177 0.02126761 -0.0043355604 -4.9503567e-05 9.365566e-05
0.0017457043 -3.002069e-05 0.012122778 1.00212604e-13 -0.030563252 -9.288436e-06 -0.0017061656 0.006311815
0.012495614 0.00482292 0.017309798 0.018180141 0.01609835 -0.0031092602 -0.020854857 -0.007654103
-0.018784443 -0.02345811 -0.010179716 -0.023194782 0.016944388 0.019548938 -0.035526708 0.0001576208
-0.00078458333 0.029796373 -0.004136708 -0.007162253 -0.010758076 0.017379684 0.0038115154 0.008431047
0.024268584 0.024849692 -0.0002583236 -0.026431438 -0.019270493 -0.0022351616 0.0002841782 0.019688936
-0.03960053 0.0168453 0.037099704 0.022324571 0.020002566 -0.006384284 0.010178259 0.011941695
-0.0020315729 -0.013821283 -0.011182846 0.03290305 -0.010059661 1.4885144e-12 1.2074257e-11 4.86759e-06
-0.005013605 4.2879946e-11 -0.001186017 0.0012725194 -2.527702e-11 -0.023808401 0.012725911 0.018955378
-0.019957112 0.053910356 0.036800228 0.012848164 0.03199598 0.020273237 0.007639281 0.010709123
0.00042171346 -0.005852835 0.0008560339 0.00058139017 -0.018908517 0.0070169824 -0.010838902 0.022444375
0.014491887 0.024958491 0.015326373 0.027691603 0.0055698683 -0.05381501 0.03241478 -0.0071333726
-0.008452767 -1.6417141e-12 -4.9046128e-05 0.00034342383 -4.1190226e-13 0.0011131985 -0.0025036614 -0.0018618075
-2.6648327e-14 2.2387792e-14 4.2389736e-08 1.0833391e-09 0.00019838371 -1.4609432e-11 4.5999494e-13 8.981337e-08
8.427296e-08 0.000192132 0.0052605104 0.0030987663 0.006097226 -0.003388487 -0.0029379057 -0.015571696
0.016699241 -0.008633906 -0.021959765 -0.010795947 2.3912398e-05 2.5406436e-11 -3.4734113e-09 1.4616434e-12
0.0010553936 0.00062676455 -0.0074497545 4.4685203e-14 -1.4447746e-13 9.190103e-05 1.4253342e-07 0.038147677
00000000: 229a b4b4 c95f 583c 24c1 9f3b 80ec ba36
00000010: 9ca7 1e2a 79a5 a635 d966 363a e168 31b7
00000020: 225a 073b 0fb4 263c 0e3b cfbc cbe0 3d3b
00000030: b5a5 91bb bd60 fcb9 619a 04bc bb80 793c
00000040: e342 0e3d 6f50 2f3b b86c a7bc 087c bbbc
00000050: eaf2 58bc c9ee 0f3c eae9 1dbc 0fbf 64bb
00000060: 4e78 003c 39c2 d93a f59e 733c 67af 07bd
00000070: 6a7e ab3c 6100 343d 468c 89bc 264d 0bbc
00000080: e3a0 e9bb ec23 36bd ec47 b43b 3b0a b03c
00000090: 44f6 8339 0e1a 53bb 06b6 593b 3850 733c
000000a0: 9d89 8bbc ba03 333c ea6e 8c3c fb14 a3bc
000000b0: 4901 11bc afcd 0abc dead d7ba 46cb 8a34
000000c0: dd8d b62a d901 aaaf 1b2f 823b 4a83 3caa
000000d0: 32c8 edb0 7b47 5cba 9bd6 83bb d307 943c
000000e0: b6a8 b9bc 6711 a7bc 517a 263c 8764 343c
000000f0: b3c7 2d3c 99b5 7c3c dc48 fa3c b82e 10ac
00000100: 958e 13af 0a4a 44aa 3442 2e3a 3711 3ba9
00000110: e4e6 aab4 3e38 6e3c e199 a635 64fa 6ba5
00000120: 7e6a 47b3 c3c1 bcb8 6dd3 3ebb b3f1 9739
00000130: 8ffe cc39 2fc6 ebb8 1395 f8bb e33e 5aac
00000140: 83d9 03bb 0732 c63c bc42 2bbb 9a3e 143c
00000150: d68f 9abb 801a 7c3c 5d73 433c a0f4 4c3b
00000160: 8c1e 113b 5ddd 10bc 7d85 8139 d6ca fa3b
00000170: f451 8a3a d254 a6b9 4c79 84a9 58b2 433b
00000180: c023 a434 510a 44ba fb43 14b8 2d07 60bc
00000190: a914 8a3a 7b53 0c39 7a27 20ba 933e d33c
000001a0: d549 1d3b 4eb9 83ac b432 042a ae92 a638
000001b0: b93f 3f3c f1f1 4cb9 2536 f6b8 b4f0 c3b8
000001c0: 269c bdba 9423 ef3b dd43 f8bb d6c4 95bc
000001d0: 573e 0832 ac55 783b 8e16 223d b6f5 da3b
000001e0: ea64 d23c 9dc8 ab3b 12fa 993c a107 c8bc
000001f0: 6939 ae3c 5111 8ebb 0da2 4fb8 0069 c438
00000200: 1ed0 e43a f1d4 fbb7 9e9e 463c a2a8 e129
00000210: c95f fabc 87d5 1bb7 6ba1 dfba 58d3 ce3b
00000220: 67ba 4c3c 9609 9e3b 47cd 8d3c 85ee 943c
00000230: b0e0 833c bbc4 4bbb ced7 aabc 45cf fabb
00000240: d5e1 99bc 392b c0bc d3c8 26bc fc02 bebc
00000250: f5ce 8a3c 1825 a03c 7484 11bd 0347 2539
00000260: 7fac 4dba 8617 f43c 398d 87bb 55b1 eabb
00000270: a442 30bc d75f 8e3c 9eca 793b 6022 0a3c
00000280: e9ce c63c 9591 cb3c 9b6f 87b9 be86 d8bc
00000290: 27dd 9dbc ca7b 12bb c1fd 9439 b14a a13c
000002a0: 2a34 22bd 28ff 893c dcf5 173d 05e2 b63c
000002b0: 6cdc a33c 4133 d1bb b6c2 263c 19a7 433c
000002c0: 2324 05bb aa72 62bc 4138 37bc 59c5 063d
000002d0: 47d1 24bc 627d d12b 9f69 542d 4854 a336
000002e0: 2b49 a4bb 8796 3c2e 2074 9bba aaca a63a
000002f0: ca56 dead d609 c3bc 5780 503c 4f48 9b3c
00000300: 197d a3bc 1bd1 5c3d d6bb 163d 1b81 523c
00000310: 370e 033d 0f14 a63c ef52 fa3b 5175 2f3c
00000320: 6c19 dd39 23c9 bfbb 7667 603a 6f68 183a
00000330: 09e6 9abc b7ee e53b a695 31bc 44dd b73c
00000340: 616f 6d3c c075 cc3c 781b 7b3c 80d9 e23c
00000350: 7183 b63b 216d 5cbd 5cc5 043d 11bf e9bb
00000360: 797d 0abc fc0c e7ab e1b6 4db8 910d b439
00000370: 5fe1 e7aa bee8 913a 7814 24bb e507 f4ba
00000380: dc06 f0a8 bca6 c928 0210 3633 9be4 9430
00000390: 3905 5039 8481 80ad 217a 012b 6cdf c033
000003a0: 8df9 b433 0b77 4939 5c60 ac3b ac14 4b3b
000003b0: 3dcb c73b 6111 5ebb e189 40bb 6d20 7fbc
000003c0: d9cc 883c 3a75 0dbc f7e4 b3bc 7ce1 30bc
000003d0: 7c97 c837 357a df2d e6b0 6eb1 41b5 cd2b
000003e0: 2255 8a3a 754d 243a 121d f4bb 883e 4929
000003f0: cbaa 22aa fdba c038 4a0b 1934 bd40 1c3d

e_conv2.bias f4 [32]
-0.03575525 -0.0045343786 -0.008594407 -0.002053012 0.037004832 0.025435569 -0.00039947583 0.0371173
0.053335585 0.035317644 -0.027504561 -0.0017200053 -0.001801 -0.0076000593 0.0069976714 -0.013265382
0.031519804 0.0023770903 -0.0036408263 -0.013441872 -0.011323565 0.008064929 -0.0092789065 0.03187294
-0.017445775 0.0432976 0.048159644 -0.0114699025 -0.0072195204 -0.0033766266 -0.011235308 0.05059243
00000000: 1974 12bd 2095 94bb 8ecf 0cbc d38b 06bb
00000010: 6192 173d 415e d03c bd70 d1b9 4f08 183d
00000020: 6a76 5a3d 3ca9 103d 3f51 e1bc cd71 e1ba
00000030: 880f ecba eb09 f9bb b94c e53b 0b57 59bc
00000040: e91a 013d f5c8 1b3b ee9a 6ebb 4c3b 5cbc
00000050: 7986 39bc c422 043c 8e06 18bc 338d 023d
00000060: 71ea 8ebc d358 313d 0c43 453d 42ec 3bbc
00000070: ba91 ecbb 654a 5dbb 4c14 38bc 023a 4f3d

e_conv3.weight f4 [32, 64, 3, 3]
-0.00029485716 -0.0013718494 2.3670573e-13 0.00022817469 -0.0007343456 -1.8657393e-12 6.301868e-05 -0.0082086725
0.011729251 0.0025533254 0.0138434395 0.037839867 -0.015697109 -0.007861181 0.0073684277 -0.04062568
-0.005280763 -0.02359047 0.0029146045 -0.003372811 -0.0052680634 0.0010283489 0.005357088 0.01169715
-0.0019895972 -0.0054017147 -0.0017286843 0.011660475 0.0063415263 0.025793573 -0.012012365 -0.009313898
0.007931987 0.011817005 -0.016992679 -0.03130456 0.014338372 0.037909333 0.016320039 0.010766047
0.015983436 -0.0029974312 0.012674451 0.0021699395 -0.0033261601 -1.9275517e-10 -8.720487e-10 -3.9909702e-13
-4.2037565e-05 0.0015909373 -0.010896917 4.7320158e-05 3.6481564e-05 -5.6282295e-13 0.0006050078 -0.016549569
0.0138315065 0.022997515 0.012054779 0.0056942184 -0.0066082138 -0.0026471876 -0.013620866 -4.460651e-12
2.597141e-06 0.005215467 -4.7666244e-13 -5.85399e-11 -3.632405e-09 -0.0020987967 2.3045357e-10 -4.919368e-12
-2.6655585e-13 5.7699495e-10 0.0006151513 -0.0009049145 1.0533282e-06 -0.021443803 -1.8194272e-11 4.6901812e-07
2.824287e-10 -0.0068476605 -0.008004045 0.013576272 -0.005696571 0.013566063 -0.004219327 -0.006870989
-0.00475692 -0.0017978103 -0.0002142803 -5.6890174e-05 0.008555518 -0.0017469195 0.0019491824 -0.0001766192
1.432821e-05 -0.0008185991 0.005527818 2.2255212e-12 -5.6662963e-11 7.4902666e-05 -0.0009579344 -0.000100582096
-1.441862e-09 6.615945e-14 5.963808e-12 -0.001688075 3.4159537e-05 -1.5991684e-08 -0.00025132668 1.4629364e-06
1.3812146e-07 -0.0006504596 -4.0069066e-13 0.0020440775 -1.723452e-05 -0.00028399058 0.017529652 -0.0066790744
-0.015142687 0.0031440523 0.003125027 0.010554359 0.0013437335 0.02145118 -0.003339407 0.0014266355
2.3967408e-05 -3.2336622e-15 0.007007088 1.6993848e-05 0.0015423212 -0.0059976443 0.0014320784 -0.02540505
0.0020726451 0.02096003 0.0139582055 -0.011128828 -0.003549519 -0.04336857 -0.030954758 -0.012067342
0.0056837057 0.0062443917 0.03994262 -0.029551107 0.00037399106 -0.035037987 -0.038117524 -0.0022688787
0.0010918749 -0.0042931875 0.011001936 0.026319293 -0.009747542 -0.0018811452 -0.009060706 0.02207733
0.0030629102 -0.012917081 0.0056307763 0.01425433 0.022575723 0.011348845 -0.018354818 0.025136909
-0.028305925 -0.013051297 0.0067745573 0.029430196 -0.016397355 0.009755997 0.00039743687 -0.026574835
-0.050087817 -0.021752467 -0.014047114 0.0010899586 0.0003867235 0.005553185 -0.030396298 3.37316e-13
-2.203873e-12 1.6905045e-11 0.0017346155 0.0047856467 1.7695617e-13 -0.0039751776 -0.012530702 -0.02019328
0.0030535616 0.008392145 0.014331651 -0.007110568 -0.022267401 0.008698494 -0.0012056372 -0.0017349767
0.0104885185 -0.007874706 -0.004446041 -0.0036136727 -0.004912887 -0.004708589 -0.0031896816 -0.01562579
0.010177107 -0.0063981684 0.004855851 -0.0075998786 -0.0029673656 -0.0231027 -0.027613394 0.0043179784
0.0014648734 0.0018433208 4.70922e-13 -0.0071726334 -0.00031445635 6.793205e-13 0.0018963402 0.0027906578
0.0017306292 1.7947418e-13 1.8539342e-13 -5.032993e-07 -0.0061694514 -5.9366396e-12 -2.4180013e-05 3.1061593e-13
-3.3652993e-13 0.0042922394 -0.013990481 -0.03271274 0.010468327 -0.004202705 0.035357703 0.0021336053
0.0019967633 -0.024124179 -0.017938254 1.089257e-12 -0.004687886 3.8674095e-14 1.3095554e-13 -3.8021247e-07
-7.7008854e-14 -1.6234557e-11 -0.00033561242 0.008833424 -0.007471551 -6.006414e-11 -1.4872316e-13 0.001247545
00000000: 0f97 9ab9 a1cf b3ba e440 852a 2d42 6f39
00000010: 1981 40ba 2c4a 03ac e528 8438 ab7d 06bc
00000020: 0b2c 403c b155 273b 98cf 623c fafd 1a3d
00000030: 3997 80bc 2fcc 00bc da72 f13b 1d67 26bd
00000040: 400a adbb cd40 c1bc f302 3f3b 610a 5dbb
00000050: b89f acbb aac9 863a 838a af3b 67a5 3f3c
00000060: e763 02bb de00 b1bb 0595 e2ba 940b 3f3c
00000070: 94cc cf3b 0b4d d33c 83cf 44bc 5299 18bc
00000080: 2af5 013c 1d9c 413c 3b34 8bbc 3639 00bd
00000090: 7eeb 6a3c d146 1b3d 9ab1 853c 1364 303c
000000a0: b2ef 823c 8d70 44bb 80a8 4f3c 8b35 0e3b
000000b0: b5fb 59bb c2ef 53af f9b4 6fb0 f1ab e0aa
000000c0: 7e51 30b8 ff86 d03a fc88 32bc a279 4638
000000d0: c803 1938 ab6b 1eab 6399 1e3a f692 87bc
000000e0: 8b9d 623c 4965 bc3c 6881 453c 9196 ba3b
000000f0: b789 d8bb 707c 2dbb 0e2a 5fbc f9f1 9cac
00000100: 8b4a 2e36 82e6 aa3b 262b 06ab 09bb 80ae
00000110: f29d 79b1 f78b 09bb ea62 7d2f ba15 adac
00000120: bf0e 96aa 699a 1e30 1b42 213a c937 6dba
00000130: 1560 8d35 eaaa afbc dc09 a0ad 5ccd fb34
00000140: 4e44 9b2f 5762 e0bb 6623 03bc 036f 5e3c
00000150: 4daa babb 3144 5e3c 4842 8abb 0926 e1bb
00000160: f0df 9bbb 81a4 ebba 6eb0 60b9 5c9d 6eb8
00000170: 722c 0c3c e4f8 e4ba b57b ff3a db32 39b9
00000180: 3263 7037 4197 56ba b322 b53b 6d9b 1c2c
00000190: d334 79ae 1015 9d38 e41d 7bba 9aef d2b8
000001a0: 022b c6b0 54fa 9429 35d5 d12c 6642 ddba
000001b0: 8646 0f38 165e 89b2 7fc4 83b9 1d5a c435
000001c0: 8a4e 1434 9b83 2aba 9c91 e1aa eef5 053b
000001d0: da92 90b7 92e4 94b9 589a 8f3c 23dc dabb
000001e0: 0819 78bc 720c 4e3b 41cd 4c3b 31ec 2c3c
000001f0: 3720 b03a 63ba af3c f4d9 5abb f2fd ba3a
00000200: 9e0d c937 8a02 69a7 b79b e53b 038e 8e37
00000210: b627 ca3a e387 c4bb 94b4 bb3a 401e d0bc
00000220: 37d5 073b 5eb4 ab3c f5b0 643c b055 36bc
00000230: 0c9f 68bb 3ea3 31bd d594 fdbc 1ab6 45bc
00000240: 613e ba3b c19d cc3b df9a 233d 2a15 f2bc
00000250: 3b14 c439 fe83 0fbd 1f21 1cbd 78b1 14bb
00000260: 3e1d 8f3a dead 8cbb 7741 343c 8f9b d73c
00000270: 28b4 1fbc c290 f6ba 5b73 14bc 84db b43c
00000280: 1bbb 483b 2aa2 53bc 6082 b83b fe8a 693c
00000290: b9f0 b83c 82f0 393c d85c 96bc ebeb cd3c
000002a0: d4e1 e7bc 1bd5 55bc 1bfd dd3b 9817 f13c
000002b0: bf53 86bc 9ed7 1f3c 135f d039 78b3 d9bc
000002c0: e228 4dbd 3b32 b2bc de25 66bc f1dc 8e3a
000002d0: 26c1 ca39 7ef7 b53b a801 f9bc 5ce4 bd2a
000002e0: 7215 1bac c7b2 942d 0a5c e33a ead0 9c3b
000002f0: 253c 472a 3542 82bb 934d 4dbc 616c a5bc
00000300: 431e 483b 357f 093c 4dcf 6a3c c5ff e8bb
00000310: 206a b6bc 2184 0e3c 7906 9eba 2868 e3ba
00000320: 09d8 2b3c e904 01bc 18b0 91bb 5ed3 6cbb
00000330: 48fc a0bb 824a 9abb fa09 51bb a801 80bc
00000340: e1bd 263c baa7 d1bb d51d 9f3b 6708 f9bb
00000350: 2278 42bb e041 bdbc 7c35 e2bc d47d 8d3b
00000360: ff00 c03a 959b f13a 828d 042b 6908 ebbb
00000370: 9edd a4b9 3336 3f2b 9e8e f83a 78e3 363b
00000380: 48d6 e23a e911 4a2a 04bc 502a 771a 07b5
00000390: 1c29 cabb 7fe0 d0ac 2fd6 cab7 79dc ae2a
000003a0: 1373 bdaa eaa5 8c3b 5538 65bc cbfd 05bd
000003b0: 5983 2b3c d8b6 89bb 3dd3 103d f5d3 0b3b
000003c0: 21dc 023b 12a0 c5bc 3ff3 92bc 9f4c 992b
000003d0: d79c 99bb 322c 2e29 5d71 132a 0120 ccb4
000003e0: 9568 ada9 f9cc 8ead 23f5 afb9 11ba 103c
000003f0: ead3 f4bb 1b15 84ae 8872 27aa aa84 a33a

e_conv3.bias f4 [32]
0.030580934 0.028402388 -0.0026621914 0.00810026 0.033845656 -0.02434725 -0.02213624 -0.009447142
0.032219708 0.006348847 0.031721108 -0.0051400806 -0.0013129552 -0.007225062 -0.00010502504 -0.016976599
0.035674047 -0.015123919 0.044059813 -0.010394775 -0.0005691435 0.012690132 -0.00021079215 -0.010280594
0.010826616 3.9977847e-05 0.016990295 0.041630127 -0.00016109466 -0.019731235 0.032787185 -0.021365155
00000000: de84 fa3c 20ac e83c 2978 2ebb f4b6 043c
00000010: bea1 0a3d e273 c7bc 0f57 b5bc 2fc8 1abc
00000020: d0f8 033d fd09 d03b feed 013d 1f6e a8bb
00000030: 7717 acba 37c0 ecbb e440 dcb8 8212 8bbc
00000040: f31e 123d 50ca 77bc 1078 343d d94e 2abc
00000050: 9332 15ba 45ea 4f3c 1608 5db9 f06f 28bc
00000060: 1e62 313c e3ad 2738 3b2f 8b3c 5a84 2a3d
00000070: 85eb 28b9 66a3 a1bc db4b 063d fa05 afbc

e_conv4.weight f4 [32, 64, 3, 3]
-0.006855794 0.01507244 -0.053356163 0.005379236 -0.009066986 -0.010057239 0.017186265 -0.005415027
-0.017024364 1.0930375e-07 0.0009844569 3.994946e-12 -2.3348222e-05 0.010459147 0.00034121043 -0.007065343
0.00018170945 -0.00060908863 -0.00032066138 0.00014082452 2.1301474e-05 0.0028050754 0.0025998456 0.0019165336
0.0013641592 -0.004977604 0.0013939283 6.3449085e-12 2.981256e-13 0.001485137 5.3724794e-05 0.000652596
-1.9094436e-05 -0.00043900855 6.7090277e-06 -0.00025644587 -0.0016800521 -0.0078102956 -0.024060965 -0.0045961095
0.044602904 0.001790126 -0.034797024 -0.0077628577 0.0034321668 -0.010697356 0.0076946327 -0.012398769
-0.0055230646 6.2752886e-05 0.008703044 -0.00062057906 0.006358946 0.009034721 0.0009087219 0.002080039
0.0024548895 -0.0073155263 0.0018290479 0.0004550539 -0.002610873 0.000122011814 0.0014887875 -0.01418141
-0.019533588 -0.028435932 -0.02616107 0.021278713 0.010698842 -0.0104947435 0.008764131 -0.010394952
-0.01634635 0.0061411844 0.0113507295 -0.007705086 0.025384039 -0.0048864875 -0.0048878114 -0.008739262
-0.018935835 -0.026891205 0.0015755892 -0.028542204 0.036822576 -0.017099962 0.022705387 0.0031370516
0.0033746173 -0.016539535 0.009547793 -0.016573263 -0.005166427 -0.010903249 0.016540397 0.042621523
-0.008304238 0.017038608 0.0035754188 0.0025891236 0.0016740785 -7.72363e-12 -6.385559e-05 -0.0043915403
-2.0053795e-10 -0.0008307415 -0.00011257726 0.0002472496 1.7828647e-11 -0.010244718 0.00016886501 -0.00022462835
-9.8620534e-05 0.0074450127 4.844938e-05 -0.004250277 -0.007102124 -0.010984229 0.029456828 0.0104466565
0.010646374 0.018953525 -0.005124724 -0.047296084 0.028329853 -2.2818534e-05 -0.008470537 0.021225678
0.0068322406 -0.006103894 0.014449567 0.024483798 0.013608785 0.00299124 -0.008213223 0.0036327273
-0.010150509 9.417893e-13 -0.00010055646 3.7953482e-10 -1.3838471e-05 -3.6092618e-09 7.290935e-13 4.61724e-13
0.0045382627 -0.049125202 -0.023906434 -0.024172608 -0.030723471 0.013372182 0.012836769 0.017315917
0.032605622 0.008737999 0.00066557823 0.00071171735 0.018966109 0.02305788 -0.005470098 0.026156692
0.022055328 0.013469962 -0.0010045886 0.0074277488 -6.819265e-05 6.132657e-07 -0.0065907673 4.7555913e-12
-2.6811449e-05 3.723149e-07 -0.0052909944 -0.009446027 -0.0283972 0.019123256 -0.009256042 0.014219485
-0.010026217 -0.002852926 0.017672868 -0.0154992035 5.588964e-07 0.00021506874 6.597725e-08 -0.0021603825
0.0019392091 3.6916932e-12 1.2022291e-10 0.0046020965 -8.234406e-13 -0.012815495 -0.001886258 0.00014924115
-0.0011787144 0.001107459 -0.0011544926 0.008611009 -0.0107068475 -0.0009427956 0.0003836614 0.0092573445
7.592104e-15 -2.704594e-12 7.452569e-05 -9.814224e-05 0.0053395415 0.00040777455 0.00081178406 0.014637203
-0.0067506186 0.007813094 -0.015895631 -0.0023337686 0.021192987 0.0074202656 0.018155858 0.01616115
0.00012193712 3.155489e-05 -7.613578e-08 3.0329575e-05 5.2127604e-16 5.9399e-05 2.903793e-09 -4.639728e-14
-1.3759855e-05 -0.011350372 -0.026778845 -0.012482988 0.008396275 -0.007884797 -0.0012957199 -0.004443657
0.0011059556 0.009203874 0.011055783 -0.015727341 -0.0015848719 -0.0048228996 -0.006687582 0.008272102
0.0143329445 0.019588167 0.012267356 0.0016963716 -0.0027544473 0.0026358743 -0.0020661647 0.0002977547
-0.000390898 -0.0021361073 -0.00038204473 0.0013943227 2.9347248e-05 1.3971634e-11 1.984032e-07 3.883577e-06
00000000: 92a6 e0bb 65f2 763c fe8b 5abd 4d44 b03b
00000010: b28d 14bc 1ec7 24bc 36ca 8c3c 8a70 b1bb
00000020: ae76 8bbc 5fba ea33 e408 813a 468f 8c2c
00000030: eddb c3b7 d85c 2b3c 7de4 b239 6584 e7bb
00000040: 4289 3e39 3fab 1fba 711e a8b9 4baa 1339
00000050: 91b0 b237 5bd5 373b 2c62 2a3b 3234 fb3a
00000060: 96cd b23a 2b1b a3bb 79b4 b63a db3d df2c
00000070: 6dd4 a72a eea8 c23a 8f56 6138 fa12 2b3a
00000080: fd2c a0b7 bb2a e6b9 1c1e e136 9573 86b9
00000090: 3235 dcba 82ed ffbb 801b c5bc f69a 96bb
000000a0: 89b1 363d a9a2 ea3a 5387 0ebd 925f febb
000000b0: 34ee 603b f743 2fbc 4223 fc3b 3524 4bbc
000000c0: d3fa b4bb 339a 8338 3697 0e3c 5bae 22ba
000000d0: b55e d03b 5e06 143c 4b37 6e3a 4351 083b
000000e0: 36e2 203b 15b7 efbb aabc ef3a 4d94 ee39
000000f0: 2e1b 2bbb 98e0 ff38 6b23 c33a 2559 68bc
00000100: e704 a0bc 79f2 e8bc be4f d6bc b250 ae3c
00000110: 324a 2f3c 25f2 2bbc 6e97 0f3c 974f 2abc
00000120: c8e8 85bc fd3b c93b 69f8 393c f27a fcbb
00000130: 30f2 cf3c d41e a0bb ef29 a0bb 1f2f 0fbc
00000140: 531f 9bbc f24a dcbc 0084 ce3a 57d1 e9bc
00000150: 45d3 163d 3815 8cbc a600 ba3c fe96 4d3b
00000160: af28 5d3b eb7d 87bc 596e 1c3c a7c4 87bc
00000170: 224b a9bb 8aa3 32bc ba7f 873c e893 2e3d
00000180: 800e 08bc 8d94 8b3c 9351 6a3b 49ae 293b
00000190: c16c db3a 23e0 07ad 35ea 85b8 e9e6 8fbb
000001a0: 6a7e 5caf 1ec6 59ba 7517 ecb8 48a1 8139
000001b0: 8bd2 9c2d 76d9 27bc 5b11 3139 378a 6bb9
000001c0: 7fd2 ceb8 4bf5 f33b 2036 4b38 e845 8bbb
000001d0: efb8 e8bb 32f7 33bc 724f f13c 7428 2b3c
000001e0: 216e 2e3c 6c44 9b3c 4ded a7bb 8ab9 41bd
000001f0: 0214 e83c 6e6a bfb7 02c8 0abc 79e1 ad3c
00000200: fde0 df3b 2d03 c8bb e0bd 6c3c 3f92 c83c
00000210: 62f7 5e3c ae08 443b c190 06bc 0d13 6e3b
00000220: 524e 26bc 898b 842b d7e1 d2b8 c7a6 d02f
00000230: c82b 68b7 ce06 78b1 b938 4d2b b8f6 012b
00000240: b5b5 943b 8237 49bd 6dd7 c3bc a205 c6bc
00000250: caaf fbbc ff16 5b3c 5051 523c 1cda 8d3c
00000260: 798d 053d d329 0f3c 337a 2e3a 8b92 3a3a
00000270: d05e 9b3c e1e3 bc3c 823e b3bb 8f46 d63c
00000280: 60ad b43c 1eb1 5c3c 66ac 83ba 7964 f33b
00000290: a602 8fb8 4c9f 2435 5df7 d7bb 8f52 a72c
000002a0: 26e9 e0b7 92e2 c734 1460 adbb 82c3 1abc
000002b0: 3fa1 e8bc 60a8 9c3c a7a6 17bc d8f8 683c
000002c0: 0145 24bc 28f8 3abb b1c6 903c 5ff0 7dbc
000002d0: 1107 1635 1384 6139 60af 8d33 3495 0dbb
000002e0: 0f2d fe3a d1e3 812c be2f 042f 2fcd 963b
000002f0: 26c7 67ab 15f8 51bc 513c f7ba 9e7d 1c39
00000300: 187f 9aba 2828 913a 5852 97ba 3115 0d3c
00000310: c66b 2fbc f125 77ba 2926 c939 1eac 173c
00000320: 66c4 0828 a251 3eac ad4a 9c38 b7d1 cdb8
00000330: 52f7 ae3b 93ca d539 e8cd 543a e1d0 6f3c
00000340: 4b34 ddbb 7e02 003c 8e37 82bc 24f2 18bb
00000350: ea9c ad3c b325 f33b 98bb 943c 6364 843c
00000360: 7eb8 ff38 ce59 0438 1680 a3b3 446c fe37
00000370: 623f 1626 3123 7938 118c 4731 6cf4 50a9
00000380: 21da 66b7 e9f6 39bc 4f5f dbbc 7285 4cbc
00000390: 8890 093c 3c2f 01bc 25d5 a9ba 199c 91bb
000003a0: b6f5 903a d8cb 163c 5123 353c a0d6 80bc
000003b0: 7abb cfba 6a09 9ebb 8123 dbbb b687 073c
000003c0: bad4 6a3c 5d77 a03c 05fd 483c c958 de3a
000003d0: f583 34bb a2be 2c3b 7e68 07bb f61b 9c39
000003e0: 71f1 ccb9 effd 0bbb 2d4d c8b9 b5c1 b63a
000003f0: bc2e f637 a5ca 752d a808 5534 ac4f 8236

e_conv4.bias f4 [32]
0.032877088 -0.00092145614 -0.026893374 -0.0067602056 0.01672634 0.015934987 0.010971595 0.015318231
-0.00017214828 -0.0029652105 0.0047158906 0.026777161 0.009786923 -0.0013693337 0.022851393 0.011941109
-0.03231759 0.011421747 -0.0026734322 0.030851185 -0.0076237693 -0.009065144 0.0036449248 -0.004853618
-0.0052138935 0.036471564 0.0012975906 0.031049972 0.00299486 0.0094871195 -0.003154791 0.022395248
00000000: 20aa 063d e08d 71ba 7e4f dcbc b784 ddbb
00000010: ad05 893c 178a 823c 34c2 333c 51f9 7a3c
00000020: b482 34b9 fa53 42bb c287 9a3b c75b db3c
00000030: 5559 203c 377b b3ba d832 bb3c a4a4 433c
00000040: 735f 04bd 4722 3b3c c034 2fbb a0bb fc3c
00000050: d0d0 f9bb f885 14bc b1df 6e3b 190b 9fbb
00000060: 4fd9 aabb 3563 153d ea13 aa3a 835c fe3c
00000070: 6a45 443b dd6f 1b3c 9cc0 4ebb 3d76 b73c

e_conv5.weight f4 [32, 64, 3, 3]
0.002899287 -0.0017325685 0.0039138226 0.011203285 0.014276728 0.009904682 0.0029942482 0.002338563
0.0067749023 0.00014745904 -0.011891464 0.0106046125 0.008913858 0.006957737 -0.025035761 0.0068709953
0.027442424 0.006004565 -0.0041704737 -0.0006938951 6.653764e-05 -1.8310886e-05 9.409916e-05 4.9746664e-05
-0.0028702458 0.00011896316 0.0023990814 0.016945299 -0.0065615014 0.017541835 0.0069987276 0.016176952
0.01834134 -0.0046436884 0.015971877 0.010013017 0.020681636 0.015945936 0.009364722 0.018812085
-0.0064011146 0.009413354 -0.021694383 -0.013200122 -0.017971212 0.00045260132 -6.321957e-13 -4.6841555e-11
-2.1481329e-13 -4.340525e-13 -0.00022912836 -0.0012722757 2.5321142e-10 -0.0041637006 0.01100229 -0.0007007908
0.010680634 0.012881 0.012722991 0.019505579 -0.010266126 0.00022093493 0.001191318 4.3718195e-08
1.7045807e-08 -0.0037378862 -3.085471e-13 0.00074324524 -8.5968226e-05 -1.2244009e-13 -0.0020555109 -7.867884e-13
-0.026260119 0.015558118 -0.031305864 -0.02421655 0.028777037 -0.02017852 0.014058463 -0.019910464
0.013400515 0.027909296 -0.0022223978 -0.015681854 0.013011955 -0.026948854 -0.008707208 -0.0048505324
0.005759494 0.0044775824 -0.000118411524 -0.0055595487 0.006477131 -0.0031434349 0.003198304 0.015631737
-0.0021582942 -0.0022291092 0.015791915 1.2989181e-12 -1.2237952e-12 0.010075787 1.7657318e-09 -3.2374118e-14
-0.0015673141 1.1301394e-13 -2.1623538e-12 -0.00031160383 2.825207e-05 -0.024704427 0.0015308466 1.494931e-05
0.005024348 0.000104490915 -0.00016624993 5.3687796e-05 -1.5141987e-05 -3.4165148e-06 0.0025138557 1.0675784e-13
0.00024525588 -3.9377264e-14 -7.565418e-14 5.6733845e-12 -0.0042651384 0.01061273 0.007745706 -0.00014004897
-0.0018270278 6.634012e-05 0.0015873677 2.744048e-09 2.7385272e-13 5.2047436e-11 -0.007934356 -1.498037e-10
0.0013611511 3.3961007e-09 2.6015758e-09 -0.0025415877 -0.0037806898 0.0043046805 0.0011812188 6.740345e-12
-0.010039581 -0.0025250283 -0.009950883 -0.019257644 0.0020423322 0.03185073 0.005349517 0.0006899132
-0.0062102675 -0.043427207 0.014994632 0.038272068 0.0029313539 0.024901256 -0.016088083 0.017898532
-0.015612534 -0.021760773 0.005167633 -0.0007497677 0.0076908055 0.029149175 0.001666591 0.053738803
0.01859839 -0.007872689 0.02239671 -0.017391259 0.010607949 0.025534332 0.01969755 0.0052786344
-0.00031038208 -0.017629959 -0.0059894077 0.0021132415 -0.008777647 -0.015582674 3.9839565e-06 1.7032049e-06
0.00029004665 0.0041432115 -0.0011390429 -0.00099448 -2.6493396e-07 -0.006540233 -0.006776705 -0.0087172575
-0.0003051485 -0.0040521487 -0.029737623 0.0012853112 -0.004901987 -0.001130488 0.00028533305 0.0030772234
0.023908634 0.011360923 0.013480185 -0.017480271 -0.0028133825 -0.008228498 -0.023520911 -0.0101443725
0.017002746 0.009941993 0.024359379 -0.010265621 0.0031934048 -0.02793741 0.036962185 -0.026991375
0.023775695 0.05457137 -0.05339707 0.000992983 -0.018599987 -0.004408863 -0.042107034 -0.046089683
0.023007622 -0.011984374 -3.7032083e-07 -2.8218995e-08 2.1734537e-05 0.00010232956 1.1861279e-09 5.313184e-07
0.00015768092 0.00012755957 -0.0020496594 -0.0008547014 0.0028465732 -0.009841739 -0.013295935 -0.015629902
-0.00022181465 -0.0027041726 2.5501633e-05 -0.018189073 -0.013286818 -0.0070650447 -0.010562628 0.002682602
0.044616863 0.012890087 -0.015106234 0.0012251597 -0.0056148805 6.092336e-10 5.3681747e-06 1.1570596e-06
00000000: f701 3e3b 5a17 e3ba 863f 803b fc8d 373c
00000010: f0e8 693c 3f47 223c 263b 443b 9442 193b
00000020: 0000 de3b 3c9f 1a39 6ad4 42bc f8be 2d3c
00000030: 6e0b 123c bafd e33b cc17 cdbc 1626 e13b
00000040: efce e03c f1c1 c43b 78a8 88bb 83e6 35ba
00000050: 208a 8b38 549a 99b7 1a57 c538 13a7 5038
00000060: bc1a 3cbb dc7b f938 e839 1d3b ded0 8a3c
00000070: dd01 d7bb e5b3 8f3c 9555 e53b 8785 843c
00000080: 9440 963c 152a 98bb 74d7 823c a30d 243c
00000090: 896c a93c 0da1 823c 7e6e 193c cd1b 9a3c
000000a0: 71c0 d1bb 783a 1a3c 6bb8 b1bc 5345 58bc
000000b0: 5d38 93bc 1f4b ed39 80f2 31ab e702 4eae
000000c0: b7db 71aa 8f59 f4aa 2d42 70b9 7dc2 a6ba
000000d0: 5734 8b2f a76f 88bb f342 343c 46b5 37ba
000000e0: d3fd 2e3c d40a 533c 1874 503c 2aca 9f3c
000000f0: 4133 28bc c5aa 6739 0026 9c3a aac4 3b33
00000100: 206c 9232 53f7 74bb 53b2 adaa 58d6 423a
00000110: d749 b4b8 f4da 09aa c0b5 06bb 1476 5dab
00000120: 761f d7bc 7ae7 7e3c 943a 00bd c961 c6bc
00000130: d2bd eb3c 6c4d a5bc 7855 663c 451b a3bc
00000140: d58d 5b3c 09a2 e43c a6a5 11bb 3b77 80bc
00000150: 1830 553c d8c3 dcbc ada8 0ebc 37f1 9ebb
00000160: 23ba bc3b afb8 923b b453 f8b8 e02c b6bb
00000170: 1d3e d43b 1602 4ebb a39a 513b 210e 803c
00000180: 2b72 0dbb 3f16 12bb 0c5e 813c 75ce b62b
00000190: de3b acab ea14 253c 2aae f230 d1cc 11a9
000001a0: 566e cdba 1a7c fe29 8129 18ac c25e a3b9
000001b0: dcfe ec37 f060 cabc b0a6 c83a ccce 7a37
000001c0: 49a3 a43b 2222 db38 6053 2eb9 d52e 6138
000001d0: 570a 7eb7 4747 65b6 80bf 243b b465 f029
000001e0: b095 8039 e556 31a9 aa5b aaa9 4e9d c72c
000001f0: 93c2 8bbb 04e1 2d3c b1cf fd3b 1cda 12b9
00000200: e178 efba 1520 8b38 390f d03a ce91 3c31
00000210: 562a 9a2a 34e8 642e 1aff 01bc feb5 24af
00000220: a768 b23a d660 6931 68c7 3231 c490 26bb
00000230: 73c5 77bb 470e 8d3b 20d3 9a3a a127 ed2c
00000240: 0e7d 24bc f27a 25bb 0709 23bc 35c2 9dbc
00000250: a6d8 053b e975 023d 004b af3b 4bdb 343a
00000260: 807f cbbb bae0 31bd 0cac 753c 2cc3 1c3d
00000270: f51b 403b b8fd cb3c 28cb 83bc f19f 923c
00000280: b7cb 7fbc a643 b2bc 3f55 a93b 0f8c 44ba
00000290: 2703 fc3b 40ca ee3c 8471 da3a 381d 5c3d
000002a0: a75b 983c 73fc 00bc 4e79 b73c 1d78 8ebc
000002b0: f7cc 2d3c 602d d13c c25c a13c 65f8 ac3b
000002c0: c7ba a2b9 b46c 90bc cb42 c4bb 4f7e 0a3b
000002d0: 1fd0 0fbc 794e 7fbc edad 8536 ad99 e435
000002e0: 6711 9839 c7c3 873b f04b 95ba 3659 82ba
000002f0: 3f3c 8eb4 734f d6bb 1f0f debb d4d2 0ebc
00000300: 57fc 9fb9 e3c7 84bb 519c f3bc e377 a83a
00000310: d9a0 a0bb e22c 94ba c198 9539 3eab 493b
00000320: 0adc c33c 2a23 3a3c fedb 5c3c c932 8fbc
00000330: ba60 38bb d2d0 06bc edae c0bc 9534 26bc
00000340: 5849 8b3c bee3 223c 528d c73c 2331 28bc
00000350: 7148 513b ffdc e4bc a965 173d 041d ddbc
00000360: 3fc5 c23c 3b86 5f3d e3b6 5abd fb26 823a
00000370: 005f 98bc 3978 90bb 6d78 2cbd 89c8 3cbd
00000380: 7b7a bc3c 1c5a 44bc 82d0 c6b4 3a66 f2b2
00000390: 9052 b637 c499 d638 2a05 a330 ec9f 0e35
000003a0: 2657 2539 83c1 0539 9453 06bb 0a0e 60ba
000003b0: 938d 3a3b 3f3f 21bc 31d7 59bc 480a 80bc
000003c0: eb96 68b9 7d38 31bb 57ec d537 4001 95bc
000003d0: f4b0 59bc e481 e7bb df0e 2dbc 98ce 2f3b
000003e0: 2cc0 363d f230 533c 2380 77bc 8a95 a03a
000003f0: 08fd b7bb 0177 2730 4520 b436 444c 9b35

e_conv5.bias f4 [32]
0.02020927 -0.0027754654 -0.007703783 0.0016112631 -0.0020451439 0.0035278061 -0.0035385913 0.02880702
-0.0005452503 -0.010518192 0.04270171 0.028128378 -0.0047761234 -0.009785046 0.027506648 0.035497315
-0.0010599906 -0.006429153 -6.253984e-05 0.0067925984 0.0253821 0.02892017 0.007504252 -0.00095121225
0.017914554 -0.005951761 0.0065945103 0.008025979 0.03165992 -0.00402747 -0.0051093413 -8.841855e-08
00000000: e98d a53c 95e4 35bb 0470 fcbb 0531 d33a
00000010: d207 06bb c432 673b b6e7 67bb b3fc eb3c
00000020: 21ef 0eba 7f54 2cbc fde7 2e3d 7c6d e63c
00000030: 0781 9cbb 7551 20bc 9f55 e13c a265 113d
00000040: 62ef 8aba a5ab d2bb d227 83b8 7294 de3b
00000050: 1fee cf3c fee9 ec3c 3ae6 f53b c65a 79ba
00000060: 8bc1 923c fd06 c3bb c316 d83b 657f 033c
00000070: d5ad 013d def8 83bb 436c a7bb 9de0 bdb3

e_conv7.weight f4 [8, 64, 3, 3]
-0.032524664 0.00630934 -0.0029780492 0.022605503 -0.009847349 0.0030237213 0.023726089 -0.021147817
0.022189397 0.007609371 0.005599787 0.01525972 0.008482995 0.009389538 0.014368398 0.0156899
0.014634861 -0.00064095267 -7.9201016e-08 0.0073358826 0.0005232831 -5.6665224e-12 -2.9557283e-05 -1.1599073e-12
5.6369297e-13 -0.00021081464 -0.011177833 9.625252e-13 1.4493526e-12 -0.0041409526 2.1707731e-10 -2.397029e-14
-1.2572026e-13 -0.0015520428 0.0006317709 -6.3879634e-06 -0.0048568104 -0.006012814 -0.036256656 0.021094479
-0.021027196 -0.0062123747 -0.007277186 0.0036085995 -0.0010181663 0.0014967452 -0.020459544 0.011061814
0.010741698 0.012477642 -0.00085154915 0.009383539 0.004575981 0.03430357 0.03947353 0.008933028
0.023537053 -0.03358885 0.008505886 -0.0098806 0.010438835 -0.006024841 0.011361058 -0.0041041095
-0.0003472113 0.00032983357 -0.0007658654 -0.0004428373 0.006476291 -0.00074342074 0.0027960087 -3.2555035e-05
-1.312965e-12 -0.003915685 6.0693714e-07 6.2265926e-10 0.0006710106 0.0005327122 0.00012268726 -0.0060320282
2.4211025e-07 -0.0003991055 -9.331302e-11 1.6268245e-05 1.3412115e-12 0.0038821388 -1.2396448e-13 -1.5441409e-13
-1.3205018e-14 -0.0041112695 -0.0100361165 -0.00769452 0.0032485528 -0.009853047 -0.0062207095 -0.004736505
-0.01616137 -0.011575393 -0.0066755237 -0.017069444 -0.00875662 0.007828867 -0.00901149 0.0034486393
0.012956855 0.00035884228 -0.011704835 -0.011591588 -0.0020490575 -0.0005252819 -0.0002595408 -0.008502288
-0.0053090025 -0.0044842656 -0.0102692535 -0.011083185 -0.0103866635 0.004204165 0.004186896 -4.0283785e-09
2.755311e-09 -6.946071e-08 0.0020801963 -0.0031594546 -0.0023459888 -4.5164153e-08 -0.011335673 0.018356033
-0.000106294436 0.013495602 -0.023125544 0.016813919 -0.012748575 0.019872224 0.005269658 -0.012401458
0.002725088 -0.006528074 0.008271227 -0.0072501274 -0.0015450236 0.0029883995 -0.010646995 -0.00011726064
2.6166565e-12 1.0340094e-11 3.8662792e-14 0.00045792828 6.166387e-05 0.0041321763 -3.6740373e-13 5.7798727e-05
-4.4064058e-13 0.0014934678 0.0037125326 -0.0010877047 -8.44105e-06 -0.0007057494 -0.0016970228 -2.1196652e-07
-0.00043203708 -0.00044470298 -0.00100931 -7.814638e-05 1.3490588e-05 2.9841876e-06 -2.0642005e-05 1.6269596e-05
-2.895222e-05 0.012992009 -8.578413e-06 -0.012979463 -0.008510036 -0.0061498364 -0.0059081195 -0.009756863
-0.022538804 -0.004456549 -0.007704556 -0.024163011 -0.008484372 -0.004923019 -0.003148448 -0.006220705
-0.003385443 -0.00032815518 -0.0062937303 0.007908568 -0.00040215233 3.285445e-13 6.730975e-12 -0.0007950462
-2.8751376e-10 1.4518843e-06 -0.002090616 0.0073744827 -0.00074281316 4.8720386e-14 -0.005200109 0.008688089
-0.009979215 -0.002064378 -0.0037426562 -0.007990555 0.00049590407 -0.010486833 -0.0045955162 1.8278855e-12
8.9735543e-13 -1.4155646e-13 -2.8865374e-10 -1.952267e-13 -0.00050378166 -1.1751053e-05 -2.6523052e-13 4.105471e-05
0.0009822551 0.0015854422 0.008573592 -3.2481308e-14 -1.1245146e-05 -1.014206e-12 0.0012312297 1.3134432e-12
-0.0065875305 0.0012501868 0.017874468 -0.01249164 0.017603947 -0.005277781 -0.0057039405 0.0048933066
-0.0126483515 -0.00096727756 -0.0003709781 -0.0013376353 -0.0004970759 0.005455473 -0.0018676937 -0.0009096972
-0.0008960051 -0.00056632893 -0.0015366985 0.023912696 0.002987103 0.003590739 0.010009871 -0.008649506
0.004582874 -0.0050896853 0.017807545 -0.0014086104 0.04019517 0.009594625 0.00037974448 0.0024915808
00000000: 9538 05bd 94be ce3b 602b 43bb 2d2f b93c
00000010: c656 21bc a029 463b 375d c23c 303e adbc
00000020: 8ac6 b53c 0858 f93b 6b7e b73b e803 7a3c
00000030: 43fc 0a3c 94d6 193c 6e69 6b3c 1b88 803c
00000040: 0ec7 6f3c 9b05 28ba 3815 aab3 d861 f03b
00000050: ef2c 093a 7f5f c7ac c8f1 f7b7 113e a3ab
00000060: 5caa 1e2b 200e 5db9 3b23 37bc a076 872b
00000070: 6efa cb2b d4b0 87bb d5ad 6e2f bae7 d7a8
00000080: 668c 0daa ea6d cbba 6d9d 253a 3058 d6b6
00000090: e125 9fbb 2407 c5bb dc81 14bd 54ce ac3c
000000a0: 3a41 acbc 2d91 cbbb 7675 eebb 417e 6c3b
000000b0: fe73 85ba 6f2e c43a c69a a7bc 9c3c 353c
000000c0: f2fd 2f3c 066f 4c3c 7f3a 5fba 6abd 193c
000000d0: 1cf2 953b e681 0c3d ffae 213d d65b 123c
000000e0: c7d0 c03c 7694 09bd 465c 0b3c 3de2 21bc
000000f0: a607 2b3c 086c c5bb bb23 3a3c c47b 86bb
00000100: e909 b6b9 83ed ac39 5bc4 48ba 9e2c e8b9
00000110: 1137 d43b 1fe2 42ba 3e3d 373b b48b 08b8
00000120: 8dc8 b8ab 264f 80bb 67ec 2235 c027 2b30
00000130: c2e6 2f3a b6a5 0b3a 9ca5 0039 52a8 c5bb
00000140: 61fb 8134 093f d1b9 8f32 cdae ca77 8837
00000150: 3dc2 bc2b 7b6b 7e3b 5492 0baa d5da 2daa
00000160: 66e1 6da8 d4b7 86bb 866e 24bc 5022 fcbb
00000170: ace5 543b ad6e 21bc 18d7 cbbb af34 9bbb
00000180: d964 84bc b8a6 3dbc 5abe dabb 38d5 8bbc
00000190: ed77 0fbc a644 003c eea4 13bc 9102 623b
000001a0: fd48 543c ff22 bc39 a3c5 3fbc a5ea 3dbc
000001b0: 7b49 06bb 12b3 09ba fa12 88b9 2e4d 0bbc
000001c0: 24f7 adbb bff0 92bb 5f40 28bc 3f96 35bc
000001d0: d32c 2abc 18c3 893b 3b32 893b fe69 8ab1
000001e0: f257 3d31 6e2a 95b3 e753 083b da0e 4fbb
000001f0: 29bf 19bb 83fa 41b3 42b9 39bc 645f 963c
00000200: 64ea deb8 a81c 5d3c c871 bdbc 58bd 893c
00000210: 66df 50bc 13cb a23c 18ad ac3b 7c2f 4bbc
00000220: 6497 323b 74e9 d5bb 0a84 073c 7a92 edbb
00000230: 6482 caba 06d9 433b bc70 2ebc d4e9 f5b8
00000240: 7e21 382c a5e7 352d 2a1f 2e29 1816 f039
00000250: 8a51 8138 3567 873b 75d4 ceaa e96c 7238
00000260: 000f f8aa 77c0 c33a f64d 733b 5091 8eba
00000270: 099e 0db7 0a02 39ba a36e deba ea98 63b4
00000280: 0983 e2b9 0627 e9b9 d34a 84ba 85e2 a3b8
00000290: a255 6237 f443 4836 5e28 adb7 b17a 8837
000002a0: 6bde f2b7 6fdc 543c 01ec 0fb7 d0a7 54bc
000002b0: ae6d 0bbc 9184 c9bb e698 c1bb 40db 1fbc
000002c0: 4ca3 b8bc 3e08 92bb 8076 fcbb 82f1 c5bc
000002d0: 0902 0bbc 4751 a1bb 3156 4ebb 0ed7 cbbb
000002e0: 4fde 5dbb 3e0c acb9 a33b cebb f092 013c
000002f0: f9d7 d2b9 41f4 b82a 3cd3 ec2c a66a 50ba
00000300: f70f 9eaf 5dde c235 b702 09bb a5a5 f13b
00000310: 59b9 42ba c86a 5b29 ad65 aabb 7d58 0e3c
00000320: dd7f 23bc 844a 07bb 5a47 75bb d1ea 02bc
00000330: 8fff 013a f7d0 2bbc fc95 96bb 42a0 002c
00000340: 4695 7c2b df60 1faa 67b0 9eaf 44ce 5baa
00000350: 3710 04ba 6326 45b7 bf4f 95aa 2932 2c38
00000360: 03bf 803a 9dce cf3a 4078 0c3c 6648 12a9
00000370: 89a9 3cb7 9fbc 8eab 3761 a13a c7d9 b82b
00000380: 36dc d7bb 4fdd a33a 7a6d 923c bca9 4cbc
00000390: 2736 903c 3cf1 acbb 1fe8 babb 0858 a03b
000003a0: 083b 4fbc e690 7dba d67f c2b9 9853 afba
000003b0: 334e 02ba d3c3 b23b 67cd f4ba bf78 6eba
000003c0: e2e1 6aba b175 14ba 0c6b c9ba 8fe4 c33c
000003d0: 46c3 433b 9b52 6b3b 7100 243c a8b6 0dbc
000003e0: ef2b 963b 60c7 a6bb 21e1 913c 1fa1 b8ba
000003f0: b1a3 243d c632 1d3c 7118 c739 ca49 233b

e_conv7.bias f4 [8]
0.0011893136 -0.014467016 0.032439932 0.011533996 -0.011395568 -0.003376652 -0.017340962 -0.028860176
00000000: bee2 9b3a 1007 6dbc bcdf 043d 16f9 3c3c
00000010: 7ab4 3abc d24a 5dbb a20e 8ebc 2d6c ecbc
