snapshots/Epoch15.pth (torch, 304045 bytes, 14 tensors)

e_conv1.weight f4 [32, 3, 3, 3]
-5.0551328e-09 2.6995329e-18 1.5839564e-25 6.074696e-23 -1.4161231e-21 -3.3398206e-05 2.3103796e-26 -0.0002756863
-1.4370094e-06 3.6806538e-24 0.00010318954 5.0561666e-10 -6.1278587e-20 7.1766433e-28 -1.6980828e-25 3.6888513e-26
-4.8668573e-27 4.3951816e-18 -7.473674e-22 -5.6513176e-26 -6.330002e-06 2.9030936e-23 1.1766147e-26 5.557303e-05
1.3317779e-25 -5.2227364e-21 5.3071403e-08 -0.011158333 -0.0007639851 -0.025995709 0.005898127 0.006061997
0.0018121263 0.010556487 0.0009897363 0.0045231236 0.00790564 -0.006007509 0.03525797 0.003655906
0.01860843 0.014872704 0.025640743 0.032273915 0.0077652927 -0.003589073 0.0032935669 -0.028316837
0.0026259962 0.0007292948 -0.019423349 -0.019527128 -0.011841573 0.0139762405 -0.0030267644 -0.0388105
-0.0017159922 0.0017464184 -0.02310023 -0.01266037 0.00081305427 -0.0041011507 0.002178536 -0.007871059
0.012235872 0.01137568 -0.013873242 0.0061725676 0.0048923558 0.0383752 0.021008706 -0.026292924
0.0044478374 0.013837762 0.00869223 0.01524026 0.007918806 0.020503959 0.0059509086 -0.009495486
-0.005055486 0.010889933 0.015460244 -7.4600835e-06 -0.017790964 -0.010690732 0.0018305989 -0.005002815
-0.022185802 0.022951327 -0.026598316 0.013300251 0.0106771495 0.0013401262 -0.0019922052 0.007688937
-0.024481578 0.013020626 0.0202236 -0.0056766258 -0.0020248927 -0.020312646 -0.0073190057 0.018679406
-0.007289729 -0.023335597 0.0039194515 0.023882594 -0.015814114 -0.012976984 0.0076508005 0.023882933
0.006522546 0.02176005 0.0015097273 -0.025739389 -0.009215203 0.0071430923 0.013131525 0.016153771
0.01668088 -0.004173311 -0.014025945 0.016008867 0.035925817 0.03227905 0.008814514 0.0088423835
0.023854047 -0.031393267 -0.009175272 0.002635957 -0.045374464 -0.0049431706 -0.004333515 -5.7931407e-27
2.3290789e-26 1.8172611e-26 7.294795e-27 -2.895429e-25 1.1941171e-24 2.8432135e-24 -1.4364252e-25 5.8668673e-05
-5.0392584e-05 4.9694297e-19 4.271467e-07 -8.555528e-06 -2.1720651e-20 -4.266292e-27 -1.2640091e-08 1.8618253e-07
9.215546e-09 -6.515091e-23 7.890288e-20 -4.7448404e-28 -1.9673555e-06 7.55012e-18 -9.293695e-15 8.480471e-24
8.982379e-15 5.7044377e-27 0.004475072 -0.005439288 -0.003636361 -0.005475869 -0.0017139296 -0.028615847
0.013038596 -0.00037156144 0.012204909 0.021860184 0.03279369 -0.018478174 0.0033872332 0.008202605
0.012765163 0.0027064062 -0.04116482 -0.027334921 -0.0061354823 -0.014371927 0.00081310805 -0.00909922
0.004080563 0.006473884 0.03503581 -0.018490802 -0.02624736 -1.5392693e-08 8.261448e-26 4.0235464e-09
5.182391e-15 3.876961e-22 -8.241815e-06 4.3423237e-26 2.591728e-24 4.627202e-07 9.967169e-23 6.1755726e-11
6.136701e-07 1.4967147e-06 7.0259754e-13 -2.8524554e-24 5.884141e-11 -8.493623e-25 -2.1683814e-25 -6.9537234e-09
-9.185365e-15 -1.04642574e-17 1.2952925e-25 4.6495108e-10 5.332085e-12 7.653018e-18 -8.234716e-05 -1.4965026e-05
2.58868e-15 1.1513188e-14 2.1652406e-18 8.019122e-06 8.844556e-05 0.0008286357 -8.668251e-17 3.463996e-06
0.00088149897 -5.1314974e-10 -1.4545692e-16 -1.2542991e-20 -1.6140844e-15 3.5171413e-06 0.00024197061 -4.9715708e-14
7.088274e-06 -9.284149e-10 -2.2027895e-23 2.1702526e-08 -1.9054905e-16 1.7915242e-15 1.5653786e-06 -7.0998174e-10
7.355584e-15 4.0245373e-05 0.0009531571 -0.01520453 -0.0061152196 -0.026645398 -0.014805561 -0.01906929
-0.006975461 -0.006741361 0.014943451 0.0117015 -0.026785593 0.0009903699 -0.01396104 -0.018593557
00000000: 6bb1 adb1 bc30 4722 9515 4416 8ce0 921a
00000010: 9cff d59c 0d15 0cb8 15cf e414 fd89 90b9
00000020: 44df c0b5 6e63 8e18 7667 d838 9cfb 0a30
00000030: a2b0 909f d96f 6312 6436 5296 bfa9 3615
00000040: cccb c093 5127 a222 c0e0 619c 7beb 8b95
00000050: 4e66 d4b6 8f62 0c1a 740d 6914 1617 6938
00000060: badd 2416 354f c59d a0f0 6333 71d1 36bc
00000070: 2c46 48ba f4f4 d4bc 1345 c13b b7a3 c63b
00000080: de84 ed3a 1ef5 2c3c 0aba 813a b636 943b
00000090: a886 013c a3da c4bb a96a 103d ed97 6f3b
000000a0: b570 983c a4ac 733c 890c d23c a731 043d
000000b0: ff73 fe3b a736 6bbb e2d8 573b b6f8 e7bc
000000c0: e818 2c3b 252e 3f3a b71d 9fbc 5bf7 9fbc
000000d0: 2803 42bc 9afc 643c ae5c 46bb c2f7 1ebd
000000e0: 25eb e0ba 14e8 e43a b23c bdbc 716d 4fbc
000000f0: 2623 553a f262 86bb c5c5 0e3b 9df5 00bc
00000100: f878 483c 0f61 3a3c 984c 63bc 4043 ca3b
00000110: 0e50 a03b 502f 1d3d 731a ac3c 4264 d7bc
00000120: 2abf 913b c8b7 623c db69 0e3c 49b2 793c
00000130: e1bd 013c ebf7 a73c d7ff c23b f492 1bbc
00000140: 7ea8 a5bb b16b 323c f74c 7d3c a151 fab6
00000150: 5bbe 91bc 2e28 2fbc b5f0 ef3a a7ee a3bb
00000160: 00bf b5bc 6c04 bc3c b6e4 d9bc 4ce9 593c
00000170: 36ef 2e3c 2ca7 af3a a88f 02bb 7af3 fb3b
00000180: 978d c8bc 7754 553c f7ab a53c fd02 babb
00000190: 10b4 04bb b566 a6bc 45d4 efbb 8e05 993c
000001a0: aede eebb 4b2a bfbc be6e 803b 6ea5 c33c
000001b0: 9a8c 81bc 6a9d 54bc 91b3 fa3b 24a6 c33c
000001c0: 15bb d53b 2242 b23c 0be2 c53a 69db d2bc
000001d0: 5dfb 16bc 9a10 ea3b 9c25 573c ea54 843c
000001e0: 57a6 883c 45c0 88bb 14cd 65bc 0725 833c
000001f0: f326 133d 0a37 043d c06a 103c a5df 103c
00000200: 9069 c33c 3a96 00bd e153 16bc 05c0 2c3b
00000210: 93da 39bd 52fa a1bb 2900 8ebb 6d7d e593
00000220: 2aa9 e614 0bf9 b314 017d 1014 e737 b396
00000230: dac7 b817 a5fb 5b18 22d2 3196 0213 7638
00000240: a05c 53b8 f3ab 1221 9852 e534 b789 0fb7
00000250: 5025 cd9e 5701 a993 b527 59b2 77e9 4734
00000260: 6652 1e32 7686 9d9a dd4d ba1f b85e 1692
00000270: e906 04b6 6f46 0b23 9a6b 27a8 4209 2419
00000280: e9cf 2128 dff9 e113 a0a3 923b 0e3c b2bb
00000290: 0450 6ebb eb6e b3bb efa5 e0ba c86b eabc
000002a0: d69f 553c 22ce c2b9 19f7 473c 2114 b33c
000002b0: ad52 063d 8a5f 97bc 58fc 5d3b 3864 063c
000002c0: f924 513c f65d 313b 719c 28bd 7ced dfbc
000002d0: 280c c9bb 3b78 6bbc c226 553a e514 15bc
000002e0: 3eb6 853b e022 d43b b681 0f3d 067a 97bc
000002f0: b404 d7bc e438 84b2 268b cc15 7d3f 8a31
00000300: 1fb7 ba27 1159 ea1b 5346 0ab7 7e05 5715
00000310: 7686 4818 c86b f834 cafd f01a 62cd 872e
00000320: 17bb 2435 bae2 c835 7dc3 452b b3b2 5c98
00000330: c564 812e b56e 8397 6037 8696 99ed eeb1
00000340: 0578 25a8 0f08 41a3 7559 2016 0c9c ff2f
00000350: 279b bb2c 5b2c 0d23 cbb1 acb8 4c12 7bb7
00000360: b888 3a27 3567 4f28 3dc4 1f22 de89 0637
00000370: d97b b938 cd38 593a 53e0 c7a4 0077 6836
00000380: 6514 673a b40d 0db0 4eb3 27a5 2fee 6c9e
00000390: 349d e8a6 0708 6c36 7eb9 7d39 4fe6 5fa9
000003a0: cfd7 ed36 6433 7fb0 6d0a d599 5c6c ba32
000003b0: 27b0 5ba5 ca17 0127 001a d235 8628 43b0
000003c0: a581 0428 24cd 2838 4add 793a 6c1c 79bc
000003d0: 2e62 c8bb 7347 dabc 0693 72bc 3337 9cbc
000003e0: 6892 e4bb a3e6 dcbb 60d5 743c a6b7 3f3c
000003f0: 766d dbbc 4dcf 813a d9bc 64bc 8451 98bc

e_conv1.bias f4 [32]
-0.061333444 0.06773391 0.016455889 0.13281739 0.07174202 -0.046807256 0.0523419 -0.08968885
-0.0854684 0.07143976 -0.07794831 -0.043637354 -0.0140859485 0.050572794 -0.06486412 0.16719368
0.13355497 0.0921664 0.18791568 0.16382506 -0.03721499 0.16524625 -0.011810279 0.122836545
-0.0004885659 -0.02841691 0.038895037 -0.038379222 -0.009507327 0.0008488825 0.13831769 -0.05541013
00000000: c738 7bbd 14b8 8a3d 80ce 863c 4801 083e
00000010: 7bed 923d f7b8 3fbd 7664 563d caae b7bd
00000020: 0e0a afbd 024f 923d 5da3 9fbd 15bd 32bd
00000030: c0c8 66bc 6b25 4f3d 7bd7 84bd d234 2b3e
00000040: a2c2 083e bdc1 bc3d f86c 403e c2c1 273e
00000050: bf6e 18bd 5036 293e e77f 41bc ba91 fb3d
00000060: 1a13 00ba 94ca e8bc 6750 1f3d 8833 1dbd
00000070: 9fc4 1bbc 8a87 5e3a 27a3 0d3e bcf5 62bd

e_conv2.weight f4 [32, 32, 3, 3]
-2.0659768e-20 0.00078954734 3.9332877e-05 -7.558111e-18 -7.1847425e-27 -5.722381e-20 3.461277e-08 -3.6692045e-17
2.1140672e-06 0.009871849 -0.024438692 0.0028502578 -0.00447905 -0.00073752104 -0.008003767 0.014572549
0.03326821 0.0023370467 -0.017195625 -0.01915057 -0.011188799 0.007343329 -0.007953959 -0.0040851897
0.0065589515 0.0015954484 0.011395501 -0.032077134 0.020516545 0.042746004 -0.016352605 -0.008298683
-0.006955763 -0.043398686 0.0053651026 0.02100865 0.00027516848 -0.0032924358 0.0026398504 0.014309506
-0.01662614 0.010040897 0.016545592 -0.019371694 -0.009068318 -0.00022004292 -9.3081593e-07 2.2539655e-20
1.988895e-26 -2.7662417e-23 2.011277e-05 2.1477795e-26 1.5828316e-22 -7.313677e-08 -0.0031403005 0.016414449
-0.019197695 -0.016976634 0.010245145 0.010895863 0.0101172635 0.014269589 0.027904648 1.8060285e-25
6.93357e-24 1.997813e-26 2.880968e-08 3.6845613e-28 -2.2203494e-20 0.0010268873 -5.7390754e-20 -2.1346305e-29
3.149238e-21 -4.9717877e-12 -7.5164785e-06 7.936294e-10 2.741839e-09 -8.0664165e-12 -0.00015849649 6.6160477e-25
-1.9290283e-06 0.022335391 -0.0026287748 0.0085488595 -0.004398607 0.013319868 0.0113589065 0.0028130086
0.0019209773 -0.0066681937 4.0769435e-10 0.0001620037 1.7681018e-07 -1.2674005e-09 -6.4941595e-27 7.676739e-06
2.2889585e-20 -4.6154966e-08 7.208054e-15 -0.0008687481 1.7564174e-07 1.9723698e-11 -2.0470535e-08 0.0043758024
3.5972298e-06 6.586756e-26 9.2055746e-27 9.0266504e-13 -0.0033184174 -0.0054241396 -0.0058878763 -0.0037378122
-0.0037409752 -0.0033084147 -0.0011336625 -0.0026636028 -0.0013675872 0.002917009 0.03561584 0.0058537875
0.022831975 0.0053610136 0.017102273 -0.021441944 0.019979138 -0.003072757 -4.385246e-15 2.5988352e-12
1.1543983e-06 3.643675e-15 0.0006221297 1.7722435e-26 -0.0064565074 -8.981226e-18 -1.0621665e-06 0.0063620196
0.0124387145 0.0047403807 0.017227456 0.018083341 0.015858028 -0.0028532187 -0.020393843 -0.0075435345
-0.01816822 -0.022769395 -0.009758897 -0.022456901 0.016751353 0.019276269 -0.0345498 0.00028705035
-0.00064416585 0.028040316 -0.0037474837 -0.0056428127 -0.009501438 0.01684369 0.0052557653 0.008717185
0.023487156 0.02480433 -0.00027182896 -0.025958203 -0.018846726 -0.0021658419 0.00032414988 0.019429743
-0.038916808 0.0165846 0.036546327 0.022320742 0.019675244 -0.0061716987 0.010272287 0.011682517
-0.002016904 -0.01334917 -0.010883136 0.032215852 -0.00036512778 6.6789124e-26 2.7456164e-24 -4.5984898e-18
-4.305113e-05 4.0830833e-24 -2.7568262e-07 3.593832e-07 -3.9709294e-24 -0.023272118 0.012559258 0.018593676
-0.019544385 0.05291032 0.0360231 0.012661946 0.031405903 0.019824326 0.0061693555 0.009550387
-0.00040911036 -0.005227926 0.0009981132 -0.0003795271 -0.016781196 0.0068161613 -0.01086795 0.021664541
0.0141642 0.024378419 0.014833659 0.02702325 0.0055603636 -0.052195545 0.03153521 -0.0068168063
-0.00021856072 -1.16449474e-26 -2.7107022e-15 1.7987324e-09 -7.5469885e-26 2.1678926e-07 -4.1713092e-06 -1.4572715e-06
-4.9134772e-26 -2.4592831e-27 -4.1306524e-21 -1.3780588e-22 1.4452803e-10 -1.8698125e-24 5.5500636e-26 -3.6575907e-21
-4.2226334e-21 1.2375288e-10 0.0050658523 0.0030665032 0.005983852 -0.0034655472 -0.003203105 -0.015218957
0.016210187 -0.008720246 -0.021481711 -0.0004477227 -7.547503e-16 1.0951809e-24 -3.1632557e-22 -1.6823556e-26
1.7687236e-07 2.2711534e-08 -0.00014922305 -1.3647223e-26 2.3641577e-26 2.3136e-12 5.220204e-21 0.010413542
00000000: 4120 c39e a0f9 4e3a 5bf9 2438 2c6c 0ba3
00000010: f94e 0e94 ac1d 879f 25a9 1433 5236 29a4
00000020: 66df 0d36 89bd 213c a733 c8bc 64cb 3a3b
00000030: ffc4 92bb 3356 41ba 3b22 03bc b3c1 6e3c
00000040: 3f44 083d 2329 193b d7dd 8cbc a8e1 9cbc
00000050: 3951 37bc 4fa0 f03b 5251 02bc 0edd 85bb
00000060: 79ec d63b 5d1e d13a 32b4 3a3c 5063 03bd
00000070: 5012 a83c 6f16 2f3d e6f5 85bc 33f7 07bc
00000080: 2bed e3bb d2c2 31bd becd af3b 551a ac3c
00000090: 7d44 9039 e8c5 57bb 5701 2d3b 6b72 6a3c
000000a0: 8b33 88bc 9382 243c 9f8a 873c 63b1 9ebc
000000b0: 4893 14bc 52bb 66b9 2fdd 79b5 8be1 d41e
000000c0: 7bf8 c414 6ac4 059a d8b7 a837 aeb4 d414
000000d0: 445a 3f1b 5d0f 9db3 80cd 4dbb 9877 863c
000000e0: 7c44 9dbc 9512 8bbc 41db 273c 9084 323c
000000f0: e1c2 253c ffca 693c 4a98 e43c 5493 5f16
00000100: 601d 0619 94da c514 2879 f732 6d89 e911
00000110: c1b4 d19e 9f98 863a 9582 879f 2d7a d88f
00000120: 1ff3 6d1d e2ed aeac 0f36 fcb6 b426 5a30
00000130: f16a 3c31 e9e7 0dad 1432 26b9 bbc1 4c17
00000140: 7474 01b6 b6f8 b63c 8647 2cbb 8410 0c3c
00000150: 3122 90bb 933b 5a3c b51a 3a3c 745a 383b
00000160: 4dc9 fb3a dd80 dabb e121 e02f 89df 2939
00000170: 36d9 3d34 b130 aeb0 4da1 0094 58cb 0037
00000180: 9f2f d81e ec3b 46b3 48d9 0128 b3bc 63ba
00000190: 0998 3c34 d27d ad2d 2fd7 afb2 e462 8f3b
000001a0: f067 7136 8714 a315 cf55 3614 df13 7e2b
000001b0: ce79 59bb fbbc b1bb 16ef c0bb 15f6 74bb
000001c0: 262b 75bb fdd1 58bb 6797 94ba d78f 2ebb
000001d0: 9d40 b3ba 4a2b 3f3b eae1 113d 21d1 bf3b
000001e0: 1f0a bb3c 71ab af3b 111a 8c3c 04a7 afbc
000001f0: 4aab a33c 4f60 49bb c1fe 9da7 74e0 362c
00000200: d3f0 9a35 f846 8327 6b16 233a b683 af14
00000210: 1c91 d3bb a4ac 25a3 c38f 8eb5 7d78 d03b
00000220: c0cb 4b3c 3255 9b3b 9820 8d3c 8423 943c
00000230: b2e8 813c 11fd 3abb fd10 a7bc c12f f7bb
00000240: 85d5 94bc e286 babc c8e3 1fbc 89f7 b7bc
00000250: 223a 893c 44e9 9d3c 1784 0dbd 3f7f 9639
00000260: 3ddd 28ba ceb4 e53c 5898 75bb 58e7 b8bb
00000270: ebab 1bbc c7fb 893c 8e38 ac3b 86d2 0e3c
00000280: 2368 c03c 7332 cb3c 4484 8eb9 4ca6 d4bc
00000290: 7364 9abc ccf0 0dbb a9f2 a939 202b 9f3c
000002a0: 3b67 1fbd 6ddc 873c 9ab1 153d fdd9 b63c
000002b0: fa2d a13c f63b cabb 184d 283c 0768 3f3c
000002c0: 092e 04bb 7ab6 5abc 2e4f 32bc c5f4 033d
000002d0: 9f6e bfb9 a35c a515 896e 5418 82a7 a9a2
000002e0: cd91 34b8 e6f4 9d18 8801 94b4 40f1 c034
000002f0: 2e9e 9998 2ba5 bebc 59c5 4d3c c451 983c
00000300: 8c1b a0bc 7eb8 583d f58c 133d 0d74 4f3c
00000310: 7aa3 003d a066 a23c 4e28 ca3b 3a79 1c3c
00000320: dd7d d6b9 064f abbb 1fd3 823a 44fb c6b9
00000330: b878 89bc 1b5a df3b 7c0f 32bc d679 b13c
00000340: f610 683c 40b5 c73c e008 733c dd5f dd3c
00000350: b633 b63b ffca 55bd 102b 013d 845f dfbb
00000360: 722d 65b9 e6a6 6694 a153 43a7 4537 f730
00000370: b9da ba95 94c6 6834 46f7 8bb6 7897 c3b5
00000380: b94d 7395 30d8 4293 380d 9c9d db98 269b
00000390: 06e9 1e2f 74ab 1098 b569 8915 0c2e 8a9d
000003a0: ce86 9f9d 5711 082f 73ff a53b 63f7 483b
000003b0: 3014 c43b 3c1e 63bb 2feb 51bb ef58 79bc
000003c0: 3acb 843c 5ddf 0ebc 6afa afbc 53bc eab9
000003d0: be8a 59a6 9678 a917 0335 bf9b c89c a694
000003e0: 4eea 3d34 3117 c332 c278 1cb9 d227 8794
000003f0: 8522 ea14 1dce 222c b736 c51d 909d 2a3c

e_conv2.bias f4 [32]
-0.035545 -3.5651712e-05 -0.006475639 -4.7567544e-05 0.036997307 0.026245149 9.242696e-05 0.037713
0.053204026 0.03513472 -0.027462328 9.203889e-07 -0.0015249465 -0.0077223736 0.007842894 -0.00079931767
0.03148482 0.00363958 -1.50334035e-05 -0.013098381 -0.0007498679 0.0095845945 -0.00028826803 0.032155994
-0.0016646957 0.043130036 0.047743358 -0.010992531 -0.0010943761 -0.0025159803 -0.010878373 0.05045906
00000000: a297 11bd bc88 15b8 9931 d4bb 4383 47b8
00000010: 7d8a 173d 1100 d73c 59d5 c138 f278 1a3d
00000020: 77ec 593d 6de9 0f3d adf8 e0bc a510 7735
00000030: b7e0 c7ba f70b fdbb 7b7f 003c 4d89 51ba
00000040: 3af6 003d 0586 6e3b fa37 7cb7 989a 56bc
00000050: c892 44ba b408 1d3c ae22 97b9 01b6 033d
00000060: eb31 daba 1fa9 303d 8a8e 433d 041a 34bc
00000070: 2b71 8fba 25e3 24bb 343b 32bc 29ae 4e3d

e_conv3.weight f4 [32, 64, 3, 3]
-9.137718e-10 -4.7594767e-07 8.103328e-26 2.8143357e-10 -4.2930388e-08 8.829423e-26 1.5603224e-13 -0.00020017772
0.0005669215 0.0018486179 0.01283364 0.03235876 -0.013392851 -0.0051322593 0.00717585 -0.036396317
-0.0057475963 -0.020097692 0.0004676026 -0.0003261684 0.002350169 -0.0015776943 -0.001296074 0.0028006623
-0.003974678 -0.004493719 -0.00042597417 0.0092167435 0.0077366424 0.023418177 -0.011161083 -0.0060253665
0.0076701157 0.006701228 -0.0160266 -0.029596869 0.010606535 0.032799646 0.014900176 0.007667833
0.014817053 -0.0009500886 0.0067585115 -9.0841946e-05 -0.0048268964 -8.213581e-24 1.060151e-22 -7.2931195e-26
9.078935e-15 8.227576e-07 -0.00045983083 -2.4035341e-15 -7.8967814e-15 6.3451016e-26 0.00045971107 -0.010170958
0.007855866 0.015745878 0.008986179 0.004478142 -0.006714247 -0.0045198705 -0.011802536 -9.922458e-25
9.553077e-19 4.887727e-05 -3.6526873e-26 8.168364e-24 -4.5030013e-22 -2.2387903e-06 1.9183034e-23 -2.5379894e-24
-5.2929726e-26 -7.3131e-23 2.1046967e-08 -9.769273e-08 -1.4715301e-19 -0.0028072034 1.1350505e-24 1.00027535e-20
-2.7257022e-23 -0.003881497 -0.0019765743 0.00704067 -0.003345473 0.01006226 -0.0032768617 -0.0062803617
-0.0025311816 -0.004154384 -2.0912266e-10 -5.72036e-14 0.0002265977 -1.1573102e-06 1.7186733e-06 -8.186613e-11
1.5595845e-16 -6.599258e-08 5.885948e-05 -2.5389693e-25 1.193442e-24 6.0121157e-13 -1.2183428e-07 -3.9911126e-12
1.6468527e-22 -1.0582023e-25 3.160435e-25 -1.0217262e-06 -0.00024600612 -0.00021488557 4.3431588e-05 -4.1033463e-06
6.8469e-06 8.729766e-06 -2.3793077e-06 8.261655e-06 1.753323e-05 -7.703392e-06 0.010781677 -0.0044122497
-0.00884237 0.0018347609 0.001270025 0.0052498104 -0.0008650056 0.011043457 -1.1236467e-05 5.5048355e-07
-7.714468e-16 3.206253e-28 0.00012367891 1.8941545e-16 7.341512e-07 -7.6199525e-05 5.5830964e-07 -0.023226416
0.0036452615 0.020826468 0.012169702 -0.008105837 -0.0011775574 -0.043220494 -0.030003073 -0.012849236
0.004422567 0.0069350046 0.0362331 -0.025765836 0.0021775458 -0.029089453 -0.037161257 -0.004234919
-0.0013266351 -0.0029708776 0.008718083 0.01963831 -0.007255221 -0.0012457228 -0.007460927 0.014803049
-0.0009141802 -0.013659337 0.004631046 0.014047751 0.021743633 0.010066419 -0.015177993 0.024324812
-0.029485118 -0.014541087 0.0037023502 0.02534916 -0.012662585 0.009530604 -0.000677221 -0.022110656
-0.043807447 -0.022669526 -0.013955495 -0.0014201406 3.0160043e-09 5.9723065e-05 -0.006377984 9.850265e-27
2.5505204e-25 -1.840169e-24 1.1279953e-06 3.7037546e-05 2.268286e-26 -0.004041895 -0.009621976 -0.01668637
0.0018738061 0.008789329 0.0139229875 -0.010009381 -0.022127863 0.005668477 0.00071154285 0.0017938185
0.011533047 -0.0054198476 -0.0033870484 0.006083198 -0.012674855 -0.011085715 -0.0005663339 -0.013472506
0.008288023 -0.005037934 0.0047132275 -0.005660945 -0.0011938079 -0.022737335 -0.026670415 0.0008582541
6.0712216e-07 1.4057251e-06 -4.463851e-26 -0.00013288138 -1.2184942e-09 -9.2112206e-26 1.5570272e-06 6.08164e-06
1.1186019e-06 4.201854e-26 2.1581453e-26 1.8589915e-20 -8.327005e-05 -2.662866e-24 8.37695e-16 3.7347603e-26
-1.8621592e-26 2.5962838e-05 -0.00952085 -0.02046563 0.012737036 -0.0041039535 0.028593818 0.005320743
-0.00353325 -0.017399702 -0.012083087 -4.0251758e-25 -3.4636832e-05 5.5935515e-27 1.15481294e-26 -1.4335709e-20
-3.05315e-26 -1.5652758e-24 -1.6256068e-09 0.000249226 -0.00015055893 4.3526296e-24 -2.2805006e-26 3.335972e-07
00000000: f92c 7bb0 c085 ffb4 f1a0 c815 41b8 9a2f
00000010: 7662 38b3 1e9b da15 3bad 2f2a cce6 51b9
00000020: 759d 143a 534d f23a 3044 523c 9e8a 043d
00000030: b06d 5bbc 832c a8bb 6523 eb3b 4e14 15bd
00000040: 5556 bcbb eaa3 a4bc 8f28 f539 9501 abb9
00000050: 4b05 1a3b a3ca ceba 07e1 a9ba 518b 373b
00000060: 043e 82bb 0c40 93bb 4955 dfb9 d301 173c
00000070: a983 fd3b 7ad7 bf3c fadc 36bc 7070 c5bb
00000080: 9855 fb3b fa95 db3b 374a 83bc 2275 f2bc
00000090: 08c7 2d3c ec58 063d de1f 743c 7242 fb3b
000000a0: 3ac3 723c 5e0f 79ba 8176 dd3b 6682 beb8
000000b0: f12a 9ebb afdf 1e99 162a 001b a391 b495
000000c0: 338d 2328 79db 5c35 7315 f1b9 6131 2da7
000000d0: 7a41 0ea8 dc18 9d15 6005 f139 17a4 26bc
000000e0: e4b5 003c 80fd 803c c43a 133c 61bd 923b
000000f0: 3003 dcbb 6c1b 94bb 6d5f 41bc e88a 9997
00000100: 81fa 8c21 9201 4d38 50df 3495 c8ff 1d19
00000110: 4918 089c 203e 16b6 e486 b919 0f5e 4498
00000120: 330c 8395 e6d1 b09a c5ca b432 25cb d1b3
00000130: 45ba 2da0 0ff9 37bb fca3 af17 59f2 3c1e
00000140: 8fce 039a b760 7ebb 6a89 01bb 6cb5 e63b
00000150: b93f 5bbb 2ddc 243c 9ec0 56bb 7ecb cdbb
00000160: 2ee2 25bb 8021 88bb ccee 65af a1cf 80a9
00000170: db9a 6d39 e054 9bb5 2aad e635 8906 b4ae
00000180: cfce 3325 ceb7 8db3 e3df 7638 9327 9d96
00000190: 1cad b817 dc39 292b 8dd1 02b4 bf6c 8cac
000001a0: 9f17 471b c5ff 0296 179f c316 3f22 89b5
000001b0: 62fa 80b9 e852 61b9 502a 3638 7aaf 89b6
000001c0: 6cbe e536 0f76 1237 32ac 1fb6 8a9b 0a37
000001d0: 5314 9337 d13d 01b7 a2a5 303c a294 90bb
000001e0: 96df 10bc 5c7c f03a f876 a63a 9a06 ac3b
000001f0: 8bc1 62ba 9eef 343c 4284 3cb7 f1c4 1335
00000200: ba5a 5ea6 6e38 cb11 ceaf 0139 9361 5a25
00000210: 7c12 4535 4fcd 9fb8 bfde 1535 5345 bebc
00000220: 57e5 6e3b 459c aa3c 6e63 473c 58ce 04bc
00000230: 4558 9aba f907 31bd 01c9 f5bc 9a85 52bc
00000240: 2eeb 903b 093f e33b 2969 143d e012 d3bc
00000250: 28b5 0e3b 014d eebc 6736 18bd 13c5 8abb
00000260: 7de2 adba 0eb3 42bb 4ad6 0e3c 85e0 a03c
00000270: 34bd edbb 8547 a3ba cb7a f4bb 7d88 723c
00000280: 98a5 6fba 69cb 5fbc 08c0 973b 8a28 663c
00000290: b41f b23c 9fed 243c 1ead 78bc d444 c73c
000002a0: c68a f1bc bd3d 6ebc 21a3 723b 0ba9 cf3c
000002b0: bb76 4fbc 4026 1c3c 8887 31ba 6821 b5bc
000002c0: 706f 33bd 71b5 b9bc 97a5 64bc 0324 baba
000002d0: 1c42 4f31 277f 7a38 68fe d0bb c71a 4314
000002e0: 9cde 9d16 4d60 0e98 a065 9735 c358 1b38
000002f0: e2a3 e014 df71 84bb 7ea5 1dbc dbb1 88bc
00000300: 809a f53a 1e01 103c 3e1d 643c 63fe 23bc
00000310: 7e45 b5bc a2be b93b d586 3a3a 901e eb3a
00000320: 1bf5 3c3c fa98 b1bb 3ef9 5dbb 9055 c73b
00000330: 32aa 4fbc dca0 35bc 0676 14ba c9bb 5cbc
00000340: 7dca 073c 4115 a5bb 6b71 9a3b 737f b9bb
00000350: 8c79 9cba a643 babc ea7b dabc 75fc 603a
00000360: 1ef9 2235 59ac bc35 090a 5d95 1356 0bb9
00000370: f477 a7b0 0c0f e495 0cfb d035 e410 cc36
00000380: de22 9635 d410 5015 7cbb d514 a893 af1e
00000390: 45a1 aeb8 7f07 4e98 fb72 7126 b6ef 3815
000003a0: 586b b894 c5ca d937 57fd 1bbc 89a7 a7bc
000003b0: 00af 503c 757a 86bb 953d ea3c a159 ae3b
000003c0: 198e 67bb d289 8ebc 24f8 45bc 7525 f996
000003d0: 0447 11b8 5a95 dd13 f9bb 6414 9e65 879e
000003e0: 462f 1795 f636 f297 f46b dfb0 8caa 8239
000003f0: 5bdf 1db9 5b62 a818 8fd9 e194 4019 b334

e_conv3.bias f4 [32]
0.031465594 0.028649181 -0.0006418708 0.008621562 0.034828532 -0.010004222 -0.01908485 -0.00032963394
0.032456633 0.0064114546 0.03144503 -0.0017852719 -0.00046568102 -0.0001358824 2.450056e-14 -0.016011197
0.03459111 -0.0149799865 0.045060296 -0.010134535 -0.0010116987 0.013312519 -0.00056679547 -0.010127477
0.010860162 -0.000104983126 0.01586772 0.04105731 -0.0018242206 -0.019584235 0.03323901 -0.019361079
00000000: 11e2 003d b0b1 ea3c 3843 28ba 7441 0d3c
00000010: 5da8 0e3d c0e8 23bc d557 9cbc b8d2 acb9
00000020: 3ff1 043d 2e17 d23b 81cc 003d c9ff e9ba
00000030: a626 f4b9 a77b 0eb9 72ae dc28 ea29 83bc
00000040: 68af 0d3d 9e6e 75bc 2591 383d 520b 26bc
00000050: fa9a 84ba c01c 5a3c 0095 14ba b8ed 25bc
00000060: d2ee 313c 632a dcb8 05fd 813c b62b 283d
00000070: b01a efba 1e6f a0bc a125 083d 209b 9ebc

e_conv4.weight f4 [32, 64, 3, 3]
-0.006626319 0.014695599 -0.052004747 0.0051938584 -0.00899574 -0.009876258 0.01663862 -0.0055355844
-0.016804492 1.4644137e-14 3.0074702e-08 -3.5945672e-07 1.18633165e-14 0.00040885733 -2.5745669e-08 -0.00012682608
9.4585936e-11 -2.0178955e-08 -8.837298e-05 0.00018563887 0.00056644407 -0.00058958185 -0.00033462277 -0.00020576517
-0.0006839687 -0.000695074 -0.00079067645 -1.7781482e-09 -7.136837e-08 1.719054e-07 -2.3249735e-09 -5.5030934e-08
4.098719e-09 -6.999413e-09 -3.4628116e-11 -1.9185882e-09 -0.0016300059 -0.007629571 -0.023643756 -0.0045229034
0.04374019 0.001655909 -0.034207623 -0.0076856012 0.0032831938 -0.0038310515 0.0035447795 8.7510125e-05
-0.0028032477 0.0022510015 0.005050375 -0.0010533452 0.0039055245 0.0061060637 0.0013223921 0.0024461611
0.002759289 -0.006618822 0.0018117231 0.00068131957 -0.0027870391 3.8472208e-05 0.001551634 -0.013608292
-0.018535731 -0.027115515 -0.024853827 0.020007132 0.010008863 -0.010107382 0.008171019 -0.010081689
-0.016259212 0.0061055766 0.011232852 -0.0077121374 0.025202706 -0.0049348134 -0.004989874 -0.0088138925
-0.019001078 -0.0259203 0.001586746 -0.027590573 0.035817638 -0.016490156 0.022107914 0.003029449
0.0033134797 -0.01592024 0.009371132 -0.016418226 -0.005341613 -0.010851843 0.016184513 0.04173491
-0.00837964 0.016577294 0.0032493388 4.6894934e-06 9.725652e-07 -8.576817e-08 -1.5163734e-13 -2.7990834e-05
4.81215e-07 -6.9925235e-08 7.075011e-07 7.3626927e-07 -2.632293e-05 -0.00039453487 -1.29931095e-05 -9.67168e-06
-3.580423e-05 0.00014226655 -1.4827766e-05 -3.366161e-05 -0.00013623145 -0.010887929 0.02899689 0.010104955
0.010404621 0.018562507 -0.0053256177 -0.04687364 0.027679335 -0.0004212658 -0.0013620943 0.003914922
0.0033909497 -0.0007097931 0.0045890906 0.010043722 0.0023378306 0.0016602209 -0.0034939146 1.4921767e-05
-0.00037478306 6.615446e-10 -4.82774e-10 -8.5580976e-10 -4.4162016e-10 9.298087e-17 8.450903e-17 -4.02235e-17
0.0045259898 -0.0483669 -0.023509031 -0.023800634 -0.030304039 0.01319279 0.012622324 0.016940802
0.032022715 0.0010559196 -0.00062000187 0.0003199503 0.0069557894 0.00724299 0.0007736223 0.012981216
0.010902445 0.0071976325 -1.4636493e-07 0.00014788158 -2.9930342e-13 -5.721233e-20 -0.00010233532 2.5157664e-24
1.872833e-15 1.5730812e-20 -5.1181767e-05 -0.008825851 -0.025636956 0.017276864 -0.0082948245 0.012948296
-0.00928625 -0.002450171 0.016039306 -0.014471753 5.33095e-07 1.4579384e-05 -2.601941e-06 1.3132148e-05
1.7912043e-05 4.464855e-06 -6.5650343e-06 4.6686364e-05 3.1253694e-06 0.00025652355 -0.0017720258 0.0002851016
0.0013248615 -0.0025091758 -0.0011104072 0.0014855694 -0.0026930259 -0.00012696831 2.914244e-09 0.00028629843
-8.5608225e-27 4.9453878e-25 5.80038e-13 -3.4489234e-12 5.2699394e-05 3.7880126e-09 6.38557e-08 0.0050523165
-0.004558539 0.0033778134 -0.008260623 -0.00090863643 0.010340275 0.0023688362 0.008888326 0.008373562
1.1929278e-11 -4.641807e-15 4.8463793e-21 -3.8385843e-15 -1.061514e-26 9.005008e-14 -2.0360647e-23 1.0370553e-25
-1.3856788e-16 -0.0027147778 -0.0114314305 -0.0053643594 0.0026485848 -0.0041732285 -0.001729888 0.00049051223
-0.0017913562 0.000575367 0.011049215 -0.015448638 -0.0015038127 -0.00467532 -0.0065607163 0.008166717
0.014192543 0.019332655 0.012047302 -1.6049627e-05 -4.9428167e-05 -1.5028806e-05 -3.8308914e-05 -1.2503346e-05
-1.7082546e-05 -4.959161e-05 -2.0426045e-05 -1.7699564e-05 -1.7343245e-06 1.0882503e-07 -3.4856618e-07 -7.961729e-07
00000000: 9821 d9bb cfc5 703c ee02 55bd 3e31 aa3b
00000010: de62 13bc 07d0 21bc b74d 883c d963 b5bb
00000020: 93a9 89bc 15e7 8328 7c2b 0133 5bfb c0b4
00000030: e4b5 5528 e75b d639 5327 ddb2 9efc 04b9
00000040: 26ff cf2e fe55 adb2 e254 b9b8 0ea8 4239
00000050: 6b7d 143a 2b8e 1aba 4f70 afb9 abc2 57b9
00000060: 5d4c 33ba a035 36ba 6645 4fba 0763 f4b0
00000070: 2d43 99b3 ff94 3834 5ec5 1fb1 275b 6cb3
00000080: b7d4 8c31 7d7f f0b1 cb4b 18ae 29d8 03b1
00000090: eca5 d5ba 7b01 fabb 8db0 c1bc dd34 94bb
000000a0: ea28 333d 160b d93a 4b1d 0cbd 7fd7 fbbb
000000b0: da2a 573b 6112 7bbb 884f 683b a485 b738
000000c0: b1b6 37bb 8a85 133b 9e7d a53b 6610 8aba
000000d0: d4f3 7f3b 6015 c83b 1e54 ad3a c64f 203b
000000e0: 30d5 343b b4e2 d8bb 5777 ed3a 959a 323a
000000f0: c2a6 36bb 385d 2138 3360 cb3a 50f5 5ebc
00000100: 3fd8 97bc 5b21 debc 419a cbbc ffe5 a33c
00000110: 37fc 233c 6f99 25bc bddf 053c ab2d 25bc
00000120: 0a32 85bc 4a11 c83b ff09 383c 19b6 fcbb
00000130: e875 ce3c 37b4 a1bb 1982 a3bb 2568 10bc
00000140: 26a8 9bbc cf56 d4bc 5cfa cf3a a005 e2bc
00000150: 84b5 123d 5d16 87bc a81b b53c b889 463b
00000160: f726 593b 2a6b 82bc 6089 193c 847f 86bc
00000170: b308 afbb eecb 31bc 6295 843c 3af2 2a3d
00000180: c24a 09bc 1bcd 873c dcf2 543b 715a 9d36
00000190: 1689 8235 8d2f b8b3 7dba 2aaa dccd eab7
000001a0: d82c 0135 ce29 96b3 1beb 3d35 0aa4 4535
000001b0: 10d0 dcb7 93d9 ceb9 fbfc 59b7 8d43 22b7
000001c0: 802c 16b8 632d 1539 c5c4 78b7 e12f 0db8
000001d0: 5ad9 0eb9 4963 32bc e38a ed3c 418f 253c
000001e0: 2578 2a3c 6610 983c 8582 aebb 93fe 3fbd
000001f0: c6bf e23c 57dd dcb9 4d88 b2ba bf48 803b
00000200: b23a 5e3b 6911 3aba 1560 963b 6c8e 243c
00000210: 4a36 193b c59b d93a 29fa 64bb 8058 7a37
00000220: 887e c4b9 10d8 3530 33b4 04b0 423e 6bb0
00000230: 83c8 f2af 3866 d624 54dd c224 877f 39a4
00000240: c14e 943b 5f1c 46bd 0396 c0bc 8cf9 c2bc
00000250: 2d40 f8bc 9226 583c ddcd 4e3c 70c7 8a3c
00000260: 402a 033d c866 8a3a 9f87 22ba 01bf a739
00000270: 64ed e33b 9b56 ed3b eacc 4a3a 2baf 543c
00000280: 2ba0 323c 1eda eb3b 7c28 1db4 a910 1b39
00000290: 2b7e a8aa bb16 879f db9c d6b8 e3a5 4218
000002a0: acf3 0627 c592 941e 01ac 56b8 4d9a 10bc
000002b0: 9804 d2bc 3688 8d3c 04e7 07bc 1725 543c
000002c0: 5b25 18bc 0c93 20bb dd64 833c ee1a 6dbc
000002d0: 021a 0f35 fa99 7437 029d 2eb6 2552 5c37
000002e0: d241 9637 d0d0 9536 3749 dcb6 1ad1 4338
000002f0: 70bd 5136 027e 8639 5243 e8ba b079 9539
00000300: faa6 ad3a fc70 24bb 158b 91ba 70b7 c23a
00000310: 7a7d 30bb cc22 05b9 ec43 4831 531a 9639
00000320: 8790 2994 660d 1917 2544 232b 48b2 72ac
00000330: 8b09 5d38 b627 8231 0b21 8933 e78d a53b
00000340: cc5f 95bb 4e5e 5d3b 9057 07bc 8f31 6eba
00000350: 426a 293c 7a3e 1b3b 57a0 113c 4431 093c
00000360: b1dc 512d 1d3d a7a7 4e17 b71d b14c 8aa7
00000370: 2841 5294 56c6 ca29 85ea c499 9861 0016
00000380: 05c2 1fa5 6aea 31bb e54a 3bbc 82c7 afbb
00000390: e193 2d3b 94bf 88bb 69bd e2ba b895 003a
000003a0: f1cb eaba 3ad4 163a c407 353c 491c 7dbc
000003b0: 951b c5ba 6d33 99bb 47fb d6bb b2cd 053c
000003c0: d787 683c 845f 9e3c 0c62 453c 50a2 86b7
000003d0: 1751 4fb8 3b24 7cb7 e2ad 20b8 76c5 51b7
000003e0: 7d4c 8fb7 9600 50b8 9958 abb7 8679 94b7
000003f0: f0c6 e8b5 31b3 e933 9222 bbb4 96b8 55b5

e_conv4.bias f4 [32]
0.032852404 -0.0002534139 -0.026481971 -0.00011071559 0.016773123 0.015991613 0.011375502 0.014331407
-0.00012168443 -0.0019549935 0.006300713 0.026588548 0.013091271 0.0015818877 0.022826774 0.011956365
-0.02981051 0.011563403 -0.00224437 0.030991832 -0.0066581154 -0.001204741 0.0066325245 -0.0016738846
-0.0010918604 0.036456738 0.003862876 0.0311987 0.009590932 0.010218803 -0.0012174255 0.022460908
00000000: 3e90 063d a3dc 84b9 b8f0 d8bc fb2f e8b8
00000010: ca67 893c d800 833c 5060 3a3c 47ce 6a3c
00000020: d530 ffb8 591f 00bb 3676 ce3b 3ad0 d93c
00000030: c57c 563c 5857 cf3a 37ff ba3c a1e4 433c
00000040: 2c35 f4bc 6d74 3d3c 4816 13bb 95e2 fd3c
00000050: 522c dabb 66e8 9dba a655 d93b 3f66 dbba
00000060: c11c 8fba a953 153d 4e28 7d3b 6b94 ff3c
00000070: 4923 1d3c c46c 273c 0592 9fba f0ff b73c

e_conv5.weight f4 [32, 64, 3, 3]
0.006490942 0.0016143045 0.0005509057 0.013384138 0.009813146 0.00842249 0.010981518 0.0073996414
0.0060888496 0.0033054366 -0.005607021 0.0060720695 0.007802322 0.0047369734 -0.0122632235 0.006403033
0.015640654 0.003541416 -2.5839512e-05 -7.6037274e-08 2.7269492e-14 6.653911e-14 2.6966705e-13 3.042458e-14
-7.5902144e-06 1.5701982e-13 3.3785016e-06 0.015625708 -0.0045105224 0.018485451 0.005800887 0.014971456
0.018156445 -0.0037757012 0.015749192 0.011736011 0.017431555 0.012894382 0.0064003626 0.016634246
-0.0069440533 0.0072121113 -0.021657303 -0.0139291035 -0.019295605 6.0357657e-09 -7.47613e-26 -1.934811e-24
2.4809508e-26 -2.5925426e-27 -2.8146882e-10 -3.5588621e-07 2.672917e-23 -2.3385473e-05 0.013224021 0.010815095
0.013730444 0.008821129 0.008488995 0.009426518 0.00048268915 0.0017915183 0.0021208352 -1.5083216e-06
-2.5711622e-06 -1.7084887e-05 -3.9839747e-06 -5.170389e-07 -1.074244e-06 -2.9891754e-07 -2.31733e-06 -3.4170819e-06
-0.026674015 0.014576539 -0.031270813 -0.024406264 0.027794445 -0.020042375 0.012830022 -0.020141099
0.012737469 0.026117207 -0.0027309523 -0.015839856 0.011903408 -0.026585544 -0.009116315 -0.0055638826
0.004586475 0.0032687364 0.0039522145 0.0064346474 0.011891386 0.0034684076 0.0064196275 0.013550568
0.001633044 0.0038333202 0.012373327 -2.8520085e-07 -2.6558695e-07 0.00035135806 -2.2711033e-07 2.582457e-07
-9.22858e-06 3.0754276e-07 -2.1788316e-07 -3.10849e-06 -1.9106216e-18 -0.003957625 6.7120044e-07 -3.3313295e-18
4.139824e-05 -1.3261672e-16 -1.3218068e-10 2.6576358e-16 4.707492e-19 -2.8487304e-19 4.2309457e-06 -2.408261e-26
3.9420736e-10 8.553979e-27 -2.0929215e-26 -2.3045706e-25 -2.54278e-05 0.00042623823 0.00016798454 -2.50875e-11
-1.361164e-06 2.3924732e-13 8.148957e-07 -2.4419655e-22 -1.5477326e-26 1.3921233e-24 -0.00018068995 -4.4853933e-24
4.998007e-07 3.7491853e-22 -1.00110986e-22 -4.3178857e-06 -1.680304e-05 2.7123591e-05 2.9553954e-07 9.689189e-25
-0.0060680406 -0.0023438158 -0.004199262 -0.010451776 -0.00067845796 0.014233878 7.5632925e-05 -0.0012022199
-0.0027930944 -0.040603366 0.014144886 0.035712443 0.0028821202 0.023366122 -0.015542541 0.017129052
-0.014505356 -0.020886336 0.006744467 0.0038522307 0.011161705 0.010398067 0.002270664 0.03036592
0.0038568724 -0.00045467803 0.011804597 -0.017279088 0.009778073 0.024118576 0.018942852 0.005036111
-0.0004477994 -0.017029665 -0.005669914 0.001983931 -0.00023459154 -0.0012077907 7.4473513e-07 2.0217084e-07
8.004199e-06 3.8719732e-05 -1.0512599e-06 1.3068107e-05 4.864046e-07 -0.0076813097 -0.006842831 -0.0081827305
-0.0009912119 -0.0031633645 -0.026619924 0.0006138035 -0.0036540665 0.00037411746 -0.0003084843 0.0026883548
0.022772213 0.010685233 0.012995687 -0.017279286 -0.003170901 -0.008353194 -0.023240937 -0.009869548
0.01564449 0.0088919485 0.023296434 -0.010022669 0.0025542174 -0.026703106 0.034918215 -0.026138678
0.022989014 0.051999524 -0.051326957 0.00093335536 -0.018334048 -0.0045577 -0.040824026 -0.044983275
0.021431493 -0.0006031815 -3.0610943e-06 -1.0353299e-09 -3.566691e-07 -3.6312936e-06 -1.5438364e-09 -1.6982543e-07
-3.7874174e-06 -2.3767366e-09 7.534624e-05 5.747788e-05 0.000113599024 -0.000427962 -0.00085573306 -0.0011884725
3.607062e-05 2.6297665e-05 1.8355004e-05 -0.01807483 -0.013266431 -0.007134338 -0.010545445 0.0024955107
0.04392863 0.012663784 -0.01505594 0.0011745024 0.00016882853 3.3828055e-05 8.364717e-05 6.461132e-05
00000000: f8b1 d43b 1297 d33a a86a 103a 2549 5b3c
00000010: 51c7 203c 7cfe 093c d3eb 333c b178 f23b
00000020: f984 c73b 06a0 583b 1abb b7bb 36f8 c63b
00000030: 9faa ff3b 9d38 9b3b b0eb 48bc 89d0 d13b
00000040: d420 803c 1a17 683b eec1 d8b7 ef49 a3b3
00000050: 2b9f f528 2fd5 9529 1ecf 972a 2705 0929
00000060: 72af feb6 e2c9 302a 37ba 6236 7c01 803c
00000070: 01cd 93bb cd6e 973c 5e15 be3b d64a 753c
00000080: d3bc 943c c171 77bb 7304 813c 6648 403c
00000090: 9fcc 8e3c f542 533c 22ba d13b 8b44 883c
000000a0: f18a e3bb 9353 ec3b a86a b1bc e536 64bc
000000b0: d111 9ebc 2863 cf31 9a19 b995 e1b2 1598
000000c0: 93b3 f514 0367 4d93 37bd 9aaf a110 bfb4
000000d0: 1c41 011a ec2b c4b7 90a9 583c cc31 313c
000000e0: a8f5 603c 7f86 103c 6d15 0b3c af71 1a3c
000000f0: 7111 fd39 61d1 ea3a b6fd 0a3b 8971 cab5
00000100: 3b8c 2cb6 8451 8fb7 15ae 85b6 a5ca 0ab5
00000110: be2e 90b5 ea7a a0b4 6d83 1bb6 0551 65b6
00000120: 7783 dabc 70d2 6e3c d315 00bd a5ef c7bc
00000130: 2db1 e33c e82f a4bc 0335 523c f2fe a4bc
00000140: d1b0 503c c1f3 d53c c7f9 32bb 96c2 81bc
00000150: 8306 433c edc9 d9bc 995c 15bc 3b51 b6bb
00000160: 244a 963b 4c38 563b 9481 813b bcd9 d23b
00000170: 16d4 423c 394e 633b bd5b d23b 3403 5e3c
00000180: dd0b d63a 7138 7b3b 7fb9 4a3c b51d 99b4
00000190: fe95 8eb4 7b36 b839 9ddb 73b4 05a5 8a34
000001a0: 73d4 1ab7 5b1c a534 44f3 69b4 749b 50b6
000001b0: 9ffa 0ca2 f7ae 81bb 8b2c 3435 09cf 75a2
000001c0: 06a3 2d38 8ce5 18a5 8e55 11af c833 9925
000001d0: cef0 0a21 cc28 a8a0 8cf7 8d36 ac80 ee94
000001e0: c1b7 d82f d46d 2914 dd45 cf94 61a5 8e96
000001f0: c94d d5b7 ba78 df39 0225 3039 07ac dcad
00000200: 3db1 b6b5 2caf 862a 35bf 5a35 969b 939b
00000210: af47 9994 af6b d717 9777 3db9 2f85 ad98
00000220: 0b2a 0635 d59f e21b b30d f29a 5be2 90b6
00000230: 41f4 8cb7 7887 e337 a5aa 9e34 d5ee 9517
00000240: 6ad6 c6bb b49a 19bb f699 89bb ed3d 2bbc
00000250: 8bda 31ba 3635 693c 1e9d 9e38 ce93 9dba
00000260: 590c 37bb b74f 26bd f4bf 673c 3647 123d
00000270: f4e1 3c3b 4f6a bf3c 24a6 7ebc 3a52 8c3c
00000280: dfa7 6dbc d219 abbc b100 dd3b b575 7c3b
00000290: 95df 363c a75c 2a3c 6ccf 143b f3c1 f83c
000002a0: 95c3 7c3b da61 eeb9 1268 413c e08c 8dbc
000002b0: 3634 203c 5294 c53c 0a2e 9b3c f605 a53b
000002c0: 9ec6 eab9 cc81 8bbc b0ca b9bb d704 023b
000002d0: b0fc 75b9 bb4e 9eba cfe9 4735 4c14 5934
000002e0: c649 0637 ff66 2238 0419 8db5 183f 5b37
000002f0: 7891 0235 7fb3 fbbb d439 e0bb dc10 06bc
00000300: 8deb 81ba 7350 4fbb 0712 dabc a8e7 203a
00000310: 1079 6fbb 3225 c439 10bc a1b9 1c2f 303b
00000320: cb8c ba3c 1e11 2f3c ddeb 543c 4a8d 8dbc
00000330: e4ce 4fbb d6db 08bc c763 bebc e2b3 21bc
00000340: e028 803c 89af 113c 2ad8 be3c 1f36 24bc
00000350: a864 273b 79c0 dabc 6706 0f3d c820 d6bc
00000360: 7553 bc3c 74fd 543d 373c 52bd 6bac 743a
00000370: 4931 96bc c258 95bb 1837 27bd 6240 38bd
00000380: 1991 af3c d31e 1eba 336d 4db6 6f4b 8eb0
00000390: 3a7c bfb4 26b1 73b6 ea2e d4b0 4259 36b4
000003a0: 562b 7eb6 fe53 23b1 3403 9e38 6714 7138
000003b0: 033c ee38 1660 e0b9 4653 60ba 85c6 9bba
000003c0: 894a 1738 ce99 dc37 12f9 9937 aa11 94bc
000003d0: 725b 59bc 2ac7 e9bb cdc6 2cbc b98b 233b
000003e0: 82ee 333d c37b 4f3c 30ad 76bc c3f1 993a
000003f0: 9007 3139 99e2 0d38 bc6b af38 f07f 8738

e_conv5.bias f4 [32]
0.020132562 -0.002606854 -0.0017814103 0.0038011742 -0.00051763334 0.00420937 -0.0008649274 0.028773751
0.0035333803 -0.007729972 0.04261767 0.02815503 -0.0007861187 -0.008142727 0.027215064 0.03524739
0.00012263174 -0.0050283247 -4.147577e-05 0.006800806 0.025140798 0.029108107 0.00815603 -0.001283371
0.018036366 -0.0010753555 0.010039868 0.008201827 0.03258776 -0.0034463357 -0.00076585496 3.8096865e-21
00000000: 0bed a43c c1d7 2abb 367e e9ba 1f1d 793b
00000010: c9b1 07ba c1ee 893b 4cbc 62ba eeb6 eb3c
00000020: 4990 673b b44b fdbb de8f 2e3d 61a5 e63c
00000030: 8813 4eba 1369 05bc 20f2 de3c 915f 103d
00000040: b596 0039 a5c4 a4bb 45f6 2db8 4cd9 de3b
00000050: 13f4 cd3c 2074 ee3c dfa0 053c c936 a8ba
00000060: 00c1 933c f1f2 8cba 427e 243c f560 063c
00000070: be7a 053d ebdb 61bb a8c3 48ba 07ed 8f1d

e_conv7.weight f4 [8, 64, 3, 3]
-0.020895382 0.0073723947 4.7596222e-06 0.018436389 -0.0053669033 0.0037158094 0.019832809 -0.01305162
0.018095814 0.002945934 0.0044351122 0.008655729 0.00519308 0.005696932 0.0090712495 0.009525596
0.009739455 0.011173023 4.6573463e-21 0.00014241497 1.0862946e-08 7.0047804e-26 3.2839472e-15 -1.7543998e-25
-7.763854e-26 -1.8654521e-10 -0.0004930025 -6.469085e-27 -3.3303865e-26 -2.3068475e-05 -5.358408e-23 -5.5867422e-27
-1.0014732e-26 -7.513081e-07 2.3456199e-08 9.97543e-18 -0.0023874422 -0.0036797945 -0.023840722 0.014976967
-0.013724038 -0.0045053298 -0.004391776 0.001940085 -0.0016113927 -0.002020581 -0.0154044805 0.008311541
0.004951337 0.008918219 0.001634953 0.0055711307 0.0048252647 0.027330626 0.032209978 0.00884124
0.018960908 -0.024383469 0.008059737 -0.0067958073 0.00963983 -0.002499134 0.010186683 -0.0043174205
-0.007918831 -0.0033139524 -0.008117759 -0.010928705 -0.0045989016 -0.0040570386 -0.006514157 -0.0025473062
3.836265e-08 -1.9232153e-05 -8.2531955e-08 2.167665e-08 -3.3877093e-08 -9.795131e-08 1.2094518e-08 -7.76491e-05
-8.645317e-08 -6.9946546e-09 -3.7755376e-14 -8.6423666e-14 -7.086915e-14 1.8251107e-05 1.04583615e-14 1.3315373e-13
-1.7338306e-13 -2.275179e-05 -0.006487561 -0.0028143933 -0.0013114798 -0.0076938835 -0.00420274 -0.002648493
-0.009897633 -0.0062068696 -0.0047507156 -0.014584236 -0.009450608 0.00057339424 -0.008833782 -0.0003910195
0.005025296 -0.003569665 -0.009955997 -0.00998783 -0.002353676 0.000533999 0.00018045145 -0.002700585
4.6406913e-05 -0.0001231322 -0.008100437 -0.0055989786 -0.0058175297 -0.0036518173 -0.004862216 -0.004103281
-0.007145116 -0.008464328 -0.0044090208 -0.002453767 -0.0036385187 -0.00067362626 -0.0073549906 0.013899225
0.0007187608 0.010016863 -0.0138957985 0.013352187 -0.0069292746 0.016707802 0.00664956 -0.008649545
0.0026777044 -0.0046881973 0.0063127503 -0.006345316 -0.0020392502 0.00241502 -0.009038576 -0.0009369015
-4.8617927e-25 5.571532e-24 1.0541318e-26 6.2105787e-09 1.292824e-13 2.291658e-05 -3.0753883e-28 6.9095954e-14
6.454706e-26 0.00061616703 0.0022783754 0.0006317512 0.0045700762 0.0064693387 0.004174297 0.0007138138
0.0031317913 0.0009335952 -1.3796208e-07 1.7115481e-14 1.0678771e-18 1.5956574e-18 -2.2989752e-18 1.2677461e-18
-3.4695028e-16 0.0007559221 -6.6036873e-19 -0.018057823 -0.010221478 -0.009168939 -0.015274247 -0.0106053185
-0.015191758 -0.017371235 -0.0132733835 -0.019279549 -0.003562165 0.0020276674 0.00033860627 0.002505945
0.0082169315 0.0066504385 0.0022430622 0.007121929 0.0064680013 3.4219224e-07 3.2537002e-07 1.9409597e-06
-4.4256392e-08 2.9562568e-07 -5.5065566e-06 0.00013594836 -7.149029e-06 -9.2697877e-07 -0.0007264016 0.0010097923
-0.006805721 0.0003038247 0.0015926826 -0.0057989066 0.0003812577 0.0024354674 -0.0044306605 -5.6397087e-09
5.621761e-09 -6.757063e-09 5.8603056e-09 -1.0551567e-09 1.6150424e-06 -2.2000688e-09 -1.5125866e-09 -2.1260695e-09
-1.2702561e-06 -6.714037e-07 0.00022652335 1.3904574e-07 9.103827e-08 -1.0106037e-07 -3.0410237e-07 -4.2637815e-08
-0.000102513775 0.0031885642 0.013254795 -0.007295339 0.011225152 -0.0028449441 -0.0041614673 0.0033166672
-0.00698913 -0.0012177713 -0.0065049846 -0.0047193076 0.0023015596 -0.010176343 -0.012412146 -0.0047365758
-0.012744479 -0.013234336 -0.0062770625 0.01963367 0.0040114084 0.0046818554 0.010279642 -0.0042692926
0.0060397675 0.0006881787 0.017172232 0.0029703774 0.0135534825 0.008377513 0.0016264386 0.010684585
00000000: cb2c abbc 2194 f13b d8b4 9f36 e907 973c
00000010: d9dc afbb f084 733b 6a78 a23c 76d6 55bc
00000020: ac3d 943c 9210 413b 6b54 913b c2d0 0d3c
00000030: b62a aa3b 54ad ba3b 949f 143c 3f11 1c3c
00000040: 3c92 1f3c 0e0f 373c 17f3 af1d 3a55 1539
00000050: be9f 3a32 126e ad15 22a2 6c27 262f 5996
00000060: 4539 c095 cf1b 4daf d63c 01ba 2822 0094
00000070: aae9 2495 2c83 c1b7 f08e 819a 4c50 dd93
00000080: b95c 4694 80ad 49b5 ba7c c932 a303 3823
00000090: a276 1cbb b528 71bb 9e4d c3bc f461 753c
000000a0: cada 60bc 72a1 93bb e3e8 8fbb 734a fe3a
000000b0: 5e35 d3ba b96b 04bb 1363 7cbc 212d 083c
000000c0: d33e a23b b91d 123c eb4b d63a 088e b63b
000000d0: 411d 9e3b 7ae4 df3c 9cee 033d d9da 103c
000000e0: e853 9b3c d7bf c7bc fd0c 043c 5daf debb
000000f0: 61f0 1d3c 83c8 23bb 0ce6 263c 2679 8dbb
00000100: fcbd 01bc e52e 59bb 5900 05bc 500e 33bc
00000110: 62b2 96bb e8f0 84bb b674 d5bb b5f0 26bb
00000120: 2ec4 2433 bc54 a1b7 6c3c b1b3 7533 ba32
00000130: 4280 11b3 4d59 d2b3 41c8 4f32 8bd7 a2b8
00000140: 22a8 b9b3 a255 f0b1 fc08 2aa9 da9b c2a9
00000150: 4995 9fa9 f419 9937 ae66 3c28 f3ea 152a
00000160: 4436 43aa 19db beb7 9b95 d4bb af71 38bb
00000170: f6e5 abba f91c fcbb 23b7 89bb 5792 2dbb
00000180: af29 22bc ff62 cbbb e4ab 9bbb b8f2 6ebc
00000190: b9d6 1abc d64f 163a 91bb 10bc c001 cdb9
000001a0: 3dab a43b 0af1 69bb 7a1e 23bc ffa3 23bc
000001b0: 2140 1abb 11fc 0b3a 9137 3d39 4cfc 30bb
000001c0: 0ba5 4238 0c1d 01b9 b2b7 04bc a377 b7bb
000001d0: faa0 bebb 5453 6fbb 3953 9fbb d174 86bb
000001e0: 9421 eabb f7ad 0abc 8c79 90bb 61cf 20bb
000001f0: 3774 6ebb 4b96 30ba 2202 f1bb 93b9 633c
00000200: 396b 3c3a c51d 243c 34ab 63bc 22c3 5a3c
00000210: f80e e3bb cdde 883c 8de4 d93b d2b6 0dbc
00000220: 6d7c 2f3b 739f 99bb 30db ce3b 5eec cfbb
00000230: f1a4 05bb 5045 1e3b 8916 14bc 659a 75ba
00000240: 1777 1697 c889 d718 d5ca 5014 d464 d531
00000250: 1d8f 112a fb3c c037 07ed c291 1b97 9b29
00000260: 8fcf 9f15 4586 213a cc50 153b 1b9c 253a
00000270: 94c0 953b bffc d33b 8bc8 883b 3c1f 3b3a
00000280: bd3e 4d3b 83bc 743a ba22 14b4 9d29 9a28
00000290: 4297 9d21 3b7a eb21 6aa2 29a2 1816 bb21
000002a0: d300 c8a5 1329 463a 0de8 42a1 00ee 93bc
000002b0: fc77 27bc 5139 16bc d640 7abc eec1 2dbc
000002c0: dae6 78bc 1f4e 8ebc 9b78 59bc 25f0 9dbc
000002d0: 3673 69bb 9de2 043b f786 b139 c83a 243b
000002e0: 4fa0 063c eceb d93b 5700 133b 125f e93b
000002f0: 87f1 d33b 8bb6 b734 84ae ae34 6f41 0236
00000300: 6b14 3eb3 7cb6 9e34 f6c4 b8b6 5c8d 0e39
00000310: b1e1 efb6 7fd5 78b5 fc6b 3eba 025b 843a
00000320: 8702 dfbb a94a 9f39 8fc1 d03a c104 bebb
00000330: 8be3 c739 5d9c 1f3b 132f 91bb 67c7 c1b1
00000340: 8829 c131 c12b e8b1 cb5b c931 0705 91b0
00000350: 6fc4 d835 0530 17b1 69e3 cfb0 361a 12b1
00000360: ab7d aab5 833a 34b5 e686 6d39 9a4c 1534
00000370: d180 c333 8706 d9b3 8343 a3b4 c620 37b3
00000380: aafc d6b8 3bf7 503b a42a 593c bd0d efbb
00000390: b3e9 373c 3e72 3abb eb5c 88bb 715c 593b
000003a0: 1205 e5bb a09d 9fba c427 d5bb 6ca4 9abb
000003b0: c3d5 163b adba 26bc 505c 4bbc 4735 9bbb
000003c0: 38ce 50bc d4d4 58bc d1af cdbb cad6 a03c
000003d0: 2272 833b 406a 993b f26b 283c 6ce5 8bbb
000003e0: 3ee9 c53b e466 343a c8ac 8c3c aaaa 423b
000003f0: 6d0f 5e3c d641 093c 392e d53a 660e 2f3c

e_conv7.bias f4 [8]
0.0022878104 -0.013023156 0.03331116 0.012765724 -0.0098200785 -0.0018435409 -0.015564251 -0.026906226
00000000: 17ef 153b 135f 55bc 4871 083d 5427 513c
00000010: 65e4 20bc f8a2 f1ba 3301 7fbc 726a dcbc
