snapshots/Epoch105.pth (torch, 304045 bytes, 14 tensors)

e_conv1.weight f4 [32, 3, 3, 3]
1.43e-43 -7.7862e-41 -6.5387e-41 1.01887e-40 -1.32337e-40 -2.4959e-41 2.21e-41 7.0733e-41
8.5245e-41 -7.613e-41 -3.1313e-41 -9.4848e-41 9.3783e-41 1.16899e-40 -1.3557e-40 -1.24441e-40
-1.5816e-40 1.1195e-40 -1.12592e-40 -6.8992e-41 -4.0093e-41 9.6922e-41 -5.2975e-41 -3.0114e-41
2.9377e-41 -1.25884e-40 6.7992e-41 0.0034115717 0.0042005237 -0.00627267 0.017164651 0.013687129
0.019794274 0.03987817 0.028824167 0.043874424 0.008113035 -0.0063771186 0.02438164 0.006497152
0.012030375 0.018448304 0.0386897 0.037562326 0.035280515 -0.01131428 -0.012694868 -0.027155451
-0.008554835 -0.0132682435 -0.017452197 -0.0049891802 -0.006681132 0.020407218 -0.01627196 -0.040685058
-0.022264607 -0.0072721043 -0.029225782 -0.025592422 0.0008144124 -0.013746556 -0.016091982 -9.086822e-05
0.00795179 0.0043985583 0.002771468 0.007082144 0.0038643805 0.042516794 0.020884788 -0.012802281
0.036547717 0.03884658 0.035451446 0.046243947 0.034898803 0.042765155 0.04954612 0.029331531
0.028850913 -0.009150572 0.0075317523 0.009753639 -0.027165387 -0.008630918 0.008546619 -0.027405767
-0.012579657 0.028491046 -0.028612768 0.0036987911 0.012013243 -0.019134887 -0.0062948014 0.009908975
-0.03700794 0.0036350086 0.027125338 -0.006232658 0.0022773703 -0.0007081994 -0.010943717 0.008448609
0.003921322 -0.026507627 0.002607126 0.0280164 0.026496327 0.025199564 0.069188766 0.012302979
0.006736633 0.042713437 -0.0018584414 -0.003755085 0.030899573 0.025956905 0.02540989 0.06336333
0.0028797556 -0.0034893162 0.024238124 -0.0055831247 0.0072930604 0.035492256 0.013698799 0.006787745
0.042263437 -0.01704204 -0.015360146 0.011672178 -0.029194374 -0.014327194 0.0096743405 -1.22935e-40
-1.7454e-40 -1.2458e-41 5.6961e-41 -1.5227e-41 9.4218e-41 -1.28443e-40 1.4078e-40 5.011e-41
-5.0901e-41 7.0746e-41 7.1067e-41 2.2763e-41 -1.4707e-41 -7.4361e-41 -9.1835e-41 9.204e-42
3.4441e-41 -3.8176e-41 -5.1586e-41 4.3597e-41 -5.8234e-41 -1.9345e-41 -7.9472e-41 -5.654e-42
5.9698e-41 1.92136e-40 0.056235105 0.017696206 -0.023036597 0.037875157 0.013801998 -0.036227237
0.03653874 0.0002233806 -0.037901003 0.054798555 0.028209776 -0.036711454 0.03436796 0.011997999
-0.020837527 0.025234444 -0.02540619 -0.061639484 0.024557004 -0.003248814 -0.026671905 0.0152375875
0.005056701 -0.020692118 0.030669738 -0.016936593 -0.05731996 -7.1773e-41 3.5283e-41 -7.3471e-41
-6.2167e-41 2.6249e-41 8.7525e-41 4.8734e-41 -8.6096e-41 3.4716e-41 -5.1757e-41 -5.2913e-41
3.1965e-41 3.8407e-41 1.1031e-41 -4.3481e-41 8.3146e-41 -8.3608e-41 1.3161e-41 -5.4233e-41
-3.7629e-41 9.3926e-41 -1.44e-40 5.2955e-41 -4.6164e-41 4.8484e-41 -6.799e-42 -2.0806e-41
-4.9937e-41 -2.486e-42 1.08582e-40 7.0113e-41 -4.1263e-41 -6.2683e-41 -5.885e-41 7.1201e-41
6.8955e-41 3.6165e-41 -8.9474e-41 -1.03929e-40 -5.2752e-41 7.3034e-41 -6.6301e-41 -7.9208e-41
-9.0706e-41 -8.9186e-41 2.5274e-41 1.3719e-41 -1.22077e-40 1.3877e-41 -7.3596e-41 -7.1354e-41
9.0267e-41 -5.586e-42 -2.9067e-41 -0.058060873 -0.030378342 -0.056599952 -0.031729184 -0.017451268
-0.018670075 -0.0127775995 0.014583359 0.009388556 -0.052825637 -0.015062797 -0.038579404 -0.020591713
00000000: 6600 0000 0cd9 0080 46b6 0080 051c 0100
00000010: e770 0180 9345 0080 9b3d 0000 2dc5 0000
00000020: a1ed 0000 38d4 0080 4a57 0080 6608 0180
00000030: 6e05 0100 de45 0100 ea79 0180 e45a 0180
00000040: e3b8 0180 1238 0100 dc39 0180 52c0 0080
00000050: c36f 0080 2e0e 0100 ac93 0080 f253 0080
00000060: e451 0000 ea5e 0180 89bd 0000 ad94 5f3b
00000070: 8ca4 893b f88a cdbb e29c 8c3c fb3f 603c
00000080: 9a27 a23c 4b57 233d a920 ec3c abb5 333d
00000090: 89ec 043c 26f7 d0bb 01bc c73c 10e6 d43b
000000a0: 0d1b 453c e620 973c 1779 1e3d f4da 193d
000000b0: 4d82 103d 885f 39bc 23fe 4fbc 1c75 debc
000000c0: 9429 0cbc 0c63 59bc e9f7 8ebc 477c a3bb
000000d0: 66ed dabb 0a2d a73c c64c 85bc 60a5 26bd
000000e0: 4464 b6bc d54a eebb e86a efbc 33a7 d1bc
000000f0: 4a7e 553a 3c39 61bc 55d3 83bc 8190 beb8
00000100: 3948 023c c821 903b 84a1 353b 5411 e83b
00000110: 8c41 7d3b 1726 2e3d 9316 ab3c a9c0 51bc
00000120: 0fb3 153d 971d 1f3d 8935 113d 4b6a 3d3d
00000130: 0cf2 0e3d 842a 2f3d dff0 4a3d ae48 f03c
00000140: c058 ec3c 48ec 15bc ebcc f63b bacd 1f3c
00000150: f289 debc b268 0dbc 1e07 0c3c 0f82 e0bc
00000160: e81a 4ebc 0e66 e93c 5365 eabc 6b67 723b
00000170: 31d3 443c c4c0 9cbc 9f44 cebb 4159 223c
00000180: a395 17bd 5339 6e3b f535 de3c 533b ccbb
00000190: ef3f 153b 75a6 39ba 474d 33bc 096c 0a3c
000001a0: 6f7e 803b 8626 d9bc 51dc 2a3b a682 e53c
000001b0: d30e d93c 516f ce3c d7b2 8d3d 6f92 493c
000001c0: f9be dc3b 49f4 2e3d f296 f3ba df17 76bb
000001d0: 1a21 fd3c 93a3 d43c 6728 d03c a2c4 813d
000001e0: 48ba 3c3b 03ad 64bb 088f c63c a5f2 b6bb
000001f0: a0fa ee3b 5460 113d ed70 603c bb6b de3b
00000200: 6d1c 2d3d c09b 8bbc 1fa9 7bbc aa3c 3f3c
00000210: 0a29 efbc 9bbc 6abc 2081 1e3c b156 0180
00000220: 8ce6 0180 ba22 0080 c99e 0000 722a 0080
00000230: a406 0100 0c66 0180 7088 0100 b08b 0000
00000240: e48d 0080 36c5 0000 1bc6 0000 743f 0000
00000250: ff28 0080 4acf 0080 0000 0180 a819 0000
00000260: 0260 0000 6b6a 0080 cd8f 0080 8879 0000
00000270: 55a2 0080 ed35 0080 89dd 0080 c30f 0080
00000280: 6aa6 0000 9917 0200 c856 663d a2f7 903c
00000290: 3fb7 bcbc fb22 1b3d c721 623c 0363 14bd
000002a0: a5a9 153d 463b 6a39 153e 1bbd 7374 603d
000002b0: 3018 e73c c05e 16bd 6bc5 0c3d 4193 443c
000002c0: 76b3 aabc 77b8 ce3c a420 d0bc af79 7cbd
000002d0: c52b c93c 0eea 54bb 0a7f dabc 13a7 793c
000002e0: afb2 a53b 8482 a9bc 1a3f fb3c 9cbe 8abc
000002f0: 56c8 6abd 13c8 0080 5b62 0000 cfcc 0080
00000300: 4cad 0080 2c49 0000 fcf3 0000 da87 0000
00000310: 00f0 0080 c660 0000 4790 0080 8093 0080
00000320: 1b59 0000 106b 0000 c01e 0000 3579 0080
00000330: c7e7 0000 11e9 0080 b024 0000 2e97 0080
00000340: e568 0080 d405 0100 6a91 0180 9e93 0000
00000350: b080 0080 2787 0000 f412 0080 003a 0080
00000360: 348b 0080 ee06 0080 af2e 0100 72c3 0000
00000370: 0673 0080 bcae 0080 0da4 0080 7bc6 0000
00000380: 38c0 0000 d064 0000 6bf9 0080 b621 0180
00000390: 0d93 0080 97cb 0000 d2b8 0080 cddc 0080
000003a0: dafc 0080 9df8 0080 7446 0000 3e26 0000
000003b0: 4d54 0180 af26 0000 28cd 0080 e8c6 0080
000003c0: a1fb 0000 920f 0080 0751 0080 3dd1 6dbd
000003d0: 00dc f8bc 5ad5 67bd 76f6 01bd f6f5 8ebc
000003e0: fcf1 98bc 2359 51bc 0aef 6e3c 75d2 193c
000003f0: b25f 58bd f3c9 76bc 7005 1ebd f4af a8bc

e_conv1.bias f4 [32]
-3.8514344e-19 0.06385733 0.020056004 0.11628372 0.059215385 -1.2351917e-24 0.06853724 -3.5565114e-13
-6.880113e-14 0.077914506 -3.532937e-15 -2.6323866e-26 -0.010088533 0.061206866 -3.7791512e-18 0.15071984
0.12159577 0.09576604 0.18011269 0.15719685 -8.31969e-31 0.14934842 -0.015304432 0.117241144
-3.229725e-18 -0.00066861423 0.031404078 -8.174393e-30 -8.4826975e-14 -0.011885513 0.10935647 -4.669371e-21
00000000: 3b59 e3a0 a2c7 823d 7d4c a43c 2926 ee3d
00000010: d58b 723d fc22 bf97 415d 8c3d bb36 c8aa
00000020: 27ed 9aa9 a491 9f3d 2f93 7ea7 7759 0295
00000030: 604a 25bc 0db4 7a3d 136d 8ba2 4d56 1a3e
00000040: 3407 f93d fc20 c43d 766f 383e 36f8 203e
00000050: a4fe 868d cbee 183e 71bf 7abc 201c f03d
00000060: c84f 6ea2 f145 2fba 90a1 003d e0cb 258f
00000070: 6c03 bfa9 74bb 42bc 49f6 df3d 6367 b09d

e_conv2.weight f4 [32, 32, 3, 3]
-2.2506e-41 -7.1096e-41 -4.7947e-41 5.0905e-41 -8.914e-42 8.5359e-41 -6.4653e-41 -9.5445e-41
-5.8017e-41 0.007115612 -0.015033729 0.0029178194 -0.00349639 -0.0010235641 -0.005892367 0.010099899
0.021949293 0.0007197462 -0.007256775 -0.008864647 -0.006198161 0.0027217316 -0.004452776 -0.004115639
0.0043650847 0.0016170903 0.0042285607 -0.020025717 0.015472814 0.029019518 -0.0118016405 -0.0046930513
-0.003661535 -0.0285982 0.0041032154 0.014015041 -4.4210556e-05 -0.002056532 -0.00079704536 0.008637648
-0.011677091 0.0052321423 0.010243761 -0.013986704 -0.007994157 -1.8692e-41 7.4426e-41 -8.9406e-41
8.7145e-41 -7.802e-41 -7.5573e-41 1.44809e-40 1.14021e-40 -9.262e-41 0.0015770639 0.0060382984
-0.002183023 -0.0020545395 0.0036138247 0.0045399866 0.0052144476 0.00546637 0.011278351 -9.6921e-41
5.3685e-41 -4.2252e-41 -3.9717e-41 -1.66827e-40 1.8363e-41 -2.5345e-41 7.5038e-41 1.54464e-40
3.6502e-41 8.2175e-41 -1.2394e-41 -3.9613e-41 -1.143e-42 8.0542e-41 4.7382e-41 9.9274e-41
7.124e-41 0.007844816 0.0014963286 0.00809628 -0.0026179485 0.002579652 0.005047104 0.001326404
0.0005527399 -0.000920559 8.4099e-41 -5.482e-42 -4.2636e-41 -2.4492e-41 1.86366e-40 -6.7076e-41
4.3763e-41 4.8898e-41 8.4784e-41 -4.316e-41 -4.0723e-41 1.06926e-40 6.8404e-41 -6.732e-42
-1.567e-42 -1.8741e-41 -5.4691e-41 -9.4226e-41 -0.0025882232 -0.0024626488 -0.0017575517 0.00092568947
0.00046830327 0.00065078086 0.0018814029 0.0013048622 0.00082221616 0.0020226738 0.0077313622 0.003348111
0.0030009951 0.0017466827 0.0023756593 -0.0009618668 0.0050670253 0.0016578552 3.9533e-41 1.4712e-41
-2.971e-41 -7.6438e-41 -7.1927e-41 -1.8562e-40 -1.734e-41 2.8755e-41 7.6944e-41 0.005661786
0.010929778 0.0041538007 0.013223595 0.014511939 0.012209684 -0.0019335538 -0.0152483 -0.0056360867
-0.011427085 -0.01401033 -0.005014355 -0.015530904 0.012222393 0.013847332 -0.02352657 0.0012649589
0.0005855757 0.01209871 0.00021868553 0.002346412 -0.0031998435 0.006850365 0.0047064614 0.00396079
0.010196609 0.012421364 0.00077978673 -0.018725002 -0.012959311 -0.0016262102 0.00079883204 0.015644664
-0.029958287 0.013958172 0.029505163 0.0166792 0.016175468 -0.00077120867 0.0064262655 0.008615607
-0.00026213506 -0.008443165 -0.00553898 0.02278542 3.8403e-41 -9.6726e-41 1.07089e-40 -4.8751e-41
-7.8576e-41 1.10363e-40 1.9188e-41 -8.7281e-41 1.55097e-40 -0.01655558 0.011376982 0.015720798
-0.015197049 0.04016343 0.027088255 0.009888581 0.024522366 0.015181765 0.002325491 0.002620012
-0.004800733 -0.0022185864 -7.3175283e-07 -0.002849834 -0.0074469214 0.0031655498 -0.0067420793 0.0135942325
0.010428754 0.017458245 0.008746981 0.015515066 0.004666661 -0.027189009 0.01814729 -0.0016403203
-2.4656e-41 8.906e-41 5.2141e-41 7.6004e-41 2.1258e-41 -8.7957e-41 -6.6075e-41 -1.272e-41
-9.0237e-41 -1.65553e-06 -2.6541657e-05 -2.7499727e-05 5.8578125e-06 -2.2270195e-05 -4.211438e-06 -2.632574e-05
-2.6224638e-05 6.429259e-06 0.00337469 0.0018101385 0.0042680134 -0.0032125216 -0.0038827832 -0.01216919
0.01274385 -0.007031545 -0.016822478 -2.097e-41 -1.01925e-40 -8.636e-42 -6.5236e-41 -7.8864e-41
-5.668e-41 9.0245e-41 3.7525e-41 6.9925e-41 3.0218396e-30 -2.4421792e-30 2.6851462e-30 4.5560867e-30
00000000: bd3e 0080 30c6 0080 a885 0080 e78d 0000
00000010: d918 0080 f2ed 0000 3ab4 0080 100a 0180
00000020: baa1 0080 142a e93b 0850 76bc e338 3f3b
00000030: b123 65bb 1d29 86ba c214 c1bb 0c7a 253c
00000040: 01cf b33c 5aad 3c3a 3eca edbb 063d 11bc
00000050: f119 cbbb 145f 323b 98e8 91bb 7bdc 86bb
00000060: fc08 8f3b 8cf4 d33a bd8f 8a3b f90c a4bc
00000070: b081 7d3c 57ba ed3c ab5b 41bc 2bc8 99bb
00000080: 5df6 6fbb c646 eabc 4474 863b 589f 653c
00000090: b96e 39b8 e2c6 06bb cff0 50ba ec84 0d3c
000000a0: 4551 3fbc 6472 ab3b 73d5 273c 7d28 65bc
000000b0: edf9 02bc 1b34 0080 78cf 0000 3af9 0080
000000c0: edf2 0000 7dd9 0080 abd2 0080 ab93 0100
000000d0: d83d 0100 3002 0180 7cb5 ce3a ebdc c53b
000000e0: 0c11 0fbb 74a5 06bb ebd5 6c3b 2bc4 943b
000000f0: f5dd aa3b 3c1f b33b d5c8 383c 2d0e 0180
00000100: a795 0000 c875 0080 b76e 0080 0cd1 0180
00000110: 3033 0000 a746 0080 2dd1 0000 95ae 0100
00000120: c165 0000 12e5 0000 8d22 0080 6d6e 0080
00000130: 3003 0080 85e0 0000 1584 0000 bc14 0100
00000140: 97c6 0000 8b87 003c 7520 c43a 42a6 043c
00000150: e391 2bbb 610f 293b 2d62 a53b bcda ad3a
00000160: bfe5 103a ab51 71ba 6fea 0000 480f 0080
00000170: da76 0080 4644 0080 8307 0200 fbba 0080
00000180: fe79 0000 4f88 0000 58ec 0000 5078 0080
00000190: 8571 0080 112a 0100 afbe 0000 c412 0080
000001a0: 5e04 0080 3e34 0080 7598 0080 aa06 0180
000001b0: 2e9f 29bb 6464 21bb a65d e6ba f8a9 723a
000001c0: 9a86 f539 2a99 2a3a 6899 f63a e907 ab3a
000001d0: fe89 573a d68e 043b 5e57 fd3b fb6b 5b3b
000001e0: 58ac 443b f2f0 e43a f3b0 1b3b ca25 7cba
000001f0: 4a09 a63b 644c d93a 346e 0000 0329 0000
00000200: d252 0080 14d5 0080 81c8 0080 6f05 0280
00000210: 5630 0080 2850 0000 7dd6 0000 8186 b93b
00000220: d012 333c 9b1c 883b c7a7 583c 7cc3 6d3c
00000230: 200b 483c 4d6f fdba 01d4 79bc ecae b8bb
00000240: ab38 3bbc 958b 65bc 754f a4bb 5575 7ebc
00000250: 6f40 483c ecdf 623c cbba c0bc facc a53a
00000260: 5281 193a ab39 463c f34e 6539 43c6 193b
00000270: 77b4 51bb 0779 e03b a938 9a3b 84c9 813b
00000280: ae0f 273c fa82 4b3c 9a6a 4c3a 2d65 99bc
00000290: 4a53 54bc 8f26 d5ba b668 513a 3d29 803c
000002a0: 156b f5bc d1b0 643c d0b4 f13c d1a2 883c
000002b0: 6a82 843c f02a 4aba 6c93 d23b 7a28 0d3c
000002c0: 2c6f 89b9 3355 0abc 5580 b5bb 7da8 ba3c
000002d0: 0d6b 0000 a20d 0180 852a 0100 e687 0080
000002e0: 0adb 0080 a633 0100 7d35 0000 4ef3 0080
000002f0: 59b0 0100 919f 87bc 8566 3a3c e7c8 803c
00000300: 0bfd 78bc 6982 243d 30e8 dd3c b703 223c
00000310: 21e3 c83c f0bc 783c 4467 183b 82b4 2b3b
00000320: 784f 9dbb b465 11bb ac6d 44b5 48c4 3abb
00000330: 4e05 f4bb 1d75 4f3b a9ec dcbb 58ba 5e3c
00000340: 5ddd 2a3c 9804 8f3c 7f4f 0f3c e732 7e3c
00000350: caea 983b 7cbb debc a0a9 943c 0400 d7ba
00000360: bb44 0080 43f8 0000 5991 0000 ded3 0000
00000370: 423b 0000 30f5 0080 31b8 0080 7523 0080
00000380: 8bfb 0080 9433 deb5 c6a5 deb7 37af e6b7
00000390: 3a8e c436 e1d0 bab7 fa4f 8db6 19d6 dcb7
000003a0: fbfc dbb7 eaba d736 e729 5d3b 2b42 ed3a
000003b0: b1da 8b3b 2b89 52bb 4b76 7ebb 4861 47bc
000003c0: 95cb 503c e068 e6bb 4bcf 89bc 753a 0080
000003d0: 201c 0180 1318 0080 dab5 0080 d7db 0080
000003e0: 009e 0080 91fb 0000 9b68 0000 ecc2 0000
000003f0: 2729 750e 1422 468e 4ed8 590e 1cd1 b80e

e_conv2.bias f4 [32]
-0.03291407 -4.7014797e-05 0.042887386 -0.0010197492 0.03858455 0.03316536 0.0016139651 0.043470334
0.05482586 0.035542686 -0.026196864 -2.5182771e-06 -6.6001176e-15 -0.00814066 0.0100696245 -3.7827269e-16
0.031749982 0.011649224 -0.00013309295 -0.011865499 -2.1697798e-11 0.015549017 -0.00032751224 0.03889913
-5.4150986e-16 0.05491174 0.04632312 -2.7451786e-05 -9.635517e-15 0.000585574 -0.0004351472 0.05023878
00000000: e7d0 06bd c131 45b8 afaa 2f3d 1ba9 85ba
00000010: d50a 1e3d 67d8 073d af8b d33a f30d 323d
00000020: 1591 603d 3595 113d ce9a d6bc acff 28b6
00000030: 57cb eda7 6760 05bc 11fb 243c 320f daa5
00000040: 450c 023d 63dc 3e3c de8e 0bb9 8367 42bc
00000050: 19db bead 4ec1 7e3c f3b5 abb9 b254 1f3d
00000060: 6014 1ca6 22eb 603d 50bd 3d3d 4348 e6b7
00000070: fb93 2da8 3581 193a 7824 e4b9 2ec7 4d3d

e_conv3.weight f4 [32, 64, 3, 3]
8.0649e-41 -6.984e-42 8.8872e-41 -2.2007e-41 -1.00615e-40 -3.683e-41 -2.9977e-41 -4.2992e-41
3.1404e-41 -0.00022857827 0.012791786 0.017805157 -0.008032163 0.0047641774 0.008682765 -0.026088702
-0.0076152715 -0.0078626275 -0.004628485 0.0066372557 0.006794028 -0.0054452242 0.0052187443 0.0045174635
-0.012247162 -0.004325786 -0.0051846337 0.0057422207 0.00691249 0.008412239 0.0016005205 0.0037880582
0.0041419966 -0.008465989 -0.010713758 -0.014512095 3.679569e-06 0.0152071845 0.015015518 -0.0015397983
0.008702842 0.0063853282 -0.01455169 -0.008697898 -0.007769062 -1.34029e-40 2.063e-41 3.5205e-41
-9.0454e-41 8.9815e-41 -1.6684e-41 -1.05385e-40 1.0388e-41 8.6844e-41 0.00020338377 0.00806599
0.0013788107 0.0009069295 0.013290901 0.007538821 -0.005607705 0.003899631 -0.0058912514 -1.0226e-40
3.398e-42 4.5378e-41 -8.878e-41 -2.8334e-41 6.0137e-41 -5.158e-41 7.4976e-41 9.5758e-41
-1.42561e-40 -4.1159e-41 -8.9732e-41 1.1911e-41 3.5998e-41 -1.2592e-41 1.20031e-40 2.6845e-41
-1.1314e-41 0.0022386156 0.0037750779 -0.0039350213 0.005289819 0.0041516614 -0.0030377659 -0.002019832
-0.0037671302 -0.0074949088 -5.044e-41 -8.9449e-41 7.6072e-41 1.5887e-41 -2.805e-41 -2.6382e-41
7.9995e-41 -3.0583e-41 2.2739e-41 -3.8523e-41 5.5287e-41 -1.0155e-41 -3.4015e-41 -1.3583e-41
1.00786e-40 -6.6429e-41 3.635e-42 -7.9821e-41 -0.0018251298 -0.0006863256 -0.0010425458 -0.00018181354
-0.00019163826 -0.0004145419 0.0004322593 6.790541e-05 0.00052013446 -0.00535663 -0.001692193 -0.0036221975
-0.0068728933 -0.0028432382 -0.0043940614 -0.012664549 -0.008852691 -0.010664794 2.7985e-41 3.2422e-41
5.412e-41 1.66935e-40 2.6618e-41 -4.93e-41 -9.01e-42 1.1858e-41 -1.2236e-41 -0.016003104
0.007650318 0.016473165 -0.00021799613 0.0039660567 0.0072344607 -0.04001661 -0.022225726 -0.014380809
-0.0009771042 0.008185784 0.016103245 -0.008457536 0.008167187 -0.0019847688 -0.025852289 -0.008615312
-0.008456659 0.0019151641 0.005065118 0.00070422504 0.0010038028 0.007016856 0.002949686 -0.00823329
-0.0027796163 -0.008527783 -0.00065916334 0.014615943 0.01795626 0.0008776757 0.0022995982 0.019850845
-0.03392783 -0.016000738 -0.0073028468 0.0067870375 0.0041665286 0.007876331 0.0013578943 7.99926e-05
-0.0068416772 -0.017044522 -0.012631833 -0.010473564 -6.7393e-41 -5.888e-42 1.5807e-41 -1.0501e-40
-9.5557e-41 -6.0302e-41 -9.5552e-41 6.1594e-41 3.4954e-41 -0.0021390857 0.0050476855 0.0019400708
-0.0023356297 0.009890109 0.012405874 -0.022384115 -0.018421365 -0.0050792093 -0.005249132 0.0049442365
0.01523244 -0.014261957 -0.002093187 0.0077679073 -0.021786561 -0.010571723 -0.0024613491 -0.0027005055
0.0071817725 0.0032456857 0.0015851399 0.009673188 0.008762628 -0.012640633 -0.004753171 -0.003729344
4.93e-43 8.6307e-41 9.421e-41 2.1211e-41 5.0336e-41 -4.38e-42 -6.3487e-41 4.3628e-41
5.2388e-41 1.2829963e-05 1.3945471e-05 -1.5975262e-05 -6.1024134e-06 -9.885635e-06 -3.123303e-06 1.34038355e-05
1.1806648e-05 -3.0908968e-06 -0.0048767244 0.002747118 0.011936093 -0.007854511 0.018936848 0.007500176
-0.021922993 -0.0107213855 -0.0090552075 1.21036e-40 7.184e-42 -1.52607e-40 8.9638e-41 -7.9856e-41
-1.41675e-40 -1.18076e-40 6.6933e-41 -6.6494e-41 4.375833e-30 -8.2262846e-32 1.4345915e-29 2.7086741e-30
00000000: d1e0 0000 7813 0080 bdf7 0000 593d 0080
00000010: 7918 0180 ab66 0080 9053 0080 d877 0080
00000020: 8b57 0000 83ae 6fb9 a494 513c 1fdc 913c
00000030: 5599 03bc d11c 9c3b 2842 0e3c f9b7 d5bc
00000040: 8789 f9bb 40d2 00bc 8caa 97bb 567d d93b
00000050: 70a0 de3b da6d b2bb 0002 ab3b 3b07 943b
00000060: 52a8 48bc 53bf 8dbb dce3 a9bb 3d29 bc3b
00000070: 2b82 e23b 7dd3 093c 8ec8 d13a 1241 783b
00000080: 96b9 873b eeb4 0abc c288 2fbc 23c4 6dbc
00000090: 84ee 7636 8e27 793c a603 763c 0fd3 c9ba
000000a0: 5d96 0e3c 043c d13b 366a 6ebc a181 0ebc
000000b0: 9e93 febb 9e75 0180 8239 0000 2362 0000
000000c0: 26fc 0080 5efa 0000 822e 0080 c525 0180
000000d0: f51c 0000 16f2 0000 6a43 5539 3727 043c
000000e0: 36b9 b43a 02bf 6d3a 14c2 593c 3708 f73b
000000f0: d7c0 b7bb f490 7f3b 660b c1bb 0f1d 0180
00000100: 7909 0000 7f7e 0000 7cf7 0080 fc4e 0080
00000110: a3a7 0000 c98f 0080 01d1 0000 ef0a 0100
00000120: 678d 0180 bc72 0080 23fa 0080 3421 0000
00000130: 5964 0000 1a23 0080 994e 0100 d54a 0000
00000140: 8a1f 0080 bdb5 123b 4c67 773b 5af1 80bb
00000150: 3856 ad3b a90a 883b 4115 47bb 285f 04bb
00000160: f5e1 76bb da97 f5bb 9b8c 0080 59f9 0080
00000170: 0fd4 0000 492c 0000 314e 0080 8b49 0080
00000180: fede 0000 4155 0080 633f 0000 636b 0080
00000190: 1e9a 0000 4f1c 0080 d25e 0080 dd25 0080
000001a0: f318 0100 2db9 0080 220a 0000 82de 0080
000001b0: 3239 efba 88ea 33ba 08a6 88ba 33a5 3eb9
000001c0: 81f2 48b9 df56 d9b9 dca0 e239 7068 8e38
000001d0: a259 083a ab86 afbb 93cc ddba 6462 6dbb
000001e0: 0236 e1bb 9f55 3abb 0ffc 8fbb f87e 4fbc
000001f0: e10a 11bc 63bb 2ebc 034e 0000 615a 0000
00000200: dd96 0000 59d1 0100 334a 0000 6e89 0080
00000210: 1e19 0080 0e21 0000 1c22 0080 f118 83bc
00000220: 85af fa3b bbf2 863c e495 64b9 b2f5 813b
00000230: 0e0f ed3b 75e8 23bd ba12 b6bc 7c9d 6bbc
00000240: 2d12 80ba ab1d 063c f4ea 833c 7a91 0abc
00000250: aacf 053c e512 02bb 2ec8 d3bc 3d27 0dbc
00000260: cc8d 0abc 3e06 fb3a 4af9 a53b be9b 383a
00000270: 0892 833a a8ed e53b 854f 413b ece4 06bc
00000280: 392a 36bb 1db8 0bbc b4cb 2cba b577 6f3c
00000290: 0219 933c d213 663a dbb4 163b 3d9e a23c
000002a0: e9f7 0abd fb13 83bc b84c efbb cc65 de3b
000002b0: 6087 883b ba0b 013c 5ffb b13a b3c1 a738
000002c0: 2630 e0bb f4a0 8bbc bff5 4ebc 5099 2bbc
000002d0: ddbb 0080 6a10 0080 102c 0000 ba24 0180
000002e0: 600a 0180 19a8 0080 5c0a 0180 b3ab 0000
000002f0: 7061 0000 e72f 0cbb 0e67 a53b f949 fe3a
00000300: 5d11 19bb 200a 223c 0242 4b3c e45e b7bc
00000310: 67e8 96bc 7f6f a6bb e900 acbb 4303 a23b
00000320: 7c91 793c fcaa 69bc da2d 09bb ee89 fe3b
00000330: bb79 b2bc 0535 2dbc 964e 21bb f7fa 30bb
00000340: 1355 eb3b 92b5 543b 78c4 cf3a 4b7c 1e3c
00000350: 2091 0f3c a81a 4fbc 7dc0 9bbb 0368 74bb
00000360: 6001 0000 97f0 0000 9f06 0100 213b 0000
00000370: 518c 0000 360c 0080 fab0 0080 9e79 0000
00000380: 0992 0000 4640 5737 58f7 6937 9d02 86b7
00000390: 55c3 ccb6 7bda 25b7 f099 51b6 09e1 6037
000003a0: 2b15 4637 346d 4fb6 eecc 9fbb fe08 343b
000003b0: 9a8f 433c 35b0 00bc 7321 9b3c 09c4 f53b
000003c0: d997 b3bc c0a8 2fbc 4b5c 14bc 6651 0100
000003d0: 0714 0000 68a9 0180 e0f9 0000 9bde 0080
000003e0: ef8a 0180 2649 0180 95ba 0000 5cb9 0080
000003f0: 3f81 b10e 0a91 d58b 207c 910f f6c0 5b0e

e_conv3.bias f4 [32]
0.03830541 0.030447522 -0.0002272272 0.010324651 0.038295567 -0.00089449016 -0.012878165 -3.147806e-05
0.034036536 0.005684385 0.032666437 -2.3159159e-29 -0.0014242097 -2.3149134e-21 -2.1535081e-05 -7.8724865e-05
0.08341462 -0.012978369 0.06802788 -0.0086667435 -0.0016959498 0.01844872 -0.0010081625 -0.009933478
0.012946956 -0.00022022652 0.00552146 0.03925539 -0.0010440693 -0.017714495 0.035670836 -0.01758738
00000000: 22e6 1c3d 156d f93c d643 6eb9 ba28 293c
00000010: d0db 1c3d 387c 6aba f0fe 52bc 4f07 04b8
00000020: e569 0b3d 1444 ba3b 3ecd 053d 9ddc ea8f
00000030: 8cac baba f0e8 2e9d 3ca6 b4b7 1719 a5b8
00000040: 49d5 aa3d 3aa3 54bc 3352 8b3d f5fe 0dbc
00000050: a24a deba c521 973c 5224 84ba 07c0 22bc
00000060: 781f 543c 9bec 66b9 5ded b43b 43ca 203d
00000070: 27d9 88ba fd1d 91bc 951b 123d 6913 90bc

e_conv4.weight f4 [32, 64, 3, 3]
-0.0028537144 0.010061028 -0.032934006 0.0043881745 -0.0058399863 -0.0066448646 0.0125331 -0.003153654
-0.011040202 1.9309949e-16 1.8464674e-16 1.61154e-16 1.6286851e-16 2.2347887e-16 1.362796e-16 1.8341854e-16
1.3212649e-16 1.199047e-16 0.00026701298 0.0024897263 0.0018361355 -0.0007473422 0.0013304669 0.00012743114
-0.0036915361 -0.0018549643 -0.004347782 1.861804e-11 1.9188635e-11 1.8054258e-11 3.6963408e-11 4.223036e-11
2.8409162e-11 4.745406e-11 4.5791846e-11 3.7989674e-11 -0.0013735007 -0.0063955397 -0.019735668 -0.0034040394
0.033852667 -0.00032473655 -0.026504042 -0.0063557364 0.001272505 -0.0022262896 0.00017498423 -0.004650845
0.00047281693 0.0020083564 -0.0032307608 0.0029370412 0.004591808 -0.0002618259 0.0015675167 0.0021757479
0.0012306506 -0.0052293427 0.0011894092 -0.0013209839 -0.0014668716 -3.108518e-05 -0.00040607413 -0.010789265
-0.0137302885 -0.020581253 -0.018181091 0.01468044 0.007331654 -0.008295801 0.0057585114 -0.007546165
-0.015432652 0.0056913923 0.010022605 -0.007357298 0.023639614 -0.005318532 -0.0048403707 -0.008394446
-0.018596431 -0.013961288 0.00022748984 -0.017163573 0.02219293 -0.0099454 0.011384347 0.00365359
0.0021587005 -0.009758392 0.006494802 -0.014973353 -0.0060424805 -0.011186229 0.012726642 0.034211304
-0.0088458005 0.01319766 0.0016326591 -2.030131e-30 -2.1605148e-30 -7.167532e-31 -1.6839523e-30 -3.476811e-30
-1.4302412e-30 -2.1732777e-30 -2.1994205e-30 -1.8039883e-30 5.930655e-37 3.3419023e-35 1.22078315e-36 5.511454e-36
4.299609e-36 3.1667872e-35 5.424483e-36 2.3160681e-35 3.165022e-35 -0.010261513 0.024249034 0.0077913757
0.008165648 0.014922744 -0.0059077707 -0.04140214 0.022900194 -0.0016663098 -0.0019527567 -0.0010032618
-0.0014588189 -0.00066323084 -0.0007737546 -0.0024538597 0.00072713254 -0.00038991807 -0.0031921442 -2.118e-41
6.55e-42 -8.1023e-41 6.2428e-41 2.6511e-41 7.8579e-41 4.8289e-41 6.6e-44 6.67e-41
0.003788624 -0.0413243 -0.02058065 -0.020187117 -0.02583277 0.010842539 0.010666368 0.014290255
0.026510673 0.0016624462 -0.0015302077 -0.0013254693 0.0012032088 -0.0021950693 -0.0021849303 -2.203458e-05
-0.0038206757 -0.003924685 -1.4640152e-19 -1.8329976e-19 -1.0845047e-19 -6.045409e-20 -1.9939839e-19 3.6882342e-20
-9.9033824e-20 -5.573288e-20 -1.6063177e-19 -0.0052163424 -0.009190872 0.0053192372 -0.004398899 0.005344702
-0.0038527213 -0.00210285 0.0066809957 -0.005532585 -8.9102e-41 3.4353e-41 4.0181e-41 -7.8212e-41
-3.9305e-41 -3.7242e-41 4.4672e-41 7.5051e-41 -8.1386e-41 0.0036212238 -0.00014903187 -0.0021231223
0.002641739 -0.0011020921 -0.004097148 0.0050205155 0.0013482337 -0.002473835 -4.6487738e-08 -4.5561972e-08
-4.2668542e-08 -4.1491383e-08 -4.4449365e-08 -4.42389e-08 -4.151146e-08 -4.2510344e-08 -4.214122e-08 -0.00233815
-0.0030179522 -0.0018459765 -0.0030812742 0.00088672526 0.002727025 -0.0026756711 0.0003795884 -0.0006998
-4.5291e-41 -2.438e-41 -2.0537e-41 -2.8954e-41 -2.6636e-41 -3.1664e-41 -1.1751e-41 -2.6312e-41
-3.2639e-41 -0.00041553046 -0.0071223513 -0.0056647263 0.0045042946 -0.0028056025 -0.0011463717 0.0035095864
-0.0026833443 -0.0010471352 0.009778078 -0.012987938 -0.001388598 -0.0033159058 -0.004983723 0.007299548
0.012731142 0.017002292 0.01032636 6.4412e-41 -6.6499e-41 1.9514e-41 5.436e-41 -5.3584e-41
7.2754e-41 -5.0747e-41 -9.387e-42 9.1688e-41 3.215464e-39 1.1375037e-37 1.8059783e-37 1.9054806e-38
00000000: 6205 3bbb 03d7 243c cfe5 06bd adca 8f3b
00000010: 5b5d bfbb 2abd d9bb a257 4d3c 89ad 4ebb
00000020: f7e1 34bc e9a0 5e25 19e2 5425 44cc 3925
00000030: 4dc6 3b25 a9d3 8025 a31e 1d25 9977 5325
00000040: db54 1825 9f3d 0a25 e0fd 8b39 ad2a 233b
00000050: 7caa f03a 49e9 43ba 1063 ae3a 099f 0539
00000060: b3ed 71bb 4622 f3ba d777 8ebb 19c4 a32d
00000070: f7c8 a82d 93ce 9e2d 1991 222e 29bb 392e
00000080: bfe3 f92d 86b4 502e 0965 492e 9214 272e
00000090: 0907 b4ba ad91 d1bb b2ac a1bc 4e16 5fbb
000000a0: 18a9 0a3d 6741 aab9 011f d9bc c843 d0bb
000000b0: 2fca a63a f1e6 11bb f97b 3739 1e66 98bb
000000c0: 6ae4 f739 a19e 033b 2cbb 53bb 607b 403b
000000d0: e176 963b ad45 89b9 2275 cd3a fe96 0e3b
000000e0: c84d a13a e85a abbb f3e5 9b3a dd24 adba
000000f0: 0b44 c0ba 7561 02b8 59e6 d4b9 75c5 30bc
00000100: 01f5 60bc 049a a8bc 83f0 94bc 3a86 703c
00000110: 5f3e f03b 1ceb 07bc e5b1 bc3b d245 f7bb
00000120: 3cd9 7cbc dc7e ba3b da35 243c 7d15 f1bb
00000130: dda7 c13c 1547 aebb f99b 9ebb dc88 09bc
00000140: 8b57 98bc e3bd 64bc 578a 6e39 9f9a 8cbc
00000150: f3cd b53c 08f2 22bc 6a85 3a3c 1271 6f3b
00000160: fc78 0d3b aae1 1fbc 59d2 d43b cb52 75bc
00000170: 0000 c6bb 7246 37bc 6883 503c 2721 0c3d
00000180: faed 10bc 003b 583c f3fe d53a 2cb4 248e
00000190: 2348 2f8e 8799 688d 529e 088e 4509 8d8e
000001a0: e511 e88d 3651 308e 2d70 328e 5f5b 128e
000001b0: 4bcf 4903 9eaf 3106 9bb4 cf03 6b6e ea04
000001c0: 99e2 b604 1360 2806 64bb e604 5f49 f605
000001d0: 0c48 2806 e81f 28bc e9a5 c63c cc4e ff3b
000001e0: 36c9 053c 867e 743c f995 c1bb 4a95 29bd
000001f0: 3099 bb3c 1468 daba a4f3 ffba e17f 83ba
00000200: d735 bfba abdc 2dba cbd5 4aba efd0 20bb
00000210: 0a9d 3e3a eb6d ccb9 4b33 51bb 0b3b 0080
00000220: 4212 0000 dce1 0080 06ae 0000 e749 0000
00000230: 0cdb 0000 9c86 0000 2f00 0000 efb9 0000
00000240: 904a 783b ab43 29bd c098 a8bc 745f a5bc
00000250: 3f9f d3bc e8a4 313c fdc1 2e3c ac21 6a3c
00000260: e92c d93c 70e6 d93a 4091 c8ba 5fbb adba
00000270: fdb4 9d3a 27db 0fbb 0c31 0fbb e6d6 b8b7
00000280: 4d64 7abb a59a 80bb 25d7 2ca0 f466 58a0
00000290: 2509 00a0 41be 8e9f 7768 6ba0 042c 2e1f
000002a0: 46d6 e99f 7598 839f f9a3 3da0 daed aabb
000002b0: 5095 16bc ff4c ae3b a424 90bb 9c22 af3b
000002c0: f07d 7cbb f8cf 09bb 41ec da3b b04a b5bb
000002d0: 61f8 0080 c35f 0000 0270 0000 06da 0080
000002e0: 916d 0080 d167 0080 877c 0000 36d1 0000
000002f0: dfe2 0080 0e52 6d3b 7045 1cb9 1524 0bbb
00000300: 0721 2d3b 1374 90ba 5e41 86bb 2383 a43b
00000310: 37b7 b03a 1020 22bb cfa9 47b3 ebaf 43b3
00000320: 8f42 37b3 4234 32b3 98e8 3eb3 2f01 3eb3
00000330: 554a 32b3 9e94 36b3 c3fe 34b3 a63b 19bb
00000340: d6c8 45bb b1f4 f1ba 34ef 49bb 2073 683a
00000350: e3b7 323b 505a 2fbb 7e03 c739 c872 37ba
00000360: 417e 0080 f643 0080 4039 0080 b650 0080
00000370: 404a 0080 4458 0080 c220 0080 5949 0080
00000380: fc5a 0080 8edb d9b9 9d62 e9bb 2b9f b9bb
00000390: c398 933b 33de 37bb da41 96ba 1701 663b
000003a0: 0cdb 2fbb 0740 89ba 3b34 203c 5ccb 54bc
000003b0: 9e01 b6ba ab4f 59bb 804e a3bb 0c31 ef3b
000003c0: 4896 503c 6448 8b3c e52f 293c 8eb3 0000
000003d0: 5fb9 0080 6636 0000 8997 0000 5f95 0080
000003e0: cfca 0000 768d 0080 2b1a 0080 97ff 0000
000003f0: 6803 2300 38d4 1a02 29d1 7502 0c7d cf00

e_conv4.bias f4 [32]
0.032998685 0.0026374222 -0.0066148154 -8.754058e-07 0.016712202 0.016166996 0.013205257 0.01901709
-1.3227258e-15 -1.7982478e-18 0.019613905 0.02588448 0.024300132 0.013731519 0.022576483 0.0124496445
-2.0071411e-05 0.06723968 -1.661437e-10 0.03183531 0.0069135707 -2.3635293e-19 0.025213266 -2.6914745e-11
-0.00076975 0.03678241 -0.0007691662 0.031766087 0.06297294 0.02148367 -3.648886e-29 0.022738175
00000000: a129 073d 9ad8 2c3b 18c1 d8bb 6efd 6ab5
00000010: 07e8 883c a670 843c dd5a 583c bac9 9b3c
00000020: f89f bea6 f1af 04a2 57ad a03c b00b d43c
00000030: 1211 c73c 2afa 603c 51f2 b83c 98f9 4b3c
00000040: 075f a8b7 f5b4 893d 4bad 36af be65 023d
00000050: 3c8b e23b a584 8ba0 0d8c ce3c 9ebe ecad
00000060: 0cc9 49ba 27a9 163d dfa1 49ba 281d 023d
00000070: f5f7 803d 86fe af3c 4005 3990 6945 ba3c

e_conv5.weight f4 [32, 64, 3, 3]
6.32334e-05 0.00036659036 -0.003088314 0.004537834 0.003356774 -0.0007022541 0.006223319 0.0056531583
0.0021572348 0.0073089623 0.00067497476 0.0020129923 0.0045467312 -0.00086217973 0.0001836389 0.0016124375
-0.0027007458 -0.0011686591 3.2686974e-32 -2.2123694e-32 -2.9751348e-32 4.5850898e-32 -3.5741734e-32 -4.5948872e-32
-3.4084232e-32 2.7274117e-32 2.9078442e-32 0.009532618 -0.00036653577 0.0137291765 0.0033153011 0.009384099
0.012385034 -0.002250468 0.010788602 0.011488499 0.008976138 0.0062157493 0.0018153061 0.010835967
-0.003642778 0.0041052257 -0.01385032 -0.0096011525 -0.015690612 -3.332194e-08 1.8516423e-06 1.9672934e-06
1.8158054e-06 1.8348611e-06 1.1630729e-06 -3.2068435e-06 1.9745855e-06 -1.1471654e-05 0.0033919665 0.01026062
0.010015973 0.0016210807 0.0068221595 0.008430686 0.0019769801 0.006012516 0.009441304 3.491775e-39
4.576091e-39 1.2743516e-38 3.084734e-39 7.256484e-39 3.957529e-39 1.888055e-39 7.927266e-39 1.737739e-39
-0.02152657 0.012401698 -0.022405293 -0.018902518 0.02367532 -0.013456785 0.008990977 -0.016838409
0.010385779 0.012995079 -0.0015985657 -0.0073601683 0.006276216 -0.013387929 -0.0038543444 -0.0057210163
-0.00013885938 -0.0012625146 -0.003791306 0.002314821 0.013541822 -0.0033465156 0.0008113933 0.013616163
0.00056015654 0.00837823 0.024700465 7.5821e-41 -1.01816e-40 -5.8915e-41 4.397e-41 9.0559e-41
-7.3308e-41 -1.497e-41 2.7053e-41 1.05746e-40 -2.6666012e-08 -1.6509136e-07 -7.846408e-08 -2.946382e-08
-8.6192124e-08 -6.3427194e-08 -4.3326562e-08 -5.1870646e-08 -6.1732244e-08 9.23e-42 4.5598e-41 -2.9884e-41
5.5018e-41 -7.1483e-41 -5.2353e-41 -6.7373e-41 6.7681e-41 5.1154e-41 -3.8705746e-34 4.8889614e-34
-5.095425e-34 2.816721e-35 4.903204e-34 4.4664014e-34 3.04984e-34 -5.5081783e-34 4.5948366e-34 9.8139e-41
-4.7362e-41 9.8352e-41 -7.8138e-41 -8.0996e-41 8.4999e-41 -8.0165e-41 3.7242e-41 -9.1872e-41
-0.0067651113 -0.0045850244 -0.0032617901 -0.007430436 -0.003786434 -0.0027008113 -0.0008872123 0.0034124176
0.0028904208 -0.008718866 0.0012208717 0.0071700476 -0.00017189339 0.0022275865 -0.0055113463 0.0028896972
-0.00675644 -0.008387612 -0.0033100534 -0.0006434512 0.0025143786 -0.0011035298 0.0029816525 0.006089618
0.0003265371 0.003901496 0.0046571502 -0.009190259 0.006279751 0.016099194 0.01195019 0.0037973144
0.002729516 -0.009699483 -0.0032575426 0.0031153788 1.0226004e-08 -9.908927e-09 -1.4317426e-08 -5.693522e-09
1.48321835e-08 -1.0966457e-08 4.7284434e-09 8.020236e-09 -1.0901774e-08 -0.0060786675 -0.0023937656 -0.00345774
-0.00028521646 0.0016233189 -0.012589278 -0.0004714665 0.0005259364 0.0028927263 -0.0002157827 0.0022119288
0.012689752 0.0061942283 0.007923731 -0.007774247 -0.003531084 -0.005663081 -0.013592746 -0.003929787
0.006493987 0.0029265278 0.012614889 -0.004745355 0.001905058 -0.010539274 0.016978765 -0.0117481565
0.009000409 0.014566473 -0.020191953 0.0019198157 -0.007058903 -0.0061846073 -0.012763637 -0.017069917
2.3598232e-05 4.9886587e-13 5.113377e-13 4.9576266e-13 6.025217e-13 6.5458695e-13 4.647522e-13 4.846865e-13
6.457423e-13 6.2415774e-13 0.003042292 0.010275249 0.011724948 0.0016293369 0.008023383 0.008809538
-0.0014955598 0.0045095314 0.0058230446 -0.014603029 -0.010906564 -0.0051110946 -0.008868415 0.0017739569
0.0372063 0.010233882 -0.012816014 0.0023423187 -8.777773e-11 -8.021722e-11 -8.147704e-11 -7.556343e-11
00000000: 2c9c 8438 ed32 c039 5065 4abb 1cb2 943b
00000010: 53fd 5b3b 7a17 38ba fcec cb3b 213e b93b
00000020: 6560 0d3b 0580 ef3b caf0 303a 68ec 033b
00000030: bffc 943b e703 62ba 318f 4039 6d58 d33a
00000040: fffe 30bb b12d 99ba 71b8 290b debe e58a
00000050: 537a 1a8b 4c12 6e0b ea94 398b 8794 6e8b
00000060: b7f9 308b 859d 0d0b e1fb 160b b32e 1c3c
00000070: 992b c0b9 57f0 603c 8645 593b c4bf 193c
00000080: 99ea 4a3c 967c 13bb adc2 303c 423a 3c3c
00000090: a710 133c 7cad cb3b 91ef ed3a 5789 313c
000000a0: acbb 6ebb 2185 863b 74ec 62bc 274e 1dbc
000000b0: 9989 80bc dc1d 0fb3 f285 f835 d805 0436
000000c0: 99b6 f335 5945 f635 e11a 9c35 2735 57b6
000000d0: 1f83 0436 6176 40b7 c14b 5e3b 291c 283c
000000e0: 091a 243c 717a d43a 6c8c df3b dc20 0a3c
000000f0: 3990 013b a404 c53b b3af 1a3c a605 2600
00000100: 48d4 3100 bdc3 8a00 fc96 2100 2004 4f00
00000110: fb17 2b00 218f 1400 fe51 5600 1cec 1200
00000120: 7d58 b0bc 7e30 4b3c 4e8b b7bc 74d9 9abc
00000130: bff2 c13c d979 5cbc e44e 133c b4f0 89bc
00000140: 1d29 2a3c 50e9 543c f786 d1ba 912d f1bb
00000150: b7a8 cd3b 0b59 5bbc 2b99 7cbb 5d77 bbbb
00000160: c89a 11b9 f67a a5ba 8f77 78bb 40b4 173b
00000170: 85de 5d3c 3751 5bbb afb3 543a 5416 5f3c
00000180: 78d7 123a d844 093c a158 ca3c 5cd3 0000
00000190: d21b 0180 3ba4 0080 927a 0000 71fc 0000
000001a0: 5acc 0080 bb29 0080 6a4b 0000 c726 0100
000001b0: 2e0f e5b2 f843 31b4 1680 a8b3 a017 fdb2
000001c0: 9f18 b9b3 7835 88b3 0f16 3ab3 61c8 5eb3
000001d0: a991 84b3 bb19 0000 1c7f 0000 4e53 0080
000001e0: 5e99 0000 44c7 0080 f091 0080 cfbb 0080
000001f0: abbc 0000 998e 0000 359f 0088 af76 2208
00000200: 1553 2988 38c3 1506 d9ef 2208 f16b 1408
00000210: 57b2 ca07 660a 3788 8cb0 1808 9211 0100
00000220: 0784 0080 2a12 0100 d1d9 0080 c9e1 0080
00000230: f1ec 0000 78df 0080 d167 0000 1a00 0180
00000240: dead ddbb f93d 96bb c2c3 55bb 047b f3bb
00000250: d225 78bb 1800 31bb cf93 68ba dea2 5f3b
00000260: 376d 3d3b 93d9 0ebc a805 a03a b8f2 ea3b
00000270: 483e 34b9 b3fc 113b 8698 b4bb 1361 3d3b
00000280: 2065 ddbb 326c 09bc 7bed 58bb 47ad 28ba
00000290: 46c8 243b 51a4 90ba d467 433b 6b8b c73b
000002a0: 1133 ab39 3eb0 7f3b 029b 983b bd92 16bc
000002b0: 5fc6 cd3b 75e2 833c bbca 433c 5ddc 783b
000002c0: aee1 323b 95ea 1ebc 7f7c 55bb 622b 4c3b
000002d0: 71ae 2f32 ec3b 2ab2 b5f8 75b2 c0a0 c3b1
000002e0: a2d0 7e32 fd66 3cb2 d477 a231 5fc9 0932
000002f0: 824a 3bb2 8f2f c7bb b9e0 1cbb 409b 62bb
00000300: 1b89 95b9 8bc5 d43a 4243 4ebc 2a2f f7b9
00000310: ffde 093a e593 3d3b ba43 62b9 02f6 103b
00000320: ade8 4f3c f4f8 ca3b 89d2 013c 1cbf febb
00000330: c269 67bb 5e91 b9bb 1cb4 5ebc 71c5 80bb
00000340: 83cb d43b fdca 3f3b aeae 4e3c ec7e 9bbb
00000350: 24b3 f93a ebac 2cbc 0d17 8b3c 577b 40bc
00000360: 7476 133c 37a8 6e3c 9869 a5bc 53a2 fb3a
00000370: 5f4e e7bb 3fa8 cabb 931e 51bc 36d6 8bbc
00000380: d1f4 c537 136b 0c2b c4ed 0f2b 778b 0b2b
00000390: 4498 292b f63f 382b edd0 022b 586d 082b
000003a0: a3c2 352b 4eaf 2f2b 3161 473b 8559 283c
000003b0: ff19 403c 798f d53a 8274 033c e155 103c
000003c0: a906 c4ba b1c4 933b 3dcf be3b 8b41 6fbc
000003d0: 72b1 32bc f87a a7bb d44c 11bc 1e84 e83a
000003e0: a265 183d 03ac 273c 42fa 51bc 9681 193b
000003f0: 7806 c1ae 4866 b0ae 7f2b b3ae 6e2a a6ae

e_conv5.bias f4 [32]
0.021017475 -6.441226e-11 -0.00249667 0.03519491 -0.0018583516 0.006399246 0.04502124 0.028533738
0.017282857 -8.947356e-16 0.041966416 0.02876883 -4.7422374e-05 0.00071124936 0.026530173 0.033488613
0.0043543894 0.0031185462 -0.0012737717 0.007932871 0.02627337 0.029713431 0.010362397 -4.4133742e-08
0.020739175 -4.3702843e-07 0.024574714 0.009662783 0.045181207 -1.7337537e-09 -1.6715773e-23 -6.941718e-08
00000000: d72c ac3c e1a4 8dae 2c9f 23bb 8a28 103d
00000010: ef93 f3ba c4b0 d13b 3168 383d 96bf e93c
00000020: c794 8d3c ebf1 80a6 fae4 2b3d 9cac eb3c
00000030: 63e7 46b8 2373 3a3a ce55 d93c 5b2b 093d
00000040: 44af 8e3b 8660 4c3b b0f4 a6ba dff8 013c
00000050: 403b d73c 9569 f33c 0bc7 293c 908d 3db3
00000060: 34e5 a93c bba0 eab4 e950 c93c a650 1e3c
00000070: ee0f 393d 0949 eeb0 40aa a199 8012 95b3

e_conv7.weight f4 [8, 64, 3, 3]
-2.6216034e-05 -0.00085812097 -0.0047817943 0.007312111 0.0063743293 0.0031064139 0.010084824 0.009017951
0.004963151 0.0018945801 0.00046580183 0.00417009 0.0031686372 0.0015064401 0.0060249167 0.008799462
0.009457593 0.013917957 -1.10557e-40 5.5623e-41 -2.2918e-41 1.35826e-40 2.6777e-41 -1.03489e-40
-4.2897e-41 3.129e-42 1.9006e-41 2.0858e-41 -1.41924e-40 -5.9969e-41 -1.31089e-40 1.31007e-40
9.9454e-41 5.8073e-41 3.1999e-41 -6.9242e-41 -0.0004740888 -0.003549854 -0.0055554146 0.0046396437
0.0010073135 -0.0016286722 0.0054148072 0.0016178683 -0.001328575 -0.010329241 -0.0073478906 -0.0064568976
-0.0008523642 0.0021859615 0.0027290066 0.005661473 0.009023585 0.008981252 0.0037400227 0.0025201126
0.005235873 0.0040095192 0.0030612932 0.006351662 0.0051762755 0.004646542 0.007645367 -0.013539191
-0.025266606 -0.038144194 0.0062877275 -0.0061099213 -0.0205183 0.016212441 -0.0021263408 -0.01714031
-1.4136e-41 -3.5702e-41 4.6778e-41 -4.7089e-41 -1.2572e-41 -6.4587e-41 2.2674e-41 5.938e-41
1.4356e-41 -4.9268e-41 5.7605e-41 -4.6656e-41 -1.60624e-40 1.977e-41 -1.90033e-40 -9.3216e-41
1.76565e-40 -3.485e-41 0.00040275764 -0.0030139426 -0.000933469 0.0012497624 -0.002200923 3.0042675e-06
0.00047002433 -0.0028481784 -0.00063220656 -0.0072765592 -0.0048290878 -0.0088883415 -0.0027903186 0.00016099964
-0.004908196 -0.0033793545 -0.001307817 -0.0057718223 -0.0009101462 0.010831267 0.0018974253 -0.001846492
0.0097011095 0.000804962 -0.0064356043 0.0051263412 -0.003956701 -0.017393267 -0.021903982 -0.008075655
-0.0155052645 -0.020899178 -0.0070441947 -0.0008450862 -0.0062171686 0.008716827 -0.0022966512 0.00087504287
0.000616623 -0.0011234434 0.002313247 0.002771008 0.0016538593 0.005389267 0.0054319194 -0.0033409952
-0.0039798664 -0.0032147355 0.0009778403 0.00075958145 0.0012994129 0.002270789 0.002418489 0.003411644
-1.20715e-40 8.7084e-41 -1.94451e-40 2.3236e-41 9.916e-41 3.6182e-41 1.49659e-40 -7.3256e-41
1.03933e-40 0.0027527646 0.043351024 0.0044132657 0.03381062 0.07521958 0.036552336 -0.008304377
0.032173846 -0.0057804524 9.5169e-41 9.405e-41 9.9197e-41 1.97083e-40 7.7265e-41 -1.7958e-40
1.3371e-41 -7.126e-42 -5.7051e-41 -0.009272638 -0.0028938686 -0.007912723 -0.007311973 -0.0015276932
-0.008176354 -0.013921549 -0.009562997 -0.015574238 -0.0035035657 0.0032247817 0.00033463788 0.002473532
0.009009673 0.0062311343 -0.0050363783 0.0016071273 -0.0012981707 -1.49712e-40 1.51032e-40 1.7784e-41
-1.09149e-40 4.935e-41 -7.2493e-41 7.9033e-41 9.7626e-41 2.8678e-41 -0.0031387378 -0.0018590172
-0.00553307 0.0027413883 0.0039711595 0.00021819763 0.0023525266 0.0035666835 1.3350364e-05 9.5417e-41
-5.6287e-41 -3.9256e-41 -9.9411e-41 4.093e-42 -4.4801e-41 -7.5047e-41 -1.56528e-40 9.2725e-41
4.9927642e-33 2.530276e-32 -1.8587695e-32 -2.6120963e-32 6.0279086e-32 -1.679208e-33 5.199884e-32 -8.269054e-32
3.9698986e-32 0.0046663433 0.006647844 0.0015333933 0.0002439855 0.0028234941 -0.0011058174 -0.0013328715
0.0014650031 -0.0025788299 0.005575356 0.0019348091 0.045424934 -0.03940902 -0.042496935 -0.004177047
-0.034051504 -0.03415282 0.005296864 0.0030348809 0.0016107919 0.001077884 0.008836457 0.0076583535
0.008604338 0.008107247 0.007615512 0.008926262 -0.021167716 0.021830147 -0.019314162 0.018382538
00000000: 81ea dbb7 86f3 60ba 99b0 9cbb 6f9a ef3b
00000010: c0df d03b fa94 4b3b d13a 253c 07c0 133c
00000020: eea1 a23b 8f53 f83a dd36 f439 40a5 883b
00000030: e9a8 4f3b be73 c53a aa6c c53b 9e2b 103c
00000040: 05f4 1a3c 2508 643c 3034 0180 0e9b 0000
00000050: e33f 0080 a17a 0100 a54a 0000 7c20 0180
00000060: 9477 0080 b908 0000 fb34 0000 253a 0000
00000070: a08b 0180 2ba7 0080 6c6d 0180 326d 0100
00000080: 3d15 0100 e2a1 0000 3359 0000 05c1 0080
00000090: 1f8f f8b9 aba4 68bb 320a b6bb 2708 983b
000000a0: d507 843a 2c79 d5ba b26e b13b a70e d43a
000000b0: 9423 aeba fa3b 29bc 93c6 f0bb 6294 d3bb
000000c0: 3171 5fba 5942 0f3b 22d9 323b e183 b93b
000000d0: a9d7 133c 1a26 133c 2b1b 753b 7928 253b
000000e0: b091 ab3b 4962 833b fa9f 483b 9a21 d03b
000000f0: bf9d a93b 0542 983b fd85 fa3b 7cd3 5dbc
00000100: eafb cebc 163d 1cbd 4809 ce3b bc35 c8bb
00000110: fe15 a8bc f4cf 843c 145a 0bbb d669 8cbc
00000120: 6827 0080 8663 0080 6682 0000 4483 0080
00000130: 0c23 0080 0bb4 0080 353f 0000 87a5 0000
00000140: 0528 0000 5789 0080 94a0 0000 0f82 0080
00000150: c1bf 0180 1c37 0000 bc11 0280 d903 0180
00000160: 31ec 0100 2661 0080 3729 d339 9185 45bb
00000170: 0bb4 74ba 11cf a33a 5c3d 10bb ec9c 4936
00000180: 996d f639 81a8 3abb aaba 25ba 3470 eebb
00000190: 533d 9ebb 68a0 11bc c7dd 36bb 03d2 2839
000001a0: efd4 a0bb 2978 5dbb 0e6b abba 8e21 bdbb
000001b0: e196 6eba a075 313c 07b3 f83a fe05 f2ba
000001c0: 67f1 1e3c 1604 533a c3e1 d2bb defa a73b
000001d0: 37a7 81bb 537c 8ebc fb6f b3bc c14f 04bc
000001e0: cb09 7ebc c134 abbc fdd2 e6bb c688 5dba
000001f0: 64b9 cbbb 06d1 0e3c 6a83 16bb 2263 653a
00000200: dea4 213a 8140 93ba d899 173b cd99 353b
00000210: 4fc6 d83a 7398 b03b 3efe b13b 99f4 5abb
00000220: 8a69 82bb 50ae 52bb e02a 803a a61e 473a
00000230: 1051 aa3a 84d1 143b 837f 1e3b e395 5f3b
00000240: 8150 0180 c1f2 0000 0d1e 0280 c640 0000
00000250: 6b14 0100 dc64 0000 30a1 0100 35cc 0080
00000260: b921 0100 ba67 343b d890 313d 289d 903b
00000270: 017d 0a3d b90c 9a3d e7b7 153d 150f 08bc
00000280: b9c8 033d f369 bdbb 4b09 0100 2c06 0100
00000290: 8514 0100 6325 0200 62d7 0000 99f4 0180
000002a0: 4625 0000 dd13 0080 099f 0080 43ec 17bc
000002b0: 0fa7 3dbb 5ea4 01bc 4699 efbb e13c c8ba
000002c0: 1df6 05bc 3517 64bc 1eae 1cbc 172b 7fbc
000002d0: 149c 65bb dc56 533b 5672 af39 fb1a 223b
000002e0: 4f9d 133c 8b2e cc3b 3408 a5bb 3ea6 d23a
000002f0: 6127 aaba 56a1 0180 04a5 0100 9331 0000
00000300: 4330 0180 9189 0000 15ca 0080 50dc 0000
00000310: 2410 0100 f14f 0000 48b3 4dbb 44aa f3ba
00000320: c14e b5bb dda8 333b 8020 823b fbcb 6439
00000330: d92c 1a3b 05bf 693b 60fb 5f37 fc09 0100
00000340: e89c 0080 6e6d 0080 1e15 0180 690b 0000
00000350: e37c 0080 33d1 0080 56b4 0180 7b02 0100
00000360: 2d64 cf09 2361 030b 9206 c18a b7a0 078b
00000370: 537e 9c0b ce80 0b89 28ff 860b 4aad d68b
00000380: 0121 4e0b 20e8 983b 28d6 d93b 24fc c83a
00000390: 5cd6 7f39 5f0a 393b 13f1 90ba bfb3 aeba
000003a0: 5905 c03a 9601 29bb 7ab1 b63b 6c99 fd3a
000003b0: 7f0f 3a3d 5a6b 21bd 4411 2ebd 9cdf 88bb
000003c0: 9779 0bbd d4e3 0bbd 5191 ad3b dae4 463b
000003d0: 3521 d33a c947 8d3a c9c6 103c edf2 fa3b
000003e0: 36f9 0c3c 42d4 043c 8b8b f93b 753f 123c
000003f0: eb67 adbc 23d5 b23c bc38 9ebc fa96 963c

e_conv7.bias f4 [8]
0.023351084 0.011806035 0.05484361 0.03796015 0.018622862 0.026595997 0.014968141 0.005194047
00000000: c64a bf3c 1a6e 413c b1a3 603d 1a7c 1b3d
00000010: f98e 983c d9df d93c ef3c 753c d332 aa3b

e_conv8.weight f4 [8, 64, 3, 3]
0.04564894 0.037490528 0.0024026716 -0.019287255 0.00059294526 0.009809592 0.0053864387 0.010969421
-0.027627787 -0.015120561 0.0066681956 -0.009127006 0.012538083 0.029113306 0.01903347 -0.020180555
0.008889151 0.014033439 2.378e-41 1.5858e-41 -2.867e-42 4.8074e-41 -1.7803e-41 -1.2022e-41
6.213e-42 1.85e-43 -5.7251e-41 7.0045e-41 -7.7375e-41 -6.6141e-41 -2.572e-41 -7.5628e-41
2.242e-41 -6.4869e-41 4.581e-42 2.1779e-41 -0.0033962862 0.011148597 -0.0053639906 -0.03298191
0.003061553 0.036718234 -0.026840277 0.016543105 0.01669095 -0.0018189655 0.022932544 0.036986437
0.05562242 -0.009491825 0.016519198 -0.012428121 0.030418536 0.023763962 0.021419024 0.012076529
-0.0069824425 0.014475329 0.009478667 -0.02847219 0.012148274 0.035809368 -0.035858512 0.007459453
0.002315505 0.0035697538 -0.008443118 0.0030722374 -0.0047184504 -0.0016257399 -0.0027703422 -0.00012144809
-5.5005e-41 -1.2198e-41 -8.9424e-41 1.9167e-41 -2.8354e-41 -1.4492e-41 -2.681e-41 -6.3172e-41
-1.0177e-40 6.031e-42 -5.2931e-41 3.319e-41 -7.0054e-41 1.0145e-41 -6.6207e-41 -3.2952e-41
-6.9838e-41 -4.92e-41 0.0009517619 0.008443929 0.0014910767 0.0069929343 0.017139856 0.007855731
-0.0006007761 0.0028904253 -0.0026458693 0.0050578006 -0.014147896 0.012309725 0.017045824 -0.010783981
-0.0005685443 0.023482954 0.0059894873 0.021532394 -0.0020460049 0.0012563807 -0.00278871 0.004113817
0.011353796 0.0046103965 -0.0019552803 -0.0038253777 -0.0044460753 -0.0006597281 0.005035353 0.0021513845
-0.0044934074 0.006125602 0.0010490164 -0.0060180733 0.002171424 -0.0057806578 0.027736263 0.010489678
-0.0022398112 -0.0074011013 -0.0141998995 0.011961094 -0.016772365 0.007908148 0.010052805 0.05172747
0.025041735 0.009121573 0.0374792 0.022365043 0.0021251384 -0.0210476 -0.016035141 -0.00045558784
3.3407e-41 8.1617e-41 -8.6285e-41 -6.55e-41 2.4062e-41 -7.6027e-41 1.02518e-40 -1.05e-41
-1.09122e-40 0.0011770474 0.0014301576 -0.0129356785 0.0049872557 -0.0023700057 0.0070137973 -0.0018613233
0.011943971 -0.0061093406 -7.0852e-41 3.3019e-41 1.22118e-40 4.034e-41 -5.0138e-41 -8.3688e-41
5.8758e-41 7.928e-41 -1.2064e-41 -0.000106823216 0.011541644 -0.007700181 -0.0034503585 0.024918355
-0.0025790208 -0.013770266 -0.009652028 0.021818139 -0.00083999557 -0.004727301 -0.0004972607 -0.0012769366
-0.0038971982 -0.0008550756 0.002721087 -0.0027035226 0.0025913613 -4.5014e-41 -2.4409e-41 -3.3725e-41
-4.3964e-41 5.642e-42 -5.9758e-41 -6.8092e-41 -1.25e-42 5.9233e-41 -0.0066159405 0.024419127
-0.007090082 0.011904701 0.04821902 0.00816151 0.0012512294 0.033941753 0.00028813066 1.8358e-41
6.7515e-41 5.0492e-41 -6.0196e-41 -5.1376e-41 3.3952e-41 2.242e-42 -6.204e-42 1.874e-42
-6.711891e-07 -6.9856776e-07 -6.915151e-07 -6.903158e-07 -7.2219365e-07 -6.951278e-07 -6.908353e-07 -6.730943e-07
-6.93514e-07 -0.023695149 -0.009823983 0.018148033 0.003363049 0.0063536493 0.005281331 -0.0071336785
0.010894192 0.027735861 -0.002233632 0.0049160076 -0.0028510536 0.0015062762 0.0064893477 -0.002246496
-0.0005947925 0.003749143 -0.0037748364 -0.027188929 0.0017902972 -0.014770554 0.01633665 -0.009541237
-0.0029135663 0.00824847 0.031183561 -0.017232923 -0.0017951062 0.011254177 -0.004730817 0.012807666
00000000: 62fa 3a3d ab8f 193d 2476 1d3b 4e00 9ebc
00000010: e26f 1b3a 69b8 203c b980 b03b 16b9 333c
00000020: ab53 e2bc 3bbc 77bc e180 da3b 7089 15bc
00000030: 886c 4d3c 077f ee3c 14ec 9b3c b151 a5bc
00000040: cda3 113c 82ec 653c 4a42 0000 352c 0000
00000050: fe07 0080 0386 0000 a131 0080 8321 0080
00000060: 5211 0000 8400 0000 989f 0080 42c3 0000
00000070: b1d7 0080 60b8 0080 b247 0080 d2d2 0080
00000080: 7f3e 0000 d4b4 0080 c50c 0000 b63c 0000
00000090: 3a94 5ebb 9ba8 363c 6ac4 afbb 0a18 07bd
000000a0: 56a4 483b dc65 163d 24e0 dbbc 6885 873c
000000b0: 76bb 883c 5b6a eeba 08dd bb3c 177f 173d
000000c0: 56d4 633d 9983 1bbc 4553 873c 519f 4bbc
000000d0: 4b30 f93c a4ac c23c f376 af3c a2dc 453c
000000e0: f9cc e4bb ee29 6d3c 694c 1b3c 833e e9bc
000000f0: 8e09 473c d8ac 123d 60e0 12bd 6d6e f43b
00000100: babf 173b 88f2 693b 0155 0abc 9757 493b
00000110: 3b9d 9abb c716 d5ba a18e 35bb f2b1 feb8
00000120: 5599 0080 0122 0080 47f9 0080 6e35 0000
00000130: 0a4f 0080 6628 0080 bc4a 0080 19b0 0080
00000140: b11b 0180 d010 0000 8d93 0080 855c 0000
00000150: 48c3 0080 481c 0000 8fb8 0080 db5b 0080
00000160: aec2 0080 2689 0080 a97f 793a 6858 0a3c
00000170: 3b70 c33a fc24 e53b e268 8c3c 53b5 003c
00000180: 677d 1dba 4a6d 3d3b 5266 2dbb e8bb a53b
00000190: 94cc 67bc bbae 493c afa3 8b3c 4baf 30bc
000001a0: 5d0a 15ba 535f c03c 7643 c43b b464 b03c
000001b0: 4416 06bb 24ad a43a cac2 36bb 33cd 863b
000001c0: 4605 3a3c cf12 973b 2924 00bb 30b3 7abb
000001d0: 62b0 91bb 9af1 2cba 9aff a43b 3efe 0c3b
000001e0: 6f3d 93bb 46b9 c83b 267f 893a 4233 c5bb
000001f0: 734e 0e3b ac6b bdbb 2937 e33c e6dc 2b3c
00000200: ccc9 12bb f084 f2bb b2a6 68bc 77f8 433c
00000210: 3366 89bc 2d91 013c 85b4 243c 2fe0 533d
00000220: 5324 cd3c a672 153c ca83 193d e536 b73c
00000230: e845 0b3b 046c acbc 215c 83bc f7db eeb9
00000240: 205d 0000 84e3 0000 87f0 0080 96b6 0080
00000250: 1343 0000 efd3 0080 c71d 0100 451d 0080
00000260: 3030 0180 2847 9a3a 2074 bb3a 2bf0 53bc
00000270: 226c a33b 1952 1bbb ffd3 e53b a5f7 f3ba
00000280: a5b0 433c dd30 c8bb 82c5 0080 0b5c 0000
00000290: 6a54 0100 7470 0000 c48b 0080 4ae9 0080
000002a0: cba3 0000 00dd 0000 a121 0080 4706 e0b8
000002b0: 2a19 3d3c cd51 fcbb 691f 62bb 9421 cc3c
000002c0: ca04 29bb af9c 61bc 8a23 1ebc f4bb b23c
000002d0: 2633 5cba 7ae7 9abb 9a5a 02ba e25e a7ba
000002e0: 2368 7fbb 2727 60ba 4454 323b 952d 31bb
000002f0: d4d3 293b 7b7d 0080 0b44 0080 035e 0080
00000300: 8e7a 0080 ba0f 0000 95a6 0080 d0bd 0080
00000310: 7c03 0080 1ea5 0000 88ca d8bb 9f0a c83c
00000320: eb53 e8bb ef0b 433c 4f81 453d dbb7 053c
00000330: 4b00 a43a 8206 0b3d 3e10 9739 2d33 0000
00000340: 34bc 0000 c08c 0000 cda7 0080 378f 0080
00000350: a55e 0000 4006 0000 4b11 0080 3905 0000
00000360: c42b 34b5 3685 3bb5 8ea0 39b5 244e 39b5
00000370: c5dc 41b5 d298 3ab5 d771 39b5 b0ae 34b5
00000380: eb29 3ab5 541c c2bc c5f4 20bc 2fab 943c
00000390: 9966 5c3b 4632 d03b 040f ad3b a2c1 e9bb
000003a0: 8e7d 323c 5136 e33c 2062 12bb 7616 a13b
000003b0: bed8 3abb 3e6e c53a 98a4 d43b f339 13bb
000003c0: d9eb 1bba 2fb4 753b 3f63 77bb 51bb debc
000003d0: 68a8 ea3a 3200 72bc 70d4 853c d952 1cbc
000003e0: 88f1 3ebb 9724 073c ab74 ff3c 0f2c 8dbc
000003f0: c549 ebba 7163 383c f804 9bbb 3fd7 513c

e_conv8.bias f4 [8]
-0.02811632 -0.002929132 0.0012356361 -0.0074193226 0.030123321 0.005764491 -0.0077002803 0.01797293
00000000: 3254 e6bc aef6 3fbb 11f5 a13a ca1d f3bb
00000010: 2fc5 f63c 0ee4 bc3b a252 fcbb f73b 933c
