snapshots/Epoch171.pth (torch, 304045 bytes, 14 tensors)

e_conv1.weight f4 [32, 3, 3, 3]
00000000: b0c5 9da9 4e40 9ea9 2e3e 9ea9 a058 9da9
00000010: 51a6 9da9 e387 9da9 fc34 9ca9 a000 9ca9
00000020: e34d 9ca9 5653 8fa9 4d93 8fa9 95ee 8fa9
00000030: 8650 8fa9 1dc1 8fa9 1212 90a9 e3f4 8ea9
00000040: 7b71 8fa9 f07d 8fa9 b9da 71a9 f8b9 72a9
00000050: 98c5 72a9 590d 72a9 aef5 72a9 1c28 73a9
00000060: dbd1 71a9 36c1 72a9 54cb 72a9 3ed6 353c
00000070: 72a1 b23b 9112 603b 55b3 c83c e8fc 8b3c
00000080: 097a e93c 41c0 653d adbb 343d 35a3 853d
00000090: e09a b23b 8afc 08bc d001 483c 05d6 123c
000000a0: b02e dd3b a9ca 953c 4cb6 363d f05e 1d3d
000000b0: bdc7 4c3d 54c3 71bc 96c2 a5bc fba5 c9bc
000000c0: e86b 37bc 1b48 92bc 15e0 4dbc d423 a93b
000000d0: 85da 7eba 9cd3 cc3c b75a adbc ee9a 22bd
000000e0: b0f2 f8bc e0fa 2dbc 870e f8bc 5c29 f3bc
000000f0: dc7a 463b 108d 7cbc 68ad a8bc 9dde b83b
00000100: 1708 b43b 8e97 3b3b 4fc1 483c 7e1c fe3b
00000110: 54e8 9d3b 1e2e 333d d082 b13c ea0d 89ba
00000120: aa02 333d 2c43 263d ed49 223d 5ab9 543d
00000130: 2002 1e3d c23f 353d f88f 7c3d 3c92 253d
00000140: cccc 1f3d 5e68 98bc f904 133b e15c 843c
00000150: 42bd 0bbd 2f9b 4abc 7f6d 483c e926 1fbd
00000160: 3288 66bc cedf f23c b97c f5bc 88ed 51ba
00000170: e940 843c 3d4e eabc 8059 30bc 6cfd 503c
00000180: 33c8 2fbd 6c9f 6cbb fc05 f03c 511f 0abc
00000190: 7e2e 553b d10c 323c 5193 7bbc 296a 1e3b
000001a0: 7ee1 363c 2f23 f4bc c301 09ba 65a5 fa3c
000001b0: 8186 1a3d e184 1e3d 5f50 bb3d f3bf ef3b
000001c0: 83c3 fb3b f5fa 563d 59e8 37bb aad7 573b
000001d0: d4b9 453d 187c fb3c 3649 013d fe66 a53d
000001e0: 24cc 05ba f539 f5b9 fec9 243d e5da 15bc
000001f0: 29fc 883a 697f 2e3d 8845 703c a4ee 373c
00000200: 77d8 553d 70c9 44bc f1fb 47bc a1bd a63c
00000210: 76ce b8bc 9798 65bc d77d a03c e5c7 24b2
00000220: d5d1 23b2 c52a 20b2 66e7 24b2 5429 24b2
00000230: 8c3b 21b2 4ce4 22b2 3704 23b2 1a53 22b2
00000240: a8bd 15b2 2546 13b2 851f 10b2 1298 16b2
00000250: 9ef3 15b2 4dc0 13b2 cd14 14b2 801d 15b2
00000260: ec55 14b2 9109 87b1 c46f 88b1 b86b 8eb1
00000270: e867 8cb1 9a8d 90b1 7dfb 96b1 4a65 8cb1
00000280: 16b7 93b1 4296 a0b1 a2a9 9a3d 7d70 d83c
00000290: 892e c4bc 4e20 5d3d 4553 963c 47b9 09bd
000002a0: 88cc 383d ddc1 9139 05c1 4cbd d5ff 803d
000002b0: 200c b93c 38cf 22bd 43fe 2a3d 4722 0e3c
000002c0: 981d 01bd 1b2f f43c 9581 b4bc 251d 8ebd
000002d0: bd99 0d3d 6914 24ba 7708 00bd e1ec b23c
000002e0: 1e81 ee3a e7d4 dcbc 087c d93c 3571 95bc
000002f0: a07a 7cbd e2b9 70b4 cce9 77b4 36b3 84b4
00000300: 456e 71b4 8a73 7ab4 5ba9 83b4 cd42 75b4
00000310: d50f 7ab4 02ce 84b4 2562 79b4 d5c2 7eb4
00000320: 37d9 87b4 a5d7 72b4 0b2e 79b4 996a 82b4
00000330: 7407 6eb4 6f6c 6fb4 3143 7db4 b138 c9b3
00000340: 86a9 ceb3 21de deb3 31dc c4b3 d404 cbb3
00000350: 463c d6b3 544c bfb3 c53b c0b3 57f9 ccb3
00000360: efa1 07b0 5022 f4af 978c e3af 9898 17b0
00000370: 8c2f 0ab0 4f5a f7af 2b87 33b0 8835 1bb0
00000380: 40a5 0fb0 2449 e1ae dfef beae 84e5 a9ae
00000390: 89ea dfae bb71 bfae 752d a3ae 4e50 feae
000003a0: a0b5 cdae 06d6 b4ae 7455 1bae c726 08ae
000003b0: 5437 e6ad b8c9 13ae a444 02ae d982 cdad
000003c0: 9f18 14ae 13ad f3ad 4e60 d0ad 84fa 89bd
000003d0: 87bf 24bd 1569 82bd e195 03bd bb0a 8cbc
000003e0: fd06 9dbc dee2 e2bb a10d 8e3c 3dc8 7d3c
000003f0: 6dac 6ebd c3bb c9bc 3c85 3cbd 2028 9abc
-7.006494e-14 -7.0277646e-14 -7.027396e-14 -6.9875746e-14 -7.001052e-14 -6.995773e-14 -6.936983e-14 -6.9279e-14
-6.941303e-14 -6.364932e-14 -6.376028e-14 -6.391863e-14 -6.364444e-14 -6.3839755e-14 -6.398019e-14 -6.348548e-14
-6.3701614e-14 -6.3723224e-14 -5.370246e-14 -5.3896097e-14 -5.390618e-14 -5.374637e-14 -5.3947888e-14 -5.399163e-14
-5.369477e-14 -5.3902378e-14 -5.3911153e-14 0.011098443 0.0054513747 0.0034190754 0.024499575 0.017088369
0.028500574 0.05609155 0.044124294 0.0652527 0.0054505914 -0.008360991 0.012207463 0.008962159
0.0067499503 0.018285112 0.044607446 0.038420618 0.049995173 -0.0147560425 -0.020234387 -0.024615278
-0.01119516 -0.017856648 -0.012565632 0.0051617417 -0.0009721893 0.025003247 -0.02116142 -0.039698534
-0.03038916 -0.010618895 -0.030280365 -0.029682808 0.0030285632 -0.015414491 -0.020590499 0.005641772
0.0054941284 0.002862427 0.01225312 0.0077548614 0.0048189554 0.043745153 0.021668822 -0.0010456417
0.043703713 0.040591404 0.039621282 0.051934578 0.038576245 0.044250257 0.061660737 0.040422663
0.03901367 -0.018604454 0.0022433384 0.01615757 -0.034116037 -0.0123661 0.012233137 -0.038855467
-0.014070557 0.029647734 -0.029966699 -0.0008008112 0.016144233 -0.02860176 -0.010763526 0.012755733
-0.042915534 -0.0036105765 0.029299729 -0.008430318 0.0032528932 0.0108673135 -0.015354947 0.0024172163
0.01116216 -0.029801933 -0.0005226398 0.030596444 0.03772593 0.038700942 0.09146189 0.0073165833
0.007683219 0.052485425 -0.0028062074 0.0032934942 0.048272923 0.030698821 0.03156396 0.08076285
-0.00051039667 -0.00046773223 0.040231697 -0.009146427 0.0010451126 0.042601977 0.014665015 0.01122633
0.05220839 -0.012010917 -0.012206064 0.020354094 -0.022559386 -0.014013431 0.019591255 -9.591507e-09
-9.535559e-09 -9.32295e-09 -9.59867e-09 -9.555453e-09 -9.384973e-09 -9.48155e-09 -9.488807e-09 -9.448536e-09
-8.716064e-09 -8.572475e-09 -8.38907e-09 -8.765726e-09 -8.728334e-09 -8.60025e-09 -8.619463e-09 -8.679649e-09
-8.63427e-09 -3.9301047e-09 -3.9708272e-09 -4.14499e-09 -4.086349e-09 -4.20705e-09 -4.3941655e-09 -4.0860515e-09
-4.2990775e-09 -4.673695e-09 0.07551886 0.026420826 -0.023947971 0.053985886 0.018350253 -0.03362396
0.04511693 0.00027800995 -0.049988765 0.06298796 0.02258879 -0.0397484 0.04174639 0.008675165
-0.031522363 0.029807618 -0.022034446 -0.06939153 0.034570444 -0.0006259145 -0.031258073 0.021841468
0.0018196439 -0.026956988 0.0265484 -0.018242458 -0.06164038 -2.2419366e-07 -2.3088722e-07 -2.471731e-07
-2.248499e-07 -2.3325097e-07 -2.4523874e-07 -2.2841705e-07 -2.3288824e-07 -2.4736806e-07 -2.3225637e-07 -2.3726473e-07
-2.5303754e-07 -2.2616457e-07 -2.3206682e-07 -2.4291947e-07 -2.2168189e-07 -2.2298057e-07 -2.3586905e-07 -9.370104e-08
-9.623459e-08 -1.03780856e-07 -9.167014e-08 -9.4538024e-08 -9.976115e-08 -8.9080146e-08 -8.951569e-08 -9.544845e-08
-4.9342835e-10 -4.4407722e-10 -4.1390955e-10 -5.515033e-10 -5.0271676e-10 -4.4993206e-10 -6.5311906e-10 -5.6464744e-10
-5.225793e-10 -1.0244808e-10 -8.682809e-11 -7.7260004e-11 -1.0182528e-10 -8.705877e-11 -7.4204566e-11 -1.1564848e-10
-9.354584e-11 -8.2234705e-11 -3.5318817e-11 -3.095726e-11 -2.6172543e-11 -3.3603093e-11 -2.9619543e-11 -2.336391e-11
-3.3673172e-11 -2.7702762e-11 -2.368963e-11 -0.06737235 -0.040221717 -0.06367699 -0.032125358 -0.01709496
-0.019168371 -0.0069240173 0.017340483 0.015489635 -0.058269907 -0.024625665 -0.0460255 -0.018817961

e_conv1.bias f4 [32]
00000000: 1782 b1a9 1170 7f3d 89b6 ac3c 7783 e53d
00000010: c075 613d 2622 75b3 6442 993d 2b92 2ab8
00000020: 36bc cab5 cac2 a83d 1bde 8190 c42b 3e9b
00000030: 7d6c 503c f18b 863d efe5 27ba 9a97 133e
00000040: 813f ef3d 0893 c43d cadd 333e f347 1f3e
00000050: 17d6 91a0 630b 0f3e 4527 54bc 1efc ee3d
00000060: e2dc baac 01c2 a3ad b6c8 d73c 4666 a29a
00000070: 7738 089f e5d6 cdbc 722d cb3d 51a1 a1b4
-7.882946e-14 0.062362734 0.021083133 0.112067156 0.055043936 -5.7074566e-08 0.07483366 -4.0667288e-05
-1.5104949e-06 0.08240278 -5.1223736e-29 -1.5730573e-22 0.012721178 0.065696605 -0.0006404807 0.144133
0.11682034 0.095983565 0.17565075 0.1555479 -2.4705628e-19 0.13969187 -0.012948816 0.11669181
-5.310961e-12 -1.861711e-11 0.026340824 -6.716686e-23 -2.8845827e-20 -0.025126884 0.099207774 -3.010596e-07

e_conv2.weight f4 [32, 32, 3, 3]
00000000: 9dbd 8127 acc2 5027 5a07 6427 c763 8327
00000010: 9078 7627 6174 6d27 e272 8827 b970 8127
00000020: 4634 7227 05b0 8b3b 3ff4 b0bb daa4 f53a
00000030: 3fc3 3dba 3dd6 d8b9 af3f 3fbb 87a0 db3b
00000040: a4b2 343c 1fff 753a 8b73 4bbb 47b6 75bb
00000050: 2763 7abb f6ca fbb9 c364 38bb 076e 76bb
00000060: d7f9 b33a f798 2a39 0d97 cab8 867f a2bb
00000070: 7842 a33b a61f 093c b7dc 83bb af9a 06ba
00000080: 780d 423a 0ee2 00bc 1fbb c03a a0c0 913b
00000090: 3233 3cba 7fa5 d5ba 9520 e8ba 4a7d 5b3b
000000a0: 3848 ddbb 18cc e73a bbf2 9a3b 28d8 00bc
000000b0: e221 9cbb 4224 68ae e90c a6ae c946 bfae
000000c0: b4dd b1ae 5b2d d4ae 4db9 b9ae 017c b0ae
000000d0: 3dc2 dcae f26a d6ae 8065 693b 121f 7d3b
000000e0: 2a65 e639 dc85 7e3b 3148 903b 60f1 a73a
000000f0: fed0 9c3b 8259 913b 54bb 253b 4ba0 0000
00000100: 3ac2 0080 9bff 0080 77e0 0000 9207 0180
00000110: ad0a 0180 9a33 0000 52a1 0080 6c93 0080
00000120: 8772 0000 8e78 0080 62db 0080 c41d 0080
00000130: 6244 0000 a9e2 0080 425d 0080 0150 0000
00000140: a10f 0000 fa33 c33a 2926 633a 2bf8 293b
00000150: 6e99 a6b8 98d9 89b9 706c 9b3a 89a8 0b3b
00000160: e9f9 d63a ae6a 013b 0d69 a38d c382 570d
00000170: dc54 3c8d e1c2 a88d f4c2 910c a926 870c
00000180: 11b3 368d ae14 858d 5a84 768d d30c 0000
00000190: d05f 0000 6757 0180 cd36 0100 635c 0080
000001a0: e00e 0100 f954 0180 aac5 0080 2eaa 0080
000001b0: 0851 9439 1271 ca39 5dd1 78b9 7576 9f3a
000001c0: 32d6 833a a16d c839 6a8f 2b3b 77cc 223b
000001d0: 0878 dd3a 12f8 6b3a 621d e13a 05e4 9f3a
000001e0: 09d5 673a b8e3 e03a 069b a13a ada8 883a
000001f0: fd76 053b b965 da3a 707e fc29 c51f c529
00000200: 9139 d629 a145 112a 9824 292a bb8a ea29
00000210: f153 05aa 441a 0c2a b795 132a fa58 4e3b
00000220: 58e0 d13b 5ee4 1d3b dd3e e23b 2b92 023c
00000230: 4775 d33b a39b feb9 eefd f0bb 7b57 26bb
00000240: ece2 40bb 0f19 5ebb 7661 80b9 0f66 9bbb
00000250: d22e bc3b 5fdb c73b 04c8 f5bb 5040 033b
00000260: 0549 d83a 01a7 393b 63f6 ba3a d090 ec3a
00000270: f5fd 983a 6a89 323b 602c 0d3b f611 d73a
00000280: d7e3 403b 4efb 273b e8f7 a83a 4359 0fbc
00000290: 49d2 c1bb e224 52b9 0b6f c63a f429 133c
000002a0: 98b9 77bc c259 143c 2943 8b3c 1fbc ea3b
000002b0: bfd4 023c 8119 403b 7ac6 473b 540c 973b
000002c0: ccfa 103b 2fd0 c1ba 01b3 0d3a 1dc0 263c
000002d0: bc37 e89e 36cc 099f 9b92 059f bdbf 129f
000002e0: a2a1 049f 9b23 0f9f 787d 0f9f 1dd2 0f9f
000002f0: 5838 129f 22e7 e0bb f03f f63b f2cd 1a3c
00000300: ba61 debb 1715 ac3c 28f8 683c 7bac da3b
00000310: f8f3 673c cbc5 143c 4c51 063a d1fb 7238
00000320: 9ad4 f8ba 53b3 8a39 6577 bc39 60d9 8fba
00000330: da5d 0eba 56f4 823a 7a17 acba 2b5c 8d3b
00000340: e7e9 8c3b 1428 b33b 1bf4 613b 8ae5 ab3b
00000350: 2d8d 273b b58b 62bb 6a9c b43b 5d58 993a
00000360: 34f8 0e06 77d9 9086 c74d 8086 4943 3686
00000370: 1ffc 3e06 5ae9 f306 1816 ed86 5e5e aa06
00000380: 7023 cf84 512d 1627 5aea 0da6 3d8f a1a6
00000390: 0115 dba5 0219 94a7 b344 b5a7 e171 1127
000003a0: a465 84a7 b30b b0a7 bc56 cb3a ec18 e338
000003b0: b60f 403a c097 e6ba 06ad 5fbb 54d0 09bc
000003c0: 3c77 073c 927d 65bb 6055 20bc 5158 0180
000003d0: 1d63 0180 b23d 0180 1163 0180 58e3 0000
000003e0: 1d16 0000 587d 0080 2edb 0000 5822 0080
000003f0: 67c2 d11b e9eb cf1b 6233 d01b 8c5f 399b
3.601027e-15 2.897133e-15 3.1645341e-15 3.6467983e-15 3.4204715e-15 3.2953446e-15 3.787214e-15 3.5926907e-15
3.3612584e-15 0.0042629265 -0.00540021 0.0018741146 -0.0007238872 -0.0004135835 -0.0029182245 0.006702486
0.011028919 0.00093840243 -0.003104421 -0.003749268 -0.0038206072 -0.00048025668 -0.002813623 -0.0037602203
0.0013731074 0.00016269447 -9.660246e-05 -0.0049590496 0.004982289 0.008369362 -0.004024114 -0.0005134744
0.00074025197 -0.007866396 0.0014704204 0.0044480115 -0.00071792596 -0.0016299932 -0.0017709906 0.0033491426
-0.006752994 0.0017684726 0.0047286428 -0.007864036 -0.0047647813 -5.2782896e-11 -7.551099e-11 -8.6982484e-11
-8.0884105e-11 -9.6487006e-11 -8.445742e-11 -8.025581e-11 -1.00389454e-10 -9.7505906e-11 0.0035613477 0.0038623256
0.00043944392 0.003883711 0.004403137 0.0012813024 0.004785656 0.004435719 0.0025288658 5.7502e-41
-6.9675e-41 -9.1694e-41 8.0523e-41 -9.4551e-41 -9.5665e-41 1.8511e-41 -5.7871e-41 -5.2885e-41
4.1085e-41 -4.3247e-41 -7.87e-41 -1.0678e-41 2.4531e-41 -8.131e-41 -3.3455e-41 2.87e-41
5.607e-42 0.001489281 0.0008665049 0.0025935273 -7.944075e-05 -0.00026292796 0.0011857878 0.0021310172
0.0016401383 0.0019747424 -1.0070941e-30 6.640939e-31 -5.803412e-31 -1.0400715e-30 2.245812e-31 2.082331e-31
-5.6298623e-31 -8.201736e-31 -7.5963915e-31 4.6e-42 3.4371e-41 -1.2319e-40 1.11494e-40 -3.3142e-41
9.7172e-41 -1.22318e-40 -7.0909e-41 -6.1049e-41 0.00028289133 0.00038612686 -0.00023729117 0.001216604
0.0010058342 0.00038228653 0.002617801 0.0024841109 0.0016896734 0.0009001504 0.0017174894 0.0012198692
0.00088436954 0.0017157709 0.0012329526 0.0010426246 0.0020365112 0.0016662396 1.12129815e-13 8.7540686e-14
9.513495e-14 1.2902744e-13 1.5022911e-13 1.04157534e-13 -1.1841896e-13 1.244361e-13 1.3108166e-13 0.003148614
0.0064049177 0.0024092416 0.0069044665 0.0079694195 0.0064531895 -0.00048562614 -0.0073544895 -0.0025381732
-0.002943213 -0.0033889448 -0.00024486677 -0.004742391 0.005742886 0.006099149 -0.0075006504 0.0020027347
0.0016501254 0.0028328302 0.0014264103 0.0018048529 0.0011672365 0.002724255 0.0021541342 0.0016408551
0.0029432678 0.0025631967 0.0012891265 -0.008749309 -0.0059149605 -0.000200409 0.0015139295 0.00898217
-0.015119933 0.009054603 0.016999798 0.007163539 0.007985293 0.0029312077 0.0030483291 0.004609624
0.0022122143 -0.0014786775 0.0005405397 0.010177639 -2.4587007e-20 -2.9179798e-20 -2.8285115e-20 -3.1075305e-20
-2.8085787e-20 -3.031088e-20 -3.0385213e-20 -3.045523e-20 -3.096331e-20 -0.0068634907 0.007514946 0.009448515
-0.0067865523 0.02100615 0.014219321 0.0066733933 0.014157288 0.009080361 0.00051238085 5.793182e-05
-0.0018984259 0.00026455018 0.0003594711 -0.0010974817 -0.0005430855 0.0009991031 -0.0013129555 0.004313966
0.0043003443 0.005467424 0.0034477774 0.005245869 0.0025566325 -0.0034568135 0.00551181 0.0011699308
2.6889583e-35 -5.4486316e-35 -4.826253e-35 -3.427983e-35 3.5920258e-35 9.174932e-35 -8.9181955e-35 6.408555e-35
-4.869801e-36 2.0841248e-15 -4.923681e-16 -1.1210444e-15 -3.8004677e-16 -4.1105365e-15 -5.0312076e-15 2.0184526e-15
-3.674756e-15 -4.8862497e-15 0.001551352 0.000108288456 0.000732656 -0.0017592832 -0.003413023 -0.008411486
0.008268174 -0.0035017473 -0.00978598 -1.23517e-40 -1.2739e-40 -1.13968e-40 -1.27374e-40 8.1556e-41
7.933e-42 -4.4965e-41 7.8627e-41 -1.232e-41 3.470178e-22 3.439773e-22 3.444392e-22 -1.5333714e-22

e_conv2.bias f4 [32]
00000000: ec4d dfbc d609 578f 4172 483d 31b9 4992
00000010: b257 213d ce81 123d 6280 273b d9a8 423d
00000020: 9460 6a3d f799 163d 7be7 d1bc 3c0d 96ba
00000030: 03e8 abb2 b61e 0bbc 4169 373c f78d 06a5
00000040: a163 023d 8369 6d3c ca16 629e 1e17 11bc
00000050: 867d b6b7 d946 7f3c bf88 df9f 48e3 333d
00000060: 3694 6c9f 8e48 5d3d dd00 373d c446 6691
00000070: 654d b3b8 01ef 213b cb0d 9dad 85ea 4f3d
-0.027258836 -1.0602213e-29 0.048937086 -6.3652683e-28 0.039390273 0.035768323 0.00255587 0.047524307
0.05722101 0.036767926 -0.025623074 -0.0011448036 -2.0012527e-08 -0.008491209 0.011194528 -1.1670747e-16
0.031833295 0.014490488 -1.1969053e-20 -0.008855609 -2.1754542e-05 0.015580856 -9.46704e-20 0.043917924
-5.009754e-20 0.05402427 0.044678558 -1.8165607e-28 -8.549801e-05 0.0024709108 -1.7854959e-11 0.050760765

e_conv3.weight f4 [32, 64, 3, 3]
00000000: ce4d 55a7 c515 85a7 1686 9fa7 619b 40a7
00000010: a38e 76a7 247a 94a7 c6d5 2ba7 604f 5aa7
00000020: c314 80a7 cf91 b1ba 3260 513c 9cc5 773c
00000030: ee04 01bc b869 c73b 8e2f 0f3c d701 d8bc
00000040: cbda 2ebc 3803 f3bb 16fe 83bb 613f de3b
00000050: 22ce c43b 4501 cabb 68cd 9b3b 7a96 7a3b
00000060: c3ca 76bc 1ba8 c4bb e339 cbbb 1ba3 6c3b
00000070: fc1b 8c3b 16a1 593b 1a86 853b db6d 8e3b
00000080: 885b 383b d887 f6bb ec1a b3bb 013b c1bb
00000090: 2102 5cbb b86a 343c af53 453c baba 1abb
000000a0: 4ca1 2a3c 76c0 243c 99db a0bc 18ab 0cbc
000000b0: e3b0 cbbb 8fb0 9631 9e0b ab31 342b b631
000000c0: 2a24 6931 7b4e 4730 6db6 23b0 953d 4831
000000d0: e335 7331 af57 9831 bc44 89bb 8f3a f13b
000000e0: 3125 5b3b ef0c 45bb 1ec3 353c a25d 063c
000000f0: 7ed4 15bc 187d 933a 24e6 b3bb 67b4 0080
00000100: 7904 0000 ffd2 0080 4134 0000 8a82 0080
00000110: 8a5b 0000 f2d4 0080 1815 0000 cd65 0000
00000120: 36f7 0000 b4e5 0080 0b20 0000 7884 0080
00000130: edb1 0000 a7d0 0000 c84c 0080 242b 0080
00000140: 03e8 0000 8938 f43a 60de ae3b cf7e 083b
00000150: 2ac3 f039 72de d13a 60cb beba 39ea e5bb
00000160: 42a8 bfbb 47bd b0bb f598 808d 1b55 dd8c
00000170: c328 258e f0e0 578e babf 968e caa5 9a0c
00000180: 711d d50e 5693 e30d 4ead d48e 6dce 0080
00000190: 1e21 0100 4254 0100 223a 0100 397d 0000
000001a0: aff6 0080 7873 0180 525d 0180 819d 0000
000001b0: f71c eaba 8408 bd39 09b3 07ba 8acf d4ba
000001c0: b2f9 32ba a2e2 e2ba 792b ac3a e19b e83a
000001d0: 9877 fd3a 8969 b1bb d0e2 22ba 53b1 02bb
000001e0: e1f0 d5bb ea1b d1ba 923a 43bb 3766 31bc
000001f0: aa69 d7bb db74 0ebc 026c 67a9 93a5 e9aa
00000200: 2da7 18ab e80a cf2a ee59 93a8 b4cd 83aa
00000210: f403 ff2a 06b1 192b 5a05 0a2b f918 3abc
00000220: 2536 1d3c f63b 613c 66b3 83bb 02c6 0c3c
00000230: b044 273c dbb1 0ebd 1edd 85bc 0451 44bc
00000240: 8322 3dbb 9f14 f03b 8b12 183c 1f76 98bb
00000250: 7f95 f93b 0272 a53b c1c3 9ebc 03f7 f3bb
00000260: dc9d f0bb 9975 0abb 654a 443b cdbf cd3a
00000270: cb98 2739 d5f4 d73b ecf0 a43b 1eb6 f2bb
00000280: 2369 94ba 7b26 96bb 2ede 8ebb 5248 5b3c
00000290: 7ef5 743c 352c 83bb dede 023c 3eae 843c
000002a0: ffb7 05bd f94b 67bc c8ab 22bc 59d9 c53a
000002b0: 388a f53b 34b7 023c eea1 91b9 afcd 983b
000002c0: dbba 473b e00f 81bc 22f8 26bc 65b7 19bc
000002d0: c4b9 d71f ec12 c21f b613 831f a9c1 dc1f
000002e0: e905 dc1f 893f d81f 937a c81f ad24 bf1f
000002f0: 07dc d41f b6fc 3dbb fd43 1f3c 5523 0c3c
00000300: 307d b2bb c9a5 173c c24f 353c 7b33 ddbc
00000310: df60 84bc 07ef 09bc 4b8a f2bb 1130 8d3a
00000320: fb68 9e3b 88a0 f7bb 8d65 213b c739 d93b
00000330: 3355 65bc cc8b b0bb 2dc9 0cbb d785 1bbb
00000340: c635 e73b 153f a53b 3605 14bb e4d3 e83b
00000350: 084e ae3b f443 2cbc 6bc6 21bb 6907 b4bb
00000360: 6e9c ec06 260a 4608 789f 7a88 9941 7007
00000370: 1a19 6206 cc1e 2208 15a5 e786 a660 1e06
00000380: b7b1 f187 295c 772b 4742 902b 9c0c 972b
00000390: 7a32 c5aa a174 832b a311 7f2b 9b2f 352b
000003a0: fc79 5a2b 06a4 60aa f557 7ebb 3b24 073c
000003b0: 9734 463c fa9f f6bb 3b72 7a3c f6e3 133c
000003c0: 103e ccbc 3b44 2abc ab36 08bc 31dc 0080
000003d0: b150 0000 7c6b 0080 98fc 0080 c9d0 0080
000003e0: fe4c 0080 3273 0080 0c3a 0080 1529 0180
000003f0: 94c9 a51c e5be db1c 0779 d71c 5fce 0f1d
-2.9601866e-15 -3.693852e-15 -4.427674e-15 -2.6729584e-15 -3.4216682e-15 -4.1210677e-15 -2.3846904e-15 -3.0296607e-15
-3.5549647e-15 -0.0013547483 0.012779282 0.015122797 -0.0078747105 0.0060856007 0.008739365 -0.026368065
-0.0106722815 -0.007416155 -0.004028092 0.0067824577 0.0060060183 -0.006164702 0.004754711 0.0038236664
-0.015062991 -0.006001485 -0.006201969 0.003610796 0.004275797 0.0033207587 0.004074824 0.004346592
0.0028130729 -0.007523518 -0.005465856 -0.0058969264 -0.0033570605 0.011011772 0.0120438775 -0.0023609833
0.010414433 0.010055652 -0.019635962 -0.008585714 -0.006216155 4.385647e-09 4.9780757e-09 5.3018088e-09
3.392652e-09 7.2507306e-10 -5.9558297e-10 2.9138836e-09 3.5391785e-09 4.4337507e-09 -0.004189102 0.007361717
0.0033438916 -0.0030067523 0.011093883 0.008201035 -0.0091449 0.0011252491 -0.0054900814 -6.4716e-41
1.604e-42 -7.5691e-41 1.8745e-41 -4.6829e-41 3.2838e-41 -7.639e-41 7.567e-42 3.6519e-41
8.8683e-41 -8.2402e-41 1.1495e-41 -4.7521e-41 6.3828e-41 7.485e-41 -2.7544e-41 -1.5476e-41
8.323e-41 0.0018632571 0.0053365678 0.0020827537 0.00045921776 0.0016011728 -0.001455646 -0.007016447
-0.0058489153 -0.0053936574 -7.925432e-31 -3.4101662e-31 -2.0357446e-30 -2.66091e-30 -3.716248e-30 2.3827238e-31
5.2536905e-30 1.4025425e-30 -5.242892e-30 -7.4052e-41 1.03716e-40 1.22062e-40 1.1269e-40 4.4921e-41
-8.8493e-41 -1.33258e-40 -1.25313e-40 5.6502e-41 -0.0017861415 0.00036055234 -0.00051765196 -0.0016236168
-0.00068273686 -0.0017309973 0.0013135514 0.0017746651 0.001933801 -0.005414192 -0.0006213607 -0.001994212
-0.006528959 -0.0015953754 -0.002978955 -0.010827593 -0.0065738754 -0.008694853 -5.1385986e-14 -4.1504005e-13
-5.423325e-13 3.6778154e-13 -1.635928e-14 -2.341301e-13 4.5299842e-13 5.460219e-13 4.9034876e-13 -0.011358493
0.009595429 0.013747206 -0.0040191887 0.008592131 0.0102092475 -0.034837585 -0.016340788 -0.011982206
-0.0028859682 0.007326677 0.009281765 -0.004652753 0.0076166983 0.005048991 -0.019380452 -0.0074452176
-0.007343037 -0.0021127223 0.002995157 0.001569742 0.00015983281 0.0065904655 0.005033603 -0.007406964
-0.0011322837 -0.004582224 -0.004359982 0.013383942 0.014951108 -0.0040030726 0.007987706 0.016196366
-0.032646175 -0.014117234 -0.009928651 0.0015094682 0.0074932836 0.007978249 -0.00027777202 0.0046631913
0.0030476365 -0.01575464 -0.010190995 -0.009382104 9.1363365e-20 8.21935e-20 5.551327e-20 9.349401e-20
9.31834e-20 9.158467e-20 8.4906077e-20 8.095232e-20 9.01495e-20 -0.0028989739 0.0097207995 0.008553346
-0.0054470524 0.009255835 0.011066379 -0.027002087 -0.016159473 -0.008418805 -0.0074017397 0.0010771771
0.004834292 -0.0075569786 0.002462718 0.006629202 -0.013997364 -0.005387759 -0.0021482215 -0.0023730898
0.007055971 0.0050429204 -0.0022586114 0.0071053375 0.0053193606 -0.010514248 -0.0024684917 -0.0054940474
8.9003186e-35 5.9595387e-34 -7.5419093e-34 1.8074871e-34 4.2524317e-35 4.8786303e-34 -8.713511e-35 2.9787503e-35
-3.63661e-34 8.7879926e-13 1.0250211e-12 1.0732695e-12 -3.5029255e-13 9.340481e-13 9.0618675e-13 6.4370183e-13
7.7618446e-13 -1.9952104e-13 -0.003880975 0.008248384 0.012097499 -0.007526395 0.015286024 0.009026518
-0.024931937 -0.010392244 -0.008313815 -7.899e-41 2.8947e-41 -3.8558e-41 -9.0614e-41 -7.4898e-41
-2.762e-41 -4.1324e-41 -2.0823e-41 -1.06573e-40 1.0970891e-21 1.4541549e-21 1.4258791e-21 1.9032584e-21

e_conv3.bias f4 [32]
00000000: 24f8 2a3d c3e4 003d b84c 0498 9b1f 413c
00000010: 3846 213d 9019 26a0 a0e5 22bc e567 8093
00000020: 4ebf 0f3d 914c be3b 97f2 043d c1f6 dbaa
00000030: 62f0 2c93 1f68 24b7 9552 b8b8 d060 9297
00000040: 8dde e03d 1444 a7bb c8b2 b33d ec6a f4bb
00000050: 4079 4690 131b a53c cc21 36bb 68de 0bbc
00000060: aa9d 6c3c 853b e9ba 9d86 fe3b f32c 223d
00000070: b914 2dac 04ac 61bc 3d1e 123d aae1 80bc
0.04174055 0.031468164 -1.7099333e-24 0.0117873205 0.039373606 -1.4069205e-19 -0.009942442 -3.241419e-27
0.03509455 0.0058074673 0.032457914 -3.9073435e-13 -2.182797e-27 -9.799404e-06 -8.789186e-05 -9.459468e-25
0.10979948 -0.005104551 0.08774334 -0.007459035 -3.9142022e-29 0.020154512 -0.002779114 -0.0085369125
0.014441887 -0.0017794227 0.007767512 0.03959365 -2.4596282e-12 -0.013773922 0.03567337 -0.015732605

e_conv4.weight f4 [32, 64, 3, 3]
00000000: 1872 6bba 6c09 ae3b 695d 5bbc 4e9c 0e3b
00000010: 9771 17bb 3b8b 1dbb 2f44 d73b a041 6dba
00000020: 31e3 9cbb c0e3 0080 ced8 0080 f07a 0080
00000030: f696 0080 853e 0080 0132 0000 af62 0080
00000040: a852 0000 12e8 0000 8117 a038 12a6 c43a
00000050: f6e8 8f3a e18b 9dba bc51 1db9 6c92 92ba
00000060: a0d1 47bb 4b33 19bb 3eed 93bb c888 0080
00000070: 8a08 0080 c014 0080 c034 0080 4ed5 0080
00000080: e2e3 0000 ccec 0080 1add 0080 403e 0080
00000090: 459e e1ba 7fbe bebb d515 8bbc f24d 50bb
000000a0: 5994 df3c e268 b3ba 03da b2bc 6e6c b1bb
000000b0: 6887 2d39 c3c6 eaba 2598 1c3a bcf8 69bb
000000c0: 031b b439 3d0e e83a 2236 48bb 44ce 373b
000000d0: 97d4 753b 463c 19bb 7880 da3a 79cf 0e3b
000000e0: b807 c13a 3037 a4bb b97e 893a 9868 9fba
000000f0: 73f8 7cba 8b8f 8139 b9c8 aab9 1a56 1dbc
00000100: d395 41bc e5a2 96bc c2b1 7ebc bd17 4f3c
00000110: 0a31 be3b de01 eebb 62e8 9f3b 841c dcbb
00000120: 7abc 76bc 8332 af3b e8f8 183c df44 efbb
00000130: 3ab4 b83c a81e b5bb 1120 9abb becb 03bc
00000140: b882 94bc 2bcf e3bb a450 023a 32eb 08bc
00000150: 5601 4a3c dbf7 adbb 9e8d bb3b c47f 5b3b
00000160: 2e2a 183b de2c b7bb 9fab b03b 7914 5cbc
00000170: f0dc c0bb f377 2fbc 9608 323c 4188 f43c
00000180: e94b 0abc ce9c 393c 20a0 963a 6e7a 1bae
00000190: c7f0 1bae ff41 1cae 1f8d 1bae 9a6a 1aae
000001a0: a2e5 1bae be1e 1bae 6d28 1bae 4888 1bae
000001b0: bc88 cd9a 782f da9a 9a5a d49a e20c da9a
000001c0: c74a e29a 9bf1 e19a 4a56 d19a b9fd db9a
000001d0: 77b8 da9a a600 17bc ad55 a73c 10db c23b
000001e0: 7b12 d43b 799b 453c 1255 c8bb 7867 13bd
000001f0: 9d26 9c3c 9d36 17bb 062a 3ebb 7dda 9aba
00000200: 89d4 eaba a5b2 d8ba e463 a8ba 9165 5abb
00000210: 7f83 643a 7463 8838 d978 73bb 138d 0080
00000220: 018f 0000 6649 0080 0ddf 0080 a5a9 0080
00000230: ec07 0080 d598 0000 1579 0000 90d5 0000
00000240: dfb3 413b 327c 14bd 0a06 98bc cb46 90bc
00000250: 362f b9bc ec43 103c 6419 183c 561c 4c3c
00000260: 01ef b73c 12f9 3e3a bd69 deb9 3a11 d0b9
00000270: 0648 76b9 7039 e2ba b38e f1ba ab8c 11ba
00000280: 7204 29bb 3b82 44bb c2c1 0000 654b 0080
00000290: ad97 0080 bf1c 0000 544f 0000 2ac2 0080
000002a0: e468 0000 8803 0000 338c 0000 c331 55bb
000002b0: e912 97bb edfa 0d3b 98cc 57bb 5f75 773b
000002c0: f48c 88bb 03f8 f439 7c92 ea3b 7f3b fdba
000002d0: 3663 8f31 7bae 9131 0b11 8e31 6d67 9931
000002e0: 56bd 9b31 b1b1 9731 2d1b 9d31 9ff1 a031
000002f0: 7481 9c31 81a2 5e3b 77f1 c639 dad5 4f39
00000300: b132 0c3b de59 18ba 23a6 0abb b1f4 b93b
00000310: 37d6 323b 2966 a6ba 547c 0080 c053 0080
00000320: 3b85 0080 cfbe 0080 0fac 0000 aa97 0080
00000330: 5fb3 0080 c4aa 0080 9706 0080 1dd7 48bb
00000340: bd52 4bbb 1294 10bb 691c 02bb 3564 b33a
00000350: 0d79 683b f3f9 c8ba d8e5 a7b9 8107 9fba
00000360: 4b4d 0000 c510 0000 0d36 0000 3c53 0080
00000370: de74 0080 eb1b 0000 766c 0000 db84 0000
00000380: 2152 0000 b126 1bbb 35b6 bfbb cec1 96bb
00000390: db69 59b9 e0da 88bb 2141 2abb e958 a13a
000003a0: c936 0bbb 2201 25ba b4e3 e83b ba59 2abc
000003b0: 65c5 ccba e6ab 24bb a819 77bb 9de8 b93b
000003c0: 0971 223c 59d2 583c 8d53 fd3b e935 0100
000003d0: 3b9f 0000 2142 0180 3afa 0000 0c58 0100
000003e0: 2c1a 0080 328f 0100 228f 0000 230c 0180
000003f0: c29a 4ba2 c3be 6ca2 227e 69a2 8927 75a2
-0.000898154 0.005311182 -0.01338897 0.0021760645 -0.0023108476 -0.0024039287 0.0065694074 -0.00090506114
-0.0047878255 -8.1701e-41 -7.7775e-41 -4.4102e-41 -5.4155e-41 -2.2428e-41 1.7938e-41 -3.5401e-41
2.9651e-41 8.3251e-41 7.6337725e-05 0.0015003106 0.0010979462 -0.0012019837 -0.00015003135 -0.0011182553
-0.0030489936 -0.002337652 -0.0045143655 -4.9068e-41 -3.063e-42 -7.444e-42 -1.8923e-41 -7.652e-41
8.1749e-41 -8.4947e-41 -7.9316e-41 -2.2331e-41 -0.0017213306 -0.0058210487 -0.016978184 -0.003178474
0.027292417 -0.0013687874 -0.021832472 -0.005414537 0.00016549008 -0.0017912019 0.0005973599 -0.0035701236
0.000343524 0.0017704439 -0.0030549844 0.0028046528 0.0037510747 -0.0023381873 0.0016670367 0.0021791144
0.0014727032 -0.0050114617 0.0010490037 -0.0012161909 -0.0009650059 0.00024711745 -0.00032574477 -0.009603048
-0.011815506 -0.018388221 -0.01554531 0.012639937 0.0058041858 -0.007263406 0.004879997 -0.0067172665
-0.015059585 0.0053465976 0.009336688 -0.0073019112 0.022546876 -0.005527336 -0.0047035296 -0.008044181
-0.018128738 -0.0069521866 0.0004971123 -0.008356856 0.01232942 -0.0053090877 0.005723669 0.0033492902
0.00232185 -0.0055900654 0.0053915526 -0.013432615 -0.005885713 -0.0107097505 0.010866305 0.029850127
-0.00844095 0.011328889 0.0011491813 -3.535166e-11 -3.5456773e-11 -3.552891e-11 -3.536826e-11 -3.5110227e-11
-3.5446875e-11 -3.5270224e-11 -3.5278825e-11 -3.5363962e-11 -8.500692e-23 -9.0239377e-23 -8.782752e-23 -9.01835e-23
-9.359222e-23 -9.3448154e-23 -8.657978e-23 -9.098619e-23 -9.0460706e-23 -0.009216463 0.020426596 0.0059465244
0.0064719296 0.012060993 -0.006113657 -0.035987347 0.019061381 -0.0023073324 -0.0029016747 -0.0011814382
-0.0017916124 -0.0016532732 -0.0012847153 -0.0033324698 0.0008717104 6.50351e-05 -0.0037150888 -5.0608e-41
5.13e-41 -2.633e-41 -8.0016e-41 -6.0857e-41 -2.842e-42 5.4826e-41 4.3436e-41 7.6612e-41
0.0029556674 -0.036251254 -0.018557567 -0.017611882 -0.02260552 0.008805256 0.009283397 0.012457928
0.022452833 0.0007285039 -0.0004242192 -0.00039685686 -0.00023487219 -0.0017259549 -0.0018429369 -0.0005552272
-0.0025790003 -0.002998485 6.9507e-41 -2.7046e-41 -5.4411e-41 1.0312e-41 2.8458e-41 -6.9653e-41
3.7628e-41 1.267e-42 5.0294e-41 -0.003253088 -0.0046104086 0.0021664456 -0.0032928344 0.0037759168
-0.0041671935 0.0004672409 0.0071585756 -0.0019320099 4.1731267e-09 4.2398915e-09 4.1346815e-09 4.464644e-09
4.5326187e-09 4.4148796e-09 4.572391e-09 4.684082e-09 4.5549147e-09 0.0033971372 0.00037945408 0.00019820724
0.002139252 -0.0005811731 -0.0021156154 0.0056749214 0.0027288327 -0.0012695241 -4.46e-41 -3.0044e-41
-4.7794e-41 -6.8449e-41 6.1723e-41 -5.4407e-41 -6.4346e-41 -6.1259e-41 -2.364e-42 -0.0030645796
-0.0031024658 -0.0022060913 -0.001985336 0.001368648 0.0035472543 -0.001533328 -0.0003202397 -0.0012132974
2.7727e-41 6.016e-42 1.939e-41 -2.9859e-41 -4.1924e-41 1.0015e-41 3.8908e-41 4.766e-41
2.9462e-41 -0.0023674185 -0.005850578 -0.00460074 -0.00020734167 -0.0041764826 -0.0025978761 0.0012309822
-0.0021242371 -0.0006294419 0.0071072225 -0.010397369 -0.0015622793 -0.0025126874 -0.0037704501 0.0056734816
0.009914645 0.013233745 0.0077309073 1.11175e-40 5.7121e-41 -1.15558e-40 8.9764e-41 1.23421e-40
-9.389e-42 1.43204e-40 5.1346e-41 -9.619e-41 -2.7593558e-18 -3.2084953e-18 -3.1644162e-18 -3.3224621e-18

e_conv4.bias f4 [32]
00000000: d4dc 073d c41f 7f3b e8eb 21b4 015b e6ba
00000010: 40d5 883c 8e06 873c 2b4b 643c be0d b43c
00000020: 3d33 5bba 19e7 a5ba 8f65 b33c ce37 d63c
00000030: 1381 4f3d 6bca 8c3c b86d b93c 25b3 533c
00000040: cf31 27ab 8dec a43d 517a f8b3 571c 053d
00000050: f507 ce3c ac11 d7b8 3b2e 073d 0a79 e6ba
00000060: bd48 5faa 3373 173d f4f9 1dbb cbd0 023d
00000070: 4360 bf3d 4934 ee3c b223 9aba 6586 bc3c
0.033169582 0.0038928846 -1.5080116e-07 -0.0017574729 0.016703248 0.016482618 0.013933937 0.021979209
-0.0008361822 -0.0012657373 0.021899013 0.026149657 0.050660204 0.017186364 0.022635326 0.012921129
-5.939944e-13 0.08052931 -1.1570649e-07 0.03249773 0.025150279 -0.000102552905 0.033003073 -0.001758368
-1.9831615e-13 0.036975097 -0.0024105283 0.0319374 0.09344532 0.029077666 -0.0011759906 0.023013303

e_conv5.weight f4 [32, 64, 3, 3]
00000000: 07a5 24bb 3b25 533a 5b84 65bb 1a65 b63b
00000010: f94a bf3b 0880 8f39 40a7 bd3b 86ca d33b
00000020: 9548 ad3a 71a0 ad3b e6e3 7bba 27d6 04ba
00000030: 155c 473b bce2 f0ba 8d7e ebba 69f6 bd3a
00000040: d5d4 f6ba a8de 0bbb 339f 0100 fb1f 0180
00000050: c5fe 0080 4f08 0080 2fc4 0100 f311 0180
00000060: e009 0000 3f16 0180 1b40 0180 ab88 db3b
00000070: ce0a a636 5c8d 183c 5eb7 0f3b 004b d33b
00000080: 126d 043c 07f7 ddba 378e 023c d452 0c3c
00000090: a9c7 dd3b 9217 a93b d1f8 123b 94fd 163c
000000a0: d795 dbba 7523 9d3b b8e2 38bc 3df4 01bc
000000b0: eadf 53bc e9df 0080 300e 0180 90f8 0080
000000c0: 3241 0080 5201 0180 d00e 0180 7b0e 0180
000000d0: d4ec 0080 001b 0100 c428 273b 4d38 0e3c
000000e0: 8f39 073c 1785 4e39 6be5 a43b b1ef ed3b
000000f0: 2743 473a ad58 993b e705 093c 9ee7 0080
00000100: a1d7 0080 8422 0000 60db 0000 f90a 0000
00000110: dff0 0080 4fce 0000 0707 0000 e57a 0000
00000120: 20ca 96bc 256b 333c 4f46 98bc def9 80bc
00000130: 6a64 ad3c ad6d 30bc 4e41 f43b dfdf 74bc
00000140: 31c3 113c 084f c63b b573 e2ba 4edc 35bb
00000150: 38d5 703b 2a15 c6bb 8d66 9eba c8a1 abbb
00000160: 334f 0dbb 15c9 3bbb db88 2ebb ea9c 1f3b
00000170: f947 2e3c 71a5 1cbb 0a5b eeb9 057e 173c
00000180: 56d0 693a 9af0 bd3b 87e3 9b3c f928 0080
00000190: 30c2 0080 8425 0080 6237 0080 f4c0 0080
000001a0: a219 0080 7f0e 0080 41c8 0080 92b1 0080
000001b0: 6cbf a28c 044d a110 0d23 7d0f 4455 430d
000001c0: a52e 990f f052 300f d362 970e 084d ee0e
000001d0: d073 220f 6d04 0080 0790 0000 4d09 0000
000001e0: 6274 0000 966a 0000 9c68 0080 3969 0000
000001f0: b904 0000 cc97 0080 5689 18b2 d55e 8c32
00000200: ae25 3832 2d24 8d32 1cc7 4d32 9dba 8b32
00000210: 1e65 8f32 c91c 8e32 143f 79b2 2a28 0000
00000220: be80 0080 2e55 0180 de22 0080 34b2 0080
00000230: 6957 0000 79c3 0000 c131 0080 f0e1 0000
00000240: a639 99bb 875b 5cbb ec6b 2fbb 9a25 c4bb
00000250: e8e8 41bb fdb6 37bb 9bca 14bb 7fa8 c73a
00000260: 24b6 0c3a 4ea7 08bb f4e6 15bb daf0 e539
00000270: 16a8 17bb fddb 2dbb 6412 09bb 4f96 c1b9
00000280: f1dc 42bb 0a2c 1dbb 843c d4bb 2d33 86ba
00000290: 6fb8 a03b 9951 20bb e3b4 923b 21ac 0e3c
000002a0: 27d3 c5ba cfdf 993b 61fd d53b 9a65 89bb
000002b0: 2217 983b 8683 2d3c d61c 053c 9efa 383b
000002c0: 36d8 373b ac7c b1bb 7958 11bb f03e 223b
000002d0: 7792 0000 0846 0180 9f55 0100 ebee 0000
000002e0: f856 0180 b6a2 0080 59a8 0000 0dfc 0000
000002f0: fa24 0000 14c8 b1bb 2a91 48ba 181f 1cbb
00000300: ebed bcb8 d863 513b 1d81 0cbc 1938 90ba
00000310: 3cfc ae3a dc7f 263b b903 3a3a f503 033b
00000320: 3902 f93b dc66 933b 1742 bb3b c483 dcba
00000330: 15cf 31bb 6470 45bb 0cd8 d8bb 232f 2b39
00000340: dce9 0b3b ddf6 3e3a d42c e23b bb59 abba
00000350: a369 113b 046f 9eba a91e db3b b612 27bb
00000360: ab45 9a3a 3ad2 e0ba f67b 05bc 199e 0bba
00000370: 00d3 a0bb f2ba dfbb 122c b0bb a68c 0abc
00000380: c5dc 00bc b332 82a0 5874 86a0 41d4 84a0
00000390: 43ed 85a0 6967 84a0 5a3d 88a0 deb7 87a0
000003a0: 4bc3 84a0 b2e8 87a0 5af1 2b3b cd8e 123c
000003b0: 7db9 263c 6322 1f3b a02e 003c 1c24 103c
000003c0: 4f21 d4ba c499 4c3b 25b5 923b 22c8 4ebc
000003d0: 3aac 1ebc 2007 95bb 0e11 fcbb 3e77 c63a
000003e0: 163a 053d 151b 0b3c 0cda 3abc e7f6 133b
000003f0: 2e6d 0080 8407 0000 a6c8 0000 5a8c 0000
-0.0025122778 0.0008054559 -0.0035021517 0.0055662515 0.005837795 0.00027370476 0.00578776 0.0064633517
0.0013220484 0.005298667 -0.00096088497 -0.00050673116 0.0030419875 -0.0018378119 -0.0017966792 0.0014492992
-0.001883174 -0.002134243 1.48945e-40 -1.03308e-40 -9.1394e-41 -2.98e-42 1.62213e-40 -9.8274e-41
3.542e-42 -9.9816e-41 -1.14832e-40 0.0066996417 4.9484433e-06 0.009311046 0.0021929364 0.0064481497
0.008082645 -0.0016934582 0.007968477 0.00856467 0.006768186 0.0051602805 0.0022426138 0.009215731
-0.001675303 0.0047954866 -0.011284523 -0.007931766 -0.012931803 -8.0324e-41 -9.6925e-41 -8.9167e-41
-2.3388e-41 -9.2309e-41 -9.7149e-41 -9.703e-41 -8.4958e-41 1.01521e-40 0.0025506476 0.008680415
0.008253469 0.00019695271 0.0050322316 0.0072612395 0.0007601254 0.0046797604 0.008363224 -8.3089e-41
-7.7353e-41 1.2382e-41 7.8697e-41 3.936e-42 -8.6408e-41 7.401e-41 2.521e-42 4.4086e-41
-0.018406928 0.010950838 -0.018588213 -0.015744146 0.021166045 -0.010768336 0.007454074 -0.014945953
0.008896635 0.0060519017 -0.0017276915 -0.002774972 0.0036748182 -0.0060450034 -0.0012085006 -0.0052377917
-0.00215621 -0.002865379 -0.0026631865 0.0024355003 0.010637277 -0.0023902322 -0.00045462727 0.009246354
0.0008919289 0.005796504 0.019029392 -1.4698e-41 -6.9661e-41 -1.3458e-41 -1.9868e-41 -6.9219e-41
-9.195e-42 -5.2e-42 -7.1838e-41 -6.37e-41 -2.507526e-31 6.3621964e-29 1.24806136e-29 6.019165e-31
1.5104932e-29 8.693443e-30 3.731954e-30 5.874571e-30 8.009521e-30 -1.588e-42 5.1667e-41 3.336e-42
4.175e-41 3.8236e-41 -3.7527e-41 3.7747e-41 1.694e-42 -5.4454e-41 -8.878791e-09 1.634127e-08
1.0718777e-08 1.6431011e-08 1.1977843e-08 1.6266592e-08 1.6693374e-08 1.6544066e-08 -1.450805e-08 1.4408e-41
-4.6184e-41 -1.22392e-40 -1.2508e-41 -6.3927e-41 3.1357e-41 7.0122e-41 -1.7848e-41 8.1051e-41
-0.0046760617 -0.003362389 -0.0026767207 -0.005985928 -0.0029588286 -0.0028032653 -0.002270377 0.0015232711
0.0005367717 -0.0020851674 -0.0022873254 0.00043857732 -0.0023140959 -0.0026528828 -0.0020915503 -0.00036923817
-0.0029733742 -0.0023982548 -0.0064769406 -0.001023864 0.0049047987 -0.0024462698 0.00447713 0.008708031
-0.0015092836 0.0046958695 0.0065304493 -0.00419302 0.0046414295 0.01059044 0.008124551 0.0028225551
0.0028052456 -0.0054164734 -0.0022177978 0.0024756752 5.2542e-41 -1.16958e-40 1.2255e-40 8.5708e-41
-1.23034e-40 -5.837e-41 6.0392e-41 9.0419e-41 1.3265e-41 -0.0054254625 -0.00076510257 -0.0023822244
-9.008854e-05 0.003195038 -0.008575705 -0.0011003047 0.0013350318 0.00254058 0.00070958916 0.0019991372
0.007599142 0.004498346 0.0057146656 -0.0016823937 -0.0027131487 -0.0030126804 -0.0066175517 0.0001632539
0.0021349108 0.00072847103 0.0069023166 -0.0013073006 0.0022188209 -0.0012087529 0.0066870046 -0.002549333
0.001177003 -0.0017152496 -0.00814723 -0.00053259876 -0.0049079657 -0.0068277055 -0.0053763473 -0.008456385
-0.007865136 -2.2056407e-19 -2.2777473e-19 -2.2502128e-19 -2.2688083e-19 -2.24301e-19 -2.3079895e-19 -2.2991563e-19
-2.2490904e-19 -2.3023874e-19 0.0026236386 0.008945179 0.01017606 0.002428197 0.007823616 0.008797672
-0.0016184243 0.003121958 0.0044771605 -0.012620958 -0.009684617 -0.0045479685 -0.0076924628 0.0015141738
0.0325261 0.008490344 -0.0114045255 0.0022577585 -3.9166e-41 2.696e-42 7.1979e-41 5.0349e-41

e_conv5.bias f4 [32]
00000000: 86c4 b23c d6df 82b7 d45d 98b8 38fc 2c3d
00000010: 49a8 16a7 6161 ee3b a820 883d 2991 ee3c
00000020: a232 aa3c 6f5d f3b6 c547 2b3d dc75 f03c
00000030: 4987 9bb1 c6b3 a3b7 2f58 dd3c 80d8 053d
00000040: 06a0 dd3b c092 ac3b f96b b7b4 c3aa 223c
00000050: 251f df3c a249 ff3c 7bde 2c3c 2caf 11ad
00000060: 3833 b23c 4d51 06b8 34b5 d83c 0847 323c
00000070: 10c6 483d 21ec f4ba c197 4eb9 aaaa abb7
0.021822225 -1.560144e-05 -7.265402e-05 0.042232722 -2.090791e-15 0.007274792 0.06646854 0.029121952
0.020776097 -7.2528414e-06 0.04181649 0.029353075 -4.526474e-09 -1.9514828e-05 0.027019588 0.032677174
0.006763461 0.0052665174 -3.4164967e-07 0.009928408 0.02723653 0.03116304 0.01055109 -8.281192e-12
0.021752939 -3.2023807e-05 0.026453592 0.010881193 0.049017012 -0.0018686095 -0.00019702224 -2.046426e-05

e_conv7.weight f4 [8, 64, 3, 3]
00000000: ba55 18bb 00d8 10bb 7192 afbb c8cd c13b
00000010: cbef d03b f498 723b 275e de3b 5327 f53b
00000020: 8685 a13b b499 a83a de46 8e3a 3183 433b
00000030: ab67 ea3a de90 0a3b 9673 b33b 2acc 023c
00000040: b2b2 2d3c 3768 663c fc11 0180 9f2e 0100
00000050: e70c 0080 f2ef 0100 383f 0100 675e 0180
00000060: 9b85 0080 890e 0080 30d6 0080 8c7c 0b17
00000070: 10b9 8b16 ac83 a896 275e 0017 2394 df96
00000080: b7f0 e995 2f31 d396 d0f6 0617 b272 d496
00000090: cda9 7aba 9e22 68bb 461d adbb 2c29 9a3b
000000a0: 4042 d73a 6457 3fba c3c9 763b d58e 6439
000000b0: 916d 22bb 44dd 3ebc 9ff8 0cbc e0e1 d9bb
000000c0: e4f6 f1ba bb92 883a 98e4 183b 55f2 be3b
000000d0: 84b6 103c 8d70 1c3c 570e 293b 9c9b 043a
000000e0: 7354 223b 7d9a 8d3b 6ba7 363b a6a5 b33b
000000f0: 26c4 c73b ff05 b53b 7bbf ff3b 6fb6 4ebc
00000100: eaff e8bc 79a1 16bd de7a 0c3c 2c63 14bc
00000110: 8a5f a5bc b61f be3c f0d5 8cba e612 55bc
00000120: 645f 0080 f597 0080 288f 0000 f832 0080
00000130: 257d 0080 fc04 0180 faff 0080 fb47 0080
00000140: dba3 0080 02e1 1b35 9b43 d5b4 1cf1 88b4
00000150: d006 06b5 7116 1e35 5b6a 3bb5 2a84 05b5
00000160: aa57 fab4 e91f 1335 272e adba 4b50 a5bb
00000170: 863e 2abb 38ef 45ba 4f5a 87bb 1322 c8ba
00000180: 6b5b 863a 1c8d 29bb 1d11 a139 4154 e5bb
00000190: d028 abbb a862 ddbb 2d7f 5dbb b8ad aaba
000001a0: 5b5d 84bb b8f9 3dbb ef97 05bb 7da2 a0bb
000001b0: 9926 02bc cfae 813c eaae c2bb 26c2 2f3c
000001c0: 4671 0b3d e1ab 513c 6310 55bc 634b 293c
000001d0: be75 39bc 66a7 65bc 7ec8 9bbc ea7d aebb
000001e0: 9097 8abc 6078 b7bc c1e3 12bc 342e 083b
000001f0: c19e 7cbb fc09 293c 4064 29bb 021f 02ba
00000200: 9943 a2ba 3d77 d5b9 fe09 0c3b 7dfe d73a
00000210: a259 d53a da1a 953b 5464 5f3b 3ae7 8bbb
00000220: ddeb afbb eb21 3abb 40d8 edb9 029e bbba
00000230: ed1b 293a fb7f db3a 9a69 483a 04bb 413b
00000240: abc0 b4a6 82b1 b3a6 0229 b7a6 1dae 9fa6
00000250: e1c7 aea6 6d8e 84a6 cf11 c6a6 c22b b1a6
00000260: 8820 c6a6 e639 90ba a002 153d c8ef 55ba
00000270: 1001 de3c bc22 863d 179f e93c d004 32bc
00000280: 8f4d df3c b7e0 11bc f983 9f82 e0d2 c102
00000290: eb71 8302 f9a1 b602 284a bc82 9697 7882
000002a0: c901 c082 893b 8582 9ae5 6102 8a9d 02bc
000002b0: bb9a 6cbb b55d cbbb fb57 debb 96a0 3fbb
000002c0: 8bee f0bb 7e28 43bc de84 1cbc 6371 69bc
000002d0: dca8 9bbb f557 dd3b 1305 87ba 2fb0 9a3b
000002e0: b5aa 843c 3926 093c 903d e2bb b759 923b
000002f0: bc3f 65bb 21d6 0080 b925 0100 ddad 0000
00000300: a333 0000 fd67 0080 916a 0100 9a4c 0000
00000310: 4f5f 0180 6bf3 0180 0126 8cbb b3a3 4bbb
00000320: 6c2e ebbb 9310 723b 5750 a53b 15f7 1a3a
00000330: 888e 043b 4834 623b df81 32ba d1d0 1700
00000340: ca73 0d00 64d9 0b00 5d65 0a00 b0df 0a00
00000350: 722a 0d80 6608 0d80 4d0d 1280 160f 0c00
00000360: 08ba 0080 a008 0100 9d47 0000 efae 0180
00000370: 111e 0080 28c1 0100 7714 0100 df64 0000
00000380: fad6 0080 1682 8b3b a8ff ce3b ea67 ddb9
00000390: 6db8 053a 7598 2a3b 7f67 43bb 4981 9bba
000003a0: 4c01 913a d4e6 79bb d788 b03b 0e2e 593b
000003b0: 2d85 383d 048f 2bbd 2536 33bd f3b3 b3bb
000003c0: 99b7 12bd 6150 10bd 2786 4f3b a408 e03a
000003d0: 2808 57ba 5b00 00bb 2f50 eb3b 2d31 b83b
000003e0: 0f5e c03b 7414 ef3b 032e d43b 0f4c e73b
000003f0: 25ac a6bc fca8 b13c bf88 a2bc 3a3c a13c
-0.0023244456 -0.0022101402 -0.0053580333 0.0059144236 0.006376242 0.0037017437 0.006786126 0.0074814945
0.0049292473 0.001286319 0.001085486 0.0029832835 0.0017883679 0.0021143476 0.0054764254 0.007983247
0.010601686 0.014062933 -9.8287e-41 1.0856e-40 -4.628e-42 1.77912e-40 1.14514e-40 -1.257e-40
-4.7929e-41 -5.214e-42 -7.6836e-41 4.5070523e-25 2.2573452e-25 -2.722496e-25 4.147787e-25 -3.612108e-25
-9.448773e-26 -3.4119928e-25 4.3609256e-25 -3.432283e-25 -0.00095620455 -0.0035421024 -0.0052830307 0.004704615
0.0016422942 -0.0007299094 0.003765688 0.00021796983 -0.0024784545 -0.0116494335 -0.008604198 -0.006649241
-0.001846042 0.0010419706 0.0023329612 0.005827228 0.008832578 0.009548319 0.00257959 0.0005058588
0.0024769574 0.004321395 0.0027870785 0.0054823933 0.0060963808 0.0055243964 0.0078048087 -0.012616738
-0.028442342 -0.036775086 0.008574216 -0.009056848 -0.020187158 0.02320848 -0.0010744911 -0.013004994
-3.422e-41 -5.4512e-41 5.1355e-41 -1.8284e-41 -4.4893e-41 -9.3624e-41 -9.1827e-41 -2.5822e-41
-5.878e-41 5.806943e-07 -3.972353e-07 -2.5507404e-07 -4.9928803e-07 5.8892243e-07 -6.9817696e-07 -4.9738685e-07
-4.6629913e-07 5.48082e-07 -0.0013212607 -0.005044972 -0.0025977208 -0.00075506 -0.0041306387 -0.0015268944
0.0010250633 -0.0025871461 0.00030721063 -0.0069985692 -0.005223371 -0.0067561455 -0.0033797727 -0.0013021743
-0.004039449 -0.0028987955 -0.002038475 -0.0049021826 -0.007943773 0.015830426 -0.0059412615 0.010727441
0.034043573 0.012797327 -0.013004395 0.010332915 -0.011319576 -0.014016962 -0.0190165 -0.0053250687
-0.016917974 -0.022396266 -0.008965434 0.0020779492 -0.0038546773 0.010317322 -0.0025847107 -0.0004963727
-0.0012379765 -0.00040715365 0.002136826 0.0016479042 0.0016277323 0.00455032 0.00340869 -0.0042695077
-0.0053686933 -0.0028401564 -0.0004536528 -0.0014314058 0.00064509996 0.0016746515 0.00076451304 0.0029560933
-1.2542232e-15 -1.2468734e-15 -1.2709291e-15 -1.1080035e-15 -1.2127853e-15 -9.197945e-16 -1.3743837e-15 -1.2293703e-15
-1.3747828e-15 -0.0011003583 0.036379457 -0.00081610354 0.027100116 0.06549594 0.028518243 -0.010865405
0.027258663 -0.008903674 -2.3438699e-37 2.8479838e-37 1.9314106e-37 2.6835464e-37 -2.766668e-37 -1.8263665e-37
-2.821289e-37 -1.9576765e-37 1.6596282e-37 -0.007972131 -0.0036102969 -0.006206239 -0.0067853904 -0.0029240004
-0.0073526553 -0.01191151 -0.009553162 -0.014248225 -0.004750354 0.00675487 -0.0010301195 0.0047207098
0.01619468 0.008370929 -0.0069043115 0.0044662612 -0.0034980616 -7.6815e-41 1.05368e-40 6.237e-41
1.8524e-41 -3.7304e-41 1.30064e-40 2.748e-41 -1.26026e-40 -1.79157e-40 -0.0042769914 -0.0031072914
-0.007177165 0.0036936149 0.0050449776 0.0005911452 0.0020226557 0.0034516025 -0.00068095134 2.187126e-39
1.235399e-39 1.088176e-39 9.54717e-40 9.98599e-40 -1.209088e-39 -1.196874e-39 -1.65781e-39 1.107438e-39
-6.6735e-41 9.493e-41 2.569e-41 -1.5459e-40 -1.0786e-41 1.61127e-40 9.9177e-41 3.6186e-41
-7.7119e-41 0.004257451 0.0063170977 -0.00042229827 0.0005101029 0.0026030813 -0.0029816327 -0.0011864092
0.0011063009 -0.003813197 0.0053874063 0.0033139023 0.04504888 -0.041884437 -0.043752808 -0.005484098
-0.035819624 -0.035232905 0.0031665654 0.0017092419 -0.00082028145 -0.0019531462 0.0071811895 0.0056210966
0.0058705877 0.0072961394 0.0064752116 0.0070586274 -0.020345757 0.021687023 -0.019840596 0.019682039

e_conv7.bias f4 [8]
00000000: 9f73 b13c 3804 583c 1f55 623d c4a1 263d
00000010: c9bb be3c ee86 003d f374 aa3c 7a76 413c
0.021661578 0.0131846 0.05525696 0.040681615 0.023282902 0.03137868 0.020807719 0.011808032

e_conv8.weight f4 [8, 64, 3, 3]
00000000: 260c 313d 951e 123d f1dd e13a 1440 96bc
00000010: 6a3b 883a ad81 173c 3a00 a33b 1453 2b3c
00000020: e29b dbbc 1646 77bc ea6a b13b 0690 1fbc
00000030: e91f 403c 9cbe df3c e2a5 923c b1d3 a2bc
00000040: 64db f73b fa66 533c 4ff9 0080 ac8f 0000
00000050: aa92 0080 78ce 0000 701c 0000 1c29 0080
00000060: ccc4 0080 c49c 0000 2e39 0000 5145 a236
00000070: 95b2 ab36 2298 a336 fe08 ad36 4029 b936
00000080: 0f75 ae36 e05c a736 9a05 b136 88d3 b336
00000090: 440b 6abb d21a 343c 49ef b7bb 5308 fabc
000000a0: 227c 833b 32f7 073d 1e17 cdbc dada 813c
000000b0: 62e3 6a3c 292d 48bb 6b1f a93c af47 0a3d
000000c0: cd7c 563d 9e0b 1dbc 6fef 733c 6484 4cbc
000000d0: 71a5 e83c 0b50 b13c e0aa a63c 6f69 3b3c
000000e0: cdd3 fabb 140f 633c df48 173c fa65 e5bc
000000f0: ea1b 3b3c ee9c 0c3d 10e4 0fbd a6a8 c13b
00000100: 77d4 1b3b 3466 173b e685 0dbc fe6f 783b
00000110: 0af1 bfbb 6e6f baba 8fe4 dfba 42d2 e9ba
00000120: 4f76 edb4 d66d 65b5 52a4 77b5 a8ff 1ab5
00000130: 0adc 4bb5 ee10 a3b5 da56 7735 9e16 f9b4
00000140: 313c 33b5 a778 feba 968b feba e347 feba
00000150: 389f feba c2a9 feba 8f69 feba 895f feba
00000160: 2071 feba 492a feba 2530 b4ba d9ea 053c
00000170: eeb4 53ba 9d39 df3b e0cb 923c 6b71 f43b
00000180: 9c1e ddba ed37 a43b c686 4ebb 8b6f 803b
00000190: 7331 5bbc bfc4 2f3c c66b 7d3c d948 21bc
000001a0: 18b0 acba e633 b13c 0ba0 b43b 0245 9a3c
000001b0: 563f 15bb 8694 9d3a c5cc 1abb e02f 73bb
000001c0: df69 be3b 1000 55bb 99d9 6e3a aefb 4c39
000001d0: 201d 26ba 784a e3ba 8989 873b c881 6bb9
000001e0: f198 85bb 62c4 c93b 78ad 97b9 900d 97bb
000001f0: 2d33 6b3b 9259 adbb 38b6 c33c ffa9 163c
00000200: 491e 4bbb c5ff dbbb 2434 41bc 8fbc 293c
00000210: b11e 83bc bcb8 d33b e7c1 013c 494e 473d
00000220: 276b bd3c 473b f83b e3ee 103d 43cb aa3c
00000230: 031d 873a 7851 a8bc 8e3a 82bc 8a71 bdba
00000240: 2408 daa8 1551 daa8 3252 d5a8 d8eb d7a8
00000250: a3a4 26a9 cea9 e5a8 78fc e9a8 f88e eba8
00000260: fd29 eba8 4739 ae3a cad4 5339 886b 42bc
00000270: 92e0 953b 9ba8 79bb 1a81 dd3b 605c 32ba
00000280: 1df5 2b3c ffb4 99bb fdff 1f85 da6d 2585
00000290: 2577 2f85 e201 4784 c46c 6184 0cfc fa84
000002a0: 3a98 0684 adf0 1484 9ce6 d684 0da9 19b7
000002b0: a53d 443c d324 f9bb fdf3 44bb 8972 cd3c
000002c0: e8a8 3bbb 07e6 4fbc 9d04 09bc 0929 aa3c
000002d0: 76d0 3c39 e05d c1ba 0a0d e6ba b80f 92ba
000002e0: bb56 8eb8 1091 15bb 55f4 103b 3da3 c0ba
000002f0: e992 34b9 dc20 5c26 3fe1 6026 f968 5326
00000300: 0819 5e26 2de7 6026 1c80 5226 ca81 4d26
00000310: e412 5126 9ee8 4326 c83f f2bb 3455 853c
00000320: a531 cbbb 2583 573c b9d6 2a3d 5116 4e3c
00000330: d2c9 c739 12c8 d03c 97e0 463a 5148 5d39
00000340: b7b5 5f39 3ba9 5f39 b352 5f39 7655 6139
00000350: 9454 6139 4dd3 5f39 60b1 6139 4193 6139
00000360: 6091 0080 d59a 0080 34c9 0080 1061 0080
00000370: 653c 0080 4ca5 0080 2cc9 0080 6d1e 0080
00000380: acc6 0080 e026 b7bc e613 0fbc 64e2 823c
00000390: f82d 873b 8dec fd3b b141 a63b b4f0 c6bb
000003a0: 4f0a 353c ab9e d03c b0ea e3ba 6dcd df3b
000003b0: 49e1 26bb c9de c93a 676a 0b3c d99a b0ba
000003c0: be82 25bb 7b3b 833b a435 7fbb 14a8 d5bc
000003d0: 1bb1 093b 3826 6fbc 166a 853c c5b0 0bbc
000003e0: 9810 35bb 6679 093c 13ed fa3c 0ed0 87bc
000003f0: 1886 67bb dcdc 523c f9f1 c0bb f472 0f3c
0.043224476 0.035673697 0.0017232281 -0.018341102 0.0010393683 0.009247226 0.0049743922 0.010456819
-0.02680773 -0.015092393 0.0054143565 -0.009738928 0.011726358 0.02731257 0.017901365 -0.019876333
0.007563995 0.0129029695 -8.9435e-41 5.154e-41 -5.2613e-41 7.4067e-41 1.0201e-41 -1.4747e-41
-7.0597e-41 5.6237e-41 2.0512e-41 4.8360457e-06 5.116987e-06 4.875489e-06 5.1568486e-06 5.518232e-06
5.1992315e-06 4.9878e-06 5.275663e-06 5.359241e-06 -0.0035712281 0.010992723 -0.005613242 -0.030521547
0.0040126005 0.03319473 -0.025035437 0.015851427 0.014336439 -0.0030544496 0.020644864 0.03375977
0.052365113 -0.009585289 0.014888628 -0.012482736 0.028399201 0.021644613 0.020345151 0.011438712
-0.007654643 0.013858575 0.009233682 -0.028002728 0.011420229 0.034329347 -0.035129607 0.005909997
0.0023777762 0.002310169 -0.008637881 0.003790855 -0.0058575915 -0.0014223882 -0.0017081666 -0.0017839151
-4.423077e-07 -8.546898e-07 -9.225379e-07 -5.77415e-07 -7.594359e-07 -1.2149374e-06 9.2141056e-07 -4.639632e-07
-6.6770286e-07 -0.0019414619 -0.0019420262 -0.0019400086 -0.0019426113 -0.0019429254 -0.0019410121 -0.0019407134
-0.0019412376 -0.0019391264 -0.0013747258 0.008173668 -0.0008075972 0.006812288 0.01791948 0.0074598095
-0.0016870084 0.0050115497 -0.0031513437 0.003919547 -0.013378489 0.01072806 0.01546759 -0.009844028
-0.0013175039 0.021631192 0.0055122427 0.018831734 -0.0022773347 0.0012022413 -0.0023620587 -0.0037107393
0.0058109607 -0.0032501258 0.0009111404 0.00019548714 -0.00063367374 -0.0017340919 0.0041362685 -0.00022459694
-0.00407707 0.006157444 -0.0002893021 -0.004609771 0.0035888657 -0.0052902186 0.0238906 0.009195804
-0.0030993393 -0.0067138397 -0.011792216 0.010359897 -0.016005846 0.006461231 0.007919765 0.048658643
0.023122383 0.007575426 0.03538407 0.020848876 0.0010308329 -0.02054666 -0.015897062 -0.0014453393
-2.4206392e-14 -2.4238026e-14 -2.3683397e-14 -2.3972076e-14 -3.7002204e-14 -2.5497748e-14 -2.5977687e-14 -2.6152244e-14
-2.610845e-14 0.0013292216 0.00020201798 -0.011866458 0.00457389 -0.0038094881 0.006759775 -0.0006803926
0.010495451 -0.004690766 -7.523162e-36 -7.778439e-36 -8.250344e-36 -2.3393202e-36 -2.6498566e-36 -5.9006186e-36
-1.5821523e-36 -1.750783e-36 -5.052294e-36 -9.158871e-06 0.011977588 -0.0076032667 -0.0030052655 0.025079029
-0.0028634612 -0.01268912 -0.008362916 0.02077152 0.00018006735 -0.0014752708 -0.0017551493 -0.00111436
-6.7872425e-05 -0.002282206 0.002211829 -0.0014697086 -0.00017220866 7.6372366e-16 7.8020877e-16 7.3347595e-16
7.7055646e-16 7.8028913e-16 7.3032007e-16 7.129956e-16 7.2537043e-16 6.796947e-16 -0.007392857 0.01627598
-0.0062009864 0.013153826 0.04170868 0.012578563 0.00038106606 0.025486026 0.0007586567 0.00021103142
0.00021334631 0.0002132998 0.00021297745 0.00021489509 0.0002148918 0.00021345653 0.0002152375 0.00021512528
-5.2151e-41 -5.5543e-41 -7.2178e-41 -3.482e-41 -2.1665e-41 -5.9297e-41 -7.2167e-41 -1.0915e-41
-7.127e-41 -0.022357404 -0.0087327715 0.015977092 0.004125353 0.0077491463 0.005073749 -0.0060711745
0.011049821 0.025466284 -0.0017388668 0.0068299086 -0.002546387 0.0015401478 0.008509255 -0.0013473883
-0.002525493 0.0040048934 -0.0038941884 -0.026081122 0.0021010104 -0.014596514 0.016285937 -0.008526032
-0.00276283 0.00839076 0.030630624 -0.0165787 -0.003532773 0.01287004 -0.0058882204 0.008755434
