snapshots/Epoch186.pth (torch, 304045 bytes, 14 tensors)

e_conv1.weight f4 [32, 3, 3, 3]
-0.00020128766 -0.00020890008 -0.00021088947 -0.00020344545 -0.00021333658 -0.00021379309 -0.00020262085 -0.00021143508
-0.00021343325 -0.00024827116 -0.00025628397 -0.00025703126 -0.00024759033 -0.00025784815 -0.00025697742 -0.00024346916
-0.00025234642 -0.0002535232 -0.00016736778 -0.00017440079 -0.00017445216 -0.00016736827 -0.00017628242 -0.00017502207
-0.00016357015 -0.00017115346 -0.00017160329 0.012423439 0.0054486715 0.005330749 0.026253993 0.017802093
0.030286683 0.059570223 0.04739565 0.06965434 0.004488103 -0.009214379 0.00953746 0.00965938
0.005653288 0.018184373 0.045946814 0.038730286 0.05293043 -0.015514251 -0.02184959 -0.024091356
-0.011023089 -0.018431433 -0.01139917 0.0077578933 0.00073138584 0.026381284 -0.021846848 -0.039599866
-0.03185219 -0.011126252 -0.030389518 -0.030398255 0.003247957 -0.015668511 -0.021226326 0.006722472
0.005112466 0.0025780883 0.013867169 0.007984381 0.005025491 0.043802753 0.021841794 0.0010491007
0.04444901 0.040337462 0.039649308 0.05243674 0.038849838 0.044010017 0.06302909 0.041858148
0.040334493 -0.019651795 0.002087249 0.017718267 -0.03481518 -0.012509385 0.013037032 -0.040468976
-0.014201783 0.029525528 -0.029763307 -0.00073222915 0.017472845 -0.029528871 -0.010902274 0.013504385
-0.043612476 -0.004436699 0.029374214 -0.008450544 0.0039814194 0.013076143 -0.015686758 0.0019789324
0.012386019 -0.030124824 -0.0007350372 0.030733641 0.0389073 0.040886667 0.095149934 0.006424905
0.007997008 0.054461565 -0.0036803035 0.003855478 0.050819464 0.031208433 0.032964874 0.08383618
-0.0010422122 0.00019098585 0.042885773 -0.010033947 0.0003978696 0.04412991 0.014545633 0.012281701
0.054274812 -0.0119281905 -0.011692663 0.022040542 -0.022652404 -0.014125117 0.021124791 -0.00014833703
-0.00015382953 -0.00015210676 -0.00015356293 -0.00016040185 -0.00015634955 -0.00015263278 -0.00015706052 -0.00015342739
-0.00014849496 -0.00015399251 -0.0001516892 -0.0001516723 -0.00015842513 -0.00015386948 -0.00014879754 -0.0001531322
-0.00014898735 -7.467332e-05 -7.99667e-05 -7.8327386e-05 -7.699351e-05 -8.3141495e-05 -7.971167e-05 -7.442586e-05
-7.856279e-05 -7.5496646e-05 0.078559406 0.02803953 -0.023652298 0.05640151 0.019115625 -0.032910872
0.04653378 0.00067071756 -0.051069878 0.06418759 0.021861184 -0.039854817 0.042661466 0.008096784
-0.032996573 0.030438036 -0.021244869 -0.06989945 0.03620045 -9.838092e-06 -0.03167498 0.022717897
0.00122425 -0.027860012 0.025815139 -0.018308017 -0.061791677 -3.144099e-11 -3.2912516e-11 -3.7197377e-11
-3.1822333e-11 -3.3588788e-11 -3.6734255e-11 -3.2400607e-11 -3.3126828e-11 -3.6845027e-11 -2.9773708e-11 -3.0711676e-11
-3.4567724e-11 -2.8480792e-11 -2.9521982e-11 -3.213085e-11 -2.7202072e-11 -2.7169156e-11 -3.0091825e-11 -4.485823e-12
-4.671145e-12 -5.4101294e-12 -4.3290037e-12 -4.524011e-12 -5.026437e-12 -4.082157e-12 -4.055935e-12 -4.5860004e-12
-1.4461124e-16 -1.1440728e-16 -9.7642113e-17 -1.7940696e-16 -1.4510398e-16 -1.1396791e-16 -2.4965746e-16 -1.8302243e-16
-1.5288835e-16 -7.222966e-18 -5.0239865e-18 -3.875027e-18 -7.140637e-18 -5.0534072e-18 -3.5841657e-18 -9.153916e-18
-5.842212e-18 -4.4689893e-18 -1.304002e-18 -9.555955e-19 -6.591797e-19 -1.1788675e-18 -8.732202e-19 -5.3815786e-19
-1.1605837e-18 -7.574069e-19 -5.2905283e-19 -0.06888163 -0.042256165 -0.06491347 -0.03188317 -0.017174684
-0.01927695 -0.005460572 0.017743517 0.01654263 -0.058906436 -0.026435997 -0.0471203 -0.018150162
00000000: bf10 53b9 300c 5bb9 3622 5db9 f953 55b9
00000010: 1ab3 5fb9 a52d 60b9 9f76 54b9 acb4 5db9
00000020: 0dcd 5fb9 642a 82b9 da5d 86b9 27c2 86b9
00000030: 03cf 81b9 cb2f 87b9 edba 86b9 c14b 7fb9
00000040: 5d4d 84b9 4feb 84b9 727f 2fb9 5bdf 36b9
00000050: 25ed 36b9 947f 2fb9 74d8 38b9 2186 37b9
00000060: 0784 2bb9 a877 33b9 68f0 33b9 ae8b 4b3c
00000070: c58a b23b 90ad ae3b 9d12 d73c b2d5 913c
00000080: c71b f83c e8ff 733d f121 423d efa6 8e3d
00000090: f010 933b e8f7 16bc 0243 1c3c 6042 1e3c
000000a0: 383f b93b 65f7 943c ba32 3c3d a6a3 1e3d
000000b0: 94cd 583d 7c2f 7ebc e9fd b2bc 3c5b c5bc
000000c0: 309a 34bc 84fd 96bc 96c3 3abc ed35 fe3b
000000d0: 79ba 3f3a 901d d83c 29f8 b2bc 7833 22bd
000000e0: 7177 02bd e24a 36bc 70f3 f8bc c305 f9bc
000000f0: addb 543b 405b 80bc d5e2 adbc 2f48 dc3b
00000100: 7986 a73b 25f5 283b 1f33 633c ecd0 023c
00000110: e0ac a43b 846a 333d 90ed b23c fa81 893a
00000120: 2a10 363d e538 253d 5067 223d e8c7 563d
00000130: 0221 1f3d d943 343d 6515 813d 7373 2b3d
00000140: c835 253d cdfc a0bc 3aca 083b e625 913c
00000150: 5d9a 0ebd 2af4 4cbc 4799 553c ccc2 25bd
00000160: 98ae 68bc 85df f13c 2ed2 f3bc 11f3 3fba
00000170: 3623 8f3c 88e6 f1bc 749f 32bc 7f41 5d3c
00000180: ffa2 32bd bb61 91bb 31a2 f03c 2774 0abc
00000190: 9176 823b 523d 563c 8481 80bc fab0 013b
000001a0: bbee 4a3c 56c8 f6bc 83af 40ba 1ec5 fb3c
000001b0: 435d 1f3d c778 273d f8dd c23d 0288 d23b
000001c0: e205 033c 1713 5f3d 3f31 71bb 30ac 7c3b
000001d0: 1228 503d d4a8 ff3c 2d06 073d 4eb2 ab3d
000001e0: d79a 88ba 6043 4839 fea8 2f3d 6d65 24bc
000001f0: 2799 d039 91c1 343d cf50 6e3c 3039 493c
00000200: 444f 5e3d 756e 43bc 9592 3fbc 5e8e b43c
00000210: 8991 b9bc 096d 67bc e60d ad3c eb8a 1bb9
00000220: 4d4d 21b9 d97e 1fb9 bc05 21b9 8b31 28b9
00000230: c3f1 23b9 0d0c 20b9 9db0 24b9 5ae1 20b9
00000240: 50b5 1bb9 0d79 21b9 c20e 1fb9 390a 1fb9
00000250: ec1e 26b9 0658 21b9 8906 1cb9 1d92 20b9
00000260: 7d39 1cb9 ef99 9cb8 ccb3 a7b8 b243 a4b8
00000270: 9377 a1b8 405c aeb8 e12a a7b8 1415 9cb8
00000280: 14c2 a4b8 f453 9eb8 c1e3 a03d 28b3 e53c
00000290: 77c2 c1bc 4505 673d 5f98 9c3c 8dcd 06bd
000002a0: 349a 3e3d 18d3 2f3a a62e 51bd c874 833d
000002b0: 3a16 b33c ce3e 23bd cabd 2e3d 60a8 043c
000002c0: 6a27 07bd 3059 f93c b809 aebc 7127 8fbd
000002d0: ec46 143d 490e 25b7 a0bd 01bd e21a ba3c
000002e0: 0377 a03a ae3a e4bc 457a d33c b2fa 95bc
000002f0: 4519 7dbd 6847 0aae 33c0 10ae 8698 23ae
00000300: c3f4 0bae 9db9 13ae 188f 21ae d77f 0eae
00000310: 7eb1 11ae d00b 22ae 37f2 02ae 4612 07ae
00000320: cc07 18ae 0b85 faad ccd6 01ae 1f50 0dae
00000330: 9f45 efad 80fb eead 6258 04ae b4d4 9dac
00000340: ef59 a4ac 1d5a beac 3350 98ac ab2c 9fac
00000350: 1fda b0ac cda0 8fac 9db4 8eac 055b a1ac
00000360: b4b9 26a5 12e7 03a5 bb25 e1a4 97d7 4ea5
00000370: 234b 27a5 6465 03a5 f0ea 8fa5 b002 53a5
00000380: ad44 30a5 7e3d 05a3 365a b9a2 98f6 8ea2
00000390: b4b8 03a3 1570 baa2 7d3b 84a2 25dc 28a3
000003a0: 228a d7a2 69e0 a4a2 cd6f c0a1 6105 8da1
000003b0: 368e 42a1 5bf8 ada1 54dd 80a1 0fd6 1ea1
000003c0: 9d45 aba1 0c8c 5fa1 1a26 1ca1 d011 8dbd
000003d0: cd14 2dbd 5af1 84bd ed97 02bd ecb1 8cbc
000003e0: b2ea 9dbc 99ee b2bb da5a 913c 6984 873c
000003f0: e047 71bd 4e90 d8bc 3701 41bd a6af 94bc

e_conv1.bias f4 [32]
-0.00043678586 0.061568048 0.021273918 0.112059385 0.0538573 -0.00018120976 0.07559099 -6.360144e-07
-9.50858e-10 0.083136305 -3.3299752e-14 -1.5900965e-30 0.014465173 0.0664807 -7.827944e-05 0.1429389
0.11593751 0.096083105 0.17453508 0.15535519 -5.1929797e-05 0.1373632 -0.012250897 0.11661457
-2.923116e-26 -0.00020262561 0.025027214 -7.6948485e-33 -1.4003418e-11 -0.027395356 0.09734057 -3.37947e-10
00000000: 6800 e5b9 c72e 7c3d a446 ae3c 647f e53d
00000010: 7999 5c3d 2003 3eb9 73cf 9a3d 94ba 2ab5
00000020: 57af 82b0 5e43 aa3d 00f8 15a9 0301 018e
00000030: 55ff 6c3c 0927 883d f429 a4b8 935e 123e
00000040: a570 ed3d 38c7 c43d 53b9 323e 6e15 1f3e
00000050: 32cf 59b8 f0a8 0c3e fcb7 48bc 9fd3 ee3d
00000060: e6be 1095 e677 54b9 df05 cd3c d5d0 1f8a
00000070: ca59 76ad 3a6c e0bc 7e5a c73d d0c9 b9af

e_conv2.weight f4 [32, 32, 3, 3]
-5.37418e-19 -5.2136656e-19 4.1548354e-19 3.787194e-20 -4.2604775e-19 -3.2950778e-19 2.1306856e-19 -1.108914e-19
-5.220849e-19 0.003211664 -0.0035933447 0.0012559992 -0.00013781298 -0.00039494602 -0.0021712226 0.0058568665
0.0083075855 0.0012144904 -0.002128063 -0.0026397456 -0.0029369292 -0.00062900956 -0.0021443123 -0.002986708
0.001186081 0.00014659394 -0.00034424313 -0.002475121 0.0028242979 0.0047718915 -0.002413167 -0.00011646893
0.0010682486 -0.0045784237 0.0006384092 0.00261556 -0.00083992654 -0.0016409756 -0.0016981711 0.001970809
-0.005598588 0.00086276775 0.0031558499 -0.0063698506 -0.003834961 -6.495702e-23 2.0945552e-22 -8.0997915e-23
-2.251245e-22 -7.098798e-24 2.0092157e-22 -2.1975393e-22 -6.0159315e-23 2.064789e-22 0.0033522374 0.003175302
0.00049465685 0.0036643906 0.0037013271 0.00070466497 0.0039672926 0.0034386355 0.0010238122 -8.217e-41
1.829e-42 5.6959e-41 2.0303e-41 8.7002e-41 8.647e-41 7.545e-41 -7.7968e-41 -7.1512e-41
4.597e-41 -9.4163e-41 -4.0042e-41 8.0597e-41 4.9707e-41 -2.6738e-41 -2.1912e-41 2.8043e-41
-5.625e-42 0.0007975499 0.0004005783 0.0014114792 0.00040618406 -0.00013320704 0.00083023484 0.0026607816
0.0021493547 0.0025090866 -1.5354586e-15 -7.3863136e-16 -1.344888e-15 -1.5159476e-15 -1.5444383e-15 -1.138555e-15
-1.5734862e-15 -1.4012284e-15 -1.4794205e-15 -5.9638494e-32 -5.376656e-32 -5.04946e-32 -5.8728256e-32 -6.303967e-32
-5.444987e-32 -5.851256e-32 -5.7413883e-32 -5.482579e-32 0.00030321395 0.00033546236 -0.00011812063 0.00092514115
0.0006958719 0.00029626934 0.0025923054 0.0022973954 0.0017753023 0.0009099051 0.0012848589 0.0009339407
0.00090208056 0.0013934751 0.0010183391 0.0009355916 0.001488767 0.001207887 -1.1347689e-36 3.178687e-35
3.3643217e-35 -3.153773e-35 4.362061e-36 2.2680465e-35 1.5539117e-35 -2.3635011e-35 -1.8293935e-35 0.002456998
0.004834362 0.0018486015 0.0051368084 0.0058738487 0.0047485563 -0.00010881305 -0.005270004 -0.0017315062
-0.0012070396 -0.0014263906 0.00046957977 -0.0024000322 0.003998993 0.004183874 -0.0041200104 0.0017058192
0.0014963453 0.0020815146 0.0013698371 0.0013651862 0.0012970113 0.0020084665 0.0014868457 0.0009917434
0.001651137 0.001092603 0.0013926657 -0.006062908 -0.0040335436 0.00022616687 0.0014840926 0.0068970583
-0.010811626 0.0071578105 0.012950155 0.005027258 0.0056808637 0.0028729488 0.0024623752 0.0034748253
0.002272283 -0.00018230254 0.0012117844 0.007248671 4.5624615e-06 4.6012433e-06 4.490974e-06 4.8548754e-06
4.513168e-06 4.5160878e-06 4.968738e-06 4.7501417e-06 4.6709465e-06 -0.004452858 0.005858895 0.007223559
-0.004450375 0.015428439 0.01052029 0.0056994045 0.010937904 0.007227839 0.00028465083 -0.000115409464
-0.0010257819 0.00031696414 0.00015500293 -0.00065206824 -6.412815e-05 0.00033591918 -0.00078479666 0.0030800458
0.0031012078 0.0034253036 0.0026145428 0.0035748028 0.0018807705 -0.00079765805 0.0035547125 0.0010360936
1.12503e-40 -1.45794e-40 1.35e-43 -1.19915e-40 1.35598e-40 -1.59189e-40 1.30764e-40 8.5675e-41
-1.4954e-40 -4.6486418e-23 1.8378967e-22 -5.4318425e-23 -1.6937605e-22 -8.053806e-23 1.8226404e-22 -1.7945677e-22
-1.2816301e-22 1.8176514e-22 0.0009784576 -0.00045163577 -0.00025376992 -0.0013177104 -0.003100461 -0.00697516
0.0068939985 -0.0023604105 -0.007290504 -5.158431e-35 -3.8476978e-35 -3.5192702e-35 -4.10881e-35 -4.193525e-35
-4.503869e-35 -4.1708316e-35 -5.398568e-35 -3.891762e-35 -8.5092507e-13 -8.2272795e-13 -9.952134e-13 -4.0615645e-13
00000000: 289e 1ea1 58e1 19a1 1942 f520 5ed8 321f
00000010: 847e fba0 cf81 c2a0 058c 7b20 dfea 02a0
00000020: 9f17 1aa1 c87a 523b 527e 6bbb 57a0 a43a
00000030: e481 10b9 c210 cfb9 124b 0ebb f5ea bf3b
00000040: 8a1c 083c 892f 9f3a f976 0bbb 95ff 2cbb
00000050: 7f79 40bb 1ee4 24ba 9787 0cbb a5bc 43bb
00000060: 4676 9b3a 03b7 1939 887b b4b9 a435 22bb
00000070: db17 393b 875d 9c3b 3926 1ebb c840 f4b8
00000080: 7a04 8c3a 9a06 96bb eb5a 273a d169 2b3b
00000090: 842e 5cba 0116 d7ba 2b95 deba b028 013b
000000a0: 5c74 b7bb 5d2b 623a 60d2 4e3b 2eba d0bb
000000b0: f853 7bbb 730e 9d9a 5837 7d1b 48d7 c39a
000000c0: 5414 889b 8c4f 0999 37e6 721b 46d5 849b
000000d0: d074 919a 209e 791b 36b1 5b3b ba18 503b
000000e0: dcab 013a 4626 703b f791 723b 44b9 383a
000000f0: 1000 823b bb5a 613b 7031 863a 0ee5 0080
00000100: 1905 0000 c79e 0000 9938 0000 87f2 0000
00000110: 0bf1 0000 53d2 0000 58d9 0080 59c7 0080
00000120: 2580 0000 7d06 0180 9f6f 0080 ace0 0000
00000130: 908a 0000 894a 0080 153d 0080 2c4e 0000
00000140: ae0f 0080 ab12 513a b604 d239 6201 b93a
00000150: 1af5 d439 7ead 0bb9 1ea4 593a 8260 2e3b
00000160: 30dc 0c3b 7d6f 243b 6c48 dda6 60e5 54a6
00000170: 9cd1 c1a6 9878 daa6 b793 dea6 4415 a4a6
00000180: 65c3 e2a6 34f0 c9a6 fc34 d5a6 94d4 9a8b
00000190: 0296 8b8b 6b17 838b 9f77 988b 0ca9 a38b
000001a0: 255c 8d8b 44e8 978b 120e 958b fd55 8e8b
000001b0: b0f8 9e39 ffe0 af39 88b7 f7b8 2c85 723a
000001c0: 2c6b 363a 9954 9b39 abe3 293b e68f 163b
000001d0: 43b1 e83a b386 6e3a b668 a83a b3d3 743a
000001e0: 9a79 6c3a 44a5 b63a ca79 853a 7d42 753a
000001f0: bb22 c33a f651 9e3a 2812 c183 0c02 2906
00000200: c6e0 3206 efae 2786 a38a b904 192e f105
00000210: 803d a505 9f54 fb85 d488 c285 9605 213b
00000220: 9169 9e3b c64c f23a ac52 a83b 6a79 c03b
00000230: c799 9b3b 9032 e4b8 ffaf acbb b5f3 e2ba
00000240: 8735 9eba baf5 baba ee31 f639 dc49 1dbb
00000250: fc09 833b e118 893b 2701 87bb cb95 df3a
00000260: 0421 c43a 056a 083b 1b8c b33a 0cf0 b23a
00000270: 7a00 aa3a 7aa0 033b 43e2 c23a 63fd 813a
00000280: f76a d83a ac35 8f3a 1b8a b63a 5cab c6bb
00000290: d12b 84bb 3527 6d39 e285 c23a b800 e23b
000002a0: 3f23 31bc 118c ea3b e32c 543c b2bb a43b
000002b0: 8a26 ba3b 1548 3c3b cd5f 213b e5b9 633b
000002c0: 95ea 143b 7728 3fb9 bdd4 9e3a 4286 ed3b
000002d0: 3f17 9936 6164 9a36 2cb1 9636 10e7 a236
000002e0: d16f 9736 e688 9736 22b9 a636 6863 9f36
000002f0: 20bb 9c36 48e9 91bb f9fb bf3b 9bb3 ec3b
00000300: 74d4 91bb 90c7 7c3c 4b5d 2c3c 12c2 ba3b
00000310: e534 333c 82d7 ec3b 303d 9539 fc07 f2b8
00000320: 8773 86ba 352e a639 4888 2239 8fef 2aba
00000330: 8a7c 86b8 4f1e b039 d0ba 4dba 98da 493b
00000340: a23d 4b3b 0f7b 603b c058 2b3b 3d47 6a3b
00000350: 3084 f63a ed19 51ba 2ef6 683b 88cd 873a
00000360: 9d39 0100 6a96 0180 6000 0000 464e 0180
00000370: fe79 0100 c1bb 0180 846c 0100 d4ee 0000
00000380: dba0 0180 66cb 609a 2630 5e1b 7a55 839a
00000390: 59c3 4c9b a5ba c29a fd57 5c1b 2ef3 589b
000003a0: 88f0 1a9b 96bd 5b1b 973f 803a 87c9 ecb9
000003b0: 6c0c 85b9 06b7 acba 1b31 4bbb e28f e4bb
000003c0: 0de7 e13b 1eb1 1abb 2ee5 eebb 7622 8986
000003d0: 2694 4c86 d31d 3b86 3976 5a86 4ef7 5e86
000003e0: 7d77 6f86 6bc2 5d86 c084 8f86 ebeb 4e86
000003f0: 9d83 6fab cc93 67ab 5710 8cab 50a5 e4aa

e_conv2.bias f4 [32]
-0.025197774 -0.00053627894 0.04818377 -2.3614902e-08 0.03951944 0.03627934 0.0026836293 0.04871485
0.05793279 0.036742453 -0.025393829 -6.5461263e-06 -3.5705976e-17 -0.008494651 0.011570986 -2.7365445e-31
0.03178225 0.015212377 -1.1728997e-34 -0.0068502035 -1.3843845e-07 0.015523421 -1.6653098e-34 0.04481675
-0.002426438 0.052295245 0.04419562 -0.0034003507 -4.8844413e-06 0.0026055127 -5.773563e-17 0.05097467
00000000: 906b cebc 1295 0cba 585c 453d b8d9 cab2
00000010: 23df 213d a599 143d d4df 2f3b 3989 473d
00000020: ef4a 6d3d 417f 163d b806 d0bc cca6 dbb6
00000030: 2daa 24a4 262d 0bbc 3c94 3d3c a59c b18c
00000040: 1b2e 023d 553d 793c b5e7 1b87 ac77 e0bb
00000050: aca5 14b4 f255 7e3c 8e5b 5d87 c591 373d
00000060: e004 1fbb 8a33 563d 7706 353d 6bd8 5ebb
00000070: 08e5 a3b6 40c1 2a3b 1a21 85a4 d1ca 503d

e_conv3.weight f4 [32, 64, 3, 3]
-3.749662e-18 6.6104247e-19 5.0174096e-18 9.712014e-19 -3.669894e-18 2.1235348e-18 2.129338e-18 4.1451825e-19
-4.978141e-18 -0.0016699708 0.012807471 0.014800887 -0.008059883 0.0061855484 0.008622637 -0.026702229
-0.01125445 -0.0075765424 -0.003674445 0.007128006 0.006223572 -0.006031865 0.004956516 0.003910195
-0.015166534 -0.006037134 -0.006243583 0.0031935957 0.0041063144 0.0029131223 0.004097086 0.004355111
0.0025930335 -0.007357154 -0.004938522 -0.0052432194 -0.0035053415 0.01100464 0.011967913 -0.0020832212
0.011217315 0.010919882 -0.020255923 -0.0084460685 -0.0059681013 -2.3383354e-18 -1.3967666e-17 8.295866e-19
3.0742441e-19 -5.8008518e-18 -1.220449e-17 -1.7516643e-20 2.6756155e-19 2.2651028e-19 -0.004666923 0.007388783
0.004051053 -0.0035898117 0.011070132 0.008869966 -0.009794434 0.000926955 -0.005128837 -8.032e-41
-4.5502e-41 6.803e-41 -7.2212e-41 -8.844e-42 4.8867e-41 -7.9234e-41 -4.0146e-41 -8.8949e-41
-9.626e-42 8.429e-42 -6.4278e-41 1.5957e-41 -2.458e-41 3.1676e-41 3.7039e-41 9.0513e-41
1.0721e-41 0.0016292916 0.00540266 0.0023861967 -0.00038075485 0.0009621534 -0.0019907276 -0.0072725313
-0.005825477 -0.0050570425 8.432599e-16 8.287942e-16 4.8369584e-16 8.1488074e-16 8.0325945e-16 7.578314e-16
8.14016e-16 8.004655e-16 5.984509e-16 1.4761799e-31 1.7974141e-31 1.9069812e-31 1.4500125e-31 1.7702127e-31
1.8646734e-31 1.2558273e-31 1.541472e-31 1.7323603e-31 -0.0019328119 0.0003809837 -0.00059799413 -0.0019268834
-0.00068801886 -0.0018787675 0.0010298386 0.0017682381 0.0019513199 -0.0057062586 -0.00091986597 -0.0021321124
-0.006749616 -0.0017710483 -0.0030184612 -0.010689493 -0.0063933167 -0.008441458 2.6431484e-35 -1.5840207e-34
-7.217544e-35 1.141568e-34 4.967386e-35 -1.066383e-34 9.758749e-35 -1.1437063e-34 -8.7946085e-35 -0.010657337
0.00997321 0.01343005 -0.004408589 0.009311316 0.0106332395 -0.0339132 -0.01534439 -0.011476469
-0.003180599 0.00698713 0.008362044 -0.00440662 0.0073153744 0.005484072 -0.018324189 -0.0070204227
-0.0069338367 -0.0025382538 0.002591886 0.0017128239 0.00016027779 0.0065831123 0.0054639503 -0.0071880096
-0.00086290966 -0.004076244 -0.004971136 0.013030601 0.014349085 -0.004724312 0.008623825 0.015556634
-0.032130893 -0.013627619 -0.010079879 0.0006417733 0.007274458 0.007426905 -0.0008055172 0.0046346295
0.003331044 -0.015459328 -0.009728528 -0.008945119 9.386864e-06 1.00766665e-05 9.859275e-06 9.36529e-06
9.8372175e-06 9.89276e-06 9.982472e-06 1.0546671e-05 1.0376107e-05 -0.0032152364 0.010109807 0.00911629
-0.0059808693 0.009022531 0.010660757 -0.027417868 -0.015792122 -0.008753875 -0.00730177 0.00095941534
0.004034429 -0.006246053 0.0035785753 0.0071809967 -0.013080688 -0.0048277588 -0.0020113061 -0.0026604861
0.0066233175 0.004963913 -0.0030406853 0.0062669977 0.0046935235 -0.010392663 -0.0023967514 -0.005458835
1.32591e-40 1.08e-42 2.2185e-41 1.08563e-40 -1.23924e-40 -4.116e-41 -1.47257e-40 1.33241e-40
1.18997e-40 -1.8178228e-22 -5.4936026e-22 2.9424903e-22 7.179343e-22 -6.974064e-22 -9.04173e-22 -5.475017e-22
5.513871e-22 6.68806e-22 -0.0037199096 0.009143004 0.012392786 -0.0074580763 0.014925673 0.009365681
-0.02541192 -0.010463768 -0.008286979 2.733155e-35 1.8353474e-34 1.5412982e-34 2.5150152e-35 8.9547386e-35
1.390031e-34 2.292154e-35 5.366578e-35 2.0123207e-34 1.9672966e-12 -1.993863e-12 -1.9630972e-12 -6.6608806e-13
00000000: 8e56 8aa2 f51a 4321 181c b922 f452 8f21
00000010: 2b65 87a2 70b0 1c22 0f1e 1d22 3ab0 f420
00000020: 36a9 b7a2 ece2 daba 6dd6 513c 6b7f 723c
00000030: 990d 04bc 24b0 ca3b f645 0d3c a2be dabc
00000040: 9664 38bc a544 f8bb f5ce 70bb 0c92 e93b
00000050: 1bef cb3b f3a6 c5bb 456a a23b 1821 803b
00000060: 0e7d 78bc 27d3 c5bb f896 ccbb a54b 513b
00000070: 438e 863b 15ea 3e3b d940 863b 52b5 8e3b
00000080: e2ef 293b 4814 f1bb 53d3 a1bb 50cf abbb
00000090: dfb9 65bb ce4c 343c 1115 443c a786 08bb
000000a0: d4c8 373c 4ee9 323c c0ef a5bc 6161 0abc
000000b0: 1090 c3bb e889 2ca2 38d4 80a3 cbd9 7421
000000c0: aa78 b520 7f03 d6a2 1322 61a3 a570 a59e
000000d0: c2f0 9d20 44b5 8520 fdec 98bb 9b1d f23b
000000e0: b2be 843b 0c43 6bbb 805f 353c 5553 113c
000000f0: d578 20bc e6fe 723a ce0f a8bb e6df 0080
00000100: d77e 0080 a4bd 0000 4cc9 0080 a718 0080
00000110: 3988 0000 dfdc 0080 e96f 0080 f4f7 0080
00000120: d51a 0080 7f17 0000 2eb3 0080 7b2c 0000
00000130: 8544 0080 4d58 0000 4067 0000 50fc 0000
00000140: e31d 0000 f48d d53a cc08 b13b bd61 1c3b
00000150: 0da0 c7b9 0639 7c3a de76 02bb 6a4e eebb
00000160: a5e3 bebb 8cb5 a5bb 990d 7326 38e2 6e26
00000170: 746a 0b26 96df 6a26 1686 6726 166e 5a26
00000180: c79f 6a26 eeb7 6626 e27d 2c26 7e9e 3f0c
00000190: 5451 690c 528a 770c ee38 3c0c 68c9 650c
000001a0: 670c 720c 0504 230c 3218 480c 8cdf 600c
000001b0: 6856 fdba c4be c739 b5c2 1cba 7a8f fcba
000001c0: 2a5c 34ba fa40 f6ba a6fb 863a 3ac4 e73a
000001d0: 6ec3 ff3a 91fb babb 2923 71ba e9ba 0bbb
000001e0: e22b ddbb 8522 e8ba 60d1 45bb fc22 2fbc
000001f0: 077f d1bb 0b4e 0abc ac88 0c06 6e8d 5287
00000200: 0fe0 bf86 8cbd 1707 470e 8406 22bf 0d87
00000210: 4db7 0107 4f06 1887 01cd e986 1c9c 2ebc
00000220: ad66 233c b609 5c3c ed75 90bb 7d8e 183c
00000230: 0a37 2e3c 91e8 0abd 0967 7bbc cd07 3cbc
00000240: 9971 50bb 4bf4 e43b f400 093c 6865 90bb
00000250: cfb5 ef3b bbb3 b33b 9c1c 96bc 930b e6bb
00000260: 3d35 e3bb d558 26bb a2dc 293b d580 e03a
00000270: 3e10 2839 26b7 d73b f00a b33b 6589 ebbb
00000280: e334 62ba 0392 85bb e9e4 a2bb 4d7e 553c
00000290: 6d18 6b3c 67ce 9abb f24a 0d3c 41e1 7e3c
000002a0: af9b 03bd 6046 5fbc 1426 25bc ad3c 283a
000002b0: 945e ee3b 655d f33b 5829 53ba 17de 973b
000002c0: a54d 5a3b 1f49 7dbc 6764 1fbc 8c8e 12bc
000002d0: 467c 1d37 f40e 2937 4469 2537 9d1f 1d37
000002e0: 870a 2537 15f9 2537 647a 2737 9bf1 3037
000002f0: 0a15 2e37 b7b6 52bb 9ba3 253c 7e5c 153c
00000300: 2bfb c3bb 3dd3 133c 75aa 2e3c 709b e0bc
00000310: 7b5e 81bc 6a6c 0fbc b043 efbb 4681 7b3a
00000320: 3e33 843b b1ab ccbb 8886 6a3b 914e eb3b
00000330: 6250 56bc 2d32 9ebb 1ed0 03bb 8d5b 2ebb
00000340: 6a08 d93b 52a8 a23b 3c46 47bb 635b cd3b
00000350: 21cc 993b fd45 2abc d112 1dbb 07e0 b2bb
00000360: 9c71 0100 0303 0000 d83d 0000 a12e 0100
00000370: 7359 0180 bd72 0080 7e9a 0180 6c73 0100
00000380: b74b 0100 e4c2 5b9b b108 269c d5dc b11b
00000390: 7afb 581c 35c7 529c 80a2 889c e478 259c
000003a0: 83a5 261c 5c22 4a1c bac9 73bb 8acc 153c
000003b0: 1d0b 4b3c e162 f4bb cf8a 743c 8372 193c
000003c0: a92c d0bc 3970 2bbc 1cc6 07bc c751 1106
000003d0: a3f5 7307 a9df 4c07 9db8 0506 cb0e ee06
000003e0: 4ec4 3807 5ebe f305 0aab 8e06 ddbd 8507
000003f0: aa6f 0a2c 3e4e 0cac 0424 0aac b47c 3bab

e_conv3.bias f4 [32]
0.04227381 0.03186814 -0.0014400347 0.012289802 0.039551783 -1.28992516e-23 -0.009294976 -0.0016507226
0.03543855 0.0063254996 0.032411605 -6.3580115e-21 -8.2226045e-11 -8.969236e-08 -4.709684e-18 -0.002605838
0.11477071 -0.0023402534 0.09206621 -0.0070250253 -0.00034461828 0.020174444 -0.0032788909 -0.0078220945
0.014852999 -0.0006868765 0.008660112 0.03972332 -6.725339e-19 -0.012582033 0.035686783 -0.015265725
00000000: 4d27 2d3d 2b88 023d 8cbf bcba 2a5b 493c
00000010: 0d01 223d 0082 7999 f449 18bc 0f5d d8ba
00000020: 0328 113d 2346 cf3b 08c2 043d ea32 f09d
00000030: 26d1 b4ae e59c c0b3 b5c1 ada2 b5c6 2abb
00000040: e80c eb3d f05e 19bb 368d bc3d 2f32 e6bb
00000050: e2ad b4b9 e044 a53c a9e2 56bb 3e28 00bc
00000060: fe59 733c 800f 34ba 24e3 0d3c ecb4 223d
00000070: 3a7f 46a1 df24 4ebc 4e2c 123d 171d 7abc

e_conv4.weight f4 [32, 64, 3, 3]
-0.00041033473 0.0041320734 -0.00858665 0.0016601785 -0.0012959867 -0.0012126648 0.0047295955 -0.0004187797
-0.0031263977 -1.9570668e-07 -2.0419381e-07 -2.0332577e-07 -2.0754658e-07 -2.1649277e-07 -2.1498091e-07 -2.071538e-07
-2.1538558e-07 -2.1407737e-07 3.8119797e-05 0.0011562398 0.0009561564 -0.0011523241 -0.00044177394 -0.0012142012
-0.0031833607 -0.0026534502 -0.0045067775 -5.1846802e-09 -5.1590474e-09 -5.163951e-09 -5.087594e-09 -5.0521787e-09
-5.0965228e-09 -5.015597e-09 -4.997527e-09 -5.02856e-09 -0.0017947825 -0.0056652064 -0.016385654 -0.0031080819
0.02600381 -0.0014992676 -0.02088218 -0.0051663397 -6.4587534e-06 -0.0015247787 0.0008590461 -0.00314216
0.00022523238 0.0016551971 -0.002928945 0.0027652523 0.0035940884 -0.0025804632 0.0017368108 0.0022254302
0.0015645908 -0.004972778 0.0010228542 -0.0011824818 -0.0008793048 0.0003088794 -0.0002923887 -0.00942628
-0.011505657 -0.01800298 -0.01507687 0.012243595 0.0055114543 -0.007077259 0.004688872 -0.0065807006
-0.014962169 0.005291856 0.00921045 -0.0072817323 0.022329303 -0.0055557024 -0.004687781 -0.00798027
-0.01802902 -0.00592084 0.0006468605 -0.0069449907 0.010715956 -0.0046259337 0.00499386 0.003133232
0.002328995 -0.00492628 0.00515938 -0.013069307 -0.0058300467 -0.010575766 0.010431809 0.028840546
-0.008342641 0.010889501 0.0010353765 -5.153234e-33 -3.4851093e-33 -4.5495826e-33 -3.2878996e-33 7.0447716e-34
-1.7027364e-33 -1.9561556e-33 -4.018763e-34 -4.792566e-34 5.931e-41 6.6045e-41 6.5365e-41 6.6784e-41
6.6012e-41 5.2047e-41 6.105e-41 6.907e-41 6.4512e-41 -0.0088061355 0.01931609 0.0054506785
0.0060393168 0.011283462 -0.006077795 -0.034291666 0.017905204 -0.0024323766 -0.0029876519 -0.0011521146
-0.0017663132 -0.0018576736 -0.0014100174 -0.0034444819 0.0008883166 0.0001477403 -0.0037348932 -2.6589685e-32
-2.6524948e-32 -2.6703394e-32 -2.677445e-32 -2.685382e-32 -2.6828255e-32 -2.6911994e-32 -2.6988366e-32 -2.6961873e-32
0.0027664048 -0.0349183 -0.017965514 -0.0169607 -0.021781174 0.0083227195 0.008938837 0.011990782
0.021458836 0.000547202 -0.0003273101 -0.00028210398 -0.0004512252 -0.0016963066 -0.0017733978 -0.0006196877
-0.0023877732 -0.002785002 -1.5805717e-34 -1.547545e-34 -1.5874461e-34 -1.583724e-34 -1.5471e-34 -1.5858603e-34
-1.5911179e-34 -1.5863794e-34 -1.5685195e-34 -0.0029348535 -0.00406285 0.0019014395 -0.0032942074 0.0035240925
-0.0044093304 0.00065905636 0.0071610394 -0.0016469022 2.3637918e-15 2.44622e-15 2.3197524e-15 2.7245084e-15
2.8195232e-15 2.6769299e-15 2.8818056e-15 3.0132422e-15 2.8616021e-15 0.0034375812 0.00049766176 0.00070498604
0.0019781545 -0.00051877886 -0.0016468354 0.0056552687 0.0028826415 -0.001013224 6.6351e-41 7.4373e-41
7.1801e-41 2.5183e-41 -6.3298e-41 5.1803e-41 -5.176e-42 -1.2416e-41 -2.57e-42 -0.0030659286
-0.0029796376 -0.0020641298 -0.0018997766 0.0012617796 0.0036114093 -0.0011395116 -0.00036707678 -0.0012034023
-0.0015131814 -0.0015142327 -0.0015137641 -0.0015164675 -0.0015175907 -0.001517061 -0.0015169102 -0.0015180536
-0.0015175464 -0.002274891 -0.005227632 -0.0038949337 -0.0008464397 -0.0042622606 -0.0026189534 0.0009618967
-0.0018200099 -0.00037310028 0.006194539 -0.009275939 -0.001447642 -0.0021522196 -0.003253872 0.0051711886
0.008862452 0.0117731 0.0067938827 0.0016223432 0.0016245162 0.0016205995 0.0016276627 0.0016259089
0.0016232749 0.0016261587 0.0016246438 0.0016214008 -4.571261e-36 5.559931e-36 4.27092e-36 9.1037266e-36
00000000: 3222 d7b9 5866 873b 05af 0cbc 599a d93a
00000010: 19de a9ba 47f2 9eba b9fa 9a3b a98f dbb9
00000020: 40e4 4cbb 7123 52b4 5e40 5bb4 c351 5ab4
00000030: f8d9 5eb4 1475 68b4 81d5 66b4 016e 5eb4
00000040: bd44 67b4 24dd 65b4 d2e2 1f38 f88c 973a
00000050: 92a6 7a3a 9509 97ba e59d e7b9 d525 9fba
00000060: ee9f 50bb 82e5 2dbb 97ad 93bb ee24 b2b1
00000070: 7643 b1b1 986e b1b1 f3ce aeb1 6f97 adb1
00000080: 7d1d afb1 a855 acb1 b6b6 abb1 aec7 acb1
00000090: e83e ebba 32a3 b9bb 353b 86bc f6b0 4bbb
000000a0: f105 d53c 1383 c4ba 1b11 abbc 664a a9bb
000000b0: 45b8 d8b6 15db c7ba 9c31 613a b2ec 4dbb
000000c0: 5b2c 6c39 33f3 d83a 8bf3 3fbb 3c39 353b
000000d0: cc8a 6b3b fd1c 29bb b3a5 e33a 86d8 113b
000000e0: f512 cd3a aff2 a2bb 4b11 863a 81fd 9aba
000000f0: 2581 66ba 17f1 a139 bf4b 99b9 af70 1abc
00000100: 3982 3cbc fc7a 93bc fa04 77bc 5c99 483c
00000110: 6e99 b43b 5ae8 e7bb 1ca5 993b eba2 d7bb
00000120: e323 75bc 4e67 ad3b 6de7 163c 999b eebb
00000130: f1eb b63c 9c0c b6bb f59b 99bb aebf 02bc
00000140: 98b1 93bc 9b03 c2bb 1392 293a ce92 e3bb
00000150: fa91 2f3c 2595 97bb 89a3 a33b e956 4d3b
00000160: 0da2 183b a26c a1bb 0410 a93b a620 56bc
00000170: fa09 bfbb fa45 2dbc 2eea 2a3c 0243 ec3c
00000180: 93af 08bc e169 323c 78b5 873a 950e d689
00000190: 0ac4 9089 76fb bc89 f292 8889 4a1a 6a08
000001a0: 3375 0d89 d482 2289 db8b 0588 a442 1f88
000001b0: 55a5 0000 1bb8 0000 36b6 0000 2bba 0000
000001c0: 04b8 0000 1691 0000 2faa 0000 8ac0 0000
000001d0: d5b3 0000 9c47 10bc c73c 9e3c 9b9b b23b
000001e0: 76e5 c53b 45de 383c 3d28 c7bb 6b75 0cbd
000001f0: efad 923c 8268 1fbb 7bcc 43bb 8d02 97ba
00000200: a383 e7ba 2f7d f3ba 55d0 b8ba d1bc 61bb
00000210: ebdd 683a bcea 1a39 1cc5 74bb c10f 0a8b
00000220: b4b9 098b e6a6 0a8b 5905 0b8b d96e 0b8b
00000230: de4c 0b8b 2dbc 0b8b b121 0c8b 7afe 0b8b
00000240: 924c 353b 7e06 0fbd 6a2c 93bc 2af1 8abc
00000250: 6f6e b2bc 045c 083c 3374 123c fc74 443c
00000260: 71ca af3c 1b72 0f3a d19a abb9 5be7 93b9
00000270: 6c92 ecb9 9b56 deba 5b71 e8ba 8a72 22ba
00000280: 307c 1cbb 9584 36bb 1118 5287 3ab4 4d87
00000290: fe01 5387 5683 5287 16a5 4d87 08cc 5287
000002a0: f07e 5387 b2dd 5287 f47d 5087 ac56 40bb
000002b0: a821 85bb b939 f93a a1e3 57bb 76f4 663b
000002c0: 257c 90bb 86c4 2c3a 27a7 ea3b dedc d7ba
000002d0: 4354 2a27 cb44 3027 e127 2727 4f52 4427
000002e0: 062b 4b27 a4e4 4027 eea7 4f27 8220 5927
000002f0: 3e33 4e27 0b49 613b 8475 023a d0ce 383a
00000300: eda3 013b a9fe 07ba a0da d7ba d54f b93b
00000310: b3ea 3c3b 28ce 84ba f6b8 0000 52cf 0000
00000320: 27c8 0000 3346 0000 73b0 0080 6890 0000
00000330: 6e0e 0080 9c22 0080 2a07 0080 bfed 48bb
00000340: 0646 43bb 5a46 07bb ed01 f9ba 4c62 a53a
00000350: 65ad 6c3b aa5b 95ba 3674 c0b9 7bbb 9dba
00000360: f155 c6ba 3879 c6ba 7f69 c6ba 35c4 c6ba
00000370: e5e9 c6ba 1fd8 c6ba 0fd3 c6ba 6df9 c6ba
00000380: 68e8 c6ba 5616 15bb 8e4c abbb 2542 7fbb
00000390: 9be3 5dba 6faa 8bbb bfa2 2bbb cb27 7c3a
000003a0: 668d eeba ac9c c3b9 8ffb ca3b 1cfa 17bc
000003b0: cebe bdba 410c 0dbb ea3e 55bb 1373 a93b
000003c0: d133 113c f6e3 403c 389f de3b cea4 d43a
000003d0: b8ed d43a 4c6a d43a 4c57 d53a 731c d53a
000003e0: 11c4 d43a d524 d53a 00f2 d43a 2f85 d43a
000003f0: a070 c284 4a7e ec04 33aa b504 679d 4105

e_conv4.bias f4 [32]
0.033221595 0.0041669067 -6.716603e-11 -0.0010366801 0.016704172 0.01655181 0.014050716 0.022564946
-0.0005996393 -9.384601e-09 0.022325424 0.026206527 0.059146747 0.017825842 0.02256392 0.013033236
-0.0026172681 0.083028786 -2.9724498e-13 0.032632947 0.031196129 -5.9209638e-06 0.03406153 -0.0012447401
-7.707362e-21 0.037040498 -0.0027697936 0.03196266 0.09953499 0.03218166 -0.0007134623 0.023057042
00000000: 5e13 083d 8c8a 883b 1db3 93ae 36e1 87ba
00000010: 30d7 883c a997 873c f934 663c 1fda b83c
00000020: 1d31 1dba e939 21b2 cfe3 b63c 12af d63c
00000030: dc43 723d 8007 923c f8d7 b83c 5b89 553c
00000040: 7986 2bbb ff0a aa3d 8455 a7aa 20aa 053d
00000050: 068f ff3c b1ac c6b6 1a84 0b3d 8c26 a3ba
00000060: 8496 119e c7b7 173d 6d85 35bb 47eb 023d
00000070: 00d9 cb3d ebd0 033d a507 3bba 1fe2 bc3c

e_conv5.weight f4 [32, 64, 3, 3]
-0.0029412326 0.0007299152 -0.003463985 0.005566827 0.0057665915 0.00020638047 0.0057128076 0.006242476
0.0011159017 0.0051987665 -0.0011389345 -0.00080283306 0.0028301293 -0.0020698297 -0.0021580413 0.0014885161
-0.001741217 -0.0023424092 0.0005960028 0.00059892144 0.0005988843 0.0005881494 0.0005911985 0.0005912047
0.000577077 0.0005806071 0.0005813881 0.0061306017 4.4181663e-05 0.008518507 0.0018398934 0.0057615847
0.007221664 -0.0017045278 0.007326032 0.007912193 0.0063954135 0.0049339714 0.002205038 0.009005769
-0.0013391353 0.004861168 -0.010810463 -0.0077173267 -0.012543463 2.4294693e-26 1.9225435e-26 2.626273e-26
2.9162055e-26 2.2161634e-26 2.908501e-26 3.1068128e-26 2.1691442e-26 2.8060793e-26 0.0023825306 0.008311727
0.007914164 -7.491468e-05 0.004638649 0.0070119128 0.0005496362 0.0044124634 0.00816304 0.00012441089
0.00012566453 0.00012553061 0.00012539422 0.00012670075 0.00012648874 0.00012394671 0.00012530353 0.0001251384
-0.01779153 0.010650007 -0.018050019 -0.015148601 0.020651756 -0.010441628 0.0071580457 -0.014682873
0.008468427 0.0050040474 -0.0017782691 -0.002198524 0.003392116 -0.004824241 -0.0009618869 -0.0051668636
-0.00259604 -0.0033573757 -0.0022669577 0.0025125984 0.009848111 -0.0021603452 -0.00068023626 0.008245264
0.00086701347 0.0052351635 0.017796721 6.5774e-41 -1.525e-42 -7.4797e-41 6.9032e-41 -8.13e-43
-7.5468e-41 6.5581e-41 -2.574e-42 -3.825e-41 -2.4896977e-17 -2.4978806e-17 -2.7561446e-17 -2.5211496e-17
-2.738628e-17 -2.7479984e-17 -2.418419e-17 -2.5805803e-17 -2.6595547e-17 7.7492e-41 -6.8657e-41 -3.3806e-41
-7.4672e-41 -7.7283e-41 4.2939e-41 -6.8877e-41 7.1815e-41 2.9766e-41 3.873401e-30 -1.449575e-30
3.1450592e-30 -6.238533e-31 1.1643512e-30 -2.5110453e-30 1.7832353e-30 -9.459402e-31 -3.431382e-31 1.605796e-08
1.5804703e-08 1.5964247e-08 1.6059525e-08 1.5695669e-08 1.5645673e-08 1.59703e-08 1.5953743e-08 1.6040802e-08
-0.004932333 -0.0037017288 -0.0028142238 -0.006513282 -0.0035030895 -0.003241242 -0.003002671 0.0007699255
-6.809262e-05 -0.0022790108 -0.0027541702 0.00017291449 -0.0031324627 -0.0030291402 -0.0015929647 -0.0011629292
-0.0026282636 -0.0013091214 -0.0067228894 -0.0015259221 0.0046271854 -0.0027953715 0.004047591 0.008470543
-0.0018901525 0.0043769777 0.0065607354 -0.0032641846 0.004443959 0.009502057 0.0076370854 0.0026615993
0.0024980747 -0.004660809 -0.0020877249 0.0021210564 6.6103776e-12 2.258103e-12 2.5111443e-12 6.1756967e-12
1.9565825e-12 1.6629788e-12 6.701016e-12 2.5746924e-12 2.56803e-12 -0.0053455574 -0.0006198855 -0.002324474
-7.37996e-05 0.0033101453 -0.00803252 -0.0012048379 0.0013210991 0.0023312024 0.00089275854 0.001950748
0.0066832225 0.004340009 0.0054349415 -0.0007480963 -0.0025318998 -0.0026138981 -0.0055973255 0.00036062227
0.0009830806 -6.249556e-05 0.006165935 -0.00096717855 0.0020235498 0.0002981392 0.005060428 -0.0013210884
-0.0007763611 -0.0039113155 -0.008094419 -0.0013539457 -0.0053101443 -0.007259089 -0.0054926947 -0.008702262
-0.009111682 6.5546e-41 6.9081e-41 7.5621e-41 7.389e-41 8.9621e-41 8.3628e-41 7.773e-41
9.7107e-41 8.7398e-41 0.002867314 0.008929465 0.009783596 0.0025341604 0.0076905163 0.008358714
-0.0012296262 0.0028712354 0.0038581698 -0.012190655 -0.009459497 -0.0045095715 -0.0074366378 0.0014413014
0.03152903 0.008164502 -0.011159811 0.0021401814 7.543e-42 -6.2215e-41 -7.3505e-41 -8.4039e-41
00000000: b2c1 40bb c857 3f3a 0604 63bb ee69 b63b
00000010: adf5 bc3b d667 5839 8132 bb3b af8d cc3b
00000020: 7343 923a 6a5a aa3b 4d48 95ba 3775 52ba
00000030: b179 393b fba5 07bb ed6d 0dbb 501a c33a
00000040: 8c39 e4ba 1b83 19bb 123d 1c3a f000 1d3a
00000050: 72fe 1c3a 0a2e 1a3a a9fa 1a3a 13fb 1a3a
00000060: fb46 173a e233 183a 4c68 183a 37e3 c83b
00000070: b34f 3938 3591 0b3c 9428 f13a adcb bc3b
00000080: b5a3 ec3b 766a dfba 360f f03b 25a2 013c
00000090: 9e90 d13b 27ad a13b 6682 103b ef8c 133c
000000a0: ed85 afba 6f4a 9f3b 5e1e 31bc a1e1 fcbb
000000b0: 1983 4dbc 5d9a f014 4566 be14 f70b 0215
000000c0: 4c67 1015 6b7a db14 a105 1015 88d7 1915
000000d0: 57d2 d614 48f3 0a15 3b24 1c3b e92d 083c
000000e0: 69aa 013c 831b 9db8 cfff 973b 30c4 e53b
000000f0: 7615 103a 6d96 903b 45be 053c 4b74 0239
00000100: d1c4 0339 dea0 0339 417c 0339 f9da 0439
00000110: 10a2 0439 b1f7 0139 e963 0339 9537 0339
00000120: 8bbf 91bc 5e7d 2e3c a2dd 93bc d631 78bc
00000130: df2d a93c 5d13 2bbc 0a8e ea3b 6f90 70bc
00000140: 28bf 0a3c fef8 a33b cf14 e9ba 1d15 10bb
00000150: 434e 5e3b ab14 9ebb 2327 7cba cb4e a9bb
00000160: 5322 2abb 6b07 5cbb 3d91 14bb 68aa 243b
00000170: f959 213c 9494 0dbb e251 32ba 2517 073c
00000180: 4a48 633a bc8b ab3b 6eca 913c 5ab7 0000
00000190: 4004 0080 81d0 0080 6fc0 0000 4402 0080
000001a0: 60d2 0080 d0b6 0000 2d07 0080 a06a 0080
000001b0: 53a2 e5a3 8a63 e6a3 a035 fea3 f688 e8a3
000001c0: 0698 fca3 4775 fda3 4e0f dfa3 3b04 eea3
000001d0: f64c f5a3 04d8 0000 63bf 0080 3d5e 0080
000001e0: 28d0 0080 6fd7 0080 b277 0000 00c0 0080
000001f0: 31c8 0000 fa52 0000 b21f 9d0e fd34 eb8d
00000200: 5328 7f0e b473 4a8d 42ed bc0d 5fb8 4b8e
00000210: 59ac 100e d27c 998d 9db5 de8c d4ef 8932
00000220: e9c2 8732 c021 8932 45f3 8932 24d3 8632
00000230: 3365 8632 102f 8932 a70a 8932 19ca 8932
00000240: 689f a1bb b498 72bb d76e 38bb 5f6d d5bb
00000250: 1794 65bb 046b 54bb 76c8 44bb d3d4 493a
00000260: f2cc 8eb8 755b 15bb 4f7f 34bb 6150 3539
00000270: 014a 4dbb 8a84 46bb 07cb d0ba 6e6d 98ba
00000280: f23e 2cbb d396 abba af4b dcbb 7301 c8ba
00000290: a59f 973b 8d32 37bb a7a1 843b 08c8 0a3c
000002a0: febe f7ba c06c 8f3b 70fb d63b eeeb 55bb
000002b0: a19e 913b 84ae 1b3c 8440 fa3b 3a6e 2e3b
000002c0: bdb6 233b b3b9 98bb 36d2 08bb 6c01 0b3b
000002d0: fd94 e82c 5ee6 1e2c c1b4 302c bb49 d92c
000002e0: a8ae 092c 200b ea2b 63c5 eb2c 892d 352c
000002f0: 84b5 342c c929 afbb d07f 22ba 3456 18bb
00000300: dcc4 9ab8 06ef 583b d59a 03bc a7eb 9dba
00000310: bb28 ad3a 16c7 183b 0308 6a3a 3eb0 ff3a
00000320: effe da3b a236 8e3b 9817 b23b e51b 44ba
00000330: 3bee 25bb ef4d 2bbb c569 b7bb e711 bd39
00000340: b6da 803a 0c10 83b8 9d0b ca3b 418a 7dba
00000350: 889d 043b 914f 9c39 f2d1 a53b 5f28 adba
00000360: b684 4bba 7e2a 80bb 749e 04bc e176 b1ba
00000370: b800 aebb a7dd edbb 10fc b3bb ef93 0ebc
00000380: 2a49 15bc b7b6 0000 92c0 0000 cdd2 0000
00000390: facd 0000 d4f9 0000 1fe9 0000 aed8 0000
000003a0: b20e 0100 a1f3 0000 8ce9 3b3b e44c 123c
000003b0: 604b 203c 2814 263b ba00 fc3b fdf2 083c
000003c0: 692b a1ba 562b 3c3b 59d9 7c3b 50bb 47bc
000003d0: 02fc 1abc 07c5 93bb 0aaf f3bb 0dea bc3a
000003e0: 9624 013d 67c4 053c a4d7 36bc 4942 0c3b
000003f0: 0715 0000 6ead 0080 e7cc 0080 44ea 0080

e_conv5.bias f4 [32]
0.021975525 -2.2210848e-08 -6.111552e-06 0.041484676 -4.3097054e-25 0.0074750884 0.06976871 0.029271575
0.020947259 -4.175939e-08 0.041819986 0.029473143 -1.1657992e-06 -2.2243269e-06 0.027150271 0.032546833
0.0073360954 0.0056488602 -9.647002e-10 0.010914193 0.02745783 0.031594668 0.010405416 -5.436283e-23
0.021939006 -2.9636492e-08 0.026448214 0.011143514 0.049692564 -0.0008022044 -2.0975494e-05 -1.2375643e-09
00000000: 0406 b43c 2cca beb2 d511 cdb6 d6eb 293d
00000010: 0161 0597 96f1 f43b e6e2 8e3d f1ca ef3c
00000020: 9699 ab3c ef5a 33b3 6f4b 2b3d a971 f13c
00000030: 8e78 9cb5 a545 15b6 3f6a de3c d44f 053d
00000040: a163 f03b 131a b93b 5f96 84b0 71d1 323c
00000050: 3eef e03c 6969 013d 7a7b 2a3c f670 839a
00000060: 6eb9 b33c 5693 feb2 eda9 d83c 4993 363c
00000070: 6e8a 4b3d 074b 52ba 88f4 afb7 ec16 aab0

e_conv7.weight f4 [8, 64, 3, 3]
-0.0027435538 -0.0024569712 -0.0054330286 0.0056309314 0.0063306 0.003822003 0.005977473 0.0069545857
0.004611834 0.0009984766 0.0009795626 0.0024685366 0.0017303401 0.0023877278 0.0054608574 0.007599472
0.010579241 0.013783776 -1.01988e-40 -1.54637e-40 -1.12331e-40 1.53739e-40 -5.5332e-41 1.20009e-40
7.341e-42 -4.1871e-41 -3.8209e-41 1.28635e-40 1.21278e-40 1.50103e-40 -1.36217e-40 1.25036e-40
-2.89e-43 -2.0155e-41 1.5906e-41 3.3523e-41 -0.0010148679 -0.003193949 -0.0051262532 0.004440883
0.0018220585 -0.00072405254 0.0030725307 -8.507534e-05 -0.0029411374 -0.012072509 -0.008947359 -0.0067943074
-0.0022005057 0.0008357638 0.0023496153 0.005552233 0.008637674 0.009523615 0.0023041167 0.00021839477
0.0017478613 0.0044460804 0.0030131747 0.0053187646 0.0059101097 0.005466067 0.0073902267 -0.012795973
-0.029060036 -0.036698114 0.008163915 -0.010003387 -0.020488512 0.024398452 -0.0005288115 -0.011996849
-6.6496e-41 4.5189e-41 5.8738e-41 7.7838e-41 -7.666e-41 -4.9513e-41 2.348e-41 9.8663e-41
-2.7824e-41 2.586117e-28 -9.6953396e-29 1.2212956e-28 -2.6027821e-28 -3.2489434e-30 7.802007e-29 -2.577922e-28
-2.144581e-28 -3.3763682e-29 -0.0013763978 -0.004243691 -0.0021208876 -0.00016286316 -0.0028959247 -0.00066437735
0.0007917563 -0.0020642963 0.00041569187 -0.0070592803 -0.0053080996 -0.006319435 -0.0035965955 -0.0015952633
-0.003842011 -0.002918852 -0.0022115838 -0.004738017 -0.008657145 0.017445864 -0.0071963016 0.012341532
0.038018584 0.013931706 -0.013899726 0.011674925 -0.012729743 -0.012086771 -0.017292038 -0.0042177313
-0.016051224 -0.02165397 -0.008636703 0.0021454361 -0.003533617 0.0099945115 -0.0024808338 -0.00041830837
-0.0014902385 -0.00012149887 0.0024125818 0.001527589 0.0014457057 0.00438478 0.002873713 -0.004624757
-0.005633865 -0.002790842 -0.000863993 -0.0018465874 0.0004968425 0.0014158593 0.00039740079 0.002756968
1.9849221e-24 1.452013e-24 -2.257662e-24 1.1245591e-24 2.2293501e-24 3.354633e-24 -1.2631313e-24 3.0446645e-24
2.8118091e-24 -0.0015662906 0.035280515 -0.0013305187 0.026253259 0.06399326 0.027609052 -0.011184934
0.026386138 -0.009201225 6.983e-42 1.03769e-40 9.2552e-41 1.59731e-40 1.365e-40 -1.22743e-40
-8.0222e-41 1.1843e-40 1.0884e-40 -0.0077860653 -0.0037428157 -0.0058316905 -0.0070091947 -0.0035457874
-0.0075302483 -0.011593757 -0.0096546495 -0.014063679 -0.005590312 0.0077265645 -0.0022938652 0.005494013
0.018925613 0.0089664245 -0.0076701296 0.005405067 -0.004477163 1.4052e-40 -1.2029e-40 6.912e-41
-1.59845e-40 -9.043e-41 1.4786e-40 7.1539e-41 1.3764e-40 -1.7437e-40 -0.0041132816 -0.002446791
-0.007725255 0.0048738644 0.0064299386 0.0011545226 0.0025509887 0.0044068014 -0.0009023345 8.4151e-41
5.817e-41 3.872e-42 -5.5609e-41 -2.0376e-41 9.115e-42 -1.303e-41 5.9237e-41 -7.7228e-41
-1.09413e-40 1.38307e-40 6.8159e-41 7.6985e-41 -6.1747e-41 -2.7407e-41 -5.0095e-41 -1.5396e-40
-1.1037e-40 0.004007065 0.0061734524 -0.00078495184 0.00092904177 0.003041408 -0.0028020313 -0.0010943487
0.0012910848 -0.0037738623 0.00537518 0.0034767818 0.044018775 -0.04116761 -0.042824544 -0.0058366805
-0.0360714 -0.034909986 0.0022674832 0.0013857589 -0.0011649828 -0.002479644 0.0069994526 0.0054960176
0.0055351187 0.0069115353 0.006171872 0.0065540876 -0.01987579 0.021795185 -0.019878076 0.020099612
00000000: 32cd 33bb 2305 21bb 8c07 b2bb ad83 b83b
00000010: ec70 cf3b 927a 7a3b aede c33b 4be3 e33b
00000020: de1e 973b 51df 823a ab64 803a 2cc7 213b
00000030: 94cc e23a 6d7b 1c3b fef0 b23b fe04 f93b
00000040: 8e54 2d3c 59d5 613c 4d1c 0180 11af 0180
00000050: 2239 0180 90ac 0100 3e9a 0080 894e 0100
00000060: 7714 0000 b874 0080 836a 0080 9566 0100
00000070: 1352 0100 6da2 0100 b87b 0180 8d5c 0100
00000080: ce00 0080 2f38 0080 572c 0000 735d 0000
00000090: 5105 85ba 9351 51bb 21fa a7bb d484 913b
000000a0: 23d2 ee3a 58ce 3dba 835c 493b 7a6a b2b8
000000b0: 19c0 40bb c6cb 45bc f297 12bc c8a2 debb
000000c0: 5c36 10bb 2917 5b3a 01fc 193b 82ef b53b
000000d0: 0885 0d3c f008 1c3c aa00 173b e600 6539
000000e0: 7e18 e53a 6db0 913b af78 453b 0849 ae3b
000000f0: 98a9 c13b b21c b33b b729 f23b 33a6 51bc
00000100: 500f eebc c350 16bd f1c1 053c 3fe5 23bc
00000110: 86d7 a7bc 43df c73c f09f 0aba 6f8e 44bc
00000120: 5db9 0080 f87d 0000 bda3 0000 fbd8 0000
00000130: b2d5 0080 068a 0080 7441 0000 0813 0100
00000140: 904d 0080 26ea a311 5ace f590 4fd1 1a11
00000150: 8ef8 a491 f5ca 838e eccd c510 2d65 a391
00000160: d1ed 8791 c433 2b90 3f68 b4ba a90e 8bbb
00000170: 97fe 0abb 3fc6 2ab9 8ec9 3dbb 9c29 2eba
00000180: de8d 4f3a 2549 07bb 38f1 d939 8951 e7bb
00000190: 91ef adbb 4313 cfbb dcb4 6bbb 2718 d1ba
000001a0: 40ca 7bbb 364a 3fbb 38f0 10bb 5e41 9bbb
000001b0: b3d6 0dbc a1ea 8e3c f4ce ebbb 2334 4a3c
000001c0: 60b9 1b3d cf41 643c adbb 63bc 2f48 3f3c
000001d0: 6990 50bc 9807 46bc 08a8 8dbc e534 8abb
000001e0: db7d 83bc ab63 b1bc f580 0dbc 729a 0c3b
000001f0: 4194 67bb 05c0 233c 7c95 22bb 6650 dbb9
00000200: 1b54 c3ba 36cd feb8 681c 1e3b 6239 c83a
00000210: d57d bd3a 33ae 8f3b e754 3c3b 468b 97bb
00000220: 499c b8bb 8fe6 36bb 977d 62ba 3109 f2ba
00000230: 893e 023a 5b94 b93a 3b5a d039 3fae 343b
00000240: 6f93 1918 29b0 e017 9aad 2e98 6004 ae17
00000250: d47c 2c18 adc6 8118 c975 c397 cb91 6b18
00000260: 9e8d 5918 fe4b cdba 4d82 103d cd64 aeba
00000270: 1311 d73c e60e 833d 612c e23c 0341 37bc
00000280: be27 d83c bcc0 16bc 7713 0000 4421 0100
00000290: ff01 0100 44bd 0100 827c 0100 2856 0180
000002a0: a0df 0080 224a 0100 672f 0100 4022 ffbb
000002b0: 074a 75bb c417 bfbb 63ad e5bb 7160 68bb
000002c0: 4dc0 f6bb bef3 3dbc 892e 1ebc 586b 66bc
000002d0: f02e b7bb 1f2f fd3b ac54 16bb 1f07 b43b
000002e0: e309 9b3c e9e7 123c b655 fbbb fd1c b13b
000002f0: 2ab5 92bb b687 0100 524f 0180 aec0 0000
00000300: 95bd 0180 15fc 0080 2c9c 0100 6cc7 0000
00000310: af7f 0100 13e6 0180 b5c8 86bb 575a 20bb
00000320: 2324 fdbb f0b4 9f3b 3cb2 d23b 5a53 973a
00000330: 7d2e 273b ee66 903b a58a 6cba 94ea 0000
00000340: 27a2 0000 cb0a 0000 049b 0080 cd38 0080
00000350: 6919 0000 5324 0080 21a5 0000 48d7 0080
00000360: 0031 0180 8b81 0100 00be 0000 9ad6 0000
00000370: 20ac 0080 664c 0080 a58b 0080 2ead 0180
00000380: ab33 0180 b34d 833b ac4a ca3b 3ac5 4dba
00000390: f08a 733a 5c52 473b 49a2 37bb 4070 8fba
000003a0: 9e39 a93a e752 77bb 4722 b03b b8da 633b
000003b0: 084d 343d 5e9f 28bd ca68 2fbd a041 bfbb
000003c0: 9bbf 13bd c6fd 0ebd 0e9a 143b 5aa2 b53a
000003d0: 56b2 98ba 8681 22bb aa5b e53b f017 b43b
000003e0: f15f b53b 297a e23b 6a3d ca3b acc3 d63b
000003f0: 8ed2 a2bc d18b b23c 59d7 a2bc f1a7 a43c

e_conv7.bias f4 [8]
0.0209151 0.013151469 0.055136405 0.041041974 0.024040662 0.032180797 0.021823477 0.012974076
00000000: 2556 ab3c 4279 573c b6d6 613d a11b 283d
00000010: ecf0 c43c 03d0 033d 26c7 b23c 3891 543c
