snapshots/Epoch136.pth (torch, 304045 bytes, 14 tensors)

e_conv1.weight f4 [32, 3, 3, 3]
000000 e5 dc 1b b9 8c e4 19 b9 10 9a 19 b9 f4 06 1c b9
       -0.00014864242 -0.00014676357 -0.0001464861 -0.0001487991
000010 a8 ce 1a b9 3e a9 1a b9 c2 29 1d b9 e8 5e 1c b9
       -0.0001476357 -0.00014749632 -0.00014988243 -0.00014912675
000020 1a 67 1c b9 27 6d 36 b9 d0 1c 35 b9 90 02 34 b9
       -0.00014915728 -0.00017397535 -0.00017272239 -0.00017167092
000030 8a f2 35 b9 55 a4 34 b9 62 0f 34 b9 3f db 35 b9
       -0.00017351858 -0.00017227356 -0.00017171868 -0.0001734318
000040 fc a0 34 b9 fc c4 34 b9 01 a1 43 b9 6f c8 41 b9
       -0.00017226109 -0.0001723952 -0.00018656628 -0.00018480582
000050 26 72 41 b9 51 3a 43 b9 0f f6 41 b9 c6 ef 41 b9
       -0.00018448438 -0.00018618374 -0.00018497578 -0.00018495237
000060 9e d3 42 b9 22 a7 41 b9 64 af 41 b9 16 36 f8 3b
       -0.00018580115 -0.00018468176 -0.00018471252 0.007574807
000070 3d 3e a7 3b 39 13 9e ba cc dc a9 3c b0 64 7d 3c
       0.005103855 -0.0012060172 0.020735167 0.0154659
000080 a2 61 c8 3c 62 38 45 3d 68 a0 15 3d b8 4f 61 3d
       0.024460617 0.048149474 0.03652993 0.055007666
000090 6a ec eb 3b 5b ce e5 bb 76 0e 99 3c e3 d0 f6 3b
       0.0071998136 -0.007013125 0.018683653 0.0075322255
0000a0 05 e7 19 3c 3a db 98 3c 7f c4 2a 3d 98 66 1b 3d
       0.009393458 0.018659223 0.0416913 0.037939638
0000b0 d2 31 30 3d 3d c6 55 bc 17 fc 86 bc be fe d3 bc
       0.043016262 -0.013047752 -0.016477628 -0.025878306
0000c0 d1 56 2f bc 39 d6 83 bc 6c 1f 78 bc 9c a1 0e ba
       -0.010701851 -0.01609336 -0.01514421 -0.0005440952
0000d0 d5 96 96 bb 33 ca b7 3c 9a 1f 9d bc 12 47 25 bd
       -0.0045956173 0.022435283 -0.019180108 -0.04035098
0000e0 b4 26 db bc b2 ba 18 bc 06 57 f7 bc e8 52 e6 bc
       -0.026751854 -0.009321855 -0.030192863 -0.028115705
0000f0 03 3f f1 3a 3b c2 78 bc d7 d5 9d bc eb e5 3c 3b
       0.001840562 -0.015183027 -0.019267006 0.0028823565
000100 4b 28 dc 3b c3 9f 6c 3b b2 f4 fe 3b b4 a1 ef 3b
       0.0067186705 0.0036105968 0.007780635 0.0073129777
000110 9b 5b 8b 3b fd cb 31 3d 96 e3 ac 3c a8 05 e9 bb
       0.0042528636 0.04340743 0.021104615 -0.00711127
000120 c4 14 28 3d 30 29 26 3d 3a cd 1d 3d a7 7f 4c 3d
       0.04103543 0.040566623 0.038525797 0.049926426
000130 89 dc 18 3d 29 06 35 3d 81 a7 68 3d 00 bc 11 3d
       0.037319694 0.044195328 0.05680037 0.03557968
000140 7a 4d 0d 3d 9b 0e 7b bc 61 08 60 3b a9 54 49 3c
       0.034497716 -0.015323306 0.0034184682 0.012288251
000150 43 f1 01 bd ab fb 3a bc b7 21 26 3c 26 fd 0c bd
       -0.031724226 -0.011412541 0.010139874 -0.03442111
000160 cf 4e 62 bc 5d 3f f0 3c 28 bf f7 bc 60 49 b9 b8
       -0.013812735 0.029327089 -0.030242518 -8.8351546e-05
000170 8e 3d 57 3c 81 e0 ce bc 95 a6 1d bc 3e 4d 33 3c
       0.013137234 -0.025253536 -0.009622236 0.010943709
000180 9b df 27 bd bc d9 85 ba 1c 6b e9 3c 2c 8f 09 bc
       -0.04098473 -0.0010211985 0.028493457 -0.008395951
000190 04 77 bb 3a 43 bf 91 3b ce 6b 68 bc e9 9a 83 3b
       0.0014302437 0.004447849 -0.014185859 0.0040162695
0001a0 8f 81 ec 3b f6 22 ef bc b7 01 7f b8 e6 20 ef 3c
       0.007217593 -0.029191475 -6.0798335e-05 0.029190492
0001b0 1a 38 09 3d f7 69 05 3d 7f 91 a8 3d 55 15 1e 3c
       0.03350077 0.03257176 0.08230876 0.009648641
0001c0 95 17 de 3b 8e b5 44 3d ad e7 08 bb 23 bd 66 39
       0.0067777135 0.048024707 -0.0020890043 0.00022004968
0001d0 ff 4a 27 3d 59 b7 ee 3c ef 1e e9 3c cc 14 97 3d
       0.040843006 0.029140161 0.028457133 0.073770136
0001e0 d2 2e 83 3a 42 65 17 bb 77 62 08 3d ed ef fc bb
       0.001000846 -0.0023101126 0.03329703 -0.007719031
0001f0 25 d7 48 3b 2d a1 20 3d b9 84 74 3c f5 d9 10 3c
       0.0030645814 0.03921621 0.014924222 0.0088410275
000200 e4 83 45 3d d2 c4 5c bc 2a 60 65 bc 98 b4 85 3c
       0.048221484 -0.01347466 -0.013999978 0.016321465
000210 4d 72 cc bc 44 c8 6e bc 04 f3 78 3c c0 f6 5e 11
       -0.024956847 -0.014574114 0.015194658 1.7588748e-28
000220 25 79 12 11 25 01 b7 10 9a a7 14 11 33 9f 61 10
       1.15547e-28 7.2182536e-29 1.1726788e-28 4.449607e-29
000230 d0 53 11 10 57 6b f4 10 5f 00 6d 10 7d 51 3e 10
       2.8660775e-29 9.6406414e-29 4.6740295e-29 3.753367e-29
000240 62 42 13 10 a6 d6 18 10 b0 74 16 10 ba fe 1d 10
       2.9041778e-29 3.0142074e-29 2.9672177e-29 3.1159025e-29
000250 77 d8 0f 10 a7 7c 0b 10 7d 48 1c 10 24 c5 18 10
       2.8368536e-29 2.7508945e-29 3.0821418e-29 3.0128586e-29
000260 8d f9 0f 10 02 81 dd 0e c8 38 e6 0e 3b a0 c5 0e
       2.8394024e-29 5.4604936e-30 5.6754056e-30 4.8718546e-30
000270 ee 09 f3 0e bb 39 ea 0e f4 c3 e4 0e bf 2a da 0e
       5.9913687e-30 5.7741046e-30 5.6395035e-30 5.3782312e-30
000280 d3 f1 e4 0e f9 09 c2 0e ac d0 89 3d 3d 02 b7 3c
       5.6439208e-30 4.7834296e-30 0.06729254 0.022339934
000290 c6 3e c8 bc 2c 73 41 3d 25 24 86 3c 9f 15 11 bd
       -0.024443995 0.047228977 0.016374657 -0.03542101
0002a0 f6 f2 29 3d 0f bb f2 b8 2a 29 3c bd 9c 67 74 3d
       0.04149147 -0.000115743016 -0.045937695 0.059669122
0002b0 37 b3 cb 3c 22 1b 21 bd ee 45 1f 3d 59 d2 26 3c
       0.02486573 -0.039332516 0.03888505 0.010181987
0002c0 ad 91 e0 bc bd 6c e5 3c ec f9 c3 bc bf ca 89 bd
       -0.027413214 0.028005952 -0.023922883 -0.06728124
0002d0 c4 0c f7 3c 3c 29 0b bb 58 96 f5 bc 0a ec 9c 3c
       0.030157454 -0.0021234294 -0.029978916 0.019155521
0002e0 28 42 5a 3b d4 21 c9 bc e8 62 ea 3c 58 80 92 bc
       0.0033303592 -0.024552263 0.028611615 -0.017883465
0002f0 29 c4 78 bd be 17 69 ba a6 03 71 ba b9 ad 78 ba
       -0.060733948 -0.00088917825 -0.0009193964 -0.0009486336
000300 c2 4a 66 ba 8e 80 71 ba e7 5f 77 ba 34 68 6d ba
       -0.00087849435 -0.00092125766 -0.0009436593 -0.000905636
000310 99 32 77 ba a4 e9 7e ba e3 a5 94 ba 49 93 98 ba
       -0.0009429842 -0.0009724146 -0.0011340942 -0.0011640574
000320 54 f6 9b ba 5a 33 92 ba 38 2c 97 ba fd 44 99 ba
       -0.0011898973 -0.001115422 -0.0011533564 -0.0011693534
000330 2c da 93 ba 70 f0 97 ba 2d 0b 9b ba 91 60 af ba
       -0.001128023 -0.0011592042 -0.0011828892 -0.001338022
000340 a6 d4 b3 ba 66 67 b5 ba 57 ef ac ba bd d2 b2 ba
       -0.001371999 -0.0013840019 -0.0013193887 -0.0013643127
000350 57 b5 b3 ba d8 01 ad ba e3 70 b2 ba 0f 59 b4 ba
       -0.001371066 -0.0013199402 -0.0013613965 -0.0013759452
000360 fb 11 0b bb 45 a8 0c bb fc f6 0d bb 61 66 0d bb
       -0.0021220434 -0.00214626 -0.0021662107 -0.0021575915
000370 23 aa 0f bb c8 b6 10 bb ec 99 10 bb b0 3e 11 bb
       -0.0021921478 -0.0022081602 -0.00220644 -0.0022162609
000380 56 86 13 bb 78 54 ce ba 82 0c d0 ba 5f cf d1 ba
       -0.002251049 -0.0015741726 -0.0015872868 -0.0016007236
000390 1f 0c ce ba 1e 05 d0 ba ba 42 d0 ba 01 52 d2 ba
       -0.0015720165 -0.0015870666 -0.0015889027 -0.0016046168
0003a0 4c 9c d1 ba de 2d d0 ba cd 84 7a ba 64 3b 80 ba
       -0.0015992015 -0.001588281 -0.0009556532 -0.0009783325
0003b0 7d 3b 81 ba 9b 29 79 ba c9 55 7f ba 55 28 79 ba
       -0.0009859648 -0.0009504796 -0.0009740261 -0.0009504606
0003c0 a1 8c 7d ba 0d e1 7e ba f5 b7 81 ba 35 6e 82 bd
       -0.00096721394 -0.0009722866 -0.0009896742 -0.063686766
0003d0 78 28 12 bd f5 98 79 bd c0 44 05 bd 6f 1e 8d bc
       -0.035683125 -0.060936887 -0.03253627 -0.017226426
0003e0 47 d8 9c bc 63 b9 29 bc 56 ac 82 3c 80 41 4b 3c
       -0.019146098 -0.010359141 0.015951317 0.012405753
0003f0 ac 7d 67 bd 50 cd a6 bc dc 62 31 bd 07 6a a5 bc
       -0.056516334 -0.020361573 -0.04330717 -0.02019216

e_conv1.bias f4 [32]
000000 21 0c fd b8 bd 04 82 3d 9b cf aa 3c 18 f8 e7 3d
       -0.00012066239 0.0634856 0.020850947 0.11326617
000010 06 58 6b 3d 33 bd 48 af d6 99 94 3d a1 f6 e8 ba
       0.057456993 -1.8257111e-10 0.072559044 -0.0017773696
000020 e0 3a 7f bb a1 c2 a4 3d 08 24 35 b8 41 c6 b4 ba
       -0.0038945004 0.08044935 -4.318732e-05 -0.0013791994
000030 a1 3f 69 ba dc 08 83 3d 6c 3d 42 af 11 17 17 3e
       -0.0008897726 0.06398174 -1.7666019e-10 0.14754893
000040 64 35 f4 3d 4f a7 c4 3d 17 94 36 3e 5f ec 1f 3e
       0.11924246 0.09602224 0.1782993 0.15617512
000050 7d 73 2a 9e c4 86 14 3e 0d 62 68 bc 6c fd ef 3d
       -9.0236075e-21 0.14504534 -0.014183533 0.11718258
000060 3e 37 05 a2 fd 77 07 9d 7d 69 ef 3c fd 4f 27 b5
       -1.8054106e-18 -1.7929134e-21 0.029225105 -6.2328746e-07
000070 1a 6f 17 ae 53 92 9a bc 4e 35 d5 3d c2 c0 e0 b9
       -3.4432103e-11 -0.018868601 0.10410558 -0.00042868225

e_conv2.weight f4 [32, 32, 3, 3]
000000 e6 85 8b b8 d9 13 d0 b7 ce 90 0c b8 2a 4c 8e b8
       -6.652977e-05 -2.4804775e-05 -3.351346e-05 -6.785274e-05
000010 03 bf 99 b8 69 d5 85 b8 03 60 67 b8 dc d3 89 b8
       -7.331187e-05 -6.381685e-05 -5.516411e-05 -6.572131e-05
000020 be 96 3c b8 ea 56 c4 3b a1 f3 31 bc e7 22 2e 3b
       -4.4963082e-05 0.0059918063 -0.010861308 0.0026571096
000030 0b 2b 22 bb 8e 5e 54 ba 7d 35 9a bb 05 c3 0d 3c
       -0.0024744894 -0.0008101248 -0.0047060833 0.008652453
000040 03 85 8e 3c f7 6d 25 3a a5 02 bd bb bf bb e7 bb
       0.01739741 0.00063106365 -0.0057681375 -0.0070719416
000050 31 4f bb bb 66 b8 39 3a 73 61 8f bb 99 c3 99 bb
       -0.0057162275 0.00070846674 -0.0043756305 -0.0046925065
000060 e3 f8 26 3b 5b af e1 39 9e 40 d9 3a d9 48 5c bc
       0.0025477938 0.00043045994 0.0016575044 -0.013445103
000070 2b 34 33 3c b5 91 a0 3c d4 c8 0f bc 20 e3 35 bb
       0.010937731 0.019600729 -0.0087759085 -0.0027753785
000080 1a 2f e4 ba bb e6 9c bc d3 00 58 3b 8e 17 21 3c
       -0.0017409057 -0.01915299 0.0032959476 0.009832276
000090 10 b6 0a ba 5d c2 04 bb 2b 81 e4 ba c4 42 d1 3b
       -0.00052914117 -0.002025745 -0.0017433515 0.006386133
0000a0 2a fc 1d bc 61 1c 72 3b 2b 0b 03 3c f1 2c 3b bc
       -0.00964264 0.0036943185 0.007998268 -0.011424289
0000b0 49 bc dd bb ef 0d 8a 0d 0a 85 10 8d 83 c6 cc 0d
       -0.00676683 8.508261e-31 -4.4533566e-31 1.2620261e-30
0000c0 2d 99 b9 0d 90 d0 bd 0d 6d cb 9c 8d 55 7c b5 0d
       1.1438381e-30 1.1698234e-30 -9.663215e-31 1.1184918e-30
0000d0 e8 a0 b5 0d 91 1c 32 8b 07 6e 3d 3b fc 5a 99 3b
       1.1193723e-30 -3.4303044e-32 0.0028904693 0.0046800356
0000e0 ee 75 fc b9 91 39 ee 3a 84 fe 81 3b c1 ef 3d 3b
       -0.0004815305 0.0018175115 0.003967108 0.0028982016
0000f0 0b 7a bd 3b 54 06 ad 3b 09 b3 f1 3b 58 fa 3f ba
       0.005782371 0.0052802954 0.007376079 -0.0007323376
000100 9e 28 4b ba 94 6d 5a ba f7 d9 38 ba c7 21 40 ba
       -0.0007749888 -0.00083323685 -0.0007051522 -0.0007329252
000110 5a 6d 51 ba 31 b3 2f ba c5 fb 36 ba 77 4f 45 ba
       -0.0007989012 -0.0006702422 -0.00069802656 -0.0007526795
000120 11 46 61 33 69 b3 3c 33 b0 e4 31 33 64 36 7d 33
       5.245062e-08 4.3935334e-08 4.1419014e-08 5.895562e-08
000130 20 9a 5b 33 26 b5 39 33 c1 a2 89 33 67 d1 61 33
       5.1130087e-08 4.3238423e-08 6.4091644e-08 5.2577345e-08
000140 52 1e 58 33 a9 ae 7a 3b e9 3a b4 3a 5c b1 b5 3b
       5.0318995e-08 0.0038251078 0.0013750467 0.0055448245
000150 dd e0 16 bb 5e 73 03 b8 e1 17 16 3b 69 dd 51 3a
       -0.0023022213 -3.1340278e-05 0.0022902417 0.000800571
000160 45 a8 7b 39 0e 80 8a b9 2a 2f 94 ab 8b 73 05 2c
       0.0002399991 -0.0002641682 -1.0529123e-12 1.8964576e-12
000170 56 9f 5a ab ad 1c 92 2c 08 b9 bf ac 2e 6d 97 2a
       -7.767028e-13 4.1527532e-12 -5.449089e-12 2.6898747e-13
000180 73 c4 ee ac 65 0d ba ac 7c e8 74 2c 12 e4 a7 b4
       -6.786177e-12 -5.287925e-12 3.480354e-12 -3.1272117e-07
000190 95 eb 91 b6 1b 37 96 b6 a7 50 93 b6 11 cf 75 36
       -4.348762e-06 -4.4767635e-06 -4.3903306e-06 3.6628373e-06
0001a0 81 21 8c b6 02 a1 96 b6 a7 9a 97 b6 b4 1a 97 b6
       -4.1762255e-06 -4.489092e-06 -4.5181546e-06 -4.5032593e-06
0001b0 42 91 47 ba d6 81 6e ba 91 42 8b ba 10 33 ae 3a
       -0.00076128927 -0.00090983266 -0.0010624697 0.0013290364
0001c0 04 59 23 3a 74 75 b5 39 87 57 23 3b 8d 94 f2 3a
       0.0006231221 0.0003461052 0.0024923997 0.0018507406
0001d0 cf f3 82 3a 2f fd 7c 3a f8 ed 4b 3b d0 b2 f1 3a
       0.0009990874 0.00096507644 0.0031117182 0.0018440131
0001e0 b3 36 5b 3a f6 d3 a3 3a ee 37 8c 3a e9 a2 41 3a
       0.0008362338 0.0012499082 0.0010697821 0.0007386641
0001f0 aa 50 3b 3b e3 b7 01 3b 65 d0 04 9e 8f 70 9a 9f
       0.0028582015 0.0019793443 -7.031117e-21 -6.540775e-20
000200 e9 02 aa 1f d9 e7 67 1f 4b 7c 91 9f e2 1b 31 1d
       7.2002615e-20 4.9107933e-20 -6.1615514e-20 2.344017e-21
000210 9a ef 9e 9e 49 6f 43 1f 5d b5 d2 1f 71 c6 93 3b
       -1.6827998e-20 4.138491e-20 8.92385e-20 0.00450974
000220 ab 4f 15 3c 53 ce 57 3b 98 74 2d 3c 50 df 42 3c
       0.009113233 0.0032929375 0.01058688 0.011894062
000230 b3 fa 20 3c 1d 64 b6 ba 43 d2 47 bc a8 8a 91 bb
       0.009825396 -0.0013915334 -0.012196126 -0.004441578
000240 25 81 02 bc dc 9c 1c bc 5f c6 43 bb 59 c9 37 bc
       -0.007965361 -0.009558883 -0.0029872877 -0.011217439
000250 d9 bb 1a 3c f3 4e 2c 3c 05 c6 88 bc 64 b3 f2 3a
       0.0094442 0.01051687 -0.016695986 0.0018516597
000260 71 e5 aa 3a c2 9c d4 3b 4f de 33 3a 48 c4 18 3b
       0.001303835 0.0064884135 0.00068614347 0.0023310352
000270 5d 88 4c ba 40 94 8d 3b e9 93 60 3b a9 52 4d 3b
       -0.0007802302 0.0043206513 0.0034267849 0.0031329787
000280 c3 9e d8 3b dd 49 fa 3b c2 cd 61 3a b6 e0 75 bc
       0.0066107227 0.0076381997 0.0008613729 -0.015007189
000290 08 c9 28 bc 9c f9 a4 ba e7 ec 7a 3a d0 4d 55 3c
       -0.010301836 -0.0012586596 0.00095720444 0.01301904
0002a0 37 7d c6 bc 37 cd 49 3c 94 c5 cc 3c 6f b4 4c 3c
       -0.024229629 0.012316993 0.024996556 0.012494191
0002b0 c0 7d 53 3c 20 23 a2 3a 7d 64 95 3b 7c 61 df 3b
       0.012908399 0.0012370087 0.0045590983 0.006817041
0002c0 97 c4 54 3a f5 12 ab bb b0 95 1d bb 33 b3 8f 3c
       0.00081164524 -0.0052207657 -0.002404552 0.017541504
0002d0 09 ac 01 80 60 bc 07 80 53 2d 03 80 33 20 07 00
       -1.5355e-40 -7.10425e-40 -2.91766e-40 6.544e-40
0002e0 f6 bf 04 80 80 6d 05 00 ed 20 00 00 86 8a 05 00
       -4.36205e-40 4.98459e-40 1.1812e-41 5.0887e-40
0002f0 20 0a 04 00 fc 36 51 bc ae 80 24 3c 17 51 5c 3c
       3.70974e-40 -0.012769457 0.010040445 0.013447068
000300 c3 99 46 bc 30 b3 05 3d 69 21 b4 3c 01 87 0e 3c
       -0.012121621 0.03264159 0.021988587 0.00869918
000310 29 3a a9 3c f0 1d 53 3c ce f1 bc 3a 3d 2e 7c 3a
       0.020657616 0.012885556 0.0014415325 0.0009619927
000320 ca d1 84 bb d9 0d 18 ba d9 03 d2 39 57 71 06 bb
       -0.004053329 -0.00058004033 0.00040057188 -0.0020514333
000330 30 9d 67 bb e2 8a 23 3b 65 2f 73 bb ae e9 0f 3c
       -0.0035341494 0.0024954607 -0.0037107107 0.008783741
000340 e6 b4 f2 3b b9 20 42 3c 28 68 c2 3b 5e b3 24 3c
       0.0074068187 0.011848622 0.0059328265 0.01005253
000350 ca 8a 73 3b c0 31 6f bc d8 06 42 3c 4e b4 cd 39
       0.0037161582 -0.014599264 0.011842452 0.00039234984
000360 6c fd 81 9f aa 13 2c a0 2a 9d 32 a0 29 18 37 a0
       -5.5052876e-20 -1.4575473e-19 -1.5129188e-19 -1.5508697e-19
000370 a4 e9 2c a0 f2 26 18 a0 c6 de 04 a0 a9 8f 0c a0
       -1.4646272e-19 -1.2887787e-19 -1.1254544e-19 -1.1905994e-19
000380 e5 96 2d a0 25 ae 00 00 17 c8 00 00 b2 4a 00 00
       -1.4703597e-19 6.2471e-41 7.1779e-41 2.6796e-41
000390 32 83 00 00 41 c2 00 00 9e b5 00 00 86 e9 00 00
       4.7064e-41 6.9685e-41 6.5152e-41 8.3772e-41
0003a0 8e da 00 00 3f f0 00 00 d2 b0 25 3b 43 39 86 3a
       7.8403e-41 8.6184e-41 0.0025282395 0.0010240454
0003b0 df 2b 39 3b 9a 6f 3a bb e6 b3 81 bb 12 69 33 bc
       0.002825491 -0.0028447867 -0.003958213 -0.010950344
0003c0 76 3d 33 3c 27 31 c2 bb 67 1f 6d bc 02 29 03 00
       0.010939946 -0.0059262696 -0.014472819 2.90217e-40
0003d0 9a 1e 00 00 eb 41 03 00 ba c2 01 80 eb 60 00 00
       1.0978e-41 2.99153e-40 -1.6169e-40 3.4768e-41
0003e0 c2 70 03 00 78 62 03 00 35 b7 00 00 a3 05 03 00
       3.15956e-40 3.1083e-40 6.5722e-41 2.77529e-40
0003f0 99 18 2d 2b 8a 49 bf aa 2c 9a a7 29 ab 66 00 2b
       6.1496083e-13 -3.3979444e-13 7.4430344e-14 4.5617216e-13

e_conv2.bias f4 [32]
000000 20 36 ff bc 32 01 e6 af 17 71 48 3d d1 d2 36 b2
       -0.031153738 -4.1837606e-10 0.048935976 -1.0641728e-08
000010 cf 04 20 3d 67 2c 0d 3d 01 43 0b 3b 45 5f 3a 3d
       0.039067086 0.034466173 0.0021249654 0.045501012
000020 62 2e 65 3d a2 0c 15 3d a2 e9 d4 bc fc b6 a5 a4
       0.055952437 0.036389 -0.025990311 -7.186733e-17
000030 94 b3 cf b4 b0 57 0a bc 0f 13 2e 3c 2f 17 dc b9
       -3.8687415e-07 -0.008443758 0.010624661 -0.00041978943
000040 8a 8d 02 3d a8 f2 57 3c ba 26 2f b3 f4 be 3d bc
       0.031873263 0.013180412 -4.0780584e-08 -0.011581171
000050 f7 cd 81 ae 0d e7 7f 3c 7f c6 07 b4 7c aa 2a 3d
       -5.9028275e-11 0.015619052 -1.2645067e-07 0.041666493
000060 78 62 ea b8 32 cd 68 3d 23 cd 3a 3d f0 a9 e6 af
       -0.00011176331 0.056836314 0.04560579 -4.1957504e-10
000070 47 74 fe ba d7 b9 e8 3a fc 30 0b b7 dd c6 4e 3d
       -0.0019413315 0.001775558 -8.296451e-06 0.05048262

e_conv3.weight f4 [32, 64, 3, 3]
000000 4a c3 55 37 a4 5a 85 37 85 a0 99 37 ce 1b 24 37
       1.2741259e-05 1.5897043e-05 1.8313769e-05 9.7816355e-06
000010 b6 06 7f 37 48 b3 8c 37 19 0d 4c b6 36 e5 8e 35
       1.5200747e-05 1.6772785e-05 -3.0405993e-06 1.0646534e-06
000020 31 4c f4 35 ae f4 2b ba 71 60 50 3c 8f bb 83 3c
       1.8201591e-06 -0.00065595924 0.012718306 0.016080646
000030 1e 6d fd bb 81 fe b3 3b fb 31 0c 3c 7f 09 d1 bc
       -0.007733955 0.0054929857 0.008556838 -0.025517223
000040 29 c5 11 bc 88 f6 ee bb ed 4b 84 bb 0e 44 dd 3b
       -0.008897104 -0.0072925724 -0.0040373714 0.0067524975
000050 23 c2 cd 3b 8e 9c b5 bb 59 63 a5 3b 05 2e 87 3b
       0.0062792464 -0.0055423444 0.0050472436 0.004125359
000060 92 0d 5a bc c0 f0 9c bb 71 b2 b1 bb 75 34 89 3b
       -0.0133088995 -0.004789442 -0.005422883 0.0041871616
000070 65 0a a0 3b e2 16 a8 3b fb 66 37 3b 02 77 74 3b
       0.0048840516 0.005129681 0.0027984965 0.003730238
000080 8d bd 54 3b 47 39 14 bc 24 75 0e bc c9 d0 22 bc
       0.0032461614 -0.009046859 -0.008694921 -0.009937474
000090 be 08 18 bb 3e 18 47 3c 09 87 54 3c 54 16 24 bb
       -0.002319857 0.012151776 0.012971648 -0.0025037723
0000a0 c8 95 12 3c 0e 5c 02 3c ff 3b 91 bc 2d af 15 bc
       0.008946843 0.007956518 -0.017728804 -0.009136003
0000b0 3e df f1 bb 68 6d 4b 8b 66 7d 4e 0c 82 8c d8 8c
       -0.007381349 -3.9178686e-32 1.5907398e-31 -3.3364635e-31
0000c0 d0 28 9f 0c 57 fe 30 8b 1d 33 80 8c 5e a2 ec 8b
       2.4522392e-31 -3.408771e-32 -1.9752285e-31 -9.1148196e-32
0000d0 3c ee e8 8b 06 c4 be 8c 74 06 15 bb f7 f5 fb 3b
       -8.9721605e-32 -2.9392112e-31 -0.0022739442 0.0076892334
0000e0 c1 a4 02 3b 94 f9 58 ba 8b ab 48 3c 73 00 fa 3b
       0.0019934627 -0.0008276936 0.01224793 0.007629448
0000f0 1d a1 ff bb 81 32 03 3b 05 80 cb bb 1f a0 5a 3b
       -0.0078011886 0.0020019116 -0.0062103295 0.00333596
000100 75 79 5b 3b 6a f3 4c 3b cd b3 5c 3b 1c 3b 5f 3b
       0.0033489142 0.0031273016 0.0033676506 0.0034062332
000110 91 3c 5d 3b 34 0d 51 3b 2b db 5c 3b c2 82 5c 3b
       0.0033758024 0.0031898739 0.003369997 0.0033647274
000120 df e3 87 33 07 79 8c 33 32 df 7d 33 e1 e6 95 33
       6.327877e-08 6.541273e-08 5.9109148e-08 6.98035e-08
000130 df bd a5 33 51 0d 34 33 ad c6 96 33 e0 a3 a0 33
       7.7179486e-08 4.1921627e-08 7.021058e-08 7.480389e-08
000140 16 3a 9d 33 7c bc 23 3b 50 ab 9c 3b d9 6b ae 38
       7.321448e-08 0.0024984172 0.004781164 8.317055e-05
000150 ff c1 43 3b 6e af 3e 3b d5 f8 bb ba c3 4a a5 bb
       0.002987027 0.0029096263 -0.0014341125 -0.0050443127
000160 a1 13 ad bb e1 fd d1 bb 11 67 b6 2c 2f f9 94 ac
       -0.005281881 -0.0064084386 5.184194e-12 -4.234078e-12
000170 17 17 7f 2c 38 55 1c 2d f9 ba 93 ac bd d6 35 ad
       3.6250497e-12 8.886496e-12 -4.1987494e-12 -1.033634e-11
000180 ae 44 6a ad 36 95 2b ad 42 b7 1e 2d 00 96 dc b6
       -1.331661e-11 -9.753356e-12 9.021952e-12 -6.573973e-06
000190 1d 66 cf b6 40 14 9a b6 5a 8b cb b6 c7 f2 ca b6
       -6.1809683e-06 -4.591915e-06 -6.066094e-06 -6.048332e-06
0001a0 96 7f c8 b6 13 5e 07 b6 95 45 bc b6 77 4d a0 b6
       -5.9753174e-06 -2.0171326e-06 -5.610937e-06 -4.7773897e-06
0001b0 e0 d2 bf ba 5c 36 99 b9 9b 6a eb b9 27 15 29 ba
       -0.0014634989 -0.00029222935 -0.0004490212 -0.00064499903
0001c0 aa cd 50 ba f2 62 90 ba d3 c1 55 3a c6 4b db 39
       -0.00079652166 -0.0011015816 0.0008154187 0.0004182739
0001d0 db 53 5a 3a 78 e8 b4 bb 7e 51 85 ba db c0 35 bb
       0.00083285355 -0.0055208765 -0.0010171381 -0.002773336
0001e0 ea 5a e2 bb 4a bf 14 bb 0f fc 80 bb 12 06 45 bc
       -0.0069078105 -0.0022697025 -0.0039362977 -0.012025373
0001f0 47 2f 01 bc c0 8f 25 bc 87 1b ca 9f 20 5d e3 9f
       -0.007884807 -0.010105073 -8.559587e-20 -9.62923e-20
000200 f6 55 d8 9f 99 0e f5 9f 62 f1 03 a0 7e 06 03 a0
       -9.162177e-20 -1.03785686e-19 -1.1175998e-19 -1.109828e-19
000210 5d 71 bf 1e df a5 eb 1f fd 61 b3 9f 93 ce 5b bc
       2.0269798e-20 9.980078e-20 -7.597156e-20 -0.01341595
000220 4b 32 0d 3c 22 db 73 3c c5 f2 19 bb 35 79 d5 3b
       0.008617948 0.014883788 -0.002349065 0.006514693
000230 af 61 11 3c 4d f5 18 bd 8c 9f 9d bc b1 df 5b bc
       0.008873387 -0.037343312 -0.019241117 -0.013420031
000240 aa e4 09 bb 03 6b ff 3b 09 7b 45 3c 49 08 c6 bb
       -0.0021040835 0.007794739 0.01205326 -0.006043468
000250 9b 95 03 3c 6c c4 20 3b 85 84 b9 bc c1 f4 0b bc
       0.008031274 0.002453114 -0.022646198 -0.008542241
000260 c2 44 0a bc b1 1c 56 ba 29 83 74 3b 1a d8 67 3a
       -0.008439245 -0.00081677275 0.0037309623 0.00088441523
000270 21 85 bc 39 04 df db 3b 25 dc 84 3b 43 da 0e bc
       0.00035957343 0.006709935 0.0040545636 -0.00871903
000280 89 a4 2f bb 43 a2 e3 bb ca 11 29 bb ef 48 66 3c
       -0.0026800951 -0.0069468333 -0.0025797957 0.014055475
000290 a8 40 86 3c 39 68 e2 ba f0 80 b7 3b 4e d4 92 3c
       0.016388252 -0.0017273492 0.0056000873 0.0179235
0002a0 a7 f4 09 bd 2f 8e 7b bc 52 4a 16 bc bf 99 70 3b
       -0.033680584 -0.015353723 -0.009172993 0.0036712734
0002b0 29 d0 d6 3b 33 7d 07 3c 7f 6b b7 39 7e a2 45 3b
       0.0065555763 0.008269596 0.0003498457 0.0030156667
0002c0 45 58 da b9 fa ee 8a bc 6c f1 42 bc 96 78 2d bc
       -0.00041645966 -0.016959656 -0.01189838 -0.010587832
0002d0 d3 8e 01 80 ae 32 05 80 a9 9a 00 80 e9 9b 05 80
       -1.43071e-40 -4.77358e-40 -5.5482e-41 -5.15108e-40
0002e0 0d bd 04 00 46 de 05 80 cb a1 02 80 8b aa 02 80
       4.3516e-40 -5.38914e-40 -2.41711e-40 -2.4485e-40
0002f0 83 95 06 00 5f aa 1c bb 2f 8f ff 3b 54 8e be 3b
       6.04648e-40 -0.002390526 0.0077990512 0.0058153067
000300 05 53 85 bb a3 c5 1b 3c 7a 6e 3e 3c 28 d2 cd bc
       -0.0040687346 0.0095075695 0.011623019 -0.025124624
000310 24 34 8d bc 0a 2c eb bb c2 c2 e0 bb a3 39 1d 3b
       -0.017236777 -0.0071768807 -0.0068591544 0.0023990653
000320 a2 89 0f 3c 91 aa 31 bc e7 db 0c 39 53 6e d5 3b
       0.008760842 -0.010843889 0.0001343336 0.006513396
000330 d9 5f 8e bc 28 21 f7 bb 10 f3 23 bb 55 a2 08 bb
       -0.017379688 -0.0075417943 -0.0025016703 -0.002084871
000340 57 3e f5 3b d0 8a 93 3b fd 58 66 b9 1b 61 12 3c
       0.007484238 0.0045026317 -0.0002196766 0.008934285
000350 6f 5d e5 3b 73 27 3c bc 7b be 56 bb f9 4c b1 bb
       0.0069996635 -0.011484015 -0.0032767344 -0.005410787
000360 84 57 1f 20 10 bf 31 20 93 85 bb a0 e1 e6 9a 20
       1.349678e-19 1.50557e-19 -3.1767424e-19 2.6241398e-19
000370 09 88 10 1f 11 31 c2 a0 9d ae 28 20 81 aa 55 20
       3.0605712e-20 -3.2897348e-19 1.4287928e-19 1.8098217e-19
000380 a1 88 0d 20 c4 c5 01 80 e2 ab 00 00 55 53 01 00
       1.1988371e-19 -1.6278e-40 6.166e-41 1.2173e-40
000390 4f 15 01 80 6e 1a 01 80 48 37 00 00 3a b0 00 80
       -9.948e-41 -1.01317e-40 1.9831e-41 -6.3218e-41
0003a0 bf 6d 01 80 34 ac 00 00 50 01 85 bb 0f 36 c0 3b
       -1.31205e-40 6.1775e-41 -0.0040589944 0.0058658193
0003b0 25 7b 41 3c 2f ab f2 bb 22 76 8a 3c 57 d4 05 3c
       0.011809145 -0.0074056606 0.016902033 0.008168302
0003c0 7d 28 bc bc 8d 22 24 bc 3a 9b 0a bc 36 79 00 80
       -0.022968525 -0.010018003 -0.00845986 -4.3482e-41
0003d0 90 3b 01 80 0f ce 01 80 4a ce 01 00 0c ea 00 80
       -1.13202e-40 -1.65755e-40 1.65838e-40 -8.396e-41
0003e0 5b 84 00 80 e9 46 01 00 e9 b1 00 00 cf 57 02 00
       -4.748e-41 1.17273e-40 6.3822e-41 2.15171e-40
0003f0 5c d4 0d 2b 1e 04 4b 2b 10 06 6a 2b a0 fc 1e 2b
       5.038797e-13 7.21258e-13 8.3141913e-13 5.6483464e-13

e_conv3.bias f4 [32]
000000 ba d0 23 3d e8 e0 fb 3c 6f 0c 4a b2 5b f4 31 3c
       0.03999398 0.030746892 -1.1760775e-08 0.010861482
000010 86 96 1f 3d e2 f9 96 b9 2a c7 3c bc 79 f7 51 b0
       0.03896191 -0.00028796407 -0.011522094 -7.6385437e-10
000020 ab af 0d 3d bb 9a b1 3b 1b 6a 05 3d d7 8d b3 b7
       0.03459136 0.0054200566 0.032571893 -2.1404512e-05
000030 f7 44 68 b0 b6 3a cd ba 4d 45 3d aa 39 69 98 b1
       -8.4499113e-10 -0.0015657756 -1.6810616e-13 -4.4357447e-09
000040 ba 53 c6 3d 49 b7 2f bc 98 90 9f 3d b3 08 05 bc
       0.09683938 -0.010724851 0.07791251 -0.00811975
000050 72 d0 37 b2 92 d9 a1 3c ba 8d d8 ba 32 9e 1d bc
       -1.0699397e-08 0.019757066 -0.001652173 -0.009620236
000060 99 a9 63 3c b8 89 98 a2 23 c0 c5 3b 06 6b 21 3d
       0.013895416 -4.13455e-18 0.0060348674 0.039408706
000070 ae f0 3c b7 b5 8e 84 bc 45 62 12 3d 43 f8 89 bc
       -1.1261711e-05 -0.01618133 0.03573825 -0.016842013

e_conv4.weight f4 [32, 64, 3, 3]
000000 21 cf 00 bb 8a bf 02 3c da 6b c9 bc 79 61 63 3b
       -0.0019654708 0.007980237 -0.02458756 0.003469555
000010 a8 29 92 bb 55 7b a2 bb ec 7f 28 3c 30 29 0d bb
       -0.004460532 -0.00495855 0.010284405 -0.0021539442
000020 62 22 0a bc 3d 45 00 00 92 47 00 00 98 8a 00 00
       -0.008431049 2.4838e-41 2.5675e-41 4.9718e-41
000030 e1 a2 00 00 69 04 00 80 14 b0 00 00 3a 43 00 00
       5.843e-41 -1.582e-42 6.3165e-41 2.4116e-41
000040 55 aa 00 00 be 73 00 00 e9 ec 8d 39 c8 a2 08 3b
       6.1104e-41 4.152e-41 0.00027070128 0.0020848978
000050 99 64 95 3a f1 b1 85 ba 2d 79 1c 3a 26 98 63 ba
       0.0011397778 -0.0010200125 0.00059689843 -0.00086820347
000060 61 de 7e bb 18 f4 2c bb c8 fe b2 bb c4 8a 00 00
       -0.0038889872 -0.0026390608 -0.005462501 4.978e-41
000070 f8 b8 00 00 b4 c8 00 00 3d 43 00 00 32 1b 00 80
       6.6354e-41 7.1999e-41 2.412e-41 -9.756e-42
000080 ec b8 00 00 58 48 00 80 f6 55 00 80 2c 0a 00 00
       6.6337e-41 -2.5952e-41 -3.0837e-41 3.649e-42
000090 83 d5 bf ba 97 7a c7 bb 84 7d 96 bc 83 a7 53 bb
       -0.0014635775 -0.006087612 -0.018370397 -0.003229589
0000a0 67 1b fb 3c 4c 42 62 ba 7c a5 c5 bc 74 9c c0 bb
       0.030652715 -0.0008631095 -0.02412676 -0.0058780257
0000b0 30 42 42 3a 1a de 15 bb b2 d9 f4 38 46 11 90 bb
       0.00074103754 -0.0022867979 0.000116753756 -0.0043965904
0000c0 98 36 00 3a 85 6b ff 3a 5a fc 53 bb 16 c3 3a 3b
       0.00048909476 0.0019486999 -0.0032346458 0.0028497628
0000d0 88 d1 87 3b f5 8e bd ba 35 0f d0 3a fb c2 0d 3b
       0.004144851 -0.001446216 0.0015873673 0.002163111
0000e0 ef 66 af 3a bd d7 a6 bb 1d 0c 97 3a 2b 67 a3 ba
       0.0013382117 -0.005091636 0.0011523996 -0.001246666
0000f0 dc 7c 9d ba 22 97 f6 38 e5 05 bb b9 05 af 27 bc
       -0.001201536 0.00011758345 -0.0003567181 -0.010234599
000100 6b d7 51 bc 12 0f a0 bc 19 74 8a bc 4d 33 5e 3c
       -0.012807707 -0.019538436 -0.016901063 0.013562036
000110 15 d5 d3 3b 11 99 00 bc 91 fe ab 3b 9d 21 ec bb
       0.0064646103 -0.007848994 0.0052488525 -0.0072061555
000120 89 ca 79 bc 1c 69 b5 3b 42 f8 1e 3c 88 ab ef bb
       -0.015246042 0.0055362117 0.009702744 -0.0073141493
000130 49 76 bd 3c f2 1e b1 bb 2a 4f 9b bb a9 30 06 bc
       0.023127692 -0.0054053003 -0.0047396617 -0.008190312
000140 a0 48 96 bc 3f 13 24 bc e3 33 8c 39 5f 52 4b bc
       -0.018345177 -0.010014354 0.0002674154 -0.0124097755
000150 1c b4 8a 3c c3 79 ef bb 26 bd 05 3c fd dc 6d 3b
       0.016931586 -0.0073082163 0.008162772 0.003629505
000160 e5 f0 11 3b 9f 3a f4 bb 0d 44 c2 3b 4d 5b 6a bc
       0.0022268828 -0.0074532772 0.0059285224 -0.014303994
000170 87 31 c5 bb a9 71 34 bc 1a fe 41 3c 30 c1 03 3d
       -0.006017867 -0.011013427 0.011840368 0.03216666
000180 16 5b 0e bc 30 c7 49 3c 4d d5 b6 3a 92 bc 00 80
       -0.008688709 0.012315556 0.0013949067 -6.7646e-41
000190 eb a0 00 80 6a 38 00 80 77 a0 00 80 bb 0e 00 80
       -5.7726e-41 -2.0238e-41 -5.7564e-41 -5.284e-42
0001a0 a5 c0 00 80 64 d0 00 80 d1 96 00 80 a0 58 00 80
       -6.9108e-41 -7.4756e-41 -5.4103e-41 -3.1793e-41
0001b0 52 80 0c 29 81 c9 ca a9 b6 71 d1 28 fa 3f b6 a7
       3.1197545e-14 -9.0055574e-14 2.3252975e-14 -5.058451e-15
0001c0 57 c9 a2 a7 a0 42 ac a9 34 e3 1a a8 85 9a 8a a9
       -4.5182326e-15 -7.649892e-14 -8.597984e-15 -6.155236e-14
0001d0 8d ce b3 a9 95 0e 21 bc 72 d7 b9 3c d3 50 e7 3b
       -7.985028e-14 -0.009830137 0.02268574 0.0070591955
0001e0 71 f8 f4 3b 24 1b 61 3c 23 b9 c3 bb d5 39 20 bd
       0.0074759056 0.013739381 -0.0059729978 -0.039117653
0001f0 d5 01 af 3c 0c ee f8 ba a2 91 22 bb e2 6c 8f ba
       0.021363178 -0.0018991842 -0.0024806042 -0.0010942484
000200 f1 bf df ba dc f5 91 ba 9c 16 79 ba 8b 42 41 bb
       -0.0017070753 -0.0011135894 -0.0009501965 -0.0029489126
000210 64 0b 39 3a 33 a9 70 b9 97 a8 6d bb b1 d2 e0 ab
       0.0007058887 -0.00022951215 -0.0036263817 -1.5974636e-12
000220 ed d8 ec ac 76 db 53 2c 68 5c f5 2b 6c 87 fb 2b
       -6.731607e-12 3.0106729e-12 1.7433945e-12 1.787221e-12
000230 98 1d 97 2c de 91 06 2d 64 fa 03 2d 47 ad 31 2d
       4.2949637e-12 7.649407e-12 7.502086e-12 1.00997604e-11
000240 d9 1c 64 3b 77 a5 1f bd bb ce a0 bc 4c 19 9b bc
       0.0034807234 -0.03897616 -0.019629827 -0.01893296
000250 b5 f3 c6 bc d2 c8 23 3c 04 fd 25 3c bd 02 5e 3c
       -0.02428613 0.00999661 0.010131124 0.013550458
000260 25 a0 ca 3c 96 07 ae 3a 2e 2f 1f ba d5 bf 20 ba
       0.024734566 0.0013277407 -0.0006072399 -0.0006132101
000270 35 8f 13 3a da 4d d8 ba c6 cb f1 ba 54 de 0e ba
       0.00056289445 -0.0016502694 -0.001844757 -0.00054499996
000280 fa 6b 56 bb 61 81 71 bb 73 94 00 00 59 74 00 00
       -0.0032718168 -0.0036850797 5.3254e-41 4.1738e-41
000290 84 ad 00 00 28 23 00 00 e9 9f 00 80 ae a6 00 80
       6.2246e-41 1.2612e-41 -5.7365e-41 -5.9793e-41
0002a0 3b b7 00 00 85 2a 00 00 a5 5e 00 00 c3 64 84 bb
       6.5731e-41 1.5253e-41 3.3952e-41 -0.004040332
0002b0 59 1c d0 bb 71 66 5c 3b 33 12 5f bb 19 1b 93 3b
       -0.0063510356 0.0033630396 -0.0034037947 0.0044893143
0002c0 e6 74 66 bb 40 bf 03 ba 60 39 dd 3b a7 98 53 bb
       -0.0035164892 -0.0005025752 0.0067512244 -0.0032287033
0002d0 a9 f1 ce 2b dd d0 9d 2b d1 61 d3 2b fc 76 a9 2a
       1.4704255e-12 1.1213492e-12 1.5019601e-12 3.0102993e-13
0002e0 24 24 d2 2a e9 63 e0 2b 3c f4 db 2b 9b de b5 aa
       3.732857e-13 1.5943888e-12 1.5628675e-12 -3.2306522e-13
0002f0 48 69 e3 2b f9 18 62 3b c8 c5 1d 39 ff 85 87 ba
       1.6158542e-12 0.0034499748 0.00015046366 -0.0010339617
000300 20 fc 22 3b 0a 8a 3b ba ea 43 4e bb 5f 94 b2 3b
       0.0024869516 -0.00071540533 -0.0031473585 0.005449816
000310 3f 6b 10 3b bd fd f0 ba 38 74 85 98 86 9a 8d 98
       0.002203658 -0.0018386167 -3.4497045e-24 -3.6603675e-24
000320 0e 46 6c 98 06 68 49 98 48 e4 59 98 89 1f 50 98
       -3.0537654e-24 -2.603116e-24 -2.8161845e-24 -2.6899291e-24
000330 57 19 2a 98 1e 91 29 98 fa 1a 22 98 70 6c 3a bb
       -2.1984778e-24 -2.1916004e-24 -2.0951629e-24 -0.0028445981
000340 3c 98 4d bb 1e 3f 11 bb 6d ff 19 bb 35 cf bc 3a
       -0.0031371256 -0.0022162865 -0.0023498193 0.0014405014
000350 fe 56 56 3b 71 97 14 bb 8b 81 15 38 b1 b7 83 ba
       0.003270566 -0.0022673274 3.5645015e-05 -0.0010049251
000360 01 00 97 32 76 18 99 32 01 eb 93 32 36 d3 99 32
       1.7578715e-08 1.7822668e-08 1.721992e-08 1.7907592e-08
000370 30 8d 9b 32 56 50 97 32 c7 d2 91 32 bb 32 93 32
       1.810858e-08 1.7615246e-08 1.6976072e-08 1.7136122e-08
000380 83 d2 8e 32 5c 31 1c bb 79 ee d9 bb 36 88 a9 bb
       1.6626705e-08 -0.0023833131 -0.0066507426 -0.0051737083
000390 53 20 e1 3a d3 e2 4f bb 8b dd a9 ba 0d 51 c6 3a
       0.0017175771 -0.003172089 -0.0012959702 0.0015130356
0003a0 30 1b 29 bb 68 b5 bc b9 14 a8 11 3c d7 0f 45 bc
       -0.0025803559 -0.00035993312 0.008890171 -0.012027702
0003b0 9a f2 bf ba 41 a5 40 bb 66 55 92 bb 95 30 dd 3b
       -0.0014644444 -0.0029395374 -0.0044657467 0.006750176
0003c0 05 ea 41 3c 76 57 81 3c 3d 07 1b 3c cb d1 00 00
       0.01183558 0.015788775 0.009462175 7.526e-41
0003d0 08 98 00 00 66 93 00 80 48 76 00 00 08 f0 00 00
       5.4539e-41 -5.2877e-41 4.2431e-41 8.6107e-41
0003e0 ca 5e 01 80 81 de 00 80 41 f4 00 80 12 00 01 80
       -1.2584e-40 -7.982e-41 -8.7622e-41 -9.1861e-41
0003f0 a9 2a ce b8 88 04 d1 b8 25 e0 d0 b8 d6 88 d1 b8
       -9.8307915e-05 -9.9667406e-05 -9.959963e-05 -9.991384e-05

e_conv4.bias f4 [32]
000000 02 69 07 3d 75 eb 54 3b 3b fa 10 ba 1a 68 46 a3
       0.033059128 0.0032488976 -0.00055304513 -1.0755646e-17
000010 57 c5 88 3c 9a 79 85 3c 53 79 5e 3c 2b 26 a9 3c
       0.016695661 0.016293336 0.013578731 0.020648083
000020 1b 34 9e ba 0b 7a ed b5 9e 70 aa 3c 55 13 d5 3c
       -0.0012069972 -1.7693395e-06 0.020805653 0.026010195
000030 d3 d0 03 3d 5b 60 7f 3c 23 58 b9 3c e0 2b 4f 3c
       0.032181572 0.015586938 0.022625035 0.012644738
000040 cc 2d d3 ad c5 e6 97 3d e4 3f e3 96 7d 9c 03 3d
       -2.400826e-11 0.07417063 -3.6714149e-25 0.03213166
000050 11 59 6b 3c 80 e2 16 bb 7a d7 f1 3c b1 d2 a7 92
       0.014364497 -0.0023023188 0.029521693 -1.0591121e-27
000060 3f 32 ac b6 22 d4 16 3d ef de c7 ba 75 94 02 3d
       -5.131849e-06 0.0368234 -0.0015248935 0.03187986
000070 7e a2 a0 3d 51 52 ca 3c 6d be 05 bb 89 33 bb 3c
       0.07843493 0.024697455 -0.0020407692 0.022851722

e_conv5.weight f4 [32, 64, 3, 3]
000000 86 5f 99 ba 1e 08 e8 39 3f 4e 7e bb 47 ff a2 3b
       -0.0011701442 0.00044256536 -0.0038803963 0.004974279
000010 33 d4 94 3b 62 3f 2f ba a3 6d ba 3b 70 0f c0 3b
       0.0045418977 -0.0006685165 0.0056893392 0.0058612153
000020 de 0c aa 3a 10 8d c8 3b c0 55 88 b9 b1 99 34 3a
       0.0012973805 0.0061203316 -0.0002600383 0.0006889357
000030 15 07 74 3b ea e6 b1 ba db 0f 3d ba 2a f9 c1 3a
       0.0037235667 -0.0013572846 -0.00072121405 0.0014798988
000040 db 43 18 bb 79 a7 c9 ba ce 2a 00 00 da 0a 00 00
       -0.0023233804 -0.0015384994 1.5355e-41 3.893e-42
000050 61 f7 00 80 0c 4c 01 80 a9 70 01 80 aa 5f 01 80
       -8.8743e-41 -1.19116e-40 -1.3225e-40 -1.26153e-40
000060 6c b0 00 80 99 cd 00 00 29 cd 00 80 c4 33 06 3c
       -6.3288e-41 7.3755e-41 -7.3598e-41 0.008191053
000070 3f 43 23 b9 bd a2 3b 3c e6 d8 3f 3b 06 25 03 3c
       -0.00015569942 0.011452374 0.0029273569 0.008004433
000080 b4 d5 27 3c d5 bc ec ba 39 21 1b 3c 27 f6 25 3c
       0.010243822 -0.0018061647 0.00946837 0.010129488
000090 00 1a fc 3b b7 e0 b7 3b b9 e6 03 3b f2 7b 20 3c
       0.007693529 0.005611505 0.0020126535 0.009795176
0000a0 eb cc 31 bb 02 22 8f 3b 8b fe 4f bc 29 d6 0f bc
       -0.0027130197 0.0043680677 -0.012694965 -0.008779087
0000b0 04 dc 6a bc 88 ca 3f aa 81 ab 0e aa 4d 35 e0 a9
       -0.014334682 -1.7034475e-13 -1.2671636e-13 -9.9568445e-14
0000c0 81 d9 05 aa 19 55 1f aa 3a da 34 aa 4e a4 58 aa
       -1.1888235e-13 -1.4151561e-13 -1.6062924e-13 -1.9241659e-13
0000d0 c6 01 ef a9 43 db b6 aa 20 30 43 3b cf c6 1b 3c
       -1.061404e-13 -3.2481838e-13 0.0029783323 0.009507849
0000e0 86 9f 15 3c 5a 7e 6c 3a 3b e3 c1 3b f3 c4 00 3c
       0.009132272 0.00090215134 0.0059169806 0.007859456
0000f0 c7 d7 b5 3a 54 e6 ae 3b ae 46 12 3c 13 b2 00 00
       0.0013873511 0.005337516 0.008927984 6.3881e-41
000100 2b 67 00 00 85 85 00 00 a0 6d 00 80 28 18 00 80
       3.701e-41 4.7898e-41 -3.9326e-41 -8.666e-42
000110 46 91 00 00 ac cf 00 00 e7 36 00 80 53 c8 00 00
       5.2114e-41 7.4499e-41 -1.9695e-41 7.1863e-41
000120 0c 65 a4 bc 12 94 3e 3c 6c 25 a7 bc f5 85 8e bc
       -0.020067714 0.011631982 -0.020403586 -0.01739786
000130 73 73 b7 3c 39 f7 44 bc 2d 79 05 3c 6d fe 81 bc
       0.022393918 -0.012021833 0.008146566 -0.01586839
000140 50 c8 1e 3c 29 c5 14 3c a0 36 f2 ba 00 90 a7 bb
       0.009691313 0.00908021 -0.0018479414 -0.0051136017
000150 72 b7 95 3b 00 af 20 bc 11 44 2b bb ef 94 ba bb
       0.0045689875 -0.009807348 -0.00261331 -0.005694024
000160 8f af a8 ba f2 93 0f bb 9a 34 63 bb 17 dd 0d 3b
       -0.0012869703 -0.002190825 -0.0034668804 0.0021646672
000170 e9 ba 47 3c e2 f4 42 bb e6 af 73 b7 5b 3b 3b 3c
       0.012190559 -0.0029748012 -1.4524883e-05 0.011427726
000180 18 e0 57 3a 96 8e e7 3b f3 b4 b3 3c 29 92 f1 18
       0.00082349917 0.007066558 0.02193687 6.2444624e-24
000190 d0 9a 70 19 45 ce de 19 37 8d ff 18 92 1d 77 19
       1.2438973e-23 2.3037574e-23 6.6058546e-24 1.2775572e-23
0001a0 5e 24 c1 19 75 c0 cd 18 3c be 4a 19 5b af 97 19
       1.9970421e-23 5.318559e-24 1.0481573e-23 1.568386e-23
0001b0 f5 ce 00 80 75 5d 00 80 1a 00 00 00 58 d5 00 80
       -7.4242e-41 -3.3526e-41 3.6e-44 -7.6533e-41
0001c0 4d 40 00 00 8e 47 00 00 bb d4 00 80 87 30 00 80
       2.3067e-41 2.5669e-41 -7.6313e-41 -1.7408e-41
0001d0 6e 07 00 00 fe a1 df a7 64 9f 2e a8 7b 23 93 a8
       2.665e-42 -6.2070566e-15 -9.693503e-15 -1.6335666e-14
0001e0 0e 4c 29 a8 aa ac 73 a8 86 66 c9 a8 34 80 79 a8
       -9.397876e-15 -1.352665e-14 -2.2359945e-14 -1.3850076e-14
0001f0 ee 7c b4 a8 5d 79 12 a9 27 f5 00 80 d3 f0 00 80
       -2.0038194e-14 -3.2523778e-14 -8.7944e-41 -8.6391e-41
000200 e0 f3 00 00 15 26 01 80 e2 95 00 00 2c 1a 01 80
       8.7486e-41 -1.05497e-40 5.3768e-41 -1.01224e-40
000210 f7 1a 00 00 cd 4c 01 80 c6 77 00 80 96 42 01 00
       9.673e-42 -1.19386e-40 -4.2967e-41 1.15722e-40
000220 95 89 00 00 ad 85 00 00 c7 0c 01 80 f6 8e 00 80
       4.9355e-41 4.7954e-41 -9.6419e-41 -5.1285e-41
000230 af 26 00 80 ff 37 00 00 62 b5 00 80 24 63 01 80
       -1.3877e-41 2.0088e-41 -6.5068e-41 -1.274e-40
000240 3a a6 a9 bb 3c 49 6d bb 2b dc 48 bb 41 f1 cc bb
       -0.0051772865 -0.0036206981 -0.0030648808 -0.0062543456
000250 0b 5b 4b bb bd ce 3e bb 2d 3e a7 ba 8e 2f 2d 3b
       -0.0031029608 -0.0029114925 -0.0012759619 0.002642605
000260 aa ba c5 3a 14 94 81 bb 55 4b 6d ba d6 21 20 3b
       0.0015085537 -0.00395442 -0.0009052058 0.002443423
000270 97 87 6f ba 2b f4 2a ba 42 e6 5c bb 62 97 86 3a
       -0.0009137331 -0.0006521369 -0.003370658 0.0010268504
000280 cd 11 93 bb eb e5 ae bb a2 52 9e bb 16 c6 1e b9
       -0.004488206 -0.005337467 -0.004831628 -0.00015141847
000290 91 53 95 3b c1 90 a1 ba 99 3c 97 3b 46 9c 05 3c
       0.004557081 -0.0012326465 0.004615378 0.008154934
0002a0 fe 1e f6 b9 3d 16 96 3b 23 7b b7 3b 20 be dd bb
       -0.00046943867 0.0045802877 0.005599396 -0.0067670494
0002b0 fa 52 ac 3b 1c dc 59 3c fd a6 1e 3c fe a8 53 3b
       0.005258915 0.013297107 0.009683368 0.0032296772
0002c0 63 3b 49 3b 50 64 f8 bb 15 94 32 bb b7 4d 44 3b
       0.0030705563 -0.0075803176 -0.0027248908 0.0029953548
0002d0 82 8c 00 80 dc fd 00 80 6e 6f 00 00 e6 17 01 80
       -5.0405e-41 -9.1068e-41 3.9973e-41 -1.00409e-40
0002e0 aa 11 01 00 bf 3f 00 80 9b 32 01 00 e0 d2 00 80
       9.8172e-41 -2.2868e-41 1.0999e-40 -7.5648e-41
0002f0 a7 b9 00 80 8c 30 c2 bb 00 b7 d1 ba 21 06 43 bb
       -6.66e-41 -0.0059261974 -0.0015999973 -0.0029758292
000300 e7 8b b8 b9 e4 06 20 3b 74 5b 2c bc 6b cb 74 ba
       -0.0003519945 0.002441817 -0.010519851 -0.0009338173
000310 fb 1d 83 3a 33 86 32 3b 90 4d 37 39 b7 36 0c 3b
       0.0010003442 0.0027240633 0.00017481134 0.0021394917
000320 24 92 25 3c bd c3 a9 3b 52 80 dd 3b b7 a6 92 bb
       0.010105643 0.0051808045 0.0067596817 -0.0044754404
000330 00 f5 4e bb 3e e8 87 bb f5 65 20 bc c5 1c bd ba
       -0.0031579137 -0.0041475585 -0.009789933 -0.001442813
000340 15 57 a4 3b 10 d4 25 3b ca cb 1b 3c 45 06 2d bb
       0.005015264 0.00253034 0.009509036 -0.0026401442
000350 2b 3b 2b 3b a4 5f bd bb 08 51 46 3c 33 3f d8 bb
       0.0026127796 -0.0057792235 0.01210428 -0.006599331
000360 d1 d6 ae 3b 08 94 b6 3b 0a 58 45 bc 79 94 91 3a
       0.0053356667 0.005571846 -0.012044916 0.001110687
000370 90 5b 95 bb b4 e9 b9 bb 7d ee f8 bb 27 31 28 bc
       -0.0045580342 -0.0056736115 -0.0075967894 -0.010265625
000380 5f 82 6e bb 9e fc 00 80 9e e3 00 80 b0 05 01 80
       -0.0036393625 -9.0622e-41 -8.1654e-41 -9.3876e-41
000390 19 af 00 00 b7 1e 00 00 c7 11 01 80 86 d0 00 80
       6.2813e-41 1.1018e-41 -9.8213e-41 -7.4804e-41
0003a0 df ef 00 00 91 9e 00 00 13 e8 4c 3b 76 21 23 3c
       8.605e-41 5.6883e-41 0.0031266257 0.009956708
0003b0 cf 79 3c 3c 16 b2 0b 3b 21 86 03 3c 95 e2 14 3c
       0.011503651 0.0021315864 0.008027584 0.0090872245
0003c0 7f ca d4 ba c0 88 68 3b e7 af ab 3b 12 ed 5f bc
       -0.0016234665 0.00354819 0.005239475 -0.013667362
0003d0 8f d0 28 bc 3f e8 9c bb a2 6a 08 bc 1b cd d6 3a
       -0.0103036305 -0.004788428 -0.0083262045 0.001638803
0003e0 31 16 0f 3d 06 23 19 3c a8 4c 46 bc e9 1b 1c 3b
       0.034933273 0.009346729 -0.012103237 0.0023820347
0003f0 5c 29 00 80 a2 3c 00 80 5b 39 00 80 19 66 00 80
       -1.4837e-41 -2.1751e-41 -2.0575e-41 -3.6626e-41

e_conv5.bias f4 [32]
000000 ba e1 ae 3c 3c 40 21 94 f9 7c 8e ba b5 7c 2a 3d
       0.02134787 -8.141091e-27 -0.0010870985 0.041622836
000010 f3 94 82 b6 04 f5 de 3b 6a fe 6b 3d 7b 62 eb 3c
       -3.891642e-06 0.0068041105 0.057615675 0.028733483
000020 0f 4b a2 3c 29 65 f7 ba 41 53 2b 3d ba e8 ed 3c
       0.019811181 -0.0018874753 0.041827444 0.029041637
000030 32 b3 96 b7 b3 f6 65 39 6e b4 da 3c c0 4d 07 3d
       -1.7964838e-05 0.00021931044 0.026697364 0.033033133
000040 ea a5 b3 3b 07 c6 8d 3b 78 50 44 b9 a7 1e 0c 3c
       0.005482425 0.004326585 -0.00018721994 0.00855223
000050 2a bf da 3c a0 d3 f8 3c 98 5f 2d 3c a9 26 38 9a
       0.026702482 0.030374348 0.010581873 -3.8081538e-23
000060 e3 2d ae 3c 2c a8 11 9b ca 8f d5 3c c1 17 28 3c
       0.021262115 -1.2048458e-22 0.02606954 0.01025957
000070 81 17 42 3d fc a8 f9 9b 1f c4 15 bb f4 2e ce 9e
       0.047385696 -4.1302798e-22 -0.0022852493 -2.1830518e-20

e_conv7.weight f4 [8, 64, 3, 3]
000000 47 15 93 ba 6b 45 e3 ba ca 17 b1 bb 36 34 d8 3b
       -0.0011221551 -0.0017339414 -0.005404447 0.006598021
000010 dd e5 c8 3b 25 ea 46 3b 42 88 12 3c c3 95 0c 3c
       0.0061309175 0.0030351963 0.008943619 0.008580628
000020 8e 1e aa 3b 21 a7 fe 3a 3a 09 55 3a ae b0 76 3b
       0.0051916307 0.001942847 0.000812668 0.003764193
000030 8f 89 0e 3b 95 73 9e 3a 13 c0 b0 3b dc de 10 3c
       0.0021749472 0.001208889 0.005393991 0.008842196
000040 96 ec 28 3c 66 49 6d 3c 6c d1 00 00 7f b2 00 00
       0.010310313 0.014482832 7.5126e-41 6.4032e-41
000050 c7 ee 00 80 34 7d 00 80 cb 76 00 00 fc 35 01 00
       -8.5657e-41 -4.4914e-41 4.2615e-41 1.11201e-40
000060 fa fa 01 00 31 4d 00 80 9d 48 00 00 34 c3 00 80
       1.81869e-40 -2.7691e-41 2.6049e-41 -7.0026e-41
000070 2a 86 01 00 90 2a 00 80 34 20 01 80 74 32 01 00
       1.39964e-40 -1.5269e-41 -1.03388e-40 1.09935e-40
000080 92 70 01 00 c0 10 00 00 8b f5 00 80 1f 5b 01 80
       1.32218e-40 6.009e-42 -8.8084e-41 -1.24524e-40
000090 59 49 55 ba 35 23 81 bb 7b 51 b6 bb 19 35 9e 3b
       -0.0008136235 -0.0039409646 -0.0055639124 0.004828107
0000a0 bd e0 9a 3a 9d 96 94 ba 20 7d a8 3b b6 08 9b 3a
       0.0011816245 -0.001133639 0.005141869 0.0011828158
0000b0 18 04 c3 ba 58 e1 36 bc d8 82 05 bc f0 e2 d6 bb
       -0.0014878539 -0.011162125 -0.008148871 -0.006557815
0000c0 23 77 c0 ba 44 68 ad 3a ae 9d 17 3b 57 77 c5 3b
       -0.0014683943 0.0013229926 0.0023134756 0.0060261893
0000d0 7c 3f 14 3c 9e f5 1a 3c 4f 68 63 3b d1 42 b5 3a
       0.009048339 0.009457974 0.0034699624 0.0013829117
0000e0 cc 48 89 3b f7 4e 8d 3b 60 81 23 3b 29 b7 c4 3b
       0.0041895863 0.004312392 0.002494894 0.0060032797
0000f0 2f 39 cc 3b 1c 6f ab 3b 89 2f 07 3c 42 99 51 bc
       0.0062324028 0.005231751 0.008251079 -0.012792887
000100 93 89 da bc 6e cb 18 bd 23 2a 14 3c 6d 26 ce bb
       -0.026676929 -0.03730338 0.009043249 -0.006291202
000110 05 a5 9e bc aa 4d a4 3c 52 66 f5 ba 88 12 7e bc
       -0.019365797 0.020056564 -0.001872251 -0.015507348
000120 bb fb 2d a5 51 9c 2b a5 42 2d 20 a5 c8 f3 2c a5
       -1.5090648e-16 -1.4884848e-16 -1.3893122e-16 -1.5001218e-16
000130 f3 9e 0d a5 48 28 ec a4 60 e3 51 a5 4f 91 35 a5
       -1.2283655e-16 -1.02416924e-16 -1.8204898e-16 -1.574848e-16
000140 d1 11 07 a5 4e 5e 3e 9e 4b d9 c9 1e 71 47 a7 9e
       -1.171542e-16 -1.0078018e-20 2.1371573e-20 -1.771136e-20
000150 5c 38 b8 1c f6 fd 00 1e 9d e4 c5 9e fd 1b 4e 1e
       1.2190667e-21 6.8287815e-21 -2.0952739e-20 1.0911337e-20
000160 bd 1c e9 9e d5 4d 8f 1e 8c 78 12 ba fa 64 96 bb
       -2.468172e-20 1.5172905e-20 -0.0005587421 -0.004589674
000170 76 db ce ba f7 43 6e 39 f6 c5 7a bb 68 98 48 ba
       -0.0015781957 0.00022722768 -0.0038264967 -0.0007652105
000180 66 bf 9a 3a 06 1c 30 bb 99 8a 8a 39 f5 1b ed bb
       0.0011806309 -0.0026872172 0.00026424674 -0.0072359988
000190 bb df 9e bb c5 4e 01 bc 6c 0c 3f bb 26 52 c8 b8
       -0.004848448 -0.007892315 -0.002915169 -9.5520445e-05
0001a0 2d 78 8c bb ce 69 4c bb 2e 46 bc ba 40 a8 ad bb
       -0.004286787 -0.0031190994 -0.0014364177 -0.005299598
0001b0 c7 71 d9 bb e6 91 4e 3c f3 79 5f bb 91 3a d0 3b
       -0.006635878 0.012608027 -0.0034099787 0.006354638
0001c0 d9 f5 d3 3c 5f 38 1d 3c 47 ec 3e bc af 26 ee 3b
       0.025874065 0.009595959 -0.011653013 0.007267795
0001d0 82 68 0e bc 3e 75 84 bc 25 93 b0 bc 52 24 f7 bb
       -0.008691909 -0.016169187 -0.021554539 -0.0075421715
0001e0 92 70 85 bc 70 3e b7 bc 8d 2a 09 bc d1 78 94 3a
       -0.01628903 -0.02236864 -0.008371961 0.001132751
0001f0 2e 54 a3 bb 50 1c 22 3c 87 6e 24 bb dc b0 02 b8
       -0.0049844002 0.009894446 -0.0025090293 -3.115913e-05
000200 51 b1 36 ba 20 c7 4c ba 99 c0 10 3b d3 11 06 3b
       -0.0006969171 -0.00078116544 0.0022087453 0.0020457401
000210 9e 0e f7 3a 9d 22 ac 3b 42 8d 92 3b 35 f3 72 bb
       0.0018848961 0.0052531497 0.0044724056 -0.0037071232
000220 2e 2c 9a bb 9a cb 4d bb ea ba f3 39 a3 cd ee b8
       -0.0047049737 -0.0031401874 0.00046487834 -0.00011387027
000230 2f 86 93 3a 7d 2f 0c 3b 4c 3e f7 3a 09 11 66 3b
       0.00112552 0.002139061 0.001886317 0.0035105369
000240 49 19 01 00 49 2a 00 80 a4 06 00 80 74 8d 00 80
       1.00906e-40 -1.5169e-41 -2.382e-42 -5.0744e-41
000250 cd 1e 00 00 bb f8 00 00 55 ea 00 80 bb 22 00 80
       1.1049e-41 8.9228e-41 -8.4062e-41 -1.2459e-41
000260 2a 60 01 80 18 b4 16 3a 3d 55 25 3d bb 73 7a 3a
       -1.26333e-40 0.0005748882 0.040364493 0.00095539883
000270 93 ad f8 3c 8c 64 91 3d 99 db 02 3d 58 05 1c bc
       0.030356204 0.07099256 0.031947706 -0.009522758
000280 82 80 fb 3c 7d 2a fb bb 3b e4 00 80 c1 8b 00 00
       0.030700926 -0.007664977 -8.1874e-41 5.0134e-41
000290 32 45 00 00 f7 a7 00 00 c6 d5 00 80 ae 8b 01 00
       2.4823e-41 6.0254e-41 -7.6687e-41 1.41943e-40
0002a0 9e e4 00 80 3a 55 00 80 33 1d 01 00 5b 6c 10 bc
       -8.2012e-41 -3.0574e-41 1.0231e-40 -0.008814896
0002b0 62 e1 55 bb 6d 4e ec bb f5 ad db bb a3 2d cf ba
       -0.003263556 -0.0072114975 -0.006704087 -0.0015806447
0002c0 05 3b ee bb ad fb 54 bc 19 6a 19 bc ca 79 73 bc
       -0.0072702193 -0.012999457 -0.009363675 -0.01486058
0002d0 fe 9c 90 bb 3f c5 99 3b 7f e4 e0 37 fa be 5d 3b
       -0.004413246 0.004692703 2.6809283e-05 0.0033835755
0002e0 c0 db 54 3c 6e 68 05 3c 89 47 df bb b0 b5 0d 3b
       0.012991846 0.008142574 -0.0068139476 0.0021623187
0002f0 98 54 17 bb 50 60 c0 a1 dc 5c 10 22 3c f3 6a a1
       -0.0023091193 -1.303592e-18 1.9564798e-18 -7.96042e-19
000300 4f fe 03 22 10 4f 3b a1 38 41 76 20 b5 fd b5 a0
       1.788844e-18 -6.3462703e-19 2.085859e-19 -3.0830482e-19
000310 27 71 cf a1 83 5d b7 a1 94 7c 7e bb 95 f3 0b bb
       -1.4056817e-18 -1.2425315e-18 -0.0038831579 -0.0021354903
000320 67 96 ee bb 11 1b 72 3b 93 5b b2 3b bf c7 3a 39
       -0.007281113 0.0036942402 0.0054430454 0.00017812754
000330 b7 54 fa 3a d3 9a 85 3b ab 0e 9d ba 9b a4 01 80
       0.0019098733 0.0040772944 -0.0011982521 -1.50885e-40
000340 06 d7 00 80 9e 6a 00 00 42 0e 01 80 56 0b 00 00
       -7.7136e-41 3.8247e-41 -9.695e-41 4.067e-42
000350 16 05 01 00 4f 1b 01 00 8b a5 00 80 94 05 01 00
       9.366e-41 1.01632e-40 -5.9386e-41 9.3837e-41
000360 ee ee 00 80 f4 a7 00 00 ec 97 00 80 39 e4 00 80
       -8.5712e-41 6.025e-41 -5.45e-41 -8.1871e-41
000370 42 8e 01 80 f7 44 00 00 a7 8e 00 00 4d b5 01 00
       -1.42868e-40 2.474e-41 5.1174e-41 1.56874e-40
000380 8b 72 00 00 4d 6c a6 3b 41 89 e6 3b cb 55 3e 3a
       4.109e-41 0.0050788284 0.007035405 0.0007260709
000390 8d 4d 8b 39 91 bf 27 3b ba a4 1c bb ee b1 8e ba
       0.00026569926 0.002559636 -0.0023901896 -0.0010886767
0003a0 0f b0 b4 3a b9 a9 54 bb 52 66 be 3b f0 d1 1c 3b
       0.001378538 -0.0032449795 0.0058105374 0.0023928843
0003b0 6e 05 3c 3d 22 90 26 bd 1a 37 33 bd 7f f1 9d bb
       0.045903616 -0.0406648 -0.04375372 -0.0048200483
0003c0 1a b3 09 bd 76 d4 0b bd 18 cc ab 3b 93 d0 35 3b
       -0.03361807 -0.034138165 0.0052428357 0.0027742728
0003d0 1f c0 a1 39 aa 0c bf b9 36 dc 03 3c 13 4b cc 3b
       0.00030851454 -0.00036439794 0.008048108 0.0062345355
0003e0 c4 29 e8 3b b1 c9 04 3c f7 14 e4 3b 50 ff 05 3c
       0.007085057 0.008104728 0.006960507 0.008178547
0003f0 8d 64 ba bc d6 bb ba 3c a7 81 af bc 8d 1e a2 3c
       -0.022753024 0.022794645 -0.021424128 0.019789958

e_conv7.bias f4 [8]
000000 21 ac bd 3c 17 67 56 3c dd a4 63 3d 59 37 23 3d
       0.023153367 0.013086102 0.055577148 0.039847706
000010 0c f7 af 3c 7d b9 f1 3c b7 d0 96 3c aa f6 13 3c
       0.021480106 0.029507393 0.01841007 0.009030977
