snapshots/Epoch93.pth (torch, 304045 bytes, 14 tensors)

e_conv1.weight f4 [32, 3, 3, 3]
0	0x8000e5cf	-8.244e-41
1	0x80000620	-2.197e-42
2	0x00004366	2.4178e-41
3	0x0000036c	1.228e-42
4	0x8000d933	-7.7916e-41
5	0x00004847	2.5928e-41
6	0x0000da26	7.8257e-41
7	0x00009f8c	5.7235e-41
8	0x000064a8	3.6109e-41
9	0x00011077	9.7742e-41
10	0x0000d53f	7.6498e-41
11	0x8000fbf3	-9.0382e-41
12	0x000024db	1.3221e-41
13	0x80021187	-1.89959e-40
14	0x00005995	3.2136e-41
15	0x8001b8c9	-1.58124e-40
16	0x8000d292	-7.5538e-41
17	0x000003ae	1.32e-42
18	0x80000d19	-4.699e-42
19	0x8000b541	-6.5022e-41
20	0x0000b7c8	6.5928e-41
21	0x8000b169	-6.3643e-41
22	0x0001efc2	1.77844e-40
23	0x00001032	5.81e-42
24	0x80000617	-2.185e-42
25	0x8001319c	-1.09632e-40
26	0x0000f9bf	8.9592e-41
27	0x3ab88de1	0.0014080369
28	0x3b68f768	0.0035547856
29	0xbc0b7d0d	-0.008513701
30	0x3c7e409c	0.015518334
31	0x3c4fdc35	0.012686779
32	0x3c8ff8bb	0.017574659
33	0x3d14aaf0	0.03629583
34	0x3cd0fb63	0.025510496
35	0x3d1fc8b6	0.039009772
36	0x3c053348	0.008129902
37	0xbbcfe17a	-0.0063440176
38	0x3cd74a75	0.026280621
39	0x3bc53ee0	0.006019458
40	0x3c534a72	0.012896167
41	0x3c94363e	0.018092271
42	0x3d190658	0.037359565
43	0x3d18ad85	0.037274856
44	0x3d02d58e	0.031941943
45	0xbc32fbc0	-0.01092428
46	0xbc3ae3a9	-0.0114068175
47	0xbce3ca31	-0.027806373
48	0xbbfba736	-0.007679845
49	0xbc47bd99	-0.0121912
50	0xbc9750f7	-0.018471224
51	0xbbda9f9e	-0.00667186
52	0xbbf18960	-0.0073711127
53	0x3c9f6b41	0.019460322
54	0xbc77ebdc	-0.015131917
55	0xbd27eda8	-0.04099813
56	0xbca78745	-0.020450244
57	0xbbd6e34c	-0.0065578576
58	0xbcecd8a6	-0.0289119
59	0xbcc96946	-0.024586331
60	0x39179247	0.00014454975
61	0xbc56badf	-0.013106077
62	0xbc6e25a8	-0.014535345
63	0xbadbdbf0	-0.001677392
64	0x3c045b7b	0.008078451
65	0x3b91f1d3	0.0044538765
66	0x397ed71a	0.00024303459
67	0x3bd9b427	0.0066437903
68	0x3b6059d9	0.003423324
69	0x3d2a5920	0.041588902
70	0x3ca82fc2	0.020530585
71	0xbc79cfb5	-0.015247275
72	0x3d0b2398	0.03396949
73	0x3d191bfb	0.0373802
74	0x3d09097e	0.033456318
75	0x3d341ee9	0.04397479
76	0x3d0834de	0.033253543
77	0x3d2a1200	0.041521072
78	0x3d3afed6	0.045653187
79	0x3cd636a5	0.026149103
80	0x3cd55957	0.026043577
81	0xbbdd0792	-0.006745287
82	0x3c14db18	0.009085439
83	0x3c091957	0.008367858
84	0xbcd28e65	-0.025702665
85	0xbc03672b	-0.008020203
86	0x3befb229	0.0073149395
87	0xbcc959d3	-0.024578964
88	0xbc508952	-0.012728052
89	0x3cdff437	0.02733813
90	0xbce87ddc	-0.028380327
91	0x3baa34a5	0.005194264
92	0x3c3b3839	0.011426979
93	0xbc8a0695	-0.016848842
94	0xbbae5d71	-0.0053211977
95	0x3c13ddbe	0.009025035
96	0xbd11dba2	-0.03560985
97	0x3bab7cde	0.005233391
98	0x3cd2de8b	0.025740882
99	0xbbbba5c1	-0.0057265465
100	0x3b29c895	0.002590691
101	0xbb3cc944	-0.0028806487
102	0xbc24cb20	-0.010058194
103	0x3c27fddd	0.010253397
104	0x3b1ad051	0.0023622701
105	0xbcd1ea1a	-0.025624324
106	0x3b6d05a9	0.0036166704
107	0x3cdf4b20	0.027257502
108	0x3cb9d9f3	0.022686934
109	0x3cb2ba03	0.021817213
110	0x3d804fe9	0.06265242
111	0x3c58a63b	0.013223226
112	0x3bdcaa62	0.0067341784
113	0x3d244aab	0.04011027
114	0xbb012dfb	-0.0019711244
115	0xbbc12d76	-0.005895312
116	0x3cd42750	0.025897652
117	0x3cc5f3bd	0.024164075
118	0x3cc72831	0.024311157
119	0x3d6e5f54	0.05819638
120	0x3b6a5cfe	0.0035760994
121	0xbb81437c	-0.0039448123
122	0x3ca1e65e	0.019763168
123	0xbb90e72a	-0.004422088
124	0x3c1d95e5	0.009618257
125	0x3d0a9b4a	0.0338395
126	0x3c4f55f8	0.012654774
127	0x3bc9c779	0.006157812
128	0x3d212184	0.039338604
129	0xbca0ccb1	-0.019628854
130	0xbc841485	-0.016123066
131	0x3c18fd55	0.009337743
132	0xbd01e384	-0.031711116
133	0xbc69ad6e	-0.01426254
134	0x3bdf3934	0.006812239
135	0x80019477	-1.45095e-40
136	0x000119c9	1.01085e-40
137	0x0000aaf8	6.1332e-41
138	0x000135e1	1.11164e-40
139	0x0000e200	8.1074e-41
140	0x800129ce	-1.06832e-40
141	0x800192a9	-1.44447e-40
142	0x800160c4	-1.26548e-40
143	0x0000651e	3.6274e-41
144	0x00005bd0	3.2936e-41
145	0x0000d92b	7.7905e-41
146	0x80001d0a	-1.0417e-41
147	0x80008d39	-5.0661e-41
148	0x800118bc	-1.00709e-40
149	0x8000c87f	-7.1924e-41
150	0x0000cd22	7.3588e-41
151	0x0000fb17	9.0074e-41
152	0x0000c5c2	7.0942e-41
153	0x80001de5	-1.0724e-41
154	0x8000d1b1	-7.5223e-41
155	0x80018118	-1.38146e-40
156	0x8000280b	-1.4365e-41
157	0x00010a21	9.5469e-41
158	0x0000301e	1.7261e-41
159	0x80000ccd	-4.592e-42
160	0x0000a7e7	6.0232e-41
161	0x80012491	-1.04953e-40
162	0x3d4f0baa	0.050548233
163	0x3c7aecb9	0.015315228
164	0xbcb2ce60	-0.021826923
165	0x3d070510	0.032963812
166	0x3c47acb3	0.012187171
167	0xbd14bc71	-0.036312524
168	0x3d0b2258	0.0339683
169	0x39beb54e	0.00036374707
170	0xbd08408b	-0.033264678
171	0x3d54d82b	0.051963966
172	0x3cf1eebc	0.029532783
173	0xbd0f730d	-0.03502183
174	0x3d018c0b	0.031627696
175	0x3c4abc44	0.012373988
176	0xbc8fbcae	-0.017546024
177	0x3cc0efc9	0.023551838
178	0xbcd6bb87	-0.026212467
179	0xbd6e8a69	-0.058237467
180	0x3cb174f0	0.021662205
181	0xbb7dea78	-0.003874449
182	0xbcca44cf	-0.024691014
183	0x3c53cd5e	0.012927381
184	0x3bb1480b	0.0054101995
185	0xbc9a0aea	-0.018804032
186	0x3d001d02	0.031277664
187	0xbc889e78	-0.016677126
188	0xbd61dcc8	-0.055142194
189	0x00004c03	2.7268e-41
190	0x00003d46	2.1981e-41
191	0x0000017d	5.34e-43
192	0x8000883a	-4.8869e-41
193	0x8000a311	-5.8497e-41
194	0x00000850	2.982e-42
195	0x8001b2b8	-1.55948e-40
196	0x00005aa3	3.2514e-41
197	0x80000edf	-5.335e-42
198	0x8000b2eb	-6.4184e-41
199	0x0000f62f	8.8314e-41
200	0x00002600	1.3632e-41
201	0x8000e0f1	-8.0694e-41
202	0x000080e1	4.6233e-41
203	0x00001f82	1.1303e-41
204	0x0000dcd8	7.9224e-41
205	0x80006de5	-3.9423e-41
206	0x800111cb	-9.8218e-41
207	0x8000721c	-4.0935e-41
208	0x80007745	-4.2786e-41
209	0x000000f1	3.38e-43
210	0x80008477	-4.752e-41
211	0x00002145	1.1935e-41
212	0x80003806	-2.0097e-41
213	0x0000a4fe	5.9188e-41
214	0x80001ee2	-1.1079e-41
215	0x0000c42e	7.0376e-41
216	0x8001173a	-1.00168e-40
217	0x0000b4ff	6.4929e-41
218	0x8000399a	-2.0664e-41
219	0x00000a6b	3.737e-42
220	0x00009a07	5.5255e-41
221	0x80008755	-4.8548e-41
222	0x0000c3af	7.0198e-41
223	0x00003c41	2.1615e-41
224	0x0000050d	1.812e-42
225	0x0000e2a0	8.1298e-41
226	0x800007b1	-2.759e-42
227	0x0001070a	9.436e-41
228	0x00001d9b	1.062e-41
229	0x00001662	8.03e-42
230	0x8000a616	-5.958e-41
231	0x00010f75	9.738e-41
232	0x8000963e	-5.3897e-41
233	0x00006dd7	3.9403e-41
234	0x80001185	-6.285e-42
235	0x0000fae5	9.0004e-41
236	0x80010e22	-9.6905e-41
237	0x80001343	-6.91e-42
238	0x0000cecf	7.4189e-41
239	0x0000048f	1.635e-42
240	0x00003f0a	2.2614e-41
241	0x00004161	2.3454e-41
242	0x00001b72	9.846e-42
243	0xbd619d49	-0.05508164
244	0xbce5cfbf	-0.028053163
245	0xbd5e92ec	-0.054339334
246	0xbcfdca1f	-0.030980168
247	0xbc90e3a8	-0.01768668
248	0xbc96cd1d	-0.018408353
249	0xbc59f9e7	-0.01330421
250	0x3c65be84	0.014022473
251	0x3c065f4f	0.008201434
252	0xbd50bbc9	-0.050960336
253	0xbc54e7e5	-0.012994741
254	0xbd14e834	-0.03635426
255	0xbca99e31	-0.020705314

e_conv1.bias f4 [32]
0	0xab4287a8	-6.9110906e-13
1	0x3d827509	0.06369979
2	0x3c9fc174	0.019501425
3	0x3df0919c	0.11746523
4	0x3d73ccb6	0.0595214
5	0xa5f13fd4	-4.1850087e-16
6	0x3d87c9c5	0.06630281
7	0xb1781213	-3.6099024e-09
8	0xb0aea03a	-1.2705705e-09
9	0x3d9d68df	0.07686018
10	0xaf55e60e	-1.9453969e-10
11	0xa467ed29	-5.0291023e-17
12	0xbc4e7c52	-0.012602882
13	0x3d75fe29	0.06005684
14	0xac43b850	-2.781348e-12
15	0x3e1b8e57	0.15191017
16	0x3dfb1e1d	0.12261603
17	0x3dc3e49a	0.09565087
18	0x3e391717	0.18075214
19	0x3e21605b	0.15759413
20	0xa0ada2a4	-2.9414967e-19
21	0x3e1a561b	0.15071909
22	0xbc81cdf8	-0.015845284
23	0x3df035ae	0.117289886
24	0xade041ba	-2.549504e-11
25	0x998964b5	-1.4206143e-23
26	0x3d032f22	0.03202737
27	0xa173c8f0	-8.259754e-19
28	0xb6d19c1e	-6.24686e-06
29	0xbc0e2de9	-0.008677938
30	0x3de4197b	0.111376725
31	0xa95c4cd8	-4.8916464e-14

e_conv2.weight f4 [32, 32, 3, 3]
0	0x0000c179	6.9405e-41
1	0x8000b996	-6.6576e-41
2	0x0000c694	7.1236e-41
3	0x0000aa48	6.1085e-41
4	0x000178b4	1.35136e-40
5	0x00007304	4.126e-41
6	0x8000fdec	-9.109e-41
7	0x80002202	-1.22e-41
8	0x0000d864	7.7626e-41
9	0x3bf658a1	0.0075178896
10	0xbc873f47	-0.016509665
11	0x3b423ce1	0.0029638337
12	0xbb718a8c	-0.0036856262
13	0xba7dadff	-0.00096771115
14	0xbbcb96c0	-0.006213039
15	0x3c2f3a88	0.010695107
16	0x3cc1a6b7	0.023639066
17	0x3a620c9f	0.00086230965
18	0xbc04bbe9	-0.008101442
19	0xbc1f7e59	-0.0097347135
20	0xbbd5e43a	-0.006527451
21	0x3b5a0572	0.0033267406
22	0xbb95f7b4	-0.0045766477
23	0xbb82c7e2	-0.003991113
24	0x3b9ca184	0.0047799964
25	0x3af23508	0.0018478939
26	0x3ba43f16	0.0050124032
27	0xbcb6ff54	-0.022338547
28	0x3c898077	0.01678489
29	0x3d031351	0.032000843
30	0xbc4f04c6	-0.012635415
31	0xbba9990e	-0.0051757162
32	0xbb85e9dc	-0.004086716
33	0xbd018fed	-0.0316314
34	0x3b919228	0.004442472
35	0x3c7e859e	0.0155347865
36	0x38a47df7	7.843592e-05
37	0xbb055e21	-0.0020350295
38	0xb9945d62	-0.00028298335
39	0x3c1b76f3	0.009488809
40	0xbc49a7de	-0.012308089
41	0x3bc21037	0.005922343
42	0x3c36484d	0.011125636
43	0xbc720e63	-0.014773938
44	0xbc076e0a	-0.008265981
45	0x8000c983	-7.2289e-41
46	0x80008c49	-5.0325e-41
47	0x8000497d	-2.6363e-41
48	0x800088cc	-4.9073e-41
49	0x0000e20e	8.1093e-41
50	0x000022c9	1.2479e-41
51	0x0000b0eb	6.3466e-41
52	0x000167e0	1.29099e-40
53	0x8000b96e	-6.652e-41
54	0x3a81ad67	0.0009893597
55	0x3bdab9e7	0.0066749933
56	0xbb5d8941	-0.0033803734
57	0xbb6b8bd0	-0.003594149
58	0x3b81e80a	0.003964429
59	0x3bb36876	0.005475099
60	0x3baf0099	0.0053406474
61	0x3bc4c744	0.0060051996
62	0x3c5639ca	0.013075301
63	0x0001b951	1.58314e-40
64	0x80007b74	-4.4287e-41
65	0x800105db	-9.3936e-41
66	0x0000d775	7.7291e-41
67	0x80004ede	-2.8292e-41
68	0x00008c22	5.027e-41
69	0x0000991d	5.4927e-41
70	0x8000da16	-7.8234e-41
71	0x800221df	-1.95822e-40
72	0x000098f1	5.4865e-41
73	0x8000a7da	-6.0214e-41
74	0x00001cd8	1.0347e-41
75	0x800005cd	-2.081e-42
76	0x8000854b	-4.7817e-41
77	0x00011c54	1.01998e-40
78	0x8000836f	-4.715e-41
79	0x000104e1	9.3586e-41
80	0x0000226b	1.2347e-41
81	0x3c1a70c8	0.009426303
82	0x3a87270c	0.001031132
83	0x3c0ed9b6	0.0087188985
84	0xbb2e6b64	-0.0026614303
85	0x3b7ff7b7	0.0039057562
86	0x3bd15232	0.0063879723
87	0x3aaed9d3	0.0013340063
88	0x3a09d4b0	0.0005257828
89	0xbaa00cf6	-0.0012210894
90	0x00006d56	3.9222e-41
91	0x0000bcdd	6.7751e-41
92	0x00009ff0	5.7375e-41
93	0x8000d874	-7.7649e-41
94	0x80014438	-1.16308e-40
95	0x80002f6a	-1.7009e-41
96	0x8000c32f	-7.0019e-41
97	0x000065f3	3.6572e-41
98	0x8000bd7a	-6.7971e-41
99	0x80009fe6	-5.7361e-41
100	0x0000daa2	7.843e-41
101	0x0000f15c	8.6583e-41
102	0x8000e56d	-8.2302e-41
103	0x800076a2	-4.2557e-41
104	0x8000035d	-1.207e-42
105	0x80010015	-9.1865e-41
106	0x800096dd	-5.412e-41
107	0x00003de7	2.2206e-41
108	0xbb6b7a0e	-0.0035930905
109	0xbb5fe449	-0.0034163168
110	0xbb274269	-0.0025521761
111	0x3a6326c6	0.00086651405
112	0x3a066ae9	0.0005127625
113	0x3a526130	0.00080253463
114	0x3ae52144	0.0017481227
115	0x3a9e6787	0.0012085297
116	0x3a5e7466	0.00084859726
117	0x3b054bfb	0.0020339477
118	0x3c2894d1	0.010289387
119	0x3b746324	0.0037290538
120	0x3b97f315	0.004637132
121	0x3b2391a3	0.0024958632
122	0x3b753425	0.0037415114
123	0xbb27c917	-0.0025602037
124	0x3bd61b2e	0.006534002
125	0x3ab72011	0.0013971349
126	0x00009eda	5.6985e-41
127	0x00004c01	2.7265e-41
128	0x8000aafd	-6.1339e-41
129	0x000057b0	3.1456e-41
130	0x0000c7d1	7.168e-41
131	0x00012598	1.05322e-40
132	0x00007d21	4.4888e-41
133	0x0000697a	3.7838e-41
134	0x8000ad64	-6.2201e-41
135	0x3bc11c41	0.0058932607
136	0x3c3a9bf2	0.011389719
137	0x3b8eb024	0.0043544937
138	0x3c67375c	0.01411232
139	0x3c7c6be7	0.015406585
140	0x3c55d55a	0.013051355
141	0xbb08584b	-0.002080458
142	0xbc846858	-0.016163036
143	0xbbc36f60	-0.0059642047
144	0xbc4f4083	-0.012649658
145	0xbc7eb642	-0.015546383
146	0xbbbd121f	-0.0057699825
147	0xbc895b54	-0.016767181
148	0x3c59b048	0.013286658
149	0x3c77238e	0.0150841605
150	0xbcd230a9	-0.025657969
151	0x3a9717f4	0.0011527524
152	0x39dcaeae	0.00042091816
153	0x3c6d9db3	0.01450293
154	0xb96a2649	-0.00022330241
155	0x3afc8634	0.001926607
156	0xbb807592	-0.0039202655
157	0x3c08287c	0.0083104335
158	0x3bb39070	0.005479865
159	0x3b96e8e1	0.004605398
160	0x3c44b797	0.012006662
161	0x3c6f6954	0.0146125145
162	0x3a27ab24	0.00063960464
163	0xbca3caab	-0.0199941
164	0xbc644711	-0.013932959
165	0xbad56595	-0.0016280884
166	0x3a63ab65	0.00086849026
167	0x3c879aef	0.01655337
168	0xbd01cf68	-0.03169194
169	0x3c6df1ad	0.014522952
170	0x3cfd744c	0.030939244
171	0x3c92d9e5	0.017926166
172	0x3c8c0f53	0.01709715
173	0xbad432cc	-0.0016189455
174	0x3bf04110	0.007331975
175	0x3c1af6d4	0.0094582625
176	0xb9c864e7	-0.0003822215
177	0xbc1aaf79	-0.00944125
178	0xbbd5686d	-0.0065126927
179	0x3cca4940	0.024693131
180	0x8000adec	-6.2391e-41
181	0x8001327c	-1.09946e-40
182	0x8000f627	-8.8303e-41
183	0x0000972a	5.4227e-41
184	0x0000b781	6.5829e-41
185	0x8000ca11	-7.2488e-41
186	0x800050e1	-2.9014e-41
187	0x000048e2	2.6145e-41
188	0x800156ea	-1.23014e-40
189	0xbc9215e8	-0.017832711
190	0x3c4028b1	0.011728452
191	0x3c85e9a8	0.016346768
192	0xbc830761	-0.01599473
193	0x3d2f093a	0.04273341
194	0x3cec7e6a	0.028868873
195	0x3c299d58	0.010352455
196	0x3cd3b9e3	0.025845474
197	0x3c833d05	0.016020307
198	0x3b32e8b9	0.0027299358
199	0x3b632e9d	0.0034665235
200	0xbb9cb956	-0.004782836
201	0xbb3614b6	-0.002778334
202	0x35c2bc9b	1.4509018e-06
203	0xbb45a4cf	-0.0030158048
204	0xbc10e62e	-0.008843942
205	0x3b6b1103	0.0035868294
206	0xbbff3d94	-0.007789323
207	0x3c79eade	0.015253751
208	0x3c3928d1	0.011301235
209	0x3c9c7657	0.019099398
210	0x3c249aa8	0.010046639
211	0x3c9256ed	0.017863715
212	0x3ba82a56	0.005132
213	0xbd02b8a5	-0.031914372
214	0x3ca9c093	0.02072171
215	0xbb213988	-0.0024600942
216	0x0000712e	4.0601e-41
217	0x00000aa3	3.816e-42
218	0x00004d5a	2.7749e-41
219	0x00008138	4.6355e-41
220	0x000092d3	5.267e-41
221	0x0000ad63	6.22e-41
222	0x8000c121	-6.9282e-41
223	0x8000d33f	-7.5781e-41
224	0x00005d47	3.3462e-41
225	0x800062b1	-3.5404e-41
226	0x00003e46	2.234e-41
227	0x00004281	2.3857e-41
228	0x8000d7f0	-7.7464e-41
229	0x80001309	-6.829e-42
230	0x0001c2ad	1.61672e-40
231	0x00010a48	9.5524e-41
232	0x00015884	1.23589e-40
233	0x8000cedf	-7.4211e-41
234	0x3b6d8b0d	0.003624621
235	0x3b0478b3	0.0020213544
236	0x3b9992a5	0.004686671
237	0xbb579e83	-0.0032900877
238	0xbb7ac313	-0.0038263246
239	0xbc4dd51b	-0.012563015
240	0x3c5a04d7	0.013306818
241	0xbbf2243f	-0.007389575
242	0xbc8ff3e6	-0.017572355
243	0x80002a3b	-1.515e-41
244	0x8000f9de	-8.9635e-41
245	0x00012ace	1.07191e-40
246	0x0000d833	7.7558e-41
247	0x800054b5	-3.0387e-41
248	0x0000d823	7.7535e-41
249	0x8000f9cd	-8.9612e-41
250	0x8000be83	-6.8343e-41
251	0x0000bd6c	6.7952e-41
252	0x2aafdd85	3.1239955e-13
253	0xaa6c0a05	-2.0964487e-13
254	0x2bba4382	1.3234832e-12
255	0xab748899	-8.687578e-13

e_conv2.bias f4 [32]
0	0xbd0857a8	-0.03328672
1	0xb9d141e7	-0.00039912687
2	0x3d1cc7d8	0.038276523
3	0x9cdcd20f	-1.4612678e-21
4	0x3d1d07bc	0.038337454
5	0x3d053250	0.032518685
6	0x3ab75ce2	0.0013989473
7	0x3d2ee8f4	0.04270263
8	0x3d5eb46d	0.054371286
9	0x3d100c44	0.035167947
10	0xbcd77732	-0.026301954
11	0xb93d40f2	-0.00018048639
12	0xb1b9c381	-5.406435e-09
13	0xbc06478d	-0.00819577
14	0x3c1fb861	0.009748549
15	0xae8b755e	-6.341837e-11
16	0x3d01dfcd	0.031707574
17	0x3c3421c3	0.010994378
18	0xba1cf57a	-0.00059875066
19	0xbc430b91	-0.011904613
20	0xb5ab629a	-1.276919e-06
21	0x3c7a7046	0.015285557
22	0xbab92fb7	-0.00141286
23	0x3d196cf4	0.03745742
24	0xb058147f	-7.860947e-10
25	0x3d585e36	0.05282422
26	0x3d3e3719	0.046439264
27	0xb95dfb72	-0.00021169873
28	0xb40f8ee2	-1.3369893e-07
29	0x382d0ec3	4.1260162e-05
30	0xbaabf1c8	-0.0013118321
31	0x3d4d89c4	0.05018021

e_conv3.weight f4 [32, 64, 3, 3]
0	0x00007b0c	4.4141e-41
1	0x80009235	-5.2449e-41
2	0x0000aa2a	6.1043e-41
3	0x80004dcb	-2.7907e-41
4	0x8000c2f6	-6.9939e-41
5	0x0001797a	1.35413e-40
6	0x80001d59	-1.0528e-41
7	0x0000d5cf	7.67e-41
8	0x8000c960	-7.224e-41
9	0xb5478d01	-7.4338465e-07
10	0x3c554088	0.013015874
11	0x3c9a887e	0.018863913
12	0xbc068b0f	-0.008211865
13	0x3b9493e2	0.0045342306
14	0x3c124747	0.008928127
15	0xbcdbc812	-0.0268288
16	0xbbef910b	-0.0073109916
17	0xbc087446	-0.008328503
18	0xbbbcb351	-0.005758681
19	0x3bc156f0	0.0059002563
20	0x3bd6579d	0.006541206
21	0xbbcd30b4	-0.0062619094
22	0x3b98ad6f	0.004659347
23	0x3b8d9dce	0.0043217903
24	0xbc5102ea	-0.012757042
25	0xbb9e56ad	-0.00483211
26	0xbbb2cd94	-0.0054566357
27	0x3bdd5bd2	0.0067553306
28	0x3bf9fee6	0.007629263
29	0x3c1f18fb	0.009710546
30	0x3ab11cd2	0.0013512617
31	0x3b6adce2	0.0035837223
32	0x3b8dfd25	0.0043331557
33	0xbbe7c42e	-0.007072947
34	0xbc36a004	-0.011146549
35	0xbc858920	-0.016300738
36	0x3a9ee11c	0.0012121531
37	0x3c89c464	0.01681728
38	0x3c827e5d	0.015929395
39	0xba549e39	-0.0008110735
40	0x3c139939	0.009008699
41	0x3bc47004	0.0059947986
42	0xbc554c6e	-0.013018711
43	0xbc0741fd	-0.008255479
44	0xbbfbea9a	-0.007687879
45	0x00012f56	1.08816e-40
46	0x0001194e	1.00913e-40
47	0x00005b86	3.2832e-41
48	0x80007c2b	-4.4543e-41
49	0x800035c7	-1.9292e-41
50	0x80000579	-1.963e-42
51	0x0001250d	1.05127e-40
52	0x00011c4c	1.01987e-40
53	0x000067bf	3.7217e-41
54	0x3a54b134	0.00081135635
55	0x3c018a96	0.007906577
56	0x3a915741	0.0011088626
57	0x3a9cad34	0.0011953474
58	0x3c5a4c7c	0.013323899
59	0x3bedea9c	0.0072606336
60	0xbb9d25c5	-0.0047957622
61	0x3b96f83a	0.0046072276
62	0xbbbd9c92	-0.005786487
63	0x800069b9	-3.7926e-41
64	0x8000aadd	-6.1294e-41
65	0x0000bdfd	6.8155e-41
66	0x80010c6f	-9.6296e-41
67	0x800046b0	-2.5358e-41
68	0x80011c4b	-1.01985e-40
69	0x80005058	-2.8822e-41
70	0x80000929	-3.286e-42
71	0x00012e44	1.08432e-40
72	0x800009e6	-3.551e-42
73	0x80015924	-1.23813e-40
74	0x0000fbe9	9.0368e-41
75	0x800086da	-4.8376e-41
76	0x0001000e	9.1855e-41
77	0x00005fef	3.4414e-41
78	0x80013ebf	-1.14345e-40
79	0x00010009	9.1848e-41
80	0x00005d56	3.3483e-41
81	0x3b042b76	0.0020167506
82	0x3b4ce022	0.0031261523
83	0xbbc960f3	-0.0061455905
84	0x3bd90b9b	0.006623698
85	0x3ba2d940	0.004969746
86	0xbb7385de	-0.0037158648
87	0xb9fedda2	-0.00048611785
88	0xbb443067	-0.0029936077
89	0xbc02e3b8	-0.007988863
90	0x0000f059	8.622e-41
91	0x80007a81	-4.3946e-41
92	0x00002582	1.3455e-41
93	0x000057db	3.1517e-41
94	0x000017cf	8.541e-42
95	0x000101fb	9.2546e-41
96	0x8001099c	-9.5283e-41
97	0x0000f6c9	8.853e-41
98	0x00007a2a	4.3824e-41
99	0x8000cdba	-7.3801e-41
100	0x80010859	-9.483e-41
101	0x800039a3	-2.0676e-41
102	0x00009710	5.4191e-41
103	0x8000a4a3	-5.906e-41
104	0x8000f451	-8.7644e-41
105	0x0000088e	3.069e-42
106	0x00019264	1.4435e-40
107	0x8000ab70	-6.15e-41
108	0xbb0c9aca	-0.0021454566
109	0xba840c36	-0.001007444
110	0xbacdcd09	-0.0015701364
111	0xba1bad1f	-0.0005938578
112	0xba0999ec	-0.00052490714
113	0xba4e4274	-0.00078681787
114	0xb740c5f8	-1.1490185e-05
115	0xb9d88101	-0.00041294846
116	0xb927c2c9	-0.00015998924
117	0xbba01a72	-0.004885965
118	0xbac9d4f3	-0.0015398547
119	0xbb67d822	-0.0035376628
120	0xbbd45439	-0.0064797667
121	0xbb28ac8a	-0.0025737607
122	0xbb80b7ae	-0.0039281463
123	0xbc4e6f01	-0.012599708
124	0xbc0fa99b	-0.008768464
125	0xbc269f51	-0.01016982
126	0x80005058	-2.8822e-41
127	0x00001740	8.34e-42
128	0x00010348	9.3013e-41
129	0x0000e71b	8.2905e-41
130	0x00007a89	4.3957e-41
131	0x0000f9d0	8.9616e-41
132	0x0000c99a	7.2321e-41
133	0x0000987c	5.4701e-41
134	0x00007671	4.2489e-41
135	0xbc8d6992	-0.017262254
136	0x3be753fb	0.007059572
137	0x3c8aa39a	0.016923714
138	0x39fceced	0.0004824171
139	0x3b2fd2a4	0.0026828432
140	0x3bd0ac7b	0.0063682175
141	0xbd28ccf4	-0.041211084
142	0xbcc0c9e0	-0.023533762
143	0xbc71ee58	-0.014766298
144	0xba196b88	-0.000585251
145	0x3c064516	0.008195182
146	0x3c921264	0.017831035
147	0xbc1fa365	-0.009743546
148	0x3c02fdd4	0.007995088
149	0xbb895a44	-0.0041916687
150	0xbcdea839	-0.027179824
151	0xbc0bc414	-0.008530635
152	0xbc07e9ae	-0.00829546
153	0x3b3af785	0.002852888
154	0x3bb453a2	0.005503134
155	0x3a08efa9	0.00052237004
156	0x3a6f0479	0.0009117793
157	0x3bde5550	0.0067850724
158	0x3afe3444	0.0019394238
159	0xbbf72678	-0.0075424276
160	0xbb28f137	-0.002577854
161	0xbc178315	-0.009247561
162	0xb90dd5aa	-0.00013526404
163	0x3c6f8720	0.014619619
164	0x3c96c9ac	0.018406712
165	0x3ae28563	0.0017282184
166	0x3a3cb5d5	0.0007198726
167	0x3ca77fb9	0.020446645
168	0xbd0b6d21	-0.03403962
169	0xbc854c4b	-0.01627173
170	0xbbd58e06	-0.0065171747
171	0x3c0a2c1a	0.008433366
172	0x3b3d135c	0.002885065
173	0x3bfa704e	0.0076427823
174	0x3af33947	0.0018556499
175	0xbac1343d	-0.00147403
176	0xbc25a614	-0.010110397
177	0xbc8a7070	-0.016899318
178	0xbc522e5c	-0.012828436
179	0xbc281152	-0.010258036
180	0x800069ea	-3.7995e-41
181	0x0000594b	3.2032e-41
182	0x0000bbbe	6.7349e-41
183	0x8000912f	-5.2082e-41
184	0x80008656	-4.819e-41
185	0x00011460	9.9145e-41
186	0x8000e14a	-8.0818e-41
187	0x80001188	-6.289e-42
188	0x00005edc	3.4029e-41
189	0xbb08b6a2	-0.002086081
190	0x3b7e8d29	0.0038841462
191	0x39b0b397	0.0003370314
192	0xbadbb4e7	-0.0016762287
193	0x3c2430e3	0.010021421
194	0x3c507348	0.012722798
195	0xbcaec77f	-0.021335362
196	0xbc9b6b06	-0.018971931
197	0xbb8acfc1	-0.004236192
198	0xbb8cdbb5	-0.004298652
199	0x3bd2c0b4	0.0064316634
200	0x3c95c9e0	0.018284738
201	0xbc7ab398	-0.015301608
202	0xbb25f539	-0.0025323166
203	0x3c0f75f0	0.008756146
204	0xbcc1f92d	-0.023678387
205	0xbc3fe486	-0.011712199
206	0xbb123ca7	-0.0022313984
207	0xbb7e4112	-0.003879611
208	0x3bd6975f	0.0065488066
209	0x3b12305b	0.0022306654
210	0x3adfef10	0.0017084796
211	0x3c15b357	0.009136996
212	0x3c131928	0.008978166
213	0xbc605211	-0.013691441
214	0xbbc6c628	-0.0060661025
215	0xbb44e0a0	-0.0030041113
216	0x80001ab2	-9.576e-42
217	0x000022af	1.2442e-41
218	0x8000feb1	-9.1366e-41
219	0x0000c916	7.2136e-41
220	0x000090c3	5.1931e-41
221	0x80013554	-1.10966e-40
222	0x00000496	1.645e-42
223	0x8000813b	-4.6359e-41
224	0x00006bf1	3.8722e-41
225	0x8001ae2e	-1.5432e-40
226	0x0000df5b	8.0125e-41
227	0x00012c1d	1.0766e-40
228	0x800058c2	-3.184e-41
229	0x0000fd46	9.0857e-41
230	0x8000a125	-5.7808e-41
231	0x000030ea	1.7547e-41
232	0x00003d5f	2.2016e-41
233	0x00005232	2.9486e-41
234	0xbbb60306	-0.0055545596
235	0x3aa54af1	0.0012610835
236	0x3c4502d0	0.012024596
237	0xbc08cc38	-0.008349471
238	0x3ca0a2a8	0.01960881
239	0x3bee3415	0.0072693923
240	0xbcb46aa2	-0.022023503
241	0xbc3b304b	-0.011425088
242	0xbc1ac2aa	-0.009445826
243	0x0000171c	8.29e-42
244	0x00009c1e	5.6004e-41
245	0x000206ef	1.86158e-40
246	0x00001f7f	1.1299e-41
247	0x0000e120	8.076e-41
248	0x0001f3ca	1.7929e-40
249	0x00009bf8	5.5951e-41
250	0x80003277	-1.8103e-41
251	0x8000101e	-5.782e-42
252	0x2ba765b9	1.1894297e-12
253	0x2c2a4dd8	2.4201665e-12
254	0x2be475a9	1.6233032e-12
255	0xac0191d8	-1.8412962e-12

e_conv3.bias f4 [32]
0	0x3d19b7f4	0.037528947
1	0x3cf86cda	0.030325342
2	0xbab8b3f0	-0.0014091711
3	0x3c25bce2	0.010115834
4	0x3d1c08ae	0.038094215
5	0x8dd7afdc	-1.3292735e-30
6	0xbc5e487b	-0.013567085
7	0xb96a680a	-0.00022354737
8	0x3d0a7d40	0.033810854
9	0x3bc31df6	0.0059544994
10	0x3d055043	0.032547247
11	0xa0a9fe8b	-2.8798156e-19
12	0xa2bacfd4	-5.0635448e-18
13	0xab2283a2	-5.773664e-13
14	0xba219f14	-0.0006165367
15	0xb9fc154e	-0.0004808106
16	0x3d9f7388	0.07785708
17	0xbc5ee1c0	-0.013603628
18	0x3d83c2f5	0.064336695
19	0xbc117b98	-0.008879565
20	0x91dc185e	-3.4724897e-28
21	0x3c92ee62	0.017935935
22	0xba526c2c	-0.0008026983
23	0xbc23bad4	-0.009993274
24	0x3c4c1834	0.012456942
25	0xadea9782	-2.6670003e-11
26	0x3bc49158	0.0059987716
27	0x3d20c56f	0.039250787
28	0xbb202828	-0.0024437997
29	0xbc9553fd	-0.018228525
30	0x3d126e06	0.035749458
31	0xbc92e85e	-0.017933067

e_conv4.weight f4 [32, 64, 3, 3]
0	0xbb53b091	-0.0032301287
1	0x3c305f4f	0.010764911
2	0xbd1350c9	-0.035965715
3	0x3b9b187f	0.004733145
4	0xbbcd8582	-0.006272019
5	0xbbeba1c3	-0.0071909144
6	0x3c59584b	0.01326568
7	0xbb659186	-0.0035029366
8	0xbc43b2ee	-0.011944516
9	0x32229d2c	9.465378e-09
10	0x321a5059	8.982249e-09
11	0x321a2950	8.973373e-09
12	0x321632e1	8.742718e-09
13	0x3224fc12	9.6033705e-09
14	0x320a5328	8.051565e-09
15	0x32191852	8.911302e-09
16	0x32094074	7.9891045e-09
17	0x320357e3	7.645187e-09
18	0x391ad521	0.00014765981
19	0x3b29482f	0.0025830378
20	0x3b10edb5	0.002211434
21	0xba892dd8	-0.0010465933
22	0x3a9e83bf	0.0012093707
23	0x39bc800c	0.00035953557
24	0xbb53d594	-0.0032323347
25	0xbaa5f515	-0.0012661541
26	0xbb5783c9	-0.0032884947
27	0x9b6472fc	-1.8896871e-22
28	0x9b7fbcb9	-2.1154085e-22
29	0x1b244fb0	1.359151e-22
30	0x99addf75	-1.7978034e-23
31	0x1b05474c	1.102454e-22
32	0x9a86c83a	-5.5744584e-23
33	0x1ae06782	9.2811454e-23
34	0x9aac069b	-7.1148204e-23
35	0x1a985cd0	6.3015673e-23
36	0xbab71998	-0.001396942
37	0xbbd741e7	-0.0065691355
38	0xbca6b1f8	-0.020348534
39	0xbb661948	-0.0035110284
40	0x3d106ccb	0.035260003
41	0xb88c6fd0	-6.696547e-05
42	0xbce1ea22	-0.027577464
43	0xbbd6c487	-0.0065541896
44	0x3ac6ea45	0.0015176019
45	0xbb073af4	-0.0020634504
46	0x39bd44bb	0.00036100097
47	0xbb954610	-0.0045554712
48	0x39d67a46	0.00040908362
49	0x3b060e52	0.0020455313
50	0xbb4ad251	-0.0030948112
51	0x3b4147e5	0.0029492315
52	0x3b9e1282	0.0048239836
53	0x39c65bb1	0.00037833818
54	0x3ad913b0	0.0016561653
55	0x3b161232	0.002289903
56	0x3aac45c0	0.0013143346
57	0xbbab26d6	-0.0052231355
58	0x3aaa01b4	0.0012970478
59	0xbaa26815	-0.0012390638
60	0xbac46852	-0.0014984703
61	0x374dc29c	1.2264263e-05
62	0xb9a0f08d	-0.00030696802
63	0xbc341b30	-0.01099281
64	0xbc670afa	-0.014101738
65	0xbcac38de	-0.02102321
66	0xbc996196	-0.01872329
67	0x3c7a56ef	0.015279516
68	0x3bff85dd	0.00779794
69	0xbc0a8427	-0.008454359
70	0x3bc5f4bc	0.0060411375
71	0xbbfaf6a2	-0.0076587955
72	0xbc7d7a53	-0.015471059
73	0x3bbe42e3	0.0058063134
74	0x3c2751ca	0.010212371
75	0xbbf03574	-0.007330591
76	0x3cc3e9a2	0.023915116
77	0xbbab4a5c	-0.00522737
78	0xbb9e9f6e	-0.004840783
79	0xbc0a33ec	-0.008435231
80	0xbc98caf7	-0.018651469
81	0xbc8228c3	-0.015888577
82	0x39e251ec	0.00043167116
83	0xbc9dc1c3	-0.019257432
84	0x3ccbf494	0.024896897
85	0xbc35435e	-0.011063425
86	0x3c599e83	0.013282421
87	0x3b7636f6	0.003756938
88	0x3b1e04a4	0.0024111653
89	0xbc2ff578	-0.010739677
90	0x3be1a882	0.006886543
91	0xbc779180	-0.0151103735
92	0xbbc19790	-0.0059079602
93	0xbc35e120	-0.011101037
94	0x3c58ee32	0.013240384
95	0x3d103c6c	0.035213873
96	0xbc0f75b5	-0.008756091
97	0x3c6098f4	0.013708342
98	0x3af527b9	0.0018703855
99	0x2aca6f28	3.5959538e-13
100	0x2ad1d6a5	3.7274798e-13
101	0x2a83e336	2.3427934e-13
102	0x2ab81d55	3.270532e-13
103	0x2b2d250a	6.151335e-13
104	0x2aa9c3e4	3.0156357e-13
105	0x2ad2b000	3.7425618e-13
106	0x2ad441fe	3.7704556e-13
107	0x2abe5d9f	3.3815743e-13
108	0xa193e70b	-1.0022264e-18
109	0xa300b516	-6.97724e-18
110	0xa1a6941a	-1.12878e-18
111	0xa1f82bd9	-1.681674e-18
112	0xa1e00e12	-1.5182555e-18
113	0xa2c0416d	-5.2110977e-18
114	0xa1f60315	-1.6670424e-18
115	0xa2888963	-3.7008338e-18
116	0xa2bff7bf	-5.2032965e-18
117	0xbc29464c	-0.0103317015
118	0x3ccc4c32	0.024938677
119	0x3c058c7c	0.00815117
120	0x3c0b9c75	0.008521189
121	0x3c7d7ab5	0.01547115
122	0xbbbe172c	-0.005801102
123	0xbd2ccacf	-0.0421856
124	0x3cc12089	0.023575084
125	0xbac31883	-0.0014884624
126	0xbaddea00	-0.0016930699
127	0xba713de9	-0.0009202646
128	0xba98dab7	-0.0011661862
129	0xba076e06	-0.0005166236
130	0xba3b3d58	-0.0007142625
131	0xbb087ee6	-0.002082759
132	0x3a478b91	0.00076120446
133	0xb9d38343	-0.00040342854
134	0xbb3811b2	-0.002808672
135	0x00004816	2.586e-41
136	0x80000c2a	-4.364e-42
137	0x0000ba7b	6.6897e-41
138	0x00002a98	1.528e-41
139	0x80008fa7	-5.1533e-41
140	0x800026cd	-1.3919e-41
141	0x8000bd31	-6.7869e-41
142	0x0000c307	6.9963e-41
143	0x000070af	4.0423e-41
144	0x3b80504d	0.0039158226
145	0xbd2d2d6f	-0.042279657
146	0xbcabc6a7	-0.020968748
147	0xbca9b3fd	-0.020715708
148	0xbcd8dcb0	-0.02647242
149	0x3c3720d4	0.01117726
150	0x3c31fcea	0.010863522
151	0x3c6eefaa	0.014583508
152	0x3cdf1d09	0.027235525
153	0x3b09f2c9	0.0021049252
154	0xbad06fda	-0.0015902475
155	0xba9712b5	-0.0011525961
156	0x3aeadfee	0.001791952
157	0xbb06542f	-0.0020496955
158	0xbae8bb41	-0.0017756001
159	0x3a45186c	0.0007518593
160	0xbb5ed62c	-0.0034002168
161	0xbb52014d	-0.0032044232
162	0xac83b01e	-3.742797e-12
163	0xac8b4b75	-3.958995e-12
164	0xac49a803	-2.8657083e-12
165	0xabd9a6f5	-1.5465117e-12
166	0xac952bbc	-4.23969e-12
167	0x2b8617f5	9.527922e-13
168	0xac3ae8a8	-2.656134e-12
169	0xabcb127a	-1.4429146e-12
170	0xac87f455	-3.864057e-12
171	0xbbbf4cab	-0.005837997
172	0xbc309726	-0.010778224
173	0x3bcfbfd6	0.0063400073
174	0xbba9899d	-0.0051738755
175	0x3bb99e67	0.005664635
176	0xbb928cdc	-0.004472358
177	0xbb39610b	-0.0028286602
178	0x3be3a2b3	0.0069468855
179	0xbbdb9712	-0.0067013586
180	0x1704e920	4.2945745e-25
181	0x16263458	1.342589e-25
182	0x1539eade	3.754573e-26
183	0x970fb56c	-4.643478e-25
184	0x97376fc2	-5.9271547e-25
185	0x973f21f4	-6.1758283e-25
186	0x9735e044	-5.8767317e-25
187	0x17232c1a	5.2723805e-25
188	0x9706ba43	-4.353283e-25
189	0x3b7777fe	0.003776073
190	0xb98d4558	-0.0002694528
191	0xbb24a2b9	-0.0025121404
192	0x3b355f95	0.002767538
193	0xbaa3924a	-0.0012479511
194	0xbb8fb902	-0.0043860683
195	0x3b9f5726	0.004862684
196	0x3a7f25ae	0.0009733093
197	0xbb2d58a3	-0.0026450537
198	0xb7b82219	-2.1950387e-05
199	0xb7b29496	-2.1288444e-05
200	0xb7a9d0f4	-2.0243671e-05
201	0xb7a806ba	-2.0030293e-05
202	0xb7b3c56b	-2.1430393e-05
203	0xb7b3e49b	-2.1444916e-05
204	0xb7abe562	-2.0491603e-05
205	0xb7b0a812	-2.1059099e-05
206	0xb7aff4fe	-2.0975709e-05
207	0xbb09b92d	-0.0021014914
208	0xbb4ddea5	-0.0031413224
209	0xbad22b7a	-0.0016034686
210	0xbb6daa24	-0.0036264742
211	0x3990f7ef	0.00027650545
212	0x3b20f260	0.002455853
213	0xbb3fa435	-0.0029242162
214	0x39996726	0.00029259286
215	0xba2101fe	-0.00061419595
216	0x0037abd1	5.112588e-39
217	0x006a72cd	9.775745e-39
218	0x00aa866a	1.5660253e-38
219	0x0061ff90	8.999722e-39
220	0x00a947a7	1.5545903e-38
221	0x0049a564	6.763322e-39
222	0x00a43fb3	1.5083872e-38
223	0x00a87f93	1.5474128e-38
224	0x007e4e2b	1.1599314e-38
225	0x3aa1b6d0	0.0012337808
226	0xbbeca57d	-0.007221876
227	0xbbb9262e	-0.0056503033
228	0x3bce08c5	0.0062876665
229	0xbb2ed595	-0.0026677598
230	0xba5af6cf	-0.00083528174
231	0x3ba5451c	0.005043639
232	0xbb41d2de	-0.002957515
233	0xba9619bb	-0.001145176
234	0x3c251a00	0.010077
235	0xbc5a1f0d	-0.013313067
236	0xbab0480a	-0.0013449204
237	0xbb63082b	-0.003464232
238	0xbba98e76	-0.0051744534
239	0x3bf56842	0.007489235
240	0x3c553cef	0.013015016
241	0x3c8e90e2	0.01740307
242	0x3c2defa9	0.010616221
243	0x80007f84	-4.5744e-41
244	0x80005cd7	-3.3305e-41
245	0x0000c7ed	7.172e-41
246	0x00005751	3.1323e-41
247	0x80008be7	-5.0188e-41
248	0x00005f45	3.4176e-41
249	0x000034c7	1.8933e-41
250	0x0000e788	8.3058e-41
251	0x8000274b	-1.4096e-41
252	0x1f6cc31b	5.013633e-20
253	0x1f5e4e03	4.7074858e-20
254	0x1f46f296	4.2128793e-20
255	0x1f6c294c	5.0009104e-20

e_conv4.bias f4 [32]
0	0x3d076027	0.033050682
1	0x3b23ca4f	0.0024992411
2	0xbc2d3d33	-0.010573673
3	0xb8965add	-7.169482e-05
4	0x3c896f0b	0.016776582
5	0x3c849672	0.01618502
6	0x3c5866f3	0.013208139
7	0x3c962b63	0.018331235
8	0xafe864f4	-4.2272286e-10
9	0xab02abaa	-4.642351e-13
10	0x3c970273	0.018433785
11	0x3cd44803	0.025913244
12	0x3cbefa4b	0.023312708
13	0x3c51ec33	0.012812662
14	0x3cb91feb	0.022598227
15	0x3c4bd774	0.012441505
16	0xb97e6151	-0.00024259581
17	0x3d8354b0	0.06412637
18	0xb354082d	-4.9367532e-08
19	0x3d0224bd	0.031773318
20	0x3b974cd7	0.0046173143
21	0xaa2dba68	-1.5430159e-13
22	0x3cbad236	0.022805315
23	0xb26d4e0e	-1.3812963e-08
24	0xbb0113a4	-0.0019695545
25	0x3d16e9dc	0.03684412
26	0xb9e6e3ca	-0.00044038735
27	0x3d023e1c	0.031797513
28	0x3d66a6d5	0.056311447
29	0x3ca608d0	0.020267874
30	0xa0b15744	-3.0042714e-19
31	0x3cba904b	0.022773882

e_conv5.weight f4 [32, 64, 3, 3]
0	0x3a4cd49e	0.0007813665
1	0x3a831f4c	0.0010003834
2	0xbb114c03	-0.002217055
3	0x3b9b2bfc	0.004735468
4	0x3b72aefb	0.0037030566
5	0xb8dc07d5	-0.00010491876
6	0x3bdc3818	0.006720554
7	0x3bccefc2	0.0062541673
8	0x3b348c64	0.00275495
9	0x3c02e097	0.007988117
10	0x3aa8fbdb	0.0012892442
11	0x3b32c11f	0.0027275754
12	0x3ba3b2a6	0.004995662
13	0xba0bc7e6	-0.00053322164
14	0x3a0d78b9	0.0005396712
15	0x3adb44b8	0.0016728854
16	0xbb37b141	-0.0028029236
17	0xba904294	-0.001100617
18	0xa74b0a88	-2.8177618e-15
19	0x27c458e3	5.44973e-15
20	0xa785d418	-3.714487e-15
21	0x27710abe	3.3451292e-15
22	0x280e521e	7.90039e-15
23	0xa7d2dcb3	-5.852599e-15
24	0x27aefd07	4.8569034e-15
25	0xa81b5aa7	-8.6238855e-15
26	0x27dd2eda	6.139062e-15
27	0x3c26e088	0.010185368
28	0xb9d7f56c	-0.0004119085
29	0x3c72cbb6	0.014819076
30	0x3b64a09d	0.0034885772
31	0x3c23a81b	0.00998881
32	0x3c5b2ec4	0.013377849
33	0xbb208e45	-0.0024498862
34	0x3c3a16ec	0.011358004
35	0x3c46032d	0.012085718
36	0x3c1d5437	0.009602598
37	0x3bd5fb6c	0.006530216
38	0x3ae9cb21	0.0017837026
39	0x3c3b445e	0.011429874
40	0xbb8169b9	-0.0039493707
41	0x3b86f29c	0.0041182768
42	0xbc695f25	-0.014243876
43	0xbc21f328	-0.009884633
44	0xbc846d77	-0.016165478
45	0x80004d75	-2.7786e-41
46	0x8000fb52	-9.0157e-41
47	0x00016bab	1.3046e-40
48	0x00019942	1.46814e-40
49	0x0000cc73	7.3343e-41
50	0x80001423	-7.224e-42
51	0x80007e7d	-4.5375e-41
52	0x80013a15	-1.12671e-40
53	0x0000e2b0	8.132e-41
54	0x3b6cb982	0.0036121313
55	0x3c2b774d	0.010465455
56	0x3c28d2ca	0.010304162
57	0x3b047ef6	0.0020217276
58	0x3beb9be7	0.007190216
59	0x3c0d44d7	0.00862237
60	0x3b11ff54	0.0022277432
61	0x3bcba36a	0.006214549
62	0x3c1c6b04	0.009546999
63	0x9c86536e	-8.888942e-22
64	0x9c99a8bd	-1.0168309e-21
65	0x9d195f2f	-2.029859e-21
66	0x9c7d0a20	-8.3723764e-22
67	0x9ccae227	-1.3425698e-21
68	0x9c9063ca	-9.554916e-22
69	0x9c4f344f	-6.855816e-22
70	0x9cd70549	-1.4228873e-21
71	0x9c49599f	-6.6621154e-22
72	0xbcb4b914	-0.022060908
73	0x3c519aa5	0.012793218
74	0xbcbe19ef	-0.023205725
75	0xbc9f57b9	-0.01945101
76	0x3cc6f25b	0.024285486
77	0xbc656ed4	-0.014003474
78	0x3c1a728c	0.009426724
79	0xbc8caa2a	-0.017170984
80	0x3c302980	0.010752082
81	0x3c705ac3	0.014670077
82	0xbac6bc69	-0.0015162352
83	0xbc07e23b	-0.008293684
84	0x3be7663d	0.0070617483
85	0xbc73423b	-0.014847334
86	0xbb8e2c61	-0.0043387865
87	0xbbb9b65a	-0.00566749
88	0x39d2511a	0.00040114747
89	0xba49dbd2	-0.0007700297
90	0xbb80136a	-0.0039085643
91	0x3b1c10fd	0.0023813837
92	0x3c67d65a	0.0141502265
93	0xbb6307b3	-0.003464204
94	0x3aa827fd	0.00128293
95	0x3c7241d3	0.0147862015
96	0x39b8ff4b	0.00035285423
97	0x3c11a727	0.00888995
98	0x3cd46ab8	0.025929794
99	0x800076c7	-4.2609e-41
100	0x800113e2	-9.8968e-41
101	0x0000c614	7.1057e-41
102	0x8000a234	-5.8188e-41
103	0x00007573	4.2133e-41
104	0x000011f1	6.436e-42
105	0x80015e4e	-1.25666e-40
106	0x80010052	-9.195e-41
107	0x8000671e	-3.6991e-41
108	0x21adae30	1.1769043e-18
109	0x20191694	1.2967075e-19
110	0x20efa1f2	4.0595341e-19
111	0x21af7632	1.1889747e-18
112	0x20ad5dd5	2.9369433e-19
113	0x215679e9	7.2667367e-19
114	0x21225780	5.500354e-19
115	0x21470d53	6.7441457e-19
116	0x219b5be5	1.0527533e-18
117	0x00001e33	1.0833e-41
118	0x00005a07	3.2296e-41
119	0x00004c8a	2.7457e-41
120	0x8000034b	-1.181e-42
121	0x00009ff9	5.7387e-41
122	0x00007414	4.1641e-41
123	0x000095a8	5.3687e-41
124	0x00001c5a	1.017e-41
125	0x000097cf	5.4459e-41
126	0x24c58cc0	8.567357e-17
127	0x24b1bdec	7.7083254e-17
128	0xa48d9c0c	-6.1413356e-17
129	0x24481ebf	4.339413e-17
130	0x24ab592c	7.431049e-17
131	0x24b0e092	7.670827e-17
132	0xa4fdc8ba	-1.10061304e-16
133	0xa4b9d2cc	-8.0588065e-17
134	0xa43a641d	-4.041712e-17
135	0x80001232	-6.527e-42
136	0x800071af	-4.0782e-41
137	0x8000e785	-8.3054e-41
138	0x0000cac0	7.2733e-41
139	0x8000d7d5	-7.7426e-41
140	0x8000df68	-8.0143e-41
141	0x800029fb	-1.506e-41
142	0x80006761	-3.7085e-41
143	0x0000e273	8.1235e-41
144	0xbbf25d00	-0.0073963404
145	0xbba4b2c0	-0.0050261915
146	0xbb4e7258	-0.003150126
147	0xbc00607f	-0.007835506
148	0xbb84b5f6	-0.0040500117
149	0xbb1c4518	-0.0023844894
150	0xba2c3302	-0.000656888
151	0x3b7245e0	0.0036967918
152	0x3b6d0c8c	0.0036170809
153	0xbc3a71ac	-0.011379641
154	0x3b23626d	0.0024930493
155	0x3c1ec9dc	0.009691682
156	0x3918d978	0.00014576863
157	0x3b806b81	0.0039190655
158	0xbbdeafcc	-0.006795859
159	0x3b80ed0a	0.0039345073
160	0xbc003dc7	-0.007827229
161	0xbc2465bb	-0.01003402
162	0xbb3d8de7	-0.0028923692
163	0xba6b84b1	-0.0008984311
164	0x3b143b6a	0.0022618421
165	0xba99ceeb	-0.001173464
166	0x3b1a1710	0.0023512281
167	0x3bbc6c9e	0.005750253
168	0x3a588b4b	0.00082605024
169	0x3b7cc60e	0.0038570198
170	0x3b9e96f5	0.004839773
171	0xbc279f84	-0.010230903
172	0x3bddc6d5	0.0067680874
173	0x3c8d3b2e	0.017240133
174	0x3c5407ec	0.012941342
175	0x3b844fcc	0.004037833
176	0x3b1e7129	0.0024176335
177	0xbc2de86f	-0.0106144985
178	0xbb6554af	-0.0034993102
179	0x3b469460	0.003030084
180	0x0eae37ec	4.2948163e-30
181	0x0e98cbd2	3.7667165e-30
182	0x8f50a19a	-1.0286315e-29
183	0x8f0c109a	-6.90573e-30
184	0x0e2aef5c	2.1069365e-30
185	0x0eb88f80	4.5497688e-30
186	0x0e9cd788	3.866452e-30
187	0x0e997b91	3.7836402e-30
188	0x8f10f774	-7.147406e-30
189	0xbbc4539e	-0.0059914133
190	0xbb2e13ff	-0.0026562212
191	0xbb68f034	-0.0035543563
192	0xb8bfae94	-9.1401074e-05
193	0x3ab10aaf	0.0013507212
194	0xbc5b66da	-0.013391221
195	0xb8ca5690	-9.648234e-05
196	0x39d58b81	0.00040730464
197	0x3b4b0af7	0.0030981877
198	0xb8925e6e	-6.9794114e-05
199	0x3b2540ad	0.0025215552
200	0x3c66d33c	0.014088448
201	0x3be5378d	0.0069951476
202	0x3c0fb827	0.008771933
203	0xbc115050	-0.008869246
204	0xbb594058	-0.0033149924
205	0xbbc3e4e2	-0.0059782127
206	0xbc736608	-0.014855869
207	0xbb9dbdc3	-0.004813881
208	0x3bf2b040	0.0074062645
209	0x3b5ab34e	0.0033371034
210	0x3c674e62	0.014117809
211	0xbbadab6f	-0.0052999775
212	0x3aed60e3	0.001811054
213	0xbc4a3402	-0.012341501
214	0x3c9e190b	0.01929905
215	0xbc6140d9	-0.013748371
216	0x3c341de5	0.010993456
217	0x3c9d22ce	0.019181635
218	0xbcc4eaf2	-0.024037812
219	0x3b12eb6b	0.0022418152
220	0xbc0b0fd4	-0.00848766
221	0xbbd3dcb8	-0.0064655207
222	0xbc7f0386	-0.015564805
223	0xbca990cb	-0.020698925
224	0x3aee3c93	0.0018176012
225	0x296f17e0	5.308937e-14
226	0xaa3cc201	-1.6765063e-13
227	0x2889449a	1.5239807e-14
228	0xaa254c9c	-1.4681523e-13
229	0xa9fa6b79	-1.1120874e-13
230	0xaa212ff8	-1.4316315e-13
231	0x2a846502	2.3517999e-13
232	0x2944a366	4.3662468e-14
233	0xa937b6ff	-4.0792887e-14
234	0x3b634e64	0.0034684176
235	0x3c2e7962	0.010649057
236	0x3c488700	0.012239218
237	0x3ae1f814	0.0017240071
238	0x3c031c0c	0.008002292
239	0x3c12ec6d	0.008967501
240	0xbaad1411	-0.0013204833
241	0x3b99e224	0.0046961475
242	0x3bd117b4	0.0063809995
243	0xbc7500ad	-0.014953774
244	0xbc364e12	-0.011127012
245	0xbbabc537	-0.0052420157
246	0xbc145b11	-0.009054915
247	0x3af4aab7	0.00186666
248	0x3d1c4f32	0.038161464
249	0x3c2dfea0	0.010619789
250	0xbc56b177	-0.013103834
251	0x3b16c2f2	0.002300438
252	0xb93d2b34	-0.00018040539
253	0xb9394016	-0.00017666849
254	0xb939b858	-0.00017711648
255	0xb937a820	-0.00017514871

e_conv5.bias f4 [32]
0	0x3cabf4b3	0.020990705
1	0xb2f3668e	-2.833556e-08
2	0x1649a7c1	1.6289584e-25
3	0x3cf9d09e	0.030494984
4	0x991485ee	-7.6784676e-24
5	0x3bcf3c4b	0.006324326
6	0x3d1c1045	0.038101453
7	0x3cea3872	0.028591368
8	0x3c824d2d	0.01590594
9	0xae1e8196	-3.6040136e-11
10	0x3d2c88da	0.0421227
11	0x3ceb7d4e	0.028746273
12	0x93859dfe	-3.3729712e-27
13	0x3948b405	0.00019140549
14	0x3cd9cc25	0.026586602
15	0x3d0a1a73	0.03371663
16	0x3b8372ef	0.004011504
17	0x3b2a63ba	0.0025999383
18	0xbaefe6f3	-0.0018303081
19	0x3bfda78c	0.0077409204
20	0x3cd6c266	0.026215743
21	0x3cf22fc9	0.029563801
22	0x3c27b608	0.010236271
23	0x84183895	-1.7893495e-36
24	0x3ca8b9b5	0.020596365
25	0xb93580f1	-0.0001730954
26	0x3cc20edb	0.023688724
27	0x3c1d4926	0.0095999595
28	0x3d354132	0.04425163
29	0xb48beeb5	-2.606445e-07
30	0xa61b89f1	-5.3963373e-16
31	0xb727e975	-1.0008332e-05

e_conv7.weight f4 [8, 64, 3, 3]
0	0x398ce7ed	0.0002687568
1	0xb89f3b52	-7.59276e-05
2	0xbb895845	-0.0041914308
3	0x3c00914e	0.007847143
4	0x3be93ccf	0.0071178447
5	0x3b76721c	0.0037604636
6	0x3c28d796	0.010305306
7	0x3c1934dd	0.0093509825
8	0x3ba59d12	0.0050541246
9	0x3aec89c1	0.0018046425
10	0x3a1901fb	0.0005836782
11	0x3b93bf4e	0.0045088893
12	0x3b836170	0.004009418
13	0x3b1b6538	0.0023711454
14	0x3be1bfd2	0.006889322
15	0x3c11ea7a	0.008906001
16	0x3c1b7f6d	0.00949083
17	0x3c6490aa	0.013950506
18	0x800085e0	-4.8025e-41
19	0x00005d84	3.3547e-41
20	0x0000fe22	9.1166e-41
21	0x80013a5a	-1.12768e-40
22	0x0000d206	7.5342e-41
23	0x800005ce	-2.082e-42
24	0x0001c689	1.63056e-40
25	0x80007539	-4.2052e-41
26	0x00005d49	3.3464e-41
27	0x9111a574	-1.1489467e-28
28	0x92bb6b41	-1.1827799e-27
29	0x11d01439	3.2829077e-28
30	0x124bd2f0	6.4315506e-28
31	0x92763a96	-7.7696126e-28
32	0x92cbe7f8	-1.2868286e-27
33	0x91d15498	-3.302652e-28
34	0x91f79894	-3.9063762e-28
35	0x918b25ba	-2.1953584e-28
36	0xb9ac3625	-0.00032846737
37	0xbb3af4ff	-0.0028527377
38	0xbbba2597	-0.0056807506
39	0x3ba0275b	0.004887504
40	0x3ae5b41d	0.0017524991
41	0xbad34acd	-0.0016120315
42	0x3bb2ccc9	0.005456541
43	0x3b128077	0.0022354403
44	0xbab7ee9e	-0.0014032905
45	0xbc23b067	-0.009990788
46	0xbbe6c072	-0.0070419842
47	0xbbcd5926	-0.006266731
48	0xb99b9ddc	-0.00029681518
49	0x3b43c4ca	0.0029871934
50	0x3b621fac	0.0034503741
51	0x3bbdf303	0.0057967915
52	0x3c1a278f	0.009408846
53	0x3c18b1fb	0.009319778
54	0x3b88c177	0.0041734534
55	0x3b67145a	0.0035259933
56	0x3bb34795	0.0054711797
57	0x3b82c42b	0.00399067
58	0x3b82f572	0.0039965445
59	0x3bd0330c	0.0063537415
60	0x3b9e3744	0.0048283655
61	0x3ba03bf4	0.0048899595
62	0x3bed3ce0	0.007239923
63	0xbc5ec2c0	-0.013596237
64	0xbccbc992	-0.02487639
65	0xbd1e15c4	-0.038594976
66	0x3b9fd8b9	0.0048781303
67	0xbbdb5465	-0.00669341
68	0xbcaf7983	-0.021420246
69	0x3c76512e	0.015034003
70	0xbb003111	-0.0019560496
71	0xbc8d6618	-0.017260596
72	0x80016375	-1.27514e-40
73	0x8000338a	-1.8489e-41
74	0x800107c7	-9.4625e-41
75	0x00007bdd	4.4434e-41
76	0x8000f027	-8.615e-41
77	0x8000e955	-8.3704e-41
78	0x00008966	4.9289e-41
79	0x00003f16	2.2631e-41
80	0x00002286	1.2385e-41
81	0x0000dd4e	7.9389e-41
82	0x00004c5a	2.739e-41
83	0x000037e2	2.0047e-41
84	0x000048f1	2.6166e-41
85	0x800009e7	-3.552e-42
86	0x0000fbef	9.0377e-41
87	0x00006864	3.7448e-41
88	0x8001f439	-1.79446e-40
89	0x00008ebd	5.1205e-41
90	0x3a288e3a	0.0006429885
91	0xbb2bcbb3	-0.0026213943
92	0xba69b904	-0.0008915814
93	0x3a9730f1	0.0011534971
94	0xbb0eea4b	-0.002180713
95	0xb953d5ff	-0.00020202248
96	0x38961734	7.156879e-05
97	0xbb50e440	-0.003187433
98	0xba941a53	-0.0011299349
99	0xbbebc7d8	-0.007195454
100	0xbb9be52e	-0.004757545
101	0xbc1535db	-0.009107078
102	0xbb2e68bf	-0.0026612727
103	0x39c30312	0.00037195586
104	0xbba03d5a	-0.004890126
105	0xbb5f1f52	-0.0034045768
106	0xba96e573	-0.0011512473
107	0xbbbc50d4	-0.00574694
108	0xb9b02d47	-0.0003360307
109	0x3c240601	0.010011197
110	0x3b25d85f	0.002530597
111	0xbb58d49b	-0.0033085707
112	0x3bdeea59	0.0068028388
113	0xba0fc39d	-0.0005484166
114	0xbbc4ea2a	-0.00600936
115	0x3b841259	0.0040305075
116	0xbb5d4e60	-0.003376864
117	0xbc927003	-0.017875677
118	0xbcb48111	-0.0220342
119	0xbc09c747	-0.008409328
120	0xbc80d69d	-0.015727336
121	0xbca9f299	-0.020745562
122	0xbbe4f823	-0.006987588
123	0xbae17825	-0.0017201944
124	0xbbd8f83a	-0.006621388
125	0x3c07c5f5	0.008286943
126	0xbb036e62	-0.0020054807
127	0x3ad8ef79	0.0016550861
128	0x3ab9aea4	0.0014166427
129	0xba8422de	-0.0010081192
130	0x3b320396	0.0027162782
131	0x3b5638da	0.0032687695
132	0x3ae79dba	0.0017670908
133	0x3bbb7e5a	0.0057218494
134	0x3bc3c07e	0.0059738746
135	0xbb4c6fc2	-0.0031194543
136	0xbb689519	-0.003548926
137	0xbb47d212	-0.0030490202
138	0x3ab7e9a1	0.0014031419
139	0x3a9ba431	0.0011874494
140	0x3ac940e0	0.0015354417
141	0x3b1bf2ec	0.0023795916
142	0x3b25a679	0.0025276227
143	0x3b5a7358	0.003333291
144	0x000140dc	1.15103e-40
145	0x000063f5	3.5858e-41
146	0x000199f5	1.47065e-40
147	0x00003199	1.7792e-41
148	0x00009d35	5.6395e-41
149	0x80008b7f	-5.0042e-41
150	0x00003b7c	2.1339e-41
151	0x8000cfef	-7.4593e-41
152	0x00011117	9.7966e-41
153	0x3b969cee	0.004596344
154	0x3d3b9460	0.0457958
155	0x3be8da02	0.0071060667
156	0x3d14b8a5	0.036308903
157	0x3da00bff	0.07814788
158	0x3d233d79	0.039853547
159	0xbc0030a9	-0.0078241015
160	0x3d07890d	0.033089686
161	0xbb98f48e	-0.004667825
162	0x80003cc3	-2.1797e-41
163	0x80001fee	-1.1454e-41
164	0x0000a8cd	6.0554e-41
165	0x80012316	-1.04422e-40
166	0x80007a84	-4.395e-41
167	0x0001b84d	1.5795e-40
168	0x8000251a	-1.331e-41
169	0x80008e2b	-5.1e-41
170	0x00006565	3.6374e-41
171	0xbc1742fe	-0.009232281
172	0xbb1cd602	-0.002393127
173	0xbc024909	-0.007951983
174	0xbbf6365c	-0.0075138044
175	0xbab3c937	-0.0013716583
176	0xbc0b3ba7	-0.008498109
177	0xbc69a9e1	-0.014261694
178	0xbc1bc7b6	-0.009508064
179	0xbc8164fc	-0.015795223
180	0xbb720642	-0.003693
181	0x3b506764	0.0031799907
182	0x38f2cfcb	0.00011578164
183	0x3aee70a5	0.001819153
184	0x3c0e06ac	0.008668583
185	0x3bbc8240	0.0057528317
186	0xbb9fe6dc	-0.0048798155
187	0x3af6c5c3	0.0018827248
188	0xba92b107	-0.0011191674
189	0x0001aa46	1.52918e-40
190	0x00012cb3	1.0787e-40
191	0x80008710	-4.8451e-41
192	0x800088ba	-4.9048e-41
193	0x00008d67	5.0726e-41
194	0x00008b6e	5.0018e-41
195	0x00006273	3.5317e-41
196	0x000079eb	4.3736e-41
197	0x0001c6d0	1.63156e-40
198	0xbb4cf890	-0.0031276084
199	0xbae2e772	-0.0017311408
200	0xbbb410a9	-0.00549515
201	0x3b24cca2	0.0025146385
202	0x3b7be8c1	0.0038438293
203	0xb81a17b2	-3.673853e-05
204	0x3afd90de	0.0019345542
205	0x3b62771f	0.0034555865
206	0xb98afe3a	-0.00026510825
207	0x80015c87	-1.25028e-40
208	0x000055ce	3.0781e-41
209	0x8000685a	-3.7434e-41
210	0x80017288	-1.32922e-40
211	0x000103f3	9.3252e-41
212	0x80009472	-5.3252e-41
213	0x0000a0d7	5.7698e-41
214	0x0000b6fe	6.5645e-41
215	0x00003742	1.9823e-41
216	0x2814666e	8.237861e-15
217	0xa7cf59b4	-5.7551298e-15
218	0xa74151a6	-2.6828392e-15
219	0x27de7eba	6.1754775e-15
220	0xa80b4fe2	-7.733372e-15
221	0x289221df	1.6223945e-14
222	0xa77adf71	-3.4815597e-15
223	0xa801e0a5	-7.2096505e-15
224	0x27633d9f	3.1535983e-15
225	0x3b95d6e9	0.0045727384
226	0x3be270b1	0.0069104065
227	0x3af928ab	0.0019009312
228	0x3a491f16	0.00076721737
229	0x3b75f3ef	0.003752943
230	0xb979e285	-0.00023830876
231	0xbab2d6fe	-0.0013644395
232	0x3aeac36a	0.0017911021
233	0xbb2475c6	-0.0025094613
234	0x3bc1f7b6	0.005919422
235	0x3b2b8652	0.002617259
236	0x3d40d325	0.047076363
237	0xbd21cbea	-0.03950111
238	0xbd2cae09	-0.04215816
239	0xbb3dfcf3	-0.002898988
240	0xbd1327c9	-0.035926614
241	0xbd102b6d	-0.035197664
242	0x3bb8bd29	0.005637784
243	0x3b524d2d	0.0032089457
244	0x3b21c64a	0.002468484
245	0x3ae1d5b3	0.0017229825
246	0x3c1c30f9	0.00953316
247	0x3c10fb7d	0.008849022
248	0x3c1c403f	0.009536802
249	0x3c068a48	0.00821168
250	0x3c0930ae	0.008373423
251	0x3c17d470	0.009266958
252	0xbcac5a22	-0.021039072
253	0x3caf2137	0.021378143
254	0xbc9e6b01	-0.019338133
255	0x3c8fbb64	0.01754541

e_conv7.bias f4 [8]
0	0x3cbe3dfc	0.023222916
1	0x3c362d09	0.011119136
2	0x3d5ebea9	0.054381046
3	0x3d17bf33	0.037047576
4	0x3c8dfd74	0.01733277
5	0x3ccf1f20	0.025283396
6	0x3c5c4d5f	0.013446181
7	0x3b666545	0.0035155576
