snapshots/Epoch33.pth (torch, 304045 bytes, 14 tensors)

e_conv1.weight f4 [32, 3, 3, 3]
-9.111516e-34 2.5477e-41 -7.8019e-41 -5.8466e-41 -7.0403e-41 -2.0568676e-14 -6.463e-42 -1.6039223e-10
-1.0837682e-22 7.4445e-41 2.8461242e-12 -7.8055436e-35 -2.6852e-41 -1.02851e-40 6.7359e-41 6.2213e-41
-1.02058e-40 -9e-44 3.9497e-41 -7.8631e-41 -5.8113127e-18 5.9562e-41 -1.31122e-40 1.99244e-13
-2.8226e-41 -1.6205e-41 5.713807e-29 -0.009899164 -0.0016347495 -0.022608634 0.0064495695 0.0064979265
0.0052108397 0.015372969 0.00654912 0.011921066 0.007410125 -0.0069774506 0.033354215 0.0039224452
0.01743229 0.016477013 0.028725306 0.03468898 0.014023559 -0.0051097083 -0.00062290835 -0.027428504
0.0015338458 -0.000937561 -0.017252048 -0.013372415 -0.0071432996 0.01789764 -0.0034374208 -0.038577307
-0.005643637 0.003194259 -0.022531977 -0.013963615 0.004106672 -0.0035937822 0.00035768462 -0.006406313
0.010104501 0.007902768 -0.009601622 0.006180353 0.0038666092 0.040602375 0.02142186 -0.02417493
0.010086818 0.01678092 0.010856079 0.022142364 0.012803408 0.023459192 0.015294449 -0.0018975235
0.00046089554 0.0050474005 0.014634342 0.0021054891 -0.019447226 -0.0076601035 0.0034322136 -0.009140093
-0.017427936 0.022906762 -0.02818492 0.012541253 0.011683454 -0.0028291878 -0.0001417065 0.008889124
-0.02653822 0.013630126 0.020921983 -0.007172726 0.0010201721 -0.013733518 -0.0076020085 0.019944651
-0.0027026762 -0.022926982 0.0070981965 0.025003387 -0.00570048 -0.000927361 0.021531504 0.020127438
0.009387043 0.027671102 -0.0015000628 -0.020469284 -0.0026653567 0.011683208 0.019308828 0.02717233
0.012217643 -0.0012144864 -0.0037508768 0.00859751 0.029287467 0.030422784 0.009919108 0.011939837
0.029385861 -0.029923277 -0.008359973 0.0064984956 -0.043564178 -0.006959068 -0.0029464804 8.0439e-41
-1.14286e-40 -1.09852e-40 1.67597e-40 7.6072e-41 -7.2245e-41 7.3913e-41 1.3705e-41 2.5255503e-13
-1.2958928e-13 2.1146e-41 2.1928995e-25 -2.86787e-17 2.3466e-41 1.7899e-41 4.44367e-33 -2.32479e-28
1.3247774e-31 7.8171e-41 -2.388e-41 -1.35937e-40 -3.6680444e-21 -1.1968e-41 2.883e-41 -6.8462e-41
-1.20262e-40 8.6289e-41 0.014168572 -0.0018948859 -0.010615017 0.002108896 -0.0006878235 -0.034419533
0.01768085 -0.00039567673 0.0001429454 0.029818198 0.03237668 -0.024037903 0.010396961 0.0084804855
0.0028515582 0.0089453785 -0.036485605 -0.035055116 0.0048443987 -0.0094942935 -0.0069437115 -0.0010167895
0.0047892644 -0.0031685154 0.036650363 -0.016425487 -0.03466468 4.834004e-31 -7.6699e-41 -9.110758e-33
4.6019e-41 6.9455e-41 -2.3614241e-17 1.05034e-40 2.3309e-41 9.1635704e-26 7.5089e-41 -1.225717e-36
-3.0562846e-24 2.2012857e-22 5.930358e-39 -8.3966e-41 -1.2629462e-36 9.319e-42 1.8675e-41 -5.812764e-32
1.00666e-40 3.706e-42 4.1976e-41 -7.249307e-35 -2.755417e-38 -4.08e-42 -1.0922475e-12 -4.7450505e-16
-3.25341e-40 5.0305e-41 -4.363e-41 5.2284763e-17 3.3730334e-12 1.6197477e-08 5.6797e-41 2.932014e-18
2.0272754e-08 7.945007e-35 6.5306e-41 -6.2282e-41 -3.76895e-40 3.1562098e-18 1.6886119e-10 6.70352e-40
8.4288215e-17 -5.167845e-34 -2.4516e-41 -6.902408e-31 6.255e-42 -4.18353e-40 4.6840265e-20 -2.1932812e-34
-3.69326e-40 1.4132186e-13 2.6816162e-08 -0.023853725 -0.009103116 -0.03085527 -0.014699679 -0.014926693
-0.0069624544 -0.00532058 0.016007656 0.010717099 -0.033132326 -0.0020950811 -0.018982256 -0.016758498
00000000: 1a64 9788 0547 0000 7cd9 0080 fba2 0080
00000010: 41c4 0080 2344 b9a8 0412 0080 665a 30af
00000020: 0005 039b 86cf 0000 3747 482c c781 cf86
00000030: da4a 0080 b51e 0180 c5bb 0000 6dad 0000
00000040: 7f1c 0180 4000 0080 1a6e 0000 31db 0080
00000050: 4c66 d6a2 09a6 0000 846d 0180 2c54 602a
00000060: af4e 0080 2c2d 0080 badc 9010 1a30 22bc
00000070: 1745 d6ba be35 b9bc e956 d33b 8fec d43b
00000080: b1bf aa3b e8de 7b3c 009a d63b 9350 433c
00000090: a2d0 f23b 19a3 e4bb 6e9e 083d db87 803b
000000a0: 29ce 8e3c cdfa 863c 5551 eb3c 0816 0e3d
000000b0: 12c3 653c 576f a7bb ac4a 23ba beb1 e0bc
000000c0: 530b c93a a7c6 75ba 2b54 8dbc f917 5bbc
000000d0: 5712 eabb 129e 923c 5a46 61bb 3d03 1ebd
000000e0: 42ee b8bb c656 513b fb94 b8bc a5c7 64bc
000000f0: 4391 863b a985 6bbb 9e87 bb39 0cec d1bb
00000100: 598d 253c 9d7a 013c 1f50 1dbc 8f84 ca3b
00000110: f066 7d3b ad4e 263d e67c af3c 810a c6bc
00000120: 2e43 253c 2478 893c b2dd 313c e763 b53c
00000130: 63c5 513c 7e2d c03c 9295 7a3c 53b6 f8ba
00000140: 5aa4 f139 aa64 a53b e1c4 6f3c 3ffc 093b
00000150: ca4f 9fbc 9b01 fbbb fdee 603b 54c0 15bc
00000160: 08c5 8ebc f6a6 bb3c 10e4 e6bc d479 4d3c
00000170: f56b 3f3c e569 39bb 0d97 14b9 b0a3 113c
00000180: ae66 d9bc e450 5f3c 9464 ab3c 3009 ebbb
00000190: 4cb7 853a 8d02 61bc 451a f9bb f762 a33c
000001a0: 621f 31bb 5ed1 bbbc fd97 e83b e7d3 cc3c
000001b0: 18cb babb 251a 73ba d662 b03c 4ce2 a43c
000001c0: 1dcc 193c 82ae e23c c19d c4ba 33af a7bc
000001d0: 44ad 2ebb ed6a 3f3c 8c2d 9e3c 8298 de3c
000001e0: 822c 483c 672f 9fba 45d1 75bb 92dc 0c3c
000001f0: 45ec ef3c 3439 f93c c183 223c 4e9f 433c
00000200: 9eba f03c a921 f5bc 45f8 08bc 55f1 d43b
00000210: 5a70 32bd e508 e4bb bd19 41bb 3be0 0000
00000220: 953e 0180 3932 0180 31d3 0100 0fd4 0000
00000230: 64c9 0080 0ace 0000 3426 0000 042d 8e2a
00000240: 91e7 11aa f23a 0000 e1bb 8716 d541 04a4
00000250: 6a41 0000 e531 0000 3495 b809 e059 9391
00000260: 48f7 2b0c e9d9 0000 9142 0080 f07a 0180
00000270: 2693 8a9d 5d21 0080 5e50 0000 d8be 0080
00000280: 3e4f 0180 8af0 0000 4c23 683c d25d f8ba
00000290: 9cea 2dbc 6735 0a3b 0e4f 34ba 7ffb 0cbd
000002a0: 6ed7 903c d572 cfb9 9de3 1539 4b45 f43c
000002b0: 699d 043d 23eb c4bc 0458 2a3c bcf1 0a3c
000002c0: 35e1 3a3b a38f 123c ee71 15bd f495 0fbd
000002d0: c3bd 9e3b f48d 1bbc 1388 e3bb cb45 85ba
000002e0: 43ef 9c3b dea6 4fbb b11e 163d be8e 86bc
000002f0: 8dfc 0dbd 56df 1c0d ced5 0080 1939 3d8a
00000300: 4880 0000 9dc1 0000 8dcd d9a3 cb24 0100
00000310: fa40 0000 07e1 e215 51d1 0000 818b d083
00000320: f477 6c98 3f0f 851b 6d93 4000 10ea 0080
00000330: 11e1 d683 fa19 0000 0f34 0000 71e8 968b
00000340: 9e18 0100 550a 0000 0375 0000 3ab8 c086
00000350: e804 1681 600b 0080 5db8 99ab 4bc4 08a6
00000360: eb8a 0380 3b8c 0000 9f79 0080 f41e 7124
00000370: 2b5b 6d2c a122 8b32 549e 0000 2e58 5822
00000380: 4224 ae32 ea36 d306 0cb6 0000 9ead 0080
00000390: a11a 0480 1ee3 6822 33aa 392f ab4c 0700
000003a0: fb5a c224 2abb 2b88 5744 0080 f6fe 5f8d
000003b0: 7011 0000 338e 0480 6832 5d1f bfc4 9187
000003c0: 8805 0480 411d 1f2a 5d59 e632 e368 c3bc
000003d0: 3c25 15bc 31c4 fcbc ecd6 70bc 178f 74bc
000003e0: 4d25 e4bb 4358 aebb 7d22 833c c596 2f3c
000003f0: c3b5 07bd a14d 09bb ad80 9bbc 1e49 89bc

e_conv1.bias f4 [32]
-0.012242448 0.065635286 0.017158438 0.12704751 0.067383215 -0.0064166165 0.052487355 -0.027832119
-0.02510495 0.07282727 -0.02080066 -0.005383012 -0.0252101 0.053944893 -0.013906195 0.16249882
0.12992848 0.09300436 0.18528411 0.16132243 -0.0035710072 0.16076294 -0.017101396 0.11993841
-1.5261368e-09 -0.001721297 0.037032127 -0.0038708895 -6.270845e-05 -0.00018318 0.13082032 -0.009660601
00000000: 8c94 48bc cb6b 863d da8f 8c3c be18 023e
00000010: 3600 8a3d 7b42 d2bb fbfc 563d 2f00 e4bc
00000020: e5a8 cdbc 7726 953d 2566 aabc fa63 b0bb
00000030: 6985 cebc 52f5 5c3d cfd6 63bc 1766 263e
00000040: f90b 053e 1279 be3d 1ebb 3d3e b531 253e
00000050: 8f07 6abb 0a9f 243e 3a18 8cbc 45a2 f53d
00000060: 2ac0 d1b0 259d e1ba 00af 173d c0ae 7dbb
00000070: 5882 83b8 0214 40b9 c3f5 053e 7f47 1ebc

e_conv2.weight f4 [32, 32, 3, 3]
2.862e-41 9.608711e-09 4.304047e-14 3.1e-43 1.12858e-40 1.413e-41 4.474284e-30 1.323e-41
6.4759263e-21 0.009411033 -0.022671496 0.0029026808 -0.004449067 -0.0009501528 -0.007693312 0.013352874
0.030755168 0.0017728609 -0.013513403 -0.015454607 -0.009066266 0.0058396207 -0.006628428 -0.0042144246
0.0054493262 0.0012413069 0.008327304 -0.030612042 0.019735785 0.04038137 -0.015925705 -0.007814476
-0.006737459 -0.041659903 0.0051058056 0.01982801 0.00013775317 -0.0031015621 0.0014882658 0.013283534
-0.01549884 0.008723841 0.015388406 -0.01810869 -0.009132054 -6.481783e-11 3.7744808e-23 -4.2227e-41
7.4822e-41 -6.9692e-41 1.9606759e-15 -2.4311e-41 -4.556e-41 -2.8980307e-29 -0.003361447 0.012064824
-0.013813333 -0.013704639 0.0076939603 0.010270237 0.008038908 0.010944337 0.024031041 7.201e-42
-7.8567e-41 8.5276e-41 -1.6789723e-30 -2.5548e-41 3.0796e-41 2.5823766e-08 1.4707e-41 -5.564e-41
2.3277e-41 1.5554245e-38 -1.6325468e-17 6.32112e-35 -3.8631762e-33 -3.373124e-38 -1.7130825e-11 -9.5225e-41
-3.1375268e-21 0.018582556 -0.0018366119 0.008792943 -0.0050555402 0.0101457015 0.010099736 0.00085547153
0.0005721685 -0.005121591 -5.6411067e-35 1.8605235e-11 -1.7650786e-27 -6.938303e-34 8.9558e-41 1.6277237e-17
-5.225e-41 -3.4676558e-29 5.8473e-41 -1.3787773e-08 -1.9068164e-27 1.6882305e-37 1.9384176e-30 4.7068943e-06
2.2982603e-19 -4.3003e-41 -1.04484e-40 6.552392e-39 -0.006925608 -0.007061725 -0.0071320035 -0.001527731
-0.001719823 -0.0019940552 0.0008798115 0.0008472675 0.000819799 0.002233565 0.028147556 0.004771975
0.017533937 0.005264879 0.013475833 -0.01579266 0.01638772 -0.0016787384 -2.57965e-40 -1.879983e-38
-6.342913e-23 1.6545e-41 3.875751e-09 -7.2509e-41 -1.7587756e-05 -4.941e-42 5.790507e-23 0.006083413
0.012039675 0.0043354416 0.016597029 0.017553898 0.015164454 -0.0028382367 -0.019766513 -0.0074945088
-0.017386341 -0.02168658 -0.009220207 -0.021513375 0.0160133 0.018418916 -0.033086207 0.00025035764
-0.0006301846 0.023962377 -0.003843074 -0.0036594947 -0.008482089 0.014481119 0.006241704 0.007732678
0.02060419 0.023260066 -0.00033909583 -0.025106959 -0.018112887 -0.0021507908 0.0002983681 0.018820863
-0.037726324 0.015991181 0.035371788 0.021372067 0.018979285 -0.0057477355 0.0095133055 0.011012005
-0.002115657 -0.013098775 -0.010493102 0.030464312 -4.8889104e-10 5.5632e-41 1.944e-41 1.584e-41
-6.446787e-14 7.7681e-41 -6.865521e-26 2.0856896e-25 6.9545e-41 -0.022468824 0.0122265965 0.017891191
-0.01902396 0.050891694 0.03446755 0.011993248 0.030135194 0.01882647 0.0050830096 0.0076845316
-0.0023295772 -0.0038922606 0.0011118504 -0.00141243 -0.013988772 0.006487481 -0.010429106 0.020296989
0.013314047 0.023317918 0.013775189 0.025133304 0.0053902227 -0.04891863 0.02929186 -0.00628126
-6.3071284e-11 -8.0407e-41 -2.67724e-40 3.700036e-34 -6.0893e-41 1.09487446e-26 -5.563722e-19 -1.419479e-22
5.8846e-41 -3.3865e-41 5.6374e-41 2.7732e-41 7.4972074e-36 -1.1402e-41 9.5867e-41 -7.2136e-41
-6.2967e-41 5.058575e-36 0.0048227385 0.0029826933 0.005956015 -0.0034768705 -0.0034025495 -0.014382291
0.015294321 -0.008704194 -0.02053381 -1.0868221e-09 -1.1695e-41 -5.1826e-41 5.6122e-41 8.5992e-41
-1.7566629e-27 -2.4723183e-30 -1.3262424e-11 1.08623e-40 -1.19302e-40 -1.3605931e-38 7.464e-41 8.4026884e-05
00000000: c84f 0000 8f13 2532 49d6 4129 dd00 0000
00000010: 9a3a 0100 6427 0000 9f7f b50e e124 0000
00000020: 51a7 f41d bc30 1a3c 93b9 b9bc e73a 3e3b
00000030: 7bc9 91bb ad13 79ba 2e18 fcbb 03c6 5a3c
00000040: 43f2 fb3c 575f e83a 5267 5dbc 5235 7dbc
00000050: ad8a 14bc 4a5a bf3b 4933 d9bb 2819 8abb
00000060: 4390 b23b 59b3 a23a 3f6f 083c 1bc6 fabc
00000070: f1ac a13c ef66 253d a076 82bc 4a08 00bc
00000080: e7c5 dcbb 93a3 2abd 9a4e a73b 5a6e a23c
00000090: d671 1039 9443 4bbb ea11 c33a 2ea3 593c
000000a0: d9ee 7dbc 71ee 0e3c a71f 7c3c ad58 94bc
000000b0: 9c9e 15bc 3289 8eae cf85 361a b675 0080
000000c0: 93d0 0000 46c2 0080 1648 0d27 c543 0080
000000d0: 017f 0080 97f2 1290 b94b 5cbb 8aab 453c
000000e0: 5151 62bc 6c89 60bc 9e1d fc3b 7f44 283c
000000f0: a0b5 033c e04f 333c bfdc c43c 1314 0000
00000100: 03db 0080 b7ed 0000 e436 088e 3847 0080
00000110: d955 0000 10d3 dd32 ff28 0000 1a9b 0080
00000120: e340 0000 e85e a900 6c93 96a3 500b a806
00000130: 5678 a089 7da6 3781 30af 96ad 7309 0180
00000140: 9810 6d9d 723a 983c 78ba f0ba 4710 103c
00000150: f2a8 a5bb 283a 263c 5d79 253c b941 603a
00000160: 94fd 153a 05d3 a7bb 62f7 9586 44a7 a32d
00000170: 0cd8 0b93 8e90 6688 a7f9 0000 8a21 9623
00000180: a791 0080 bfd4 2f90 00a3 0000 44df 6cb2
00000190: d512 1793 3fca 6502 5c43 1d0e eaef 9d36
000001a0: 54aa 8720 e077 0080 4223 0180 6759 4700
000001b0: 36f0 e2bb 0b66 e7bb 95b3 e9bb 253e c8ba
000001c0: af6b e1ba b2ae 02bb 26a3 663a 291b 5e3a
000001d0: c8e7 563a 0161 123b b495 e63c 3a5e 9c3b
000001e0: 55a3 8f3c 0285 ac3b bec9 5c3c 9c5f 81bc
000001f0: 8a3f 863c 1d09 dcba 1acf 0280 47b6 cc80
00000200: bb5c 999a 1f2e 0000 772b 8531 20ca 0080
00000210: 6b89 93b7 c60d 0080 8101 8c1a 5e57 c73b
00000220: 0f42 453c 5210 8e3b 7ef6 873c 31cd 8f3c
00000230: 5474 783c b601 3abb 62ed a1bc 7f94 f5bb
00000240: cd6d 8ebc 0ea8 b1bc 5a10 17bc d13c b0bc
00000250: 532e 833c 44e3 963c 6785 07bd 6f42 8339
00000260: f932 25ba bf4c c43c 15dc 7bbb 22d4 6fbb
00000270: 76f8 0abc 3742 6d3c 3587 cc3b 6862 fd3b
00000280: 1eca a83c e58b be3c acc8 b1b9 1cad cdbc
00000290: 7a61 94bc 48f4 0cbb 4a6e 9c39 362e 9a3c
000002a0: eb86 1abd f0ff 823c 02e2 103d 7914 af3c
000002b0: 727a 9b3c 8057 bcbb b2dd 1b3c b26b 343c
000002c0: d6a6 0abb 3f9c 56bc 42eb 2bbc 4b90 f93c
000002d0: a662 06b0 149b 0000 3136 0000 282c 0000
000002e0: 322b 91a9 8bd8 0000 69fb a995 1219 8116
000002f0: ddc1 0000 8a10 b8bc 1052 483c 8c90 923c
00000300: 23d8 9bbc cf73 503d d92d 0d3d 547f 443c
00000310: 15de f63c f839 9a3c 608f a63b 86ce fb3b
00000320: d2ab 18bb 4c15 7fbb 82bb 913a 4921 b9ba
00000330: 2a31 65bc ef94 d43b d7de 2abc df45 a63c
00000340: 2923 5a3c 3805 bf3c 55b1 613c 5ce4 cd3c
00000350: 77a0 b03b e75e 48bd 7cf5 ef3c 07d3 cdbb
00000360: fab1 8aae 24e0 0080 4eea 0280 dae8 f507
00000370: bfa9 0080 bbdc 5814 4b36 24a1 bf9a 2b9b
00000380: 0aa4 0000 675e 0080 269d 0000 4e4d 0000
00000390: ae72 1f05 c91f 0080 3d0b 0100 16c9 0080
000003a0: 87af 0080 012b d704 1008 9e3b 4a79 433b
000003b0: ad2a c33b 35dc 63bb 4ffd 5ebb b3a3 6bbc
000003c0: 0895 7a3c 099c 0ebc 8536 a8bc 275f 95b0
000003d0: 9a20 0080 7890 0080 729c 0000 b6ef 0000
000003e0: 5b2d 0b93 0b94 488e a650 69ad cc2e 0100
000003f0: 914c 0180 cd27 9480 11d0 0000 9737 b038

e_conv2.bias f4 [32]
-0.035340823 3.7406584e-09 -0.0026267357 -1.0402792e-12 0.037075803 0.027813002 0.00061293744 0.038561855
0.05308261 0.034757916 -0.027219627 -2.422128e-07 -4.4724882e-07 -0.0077980887 0.008564733 -3.6245117e-06
0.03131342 0.0063863485 -4.85129e-16 -0.0127863055 -4.050436e-06 0.011960241 -1.9165954e-10 0.03262989
-1.5349079e-07 0.04288769 0.047180858 -0.008532486 -1.8015679e-07 -0.0020210366 -0.0092752995 0.050168116
00000000: 8ac1 10bd 2e87 8031 5025 2cbb 0268 92ab
00000010: ccdc 173d 18d8 e33c 89ad 203a 09f3 1d3d
00000020: 276d 593d 515e 0e3d b2fb debc 7909 82b4
00000030: 691d f0b4 1c87 ffbb 1853 0c3c a33c 73b6
00000040: 8042 003d 9344 d13b 34d4 0ba6 a77d 51bc
00000050: fbe8 87b6 e3f4 433c 5dbb 52af eba6 053d
00000060: 3acf 24b4 01ab 2f3d b740 413d d7cb 0bbc
00000070: 1f71 41b4 5e73 04bb 6df7 17bc 157d 4d3d

e_conv3.weight f4 [32, 64, 3, 3]
-2.301464e-34 -6.0470098e-27 1.2959e-41 -8.709057e-36 -2.4351096e-29 -9.0238e-41 -1.2968e-39 -4.4173144e-11
2.7120644e-09 0.0024950805 0.015121753 0.027929595 -0.009409583 0.002159377 0.010681144 -0.03115106
-0.005236882 -0.012030991 -0.017113412 -0.007581307 -0.0026817992 -0.019366449 -0.010318668 -0.00524692
-0.02372662 -0.017193181 -0.012525744 0.011078258 0.010827214 0.019724546 -0.0020046495 0.0017207202
0.008590409 0.004360431 -0.010413562 -0.02178974 0.010092035 0.029595703 0.021195149 0.0061958386
0.015418124 0.0070324144 -0.0018441442 -0.0023043035 -0.003860385 4.971e-41 5.9458e-41 1.436e-41
-1.1221e-40 -2.1211933e-23 -1.2058605e-09 3.14372e-40 -7.0089e-41 5.0814e-41 0.0066573285 0.0040186276
-0.0006873977 0.010316414 0.0111502 0.0024720419 0.0014478721 0.0025805621 -0.009345758 -5.057e-41
2.146e-41 1.1324846e-13 -3.731e-41 -5.7714e-41 2.438e-41 -9.9654374e-21 -2.965e-42 -5.1477e-41
-1.21463e-40 -1.854e-42 -2.0964368e-30 5.2545946e-28 1.1079e-41 -1.0013878e-06 -5.5828e-41 7.0223e-41
8.251e-42 -0.004052337 -0.0067966683 -0.017464565 0.0070383903 0.004061661 -0.01028239 0.0064381477
0.00029264615 -0.009233818 -7.673146e-36 8.77042e-40 7.297945e-11 6.336478e-23 1.1106652e-21 1.0832892e-37
1.4373e-41 -6.690233e-29 2.5616477e-13 -5.433e-41 3.9072e-41 5.014188e-39 1.7303937e-27 3.3756347e-38
-7.0497e-41 2.8008e-41 3.9351e-41 5.243582e-23 0.0003540016 0.0015352876 0.0016588744 -0.00024082811
0.00023209419 0.00035752504 -0.00018444078 -0.0002016297 -9.916423e-05 -0.0048757517 -0.0048900703 -0.009254194
-0.0070757926 -0.0070040133 -0.0076657175 -0.00576666 -0.00836355 -0.0059269685 -1.1517376e-16 -1.053055e-24
-3.13e-42 8.208e-41 6.083939e-12 -3.2416e-41 -1.1076399e-23 -7.833848e-13 -1.2368092e-24 -0.021014422
0.0050028674 0.019724717 0.006518611 -0.0040618014 0.0020376996 -0.04406153 -0.028603805 -0.014391946
0.003413801 0.008537305 0.029175872 -0.0169606 0.006221253 -0.016914904 -0.031809792 -0.0053915028
-0.00362023 0.0070614507 0.007636113 0.0046717036 0.0030852265 0.0033218593 -0.0056546163 0.00881038
-0.00030719824 -0.012364827 0.0033400303 0.014510524 0.020853246 0.007374951 -0.008168235 0.023347763
-0.031253163 -0.015720068 -0.00052647287 0.019668046 -0.005408338 0.00855461 0.0031881195 -0.011879323
-0.029202187 -0.01597099 -0.011030265 -0.004235804 -6.259198e-33 2.729639e-13 -1.6883248e-05 -1.04848e-40
7.7733e-41 6.998e-42 -6.3220884e-23 3.2842557e-14 1.13996e-40 -0.0016414423 -0.00242835 -0.0076835393
0.0017692803 0.010613258 0.01487792 -0.013758931 -0.020118346 0.0021513703 0.0029646265 0.015416873
0.030367421 -0.012562413 0.0014680665 0.016650535 -0.028299527 -0.01375397 0.0012852375 -0.011292389
0.0029577932 -0.0053501236 0.0030610655 -0.0009573562 0.0023267157 -0.01852306 -0.019177346 -0.0018734289
-2.7888649e-24 6.432243e-23 8.5804e-41 -8.202917e-12 -6.4513614e-34 7.8844e-41 3.779176e-22 4.6749874e-18
-6.283557e-23 5.6383e-41 1.17918e-40 1.1904e-41 -1.1455241e-12 -6.808e-41 3.573e-42 1.935e-42
-1.04073e-40 6.4801968e-15 -0.008585193 -0.008063492 0.014636226 -0.010010478 0.02232854 0.007288068
-0.019579168 -0.016058832 -0.010402706 2.497e-42 -2.4263062e-14 4.1239e-41 7.1797e-41 -4.6177e-41
-1.34385e-40 1.6462e-41 -6.785792e-34 1.0706308e-10 -1.3759328e-11 4.63e-42 8.7756e-41 1.6599704e-25
00000000: 62f5 9887 f78b ef93 2024 0000 9e38 3985
00000010: 0ff3 f68f 8cfb 0080 f31e 0e80 8a46 42ae
00000020: 245f 3a31 8184 233b 3bc1 773c 9bcc e43c
00000030: a72a 1abc 5684 0d3b f7ff 2e3c 8230 ffbc
00000040: 269a abbb a21d 45bc 6d31 8cbc 9d6c f8bb
00000050: 20c1 2fbb 63a6 9ebc a10f 29bc 5bee abbb
00000060: 545e c2bc b7d8 8cbc c738 4dbc 9581 353c
00000070: a164 313c 5f95 a13c 7060 03bb ca89 e13a
00000080: c9be 0c3c f2e1 8e3b a59d 2abc 6680 b2bc
00000090: 1059 253c b072 f23c 73a1 ad3c 7606 cb3b
000000a0: 4d9c 7c3c 2b70 e63b 36b7 f1ba cc03 17bb
000000b0: 83fe 7cbb 928a 0000 bfa5 0000 0828 0000
000000c0: cc38 0180 3426 cd99 72bb a5b0 576c 0300
000000d0: 61c3 0080 a68d 0000 b825 da3b b1ae 833b
000000e0: 7b32 34ba 2d06 293c 54af 363c fb01 223b
000000f0: 87c6 bd3a a61e 293b f31e 19bc f88c 0080
00000100: d23b 0000 4b03 ff29 0168 0080 e2a0 0080
00000110: f643 0000 e63d 3c9e 4408 0080 7f8f 0080
00000120: 9752 0180 2b05 0080 4a15 2a8e 5686 2612
00000130: e21e 0000 6c67 86b5 a09b 0080 c1c3 0000
00000140: 0017 0000 77c9 84bb 96b6 debb d911 8fbc
00000150: 4ca2 e63b af17 853b 7877 28bc 19f7 d23b
00000160: 4d6e 9939 7149 17bc 9530 2385 d68c 0900
00000170: c77b a02e e634 991a c7d6 a71c 1f73 1302
00000180: 1128 0000 189e a990 3c35 902a 7397 0080
00000190: eb6c 0000 8499 3600 8e18 0913 7bc9 3701
000001a0: 84c4 0080 134e 0000 b26d 0000 6790 7d1a
000001b0: 4a99 b939 b43b c93a 976e d93a ce86 7cb9
000001c0: 4f5e 7339 3372 bb39 7266 41b9 8f6c 53b9
000001d0: 64f6 cfb8 c5c4 9fbb e23c a0bb e79e 17bc
000001e0: 0ddc e7bb ec81 e5bb b330 fbbb 40f6 bcbb
000001f0: 4507 09bc 0437 c2bb 4bc9 04a5 cef3 a297
00000200: ba08 0080 cee4 0000 400f d62c 5d5a 0080
00000210: ac3f 5699 d380 5cab 0f63 bf97 7026 acbc
00000220: 18ef a33b bb95 a13c 139a d53b dc18 85bb
00000230: ed8a 053b dd79 34bd 8752 eabc 32cc 6bbc
00000240: 14ba 5f3b 0de0 0b3c 3d02 ef3c f5f0 8abc
00000250: a7db cb3b 2091 8abc fc4a 02bd 34ab b0bb
00000260: 6141 6dbb be63 e73b 5c38 fa3b 1715 993b
00000270: 8331 4a3b 8db3 593b 5c4a b9bb 6959 103c
00000280: 730f a1b9 d895 4abc 69e4 5a3b 8dbd 6d3c
00000290: 6dd4 aa3c 93a9 f13b 10d4 05bc cf43 bf3c
000002a0: 5103 00bd 5fc7 80bc ff02 0aba e21e a13c
000002b0: 6d38 b1bb a328 0c3c c5ef 503b 7ea1 42bc
000002c0: 6d39 efbc 98d5 82bc 49b8 34bc 80cc 8abb
000002d0: 9bff 018a 3eaa 992a 80a0 8db7 4624 0180
000002e0: b0d8 0000 8213 0000 d5db 989a e4e8 1329
000002f0: c63d 0100 aa25 d7ba f424 1fbb 33c6 fbbb
00000300: 32e7 e73a 3be3 2d3c 85c2 733c 246d 61bc
00000310: 3bcf a4bc 01fe 0c3b 2e4a 423b 0d97 7c3c
00000320: 19c5 f83c 94d2 4dbc 236c c03a b466 883c
00000330: 69d4 e7bc 5558 61bc 6a75 a83a b603 39bc
00000340: 89d7 413b 1750 afbb 289c 483b 16f7 7aba
00000350: d07b 183b acbd 97bc cf19 9dbc d88d f5ba
00000360: 29c7 5798 a885 9b1a 30ef 0000 a74e 10ad
00000370: 1d62 5688 c9db 0000 eb6f e41b 027a ac22
00000380: 56ed 979a 2c9d 0000 b548 0100 2f21 0000
00000390: db37 a1ab c8bd 0080 f609 0000 6505 0000
000003a0: 1d22 0180 4479 e927 e9a8 0cbc bd1c 04bc
000003b0: c8cc 6f3c fd02 24bc 58ea b63c bfd0 ee3b
000003c0: 7e64 a0bc d08d 83bc 1d70 2abc f606 0000
000003d0: d08a daa8 f572 0000 24c8 0000 b980 0080
000003e0: 9c76 0180 e42d 0000 227f 6188 286f eb2e
000003f0: 810e 72ad e80c 0000 a1f4 0000 907e 4d16

e_conv3.bias f4 [32]
0.034281727 0.029127903 -5.929636e-07 0.009184627 0.035591338 -0.0003346184 -0.015713662 -7.093804e-07
0.0325002 0.0061671734 0.031296715 -0.00020858206 -8.045646e-06 -9.0001435e-12 8.0999e-41 -0.012781736
0.03321738 -0.014972919 0.047169752 -0.009970827 -1.8640163e-05 0.01444666 -0.0009342741 -0.00999748
0.010550701 -6.372418e-07 0.012813907 0.040274315 -1.6528718e-05 -0.019245408 0.033600647 -0.018342562
00000000: ff6a 0c3d a49d ee3c 262c 1fb5 1e7b 163c
00000010: 39c8 113d b96f afb9 f0b9 80bc 406c 3eb5
00000020: ee1e 053d 0016 ca3b fc30 003d d2b6 5ab9
00000030: c9fb 06b7 0b55 1ead cbe1 0000 7d6a 51bc
00000040: f30e 083d f950 75bc 1235 413d ae5c 23bc
00000050: 725d 9cb7 afb1 6c3c 13ea 74ba 78cc 23bc
00000060: d9dc 2c3c ec0e 2bb5 6cf1 513c aef6 243d
00000070: 27a7 8ab7 8ca8 9dbc d5a0 093d 2443 96bc

e_conv4.weight f4 [32, 64, 3, 3]
-0.005746297 0.013944351 -0.04870985 0.00532462 -0.008215064 -0.009154175 0.015855204 -0.005107008
-0.015712814 3.1259757e-18 -3.995399e-11 -9.357152e-11 7.6356255e-11 7.832713e-10 -2.8559679e-11 6.400695e-11
7.3662e-11 1.2708597e-18 0.00055374764 0.0007583068 0.0007394266 0.0010794721 0.0014624944 0.0015256789
-1.9428839e-05 0.00011613639 0.000120990415 -2.4072648e-21 -3.782193e-21 -5.2132558e-18 -3.0767944e-21 -3.6858603e-21
-4.970354e-22 4.3737486e-21 2.8637162e-21 2.1757288e-21 -0.0016369193 -0.0073912023 -0.02298894 -0.004347058
0.041839458 0.0012379716 -0.032850675 -0.007437307 0.0028282097 -0.002250534 0.0028919713 0.001125216
-0.0025295278 0.0024139667 0.002546354 -0.00093067624 0.0041996916 0.004971798 0.001298784 0.002391262
0.0022581294 -0.0061174305 0.0015715574 -6.4807595e-05 -0.002569516 -0.00012423824 0.0007189661 -0.0125237955
-0.016767876 -0.024746634 -0.0227084 0.018234113 0.0092177205 -0.009787916 0.007180887 -0.009402456
-0.016066415 0.0060139345 0.010930151 -0.007632718 0.024860919 -0.005046506 -0.0050731287 -0.008834414
-0.019030245 -0.023910321 0.0015158897 -0.025915056 0.03379735 -0.015245014 0.020545194 0.0031258862
0.0032990326 -0.0147432145 0.008675182 -0.016223313 -0.005692508 -0.010908404 0.015345237 0.039887607
-0.008587092 0.015680458 0.0027035982 -4.478636e-08 -2.3730133e-08 -1.0658051e-08 6.6140395e-09 -7.4820385e-08
1.9072464e-08 7.299381e-10 1.1816635e-08 1.5207876e-08 4.140505e-09 7.81857e-09 1.3847128e-09 2.2881135e-09
1.1773968e-09 1.1985535e-08 -3.4185919e-09 1.3407319e-08 1.2425542e-08 -0.01073581 0.027950065 0.00952956
0.00997031 0.017801305 -0.005513078 -0.045783248 0.02651578 -0.00085650256 -0.0024640772 -0.0011720769
0.0005546979 -0.0016625663 -0.00070337194 0.0008715614 -0.001662276 -0.0016318446 -0.0023503029 5.212028e-09
1.6875902e-07 9.830652e-13 2.5701591e-12 7.18007e-12 1.7605976e-12 5.4519336e-12 6.65575e-12 -7.399586e-12
0.0044036624 -0.046838447 -0.02285758 -0.023143133 -0.029445436 0.012649334 0.012024366 0.016175596
0.030704776 -1.5991447e-05 -0.0007196361 8.717615e-06 0.0017516308 0.0010170796 0.0012196613 0.0006926475
-1.0576973e-05 -0.00012869015 2.9005845e-27 1.277679e-11 -4.82702e-40 -1.0047e-41 -2.7480308e-12 1.2853e-41
-6.3137e-41 1.584e-41 -1.3877723e-13 -0.00765076 -0.020625403 0.013615724 -0.007632999 0.009946942
-0.007812624 -0.0034401617 0.0120972 -0.012353736 -2.7367974e-25 -7.26495e-25 -5.903984e-25 8.486924e-17
7.283174e-18 -7.3909956e-25 -5.441262e-25 1.2930122e-12 5.5501093e-25 0.0030179205 -0.0010284508 -0.000994932
0.001841672 -0.0021155153 -0.00228774 0.0016763797 -0.0017657285 -0.001258264 -5.6083295e-33 1.864883e-10
-1.28027e-40 -5.5657e-41 4.77694e-39 3.0397132e-38 1.5782407e-13 -9.298355e-33 7.081756e-29 0.00038405278
-0.0038209523 0.0013723065 -0.006021977 -0.0020700446 0.004164809 -0.0011567567 0.0023868296 0.0026705929
1.383423e-37 -4.1086e-41 3.6229e-41 -4.0918e-41 1.45379e-40 -1.27619e-39 5.054e-41 6.133e-41
-7.186e-42 0.005329282 2.7165792e-05 0.0010477618 0.004638087 -0.00084786414 2.7582391e-06 0.003309144
-0.0019331558 -0.0006902609 0.010886694 -0.014898146 -0.0013421846 -0.0044497843 -0.0062845773 0.008000162
0.013869262 0.01883336 0.0116573665 -1.5028407e-19 -1.2709958e-14 -3.6834386e-17 -9.800066e-16 -7.363245e-24
-5.408266e-23 -1.7740217e-15 -9.604963e-22 -1.19787005e-20 -6.7158966e-32 -1.470392e-33 -1.5215914e-33 -6.888988e-33
00000000: 6f4b bcbb d976 643c fb83 47bd 267a ae3b
00000010: 7a98 06bc 65fb 15bc c6e2 813c b058 a7bb
00000020: 29b8 80bc 03a8 6622 32b8 2fae 15c4 cdae
00000030: c0e8 a72e d14d 5730 ae36 fbad b6c0 8c2e
00000040: 05fc a12e b98b bb21 6029 113a 1cc9 463a
00000050: 14d6 413a 137d 8d3a 2bb1 bf3a 4af9 c73a
00000060: 1dfb a2b7 408e f338 3cbc fd38 46e3 359d
00000070: 20e3 8e9d cf55 c0a2 dc79 689d 743f 8b9d
00000080: 4038 169c 4d3c a51d 5460 581d b764 241d
00000090: e68d d6ba e631 f2bb 4d53 bcbc c471 8ebb
000000a0: da5f 2b3d 6f43 a23a 6e8e 06bd a7b4 f3bb
000000b0: 7c59 393b b27d 13bb 3a87 3d3b fc7b 933a
000000c0: 6fc6 25bb a433 1e3b bbe0 263b a0f8 73ba
000000d0: 919d 893b 77ea a23b f63b aa3a b8b6 1c3b
000000e0: 20fd 133b ba74 c8bb b7fc cd3a 50e9 87b8
000000f0: 5365 28bb f345 02b9 0079 3c3a 9b30 4dbc
00000100: c95c 89bc 74b9 cabc f706 babc b55f 953c
00000110: ec05 173c 7f5d 20bc a54d eb3b c20c 1abc
00000120: b79d 83bc 8a10 c53b 6014 333c e11b fabb
00000130: 20a9 cb3c 295d a5bb 7d3c a6bb 38be 10bc
00000140: 51e5 9bbc 94df c3bc d1b0 c63a d04b d4bc
00000150: 176f 0a3d 39c6 79bc 654e a83c abdb 4c3b
00000160: 9534 583b 868d 71bc 5a22 0e3c c1e6 84bc
00000170: 3888 babb 2ab9 32bc 976a 7b3c 3061 233d
00000180: e0b0 0cbc 4e74 803c da2e 313b 205b 40b3
00000190: 1dd7 cbb2 9b1a 37b2 b541 e331 f1ac a0b3
000001a0: cbd4 a332 d4a4 4830 1c02 4b32 79a2 8232
000001b0: 4444 8e31 6f52 0632 4050 be30 eb3c 1d31
000001c0: f8d1 a130 f1e8 4d32 81ec 6ab1 0356 6632
000001d0: 1d78 5532 40e5 2fbc 89f7 e43c df21 1c3c
000001e0: 835a 233c 0bd4 913c 0da7 b4bb 3787 3bbd
000001f0: 9f37 d93c ea86 60ba 5b7c 21bb 60a0 99ba
00000200: 2569 113a 78ea d9ba 7e62 38ba 7f79 643a
00000210: bae0 d9ba 9ee3 d5ba 8a07 1abb 7c15 b331
00000220: 2034 3534 a85a 8a2b dfdb 342c 52a0 fc2c
00000230: 37c8 f72b a7d2 bf2c ab2d ea2c c62c 02ad
00000240: 994c 903b acd9 3fbd d23f bbbc ab96 bdbc
00000250: 8e37 f1bc 273f 4f3c d901 453c af82 843c
00000260: 9588 fb3c 5f25 86b7 f6a5 3cba df41 1237
00000270: fa96 e53a 874f 853a 0bdd 9f3a c992 353a
00000280: c173 31b7 00f1 06b9 d8ce 6513 8cc5 602d
00000290: 9441 0580 021c 0080 1f60 41ac d423 0000
000002a0: 00b0 0080 282c 0000 d03f 1caa 3ab3 fabb
000002b0: 9bf6 a8bc 7c14 5f3c 3d1e fabb 80f8 223c
000002c0: 8500 00bc 5674 61bb 5633 463c 5367 4abc
000002d0: 4966 a996 ddd6 6097 2eb8 3697 f5b1 c324
000002e0: d159 0623 80bd 6497 1e66 2897 adf9 b52b
000002f0: 7fc4 2b17 4ec8 453b 15cd 86ba 6168 82ba
00000300: 4264 f13a 75a4 0abb e8ed 15bb f8b9 db3a
00000310: 0470 e7ba 55ec a4ba fdf5 e889 ca0b 4d2f
00000320: e364 0180 269b 0080 2a04 3400 6b7f 2501
00000330: b1b1 312a 891e 418a 398b b310 b15a c939
00000340: f168 7abb f7de b33a 0154 c5bb 96a9 07bb
00000350: f378 883b 509e 97ba 5b6c 1c3b 1d05 2f3b
00000360: 424d 3c02 8872 0080 fe64 0000 1072 0080
00000370: 4295 0100 80e5 0d80 e38c 0000 f7aa 0000
00000380: 0814 0080 42a1 ae3b 18e2 e337 0d55 893a
00000390: 18fb 973b 3343 5eba 301a 3936 39de 583b
000003a0: f261 fdba a0f2 34ba 1b5e 323c 5a17 74bc
000003b0: 3eec afba 7fcf 91bb dbee cdbb 1d13 033c
000003c0: e73b 633c 6b48 9a3c 8afe 3e3c 936c 31a0
000003d0: 56f6 64a8 5ede 29a4 dd3b 8da6 066d 0e99
000003e0: 8cc3 829a d9a9 ffa6 6725 919c 7145 629e
000003f0: ca5a ae8b 8f4f f488 57d1 fc88 2514 0f8a

e_conv4.bias f4 [32]
0.032848567 0.0006973499 -0.024957415 -3.7275703e-12 0.016746333 0.016028376 0.012022058 0.013948705
-1.597501e-05 -0.0005012423 0.009348775 0.026323834 0.018258533 0.0048231017 0.022668442 0.012092473
-0.021860514 0.027914155 -0.0011403878 0.031128265 -0.0038307633 -0.00064532965 0.011622187 -0.0008008087
-1.2563245e-07 0.036521308 0.0025935534 0.031336278 0.02246827 0.012147178 -0.0001454639 0.022453146
00000000: 388c 063d 5cce 363a 7e73 ccbc f826 83ac
00000010: 9b2f 893c f14d 833c 2af8 443c 1c89 643c
00000020: 1302 86b7 cd65 03ba 9b2b 193c 15a5 d73c
00000030: eb92 953c 1c0b 9e3b 2bb3 b93c 821f 463c
00000040: d214 b3bc 3aac e43c 1179 95ba b400 ff3c
00000050: 8b0d 7bbb 572b 29ba fc6a 3e3c 5ded 51ba
00000060: 96e5 06b4 5e97 153d 9bf8 293b 785a 003d
00000070: 610f b83c f504 473c ab87 18b9 a9ef b73c

e_conv5.weight f4 [32, 64, 3, 3]
0.0076708705 0.00706687 0.0105216075 0.009784507 0.008030945 0.008777323 0.008186927 0.007365921
0.00678351 0.011090803 0.004449195 0.008949051 0.006621605 0.00095225044 0.0003216104 0.0033010396
0.0005661565 0.00037071385 -4.8817787e-15 -7.6541855e-29 -1.1772e-40 4.79231e-40 6.179864e-39 3.716e-40
-8.950502e-18 1.0897981e-38 2.2347313e-19 0.0134832505 -0.0030263602 0.018652763 0.0042777206 0.012750602
0.017339293 -0.0034303137 0.014367201 0.01328868 0.014311562 0.009512787 0.0029057048 0.015342587
-0.006040166 0.0053324783 -0.018991256 -0.012902902 -0.019180518 2.6496806e-32 3.2143e-41 -6.5299e-41
-2.459e-42 -7.7828e-41 8.283487e-36 -2.0220314e-25 2.203e-41 -3.9563948e-15 0.008708753 0.009595655
0.007909252 0.008399686 0.008469252 0.0072039845 0.005823089 0.006142854 0.007870018 7.343628e-09
1.3559935e-08 -8.810452e-09 2.0894497e-09 5.42013e-09 4.921116e-09 -7.233063e-09 1.2508559e-09 -3.8775583e-09
-0.025622357 0.014263842 -0.02913361 -0.023113178 0.027130539 -0.018286137 0.011785138 -0.019321777
0.012347744 0.023702532 -0.0024760838 -0.014715742 0.010925285 -0.02416272 -0.008444325 -0.0058420855
0.0032863377 0.0018187856 -0.0015285419 0.0034062706 0.016122675 0.00060608325 0.004018569 0.018641578
0.0030849404 0.0074634543 0.025351651 3.800011e-33 3.5554954e-33 4.821147e-10 -1.38247025e-33 -3.6206302e-33
2.2095267e-22 -2.0712864e-33 1.9067973e-33 -1.7332123e-30 1.03326e-40 -3.3329889e-06 -5.280524e-24 -1.11916e-40
5.042155e-14 -3.1004e-41 -7.220178e-36 -2.2715e-41 3.544e-42 6.7981e-41 6.045904e-19 1.26871e-40
-5.160923e-35 4.4877e-41 -1.26387e-40 7.6093e-41 -5.8838525e-15 8.970685e-10 2.1588994e-11 -6.88041e-39
-1.5819335e-23 -4.22623e-40 -2.012312e-23 -2.734e-41 8.282e-41 3.6331e-41 -2.9101544e-11 3.5268e-41
-3.8774902e-25 -4.4687e-41 6.015e-41 -6.5757343e-19 -8.116129e-16 8.369454e-15 1.1119358e-25 -4.9421e-41
-0.0022914782 -0.0023005134 -0.0001232892 -0.0032951692 -0.0028133427 0.00028704593 -0.002995087 -0.0027234813
-0.0007241521 -0.033324767 0.0128707355 0.030738251 0.002728113 0.019451745 -0.013934539 0.014872931
-0.01262447 -0.018622253 0.0023156158 0.00059610733 0.00715969 0.0017708774 0.00033942822 0.00846742
0.0018290675 2.3702409e-05 0.0062226765 -0.015525391 0.009544132 0.022642476 0.018020388 0.005374117
0.00021601016 -0.015121968 -0.004588865 0.0022462627 -9.143068e-11 -4.973102e-08 1.1948801e-32 -1.15856255e-33
3.7888045e-31 4.9095525e-15 -1.4798946e-25 -2.491917e-25 6.402478e-33 -0.0076079112 -0.005795985 -0.0063954564
-0.0008711696 -0.0016149294 -0.021302167 0.0005268772 -0.0017357704 0.0025055846 -0.00038473177 0.0028446962
0.02089496 0.010080623 0.012563247 -0.015922531 -0.0031277544 -0.007832605 -0.021918317 -0.009090527
0.012711446 0.0068520713 0.021308243 -0.008944249 0.0019729082 -0.02328794 0.030679904 -0.023737358
0.02079707 0.045788165 -0.04625122 0.0012936424 -0.016756259 -0.004971666 -0.03627899 -0.0409826
0.017517168 -3.751292e-09 -3.0496434e-27 1.064327e-28 -1.1637982e-25 -3.653641e-26 3.143159e-25 6.857697e-26
-3.5100142e-25 1.7358051e-25 0.001408332 0.0032122098 0.0031771152 0.00060765404 0.0024783101 0.002612013
-0.00045245554 0.0015029951 0.0017350934 -0.017219445 -0.012628717 -0.0066025867 -0.010087747 0.0024790913
0.042837854 0.012558658 -0.014422928 0.0017018033 1.8759562e-12 3.417794e-31 1.1600652e-30 2.7714362e-31
00000000: ed5b fb3b 3491 e73b d262 2c3c 324f 203c
00000010: 3a94 033c c3ce 0f3c 7622 063c d35d f13b
00000020: 3548 de3b 33b6 353c 8eca 913b 0a9f 123c
00000030: 0cfa d83b 72a0 793a d19d a839 4156 583b
00000040: 1f6a 143a 5f5c c239 76e2 afa7 810e c290
00000050: 2848 0180 e737 0500 f24a 4300 df0b 0400
00000060: 8d1b 25a3 23ab 7600 4eea 8320 dae8 5c3c
00000070: e655 46bb aecd 983c 1f2c 8c3b e7e7 503c
00000080: 220b 8e3c 1dcf 60bb 6964 6b3c c4b8 593c
00000090: 0b7b 6a3c 85db 1b3c a36d 3e3b 795f 7b3c
000000a0: 96ec c5bb 12bc ae3b 8d93 9bbc b266 53bc
000000b0: 7620 9dbc 4c94 090b 9a59 0000 07b6 0080
000000c0: db06 0080 f4d8 0080 982b 3005 bc50 7a96
000000d0: 693d 0000 4d8b 8ea7 28af 0e3c 1837 1d3c
000000e0: cf95 013c d69e 093c 9ec2 0a3c 670f ec3b
000000f0: 9ccf be3b ff49 c93b 3ff1 003c 3c53 fc31
00000100: 3af5 6832 c75c 17b2 fd95 0f31 f83b ba31
00000110: 9816 a931 b286 f8b1 94ea ab30 5d3b 85b1
00000120: fae5 d1bc e4b2 693c 9ca9 eebc d957 bdbc
00000130: dd40 de3c cfcc 95bc 7416 413c b448 9ebc
00000140: 314e 4a3c d02b c23c cb45 22bb 4c1a 71bc
00000150: f7ff 323c e6f0 c5bc 115a 0abc f76e bfbb
00000160: 995f 573b 5164 ee3a 5b59 c8ba bd3b 5f3b
00000170: b313 843c 8fe1 1e3a 33ae 833b 39b6 983c
00000180: b62c 4a3b fe8f f43b 44ae cf3c a6d8 9d09
00000190: 83b0 9309 ce85 0430 c8b3 e588 2565 9689
000001a0: c58e 851b 6413 2c89 1869 1e09 699d 0c8e
000001b0: 0820 0100 50ac 5fb6 c747 cc98 fa37 0180
000001c0: 1714 6329 6d56 0080 638e 1985 523f 0080
000001d0: e109 0000 81bd 0000 8f71 3221 aa61 0100
000001e0: 6c33 8986 197d 0000 5160 0180 1ed4 0000
000001f0: f6fc d3a7 9595 7630 18e6 bd2d c9eb 4a80
00000200: c7fe 9899 1a9a 0480 6f9e c299 364c 0080
00000210: dee6 0000 4765 0000 dafa ffad 5062 0000
00000220: 4901 f096 927c 0080 aca7 0000 d814 42a1
00000230: 76ee 69a6 4bc5 1628 a7a6 0916 c489 0080
00000240: a02c 16bb 36c4 16bb 3147 01b9 c4f3 57bb
00000250: 0f60 38bb a77e 9639 3949 44bb 6f7c 32bb
00000260: 06d5 3dba 8d7f 08bd c7df 523c c9ce fb3c
00000270: 24ca 323b 4459 9f3c b14d 64bc 98ad 733c
00000280: ddd6 4ebc b28d 98bc 96c1 173b 1644 1c3a
00000290: d59b ea3b c91c e83a 49f5 b139 efba 0a3c
000002a0: 52bd ef3a 89d4 c637 98e7 cb3b 365e 7ebc
000002b0: fe5e 1c3c b77c b93c 7e9f 933c 5c19 b03b
000002c0: c980 6239 22c2 77bc 315e 96bb 0936 133b
000002d0: e60e c9ae d697 55b3 b92a 780a cd7f c088
000002e0: 50e8 f50c a1e2 b027 bb33 3796 003e 9a96
000002f0: 69f9 040a c94b f9bb 3fec bdbb fa90 d1bb
00000300: 345f 64ba 0aac d3ba e281 aebc 211e 0a3a
00000310: ca82 e3ba bc34 243b d3b5 c9b9 156e 3a3b
00000320: e82b ab3c 3329 253c 14d6 4d3c f86f 82bc
00000330: 03fb 4cbb 5454 00bc 0b8e b3bc 6ff0 14bc
00000340: ab43 503c 5787 e03b a08e ae3c e68a 12bc
00000350: e84b 013b 5ac6 bebc 6c54 fb3c d974 c2bc
00000360: 9e5e aa3c 5f8c 3b3d eb71 3dbd 708f a93a
00000370: 6c44 89bc 5be9 a2bb 4799 14bd 5fdd 27bd
00000380: 2a80 8f3c b7e4 80b1 1e9e 7193 63eb 0611
00000390: 3d12 1096 67eb 3495 588d c216 d2c9 a915
000003a0: 6542 d996 dce1 5616 c897 b83a f083 523b
000003b0: 2637 503b f94a 1f3a 256b 223b 4e2e 2b3b
000003c0: 8e37 edb9 2600 c53a 136c e33a cb0f 8dbc
000003d0: aee8 4ebc 835a d8bb 1447 25bc 4078 223b
000003e0: bf76 2f3d d4c2 4d3c 254e 6cbc 0b0f df3a
000003f0: 3902 042c d8d3 dd0c 393b bc0d 62e0 b30c

e_conv5.bias f4 [32]
0.020381445 -0.0012683629 -3.9375504e-06 0.005264323 -1.3082496e-06 0.0049058273 0.0021116897 0.028728113
0.0067337467 -0.0023565227 0.04243042 0.028196514 -9.323818e-08 -0.004275775 0.026718037 0.034858655
0.0013938498 -0.0023363775 -1.3985852e-08 0.0068967165 0.025397688 0.029102886 0.009026335 -1.3217384e-05
0.018624492 -4.3177272e-07 0.016283654 0.008704192 0.03562302 -0.0018898519 -0.00046216266 6.0902e-41
00000000: fdf6 a63c 323f a6ba 4d1f 84b6 5880 ac3b
00000010: 1d97 afb5 10c1 a03b 4664 0a3b 3857 eb3c
00000020: c3a6 dc3b e46f 1abb 85cb 2d3d 60fc e63c
00000030: 3b3a c8b3 cd1b 8cbb c9df da3c f3c7 0e3d
00000040: d7b1 b63a e91d 19bb 6d46 70b2 dafd e13b
00000050: d00e d03c 2d69 ee3c 31e3 133c 3bc0 5db7
00000060: 6492 983c 64ce e7b4 4c65 853c 079c 0e3c
00000070: 72e9 113d e8b4 f7ba 6c4e f2b9 c5a9 0000

e_conv7.weight f4 [8, 64, 3, 3]
-0.008333277 0.006076747 -6.44958e-05 0.011985884 0.002994668 0.004810108 0.012656201 -0.00042915938
0.009973314 0.002455597 0.0058005936 0.010166195 0.0052939663 0.0070590754 0.011483116 0.0053686257
0.008134793 0.012671006 4.4309e-41 1.0939438e-11 1.2172739e-31 -7.5593e-41 7.302e-42 -7.3176e-41
-4.6506e-41 -9.3326976e-36 -1.5734504e-09 -5.684078e-26 -3.0885788e-27 -3.7379805e-15 7.914992e-20 -9.146435e-20
-9.3252166e-26 -1.95033e-18 4.3069307e-19 -2.6783578e-26 -0.0016508957 -0.0011681402 -0.011091146 0.00791553
-0.0019275119 -0.0015122864 -0.00016981635 0.0028102521 -0.0013274343 -0.009497423 -0.010802439 0.0012153283
-0.0015400206 0.005688212 0.005535729 0.0018027434 0.007006174 0.017962769 0.017931594 0.00753436
0.010244038 -0.010016209 0.007870854 -0.001181648 0.0062265005 0.0026625632 0.007274786 -0.009544982
-0.021518132 -0.027130151 -0.004421467 -0.016057614 -0.020856565 0.007829908 -0.0058238045 -0.011337843
6.268616e-10 -7.684424e-09 3.9426631e-10 -4.906431e-10 3.8200995e-10 3.1283856e-10 -4.0372752e-10 -1.9841256e-08
2.0141405e-10 1.7292927e-32 4.49985e-40 -4.72473e-40 1.52962e-39 1.3355042e-15 1.8934e-40 1.395068e-39
-1.419902e-39 -3.376575e-15 -0.0006374851 0.0014059112 0.00013314467 0.0010271817 0.0032503135 0.0019825546
-0.002960948 -0.0009479029 -0.0018880658 -0.010008618 -0.008057627 -0.007887532 -0.0056160996 -0.0019029537
-0.0039430712 -0.004999192 -0.0056838114 -0.008782021 0.0013871242 0.0064979503 0.005353579 0.0040827063
0.009200506 0.007874171 -0.0055706576 -0.0005276095 -0.0016737668 -0.015674919 -0.016971346 -0.0085414415
-0.015463211 -0.01695696 -0.008332959 -0.0065430743 -0.007832588 0.0016867153 -0.0037455764 0.0071310587
0.0006808193 0.0035398873 -0.0011888986 0.0075990115 -0.0010485392 0.011298102 0.006919148 -0.0060813543
0.00014271591 -0.004304624 0.0026110501 -0.003856934 -0.0028431616 0.0004631434 -0.0056684385 -0.0027843344
7.9847e-41 -9.047e-42 -4.8334e-41 3.110671e-32 -1.374675e-39 3.626491e-15 -9.0901e-41 -1.04403e-39
-3.674e-41 0.013129711 0.031851478 0.020108793 0.02728305 0.045499086 0.034232646 0.0050312313
0.023840684 0.012053153 2.4797038e-27 1.61505e-40 6.8036e-41 9.8238e-41 1.8469e-41 -7.4827e-41
-5.5762e-41 8.168244e-09 -5.311e-42 -0.015472482 -0.006218057 -0.011282145 -0.013721501 -0.0056860535
-0.0127973175 -0.019275365 -0.012730393 -0.019746367 -0.0031782377 0.0017512725 -0.0010787783 0.002141148
0.00738892 0.004386064 0.0015718819 0.0070519177 0.003716481 8.274629e-29 -1.9920223e-29 -2.4177389e-25
-3.3579922e-29 -2.4790615e-30 -3.1144888e-19 1.012773e-11 -1.7819398e-25 -5.3283584e-29 0.00033424754 0.0041393493
-0.0043412074 0.0043592067 0.008505684 -4.515857e-05 0.0020403366 0.006835686 -0.0014763707 -7.047543e-35
-4.409876e-35 3.3545475e-35 -5.543252e-35 -6.353311e-35 2.3211366e-29 6.007644e-35 -5.089348e-35 7.269196e-35
2.8514317e-14 -2.0291876e-13 2.3908145e-10 -3.2970783e-13 -8.6697204e-14 -1.6560238e-13 -1.3722342e-13 2.0962253e-13
7.901461e-11 0.005562446 0.010869326 -0.0013429929 0.0058682715 0.0045424677 -0.001399254 -0.00026627068
0.00021775882 -0.0048573213 -0.014206474 0.0020853404 0.027345369 -0.035145234 -0.017597893 0.006228836
-0.04894391 -0.030557422 -0.0049868836 0.010573021 0.0057675024 0.004705389 0.009641019 0.004255499
0.008065521 0.0050039473 0.014564622 0.006455345 -0.0047721323 0.015554393 -0.005000137 0.017825723
00000000: 4c88 08bc 731f c73b eb41 87b8 7160 443c
00000010: 3142 443b 1c9e 9d3b f45b 4f3c cc00 e1b9
00000020: 1c67 233c 15ee 203b e812 be3b 1d90 263c
00000030: 0279 ad3b d14f e73b ae23 3c3c 4ceb af3b
00000040: cb47 053c 0d9a 4f3c 847b 0000 d972 402d
00000050: dd02 1e0c b9d2 0080 5b14 0000 fccb 0080
00000060: a481 0080 0a7c 4685 dd40 d8b0 20bb 8c95
00000070: d2b3 7493 c9ac 86a7 31e3 ba1f cff6 d79f
00000080: 95e1 e695 b1e8 0fa2 7f3c fe20 38a0 0495
00000090: de62 d8ba 481c 99ba a3b7 35bc 24b0 013c
000000a0: 91a4 fcba e937 c6ba bb10 32b9 352c 383b
000000b0: 4efd adba 149b 1bbc b7fc 30bc a74b 9f3a
000000c0: 84da c9ba 2e64 ba3b 1065 b53b 084a ec3a
000000d0: 0c94 e53b a826 933c 47e5 923c cbe2 f63b
000000e0: 9cd6 273c 071b 24bc c1f4 003c 87e1 9aba
000000f0: ac07 cc3b 667e 2e3b 5461 ee3b 8e62 1cbc
00000100: cb46 b0bc 0d40 debc f4e1 90bb 428b 83bc
00000110: 63db aabc 0449 003c 9dd5 bebb 5cc2 39bc
00000120: 774f 2c30 7404 04b2 0dc0 d82f f0dd 06b0
00000130: 1f03 d22f 1dfc ab2f 99f3 ddaf 626f aab2
00000140: 0475 5d2f 7c94 b30a 60e6 0400 1025 0580
00000150: f5a7 1000 6977 c026 ce0f 0200 e230 0f00
00000160: 1c76 0f80 d14e 73a7 e71c 27ba 8d46 b83a
00000170: c09c 0b39 80a2 863a 3603 553b bfed 013b
00000180: 770c 42bb b07c 78ba fa78 f7ba 30fb 23bc
00000190: 2304 04bc b53a 01bc 4207 b8bb 886c f9ba
000001a0: e134 81bb 43d0 a3bb 443f babb 77e2 0fbc
000001b0: 2ad0 b53a c2ec d43b 136d af3b 39c8 853b
000001c0: b8bd 163c ab02 013c 108a b6bb 464f 0aba
000001d0: 4b62 dbba b068 80bc 7e07 8bbc 67f1 0bbc
000001e0: 6859 7dbc 53e9 8abc f786 08bc 4967 d6bb
000001f0: 4154 00bc c614 dd3a 5878 75bb a8ab e93b
00000200: 0379 323a 74fd 673b d1d4 9bba 2101 f93b
00000210: 236f 89ba ad1b 393c 05ba e23b 1946 c7bb
00000220: 03a6 1539 ce0d 8dbb 271e 2b3b 9dc4 7cbb
00000230: 5654 3abb 0ed2 f239 4fbe b9bb 6179 36bb
00000240: 95de 0000 3819 0080 bc86 0080 e983 210b
00000250: 09f8 0e80 7aa8 8227 65fd 0080 555e 0b80
00000260: 6b66 0080 001e 573c b276 023d 32bb a43c
00000270: b480 df3c 405d 3a3d 8837 0c3d 07dd a43b
00000280: 8a4d c33c 967a 453c 5e76 4413 36c2 0100
00000290: a8bd 0000 d911 0100 7c33 0000 96d0 0080
000002a0: 719b 0080 5154 0c32 ce0e 0080 4b80 7dbc
000002b0: d8c0 cbbb bfd8 38bc 26d0 60bc 1352 babb
000002c0: d7ab 51bc 5fe7 9dbc 2393 50bc 22c3 a1bc
000002d0: fb49 50bb f48a e53a cb65 8dba 8152 0c3b
000002e0: c11e f23b f9b8 8f3b 9b07 ce3a c613 e73b
000002f0: 3490 733b 6ac9 d110 db03 ca8f 9aa6 9596
00000300: 3b45 2a90 1820 498e d3d8 b7a0 3e2b 322d
00000310: ed97 5c96 0617 8790 f23d af39 61a3 873b
00000320: b040 8ebb add7 8e3b 6d5b 0b3c a568 3db8
00000330: 2bb7 053b e4fd df3b c882 c1ba 185b bb86
00000340: 1f78 6a86 bc5b 3206 6b5d 9386 65e6 a886
00000350: 2764 eb0f e8b5 9f06 4f4c 8786 963f c106
00000360: c56a 0029 5a77 64aa b96f 832f e89b b9aa
00000370: 8939 c3a9 a373 3aaa f57f 1aaa 9503 6c2a
00000380: 45c1 ad2e 2e45 b63b 4215 323c 5d07 b0ba
00000390: a14a c03b fbd8 943b 2c67 b7ba 3f9a 8bb9
000003a0: 3056 6439 2a2a 9fbb 45c2 68bc 35aa 083b
000003b0: 6503 e03c 73f4 0fbd 7529 90bc 431b cc3b
000003c0: 6979 48bd 8f53 fabc 0369 a3bb 773a 2d3c
000003d0: 51fd bc3b aa2f 9a3b 5df5 1d3c b771 8b3b
000003e0: 3f25 043c 27f8 a33b 74a0 6e3c 5c87 d33b
000003f0: 8c5f 9cbb dad7 7e3c 30d8 a3bb 4007 923c

e_conv7.bias f4 [8]
0.007763651 -0.0068571265 0.038470708 0.018712748 -0.0031316264 0.0047982167 -0.008367479 -0.019301362
00000000: 3a66 fe3b bfb1 e0bb 7693 1d3d 7a4b 993c
00000010: f93b 4dbb 5c3a 9d3b c017 09bc e41d 9ebc

e_conv8.weight f4 [8, 64, 3, 3]
0.047364824 0.038625583 0.0030593511 -0.021154035 -0.00090600585 0.010016144 0.0052903825 0.011014759
-0.028209671 -0.015200667 0.008790718 -0.007966431 0.013653326 0.03186033 0.021019027 -0.019993419
0.011890611 0.016991174 -0.00028014818 5.426252e-05 -0.00015113031 2.0319689e-05 8.383783e-05 -0.00015198877
6.4717e-06 8.219403e-06 0.00013311772 -7.754378e-24 6.818072e-24 -5.056256e-25 -2.1475652e-18 2.7287346e-16
-1.0372739e-24 2.584357e-18 5.442557e-18 7.939906e-07 -0.003847446 0.010600671 -0.0051720287 -0.035971813
0.0010850945 0.039072935 -0.029027963 0.016253814 0.01840651 -0.0015095335 0.024354735 0.039818693
0.058435272 -0.009898926 0.018242918 -0.012830862 0.032296848 0.02622699 0.022508644 0.012758232
-0.0059866155 0.014897338 0.009488163 -0.028696302 0.012768974 0.03725528 -0.036099054 0.0094764605
0.0020207223 0.0046209404 -0.008727709 0.0028297454 -0.002453019 -0.0034380846 -0.0051678703 0.0023090362
2.4713952e-08 2.1652411e-07 1.2250054e-07 1.2926743e-07 -5.146632e-06 -8.1204654e-08 -1.0170693e-05 9.343902e-08
1.9918075e-07 1.1472764e-17 1.1631562e-17 1.5138224e-17 5.618103e-10 2.21636e-17 2.4616157e-17 1.1274753e-09
-1.1352335e-12 2.2150601e-17 0.004966847 0.023228891 0.0048449757 0.012282271 0.030558476 0.01391459
-0.006146441 -0.008159103 6.036851e-05 0.005551613 -0.016080152 0.013058615 0.018774332 -0.012336989
-8.100439e-05 0.025551014 0.0065020416 0.024573958 -0.0071214666 0.009017114 0.0025688505 0.031305477
0.039331418 0.008863561 -0.005555119 -0.004973897 -0.0011810134 0.0035871747 0.0074639716 0.00029648296
0.0017514074 0.0068266834 -0.0022773643 -0.001979756 0.0008840581 -0.009153158 0.030221747 0.011025788
-0.0016149189 -0.009098052 -0.017337415 0.012667596 -0.018542428 0.0079120025 0.011366211 0.054389443
0.026620306 0.010308064 0.039284017 0.023711605 0.0031249032 -0.021607425 -0.016028862 0.00064677274
1.017334e-27 -6.4376345e-29 -2.5678e-40 5.504e-42 -1.7142142e-07 5.45e-41 -8.2066e-41 5.2641e-41
-3.9816e-41 0.0019183242 0.003663901 -0.011906988 0.0039212783 -0.002768113 0.00749493 -0.004051449
0.013016704 -0.006246712 1.21917e-40 2.8662e-41 7.1828e-41 -5.7518e-41 3.5298945e-27 -1.4611566e-35
-4.8254e-41 -1.84598e-27 -1.2539038e-32 -0.00050972775 0.010487212 -0.007960454 -0.004045173 0.0247039
-0.0017767176 -0.01562213 -0.011670117 0.023995964 0.0013198472 0.012505034 0.002255138 0.0063315853
0.016457018 0.0044067255 -0.00022816796 0.016878879 0.005841182 1.783383e-06 1.7909199e-06 1.7801987e-06
4.6081286e-06 2.40554e-06 1.6830451e-06 1.7041133e-06 1.8153148e-06 3.1526256e-06 0.005410607 0.038297668
-0.013640989 0.025304204 0.050351065 0.0009012096 0.006698274 0.027542487 -0.010093765 2.6724982e-09
1.1908004e-08 2.4603466e-09 6.911542e-09 7.648369e-09 3.3465286e-09 4.6531916e-09 4.435172e-09 5.733657e-09
-4.680048e-12 4.9660783e-12 5.135587e-09 -5.445571e-12 -4.7013548e-12 3.939788e-11 3.093651e-09 3.5435277e-12
-7.34859e-08 -0.024665717 -0.010220588 0.020971157 0.0026384345 0.0049510803 0.0058114105 -0.0077721393
0.011357239 0.030981911 -0.0034877898 0.0003289365 -0.0050323373 0.00062400126 0.0023261204 -0.0054543302
0.0022668177 0.00432895 -0.0036829598 -0.028426869 0.0014672178 -0.014868694 0.01600054 -0.010982991
-0.0031524212 0.007874263 0.031743575 -0.01760606 -0.004906146 0.011381818 -0.005735232 0.019692918
00000000: 9e01 423d dc35 1e3d 657f 483b 3a4b adbc
00000010: 0681 6dba c11a 243c f25a ad3b 3f77 343c
00000020: f817 e7bc 380c 79bc f206 103c a285 02bc
00000030: 33b2 5f3c fa7f 023d 1830 ac3c 3dc9 a3bc
00000040: d6d0 423c 1331 8b3c dae0 92b9 f097 6338
00000050: bc78 1eb9 3374 aa37 18d2 af38 2d5f 1fb9
00000060: 7b27 d936 11e6 0937 8495 0b39 d2fd 1599
00000070: 75e1 0319 ca7b 1c97 5c76 1ea2 044d 9d25
00000080: a782 a097 20b1 3e22 7fcb c822 9e22 5535
00000090: 6f25 7cbb 70ae 2d3c 1f7a a9bb 2e57 13bd
000000a0: bb39 8e3a f10a 203d 0dcc edbc b826 853c
000000b0: 40c9 963c 8adb c5ba 9583 c73c ed18 233d
000000c0: d359 6f3d 1b2f 22bc 2c72 953c 8938 52bc
000000d0: b349 043d fcd9 d63c 0c64 b83c e707 513c
000000e0: 5f2b c4bb f713 743c 3d74 1b3c 8214 ebbc
000000f0: f534 513c fe98 183d 9adc 13bd 2843 1b3c
00000100: 186e 043b 426b 973b aafe 0ebc 4073 393b
00000110: d4c2 20bb 7d51 61bb 3d57 a9bb 3353 173b
00000120: 8e4a d432 b27d 6834 b188 0334 c3cc 0a34
00000130: 3bb1 acb6 bb62 aeb3 cba2 2ab7 a5a8 c833
00000140: 63de 5534 99a2 5323 8090 5623 1fa0 8b23
00000150: e36d 1a30 526c cc23 420b e323 83f5 9a30
00000160: 19c5 9fab a14d cc23 efc0 a23b 844a be3c
00000170: 9ac2 9e3b 943b 493c c555 fa3c 05fa 633c
00000180: 1668 c9bb c2ad 05bc 3234 7d38 4eea b53b
00000190: 86ba 83bc cdf3 553c a1cc 993c 1521 4abc
000001a0: e7e0 a9b8 5c50 d13c 140f d53b 534f c93c
000001b0: 315b e9bb 84bc 133c 295a 283b 2c3a 003d
000001c0: fb19 213d 7838 113c b707 b6bb 12fc a2bb
000001d0: 3ccc 9aba ce16 6b3b 5594 f43b 4571 9b39
000001e0: 7b8f e53a 5fb2 df3b d53f 15bb cbbe 01bb
000001f0: 23c0 673a 21f7 15bc 9993 f73c 82a5 343c
00000200: b0ab d3ba ff0f 15bc 3207 8ebc c08b 4f3c
00000210: 4ae6 97bc 58a1 013c 5839 3a3c 77c7 5e3d
00000220: d412 da3c 27e3 283c 47e8 203d d73e c23c
00000230: 2dcb 4c3b 0e02 b1bc f64e 83bc 2f8c 293a
00000240: f833 a112 a336 a390 cccb 0280 580f 0000
00000250: f60f 38b4 ec97 0000 c4e4 0080 be92 0000
00000260: fe6e 0080 4770 fb3a 0f1e 703b 8715 43bc
00000270: 117e 803b 3b69 35bb 0898 f53b 04c2 84bb
00000280: 0344 553c 38b1 ccbb db53 0100 e64f 0000
00000290: 3ac8 0000 56a0 0080 62d5 8b13 7760 9b85
000002a0: 8386 0080 ec40 1293 7b36 828a 409f 05ba
000002b0: 8ed2 2b3c 906c 02bc 5f8d 84bb d55f ca3c
000002c0: c0e0 e8ba f6f3 7fbc 0534 3fbc 2f93 c43c
000002d0: b9fe ac3a eae1 4c3c f0ca 133b 3079 cf3b
000002e0: ded0 863c 4b66 903b 5f40 6fb9 9345 8a3c
000002f0: 6367 bf3b 935c ef35 8a5f f035 29ef ee35
00000300: 869f 9a36 dd6e 2136 fde4 e135 e3b8 e435
00000310: bea5 f335 b291 5336 764b b13b 04de 1c3d
00000320: 747e 5fbc c34a cf3c eb3c 4e3d 273f 6c3a
00000330: 327d db3b c8a0 e13c 5260 25bc 16a7 3731
00000340: f593 4c32 e012 2931 917a ed31 e265 0332
00000350: c1f8 6531 e8e1 9f31 2f64 9831 c801 c531
00000360: 20aa a4ac 75ba ae2c 1a75 b031 5899 bfac
00000370: 0a6a a5ac 1246 2d2e 1598 5431 855a 792c
00000380: 4dcf 9db3 c20f cabc 4174 27bc b4cb ab3c
00000390: 96e9 2c3b ac3c a23b a56d be3b 6ead febb
000003a0: b713 3a3c c7cd fd3c 6793 64bb 1c75 ac39
000003b0: 4ee6 a4bb 0494 233a d371 183b 3dba b2bb
000003c0: e48e 143b ddd9 8d3b d05d 71bb 77df e8bc
000003d0: a94f c03a d39b 73bc 9113 833c 01f2 33bc
000003e0: da98 4ebb 0e03 013c 8d05 023d 953a 90bc
000003f0: bcc3 a0bb ce7a 3a3c 9dee bbbb 0b53 a13c

e_conv8.bias f4 [8]
-0.030166417 -0.003164283 0.0014957931 -0.008766523 0.032179244 0.0059688753 -0.008509321 0.019127848
00000000: 901f f7bc dc5f 4fbb 7d0e c43a 76a1 0fbc
00000010: 62ce 033d 8e96 c33b ae6a 0bbc 01b2 9c3c
