snapshots/Epoch107.pth (torch, 304045 bytes, 14 tensors)

e_conv1.weight f4 [32, 3, 3, 3]
0	0x0001097d	9.5239e-41
1	0x800007ad	-2.754e-42
2	0x00013597	1.1106e-40
3	0x0000039b	1.293e-42
4	0x8000b4c2	-6.4844e-41
5	0x8000c7c1	-7.1658e-41
6	0x00003e76	2.2407e-41
7	0x8000c231	-6.9663e-41
8	0x8000fb25	-9.0094e-41
9	0x0000f4b3	8.7782e-41
10	0x00004015	2.2988e-41
11	0x00000955	3.348e-42
12	0x8000c3e3	-7.0271e-41
13	0x8001eb97	-1.76349e-40
14	0x80007daa	-4.508e-41
15	0x800039c6	-2.0725e-41
16	0x00005912	3.1952e-41
17	0x00005041	2.879e-41
18	0x80001051	-5.853e-42
19	0x8000c1e2	-6.9552e-41
20	0x00007d03	4.4846e-41
21	0x800014fe	-7.53e-42
22	0x8000941b	-5.313e-41
23	0x8000583a	-3.165e-41
24	0x0001468f	1.17147e-40
25	0x80013ec6	-1.14354e-40
26	0x0001005f	9.1969e-41
27	0x3b724c4c	0.0036971746
28	0x3b8c9225	0.0042898827
29	0xbbc202fa	-0.005920765
30	0x3c8e4eb1	0.017371507
31	0x3c622a8b	0.013804088
32	0x3ca48471	0.020082684
33	0x3d2536c0	0.040335417
34	0x3cefc317	0.02926783
35	0x3d36574d	0.04451685
36	0x3c04f534	0.008115102
37	0xbbcf910a	-0.0063344287
38	0x3cc539a5	0.024075339
39	0x3bd7b848	0.0065832473
40	0x3c4303a7	0.011902726
41	0x3c977ce8	0.018492177
42	0x3d1f166a	0.038839735
43	0x3d19db16	0.037562452
44	0x3d1267dd	0.035743583
45	0xbc3b1db7	-0.011420659
46	0xbc53b21d	-0.0129208835
47	0xbcdd9a26	-0.027051043
48	0xbc0f35db	-0.0087408675
49	0xbc5cb9d2	-0.013472037
50	0xbc8df3d8	-0.017328188
51	0xbb9d3798	-0.004797887
52	0xbbd93ea9	-0.006629784
53	0x3ca74f89	0.020423668
54	0xbc86de37	-0.016463382
55	0xbd266dd7	-0.040632095
56	0xbcb8c328	-0.022553995
57	0xbbf333d3	-0.0074219494
58	0xbcefe512	-0.029284034
59	0xbcd30732	-0.025760267
60	0x3a615a97	0.0008596568
61	0xbc63282e	-0.01386456
62	0xbc85d69b	-0.016337683
63	0x387cd5fb	6.0280767e-05
64	0x3c00363a	0.007825429
65	0x3b8cbbf9	0.004294869
66	0x3b47f26f	0.0030509492
67	0x3be6bdf4	0.007041687
68	0x3b7b0e57	0.0038308108
69	0x3d2e10fe	0.042496674
70	0x3caa91db	0.020821502
71	0xbc4cbe63	-0.012496564
72	0x3d170c2b	0.03687684
73	0x3d1fbee4	0.039000407
74	0x3d12349c	0.035694703
75	0x3d3e803e	0.04650902
76	0x3d0fb84c	0.03508787
77	0x3d2fa7d6	0.04288467
78	0x3d4cfca3	0.05004562
79	0x3cf3d548	0.029764786
80	0x3cef7d98	0.029234692
81	0xbc1d1d6b	-0.009589533
82	0x3beb935e	0.0071891984
83	0x3c216563	0.009850833
84	0xbce0e15f	-0.027451215
85	0xbc10b228	-0.008831538
86	0x3c0cdaf8	0.008597128
87	0xbce4600b	-0.027877828
88	0xbc4f5eab	-0.012656848
89	0x3ce954a7	0.028482748
90	0xbceb3a07	-0.028714193
91	0x3b5bddcd	0.0033548952
92	0x3c442299	0.011971139
93	0xbca05548	-0.019571915
94	0xbbd73b63	-0.0065683587
95	0x3c21ff51	0.009887532
96	0xbd18a4d5	-0.03726657
97	0x3b5550d6	0.0032549403
98	0x3cde4503	0.027132517
99	0xbbd0d4e0	-0.006373033
100	0x3b0d53f9	0.0021564944
101	0xb9ea2d4c	-0.00044665707
102	0xbc36a542	-0.011147799
103	0x3c04397c	0.008070346
104	0x3b84ea80	0.004056275
105	0xbcda7281	-0.026665928
106	0x3b1ab240	0.002360478
107	0x3ce5243a	0.027971376
108	0x3cdc1900	0.02686739
109	0x3cd17085	0.025566349
110	0x3d8f01cb	0.06982764
111	0x3c462132	0.012092875
112	0x3bdb8109	0.006698732
113	0x3d2fc4ee	0.042912416
114	0xbaf3f870	-0.0018613469
115	0xbb63c6cd	-0.0034755946
116	0x3d00cda4	0.031446114
117	0x3cd61da5	0.026137182
118	0x3cd14cd2	0.025549326
119	0x3d82dea8	0.063901246
120	0x3b38526d	0.0028125301
121	0xbb5bcb3c	-0.0033537885
122	0x3ccb432a	0.0248123
123	0xbbb911ea	-0.0056478875
124	0x3be6b856	0.0070410175
125	0x3d12126e	0.035662107
126	0x3c607049	0.013698646
127	0x3bdf22f0	0.006809585
128	0x3d2dca9c	0.04242955
129	0xbc88fd9e	-0.016722497
130	0xbc79e2cb	-0.015251826
131	0x3c42a534	0.011880208
132	0xbcebcb35	-0.02878342
133	0xbc6a6a33	-0.014307546
134	0x3c232f81	0.009960056
135	0x8000e9b5	-8.3838e-41
136	0x000009c1	3.499e-42
137	0x800022b9	-1.2456e-41
138	0x0001f8bb	1.81063e-40
139	0x8000de5c	-7.9768e-41
140	0x00003564	1.9153e-41
141	0x00000b2c	4.008e-42
142	0x8000f30d	-8.719e-41
143	0x000092c1	5.2645e-41
144	0x80009512	-5.3476e-41
145	0x000092b0	5.2622e-41
146	0x8000c568	-7.0816e-41
147	0x0000a6e2	5.9866e-41
148	0x00014b80	1.1892e-40
149	0x8000d041	-7.4707e-41
150	0x80000a10	-3.61e-42
151	0x00007168	4.0682e-41
152	0x000019cf	9.258e-42
153	0x0000b4a8	6.4807e-41
154	0x8000cf70	-7.4415e-41
155	0x8001a87f	-1.5228e-40
156	0x0000a8e4	6.0587e-41
157	0x0000a2a5	5.8346e-41
158	0x0000a1ca	5.8039e-41
159	0x0000d252	7.5449e-41
160	0x8000a8d2	-6.0561e-41
161	0x000005db	2.1e-42
162	0x3d69610f	0.056977328
163	0x3c93dd04	0.018049724
164	0xbcbd17bc	-0.023082606
165	0x3d1dd33d	0.03853153
166	0x3c660054	0.014038164
167	0xbd13cd05	-0.036084194
168	0x3d1711f3	0.036882352
169	0x398952c9	0.00026192356
170	0xbd1d4174	-0.0383925
171	0x3d61b56c	0.055104658
172	0x3ce54308	0.027986065
173	0xbd16e0a4	-0.036835328
174	0x3d0e1237	0.03468534
175	0x3c4350ef	0.011921152
176	0xbcadf863	-0.021236604
177	0x3cd05be9	0.025434451
178	0xbcce9d2c	-0.02522143
179	0xbd7dbae6	-0.06194582
180	0x3ccbfef6	0.024901848
181	0xbb4f1518	-0.0031598266
182	0xbcdc231f	-0.026872216
183	0x3c7deecf	0.015498831
184	0x3ba2eb34	0.004971886
185	0xbcab4b90	-0.020910054
186	0x3cf9e0b5	0.030502656
187	0xbc8acb9d	-0.016942794
188	0xbd6b6d5f	-0.05747735
189	0x8000d185	-7.5161e-41
190	0x00006372	3.5674e-41
191	0x80006f9d	-4.004e-41
192	0x0000ca89	7.2656e-41
193	0x0001025d	9.2683e-41
194	0x80009e26	-5.6733e-41
195	0x8001ee4b	-1.77319e-40
196	0x800001ab	-5.98e-43
197	0x0000b829	6.6064e-41
198	0x0000fde5	9.108e-41
199	0x0000843a	4.7434e-41
200	0x0000d76d	7.728e-41
201	0x000097a4	5.4398e-41
202	0x80000e30	-5.09e-42
203	0x80000fd3	-5.677e-42
204	0x80000241	-8.09e-43
205	0x800141c5	-1.15429e-40
206	0x80014f09	-1.20188e-40
207	0x800052e5	-2.9737e-41
208	0x8000cdfd	-7.3895e-41
209	0x000000eb	3.3e-43
210	0x800095bd	-5.3716e-41
211	0x0001142f	9.9076e-41
212	0x0000a50d	5.9209e-41
213	0x00014256	1.15632e-40
214	0x00005738	3.1288e-41
215	0x0000f2e9	8.714e-41
216	0x800050d1	-2.8991e-41
217	0x0000bdfa	6.8151e-41
218	0x0000895f	4.928e-41
219	0x00008a7d	4.968e-41
220	0x0000a87f	6.0445e-41
221	0x800037c2	-2.0002e-41
222	0x80011407	-9.902e-41
223	0x00008b11	4.9888e-41
224	0x00002c4e	1.5894e-41
225	0x8000dc79	-7.909e-41
226	0x80003f91	-2.2803e-41
227	0x00001112	6.124e-42
228	0x0000a860	6.0402e-41
229	0x00005444	3.0229e-41
230	0x80000904	-3.234e-42
231	0x0000d9c6	7.8122e-41
232	0x00002dca	1.6426e-41
233	0x00002ce7	1.6108e-41
234	0x8001718f	-1.32573e-40
235	0x800094ca	-5.3375e-41
236	0x00012a52	1.07017e-40
237	0x80001975	-9.132e-42
238	0x00003a87	2.0996e-41
239	0x0000704a	4.0282e-41
240	0x8001200e	-1.03335e-40
241	0x80004861	-2.5965e-41
242	0x8000ccc7	-7.346e-41
243	0xbd6e43c9	-0.058170114
244	0xbcf98a45	-0.03046144
245	0xbd67f200	-0.056627274
246	0xbd013fbf	-0.031554934
247	0xbc8ccc9c	-0.01718741
248	0xbc97508a	-0.018471021
249	0xbc4b94be	-0.0124256
250	0x3c73a951	0.014871911
251	0x3c2031b5	0.009777476
252	0xbd58da13	-0.052942347
253	0xbc7a945a	-0.015294159
254	0xbd1edfa6	-0.038787507
255	0xbca7adbb	-0.020468583

e_conv1.bias f4 [32]
0	0x9e9791f5	-1.6048113e-20
1	0x3d829216	0.0637552
2	0x3ca546be	0.020175334
3	0x3ded8faf	0.11599671
4	0x3d71b58c	0.059011027
5	0x9473896c	-1.22954665e-26
6	0x3d8d015f	0.06885027
7	0xa95f4e09	-4.958363e-14
8	0xa81717c6	-8.387339e-15
9	0x3da03ce8	0.07824117
10	0xa5c1bcd9	-3.360813e-16
11	0x9138370b	-1.4532002e-28
12	0xbc1b2952	-0.009470301
13	0x3d7bdf79	0.061492417
14	0xa0670391	-1.9567641e-19
15	0x3e1a1b56	0.1504949
16	0x3df8b326	0.12143545
17	0x3dc428d6	0.09578101
18	0x3e384d7f	0.17998312
19	0x3e20e058	0.1571058
20	0x8a754fc0	-1.181132e-32
21	0x3e188685	0.14895065
22	0xbc7a9900	-0.015295267
23	0x3df0080a	0.11720283
24	0x9fdabdea	-9.264078e-20
25	0xba8a2f99	-0.001054275
26	0x3d00160f	0.031271037
27	0x893bbe97	-2.2598921e-33
28	0xa6bfd405	-1.3310755e-15
29	0xbc49d273	-0.012318241
30	0x3ddf1932	0.108934775
31	0x9b16750f	-1.2445533e-22

e_conv2.weight f4 [32, 32, 3, 3]
0	0x8000e5b4	-8.2402e-41
1	0x000074dc	4.1921e-41
2	0x8000525d	-2.9546e-41
3	0x80009580	-5.363e-41
4	0x0001f26a	1.78797e-40
5	0x80005a60	-3.242e-41
6	0x00005d4e	3.3471e-41
7	0x80002c16	-1.5815e-41
8	0x0000a70a	5.9922e-41
9	0x3be78d5a	0.007066411
10	0xbc724dae	-0.014789028
11	0x3b3f9cbd	0.002923771
12	0xbb61c851	-0.0034451673
13	0xba84b491	-0.0010124614
14	0xbbbec535	-0.0058218488
15	0x3c24270b	0.010019074
16	0x3cb1c09c	0.021698289
17	0x3a3c3873	0.00071800424
18	0xbbe87e00	-0.0070950985
19	0xbc0e794f	-0.008695914
20	0xbbc7fc22	-0.0061030546
21	0x3b2e7355	0.0026619036
22	0xbb901da6	-0.0043980656
23	0xbb861516	-0.004091869
24	0x3b8d9081	0.0043202047
25	0x3ad1ee47	0.0016016447
26	0x3b878e1a	0.004136813
27	0xbca11bdc	-0.019666605
28	0x3c795cac	0.015219849
29	0x3ce9631c	0.028489642
30	0xbc3f64e2	-0.011681767
31	0xbb97df5d	-0.0046347813
32	0xbb6ca436	-0.003610862
33	0xbce63e8b	-0.028105995
34	0x3b83f9f0	0.0040275976
35	0x3c61354b	0.013745616
36	0xb816578d	-3.5844325e-05
37	0xbb04b04d	-0.0020246685
38	0xba58c004	-0.00082683587
39	0x3c0bccfb	0.008532758
40	0xbc3d33e6	-0.011548018
41	0x3ba93445	0.0051637017
42	0x3c26147b	0.010136719
43	0xbc629850	-0.013830259
44	0xbc01a046	-0.007911747
45	0x80007e83	-4.5384e-41
46	0x8000e3a3	-8.166e-41
47	0x00004b5b	2.7032e-41
48	0x800138f8	-1.12272e-40
49	0x00015641	1.22778e-40
50	0x80002a36	-1.5142e-41
51	0x8000705f	-4.0311e-41
52	0x0000740a	4.1627e-41
53	0x8000d527	-7.6465e-41
54	0x3ad89b03	0.0016525689
55	0x3bc24b16	0.005929361
56	0xbb064315	-0.0020486761
57	0xbaf272c9	-0.0018497343
58	0x3b69154e	0.0035565677
59	0x3b8fec06	0.00439215
60	0x3baaaa86	0.0052083163
61	0x3bb0b30a	0.005392437
62	0x3c3456bf	0.01100701
63	0x00015506	1.22336e-40
64	0x00017a75	1.35765e-40
65	0x8001c60c	-1.62881e-40
66	0x8000154f	-7.644e-42
67	0x0000e581	8.233e-41
68	0x00012b79	1.0743e-40
69	0x0000afd4	6.3075e-41
70	0x0000124f	6.568e-42
71	0x8001acb5	-1.53791e-40
72	0x00012934	1.06616e-40
73	0x80010ef5	-9.7201e-41
74	0x8000bd0c	-6.7817e-41
75	0x0000cee3	7.4217e-41
76	0x8000de91	-7.9842e-41
77	0x8000b801	-6.6008e-41
78	0x8000cc3a	-7.3263e-41
79	0x000116fe	1.00084e-40
80	0x800067a1	-3.7175e-41
81	0x3bf7b763	0.007559703
82	0x3ac42f01	0.0014967622
83	0x3c01eabb	0.007929499
84	0xbb2ded80	-0.0026539266
85	0x3b1a50ca	0.002354669
86	0x3b9d8eb8	0.004808273
87	0x3aa5987e	0.0012633947
88	0x3a04c741	0.00050650915
89	0xba7093a9	-0.00091772765
90	0x80000f9a	-5.597e-42
91	0x000025f0	1.361e-41
92	0x000031e4	1.7897e-41
93	0x8000e5d0	-8.2441e-41
94	0x800012c4	-6.732e-42
95	0x80002b02	-1.5428e-41
96	0x0000bbf5	6.7426e-41
97	0x80002ad7	-1.5368e-41
98	0x000060ee	3.4772e-41
99	0x80004654	-2.5229e-41
100	0x80001f77	-1.1287e-41
101	0x8000e7b2	-8.3117e-41
102	0x0000ea71	8.4102e-41
103	0x0000bd84	6.7985e-41
104	0x00001dd8	1.0706e-41
105	0x8001d2ef	-1.67504e-40
106	0x800098ad	-5.477e-41
107	0x0000fb88	9.0232e-41
108	0xbb2aaf77	-0.0026044527
109	0xbb2639ea	-0.002536411
110	0xbaf8e456	-0.0018988948
111	0x3a516989	0.0007988443
112	0x39b046bd	0.0003362204
113	0x39fcbf2b	0.00048207617
114	0x3aea21d5	0.0017862866
115	0x3a9fb0e7	0.0012183458
116	0x3a3d7d8e	0.0007228487
117	0x3afe691d	0.0019409988
118	0x3bef3f8a	0.0073012756
119	0x3b52782f	0.0032115092
120	0x3b3295b3	0.0027249872
121	0x3acf20a0	0.001580257
122	0x3b0c4ee4	0.0021409327
123	0xba593457	-0.00082856923
124	0x3b9d3e1b	0.0047986633
125	0x3ad4ae68	0.0016226294
126	0x80007f17	-4.5591e-41
127	0x80001367	-6.96e-42
128	0x0000f5dd	8.8199e-41
129	0x0000b4a4	6.4802e-41
130	0x0000cb72	7.2982e-41
131	0x000002c7	9.96e-43
132	0x00002cff	1.6142e-41
133	0x8000616d	-3.495e-41
134	0x8000d8d3	-7.7782e-41
135	0x3bb8592f	0.005625866
136	0x3c31db43	0.010855499
137	0x3b874483	0.0041280403
138	0x3c56574c	0.013082337
139	0x3c6b6a0f	0.014368548
140	0x3c45e5d5	0.012078722
141	0xbaf95f3d	-0.0019025576
142	0xbc773d5b	-0.015090312
143	0xbbb69dfd	-0.005573033
144	0xbc3813db	-0.011235203
145	0xbc6192c3	-0.013767901
146	0xbba09c51	-0.004901447
147	0xbc7b296d	-0.015329701
148	0x3c453f7b	0.012039061
149	0x3c5f68f9	0.013635867
150	0xbcbdd941	-0.023174884
151	0x3aa7843d	0.0012780499
152	0x3a1f3195	0.0006072757
153	0x3c3f8741	0.011689962
154	0x396cd5c4	0.00022586348
155	0x3b191fa4	0.0023364807
156	0xbb4d4945	-0.003132419
157	0x3bd7c71d	0.0065850154
158	0x3b949960	0.0045348853
159	0x3b7b6246	0.0038358136
160	0x3c21ff23	0.0098874895
161	0x3c4559d7	0.012045345
162	0x3a50b1c3	0.0007961059
163	0xbc97beb4	-0.018523552
164	0xbc51d92f	-0.012808128
165	0xbad560c2	-0.0016279446
166	0x3a4d3437	0.000782791
167	0x3c7dc53d	0.01548892
168	0xbcf31045	-0.029670844
169	0x3c631735	0.013860513
170	0x3cefb823	0.029262608
171	0x3c8693d5	0.016427914
172	0x3c82de61	0.01597518
173	0xba32c777	-0.0006819884
174	0x3bccc29b	0.0062487847
175	0x3c0a5d8a	0.008445153
176	0xb990dbd3	-0.00027629602
177	0xbc0824af	-0.008309527
178	0xbbb15028	-0.0054111667
179	0x3cb7d196	0.022438806
180	0x07354124	1.363607e-34
181	0x09d15c37	5.040164e-33
182	0x09ae6796	4.1986388e-33
183	0x09698b6e	2.8111914e-33
184	0x08233a16	4.911931e-34
185	0x09a8d168	4.0641454e-33
186	0x08d1c493	1.2624944e-33
187	0x08c97c1f	1.2126428e-33
188	0x09aa0516	4.0930794e-33
189	0xbc85f2f9	-0.01635121
190	0x3c394e15	0.01131012
191	0x3c7fb8ed	0.015608055
192	0xbc76c792	-0.01506223
193	0x3d22c71c	0.039740667
194	0x3cdb827d	0.02679562
195	0x3c20bd60	0.0098107755
196	0x3cc715d5	0.024302403
197	0x3c767ec5	0.015044873
198	0x3b17749b	0.0023110274
199	0x3b26c973	0.0025449663
200	0xbb9b1743	-0.0047329976
201	0xbb08d720	-0.0020880178
202	0x38403919	4.5829544e-05
203	0xbb358927	-0.0027700157
204	0xbbeb75c4	-0.0071856696
205	0x3b4df24a	0.0031424933
206	0xbbd60b3f	-0.0065321024
207	0x3c598b99	0.013277912
208	0x3c2779ef	0.010221942
209	0x3c8c3174	0.017113425
210	0x3c0b31d9	0.008495771
211	0x3c773e44	0.015090529
212	0x3b948648	0.004532609
213	0xbcd8d510	-0.026468784
214	0x3c90fb7d	0.017698044
215	0xbaccbfc7	-0.0015621119
216	0x80003407	-1.8664e-41
217	0x0000c9e0	7.2419e-41
218	0x0000442c	2.4455e-41
219	0x8000e81f	-8.327e-41
220	0x00009ca7	5.6196e-41
221	0x00006c98	3.8956e-41
222	0x8000090e	-3.248e-42
223	0x8000c689	-7.1221e-41
224	0x80011378	-9.882e-41
225	0x36cd79f0	6.1236715e-06
226	0x36c91966	5.9932236e-06
227	0x36bef81f	5.6913264e-06
228	0x36e82cff	6.919377e-06
229	0x36d0fc64	6.228265e-06
230	0x36c7bf40	5.9529266e-06
231	0x36e2355e	6.7415376e-06
232	0x36d89e12	6.4557034e-06
233	0x36da5069	6.5062673e-06
234	0x3b5c9fa4	0.003366449
235	0x3aece464	0.0018073437
236	0x3b8ad3b0	0.004236661
237	0xbb4f81f8	-0.003166316
238	0xbb7cce9b	-0.0038575295
239	0xbc45bb2c	-0.012068551
240	0x3c4fb246	0.012676781
241	0xbbe398ad	-0.0069456906
242	0xbc8887fd	-0.016666407
243	0x00005626	3.0904e-41
244	0x800049c0	-2.6457e-41
245	0x000080d1	4.621e-41
246	0x8000ff61	-9.1613e-41
247	0x80013df9	-1.14067e-40
248	0x80008f3f	-5.1387e-41
249	0x00005f54	3.4197e-41
250	0x0000de5a	7.9765e-41
251	0x0000c3ac	7.0194e-41
252	0x0a53931f	1.0186951e-32
253	0x89b3ce59	-4.328673e-33
254	0x0986b191	3.242631e-33
255	0x0923cbf9	1.9716319e-33

e_conv2.bias f4 [32]
0	0xbd069d9b	-0.032865148
1	0xb7fcd390	-3.0139257e-05
2	0x3d31ae8c	0.04337935
3	0xba2c615f	-0.0006575789
4	0x3d1e1b05	0.038599987
5	0x3d07f0a3	0.033188473
6	0x3ad1ac58	0.0015996797
7	0x3d3276d9	0.043570373
8	0x3d60c012	0.054870673
9	0x3d11d517	0.03560361
10	0xbcd69304	-0.02619315
11	0xb58a3b6c	-1.0299095e-06
12	0xa5bff960	-3.3302201e-16
13	0xbc063c8d	-0.008193147
14	0x3c258065	0.010101412
15	0xa400488d	-2.781703e-17
16	0x3d021957	0.031762447
17	0x3c410587	0.011781103
18	0xb8cc4c1d	-9.741655e-05
19	0xbc42ede2	-0.011897536
20	0xac0f0cca	-2.0328622e-12
21	0x3c7d1ff0	0.015449509
22	0xb97d92f8	-0.0002418271
23	0x3d1fbc64	0.038998023
24	0xa3db3eef	-2.3770681e-17
25	0x3d6193c9	0.05507258
26	0x3d3d7ebc	0.04626344
27	0xb7969eef	-1.7955403e-05
28	0xa5898879	-2.385819e-16
29	0x3a1fb11c	0.000609176
30	0xb9b964f5	-0.0003536117
31	0x3d4dd45f	0.05025136

e_conv3.weight f4 [32, 64, 3, 3]
0	0x00007ef8	4.5548e-41
1	0x000009db	3.535e-42
2	0x0000fa31	8.9752e-41
3	0x00003ba7	2.1399e-41
4	0x8000eabd	-8.4208e-41
5	0x0001c249	1.61532e-40
6	0x0000c4c1	7.0582e-41
7	0x00009f74	5.7201e-41
8	0x8000a80f	-6.0288e-41
9	0xb99d7b84	-0.000300374
10	0x3c4ffcd4	0.012694556
11	0x3c9005fd	0.01758098
12	0xbc03d6cd	-0.008046818
13	0x3b9af09e	0.004728391
14	0x3c0c778b	0.008573423
15	0xbcd4fc9a	-0.025999356
16	0xbbfd13a6	-0.0077232895
17	0xbc009cb8	-0.007849865
18	0xbb909fc1	-0.0044135754
19	0x3bdc5a24	0.006724613
20	0x3bdf333e	0.0068115285
21	0xbbad576c	-0.0052899625
22	0x3baca0b0	0.005268179
23	0x3b94035d	0.0045170025
24	0xbc468671	-0.012117014
25	0xbb8ba13d	-0.0042611645
26	0xbba8cd29	-0.00515141
27	0x3bb061fe	0.0053827753
28	0x3bd8cf8a	0.0066165375
29	0x3c039de5	0.00803325
30	0x3abd203c	0.0014429162
31	0x3b6e4f13	0.003636305
32	0x3b8112f8	0.003939029
33	0xbc107a56	-0.00881823
34	0xbc306acf	-0.010767653
35	0xbc6b0ad2	-0.0143458415
36	0xb94c9d51	-0.00019513561
37	0x3c74ac08	0.014933594
38	0x3c7337ca	0.014844844
39	0xbad9d1cd	-0.0016618312
40	0x3c0d7fec	0.008636456
41	0x3bd2adcc	0.0064294096
42	0xbc728515	-0.014802237
43	0xbc0ffba9	-0.008788028
44	0xbbff9f98	-0.0078010075
45	0x00008dc4	5.0856e-41
46	0x0000f873	8.9127e-41
47	0x00006318	3.5548e-41
48	0x00008112	4.6302e-41
49	0x80004c4e	-2.7373e-41
50	0x00000ef3	5.363e-42
51	0x000133eb	1.1046e-40
52	0x80002490	-1.3116e-41
53	0x000156f4	1.23028e-40
54	0x368fe342	4.2881884e-06
55	0x3c015906	0.00789476
56	0x3aa63497	0.0012680468
57	0x3a4ad18e	0.00077369146
58	0x3c568c53	0.013094979
59	0x3bf34636	0.0074241413
60	0xbbbe1317	-0.0058006155
61	0x3b6e4bad	0.0036361024
62	0xbbc59c02	-0.0060305605
63	0x00002c4a	1.5888e-41
64	0x80011535	-9.9443e-41
65	0x00004c74	2.7426e-41
66	0x8000f96e	-8.9479e-41
67	0x80013a3e	-1.12729e-40
68	0x8001325c	-1.09901e-40
69	0x80007242	-4.0988e-41
70	0x00008bec	5.0195e-41
71	0x80008296	-4.6845e-41
72	0x80012577	-1.05275e-40
73	0x00017886	1.35071e-40
74	0x80005d61	-3.3498e-41
75	0x00007bcc	4.441e-41
76	0x00011b5c	1.0165e-40
77	0x800096ae	-5.4054e-41
78	0x800156da	-1.22992e-40
79	0x80010ea5	-9.7089e-41
80	0x00007207	4.0905e-41
81	0x3b0a4261	0.0021096694
82	0x3b74658a	0.0037291967
83	0xbb745bbf	-0.003728613
84	0x3ba0a84c	0.004902875
85	0x3b7e0f17	0.0038766318
86	0xbb4987d2	-0.0030751121
87	0xbb1d302a	-0.0023985007
88	0xbb82fc72	-0.003997379
89	0xbbf663d6	-0.0075192256
90	0x000091bf	5.2284e-41
91	0x0001096a	9.5213e-41
92	0x80008409	-4.7365e-41
93	0x8000f73a	-8.8688e-41
94	0x0000f1f1	8.6792e-41
95	0x00005cdd	3.3313e-41
96	0x0000c4a7	7.0546e-41
97	0x00005d76	3.3527e-41
98	0x0000423a	2.3758e-41
99	0x800180f1	-1.38091e-40
100	0x80011ed1	-1.0289e-40
101	0x000010b8	5.998e-42
102	0x80000b2f	-4.012e-42
103	0x00000727	2.566e-42
104	0x00006434	3.5946e-41
105	0x8000bb3b	-6.7166e-41
106	0x0000ed10	8.5042e-41
107	0x0000968c	5.4006e-41
108	0xbab9a790	-0.0014164317
109	0xb9faae46	-0.0004781356
110	0xba6d94cc	-0.0009063005
111	0x38b4acde	8.615268e-05
112	0x377c63df	1.50436235e-05
113	0xb986b23e	-0.00025691272
114	0x3a005b51	0.00048964197
115	0x39318ec2	0.00016933217
116	0x3a146127	0.0005660229
117	0xbbb6b3c2	-0.005575628
118	0xbafe01fc	-0.0019379253
119	0xbb7bf5ea	-0.0038446137
120	0xbbe75ff9	-0.0070610014
121	0xbb4a1b47	-0.0030839012
122	0xbb980d9d	-0.0046402947
123	0xbc50483c	-0.0127125345
124	0xbc12def5	-0.00896429
125	0xbc30fd34	-0.010802556
126	0x8000e5d0	-8.2441e-41
127	0x000003c3	1.35e-42
128	0x80007418	-4.1647e-41
129	0x800050ef	-2.9034e-41
130	0x0000daf3	7.8544e-41
131	0x0000419c	2.3536e-41
132	0x000112d5	9.8591e-41
133	0x80001356	-6.936e-42
134	0x8000e6aa	-8.2747e-41
135	0xbc81e54a	-0.015856404
136	0x3bfa9e27	0.0076482478
137	0x3c858190	0.016297132
138	0xb9d27531	-0.00040141636
139	0x3b856012	0.0040702904
140	0x3bee4364	0.007271217
141	0xbd233c91	-0.039852683
142	0xbcb4e6f7	-0.022082789
143	0xbc6bc3eb	-0.014389972
144	0xba971b53	-0.0011528529
145	0x3c03bc22	0.00804046
146	0x3c807ecd	0.015685463
147	0xbc09148c	-0.008366715
148	0x3c03d732	0.008046912
149	0xbae87060	-0.0017733686
150	0xbcd2a08d	-0.025711322
151	0xbc0f0b6f	-0.008730753
152	0xbc0c99cc	-0.00858159
153	0x3ac6cd60	0.0015167408
154	0x3b9a88d5	0.0047160187
155	0x39f60689	0.00046925645
156	0x3a4d0323	0.0007820597
157	0x3bddfe69	0.006774713
158	0x3b39c204	0.0028344402
159	0xbc0b3cc6	-0.008498376
160	0xbb458921	-0.003014155
161	0xbc0d1f4b	-0.008613418
162	0xba5ef3c2	-0.00085049507
163	0x3c6d20d2	0.014473157
164	0x3c91581a	0.017742205
165	0x3a263d0a	0.0006341493
166	0x3b1e7a8e	0.0024181935
167	0x3ca0a319	0.019609021
168	0xbd0b251a	-0.03397093
169	0xbc838c72	-0.01605818
170	0xbbf6f58f	-0.007536597
171	0x3bced69f	0.006312206
172	0x3b877372	0.004133635
173	0x3bfbb92c	0.0076819863
174	0x3a8a34d3	0.0010544307
175	0x38c236ac	9.260824e-05
176	0xbbd6fa27	-0.006560582
177	0xbc8d2e01	-0.01723385
178	0xbc5122bc	-0.012764629
179	0xbc2ecc9d	-0.010668901
180	0x8884ee4d	-8.000485e-34
181	0x081c763c	4.7083526e-34
182	0x0878ee96	7.491024e-34
183	0x89f0d74a	-5.7980355e-33
184	0x89bd7736	-4.56122e-33
185	0x89a2f0e0	-3.92266e-33
186	0x05a5bced	1.5585926e-35
187	0x081fb57e	4.8060665e-34
188	0x8a035f77	-6.3253755e-33
189	0xbb1321ed	-0.0022450641
190	0x3ba7a344	0.0051158983
191	0x3b08910f	0.0020838415
192	0xbb26c266	-0.002544546
193	0x3c1f9525	0.009740149
194	0x3c484a15	0.012224694
195	0xbcb95010	-0.022621185
196	0xbc96ec04	-0.018423088
197	0xbbae214e	-0.005314029
198	0xbbae1678	-0.005312737
199	0x3b9b9715	0.004748235
200	0x3c71ecde	0.014765946
201	0xbc652787	-0.013986475
202	0xbb00fe22	-0.0019682725
203	0x3bfa9758	0.007647436
204	0xbcaf2cfb	-0.021383753
205	0xbc29708d	-0.010341776
206	0xbb21484e	-0.0024609747
207	0xbb3702c2	-0.0027925228
208	0x3be418d4	0.0069609676
209	0x3b4abeec	0.0030936552
210	0x3aab93c6	0.0013090305
211	0x3c1a74b6	0.00942724
212	0x3c09ee19	0.008418583
213	0xbc4fd07e	-0.012683986
214	0xbb9dc61e	-0.004814877
215	0xbb856f8d	-0.004072136
216	0x0000ffaa	9.1715e-41
217	0x80008d92	-5.0786e-41
218	0x800178fd	-1.35238e-40
219	0x800058a6	-3.1801e-41
220	0x00010913	9.5091e-41
221	0x8001b516	-1.56797e-40
222	0x0000c4b5	7.0565e-41
223	0x800073c1	-4.1525e-41
224	0x00007302	4.1257e-41
225	0xb5c23ccf	-1.4471824e-06
226	0xb5b57904	-1.3520771e-06
227	0x359a71f4	1.1507059e-06
228	0xb571365c	-8.98586e-07
229	0xb55b73d9	-8.175244e-07
230	0x3517111b	5.6276775e-07
231	0xb5af3dfc	-1.3056556e-06
232	0xb5b95806	-1.3809192e-06
233	0xb50e7f9f	-5.3084835e-07
234	0xbb9bd0fc	-0.0047551375
235	0x3b42861d	0.0029681989
236	0x3c433102	0.01191354
237	0xbbfe812e	-0.0077668643
238	0x3c99e987	0.018788112
239	0x3bf647fc	0.0075159054
240	0xbcb34e14	-0.021887816
241	0xbc2e329f	-0.010632186
242	0xbc139470	-0.009007558
243	0x0000ffac	9.1718e-41
244	0x0000c5aa	7.0909e-41
245	0x00019bed	1.47771e-40
246	0x0000fb1e	9.0084e-41
247	0x0000779e	4.291e-41
248	0x000197bb	1.46266e-40
249	0x000105cf	9.3919e-41
250	0x0000ea1a	8.398e-41
251	0x00004056	2.308e-41
252	0x0a86350f	1.2923689e-32
253	0x8aae994e	-1.6813257e-32
254	0x8a9b1cba	-1.4936763e-32
255	0x0a8cc555	1.3555738e-32

e_conv3.bias f4 [32]
0	0x3d1cc0f4	0.038269952
1	0x3cf95164	0.030434318
2	0xb9231a7a	-0.00015554755
3	0x3c2905a3	0.010316285
4	0x3d1d0dfe	0.038343422
5	0xb87d3a2a	-6.037407e-05
6	0xbc52cea4	-0.01286665
7	0xb7afb657	-2.0946534e-05
8	0x3d0b5daf	0.03402489
9	0x3bb7e4dd	0.0056119994
10	0x3d058de7	0.03260603
11	0x8b913e32	-5.594555e-32
12	0xba58a10f	-0.00082637457
13	0x99f51bb1	-2.534359e-23
14	0xb7336d58	-1.069469e-05
15	0xb862c145	-5.4062595e-05
16	0x3dacbf51	0.08434928
17	0xbc5449cb	-0.012957047
18	0x3d8c60ab	0.068543755
19	0xbc0de2e7	-0.008660055
20	0xba8cafcd	-0.0010733545
21	0x3c97e412	0.01854137
22	0xba8496f8	-0.0010115793
23	0xbc22a79f	-0.009927659
24	0x3c55af50	0.013042286
25	0xb894dd64	-7.098427e-05
26	0x3bb1a05c	0.0054207277
27	0x3d20bfe6	0.03924551
28	0xba657e60	-0.0008754488
29	0xbc910dbf	-0.01770675
30	0x3d12609e	0.035736673
31	0xbc8fed08	-0.01756908

e_conv4.weight f4 [32, 64, 3, 3]
0	0xbb349ece	-0.0027560475
1	0x3c23a277	0.009987465
2	0xbd04ac5f	-0.03239095
3	0x3b8f2a49	0.0043690545
4	0xbbbb86df	-0.005722865
5	0xbbd52437	-0.0065045613
6	0x3c4bdc02	0.012442591
7	0xbb482ee0	-0.0030545518
8	0xbc31a56b	-0.010842661
9	0x227ab706	3.397821e-18
10	0x22704039	3.2560064e-18
11	0x2249eaee	2.736495e-18
12	0x224e2b68	2.7941185e-18
13	0x22967af7	4.0787776e-18
14	0x2227eef9	2.2759231e-18
15	0x226ebca5	3.2354882e-18
16	0x2221c24f	2.1922435e-18
17	0x22109db8	1.9599135e-18
18	0x3930aa5d	0.00016848133
19	0x3b1c17cc	0.0023817895
20	0x3ad936bd	0.0016572099
21	0xba48790d	-0.00076474325
22	0x3aa82785	0.001282916
23	0x381703a5	3.60046e-05
24	0xbb76e532	-0.0037673232
25	0xbb0014da	-0.0019543678
26	0xbb92304e	-0.004461325
27	0xa921359f	-3.579569e-14
28	0xa923619d	-3.6277937e-14
29	0xa92517ee	-3.6658116e-14
30	0xa951b6af	-4.6565775e-14
31	0xa95d67be	-4.916184e-14
32	0xa9422df7	-4.311652e-14
33	0xa95f0d0d	-4.9527267e-14
34	0xa959a1d8	-4.8324056e-14
35	0xa9588a65	-4.8081673e-14
36	0xbab40944	-0.0013735672
37	0xbbd0922f	-0.0063650827
38	0xbca0d4a8	-0.019632652
39	0xbb5e4496	-0.0033915392
40	0x3d09cf3f	0.03364491
41	0xb9b844af	-0.00035146388
42	0xbcd7d30a	-0.026345748
43	0xbbcf1dc2	-0.006320686
44	0x3aa344a2	0.0012456367
45	0xbb11ae1b	-0.002222902
46	0x393abd70	0.00017808913
47	0xbb9789c6	-0.004624578
48	0x3a0287b6	0.0004979329
49	0x3b04a069	0.0020237213
50	0xbb52c4af	-0.003216069
51	0x3b417b01	0.002952278
52	0x3b960cb2	0.00457915
53	0xb9a88c17	-0.00032147832
54	0x3acfac1a	0.0015844137
55	0x3b0f5fda	0.00218772
56	0x3aa34a10	0.0012457985
57	0xbbaa7597	-0.005202006
58	0x3a9d7ec4	0.0012015929
59	0xbaab35c3	-0.0013062287
60	0xbabc1342	-0.0014349001
61	0xb727a732	-9.992904e-06
62	0xb9ce9494	-0.0003940208
63	0xbc2feb8d	-0.010737312
64	0xbc5fad0e	-0.013652099
65	0xbca7dd03	-0.020491129
66	0xbc941a22	-0.018078867
67	0x3c6f7b55	0.014616807
68	0x3beed0fb	0.007288096
69	0xbc0724c9	-0.008248516
70	0x3bbc2232	0.005741381
71	0xbbf5e909	-0.0075045866
72	0xbc7c57ad	-0.015401763
73	0x3bbabe19	0.005698931
74	0x3c242534	0.010018636
75	0xbbf0669f	-0.007336452
76	0x3cc1853a	0.023623098
77	0xbbade9bf	-0.0053074057
78	0xbb9dd1f2	-0.004816287
79	0xbc090a2a	-0.00836424
80	0xbc98128e	-0.018563535
81	0xbc602498	-0.0136806
82	0x3964036f	0.00021745054
83	0xbc89e3e2	-0.016832296
84	0x3cb2956c	0.021799766
85	0xbc1ff870	-0.009763822
86	0x3c366d94	0.011134524
87	0x3b6e4a9c	0.0036360389
88	0x3b0c3280	0.0021392405
89	0xbc1d4520	-0.009599
90	0x3bd3b8a9	0.006461222
91	0xbc74925c	-0.014927473
92	0xbbc5d626	-0.0060374914
93	0xbc370e24	-0.011172805
94	0x3c4fa14c	0.0126727335
95	0x3d0b9a86	0.034082912
96	0xbc10b99d	-0.008833316
97	0x3c575ae9	0.013144233
98	0x3ad45289	0.0016198914
99	0x87a12e5c	-2.4251835e-34
100	0x86bd7c95	-7.1276955e-35
101	0x88b86171	-1.1097006e-33
102	0x8851166c	-6.2920007e-34
103	0x09c629e6	4.7706167e-33
104	0x88877c64	-8.154261e-34
105	0x86990b88	-5.7569147e-35
106	0x85f35065	-2.2881142e-35
107	0x8828fd0e	-5.0853125e-34
108	0x003d9f8b	5.659198e-39
109	0x81b44061	-6.6213936e-38
110	0x00454c8a	6.364106e-39
111	0x005353d4	7.652418e-39
112	0x00511895	7.447494e-39
113	0x81318754	-3.260686e-38
114	0x0052d39c	7.606422e-39
115	0x8057837d	-8.036857e-39
116	0x81309ed6	-3.2440054e-38
117	0xbc27929d	-0.010227826
118	0x3cc5f33f	0.02416384
119	0x3bfe242a	0.007755776
120	0x3c053cc1	0.008132161
121	0x3c7377b3	0.0148600815
122	0xbbc1718e	-0.0059034294
123	0xbd28feb0	-0.041258514
124	0x3cbae8f5	0.02281616
125	0xbadb4f3c	-0.0016731988
126	0xbb011040	-0.0019693524
127	0xba8248ef	-0.0009939949
128	0xbac04dc1	-0.001467161
129	0xba2eab87	-0.0006663133
130	0xba477be9	-0.00076097116
131	0xbb21ddc5	-0.0024698835
132	0x3a4284ac	0.00074202823
133	0xb9beaa40	-0.0003636647
134	0xbb522e86	-0.0032071187
135	0x8000d6b1	-7.7017e-41
136	0x00009586	5.3639e-41
137	0x00004be5	2.7226e-41
138	0x80003ad5	-2.1105e-41
139	0x800070fa	-4.0528e-41
140	0x000023e6	1.2878e-41
141	0x800031fe	-1.7934e-41
142	0x0000d8ea	7.7814e-41
143	0x00002106	1.1847e-41
144	0x3b77a2bd	0.0037786209
145	0xbd289ee2	-0.041167147
146	0xbca80901	-0.020512106
147	0xbca4a235	-0.020096878
148	0xbcd2bcd6	-0.02572481
149	0x3c30ee04	0.010798935
150	0x3c2e648c	0.010644089
151	0x3c698915	0.014253874
152	0x3cd8557e	0.026407953
153	0x3ae1de54	0.0017232397
154	0xbab69cee	-0.0013932267
155	0xba9e7577	-0.0012089451
156	0x3aa487a0	0.0012552626
157	0xbb07c50e	-0.002071682
158	0xbb087daf	-0.0020826866
159	0x372ade8d	1.0184606e-05
160	0xbb742950	-0.003725607
161	0xbb7cbf0e	-0.0038566026
162	0x9d68b11d	-3.079651e-21
163	0x9d986f46	-4.034912e-21
164	0x9d2ad6af	-2.2610301e-21
165	0x9cc023b7	-1.2714726e-21
166	0x9da68570	-4.4077805e-21
167	0x1c69d328	7.7366146e-22
168	0x9d1b60c3	-2.0564104e-21
169	0x9cb08fb3	-1.1683848e-21
170	0x9d81c4fa	-3.4349685e-21
171	0xbba83539	-0.0051332978
172	0xbc131c5a	-0.0089789275
173	0x3ba94830	0.005166076
174	0xbb8d2557	-0.00430743
175	0x3bacc537	0.0052725333
176	0xbb7818ac	-0.0037856502
177	0xbb036012	-0.0020046276
178	0x3bd96530	0.006634377
179	0xbbafdc0c	-0.005366808
180	0x000106e0	9.4302e-41
181	0x00008643	4.8164e-41
182	0x8000e81e	-8.3268e-41
183	0x800087a8	-4.8664e-41
184	0x80007379	-4.1424e-41
185	0x0000f8e7	8.929e-41
186	0x80003ca0	-2.1748e-41
187	0x80001915	-8.998e-42
188	0x0000d369	7.584e-41
189	0x3b6cf913	0.0036159202
190	0xb9045797	-0.00012621131
191	0xbb06e967	-0.0020585896
192	0x3b2cf6d9	0.002639225
193	0xba8d020f	-0.001075806
194	0xbb848d22	-0.0040451447
195	0x3ba59cef	0.0050541083
196	0x3ab81249	0.0014043535
197	0xbb1fbbf5	-0.0024373506
198	0xb25a336a	-1.270096e-08
199	0xb256574f	-1.2476291e-08
200	0xb248115a	-1.16454775e-08
201	0xb241d1fa	-1.1281822e-08
202	0xb24fb23a	-1.208951e-08
203	0xb24e788e	-1.2018189e-08
204	0xb240fbc9	-1.123312e-08
205	0xb24579f8	-1.1494642e-08
206	0xb2438f90	-1.1383136e-08
207	0xbb1d588c	-0.0024009077
208	0xbb479e39	-0.0030459298
209	0xbafa4c64	-0.0019096253
210	0xbb474991	-0.003040884
211	0x3a6fb61f	0.00091442646
212	0x3b32738d	0.0027229518
213	0xbb2e4461	-0.002659105
214	0x39b84134	0.00035143795
215	0xba42ccde	-0.000743104
216	0x8000230a	-1.257e-41
217	0x00001b12	9.711e-42
218	0x00004881	2.601e-41
219	0x00000d62	4.801e-42
220	0x0000369d	1.9592e-41
221	0x000005ac	2.035e-42
222	0x0000620d	3.5174e-41
223	0x0000377e	1.9907e-41
224	0x000002ea	1.045e-42
225	0xba06864d	-0.0005131707
226	0xbbe27402	-0.006910802
227	0xbbb6fcab	-0.0055843196
228	0x3b8dd907	0.00432885
229	0xbb2e467d	-0.0026592307
230	0xba951065	-0.0011372684
231	0x3b623ec1	0.0034522268
232	0xbb1dadae	-0.002405982
233	0xba5d8d47	-0.0008451533
234	0x3c1fb889	0.009748586
235	0xbc539b1f	-0.012915402
236	0xbab463c8	-0.0013762647
237	0xbb567835	-0.0032725458
238	0xbba1ac09	-0.0049338383
239	0x3beec73f	0.0072869356
240	0x3c5022f2	0.012703644
241	0x3c8ae604	0.016955383
242	0x3c28b66c	0.010297399
243	0x8000e432	-8.1861e-41
244	0x8000d96f	-7.8e-41
245	0x8000b329	-6.427e-41
246	0x00003de9	2.2209e-41
247	0x0000afdc	6.3086e-41
248	0x8000d3d8	-7.5995e-41
249	0x8000b422	-6.462e-41
250	0x80009036	-5.1733e-41
251	0x80010825	-9.4757e-41
252	0x00032647	2.89238e-40
253	0x00037d2c	3.2041e-40
254	0x0002e5e0	2.66135e-40
255	0x00033bda	2.96977e-40

e_conv4.bias f4 [32]
0	0x3d073f98	0.033019632
1	0x3b300826	0.0026860326
2	0xbbc4b71e	-0.0060032746
3	0xb4bad6c1	-3.4801454e-07
4	0x3c88f5fb	0.016718855
5	0x3c847f8e	0.016174104
6	0x3c58db3c	0.013235863
7	0x3c9c9776	0.019115191
8	0xa4c0baa5	-8.3582915e-17
9	0xa00d15cd	-1.1950378e-19
10	0x3ca1f333	0.019769287
11	0x3cd44ad4	0.025914587
12	0x3cc8ff42	0.024535779
13	0x3c625bfc	0.013815876
14	0x3cb8fa66	0.022580337
15	0x3c4c6d6f	0.012477263
16	0xb7487a07	-1.1949341e-05
17	0x3d8af9cc	0.06785926
18	0xae5c9232	-5.0152056e-11
19	0x3d028851	0.031868283
20	0x3beba5c4	0.0071913917
21	0x9e6deecf	-1.259606e-20
22	0x3cd155af	0.025553552
23	0xacfe1cde	-7.222319e-12
24	0xba261867	-0.00063360337
25	0x3d16bce1	0.036801223
26	0xba59be90	-0.0008306289
27	0x3d022da3	0.031781804
28	0x3d82c188	0.063845694
29	0x3cb1e7ec	0.021717034
30	0x8c0d3b6b	-1.0880125e-31
31	0x3cba609e	0.022751149

e_conv5.weight f4 [32, 64, 3, 3]
0	0x37fc347c	3.006518e-05
1	0x3a0d72e4	0.0005395843
2	0xbb3a6d4a	-0.002844649
3	0x3b95d974	0.0045730416
4	0x3b6922b7	0.003557367
5	0xb9e582fe	-0.0004377588
6	0x3bc82756	0.006108205
7	0x3bbaa427	0.005695838
8	0x3b14d11e	0.0022707651
9	0x3becf500	0.0072313547
10	0x3a2654a9	0.0006345013
11	0x3aff8b0a	0.0019496393
12	0x3b9374f0	0.004500024
13	0xba628e83	-0.0008642452
14	0x392ba163	0.00016367952
15	0x3ad3dba8	0.0016163485
16	0xbb2d5db2	-0.0026453552
17	0xba971d6f	-0.0011529158
18	0x8659507d	-4.0872297e-35
19	0x85cbffd3	-1.9184003e-35
20	0x06986a3b	5.7332137e-35
21	0x8673f643	-4.5884145e-35
22	0x068e6d20	5.357481e-35
23	0x066f6b46	4.5029716e-35
24	0x05cfcee6	1.9542189e-35
25	0x86a0ebe5	-6.0531927e-35
26	0x860be017	-2.630763e-35
27	0x3c1ae13e	0.009453116
28	0xb9b043fb	-0.00033619985
29	0x3c5e9f88	0.01358784
30	0x3b58974d	0.0033049167
31	0x3c187c92	0.009307044
32	0x3c48cb3d	0.012255487
33	0xbb10b6dd	-0.0022081651
34	0x3c2f74a9	0.010708966
35	0x3c3aea0c	0.01140834
36	0x3c122824	0.008920703
37	0x3bcb59a3	0.006205754
38	0x3af34088	0.001855866
39	0x3c30dd13	0.010794896
40	0xbb688204	-0.0035477886
41	0x3b87e93d	0.004147677
42	0xbc610464	-0.013733957
43	0xbc1bc45b	-0.009507264
44	0xbc7f019d	-0.0155643495
45	0xb2d3d460	-2.466021e-08
46	0x31b9c5fa	5.406716e-09
47	0x316cc974	3.4457033e-09
48	0x31ca0af3	5.8802185e-09
49	0x31c2d448	5.6702767e-09
50	0xb2a34624	-1.9007594e-08
51	0xb2ab8cdf	-1.997108e-08
52	0x317b650d	3.6582748e-09
53	0x32d7acf1	2.5107939e-08
54	0x3b5c959c	0.003365851
55	0x3c2724f0	0.010201678
56	0x3c22ef44	0.009944741
57	0x3acf0a45	0.0015795907
58	0x3bdd61e2	0.0067560533
59	0x3c0954dc	0.008382048
60	0x3aff6d1a	0.0019487471
61	0x3bc37ff1	0.0059661795
62	0x3c19f651	0.009397105
63	0x0000ba6c	6.6876e-41
64	0x0000bce3	6.776e-41
65	0x00002c7c	1.5958e-41
66	0x0000b21a	6.3891e-41
67	0x0000aaf8	6.1332e-41
68	0x0000b942	6.6458e-41
69	0x0000a630	5.9617e-41
70	0x00009d91	5.6524e-41
71	0x00008b7c	5.0038e-41
72	0xbcaf44a9	-0.021395044
73	0x3c4ae066	0.012382602
74	0xbcb62eef	-0.022239177
75	0xbc99bbfc	-0.018766396
76	0x3cc1859e	0.023623284
77	0xbc5a59ea	-0.013327101
78	0x3c12fa4c	0.008970808
79	0xbc8918bd	-0.016735429
80	0x3c29f570	0.010373458
81	0x3c50ab05	0.012736087
82	0xbad20ff6	-0.0016026485
83	0xbbec1d1c	-0.0072056185
84	0x3bca0ceb	0.0061660907
85	0xbc573f37	-0.01313763
86	0xbb76d292	-0.003766213
87	0xbbbaffbb	-0.005706755
88	0xb959d900	-0.00020775571
89	0xbaad3692	-0.0013215116
90	0xbb720b9f	-0.0036933196
91	0x3b1c1a7a	0.0023819492
92	0x3c5d7f5a	0.0135191325
93	0xbb548df0	-0.0032433234
94	0x3a5b539d	0.00083666464
95	0x3c5dc46e	0.013535602
96	0x3a2dda09	0.0006631916
97	0x3c0941c7	0.008377499
98	0x3cc96493	0.02458409
99	0x800118b6	-1.007e-40
100	0x0001606c	1.26425e-40
101	0x0000c37d	7.0128e-41
102	0x0000c053	6.8993e-41
103	0x00015e7d	1.25732e-40
104	0x0000b9bf	6.6633e-41
105	0x8001de4e	-1.71583e-40
106	0x000085e9	4.8038e-41
107	0x00004503	2.4757e-41
108	0xae48e748	-4.5680154e-11
109	0xae584b0b	-4.9179365e-11
110	0xaf207138	-1.4592139e-10
111	0xae62650e	-5.1476205e-11
112	0xaf2ebc18	-1.5892032e-10
113	0xaf0292a4	-1.1875528e-10
114	0xaeadc419	-7.901963e-11
115	0xaed3ad16	-9.625915e-11
116	0xaefefe20	-1.15957244e-10
117	0x800003ef	-1.411e-42
118	0x00004b30	2.6972e-41
119	0x800038e8	-2.0414e-41
120	0x0000a28e	5.8314e-41
121	0x8000b788	-6.5839e-41
122	0x80007b06	-4.4132e-41
123	0x8000a77b	-6.008e-41
124	0x0000754d	4.208e-41
125	0x0000572a	3.1269e-41
126	0x02058ae5	9.811158e-38
127	0x0384d54d	7.807234e-37
128	0x02e8562b	3.4138794e-37
129	0x02be2608	2.793982e-37
130	0x81e15bcb	-8.2783663e-38
131	0x038d54d2	8.306709e-37
132	0x024a2c66	1.4853358e-37
133	0x8382ea65	-7.694528e-37
134	0x03874796	7.951022e-37
135	0x80005de3	-3.368e-41
136	0x000089f1	4.9484e-41
137	0x800067fc	-3.7303e-41
138	0x80009c13	-5.5989e-41
139	0x00001e67	1.0906e-41
140	0x00002a64	1.5207e-41
141	0x800000ed	-3.32e-43
142	0x0000c138	6.9314e-41
143	0x00015a6f	1.24277e-40
144	0xbbd471a4	-0.0064832736
145	0xbb8d9c9c	-0.004321648
146	0xbb46fa05	-0.0030361426
147	0xbbe9f6b9	-0.0071400073
148	0xbb668a9a	-0.0035177828
149	0xbb223a98	-0.0024754163
150	0xba3fb6be	-0.00073133025
151	0x3b68b910	0.0035510696
152	0x3b45a350	0.0030157156
153	0xbc09b8ef	-0.008405908
154	0x3a7d6067	0.0009665549
155	0x3bdb9742	0.006701381
156	0xb9a09b74	-0.000306334
157	0x3afae81c	0.001914266
158	0xbbb12076	-0.005405481
159	0x3b2d0fe6	0.0026407181
160	0xbbda1220	-0.0066549927
161	0xbc0677ab	-0.008207242
162	0xbb4fc95b	-0.003170571
163	0xb9e82b2c	-0.00044282654
164	0x3b303346	0.002688603
165	0xba5fc006	-0.00085353886
166	0x3b56202f	0.0032672992
167	0x3bce7234	0.006300235
168	0x39e63869	0.00043911047
169	0x3b8510dd	0.004060848
170	0x3b9c6ee7	0.004773963
171	0xbc12e5c7	-0.008965916
172	0x3bcd38bf	0.006262868
173	0x3c82b825	0.015956948
174	0x3c4224d1	0.011849598
175	0x3b7a7122	0.0038214405
176	0x3b38b5d4	0.002818455
177	0xbc1b7784	-0.009488944
178	0xbb4e7ad1	-0.003150631
179	0x3b5025ad	0.0031760738
180	0x2d853451	1.5143583e-11
181	0x2c218db9	2.2958148e-12
182	0xadb8d8c4	-2.1014641e-11
183	0xac3bdb46	-2.669602e-12
184	0x2d8fae8a	1.6334729e-11
185	0x2c95ebb3	4.2610026e-12
186	0xada1c517	-1.8391106e-11
187	0xadb09c24	-2.0078224e-11
188	0xad7f58c4	-1.4514782e-11
189	0xbbc3da71	-0.005976968
190	0xbb137282	-0.0022498672
191	0xbb5ac126	-0.0033379286
192	0xb9501ea3	-0.00019847839
193	0x3ae80b70	0.0017703604
194	0xbc4a6bef	-0.012354835
195	0xb9d60c8f	-0.00040826618
196	0x3a2b9161	0.00065447955
197	0x3b42e5a1	0.002973892
198	0xb9155006	-0.00014239558
199	0x3b13f776	0.0022577918
200	0x3c4da784	0.012552146
201	0x3bc9f6ab	0.0061634383
202	0x3c012ed5	0.007884701
203	0xbbf5d383	-0.007502021
204	0xbb626381	-0.0034544172
205	0xbbb45c71	-0.005504184
206	0xbc599822	-0.0132809
207	0xbb71e4e1	-0.0036910104
208	0x3bd39924	0.006457465
209	0x3b42a739	0.0029701723
210	0x3c4c5229	0.01247076
211	0xbb94dcf3	-0.0045429408
212	0x3b04796b	0.0020213972
213	0xbc26482a	-0.010149041
214	0x3c88f37a	0.016717661
215	0xbc398de9	-0.011325338
216	0x3c0f57fd	0.008749005
217	0x3c645241	0.0139356265
218	0xbc9f92f5	-0.019479254
219	0x3afd1c79	0.0019310854
220	0xbbdd54f6	-0.006754513
221	0xbbc55e87	-0.0060232314
222	0xbc48e945	-0.012262647
223	0xbc867e18	-0.016417548
224	0xb908eeb4	-0.00013058895
225	0xa645c967	-6.8621056e-16
226	0x2626b778	5.7841466e-16
227	0x261e682b	5.4958436e-16
228	0x265d91a1	7.687214e-16
229	0x267a2177	8.6781527e-16
230	0x260c9ad9	4.8782115e-16
231	0x2618c8b1	5.300758e-16
232	0x267651e9	8.5459404e-16
233	0x266b4869	8.163014e-16
234	0x3b518a97	0.0031973475
235	0x3c2986e7	0.010347105
236	0x3c415c81	0.01180184
237	0x3aef0f3e	0.0018238795
238	0x3c05a4d6	0.008156976
239	0x3c12d716	0.008962413
240	0xbaaad898	-0.0013034521
241	0x3b972efe	0.004613756
242	0x3bc34ea0	0.0059603006
243	0xbc6ddec9	-0.014518448
244	0xbc31a93c	-0.010843571
245	0xbba60757	-0.005066793
246	0xbc1055ca	-0.008809516
247	0x3aea367f	0.0017869024
248	0x3d17db05	0.037074108
249	0x3c2717a5	0.010198508
250	0xbc50c919	-0.012743258
251	0x3b1b3643	0.0023683466
252	0xac78e388	-3.5369225e-12
253	0xac5f96a7	-3.1773835e-12
254	0xac63d60f	-3.2377467e-12
255	0xac4ff645	-2.9553176e-12

e_conv5.bias f4 [32]
0	0x3cac9bb9	0.021070348
1	0xad9d2d1e	-1.786887e-11
2	0xbb1e6009	-0.0024166128
3	0x3d123ba0	0.035701394
4	0xbabfcac9	-0.0014632578
5	0x3bd3bc87	0.006461683
6	0x3d3cad79	0.046063874
7	0x3ce9f299	0.028558062
8	0x3c8fdb62	0.017560665
9	0xa4d2c9bf	-9.1414754e-17
10	0x3d2be49c	0.041966066
11	0x3cebf3e0	0.028802812
12	0xb6c245bc	-5.7897687e-06
13	0x3a37690a	0.0006996548
14	0x3cd97ba0	0.026548207
15	0x3d09074f	0.033454236
16	0x3b91ae07	0.0044457945
17	0x3b528e1d	0.0032128163
18	0xba9ae4d6	-0.0011817466
19	0x3c02a2f8	0.007973425
20	0x3cd7c951	0.026341112
21	0x3cf3d9cc	0.02976694
22	0x3c299d79	0.010352486
23	0xbaed230a	-0.0018092107
24	0x3caa47b2	0.02078614
25	0xb405281a	-1.2401179e-07
26	0x3cca3163	0.024681753
27	0x3c1f04d1	0.009705738
28	0x3d39c4e7	0.045353796
29	0xb0267642	-6.05585e-10
30	0x96cc4877	-3.300371e-25
31	0xb2d225b6	-2.4464367e-08

e_conv7.weight f4 [8, 64, 3, 3]
0	0xb7e30bb3	-2.7065957e-05
1	0xba5b415d	-0.0008363927
2	0xbb9a5155	-0.0047094026
3	0x3beca968	0.0072223432
4	0x3bcf9630	0.0063350424
5	0x3b4b1ffe	0.003099441
6	0x3c22a65d	0.009927359
7	0x3c124063	0.008926484
8	0x3ba1f905	0.0049430155
9	0x3b031b24	0.002000519
10	0x3a2d8265	0.00066188566
11	0x3b8bc12d	0.0042649717
12	0x3b50250e	0.0031760368
13	0x3ad5ef66	0.0016321957
14	0x3bc6b4f2	0.006064051
15	0x3c0fa275	0.00876676
16	0x3c1bbe5d	0.009505835
17	0x3c6352d9	0.013874733
18	0x0000024f	8.28e-43
19	0x00000e0a	5.036e-42
20	0x800042c6	-2.3954e-41
21	0x8000da77	-7.837e-41
22	0x8000bee1	-6.8474e-41
23	0x8001240d	-1.04768e-40
24	0x00020179	1.84199e-40
25	0x00012d1d	1.08019e-40
26	0x80000751	-2.625e-42
27	0x0001c053	1.60828e-40
28	0x00004291	2.388e-41
29	0x8000f423	-8.758e-41
30	0x000024c8	1.3195e-41
31	0x80011e52	-1.02712e-40
32	0x00016f45	1.31751e-40
33	0x00008225	4.6687e-41
34	0x8000be9f	-6.8382e-41
35	0x8001345b	-1.10617e-40
36	0xba02c743	-0.0004988799
37	0xbb69f818	-0.0035700854
38	0xbbb44efd	-0.00550258
39	0x3b951c27	0.004550475
40	0x3a765d5f	0.00093980687
41	0xbad3c169	-0.0016155663
42	0x3babc33e	0.0052417805
43	0x3abf7b81	0.0014608951
44	0xbab84436	-0.0014058414
45	0xbc289030	-0.010288283
46	0xbbefd70e	-0.0073193377
47	0xbbd15631	-0.0063884486
48	0xba75640e	-0.00093609176
49	0x3b06996e	0.0020538229
50	0x3b2c370b	0.0026277925
51	0x3bb5bfbb	0.0055465377
52	0x3c10f49e	0.008847384
53	0x3c10dca2	0.008841665
54	0x3b75adf7	0.0037487724
55	0x3b23e263	0.0025006763
56	0x3babf69e	0.005247905
57	0x3b8470b0	0.0040417537
58	0x3b46ee17	0.0030354315
59	0x3bd08883	0.0063639297
60	0x3bab823f	0.0052340324
61	0x3b993ad1	0.004676201
62	0x3bfbf10d	0.0076886476
63	0xbc5db7da	-0.013532603
64	0xbccfab0a	-0.025350112
65	0xbd1b9e73	-0.037992906
66	0x3bcdb769	0.0062779677
67	0xbbcd1daa	-0.0062596397
68	0xbca7dd58	-0.020491287
69	0x3c840cff	0.016119478
70	0xbb1a48d2	-0.002354194
71	0xbc8cc079	-0.017181622
72	0x8001e390	-1.7347e-40
73	0x00005315	2.9804e-41
74	0x00013c4c	1.13466e-40
75	0x00016b30	1.30287e-40
76	0x000039e0	2.0762e-41
77	0x8000e0b6	-8.0611e-41
78	0x80006e04	-3.9466e-41
79	0x00000cfe	4.661e-42
80	0x80011284	-9.8478e-41
81	0x8000dc1c	-7.896e-41
82	0x0000efd8	8.604e-41
83	0x8001357a	-1.11019e-40
84	0x8000a82c	-6.0329e-41
85	0x80002461	-1.305e-41
86	0x800019ed	-9.3e-42
87	0x800105d7	-9.393e-41
88	0x80013928	-1.12339e-40
89	0x8000f0db	-8.6403e-41
90	0x38915c12	6.931288e-05
91	0xbb3e1c8c	-0.0029008714
92	0xba8c9630	-0.0010725912
93	0x3a881331	0.0010381696
94	0xbb027cae	-0.001991074
95	0x38b839fa	8.784603e-05
96	0x38c8e558	9.579462e-05
97	0xbb36e11f	-0.0027905179
98	0xba68af02	-0.0008876176
99	0xbbee3592	-0.0072695697
100	0xbb9f16a2	-0.004854993
101	0xbc0fed1a	-0.008784557
102	0xbb3c5ff5	-0.0028743718
103	0x379322cf	1.7539975e-05
104	0xbba1148f	-0.004915781
105	0xbb63c45d	-0.0034754493
106	0xbac065fb	-0.001467883
107	0xbbbe91a4	-0.0058157016
108	0xba4b2e10	-0.00077506993
109	0x3c292c58	0.010325514
110	0x3adb3271	0.0016723407
111	0xbaa5d097	-0.0012650666
112	0x3c21b3cd	0.009869528
113	0x3a9c690d	0.0011933163
114	0xbbcfd08a	-0.0063419985
115	0x3b951657	0.0045497823
116	0xbb83604b	-0.0040092818
117	0xbc87e2a9	-0.016587572
118	0xbcae7d5e	-0.021300014
119	0xbc02516d	-0.007953984
120	0xbc77ac3b	-0.015116747
121	0xbca8dac1	-0.020612122
122	0xbbec66c8	-0.007214401
123	0xbaaba8f9	-0.0013096622
124	0xbbd72e06	-0.0065667657
125	0x3c009457	0.007847867
126	0xbb0d7081	-0.002158195
127	0x3a753ebd	0.0009355357
128	0x3a2354fc	0.000623062
129	0xba7fd588	-0.00097592967
130	0x3b1d2189	0.0023976287
131	0x3b34bb2c	0.0027577383
132	0x3ad50952	0.0016253388
133	0x3bad4efa	0.0052889558
134	0x3bab6641	0.0052306955
135	0xbb5bff28	-0.0033568833
136	0xbb836265	-0.0040095323
137	0xbb5077e9	-0.0031809753
138	0x3a65bbd7	0.0008763647
139	0x3a2b5a92	0.00065366284
140	0x3aa40d6a	0.0012516205
141	0x3b0f7473	0.0021889478
142	0x3b185559	0.002324423
143	0x3b5cbb2d	0.0033680901
144	0x80004e80	-2.816e-41
145	0x8000b989	-6.6557e-41
146	0x0000927a	5.2546e-41
147	0x00008ec2	5.1212e-41
148	0x8001385f	-1.12058e-40
149	0x0000f456	8.7651e-41
150	0x8000dea0	-7.9863e-41
151	0x0000e74a	8.2971e-41
152	0x00012410	1.04772e-40
153	0x3b2e689e	0.002661265
154	0x3d2faeab	0.042891186
155	0x3b892174	0.004184896
156	0x3d08b444	0.03337504
157	0x3d98822d	0.07446704
158	0x3d135676	0.035971127
159	0xbc06c898	-0.008226536
160	0x3d02b96f	0.031915125
161	0xbbbeb014	-0.00581933
162	0x00005b1e	3.2687e-41
163	0x80012029	-1.03372e-40
164	0x80015b15	-1.2451e-40
165	0x00000cda	4.61e-42
166	0x00004c19	2.7299e-41
167	0x00010ef4	9.72e-41
168	0x8000cd07	-7.355e-41
169	0x0000bbc2	6.7355e-41
170	0x00015892	1.23609e-40
171	0xbc1854dd	-0.009297577
172	0xbb4695ed	-0.0030301765
173	0xbc01b8ac	-0.007917564
174	0xbbf25546	-0.0073954193
175	0xbadefdc2	-0.0017012882
176	0xbc066aab	-0.008204143
177	0xbc64599a	-0.013937378
178	0xbc1e4205	-0.009659295
179	0xbc7ee943	-0.015558544
180	0xbb55d6bf	-0.003262922
181	0x3b2f276c	0.0026726378
182	0x397d7ddd	0.00024174848
183	0x3b180ac0	0.0023199767
184	0x3c09b6e4	0.008405421
185	0x3bc1204c	0.0058937427
186	0xbb9b7aff	-0.004744887
187	0x3a8ebec9	0.0010890599
188	0xbab75186	-0.0013986088
189	0x00015c8b	1.25034e-40
190	0x800057bd	-3.1475e-41
191	0x000078ad	4.329e-41
192	0x00003ae2	2.1123e-41
193	0x0000c8c3	7.202e-41
194	0x0000c6d2	7.1323e-41
195	0x00001566	7.676e-42
196	0x0000f9b8	8.9582e-41
197	0x0001a6e4	1.51705e-40
198	0xbb49208d	-0.0030689568
199	0xbaf0f7c5	-0.0018384388
200	0xbbbda401	-0.005787373
201	0x3b21184c	0.0024581132
202	0x3b7aba9d	0.0038258203
203	0xb97e6399	-0.0002426043
204	0x3b07a495	0.0020697464
205	0x3b61aac2	0.0034434055
206	0xba064783	-0.00051223504
207	0x0000b348	6.4314e-41
208	0x0000dda7	7.9514e-41
209	0x80006e28	-3.9517e-41
210	0x00010e7b	9.703e-41
211	0x00000b65	4.088e-42
212	0x8000385a	-2.0215e-41
213	0x80014341	-1.15962e-40
214	0x80001ad8	-9.63e-42
215	0x80010d7d	-9.6674e-41
216	0x069f0acf	5.9825034e-35
217	0x052b0f91	8.0432405e-36
218	0x065da7b3	4.1688686e-35
219	0x07198c28	1.1551629e-34
220	0x0603ccfe	2.4788966e-35
221	0x06594af5	4.0868234e-35
222	0x060b69b1	2.6220644e-35
223	0x07122ae6	1.0996426e-34
224	0x868eb26d	-5.3676636e-35
225	0x3b9909ed	0.0046703727
226	0x3bd9a3c9	0.006641839
227	0x3ac6dd80	0.0015172213
228	0x3980a706	0.00024538505
229	0x3b368403	0.0027849681
230	0xba98ae05	-0.0011648542
231	0xbaa58d5d	-0.001263063
232	0x3ac3eddd	0.0014948208
233	0xbb26ac25	-0.0025432196
234	0x3bb4e15d	0.0055200295
235	0x3af6fa6f	0.0018842946
236	0x3d37ff63	0.04492129
237	0xbd2093ad	-0.039203335
238	0xbd2d60c0	-0.042328596
239	0xbb8bc2e0	-0.0042651743
240	0xbd098074	-0.033569768
241	0xbd0abb69	-0.033870135
242	0x3baaf98e	0.0052177375
243	0x3b495248	0.003071921
244	0x3ad22fcb	0.0016035972
245	0x3a8b6987	0.0010636308
246	0x3c0fb06f	0.008770092
247	0x3bf7ff41	0.0075682704
248	0x3c0b1336	0.008488467
249	0x3c04475b	0.008073653
250	0x3bf71009	0.0075397533
251	0x3c10a2ec	0.008827906
252	0xbca8e710	-0.020617992
253	0x3cada99d	0.021199042
254	0xbc9bb9fb	-0.01900958
255	0x3c92c08e	0.017914083

e_conv7.bias f4 [8]
0	0x3cbf46b0	0.023349136
1	0x3c42e7ce	0.011896087
2	0x3d60c8a8	0.05487886
3	0x3d1bf2a8	0.038073212
4	0x3c9a0940	0.018803239
5	0x3cdb5950	0.026775986
6	0x3c78ce07	0.0151858395
7	0x3bb24687	0.0054405364
