snapshots/Epoch4.pth (torch, 304045 bytes, 14 tensors)

e_conv1.weight f4 [32, 3, 3, 3]
0	0xbb018b09	-0.001976671
1	0x394eddca	0.00019728314
2	0xb18270c7	-3.7963193e-09
3	0xb4e86e4a	-4.3293613e-07
4	0xb7129050	-8.7358785e-06
5	0xbc1a6103	-0.009422543
6	0xb0f2ea68	-1.767444e-09
7	0xbc7bdbbe	-0.015372215
8	0xbba50286	-0.005035701
9	0xb39b4419	-7.230137e-08
10	0x3c46b998	0.01212921
11	0x3abb2141	0.0014276878
12	0x384eca74	4.9302776e-05
13	0x2b565632	7.6147693e-13
14	0x31769c9a	3.588673e-09
15	0xaf9f7ed0	-2.9012037e-10
16	0x2dc164ea	2.1986375e-11
17	0xb91407e6	-0.00014117322
18	0xb7378562	-1.0938706e-05
19	0x2faf764d	3.1916372e-10
20	0xbbdb0ac8	-0.006684635
21	0xb363a5f1	-5.300348e-08
22	0x2f4200fb	1.7644546e-10
23	0x3c2ca032	0.01053624
24	0x30f16b9c	1.7565642e-09
25	0x3795bdd5	1.7850582e-05
26	0x3b3a8370	0.002845969
27	0xbc257b61	-0.010100217
28	0x3947131a	0.00018985235
29	0xbced39b2	-0.028958175
30	0x3c15b7fa	0.009138102
31	0x3be14d83	0.006875695
32	0xba2f79d2	-0.0006693873
33	0x3c5297db	0.012853588
34	0x39ea9d88	0.00044749328
35	0x3b2ae7ea	0.0026078173
36	0x3c16bd5d	0.009200421
37	0xbbc168db	-0.0059023923
38	0x3d0e4e45	0.034742612
39	0x3bc7ab7b	0.00609344
40	0x3c9eeaf6	0.019399147
41	0x3c4ca604	0.012490753
42	0x3ce56ee6	0.028006982
43	0x3d05a5ca	0.032628812
44	0x3bb3b4b9	0.0054841903
45	0xbb65ca2b	-0.0035063128
46	0x3b4eae33	0.0031536936
47	0xbd06d4b8	-0.03291771
48	0x3b858449	0.0040746075
49	0xb9b37eba	-0.0003423596
50	0xbcc800d2	-0.024414454
51	0xbcab6758	-0.020923302
52	0xbc759bd0	-0.014990762
53	0x3c39bc8d	0.011336458
54	0xbb79d6d5	-0.0038122435
55	0xbd285214	-0.0410939
56	0xba941f7d	-0.0011300888
57	0xba3d16c5	-0.0007213171
58	0xbcd5044d	-0.026003027
59	0xbc63191c	-0.013860967
60	0xbab9ae3b	-0.0014166305
61	0xbbbc811d	-0.005752696
62	0x3b0723f8	0.0020620804
63	0xbc0878e3	-0.008329603
64	0x3c4e45a1	0.012589843
65	0x3c55a9a2	0.013040932
66	0xbc871cb1	-0.016493173
67	0x3ba24a0a	0.004952674
68	0x3ba0ee44	0.004911216
69	0x3d1c397f	0.03814077
70	0x3caa7a4d	0.02081027
71	0xbcde87d1	-0.027164372
72	0x3b5f644b	0.003408688
73	0x3c56b298	0.0131041035
74	0x3c17ffca	0.009277293
75	0x3c4df6bb	0.012571032
76	0x3bb08d3e	0.005387931
77	0x3ca42d85	0.020041237
78	0x3b577948	0.0032878686
79	0xbc490ad4	-0.012270648
80	0xbbc9a55c	-0.0061537456
81	0x3c708a7b	0.014681454
82	0x3c8a3c4c	0.016874455
83	0xbb278bb2	-0.0025565443
84	0xbc897d38	-0.016783342
85	0xbc40c990	-0.011766806
86	0x3a00eb06	0.0004917834
87	0xbb518a63	-0.0031973354
88	0xbcbe70ba	-0.023247112
89	0x3ccdb5a4	0.025111027
90	0xbcca51c5	-0.024697194
91	0x3c789d75	0.015174259
92	0x3c1504c0	0.009095371
93	0x3b9184c4	0.0044408757
94	0xbaef0d9d	-0.001823831
95	0x3be63c40	0.0070262253
96	0xbcbde720	-0.023181498
97	0x3c74df7a	0.014945859
98	0x3cb8449a	0.02249365
99	0xbb40ac0a	-0.0029399418
100	0xbb0f2670	-0.002184298
101	0xbcd3ff06	-0.02587844
102	0xbbba7830	-0.005690597
103	0x3c9df060	0.019279659
104	0xbc2e170d	-0.010625613
105	0xbcbaf3c5	-0.022821316
106	0x3b95b414	0.004568586
107	0x3cd1e2b4	0.025620796
108	0xbcb2967d	-0.021800274
109	0xbc98fb9b	-0.018674662
110	0x3bb10dda	0.0054032626
111	0x3cca46aa	0.024691898
112	0x3b5e30b8	0.003390355
113	0x3caa1978	0.020764098
114	0x3a326b19	0.000680612
115	0xbcf4f76b	-0.029903134
116	0xbc23238f	-0.009957208
117	0x3b81e856	0.003964464
118	0x3c2c5f93	0.010520834
119	0x3c7b62b8	0.015343361
120	0x3c8e5eb8	0.01737915
121	0xbbffd36e	-0.007807187
122	0xbc92629f	-0.017869292
123	0x3c8d2933	0.01723156
124	0x3d1cb7f4	0.03826137
125	0x3d13e7ab	0.036109608
126	0x3bd4d358	0.0064949207
127	0x3bd952a1	0.0066321646
128	0x3cccf93d	0.02502119
129	0xbd0fdb57	-0.03512129
130	0xbc543abe	-0.012953458
131	0x3aa13426	0.0012298867
132	0xbd4f0cb8	-0.05054924
133	0xbbd7929e	-0.0065787574
134	0xbb66b823	-0.003520497
135	0xaf402af0	-1.7477553e-10
136	0xae1c7327	-3.557257e-11
137	0xae48f698	-4.5693754e-11
138	0xad9f83a9	-1.8134676e-11
139	0xafbf2119	-3.4766215e-10
140	0x31deb5c2	6.481714e-09
141	0x32361c0b	1.06001705e-08
142	0xb0f10141	-1.7535414e-09
143	0x3c2eba51	0.0106645385
144	0xbc28e9af	-0.010309621
145	0xb9017728	-0.00012346788
146	0x3b849b0a	0.0040468024
147	0xbbe8960b	-0.0070979646
148	0xb8060b8d	-3.1958847e-05
149	0xaef76ba8	-1.1251383e-10
150	0xbb14bc86	-0.0022695377
151	0x3b65bc94	0.0035055028
152	0x3b0dbce2	0.0021627476
153	0x3498992d	2.8423656e-07
154	0xb88e6fd4	-6.791917e-05
155	0x2bf6414b	1.7497474e-12
156	0xbbaef11b	-0.0053388006
157	0xb940bd3b	-0.0001838104
158	0x39f68632	0.0004702076
159	0x33ceb826	9.626119e-08
160	0xb9fbfa98	-0.00048061158
161	0xadb0b6da	-2.0090086e-11
162	0x3b789136	0.003792835
163	0xbb96d332	-0.004602813
164	0x3b3133f2	0.0027039018
165	0xbc0f9641	-0.008763851
166	0xba5622a5	-0.00081686146
167	0xbccc9a7a	-0.024976004
168	0x3c287f4b	0.010284255
169	0xbb182387	-0.0023214535
170	0x3c85d7d6	0.01633827
171	0x3cbe2c47	0.023214472
172	0x3d1a09f3	0.037607145
173	0xbc5a870f	-0.013337865
174	0x3a99fba6	0.0011747971
175	0x3c27ae47	0.010234422
176	0x3ca76472	0.020433638
177	0xba85342e	-0.0010162645
178	0xbd413c9e	-0.04717695
179	0xbcdf12eb	-0.0272307
180	0xbc4ed4d7	-0.012623987
181	0xbc9cc8f9	-0.0191388
182	0x3b808cca	0.0039230334
183	0xbc91a1e5	-0.017777393
184	0x3a9bc224	0.001188342
185	0x3c221fc8	0.009895273
186	0x3cfa24ed	0.030535186
187	0xbcdebf05	-0.027190695
188	0xbcfa5fc4	-0.030563243
189	0xbb1951ba	-0.002339466
190	0x2f40662e	1.74986e-10
191	0x3afa83d2	0.0019112772
192	0xb9d78b14	-0.00041111617
193	0xb66215e0	-3.3689357e-06
194	0xbbe6d9cf	-0.007045008
195	0xae64dc18	-5.203668e-11
196	0x3254a52a	1.2377578e-08
197	0x3b867c83	0.0041041984
198	0x35842ca7	9.847762e-07
199	0x3a8ef57f	0.0010906904
200	0x3b8d6451	0.004314937
201	0x3ba641ca	0.0050737606
202	0x3a32d220	0.0006821472
203	0xb23757ca	-1.0671963e-08
204	0x3a8e1fa0	0.0010843165
205	0xb1589020	-3.1514062e-09
206	0x3021ffee	5.8935157e-10
207	0xbb07d8aa	-0.0020728507
208	0x39f9b4e7	0.00047627764
209	0xb9554565	-0.00020339114
210	0x3162d7cc	3.3009995e-09
211	0x3ab90901	0.0014117063
212	0x3a58d3fd	0.0008271335
213	0xb9407f3c	-0.00018357945
214	0xbc3ca730	-0.01151447
215	0xbc024f11	-0.007953421
216	0xba0a96c5	-0.00052867486
217	0xba1a2ccc	-0.0005881309
218	0x36949cfa	4.429018e-06
219	0x3bbed0f7	0.0058232504
220	0x3c1bec6f	0.009516819
221	0x3c98422d	0.018586243
222	0xb95b3027	-0.00020903406
223	0x3b716b21	0.0036837535
224	0x3c9b3dbe	0.01895034
225	0xbabecd88	-0.0014557103
226	0xb9ab63bd	-0.00032689972
227	0xb8163f27	-3.5821602e-05
228	0xba31e999	-0.0006786823
229	0x3b728921	0.0037008005
230	0x3c50c032	0.012741135
231	0xba3ef28b	-0.00072840665
232	0x3b953f6e	0.0045546805
233	0xba969876	-0.0011489529
234	0xb288297f	-1.5851354e-08
235	0x3af63e0d	0.0018786803
236	0xb9b263da	-0.000340252
237	0xba301a50	-0.0006717788
238	0x3b3ebade	0.002910308
239	0xba96e139	-0.0011511213
240	0xba2c035a	-0.0006561779
241	0x3bf8b362	0.0075897435
242	0x3c9f42af	0.019440977
243	0xbc5e069e	-0.013551382
244	0xbbd5e74a	-0.006527816
245	0xbcd23cc7	-0.025663747
246	0xbc94eca7	-0.01817925
247	0xbcb5a37b	-0.02217268
248	0xbb64b5b1	-0.0034898336
249	0xbb8095a5	-0.003924089
250	0x3cb0090f	0.021488694
251	0x3cbd67db	0.023120811
252	0xbcd149fe	-0.025547978
253	0x3b4ad4a9	0.003094951
254	0xbc20540e	-0.009785665
255	0xbcafd70b	-0.021464845

e_conv1.bias f4 [32]
0	0xbdeb3267	-0.11484223
1	0x3d8c41bb	0.068484746
2	0x3c676237	0.014122537
3	0x3e0a5147	0.13507567
4	0x3d984617	0.074352436
5	0xbdc8861a	-0.09791203
6	0x3d5195cd	0.05116825
7	0xbe15daa8	-0.14634192
8	0xbe11b973	-0.142309
9	0x3d800ced	0.062524654
10	0xbe08ae74	-0.13347799
11	0xbdc0b846	-0.09410147
12	0xbd3518f3	-0.044213247
13	0x3d4a96a9	0.049460087
14	0xbdf36a5a	-0.11885519
15	0x3e2db937	0.16965185
16	0x3e0aa07d	0.13537784
17	0x3db85792	0.09001078
18	0x3e419e6b	0.18908088
19	0x3e28eb7a	0.16496077
20	0xbdb08c38	-0.086204946
21	0x3e2b9a40	0.1675806
22	0xbb94c0db	-0.0045395917
23	0x3dfe00a6	0.124024674
24	0xbc91e312	-0.01780847
25	0xbd995446	-0.07486777
26	0x3d25181d	0.0403062
27	0xbdb3851d	-0.08765624
28	0xbd3bb784	-0.04582931
29	0x3b351b21	0.0027634578
30	0x3e11a2ed	0.14222308
31	0xbddd3e70	-0.10802925

e_conv2.weight f4 [32, 32, 3, 3]
0	0xb81a59f2	-3.680023e-05
1	0x3ca617cb	0.020275017
2	0x3c1ff576	0.009763112
3	0x39202266	0.00015271603
4	0xaf0f2e5b	-1.3022243e-10
5	0x38914dd7	6.9286376e-05
6	0x3b2e2031	0.002656948
7	0xb964114f	-0.00021750222
8	0x3bb15190	0.0054113343
9	0x3c28d7ca	0.010305354
10	0xbcd04142	-0.025421742
11	0x3b44a2a5	0.003000417
12	0xbb910167	-0.004425216
13	0xb9c7d27b	-0.00038113058
14	0xbc03ecb2	-0.008052038
15	0x3c7b4c23	0.015337977
16	0x3d0fa6b7	0.0350711
17	0x3b36161c	0.0027784174
18	0xbcb0f22b	-0.02159985
19	0xbcc5f14d	-0.024162913
20	0xbc6272d5	-0.013821323
21	0x3c1cb9b2	0.009565758
22	0xbc263139	-0.0101435715
23	0xbb4b09d0	-0.003098119
24	0x3c0b5058	0.008503042
25	0x3af0cbc0	0.0018371269
26	0x3c8706ca	0.01648273
27	0xbd08806b	-0.033325594
28	0x3cac80e8	0.021057561
29	0x3d35209f	0.044220563
30	0xbc8a22e6	-0.016862344
31	0xbc0bba20	-0.008528262
32	0xbbeb4575	-0.007179911
33	0xbd37061f	-0.044683572
34	0x3bb619d6	0.005557279
35	0x3cb0d2ca	0.021584887
36	0x39864ff4	0.0002561804
37	0xbb510539	-0.0031893982
38	0x3b6210bc	0.0034494838
39	0x3c760c88	0.015017636
40	0xbc8bf665	-0.017085264
41	0x3c363c21	0.011122734
42	0x3c8e29af	0.01735386
43	0xbca384a8	-0.019960716
44	0xbc0fd366	-0.008778429
45	0xbc6e254c	-0.014535259
46	0xbb986570	-0.004650764
47	0x3808eecb	3.264732e-05
48	0x3034ab73	6.572726e-10
49	0x3240d7c6	1.1224932e-08
50	0x3c0a9486	0.008458262
51	0xae5e50aa	-5.05486e-11
52	0x35d51819	1.587675e-06
53	0xbb448767	-0.0029987933
54	0xbb8eda5c	-0.0043595266
55	0x3c9526c8	0.018206969
56	0xbcc199a3	-0.02363283
57	0xbcae216b	-0.02125617
58	0x3c229270	0.009922609
59	0x3c321478	0.010869138
60	0x3c2fbb6a	0.010725835
61	0x3c7e68f2	0.015527951
62	0x3cfe41e8	0.031037286
63	0x30c4917e	1.4302228e-09
64	0x33cd6970	9.5652354e-08
65	0x2f0a630f	1.258622e-10
66	0x3b291ee5	0.0025805768
67	0xab97b758	-1.0780083e-12
68	0xb8167cd7	-3.5879053e-05
69	0x3cb2d1dc	0.021828584
70	0x389148c8	6.927695e-05
71	0x2a546930	1.8865877e-13
72	0xb74c8fda	-1.2192841e-05
73	0xba373c38	-0.0006989869
74	0xbbddb382	-0.0067657838
75	0x3aca1282	0.0015416893
76	0x3af5cee1	0.0018753671
77	0xba5fdebc	-0.0008539965
78	0xbc5b795f	-0.013395636
79	0x31122b48	2.1270399e-09
80	0xbbae2f14	-0.0053156707
81	0x3ccca220	0.024979651
82	0xbb1b21e0	-0.0023671314
83	0x3c1b3a05	0.009474282
84	0xbb9abb26	-0.004722017
85	0x3c82aa1b	0.015950253
86	0x3c4661df	0.012108295
87	0x3b52c9b3	0.003216368
88	0x3b110ed4	0.0022134082
89	0xbc1c3ac4	-0.009535495
90	0x3ab5d084	0.0013871347
91	0x3c5d1086	0.013492709
92	0x3b63ba96	0.0034748665
93	0xbad448a3	-0.0016195964
94	0xae364188	-4.1440212e-11
95	0x3be3989d	0.006945683
96	0x3813bc49	3.5222885e-05
97	0xbb3659a0	-0.0027824417
98	0xb9e2ecf6	-0.0004328263
99	0xbcaa9265	-0.02082176
100	0x3b637902	0.0034709577
101	0x3a7a0288	0.00095371203
102	0xbb204472	-0.002445486
103	0x3d0cbf86	0.03436234
104	0x3bc42e55	0.0059869685
105	0x30d2d86e	1.5341024e-09
106	0x2e617c8a	5.126969e-11
107	0x3a36c051	0.00069714064
108	0x3c994921	0.018711628
109	0xba390bc6	-0.00070589443
110	0xb7697bdf	-1.3916723e-05
111	0xb7461f83	-1.1809057e-05
112	0xbb87f5ee	-0.00414919
113	0x3c569e4e	0.013099266
114	0xbc5b6c59	-0.013392531
115	0xbcd5c052	-0.026092682
116	0x32982d8a	1.7715838e-08
117	0x3b82b06c	0.0039883163
118	0x3d259308	0.040423423
119	0x3bdf0583	0.006806077
120	0x3cd6f864	0.026241489
121	0x3ba8084e	0.005127943
122	0x3c9c1337	0.019052131
123	0xbccdb835	-0.02511225
124	0x3caf8ce8	0.021429494
125	0xbb9cb896	-0.0047827465
126	0xba0a25dc	-0.0005269924
127	0x3a49a88e	0.0007692658
128	0x3b9e7eb4	0.0048368815
129	0xb9ce689f	-0.0003936933
130	0x3c9b9c89	0.01899554
131	0xae6bb235	-5.3591093e-11
132	0xbd21cc26	-0.03950133
133	0xb9542c20	-0.00020234333
134	0xbb9c19d2	-0.00476382
135	0x3bcfa852	0.006337204
136	0x3c4dcb4b	0.012560676
137	0x3ba05600	0.0048930645
138	0x3c8e56ce	0.017375376
139	0x3c95a9e3	0.018269485
140	0x3c84e7d5	0.016223827
141	0xbb4cf92d	-0.003127645
142	0xbcab2b19	-0.020894574
143	0xbbf93582	-0.0076052556
144	0xbc9b1206	-0.018929493
145	0xbcc16e0b	-0.023612043
146	0xbc2833b5	-0.010266234
147	0xbcbf6430	-0.023363203
148	0x3c8b4a6d	0.017003262
149	0x3ca0d438	0.019632444
150	0xbd1273f5	-0.035755116
151	0x39123228	0.0001394233
152	0xba50aa69	-0.00079599634
153	0x3cf631be	0.030053016
154	0xbb91b11e	-0.004446163
155	0xbbfc8114	-0.007705817
156	0xbc36a511	-0.011147753
157	0x3c8daa98	0.01729326
158	0x3b566ef7	0.0032719949
159	0x3c08cc45	0.008349483
160	0x3cc73aad	0.024319971
161	0x3cca6e5b	0.024710825
162	0xb97fab47	-0.00024382501
163	0xbcd94932	-0.02652416
164	0xbc9e7e52	-0.019347344
165	0xbb130b59	-0.0022437184
166	0x399904df	0.00029186063
167	0x3ca1fd33	0.019774055
168	0xbd22d9fc	-0.039758667
169	0x3c8a97fd	0.016918177
170	0x3d189644	0.03725268
171	0x3cb6f869	0.022335248
172	0x3ca46e97	0.020072265
173	0xbbd3566d	-0.0064495117
174	0x3c25a9e3	0.010111305
175	0x3c439c63	0.011939141
176	0xbb0a8322	-0.002113529
177	0xbc655fd0	-0.013999894
178	0xbc39bb0c	-0.011336099
179	0x3d06f972	0.032952733
180	0xbc873c34	-0.0165082
181	0xb05ef459	-8.111037e-10
182	0x324e8fd1	1.2023478e-08
183	0x3914d07f	0.00014192051
184	0xbc23269d	-0.009957937
185	0x328f2072	1.6662145e-08
186	0xbb75ba55	-0.0037495096
187	0x3b80a731	0.003926181
188	0xb1a7d2a0	-4.884285e-09
189	0xbcc3eb4c	-0.02391591
190	0x3c5188ef	0.012788995
191	0x3c9c1d2c	0.019056879
192	0xbca44688	-0.020053163
193	0x3d5dcc29	0.05414978
194	0x3d1779bc	0.03698133
195	0x3c52fe08	0.012877949
196	0x3d039a5e	0.032129638
197	0x3ca6dd6c	0.020369254
198	0x3c0c1296	0.008549353
199	0x3c3faa5b	0.011698331
200	0x3a4c9cc2	0.0007805341
201	0xbbcf100a	-0.0063190507
202	0x3a98db10	0.0011661965
203	0x3acdf257	0.0015712482
204	0xbca7d39f	-0.020486651
205	0x3c00d3cb	0.007862995
206	0xbc286729	-0.010278502
207	0x3cb90d32	0.0225893
208	0x3c6e0cf2	0.014529454
209	0x3ccd70c5	0.025078187
210	0x3c7c48cf	0.015398218
211	0x3ce3b273	0.027795052
212	0x3bb5b9ba	0.005545822
213	0xbd5e24ce	-0.05423432
214	0x3d055db4	0.032560065
215	0xbbed6d2e	-0.0072456812
216	0xbc6dc00c	-0.01451112
217	0x309eeade	1.1562766e-09
218	0xba096577	-0.00052412547
219	0x3adf067b	0.0017015481
220	0xaf29460a	-1.5395343e-10
221	0x3b6bc7e1	0.0035977291
222	0xbbc9df4e	-0.006160653
223	0xbba56ffc	-0.00504875
224	0x2f11f697	1.327528e-10
225	0xad8080c7	-1.4609104e-11
226	0x37849304	1.5804086e-05
227	0xb599eefd	-1.1468943e-06
228	0x3a9ee015	0.0012121225
229	0x3053c9de	7.7048223e-10
230	0xaf48db4b	-1.8267803e-10
231	0x37af16d2	2.0872252e-05
232	0x37aac45b	2.0357014e-05
233	0x3a9bca3c	0.0011885832
234	0x3bb50789	0.00552458
235	0x3b5d9712	0.0033811969
236	0x3bd2d53f	0.0064341123
237	0xbb4fdd82	-0.0031717722
238	0xbb29a7c0	-0.002588734
239	0xbc7b94c8	-0.015355296
240	0x3c8af554	0.016962685
241	0xbc0961bd	-0.008385119
242	0xbcb2b32c	-0.021813951
243	0xbc8e9406	-0.017404567
244	0x39b50adb	0.00034531098
245	0x33aa5d35	7.933196e-08
246	0x36a0d832	4.79354e-06
247	0xb0749b95	-8.898778e-10
248	0x3b63bdf4	0.0034750672
249	0x3b22e593	0.0024856075
250	0xbc58c1e9	-0.0132298255
251	0x2ef496c1	1.11226146e-10
252	0x2f26a336	1.5155596e-10
253	0x3a47632f	0.0007606027
254	0x37d35d13	2.5196501e-05
255	0x3d42b64b	0.04753713

e_conv2.bias f4 [32]
0	0xbd12b154	-0.035813645
1	0xbc1907ff	-0.009340285
2	0xbc18634d	-0.009301019
3	0xbbb09c3a	-0.0053897174
4	0x3d17c3b9	0.03705189
5	0x3cce5b6d	0.02519008
6	0xba1bb89a	-0.00059402885
7	0x3d16e10d	0.03683572
8	0x3d5adf61	0.053435687
9	0x3d10e277	0.035372224
10	0xbce18e25	-0.0275336
11	0xbb9cf0cf	-0.004789449
12	0xbb0caa4f	-0.0021463817
13	0xbbf6ab70	-0.007527761
14	0x3bdd604a	0.0067558633
15	0xbca6a8d0	-0.020344168
16	0x3d0129f5	0.031534154
17	0x3b08ede4	0.0020893747
18	0xbc026e89	-0.007960924
19	0xbc5fc61b	-0.013658072
20	0xbc93ca29	-0.018040733
21	0x3bfa53cd	0.0076393844
22	0xbc7eb270	-0.0155454725
23	0x3d024f30	0.0318138
24	0xbcce0874	-0.025150515
25	0x3d30ca29	0.043161545
26	0x3d45d818	0.048301786
27	0xbc3e0afd	-0.0115992995
28	0xbc53dd59	-0.012931191
29	0xbba5388a	-0.0050421404
30	0xbc38ca38	-0.011278681
31	0x3d4f7e6a	0.050657667

e_conv3.weight f4 [32, 64, 3, 3]
0	0xbacad8c2	-0.0015475976
1	0xbb87282b	-0.0041246614
2	0x2f4a25f7	1.8385281e-10
3	0x3aad20d2	0.0013208634
4	0xbb343c6f	-0.0027501842
5	0x30b24a75	1.2972367e-09
6	0x3a1f481a	0.00060761126
7	0xbc68afb9	-0.014202052
8	0x3c97c543	0.018526679
9	0x3b2d4509	0.0026438853
10	0x3c652b1f	0.013987332
11	0x3d1eca3f	0.038767096
12	0xbc83daed	-0.016095603
13	0xbc08cadd	-0.008349148
14	0x3bf21407	0.0073876414
15	0xbd28f073	-0.041244935
16	0xbba7f506	-0.0051256446
17	0xbcc568c2	-0.024097804
18	0x3b9cab5c	0.00478117
19	0xbbc17e53	-0.0059049516
20	0xbc10e46c	-0.0088435225
21	0x3b264c03	0.0025374896
22	0x3c0c58ec	0.0085661225
23	0x3c8b31ff	0.016991613
24	0xbac555ae	-0.0015055442
25	0xbbf5c80d	-0.0075006546
26	0xbb11ffaf	-0.0022277643
27	0x3c43a8de	0.011942117
28	0x3bc52a3f	0.006016999
29	0x3cd512a8	0.026009873
30	0xbc48a17f	-0.012245535
31	0xbc22be67	-0.009933091
32	0x3c002b89	0.00782288
33	0x3c4f9615	0.01267006
34	0xbc8c3734	-0.017116167
35	0xbd01849d	-0.03162061
36	0x3c7465a7	0.014916814
37	0x3d1ed51f	0.038777467
38	0x3c87c500	0.01657343
39	0x3c379aa3	0.011206302
40	0x3c844645	0.016146788
41	0xbb5d0748	-0.0033726264
42	0x3c5ea380	0.013588786
43	0x3b26493e	0.0025373246
44	0xbb49f2c1	-0.0030814859
45	0x33b979d0	8.6368914e-08
46	0x35874e8c	1.0081144e-06
47	0xaf21316d	-1.4660424e-10
48	0xb9fb0d2c	-0.00047884264
49	0x3b9507c0	0.004548043
50	0xbc8f9426	-0.017526697
51	0x3a06897d	0.00051321817
52	0x39e7206a	0.00044083904
53	0x2ff2d467	4.4170465e-10
54	0x3a708efa	0.00091765786
55	0xbc912c95	-0.017721454
56	0x3c74a5a2	0.014932068
57	0x3cc8db27	0.024518562
58	0x3c4e1ccb	0.012580107
59	0x3bbcc238	0.0057604574
60	0xbbcfdddf	-0.006343588
61	0xbb112e14	-0.002215271
62	0xbc64bb23	-0.0139606325
63	0xb1f10396	-7.014431e-09
64	0x38d4c282	0.00010145178
65	0x3c27c684	0.010240201
66	0x2f8b74a0	2.536682e-10
67	0xb36be527	-5.4923614e-08
68	0x368959be	4.0933655e-06
69	0xbbb33de7	-0.005470026
70	0xb3a0b6ec	-7.483854e-08
71	0xb221159c	-9.376347e-09
72	0x2fa1602e	2.935407e-10
73	0xb528dce7	-6.290633e-07
74	0x3b20f8f9	0.0024562462
75	0xbb4e2499	-0.003145492
76	0x388ea4aa	6.801759e-05
77	0xbcf29836	-0.029613595
78	0xb26a2d2d	-1.3630864e-08
79	0x384227e6	4.6290363e-05
80	0x340c45c7	1.3063901e-07
81	0xbbf74082	-0.0075455317
82	0xbc1b5127	-0.009479797
83	0x3c6bd37b	0.014393683
84	0xbbc6cbcf	-0.0060667763
85	0x3c68e1bc	0.0142139755
86	0xbb997589	-0.0046832007
87	0xbbdc75c5	-0.0067279064
88	0xbba98bdc	-0.0051741432
89	0xbabb286a	-0.0014279012
90	0xbaa6918d	-0.0012708172
91	0xba15efd4	-0.0005719636
92	0x3c6fdfa4	0.014640722
93	0xbb9e917b	-0.00483912
94	0x3baa94ca	0.0052057253
95	0xba93f996	-0.0011289592
96	0x39873e61	0.00025795682
97	0xbb413f7d	-0.0029487305
98	0x3c2edac2	0.010672273
99	0xb0e3f5bf	-1.6586269e-09
100	0xb30722cb	-3.146378e-08
101	0x3a307a3a	0.00067320804
102	0xbb55df79	-0.003263442
103	0xba527908	-0.00080288993
104	0x35ba272d	1.3869482e-06
105	0xb0246429	-5.980519e-10
106	0xb01838a5	-5.5377775e-10
107	0xbb9b0009	-0.004730229
108	0x39de89d3	0.00042445827
109	0xb3409d86	-4.484675e-08
110	0xbab8bb16	-0.0014093842
111	0x38952311	7.111405e-05
112	0x33a5e27c	7.7246085e-08
113	0xbb26ce3f	-0.0025452522
114	0xae39d762	-4.225543e-11
115	0x3bb01850	0.005373992
116	0xb99627a3	-0.0002863976
117	0xb9e4ac61	-0.0004361598
118	0x3c97a385	0.01851059
119	0xbbf60fe7	-0.00750922
120	0xbc85ec38	-0.01634799
121	0x3b54125a	0.0032359571
122	0x3b54d9f8	0.0032478552
123	0x3c417f1d	0.011810091
124	0x3aef6771	0.0018265081
125	0x3cbff433	0.023431873
126	0xbbf5c0c0	-0.007499784
127	0x3b8aaf12	0.004232296
128	0x39b5480f	0.00034576698
129	0x2b911a35	1.0310144e-12
130	0x3c4f52af	0.012653991
131	0x3994f5dd	0.00028411942
132	0x3b9200bd	0.0044556544
133	0xbc3957d8	-0.0113124475
134	0x3b8b0834	0.0042429212
135	0xbcd45e39	-0.025923835
136	0x3ad49b9c	0.0016220692
137	0x3caa3a11	0.020779641
138	0x3c66a176	0.014076581
139	0xbc417c99	-0.011809492
140	0xbb873b9b	-0.0041269786
141	0xbd31d705	-0.04341795
142	0xbcff6da6	-0.031180214
143	0xbc44d8da	-0.012014592
144	0x3bbd7922	0.0057822624
145	0x3bc2b4ae	0.005941949
146	0x3d2543a7	0.04034772
147	0xbcf7fc86	-0.03027178
148	0xb8e15daf	-0.00010746286
149	0xbd144089	-0.036194358
150	0xbd1ca2e5	-0.038241286
151	0xbb038b19	-0.0020071922
152	0x3aba3dda	0.0014209107
153	0xbb905370	-0.004404478
154	0x3c383cbb	0.011244948
155	0x3ce0088e	0.02734783
156	0xbc256423	-0.010094675
157	0xbb0e0327	-0.002166936
158	0xbc1bbaaf	-0.009504958
159	0x3cc0491b	0.02347236
160	0x3b702161	0.003664099
161	0xbc52d2cb	-0.01286764
162	0x3bbc1ded	0.005740872
163	0x3c67a0d2	0.014137464
164	0x3cb8fb54	0.02258078
165	0x3c3c658e	0.011498822
166	0xbc9bc655	-0.01901547
167	0x3ccde49f	0.02513343
168	0xbce5ece0	-0.028067052
169	0xbc52a48d	-0.012856615
170	0x3bed07aa	0.0072335796
171	0x3cf5e22b	0.030015072
172	0xbc8c6b73	-0.01714108
173	0x3c1ceb90	0.009577647
174	0x3a0582d0	0.000509304
175	0xbce0960e	-0.027415302
176	0xbd520ef2	-0.051283784
177	0xbcb084ca	-0.021547694
178	0xbc665a8f	-0.014059677
179	0x3abdad8c	0.0014471277
180	0x3af03322	0.0018325786
181	0x3c2f6cf3	0.010707128
182	0xbd211101	-0.039322857
183	0xae85d105	-6.085269e-11
184	0x30daa9ad	1.5909812e-09
185	0x325d57a1	1.2883818e-08
186	0x3b9dd340	0.0048164427
187	0x3c1de0c9	0.0096361125
188	0xaee25f5a	-1.0294228e-10
189	0xbb8433aa	-0.004034479
190	0xbc572fca	-0.013133952
191	0xbcab1807	-0.02088548
192	0x3b4fc629	0.0031703806
193	0x3c0643dd	0.008194891
194	0x3c69ba1a	0.0142655615
195	0xbbd905fe	-0.006623029
196	0xbcb6beed	-0.022307837
197	0x3c161576	0.00916039
198	0xbb73f620	-0.003722556
199	0xbba0bdb2	-0.004905426
200	0x3c5e191c	0.013555791
201	0xbc3e43cc	-0.011612844
202	0xbbb496f0	-0.005511157
203	0xbc176a20	-0.009241611
204	0xbb69933f	-0.0035640744
205	0xbb3ec2fa	-0.0029107914
206	0xbbb25054	-0.0054417048
207	0xbc82e5ce	-0.01597872
208	0x3c27ad6b	0.010234217
209	0xbbdfa726	-0.0068253456
210	0x3b9f1e3d	0.0048558996
211	0xbc0601bb	-0.0081791235
212	0xbb634016	-0.003467565
213	0xbcbc8ee2	-0.02301735
214	0xbce44b93	-0.027868068
215	0x3b9eae20	0.0048425347
216	0x3b8d1f2c	0.0043066945
217	0x3ba45729	0.005015273
218	0xb0828f19	-9.499416e-10
219	0xbc52dd55	-0.0128701525
220	0xbad31e62	-0.0016107077
221	0x3031f738	6.4743544e-10
222	0x3ba77a74	0.005111033
223	0x3bd9513d	0.006631999
224	0x3b9d9580	0.0048090816
225	0x2e91c2a3	6.628411e-11
226	0xaef28947	-1.1029271e-10
227	0xb83a6880	-4.444318e-05
228	0xbc3d227a	-0.011543864
229	0xb227dcc9	-9.77088e-09
230	0xb9b6340e	-0.0003475253
231	0x2f17d916	1.3810494e-10
232	0x2f43ff25	1.7825792e-10
233	0x3c12435f	0.008927195
234	0xbc7896cf	-0.015172674
235	0xbd0fb675	-0.035086114
236	0x3c2583eb	0.0101022525
237	0xbb93b0f6	-0.0045071794
238	0x3d160086	0.036621593
239	0x3acf391a	0.0015809864
240	0x3b396780	0.002829045
241	0xbccf768d	-0.025325084
242	0xbc9af06a	-0.018913466
243	0x3187684a	3.9408734e-09
244	0xbc1b9975	-0.009497036
245	0x2e4148d0	4.394779e-11
246	0x2f087467	1.2410482e-10
247	0xb82359e5	-3.894595e-05
248	0x2dbe10dd	2.1607988e-11
249	0xb265a953	-1.3368054e-08
250	0xbadbd997	-0.0016773221
251	0x3c759810	0.014989868
252	0xbc593815	-0.013258
253	0xb3274ff9	-3.8955452e-08
254	0xadb2888b	-2.0296894e-11
255	0x3b7dfd0b	0.0038755562

e_conv3.bias f4 [32]
0	0x3cf82a8c	0.030293725
1	0x3ce7bdb8	0.028288707
2	0xbb1fbf53	-0.0024375513
3	0x3c016537	0.007897667
4	0x3d087e52	0.033323593
5	0xbce3d4fb	-0.027811518
6	0xbcbb0dbb	-0.022833696
7	0xbc810eac	-0.015754066
8	0x3d03a37f	0.032138344
9	0x3bd1a1a5	0.0063974434
10	0x3d0204aa	0.03174273
11	0xbc260d94	-0.010135073
12	0x39c374df	0.00037280374
13	0xbc53fb98	-0.012938403
14	0xba872f27	-0.0010313735
15	0xbc8c4367	-0.017121984
16	0x3d12f83a	0.03588126
17	0xbc77072c	-0.0150773935
18	0x3d339496	0.043842874
19	0xbc2aeec2	-0.010432901
20	0xb9e16f92	-0.0004299847
21	0x3c4c6686	0.012475615
22	0x375f4d15	1.3309783e-05
23	0xbc2961a3	-0.01033822
24	0x3c30d8fb	0.01079392
25	0xb4f8666c	-4.6268121e-07
26	0x3c8d3cc7	0.017240895
27	0x3d2bb1af	0.0419175
28	0x378d27e6	1.6827089e-05
29	0xbca0bd49	-0.019621508
30	0x3d05ccf4	0.03266616
31	0xbcba2339	-0.022721874

e_conv4.weight f4 [32, 64, 3, 3]
0	0xbbe287bf	-0.006913155
1	0x3c78d3c9	0.015187212
2	0xbd5ba03a	-0.0536196
3	0x3bb0bb76	0.005393441
4	0xbc14566a	-0.009053806
5	0xbc24c9ad	-0.010057849
6	0x3c8d8e73	0.01727984
7	0xbbaf7e8e	-0.0053556627
8	0xbc8b6610	-0.01701644
9	0x37bca507	2.2488193e-05
10	0x3b59a6f3	0.0033211082
11	0x3186b6f5	3.920713e-09
12	0xb9b2c0d3	-0.0003409447
13	0x3c8b39b9	0.016995298
14	0x3ade0e15	0.0016941453
15	0xbc509502	-0.012730839
16	0x3a968124	0.0011482579
17	0xbb1fff18	-0.0024413522
18	0xba8c7b58	-0.0010717912
19	0x3a1b02f6	0.0005913222
20	0x38916339	6.9326205e-05
21	0x3ba9f097	0.0051861512
22	0x3b85d7b7	0.004084553
23	0x3af31a7d	0.0018547323
24	0x3b2dfd50	0.002654869
25	0xbc0d941d	-0.00864127
26	0x3b440784	0.0029911706
27	0x322a8e59	9.9276685e-09
28	0x2e72ec30	5.5234206e-11
29	0x3b8e67f0	0.0043458864
30	0x3a10f5fd	0.0005529819
31	0x3b272494	0.002550398
32	0xb99f2c2f	-0.00030359763
33	0xbb020b4c	-0.001984316
34	0x39314605	0.0001690612
35	0xbaba0e54	-0.0014194944
36	0xbad74e7a	-0.0016426586
37	0xbbfdf635	-0.0077502974
38	0xbcc4efb5	-0.024040082
39	0xbb959d57	-0.0045658755
40	0x3d37ecd3	0.044903588
41	0x3afe6197	0.0019407746
42	0xbd0ed6b5	-0.03487273
43	0xbbfb3077	-0.0076656896
44	0x3b6b9d5e	0.0035951952
45	0xbc587622	-0.013211759
46	0x3c0b1bdc	0.008490529
47	0xbc866a22	-0.01640803
48	0xbbe67c53	-0.0070338636
49	0xbb0860ef	-0.002080973
50	0x3c256ad9	0.010096275
51	0x397dbd74	0.00024198537
52	0x3be6efd9	0.007047635
53	0x3c2bf434	0.010495234
54	0x3a6ff521	0.00091536535
55	0x3ac26e83	0.001483396
56	0x3abb67b5	0.0014297875
57	0xbc085efe	-0.008323429
58	0x3afa88c6	0.0019114248
59	0xba2e61c4	-0.00066521415
60	0xbaf4af8c	-0.001866804
61	0x37cd393f	2.4464562e-05
62	0x3a1448b6	0.0005656587
63	0xbc69a45c	-0.014260378
64	0xbca0c82d	-0.019626701
65	0xbce9775b	-0.028499296
66	0xbcd8b7f8	-0.02645491
67	0x3cb286a6	0.021792721
68	0x3c36c663	0.0111556975
69	0xbc2d0039	-0.010559135
70	0x3c14dfd0	0.009086564
71	0xbc26ef06	-0.010188824
72	0xbc85d99e	-0.01633912
73	0x3bca32db	0.006170613
74	0x3c3ad704	0.011403803
75	0xbbfb85e0	-0.0076758713
76	0x3cd07312	0.025445495
77	0xbb9f1ef6	-0.0048559858
78	0xbb9e8817	-0.0048380005
79	0xbc0e9fe6	-0.008705115
80	0xbc9ad303	-0.018899446
81	0xbcdd6ecb	-0.02703037
82	0x3ad967b8	0.0016586697
83	0xbceb5d02	-0.028730873
84	0x3d1854e4	0.037190333
85	0xbc8c8b3b	-0.017156234
86	0x3cbb801d	0.022888238
87	0x3b569da5	0.0032747772
88	0x3b63b7e3	0.0034747056
89	0xbc8870b4	-0.016655304
90	0x3c1d31cb	0.009594391
91	0xbc8820d1	-0.01661721
92	0xbba79647	-0.00511435
93	0xbc32d32a	-0.010914603
94	0x3c8816a0	0.016612351
95	0x3d2f74f0	0.04283613
96	0xbc07b839	-0.008283668
97	0x3c8c6150	0.017136246
98	0x3b6f7494	0.0036537992
99	0x3bce84b5	0.006302441
100	0x3b9a256f	0.0047041695
101	0xb213a7f6	-8.594716e-09
102	0xba2087dd	-0.0006123761
103	0xbc149fe1	-0.009071321
104	0x33b54999	8.4418566e-08
105	0xbb43165a	-0.0029767961
106	0xba61397d	-0.0008591635
107	0x3ab5e894	0.0013878518
108	0x33c2d454	9.072451e-08
109	0xbc88ffa5	-0.016723463
110	0x3a960356	0.0011445086
111	0xbaab77ba	-0.0013081946
112	0x36854fd2	3.973001e-06
113	0x3c58bc25	0.013228451
114	0x3a08698e	0.0005203717
115	0xbc110056	-0.008850178
116	0xbc514e77	-0.012775055
117	0xbc33485e	-0.010942547
118	0x3cf254a7	0.029581381
119	0x3c2c7bf7	0.010527602
120	0x3c307dfa	0.010772223
121	0x3c9c2cbf	0.019064305
122	0xbba664e0	-0.005077943
123	0xbd41dc69	-0.04732934
124	0x3ce98c7d	0.028509373
125	0x38a1381d	7.68753e-05
126	0xbc419c11	-0.011816994
127	0x3ce522e0	0.027970731
128	0x3c032d63	0.0080064265
129	0xbc087122	-0.008327754
130	0x3c8ddeb2	0.017318103
131	0x3ce885db	0.02838414
132	0x3c8fd158	0.017555878
133	0x3b50b31d	0.003184504
134	0xbc176791	-0.009241001
135	0x3c023b15	0.007948657
136	0xbc88255e	-0.01661938
137	0xb0897b6b	-1.0003139e-09
138	0xba5270cd	-0.0008027673
139	0xb5372a56	-6.823442e-07
140	0xb9849dab	-0.00025294474
141	0x368091b0	3.8316575e-06
142	0xb03411db	-6.550899e-10
143	0xaf9d05c9	-2.8562244e-10
144	0x3b9542fe	0.004555105
145	0xbd49e9d7	-0.049295273
146	0xbcc45891	-0.023968013
147	0xbcc6d4f1	-0.02427146
148	0xbcfc7346	-0.030816685
149	0x3c5c6e50	0.013454035
150	0x3c52ee96	0.012874266
151	0x3c8eab93	0.017415797
152	0x3d064707	0.03278258
153	0x3c3d632d	0.01155929
154	0x3a9975fe	0.0011708138
155	0x3a78bf66	0.000948897
156	0x3cb85a97	0.022504134
157	0x3ce6b414	0.02816204
158	0xbbf2102d	-0.007387182
159	0x3ced1ecb	0.028945347
160	0x3cc7fc9a	0.024412442
161	0x3c710301	0.014710189
162	0xbb5c9075	-0.003365544
163	0x3c584a7e	0.013201354
164	0xba26e807	-0.0006366972
165	0x384cf21b	4.886287e-05
166	0xbc46577e	-0.012105821
167	0x321ffc01	9.312317e-09
168	0xb9c15cf4	-0.00036881084
169	0x3821c3c1	3.85677e-05
170	0xbc297ed6	-0.010345181
171	0xbc1ba00c	-0.009498607
172	0xbcec7a9b	-0.028867057
173	0x3ca20486	0.019777548
174	0xbc1a94d7	-0.0094349
175	0x3c70bd68	0.0146935955
176	0xbc2275c5	-0.009915774
177	0xbb3c377a	-0.002871959
178	0x3c958beb	0.018255195
179	0xbc7ce7fb	-0.015436168
180	0x3843fbcf	4.6726138e-05
181	0x3aa6f1dc	0.0012736875
182	0x379b7c29	1.8535256e-05
183	0xbbb6c1a9	-0.0055772853
184	0x3ba9ff56	0.005187909
185	0xb09888b9	-1.1098314e-09
186	0x34a61120	3.093237e-07
187	0x3c19974a	0.009374449
188	0xb003791b	-4.7829624e-10
189	0xbc99117f	-0.0186851
190	0xba83fff4	-0.0010070787
191	0x3a9cc3fb	0.0011960262
192	0xbb479277	-0.003045229
193	0x3b6d31a2	0.0036192914
194	0xbb018a47	-0.0019766258
195	0x3c69eb8e	0.014277352
196	0xbc89cbd6	-0.01682083
197	0xbb04b685	-0.0020250392
198	0x3aef01ef	0.0018234829
199	0x3c7e4224	0.015518699
200	0x2e2879c6	3.8306934e-11
201	0x3143cd06	2.8492777e-09
202	0x3a2ff2d1	0.00067119027
203	0xba4f64ef	-0.00079114636
204	0x3c2a9925	0.010412489
205	0x3af84f7e	0.0018944589
206	0x3b403645	0.0029329222
207	0x3c8a951a	0.0169168
208	0xbc0a63f8	-0.008446686
209	0x3c15a880	0.009134412
210	0xbc99064e	-0.018679764
211	0xbb810e46	-0.003938469
212	0x3cc4ac48	0.024007931
213	0x3c0cb565	0.00858817
214	0x3ca258fc	0.019817822
215	0x3c9501b0	0.018189281
216	0x3a6c562f	0.0009015528
217	0x39d47390	0.00040521892
218	0xb7a42d67	-1.9571466e-05
219	0x39cfa273	0.0003960315
220	0xaef0c3e8	-1.09487364e-10
221	0x3a19ce69	0.00058672443
222	0xb6bb3e80	-5.5803102e-06
223	0x30259086	6.023203e-10
224	0xb98430c9	-0.0002521335
225	0xbc6d339e	-0.0144776385
226	0xbcfde637	-0.030993564
227	0xbc6dec7c	-0.014521714
228	0x3c28b6c1	0.010297478
229	0xbc1378c6	-0.009000963
230	0xba9fff5b	-0.0012206839
231	0xbbcbbf3e	-0.006217866
232	0x3b3e2dc5	0.002901898
233	0x3c5a85d9	0.013337576
234	0x3c34ffe8	0.011047341
235	0xbc8182cf	-0.015809445
236	0xbad34aba	-0.0016120293
237	0xbb9f9f7d	-0.0048713074
238	0xbbdccbc9	-0.0067381603
239	0x3c07c449	0.008286544
240	0x3c6b6860	0.014368147
241	0x3ca0e65d	0.019641096
242	0x3c49cf31	0.012317465
243	0x3b91b92c	0.004447123
244	0xbbba11b5	-0.0056783804
245	0x3bc99d91	0.0061528166
246	0xbb932fab	-0.0044917664
247	0x3a822c70	0.0009931456
248	0xba83c985	-0.0010054564
249	0xbb96c3da	-0.004600984
250	0xba805846	-0.0009791933
251	0x3b79a077	0.003809003
252	0x39cbb7cf	0.00038856125
253	0x32455bce	1.1487783e-08
254	0x37f38fd0	2.9034825e-05
255	0x3903c0c6	0.00012564947

e_conv4.bias f4 [32]
0	0x3d06bd58	0.032895416
1	0xbaa21d90	-0.001236843
2	0xbcdcce45	-0.026953826
3	0xbc4a02ac	-0.012329739
4	0x3c88f88e	0.016720083
5	0x3c8291c7	0.015938653
6	0x3c325d22	0.010886462
7	0x3c7cd0ca	0.015430639
8	0xba26e4b7	-0.00063664786
9	0xbbe281ab	-0.0069124303
10	0x3b9334ae	0.004492364
11	0x3cdc056d	0.026858056
12	0x3c10f7b8	0.008848123
13	0xbb871273	-0.0041220724
14	0x3cbb63bc	0.022874705
15	0x3c4414ce	0.011967851
16	0xbd05f085	-0.03270008
17	0x3c3ed472	0.011647331
18	0xbb18d996	-0.002332305
19	0x3cfd1d3c	0.03089773
20	0xbc002d46	-0.007823294
21	0xbc571a61	-0.013128848
22	0x3b42a81c	0.0029702252
23	0xbc1f74bf	-0.009732424
24	0xbc27bd50	-0.010238007
25	0x3d154c68	0.03644982
26	0x318a2639	4.020674e-09
27	0x3cfe2d4d	0.03102746
28	0x3ab6fc89	0.0013960759
29	0x3c1aa7e4	0.009439442
30	0xbbec547c	-0.0072122198
31	0x3cb73ced	0.022367919

e_conv5.weight f4 [32, 64, 3, 3]
0	0x3af979e6	0.0019033521
1	0xbb8a3044	-0.0042171795
2	0x3bf57d13	0.0074917166
3	0x3c42504f	0.011859967
4	0x3c90eece	0.017691996
5	0x3c460bee	0.012087805
6	0xbb0deef3	-0.0021657317
7	0xbb60a148	-0.0034275819
8	0x3ba80d22	0.0051285187
9	0xba09176b	-0.0005229625
10	0xbc5a1a00	-0.013311863
11	0x3c3f888d	0.011690271
12	0x3c166c40	0.009181082
13	0x3bf1bdcf	0.0073773633
14	0xbce1e26a	-0.027573783
15	0x3be2a22d	0.0069163055
16	0x3cf3b6ce	0.029750254
17	0x3bd79bb2	0.0065798396
18	0xbc0f89a7	-0.008760846
19	0xbb37cda5	-0.0028046158
20	0x379ef828	1.8950625e-05
21	0xb6dbc7f4	-6.549986e-06
22	0xb7f39213	-2.9035878e-05
23	0x37b7a689	2.1892849e-05
24	0xbbdd1ba1	-0.0067476784
25	0xb444559a	-1.8285064e-07
26	0x3bc408a6	0.0059824763
27	0x3c8ac513	0.016939675
28	0xbc072a64	-0.008249853
29	0x3c8a389a	0.016872693
30	0x3bcd7d9f	0.0062710787
31	0x3c81c2bf	0.015839932
32	0x3c9220c8	0.017837897
33	0xbbc910b6	-0.0061360253
34	0x3c803ead	0.015654886
35	0x3c150187	0.009094602
36	0x3cb97342	0.022637967
37	0x3c910b52	0.017705593
38	0x3c331774	0.010930885
39	0x3ca7863f	0.020449756
40	0xbbb513b0	-0.0055260286
41	0x3c30625c	0.010765638
42	0xbcadc8f8	-0.021213993
43	0xbc4ce74e	-0.012506319
44	0xbc8d9a27	-0.01728542
45	0x3b0438d0	0.0020175464
46	0x2e3c2ea6	4.2787683e-11
47	0xb2bba248	-2.1843462e-08
48	0xae5c1a41	-5.0045527e-11
49	0xae5633a0	-4.870382e-11
50	0xbaaded48	-0.0013269568
51	0xbb80c97a	-0.003930268
52	0xb362a35f	-5.276831e-08
53	0xbc0f471d	-0.008744982
54	0x3c34da71	0.011038409
55	0xbb6a2131	-0.003572535
56	0x3c2829a1	0.010263831
57	0x3c5b8f65	0.013400887
58	0x3c5bd134	0.013416577
59	0x3cb2a43e	0.021806832
60	0xbc89b502	-0.016809944
61	0x3a9e48b5	0.0012076112
62	0x3a5eecf6	0.0008503938
63	0x3785ff24	1.5973645e-05
64	0x37481553	1.1925894e-05
65	0xbc04d4d8	-0.0081073865
66	0xaf1c5cf5	-1.4221142e-10
67	0x3b35a1e0	0.0027714893
68	0xba3f9634	-0.0007308454
69	0x2ea09be1	7.303647e-11
70	0xbbb0c11d	-0.0053941146
71	0x303c66fd	6.8540357e-10
72	0xbcd4b0a1	-0.02596313
73	0x3c82eb74	0.015981413
74	0xbcff26eb	-0.031146487
75	0xbcc4766e	-0.023982253
76	0x3cef3137	0.029198272
77	0xbca4382e	-0.02004632
78	0x3c6e15dd	0.01453158
79	0xbca12946	-0.019673001
80	0x3c609e83	0.013709667
81	0x3ce9a9f1	0.028523417
82	0xbafd11ef	-0.0019307713
83	0xbc7e2c84	-0.015513543
84	0x3c5c22c8	0.013436027
85	0xbcdc55bf	-0.026896356
86	0xbc0bdb8c	-0.008536231
87	0xbb94db60	-0.004542753
88	0x3bc839a6	0.006110388
89	0x3b9d35d1	0.004797675
90	0xbac30220	-0.0014877953
91	0xbc1ba683	-0.009500149
92	0x3b9db428	0.004812736
93	0xbbce1a11	-0.0062897285
94	0x3b97dbac	0.004634341
95	0x3c880d19	0.016607808
96	0xbb7a31e5	-0.0038176712
97	0xbb210284	-0.002456815
98	0x3c8c5c41	0.017133834
99	0xb012d316	-5.341446e-10
100	0x30016529	4.7073684e-10
101	0x3c8765a6	0.016527962
102	0xb6d8da22	-6.4626956e-06
103	0x2ddf62a4	2.539597e-11
104	0xbb93900e	-0.0045032566
105	0x2efe63cc	1.156831e-10
106	0x30ee81b7	1.7353646e-09
107	0xbad1ed10	-0.0016016085
108	0xb8802a45	-6.111389e-05
109	0xbd07fb91	-0.033198897
110	0x3b8eea23	0.0043614074
111	0x38be52df	9.075342e-05
112	0x3c2146d8	0.009843551
113	0x391e4468	0.00015093538
114	0xbaa0c9ce	-0.0012267174
115	0x399f38ed	0.00030369256
116	0x3181b9b7	3.7755075e-09
117	0xb8f60bd5	-0.00011732398
118	0x3bca6dbd	0.0061776326
119	0x2ebc88c2	8.573543e-11
120	0x3ab50094	0.0013809376
121	0x2db5c67a	2.0665459e-11
122	0x2e2f871c	3.9910394e-11
123	0x317a430d	3.6417902e-09
124	0xbc119dd8	-0.008887731
125	0x3c8cc247	0.017182482
126	0x3c5f01a5	0.013611232
127	0xba807e85	-0.0009803331
128	0xbba35f63	-0.004985736
129	0x3a243f7c	0.00062655634
130	0x3b94d496	0.004541944
131	0x350af756	5.176893e-07
132	0xaf837a6b	-2.3915744e-10
133	0x32d95a13	2.5303086e-08
134	0xbc62f65a	-0.01385268
135	0x339b412e	7.229606e-08
136	0x3b851c7a	0.0040622326
137	0xb68f291d	-4.2665183e-06
138	0xb6b71ff2	-5.457544e-06
139	0xbbcc7052	-0.0062389756
140	0xbc062a07	-0.008188731
141	0x3c11d893	0.008901733
142	0x3b726e6d	0.0036992088
143	0x3103c9d4	1.9177735e-09
144	0xbc3a00a4	-0.011352692
145	0xbb45c79a	-0.0030178786
146	0xbc38c726	-0.011277949
147	0xbcb1e183	-0.021713978
148	0x3b0f3f51	0.0021857808
149	0x3d134e3c	0.035963282
150	0x3bc7a70f	0.006092913
151	0x3a1e9fc8	0.0006051031
152	0xbbe7668f	-0.0070617865
153	0xbd346de7	-0.044050124
154	0x3c770289	0.015076288
155	0x3d1e829a	0.03869877
156	0x3b3dd8d9	0.0028968363
157	0x3ccd8c27	0.025091244
158	0xbc85f762	-0.016353313
159	0x3c93a51c	0.018023066
160	0xbc82d504	-0.015970714
161	0xbcb4dd2d	-0.022078121
162	0x3b98c940	0.0046626627
163	0xbaeeb5f5	-0.0018212186
164	0x3bd8ec1c	0.0066199433
165	0x3d0e0e68	0.034681708
166	0x3ab55053	0.0013833143
167	0x3d713c15	0.05889519
168	0x3ccaf282	0.02477384
169	0xbc43ecd1	-0.011958317
170	0x3ccc0c27	0.024908138
171	0xbc8d56c2	-0.017253283
172	0x3c335449	0.010945388
173	0x3cd517e7	0.026012374
174	0x3ca40319	0.020021008
175	0x3bb3781d	0.005476965
176	0xb905e235	-0.00012768137
177	0xbc90014b	-0.017578742
178	0xbbc0aa97	-0.005879711
179	0x3b189bd8	0.002328625
180	0xbc74c3a5	-0.014939223
181	0xbcbcc278	-0.023041949
182	0xb9327ea6	-0.00017022583
183	0x3a4349a0	0.00074496306
184	0x3ad5cf8f	0.0016312468
185	0x3c0f2605	0.008737092
186	0xbb6ec6de	-0.0036434452
187	0xbb599e79	-0.003320603
188	0x38feb0a6	0.00012144567
189	0xbbc19f3f	-0.005908876
190	0xbbd2345f	-0.0064149345
191	0xbc0c8a1a	-0.008577848
192	0x3987eaa7	0.00025924036
193	0xbb7dac60	-0.003870748
194	0xbcf78c3a	-0.030218232
195	0x3af95c65	0.0019024728
196	0xbb9b3e9f	-0.0047376896
197	0xba8c2d4f	-0.0010694655
198	0x3a0ab657	0.0005291453
199	0x3b56c49a	0.0032770992
200	0x3cc6bb89	0.024259346
201	0x3c3df94c	0.011595082
202	0x3c60241e	0.013680486
203	0xbc8eb4b3	-0.017420148
204	0xbb2dbcc6	-0.0026510223
205	0xbc04d698	-0.008107804
206	0xbcc066d3	-0.02348653
207	0xbc24b512	-0.010052936
208	0x3c8eac2c	0.017416082
209	0x3c28dc89	0.010306486
210	0x3ccab435	0.024744133
211	0xbc2731dd	-0.010204759
212	0x3b64fb77	0.0034939924
213	0xbce614e3	-0.028086131
214	0x3d19934f	0.037494
215	0xbcdd84e3	-0.027040904
216	0x3cc4fdcf	0.024046807
217	0x3d620ca7	0.055187847
218	0xbd5c5076	-0.05378767
219	0x3a8a144c	0.0010534613
220	0xbc98b401	-0.01864052
221	0xbb8e66f9	-0.0043457714
222	0xbd2d5843	-0.0423205
223	0xbd3d8ce6	-0.04627695
224	0x3cbfed17	0.023428483
225	0xbc9a434f	-0.018830923
226	0xb1d820c5	-6.290153e-09
227	0x3389292b	6.387048e-08
228	0x39ab511e	0.000326761
229	0x3a54b437	0.00081140123
230	0x30a0fd31	1.1713494e-09
231	0x3838cadf	4.4057957e-05
232	0x3a8a1ced	0.0010537185
233	0x3a72e270	0.0009265309
234	0xbb98cf48	-0.0046633817
235	0xbb0e85d9	-0.002174726
236	0x3bbb7393	0.0057205646
237	0xbc824dc6	-0.015906226
238	0xbca4ea5e	-0.020131286
239	0xbcbb8096	-0.022888463
240	0xba14f63c	-0.0005682444
241	0xbbbfbb91	-0.005851217
242	0x3886de2d	6.4310014e-05
243	0xbc950c15	-0.018194238
244	0xbc59a1a5	-0.013283168
245	0xbbe5d93f	-0.007014423
246	0xbc2d16dd	-0.010564533
247	0x3b31baf3	0.0027119487
248	0x3d376bf5	0.04478069
249	0x3c5466a6	0.012963926
250	0xbc77884d	-0.01510818
251	0x3aa5c623	0.001264755
252	0xbc30cff0	-0.010791764
253	0xb5016a80	-4.821122e-07
254	0x391cefe5	0.00014966687
255	0x38467065	4.7311554e-05

e_conv5.bias f4 [32]
0	0x3ca672f0	0.020318478
1	0xbbd88d6e	-0.0066086566
2	0xbc5e1f3c	-0.013557252
3	0x3a3fe731	0.0007320522
4	0xbb5ae9fe	-0.003340363
5	0x3b52c62e	0.0032161581
6	0xbb97e409	-0.004635338
7	0x3cec43d0	0.02884093
8	0xbb078134	-0.0020676376
9	0xbc343b52	-0.011000471
10	0x3d2f1bdd	0.042751182
11	0x3ce656d4	0.028117575
12	0xbc1da80f	-0.009622588
13	0xbc22e444	-0.009942118
14	0x3ce237f7	0.027614577
15	0x3d1193ba	0.035541274
16	0xbad46a91	-0.0016206076
17	0xbbe399f5	-0.0069458433
18	0x381d2ea8	3.747517e-05
19	0x3bde06e0	0.006775722
20	0x3cd06694	0.025439538
21	0x3cedfbd1	0.02905074
22	0x3bf36698	0.0074280016
23	0xba31ba63	-0.0006779788
24	0x3c92cf53	0.017921126
25	0xbc3853a2	-0.011250408
26	0x3bb7d2d8	0.0056098513
27	0x3c033b6b	0.008009772
28	0x3cfe97fc	0.031078331
29	0xbb4a9dd2	-0.0030916822
30	0xbc255961	-0.01009211
31	0xb7ae0337	-2.0743913e-05

e_conv7.weight f4 [8, 64, 3, 3]
0	0xbd10382f	-0.03520983
1	0x3bcc0931	0.0062266816
2	0xbb73b1a5	-0.0037184742
3	0x3cc14e13	0.023596799
4	0xbc2c2f50	-0.010509327
5	0x3b3f7a8f	0.0029217338
6	0x3cc82b00	0.024434566
7	0xbcbae56e	-0.022814479
8	0x3cbc15f0	0.02295968
9	0x3bfc560a	0.0077006863
10	0x3b4bb4f6	0.0031083203
11	0x3c923ed4	0.017852224
12	0x3beb5ec1	0.0071829264
13	0x3c146fbb	0.009059842
14	0x3c7c0379	0.015381687
15	0x3c89d01e	0.01682287
16	0x3c6e3988	0.014540084
17	0xbc071736	-0.00824528
18	0xb7a6d847	-1.9889454e-05
19	0x3c56546d	0.013081652
20	0x3b113a99	0.002216017
21	0xb161efb3	-3.2878062e-09
22	0xb9cd0077	-0.00039100993
23	0x2fc39b16	3.5580489e-10
24	0xafc7619f	-3.6267253e-10
25	0xbaa5879f	-0.0012628919
26	0xbc926d2b	-0.017874321
27	0x2fbf5e41	3.480967e-10
28	0xb0784283	-9.0316393e-10
29	0xbc0ea410	-0.008706108
30	0x34669e78	2.147807e-07
31	0xae5eda5d	-5.06709e-11
32	0xaf05c0dc	-1.2164797e-10
33	0xbb929c4d	-0.004474199
34	0x3b23b963	0.0024982325
35	0xb92c91d9	-0.00016457531
36	0xbba34f0b	-0.004983788
37	0xbbc1ca50	-0.00591401
38	0xbd1f7578	-0.038930386
39	0x3cbe5129	0.02323206
40	0xbcb36a44	-0.021901257
41	0xbbc318d7	-0.005953889
42	0xbbf43149	-0.0074521643
43	0x3b9be715	0.0047577717
44	0xb9ddb08a	-0.00042283937
45	0x3ad24be8	0.001604435
46	0xbcb2419c	-0.0217598
47	0x3c4027d5	0.011728247
48	0x3c40bb27	0.011763371
49	0x3c5e0180	0.013550162
50	0xba8cea17	-0.0010750917
51	0x3c22bfe5	0.0099334465
52	0x3b9dd598	0.004816722
53	0x3d148df9	0.03626821
54	0x3d27bd90	0.040952265
55	0x3c150d34	0.009097386
56	0x3cc8feee	0.024535622
57	0xbd115a5b	-0.03548656
58	0x3c1288b4	0.008943725
59	0xbc29a766	-0.010354852
60	0x3c2c6656	0.010522446
61	0xbbd8ee96	-0.0066202385
62	0x3c3eec00	0.0116529465
63	0xbc0a8584	-0.008454684
64	0x396eff8d	0.00022792649
65	0x3ad9aa49	0.0016606535
66	0xb7173a29	-9.013843e-06
67	0xb843ffa1	-4.6729696e-05
68	0x3c43ee36	0.011958649
69	0xb71ab032	-9.220139e-06
70	0x3be16efd	0.006879686
71	0xb8296687	-4.0388226e-05
72	0x3087f255	9.891418e-10
73	0xbc093040	-0.00837332
74	0x384567ad	4.7065016e-05
75	0x3556b6bb	7.998712e-07
76	0x3b2a21ce	0.002596009
77	0x3b12e8bb	0.002241655
78	0x3a6d36a4	0.00090489746
79	0xbc3a1aac	-0.011358898
80	0x37d5b1af	2.5474319e-05
81	0xbaf4fcf4	-0.0018691109
82	0x33d15179	9.747141e-08
83	0x3991514c	0.00027717126
84	0xb0842fca	-9.617847e-10
85	0x3c085eb3	0.008323359
86	0x2ea48231	7.480983e-11
87	0xafd67190	-3.9007064e-10
88	0xad318bf4	-1.0092361e-11
89	0xbc0ded2f	-0.008662506
90	0xbc1ec62c	-0.009690803
91	0xbc0c2d3e	-0.008555708
92	0x3c13502a	0.008991281
93	0xbbd8963e	-0.006609707
94	0xbb33b88a	-0.0027423226
95	0xbb98f4d4	-0.0046678577
96	0xbc96df16	-0.018416923
97	0xbc537ff2	-0.0129089225
98	0xbbe597b1	-0.0070066084
99	0xbc8ce622	-0.01719958
100	0xbbff04ef	-0.0077825706
101	0x3c256090	0.010093823
102	0xbc085148	-0.00832016
103	0x3bb14930	0.005410336
104	0x3c80d406	0.0157261
105	0x3aff178a	0.0019461971
106	0xbc3911b3	-0.011295724
107	0xbc3a1309	-0.011357077
108	0xbb3f69ab	-0.002920727
109	0xbb305500	-0.0026906133
110	0xba861dfc	-0.0010232325
111	0xbc2ad82d	-0.010427517
112	0xbb9e09a1	-0.004822925
113	0xbb94941e	-0.0045342585
114	0xbc1113d5	-0.008854826
115	0xbc4ebb89	-0.012617954
116	0xbc4cfe8f	-0.012511863
117	0x3c102879	0.008798712
118	0x3c0fbe81	0.008773447
119	0xb5ee66d7	-1.7762312e-06
120	0x370dd7d2	8.4545045e-06
121	0x2dea4650	2.6633945e-11
122	0x3bb22cc5	0.005437466
123	0xbbec91db	-0.0072195358
124	0xbbc12fd5	-0.0058955946
125	0x2f5c7060	2.0048807e-10
126	0xbc5072d7	-0.012722692
127	0x3c9d527a	0.019204367
128	0xba0929c0	-0.00052323565
129	0x3c649f22	0.013953956
130	0xbccdd79e	-0.025127228
131	0x3c8f4c51	0.017492445
132	0xbc6b609a	-0.014366293
133	0x3ca881b3	0.020569658
134	0x3b9efe34	0.0048520807
135	0xbc5bfef1	-0.013427482
136	0x3b2e8e3f	0.0026635078
137	0xbbe7f7e7	-0.007079113
138	0x3c0bf3ec	0.008542042
139	0xbbf4028f	-0.007446594
140	0xbace7f61	-0.0015754515
141	0x3b3bf800	0.0028681755
142	0xbc358ea2	-0.01108137
143	0xb934c2fe	-0.00017238778
144	0xb144de86	-2.8648244e-09
145	0x33b6232b	8.4814324e-08
146	0xae98f43c	-6.9555445e-11
147	0x3b05859b	0.0020373825
148	0x3a1d326f	0.000599659
149	0x3c0e6bf0	0.0086927265
150	0x2efa0f13	1.13713615e-10
151	0x3a173eac	0.00057695317
152	0xaf8faa36	-2.613249e-10
153	0x3b8f16db	0.0043667383
154	0x3c085782	0.008321645
155	0xbb375384	-0.0027973363
156	0xb6c9bddb	-6.012369e-06
157	0xbb028e43	-0.001992122
158	0xbb884f2e	-0.0041598296
159	0xb4897ed2	-2.5610512e-07
160	0xb95e2f4a	-0.00021189186
161	0x399a6486	0.00029448065
162	0xbb596b77	-0.0033175626
163	0xb9e6c6a8	-0.0004401703
164	0x304746ad	7.2496215e-10
165	0xb43b2ba3	-1.7431607e-07
166	0xb7f44f86	-2.9124098e-05
167	0x2ef0cfa5	1.09508215e-10
168	0xb9908730	-0.00027566543
169	0x3ca42022	0.020034853
170	0xb4771ae3	-2.3013449e-07
171	0xbc186f55	-0.009303887
172	0xbb8dada2	-0.004323677
173	0xbae342b5	-0.0017338606
174	0xb9e7a1d1	-0.00044180316
175	0xbbd0d4be	-0.006373017
176	0xbccb8e0c	-0.024848007
177	0x3ac234e2	0.0014816786
178	0xbb450c37	-0.0030067095
179	0xbcd99cf4	-0.026564099
180	0xbc00c21c	-0.007858779
181	0xbb889577	-0.004168208
182	0xbb25c7bf	-0.002529606
183	0xbbfa2d07	-0.007634762
184	0xbbecf3e0	-0.0072312206
185	0xbb0b48e6	-0.0021253168
186	0xbbf09dac	-0.0073430147
187	0x3c5cb23f	0.013470232
188	0xbb284d0b	-0.0025680687
189	0xae80bac8	-5.853945e-11
190	0x31574751	3.1327156e-09
191	0xbb3da825	-0.0028939333
192	0x332eeeab	4.07296e-08
193	0x389d54e3	7.502155e-05
194	0xbbb2c615	-0.005455742
195	0x3c57293d	0.013132391
196	0xbb359086	-0.002770455
197	0x2e019955	2.946739e-11
198	0xbbedb037	-0.0072536725
199	0x3c84aeb4	0.016196586
200	0xbc17f6d3	-0.009275156
201	0x3785ece2	1.5965143e-05
202	0xbaadd6b9	-0.0013262845
203	0xbbad9673	-0.005297476
204	0xba589348	-0.0008261693
205	0xbc84cd70	-0.016211241
206	0xbaeac03d	-0.0017910075
207	0xb0aedba1	-1.2722589e-09
208	0xaf878ee7	-2.4657895e-10
209	0x2e81eefe	5.9086944e-11
210	0xb40197b2	-1.2069248e-07
211	0xadc9dd0e	-2.2949222e-11
212	0xbb0dd36d	-0.0021640912
213	0xb971efb5	-0.00023072849
214	0xb0afc5d0	-1.2789148e-09
215	0x39f79ab7	0.00047226783
216	0x3b595fa2	0.0033168574
217	0x3b94b080	0.004537642
218	0x3c703f24	0.014663491
219	0x2dd148a4	2.3792808e-11
220	0xb96c0ba4	-0.0002251105
221	0xaf9b7751	-2.8279115e-10
222	0x3b7bcf6e	0.0038423198
223	0xb0166fff	-5.472884e-10
224	0xbc464580	-0.012101531
225	0x3a342060	0.00068712793
226	0x3c9deb31	0.019277187
227	0xbc683e61	-0.014175029
228	0x3c9b5cb8	0.01896511
229	0xbbbbed50	-0.005735077
230	0xbbd6da04	-0.006556751
231	0x3b99bc80	0.0046916604
232	0xbc69d604	-0.014272217
233	0xbae2d9ff	-0.00173074
234	0xb376c121	-5.7451988e-08
235	0x2fd679c2	3.9012887e-10
236	0xbaa2b295	-0.0012412841
237	0x3c2e9a1f	0.0106568625
238	0xab32906b	-6.3438724e-13
239	0xb2b02e24	-2.0510079e-08
240	0xbb39b24b	-0.002833503
241	0x391449aa	0.00014141822
242	0x2f94db24	2.7076752e-10
243	0x3cc4e825	0.024036476
244	0x3b0a7d20	0.002113171
245	0x3b207ebd	0.0024489604
246	0x3c1ace50	0.009448603
247	0xbc23734e	-0.009976221
248	0x3b6df9b8	0.0036312174
249	0xbbe3b919	-0.0069495556
250	0x3c8f2440	0.01747334
251	0xbb4eee97	-0.0031575316
252	0x3d4b5f4f	0.04965144
253	0x3c81bb09	0.015836256
254	0x3834e68c	4.3130058e-05
255	0x3bac40b1	0.0052567353

e_conv7.bias f4 [8]
0	0x3a903c6d	0.0011004336
1	0xbc6fb285	-0.014629965
2	0x3d04c15d	0.032410968
3	0x3c3b6ba9	0.011439242
4	0xbc3d5a0d	-0.011557114
5	0xbb670601	-0.0035251381
6	0xbc8faca7	-0.017538382
7	0xbcee43a3	-0.029084986
