snapshots/Epoch63.pth (torch, 304045 bytes, 14 tensors)

e_conv1.weight f4 [32, 3, 3, 3]
0	0x8000cea9	-7.4136e-41
1	0x0000cb03	7.2827e-41
2	0x0001023f	9.2641e-41
3	0x80004054	-2.3077e-41
4	0x8000f0c3	-8.6369e-41
5	0x8000a737	-5.9985e-41
6	0x80006cc7	-3.9022e-41
7	0x0000bc47	6.7541e-41
8	0x80009a9d	-5.5465e-41
9	0x80005d47	-3.3462e-41
10	0x000087d6	4.8729e-41
11	0x0000824c	4.6742e-41
12	0x0000e036	8.0432e-41
13	0x8001e667	-1.74488e-40
14	0x8000c614	-7.1057e-41
15	0x8000274b	-1.4096e-41
16	0x0000de1a	7.9675e-41
17	0x0000e157	8.0837e-41
18	0x8000f2c9	-8.7095e-41
19	0x000106f5	9.4331e-41
20	0x800023bf	-1.2823e-41
21	0x00005466	3.0276e-41
22	0x0001d539	1.68325e-40
23	0x80005008	-2.871e-41
24	0x8000049b	-1.652e-42
25	0x00006e89	3.9653e-41
26	0x00003e65	2.2383e-41
27	0xbb74d457	-0.003735801
28	0x3acc7d1f	0.0015601254
29	0xbc71197f	-0.014715551
30	0x3c3ae4be	0.011407075
31	0x3c207be4	0.009795163
32	0x3c3b1c44	0.011420313
33	0x3cdd4109	0.02700855
34	0x3c89533d	0.016763324
35	0x3cd3ae8c	0.025840066
36	0x3bffb52b	0.0078035793
37	0xbbdb7fd6	-0.006698589
38	0x3cf600a0	0.030029595
39	0x3ba0cf73	0.0049075424
40	0x3c716b9c	0.014735129
41	0x3c88438e	0.016633775
42	0x3d0a6019	0.033783052
43	0x3d1416e3	0.03615464
44	0x3cba553c	0.022745721
45	0xbc157007	-0.009120948
46	0xbbf1bcd1	-0.007377245
47	0xbceba4da	-0.02876513
48	0xbb86e4aa	-0.0041166143
49	0xbc07e0a8	-0.008293308
50	0xbca33343	-0.019921904
51	0xbc1fd5e3	-0.009755584
52	0xbc0195bb	-0.007909234
53	0x3c8f9ce7	0.017530872
54	0xbc2e0db7	-0.010623387
55	0xbd274394	-0.040835932
56	0xbc68ff4a	-0.014221022
57	0xbb5de751	-0.00338598
58	0xbcdd811d	-0.027039105
59	0xbca8ceb2	-0.020606373
60	0xb83d145c	-4.5080073e-05
61	0xbc1fceec	-0.009753924
62	0xbc089d58	-0.008338295
63	0xbb8a55e3	-0.0042216643
64	0x3c1c5775	0.009542336
65	0x3bcdf816	0.0062856777
66	0xbba8d82a	-0.005152722
67	0x3bd6efd5	0.006559352
68	0x3b733efa	0.0037116394
69	0x3d25ce0c	0.040479705
70	0x3cacdca8	0.02110131
71	0xbca0dc45	-0.019636283
72	0x3cd25c40	0.025678754
73	0x3d010f6c	0.031508848
74	0x3cd907d5	0.026492992
75	0x3d146597	0.036229696
76	0x3cdcce8a	0.026953954
77	0x3d157f6a	0.036498465
78	0x3d09530c	0.033526465
79	0x3c83b269	0.016076284
80	0x3c8e53d3	0.017373955
81	0xba814800	-0.0009863377
82	0x3c505f2a	0.012718001
83	0x3bae753c	0.005324034
84	0xbcba4bc6	-0.02274121
85	0xbbef9d44	-0.0073124487
86	0x3b999ef9	0.0046881405
87	0xbc8f7e87	-0.017516388
88	0xbc69b352	-0.014263945
89	0x3cc9a46e	0.024614539
90	0xbce6fa55	-0.02819554
91	0x3c19bf2a	0.009383956
92	0x3c383abe	0.011244474
93	0xbc2f42f2	-0.010697113
94	0xbb33d085	-0.002743752
95	0x3c02ac68	0.007975675
96	0xbd0258cb	-0.03182296
97	0x3c1ab114	0.009441633
98	0x3cbaad56	0.022787731
99	0xbbb7f5aa	-0.0056140022
100	0x3b48ef78	0.0030660313
101	0xbc021238	-0.007938914
102	0xbc0c3ad0	-0.008558944
103	0x3c78e096	0.015190264
104	0xba3f9afe	-0.00073091674
105	0xbcc3b86d	-0.023891652
106	0x3bc82c41	0.006108791
107	0x3cd53293	0.026025092
108	0x3c3971e6	0.011318659
109	0x3c5c3721	0.013440878
110	0x3d37ff06	0.044920944
111	0x3c86eecf	0.016471295
112	0x3c0b4c73	0.008502114
113	0x3d0d2c86	0.03446629
114	0xbae0ce77	-0.0017151375
115	0xbc4280cd	-0.011871529
116	0x3c42930d	0.01187588
117	0x3c9a240e	0.01881602
118	0x3cbb07c9	0.02283086
119	0x3d34f3b5	0.04417773
120	0x3bced65e	0.0063121757
121	0xbb609c88	-0.0034272987
122	0x3c04c18a	0.008102784
123	0x3960ace8	0.00021426717
124	0x3c920ecb	0.01782932
125	0x3cf6d148	0.03012909
126	0x3c2d8851	0.010591582
127	0x3c01ec20	0.007929832
128	0x3d096978	0.03354785
129	0xbcd7787b	-0.026302567
130	0xbc737c65	-0.014861201
131	0x3bbaeb66	0.005704331
132	0xbd1bf981	-0.038079742
133	0xbc45e846	-0.012079304
134	0xb95f3744	-0.00021287525
135	0x8000c716	-7.1419e-41
136	0x000009a6	3.461e-42
137	0x80006cf5	-3.9086e-41
138	0x0001e0f3	1.72532e-40
139	0x8000a434	-5.8905e-41
140	0x80008955	-4.9265e-41
141	0x80010211	-9.2577e-41
142	0x000093ce	5.3022e-41
143	0x8000bb6b	-6.7233e-41
144	0x80006cea	-3.9071e-41
145	0x80000915	-3.258e-42
146	0x800057b4	-3.1462e-41
147	0x80008b91	-5.0067e-41
148	0x0000bcb0	6.7688e-41
149	0x80018207	-1.3848e-40
150	0x0000aac9	6.1266e-41
151	0x00009e04	5.6685e-41
152	0x80001ce5	-1.0365e-41
153	0x8000b85f	-6.614e-41
154	0x000082d6	4.6935e-41
155	0x0001d691	1.68807e-40
156	0x00002baf	1.5671e-41
157	0x80008ae1	-4.982e-41
158	0x00004b6e	2.7059e-41
159	0x80007fad	-4.5801e-41
160	0x80002bac	-1.5667e-41
161	0x000005ed	2.126e-42
162	0x3d0744d7	0.033024635
163	0x3bebf98d	0.0072013796
164	0xbc88d6c1	-0.016703965
165	0x3c8f5f4a	0.017501492
166	0x3bc39265	0.0059683793
167	0xbd124735	-0.03571244
168	0x3cd74f57	0.02628295
169	0x3a107fc2	0.00055122015
170	0xbc8c035f	-0.017091451
171	0x3d2c93e8	0.042133242
172	0x3d0244c5	0.031803865
173	0xbcf1db4e	-0.029523518
174	0x3cb17ac4	0.021664985
175	0x3c37f6c1	0.011228264
176	0xbbf756bb	-0.007548181
177	0x3c8ea597	0.017412944
178	0xbcf5b429	-0.029993134
179	0xbd3f931d	-0.046771158
180	0x3c4e11d2	0.012577491
181	0xbbe8bf47	-0.00710288
182	0xbc9266ab	-0.017871222
183	0x3b9c4b2e	0.0047697043
184	0x3b914181	0.0044328575
185	0xbc53f0c5	-0.012935822
186	0x3d059ee7	0.032622244
187	0xbc8b48b9	-0.01700245
188	0xbd4126e1	-0.04715622
189	0x80003af0	-2.1143e-41
190	0x8001125b	-9.842e-41
191	0x0000003b	8.3e-44
192	0x8000df25	-8.0049e-41
193	0x00000355	1.195e-42
194	0x80000fa1	-5.607e-42
195	0x800179ba	-1.35503e-40
196	0x80005646	-3.0949e-41
197	0x00006b97	3.8596e-41
198	0x8000c42f	-7.0377e-41
199	0x80000c5a	-4.431e-42
200	0x80006c1e	-3.8785e-41
201	0x0000a340	5.8563e-41
202	0x0000d598	7.6623e-41
203	0x8000aebd	-6.2684e-41
204	0x00002c00	1.5784e-41
205	0x000072e2	4.1212e-41
206	0x0000c2d3	6.989e-41
207	0x0000b059	6.3262e-41
208	0x0000203d	1.1565e-41
209	0x00003774	1.9893e-41
210	0x000119e1	1.01119e-40
211	0x80000429	-1.492e-42
212	0x80006e18	-3.9494e-41
213	0x80008cb1	-5.047e-41
214	0x0000640b	3.5889e-41
215	0x800009a7	-3.463e-42
216	0x00008657	4.8192e-41
217	0x0000c1b6	6.949e-41
218	0x0000b7b1	6.5896e-41
219	0x8000359f	-1.9236e-41
220	0x80006803	-3.7312e-41
221	0x0907f1bd	1.6363699e-33
222	0x000009c3	3.502e-42
223	0x0000857a	4.7882e-41
224	0x090a725b	1.6664915e-33
225	0x80005b80	-3.2824e-41
226	0x8000cbb4	-7.3075e-41
227	0x0000d834	7.7559e-41
228	0x8000363b	-1.9454e-41
229	0x0000462c	2.5173e-41
230	0x80004553	-2.4869e-41
231	0x0000a911	6.065e-41
232	0x80003763	-1.9869e-41
233	0x80008f99	-5.1513e-41
234	0x000050f4	2.904e-41
235	0x80003077	-1.7386e-41
236	0x80009214	-5.2403e-41
237	0x80001f76	-1.1286e-41
238	0x8000726e	-4.105e-41
239	0x000090b0	5.1904e-41
240	0x0000c086	6.9064e-41
241	0x80006c08	-3.8754e-41
242	0x8acb1003	-1.9554212e-32
243	0xbd345890	-0.044029772
244	0xbca85e27	-0.020552708
245	0xbd3ac1e2	-0.045595057
246	0xbcda4faf	-0.026649324
247	0xbc93e6b2	-0.01805434
248	0xbc824fc6	-0.01590718
249	0xbc4c7e5c	-0.012481298
250	0x3c5895fb	0.013219352
251	0x3be0dabd	0.006862013
252	0xbd329c6a	-0.0436062
253	0xbbda2241	-0.0066569154
254	0xbce559f6	-0.027996998
255	0xbca00c04	-0.01953698

e_conv1.bias f4 [32]
0	0xb7c93387	-2.3985061e-05
1	0x3d8262f0	0.06366527
2	0x3c957a5c	0.018246822
3	0x3df69139	0.12039418
4	0x3d7b8583	0.061406624
5	0xb6207053	-2.390724e-06
6	0x3d6f4a74	0.058420613
7	0xb9cc5307	-0.00038971772
8	0xb990a9ca	-0.00027592323
9	0x3d977c44	0.07396749
10	0xb91b8a3a	-0.00014833445
11	0xb5a928c3	-1.2603344e-06
12	0xbceb1ff3	-0.028701758
13	0x3d683766	0.056693457
14	0xb81ce949	-3.7410562e-05
15	0x3e1fcca2	0.15605405
16	0x3e00643f	0.12538241
17	0x3dc18a11	0.09450162
18	0x3e3ac560	0.18239355
19	0x3e227108	0.1586343
20	0xb494ab1d	-2.769165e-07
21	0x3e1e59bb	0.15463917
22	0xbc930b4c	-0.017949723
23	0x3df0b0c4	0.11752465
24	0xb29d8ac7	-1.8340314e-08
25	0xb2971812	-1.758966e-08
26	0x3d0b426a	0.033998884
27	0xb4c8a55c	-3.7373218e-07
28	0xa8ebc5c7	-2.6176013e-14
29	0xbb369d1b	-0.0027864638
30	0x3df2c57b	0.11854073
31	0xb72e73bd	-1.0398156e-05

e_conv2.weight f4 [32, 32, 3, 3]
0	0x00005310	2.9797e-41
1	0x06005bb1	2.4141489e-35
2	0x80006ab8	-3.8283e-41
3	0x800056d1	-3.1144e-41
4	0x0001b5af	1.57011e-40
5	0x80002477	-1.3081e-41
6	0x0000b4a7	6.4806e-41
7	0x8000b2ea	-6.4182e-41
8	0x00007605	4.2337e-41
9	0x3c0c51c3	0.008564415
10	0xbca29fcf	-0.019851593
11	0x3b4794c1	0.0030453654
12	0xbb832021	-0.004001633
13	0xba5b74ee	-0.0008371611
14	0xbbe24205	-0.006904843
15	0x3c47d330	0.012196347
16	0x3ce1d453	0.027567064
17	0x3ab1da2a	0.0013569046
18	0xbc3183b2	-0.010834621
19	0xbc4f2f32	-0.01264553
20	0xbc025bbf	-0.007956444
21	0x3b8fdc00	0.0043902397
22	0xbbb65f83	-0.005565585
23	0xbb8b2be3	-0.004247175
24	0x3ba9dbb6	0.0051836623
25	0x3add725f	0.0016895047
26	0x3bd42ff8	0.006475445
27	0xbcdee537	-0.027208908
28	0x3c9ab5b8	0.018885478
29	0x3d18ded4	0.03732188
30	0xbc6d8f2b	-0.014499466
31	0xbbd3e4fb	-0.0064665056
32	0xbbaf185c	-0.00534348
33	0xbd1ac8f1	-0.03778929
34	0x3b9e645d	0.0048337416
35	0x3c950d59	0.018194841
36	0x3987d928	0.00025911
37	0xbb163d07	-0.0022924559
38	0x3a4fa3d2	0.00079208345
39	0x3c3d5c6d	0.011557681
40	0xbc634b56	-0.013872942
41	0x3bf51aa7	0.007479984
42	0x3c58d8f0	0.013235316
43	0xbc887eb6	-0.016661983
44	0xbc119645	-0.008885925
45	0x800035d7	-1.9314e-41
46	0x00005d53	3.3478e-41
47	0x00001e58	1.0885e-41
48	0x0000fc39	9.048e-41
49	0x00011531	9.9438e-41
50	0x000068e4	3.7628e-41
51	0x8000dd41	-7.9371e-41
52	0x0000d11c	7.5014e-41
53	0x0000851f	4.7755e-41
54	0xba6a7066	-0.000894314
55	0x3c100c5c	0.008792009
56	0xbbf87f61	-0.007583544
57	0xbc060008	-0.008178718
58	0x3bb34acf	0.0054715644
59	0x3c059628	0.008153476
60	0x3bc762e5	0.006084787
61	0x3c0024d8	0.007821284
62	0x3c94122d	0.018075073
63	0x00002679	1.3801e-41
64	0x8000a7a8	-6.0144e-41
65	0x00001dd6	1.0703e-41
66	0x0000721c	4.0935e-41
67	0x00004860	2.5963e-41
68	0x0000a5a8	5.9426e-41
69	0x8930eec2	-2.1297493e-33
70	0x00000f7c	5.555e-42
71	0x8001ac98	-1.5375e-40
72	0x00005046	2.8797e-41
73	0x00000540	1.883e-42
74	0x0000582d	3.1632e-41
75	0x80000251	-8.31e-43
76	0x0000c78f	7.1588e-41
77	0x8000db81	-7.8743e-41
78	0x8000b56d	-6.5083e-41
79	0x80012293	-1.04238e-40
80	0x80000741	-2.602e-42
81	0x3c5dd6e8	0.013540007
82	0xba226425	-0.0006194732
83	0x3c16b957	0.009199462
84	0xbb79615e	-0.003805242
85	0x3be8e289	0.007107083
86	0x3c1251a1	0.008930595
87	0x3a50bb7f	0.00079625094
88	0x3992bd37	0.00027988266
89	0xbb360182	-0.0027771895
90	0x80007428	-4.1669e-41
91	0x0000b1c8	6.3776e-41
92	0x00008aa3	4.9733e-41
93	0x8000cbda	-7.3128e-41
94	0x800012e3	-6.775e-42
95	0x8000aba1	-6.1569e-41
96	0x0000c433	7.0383e-41
97	0x0000a339	5.8553e-41
98	0x80001381	-6.997e-42
99	0x8826ac7b	-5.015656e-34
100	0x0000a825	6.0319e-41
101	0x0000d562	7.6547e-41
102	0x80002d31	-1.6212e-41
103	0x2081671d	2.1921685e-19
104	0x0000abb2	6.1593e-41
105	0x8000a725	-5.996e-41
106	0x8001c793	-1.63429e-40
107	0x000048d3	2.6124e-41
108	0xbbd246ec	-0.006417146
109	0xbbcf8462	-0.00633292
110	0xbbc83d75	-0.006110842
111	0x3a844fab	0.0010094544
112	0x3a54aa3c	0.0008112525
113	0x3a4a4e09	0.00077173166
114	0x3a5b8d51	0.0008375245
115	0x3a0e4b7a	0.0005428117
116	0x39ca05ec	0.00038532855
117	0x3b0037ca	0.0019564503
118	0x3c971b9e	0.018445786
119	0x3b8c8e00	0.0042893887
120	0x3c2a4b59	0.010393941
121	0x3b90d507	0.004419926
122	0x3c088770	0.008333072
123	0xbc0c3b9d	-0.008559135
124	0x3c353cbb	0.011061843
125	0x382ad8c2	4.073303e-05
126	0x8000164b	-7.997e-42
127	0x00003a20	2.0851e-41
128	0x8000626b	-3.5306e-41
129	0x00005bc7	3.2924e-41
130	0x830a1acc	-4.0585316e-37
131	0x000002b8	9.75e-43
132	0xa4e40407	-9.888606e-17
133	0x8000d71b	-7.7165e-41
134	0x0000b3ac	6.4454e-41
135	0x3bc77b0e	0.0060876673
136	0x3c436b12	0.011927383
137	0x3b91b682	0.0044468055
138	0x3c8073cb	0.015680214
139	0x3c8a250a	0.016863365
140	0x3c6cc61f	0.014451533
141	0xbb28f678	-0.0025781672
142	0xbc95c1c7	-0.018280877
143	0xbbe161d8	-0.006878119
144	0xbc7af3ec	-0.015316945
145	0xbc9b35b8	-0.018946514
146	0xbbf881df	-0.007583841
147	0xbc9eef9c	-0.019401364
148	0x3c787000	0.015163422
149	0x3c8dd2c2	0.017312411
150	0xbcf65233	-0.030068493
151	0x3a3273e3	0.00068074296
152	0xb924c65e	-0.00015714156
153	0x3ca2c63f	0.019869922
154	0xbaf824e7	-0.0018931896
155	0xb94e9d44	-0.00019704277
156	0xbbc71daa	-0.0060765343
157	0x3c405234	0.011738349
158	0x3bd9da65	0.006648349
159	0x3bc1c663	0.005913542
160	0x3c84f2d0	0.016229063
161	0x3c9e7d69	0.01934691
162	0x39291514	0.00016124948
163	0xbcbb1674	-0.022837855
164	0xbc84b1ac	-0.016198002
165	0xbae93add	-0.0017794032
166	0x3a452ea8	0.0007521906
167	0x3c945979	0.01810907
168	0xbd1083ff	-0.03528213
169	0x3c7c76f9	0.015409225
170	0x3d0977b4	0.033561423
171	0x3ca4d000	0.020118713
172	0x3c97caba	0.018529285
173	0xbb7759c1	-0.0037742706
174	0x3c1198ac	0.0088864975
175	0x3c30c827	0.010789908
176	0xba84f291	-0.0010143091
177	0xbc3eb375	-0.011639466
178	0xbc0f741d	-0.008755711
179	0x3ce75a97	0.028241439
180	0x8000004e	-1.1e-43
181	0x00002dfe	1.6499e-41
182	0x00010cd2	9.6435e-41
183	0x800036e8	-1.9697e-41
184	0x000055f6	3.0837e-41
185	0x8000c720	-7.1433e-41
186	0x00003a77	2.0973e-41
187	0x80002dc4	-1.6418e-41
188	0x80010139	-9.2274e-41
189	0xbca7ef44	-0.020499833
190	0x3c480113	0.012207287
191	0x3c8e90d0	0.017403036
192	0xbc908303	-0.017640596
193	0x3d439ab2	0.04775495
194	0x3d047378	0.032336682
195	0x3c38910f	0.011265053
196	0x3ce889f1	0.028386088
197	0x3c908adf	0.017644344
198	0x3b861aa9	0.0040925336
199	0x3bbcc735	0.005761052
200	0xbb808163	-0.003921674
201	0xbb5c5194	-0.003361796
202	0x3a0fbdca	0.0005483298
203	0xbb2acc4d	-0.0026061714
204	0xbc3fd19a	-0.011707688
205	0x3ba20eb0	0.0049455985
206	0xbc1f2d7b	-0.009715433
207	0x3c96a864	0.018390842
208	0x3c4f4b79	0.012652271
209	0x3cb3372a	0.02187689
210	0x3c4b9223	0.012424978
211	0x3cb73883	0.022365814
212	0x3bb69414	0.0055718515
213	0xbd2c3f69	-0.04205266
214	0x3cd3366e	0.02578279
215	0xbb99a5a0	-0.0046889335
216	0xb240b157	-1.1216193e-08
217	0xb08da8de	-1.0307095e-09
218	0xb3084ded	-3.173584e-08
219	0xb2df5d4d	-2.6003045e-08
220	0x32a9bb6e	1.9759423e-08
221	0xb2b8e9b7	-2.15267e-08
222	0xb293fa5b	-1.72269e-08
223	0xb2a25c60	-1.890129e-08
224	0x331c29c4	3.6359566e-08
225	0x000036cc	1.9657e-41
226	0x8000e7fc	-8.322e-41
227	0x8000514c	-2.9164e-41
228	0x000069e1	3.7982e-41
229	0x000111f4	9.8276e-41
230	0x0000e926	8.3638e-41
231	0x80008007	-4.5928e-41
232	0x8000dd1c	-7.9319e-41
233	0x00001dac	1.0644e-41
234	0x3b886d77	0.00416344
235	0x3b1efe51	0.002426047
236	0x3bb21f62	0.00543587
237	0xbb626f3e	-0.0034551169
238	0xbb73b002	-0.0037183766
239	0xbc5dbde7	-0.013534046
240	0x3c6c928d	0.014439237
241	0xbc0684c1	-0.008210362
242	0xbc9d838a	-0.019227762
243	0x000783c3	6.90116e-40
244	0x8000c3a1	-7.0178e-41
245	0x80011f2e	-1.0302e-40
246	0x0001000c	9.1852e-41
247	0x00011665	9.9869e-41
248	0x0000c53c	7.0754e-41
249	0x80007b78	-4.4292e-41
250	0x800080d4	-4.6215e-41
251	0x00012897	1.06396e-40
252	0x80015508	-1.22339e-40
253	0x00004fca	2.8623e-41
254	0x0000c3b7	7.0209e-41
255	0x29cd2234	9.109762e-14

e_conv2.bias f4 [32]
0	0xbd0c66fa	-0.034277894
1	0x9bdc21be	-3.6417752e-22
2	0x3c84c19c	0.016205601
3	0xbaaaff67	-0.0013046087
4	0x3d1a3724	0.037650242
5	0x3cfae0bb	0.030624738
6	0x3a8b07a7	0.0010607139
7	0x3d26e27c	0.040743336
8	0x3d5b5a7d	0.053553093
9	0x3d0d1549	0.034444127
10	0xbcda1cf9	-0.026625143
11	0xa8b6ab4c	-2.0280347e-14
12	0xa94db9a2	-4.5680155e-14
13	0xbc0339f8	-0.008009426
14	0x3c15f8ba	0.009153539
15	0xb93161d7	-0.00016916484
16	0x3d00a882	0.0314107
17	0x3c18399a	0.009291077
18	0xa994c49f	-6.6066286e-14
19	0xbc4741cf	-0.012161686
20	0xa26dc60a	-3.222433e-18
21	0x3c6aa5d3	0.014321762
22	0x8a18e633	-7.3618294e-33
23	0x3d0c2c77	0.034222092
24	0x92beb1a6	-1.2034479e-27
25	0x3d3c6da6	0.046003006
26	0x3d3ee55e	0.04660546
27	0xbb4ae2cb	-0.0030957933
28	0x96113ced	-1.1732232e-25
29	0xba4d5af0	-0.000783368
30	0xbbb421a0	-0.0054971725
31	0x3d4ce423	0.050022256

e_conv3.weight f4 [32, 64, 3, 3]
0	0x8000909e	-5.1879e-41
1	0x8000af25	-6.283e-41
2	0x00003bb7	2.1422e-41
3	0x0000b30b	6.4229e-41
4	0x00003d8b	2.2077e-41
5	0x80014631	-1.17015e-40
6	0x80002f2f	-1.6926e-41
7	0x0000b790	6.585e-41
8	0x01aa9838	6.266656e-38
9	0x3a7e4aac	0.0009700458
10	0x3c68341e	0.014172582
11	0x3cba09e4	0.022709794
12	0xbc0eb039	-0.008709007
13	0x3b82fc06	0.0039973287
14	0x3c23f839	0.010007911
15	0xbcec78cc	-0.028866194
16	0xbbcc50f4	-0.0062352363
17	0xbc18c4f7	-0.009324304
18	0xbc3394b4	-0.010960747
19	0x3ae44c0a	0.0017417681
20	0x3b8c322a	0.004278441
21	0xbc398c8f	-0.011325016
22	0x3a0c345b	0.0005348378
23	0x3b0c83db	0.0021440897
24	0xbc8bbe21	-0.017058434
25	0xbc0d42e8	-0.008621909
26	0xbbf33ceb	-0.0074230335
27	0x3c1e0426	0.009644544
28	0x3c20ae38	0.009807162
29	0x3c64b5b1	0.013959334
30	0x3a6aa9b5	0.000895168
31	0x3b608203	0.003425718
32	0x3bc06ef4	0.0058726016
33	0xbad87329	-0.0016513813
34	0xbc2dc58d	-0.010606182
35	0xbc9cd122	-0.019142691
36	0x3ba8837c	0.0051426273
37	0x3cb62741	0.022235515
38	0x3c98840c	0.018617652
39	0x3b0d38bc	0.002154871
40	0x3c3b7db9	0.011443549
41	0x3bcc0327	0.0062259617
42	0xbc0968a3	-0.008386764
43	0xbbc3c8b8	-0.0059748553
44	0xbbd0a3df	-0.006367191
45	0x8000d9c7	-7.8124e-41
46	0x800065d0	-3.6523e-41
47	0x00008a30	4.9572e-41
48	0x0000411b	2.3355e-41
49	0x00009f5f	5.7172e-41
50	0x0001e3cc	1.73554e-40
51	0x800096d1	-5.4103e-41
52	0x800054a1	-3.0359e-41
53	0x8000fa98	-8.9896e-41
54	0x3b486064	0.0030575031
55	0x3befd9ae	0.0073196506
56	0x3a306855	0.0006729414
57	0x3b5368ae	0.003225844
58	0x3c551112	0.013004558
59	0x3bc24171	0.0059282114
60	0xbae2aa9d	-0.0017293278
61	0x3bb48f94	0.00551028
62	0xbbe45267	-0.006967831
63	0x80011387	-9.884e-41
64	0x00005035	2.8773e-41
65	0x0000bbb2	6.7332e-41
66	0x00001178	6.267e-42
67	0x800102aa	-9.2791e-41
68	0x800108ec	-9.5036e-41
69	0x8000c5d1	-7.0963e-41
70	0x8000f1f4	-8.6796e-41
71	0x00008c51	5.0336e-41
72	0x8000e7b1	-8.3115e-41
73	0x8000b57a	-6.5102e-41
74	0x0000013b	4.41e-43
75	0x8000acb8	-6.196e-41
76	0x0000e376	8.1598e-41
77	0x9adf1db7	-9.2278645e-23
78	0x00008546	4.781e-41
79	0x8000a9ec	-6.0956e-41
80	0x8000974f	-5.4279e-41
81	0x3a3fd357	0.0007317564
82	0x3a6aa0e9	0.0008950369
83	0xbc4a1399	-0.012333774
84	0x3c2745fe	0.0102095585
85	0x3bf22761	0.0073899482
86	0xbbbdb62c	-0.005789539
87	0x3b9328d3	0.0044909506
88	0xb80b160c	-3.3160715e-05
89	0xbc0c246a	-0.008553604
90	0x00002d40	1.6233e-41
91	0x0000a2a0	5.8339e-41
92	0x000062d8	3.5458e-41
93	0x00005636	3.0927e-41
94	0x800096fb	-5.4162e-41
95	0x0000d2d9	7.5638e-41
96	0x800053d2	-3.0069e-41
97	0x80002bc2	-1.5697e-41
98	0x8000b490	-6.4774e-41
99	0x000154f3	1.2231e-40
100	0x0000ddde	7.9591e-41
101	0x00003830	2.0156e-41
102	0x0000338c	1.8492e-41
103	0x00007048	4.0279e-41
104	0x8000c679	-7.1199e-41
105	0x0000318e	1.7777e-41
106	0x0000a06a	5.7546e-41
107	0x00007585	4.2158e-41
108	0xbaa9a6ff	-0.0012943445
109	0xb983ef93	-0.00025164764
110	0xb9ac25cc	-0.00032834557
111	0xb9fef2cd	-0.00048627556
112	0xb99071ca	-0.000275506
113	0xb9c87c5e	-0.00038239633
114	0xb96b0802	-0.0002241433
115	0xba28e679	-0.00064430345
116	0xb9bda0af	-0.00036168608
117	0xbbab4e87	-0.005227867
118	0xbb5804ae	-0.0032961774
119	0xbbacaf02	-0.005269886
120	0xbbe77c1b	-0.007064355
121	0xbb875112	-0.0041295374
122	0xbb92ffe1	-0.0044860695
123	0xbc51a58b	-0.012795816
124	0xbc1d4bc0	-0.00960058
125	0xbc1889e6	-0.009310221
126	0x000096a7	5.4044e-41
127	0x000056fb	3.1203e-41
128	0x8000e70e	-8.2887e-41
129	0x8000ec3f	-8.4749e-41
130	0x800054b4	-3.0386e-41
131	0x0000266a	1.378e-41
132	0x80003a16	-2.0837e-41
133	0x80003cf1	-2.1862e-41
134	0x00005a56	3.2406e-41
135	0xbca2519f	-0.01981431
136	0x3bc312c2	0.005953164
137	0x3c95ea72	0.018300269
138	0x3b2f0c7f	0.002671033
139	0xb9baf214	-0.00035657047
140	0x3b92e654	0.0044830237
141	0xbd321a49	-0.0434821
142	0xbcd69380	-0.02619338
143	0xbc73f78e	-0.014890565
144	0x3a96fe38	0.0011519855
145	0x3c0d991d	0.008642462
146	0x3cbca83e	0.023029443
147	0xbc500a6d	-0.012697798
148	0x3bfe98ce	0.0077696806
149	0xbc1d74e1	-0.009610386
150	0xbcf15ee1	-0.029464187
151	0xbbeb42e3	-0.0071796044
152	0xbbd53c56	-0.0065074367
153	0x3bc57a9f	0.0060265805
154	0x3be6788a	0.0070334123
155	0x3a87de40	0.0010365918
156	0x3aeb59ff	0.0017955898
157	0x3bc5282b	0.0060167513
158	0xba9a043b	-0.0011750528
159	0xbb1617f5	-0.0022902463
160	0xba929614	-0.0011183643
161	0xbc3162f9	-0.01082682
162	0x3aa11e4d	0.0012292356
163	0x3c6e8542	0.014558138
164	0x3ca02bac	0.019552074
165	0x3b835207	0.004007581
166	0xbb5ab6a5	-0.0033373025
167	0x3cb35d6a	0.02189513
168	0xbd0971cd	-0.033555795
169	0xbc86c93e	-0.016453382
170	0xbb847037	-0.0040416974
171	0x3c6309fc	0.013857361
172	0xb958d5ee	-0.0002067906
173	0x3c015e20	0.007895976
174	0x3b6da00b	0.0036258723
175	0xbbb0651b	-0.0053831465
176	0xbc98660c	-0.018603347
177	0xbc7914a2	-0.015202673
178	0xbc3f23ef	-0.011666282
179	0xbbff5cba	-0.0077930363
180	0x000003bb	1.338e-42
181	0x80008341	-4.7085e-41
182	0xa4bdab8d	-8.22563e-17
183	0x80013fbe	-1.14702e-40
184	0x80015cd5	-1.25137e-40
185	0x00010042	9.1928e-41
186	0x8000c9f2	-7.2444e-41
187	0x80000e0c	-5.039e-42
188	0x00005394	2.9982e-41
189	0xbada0c6c	-0.0016635782
190	0x3aa63487	0.0012680449
191	0xbb53d950	-0.0032325573
192	0x3949030b	0.00019169987
193	0x3c2d6ffc	0.010585781
194	0x3c62ff82	0.013854863
195	0xbc92dc85	-0.017927418
196	0xbca0250b	-0.019548913
197	0xbaa816ef	-0.0012824218
198	0xbaa49ac5	-0.0012558332
199	0x3c2f2aa3	0.010691318
200	0x3cd28cd1	0.025701912
201	0xbc850889	-0.016239421
202	0xbb0b6fb0	-0.0021276288
203	0x3c49671b	0.012292649
204	0xbce5b9f9	-0.02804278
205	0xbc689086	-0.014194613
206	0xbaa80b1d	-0.0012820695
207	0xbc0362a9	-0.008019128
208	0x3b8e85e9	0.0043494594
209	0xba799b60	-0.0009521749
210	0x3ac49c63	0.001500022
211	0x3bb5b69c	0.0055454504
212	0x3bfc9d74	0.0077091996
213	0xbc884cf6	-0.01663826
214	0xbc380f65	-0.011234139
215	0xbadafde8	-0.001670775
216	0xb0e13770	-1.6386661e-09
217	0xb0d2423f	-1.5298339e-09
218	0x31206d95	2.3345355e-09
219	0xb0215920	-5.8698113e-10
220	0xb13b019e	-2.7213e-09
221	0x31735dcf	3.5414478e-09
222	0xb0ea1aa4	-1.7033313e-09
223	0xb0b36efc	-1.3055508e-09
224	0xb0d5dd95	-1.5560767e-09
225	0x80017da0	-1.36901e-40
226	0x0000c87a	7.1917e-41
227	0x0000dceb	7.925e-41
228	0x00006a82	3.8208e-41
229	0x00006390	3.5716e-41
230	0x0000d7ac	7.7368e-41
231	0x80002ef8	-1.6849e-41
232	0x80014343	-1.15964e-40
233	0x80003fca	-2.2883e-41
234	0xbbf4d12f	-0.0074712257
235	0xbb310c12	-0.002701525
236	0x3c51954a	0.012791941
237	0xbc22bf6f	-0.009933337
238	0x3cabd071	0.020973416
239	0x3be638f4	0.0070258323
240	0xbcb89759	-0.022533106
241	0xbc5fe3b4	-0.0136651285
242	0xbc262deb	-0.010142784
243	0x000134aa	1.10728e-40
244	0x80007b26	-4.4177e-41
245	0x00017e7e	1.37212e-40
246	0x000112b9	9.8552e-41
247	0x0000afaf	6.3023e-41
248	0x0001562c	1.22748e-40
249	0x00011689	9.992e-41
250	0x00005113	2.9084e-41
251	0x0000416b	2.3468e-41
252	0x80009c33	-5.6034e-41
253	0x0000f635	8.8322e-41
254	0x800154fc	-1.22322e-40
255	0x000050d5	2.8997e-41

e_conv3.bias f4 [32]
0	0x3d138b3e	0.036021464
1	0x3cf451d6	0.029824179
2	0x9e6479aa	-1.2095379e-20
3	0x3c20171a	0.009771133
4	0x3d18362f	0.03716105
5	0xaf7cc9a6	-2.2990906e-10
6	0xbc737e00	-0.014861584
7	0xbb37b61a	-0.0028032125
8	0x3d08b7c8	0.033378392
9	0x3bd23a10	0.006415613
10	0x3d04dbe7	0.032436278
11	0xb305abe9	-3.1122827e-08
12	0xaa9f4d5e	-2.8297758e-13
13	0xbb20f3f6	-0.0024559475
14	0x800045a6	-2.4985e-41
15	0xbbaa2930	-0.005192898
16	0x3d6f7a62	0.058466323
17	0xbc6d9c80	-0.014502645
18	0x3d5f9034	0.054580882
19	0xbc19f91e	-0.009397773
20	0xab76ddfc	-8.770482e-13
21	0x3c867dfb	0.016417494
22	0xba048206	-0.00050547754
23	0xbc2518e9	-0.01007674
24	0x3c3a2e9d	0.011363653
25	0xa4cc26cc	-8.853662e-17
26	0x3c02bd53	0.007979709
27	0x3d217909	0.03942207
28	0xa906d8f3	-2.994215e-14
29	0xbc9a5bcf	-0.018842606
30	0x3d0f4404	0.034976974
31	0xbc97bc20	-0.018522322

e_conv4.weight f4 [32, 64, 3, 3]
0	0xbb8b7140	-0.004255444
1	0x3c4a8495	0.012360712
2	0xbd2e26d1	-0.042517487
3	0x3bafcd4a	0.0053650485
4	0xbbe9e94f	-0.0071384083
5	0xbc05d900	-0.008169413
6	0x3c71b7c9	0.01475329
7	0xbb8aafdb	-0.0042323894
8	0xbc620454	-0.013794977
9	0x1a3e375d	3.93358e-23
10	0x98cab518	-5.2398634e-24
11	0x19139a71	7.630911e-24
12	0x18038044	1.699611e-24
13	0x995a9e12	-1.1302258e-23
14	0x199e4a68	1.636687e-23
15	0x995ba0f4	-1.1354539e-23
16	0x199efd65	1.6439162e-23
17	0x191702da	7.807093e-24
18	0x39c74567	0.00038007947
19	0x3abc5ce0	0.0014370941
20	0x3af4e49c	0.0018683854
21	0x3997c254	0.0002894575
22	0x3aac2ec7	0.0013136499
23	0x3ab141b0	0.0013523605
24	0xba846fc7	-0.0010104113
25	0xb97c2998	-0.00024048088
26	0xba61fa85	-0.0008620399
27	0x34129ec0	1.3655063e-07
28	0xb5024ad7	-4.853768e-07
29	0xb5f0ebda	-1.7950035e-06
30	0x363257c1	2.6575146e-06
31	0x3455f247	1.9925311e-07
32	0x36292a56	2.5207605e-06
33	0x357e5bfd	9.4756234e-07
34	0x3623aba5	2.4388803e-06
35	0x35f48b76	1.8220005e-06
36	0xbac3a581	-0.0014926643
37	0xbbe4b4e2	-0.0069795707
38	0xbcb21a33	-0.021741008
39	0xbb7aa756	-0.0038246713
40	0x3d1e039b	0.038577657
41	0x3a138f55	0.0005628963
42	0xbcf6d7d6	-0.030132215
43	0xbbe39efd	-0.006946443
44	0x3b0c4752	0.0021404815
45	0xbaf76083	-0.0018873367
46	0x3a8ccfa2	0.0010743032
47	0xbb65b6b3	-0.0035051524
48	0xba225de5	-0.0006193801
49	0x3af041a6	0.0018330112
50	0xbb1a4883	-0.0023541756
51	0x3b0fca13	0.0021940514
52	0x3ba4525c	0.005014701
53	0x3afd3b85	0.0019320106
54	0x3acf2394	0.001580345
55	0x3b18de58	0.0023325887
56	0x3abfba87	0.0014627733
57	0xbbb60161	-0.0055543636
58	0x3aab6ca2	0.001307864
59	0xba92ee58	-0.0011209948
60	0xbaf3394d	-0.0018556506
61	0xb8b2f210	-8.532789e-05
62	0xb92603dc	-0.00015832431
63	0xbc3f4076	-0.0116730835
64	0xbc796fbc	-0.015224393
65	0xbcb7cdfe	-0.022437092
66	0xbca6d05b	-0.020363024
67	0x3c87522c	0.016518675
68	0x3c0c8b97	0.008578203
69	0xbc15785d	-0.009122935
70	0x3bd35b4e	0.0064500934
71	0xbc082979	-0.008310669
72	0xbc812671	-0.0157654
73	0x3bc059d6	0.0058700843
74	0x3c2ba56e	0.010476453
75	0xbbf4f890	-0.00747592
76	0x3cc76ee3	0.024344867
77	0xbbaa85e4	-0.0052039493
78	0xbba435d5	-0.0050113
79	0xbc0e8416	-0.008698484
80	0xbc9b1219	-0.018929528
81	0xbca81d21	-0.020521702
82	0x3a64ab3b	0.0008723025
83	0xbcc07102	-0.023491386
84	0x3cf6b83e	0.03011715
85	0xbc5f5e93	-0.013633388
86	0x3c8d7c7d	0.017271275
87	0x3b625930	0.0034538023
88	0x3b3cfe77	0.0028838196
89	0xbc571dcd	-0.013129664
90	0x3bf82420	0.007572666
91	0xbc80e28c	-0.015733026
92	0xbbc1de72	-0.00591641
93	0xbc367ab6	-0.011137655
94	0x3c67a217	0.014137766
95	0x3d18a75d	0.037268985
96	0xbc109193	-0.00882377
97	0x3c6e5258	0.0145459995
98	0x3b0a5431	0.002110731
99	0x91a1d573	-2.553287e-28
100	0x90e72b7f	-9.118045e-29
101	0x90839070	-5.189293e-29
102	0x9152b751	-1.6622568e-28
103	0x10f729a9	9.748851e-29
104	0x11ff99c3	4.032667e-28
105	0x911f2e17	-1.2557091e-28
106	0x11732878	1.918179e-28
107	0x9173dd8e	-1.9237592e-28
108	0xa84f578c	-1.1509792e-14
109	0xa72c3810	-2.3900187e-15
110	0xa7ef5147	-6.6423947e-15
111	0xa7e9edff	-6.4928527e-15
112	0xa8554daa	-1.1840716e-14
113	0xa74891af	-2.783455e-15
114	0xa809c4cc	-7.647701e-15
115	0xa77a0022	-3.4694542e-15
116	0xa74d28ae	-2.8471518e-15
117	0xbc2dc14a	-0.010605166
118	0x3cd76f0a	0.026298065
119	0x3c0f2612	0.008737104
120	0x3c1630e4	0.00916693
121	0x3c87464f	0.016513018
122	0xbbbcc694	-0.005760977
123	0xbd345490	-0.044025958
124	0x3ccbf672	0.024897788
125	0xbaa78de9	-0.0012783381
126	0xba883cdc	-0.0010394114
127	0xba432606	-0.00074443256
128	0xb996ea5a	-0.00028784835
129	0xb9ca16ef	-0.0003854553
130	0xba5bf505	-0.0008390698
131	0xbaa2a2a2	-0.0012408087
132	0x3a29f014	0.0006482613
133	0xba35e8c5	-0.00069392874
134	0xbb0929b0	-0.0020929389
135	0x9a983bd0	-6.296236e-23
136	0xa0c86883	-3.3950478e-19
137	0x9d61c0af	-2.9878117e-21
138	0x1d540ec8	2.8065608e-21
139	0x9d819624	-3.4301257e-21
140	0x9c95bf82	-9.909497e-22
141	0x9d7d7da4	-3.3549226e-21
142	0x9d509d6b	-2.7609954e-21
143	0x9d36c308	-2.4188328e-21
144	0x3b8a774e	0.004225648
145	0xbd35fc72	-0.044430204
146	0xbcb2e236	-0.021836381
147	0xbcb37a59	-0.021908926
148	0xbce4bdac	-0.027922474
149	0x3c43183c	0.011907633
150	0x3c3a0d5f	0.011355727
151	0x3c7a7f80	0.015289187
152	0x3ceca044	0.028885014
153	0x3b0ce4ad	0.0021498606
154	0xbb02a294	-0.001993333
155	0xba6de39d	-0.00090747495
156	0x3b221a60	0.002473496
157	0xbad67350	-0.001636127
158	0xba2fd25f	-0.0006707068
159	0x3aec0333	0.0018006325
160	0xbb179082	-0.0023126905
161	0xbac01ad8	-0.0014656438
162	0xa71f4800	-2.2104714e-15
163	0x2764321a	3.1668516e-15
164	0xa7cc01c6	-5.6623297e-15
165	0xa72642d0	-2.3073347e-15
166	0x27534f4d	2.9325121e-15
167	0x27b4db82	5.0198027e-15
168	0xa7c80564	-5.5516996e-15
169	0xa7060af3	-1.8602171e-15
170	0x272d901a	2.408669e-15
171	0xbbe23d14	-0.0069042537
172	0xbc74f665	-0.014951323
173	0x3c146005	0.009056096
174	0xbbe01b60	-0.006839201
175	0x3bdaa2b8	0.0066722296
176	0xbbcd8396	-0.00627179
177	0xbb8020b8	-0.0039101504
178	0x3c08785e	0.008329479
179	0xbc19807c	-0.009369012
180	0x05f6368c	2.3153766e-35
181	0x05e97ea5	2.1957737e-35
182	0x062149ab	3.0334857e-35
183	0x84854e3e	-3.1340004e-36
184	0x05bc8209	1.7727202e-35
185	0x06956424	5.6194714e-35
186	0x0600bcfd	2.421297e-35
187	0x05c20995	1.8247192e-35
188	0x867d2a69	-4.761517e-35
189	0x3b817c19	0.003951561
190	0xba137461	-0.0005624947
191	0xbb36813e	-0.002784803
192	0x3b2eb4b8	0.002665801
193	0xbaea28ca	-0.0017864939
194	0xbb97240d	-0.004612452
195	0x3b85db02	0.0040849457
196	0xb9023be0	-0.00012420071
197	0xbb317561	-0.002707802
198	0x05b7d059	1.7285772e-35
199	0x85c22993	-1.8258944e-35
200	0x8001690d	-1.2952e-40
201	0x87b08716	-2.6560933e-34
202	0x05f47620	2.2989042e-35
203	0x00008c1a	5.0259e-41
204	0x875feae8	-1.6845688e-34
205	0x053a7548	8.767219e-36
206	0x00002d27	1.6198e-41
207	0xba91150d	-0.0011068896
208	0xbb521f3c	-0.0032062074
209	0x388ce277	6.7179026e-05
210	0xbba1870f	-0.0049294303
211	0xba96902a	-0.0011487056
212	0x3b3f5100	0.0029192567
213	0xbb4ef7f4	-0.0031580897
214	0x3894c47f	7.09379e-05
215	0x38c8ded8	9.578251e-05
216	0x8000ac8c	-6.1898e-41
217	0x00005067	2.8843e-41
218	0x0000a389	5.8665e-41
219	0x80003e43	-2.2335e-41
220	0x8000d1ef	-7.531e-41
221	0x800050f6	-2.9043e-41
222	0x00003096	1.743e-41
223	0x8001678a	-1.28978e-40
224	0x80004e54	-2.8099e-41
225	0x3b72af56	0.0037030778
226	0xbbd70249	-0.0065615517
227	0xbb894d31	-0.00419011
228	0x3bd49dfc	0.00648856
229	0xbb881675	-0.0041530677
230	0xbab78de4	-0.0014004079
231	0x3bab4d51	0.0052277227
232	0xbba6f491	-0.0050950726
233	0xbaff7547	-0.0019489907
234	0x3c2c93c5	0.010533278
235	0xbc675010	-0.0141182095
236	0xbaae57b5	-0.0013301285
237	0xbb829976	-0.003985579
238	0xbbbcdc4f	-0.0057635675
239	0x3bfda073	0.0077400743
240	0x3c5be90b	0.013422261
241	0x3c942502	0.018084053
242	0x3c35ad61	0.0110887
243	0x0000432e	2.41e-41
244	0x0000a47e	5.9009e-41
245	0x000007d4	2.808e-42
246	0x800072d8	-4.1198e-41
247	0x00004448	2.4495e-41
248	0x8000bf50	-6.863e-41
249	0x000030f6	1.7564e-41
250	0x8000443d	-2.4479e-41
251	0x0000c1fc	6.9588e-41
252	0x80009553	-5.3567e-41
253	0x80005e92	-3.3925e-41
254	0x0000193d	9.054e-42
255	0x0000c499	7.0526e-41

e_conv4.bias f4 [32]
0	0x3d06ced4	0.03291209
1	0x3aee3598	0.0018173931
2	0xbca157a5	-0.019695112
3	0xa8fbdd14	-2.7962475e-14
4	0x3c890d19	0.016729878
5	0x3c83b795	0.01607875
6	0x3c515628	0.012776889
7	0x3c86a2ae	0.016434994
8	0xbb16a352	-0.002298553
9	0xb605fd7c	-1.9966092e-06
10	0x3c6c3622	0.014417203
11	0x3cd468b2	0.025928829
12	0x3cb512b4	0.022103645
13	0x3c182b69	0.009287694
14	0x3cb83667	0.022486879
15	0x3c484034	0.0122223385
16	0xbbd034b8	-0.006353941
17	0x3d52ce8b	0.051466506
18	0xb89cc0c6	-7.4745665e-05
19	0x3d00a816	0.0314103
20	0xb9a19ab7	-0.00030823585
21	0xb5f4d649	-1.8241782e-06
22	0x3c8ef32b	0.017449936
23	0xb82c5f60	-4.109682e-05
24	0x9d1d18df	-2.0791635e-21
25	0x3d168a42	0.036752947
26	0x3a28bb13	0.00064365676
27	0x3d017799	0.031608198
28	0x3d23ba8f	0.039972838
29	0x3c869139	0.01642667
30	0xb2ccef91	-2.3857668e-08
31	0x3cb92616	0.022601169

e_conv5.weight f4 [32, 64, 3, 3]
0	0x3b5d05e4	0.0033725435
1	0x3b7c667a	0.003851323
2	0x3ad28151	0.0016060268
3	0x3bd1a461	0.0063977693
4	0x3bc04b78	0.0058683716
5	0x3b1d9b9d	0.0024049052
6	0x3bf704b0	0.0075384006
7	0x3bf900e8	0.007598985
8	0x3b773942	0.0037723337
9	0x3c2a4759	0.010392987
10	0x3b5899eb	0.0033050727
11	0x3bb116e6	0.005404341
12	0x3bccd605	0.006251099
13	0x38508371	4.971348e-05
14	0x3a998af8	0.001171439
15	0x3b108f51	0.002205808
16	0xbb22536e	-0.0024768966
17	0xb9c1cded	-0.00036965255
18	0x00001ac5	9.603e-42
19	0x00007e08	4.5211e-41
20	0x0000add2	6.2355e-41
21	0x80005ea2	-3.3948e-41
22	0x8000e99f	-8.3807e-41
23	0x800061d6	-3.5097e-41
24	0x0000b970	6.6522e-41
25	0x00007d07	4.4851e-41
26	0x0000aa8e	6.1183e-41
27	0x3c425d12	0.01186301
28	0xba9cd62c	-0.0011965684
29	0x3c8cf252	0.017205391
30	0x3b790206	0.003799559
31	0x3c385cde	0.01125261
32	0x3c7f6c2a	0.015589753
33	0xbb4c9d80	-0.0031221807
34	0x3c4f25aa	0.012643257
35	0x3c57f4e7	0.013180948
36	0x3c3aa741	0.0113924155
37	0x3bf445a8	0.0074545927
38	0x3ae41366	0.0017400801
39	0x3c5728b5	0.013132264
40	0xbba27303	-0.004957558
41	0x3b8d1b09	0.0043062014
42	0xbc82fe78	-0.01599048
43	0xbc35c346	-0.01109392
44	0xbc914746	-0.017734181
45	0x800011f9	-6.447e-42
46	0x800009e0	-3.542e-42
47	0x0000e4db	8.2098e-41
48	0x000158bd	1.23669e-40
49	0x00014df9	1.19807e-40
50	0x8000be7b	-6.8332e-41
51	0x0000361b	1.941e-41
52	0x8000e30b	-8.1448e-41
53	0x80002c43	-1.5878e-41
54	0x3bb11730	0.0054043755
55	0x3c32236e	0.010872705
56	0x3c37752e	0.011197371
57	0x3b8d4f78	0.004312452
58	0x3c06dc37	0.008231214
59	0x3c1bad6c	0.009501796
60	0x3b5574fd	0.003257095
61	0x3bcc6284	0.00623733
62	0x3c22d2a8	0.00993792
63	0xbb15fc68	-0.0022886042
64	0xbb15dce5	-0.002286726
65	0xbb1d5c00	-0.0024011135
66	0xbb1546e6	-0.0022777854
67	0xbb1bb7a7	-0.0023760588
68	0xbb19d1b7	-0.0023470947
69	0xbb14be10	-0.0022696294
70	0xbb1c6370	-0.002386298
71	0xbb156064	-0.002279305
72	0xbcc2c242	-0.02377427
73	0x3c5fe12d	0.013664526
74	0xbcd3b365	-0.025842378
75	0xbcad7212	-0.021172557
76	0x3cd3852d	0.02582034
77	0xbc820892	-0.015873227
78	0x3c2d1479	0.010563963
79	0xbc950226	-0.018189501
80	0x3c3e378e	0.011609925
81	0x3c9cfd58	0.019163772
82	0xbaeed212	-0.0018220565
83	0xbc3b893c	-0.011446293
84	0x3c1431ff	0.009045123
85	0xbc9e8d86	-0.019354593
86	0xbbcaf49a	-0.0061937096
87	0xbbbd8ceb	-0.005784621
88	0x3af06dc8	0.0018343264
89	0x39fd923b	0.0004836487
90	0xbb6d1796	-0.0036177388
91	0x3b1b330a	0.0023681545
92	0x3c77732e	0.015103145
93	0xbb3db75b	-0.00289484
94	0x3b1eb537	0.00242169
95	0x3c8f687a	0.017505873
96	0x3a0ad592	0.00052961067
97	0x3c181abf	0.0092837205
98	0x3ce4eb91	0.027944358
99	0x00011d66	1.02382e-40
100	0x8000e3e6	-8.1755e-41
101	0x8000106a	-5.888e-42
102	0x0000b9cb	6.665e-41
103	0x0000f1b2	8.6704e-41
104	0x8000658c	-3.6428e-41
105	0x00010800	9.4705e-41
106	0x00003b52	2.128e-41
107	0x0000cb1b	7.286e-41
108	0x00005020	2.8743e-41
109	0x9f43922c	-4.1413767e-20
110	0x800081df	-4.6589e-41
111	0x80011b01	-1.01523e-40
112	0x8000b3bd	-6.4478e-41
113	0x80004294	-2.3884e-41
114	0x00005195	2.9266e-41
115	0x80001d68	-1.0549e-41
116	0x00008567	4.7856e-41
117	0xbabc670f	-0.0014373976
118	0xbabaa4c9	-0.0014239784
119	0xbaba517e	-0.001421496
120	0xbabca694	-0.0014392906
121	0xbabad457	-0.0014253956
122	0xbabab139	-0.001424349
123	0xbabc2042	-0.0014352875
124	0xbab9c75d	-0.0014173795
125	0xbab37edb	-0.0013694422
126	0x000084db	4.766e-41
127	0x800016b6	-8.147e-42
128	0x80007287	-4.1085e-41
129	0x80009087	-5.1847e-41
130	0x00009311	5.2757e-41
131	0x8000732f	-4.132e-41
132	0x0000f798	8.882e-41
133	0x8000cbd2	-7.3117e-41
134	0x800006fc	-2.506e-42
135	0x800074a4	-4.1843e-41
136	0x0000bcaf	6.7687e-41
137	0x80002d76	-1.6308e-41
138	0x8000b9f7	-6.6712e-41
139	0x00005526	3.0546e-41
140	0x0000b318	6.4247e-41
141	0x80001bcb	-9.97e-42
142	0x0000bc16	6.7473e-41
143	0x0000520e	2.9436e-41
144	0xbc047271	-0.008083926
145	0xbb86165d	-0.0040920214
146	0xb90823bc	-0.00012983283
147	0xbc07f770	-0.00829874
148	0xbb4b79e1	-0.0031047987
149	0x3a1ccf0e	0.0005981781
150	0xba82ca4c	-0.0009978502
151	0x3b91e657	0.0044525075
152	0x3bc8de52	0.0061300183
153	0xbcab9d18	-0.020948932
154	0x3bf38dee	0.007432691
155	0x3ca12024	0.019668646
156	0x3aa887aa	0.0012857814
157	0x3c2b99c5	0.010473673
158	0xbc295a19	-0.010336422
159	0x3c0fd99f	0.008779912
160	0xbc2af9c4	-0.010435525
161	0xbc67ba9e	-0.014143614
162	0xbad0c370	-0.0015927386
163	0xba69af29	-0.00089143455
164	0x3b2b9c35	0.0026185636
165	0xbabdec5d	-0.0014489997
166	0x3a1bea38	0.0005947682
167	0x3b870c4b	0.0041213385
168	0x3b03c78c	0.0020107953
169	0x3b4421b0	0.0029927306
170	0x3b80cbe1	0.0039305543
171	0xbc543610	-0.012952343
172	0x3c08964d	0.008336616
173	0x3ca5dba1	0.020246329
174	0x3c805841	0.015667083
175	0x3b9e97de	0.0048398813
176	0x3ab0e67e	0.0013496426
177	0xbc5419e2	-0.012945624
178	0xbb8362dd	-0.004009588
179	0x3b2ab1f0	0.0026046
180	0x80008543	-4.7805e-41
181	0x0d8b5fbc	8.589584e-31
182	0x0000b3f4	6.4555e-41
183	0x0000ef52	8.5852e-41
184	0x0000d782	7.731e-41
185	0x00008ca6	5.0455e-41
186	0x000067e1	3.7265e-41
187	0x000085aa	4.795e-41
188	0x0000bdf7	6.8147e-41
189	0xbbd39d14	-0.006457934
190	0xbb873db1	-0.0041272272
191	0xbb9dacd9	-0.004811865
192	0xb98059a4	-0.0002448085
193	0xb90ec237	-0.00013614526
194	0xbc8a48a0	-0.016880333
195	0x39aefe44	0.0003337731
196	0xba2a2dd2	-0.0006491813
197	0x3b3624af	0.0027792861
198	0xb9480655	-0.00019075845
199	0x3b463c36	0.003024829
200	0x3c9117d4	0.017711557
201	0x3c0ef003	0.008724215
202	0x3c33e3a9	0.010979571
203	0xbc4bcf11	-0.012439505
204	0xbb4c139c	-0.0031139618
205	0xbbe23f38	-0.006904509
206	0xbc98c4ee	-0.01864859
207	0xbbeda77b	-0.0072526312
208	0x3c203d61	0.009780259
209	0x3b962607	0.00458217
210	0x3c9320d1	0.017959984
211	0xbbe63392	-0.0070251906
212	0x3acd1b1e	0.001564834
213	0xbc91310b	-0.01772358
214	0x3cce0e19	0.025153207
215	0xbc9e067b	-0.0192902
216	0x3c852381	0.016252281
217	0x3d06b195	0.0328842
218	0xbd10b4a4	-0.035328522
219	0x3b0b7f8b	0.0021285738
220	0xbc5078e1	-0.012724132
221	0xbbd2fae2	-0.006438599
222	0xbcd0308f	-0.02541378
223	0xbcff4703	-0.03116179
224	0x3c0ec9fc	0.008715149
225	0x0303f562	3.8779126e-37
226	0x800017a3	-8.479e-42
227	0x00002dd4	1.644e-41
228	0x0000b395	6.4422e-41
229	0x0000266f	1.3787e-41
230	0x0000cd5b	7.3668e-41
231	0x0000360f	1.9393e-41
232	0x80000bf8	-4.294e-42
233	0x0000ca95	7.2673e-41
234	0x3bbab105	0.005697372
235	0x3c50d3aa	0.012745777
236	0x3c461628	0.012090243
237	0x3b2d2e7b	0.002642541
238	0x3c122224	0.008919273
239	0x3bfd1517	0.0077234614
240	0xba974c3e	-0.0011543108
241	0x3ba0ca7a	0.0049069496
242	0x3b8b7bd1	0.0042567034
243	0xbc832c8d	-0.016012454
244	0xbc416f5c	-0.011806335
245	0xbbbd3eab	-0.005775293
246	0xbc1d0e51	-0.009585933
247	0x3b0ca677	0.0021461525
248	0x3d26a95d	0.04068886
249	0x3c3eac17	0.011637709
250	0xbc63430e	-0.013870968
251	0x3b08c8e3	0.002087169
252	0x80001483	-7.358e-42
253	0x80005c76	-3.3169e-41
254	0x800017b2	-8.5e-42
255	0x0000c25b	6.9722e-41

e_conv5.bias f4 [32]
0	0x3ca95210	0.020669013
1	0xb89235c5	-6.971838e-05
2	0xa30d1fc0	-7.650349e-18
3	0x3c3e9744	0.011632744
4	0xa2b7ea6b	-4.985045e-18
5	0x3bbd981d	0.0057859556
6	0x3c1a6739	0.009424024
7	0x3cea8026	0.028625559
8	0x3c403530	0.011731431
9	0xb7a15a88	-1.9234853e-05
10	0x3d2cf843	0.04222895
11	0x3ce8d56c	0.02842208
12	0x9d01fdc9	-1.7204212e-21
13	0xbacc717a	-0.0015597783
14	0x3cd8b213	0.0264521
15	0x3d0c4192	0.03424222
16	0x3b3562c6	0.0027677282
17	0x3a56c773	0.00081931724
18	0x9a346059	-3.7300957e-23
19	0x3bec1eb1	0.007205807
20	0x3cd3bc5b	0.02584665
21	0x3cee2274	0.029069163
22	0x3c207ec7	0.009795851
23	0xa94397fb	-4.343052e-14
24	0x3ca257b3	0.019817209
25	0x9f0a25e4	-2.925398e-20
26	0x3cae4d9b	0.02127724
27	0x3c16b46f	0.009198292
28	0x3d274488	0.04083684
29	0xb930f725	-0.00016876736
30	0xb4ba9030	-3.475011e-07
31	0x8000e4e9	-8.2117e-41

e_conv7.weight f4 [8, 64, 3, 3]
0	0x39dcad46	0.0004209077
1	0x3b58b1c1	0.0033064934
2	0xbac8bfb2	-0.0015315919
3	0x3c2071c3	0.009792748
4	0x3c0da84f	0.008646085
5	0x3bc1ebb8	0.0059179924
6	0x3c2b94be	0.010472475
7	0x3c0ae133	0.008476543
8	0x3bbb4937	0.005715515
9	0x3ad5a7b0	0.0016300585
10	0x3b2d0605	0.0026401293
11	0x3bd5b6d9	0.0065220413
12	0x3bc2260f	0.005924947
13	0x3bc4de87	0.0060079726
14	0x3c255ad8	0.01009246
15	0x3bfc3b61	0.007697508
16	0x3c1de3e8	0.009636857
17	0x3c630207	0.013855464
18	0x0000e18d	8.0912e-41
19	0x00005005	2.8706e-41
20	0x00002b13	1.5452e-41
21	0x000086a1	4.8296e-41
22	0x0000d9db	7.8152e-41
23	0x8000400a	-2.2973e-41
24	0x00019000	1.43493e-40
25	0x0000dc14	7.8949e-41
26	0x804ae3f0	-6.877595e-39
27	0x23abdc64	1.8633196e-17
28	0x22a7f2f6	4.5522686e-18
29	0xa28b66cf	-3.778488e-18
30	0x23c3568d	2.1178598e-17
31	0xa471a758	-5.240029e-17
32	0x2411434a	3.149886e-17
33	0x23654bbc	1.2430152e-17
34	0x237c733b	1.3685348e-17
35	0xa2f5b348	-6.6597204e-18
36	0xb9d3a3d3	-0.00040367115
37	0xba500cc3	-0.0007936472
38	0xbbcde092	-0.0062828744
39	0x3bc395a6	0.005968767
40	0x3b81be8a	0.0039594816
41	0xba2e6410	-0.0006652484
42	0x3b92609c	0.004467083
43	0x3b7d8131	0.003868174
44	0xba9c26c1	-0.0011913405
45	0xbc21f81d	-0.009885815
46	0xbbf3f2e7	-0.0074447277
47	0xbbacfffb	-0.0052795387
48	0x3a39c0e2	0.0007085932
49	0x3bb33f2a	0.005470176
50	0x3bc64201	0.0060503487
51	0x3bb3b4d5	0.0054842033
52	0x3c256fa4	0.010097418
53	0x3c38cd93	0.011279481
54	0x3bfd3f49	0.0077284914
55	0x3bdea7f9	0.0067949262
56	0x3bcec4d7	0.006310086
57	0x3b0914c3	0.0020916916
58	0x3beaa661	0.007160947
59	0x3ba6853f	0.005081802
60	0x3b8d6b83	0.004315795
61	0x3bba4e4e	0.005685604
62	0x3bcfa73c	0.0063370746
63	0xbc6b3978	-0.014356963
64	0xbccefb5c	-0.025266342
65	0xbd1ce39e	-0.03830301
66	0x398ea472	0.00027206872
67	0xbc2ba5d7	-0.010476551
68	0xbcc1e6b3	-0.023669576
69	0x3c435ab9	0.011923485
70	0xbb3192f2	-0.0027095643
71	0xbc8749b9	-0.016514646
72	0x328d231e	1.643053e-08
73	0x33837c40	6.122764e-08
74	0x33ebb301	1.0975601e-07
75	0xb3d16d16	-9.7521635e-08
76	0xb34e0c69	-4.79744e-08
77	0xb3a7f168	-7.820455e-08
78	0xb3dbcd06	-1.0235276e-07
79	0x339a8ea0	7.197127e-08
80	0x33f5a809	1.1439267e-07
81	0x0000cd56	7.366e-41
82	0x000074f4	4.1955e-41
83	0x8000d4fa	-7.6402e-41
84	0x000139fe	1.12639e-40
85	0x80001e60	-1.0896e-41
86	0x80001a07	-9.337e-42
87	0x80011d10	-1.02261e-40
88	0x8001298c	-1.0674e-40
89	0x8000548a	-3.0327e-41
90	0x3a708929	0.0009175712
91	0xba53db0e	-0.0008081653
92	0x37993197	1.8262113e-05
93	0x3a98e5bd	0.0011665147
94	0xba1df129	-0.00060250104
95	0x39a00f63	0.00030529042
96	0xbb13cb24	-0.0022551501
97	0xbb8797ff	-0.0041379924
98	0xbb44d7b1	-0.0030035789
99	0xbbe4e0ff	-0.0069848294
100	0xbbb0dd0a	-0.0053974437
101	0xbc23b782	-0.009992482
102	0xbafb6bab	-0.0019181868
103	0x3a1cf64e	0.000598763
104	0xbba35fa4	-0.0049857665
105	0xbb39cd0a	-0.0028350973
106	0xba992d6b	-0.0011686509
107	0xbbca6f29	-0.006177802
108	0x39a4cde7	0.00031433927
109	0x3bb5f98e	0.005553431
110	0x3b3e8f72	0.00290772
111	0x3a088328	0.0005207532
112	0x3bbbd7c5	0.005732509
113	0x3b82781c	0.0039816033
114	0xbbe79005	-0.007066729
115	0xbb0bbc56	-0.0021321974
116	0xbb76f6ae	-0.0037683654
117	0xbca61494	-0.020273484
118	0xbcbd37a4	-0.02309782
119	0xbc158b12	-0.009127395
120	0xbc979403	-0.018503195
121	0xbcb33887	-0.02187754
122	0xbbfa0e53	-0.007631102
123	0xbb35c092	-0.002773319
124	0xbbbac161	-0.005699322
125	0x3c1f2a31	0.009714649
126	0xba9cf91d	-0.0011976097
127	0x3b962a4c	0.004582679
128	0x3b413302	0.0029479866
129	0x3a13048b	0.0005608282
130	0x3ba34cd6	0.004983525
131	0x3bad8a2d	0.005296013
132	0x3b21e1af	0.0024701168
133	0x3c00fbfe	0.00787258
134	0x3bee8a52	0.0072796727
135	0xbb56b243	-0.003276006
136	0xbb0949c1	-0.0020948502
137	0xbb48c92a	-0.0030637481
138	0x3b195e25	0.0023402062
139	0x3a861bee	0.0010231712
140	0x3a419c6d	0.0007385675
141	0x3b00b5b7	0.001963956
142	0x3a5d20ca	0.0008435367
143	0x3a9bff76	0.0011901695
144	0x00009dec	5.6652e-41
145	0x0000154a	7.637e-42
146	0x000089ce	4.9435e-41
147	0x800005a2	-2.02e-42
148	0x00008ceb	5.0552e-41
149	0x000043f8	2.4383e-41
150	0x00011603	9.9732e-41
151	0x80008ff9	-5.1648e-41
152	0x80003e39	-2.2321e-41
153	0x3c0dfa61	0.008665652
154	0x3d4afc22	0.04955686
155	0x3c8bc808	0.017063156
156	0x3d203e72	0.039122052
157	0x3da2ac0c	0.079429716
158	0x3d4592f1	0.048235837
159	0xbc020c4a	-0.0079375
160	0x3d0660c9	0.032807145
161	0x3a4e6830	0.00078738015
162	0x000098a5	5.4759e-41
163	0x0000985f	5.466e-41
164	0x00012526	1.05162e-40
165	0x00000cec	4.635e-42
166	0x80005a5f	-3.2419e-41
167	0x0000e331	8.1501e-41
168	0x8000c0fe	-6.9233e-41
169	0x84d069dd	-4.8997785e-36
170	0x0000c0ca	6.916e-41
171	0xbc2b8f6b	-0.010471205
172	0xbb1c172a	-0.0023817518
173	0xbc10258c	-0.008798014
174	0xbc19b061	-0.009380431
175	0xbb137adf	-0.0022503657
176	0xbc275b94	-0.010214705
177	0xbc82087f	-0.015873192
178	0xbc27482b	-0.010210077
179	0xbc8be298	-0.017075822
180	0xbb423a4e	-0.0029636803
181	0x3b65ea96	0.003508245
182	0xb98da74d	-0.00027018265
183	0x3a01cd3e	0.0004951543
184	0x3bed26a7	0.0072372737
185	0x3b50438d	0.0031778545
186	0xbb3ca6e7	-0.0028786005
187	0x3b757cc7	0.0037458406
188	0xb9410f4d	-0.00018411614
189	0x0000ff2e	9.1541e-41
190	0x00011d62	1.02376e-40
191	0x0000bf59	6.8643e-41
192	0x8000d94a	-7.7949e-41
193	0x80005423	-3.0183e-41
194	0x800035bb	-1.9275e-41
195	0x00000b3e	4.033e-42
196	0x800004ba	-1.696e-42
197	0x8001a559	-1.51151e-40
198	0xbb19e3e7	-0.0023481788
199	0xb99458a0	-0.0002829479
200	0xbbe22c13	-0.0069022267
201	0x3bbca1c4	0.0057565887
202	0x3c016cca	0.0078994725
203	0x3aa0286a	0.0012219076
204	0x3b515b84	0.0031945417
205	0x3bc25902	0.0059310207
206	0xba33581e	-0.00068414386
207	0x0000b19c	6.3714e-41
208	0x000026b8	1.389e-41
209	0x8000a27d	-5.829e-41
210	0x000050f9	2.9048e-41
211	0x8000e3fa	-8.1783e-41
212	0x0000669f	3.6814e-41
213	0x8000e46e	-8.1945e-41
214	0x8001127a	-9.8464e-41
215	0x80009c3e	-5.6049e-41
216	0x1777790e	7.9962797e-25
217	0x174ce33d	6.620277e-25
218	0x97669cb3	-7.451479e-25
219	0x17a781a0	1.0824844e-24
220	0x970ad1cb	-4.4855e-25
221	0x94b45cbe	-1.8211936e-26
222	0x175cd035	7.134863e-25
223	0x1780cf56	8.324145e-25
224	0x971e28af	-5.1103903e-25
225	0x3ba7c292	0.00511963
226	0x3c0fd695	0.008779188
227	0x3b1eea53	0.0024248555
228	0x3b5c888f	0.0033650731
229	0x3be893cd	0.0070976974
230	0x3ae141ff	0.0017185806
231	0xbae6a241	-0.0017595963
232	0x3b13ba74	0.0022541555
233	0xbb823f6e	-0.0039748466
234	0x3ba4a422	0.005024449
235	0x3becf759	0.0072316346
236	0x3d5845eb	0.052801054
237	0xbd2d5d06	-0.042325042
238	0xbd2014c3	-0.0390823
239	0x3b01f799	0.0019831418
240	0xbd49231d	-0.049105752
241	0xbd29fb47	-0.041499402
242	0x3b2a0b54	0.0025946693
243	0x3ba95a7f	0.0051682587
244	0x3bb928c7	0.005650613
245	0x3b6c3f24	0.0036048377
246	0x3c392431	0.011300133
247	0x3c3799b4	0.011206079
248	0x3c33133e	0.010929881
249	0x3bfda665	0.007740783
250	0x3c34de77	0.011039368
251	0x3c114997	0.008867643
252	0xbcac931e	-0.021066245
253	0x3cbc187f	0.0229609
254	0xbc9de24f	-0.019272951
255	0x3c6cd20a	0.014454374

e_conv7.bias f4 [8]
0	0x3c9d19d5	0.019177357
1	0x3bbc1f84	0.0057410616
2	0x3d4c079a	0.049811937
3	0x3d003700	0.031302452
4	0x3c2d2917	0.010568879
5	0x3c977695	0.018489162
6	0x3bc6e55b	0.006069822
7	0xbb8d12bc	-0.004305212
