snapshots/Epoch196.pth (torch, 304045 bytes, 14 tensors)

e_conv1.weight f4 [32, 3, 3, 3]
0	0xb6a1a850	-4.817768e-06
1	0xb6ae2f8b	-5.191139e-06
2	0xb6b13f6f	-5.2823957e-06
3	0xb6a4b675	-4.9088217e-06
4	0xb6b4cd53	-5.388321e-06
5	0xb6b55994	-5.4046486e-06
6	0xb6a37ae9	-4.872087e-06
7	0xb6b1ece8	-5.3025906e-06
8	0xb6b4d88d	-5.389628e-06
9	0xb6f78be3	-7.3774586e-06
10	0xb7042add	-7.877793e-06
11	0xb7050004	-7.927421e-06
12	0xb6f52709	-7.3061133e-06
13	0xb704fa01	-7.926022e-06
14	0xb70434c7	-7.880101e-06
15	0xb6ecfd3c	-7.0628284e-06
16	0xb6ff131a	-7.601816e-06
17	0xb7008b22	-7.661789e-06
18	0xb650ff0b	-3.114287e-06
19	0xb66352eb	-3.38739e-06
20	0xb662a893	-3.3774747e-06
21	0xb64f6d68	-3.0909086e-06
22	0xb6660eab	-3.4281209e-06
23	0xb662138a	-3.3687998e-06
24	0xb6459945	-2.9444502e-06
25	0xb658aa3d	-3.22856e-06
26	0xb658b0af	-3.2289352e-06
27	0x3c5df6bd	0.0135475965
28	0x3bb91203	0.005647899
29	0x3bde8852	0.006791153
30	0x3ce2946c	0.027658664
31	0x3c96f0ea	0.018425424
32	0x3d019ac1	0.031641725
33	0x3d7e4ff9	0.062087987
34	0x3d4b7fee	0.04968255
35	0x3d94ed9c	0.07271883
36	0x3b833968	0.004004646
37	0xbc1f2782	-0.009714009
38	0x3c025c8d	0.007956636
39	0x3c279e2e	0.010230584
40	0x3ba30f31	0.004976176
41	0x3c94fa09	0.018185632
42	0x3d403aae	0.04693096
43	0x3d1f9ecf	0.03896981
44	0x3d60c5dd	0.054876197
45	0xbc824862	-0.015903655
46	0xbcbb3fa2	-0.02285749
47	0xbcc2669f	-0.023730574
48	0xbc3235ac	-0.010877054
49	0xbc9ac849	-0.018894332
50	0xbc2fe9e4	-0.010736916
51	0x3c195815	0.009359379
52	0x3ada9fc7	0.0016679697
53	0x3cded87a	0.027202833
54	0xbcb642b3	-0.022248602
55	0xbd21fab0	-0.039545715
56	0xbd063031	-0.032760803
57	0xbc3b1348	-0.011418171
58	0xbcf9454b	-0.03042855
59	0xbcfc7935	-0.030819515
60	0x3b5e0648	0.0033878256
61	0xbc8171f6	-0.015801411
62	0xbcb0cc24	-0.021581717
63	0x3bf416ea	0.0074490206
64	0x3ba1c06d	0.004936269
65	0x3b20351d	0.002444572
66	0x3c744a1b	0.014910246
67	0x3c0652fb	0.008198495
68	0x3baaf50c	0.0052172
69	0x3d33c302	0.043887146
70	0x3cb44441	0.022005202
71	0x3b1cc96c	0.0023923768
72	0x3d38bc49	0.045101438
73	0x3d25455e	0.040349357
74	0x3d231201	0.03981209
75	0x3d58d36d	0.052936006
76	0x3d209eed	0.039214063
77	0x3d34669a	0.04404316
78	0x3d8328d2	0.0640427
79	0x3d2fcd76	0.042920552
80	0x3d29521f	0.041338082
81	0xbca6867a	-0.020327795
82	0x3b03a771	0.0020088817
83	0x3c9975a7	0.018732859
84	0xbd108f1f	-0.03529274
85	0xbc4ecaab	-0.012621562
86	0x3c5d57dc	0.013509717
87	0xbd2a4fa7	-0.04157987
88	0xbc6b59b3	-0.014364648
89	0x3cf058fb	0.029339304
90	0xbcf279ad	-0.029599035
91	0xba1da521	-0.0006013681
92	0x3c96d6a8	0.018412903
93	0xbcf64dca	-0.03006639
94	0xbc33457c	-0.010941859
95	0x3c657c3f	0.014006673
96	0xbd3491c1	-0.044084314
97	0xbba2457b	-0.0049521304
98	0x3cf09b7e	0.02937102
99	0xbc0947c7	-0.008378929
100	0x3b946948	0.004529152
101	0x3c6e52c3	0.014546099
102	0xbc819884	-0.015819795
103	0x3ae8e25b	0.0017767654
104	0x3c57d8ca	0.013174245
105	0xbcf847b5	-0.03030763
106	0xba5aa97f	-0.0008341297
107	0x3cfc4612	0.03079513
108	0x3d239b49	0.039943013
109	0x3d2e388b	0.042534392
110	0x3dc89632	0.097942725
111	0x3bc7762f	0.0060870866
112	0x3c081a94	0.008307118
113	0x3d652abe	0.055948965
114	0xbb882e93	-0.0041559427
115	0x3b8a724c	0.004225051
116	0x3d5760d4	0.052582577
117	0x3d023715	0.03179081
118	0x3d0b95d3	0.03407843
119	0x3db07164	0.086153775
120	0xbaa4f149	-0.0012584116
121	0x3a19b6ab	0.00058637065
122	0x3d36a959	0.044595096
123	0xbc2d2b0e	-0.010569347
124	0x388411d9	6.297575e-05
125	0x3d395ac5	0.04525258
126	0x3c6ef51e	0.014584808
127	0x3c53eae2	0.012934418
128	0x3d645308	0.055743247
129	0xbc454523	-0.012040409
130	0xbc3ea93e	-0.01163703
131	0x3cbbcffd	0.022926325
132	0xbcbc5bf9	-0.022993075
133	0xbc6c5dfc	-0.0144267045
134	0x3cb3c288	0.021943346
135	0xb70a59c0	-8.2463375e-06
136	0xb71593e4	-8.9155255e-06
137	0xb7123ca7	-8.7164e-06
138	0xb711b748	-8.685347e-06
139	0xb71ef3c5	-9.474291e-06
140	0xb717fa4a	-9.058576e-06
141	0xb70dbc05	-8.448032e-06
142	0xb7174d9c	-9.018371e-06
143	0xb71127ed	-8.651969e-06
144	0xb7077127	-8.072972e-06
145	0xb7124de2	-8.720412e-06
146	0xb70df081	-8.460252e-06
147	0xb70b72f9	-8.311815e-06
148	0xb717ffbf	-9.059847e-06
149	0xb71042e4	-8.598643e-06
150	0xb704e82d	-7.921871e-06
151	0xb70dccb9	-8.451921e-06
152	0xb706eed6	-8.042631e-06
153	0xb6169463	-2.2438114e-06
154	0xb62bae20	-2.558234e-06
155	0xb6244389	-2.4477215e-06
156	0xb61d679b	-2.345513e-06
157	0xb6356081	-2.7027274e-06
158	0xb627ef84	-2.5024356e-06
159	0xb6127420	-2.182329e-06
160	0xb6235bd2	-2.434234e-06
161	0xb617c4b1	-2.2615243e-06
162	0x3da4e4e9	0.08051474
163	0x3cee56e4	0.029094167
164	0xbcc026df	-0.023456035
165	0x3d6d2e7e	0.057905667
166	0x3ca07cdd	0.01959079
167	0xbd0508d7	-0.032479133
168	0x3d425576	0.047444783
169	0x3a7d6e0a	0.0009667581
170	0xbd53a6bc	-0.051672682
171	0x3d852e52	0.065029755
172	0x3cb03383	0.021508938
173	0xbd232bd4	-0.03983672
174	0x3d31338a	0.043262042
175	0x3bff13e8	0.0077843554
176	0xbd0aa871	-0.033852044
177	0x3cfd0323	0.030885285
178	0xbca941dd	-0.020661289
179	0xbd8f884f	-0.07008421
180	0x3d18b469	0.037281428
181	0x39eae391	0.00044801508
182	0xbd027e6d	-0.03185885
183	0x3cbe9681	0.023265125
184	0x3a643e9b	0.00087068387
185	0xbce87e03	-0.0283804
186	0x3ccffd5f	0.025389371
187	0xbc95cf1a	-0.01828723
188	0xbd7d0871	-0.06177563
189	0xa769b5d8	-3.2433823e-15
190	0xa7791bd3	-3.4570775e-15
191	0xa7957719	-4.1484934e-15
192	0xa76ef284	-3.3160603e-15
193	0xa7808c6d	-3.5679387e-15
194	0xa792d84d	-4.0757654e-15
195	0xa773e6d6	-3.384816e-15
196	0xa77a22ec	-3.47134e-15
197	0xa7925f5c	-4.062653e-15
198	0xa7485c81	-2.7805722e-15
199	0xa750e727	-2.8991107e-15
200	0xa7799a68	-3.4639395e-15
201	0xa73be979	-2.607803e-15
202	0xa744fc01	-2.7337076e-15
203	0xa75fdb11	-3.1066223e-15
204	0xa72e6376	-2.4201269e-15
205	0xa72cd1d4	-2.3983543e-15
206	0xa7496ca2	-2.7953243e-15
207	0xa5202c28	-1.3892749e-16
208	0xa5296bb4	-1.4694905e-16
209	0xa554bba2	-1.8451641e-16
210	0xa5183251	-1.3200946e-16
211	0xa52175fb	-1.4004497e-16
212	0xa53e2c94	-1.6494977e-16
213	0xa50ab5c5	-1.2031178e-16
214	0xa5080f51	-1.1801309e-16
215	0xa5246b8c	-1.4261171e-16
216	0x99251e13	-8.5363735e-24
217	0x98daf477	-5.6598526e-24
218	0x98a57d91	-4.277829e-24
219	0x996c1b81	-1.22064684e-23
220	0x9922436a	-8.388818e-24
221	0x98d51643	-5.508169e-24
222	0x99cc4bd1	-2.1123728e-23
223	0x996fb0fa	-1.23917505e-23
224	0x992e273d	-9.003513e-24
225	0x95899bdf	-5.557978e-26
226	0x950dca65	-2.8634384e-26
227	0x94af775c	-1.7717563e-26
228	0x9586f15e	-5.450298e-26
229	0x950f51bb	-2.8943094e-26
230	0x94990f44	-1.5455073e-26
231	0x95cf6cc2	-8.3778224e-26
232	0x9539466e	-3.7416012e-26
233	0x94e51683	-2.313197e-26
234	0x9391c1b8	-3.6794167e-27
235	0x931ff7f7	-2.0190878e-27
236	0x929dbea2	-9.955088e-28
237	0x9372ce27	-3.0646335e-27
238	0x930796d5	-1.7113761e-27
239	0x925dabef	-6.994723e-28
240	0x9368512b	-2.9322536e-27
241	0x92cfbf89	-1.3110754e-27
242	0x924ed0ba	-6.5259414e-28
243	0xbd8f1ca2	-0.06987883
244	0xbd3295de	-0.043599956
245	0xbd869a89	-0.06572444
246	0xbd01e32e	-0.031710796
247	0xbc8d16d2	-0.017222796
248	0xbc9e48f2	-0.019321892
249	0xbb92fc33	-0.004485631
250	0x3c937dc1	0.0180043
251	0x3c8d2b8b	0.017232677
252	0xbd72b5ae	-0.059255295
253	0xbce1ab68	-0.027547553
254	0xbd438bf7	-0.047740903
255	0xbc907e7f	-0.017638443

e_conv1.bias f4 [32]
0	0xb8b88f4b	-8.800494e-05
1	0x3d79d686	0.0609956
2	0x3cafdd44	0.021467812
3	0x3de59cde	0.11211561
4	0x3d5997c7	0.05312326
5	0xb8353ce1	-4.321046e-05
6	0x3d9baa51	0.07600845
7	0xb2289a8b	-9.814026e-09
8	0xab0df45a	-5.043237e-13
9	0x3dab4a86	0.083638236
10	0xbaa45c41	-0.0012539701
11	0x9da3133e	-4.3165637e-21
12	0x3c7d967b	0.015477772
13	0x3d8906ae	0.06690727
14	0xb722fa1d	-9.7141865e-06
15	0x3e119a08	0.14218915
16	0x3dec3845	0.1153417
17	0x3dc4d951	0.09611762
18	0x3e31f30d	0.17377873
19	0x3e1eefba	0.15521136
20	0xba9b7659	-0.0011860832
21	0x3e0b1d19	0.13585319
22	0xbc3c0eb4	-0.011478115
23	0x3deea594	0.11652675
24	0xa04f51b1	-1.7560611e-19
25	0xb80140cc	-3.0816343e-05
26	0x3cc661c4	0.02421654
27	0x90f783c5	-9.7627345e-29
28	0xb4160223	-1.3970616e-07
29	0xbce92820	-0.028461516
30	0x3dc4e9b7	0.0961489
31	0xaabb62d1	-3.328644e-13

e_conv2.weight f4 [32, 32, 3, 3]
0	0x890f063a	-1.7215927e-33
1	0x88fcdfb9	-1.5219295e-33
2	0x88e71e7d	-1.3909975e-33
3	0x09125865	1.7615674e-33
4	0x890eaed4	-1.7174832e-33
5	0x090f394f	1.7239945e-33
6	0x09250dd5	1.9867656e-33
7	0x08822ccc	7.834622e-34
8	0x890883ee	-1.6432438e-33
9	0x3b29888e	0.0025868746
10	0xbb299b28	-0.0025879834
11	0x3a781659	0.0009463779
12	0x396b3123	0.00022429651
13	0xb9ae90d7	-0.0003329578
14	0xbad12aed	-0.0015958227
15	0x3bb24395	0.0054401853
16	0x3bde9894	0.006793091
17	0x3acaf7da	0.0015485242
18	0xbaa1cceb	-0.0012344396
19	0xbae25c64	-0.0017269966
20	0xbb023764	-0.0019869441
21	0xb98b2895	-0.00026542382
22	0xbaba0f08	-0.0014195153
23	0xbb0554d5	-0.0020344753
24	0x3ac5ce57	0.0015091401
25	0x3a035cce	0.00050110824
26	0x383bb527	4.4752986e-05
27	0xbaad2db9	-0.0013212479
28	0x3afff132	0.0019526838
29	0x3b57be32	0.0032919762
30	0xbac93861	-0.0015351885
31	0x3947a431	0.00019039285
32	0x3aa43b39	0.0012529857
33	0xbb495b11	-0.0030724446
34	0x39c843a8	0.0003819738
35	0x3af95ea4	0.0019025397
36	0xba48f908	-0.0007666503
37	0xbac774a1	-0.0015217253
38	0xbab76af3	-0.0013993665
39	0x3aa54daf	0.0012611652
40	0xbb9b18c0	-0.004733175
41	0x3a01ceb7	0.00049517624
42	0x3b13bc31	0.002254259
43	0xbbaddf10	-0.005306132
44	0xbb492b19	-0.0030695854
45	0x8345c0b8	-5.8114327e-37
46	0x03826589	7.664025e-37
47	0x838882f7	-8.02343e-37
48	0x039bb93e	9.152611e-37
49	0x838d06e2	-8.288815e-37
50	0x03906a7c	8.488007e-37
51	0x0397809b	8.904509e-37
52	0x834b2621	-5.970011e-37
53	0x0383b034	7.739942e-37
54	0x3b571bcb	0.0032822962
55	0x3b339c61	0.0027406442
56	0x3a13ce3a	0.0005638335
57	0x3b6197f1	0.003442284
58	0x3b4abbe3	0.0030934743
59	0x3a0245d1	0.000496951
60	0x3b67a48d	0.0035345883
61	0x3b326fbe	0.0027227248
62	0x39ce67ff	0.00039368865
63	0x8000d7a0	-7.7352e-41
64	0x80015e2e	-1.25621e-40
65	0x80008341	-4.7085e-41
66	0x80015316	-1.21641e-40
67	0x8000a45a	-5.8958e-41
68	0x00011d27	1.02293e-40
69	0x00001bc7	9.965e-42
70	0x0000d972	7.8005e-41
71	0x800126a9	-1.05704e-40
72	0x800050c4	-2.8973e-41
73	0x0000dddd	7.959e-41
74	0x000007cc	2.797e-42
75	0x80004f43	-2.8434e-41
76	0x800044d8	-2.4696e-41
77	0x8000e530	-8.2217e-41
78	0x80007b44	-4.422e-41
79	0x80002f82	-1.7043e-41
80	0x0000c7ef	7.1723e-41
81	0x3a2bd94b	0.00065555115
82	0x39efadbe	0.0004571508
83	0x3a9309e8	0.0011218162
84	0x3a43ac33	0.00074643194
85	0x399ab9eb	0.0002951169
86	0x3a819351	0.0009885823
87	0x3b4e3d26	0.0031469553
88	0x3b329dc9	0.0027254692
89	0x3b4740e5	0.003040367
90	0xafc39c63	-3.5581413e-10
91	0xb0050086	-4.838586e-10
92	0xb0188522	-5.548647e-10
93	0x3004c1a9	4.829653e-10
94	0xae2e35c8	-3.9610787e-11
95	0xb02c2502	-6.2625827e-10
96	0x3066f6fd	8.4024504e-10
97	0x3019cc33	5.595126e-10
98	0xafcab304	-3.6870784e-10
99	0x99e565e3	-2.3719197e-23
100	0x99142326	-7.658519e-24
101	0x98cf0cbf	-5.3521116e-24
102	0x9936fc8a	-9.460179e-24
103	0x9a2ead31	-3.612226e-23
104	0x993ab7b5	-9.653074e-24
105	0x991ac49d	-8.001319e-24
106	0x990ae155	-7.179938e-24
107	0x990bab77	-7.220759e-24
108	0x399044c9	0.0002751707
109	0x399835b9	0.00029031726
110	0x35ae6f3f	1.2996387e-06
111	0x3a466635	0.00075683306
112	0x3a0ccf97	0.00053715095
113	0x39a80f9b	0.00032055084
114	0x3b1dc83e	0.0024075652
115	0x3b06e021	0.0020580369
116	0x3adde0ca	0.0016927954
117	0x3a929c95	0.0011185581
118	0x3aac89bc	0.0013163607
119	0x3a8a3aa7	0.0010546044
120	0x3a93af55	0.0011267463
121	0x3abc59b8	0.001437
122	0x3a97042d	0.001152163
123	0x3a8ee8cf	0.0010903123
124	0x3abbeec8	0.001433813
125	0x3a9e3231	0.0012069402
126	0x8000e1c7	-8.0994e-41
127	0x0000bf7b	6.869e-41
128	0x0000ad2b	6.2121e-41
129	0x800141f9	-1.15502e-40
130	0x0000ca0c	7.2481e-41
131	0x00005356	2.9895e-41
132	0x800110c6	-9.7853e-41
133	0x8001242b	-1.0481e-40
134	0x80012ada	-1.07208e-40
135	0x3b0fed51	0.002196152
136	0x3b81f03a	0.003965405
137	0x3add9a10	0.0016906876
138	0x3b897baf	0.0041956524
139	0x3b998bf4	0.004685873
140	0x3b7dbbac	0.0038716597
141	0x398c359a	0.00026742817
142	0xbb7b9cb3	-0.003839296
143	0xba891122	-0.0010457376
144	0xb9872346	-0.00025775487
145	0xb9cede8b	-0.0003945719
146	0x3a632e6c	0.000866628
147	0xba929cb1	-0.0011185614
148	0x3b49bc4d	0.0030782402
149	0x3b52854a	0.0032122904
150	0xbb160704	-0.0022892365
151	0x3aca3e19	0.0015429883
152	0x3abbfc84	0.0014342223
153	0x3af68341	0.0018807427
154	0x3ab771bd	0.0013995689
155	0x3aa03b2e	0.0012224668
156	0x3aadb2b8	0.0013252115
157	0x3ade77ed	0.0016972997
158	0x3a9f011c	0.0012131068
159	0x3a33dce8	0.00068612257
160	0x3a8c058f	0.0010682809
161	0x3a09487e	0.00052369374
162	0x3aceee30	0.0015787538
163	0xbb8ca5ee	-0.0042922413
164	0xbb325b34	-0.0027215006
165	0x3a20c118	0.0006132289
166	0x3ac7d7ac	0.001524677
167	0x3bbaf432	0.00570538
168	0xbc026464	-0.007958505
169	0x3bc46f24	0.0059946943
170	0x3c2b9c96	0.010474345
171	0x3b7d9518	0.0038693603
172	0x3b912d14	0.0044304226
173	0x3b32e299	0.0027295707
174	0x3b0db5d2	0.0021623266
175	0x3b3dcb94	0.0028960453
176	0x3b141304	0.0022594342
177	0x3a0b8d24	0.0005323461
178	0x3acea205	0.0015764838
179	0x3bbbe5d4	0.0057341848
180	0x295777b3	4.7843413e-14
181	0xa93992ca	-4.120557e-14
182	0xa974d76d	-5.4365736e-14
183	0x29858b7a	5.930582e-14
184	0x247cf05e	5.484739e-17
185	0xa96bd950	-5.236897e-14
186	0x29791cff	5.5314257e-14
187	0x2953ce44	4.703032e-14
188	0xa8905a48	-1.6026365e-14
189	0xbb42b216	-0.0029708198
190	0x3b9d37b6	0.004797901
191	0x3bc02638	0.005863931
192	0xbb42a9ad	-0.0029703185
193	0x3c4500e1	0.012024135
194	0x3c08698d	0.0083259465
195	0x3ba96452	0.00516943
196	0x3c134482	0.0089885015
197	0x3bca4c09	0.006173615
198	0x398b4e43	0.00026570456
199	0xb94c7ecc	-0.00019502192
200	0xba1539da	-0.00056925195
201	0x39a23cef	0.00030944447
202	0xb86c9889	-5.6408844e-05
203	0xb9ea9c5e	-0.0004474846
204	0x37fde75f	3.026769e-05
205	0xb8c63f58	-9.4531744e-05
206	0xba2d3adf	-0.0006608199
207	0x3b2d9e4f	0.0026492064
208	0x3b2a3ed7	0.0025977397
209	0x3b28de5f	0.002576731
210	0x3b176ccb	0.0023105617
211	0x3b398967	0.0028310658
212	0x3ad36709	0.0016128729
213	0x39c82320	0.00038173143
214	0x3b333712	0.0027346057
215	0x3a872f7c	0.0010313834
216	0x1bef1696	3.955383e-22
217	0x9b7a93b4	-2.0727241e-22
218	0x9b39b78b	-1.5362147e-22
219	0x9ae59e92	-9.4968364e-23
220	0x9b8aeebb	-2.298446e-22
221	0x9a4a243d	-4.1801894e-23
222	0x1b033182	1.0852063e-22
223	0x1a06ba81	2.7861207e-23
224	0x9b8e81ce	-2.3575814e-22
225	0x824dd40b	-1.5121875e-37
226	0x01e77747	8.5027153e-38
227	0x016c585a	4.3409743e-38
228	0x02c0af0a	2.8312332e-37
229	0x83069bc3	-3.9557866e-37
230	0x82207340	-1.1788019e-37
231	0x021a36ce	1.1329861e-37
232	0x836781a2	-6.803361e-37
233	0x02e6a15b	3.3888076e-37
234	0x3a55e6c6	0.0008159693
235	0xba226137	-0.0006194296
236	0xba179682	-0.000578262
237	0xba64cc53	-0.00087279564
238	0xbb2fdbf8	-0.0026833992
239	0xbbbb6231	-0.0057184924
240	0x3bca5181	0.006174267
241	0xbac09714	-0.0014693462
242	0xbbb09a8e	-0.005389518
243	0x0c5bd185	1.6934196e-31
244	0x0b9d9347	6.06958e-32
245	0x0b8e341a	5.4774804e-32
246	0x0bcb7fbc	7.838495e-32
247	0x0bb99954	7.149011e-32
248	0x0bcb7689	7.837111e-32
249	0x0bede734	9.1636955e-32
250	0x0c43a085	1.5070558e-31
251	0x0bb735a9	7.0569775e-32
252	0x2bf7a16b	1.7595208e-12
253	0x2badd4bb	1.2351434e-12
254	0xaae1e64c	-4.012783e-13
255	0x2bb3eb76	1.2784069e-12

e_conv2.bias f4 [32]
0	0xbcc0b119	-0.023521947
1	0xb6f1a002	-7.200987e-06
2	0x3d41360e	0.04717069
3	0xb71569ae	-8.9056975e-06
4	0x3d222679	0.03958747
5	0x3d15df81	0.036590103
6	0x3b399da2	0.0028322716
7	0x3d4af2c1	0.049547914
8	0x3d6f6cf2	0.058453508
9	0x3d16a0cd	0.036774445
10	0xbccf07b2	-0.025272224
11	0xb3198108	-3.574044e-08
12	0x90ad0948	-6.825077e-29
13	0xbc0beb14	-0.008539934
14	0x3c42da17	0.011892817
15	0xaa38355f	-1.6361e-13
16	0x3d0209fd	0.031747807
17	0x3c804205	0.01565648
18	0xbb0b492c	-0.002125333
19	0xbbb95312	-0.0056556547
20	0xb06829e6	-8.446065e-10
21	0x3c7df350	0.015499905
22	0xb02f01cd	-6.366719e-10
23	0x3d3a1272	0.045427747
24	0xb98c09ca	-0.00026710174
25	0x3d4f4cea	0.05061046
26	0x3d3385ef	0.0438289
27	0xba9d8e28	-0.0012020515
28	0xb49756f1	-2.81892e-07
29	0x3b2b4b8a	0.0026137554
30	0x9ab5d976	-7.521117e-23
31	0x3d51b6a2	0.051199563

e_conv3.weight f4 [32, 64, 3, 3]
0	0x09525c1a	2.5321136e-33
1	0x0ae1c5e2	2.1741147e-32
2	0x090b5644	1.6772078e-33
3	0x0ab5953f	1.7485806e-32
4	0x89c79ee0	-4.8056913e-33
5	0x0adf39d1	2.1495867e-32
6	0x0a2c2652	8.288706e-33
7	0x0ac464e6	1.8912067e-32
8	0x8a93054f	-1.4157582e-32
9	0xbb029628	-0.0019925926
10	0x3c50b162	0.012737604
11	0x3c6da3c1	0.014504374
12	0xbc083a62	-0.008314701
13	0x3bc8aaf6	0.0061238958
14	0x3c096624	0.008386169
15	0xbcdd1916	-0.026989501
16	0xbc3f43e5	-0.011673902
17	0xbbffd3fb	-0.0078072525
18	0xbb6daf7e	-0.0036267932
19	0x3bec617a	0.0072137685
20	0x3bccd54f	0.0062510143
21	0xbbc7ceac	-0.0060976353
22	0x3ba2874c	0.0049599763
23	0x3b7b3400	0.0038330555
24	0xbc7ae437	-0.0153132
25	0xbbc8e95d	-0.0061313347
26	0xbbd0e48c	-0.006374901
27	0x3b589f55	0.0033053954
28	0x3b8f64ff	0.0043760533
29	0x3b467313	0.0030280992
30	0x3b9061a2	0.00440617
31	0x3b987837	0.0046530026
32	0x3b34376d	0.0027498857
33	0xbbe5af02	-0.007009388
34	0xbb92d0c1	-0.004480452
35	0xbb9bc987	-0.0047542485
36	0xbb7370bb	-0.003714605
37	0x3c3338f3	0.010938871
38	0x3c4134c0	0.011792362
39	0xbb0476cf	-0.0020212417
40	0x3c3ea404	0.011635784
41	0x3c395882	0.011312606
42	0xbcaa5973	-0.020794606
43	0xbc0be474	-0.008538354
44	0xbbc62c60	-0.0060477704
45	0x879b74ba	-2.3390414e-34
46	0x0a881701	1.3104977e-32
47	0x0c70ceb4	1.855113e-31
48	0x08b06f07	1.0618717e-33
49	0x8aa45ffd	-1.5828732e-32
50	0x8b300298	-3.3898318e-32
51	0x073cddf8	1.4208779e-34
52	0x886ec2ca	-7.1849493e-34
53	0x0923149f	1.9630107e-33
54	0xbba24415	-0.0049519637
55	0x3bf3e1b4	0.0074426774
56	0x3b96f7cf	0.004607178
57	0xbb8066a2	-0.003918485
58	0x3c370590	0.01117076
59	0x3c1b2f18	0.009471677
60	0xbc282265	-0.010262107
61	0x3a61c53c	0.0008612459
62	0xbb9d0089	-0.0047913236
63	0x0000884b	4.8893e-41
64	0x80000d5b	-4.791e-42
65	0x80000535	-1.868e-42
66	0x0000c556	7.0791e-41
67	0x80010998	-9.5277e-41
68	0x0000f638	8.8327e-41
69	0x80010014	-9.1864e-41
70	0x00011b53	1.01638e-40
71	0x0000ffa4	9.1707e-41
72	0x0000ec03	8.4665e-41
73	0x80010995	-9.5273e-41
74	0x8000de32	-7.9709e-41
75	0x00003759	1.9855e-41
76	0x00010e73	9.7019e-41
77	0x00006dae	3.9346e-41
78	0x00002863	1.4488e-41
79	0x8001145b	-9.9138e-41
80	0x0000d015	7.4646e-41
81	0x3ad77f6a	0.0016441171
82	0x3bb7cee6	0.005609381
83	0x3b311de4	0.0027025873
84	0xba310259	-0.0006752364
85	0x3a435698	0.0007451563
86	0xbb118bcf	-0.0022208577
87	0xbbeaa496	-0.0071607335
88	0xbbb77ea1	-0.005599812
89	0xbb9aa15e	-0.0047189435
90	0xb750a867	-1.2436975e-05
91	0xb76b64d7	-1.403057e-05
92	0xb77af5bb	-1.4958375e-05
93	0xb73c5f94	-1.1227927e-05
94	0xb7550029	-1.2695827e-05
95	0xb7697850	-1.3915895e-05
96	0xb73d7580	-1.12926355e-05
97	0xb754f9b7	-1.2694326e-05
98	0xb76b1773	-1.4012551e-05
99	0x1c0f5e3e	4.7436536e-22
100	0x1c059533	4.4198844e-22
101	0x1bf9f6f3	4.1353182e-22
102	0x1c011e13	4.272139e-22
103	0x1c0207c5	4.3023434e-22
104	0x1c03c86d	4.360331e-22
105	0x1c14e363	4.9262983e-22
106	0x1c0ea60d	4.7198474e-22
107	0x1bf1294c	3.9896793e-22
108	0xbace5c5f	-0.0015744081
109	0x3a6b176f	0.00089680305
110	0xb957d1a1	-0.0002058209
111	0xbaf9ee00	-0.0019068122
112	0xba000bb0	-0.0004884554
113	0xbaf62274	-0.0018778578
114	0x3a9a910a	0.0011792493
115	0x3b065451	0.0020497034
116	0x3b0edf55	0.0021800597
117	0xbbb25220	-0.005441919
118	0xba3682f0	-0.000696226
119	0xbaec2d9a	-0.0018018961
120	0xbbd31f1b	-0.006442917
121	0xbac120b5	-0.0014734479
122	0xbb2ca813	-0.0026345297
123	0xbc26f93e	-0.01019126
124	0xbbc0e887	-0.0058870944
125	0xbc011eb4	-0.007880855
126	0x8000a4f3	-5.9173e-41
127	0x00005dfd	3.3717e-41
128	0x00009849	5.463e-41
129	0x000034b4	1.8906e-41
130	0x8000c49e	-7.0533e-41
131	0x00008227	4.669e-41
132	0x80009dff	-5.6678e-41
133	0x0000790c	4.3423e-41
134	0x8000c52d	-7.0733e-41
135	0xbc283b19	-0.010267996
136	0x3c26d073	0.010181534
137	0x3c58a161	0.0132220695
138	0xbb976c41	-0.004621059
139	0x3c1f7288	0.009731896
140	0x3c31f162	0.010860773
141	0xbd089a02	-0.03335
142	0xbc71c1b0	-0.014755651
143	0xbc376247	-0.011192865
144	0xbb52ea04	-0.0032182941
145	0x3be10992	0.006867596
146	0x3c02203e	0.007942257
147	0xbb88616f	-0.0041620056
148	0x3bece964	0.007229971
149	0x3bbd2bd3	0.0057730465
150	0xbc8fd183	-0.017555958
151	0xbbd8e78f	-0.006619401
152	0xbbd66f73	-0.0065440475
153	0xbb2229b6	-0.00247441
154	0x3b2e1c3f	0.002656713
155	0x3b0e0bf0	0.0021674596
156	0x39e7acbb	0.00044188448
157	0x3be179d6	0.006880979
158	0x3bc7bb46	0.006095323
159	0xbbe10fbf	-0.006868332
160	0xba00ae86	-0.00049088185
161	0xbb65f144	-0.0035086432
162	0xbbad3c3f	-0.005286723
163	0x3c523bbc	0.012831625
164	0x3c658407	0.014008529
165	0xbba68bab	-0.0050825677
166	0x3c13cb0c	0.009020578
167	0x3c796180	0.015221
168	0xbd01e320	-0.031710744
169	0xbc590753	-0.013246375
170	0xbc25072f	-0.0100725135
171	0x3a03747f	0.00050146127
172	0x3bf30b6b	0.0074171326
173	0x3bf1b42e	0.0073762154
174	0xba4e9efe	-0.0007881968
175	0x3b9f3990	0.004859157
176	0x3b704338	0.003666116
177	0xbc751ab7	-0.014959983
178	0xbc162259	-0.009163463
179	0xbc094279	-0.008377665
180	0x29d540d0	9.4703433e-14
181	0x2a3ccce4	1.676884e-13
182	0x2a2f80ac	1.5587764e-13
183	0x29925368	6.498171e-14
184	0x2a3575d8	1.6116915e-13
185	0x2a3c9932	1.6750905e-13
186	0x2a3a2962	1.6534476e-13
187	0x2a57d785	1.917061e-13
188	0x29f3785e	1.0812248e-13
189	0xbb5f1b8b	-0.0034043516
190	0x3c28eda9	0.010310569
191	0x3c19d152	0.009388285
192	0xbbcdda74	-0.006282145
193	0x3c114a10	0.0088677555
194	0x3c29e129	0.010368624
195	0xbce1a732	-0.027545545
196	0xbc7e3d08	-0.015517481
197	0xbc11e598	-0.008904837
198	0xbbf01cce	-0.0073276525
199	0x3a5758a1	0.0008214806
200	0x3b665bbf	0.00351499
201	0xbbb70bca	-0.005586122
202	0x3b88f908	0.0041800775
203	0x3bf539e7	0.007483709
204	0xbc5083df	-0.012726753
205	0xbb97de5b	-0.004634661
206	0xbb050e3e	-0.0020302678
207	0xbb24102d	-0.0025034056
208	0x3bdacdab	0.0066773496
209	0x3bad7ead	0.005294642
210	0xbb4ee493	-0.0031569346
211	0x3bc7f65b	0.006102366
212	0x3b9b080c	0.004731184
213	0xbc24849d	-0.010041383
214	0xbb067eca	-0.002052235
215	0xbba5500e	-0.0050449437
216	0x1dc21146	5.1369233e-21
217	0x1dc63004	5.245981e-21
218	0x1dddc14e	5.8698085e-21
219	0x1d97013a	3.9970635e-21
220	0x1dd096bc	5.5212997e-21
221	0x1ddc01ac	5.8235244e-21
222	0x1db3619e	4.748184e-21
223	0x1db78323	4.857529e-21
224	0x1dc37c0a	5.1744324e-21
225	0x83cc0ed7	-1.1993449e-36
226	0x0486e813	3.1716375e-36
227	0x047f2276	2.999093e-36
228	0x04329454	2.0991908e-36
229	0x848d6fea	-3.3251718e-36
230	0x832afcec	-5.024885e-37
231	0x040ec438	1.6782119e-36
232	0x83bc1adf	-1.1055816e-36
233	0x0466ad36	2.7115905e-36
234	0xbb7b0676	-0.0038303412
235	0x3c1bf660	0.00951919
236	0x3c4bd137	0.012440017
237	0xbbf97258	-0.007612508
238	0x3c6e9e54	0.014564116
239	0x3c19f39c	0.00939646
240	0xbcd3c220	-0.025849402
241	0xbc2eac7f	-0.010661243
242	0xbc0a9e34	-0.00846057
243	0x8db21253	-1.0974508e-30
244	0x8d61666e	-6.9456773e-31
245	0x8dad05ac	-1.0663314e-30
246	0x8db641a3	-1.1232417e-30
247	0x8db9dbf3	-1.1454456e-30
248	0x8db48ce7	-1.11272775e-30
249	0x8db3f645	-1.1091014e-30
250	0x8db888c7	-1.1372803e-30
251	0x8cef97bb	-3.69151e-31
252	0x2a88a3a3	2.4272e-13
253	0xab34726c	-6.410764e-13
254	0xaabe565c	-3.3810704e-13
255	0x2b83f69e	9.37656e-13

e_conv3.bias f4 [32]
0	0x3d2eec74	0.042705968
1	0x3d03c40d	0.03216939
2	0xba77dbcf	-0.0009455056
3	0x3c4fd637	0.01268535
4	0x3d224d7e	0.039624684
5	0xba02f4b0	-0.0004995568
6	0xbc111555	-0.008855184
7	0xb9cbe6d7	-0.00038891166
8	0x3d123a66	0.035700224
9	0x3bdcabb9	0.006734338
10	0x3d04c377	0.032412972
11	0x8eb7c9cd	-4.530731e-30
12	0xa64c71c7	-7.0930915e-16
13	0xb05b272a	-7.972739e-10
14	0xb23f710a	-1.1143365e-08
15	0xba8e345d	-0.0010849346
16	0x3df1ca1b	0.11806127
17	0xb9694e7d	-0.00022249851
18	0x3dc22328	0.09479362
19	0xbbd89d65	-0.0066105598
20	0xb5812c54	-9.62415e-07
21	0x3ca5716b	0.020195683
22	0xbb704729	-0.0036663509
23	0xbbee7c41	-0.007277996
24	0x3c76af46	0.015056437
25	0xb98cad9f	-0.0002683224
26	0x3c199d58	0.009375893
27	0x3d232a04	0.03983499
28	0x9532c79f	-3.6104287e-26
29	0xbc3c49f3	-0.01149224
30	0x3d1227eb	0.0356826
31	0xbc73cad5	-0.014879902

e_conv4.weight f4 [32, 64, 3, 3]
0	0xb9491748	-0.00019177527
1	0x3b52e8d5	0.0032182236
2	0xbbba48e8	-0.0056849606
3	0x3aa69133	0.0012708068
4	0xba396357	-0.0007071993
5	0xba0b846c	-0.00053221616
6	0x3b5e7aac	0.003394763
7	0xb9537199	-0.00020164847
8	0xbb0a593f	-0.0021110324
9	0x9e9682cd	-1.5935966e-20
10	0x9e9d5982	-1.6660041e-20
11	0x9e9cda0a	-1.6607321e-20
12	0x9e9ecf3d	-1.6814612e-20
13	0x9e9eb895	-1.6805242e-20
14	0x9e9f3054	-1.6854768e-20
15	0x9e9eae2b	-1.6800935e-20
16	0x9e9f0c9d	-1.6839997e-20
17	0x9e9f5dff	-1.6873656e-20
18	0x392ff144	0.00016779179
19	0x3a85fa4f	0.0010221693
20	0x3a6a05da	0.00089272636
21	0xba530015	-0.00080490235
22	0xb9d60ff1	-0.00040829138
23	0xba9a68f6	-0.0011780548
24	0xbb3b1121	-0.0028544145
25	0xbb25d60e	-0.0025304588
26	0xbb8dbc60	-0.0043254346
27	0x293ab5d9	4.1458024e-14
28	0x293d32d8	4.201053e-14
29	0x293abb20	4.14626e-14
30	0x2942f4e6	4.328907e-14
31	0x29440f76	4.3534153e-14
32	0x294279b5	4.3182217e-14
33	0x294466a6	4.3609776e-14
34	0x2944f5c7	4.373392e-14
35	0x29441924	4.354255e-14
36	0xbaeef3cc	-0.0018230616
37	0xbbb5bd46	-0.005546245
38	0xbc83154f	-0.016001372
39	0xbb480195	-0.003051852
40	0x3cceaafe	0.02522802
41	0xbacbe7e1	-0.0015556776
42	0xbca63e76	-0.020293456
43	0xbba3bb2f	-0.0049966793
44	0xb8bf3706	-9.1178386e-05
45	0xbabca935	-0.0014393689
46	0x3a71dab3	0.0009226009
47	0xbb41de30	-0.0029581897
48	0x389549dc	7.118631e-05
49	0x3ac3413e	0.0014896763
50	0xbb3f126d	-0.002915527
51	0x3b2eca5b	0.0026670906
52	0x3b601b6b	0.003419603
53	0xbb355df0	-0.00276744
54	0x3ae596a1	0.0017516204
55	0x3b1189b3	0.002220732
56	0x3ad0055e	0.001587074
57	0xbba30965	-0.004975485
58	0x3a7ff72e	0.00097643107
59	0xba9c2de1	-0.0011915528
60	0xba6127ba	-0.00085889886
61	0x39a526ad	0.00031500068
62	0xb99dc192	-0.00030089595
63	0xbc18a878	-0.00931751
64	0xbc3960cf	-0.011314585
65	0xbc9187ea	-0.017765004
66	0xbc72672c	-0.014795106
67	0x3c44dcba	0.012015516
68	0x3baf1333	0.005342865
69	0xbbe3f534	-0.0069567207
70	0x3b962c77	0.0045829373
71	0xbbd4e213	-0.0064966767
72	0xbc746641	-0.014916957
73	0x3babbe28	0.0052411743
74	0x3c15553d	0.009114561
75	0xbbeec075	-0.0072861263
76	0x3cb5ac6a	0.02217694
77	0xbbb73930	-0.005591534
78	0xbb99f1ca	-0.004698013
79	0xbc0272b2	-0.007961916
80	0xbc935a6f	-0.017987458
81	0xbbaef027	-0.005338687
82	0x3a3d7ac8	0.00072280737
83	0xbbc9542e	-0.006144068
84	0x3c203434	0.009778071
85	0xbb8a91db	-0.004228813
86	0x3b96da03	0.0046036257
87	0x3b4159b9	0.0029502942
88	0x3b16ac62	0.0022990932
89	0xbb94db3e	-0.0045427373
90	0x3ba3dacd	0.0050004483
91	0xbc529578	-0.012853019
92	0xbbbe541d	-0.005808367
93	0xbc2bfea5	-0.010497724
94	0x3c261d16	0.010138771
95	0x3ce6d7cf	0.028179077
96	0xbc07cb0a	-0.008288154
97	0x3c2d9591	0.010594741
98	0x3a789d19	0.00094838586
99	0x80002647	-1.3731e-41
100	0x0000cf2b	7.4318e-41
101	0x0000d426	7.6105e-41
102	0x00008a38	4.9584e-41
103	0x0000c8d1	7.204e-41
104	0x0000de6b	7.9789e-41
105	0x000038fe	2.0445e-41
106	0x0000800d	4.5936e-41
107	0x0000f697	8.846e-41
108	0x000057e3	3.1528e-41
109	0x0000abd0	6.1635e-41
110	0x00006e7b	3.9633e-41
111	0x00007bfa	4.4474e-41
112	0x0000bbf3	6.7423e-41
113	0x0000c816	7.1777e-41
114	0x00004826	2.5882e-41
115	0x00008d02	5.0584e-41
116	0x00006b5d	3.8515e-41
117	0xbc0b130b	-0.008488427
118	0x3c978c7d	0.018499607
119	0x3ba70c7b	0.0050979233
120	0x3bbbd7cc	0.005732512
121	0x3c2fc05c	0.010727014
122	0xbbc57760	-0.0060261935
123	0xbd074071	-0.03302044
124	0x3c8bad63	0.01705045
125	0xbb245cc3	-0.0025079704
126	0xbb466d0b	-0.0030277397
127	0xba938a2b	-0.0011256387
128	0xbae310af	-0.0017323698
129	0xbb003be7	-0.0019566955
130	0xbabf4c72	-0.0014594926
131	0xbb635683	-0.0034689016
132	0x3a6e78b6	0.0009096967
133	0x396569b4	0.0002187852
134	0xbb72c037	-0.0037040839
135	0x2ae395c9	4.0427235e-13
136	0x2ae32c92	4.0354227e-13
137	0x2ae4cdbc	4.0643693e-13
138	0x2ae50366	4.068093e-13
139	0x2ae5bb89	4.08087e-13
140	0x2ae5c882	4.0817702e-13
141	0x2ae5a996	4.0796246e-13
142	0x2ae65979	4.0918291e-13
143	0x2ae672fc	4.0935994e-13
144	0x3b2c4ae6	0.002628976
145	0xbd0b5588	-0.034017116
146	0xbc8fd8bb	-0.0175594
147	0xbc876c9b	-0.01653128
148	0xbcade9be	-0.021229621
149	0x3c02fa40	0.007994235
150	0x3c0e891d	0.008699683
151	0x3c3f257d	0.011666653
152	0x3caa3d32	0.020781133
153	0x39e7cc75	0.00044212086
154	0xb981c31e	-0.0002475017
155	0xb9415b5e	-0.00018439951
156	0xba088ab2	-0.00052086555
157	0xbad24989	-0.0016043644
158	0xbad88ea6	-0.0016522005
159	0xba240b22	-0.00062577624
160	0xbb116899	-0.002218759
161	0xbb2a1159	-0.0025950281
162	0x32246c02	9.5706145e-09
163	0x3240ebb8	1.1229467e-08
164	0x32357a55	1.0563402e-08
165	0x3284be98	1.5453494e-08
166	0x3298266d	1.7712603e-08
167	0x329193e0	1.6947467e-08
168	0x329da46a	1.8351972e-08
169	0x32b3607f	2.0882224e-08
170	0x32ae2c5c	2.0276438e-08
171	0xbb340b6b	-0.0027472626
172	0xbb767c5d	-0.0037610747
173	0x3ae9846e	0.0017815956
174	0xbb58da7c	-0.0033089211
175	0x3b5c2776	0.0033592856
176	0xbb94e046	-0.004543337
177	0x3a3ccbae	0.00072019815
178	0x3be8a9b4	0.0071003083
179	0xbac824a2	-0.0015269706
180	0x1bcc175d	3.3764067e-22
181	0x1bd8664a	3.5800305e-22
182	0x1bc5c89c	3.2720557e-22
183	0x1c01bbc1	4.2925186e-22
184	0x1c09ae97	4.555515e-22
185	0x1bfccd88	4.1822724e-22
186	0x1c0f2a09	4.736906e-22
187	0x1c19c305	5.087551e-22
188	0x1c0d8fe6	4.683897e-22
189	0x3b61b18a	0.0034438097
190	0x3a089299	0.0005209833
191	0x3a7b6d9f	0.0009591225
192	0x3af27f91	0.0018501153
193	0xba07b60e	-0.00051769696
194	0xbab5766b	-0.0013844495
195	0x3bb6bb00	0.0055764914
196	0x3b3f6556	0.0029204688
197	0xba66801b	-0.0008792893
198	0xae79bca2	-5.6783585e-11
199	0xae790d53	-5.662788e-11
200	0xae7d5d6a	-5.7608508e-11
201	0xae7f1c62	-5.8005496e-11
202	0xae807b65	-5.8426854e-11
203	0xae8140cb	-5.8777504e-11
204	0xae81f777	-5.9101994e-11
205	0xae837eef	-5.979738e-11
206	0xae841e00	-6.007994e-11
207	0xbb4c0e61	-0.00311365
208	0xbb41e7c7	-0.0029587613
209	0xbb031c6d	-0.0020005957
210	0xbaf91504	-0.0019003456
211	0x3a931296	0.0011220749
212	0x3b6b94fe	0.003594696
213	0xba6a654b	-0.00089414854
214	0xb9d32139	-0.0004026981
215	0xba9cdab5	-0.0011967035
216	0xb6eab95e	-6.995323e-06
217	0xb6ed9ef0	-7.081653e-06
218	0xb6ec0632	-7.0340693e-06
219	0xb6f0a273	-7.171469e-06
220	0xb6f3b161	-7.262614e-06
221	0xb6f20e04	-7.2137937e-06
222	0xb6f01cb2	-7.155898e-06
223	0xb6f33905	-7.2486023e-06
224	0xb6f1a830	-7.2019393e-06
225	0xbb1009a2	-0.0021978398
226	0xbb993a68	-0.004676152
227	0xbb586826	-0.0033021062
228	0xbaa7e722	-0.0012809972
229	0xbb89c3dc	-0.0042042565
230	0xbb25b593	-0.0025285229
231	0x3a2c2d8c	0.00065680663
232	0xbacf15c1	-0.001579933
233	0xb972f4eb	-0.00023170158
234	0x3bb625c5	0.0055587017
235	0xbc0a355a	-0.008435572
236	0xbab148c1	-0.0013525711
237	0xbaf27863	-0.0018499013
238	0xbb3af6b1	-0.0028528387
239	0x3b9de5e2	0.004818664
240	0x3c04a68b	0.008096348
241	0x3c2f3eb8	0.010696106
242	0x3bc83241	0.0061095064
243	0x3857a0cb	5.1409745e-05
244	0x3859cfb4	5.193027e-05
245	0x38576b92	5.1360177e-05
246	0x385c4e21	5.252485e-05
247	0x385ddddb	5.2897125e-05
248	0x385b9da4	5.2360483e-05
249	0x385b5aa1	5.2298074e-05
250	0x385cea43	5.267026e-05
251	0x385a84bf	5.209888e-05
252	0x80005301	-2.9776e-41
253	0x80000e07	-5.032e-42
254	0x8000148d	-7.372e-42
255	0x80001a56	-9.448e-42

e_conv4.bias f4 [32]
0	0x3d0821df	0.033235427
1	0x3b8dc8f8	0.004326936
2	0xa8dcee07	-2.4528134e-14
3	0xba218584	-0.0006161558
4	0x3c88e37c	0.016710036
5	0x3c880b98	0.01660709
6	0x3c673a65	0.014113043
7	0x3cbc62a5	0.022996256
8	0xb9e29696	-0.00043218274
9	0xa9161861	-3.3327836e-14
10	0x3cbabd87	0.022795452
11	0x3cd73e32	0.026274774
12	0x3d847a80	0.064686775
13	0x3c93753e	0.018000241
14	0x3cb8b4af	0.022547094
15	0x3c567477	0.013089291
16	0xbb002c7b	-0.0019557762
17	0x3dad438f	0.084601514
18	0xa0ac3393	-2.9172062e-19
19	0x3d061ab0	0.032740295
20	0x3d137c16	0.03600701
21	0xb4b96c5b	-3.4537774e-07
22	0x3d0f1fc2	0.034942396
23	0xba6831fc	-0.0008857546
24	0x8fef5a76	-2.3602064e-29
25	0x3d17e9ef	0.03708833
26	0xbb48984e	-0.0030608359
27	0x3d02f6aa	0.03197352
28	0x3dd3f3d5	0.10349242
29	0x3d0e81aa	0.034791626
30	0xb9e4952e	-0.00043598696
31	0x3cbd340d	0.023096109

e_conv5.weight f4 [32, 64, 3, 3]
0	0xbb43e62b	-0.002989183
1	0x3a7adb1e	0.0009569394
2	0xbb5206f8	-0.003204761
3	0x3bb952b6	0.005655612
4	0x3bc1946b	0.0059075854
5	0x39d10d3d	0.0003987345
6	0x3bb5ac80	0.0055442452
7	0x3bc5b5e0	0.006033644
8	0x3a80e948	0.0009835148
9	0x3baa6751	0.0052003046
10	0xbaa1f57c	-0.0012356485
11	0xba7c0a43	-0.0009614566
12	0x3b3260e2	0.0027218391
13	0xbb11cefd	-0.0022248619
14	0xbb1b5a90	-0.0023705103
15	0x3ac83ed1	0.001527751
16	0xbadabbea	-0.0016688083
17	0xbb229aa5	-0.0024811414
18	0x35342337	6.710647e-07
19	0x35397e64	6.9101793e-07
20	0x3539a334	6.915536e-07
21	0x35313fc4	6.603043e-07
22	0x3536bb8b	6.8073194e-07
23	0x3536f172	6.815163e-07
24	0x3527e2f3	6.25426e-07
25	0x352d604d	6.458766e-07
26	0x352e2353	6.4871455e-07
27	0x3bbe96bb	0.0058163083
28	0x38cbe6af	9.7227625e-05
29	0x3c0415b9	0.00806182
30	0x3ad82370	0.0016490053
31	0x3baf5855	0.005351106
32	0x3bdc3d04	0.006721141
33	0xbad9ea51	-0.0016625618
34	0x3be44c04	0.0069670696
35	0x3bf77143	0.0075513436
36	0x3bcdf7f1	0.0062856604
37	0x3ba0dfa7	0.004909474
38	0x3b14e916	0.0022721938
39	0x3c135da8	0.008994497
40	0xba87510b	-0.0010323835
41	0x3ba3582f	0.0049848775
42	0xbc2afb76	-0.0104359295
43	0xbbf6271e	-0.0075119874
44	0xbc48a8b6	-0.012247255
45	0xb504927f	-4.938701e-07
46	0xb50851d2	-5.078301e-07
47	0xb50ceeda	-5.250164e-07
48	0xb501b290	-4.831609e-07
49	0xb505b3bf	-4.9807926e-07
50	0xb50a990b	-5.1631713e-07
51	0xb4fa9ba9	-4.6679386e-07
52	0xb501d93b	-4.8372357e-07
53	0xb507ab67	-5.054084e-07
54	0x3b16fb4e	0.0023037973
55	0x3c046908	0.008081682
56	0x3bfcb230	0.0077116713
57	0xb96dc13b	-0.00022674065
58	0x3b8fca93	0.0043881624
59	0x3be0df55	0.0068625608
60	0x39ed0627	0.00045208746
61	0x3b8bb60b	0.0042636446
62	0x3c042b92	0.008067029
63	0x32035b7d	7.646006e-09
64	0x32091e91	7.9813995e-09
65	0x32085059	7.934511e-09
66	0x3207dd91	7.908413e-09
67	0x320df8d0	8.263854e-09
68	0x320cf1ce	8.2040525e-09
69	0x3201556c	7.528211e-09
70	0x320767a5	7.8816e-09
71	0x3206b013	7.839861e-09
72	0xbc8dd84d	-0.017315054
73	0x3c2d3705	0.0105722
74	0xbc9098f4	-0.017651059
75	0xbc70b40e	-0.014691366
76	0x3ca76e31	0.020438286
77	0xbc26c27a	-0.010178203
78	0x3be79b38	0.007068064
79	0xbc6ca953	-0.014444667
80	0x3c078237	0.008270792
81	0x3b95c290	0.004570313
82	0xbadc9665	-0.0016829489
83	0xbaecaa11	-0.0018056055
84	0x3b5ef472	0.0034020212
85	0xbb8385e8	-0.0040137656
86	0xba47632f	-0.0007606027
87	0xbba37e89	-0.0049894494
88	0xbb32d2ac	-0.0027286215
89	0xbb6aa924	-0.0035806382
90	0xbb038914	-0.0020070719
91	0x3b2975bb	0.0025857526
92	0x3c197b6e	0.009367807
93	0xbb03c248	-0.0020104814
94	0xba4ddfd7	-0.0007853484
95	0x3bfae6f4	0.0076569263
96	0x3a6706c6	0.000881296
97	0x3ba2b635	0.0049655684
98	0x3c8c3e2f	0.017119495
99	0x000069ec	3.7998e-41
100	0x8000e33d	-8.1518e-41
101	0x0000a5c1	5.9461e-41
102	0x00005962	3.2065e-41
103	0x8000e0bb	-8.0618e-41
104	0x000053bb	3.0037e-41
105	0x00009edc	5.6988e-41
106	0x8000e772	-8.3027e-41
107	0x800071be	-4.0803e-41
108	0x22d8a449	5.872086e-18
109	0x22e75999	6.270754e-18
110	0x22e9c861	6.3366936e-18
111	0x22d5a95c	5.791308e-18
112	0x22dc198d	5.9658172e-18
113	0x22e5d241	6.229319e-18
114	0x22d4466a	5.753727e-18
115	0x22d9d6e0	5.9045476e-18
116	0x22e4768f	6.1925053e-18
117	0x8000651d	-3.6273e-41
118	0x00009436	5.3168e-41
119	0x0000575b	3.1337e-41
120	0x0000b9c3	6.6639e-41
121	0x0000e21a	8.111e-41
122	0x8000bd07	-6.781e-41
123	0x0000ddbe	7.9546e-41
124	0x000036f0	1.9708e-41
125	0x0000268d	1.383e-41
126	0xae81ca57	-5.9021836e-11
127	0x30449df3	7.1528844e-10
128	0x2fd623b3	3.895174e-10
129	0x304b26c7	7.3906076e-10
130	0x300616d7	4.8781373e-10
131	0x30332341	6.516992e-10
132	0x3057115e	7.8241225e-10
133	0x3048bcc9	7.3027856e-10
134	0xaf97765f	-2.7550848e-10
135	0x1a847bcc	5.4793925e-23
136	0x1a4acefc	4.1939822e-23
137	0x1a78f48a	5.1482735e-23
138	0x1a83d033	5.4516694e-23
139	0x1a2f2a76	3.622345e-23
140	0x1a2d70b2	3.5866596e-23
141	0x1a7cc154	5.2268548e-23
142	0x1a6f45d7	4.9480458e-23
143	0x1a84950f	5.483474e-23
144	0xbb9dee69	-0.0048196805
145	0xbb71709c	-0.0036840802
146	0xbb36ee7d	-0.0027913146
147	0xbbd6b0c8	-0.0065518357
148	0xbb6ab007	-0.0035810487
149	0xbb5db859	-0.0033831804
150	0xbb500d04	-0.003174604
151	0x3a0fb61d	0.0005482154
152	0xb9adb0b0	-0.00033128774
153	0xbb209b61	-0.0024506676
154	0xbb46f5ed	-0.0030358986
155	0x37d1aea2	2.4996061e-05
156	0xbb6af9be	-0.0035854424
157	0xbb4cfebb	-0.003127976
158	0xbaa53c4d	-0.0012606472
159	0xbadbf088	-0.0016780058
160	0xbb2084c3	-0.0024493195
161	0xba31b05d	-0.00067782943
162	0xbbd89875	-0.006609971
163	0xbad94aae	-0.0016578042
164	0x3b950eb1	0.0045488705
165	0xbb360995	-0.0027776707
166	0x3b803114	0.0039121006
167	0x3c0967a6	0.008386528
168	0xbafdbe11	-0.0019359012
169	0x3b8bb697	0.0042637098
170	0x3bd8b5c3	0.0066134646
171	0xbb2d5038	-0.002644552
172	0x3b90ca35	0.004418636
173	0x3c12156a	0.008916238
174	0x3bf39333	0.007433319
175	0x3b2d5a3b	0.0026451487
176	0x3b19a875	0.0023446355
177	0xbb88317d	-0.00415629
178	0xbaffe258	-0.0019522412
179	0x3afdb5c0	0.0019356534
180	0x953684f4	-3.685949e-26
181	0x148384ac	1.327995e-26
182	0x1436ae05	9.222971e-27
183	0x9520f4cd	-3.2504856e-26
184	0x1497d4c3	1.5331023e-26
185	0x14bb0ae2	1.8886467e-26
186	0x953e790e	-3.846569e-26
187	0x14246578	8.299895e-27
188	0x14295a6e	8.550154e-27
189	0xbbaa0683	-0.0051887645
190	0xb9e23296	-0.0004314377
191	0xbb100f42	-0.002198175
192	0x3847aad2	4.7604386e-05
193	0x3b63a807	0.0034737603
194	0xbbf9db8e	-0.00762505
195	0xba97664b	-0.0011550871
196	0x3ab7c218	0.0014019636
197	0x3b15590c	0.0022788672
198	0x3a9fa5ca	0.0012180146
199	0x3b0dee1b	0.0021656814
200	0x3bd1f55a	0.006407422
201	0x3b93f636	0.0045154346
202	0x3bb5ae17	0.005544435
203	0xb698fb7a	-4.5592287e-06
204	0xbb0eb0c7	-0.0021772848
205	0xbb0c9806	-0.0021452918
206	0xbb9df0e0	-0.0048199743
207	0x3a2ef894	0.0006674614
208	0x3a247231	0.00062731194
209	0xb9878f9c	-0.00025856204
210	0x3bc54e9e	0.006021335
211	0xba192628	-0.00058421725
212	0x3b0c0230	0.0021363609
213	0x3aabc1fd	0.0013104078
214	0x3b93527f	0.0044959183
215	0xb9f5e673	-0.0004690174
216	0xbac21960	-0.0014808588
217	0xbb97f002	-0.0046367655
218	0xbc027978	-0.007963531
219	0xbabfc6dc	-0.0014631408
220	0xbbaa30fa	-0.0051938267
221	0xbbe9cfd2	-0.00713537
222	0xbbb223eb	-0.0054364107
223	0xbc0e1df6	-0.008674135
224	0xbc1adca9	-0.009452024
225	0x800010b7	-5.996e-42
226	0x80001b88	-9.876e-42
227	0x8000313b	-1.766e-41
228	0x8000246f	-1.307e-41
229	0x80000a18	-3.621e-42
230	0x80002f90	-1.7062e-41
231	0x800003b8	-1.334e-42
232	0x80001e40	-1.0852e-41
233	0x80000f81	-5.562e-42
234	0x3b2e0d4e	0.0026558223
235	0x3c0ca382	0.008583905
236	0x3c18233e	0.009285746
237	0x3b40409d	0.0029335388
238	0x3bffa339	0.00780144
239	0x3c094808	0.00837899
240	0xba8359f3	-0.0010021314
241	0x3b373b06	0.0027958765
242	0x3b7e0d1b	0.0038765136
243	0xbc42b938	-0.01188498
244	0xbc181ba0	-0.00928393
245	0xbb921ff3	-0.004459375
246	0xbbed593b	-0.007243303
247	0x3abb58f4	0.0014293478
248	0x3cfd73b2	0.030938957
249	0x3c03115f	0.007999747
250	0xbc33e325	-0.010979448
251	0x3b089cc8	0.0020845402
252	0x800059ac	-3.2168e-41
253	0x0000c0c7	6.9155e-41
254	0x80003fa9	-2.2837e-41
255	0x0000eb6c	8.4453e-41

e_conv5.bias f4 [32]
0	0x3cb55b50	0.022138268
1	0xadf7bb00	-2.8163694e-11
2	0xb50be06f	-5.210813e-07
3	0x3d270bc1	0.040782694
4	0x864882de	-3.7711965e-35
5	0x3bfa7523	0.0076433583
6	0x3d92f513	0.071756504
7	0x3cf0b12c	0.029381357
8	0x3cabbb66	0.020963382
9	0xaf7c7852	-2.2962013e-10
10	0x3d2b5304	0.041827217
11	0x3cf228e1	0.029560508
12	0xaa37d9ab	-1.6329184e-13
13	0xb48a2c6b	-2.573682e-07
14	0x3cdf59e6	0.027264547
15	0x3d05010f	0.032471713
16	0x3bfc2ff6	0.007696147
17	0x3bc06e25	0.0058725053
18	0xac3154f8	-2.520038e-12
19	0x3c418b99	0.011813068
20	0x3ce223e8	0.027605012
21	0x3d02bfb9	0.031921122
22	0x3c275009	0.010211953
23	0x9532d607	-3.611565e-26
24	0x3cb4be6f	0.022063462
25	0xadd0fa2b	-2.375796e-11
26	0x3cd81c81	0.02638078
27	0x3c3a093e	0.011354743
28	0x3d4d1394	0.0500675
29	0xb9b68e0e	-0.00034819584
30	0xb61816e2	-2.2663085e-06
31	0xa960c746	-4.9910834e-14

e_conv7.weight f4 [8, 64, 3, 3]
0	0xbb3e9686	-0.0029081418
1	0xbb2e33fa	-0.0026581273
2	0xbbb2e670	-0.005459599
3	0x3bb1a920	0.0054217726
4	0x3bc8c1b7	0.0061266082
5	0x3b796d93	0.0038059696
6	0x3bb5b39f	0.005545094
7	0x3bd6dcd9	0.006557089
8	0x3b90e112	0.0044213617
9	0x3a7e179d	0.00096928497
10	0x3a688ff9	0.0008871551
11	0x3b0ce8de	0.0021501104
12	0x3ae6a8f1	0.0017597956
13	0x3b219d1a	0.002466029
14	0x3bb1dae2	0.005427704
15	0x3bf43dc3	0.0074536516
16	0x3c2cd79e	0.010549454
17	0x3c5fd84e	0.013662411
18	0x800121d5	-1.03972e-40
19	0x80003504	-1.9018e-41
20	0x800145fb	-1.1694e-40
21	0x80020bfb	-1.87969e-40
22	0x0000a6d5	5.9848e-41
23	0x00015065	1.20676e-40
24	0x0001bf4a	1.60457e-40
25	0x8000786d	-4.32e-41
26	0x000084c4	4.7627e-41
27	0x800118ea	-1.00773e-40
28	0x00012957	1.06665e-40
29	0x8001c480	-1.62326e-40
30	0x00019424	1.44978e-40
31	0x00001ea2	1.0989e-41
32	0x00015681	1.22867e-40
33	0x00005eb2	3.397e-41
34	0x800123b2	-1.0464e-40
35	0x0000e300	8.1432e-41
36	0xba9478b6	-0.0011327479
37	0xbb49276d	-0.0030693666
38	0xbba11e14	-0.0049169157
39	0x3b84f851	0.004057922
40	0x3adb96c4	0.0016753306
41	0xba4f9b46	-0.0007919561
42	0x3b2aa7e2	0.0026040007
43	0xb9cba9b8	-0.00038845628
44	0xbb4f44e3	-0.0031626753
45	0xbc4982bd	-0.012299237
46	0xbc15dcd1	-0.009146885
47	0xbbe01c99	-0.0068393466
48	0xbb1c0730	-0.0023807995
49	0x3a3ffecd	0.000732404
50	0x3b1dcacd	0.0024077178
51	0x3bb34d03	0.005471827
52	0x3c0c7e01	0.008574964
53	0x3c1cc226	0.009567773
54	0x3b10849f	0.0022051705
55	0x38b42f8c	8.591925e-05
56	0x3ab3d843	0.0013721067
57	0x3b958801	0.004563332
58	0x3b50b090	0.003184352
59	0x3bad909b	0.0052967793
60	0x3bc02e5f	0.005864903
61	0x3bb41f74	0.0054969136
62	0x3bed5ade	0.007243498
63	0xbc551d71	-0.013007508
64	0xbcf0d12e	-0.02939662
65	0xbd15e9ce	-0.036599927
66	0x3c01f253	0.00793131
67	0xbc2acba9	-0.010424533
68	0xbca7f200	-0.020501137
69	0x3ccd935c	0.02509468
70	0xb9219f6d	-0.00015413547
71	0xbc3a1185	-0.011356716
72	0x8000673d	-3.7035e-41
73	0x00009a44	5.534e-41
74	0x0000c8a1	7.1972e-41
75	0x0000045a	1.561e-42
76	0x80001cd1	-1.0337e-41
77	0x000051b5	2.9311e-41
78	0x800068be	-3.7574e-41
79	0x00003c2e	2.1588e-41
80	0x00005c02	3.3006e-41
81	0x00019e97	1.48727e-40
82	0x80005e17	-3.3753e-41
83	0x00016ac9	1.30143e-40
84	0x0001ed54	1.76973e-40
85	0x0000cc6f	7.3337e-41
86	0x8001f753	-1.80559e-40
87	0x0001cbaa	1.64896e-40
88	0x0001c5af	1.62751e-40
89	0x00002a7c	1.524e-41
90	0xbb0358f8	-0.0020042043
91	0xbb8191e9	-0.0039541614
92	0xbae57c2f	-0.0017508323
93	0xba4b2da7	-0.0007750638
94	0xbb2cc684	-0.0026363442
95	0xb90cc40e	-0.00013424476
96	0xb95c10fa	-0.00020987159
97	0xbb06875f	-0.0020527465
98	0x3a1f5849	0.0006078524
99	0xbbeb452e	-0.0071798777
100	0xbbb0e7b9	-0.0053987172
101	0xbbc6e1ed	-0.006069413
102	0xbb770a12	-0.0037695211
103	0xbae6bec6	-0.0017604462
104	0xbb72c2e3	-0.003704243
105	0xbb3fdc3e	-0.0029275562
106	0xbb155f8d	-0.0022792548
107	0xbb96d01e	-0.004602446
108	0xbc07f0a1	-0.0082971165
109	0x3c89b49d	0.016809756
110	0xbbe8e0a5	-0.007106858
111	0x3c491fbe	0.012275634
112	0x3d216720	0.03940499
113	0x3c5edea9	0.013602891
114	0xbc59bf43	-0.013290229
115	0x3c38596f	0.011251791
116	0xbc4b1109	-0.012394198
117	0xbc34f413	-0.01104452
118	0xbc85eef6	-0.016349297
119	0xbb62a557	-0.0034583414
120	0xbc803fd7	-0.015655441
121	0xbcaf20c2	-0.021377925
122	0xbc0a90af	-0.008457347
123	0x3acf7428	0.0015827464
124	0xbb7e3a12	-0.0038791937
125	0x3c1b8e65	0.009494399
126	0xbb1bbb7d	-0.0023762875
127	0xba263b82	-0.0006341265
128	0xbad95b50	-0.0016582999
129	0xb9299f2e	-0.00016176395
130	0x3b0ae90c	0.0021196036
131	0x3aa53bf1	0.0012606365
132	0x3aa9098a	0.001289652
133	0x3b833c9a	0.004005027
134	0x3b25a166	0.0025273203
135	0xbb9d35a5	-0.0047976547
136	0xbbbd1207	-0.0057699713
137	0xbb32d426	-0.0027287095
138	0xba88d063	-0.0010438081
139	0xbb058a37	-0.0020376572
140	0x39f388ae	0.00046450406
141	0x3aaf8dab	0.0013393661
142	0x397db94e	0.00024196992
143	0x3b30f798	0.0027003046
144	0x809a37ae	-1.416264e-38
145	0x00a6c93c	1.5316882e-38
146	0x80438276	-6.199779e-39
147	0x00b02242	1.6175337e-38
148	0x80961a58	-1.3784775e-38
149	0x80a70b05	-1.5340481e-38
150	0x00328d4b	4.642461e-39
151	0x0072e287	1.0550509e-38
152	0x008d75f2	1.2991116e-38
153	0xbadfe0ce	-0.0017080547
154	0x3d0d527d	0.034502495
155	0xbad11232	-0.0015950857
156	0x3cd37107	0.025810732
157	0x3d80fc3d	0.06298111
158	0x3cddaacd	0.027058983
159	0xbc35f845	-0.011106555
160	0x3cd406c2	0.025882129
161	0xbc162db1	-0.009166167
162	0x00017c50	1.3643e-40
163	0x8001c523	-1.62555e-40
164	0x8001f776	-1.80608e-40
165	0x80019e5a	-1.48641e-40
166	0x80017507	-1.33817e-40
167	0x00020e63	1.88832e-40
168	0x80005f34	-3.4152e-41
169	0x000060a5	3.467e-41
170	0x80013ee1	-1.14392e-40
171	0xbbfc064f	-0.0076911817
172	0xbb7b5d20	-0.0038355067
173	0xbbb6e682	-0.005581678
174	0xbbe9c35b	-0.007133884
175	0xbb807d1e	-0.003921165
176	0xbbf99c10	-0.007617481
177	0xbc39ee27	-0.011348284
178	0xbc1e973a	-0.00967961
179	0xbc63b15e	-0.013897268
180	0xbbb30023	-0.005462663
181	0x3bffa07c	0.0078011137
182	0xbb2e9e41	-0.002664462
183	0x3bbcd5a8	0.0057627745
184	0x3ca16583	0.019701725
185	0x3c0ce2e6	0.008599019
186	0xbbf1b1e1	-0.007375941
187	0x3bbbdff6	0.0057334853
188	0xbba20ddb	-0.0049454994
189	0x80019c6a	-1.47946e-40
190	0x800156cc	-1.22972e-40
191	0x8000cae8	-7.2789e-41
192	0x0001a6ec	1.51716e-40
193	0x800074cf	-4.1903e-41
194	0x800175fe	-1.34163e-40
195	0x00006540	3.6322e-41
196	0x800198dd	-1.46673e-40
197	0x0001cc79	1.65186e-40
198	0xbb8d85a2	-0.004318909
199	0xbb49e741	-0.0030808004
200	0xbbf30633	-0.0074165105
201	0x3b83940f	0.0040154527
202	0x3bb6c36f	0.0055774967
203	0x3a2f4535	0.0006686033
204	0x3b246dca	0.0025089853
205	0x3b5ffff7	0.0034179667
206	0xba87a3eb	-0.0010348534
207	0x00011bb4	1.01774e-40
208	0x000012e9	6.784e-42
209	0x80004def	-2.7957e-41
210	0x8000fcf8	-9.0748e-41
211	0x800047b7	-2.5726e-41
212	0x0000e0db	8.0663e-41
213	0x80005be7	-3.2968e-41
214	0x8000954e	-5.356e-41
215	0x0000ebc7	8.4581e-41
216	0x80013f64	-1.14576e-40
217	0x000027cf	1.428e-41
218	0x00005e53	3.3837e-41
219	0x8000f5f3	-8.823e-41
220	0x80011d01	-1.0224e-40
221	0x00004c57	2.7386e-41
222	0x00009afb	5.5597e-41
223	0x0001e559	1.7411e-40
224	0x000143e2	1.16187e-40
225	0x3b784184	0.0037880847
226	0x3bbf4bb4	0.005837882
227	0xba8e18c1	-0.0010841117
228	0x3a8b0002	0.0010604861
229	0x3b44f259	0.0030051677
230	0xbb37edc7	-0.002806531
231	0xba9486be	-0.001133166
232	0x3a95b555	0.0011421839
233	0xbb773bcb	-0.0037724848
234	0x3bad0ad1	0.0052808304
235	0x3b506b91	0.0031802396
236	0x3d2ef02c	0.042709514
237	0xbd253c96	-0.040340982
238	0xbd2c9884	-0.042137638
239	0xbbd1362f	-0.006384633
240	0xbd120bed	-0.035655905
241	0xbd0c6271	-0.03427357
242	0x3ae541ee	0.0017490962
243	0x3aa5f3e3	0.0012661185
244	0xbab17c6d	-0.001354111
245	0xbb32d8a4	-0.0027289772
246	0x3be2fa12	0.0069267834
247	0x3bb152ec	0.0054114964
248	0x3bb0c207	0.0053942236
249	0x3bdbde13	0.006709823
250	0x3bc3f37d	0.005979954
251	0x3bcf34d5	0.0063234367
252	0xbc983eea	-0.018584687
253	0x3ca53c62	0.020170394
254	0xbc9912c3	-0.018685704
255	0x3c997202	0.018731121

e_conv7.bias f4 [8]
0	0x3ca70b09	0.020391004
1	0x3c5718dc	0.0131284855
2	0x3d61a824	0.055091992
3	0x3d29405c	0.041321144
4	0x3cc96353	0.024583494
5	0x3d062ecb	0.03275947
6	0x3cb8ab92	0.022542749
7	0x3c61f182	0.01379049
