snapshots/Epoch161.pth (torch, 304045 bytes, 14 tensors)

e_conv1.weight f4 [32, 3, 3, 3]
00000000: 07af a72d 8ed2 ac2d d20b af2d d69a a22d
00000010: 4b58 a42d 4767 a42d fa47 982d fa31 932d
00000020: a246 992d d829 45ad 6c95 49ad aae6 38ad
00000030: d666 46ad 0c77 47ad 5081 39ad 5c63 43ad
00000040: b91e 42ad 4333 3cad a92a c2ad e730 c3ad
00000050: 77cf bead daa7 c3ad e710 c6ad 010a c1ad
00000060: 9ed9 bead 6f1a c0ad b041 bcad aee8 263c
00000070: deb6 af3b 2040 0d3b f243 c03c 774e 883c
00000080: 033e e13c 95be 5d3d aad5 2c3d 9898 803d
00000090: 0422 c13b 115f 04bc dacd 633c 3556 0a3c
000000a0: 29b8 f03b 2f85 963c 6cd2 333d 7ff3 1c3d
000000b0: b7e4 453d 937d 6bbc 4b36 9ebc 3361 cdbc
000000c0: 6ee3 38bc c6df 8fbc 4f67 5abc e058 693b
000000d0: 5858 07bb a3f5 c73c 7293 abbc edd1 24bd
000000e0: e5c2 f3bc 03e6 2bbc d1ad fabc 4431 f2bc
000000f0: 485b 313b 32dd 7ebc 179e a7bc 3536 9f3b
00000100: 37e9 ba3b 5f8d 433b 2a9d 353c fecc f63b
00000110: a9fc 963b 55ad 333d 4b7e b03c f952 2dbb
00000120: 4561 303d b545 263d b372 213d b1d4 523d
00000130: 1373 1c3d 945d 353d fe44 783d 7291 203d
00000140: dd48 1b3d 1d21 93bc d682 1f3b d9d8 793c
00000150: 84fc 09bd e1cd 47bc d5bd 413c 7c73 1bbd
00000160: 078c 65bc 7241 f43c 5421 f7bc f91e 3eba
00000170: 9ede 7c3c e4dd e4bc 7dbb 2cbc 4f7f 4b3c
00000180: b67d 2ebd 06c1 43bb d78c f03c f7a0 0abc
00000190: 98e8 363b f7e1 193c 7d90 77bc 9e6e 383b
000001a0: 2cde 293c 4fae f3bc 9a5a c2b9 ca2c fa3c
000001b0: f67b 173d a6df 183d 25e7 b73d 379a ff3b
000001c0: eab6 ef3b 8d2c 533d 6425 33bb ba98 243b
000001d0: 4580 3f3d 275a f93c 24dd fb3c 45c4 a23d
000001e0: da5e b3b9 7ed1 98ba 8a41 1e3d 96b0 14bc
000001f0: 319a a43a c172 2b3d bb76 733c 24c4 2c3c
00000200: 2bf1 523d 7b97 4abc ba17 52bc b5ae 9e3c
00000210: d677 bebc 79aa 6abc c493 983c 5417 189b
00000220: 8eea 179b ede3 189b 8c10 199b dea8 189b
00000230: 40ed 199b 44bf 1b9b 6690 1b9b b641 1c9b
00000240: 69ba 109b 8290 109b 41ab 119b a7b9 119b
00000250: 8e57 119b d1c7 129b 776c 149b 7e4b 149b
00000260: 122f 159b c95f 009b 4640 009b 89e2 019b
00000270: 2b11 019b a399 009b 5c9b 029b e8c2 039b
00000280: a39c 039b 4608 059b a8e6 963d d68b cf3c
00000290: 0aae c7bc d8e9 563d 0d03 923c 2696 0cbd
000002a0: d34f 353d 3115 46b8 74cd 4abd d332 7f3d
000002b0: bee3 bc3c f8c4 23bd c58a 283d 563f 133c
000002c0: 7fc9 fbbc 7198 f03c 9e8e babc de28 8ebd
000002d0: 2925 093d 7d15 98ba 8898 ffbc a1a2 ad3c
000002e0: c4b9 0b3b 4623 d9bc 109a dd3c 1e8c 96bc
000002f0: dd5f 7dbd fe76 2fb7 a07a 33b7 1ed8 3bb7
00000300: 424f 2fb7 f38c 34b7 c9bc 3ab7 4fec 31b7
00000310: 1432 35b7 2ecd 3cb7 f7b3 3cb7 4bff 3fb7
00000320: dd36 48b7 3f1f 39b7 f626 3db7 b0cf 42b7
00000330: 996b 37b7 7909 39b7 cc05 40b7 a3f2 e4b6
00000340: 17ce e9b6 5cd4 f4b6 1440 e1b6 4708 e7b6
00000350: d5ac eeb6 a79c ddb6 4fbc dfb6 e2de e8b6
00000360: 0b8e 93b4 df8d 8bb4 cf8d 86b4 b16a 9eb4
00000370: 0b38 97b4 8b51 8eb4 4a44 b0b4 f66a a2b4
00000380: ab60 9cb4 1de4 d2b3 3385 c0b3 24bb b4b3
00000390: 6d08 d2b3 16cd c0b3 620c b0b3 abe7 e3b3
000003a0: 488d c9b3 a0ac bab3 7f42 39b3 6e8e 2db3
000003b0: 5437 1eb3 bda4 33b3 98e9 28b3 7af9 11b3
000003c0: 4435 35b3 d374 22b3 28b5 15b3 e785 88bd
000003d0: ee4f 20bd e967 81bd 8c79 04bd 6a49 8cbc
000003e0: 1e42 9dbc 0d9b ffbb 9b3e 8c3c 05fc 723c
000003f0: 15bd 6dbd 203f c1bc d976 3abd 349e 9dbc
1.906343e-11 1.9647641e-11 1.9900446e-11 1.8486029e-11 1.8683851e-11 1.8690506e-11 1.7312363e-11 1.673416e-11
1.7425453e-11 -1.1207445e-11 -1.14587055e-11 -1.0510407e-11 -1.1277831e-11 -1.1338274e-11 -1.0544746e-11 -1.1106529e-11
-1.1034445e-11 -1.0697945e-11 -2.2074191e-11 -2.219065e-11 -2.1692632e-11 -2.2243474e-11 -2.25175e-11 -2.1946002e-11
-2.169714e-11 -2.1839612e-11 -2.1402297e-11 0.010187311 0.0053623756 0.0021553114 0.023469899 0.016638977
0.02749539 0.05413683 0.042195953 0.06279105 0.0058939476 -0.008079306 0.013904059 0.008443405
0.0073461724 0.018374054 0.043901846 0.038318153 0.048313823 -0.014373201 -0.019312998 -0.025070762
-0.011284692 -0.017562758 -0.013330295 0.0035605952 -0.0020652022 0.02440912 -0.02094433 -0.040239263
-0.029756019 -0.010491851 -0.03060046 -0.029564507 0.0027062465 -0.015555667 -0.020461125 0.004858757
0.005704071 0.0029838902 0.011084834 0.007531761 0.004607756 0.043866474 0.021544596 -0.002644716
0.043061513 0.04059382 0.039416026 0.05147237 0.03819568 0.044278696 0.06061267 0.039201207
0.037911285 -0.017960126 0.002433946 0.015249454 -0.033688083 -0.012195081 0.011825045 -0.03795193
-0.014010436 0.029816363 -0.03016726 -0.000725254 0.015433935 -0.027937837 -0.010542748 0.012420489
-0.042600356 -0.002986969 0.029364033 -0.008461229 0.0027909633 0.009392253 -0.015110132 0.0028142105
0.010367911 -0.029746203 -0.00037070067 0.030538935 0.036983453 0.037322663 0.08979634 0.0078003663
0.007315506 0.05155616 -0.002733552 0.0025115446 0.046753187 0.030438496 0.030745097 0.07947592
-0.0003421221 -0.0011659113 0.03863672 -0.0090753045 0.001255816 0.041857485 0.0148598505 0.01054481
0.051499527 -0.012365217 -0.01282304 0.019370416 -0.023250502 -0.01432287 0.018625148 -1.2580683e-22
-1.2566216e-22 -1.2646792e-22 -1.266121e-22 -1.2627709e-22 -1.2732523e-22 -1.2883101e-22 -1.2867957e-22 -1.292525e-22
-1.1971633e-22 -1.1958094e-22 -1.2049454e-22 -1.2054106e-22 -1.2022409e-22 -1.2141401e-22 -1.227732e-22 -1.2266666e-22
-1.23402e-22 -1.0618862e-22 -1.060868e-22 -1.0743827e-22 -1.0676177e-22 -1.0637555e-22 -1.0803547e-22 -1.0899044e-22
-1.0886678e-22 -1.1004175e-22 0.07368213 0.025335234 -0.02437498 0.052469105 0.01782372 -0.03432288
0.04426558 -4.7226615e-05 -0.04951234 0.06230433 0.023057815 -0.039982766 0.041147966 0.008987268
-0.03073573 0.029369565 -0.022773083 -0.069413885 0.033482704 -0.0011603084 -0.031200662 0.021195712
0.0021320442 -0.026506077 0.027051002 -0.01837736 -0.061859 -1.0458518e-05 -1.0697782e-05 -1.1196387e-05
-1.04492665e-05 -1.0761653e-05 -1.1130419e-05 -1.0605042e-05 -1.08001e-05 -1.1253445e-05 -1.1247575e-05 -1.1443927e-05
-1.1933703e-05 -1.1034134e-05 -1.1274349e-05 -1.1611657e-05 -1.0932702e-05 -1.1029065e-05 -1.14454415e-05 -6.823176e-06
-6.967933e-06 -7.2964885e-06 -6.712982e-06 -6.8853e-06 -7.113073e-06 -6.60455e-06 -6.66784e-06 -6.9400858e-06
-2.7484234e-07 -2.5993992e-07 -2.5062624e-07 -2.9507422e-07 -2.8166718e-07 -2.6508891e-07 -3.2832241e-07 -3.0252676e-07
-2.91276e-07 -9.8203806e-08 -8.9649255e-08 -8.415944e-08 -9.78042e-08 -8.9780016e-08 -8.197891e-08 -1.06126514e-07
-9.385491e-08 -8.6927e-08 -4.3134147e-08 -4.040924e-08 -3.6837562e-08 -4.1826514e-08 -3.9328e-08 -3.398734e-08
-4.219079e-08 -3.7824815e-08 -3.4856527e-08 -0.06666165 -0.039138727 -0.063186474 -0.03234248 -0.01712485
-0.019196566 -0.007800466 0.017119696 0.014830594 -0.05804165 -0.02358967 -0.0455235 -0.019240476

e_conv1.bias f4 [32]
00000000: 855e dcae fd75 803d aa45 ac3c d30f e63d
00000010: af6e 643d 40fc 819b 181c 983d 687f 85b9
00000020: d658 1db8 d7f4 a73d 3adb 1995 ffdf 56a9
00000030: 199f 393c aac6 853d d6e3 47b7 1f97 143e
00000040: 8d90 f03d a1a8 c43d 43b4 343e 8180 1f3e
00000050: b7de 98ad 99a4 103e 06d9 59bc e868 ef3d
00000060: a39d 2db5 fdf6 5f95 e059 de3c 1ba9 31a6
00000070: 8902 b39b 05fa c1bc f7da cd3d dc52 c4b6
-1.0021232e-10 0.062725045 0.021029312 0.11233487 0.05576962 -2.1504273e-22 0.074272335 -0.00025462662
-3.7514452e-05 0.08200996 -3.1071043e-26 -4.771183e-14 0.011329436 0.06532033 -1.19143715e-05 0.14510773
0.11746321 0.09602476 0.1764689 0.15576364 -1.7379305e-11 0.14125289 -0.013296371 0.11689931
-6.4676914e-07 -4.522933e-26 0.027142465 -6.163839e-16 -2.9614704e-22 -0.023678789 0.1005153 -5.8509013e-06

e_conv2.weight f4 [32, 32, 3, 3]
00000000: b9e0 bfab 0edd a12b 4dd5 8b2b e162 88ab
00000010: 646e b7ab b205 a0ab 0359 0faa 12f8 60ab
00000020: 3f23 d22a 7793 9b3b 6852 e4bb b23b 093b
00000030: 555f adba 54de 23ba 3326 69bb 5a03 ec3b
00000040: cde1 513c a3af 3a3a bc8f 83bb 40dd 9dbb
00000050: dc8d 95bb 7cbb d8b9 0b44 63bb 99bb 8dbb
00000060: 20b2 c33a f80d 8f38 63eb 1839 a1ac e8bb
00000070: 2e20 db3b c15d 3a3c c829 aebb 339b 7aba
00000080: a80f 9d39 491d 30bc ad38 073b 8d50 c23b
00000090: 68d8 57ba a744 f4ba a23d 00bb a46a 863b
000000a0: 3c38 fdbb 8590 113b 75d6 b63b 2644 14bc
000000b0: b17c b4bb 53d2 c898 b796 dd98 890d e598
000000c0: cba0 f198 273a e798 11cb d198 59c4 fb98
000000d0: 05a8 f098 edc3 e698 8149 663b 148f 873b
000000e0: a05a 7f39 c9c3 713b b067 943b 51f8 d93a
000000f0: f888 aa3b d10d 9e3b 07dd 713b 9129 0080
00000100: 3117 0d00 46fe 0c00 8e19 0c80 f44f 0a00
00000110: c107 0d00 5ba0 0000 fec5 0600 0be2 0b00
00000120: bcc9 0080 1599 0080 9478 0080 324d 0000
00000130: 36cf 0080 613b 0080 ee42 0000 74cf 0080
00000140: f7aa 0080 84c0 073b 13e0 983a f65e 663b
00000150: e96e 23ba adb5 b4b9 81ee bd3a ba23 e63a
00000160: 3fbc a53a 9aa8 c23a 4114 0100 201d 0100
00000170: 8a61 0180 cefc 0080 ab85 0180 765e 0180
00000180: be22 0000 0ee9 0000 4901 0080 99f3 0000
00000190: 91cb 0080 dc20 0100 b325 0180 0f75 0080
000001a0: d90d 0000 16f8 0000 b9de 0000 6191 0000
000001b0: 71ee b339 1ace f239 f9f5 67b9 f975 9b3a
000001c0: 8595 693a c44b 4139 a925 2c3b 67c8 1c3b
000001d0: 1f9c bf3a 627c 833a 6690 0c3b 59a0 c93a
000001e0: 3767 793a 9163 fa3a f8c8 ba3a 0dbb 963a
000001f0: 8d9e 1f3b 7f94 043b 2d82 f833 e80d ee33
00000200: e2fc eb33 1a4f f233 2896 0f31 e8ee 9833
00000210: f5e8 b3b3 ac7a e133 b2c7 ef33 22b2 653b
00000220: a77e ed3b 3332 2e3b b091 023c 0943 163c
00000230: 1a84 f43b 562f 58ba df47 11bc f427 4fbb
00000240: 59d3 8dbb 01fc a4bb 4011 73ba 9bfb d6bb
00000250: 3101 e13b 438d f23b 0f53 25bc 99d6 053b
00000260: 1fb8 d43a b47c 6d3b efb6 b23a 2a5b 083b
00000270: f4df 6e3a 7a44 533b 027b 2b3b 40d9 083b
00000280: 5f93 7f3b ade9 783b 99c0 953a 7876 2ebc
00000290: 4162 edbb 81ed 0fba 0e2f b43a 95be 273c
000002a0: 6233 93bc 1db7 253c 56ce 9f3c b227 0f3c
000002b0: 55ac 1c3c eb65 343b ae01 653b 6461 af3b
000002c0: ca8a 033b 88a8 20bb f0e7 c0b8 1be3 493c
000002d0: 6eed 7f1a 6668 3c98 1b63 321a 3be0 d41a
000002e0: 05fe 0e9a 4d42 c21a 31f5 d21a 1d6a db1a
000002f0: 3e79 e81a fc51 0dbc 594c 093c dd0d 303c
00000300: de55 0abc e117 c93c 6cb8 873c ce0b ee3b
00000310: 5663 843c a49c 273c 1d5d 113a bf59 1638
00000320: 2027 33bb aa0b 50b7 31ac 8e39 5eb1 ccba
00000330: 029e a6ba bda5 ad3a 8d77 01bb df7f b23b
00000340: 6411 ab3b 4843 eb3b 8214 883b e1b7 d63b
00000350: 36d8 453b 838c c2bb 32f6 e83b 3554 963a
00000360: 1cef ae9e 0ae4 7e9e 7058 249e f930 361d
00000370: 21b0 e19e cf21 869e bc4c bd9e 0812 c61e
00000380: 514f bb9e ab19 f311 6737 ed11 6169 ec11
00000390: 0b03 ea11 cbf3 ee11 b21e ee11 8f45 e611
000003a0: 7f41 e811 ffae e311 c4cb e13a e4ae 8839
000003b0: a2f4 a13a 98eb 12bb 548f 77bb b050 1abc
000003c0: 438e 133c b618 90bb c19a 3bbc d951 0080
000003d0: 7252 0000 b284 0000 343d 0000 a479 0000
000003e0: b50a 0180 74ad 0080 61e5 0000 f51c 0100
000003f0: 18b1 d218 df1f 1d96 aac7 6118 99cb 4498
-1.3633739e-12 1.1501093e-12 9.935747e-13 -9.690826e-13 -1.3033572e-12 -1.1370265e-12 -1.2731834e-13 -7.9925053e-13
3.732795e-13 0.004747804 -0.0069678314 0.0020940122 -0.0013227264 -0.0006251086 -0.0035575747 0.007202548
0.012810183 0.0007121509 -0.004014937 -0.004817635 -0.00456403 -0.00041338417 -0.0034678008 -0.004325342
0.0014930405 6.821373e-05 0.00014583538 -0.007100657 0.0066871857 0.011374892 -0.0053150393 -0.00095598696
0.00029957038 -0.01074917 0.0020633147 0.0059300126 -0.0008233846 -0.0018636183 -0.0019567986 0.004102068
-0.007727651 0.0022211384 0.0055797645 -0.009049451 -0.0055080284 -5.191116e-24 -5.7279344e-24 -5.920878e-24
-6.24594e-24 -5.977082e-24 -5.423028e-24 -6.508024e-24 -6.2208202e-24 -5.965144e-24 0.0035139027 0.0041369293
0.00024352456 0.0036890379 0.004528962 0.001662979 0.005204316 0.0048234244 0.0036905424 -1.4911e-41
1.202181e-39 1.193242e-39 -1.111193e-39 9.47037e-40 1.196643e-39 5.7525e-41 6.22039e-40 1.09128e-39
-7.2369e-41 -5.4915e-41 -4.3255e-41 2.7692e-41 -7.4333e-41 -2.1301e-41 2.401e-41 -7.442e-41
-6.133e-41 0.0020714113 0.0011663459 0.0035151816 -0.00062344834 -0.00034467634 0.0014490635 0.0017558255
0.0012644603 0.0014851273 9.9101e-41 1.02284e-40 -1.26826e-40 -9.0689e-41 -1.39787e-40 -1.25722e-40
1.2463e-41 8.3604e-41 -4.61e-43 8.7386e-41 -7.3026e-41 1.03623e-40 -1.0536e-40 -4.1993e-41
4.968e-42 8.8996e-41 7.9898e-41 5.2152e-41 0.00034319193 0.00046311395 -0.00022121509 0.001186072
0.0008910525 0.00018434139 0.0026267564 0.002392316 0.0014618671 0.0010031576 0.0021448373 0.001538287
0.00095139764 0.001910316 0.0014250567 0.0011499837 0.0024355978 0.0020230112 1.1572079e-07 1.1085268e-07
1.09890394e-07 1.12833916e-07 2.0894593e-09 7.1215084e-08 -8.377712e-08 1.0499693e-07 1.1165629e-07 0.0035048802
0.007247764 0.0026580214 0.007969305 0.009171256 0.007462037 -0.00082467997 -0.008867233 -0.0031609507
-0.004328173 -0.005034924 -0.0009272285 -0.0065607554 0.006866597 0.0074020936 -0.0100906035 0.00204221
0.0016229189 0.003623766 0.0013634841 0.002080629 0.0009112351 0.003223686 0.0026165848 0.0020881444
0.0038997752 0.0037981078 0.0011425196 -0.010648362 -0.007244379 -0.0005490408 0.0013746934 0.010238309
-0.017968837 0.010114458 0.019507568 0.008737491 0.0095625715 0.0027526568 0.0034943628 0.005352186
0.0020071738 -0.0024514515 -9.198475e-05 0.012322213 5.2924558e-23 -2.4351138e-24 3.6889594e-23 8.804341e-23
-2.9570107e-23 8.0343634e-23 8.725009e-23 9.074771e-23 9.614883e-23 -0.008625504 0.008380019 0.010745493
-0.008443324 0.02454752 0.016567431 0.007264591 0.016160648 0.010230217 0.0005545186 3.584637e-05
-0.0027336553 -1.2400482e-05 0.00027212643 -0.0015616824 -0.0012711885 0.0013248246 -0.0019755096 0.0054473723
0.005220579 0.0071796514 0.0041528353 0.006552682 0.0030188686 -0.0059371605 0.007109427 0.0011469187
-1.852186e-20 -1.34938054e-20 -8.700376e-21 2.4112818e-21 -2.3895647e-20 -1.4201785e-20 -2.004289e-20 2.0971523e-20
-1.98322e-20 3.835446e-28 3.7426151e-28 3.729918e-28 3.6920566e-28 3.7700028e-28 3.7568697e-28 3.633047e-28
3.664351e-28 3.5922135e-28 0.0017226865 0.00026070245 0.0012356231 -0.0022418257 -0.003777464 -0.009418651
0.009006086 -0.004397477 -0.01145047 -2.9361e-41 2.9576e-41 4.7602e-41 2.1956e-41 4.3636e-41
-9.5676e-41 -6.2223e-41 8.2286e-41 1.02223e-40 5.4462547e-24 -1.2692416e-25 2.9181373e-24 -2.5435197e-24

e_conv2.bias f4 [32]
00000000: 3eb5 e9bc ee6d 099e fad7 4b3d 9558 a1a0
00000010: 34fa 203d 1950 113d 8146 1a3b 624b 403d
00000020: e1be 683d ba95 163d 7ec5 d2bc 6955 d0aa
00000030: 3c41 99b8 a6d3 0abc 4d47 363c bc2a e6ad
00000040: 1273 023d dbba 683c 87a2 3ca7 5003 20bc
00000050: e8d4 52b9 6864 803c ce58 73a8 aee8 313d
00000060: b66c 81aa 080f 623d ff33 383d 674e 009f
00000070: 4562 9fb9 02c8 193b 0c41 85b1 a67e 4f3d
-0.028528806 -7.2754525e-21 0.04976652 -2.733308e-19 0.039301112 0.035476778 0.0023540559 0.04694689
0.05682266 0.036763884 -0.025728937 -3.7007487e-13 -7.3077594e-05 -0.0084733125 0.011125398 -2.616695e-11
0.03184802 0.014204706 -2.6178347e-15 -0.009766415 -0.00020106474 0.015672877 -1.3508466e-14 0.04343479
-2.2990437e-13 0.055190116 0.044971462 -2.7169907e-20 -0.0003040006 0.0023465161 -3.8782044e-09 0.05065789

e_conv3.weight f4 [32, 64, 3, 3]
00000000: 8552 e42c bd8c f52b 0a67 b62c e49b 032d
00000010: 546a 6a2c 4b37 cc2c 7686 452d cc0b feac
00000020: 22bf 05ad dbb7 83ba 8d2d 543c 467a 7e3c
00000030: 5647 fabb 4a0e ca3b dc55 123c c62e d5bc
00000040: c241 25bc 5e2c ebbb c3cd 81bb 666b e23b
00000050: e245 c93b ea16 c2bb c111 a43b f63f 843b
00000060: b769 6fbc 5c97 b6bb bc05 c1bb c1ce 773b
00000070: ced5 8a3b 61f4 6f3b 22b1 7f3b cd3b 863b
00000080: 1366 3e3b 8e08 01bc fb74 cdbb a51c dbbb
00000090: 703a 44bb 6cff 393c 5d48 4b3c 5507 15bb
000000a0: 8b57 263c 9302 1f3c ef9f 9bbc 53d7 0bbc
000000b0: 675f cdbb 2f4c 9c19 87ce 9419 7417 9919
000000c0: 728f 0e19 1bc3 b299 1037 3c9a 1e85 1119
000000d0: 6eef 2619 4288 c919 41dc 72bb 13f2 f83b
000000e0: 85e6 423b a7e9 23bb 898e 3b3c d68c 023c
000000f0: 64de 0ebc 596b be3a 7622 bcbb f90c 4a80
00000100: a27e 4c00 0b1f 0f80 e9ff 4300 7fbd 3580
00000110: bbb8 3800 c1a7 2780 1ca6 2100 b0f4 1f00
00000120: b8dc 0080 836e 0080 1fe2 0000 784c 0080
00000130: 9ce0 0080 ea47 0000 aad7 0000 ee39 0080
00000140: e1ca 0080 45ae 0b3b 3afd ab3b 72a5 e83a
00000150: 6f44 9f3a 9e7c 033b a0a5 9dba 246b d7bb
00000160: 6187 bdbb 8937 b4bb c907 0100 8593 0180
00000170: 7e50 0100 d32e 0180 dd05 0100 a428 0100
00000180: 72a0 0100 5826 0100 b335 0100 0e3a 0180
00000190: fa1a 0080 d1b7 0000 e4ad 0000 dcc7 0000
000001a0: 0e09 0080 018a 0080 0b7e 0080 c753 0180
000001b0: b826 0ebb 17a7 1eb9 a4a1 80ba 6923 05bb
000001c0: fe25 99ba 1b05 0bbb cbfc b03a 19fd e93a
000001d0: a7a3 003b 6a55 b8bb f280 38ba 0fd4 17bb
000001e0: 0adb debb ac8f e5ba cadd 5bbb 505a 3abc
000001f0: d796 e5bb 26b6 18bc 9a03 1834 ef6f 4034
00000200: e9ec 4234 5562 4a34 efa8 ab33 4291 6f34
00000210: 98b7 8e34 9721 0c34 36c9 9134 3514 41bc
00000220: 0052 1b3c 05a1 673c 9f9a 68bb 4ce0 063c
00000230: 064d 243c c925 11bd 7ff0 8abc f0b3 48bc
00000240: 4cc7 2ebb 9b51 f83b 1030 243c 38a3 a0bb
00000250: b8af 003c 949e 973b 13a6 a5bc 6840 fdbb
00000260: d60a fabb a8e5 fcba 9ce9 4c3b 4e17 a93a
00000270: 235c 8d38 932f d63b 4160 983b e7e0 ffbb
00000280: a6fe c7ba 62ee abbb 93b7 7ebb 0f31 603c
00000290: 967c 7c3c 305f 60bb 5a25 f73b f5f7 883c
000002a0: 9f24 07bd 7a39 6cbc 6202 20bc 0a80 023b
000002b0: 1f10 f13b e691 053c 4a0f e1b8 6962 8e3b
000002c0: ed8b 1f3b a398 84bc 78cb 30bc 8273 21bc
000002d0: be83 aa9a 1d66 cb1a 202a d117 3041 8e9a
000002e0: c66d f09a e265 741a 4f9d b81a 0055 851a
000002f0: e1d6 e41a b639 2ebb cab0 1a3c 549b 043c
00000300: 8d4a a4bb 7f5a 1b3c 207f 3a3c 37e2 d9bc
00000310: 6d2c 86bc 623c 04bc c50e efbb fafe c23a
00000320: 9f6b bd3b cc7c 08bc f6a0 043b a8c1 d93b
00000330: 1ee3 70bc d8ec babb b49e 0bbb ff3b 1dbb
00000340: f47a eb3b 5b2e 9e3b d5d8 feba 654e f63b
00000350: ad28 b53b 7b5d 32bc 7b3d 32bb 5fe1 bcbb
00000360: 1c85 6320 f69b 1a20 7d2a 171f 51dc 439f
00000370: 2fd5 e19f 996e 2ca0 88cc c89f 7935 5720
00000380: 0860 3b20 9be8 9112 7992 9812 a8eb 1f12
00000390: bc1d fe92 5850 7e12 67be ab11 3317 6312
000003a0: 7b75 7412 38af 2c92 2c8e 75bb 1ea5 003c
000003b0: cf17 473c 2776 efbb 4326 823c e083 133c
000003c0: 9615 c7bc 9d3c 25bc 6959 05bc f70b 0080
000003d0: 3665 0000 a3f3 0080 6ee0 0000 4dec 0080
000003e0: 38eb 0080 f71d 0180 e445 0180 4127 0080
000003f0: c944 d01a c5e3 011b 75e7 0a1b 551b e81a
6.4893113e-12 1.744736e-12 5.1841908e-12 7.4811025e-12 3.3312424e-12 5.8041675e-12 1.122801e-11 -7.220424e-12
-7.602615e-12 -0.00100493 0.012950313 0.015532082 -0.0076378984 0.006166254 0.008931603 -0.02602328
-0.010086479 -0.00717692 -0.0039612963 0.0069097755 0.006142364 -0.0059231417 0.0050069992 0.004035945
-0.014612607 -0.0055722427 -0.005890576 0.0037812444 0.0042369133 0.0036614167 0.0039015491 0.0040964843
0.002905254 -0.007875575 -0.0062700487 -0.0066867643 -0.0029942058 0.011352401 0.0124073895 -0.0022739966
0.010152708 0.009705204 -0.01899716 -0.008535224 -0.0062674764 1.6160792e-23 1.5386257e-23 1.5829302e-23
7.3701965e-24 -1.8483571e-23 -3.8921968e-23 7.523207e-24 8.630351e-24 2.0837947e-23 -0.003705755 0.007597217
0.002973945 -0.0025011094 0.011447557 0.007968148 -0.008720014 0.0014527842 -0.0057414128 -6.80048e-39
7.024925e-39 -1.388669e-39 6.244782e-39 -4.93526e-39 5.209057e-39 -3.641763e-39 3.09016e-39 2.934678e-39
-7.9179e-41 -3.9644e-41 8.1117e-41 -2.7432e-41 -8.0575e-41 2.5798e-41 7.7366e-41 -2.0781e-41
-7.2779e-41 0.002131359 0.005248693 0.0017749502 0.0012151132 0.0020063291 -0.001202751 -0.0065740515
-0.0057839607 -0.0054997844 9.4628e-41 -1.44756e-40 1.2071e-40 -1.08633e-40 9.3939e-41 1.06415e-40
1.49392e-40 1.0559e-40 1.11099e-40 -1.12662e-40 -9.677e-42 6.5941e-41 6.238e-41 7.1696e-41
-3.248e-42 -4.9506e-41 -4.5216e-41 -1.21889e-40 -0.0021690559 -0.000151303 -0.0009813798 -0.0020315296
-0.0011684296 -0.002121276 0.0013503073 0.0017851918 0.0019628794 -0.0056254165 -0.00070382573 -0.0023167168
-0.006801014 -0.0017514131 -0.0033548945 -0.011374071 -0.007006507 -0.009320771 1.4157413e-07 1.7922115e-07
1.8153845e-07 1.8848489e-07 7.993537e-08 2.2311454e-07 2.6583143e-07 1.3050736e-07 2.7154755e-07 -0.011784603
0.00948 0.014137511 -0.0035492552 0.0082321875 0.010028129 -0.035436425 -0.01696038 -0.012249932
-0.0026669083 0.0075780875 0.010021225 -0.0049022697 0.007854395 0.0046270583 -0.020220792 -0.007728625
-0.0076306863 -0.0019294517 0.0031267172 0.0012900622 6.740566e-05 0.006536433 0.0046501462 -0.007808793
-0.0015258386 -0.0052469233 -0.0038866743 0.0136835715 0.015410563 -0.0034236424 0.0075422945 0.016719798
-0.03299391 -0.014418 -0.009766193 0.0019912743 0.007356658 0.008152461 -0.00010731684 0.0043452275
0.0024344877 -0.016186064 -0.010790698 -0.009854199 -7.052319e-23 8.4123805e-23 1.3516942e-24 -5.883514e-23
-9.943902e-23 5.0540318e-23 7.635476e-23 5.5144836e-23 9.4645745e-23 -0.0026584691 0.009441564 0.008093674
-0.00501377 0.009482025 0.011382848 -0.026597125 -0.016378606 -0.008071037 -0.007295462 0.0014877014
0.0057806517 -0.008330535 0.0020237542 0.0066454 -0.014702586 -0.0057045035 -0.0021304311 -0.002399206
0.007186288 0.0048273033 -0.0019443283 0.0075166696 0.0055285306 -0.010886545 -0.002719729 -0.005764171
1.927169e-19 1.309591e-19 3.201064e-20 -4.1475098e-20 -9.564389e-20 -1.460556e-19 -8.5041663e-20 1.8228901e-19
1.587129e-19 9.208128e-28 9.628657e-28 5.046202e-28 -1.6036984e-27 8.02473e-28 2.7096387e-28 7.1657165e-28
7.713763e-28 -5.4489604e-28 -0.0037468774 0.007851867 0.0121516725 -0.007307786 0.015887385 0.009003609
-0.024302285 -0.010085252 -0.008138993 -4.292e-42 3.6308e-41 -8.74e-41 8.051e-41 -8.4769e-41
-8.438e-41 -1.02585e-40 -1.16908e-40 -1.4082e-41 8.613791e-23 1.0744226e-22 1.148988e-22 9.599711e-23

e_conv3.bias f4 [32]
00000000: 215c 293d 5318 003d a708 7aa3 fe72 3d3c
00000010: 4ae6 203d 5e56 2eab 11fc 29bc 7932 30a0
00000020: e058 0f3d 53a4 b83b 1d41 053d 868c 31b0
00000030: 14a4 7599 7c54 a2b8 57cb 868a 218a e5a2
00000040: 8e99 d93d 8892 e2bb 6215 af3d 75c3 fbbb
00000050: 40e0 bb9f 7b47 a53c 5d17 20bb 830c 13bc
00000060: a1ce 6b3c 924a 32bb 7f88 ed3b 1dfe 213d
00000070: 3365 c1b0 6876 6dbc d054 123d 604d 83bc
0.041347627 0.031273197 -1.3554359e-17 0.011563061 0.03928212 -6.1937077e-13 -0.010375039 -1.492448e-19
0.034996867 0.0056348233 0.0325328 -6.459192e-10 -1.26993384e-23 -7.7404984e-05 -1.2980219e-32 -6.2216824e-18
0.10624991 -0.0069144405 0.08549 -0.0076832124 -7.956857e-20 0.020175686 -0.0024427988 -0.008975151
0.014392526 -0.0027205092 0.0072489376 0.039548982 -1.4071361e-09 -0.014493562 0.035725415 -0.016028106

e_conv4.weight f4 [32, 64, 3, 3]
00000000: 0504 8fba 537c cb3b 547e 86bc 4d0a 2e3b
00000010: 57af 38bb db0e 45bb 1939 003c 3c5b 92ba
00000020: 2a37 bbbb d59e 0000 4b7f 0000 c7c6 0000
00000030: 26be 0000 3307 0000 685b 0000 b29b 0080
00000040: 9a07 0000 aa68 0080 50e0 3039 df88 d03a
00000050: 4fa8 823a d0d5 99ba eca9 6638 7c2f 92ba
00000060: 672e 52bb 7177 1abb 5acb 9ebb 1c7f 0080
00000070: 46a5 0080 77ae 0080 ea06 0080 fcdf 0000
00000080: 53aa 0080 78bc 0000 e0a1 0000 c86c 0000
00000090: ab3e dcba 3833 c2bb 8350 8ebc e329 53bb
000000a0: d6a2 e63c 434e a6ba 990e b8bc bea1 b6bb
000000b0: 2afb 9639 c2e9 00bb 1f7d e639 b8d7 78bb
000000c0: c6bc c339 099b ed3a 1a0a 4cbb 1714 383b
000000d0: fa04 7c3b 7f7e 0cbb 049c d53a 35ba 0d3b
000000e0: 417b bb3a a02a a5bb 3145 8c3a 33e7 a0ba
000000f0: 3b9b 86ba 6719 5e39 c373 b0b9 22e8 1fbc
00000100: 8dc4 45bc 3e28 99bc 8226 82bc f3fd 523c
00000110: e088 c33b c5df f2bb 75fc a23b 6868 e0bb
00000120: 8dd8 77bc 6843 b03b a847 1a3c 6dd4 efbb
00000130: 4dd9 b93c 449d b4bb adb9 9abb d09c 04bc
00000140: 7819 95bc e089 fdbb 5891 cd39 b322 19bc
00000150: 5e00 5c3c a330 bfbb 26c3 cd3b 062c 613b
00000160: 8dee 163b 4549 c6bb 4168 b43b 469c 60bc
00000170: 8478 c3bb 8181 31bc 07de 353c 307b f93c
00000180: a901 0cbc 6d77 3d3c 7632 9a3a 9b00 7e29
00000190: 8814 7f29 a44e 7e29 dcf1 7e29 85bd 8029
000001a0: 1d0a 8029 6fce 7f29 e066 8029 9968 8029
000001b0: 45c7 fc31 eec7 0332 3a2c 0132 78b7 0332
000001c0: 41e1 0732 4bb0 0732 79df ff31 90a4 0432
000001d0: 6d0a 0432 d824 1bbc 8582 ac3c 30c5 cb3b
000001e0: c808 dc3b e8e6 4c3c ed68 c9bb d388 17bd
000001f0: 117b a13c 3cab 13bb 7992 38bb 9a2f 98ba
00000200: 360f e8ba 0718 c6ba c948 9bba 350b 54bb
00000210: 3ab4 613a 876c cc37 6288 71bb ae13 0000
00000220: f397 0000 abd4 0080 0dc1 0080 6ac3 0080
00000230: fbb2 0080 0538 0080 4450 0080 6f25 0080
00000240: d670 4c3b 1daa 17bd 1b90 9abc 6c30 93bc
00000250: 2500 bdbc 27f1 153c 4f74 1c3c 7395 513c
00000260: 9e59 bd3c e3a8 643a 9ee9 e3b9 cc79 e1b9
00000270: 7a4f 52b8 1f79 dcba f1e1 f0ba 8398 09ba
00000280: 0daf 30bb dfe2 4dbb e3a7 0080 1b91 0080
00000290: 9a7f 0080 5b91 0000 56c4 0080 e827 0000
000002a0: 611c 0000 435b 0000 2fd9 0080 a2d7 5fbb
000002b0: d76d a2bb 1f76 1e3b 4fc9 56bb 4bf0 813b
000002c0: 3fad 82bb 41cf a739 5ad0 e93b 91de 0cbb
000002d0: 10b5 f135 79d2 f335 725f f035 8332 fb35
000002e0: d31f fd35 0c05 f935 3e0b fe35 0f17 0136
000002f0: 8f63 fd35 443e 5e3b dfde a339 1159 e3b8
00000300: 75f1 113b 7986 24ba 94f0 1cbb f75d b93b
00000310: 31af 2b3b 1102 b9ba 5692 0080 95a3 0080
00000320: 2589 0080 2e5b 0080 fab7 0080 9667 0080
00000330: 4625 0080 051f 0080 922a 0080 f89d 49bb
00000340: 11f8 51bb 50b5 15bb c4fc 08bb 6b14 b33a
00000350: 5dc0 633b 21fc e7ba 2239 a0b9 b16e a0ba
00000360: 3db6 0080 907e 0080 a4bc 0080 cc63 0080
00000370: 0026 0080 c584 0080 76b4 0080 adb0 0080
00000380: 9f9c 0080 40c1 1cbb 48d5 c6bb 6c0b 96bb
00000390: f975 bb39 f619 7ebb daa5 02bb ed29 c03a
000003a0: 3e2a 0cbb 34ae 0cb9 ce92 fc3b 7a9c 33bc
000003b0: 5b5b caba a707 2dbb a800 83bb 6df6 c53b
000003c0: 0482 2d3c f36f 673c 388f 083c b008 0000
000003d0: 5956 0100 1e88 0000 b949 0180 591d 0000
000003e0: 222b 0180 4121 0000 5532 0100 ce23 0180
000003f0: 3ef3 faab b0e1 08ac 42d4 07ac 249f 0bac
-0.0010911232 0.006209889 -0.01641766 0.0026556433 -0.0028180683 -0.003006867 0.007826113 -0.0011166106
-0.005713363 5.6978e-41 4.5664e-41 7.1308e-41 6.8212e-41 2.583e-42 3.279e-41 -5.5853e-41
2.727e-42 -3.7546e-41 0.00016868231 0.0015909931 0.0009968373 -0.0011736695 5.4994525e-05 -0.0011153067
-0.0032071115 -0.0023569728 -0.0048460187 -4.5598e-41 -5.9289e-41 -6.2586e-41 -2.48e-42 8.035e-41
-6.1101e-41 6.761e-41 5.807e-41 3.9023e-41 -0.0016803344 -0.005926516 -0.017372375 -0.0032221011
0.028153818 -0.0012688119 -0.022467898 -0.0055734804 0.0002879736 -0.001967058 0.0004396224 -0.0037970375
0.00037333946 0.0018127869 -0.003113395 0.0028088146 0.0038455115 -0.0021437702 0.0016297107 0.002162588
0.00143037 -0.0050404817 0.0010701773 -0.0012275934 -0.0010269651 0.00021181033 -0.00033655585 -0.009759935
-0.012070787 -0.018695947 -0.015887503 0.012877929 0.0059672445 -0.0074119293 0.004973943 -0.0068483837
-0.015127313 0.005379129 0.009416498 -0.0073190243 0.022686625 -0.0055119116 -0.0047218413 -0.008094028
-0.018200621 -0.0077373832 0.00039208937 -0.009346652 0.013427822 -0.0058346554 0.006279367 0.0034358515
0.002303037 -0.006051215 0.005505592 -0.0137091335 -0.0059652943 -0.010834099 0.011100299 0.030454248
-0.008545318 0.011564118 0.0011764306 5.6399855e-14 5.6639182e-14 5.646754e-14 5.660911e-14 5.717218e-14
5.686096e-14 5.6800427e-14 5.702188e-14 5.702487e-14 7.3568196e-09 7.670662e-09 7.518844e-09 7.6669195e-09
7.909251e-09 7.898119e-09 7.4468827e-09 7.720828e-09 7.685782e-09 -0.009469233 0.02105833 0.006218575
0.006714914 0.012506224 -0.0061465413 -0.03699572 0.019712003 -0.0022532484 -0.0028163476 -0.0011610866
-0.0017704729 -0.0015113362 -0.0011847253 -0.0032355313 0.00086099247 2.4369232e-05 -0.0036854972 7.06e-42
5.4509e-41 -7.6291e-41 -6.9254e-41 -7.0101e-41 -6.4206e-41 -2.0096e-41 -2.8794e-41 -1.3429e-41
0.0031195185 -0.037027467 -0.018867543 -0.017967425 -0.023071358 0.0091517335 0.0095492145 0.012791979
0.023114022 0.0008722676 -0.00043470872 -0.0004300609 -5.014192e-05 -0.0016820765 -0.0018377883 -0.0005248861
-0.0026959807 -0.0031415743 -6.0226e-41 -5.2054e-41 -4.5775e-41 5.2144e-41 -7.0432e-41 1.4316e-41
1.018e-41 3.2739e-41 -7.7911e-41 -0.0034155627 -0.0049569416 0.0024179292 -0.0032773798 0.0039654127
-0.0039879377 0.00032007138 0.007135433 -0.0021494965 1.8008595e-06 1.8166166e-06 1.7909172e-06 1.8715658e-06
1.8859231e-06 1.8553415e-06 1.8927747e-06 1.923592e-06 1.8878944e-06 0.0033911625 0.00031255835 -0.000108407934
0.0022269164 -0.00062761415 -0.0023947107 0.0056569534 0.0026196952 -0.0014114996 -5.2495e-41 -5.8682e-41
-4.9198e-41 -3.2709e-41 -6.5998e-41 -3.716e-41 -1.3371e-41 -1.1128e-41 -1.5271e-41 -0.0030764323
-0.0032038728 -0.0022843666 -0.0020902613 0.0013662701 0.0034752109 -0.0017699042 -0.00030560145 -0.001224002
-6.5375e-41 -4.5402e-41 -6.7672e-41 -3.58e-41 -1.3632e-41 -4.7629e-41 -6.4737e-41 -6.338e-41
-5.6185e-41 -0.0023918897 -0.0060679056 -0.0045789983 0.00035755316 -0.0038772798 -0.001993528 0.0014660932
-0.0021387483 -0.00013416336 0.00770793 -0.0109626 -0.0015438603 -0.0026402266 -0.003997881 0.006041339
0.01059008 0.014125812 0.008334927 3.116e-42 1.22811e-40 4.883e-41 -1.18282e-40 1.0528e-41
-1.07309e-40 1.1929e-41 1.09891e-40 -1.0468e-40 -1.7831082e-12 -1.9452044e-12 -1.930248e-12 -1.9841429e-12

e_conv4.bias f4 [32]
00000000: 92a3 073d 02a7 703b 1d6f 91b6 60cb 11bb
00000010: ea84 883c db3f 863c 4e03 623c 1024 b13c
00000020: ad4f 7eba d42b 1a9b e66a b03c cec3 d53c
00000030: 9c66 3a3d bbee 8a3c c445 b93c afed 513c
00000040: 42cf 3d98 2b80 a13d 2c0d e7b7 b681 043d
00000050: 7658 b43c 1d4b beb9 166b 033d 3878 06bb
00000060: 90a1 82af 331d 173d 5493 0abb fab5 023d
00000070: 62eb b73d 8e44 e23c 41ae c0ba 36d8 bb3c
0.033114977 0.0036720638 -4.334272e-06 -0.0022246465 0.01666494 0.01638787 0.013794733 0.021623641
-0.00097012037 -1.2752743e-22 0.021535348 0.026094344 0.045508012 0.016959539 0.022616275 0.012813016
-2.4532316e-24 0.07885774 -2.754348e-05 0.032350264 0.022014838 -0.00036295588 0.032084547 -0.0020518433
-2.376166e-10 0.03689308 -0.0021144943 0.031911828 0.089804426 0.02762058 -0.0014700369 0.022930246

e_conv5.weight f4 [32, 64, 3, 3]
00000000: 33e8 29bb 5f19 153a 8c36 7dbb 0ca4 ad3b
00000010: d70e b53b b70c a7b8 6c34 bd3b 0c0f d43b
00000020: 3bb2 ba3a 2296 b13b e861 65ba d5d1 9cb9
00000030: 5280 4f3b f3f8 e7ba 53d3 cfba d43e b93a
00000040: 816b 05bb 1941 04bb 2942 0000 2113 0000
00000050: cfc3 0000 cd34 0000 3bcc 0080 6bcc 0180
00000060: 1c48 0100 6829 0100 e8f8 0000 1027 e73b
00000070: 86ad adb8 7ed3 203c 05d0 1a3b 5199 df3b
00000080: f300 0d3c 2eee e5ba b884 083c 9bbf 123c
00000090: 266f e13b 0797 a93b 02d9 093b 1f3b 173c
000000a0: 0502 06bb bda5 963b fddd 40bc a512 07bc
000000b0: 3258 5bbc a2ba 0080 3c04 0180 a3d7 0080
000000c0: 90c6 0080 e5f9 0080 a2fb 0080 cdf1 0080
000000d0: 6dce 0080 f1cd 0000 24f2 2c3b 2870 113c
000000e0: c09f 0a3c 02c2 aa39 13bd aa3b 1125 f23b
000000f0: 37df 5e3a 3d98 9c3b 7dc2 0a3c 0bbf 0000
00000100: 45af 0080 2c06 0000 896a 0080 70d8 0080
00000110: 0f22 0080 f0e9 0000 e0a8 0080 22cd 0000
00000120: 9763 9bbc ae88 343c a1df 9cbc 6f75 85bc
00000130: e136 af3c 5730 37bc e49f f63b 8f6e 7abc
00000140: 44b1 133c d9b0 da3b 0f1a f8ba 4e2c 62bb
00000150: f52b 773b a9b8 e8bb d78d d6ba 98a6 b2bb
00000160: 34f9 02bb 2bd5 34bb d442 45bb a40a 163b
00000170: 1f7f 343c c8da 2ebb 3afd f1b9 f962 1f3c
00000180: 42a9 493a 7960 c53b f497 a13c ad7a 0080
00000190: 7517 0080 4897 0000 7271 0080 6a02 0080
000001a0: 7f78 0000 838f 0080 fc18 0080 791a 0000
000001b0: 5def 0000 9f41 0000 f0ab 0000 01be 0080
000001c0: aeba 0080 5c68 0000 407f 0000 fedf 0080
000001d0: 239f 0080 c75e 0000 06ab 0080 d8bd 0080
000001e0: cdbd 0080 98a2 0080 017a 0080 a6b4 0080
000001f0: 3bb1 0080 8826 0000 a668 de8b 4389 868b
00000200: ca58 b18b 059d 848b 4bb6 ac8b f2ec 848b
00000210: 15bc 6f8b a057 7e8b c834 e18b 68b4 0000
00000220: bf73 0000 5d45 0100 aeac 0000 31a1 0080
00000230: b992 0000 5025 0180 89a9 0100 30d2 0080
00000240: 3509 a7bb 1d64 78bb ed71 52bb 0003 cfbb
00000250: 5196 58bb d8d2 52bb 8793 1bbb ac89 b93a
00000260: 37dc 9d39 1330 1cbb 549b 11bb 043b 063a
00000270: 6686 05bb 2602 23bb e8f9 29bb 6604 53b8
00000280: bc95 5ebb 6d4d 57bb ffbe d1bb 3d59 77ba
00000290: 4a8d 9c3b ba66 1abb c2ae 923b 5ef3 0b3c
000002a0: 47e6 b4ba 64e6 983b d3b7 cc3b 68e4 a0bb
000002b0: 1195 9b3b 8490 383c 7c40 0a3c 7f2a 3d3b
000002c0: 0c82 3d3b bce3 c5bb ceff 1cbb ba2c 2a3b
000002d0: 3612 0080 5f01 0000 3d8f 0080 de75 0000
000002e0: 9434 0100 6951 0080 3f3b 0000 0b23 0100
000002f0: a429 0080 282e babb ed11 8aba 09a0 2bbb
00000300: 89eb 91b9 6da4 403b 10f5 15bc 0dc2 9bba
00000310: ef1a 9a3a 1a27 243b ace0 033a dc35 023b
00000320: 0fe1 063c 107e 973b 1e28 c33b 597f 1ebb
00000330: 2669 3dbb 4a90 5abb c286 f4bb d91b 8db9
00000340: 56de 383b e2d4 8f3a 263f f13b 70d5 e8ba
00000350: 779f 103b 2c27 27bb 38d2 003c 960b 73bb
00000360: 7ed2 1f3b 3a9e 7eb7 1c7f 10bc 6e52 dcb8
00000370: 2a6d 9dbb c915 dbbb d717 c0bb 8b12 10bc
00000380: f850 e9bb d966 43b6 bbb6 40b6 3bda 48b6
00000390: 7f84 3bb6 c001 38b6 bda1 3eb6 5c41 3db6
000003a0: fec2 38b6 6fe2 3cb6 ba3a 433b ed4a 173c
000003b0: bc2c 2d3c cfba 353b 36b8 033c 096c 143c
000003c0: ab69 5dba c0a9 533b 33fe 9b3b 2558 54bc
000003d0: d740 22bc 8d78 98bb 41c1 01bc 174e c43a
000003e0: 90b7 073d 82dd 0d3c 52c8 3ebc 68c8 133b
000003f0: 1659 0000 d958 0080 628b 0000 a044 0080
-0.0025925755 0.00056876795 -0.0038637249 0.005299097 0.0055254507 -7.965549e-05 0.0057740714 0.0064715203
0.0014243791 0.0054195086 -0.0008750246 -0.00029910976 0.0031662178 -0.0017698094 -0.0015855826 0.0014133104
-0.0020358267 -0.0020180403 2.3734e-41 6.862e-42 7.0243e-41 1.8941e-41 -7.3264e-41 -1.65167e-40
1.17703e-40 1.06689e-40 8.9291e-41 0.007054217 -8.281604e-05 0.009816049 0.0023622524 0.0068236967
0.008606183 -0.0017542297 0.008332424 0.008956815 0.006879705 0.0051754746 0.0021033888 0.009230404
-0.002044798 0.0045973943 -0.011771676 -0.008244191 -0.013387727 -6.6951e-41 -9.3355e-41 -7.7356e-41
-7.1231e-41 -8.9645e-41 -9.0269e-41 -8.6742e-41 -7.4052e-41 7.3878e-41 0.0026389444 0.008876838
0.008460939 0.00032569474 0.0052105277 0.0073896726 0.00085018895 0.0047788904 0.008469221 6.8533e-41
-6.2875e-41 2.214e-42 -3.8218e-41 -7.7643e-41 -1.2218e-41 8.3921e-41 -6.0581e-41 7.3588e-41
-0.018968387 0.011018915 -0.019149603 -0.016291348 0.021388473 -0.011180959 0.0075263847 -0.015285148
0.009014431 0.006673914 -0.0018928665 -0.003451127 0.003771541 -0.0071020913 -0.0016369176 -0.0054519884
-0.0019984962 -0.0027592878 -0.0030099647 0.0022894526 0.011016636 -0.0026680697 -0.0004615577 0.009728187
0.0007692763 0.0060234633 0.019725777 -4.4008e-41 -8.415e-42 5.427e-41 -4.0697e-41 -8.66e-43
4.3226e-41 -5.1482e-41 -8.963e-42 9.497e-42 8.5867e-41 2.354e-41 6.168e-41 -6.816e-41
-6.6968e-41 3.7437e-41 4.5649e-41 -8.0353e-41 -5.7087e-41 3.4e-41 -6.1352e-41 -6.8103e-41
-6.8088e-41 -5.8328e-41 -4.3767e-41 -6.4804e-41 -6.3578e-41 1.3822e-41 -8.5668747e-32 -5.182145e-32
-6.8311515e-32 -5.108081e-32 -6.6526274e-32 -5.1201066e-32 -4.6171223e-32 -4.8984542e-32 -8.6746264e-32 6.4718e-41
4.1522e-41 1.16718e-40 6.1946e-41 -5.7825e-41 5.2634e-41 -1.0522e-40 1.52653e-40 -7.5401e-41
-0.005097533 -0.003790147 -0.0032111362 -0.0063174963 -0.003304858 -0.003216913 -0.0023739056 0.0014155409
0.00030109446 -0.0023832365 -0.0022217827 0.00051204883 -0.0020374297 -0.0024873107 -0.002593631 -5.0310417e-05
-0.003396376 -0.0032852546 -0.0064009423 -0.00094356 0.004777585 -0.0023559765 0.004476399 0.00854191
-0.0013801538 0.0046661366 0.0062474995 -0.0049100406 0.0047479947 0.011264924 0.008438226 0.002886444
0.0028916625 -0.006039111 -0.0023956182 0.00259666 -6.533e-42 4.92e-43 -5.1384e-41 4.2283e-41
1.10697e-40 -2.9204e-41 2.1253e-41 1.04407e-40 -1.4938e-41 -0.005681772 -0.0010533907 -0.0026187918
-0.00027832043 0.002939488 -0.009152666 -0.0011883393 0.0011757294 0.002504772 0.0005030732 0.0019868528
0.008232369 0.004623182 0.00595571 -0.0024184792 -0.0028901785 -0.0033350163 -0.0074623534 -0.00026914364
0.0028208694 0.0010973478 0.007362264 -0.0017763805 0.0022067705 -0.0025505526 0.00786262 -0.0037085763
0.0024386938 -1.517642e-05 -0.008819368 -0.00010505771 -0.004804273 -0.0066859466 -0.005862217 -0.0087934835
-0.007120248 -2.911713e-06 -2.8716593e-06 -2.992935e-06 -2.7942294e-06 -2.7419155e-06 -2.840635e-06 -2.8201239e-06
-2.7531637e-06 -2.8145985e-06 0.0029789642 0.009234172 0.010569748 0.0027729755 0.008039525 0.009058961
-0.0008446227 0.0032297224 0.0047605275 -0.012960468 -0.009903154 -0.0046530426 -0.0079196105 0.0014976886
0.033134043 0.008658769 -0.01164444 0.0022549871 3.1958e-41 -3.1873e-41 5.0001e-41 -2.4618e-41

e_conv5.bias f4 [32]
00000000: 26ee b03c 03ad 8fb9 9586 64b9 2175 2e3d
00000010: d62a 8cad ee47 e83b fcca 833d d444 ed3c
00000020: 7404 a93c f4c7 92b8 2a13 2b3d 196e ef3c
00000030: 8681 4da8 37c5 56b8 c24a dc3c be15 063d
00000040: d785 cf3b 2a2f a53b 7246 96b6 7ee6 1a3c
00000050: d8a7 dd3c 1d34 fd3c ed44 2d3c df0a 48b4
00000060: 54b9 b03c 2118 31ba 2bab d93c d491 2e3c
00000070: 63f1 463d 8794 32bb f8a8 0bba 4266 b1ba
0.021597933 -0.0002740399 -0.0002179391 0.04259217 -1.593518e-11 0.007088653 0.064352006 0.028963484
0.020632006 -6.999067e-05 0.041766323 0.029227303 -1.1407872e-14 -5.1205247e-05 0.026891116 0.03273558
0.0063330936 0.005041023 -4.4785493e-06 0.009454368 0.027057573 0.030908639 0.010575515 -1.8630406e-07
0.021572746 -0.00067556096 0.026570877 0.010654885 0.048570048 -0.0027249174 -0.00053276075 -0.0013534504

e_conv7.weight f4 [8, 64, 3, 3]
00000000: 0ae2 0abb 8078 14bb 56b7 b6bb 513f c73b
00000010: 18ce cc3b e6d9 623b 924b f23b acfb fe3b
00000020: 38ee a53b 6748 aa3a e529 403a c961 3e3b
00000030: 4dfe d13a 574a c53a 5ac3 a83b e8be 053c
00000040: 12c6 2b3c e206 693c 49f4 0000 adcb 0000
00000050: 374a 0000 6c87 0080 6426 0180 715a 0180
00000060: f41d 0180 0a4d 0000 d289 0000 1f21 5cae
00000070: 1e4d 1eac a390 b22d 557e 0bae ba3d 832e
00000080: 42de f12e be22 a82d 446b d0ae 4dc3 f12e
00000090: b496 8aba 67ef 74bb b020 b4bb 9a8d 9d3b
000000a0: 936c d03a b8f5 5fba fe7e 8b3b c219 113a
000000b0: ab73 13bb 0028 40bc 0676 0ebc fb19 e0bb
000000c0: 137b efba c4e7 843a a0d8 0e3b 3b6a c23b
000000d0: 6041 123c 17d3 1b3c 08d2 323b fcb2 143a
000000e0: a005 383b 33fe 893b 3e70 263b 75b0 b43b
000000f0: 0332 cb3b 4699 b43b 7394 033c bfc7 4ebc
00000100: c756 e4bc 5677 16bd 4f3f 153c 44f7 01bc
00000110: 62a7 a0bc 74df b93c bca1 9aba 5bc8 5ebc
00000120: 233f 0000 5306 0000 e337 0000 bb2a 0000
00000130: dfd7 0080 3d79 0000 1adf 0000 5b54 0080
00000140: 93cc 0000 2e98 0080 040a 0000 8fa0 0100
00000150: 97a4 0180 dc54 0180 2c15 0280 5625 0000
00000160: 1818 0000 ff4f 0000 72e8 cbba 0af7 8bbb
00000170: 69f2 e6ba fcc1 dab9 83de 5bbb 2de9 06ba
00000180: 8916 1839 aa05 1abb e096 7438 05e3 e9bb
00000190: 03d9 aabb 36c5 eabb 49aa 56bb 3f2e 82ba
000001a0: b2e5 88bb 01e9 3fbb a36a f7ba e1fe a6bb
000001b0: f98c f9bb 3aec 693c a031 aebb edf7 103c
000001c0: c774 033d 0bfd 393c 6595 4cbc 28ab 103c
000001d0: b9fe 28bc 9faf 5fbc 9d5d 9cbc 5a66 cebb
000001e0: e62d 84bc d0ff b4bc b06e 17bc 86e7 8b3a
000001f0: 5ddc 94bb ef57 143c 1ec6 29bb d65c 03ba
00000200: 2583 aeba 7d3b 01ba 88a4 083b f0a4 cc3a
00000210: 5444 e83a fd7f 9c3b be53 693b c0bc 88bb
00000220: 75d1 aebb b2c5 46bb fb69 68b9 46f5 9bba
00000230: ea48 333a 4a62 ee3a 9a70 823a bd83 483b
00000240: da68 0180 1470 0180 b830 0100 11f2 0080
00000250: cfd0 0100 fa1d 0100 ddae 0180 831e 0180
00000260: ee44 0100 e541 27ba 07db 193d 42a9 d8b9
00000270: 5811 e53c 6c68 893d d6dd f03c 2885 2fbc
00000280: 3f82 e63c db17 0fbc 68ff 969a 1c32 af9a
00000290: 538f 6e9a 3f4b 209a b499 8b9a 9d6b a51a
000002a0: d6cb c419 0c53 021a a2fa 011a fc6a 08bc
000002b0: e943 6bbb 7471 d8bb 7a13 dcbb e0ad 20bb
000002c0: 3d02 f0bb ef00 49bc 8946 1cbc 50dc 6ebc
000002d0: 36b5 95bb ac2c b83b 86e4 a3ba f7fe 763b
000002e0: 850f 6f3c 25de f93b 3ac0 d7bb a4c9 5f3b
000002f0: 39b7 47bb 06c1 0000 f117 0100 a08d 0100
00000300: 3751 0080 08ad 0100 fc1b 0180 d132 0180
00000310: a308 0100 bef5 0000 995e 84bb 91d7 24bb
00000320: 5385 f3bb c775 833b 6e9f bb3b ee9b 1a3a
00000330: f5ba e93a d703 763b b929 9eba bffd 2e17
00000340: b556 dc16 0649 0417 33e2 0117 a4ec b916
00000350: e05b ef15 708e 1897 1658 8996 4c9a 3197
00000360: ef96 0000 fe8a 0000 de0c 0080 fb8b 0100
00000370: aa41 0100 eaba 0180 46f4 0080 132f 0080
00000380: 3cf1 0000 1a80 963b 7387 d93b a542 50b9
00000390: 6589 0c3a 1b89 2f3b 5aa8 3cbb 917f 9aba
000003a0: a50a 973a 8f6c 77bb 3e6d bb3b d0c9 613b
000003b0: f95a 3a3d 5544 29bd baad 31bd 8885 adbb
000003c0: ac54 0fbd 8d46 0dbd 35df 743b 4059 013b
000003d0: bb2c 34ba 0eb5 ddba 3e56 f13b 6551 b93b
000003e0: 32be c83b 290e f83b aeba d83b cb81 f33b
000003f0: db9e aabc 3459 b03c d8d1 a2bc 8794 9c3c
-0.0021191859 -0.0022654831 -0.0055760546 0.006080546 0.006250154 0.003461474 0.0073942626 0.0077814665
0.0050637983 0.0012991548 0.00073304615 0.0029049984 0.0016021222 0.0015052062 0.005150241 0.008163191
0.010484235 0.014222832 8.7633e-41 7.3065e-41 2.6623e-41 -4.858e-41 -1.05607e-40 -1.2428e-40
-1.0258e-40 2.7636e-41 4.944e-41 -5.0051626e-11 -2.249596e-12 2.0300489e-11 -3.1717146e-11 5.968155e-11
1.0998892e-10 1.9114817e-11 -9.477799e-11 1.09941035e-10 -0.0010573477 -0.003737414 -0.0054970607 0.00480814
0.0015901498 -0.000854339 0.004257082 0.0005535149 -0.0022499363 -0.011728287 -0.008695131 -0.0068390346
-0.0018270932 0.0010139872 0.00217966 0.005933074 0.008926719 0.009510777 0.0027285833 0.00056724227
0.0028079525 0.004211211 0.0025396491 0.0055141994 0.00620103 0.0055114357 0.0080309985 -0.012620865
-0.02787341 -0.0367349 0.009109332 -0.007932488 -0.019611064 0.022689559 -0.0011797468 -0.013597573
2.2649e-41 2.269e-42 2.0048e-41 1.5329e-41 -7.744e-41 4.3492e-41 8.0034e-41 -3.0261e-41
7.3387e-41 -5.4592e-41 3.593e-42 1.49433e-40 -1.50879e-40 -1.22277e-40 -1.91266e-40 1.3394e-41
8.643e-42 2.8697e-41 -0.0015556945 -0.0042713927 -0.0017619851 -0.0004172473 -0.0033549375 -0.000514644
0.00014504245 -0.0023501911 5.8314647e-05 -0.0071376585 -0.005213858 -0.0071646227 -0.0032755306 -0.0009931995
-0.0041777724 -0.0029283168 -0.0018876385 -0.005096302 -0.007615682 0.014277512 -0.0053159744 0.008848173
0.03209379 0.011351834 -0.01248679 0.008829869 -0.010314637 -0.013652711 -0.019087607 -0.0062988224
-0.016135167 -0.022094637 -0.009242699 0.0010673858 -0.004542871 0.009054168 -0.002590544 -0.0005011087
-0.0013314231 -0.0004929824 0.0020850021 0.001561312 0.0017720559 0.0047759996 0.0035602893 -0.0041728914
-0.005335028 -0.0030330238 -0.00022164725 -0.0011898659 0.0006839173 0.0018187251 0.0009951771 0.00305961
-1.29449e-40 -1.32042e-40 1.09312e-40 -8.6837e-41 1.66742e-40 1.02589e-40 -1.54565e-40 -1.02781e-40
1.16563e-40 -0.00063803635 0.037562396 -0.00041324837 0.027962372 0.0670937 0.029402655 -0.010712899
0.028138278 -0.008733715 -6.245118e-23 -7.245926e-23 -4.9333023e-23 -3.3148008e-23 -5.7737373e-23 6.841626e-23
2.0348254e-23 2.6950455e-23 2.6879034e-23 -0.008326288 -0.0035898632 -0.0066053215 -0.006716189 -0.00245177
-0.0073244856 -0.012268289 -0.009538301 -0.014578894 -0.004568721 0.0056205597 -0.0012504018 0.0037688592
0.0145911025 0.0076253586 -0.0065841945 0.0034147287 -0.00304742 6.9244e-41 1.00424e-40 1.42641e-40
-2.9134e-41 1.53907e-40 -1.01874e-40 -1.10065e-40 9.4934e-41 8.8156e-41 -0.004039597 -0.0025152902
-0.007431665 0.004011843 0.0057257926 0.0005897869 0.0017832207 0.003753891 -0.0012066878 5.6542705e-25
3.5597637e-25 4.274367e-25 4.196765e-25 3.0037703e-25 9.6676284e-26 -4.929363e-25 -2.2189134e-25 -5.7386535e-25
5.4145e-41 4.9861e-41 -4.616e-42 1.42051e-40 1.15391e-40 -1.58888e-40 -8.7629e-41 -1.6887e-41
8.6539e-41 0.0045929076 0.0066384613 -0.00019861253 0.00053610496 0.0026784602 -0.0028786869 -0.0011787285
0.0011523558 -0.0037753915 0.00571981 0.0034452565 0.045496915 -0.041324932 -0.04337857 -0.005295459
-0.03499286 -0.03449111 0.0037364487 0.0019737035 -0.00068731204 -0.001691492 0.007365017 0.005655455
0.0061261887 0.0075700474 0.006614051 0.007431244 -0.020827701 0.02152691 -0.019875452 0.019113792

e_conv7.bias f4 [8]
00000000: 819b b43c 223b 573c 0fb3 623d c7b4 253d
00000010: ecac ba3c 7de6 fc3c d418 a53c d5ff 343c
0.022046806 0.013136657 0.055346545 0.040455606 0.022787534 0.030871624 0.02015344 0.011047323

e_conv8.weight f4 [8, 64, 3, 3]
00000000: 20ba 323d 9357 133d c13c f13a 5709 97bc
00000010: f957 853a e8ac 193c 7324 a63b 30e9 2c3c
00000020: 5997 dcbc 1d1b 76bc 2232 b93b 3afe 1cbc
00000030: 4a79 433c 7f77 e23c 98b5 943c d796 a2bc
00000040: 498d ff3b 9e06 573c 0c1e 0000 b08e 0080
00000050: a8aa 0000 bf93 0080 9400 0080 37c7 0000
00000060: 936b 0000 785a 0000 eed4 0080 32c3 3a39
00000070: c717 4539 d504 4239 21c4 4239 95d8 4f39
00000080: b24e 4a39 21be 3f39 114a 4a39 c03f 5439
00000090: 968f 5bbb 54a1 373c 1309 b2bb b0d4 fbbc
000000a0: fe80 853b bd54 0b3d adf6 cdbc 94b2 843c
000000b0: 94b9 743c 4f95 3abb 631f ac3c 7258 0c3d
000000c0: 19a5 583d c372 1cbc 712d 783c aa2c 4cbc
000000d0: d735 eb3c 63e0 b33c 9f7b a83c 27b2 3d3c
000000e0: 4978 f6bb bec1 653c 8ed8 183c c09a e5bc
000000f0: 560b 3e3c 37bc 0d3d 782b 10bd 2807 c93b
00000100: d66d 1b3b 4883 213b 7738 0dbc ce35 703b
00000110: be27 bdbb ab02 b9ba 51a8 efba 9137 cfba
00000120: 23a3 bab5 3ef9 33b6 2fae 42b6 2e24 f3b5
00000130: 8b96 1fb6 48de 7fb6 7b74 4236 ce75 c3b5
00000140: 59f5 0cb6 17aa 0080 083d 0080 77de 0080
00000150: 7ed6 0000 f15c 0080 fde2 0080 89ed 0000
00000160: 5cd8 0000 6bca 0080 b3f3 c8ba 851b 003c
00000170: b94c 5aba 5dbb dc3b 6e7d 913c 9e0d fb3b
00000180: 8a18 e5ba 8c1e 943b 8ff1 49bb ff83 843b
00000190: 6eb9 5dbc 23b7 323c 222b 803c 5879 24bc
000001a0: be83 a8ba 711e b33c f430 b53b 96ea 9c3c
000001b0: 955e 0cbb 1b32 7b3a 6c15 1dbb 994f 6abb
000001c0: 7d3a b33b c069 59bb 083c 8d3a 43bc b0b8
000001d0: 8ed8 1eba c5e2 d2ba 275a 883b 7591 e936
000001e0: 7ab3 8ebb cd97 c23b c7a0 d0b9 037f 90bb
000001f0: 1c13 6f3b 0e2a a9bb 8ce7 c83c 1103 1a3c
00000200: 6892 43bb c0c0 ddbb a1ee 46bc 8420 2e3c
00000210: 69bb 83bc b19c db3b 9160 073c 12a3 493d
00000220: 6f62 c03c 5d03 013c f8a5 123d 6437 ad3c
00000230: 53f7 a33a d456 a8bc 9309 82bc 52e4 a2ba
00000240: f954 0080 cb84 0000 fa63 0100 25e3 0100
00000250: 6825 0180 1daa 0080 d9f1 0000 f9db 0080
00000260: 2ef9 0000 467c a63a 8e54 a439 b49c 45bc
00000270: ed89 973b 470b 6ebb 1807 df3b 7b11 6aba
00000280: bd40 2e3c 7449 a1bb 1bf5 181d 7c23 1b1d
00000290: 0b7d 211d d994 da1c 7b79 e01c 887a 0b1d
000002a0: b325 cd1c 8ea7 d01c 6199 041d 07fe 0036
000002b0: e9b0 433c e9db f8bb c743 48bb 1f51 cd3c
000002c0: 817a 39bb 1ee7 51bc 44b6 0bbc 6465 ab3c
000002d0: 065f e639 d05a d8ba d803 adba 40bc 9fba
000002e0: 7342 37ba 2a54 10bb 9552 313b 85ce b2ba
000002f0: 8668 063a ad2f 362e d17f 382e 21ce 312e
00000300: ac4f 372e 958a 382e a059 312e a0db 2e2e
00000310: 5fa3 302e f9f3 292e 02ce e4bb cbea 8d3c
00000320: 87d7 cebb 1ed4 5d3c 2041 2f3d b539 463c
00000330: 0167 4a3a ac1c d63c 6458 2439 2df1 283a
00000340: 494b 2a3a a288 2a3a cb1f 2a3a 1825 2b3a
00000350: 7069 2b3a 6ee8 2a3a 9ed0 2b3a 6cfd 2b3a
00000360: 3d44 0000 084c 0000 1d81 0000 a00d 0000
00000370: 1305 0080 a753 0000 a279 0000 e355 0000
00000380: c588 0000 f756 b7bc a049 0fbc ebb3 863c
00000390: 0db6 893b 0cb3 fc3b 6853 ac3b d7af c5bb
000003a0: a84d 373c cda7 d43c 45ed e3ba d4a3 d83b
000003b0: 4ac7 24bb a24b ce3a 8848 073c 2770 b6ba
000003c0: cead 14bb ac11 813b 86ea 7abb 6287 d7bc
000003d0: 30c6 013b 2ef6 70bc 950b 853c d93e 0fbc
000003e0: 7d88 3bbb b34b 083c f20d fb3c 5a38 89bc
000003f0: 8f85 45bb b09d 543c 3f71 b3bb b9ce 163c
0.043634534 0.03597219 0.0018404947 -0.01843707 0.0010173313 0.009379603 0.005070263 0.010553643
-0.026927637 -0.015021113 0.0056517283 -0.009582097 0.011930773 0.02764487 0.018152997 -0.019847317
0.007798825 0.013124136 1.0779e-41 -5.1187e-41 6.122e-41 -5.3001e-41 -2.07e-43 7.1465e-41
3.859e-41 3.2454e-41 -7.6385e-41 0.00017811058 0.00018796242 0.00018503082 0.00018574345 0.00019821741
0.00019293537 0.00018286008 0.00019291813 0.00020241644 -0.0033502332 0.011207897 -0.0054332106 -0.030741066
0.004074215 0.03401636 -0.025142038 0.016198434 0.014936823 -0.0028470343 0.02101106 0.034264036
0.052891824 -0.009548846 0.015147553 -0.012461821 0.028712196 0.021957582 0.02056676 0.011578119
-0.0075216633 0.0140232425 0.009328974 -0.028027892 0.011599382 0.034603324 -0.035197705 0.0061348863
0.002371659 0.00246449 -0.008619419 0.0036653164 -0.00577256 -0.0014115175 -0.0018284415 -0.0015809407
-1.3905559e-06 -2.6818157e-06 -2.900964e-06 -1.811544e-06 -2.3780474e-06 -3.8127346e-06 2.8976053e-06 -1.4562918e-06
-2.1004437e-06 -6.1017e-41 -2.1894e-41 -7.9805e-41 7.6945e-41 -3.3341e-41 -8.1428e-41 8.5212e-41
7.7615e-41 -7.2614e-41 -0.0015331417 0.007819061 -0.00083274726 0.0067362026 0.017760005 0.0076615354
-0.0017478627 0.004520243 -0.0030814146 0.0040440555 -0.013532979 0.010907921 0.015645567 -0.010038696
-0.0012856645 0.021865102 0.0055295173 0.019154828 -0.002141868 0.00095823564 -0.0023969067 -0.003575301
0.005469619 -0.0033174604 0.0010775337 -8.4274005e-05 -0.0006059491 -0.0016089311 0.0041611376 6.9608745e-06
-0.0043548914 0.005938506 -0.0003979264 -0.004409672 0.0036479896 -0.005162484 0.024524473 0.009400145
-0.0029841904 -0.0067673624 -0.0121418545 0.0106278695 -0.016080575 0.0067020287 0.008262769 0.04922778
0.023484437 0.007874337 0.03580281 0.021144576 0.0012509621 -0.020549215 -0.015873706 -0.0012427664
-3.0482e-41 4.7637e-41 1.277e-40 1.7332e-40 -1.05254e-40 -6.1025e-41 8.6759e-41 -7.8911e-41
8.9389e-41 0.0012701831 0.00031343516 -0.012061287 0.0046245963 -0.003632264 0.0068062656 -0.00089289964
0.010635552 -0.0049220864 2.024375e-21 2.0532424e-21 2.1372818e-21 1.4464506e-21 1.4854479e-21 1.8459844e-21
1.3575507e-21 1.3807597e-21 1.754935e-21 1.922135e-06 0.011944034 -0.0075945747 -0.0030557977 0.025063096
-0.0028301778 -0.01281145 -0.008527342 0.02092237 0.00043939817 -0.0016506556 -0.0013199998 -0.001218684
-0.00069907977 -0.0022022822 0.002705728 -0.001364187 0.00051272695 4.1424354e-11 4.195028e-11 4.042822e-11
4.1680145e-11 4.1959842e-11 4.0324744e-11 3.9758086e-11 4.016287e-11 3.8642842e-11 -0.006982566 0.017323872
-0.006312314 0.013539342 0.042786717 0.012098719 0.0007721037 0.026136719 0.00015673187 0.00064446294
0.0006496204 0.0006505345 0.0006489723 0.000652866 0.0006538844 0.000651962 0.00065542187 0.0006560895
2.4479e-41 2.7275e-41 4.6317e-41 4.888e-42 -1.82e-42 3.0009e-41 4.3634e-41 3.081e-41
4.9064e-41 -0.022380335 -0.008745581 0.016443213 0.0042026103 0.0077117737 0.0052589662 -0.0060329246
0.011187948 0.02595892 -0.0017389437 0.0066113267 -0.00251432 0.0015739093 0.008257039 -0.0013918922
-0.0022686603 0.003938874 -0.003828676 -0.026309673 0.0019801967 -0.014707131 0.016240874 -0.008743011
-0.002861529 0.008318829 0.030646298 -0.016750503 -0.0030139422 0.012977049 -0.0054761465 0.00920456
