snapshots/Epoch173.pth (torch, 304045 bytes, 14 tensors)

e_conv1.weight f4 [32, 3, 3, 3]
00000000: 466c bfb7 bea2 c3b7 371f c5b7 b690 c1b7
00000010: c14a c5b7 ff7c c5b7 7f9e bfb7 60a2 c1b7
00000020: bb1e c2b7 5635 90b7 c79a 92b7 c3f4 93b7
00000030: e871 91b7 10ff 93b7 716f 94b7 8f7b 90b7
00000040: 7076 92b7 ea48 92b7 ae87 81b7 bbd6 83b7
00000050: a012 84b7 b3b1 82b7 b0ce 84b7 356b 84b7
00000060: 9ef2 81b7 4288 83b7 41d7 82b7 8557 3a3c
00000070: 17fb b23b 33a2 743b 35c8 cb3c a34d 8d3c
00000080: 09c5 ec3c 9b14 693d f1a5 373d dfbd 873d
00000090: cf0c b13b e8dc 0abc c2c1 423c 7e55 163c
000000a0: adcc d93b 53da 963c 3fc5 383d e18f 1e3d
000000b0: 0d1e 503d fa91 74bc bebe a8bc 61fd c9bc
000000c0: 1bd7 37bc 6fe0 93bc a5a1 4bbc bddf b83b
000000d0: 9820 34ba 123c d03c d505 afbc 6f33 23bd
000000e0: e007 fcbc 15c8 2fbc 371f f9bc 7903 f5bc
000000f0: d21e 4d3b c3b8 7dbc 0af5 a9bc 1917 bd3b
00000100: 13c5 af3b 91d2 333b d00c 4d3c 28f1 fd3b
00000110: be7c 9d3b d4ba 333d 23fb b13c b894 40ba
00000120: 8a1e 343d 0e9c 263d 00db 223d 2dcc 553d
00000130: 6db4 1e3d dfb3 353d 637a 7e3d 5330 273d
00000140: 3958 213d d6e9 99bc d396 143b 724d 873c
00000150: 9e68 0cbd 95a9 4abc d151 4c3c 3193 20bd
00000160: 29ad 66bc 400d f43c 71ca f5bc 6810 4cba
00000170: 97a0 863c ca14 ecbc 1dcf 30bc 5348 543c
00000180: 68bf 30bd f5d8 74bb 0b3d f13c 5546 0abc
00000190: 1c1e 5f3b 2a22 393c 97c9 7cbc 3546 1c3b
000001a0: c498 3b3c a040 f5bc 9126 0aba 221e fc3c
000001b0: e08c 1c3d 1a0b 213d 8709 be3d b43c eb3b
000001c0: 1e23 fd3b efdd 593d 4fc1 46bb 80b0 5c3b
000001d0: bb06 493d a7b4 fe3c 8d4c 033d cdea a73d
000001e0: f406 18ba d6ef bdb9 2c1e 283d e67f 19bc
000001f0: 1d6f 773a f430 313d bfa1 723c 43ee 3b3c
00000200: d754 593d a51f 46bc c4d0 48bc daa7 aa3c
00000210: 24e3 babc 5669 68bc 1863 a43c eac9 c6ba
00000220: 88b3 c6ba 759b c6ba 4010 cbba b83a ccba
00000230: 5486 caba 5a47 ceba 1c6c cdba adf4 cbba
00000240: ce4d caba 7d68 caba 2a3b caba 3869 cdba
00000250: bcc6 ceba 7ffd ccba 0916 cfba 076a ceba
00000260: 8fd5 ccba 1ecb a5ba 9877 a8ba 59b0 a8ba
00000270: 0f3f a9ba 3d2c adba 302f abba 3262 a9ba
00000280: f790 aaba 0bd8 a8ba 3a3b 9c3d 7429 db3c
00000290: 94c9 c4bc 4f86 5f3d 77b5 973c 39cb 09bd
000002a0: d84e 3a3d 4c84 9839 d880 4ebd 07d5 813d
000002b0: b368 b83c 1b8f 23bd 932d 2c3d 61b7 0c3c
000002c0: d5a0 02bd 8cb4 f53c 335f b4bc 91e2 8ebd
000002d0: ff1e 0f3d 06bb 12ba d4e5 00bd eb97 b43c
000002e0: b8e8 de3a cced debc 96e7 d83c 9370 96bc
000002f0: d6a8 7dbd 68df bcb3 9fd6 c2b3 95bf d1b3
00000300: 809a bdb3 f009 c5b3 cf01 d0b3 0fa8 c0b3
00000310: dd7b c4b3 f9b0 d1b3 e3dd c1b3 893e c6b3
00000320: 2999 d4b3 b16f bcb3 478e c1b3 b46b cbb3
00000330: cf35 b8b3 b627 b9b3 f0c8 c4b3 626a 0db3
00000340: a571 11b3 08ff 1db3 5628 0ab3 2eac 0eb3
00000350: 6d59 17b3 d1d7 05b3 a257 06b3 191b 10b3
00000360: 5b35 e5ae 34b6 cbae e640 bcae e466 01af
00000370: 382d e9ae c00e ceae 2ead 1baf 8270 04af
00000380: 59b5 f2ae bfe1 a5ad 3cf5 89ad 672f 72ad
00000390: ecc9 a4ad df5d 8aad 12c6 67ad 1158 bdad
000003a0: 6ab8 95ad 31e1 81ad 9810 d7ac f954 b9ac
000003b0: 47b3 99ac 8fa0 cbac 938d b0ac f00d 88ac
000003c0: 94b5 cbac 38f4 a3ac a38c 89ac 71e7 8abd
000003d0: f99b 26bd 8536 83bd 66e2 03bd daac 8cbc
000003e0: 8dc5 9dbc 656f dcbb 27d2 8e3c c08b 803c
000003f0: ac14 70bd 7148 cdbc 9515 3ebd 2858 9abc
-2.2819393e-05 -2.3321594e-05 -2.3498766e-05 -2.307478e-05 -2.351904e-05 -2.3542436e-05 -2.284278e-05 -2.3083005e-05
-2.3140912e-05 -1.7190974e-05 -1.747663e-05 -1.7637742e-05 -1.7338389e-05 -1.7642538e-05 -1.7694869e-05 -1.7223674e-05
-1.7459708e-05 -1.743851e-05 -1.544118e-05 -1.5716409e-05 -1.57443e-05 -1.5579955e-05 -1.5831873e-05 -1.5785548e-05
-1.5490976e-05 -1.5679867e-05 -1.5597443e-05 0.011373405 0.005462061 0.0037328124 0.02487574 0.017248934
0.028902547 0.056904417 0.04483599 0.06628012 0.005403138 -0.00847552 0.011887016 0.009175656
0.0066467137 0.018414652 0.045109984 0.038711432 0.05080991 -0.014927382 -0.020598765 -0.024656953
-0.011220719 -0.018051354 -0.012428676 0.005641906 -0.0006871312 0.025419269 -0.021365086 -0.039843973
-0.030765474 -0.010728856 -0.030410392 -0.029908882 0.0031298888 -0.015485945 -0.020746727 0.0057705757
0.0053640692 0.002743874 0.012515262 0.0077496953 0.00480613 0.043879345 0.021726197 -0.00073463796
0.043974437 0.04067617 0.039759636 0.05219667 0.038746286 0.04436099 0.062128436 0.04081757
0.039390776 -0.01878826 0.0022672906 0.016516421 -0.03427946 -0.012369533 0.012470678 -0.039202873
-0.014079371 0.029791474 -0.030003758 -0.0007784427 0.016433997 -0.028818507 -0.010791567 0.012956697
-0.04315129 -0.0037360762 0.029448053 -0.00843962 0.0034045046 0.011299649 -0.015428922 0.0023845558
0.011449996 -0.029938042 -0.0005270029 0.030776087 0.038220286 0.039317228 0.09279161 0.0071788672
0.0077251336 0.053190168 -0.0030327623 0.0033674538 0.049078684 0.031092001 0.032055426 0.081990816
-0.0005799376 -0.0003622758 0.0410444 -0.009368872 0.00094388594 0.043259576 0.014809071 0.01147038
0.053059425 -0.012092506 -0.012256805 0.020831991 -0.022813387 -0.01418527 0.020066783 -0.0015166376
-0.0015159706 -0.0015152531 -0.0015492514 -0.0015581464 -0.001545141 -0.0015737817 -0.0015672478 -0.001556059
-0.0015434565 -0.0015442517 -0.0015429009 -0.0015671616 -0.001577578 -0.0015639513 -0.0015799414 -0.0015748151
-0.001562761 -0.0012649035 -0.0012853025 -0.0012869939 -0.001291247 -0.0013212037 -0.0013060328 -0.0012922941
-0.0013013174 -0.0012881769 0.07628484 0.026753165 -0.024021901 0.054571446 0.018519146 -0.033641074
0.045485348 0.00029090268 -0.050415844 0.0633946 0.022510862 -0.039931398 0.04203565 0.008588643
-0.031891663 0.029993318 -0.02201805 -0.06976808 0.03494167 -0.00055973267 -0.03146918 0.022045096
0.0017006611 -0.027213 0.026477616 -0.018364226 -0.061928593 -8.7950696e-08 -9.072868e-08 -9.7671695e-08
-8.829102e-08 -9.175335e-08 -9.686084e-08 -8.9712664e-08 -9.149492e-08 -9.764512e-08 -9.027624e-08 -9.2314686e-08
-9.899879e-08 -8.774749e-08 -9.013143e-08 -9.472515e-08 -8.5779554e-08 -8.621957e-08 -9.1635115e-08 -3.2925875e-08
-3.3863802e-08 -3.678636e-08 -3.2167314e-08 -3.3218548e-08 -3.523876e-08 -3.116276e-08 -3.1279008e-08 -3.3552258e-08
-1.0423192e-10 -9.263737e-11 -8.5607785e-11 -1.1769036e-10 -1.0603646e-10 -9.3704156e-11 -1.4158694e-10 -1.2045301e-10
-1.10371e-10 -1.885858e-11 -1.5684003e-11 -1.3766633e-11 -1.8734313e-11 -1.573047e-11 -1.317481e-11 -2.1525922e-11
-1.7021235e-11 -1.4765607e-11 -6.11251e-12 -5.26745e-12 -4.3684253e-12 -5.7874326e-12 -5.0179388e-12 -3.8669e-12
-5.7897662e-12 -4.6598524e-12 -3.909388e-12 -0.06782425 -0.04067609 -0.06406883 -0.032198332 -0.017172266
-0.019259239 -0.0067271465 0.017434193 0.015691638 -0.058613464 -0.025058957 -0.0464073 -0.018840864

e_conv1.bias f4 [32]
00000000: 8eb4 1ab8 6b06 7f3d e285 ad3c 96d8 e53d
00000010: acf2 603d fa16 d4b9 119a 993d 8be1 dab7
00000020: 77c5 39b5 b42e a93d fdec 2691 9ba2 2f97
00000030: 9b89 573c 4215 873d 4106 06ba ed9b 133e
00000040: 832b ef3d 2ac9 c43d f7da 333e 745d 1f3e
00000050: fa78 44a3 22e4 0e3e beee 4fbc 3c40 ef3d
00000060: af28 99aa 64b1 4dba 9d83 d63c c2aa 9297
00000070: b70e ada4 441a d1bc 19cb ca3d d64a 1db4
-3.6884616e-05 0.06226198 0.021182004 0.11222951 0.05491893 -0.0004045291 0.07500089 -2.6092652e-05
-6.920522e-07 0.08260861 -1.3168119e-28 -5.6750787e-25 0.013155366 0.065958515 -0.0005112626 0.1441495
0.11678221 0.096086815 0.17563997 0.15562993 -1.0650799e-17 0.13954213 -0.012691198 0.116821736
-2.720649e-13 -0.00078465627 0.026185805 -9.478134e-25 -7.505172e-17 -0.02552522 0.09902019 -1.464899e-07

e_conv2.weight f4 [32, 32, 3, 3]
00000000: cf25 e0b5 d563 a7b5 0042 c9b5 3d92 d6b5
00000010: cb23 e4b5 d0f0 e6b5 372d c1b5 4087 d3b5
00000020: c364 c5b5 f555 833b f3db abbb 474f db3a
00000030: a61c 45ba 1c6b 0cba 291e 41bb 321a d53b
00000040: 7bd8 2c3c 1c60 623a 2d78 50bb 4187 78bb
00000050: f67f 80bb f790 3bba e050 3fbb be56 7ebb
00000060: 2f21 9b3a 6751 c636 0fa6 a4b9 f798 94bb
00000070: a6b9 993b 7c49 003c 756b 77bb 50c8 d9b9
00000080: 1612 5d3a b3c3 f0bb f188 b23a 5a10 893b
00000090: 3d5a 68ba 06a6 e9ba c8bc fdba 585e 443b
000000a0: f956 ddbb 9dc9 c13a 8fe6 8e3b 7112 00bc
000000b0: 5c2d 9dbb 4217 81ba 3c52 73ba 419d 64ba
000000c0: b0e8 86ba 66c8 80ba 4c75 70ba 58a1 83ba
000000d0: 0723 7fba 02a1 6eba 2e31 663b a6f5 763b
000000e0: 16df df39 7021 7d3b 40e9 8d3b 7f9b 953a
000000f0: 9a54 983b c3e9 8c3b f61a 123b 568c 0080
00000100: f46b 0000 c521 0080 19c4 0000 2d04 0080
00000110: 55a1 0080 c211 0080 e31a 0180 b69b 0000
00000120: 5740 0000 8bda 0080 3ce7 0080 2a1f 0080
00000130: 2f10 0000 d9ee 0080 8f99 0080 3a54 0000
00000140: 7227 0080 4eb9 b23a 24ed 4c3a 23da 1e3b
00000150: 11b6 af35 bcb2 91b9 b3ad 943a fd41 153b
00000160: a367 e73a 8222 0b3b 6372 c10f 6c16 8c0f
00000170: cc99 a00f 4a73 c20f 33d9 c80f 6290 960f
00000180: 0168 d70f 8f57 b40f d530 b70f a731 0080
00000190: 6448 0100 48f7 0080 1cd8 0000 c8d9 0000
000001a0: 2a3b 0100 56ad 0080 de38 0180 e8ea 0000
000001b0: 94c9 9839 de05 e839 90e4 39b9 d922 ac3a
000001c0: 74d5 8c3a 9685 eb39 07d0 4a3b b7ba 3c3b
000001d0: 57ea 033b 8c1f 6b3a 470e de3a ae51 9f3a
000001e0: dfde 683a 26b1 e23a feb4 a33a 1fe4 873a
000001f0: d968 043b 14df d93a 551b 1925 973e b724
00000200: 3713 c924 6662 4325 8d71 5625 bdca f724
00000210: fde3 f8a4 fa2b 3825 f7f9 3d25 3e37 433b
00000220: dfe4 c83b 9265 143b cab2 d73b 9095 f93b
00000230: 287b c93b d21d 04ba 70a4 e9bb f862 23bb
00000240: 75e0 2fbb 5fef 49bb 876f feb8 8441 90bb
00000250: ec29 b43b a7da be3b 2eb9 e5bb 3c20 013b
00000260: 3685 d63a 7c52 343b fc98 c23a 23d0 ec3a
00000270: b723 a43a 9bd6 2f3b e3b5 0a3b 0bab cd3a
00000280: e8ae 363b 478e 1a3b e5c0 a43a 9bdf 09bc
00000290: e198 babb 1193 49b9 1d3b c13a 53c9 0d3c
000002a0: 20ea 6ebc 29a0 0f3c 9472 863c c079 e23b
000002b0: 2506 fd3b 7caf 453b 7260 453b a87f 933b
000002c0: a656 163b 2bb5 a1ba 2a14 3a3a 5cc7 203c
000002d0: ffe0 b49f 33d3 b79f d11d c39f 663e a19f
000002e0: c2b2 c89f 2b67 bd9f 8db1 959f 3688 ad9f
000002f0: defa ad9f d259 d7bb 0bcd ed3b 9539 153c
00000300: 3480 d5bb 7662 a53c 92bf 5f3c d816 d53b
00000310: de29 603c efeb 0f3c 769d 9039 5b16 37b9
00000320: 5e60 02bb badd ca38 ebaf 1d39 a603 a3ba
00000330: de58 28ba 8aa0 3b3a b4c9 baba 171c 883b
00000340: fe04 893b bbe7 aa3b 3e16 5c3b 9173 a53b
00000350: 38bb 243b 1519 43bb 2431 ac3b 3a91 9d3a
00000360: c069 0c82 6068 fa81 5105 2402 5f55 0502
00000370: 650e 4b82 3e59 2702 e2f2 2182 f187 9201
00000380: 3b79 3d82 a007 13ba b6c8 05ba 9e8e f0b9
00000390: 9062 20ba 3600 14ba adf2 03ba af17 1fba
000003a0: 99a9 15ba 9ee4 05ba 2c5e aa3a 9a73 14b9
000003b0: a6c1 d639 40aa f4ba c2ef 68bb 37e5 09bc
000003c0: 474f 023c f9ef 64bb 879e 1dbc 54ae 0080
000003d0: ed0e 0000 cf1c 0180 5a5c 0080 5e28 0100
000003e0: 645b 0180 bd2f 0100 3254 0100 6459 0100
000003f0: 2b3e 1420 7a6d 84a0 3790 15a1 9eee 9520
-1.6700304e-06 -1.2471525e-06 -1.4994876e-06 -1.5986803e-06 -1.6997741e-06 -1.7206421e-06 -1.439278e-06 -1.5760088e-06
-1.4706969e-06 0.0040080496 -0.005244726 0.0016732 -0.00075192226 -0.0005356537 -0.002946744 0.006503367
0.01054966 0.0008635537 -0.0031809912 -0.0037922414 -0.003921504 -0.00071550853 -0.0029192492 -0.0038809027
0.0011835451 5.9103363e-06 -0.0003140424 -0.0045348364 0.0046913205 0.00783002 -0.0037753258 -0.0004153871
0.0008433176 -0.007347548 0.0013621134 0.0041828575 -0.0008863544 -0.0017825968 -0.0019358629 0.002996346
-0.0067547527 0.0014784817 0.004360981 -0.007816897 -0.004796667 -0.000984885 -0.0009281968 -0.00087209424
-0.0010292735 -0.0009825348 -0.0009172752 -0.0010042591 -0.00097326975 -0.00091029715 0.0035124528 0.003768304
0.00042700086 0.0038624667 0.004330784 0.0011414139 0.004648757 0.0043003275 0.0022293902 -5.0343e-41
3.8726e-41 -1.2114e-41 7.0347e-41 -1.498e-42 -5.7875e-41 -6.37e-42 -1.0148e-40 5.5859e-41
2.3081e-41 -7.8398e-41 -8.2951e-41 -1.118e-41 5.806e-42 -8.5682e-41 -5.5086e-41 3.0215e-41
-1.415e-41 0.0013635547 0.0007817319 0.0024238906 1.3091504e-06 -0.00027789723 0.001134327 0.0022774928
0.0017654788 0.0021230285 1.907533e-29 1.3813702e-29 1.5836459e-29 1.9174285e-29 1.9805185e-29 1.4846756e-29
2.1240698e-29 1.7783097e-29 1.8064003e-29 -1.7812e-41 1.17804e-40 -8.8708e-41 7.7525e-41 7.8125e-41
1.1306e-40 -6.2181e-41 -1.12236e-40 8.4268e-41 0.00029141887 0.0004425486 -0.00017728121 0.0013132944
0.0010744766 0.00044922222 0.0030946748 0.0028797814 0.002012869 0.00089692394 0.0016941511 0.001215508
0.0008883308 0.0017295226 0.0012489853 0.0010367668 0.0020204096 0.0016622269 1.3279895e-16 7.946963e-17
8.7202406e-17 1.6946893e-16 1.8600014e-16 1.07462627e-16 -1.0793908e-16 1.5974356e-16 1.6477828e-16 0.0029787566
0.006130799 0.0022643548 0.0065825926 0.007616706 0.0061487146 -0.0005039844 -0.007130198 -0.0024930816
-0.0026836668 -0.0030812842 -0.000121324374 -0.0044023413 0.0054981615 0.0058244052 -0.0070106005 0.001970305
0.0016366604 0.0027514985 0.0014846618 0.0018067401 0.0012522851 0.0026830796 0.0021165542 0.0015691234
0.0027875248 0.002358334 0.0012569694 -0.008415128 -0.005694494 -0.0001922364 0.0014742349 0.008653956
-0.014582187 0.0087662125 0.016412057 0.0069114864 0.0077216798 0.0030164411 0.00301173 0.004501302
0.002293983 -0.0012337317 0.00070983416 0.009813156 -7.660519e-20 -7.7852914e-20 -8.263504e-20 -6.828938e-20
-8.4999025e-20 -8.021529e-20 -6.339769e-20 -7.349369e-20 -7.3683375e-20 -0.0065719867 0.007257109 0.009107967
-0.006515527 0.020188551 0.013656514 0.0065029673 0.013681857 0.008784278 0.00027583138 -0.00017460568
-0.0019893865 9.6734104e-05 0.00015038221 -0.0012437 -0.00064219336 0.0007157406 -0.0014250786 0.004153739
0.0041815033 0.0052156127 0.0033582593 0.005049177 0.0025136005 -0.0029769589 0.0052548815 0.001202143
-1.0315924e-37 -9.1985267e-38 1.2050343e-37 9.795797e-38 -1.4918216e-37 1.2294834e-37 -1.1898116e-37 5.3826996e-38
-1.3920318e-37 -0.0005608741 -0.00051034556 -0.00045882625 -0.00061182026 -0.00056457834 -0.0005033415 -0.0006068898
-0.0005709171 -0.0005107614 0.0012998036 -0.00014157445 0.0004096154 -0.0018666461 -0.0035543297 -0.0084164655
0.0079534715 -0.0034933074 -0.009620315 -6.2537e-41 5.354e-42 -1.0217e-40 -3.313e-41 1.06317e-40
-1.2462e-40 1.08961e-40 1.22039e-40 1.23903e-40 1.2556657e-19 -2.2434115e-19 -5.067403e-19 2.5399485e-19

e_conv2.bias f4 [32]
00000000: e44f ddbc f1f4 fd8a 829a 4a3d facc 1b8e
00000010: 8088 213d f0a9 123d cadf 283b 9de8 433d
00000020: fde9 6a3d 25a7 163d 264d d1bc bb28 2dba
00000030: b6a2 33b1 e1a8 0abc 4b55 383c 6407 baa2
00000040: 936d 023d 41ce 6f3c 7d62 1d9c a8ef 0abc
00000050: 2dfc 54b7 c45b 803c 7556 af9d e4e0 343d
00000060: a895 859c f5a9 5d3d edef 363d 2d6f 938d
00000070: 9cfc 83b8 f669 213b 002a a8ac 1f2b 503d
-0.027015634 -2.445515e-32 0.049463756 -1.9203918e-30 0.039436817 0.035806596 0.0025768154 0.04782926
0.057352055 0.036780495 -0.025549483 -0.00066054956 -2.6140419e-09 -0.008463115 0.011250804 -5.0423226e-18
0.03184278 0.014636577 -5.2074236e-22 -0.00847999 -1.2694899e-05 0.015668757 -4.641151e-21 0.044159785
-8.839887e-22 0.05411716 0.044662405 -9.086339e-31 -6.293619e-05 0.0024629808 -4.77951e-12 0.050822373

e_conv3.weight f4 [32, 64, 3, 3]
00000000: bb45 dbb6 0deb c6b6 b91c d0b6 464f ceb6
00000010: ba19 bcb6 df67 c4b6 e8ed d3b6 fb74 b0b6
00000020: 7827 abb6 1337 b0ba 2114 533c 0c53 783c
00000030: f182 00bc 7c5b cb3b 9e76 103c 31bd d8bc
00000040: 3142 30bc 7f13 f3bb 289d 81bb 1ced e23b
00000050: 686d c73b a07c c8bb 1f6a a03b e8d5 7f3b
00000060: dead 77bc e2e8 c3bb 796d cbbb cc78 703b
00000070: 94be 8b3b 2b70 5b3b 73a7 8a3b 00e9 8e3b
00000080: 9b30 3a3b 2de3 f4bb c0e9 b1bb 0bdf bcbb
00000090: 3a36 5bbb 4d3e 353c 673f 463c 5202 14bb
000000a0: 4ace 2d3c 6517 283c 9669 a1bc 55a0 0bbc
000000b0: 5dec c8bb c374 2d3a d1f3 463a ce04 473a
000000c0: 768b 2a3a f0b6 483a 5832 4f3a d0ff 073a
000000d0: 0764 223a 8f7a 243a c7a8 8abb c6a3 f63b
000000e0: 9095 653b 94fc 4abb 4b97 383c ef92 093c
000000f0: fa00 17bc 4b1a a33a de6c b1bb df45 0080
00000100: 94db 0080 272a 0000 7925 0080 2697 0000
00000110: 88a8 0000 5ea6 0080 4cb5 0080 6bd5 0000
00000120: c1d7 0080 66e2 0000 4eef 0080 cb67 0080
00000130: ffba 0080 0b01 0080 419e 0080 0e0a 0080
00000140: 0fe1 0080 6fdf fc3a efbd b03b 7cbb 0c3b
00000150: a540 de39 966e c73a 18af c8ba 69aa e6bb
00000160: a657 c1bb 8838 aebb 14c7 a690 c8c3 a690
00000170: ee31 8a90 2b72 a190 c399 9e90 18cd a790
00000180: 34ca b390 a2f7 a990 5f4a 9690 7acb 0000
00000190: 5be6 0000 8726 0080 fe76 0000 d6f7 0080
000001a0: 05bc 0080 ca87 0000 bd85 0000 1b2b 0180
000001b0: 7705 08bb 7774 c039 30e7 79ba 93df 1cbb
000001c0: d8cc 9aba 9c6c 2bbb eadc c93a c0f9 0a3b
000001d0: 0a57 143b be6a b3bb ea21 13ba 11e0 02bb
000001e0: c493 d8bb 55e3 c7ba ff03 42bb 7437 33bc
000001f0: ffde d6bb d07b 0fbc 26f0 93a4 821c 39a6
00000200: c6bb 65a6 b0d1 2d26 ce2c faa2 f00e d3a5
00000210: 5910 9025 4dee 3726 0108 4c26 1cf2 37bc
00000220: 0c85 1f3c ddb1 613c aa59 84bb 3a25 103c
00000230: adb7 293c 4f44 0ebd 7b6a 84bc 20b1 42bc
00000240: 850e 3ebb 708e f13b 793a 173c 0147 96bb
00000250: be46 fb3b 75b1 aa3b 6ae0 9dbc 3994 f1bb
00000260: bd73 eebb 66c9 0bbb 2eb2 453b ea3a d83a
00000270: 0b8f 5c39 42fe db3b bd3c aa3b 4c7a f1bb
00000280: bf00 82ba 36a7 92bb a8a8 90bb 8b39 5c3c
00000290: c40e 753c d790 85bb 6c40 063c 02bd 843c
000002a0: bf94 05bd cca8 65bc 87c6 22bc f450 be3a
000002b0: c6c1 f73b 6e48 033c 9c11 99b9 5004 9b3b
000002c0: 8c53 513b 091a 81bc ced8 26bc 8d00 19bc
000002d0: f730 8220 e3da 1221 8b18 0820 fa3a ec1f
000002e0: dcab 7020 7b92 8620 3a4a 7f20 b9dd c920
000002f0: b551 5320 139f 3dbb 7dee 213c 3c06 0f3c
00000300: d778 b3bb c2cd 183c a6fb 353c 9c2d debc
00000310: 4b00 84bc 5f99 0abc b0ca f2bb aa32 973a
00000320: 1963 9d3b 1da4 f0bb 886e 353b 9248 e03b
00000330: 1655 63bc 3c60 abbb a335 08bb 524e 1abb
00000340: 7da6 ea3b 942c a83b 48fa 1abb 2a53 e93b
00000350: 2e18 ae3b af49 2cbc d442 1bbb e96c b3bb
00000360: 11d5 df82 431d 1b83 1615 aa03 1e09 7503
00000370: 0dc8 5782 1346 8283 9826 2401 0109 a182
00000380: e453 e802 78c4 b33a 0c1e be3a 093c bf3a
00000390: d125 b33a 168a bc3a 453b bd3a 121a a33a
000003a0: a14f ae3a 3de1 b13a cc6f 79bb d7b8 0a3c
000003b0: badd 473c f04e f4bb d15c 7b3c 5301 163c
000003c0: 8de2 ccbc f8c6 29bc 2aa1 07bc 1ec5 0000
000003d0: 0df9 0000 c9e0 0000 0d45 0080 f737 0100
000003e0: 9b03 0180 ec8b 0100 0366 0100 4880 0080
000003f0: 95a2 d3a3 f188 f6a3 5a50 f7a3 102a f0a3
-6.5348263e-06 -5.9282233e-06 -6.202227e-06 -6.148507e-06 -5.6058316e-06 -5.8533474e-06 -6.315986e-06 -5.258827e-06
-5.100792e-06 -0.0013444148 0.012883217 0.015156519 -0.007843719 0.006205974 0.008817343 -0.026457401
-0.010757969 -0.0074180956 -0.003955502 0.0069252383 0.0060860403 -0.006118372 0.004895463 0.003903741
-0.015117137 -0.0059786895 -0.0062081185 0.0036693094 0.004264662 0.0033483605 0.0042313873 0.004361272
0.0028410319 -0.0074733705 -0.0054294765 -0.0057638935 -0.003344907 0.011062217 0.012100077 -0.002258439
0.010608265 0.010259484 -0.019703668 -0.008522113 -0.0061316923 0.0006616825 0.0007589432 0.00075919635
0.00065057667 0.00076566543 0.0007903925 0.00051879603 0.0006194715 0.0006274366 -0.0042315456 0.0075268475
0.0035031773 -0.0030973302 0.01126654 0.008396848 -0.009216541 0.0012443749 -0.0054145893 -2.5065e-41
-7.877e-41 1.5121e-41 -1.3443e-41 5.4222e-41 6.0458e-41 -5.9681e-41 -6.5037e-41 7.656e-41
-7.7398e-41 8.1216e-41 -8.5846e-41 -3.7234e-41 -6.7082e-41 -3.74e-43 -5.6771e-41 -3.607e-42
-8.0736e-41 0.0019292663 0.0053937356 0.0021474054 0.00042391304 0.0015215452 -0.0015310971 -0.0070393574
-0.005900341 -0.0053167976 -6.5782184e-29 -6.5777104e-29 -5.450833e-29 -6.3679206e-29 -6.255692e-29 -6.618588e-29
-7.0914594e-29 -6.7040285e-29 -5.9279155e-29 7.2994e-41 8.2636e-41 -1.3821e-41 4.2686e-41 -8.8907e-41
-6.7449e-41 4.8712e-41 4.7976e-41 -1.07299e-40 -0.002075521 0.00036707867 -0.0009533046 -0.0023936972
-0.0011810316 -0.0026157266 0.001540092 0.0021205992 0.0022634887 -0.005475371 -0.00056126586 -0.001996998
-0.006609412 -0.0015250245 -0.0029604433 -0.010938514 -0.006557345 -0.008757547 -6.4157915e-17 -6.4223404e-16
-7.9704816e-16 6.030561e-16 -6.7810075e-18 -3.6612787e-16 2.4991096e-16 6.3813837e-16 7.0787565e-16 -0.011227157
0.009736311 0.013775316 -0.004039009 0.008797938 0.010358733 -0.034733113 -0.016164055 -0.01188305
-0.0029000354 0.007371716 0.00923025 -0.004586101 0.0076683452 0.005209143 -0.019272048 -0.007372406
-0.0072769807 -0.002132976 0.0030166018 0.001649705 0.00021034123 0.0067136595 0.005195229 -0.0073693153
-0.0009918435 -0.0044754995 -0.0044146366 0.013441454 0.014957134 -0.004076104 0.00819407 0.016203407
-0.03261256 -0.014017295 -0.009935028 0.0014519976 0.0075609414 0.008012874 -0.00029195554 0.0047307387
0.0031940667 -0.015759485 -0.010183526 -0.00933851 2.205526e-19 4.975642e-19 1.1527769e-19 1.00047456e-19
2.0385654e-19 2.2797416e-19 2.16239e-19 3.4197448e-19 1.789943e-19 -0.0028933927 0.00988352 0.008729514
-0.0054770517 0.0093264 0.011107361 -0.027121358 -0.016113421 -0.008459418 -0.007409416 0.0011535485
0.004803073 -0.0073437826 0.002768429 0.0068445886 -0.013875267 -0.005229978 -0.0020783923 -0.0023545218
0.00716096 0.0051322673 -0.0023647714 0.0071205096 0.005312941 -0.010515614 -0.0023690956 -0.0054756296
-3.28892e-37 -4.5583997e-37 9.996543e-37 7.2009495e-37 -1.5853117e-37 -7.6568015e-37 3.0149732e-38 -2.3661992e-37
3.4137487e-37 0.0013715168 0.0014504804 0.0014590035 0.0013667886 0.0014384415 0.0014437219 0.0012443683
0.0013298878 0.0013571155 -0.003806102 0.008466921 0.01219886 -0.007455699 0.015341953 0.009155589
-0.025010372 -0.010362379 -0.008278171 7.0712e-41 8.9343e-41 8.0638e-41 -2.4771e-41 1.11912e-40
-9.3129e-41 1.4203e-40 1.2843e-40 -4.6019e-41 -2.2945522e-17 -2.672937e-17 -2.6813824e-17 -2.6038666e-17

e_conv3.bias f4 [32]
00000000: ffb0 2b3d b202 013d 9db6 fa94 b23c 433c
00000010: f776 213d 320e 3e9d 3843 21bc 50f6 0390
00000020: ac1b 103d d735 c13b 5b29 053d b4ef 8ca9
00000030: 7bf7 34a2 645e c7b6 814f aab6 965a 9394
00000040: 0db0 e23d e0c7 a1bb 754e b63d 913b f0bb
00000050: 3adb 468b 77e3 a53c bb20 3abb 6549 0bbc
00000060: 86cd 6f3c 498e d2ba 2b26 033c e363 223d
00000070: 1743 11ab 992c 5fbc 6b8c 123d 03ca 80bc
0.041916844 0.03149671 -2.5315577e-26 0.011916326 0.039420094 -2.515363e-21 -0.009842686 -2.6024947e-29
0.03518264 0.005896311 0.032510143 -6.258831e-14 -2.4525564e-18 -5.9416507e-06 -5.0756503e-06 -1.4878937e-26
0.11068735 -0.004937157 0.08901683 -0.0073313196 -3.829834e-32 0.020250065 -0.0028400857 -0.008501385
0.014636403 -0.0016064133 0.008004705 0.03964604 -5.1607454e-13 -0.013621473 0.035778444 -0.015721327

e_conv4.weight f4 [32, 64, 3, 3]
00000000: 950f 77ba 0c99 a53b f86c 52bc 7ad5 023b
00000010: c504 16bb f48d 1abb 3498 cc3b 8d6d 75ba
00000020: f549 99bb 5804 0080 9532 0000 38c7 0080
00000030: 07d8 0080 4884 0000 8de5 0080 cc40 0000
00000040: 143f 0080 4752 0000 4d89 9739 98a4 f03a
00000050: 73e3 933a 7fab 8bba e18b 9738 3f09 93ba
00000060: 85ee 45bb 0494 13bb 77b8 96bb 35fc 0080
00000070: 57ea 0080 86c8 0080 2d53 0000 042f 0080
00000080: bf4c 0000 4b6e 0080 3693 0080 d5b4 0000
00000090: 00a5 dfba 1573 bdbb 0b4c 8abc 9336 4dbb
000000a0: 6f61 de3c 5ec6 b2ba 6376 b1bc 5a4e afbb
000000b0: 1504 2d39 8b32 e5ba f6ad 283a 64bb 65bb
000000c0: 94b6 af39 b324 e73a 08e3 46bb 34d1 373b
000000d0: f880 743b c5bb 1cbb 817a d83a 8d9e 0d3b
000000e0: dcea bf3a 17e6 a4bb 13a5 853a 62b6 a1ba
000000f0: 1039 7fba 8886 7639 edc8 b2b9 68cf 1cbc
00000100: a5cc 40bc 5737 96bc ea48 7dbc c27b 4e3c
00000110: c441 bd3b 3ea7 ecbb db71 9f3b a62a dbbb
00000120: 01af 76bc f898 ae3b 6d7e 183c 2f57 efbb
00000130: 5169 b83c 147e b5bb c424 9abb 1cb6 03bc
00000140: 6a71 94bc 0972 debb 1a03 0a3a d354 05bc
00000150: 639c 463c 6677 aabb 8175 b83b cf1b 5c3b
00000160: 3010 1a3b cbac b3bb 242c af3b 007d 5bbc
00000170: 9732 c1bb cd69 2fbc dde3 303c 194f f33c
00000180: d93c 0abc 2c84 383c dd6e 933a cac6 03a9
00000190: abb3 0fa9 07e2 08a9 db9b 10a9 c8d2 26a9
000001a0: a99c 1aa9 d062 18a9 8463 21a9 cb4d 21a9
000001b0: e107 f715 bb3a 0e16 1d47 0516 a905 0e16
000001c0: 605c 1c16 36a5 1b16 8dc5 0016 0a20 1116
000001d0: 1708 0f16 3592 16bc edf7 a53c 86b7 bf3b
000001e0: 137e d13b 7389 433c 734d c9bb 5f9d 12bd
000001f0: bfc0 9a3c a535 1abb 4778 3fbb 4184 9aba
00000200: ef9f eaba e07d ddba a885 abba 3311 5cbb
00000210: 060f 673a 3d0b ab38 e61f 74bb 7394 0080
00000220: 3e22 0000 4d64 0000 2e41 0080 9877 0080
00000230: eca8 0000 8de3 0000 86e7 0000 479d 0000
00000240: dcb0 413b 29b0 13bd 843f 97bc d54e 8fbc
00000250: 0b11 b8bc 0ca2 0f3c 6eda 173c d78f 4b3c
00000260: 980d b73c 7367 4c3a be5f b2b9 e60c 9bb9
00000270: 2e30 4bb9 1481 d9ba 2237 e6ba 890c 02ba
00000280: 5da2 23bb ff3d 3ebb b726 0080 dcc2 0080
00000290: c972 0000 2dd5 0000 0897 0080 435a 0080
000002a0: f4d6 0000 51eb 0000 578f 0080 249c 51bb
000002b0: 772d 94bb 6192 0a3b 81c7 56bb 860d 763b
000002c0: e1dd 89bb 4d3b 0d3a 7c11 ec3b 659a f3ba
000002d0: c637 8130 b885 8330 a9d0 7f30 4b42 8b30
000002e0: 3aa5 8d30 b49e 8930 8712 8f30 c1dc 9230
000002f0: 177b 8e30 204b 5e3b b1dd cc39 96fa 9539
00000300: 8f1c 0a3b 0298 16ba ad53 05bb 394e ba3b
00000310: 9d66 353b b358 9fba 79c0 0000 187e 0000
00000320: 2cba 0000 8bac 0000 1637 0080 4fc3 0000
00000330: f788 0000 a464 0000 8fa6 0080 eefc 46bb
00000340: 0806 48bb ddf8 0cbb d0cc fbba 798a b93a
00000350: a1dd 6d3b 9301 bdba c21a 9ab9 0fb6 9aba
00000360: cd21 0080 f619 0000 eb25 0080 086a 0000
00000370: 4599 0000 0911 0000 6a53 0080 8662 0080
00000380: 4346 0080 1848 13bb f15f c2bb 8a63 8ebb
00000390: eef7 8838 2b68 86bb 3fb0 06bb f1f2 ae3a
000003a0: 31ea 19bb 4584 69b9 3600 e53b 1e2f 28bc
000003b0: 8407 ccba a8ae 20bb 091c 72bb f33c b83b
000003c0: 4b60 203c 2bdb 553c 0c71 f93b 7429 0180
000003d0: ed79 0180 3d4b 0000 1f2c 0000 ed21 0180
000003e0: ac38 0100 a641 0080 1f6c 0180 5f40 0000
000003f0: affd cf9f 845e f69f ea8d f29f ad1e 00a0
-0.0009424624 0.005053645 -0.012843363 0.0019963668 -0.0022891026 -0.0023583146 0.00624373 -0.00093623326
-0.004678006 -1.558e-42 1.8145e-41 -7.1466e-41 -7.7496e-41 4.7454e-41 -8.2347e-41 2.3245e-41
-2.2628e-41 2.9516e-41 0.0002890326 0.00183596 0.0011282995 -0.0010655968 7.2262956e-05 -0.0011217966
-0.0030201983 -0.0022518644 -0.0045996266 -9.0475e-41 -8.4065e-41 -7.1934e-41 2.9838e-41 -1.6866e-41
2.7531e-41 -3.9566e-41 -5.281e-41 6.487e-41 -0.0017062724 -0.005781541 -0.016881963 -0.0031313046
0.02714607 -0.001363944 -0.021662896 -0.0053499164 0.00016500086 -0.0017486376 0.00064346136 -0.003505432
0.00033514632 0.0017634839 -0.0030347724 0.0028048279 0.0037308317 -0.002391563 0.0016516001 0.0021609396
0.0014642137 -0.0050323117 0.0010196291 -0.001233768 -0.0009735981 0.00023510505 -0.00034100507 -0.009570934
-0.011767541 -0.018336935 -0.015459279 0.012602748 0.005775662 -0.0072220853 0.0048658676 -0.0066884337
-0.015056373 0.005328294 0.009307486 -0.0073040943 0.022511156 -0.0055387113 -0.00470409 -0.008039024
-0.018120486 -0.0067884964 0.00052647444 -0.008137899 0.012122246 -0.0052022217 0.005629242 0.003358591
0.0023508184 -0.005483245 0.005345838 -0.013396502 -0.0058959234 -0.010706377 0.010796514 0.029700803
-0.008437359 0.011261981 0.001124825 -2.9260265e-14 -3.1908216e-14 -3.0394114e-14 -3.2109606e-14 -3.7042228e-14
-3.433075e-14 -3.3836486e-14 -3.5835497e-14 -3.5816656e-14 9.9774936e-26 1.1489201e-25 1.0766094e-25 1.1472455e-25
1.2630728e-25 1.2572932e-25 1.0402094e-25 1.1723116e-25 1.1554001e-25 -0.009190132 0.020259822 0.005850735
0.006393203 0.011934626 -0.006143266 -0.035794612 0.018890737 -0.002353051 -0.0029215978 -0.0011788682
-0.0017900447 -0.0016898476 -0.0013086097 -0.0033579587 0.00088141894 8.156009e-05 -0.0037250458 -5.3254e-41
1.2284e-41 3.5981e-41 -2.3382e-41 -4.2902e-41 6.0598e-41 8.163e-41 8.3055e-41 5.642e-41
0.002955488 -0.03605667 -0.018462904 -0.017493645 -0.022469064 0.008766662 0.009268386 0.012424431
0.02234535 0.00077973976 -0.0003402214 -0.00029573514 -0.00019377537 -0.0016594254 -0.0017564038 -0.00049609743
-0.0024968602 -0.0029028652 -1.3888e-41 -6.9902e-41 4.1177e-41 7.6473e-41 -5.418e-41 -3.238e-41
7.711e-41 8.4416e-41 -5.142e-41 -0.0031983936 -0.0045220214 0.0021144378 -0.0032772722 0.0037544682
-0.004207358 0.00053875596 0.0072042327 -0.0018585442 9.401837e-10 9.56951e-10 9.3064983e-10 1.0132423e-09
1.030606e-09 1.0013168e-09 1.0409885e-09 1.068564e-09 1.0366844e-09 0.003391929 0.00039075085 0.00028606196
0.002107415 -0.0005744697 -0.0020344064 0.0056855944 0.002767957 -0.0012157172 6.9046e-41 4.5234e-41
6.6786e-41 6.1897e-41 -1.9761e-41 7.0064e-41 4.9134e-41 3.6103e-41 -5.975e-41 -0.003036316
-0.0030521173 -0.0021510639 -0.0019210819 0.0014155648 0.0036295431 -0.0014420025 -0.00029393105 -0.0011803525
-1.2125e-41 9.313e-42 -1.3602e-41 3.8037e-41 5.4983e-41 6.111e-42 -2.9923e-41 -3.5344e-41
-2.5205e-41 -0.002247339 -0.0059318473 -0.004345362 6.531166e-05 -0.0041017733 -0.0020551828 0.0013347549
-0.0023485536 -0.00022269886 0.0069885505 -0.01026514 -0.0015566205 -0.0024518166 -0.003694298 0.0056225
0.009788583 0.013052742 0.007612353 -1.06706e-40 -1.35574e-40 2.699e-41 1.5828e-41 -1.04006e-40
1.12166e-40 -2.355e-41 -1.30622e-40 2.3092e-41 -8.8087594e-20 -1.04341415e-19 -1.02725764e-19 -1.0852171e-19

e_conv4.bias f4 [32]
00000000: 4cde 073d d68e 803b 4724 8fb3 aea4 d9ba
00000010: 6aa0 883c 09e9 863c 977c 643c 3ffa b43c
00000020: 587f 53ba 1408 c1b9 00a3 ae3c cb3d d63c
00000030: 71e8 563d 6499 8e3c 2534 b93c 75be 533c
00000040: 8930 5fbb 1d0a a63d d202 02b3 5918 053d
00000050: bfef d73c 367e 9eb8 a8f3 053d 9610 deba
00000060: b953 1ba9 b97d 173d 66b3 1fbb 4fbb 023d
00000070: 97b7 c13d ec98 f23c ef12 92ba a256 bc3c
0.033170983 0.0039232774 -6.665555e-08 -0.0016604865 0.016678054 0.016468542 0.01394572 0.022091983
-0.0008067987 -0.00036817847 0.021317959 0.026152512 0.052467767 0.017407127 0.022607872 0.012923826
-0.0034056029 0.08107398 -3.027055e-08 0.032493923 0.026359437 -7.557536e-05 0.03270307 -0.0016942199
-3.448953e-14 0.036985133 -0.0024368404 0.031916913 0.09458845 0.029613934 -0.0011144559 0.022990528

e_conv5.weight f4 [32, 64, 3, 3]
00000000: a73a 47bb b49e 273a 7ce9 6fbb ab1f b03b
00000010: 49c9 bd3b f0d3 5e39 1e51 b83b 0a4f d23b
00000020: a628 ab3a 3bbd ac3b 81dc 83ba 81dd 10ba
00000030: a29c 443b 381b f7ba f551 f2ba 2e18 bd3a
00000040: 9932 f5ba 50c0 0dbb c71b 0080 1f4b 0100
00000050: 4c16 0100 4c08 0080 0c65 0080 7a15 0180
00000060: 3579 0100 f501 0100 b9b1 0000 b4e5 d73b
00000070: 22ee b3b7 6d49 163c e524 0a3b c6d6 ce3b
00000080: 83e2 013c 3781 e3ba e866 003c d64b 0a3c
00000090: 3050 da3b e36b a63b f1be 0f3b 6de2 153c
000000a0: b1aa d9ba e279 9c3b 786d 38bc 0421 02bc
000000b0: f09f 53bc 1ec5 0080 6626 0180 2596 0080
000000c0: 13a5 0080 000d 0180 ff26 0180 04f7 0080
000000d0: 6f8a 0080 e5f7 0000 4a7b 243b 9013 0d3c
000000e0: bc5a 063c 77a8 0939 3b2a a23b 039a ec3b
000000f0: 3cc0 383a ad3b 973b 9777 083c 4ce3 0000
00000100: e328 0080 ff2d 0000 e18e 0080 2fcf 0000
00000110: 0108 0080 44b1 0080 75fb 0000 afeb 0080
00000120: 267c 96bc d0c5 313c 280e 98bc 6b99 80bc
00000130: 726b ac3c d951 30bc 1c5a f13b 321e 75bc
00000140: 0403 103c 2e79 be3b e5ae f0ba 9c99 35bb
00000150: 3c0b 6a3b 1786 c2bb 7b4b a3ba 376a aebb
00000160: 3df8 17bb 3c60 47bb f717 2cbb 8ef4 1d3b
00000170: a231 2c3c 65f6 1cbb 23cf 12ba aa79 143c
00000180: 8394 5c3a 5f16 b93b 7854 9a3c 7a81 0080
00000190: f091 0080 4249 0000 aead 0080 be90 0080
000001a0: 3156 0000 7182 0080 0478 0080 164b 0080
000001b0: 1b7d 7ca2 e7b1 66a2 478b 78a2 cc83 7ca2
000001c0: 6d6f 78a2 c514 7aa2 2966 7aa2 d873 7aa2
000001d0: da1a 79a2 08b8 0000 4990 0080 29af 0080
000001e0: 2eae 0080 b39d 0080 c733 0080 e4b7 0080
000001f0: e09a 0080 dd98 0000 d201 8f2d adb3 6dad
00000200: 5074 242d 2e1b 7fad ecb6 d02c 07c4 54ad
00000210: cfe9 96ad f342 7aad a7dc 532c 4fba 0000
00000220: 7cd9 0080 4838 0080 e022 0080 0111 0080
00000230: 6730 0180 a353 0180 0fcb 0180 4351 0100
00000240: bedd 9cbb 90cb 69bb bf79 3bbb 7be2 cbbb
00000250: 9cce 54bb 3ddf 4abb 4fbf 28bb 27ba 9a3a
00000260: 6377 3e39 ca21 0cbb 82d8 1ebb be63 ad39
00000270: 1970 23bb e90b 37bb 95dc 09bb 2409 0dba
00000280: 9b1c 45bb 295e 18bb 6a31 d8bb 0794 9cba
00000290: dd18 9e3b c86a 27bb abf2 8e3b ee09 0e3c
000002a0: c854 d4ba d3f3 963b 062c d63b 1f3b 88bb
000002b0: fcac 933b ec10 293c 905b 023c 0ae0 303b
000002c0: 5a6b 2e3b 2a53 b1bb 814e 17bb 161f 183b
000002d0: 6b57 0100 2595 0080 fbb1 0000 d857 0180
000002e0: 1e6b 0080 6fee 0080 dfc5 0000 d754 0180
000002f0: 122c 0180 64fb b2bb cc1e 4cba 3b7f 1dbb
00000300: d969 f1b8 578d 513b ba5d 0bbc b917 96ba
00000310: f963 ac3a 45ca 233b 7402 2f3a c935 fb3a
00000320: 1e1f f23b f317 913b 393f b83b 58ee d2ba
00000330: a92f 35bb 769f 46bb bebb d6bb b89a af38
00000340: 828b ef3a e9c1 013a 69ce db3b ba11 b2ba
00000350: b10b 0b3b 5e1c 8aba ff6b cf3b a6c0 1ebb
00000360: 07b3 4d3a 0777 11bb 788a 07bc 2d86 4aba
00000370: 047b a8bb 2d61 e8bb a35a b6bb 470a 0fbc
00000380: 6299 08bc a487 c51b 3c9f c81b 68f1 c91b
00000390: 5db0 c41b 3a40 bf1b f9f1 c71b 3844 c61b
000003a0: 972c be1b 9e78 c41b 7c01 133b a992 0f3c
000003b0: 43b9 223c 1498 263b a7a4 013c bfdb 103c
000003c0: eaa9 a1ba bf63 3f3b 48aa 8e3b 22f1 4dbc
000003d0: 7668 1ebc 6533 95bb 420c fbbb 58de c33a
000003e0: 7ca2 043d d734 0a3c e37a 3abc b49f 123b
000003f0: 0125 0000 eacd 0080 2e24 0080 b1d2 0080
-0.003039995 0.0006394193 -0.0036607673 0.005374869 0.0057918173 0.00021250523 0.0056249043 0.0064181136
0.0013058379 0.0052715815 -0.0010060222 -0.0005526171 0.0030000587 -0.0018852716 -0.001848756 0.0014426762
-0.0018707096 -0.002162952 -9.965e-42 1.18784e-40 9.9834e-41 -2.976e-42 -3.6249e-41 -9.954e-41
1.35316e-40 9.2538e-41 6.3755e-41 0.006588662 -2.1449352e-05 0.0091727795 0.002107912 0.006312224
0.00792754 -0.0017357235 0.007837035 0.008440932 0.006662391 0.005078779 0.0021933878 0.009148222
-0.0016606656 0.0047752718 -0.011256568 -0.007942442 -0.01291655 -7.0712e-41 -1.0561e-40 -5.3862e-41
-5.9217e-41 -9.6499e-41 -1.05825e-40 -8.8613e-41 -4.966e-41 8.8928e-41 0.00250979 0.008610621
0.008200344 0.00013128096 0.004948882 0.007220508 0.0007047688 0.004615268 0.008329294 8.1539e-41
-1.4667e-41 1.65e-41 -5.1255e-41 7.4323e-41 -2.871e-42 -6.3591e-41 9.0206e-41 -8.4547e-41
-0.018369745 0.010850385 -0.018561438 -0.015698155 0.021047328 -0.0107617015 0.007365478 -0.014960812
0.0087897815 0.0058127856 -0.001836267 -0.0027709967 0.0035712263 -0.005936395 -0.0012458408 -0.0053227204
-0.0023188733 -0.003042235 -0.0026259401 0.0024102065 0.01050988 -0.0023950574 -0.0005600324 0.00906221
0.0008414464 0.005648419 0.018839106 -4.6447e-41 -5.2353e-41 2.628e-41 -6.2305e-41 -5.1924e-41
3.092e-41 -4.6794e-41 -4.3053e-41 -2.6936e-41 -3.4218599e-18 -3.1264993e-18 -3.3684e-18 -3.4222141e-18
-3.3669256e-18 -3.3892313e-18 -3.39354e-18 -3.3942645e-18 -3.3760008e-18 6.6018e-41 -5.176e-41 -6.2836e-41
-6.2484e-41 -5.6572e-41 -1.8574e-41 -6.5968e-41 -5.5559e-41 5.4837e-41 1.6258026e-11 -1.3511786e-11
9.348147e-12 -1.4501107e-11 5.932024e-12 -1.2094332e-11 -1.7156858e-11 -1.422572e-11 3.010739e-12 6.6835e-41
-7.8019e-41 -2.019e-41 -1.2511e-41 -6.1e-42 -1.09199e-40 -1.21839e-40 -1.64679e-40 1.20987e-40
-0.004787176 -0.0035674311 -0.0028606502 -0.006222067 -0.0032471782 -0.0030955814 -0.0025748794 0.0011804745
0.00018164287 -0.0021382445 -0.0024237935 0.00033071445 -0.0024938642 -0.0027930683 -0.0021036018 -0.0005380085
-0.0030076865 -0.0023249483 -0.0065976875 -0.0011945971 0.0048247413 -0.0025545824 0.0043624244 0.00866936
-0.0016199583 0.004606703 0.0065360097 -0.0041574384 0.0045067053 0.010318976 0.0079564005 0.0026989006
0.002661428 -0.0054115253 -0.0023087563 0.0023211888 1.23195e-40 -5.3503e-41 6.3847e-41 -1.23348e-40
-3.8426e-41 -8.5534e-41 7.0983e-41 -1.2227e-40 -1.07645e-40 -0.005462097 -0.00077865715 -0.0024032134
-0.00011511491 0.0031975114 -0.008506233 -0.0011451162 0.0013152353 0.0024992388 0.0006676086 0.001916581
0.0073889634 0.004427904 0.005622771 -0.001609276 -0.0027646816 -0.0030307448 -0.0065531423 8.373469e-05
0.001827583 0.00049498543 0.0067079556 -0.0013585605 0.0021216685 -0.0010537019 0.006330013 -0.0024223714
0.00078468065 -0.002219619 -0.00827276 -0.0007725682 -0.0051416177 -0.0070916624 -0.005565004 -0.008730478
-0.008337351 3.2678572e-22 3.3190127e-22 3.3408666e-22 3.2539452e-22 3.1639805e-22 3.307816e-22 3.2800438e-22
3.146168e-22 3.2503427e-22 0.0022431305 0.008762994 0.009931865 0.0025420235 0.007912791 0.008841454
-0.0012333964 0.002920374 0.004353795 -0.012569698 -0.00966846 -0.004553246 -0.0076613734 0.0014943583
0.03238152 0.00843545 -0.011381838 0.0022373023 1.3275e-41 -7.3868e-41 -1.2979e-41 -7.5582e-41

e_conv5.bias f4 [32]
00000000: 50a3 b23c d88e 02b7 71c0 69b8 7abc 2d3d
00000010: f0fd 81a5 3f23 ef3b cd1b 8a3d a990 ee3c
00000020: b4f4 aa3c 5087 8cb6 5d2e 2b3d 4094 f03c
00000030: 47f8 2fad acb4 81b7 815c dd3c febd 053d
00000040: 4659 e03b fd85 ae3b 2190 44b4 0b50 253c
00000050: 1149 df3c 3ed2 ff3c 581b 2d3c 95e0 3cab
00000060: 263e b23c 461c 80b7 df76 d93c 72f4 323c
00000070: f13d 493d 22a5 dfba 6f80 22b9 151e f7b6
0.02180639 -7.781862e-06 -5.5730754e-05 0.042416073 -2.2550008e-16 0.007297903 0.06743584 0.029121714
0.020868637 -4.1880776e-06 0.041792262 0.029367566 -1.0002727e-11 -1.546213e-05 0.027021648 0.032651894
0.0068465797 0.0053260312 -1.8306356e-07 0.0100898845 0.02725652 0.031228181 0.010565601 -6.710269e-13
0.02175815 -1.5271955e-05 0.02654594 0.010922538 0.049131338 -0.0017062763 -0.00015497369 -7.3646756e-06

e_conv7.weight f4 [8, 64, 3, 3]
00000000: dcc1 1ebb e7e0 19bb 9796 b7bb db6a c83b
00000010: 482f d73b 3ea0 793b 0eff e23b e64c fa3b
00000020: 25a6 a43b 74e6 aa3a a679 803a d9d9 3a3b
00000030: 3125 f33a 4632 0a3b 1252 b53b 4f10 063c
00000040: 8998 313c 8ea5 6b3c 58a9 0080 d4e7 0080
00000050: e062 0100 d01f 0180 25f7 0080 0f5f 0180
00000060: f52f 0200 ed50 0000 e89b 0080 0db0 5892
00000070: 9c4f 3612 127e 6592 9d4c 7491 7920 1710
00000080: dbaa 3312 3125 3692 8d27 4e12 867d be11
00000090: a7c3 92ba 1436 6bbb bf18 b6bb 008f 9e3b
000000a0: f853 f33a e5c3 51ba 2e88 7e3b 8f58 bb39
000000b0: e926 2ebb a5b8 44bc 51e0 11bc c6bd e2bb
000000c0: cdfd f7ba 6ef3 8a3a 1779 1a3b 5463 c33b
000000d0: f9e3 133c 0444 1f3c f852 2a3b ac5d ee39
000000e0: bc1b 1a3b 2dfa 933b 4155 413b 61c5 b73b
000000f0: 0ee6 ce3b f48c bc3b d1cd 023c 38fa 52bc
00000100: e6ce ebbc 9427 18bd 7173 0e3c fa94 14bc
00000110: a25a a6bc 3730 c23c 940f 68ba 0c96 54bc
00000120: 3e56 0000 c925 0000 badc 0080 9d39 0000
00000130: f05e 0000 c6f8 0000 3eff 0000 68bc 0080
00000140: 40aa 0000 5c02 a2b0 fdc6 ae30 c92d 8530
00000150: cb7b c130 f304 9f30 77dd bc30 ae99 c130
00000160: 3a9c bd30 bd07 9430 c9ee 88ba 27f2 92bb
00000170: c9cf 80ba 3d7b 00ba 16fb 73bb fc03 0cba
00000180: 08cc e339 d6db 30bb 959a b539 974a ecbb
00000190: 942d b0bb fe1b e3bb 500c 60bb 4208 a6ba
000001a0: af04 86bb 9d85 3cbb a36f 03bb e782 a3bb
000001b0: dd65 10bc 178c 933c 1d1f ddbb cd88 493c
000001c0: 5f25 1c3d 76e5 6c3c 3cdb 77bc 6969 393c
000001d0: 5184 5cbc 0247 65bc b3a1 9dbc 4074 bdbb
000001e0: 9911 8ebc f6ca bcbc 4e11 20bc 4263 143b
000001f0: ad1c 74bb f817 2a3c 3dc4 31bb eee2 23ba
00000200: c9f7 c6ba feb5 99b9 b721 173b 48f7 dd3a
00000210: c838 f83a 0d0d a23b fe6c 6b3b cc6e 91bb
00000220: d9de b5bb 540a 43bb 0fb0 fcb9 e57a c2ba
00000230: 85c8 1f3a 21c5 e03a 63af 483a e72c 423b
00000240: 123b 36b7 5677 6db7 9d02 d6b6 e00c 9cb7
00000250: 3d49 b2b7 0958 a1b7 2e93 7eb7 25cc a3b7
00000260: 3139 66b7 53bb 5bba 8b5e 183d 99b1 30ba
00000270: 8632 e43c fa97 883d e95b ef3c 0fa4 32bc
00000280: 9958 e43c f279 12bc 4a73 0400 25bd 0280
00000290: dae3 0280 cc9a 0080 1625 0100 e2ff 0100
000002a0: 26f5 0100 a7eb 0200 17b9 0300 cbd8 04bc
000002b0: e74f 72bb 5e6f cfbb 82ca dfbb 7860 40bb
000002c0: d158 f4bb 0cd9 43bc 6d4a 1dbc d552 6cbc
000002d0: 953c babb bb1c fd3b e66a a3ba f357 ad3b
000002e0: e486 9b3c ea34 1e3c b346 0abc 5c34 983b
000002f0: 8ea7 95bb 3e9c 0100 2128 0100 5d09 0100
00000300: fbab 0180 6793 0180 3b10 0080 9557 0180
00000310: 6638 0000 a478 0000 13b0 82bb 57a8 17bb
00000320: 9263 ffbb dbb2 c13b 9cdb ef3b 5a9d fb3a
00000330: d897 8eb9 5655 633b c4dd 12bb 0ca8 0080
00000340: ed0b 0000 0daf 0080 cfde 0080 7fd9 0080
00000350: c734 0080 cdd5 0000 faa8 0000 c028 0000
00000360: 6764 0080 b462 0100 bb51 0180 f145 0100
00000370: 32f9 0180 8ee1 0080 f1d6 0080 cda6 0180
00000380: 6694 0080 c536 903b 718b d73b 59a8 1cba
00000390: 2223 6d3a 7bd8 4a3b 3ee9 38bb 254c 95ba
000003a0: c42b a93a 6610 7fbb 62db b23b 7476 683b
000003b0: a510 3a3d 6ab4 2cbd 878d 33bd 264a babb
000003c0: 4c40 15bd 2d39 11bd bcb3 383b 1ed2 e03a
000003d0: 4183 73ba 39ab 0bbb 3ccf f13b 34b0 bc3b
000003e0: 2133 c43b 5100 f43b 813d d83b 6b2e eb3b
000003f0: 6260 b3bc 19cc c03c 4e59 afbc 2e8d b03c
-0.0024224436 -0.002348 -0.0056026685 0.006116254 0.0065669157 0.0038089897 0.0069273775 0.0076385615
0.005024689 0.0013038651 0.0009801879 0.0028511195 0.0018550513 0.0021087094 0.005533465 0.008182599
0.01083959 0.014382733 -6.0749e-41 -8.3164e-41 1.27305e-40 -1.03248e-40 -8.8659e-41 -1.25936e-40
2.00875e-40 2.903e-41 -5.5929e-41 -6.837458e-28 5.75272e-28 -7.2415053e-28 -1.9271814e-28 2.9804515e-29
5.6693036e-28 -5.7474916e-28 6.505089e-28 3.0054074e-28 -0.0011197225 -0.0035890387 -0.005557149 0.0048388243
0.0018564453 -0.0008001908 0.0038838494 0.000357334 -0.0026573485 -0.012006913 -0.008903579 -0.0069195954
-0.0018920243 0.0010601112 0.002357071 0.0059627686 0.009026521 0.009720806 0.0025989395 0.00045464688
0.0023515066 0.0045159073 0.0029500278 0.005608246 0.0063140457 0.0057541076 0.007983641 -0.01287704
-0.02878518 -0.03714712 0.008694516 -0.009068722 -0.020306889 0.023704631 -0.0008852419 -0.012975227
3.0938e-41 1.3555e-41 -7.9182e-41 2.0668e-41 3.4057e-41 8.9243e-41 9.1564e-41 -6.7587e-41
6.1074e-41 -1.1787722e-09 1.2716722e-09 9.690037e-10 1.4077782e-09 1.1570179e-09 1.3741744e-09 1.4086277e-09
1.3795962e-09 1.0770617e-09 -0.001044714 -0.004484433 -0.000982755 -0.00049011764 -0.0037228516 -0.000534117
0.0004344883 -0.0026986501 0.00034638183 -0.0072110402 -0.005376527 -0.006930827 -0.0034187026 -0.0012667256
-0.004089914 -0.0028766163 -0.0020055554 -0.00498997 -0.008813349 0.018011136 -0.0067480938 0.012300682
0.038121577 0.014459005 -0.015127953 0.011316636 -0.013459281 -0.01399398 -0.019242143 -0.0057816803
-0.017342376 -0.023045998 -0.009769751 0.002264217 -0.0037248537 0.010381691 -0.0027125024 -0.00062517717
-0.0015180047 -0.0002931803 0.0023060867 0.0016934657 0.001893782 0.0049454034 0.0035923119 -0.004438257
-0.005550247 -0.0029760795 -0.0004819636 -0.0014837651 0.00060952484 0.0017148593 0.0007655529 0.0029628815
-1.0861799e-05 -1.4154086e-05 -6.378001e-06 -1.8602645e-05 -2.1253358e-05 -1.923369e-05 -1.5173848e-05 -1.9526176e-05
-1.3722384e-05 -0.00083821005 0.03719954 -0.00067403313 0.027856123 0.06669612 0.02921863 -0.010903372
0.027874278 -0.008940207 4.087e-40 -2.51523e-40 -2.65409e-40 -5.553e-41 1.0514e-40 1.83629e-40
1.79778e-40 2.68207e-40 3.41904e-40 -0.008108328 -0.0036973895 -0.0063304147 -0.0068295607 -0.0029354375
-0.007456877 -0.0119536035 -0.009600264 -0.014424046 -0.0056834915 0.007724372 -0.0012467771 0.0052900254
0.01898522 0.00965617 -0.008439708 0.0046449136 -0.004567093 1.47885e-40 1.06231e-40 9.5194e-41
-1.5353e-40 -1.44713e-40 -5.822e-42 -1.23254e-40 2.0232e-41 4.3278e-41 -0.003988275 -0.002314111
-0.007793852 0.005911214 0.0073198806 0.0019196675 -0.00027197483 0.0034688315 -0.0022410015 -6.0284e-41
4.278e-42 -6.2796e-41 -7.9929e-41 -7.8023e-41 -1.8933e-41 7.6697e-41 6.0617e-41 1.4618e-41
-3.6018e-41 1.27244e-40 -1.21155e-40 1.16926e-40 -1.8123e-40 -8.0914e-41 -7.7106e-41 -1.51672e-40
-5.3235e-41 0.0044010603 0.006577902 -0.00059760135 0.0009046068 0.0030951786 -0.0028215195 -0.0011390491
0.001290672 -0.0038919686 0.0054582814 0.0035470994 0.04542603 -0.042164244 -0.043836143 -0.0056851087
-0.03643827 -0.035454918 0.0028183302 0.0017152464 -0.0009289273 -0.0021311773 0.0073794406 0.0057583097
0.0059875404 0.007446327 0.0065991287 0.0071771643 -0.021896545 0.023534821 -0.021404888 0.021551695

e_conv7.bias f4 [8]
00000000: 6747 b13c 0878 593c b5cb 623d c85c 273d
00000010: bb98 c03c c584 013d f3a5 ac3c b01d 463c
0.021640493 0.013273247 0.05537005 0.040859967 0.023510328 0.03162076 0.021075225 0.012092039

e_conv8.weight f4 [8, 64, 3, 3]
00000000: 82be 303d 44e2 113d d911 df3a cbfb 95bc
00000010: d3f3 893a 7f38 173c 53e5 a23b 3c27 2b3c
00000020: b756 dbbc cde0 76bc 55f4 b03b 267c 1fbc
00000030: 5546 403c 8790 df3c c0a4 923c 8171 a2bc
00000040: 23de f73b 6092 533c 7228 0000 04e1 0000
00000050: 749c 0000 8ef8 0000 28bd 0000 6f32 0000
00000060: 92ce 0000 5af8 0080 1cde 0080 3cf5 0636
00000070: fae3 0e36 880e 0736 b3b3 1036 53f2 1a36
00000080: f3d2 1036 9659 0b36 487c 1336 00a2 1436
00000090: 05ea 64bb 8763 353c 8f82 b5bb c8a3 f8bc
000000a0: 942e 873b 8bb9 073d 12ce cbbc f757 823c
000000b0: 03c4 6a3c bc1c 4abb ef97 a83c bce6 093d
000000c0: 7f2a 563d 1ecd 1cbc 4d74 733c c930 4cbc
000000d0: f64d e83c 2ff6 b03c f85a a63c 10f5 3a3c
000000e0: 61ac fbbb 3ed0 623c 2b2c 173c 0340 e5bc
000000f0: 3bc6 3a3c ed6d 0c3d 99c9 0fbd 18eb bf3b
00000100: 63b8 1a3b 63d0 133b cd67 0dbc 302d 7a3b
00000110: 48d6 c0bb 03af b9ba 2c7f ddba 46e8 f1ba
00000120: 4417 b4b4 8e14 2eb5 17cd 3bb5 3b38 ebb4
00000130: 9dc1 1ab5 1a72 77b5 9a91 3b35 51fb bcb4
00000140: 5de9 07b5 53ca 6bba a5f7 6bba ba54 6bba
00000150: b615 6cba 7c3d 6cba 16a3 6bba 9f78 6bba
00000160: a1a9 6bba 1d09 6bba 6dac d3ba 68d8 f53b
00000170: 1fa0 c2ba b65f e03b b5b6 903c 0285 f03b
00000180: 2f1b 0cbb 4202 833b 2087 8bbb 4c49 803b
00000190: 1275 5abc e660 2f3c 4f58 7d3c bb39 20bc
000001a0: 2cc8 aaba 201c b13c fb69 b53b 9ce9 993c
000001b0: fab4 13bb de3d bb3a d1cd 09bb d890 84bb
000001c0: 3b5d be3b 5697 5cbb 2863 723a 3ac2 ae39
000001d0: c2a9 e7b9 6115 e0ba be50 883b 984d 8eb9
000001e0: 7060 83bb 832d cc3b 4676 92b9 8046 93bb
000001f0: ebd0 723b 9243 acbb d613 c33c 70c5 163c
00000200: 5192 49bb 21aa d9bb 4c0a 3fbc 43e1 293c
00000210: a091 82bc 0ed4 d33b 328d 013c eded 463d
00000220: 6df8 bc3c c6df f63b 45b8 103d 8688 aa3c
00000230: a4df 843a ce0f a8bc e50d 82bc ab89 bfba
00000240: 691b caba 5b49 caba aa1e caba b52e caba
00000250: 4580 caba a92f caba bd19 caba 6580 caba
00000260: 6f54 caba 514c ac3a 24b8 0939 b544 42bc
00000270: 5f97 943b 806d 7fbb 1614 dc3b 1dcf 26ba
00000280: bc0d 2b3c ca62 98bb 4193 1c80 692f 1280
00000290: 24cb 2b00 99b4 6f80 a990 6d80 022d 4580
000002a0: a34f 7480 2ba7 7380 6222 5380 ac32 3c37
000002b0: 0fa7 443c 07c2 f8bb 642c 42bb 26b5 cd3c
000002c0: 3db5 3abb fbf7 4ebc 5e0b 08bc 1815 aa3c
000002d0: 8fc3 173a 3b7d 85ba 3db9 97ba 36af 79ba
000002e0: efe9 8639 09a0 feba 3636 233b 0e64 9fba
000002f0: 2092 8739 e535 6124 5b9e 6624 3759 5724
00000300: 1765 6324 56a2 6624 e651 5624 41ad 5024
00000310: 01b5 5424 8ee2 4524 ef2b dabb bddd 873c
00000320: 1dbb cabb db60 6a3c 7b7d 2d3d 02e2 523c
00000330: eaad dbba b48b cb3c 56b2 16ba 3f01 2939
00000340: 00fb 2a39 3ee0 2a39 93a7 2a39 c250 2c39
00000350: 493f 2c39 f4f0 2a39 4e7e 2c39 d456 2c39
00000360: 56b7 0000 d9ac 0000 b4bf 0000 6c68 0000
00000370: 604e 0000 cfb7 0000 47c5 0000 d598 0080
00000380: 95b7 0000 f4c4 b6bc 827d 0ebc c86a 823c
00000390: b3c3 883b 38f7 ff3b 90cc a63b 0d5e c5bb
000003a0: 5950 353c 9c33 d03c 11d5 e1ba 9afa e13b
000003b0: 9401 26bb dc21 cd3a a5f0 0c3c 66b2 a9ba
000003c0: e822 29bb e7f2 833b ed0d 7fbb 8611 d5bc
000003d0: 1c8a 0c3b 2b74 6ebc fbcc 853c 3b7c 0abc
000003e0: 93a8 31bb 735b 0a3c c628 fb3c de40 87bc
000003f0: 029d 1abb 4be9 613c a863 9ebb a7e2 153c
0.043150432 0.035616174 0.0017018869 -0.01830854 0.0010524936 0.009229778 0.0049711852 0.010446366
-0.026774747 -0.015068245 0.0054002204 -0.009734189 0.011735518 0.027290596 0.017900825 -0.019829514
0.0075643226 0.0129133165 1.4509e-41 8.072e-41 5.6125e-41 8.9165e-41 6.7856e-41 1.8092e-41
7.4103e-41 -8.9092e-41 -7.9678e-41 2.0110301e-06 2.1292349e-06 2.0125026e-06 2.156227e-06 2.308884e-06
2.158046e-06 2.076476e-06 2.1977048e-06 2.2148015e-06 -0.0034929526 0.011071092 -0.0055392454 -0.030351534
0.0041254256 0.033135932 -0.024878535 0.015911086 0.014328959 -0.003083988 0.02058026 0.03366731
0.05228662 -0.009570388 0.014859271 -0.012462803 0.028357487 0.021601764 0.02030705 0.0114109665
-0.0076804613 0.013843594 0.009226839 -0.027984625 0.011399801 0.03428452 -0.035104368 0.005856883
0.0023608438 0.0022554628 -0.008630705 0.0038173907 -0.0058849193 -0.0014166537 -0.0016898862 -0.0018456064
-3.354454e-07 -6.484996e-07 -6.9961374e-07 -4.3813074e-07 -5.7651215e-07 -9.218071e-07 6.9874807e-07 -3.5200586e-07
-5.063101e-07 -0.0008994687 -0.00090014405 -0.0008977164 -0.0009005921 -0.00090118474 -0.000898884 -0.00089825125
-0.0008989815 -0.00089658966 -0.0016149409 0.0075026043 -0.0014848745 0.006847347 0.017665247 0.0073400745
-0.0021378507 0.003998072 -0.0042580515 0.0039149877 -0.013333576 0.010704255 0.015462949 -0.009779389
-0.0013029627 0.021619856 0.0055363155 0.018788151 -0.002253829 0.0014285406 -0.0021027217 -0.004045587
0.005809454 -0.003365954 0.0009246343 0.00033332576 -0.00044186233 -0.0017096215 0.004160016 -0.00027142162
-0.004009299 0.0062310114 -0.0002793541 -0.0044944882 0.0037050794 -0.0052570784 0.02381317 0.009202346
-0.0030757377 -0.0066425954 -0.01166017 0.010368648 -0.01593858 0.006464488 0.007907199 0.048566747
0.023067677 0.007534 0.035331983 0.020817053 0.0010137451 -0.020515349 -0.015875766 -0.0014613172
-0.0015419546 -0.0015433239 -0.0015420516 -0.0015425297 -0.0015449604 -0.0015425581 -0.0015419048 -0.0015449642
-0.001543654 0.0013145303 0.00013133936 -0.011857201 0.0045346464 -0.003897518 0.0067162616 -0.000636326
0.010440286 -0.0046504484 -2.624219e-39 -1.670046e-39 4.0218e-39 -1.0258526e-38 -1.0061963e-38 -6.352795e-39
-1.0681486e-38 -1.062105e-38 -7.63468e-39 1.1217471e-05 0.0120027205 -0.0075914892 -0.002962851 0.025110792
-0.0028489374 -0.012632365 -0.008303491 0.020762011 0.00057893334 -0.0010184416 -0.0011575591 -0.00095247047
0.00025732766 -0.0019426356 0.0024904138 -0.0012160556 0.00025858078 4.8834748e-17 5.0007432e-17 4.669626e-17
4.9308405e-17 5.0010804e-17 4.6473224e-17 4.5249562e-17 4.612349e-17 4.2909465e-17 -0.0066580693 0.016585225
-0.0061868564 0.014305319 0.042355996 0.012871267 -0.0016760204 0.02484689 -0.000574862 0.0001611756
0.00016305968 0.00016296 0.0001627489 0.00016433283 0.00016426774 0.00016302225 0.0001645025 0.00016435544
6.5769e-41 6.2006e-41 6.877e-41 3.746e-41 2.8116e-41 6.5938e-41 7.077e-41 -5.4826e-41
6.5857e-41 -0.022310711 -0.008696916 0.015920058 0.00417372 0.007811453 0.0050903037 -0.0060231746
0.01106652 0.025415234 -0.0017229636 0.006896329 -0.002533053 0.001565035 0.008602296 -0.0012946844
-0.002580816 0.004026759 -0.0038918213 -0.026009332 0.0021444624 -0.014554064 0.016333094 -0.00845247
-0.0027108535 0.008444655 0.03065909 -0.016510423 -0.002359212 0.013788532 -0.0048336573 0.009148276
