snapshots/Epoch67.pth (torch, 304045 bytes, 14 tensors)

e_conv1.weight f4 [32, 3, 3, 3]
0	0x0000d58d	7.6608e-41
1	0x800047ae	-2.5714e-41
2	0x000052ab	2.9656e-41
3	0x8000b35a	-6.4339e-41
4	0x0000a6f0	5.9886e-41
5	0x800050ad	-2.8941e-41
6	0x0000c39a	7.0169e-41
7	0x000081f8	4.6624e-41
8	0x0000c565	7.0812e-41
9	0x80002e9d	-1.6722e-41
10	0x8000b35e	-6.4345e-41
11	0x0000a712	5.9934e-41
12	0x0000f779	8.8776e-41
13	0x00022adb	1.99045e-40
14	0x00011dfb	1.0259e-40
15	0x000030ec	1.755e-41
16	0x000053e5	3.0096e-41
17	0x8000d553	-7.6526e-41
18	0x00009e67	5.6824e-41
19	0x8001023d	-9.2638e-41
20	0x80009b5e	-5.5735e-41
21	0x8000fb81	-9.0223e-41
22	0x80019d70	-1.48313e-40
23	0x000006d4	2.45e-42
24	0x8000053f	-1.882e-42
25	0x00000111	3.83e-43
26	0x80001ca6	-1.0277e-41
27	0xbb42c99e	-0.0029722224
28	0x3aff0e0d	0.0019459144
29	0xbc61a111	-0.013771311
30	0x3c451c92	0.0120307375
31	0x3c287741	0.010282339
32	0x3c499259	0.012302958
33	0x3ce7e70d	0.028308416
34	0x3c937844	0.018001683
35	0x3ce2503c	0.02762615
36	0x3c024cd8	0.007952891
37	0xbbd5b4b4	-0.0065217856
38	0x3cf30e8d	0.029670024
39	0x3ba8d640	0.0051524937
40	0x3c6f3f68	0.01460252
41	0x3c8a7325	0.016900608
42	0x3d0cb4fc	0.034352288
43	0x3d1516c0	0.03639865
44	0x3cc4c5c9	0.024020093
45	0xbc179a10	-0.00925304
46	0xbbffab02	-0.007802368
47	0xbce9ae9b	-0.028525641
48	0xbb92f87b	-0.0044851876
49	0xbc0ee2a1	-0.008721025
50	0xbca13b54	-0.01968161
51	0xbc16c28a	-0.009201655
52	0xbbfcefd8	-0.0077190213
53	0x3c9265dc	0.017870836
54	0xbc372154	-0.01117738
55	0xbd26e9dd	-0.040750373
56	0xbc75648b	-0.014977585
57	0xbb788d9f	-0.003792621
58	0xbcdee236	-0.027207475
59	0xbcaca44d	-0.021074438
60	0xb8b6394e	-8.68911e-05
61	0xbc26d1f9	-0.010181897
62	0xbc15c8ee	-0.009142144
63	0xbb80aedb	-0.0039270944
64	0x3c19760b	0.009366523
65	0x3bc51da2	0.0060154954
66	0xbb934510	-0.004494317
67	0x3bd752cb	0.006571149
68	0x3b6eed54	0.0036457377
69	0x3d25e1cb	0.040498536
70	0x3cabd297	0.02097444
71	0xbc9c8539	-0.019106494
72	0x3cdc0aec	0.026860677
73	0x3d04d69d	0.032431234
74	0x3ce179da	0.027523924
75	0x3d18e0d4	0.037323788
76	0x3ce4b6b9	0.02791916
77	0x3d189bf7	0.037258115
78	0x3d10130e	0.035174422
79	0x3c8f8b76	0.017522555
80	0x3c987a67	0.018613053
81	0xbacf1055	-0.0015797714
82	0x3c4a9f22	0.012367042
83	0x3bbd9765	0.00578587
84	0xbcbbf8e6	-0.022945832
85	0xbbeeab51	-0.007283606
86	0x3ba43383	0.0050110235
87	0xbc95f1de	-0.018303808
88	0xbc63bf31	-0.013900564
89	0x3ccc3585	0.024927864
90	0xbce54cf7	-0.027990801
91	0x3c1251b6	0.008930614
92	0x3c38dca1	0.011283071
93	0xbc3afb5d	-0.011412469
94	0xbb463dec	-0.003024931
95	0x3c03fe97	0.008056304
96	0xbd03ca04	-0.03217508
97	0x3c1245c9	0.008927771
98	0x3cbd7af8	0.023129925
99	0xbbb1386f	-0.0054083387
100	0x3b4d7ff9	0.0031356795
101	0xbbeb5ece	-0.0071829325
102	0xbc0d25bd	-0.008614955
103	0x3c6dde4c	0.014518332
104	0xb9bba662	-0.00035791384
105	0xbcc41ceb	-0.02393957
106	0x3bbf19ba	0.0058319243
107	0x3cd6127b	0.026131859
108	0x3c56607a	0.013084525
109	0x3c70ecd2	0.0147049
110	0x3d41e26c	0.047335073
111	0x3c834878	0.016025767
112	0x3c06bbbb	0.008223469
113	0x3d0faecb	0.035078805
114	0xbadd7224	-0.0016894978
115	0xbc32c98c	-0.01091231
116	0x3c61612e	0.01375608
117	0x3ca1e572	0.019762728
118	0x3cbd8a96	0.023137372
119	0x3d3d0cb3	0.04615469
120	0x3bc47181	0.005994976
121	0xbb634e15	-0.0034683992
122	0x3c1f2334	0.009712983
123	0xb9ca2273	-0.0003855411
124	0x3c88a2e9	0.016679244
125	0x3cfa0e35	0.030524353
126	0x3c36248d	0.011117113
127	0x3bfee100	0.007778287
128	0x3d0cdee6	0.03439226
129	0xbccdeb55	-0.02513663
130	0xbc7628cc	-0.015024375
131	0x3bc9c995	0.0061580637
132	0xbd171417	-0.036884394
133	0xbc48ba5c	-0.012251463
134	0x3a53863a	0.00080690125
135	0x8000cca5	-7.3413e-41
136	0x80006aa9	-3.8262e-41
137	0x80001a05	-9.334e-42
138	0x80019034	-1.43566e-40
139	0x800077a1	-4.2915e-41
140	0x80009584	-5.3636e-41
141	0x8000ea29	-8.4001e-41
142	0x80016039	-1.26354e-40
143	0x0000c41a	7.0348e-41
144	0x0000a349	5.8576e-41
145	0x80002955	-1.4827e-41
146	0x0000a1c1	5.8026e-41
147	0x800059e6	-3.225e-41
148	0x0000d045	7.4713e-41
149	0x8000b0bd	-6.3402e-41
150	0x8000a3ea	-5.8801e-41
151	0x000037a8	1.9966e-41
152	0x0000b8bb	6.6269e-41
153	0x8000376b	-1.988e-41
154	0x8000fa08	-8.9694e-41
155	0x8001a6a8	-1.5162e-40
156	0x00003bd4	2.1462e-41
157	0x0000cfc0	7.4527e-41
158	0x0000a437	5.8909e-41
159	0x800021d8	-1.2141e-41
160	0x800057d9	-3.1514e-41
161	0x000092ce	5.2664e-41
162	0x3d114f8a	0.035476245
163	0x3c0b6609	0.008508214
164	0xbc8dbcc8	-0.017301932
165	0x3ca0e0ff	0.019638536
166	0x3be476d4	0.006972173
167	0xbd12140b	-0.035663646
168	0x3cdfcbba	0.027318824
169	0x3a2805cd	0.0006409556
170	0xbc9dc556	-0.019259136
171	0x3d32a18a	0.043611087
172	0x3d01f68a	0.03172926
173	0xbcf62877	-0.030048592
174	0x3cbdad83	0.023154026
175	0x3c3e9567	0.0116323
176	0xbc0f9585	-0.008763676
177	0x3c9674e9	0.018366294
178	0xbcef2008	-0.029190078
179	0xbd453d4a	-0.048154153
180	0x3c642a0d	0.013926041
181	0xbbd0e466	-0.0063748835
182	0xbc98ebea	-0.01866718
183	0x3bc48547	0.005997333
184	0x3b9d79f3	0.0048057972
185	0xbc5f215d	-0.013618794
186	0x3d04d98f	0.032434043
187	0xbc892d5d	-0.016745264
188	0xbd453110	-0.048142493
189	0x0000cda4	7.377e-41
190	0x000124ea	1.05078e-40
191	0x00003a10	2.0829e-41
192	0x80005078	-2.8867e-41
193	0x000066c8	3.6871e-41
194	0x00001b3d	9.771e-42
195	0x00018189	1.38304e-40
196	0x80005d58	-3.3485e-41
197	0x00004f7c	2.8514e-41
198	0x0000e866	8.3369e-41
199	0x00001d94	1.061e-41
200	0x800018db	-8.916e-42
201	0x800077b4	-4.2941e-41
202	0x800061b8	-3.5055e-41
203	0x800009aa	-3.467e-42
204	0x00001f64	1.1261e-41
205	0x80011e23	-1.02647e-40
206	0x8000dc1b	-7.8959e-41
207	0x8000d08b	-7.4811e-41
208	0x00007244	4.0991e-41
209	0x0000e3d5	8.1731e-41
210	0x800148eb	-1.17994e-40
211	0x00009f5f	5.7172e-41
212	0x80009165	-5.2158e-41
213	0x0000cd86	7.3728e-41
214	0x8000754d	-4.208e-41
215	0x00004a15	2.6576e-41
216	0x8000e1f9	-8.1064e-41
217	0x80006564	-3.6372e-41
218	0x000090f6	5.2002e-41
219	0x00003dc3	2.2156e-41
220	0x8000ba3a	-6.6806e-41
221	0x0024a6d6	3.365927e-39
222	0x0000bbc4	6.7358e-41
223	0x80004156	-2.3438e-41
224	0x0066b50b	9.432167e-39
225	0x8000d735	-7.7202e-41
226	0x0000c26c	6.9745e-41
227	0x00000798	2.724e-42
228	0x80008af3	-4.9846e-41
229	0x0000033f	1.164e-42
230	0x80008612	-4.8095e-41
231	0x8000e6f9	-8.2857e-41
232	0x80002851	-1.4463e-41
233	0x0000c0e9	6.9203e-41
234	0x0000e2c0	8.1343e-41
235	0x8000d6a9	-7.7006e-41
236	0x8000e36e	-8.1586e-41
237	0x8000a553	-5.9307e-41
238	0x800028db	-1.4656e-41
239	0x800074a6	-4.1846e-41
240	0x800011e9	-6.425e-42
241	0x00005474	3.0296e-41
242	0x8054aa5a	-7.775292e-39
243	0xbd3abdaf	-0.045591053
244	0xbcb07b4f	-0.021543173
245	0xbd3fc4e2	-0.04681862
246	0xbce01bcb	-0.027357003
247	0xbc93837d	-0.018007034
248	0xbc8617a3	-0.016368693
249	0xbc503705	-0.01270843
250	0x3c59c724	0.013292108
251	0x3be2afe6	0.0069179414
252	0xbd36830c	-0.04455857
253	0xbbf27215	-0.0073988535
254	0xbcee5b91	-0.029096397
255	0xbca15f8c	-0.01969888

e_conv1.bias f4 [32]
0	0xb6c34958	-5.819991e-06
1	0x3d8240e6	0.06360035
2	0x3c97b312	0.018518005
3	0x3df5c53b	0.12000509
4	0x3d79f55d	0.061025012
5	0xb4d34858	-3.935445e-07
6	0x3d73d819	0.05953226
7	0xb91c78e3	-0.00014922353
8	0xb8d17acf	-9.9887715e-05
9	0x3d98632f	0.07440793
10	0xb84bbff0	-4.8577727e-05
11	0xb447afdf	-1.8597301e-07
12	0xbcd718bd	-0.026256913
13	0x3d6ac0b8	0.057312697
14	0xb723f34c	-9.772204e-06
15	0x3e1f2e1c	0.15544933
16	0x3dfff85f	0.12498545
17	0x3dc20c81	0.09475041
18	0x3e3a84cd	0.18214722
19	0x3e22444e	0.15846369
20	0xb307169b	-3.1452696e-08
21	0x3e1dc311	0.15406443
22	0xbc91aa1d	-0.017781312
23	0x3df085ce	0.11744271
24	0xba668549	-0.0008793665
25	0xb0a8d8cf	-1.228523e-09
26	0x3d0a6617	0.033788767
27	0xb3401110	-4.4719002e-08
28	0xa51d4c33	-1.3643397e-16
29	0xbb590c6b	-0.0033118974
30	0x3df046f0	0.1173228
31	0xb6134434	-2.1944406e-06

e_conv2.weight f4 [32, 32, 3, 3]
0	0x00005bd3	3.294e-41
1	0x8001332c	-1.10193e-40
2	0x80001250	-6.569e-42
3	0x8000003a	-8.1e-44
4	0x8001ce42	-1.65827e-40
5	0x8000aaa4	-6.1214e-41
6	0x00007554	4.209e-41
7	0x80006b9a	-3.86e-41
8	0x8000ccc9	-7.3463e-41
9	0x3c0a0d06	0.008425957
10	0xbc9f1f2c	-0.019424044
11	0x3b475ad5	0.003041913
12	0xbb81da3a	-0.003962782
13	0xba5e92f0	-0.00084905233
14	0xbbdf5157	-0.0068151164
15	0x3c44503a	0.011982018
16	0x3cdd8e95	0.027045527
17	0x3aa663f4	0.0012694583
18	0xbc2a8654	-0.010408003
19	0xbc477a11	-0.012175099
20	0xbbfc20cb	-0.007694339
21	0x3b8c2ef1	0.004278057
22	0xbbafb0bb	-0.005361644
23	0xbb87f9d2	-0.004149654
24	0x3ba8fd54	0.005157152
25	0x3ae69170	0.0017590951
26	0x3bce8598	0.0063025467
27	0xbcda139d	-0.02662068
28	0x3c99138c	0.018686078
29	0x3d168b85	0.03675415
30	0xbc699b9d	-0.0142582925
31	0xbbce0c58	-0.0062880926
32	0xbba95392	-0.005167433
33	0xbd17de68	-0.037077338
34	0x3b9d3171	0.0047971536
35	0x3c92af3b	0.017905822
36	0x39875bb2	0.00025817525
37	0xbb11b469	-0.0022232777
38	0x3a30eeb1	0.0006749435
39	0x3c391c78	0.011298291
40	0xbc5fb463	-0.013653847
41	0x3beeda77	0.0072892266
42	0x3c545193	0.012958902
43	0xbc867a0c	-0.016415618
44	0xbc104927	-0.008806503
45	0x00004824	2.5879e-41
46	0x80002b29	-1.5483e-41
47	0x8000c153	-6.9352e-41
48	0x8000afbc	-6.3042e-41
49	0x8000a48c	-5.9028e-41
50	0x0000bcbd	6.7707e-41
51	0x0001868e	1.40105e-40
52	0x0000fdd5	9.1058e-41
53	0x000054f7	3.048e-41
54	0xba1eee19	-0.0006062701
55	0x3c0a2ac2	0.008433046
56	0xbbe16488	-0.0068784393
57	0xbbf5c2f1	-0.0075000455
58	0x3baabcbb	0.0052104867
59	0x3bff3537	0.007788326
60	0x3bc1fc6f	0.005919985
61	0x3bf6c74b	0.007531082
62	0x3c8e067d	0.017337078
63	0x80002633	-1.3703e-41
64	0x00005081	2.888e-41
65	0x0000a3ec	5.8804e-41
66	0x80004c18	-2.7297e-41
67	0x0000dec6	7.9916e-41
68	0x00002078	1.1648e-41
69	0x007f209d	1.1674807e-38
70	0x0000c7a4	7.1618e-41
71	0x0001fc98	1.82449e-40
72	0x8000f828	-8.9022e-41
73	0x0000e2b2	8.1323e-41
74	0x00009048	5.1758e-41
75	0x8000d10a	-7.4989e-41
76	0x8000b602	-6.5292e-41
77	0x80001890	-8.811e-42
78	0x00001e06	1.077e-41
79	0x00011e87	1.02787e-40
80	0x0000502c	2.876e-41
81	0x3c5456a6	0.012960112
82	0xb9bd88b0	-0.0003615073
83	0x3c170776	0.009218087
84	0xbb69aac1	-0.0035654756
85	0x3bdb2c73	0.0066886484
86	0x3c0dd977	0.008657805
87	0x3a652e8e	0.0008742594
88	0x39957fc2	0.00028514682
89	0xbb2587ad	-0.002525787
90	0x00004b94	2.7112e-41
91	0x000023c8	1.2836e-41
92	0x00004020	2.3004e-41
93	0x00000bf6	4.291e-42
94	0x00008169	4.6424e-41
95	0x8000c39e	-7.0174e-41
96	0x80005343	-2.9869e-41
97	0x000010e8	6.065e-42
98	0x80008d99	-5.0796e-41
99	0x800259e9	-2.15925e-40
100	0x00006108	3.4808e-41
101	0x00005af6	3.263e-41
102	0x8000c94f	-7.2216e-41
103	0x1aa7550f	6.9207e-23
104	0x00002181	1.2019e-41
105	0x8000e9a2	-8.3812e-41
106	0x00020f60	1.89187e-40
107	0x0000070a	2.525e-42
108	0xbbcc31ca	-0.0062315213
109	0xbbc6bc39	-0.0060649184
110	0xbbb46d59	-0.0055061993
111	0x3ab661e1	0.0013914668
112	0x3a936df6	0.0011247981
113	0x3a9796ce	0.0011565329
114	0x3aa6980e	0.0012710111
115	0x3a60c577	0.00085743464
116	0x3a21b56c	0.00061686966
117	0x3aff4470	0.0019475352
118	0x3c8ca24a	0.01716723
119	0x3b8a5573	0.004221612
120	0x3c1acf0d	0.009448779
121	0x3b87df83	0.0041465177
122	0x3bf9382c	0.007605573
123	0xbbfa5c45	-0.007640394
124	0x3c2934c7	0.0103275245
125	0x397b41de	0.00023961763
126	0x80006715	-3.6979e-41
127	0x000086d5	4.8369e-41
128	0x000076b9	4.259e-41
129	0x8000739c	-4.1473e-41
130	0x8000048a	-1.628e-42
131	0x80008287	-4.6824e-41
132	0xa02fd6f6	-1.4894201e-19
133	0x00002209	1.221e-41
134	0x8000a183	-5.794e-41
135	0x3bc78f2e	0.0060900664
136	0x3c42f502	0.011899235
137	0x3b925da8	0.004466731
138	0x3c7e3d0a	0.0155174825
139	0x3c8901e9	0.016724544
140	0x3c6a90f8	0.01431679
141	0xbb24b8dd	-0.0025134601
142	0xbc939bcb	-0.018018624
143	0xbbdd6c74	-0.0067573134
144	0xbc7598b5	-0.0149900215
145	0xbc97c17c	-0.018524878
146	0xbbf0cf90	-0.007348962
147	0xbc9c4eed	-0.019080603
148	0x3c7534ed	0.014966232
149	0x3c8bddc9	0.017073529
150	0xbcf21c0d	-0.029554391
151	0x3a42d426	0.0007432125
152	0xb8b0428b	-8.4047286e-05
153	0x3c9d5930	0.019207567
154	0xbad5120b	-0.0016255988
155	0x3939d425	0.00017722005
156	0xbbbc70d1	-0.0057507535
157	0x3c3941ad	0.011307162
158	0x3bd75313	0.0065711825
159	0x3bbc6acc	0.005750036
160	0x3c807535	0.015680889
161	0x3c99c21f	0.018769322
162	0x39790eb1	0.00023751963
163	0xbcb81f3a	-0.022475827
164	0xbc8245c3	-0.015902406
165	0xbae4b15c	-0.0017447877
166	0x3a4fb099	0.00079227384
167	0x3c931459	0.017954038
168	0xbd0ec914	-0.03485973
169	0x3c7af330	0.0153167695
170	0x3d0840bf	0.03326487
171	0x3ca2e1e8	0.019883111
172	0x3c96a9e3	0.018391555
173	0xbb64d07d	-0.0034914308
174	0x3c0f0db1	0.008731292
175	0x3c2ebc9a	0.010665083
176	0xba6e9d85	-0.0009102452
177	0xbc3a7a40	-0.011381686
178	0xbc0b16e5	-0.008489345
179	0x3ce3fbca	0.027830023
180	0x00000db0	4.91e-42
181	0x80002391	-1.2759e-41
182	0x00000582	1.976e-42
183	0x0000b3c3	6.4486e-41
184	0x8000c497	-7.0523e-41
185	0x000101bb	9.2456e-41
186	0x8000711e	-4.0579e-41
187	0x8000ca36	-7.254e-41
188	0x80011835	-1.0052e-40
189	0xbca543d7	-0.02017395
190	0x3c47766b	0.012174229
191	0x3c8db6d0	0.017299086
192	0xbc8ed3a2	-0.017434899
193	0x3d4144cd	0.047184754
194	0x3d02d892	0.03194482
195	0x3c36b206	0.0111508425
196	0x3ce61587	0.028086437
197	0x3c8eefa0	0.017448246
198	0x3b7eeb8e	0.0038897726
199	0x3bb27398	0.0054459088
200	0xbb86340d	-0.0040955604
201	0xbb5ac4f7	-0.003338156
202	0x39e6ffa7	0.00044059494
203	0xbb328831	-0.002724182
204	0xbc3a6f1b	-0.011379029
205	0x3b9b395c	0.0047370624
206	0xbc1bfba9	-0.00952045
207	0x3c93dbf0	0.01804921
208	0x3c4d40d5	0.012527664
209	0x3cb0f071	0.021599026
210	0x3c476106	0.012169128
211	0x3cb326c3	0.021869069
212	0x3bb673a8	0.0055679865
213	0xbd27510e	-0.040848784
214	0x3cce8283	0.025208717
215	0xbb8ff569	-0.004393269
216	0x33b1dac1	8.281996e-08
217	0xb3c51f4e	-9.179222e-08
218	0xb204441a	-7.698896e-09
219	0x339c80f8	7.2877754e-08
220	0xb3c016b1	-8.944824e-08
221	0x3375f232	5.7263783e-08
222	0xb367301c	-5.3827634e-08
223	0xb20bd985	-8.140323e-09
224	0xb3b7f08d	-8.5653575e-08
225	0x80016d0d	-1.30956e-40
226	0x00009e01	5.6681e-41
227	0x800057ef	-3.1545e-41
228	0x00002143	1.1932e-41
229	0x000069bc	3.793e-41
230	0x80011778	-1.00254e-40
231	0x00005ee6	3.4043e-41
232	0x800106cb	-9.4272e-41
233	0x0000907f	5.1835e-41
234	0x3b866bdc	0.0041022133
235	0x3b1c6a86	0.0023867204
236	0x3bafdc1a	0.0053668143
237	0xbb60ec50	-0.003432054
238	0xbb741abc	-0.003724738
239	0xbc5b79d4	-0.013395745
240	0x3c6a2ced	0.014292938
241	0xbc04fa90	-0.008116379
242	0xbc9bde33	-0.019026851
243	0x80004c90	-2.7465e-41
244	0x8000eeb2	-8.5628e-41
245	0x0000f641	8.8339e-41
246	0x8000e7e2	-8.3184e-41
247	0x8001545a	-1.22095e-40
248	0x00009906	5.4894e-41
249	0x800077e3	-4.3007e-41
250	0x00005b1b	3.2682e-41
251	0x800059b8	-3.2185e-41
252	0x0001136a	9.88e-41
253	0x00006f81	4e-41
254	0x8000105f	-5.873e-42
255	0x2631b1e1	6.165028e-16

e_conv2.bias f4 [32]
0	0xbd0bd2ba	-0.03413651
1	0x9709146e	-4.4292873e-25
2	0x3c9f5b99	0.019452857
3	0xb7c20e64	-2.3133303e-05
4	0x3d1ab784	0.03777267
5	0x3cfc7f80	0.030822515
6	0x3a8b49ae	0.0010626817
7	0x3d27df4b	0.040984433
8	0x3d5bd6a6	0.0536715
9	0x3d0c9588	0.03432229
10	0xbcd988a9	-0.026554422
11	0xa0d0b07c	-3.5353358e-19
12	0xad1ef5ee	-9.0358675e-12
13	0xbc034c16	-0.008013746
14	0x3c16c0af	0.009201213
15	0xb8526ca6	-5.016909e-05
16	0x3d00e3b3	0.03146715
17	0x3c1c4601	0.009538175
18	0xb8cc1139	-9.730686e-05
19	0xbc45d936	-0.012075713
20	0x9be7974f	-3.8313525e-22
21	0x3c6d054e	0.014466597
22	0x8eded5de	-5.4933172e-30
23	0x3d0d7fca	0.034545697
24	0xae8827a8	-6.191608e-11
25	0x3d3f07f1	0.046638433
26	0x3d3ec9a7	0.04657903
27	0xbb21b80b	-0.0024676349
28	0x8ea703cf	-4.1172346e-30
29	0xba38eb64	-0.0007054119
30	0xbb9f1faa	-0.0048560696
31	0x3d4cf94d	0.05004244

e_conv3.weight f4 [32, 64, 3, 3]
0	0x8000bf58	-6.8641e-41
1	0x80000bfb	-4.298e-42
2	0x80000afc	-3.94e-42
3	0x80001756	-8.371e-42
4	0x80006192	-3.5002e-41
5	0x00005b35	3.2719e-41
6	0x80007fda	-4.5864e-41
7	0x000040cf	2.3249e-41
8	0x8000b621	-6.5336e-41
9	0x3a703073	0.0009162493
10	0x3c663a07	0.014051921
11	0x3cb5b5df	0.02218145
12	0xbc0b3312	-0.008496063
13	0x3b88fccd	0.004180527
14	0x3c22e343	0.009941879
15	0xbce8ce12	-0.028418574
16	0xbbcd4975	-0.0062648603
17	0xbc145eaa	-0.009055773
18	0xbc1c7850	-0.009550169
19	0x3b4364e2	0.002981477
20	0x3ba9f0ac	0.005186161
21	0xbc20ee18	-0.009822391
22	0x3af2d951	0.00185279
23	0x3b4963ff	0.0030729768
24	0xbc801fcd	-0.015640164
25	0xbbf12b6a	-0.0073599117
26	0xbbd6a70a	-0.0065506743
27	0x3c1805cc	0.009278726
28	0x3c1b6552	0.009484606
29	0x3c5a027a	0.0133062545
30	0x3a80fd44	0.0009841104
31	0x3b5ece06	0.0033997311
32	0x3bb65196	0.005563925
33	0xbb1fd99f	-0.0024391187
34	0xbc30bb2e	-0.010786815
35	0xbc9aae9b	-0.018882087
36	0x3b9ab208	0.00472093
37	0x3cb067ce	0.021533873
38	0x3c964e34	0.018347837
39	0x3aef30bc	0.0018248777
40	0x3c35cbe0	0.011095971
41	0x3bcb63d9	0.006206971
42	0xbc119172	-0.0088847745
43	0xbbcc4f18	-0.0062350146
44	0xbbd4cbca	-0.00649402
45	0x0000b08f	6.3337e-41
46	0x00004bf9	2.7254e-41
47	0x80004983	-2.6371e-41
48	0x00006f9a	4.0035e-41
49	0x80003541	-1.9104e-41
50	0x80007cc1	-4.4753e-41
51	0x0000c23d	6.968e-41
52	0x8000aeeb	-6.2749e-41
53	0x00014a42	1.18474e-40
54	0x3b25752d	0.0025246844
55	0x3beda63c	0.0072524827
56	0x3a255e3a	0.00063082913
57	0x3b277d63	0.0025556914
58	0x3c524e1d	0.0128360065
59	0x3bc4858b	0.005997365
60	0xbb1d381a	-0.0023989738
61	0x3bae889f	0.005326345
62	0xbbde7180	-0.0067884326
63	0x00012a96	1.07112e-40
64	0x8000cbef	-7.3158e-41
65	0x80007069	-4.0325e-41
66	0x80003ec3	-2.2515e-41
67	0x0000b093	6.3343e-41
68	0x000119e4	1.01123e-40
69	0x00007f1c	4.5598e-41
70	0x000088c3	4.9061e-41
71	0x00009889	5.472e-41
72	0x00006924	3.7717e-41
73	0x80000c90	-4.507e-42
74	0x0000d461	7.6187e-41
75	0x8000a23f	-5.8203e-41
76	0x00007698	4.2543e-41
77	0x93150671	-1.880962e-27
78	0x00009107	5.2026e-41
79	0x0000ae09	6.2432e-41
80	0x80001127	-6.153e-42
81	0x3a979f6e	0.00115679
82	0x3abe59fc	0.0014522667
83	0xbc381221	-0.011234791
84	0x3c25a713	0.010110634
85	0x3bf1ed9c	0.0073830616
86	0xbba769a2	-0.005109028
87	0x3b844588	0.004036609
88	0xb9850cd8	-0.00025377306
89	0xbc06d16d	-0.008228642
90	0x800021a6	-1.2071e-41
91	0x0000c875	7.191e-41
92	0x80001505	-7.54e-42
93	0x80004f2c	-2.8402e-41
94	0x0000c794	7.1595e-41
95	0x0000db90	7.8764e-41
96	0x000017f9	8.6e-42
97	0x8000719c	-4.0755e-41
98	0x0000c2b9	6.9853e-41
99	0x800046ac	-2.5352e-41
100	0x80007f8c	-4.5755e-41
101	0x80007941	-4.3498e-41
102	0x00005989	3.2119e-41
103	0x000002f8	1.065e-42
104	0x80001f2e	-1.1185e-41
105	0x0000d741	7.7219e-41
106	0x0000ac7f	6.188e-41
107	0x80004537	-2.483e-41
108	0xbb3e8da0	-0.0029076114
109	0xbaf74f80	-0.0018868297
110	0xbb2ac6be	-0.00260584
111	0xba5e8fff	-0.0008490085
112	0xba6b94f0	-0.0008986732
113	0xbaa13cef	-0.0012301485
114	0xba29b7b0	-0.000647421
115	0xbaa0cf57	-0.0012268823
116	0xba8d6ced	-0.0010789909
117	0xbba46814	-0.00501729
118	0xbb3a588b	-0.0028434123
119	0xbb9cf307	-0.0047897133
120	0xbbdef182	-0.0068036923
121	0xbb70aaf0	-0.003672298
122	0xbb88db2b	-0.0041765175
123	0xbc520274	-0.012817968
124	0xbc1aa160	-0.009437889
125	0xbc1a552a	-0.009419719
126	0x000093e6	5.3056e-41
127	0x8000cfe9	-7.4584e-41
128	0x80008450	-4.7465e-41
129	0x800050b4	-2.8951e-41
130	0x0000bd29	6.7858e-41
131	0x0000640e	3.5893e-41
132	0x00009073	5.1819e-41
133	0x00004007	2.2969e-41
134	0x8000b631	-6.5358e-41
135	0xbc9f1a1c	-0.01942163
136	0x3bc98c09	0.0061507267
137	0x3c94f06a	0.018181045
138	0x3b20d35c	0.0024540043
139	0x38e3116f	0.00010827451
140	0x3b9cd75d	0.0047864155
141	0xbd309605	-0.04311182
142	0xbcd3425a	-0.025788475
143	0xbc731b53	-0.014838058
144	0x3a697b5b	0.0008906626
145	0x3c0c0980	0.008547187
146	0x3cb67b38	0.022275552
147	0xbc498ae9	-0.012301185
148	0x3bfeed09	0.0077797216
149	0xbc1217dd	-0.008916822
150	0xbcef1c14	-0.029188193
151	0xbbf32fb5	-0.0074214586
152	0xbbdfbff8	-0.0068283044
153	0x3bafd258	0.005365651
154	0x3bd86a52	0.0066044712
155	0x3a2f3d2a	0.00066848344
156	0x3aac379c	0.0013139131
157	0x3bc0d222	0.005884425
158	0xba7e4ed1	-0.00097010756
159	0xbb691502	-0.00355655
160	0xbad24f0c	-0.0016045286
161	0xbc322ff5	-0.010875692
162	0x3a9179a1	0.001109887
163	0x3c6f49dc	0.014605012
164	0x3c9f3245	0.01943315
165	0x3b7660fe	0.0037594433
166	0xbb352494	-0.002764021
167	0x3cb214ee	0.021738496
168	0xbd09983f	-0.03359246
169	0xbc866f69	-0.016410546
170	0xbb8e81c2	-0.0043489644
171	0x3c54600c	0.0129623525
172	0x38910650	6.9153146e-05
173	0x3bfb390e	0.0076667136
174	0x3b58f2fb	0.0033103812
175	0xbba2a84d	-0.0049639107
176	0xbc900287	-0.01757933
177	0xbc7ebda2	-0.015548142
178	0xbc44f10d	-0.012020362
179	0xbc08a97c	-0.0083411895
180	0x80003662	-1.9509e-41
181	0x0000b727	6.5703e-41
182	0xa00c0da1	-1.1862971e-19
183	0x0000e0e5	8.0677e-41
184	0x00004029	2.3016e-41
185	0x80006263	-3.5295e-41
186	0x0000c3a6	7.0185e-41
187	0x80007af1	-4.4103e-41
188	0x0000559b	3.071e-41
189	0xbaddefbd	-0.001693241
190	0x3ad275cd	0.0016056836
191	0xbb3681a8	-0.0027848277
192	0xb5cda87e	-1.5322728e-06
193	0x3c2c72ae	0.010525389
194	0x3c609663	0.01370773
195	0xbc965119	-0.018349217
196	0xbc9f98b2	-0.01948199
197	0xbadc2d04	-0.0016798084
198	0xbac5ee98	-0.0015101014
199	0x3c27c598	0.010239981
200	0x3ccbfa26	0.024899554
201	0xbc83f42c	-0.016107641
202	0xbb0fa0a5	-0.002191582
203	0x3c425323	0.011860642
204	0xbce00f83	-0.027351147
205	0xbc61c14e	-0.013778998
206	0xbaac2c4c	-0.001313576
207	0xbbf8467b	-0.0075767613
208	0x3b945a43	0.0045273616
209	0xba1cf3bd	-0.00059872476
210	0x3ab48e22	0.0013775269
211	0x3bc64e66	0.0060518263
212	0x3c01d74f	0.007924869
213	0xbc865953	-0.016400015
214	0xbc2c8377	-0.010529391
215	0xbaf6ad6b	-0.0018819993
216	0x2fc2e2a6	3.5449438e-10
217	0x31f027e5	6.989455e-09
218	0x313e69c7	2.7708766e-09
219	0xb024a44c	-5.989633e-10
220	0x3148b280	2.9205296e-09
221	0xb275a6d5	-1.429881e-08
222	0xb1df7270	-6.5031642e-09
223	0x2ec405d0	8.9140806e-11
224	0xb03c73b9	-6.8558453e-10
225	0x0001a0fc	1.49586e-40
226	0x0000cc94	7.3389e-41
227	0x0000f45c	8.766e-41
228	0x80007ed0	-4.5492e-41
229	0x00006a8c	3.8222e-41
230	0x000087cf	4.8719e-41
231	0x0000df0a	8.0011e-41
232	0x00014fa0	1.204e-40
233	0x00006b9f	3.8607e-41
234	0xbbe49f32	-0.0069769854
235	0xbaffd760	-0.0019519143
236	0x3c527ec1	0.012847603
237	0xbc1ae2f1	-0.009453521
238	0x3cac5842	0.021038178
239	0x3bed9986	0.0072509674
240	0xbcb5c740	-0.022189736
241	0xbc56607c	-0.013084527
242	0xbc20f681	-0.009824396
243	0x80007ea9	-4.5437e-41
244	0x00009643	5.3904e-41
245	0x8001d8b9	-1.69581e-40
246	0x80005dc6	-3.364e-41
247	0x8000e074	-8.0519e-41
248	0x800192ea	-1.44538e-40
249	0x00012cd2	1.07914e-40
250	0x000048d6	2.6129e-41
251	0x00009feb	5.7368e-41
252	0x00003c36	2.16e-41
253	0x00010bb9	9.6041e-41
254	0x0000d95e	7.7977e-41
255	0x8000907e	-5.1834e-41

e_conv3.bias f4 [32]
0	0x3d142c83	0.036175262
1	0x3cf453a7	0.029825045
2	0x985b0c04	-2.8311153e-24
3	0x3c20d7e7	0.0098171
4	0x3d18cad1	0.037302796
5	0xad11aa18	-8.280064e-12
6	0xbc709dea	-0.014686087
7	0xbb1ad0a6	-0.00236229
8	0x3d08deec	0.03341572
9	0x3bd2bdcb	0.0064313165
10	0x3d04d094	0.032425478
11	0xb18dd5c8	-4.127944e-09
12	0xa7ad09d5	-4.8027806e-15
13	0xb9dcfb0d	-0.00042148717
14	0x80009de3	-5.6639e-41
15	0xbb8b212d	-0.004245898
16	0x3d7b909b	0.061417203
17	0xbc6bee84	-0.014400128
18	0x3d63cb25	0.055613656
19	0xbc192c63	-0.0093489615
20	0xa890805d	-1.604288e-14
21	0x3c87c60e	0.016573932
22	0xba08292a	-0.0005194122
23	0xbc24d672	-0.010060893
24	0x3c3c2f06	0.011485821
25	0xa0c87a5a	-3.3962283e-19
26	0x3bf91072	0.0076008374
27	0x3d214b47	0.03937843
28	0xa5863199	-2.3278903e-16
29	0xbc9a1be3	-0.018812126
30	0x3d0ff5ca	0.035146512
31	0xbc977465	-0.018488118

e_conv4.weight f4 [32, 64, 3, 3]
0	0xbb88b28d	-0.0041716755
1	0x3c457f38	0.012054257
2	0xbd2ad679	-0.041708443
3	0x3bab1d12	0.0052219713
4	0xbbe88aea	-0.007096638
5	0xbc051449	-0.008122512
6	0x3c6d2d9b	0.014476205
7	0xbb89fd2b	-0.004211088
8	0xbc5f2363	-0.013619277
9	0x112b35f1	1.3506143e-28
10	0x9189a346	-2.1715414e-28
11	0x90ce64da	-8.140806e-29
12	0x11e06d26	3.5408236e-28
13	0x91e9e597	-3.6902414e-28
14	0x90735495	-4.798846e-29
15	0x9180b7ac	-2.0308036e-28
16	0x91617af4	-1.7787258e-28
17	0x8f7b78ad	-1.2398497e-29
18	0x39d4f70a	0.0004061985
19	0x3ae14066	0.001718533
20	0x3b04f331	0.0020286555
21	0x39362952	0.00017372266
22	0x3abeb26d	0.0014549025
23	0x3aaf60d5	0.0013380299
24	0xbaa07cab	-0.0012244185
25	0xb945904a	-0.00018841136
26	0xba89e67c	-0.001052096
27	0x2b3cb9cd	6.704887e-13
28	0xac28bcee	-2.3979113e-12
29	0xac706338	-3.4161129e-12
30	0xaca01f73	-4.550965e-12
31	0x2c17eb4e	2.158901e-12
32	0xabf85a53	-1.764653e-12
33	0x2c9b2abf	4.4101107e-12
34	0xa8b84117	-2.0456332e-14
35	0x2c32c2db	2.5403488e-12
36	0xbac36fa9	-0.0014910597
37	0xbbe32d9e	-0.006932928
38	0xbcb09d73	-0.021559453
39	0xbb77f451	-0.0037834833
40	0x3d1c0ab0	0.03809613
41	0x39f445ce	0.00046591315
42	0xbcf3f802	-0.029781345
43	0xbbe2463b	-0.006905345
44	0x3b0592d5	0.0020381708
45	0xbaee9252	-0.0018201566
46	0x3a831ff1	0.0010004026
47	0xbb73a328	-0.0037176106
48	0xb9b56bc1	-0.00034603293
49	0x3afc4860	0.0019247644
50	0xbb23c389	-0.0024988374
51	0x3b1e1114	0.0024119066
52	0x3ba58ee3	0.005052434
53	0x3ae0ef4b	0.0017161159
54	0x3ad38a35	0.0016139211
55	0x3b192894	0.0023370134
56	0x3abb1b6c	0.001427514
57	0xbbb3bb7d	-0.005484997
58	0x3aabae9c	0.0013098302
59	0xba97c131	-0.0011577961
60	0xbaea6ad4	-0.001788462
61	0xb892a3d9	-6.9923415e-05
62	0xb94e7967	-0.00019690917
63	0xbc3d011b	-0.011535908
64	0xbc76005e	-0.015014736
65	0xbcb5955b	-0.022165945
66	0xbca462f9	-0.020066725
67	0x3c8612e2	0.016366426
68	0x3c0b82ee	0.008515103
69	0xbc133dcb	-0.008986901
70	0x3bd26833	0.006421113
71	0xbc05b962	-0.0081618745
72	0xbc80cd55	-0.01572291
73	0x3bbff742	0.005858333
74	0x3c2aedd7	0.010432682
75	0xbbf44cc3	-0.00745544
76	0x3cc6e7c0	0.024280429
77	0xbbaac76b	-0.0052117608
78	0xbba3ad40	-0.0049950182
79	0xbc0e0e40	-0.00867039
80	0xbc9ad484	-0.018900163
81	0xbca3a89c	-0.01997786
82	0x3a512f34	0.0007979751
83	0xbcbcd456	-0.023050468
84	0x3cf1ef76	0.02953313
85	0xbc5aaed2	-0.0133473445
86	0x3c89a061	0.016800107
87	0x3b64cb68	0.0034911279
88	0x3b384243	0.0028115667
89	0xbc52b3b3	-0.012860226
90	0x3bf5557e	0.007486998
91	0xbc7fee66	-0.015620803
92	0xbbc12745	-0.005894574
93	0xbc36145b	-0.011113252
94	0x3c65d07a	0.0140267555
95	0x3d177a8f	0.036982115
96	0xbc101ef6	-0.008796444
97	0x3c6ca8c8	0.014444537
98	0x3b08fc3e	0.0020902301
99	0x8709679c	-1.0337183e-34
100	0x0662b4e1	4.2638765e-35
101	0x08815204	7.783187e-34
102	0x85ae398a	-1.6384018e-35
103	0x076dd9f4	1.7893949e-34
104	0x085aac8a	6.5804807e-34
105	0x07753f88	1.8450422e-34
106	0x86006126	-2.4145498e-35
107	0x8737cdf4	-1.3827914e-34
108	0xabea3905	-1.6642526e-12
109	0x2b03a318	4.6766887e-13
110	0x2a83b006	2.3392415e-13
111	0x2926a5bc	3.7003156e-14
112	0x2c020c91	1.8481087e-12
113	0xa9554436	-4.7354664e-14
114	0x2bae222f	1.2372931e-12
115	0xab665f32	-8.1844525e-13
116	0xaa0b809c	-1.23903e-13
117	0xbc2d5098	-0.010578297
118	0x3cd5c240	0.026093602
119	0x3c0d9c25	0.008643185
120	0x3c148505	0.009064917
121	0x3c85fb22	0.016355101
122	0xbbbd5ee8	-0.005779136
123	0xbd3352fe	-0.04378032
124	0x3cca5217	0.024697347
125	0xbaad69c3	-0.0013230372
126	0xba8df084	-0.0010829126
127	0xba3b8d00	-0.00071544945
128	0xb9cd4b02	-0.00039156532
129	0xb9baa293	-0.00035597812
130	0xba48a34d	-0.0007653728
131	0xbaaf6e36	-0.0013384286
132	0x3a3adda2	0.0007128363
133	0xba1b3b82	-0.0005921648
134	0xbb0cd57b	-0.002148955
135	0x13ebc5ff	5.951758e-27
136	0x1707ff24	4.3942885e-25
137	0x13ad9d1f	4.3826273e-27
138	0x93eeed92	-6.031391e-27
139	0x13eb3c58	5.9381844e-27
140	0x918cda7a	-2.2222752e-28
141	0x13df7909	5.6412464e-27
142	0x1392723a	3.6968218e-27
143	0x13553473	2.691024e-27
144	0x3b881f50	0.0041541234
145	0xbd34d821	-0.04415143
146	0xbcb216ba	-0.021739352
147	0xbcb25db9	-0.021773206
148	0xbce35112	-0.027748618
149	0x3c40f224	0.011776481
150	0x3c38405c	0.011245813
151	0x3c78342a	0.015149156
152	0x3cea6e0e	0.028616931
153	0x3b0b75cd	0.0021279932
154	0xbb06341a	-0.0020477832
155	0xba87871a	-0.0010339946
156	0x3b1b4935	0.0023694758
157	0xbaeb6428	-0.0017958926
158	0xba69db0e	-0.00089208863
159	0x3adb3b8d	0.0016726122
160	0xbb2768cb	-0.002554464
161	0xbae409cf	-0.0017397943
162	0xb711eada	-8.697354e-06
163	0xb6b1de80	-5.3009135e-06
164	0xb738dc06	-1.1018483e-05
165	0xb741b128	-1.1544944e-05
166	0xb6bae5fa	-5.5700048e-06
167	0xb6eba9d7	-7.0233177e-06
168	0xb73ef793	-1.1382525e-05
169	0xb741b506	-1.1545844e-05
170	0xb6c9dc6b	-6.015927e-06
171	0xbbdde1f2	-0.0067713195
172	0xbc6a1974	-0.014288295
173	0x3c0d71fd	0.008633134
174	0xbbd8c49f	-0.006615236
175	0x3bd444d7	0.006477933
176	0xbbc43bbc	-0.005988566
177	0xbb79a679	-0.003809361
178	0x3c03e7b0	0.008050844
179	0xbc1301c6	-0.008972591
180	0x80007b67	-4.4268e-41
181	0x80006953	-3.7783e-41
182	0x0000bcfb	6.7793e-41
183	0x00001504	7.539e-42
184	0x00005c40	3.3093e-41
185	0x800020e2	-1.1796e-41
186	0x000115c5	9.9645e-41
187	0x8000b1c0	-6.3765e-41
188	0x8001513a	-1.20974e-40
189	0x3b81b1d1	0.003957965
190	0xba083c81	-0.0005197004
191	0xbb38ba4d	-0.0028187216
192	0x3b323c1b	0.002719647
193	0xbadf0ba6	-0.0017017021
194	0xbb97fc60	-0.0046382397
195	0x3b8a9bde	0.0042300066
196	0x380b5700	3.3221208e-05
197	0xbb33dfbd	-0.002744659
198	0x8fc9b269	-1.9888851e-29
199	0x8f1f88ce	-7.865653e-30
200	0x90d725fd	-8.486108e-29
201	0x90990022	-6.0348064e-29
202	0x9000460a	-2.5297505e-29
203	0x8ff6e33a	-2.4344997e-29
204	0x8f49e70f	-9.9545654e-30
205	0x8fc9a960	-1.9885371e-29
206	0x8faf47cd	-1.7283989e-29
207	0xbaa1d52b	-0.0012346854
208	0xbb4f5375	-0.0031635438
209	0xb955458d	-0.00020339173
210	0xbb9b2281	-0.004734338
211	0xba7c8f8d	-0.0009634428
212	0x3b34e909	0.002760472
213	0xbb502bde	-0.0031764428
214	0x384a7ef9	4.8278805e-05
215	0xb8a39cc1	-7.8016434e-05
216	0xafc9972e	-3.6669107e-10
217	0xaf8b06e4	-2.528885e-10
218	0x2f512550	1.9021695e-10
219	0xaf891c5c	-2.4940305e-10
220	0xaff2e935	-4.4185247e-10
221	0xafaa5176	-3.09807e-10
222	0x2fb2f7cd	3.2554084e-10
223	0x30704536	8.7409846e-10
224	0xaf44d576	-1.7901933e-10
225	0x3b657177	0.0035010257
226	0xbbdc1e01	-0.006717444
227	0xbb93e777	-0.0045136767
228	0x3bd9cb03	0.0066465153
229	0xbb8250cb	-0.0039769164
230	0xbabec1ee	-0.0014553645
231	0x3bb1c2fa	0.0054248543
232	0xbb9c4319	-0.004768741
233	0xbaff3f93	-0.0019473903
234	0x3c2b3d2c	0.010451596
235	0xbc65f668	-0.014035799
236	0xbab2299c	-0.0013592723
237	0xbb81109b	-0.003938747
238	0xbbbb219a	-0.0057107927
239	0x3bfba453	0.007679501
240	0x3c5a917d	0.013340351
241	0x3c9321b4	0.017960407
242	0x3c341d5e	0.01099333
243	0x8000ce48	-7.4e-41
244	0x80003499	-1.8868e-41
245	0x00004c87	2.7453e-41
246	0x800041b3	-2.3568e-41
247	0x8000b87e	-6.6183e-41
248	0x0000bce8	6.7767e-41
249	0x00008c42	5.0315e-41
250	0x00002bf7	1.5772e-41
251	0x80009546	-5.3549e-41
252	0x0b1ad216	2.9817372e-32
253	0x099dfee5	3.8036077e-33
254	0x0ac00add	1.8493014e-32
255	0x0b004bce	2.4708932e-32

e_conv4.bias f4 [32]
0	0x3d06f63b	0.032949667
1	0x3afd3d2f	0.0019320602
2	0xbc99096c	-0.01868125
3	0xb132b5fa	-2.600585e-09
4	0x3c892e64	0.016745754
5	0x3c840152	0.01611391
6	0x3c5276cc	0.012845706
7	0x3c8810b9	0.016609536
8	0xba28f7a1	-0.0006445591
9	0xb51914aa	-5.702701e-07
10	0x3c752ea2	0.014964731
11	0x3cd45edd	0.02592414
12	0x3cb80470	0.022463053
13	0x3c1f1595	0.009709735
14	0x3cb84c61	0.022497358
15	0x3c4913f1	0.012272821
16	0xbb9e0173	-0.00482195
17	0x3d5b4f32	0.053542323
18	0xb829e09f	-4.0501935e-05
19	0x3d00fb86	0.03148987
20	0x39887d09	0.000260331
21	0xb501348c	-4.813271e-07
22	0x3c94e8a1	0.018177332
23	0xb7b0b890	-2.1066779e-05
24	0x9f56162a	-4.5334596e-20
25	0x3d16a2d7	0.03677639
26	0x39e63e39	0.00043915378
27	0x3d01abf1	0.031658117
28	0x3d2b481f	0.041816827
29	0x3c8b2f7f	0.016990421
30	0xb15e5e36	-3.2358805e-09
31	0x3cb98b2a	0.022649366

e_conv5.weight f4 [32, 64, 3, 3]
0	0x3b47d6c5	0.0030493003
1	0x3b653301	0.0034973028
2	0x3a82fc43	0.0009993393
3	0x3bcd7c58	0.0062709264
4	0x3bbab0de	0.0056973537
5	0x3b0cd825	0.0021491137
6	0x3bf7fb60	0.007567808
7	0x3bf79186	0.0075551895
8	0x3b75b4d1	0.0037491808
9	0x3c252b47	0.010081119
10	0x3b4930c2	0.0030699228
11	0x3ba50093	0.005035469
12	0x3bc92b79	0.0061392155
13	0x38800375	6.1041595e-05
14	0x3a9c7ed2	0.0011939651
15	0x3b09fbfb	0.0021054733
16	0xbb28275c	-0.0025658226
17	0xb9f1972f	-0.00046079743
18	0x00008995	4.9355e-41
19	0x0000d6e0	7.7083e-41
20	0x8000fb3f	-9.013e-41
21	0x000013a8	7.051e-42
22	0x8000e598	-8.2363e-41
23	0x800067c3	-3.7223e-41
24	0x80009680	-5.3989e-41
25	0x8000a416	-5.8863e-41
26	0x00002074	1.1642e-41
27	0x3c3f0821	0.011659653
28	0xba8640b8	-0.0010242676
29	0x3c8acd4f	0.016943602
30	0x3b77c292	0.0037805182
31	0x3c35fa53	0.011107045
32	0x3c7b52d4	0.015339572
33	0xbb464b9b	-0.0030257467
34	0x3c4c4ac9	0.012469002
35	0x3c563c70	0.013075933
36	0x3c35c238	0.011093669
37	0x3bee9bac	0.007281741
38	0x3add284c	0.0016872971
39	0x3c52a3cc	0.012856435
40	0xbb9e7fde	-0.0048370203
41	0x3b8a4491	0.0042195995
42	0xbc80cddf	-0.015723167
43	0xbc32f1a8	-0.010921873
44	0xbc8fba2e	-0.017544832
45	0x000021a9	1.2075e-41
46	0x00004ead	2.8224e-41
47	0x0000f839	8.9046e-41
48	0x80018087	-1.37942e-40
49	0x800151bb	-1.21155e-40
50	0x8000193d	-9.054e-42
51	0x0000bdfc	6.8154e-41
52	0x0000629e	3.5377e-41
53	0x00008420	4.7398e-41
54	0x3ba9000a	0.0051574754
55	0x3c334320	0.010941297
56	0x3c3773fe	0.011197088
57	0x3b8396b4	0.004015768
58	0x3c06c4c8	0.008225627
59	0x3c1b7708	0.0094888285
60	0x3b503445	0.0031769436
61	0x3bd14225	0.006386059
62	0x3c23620a	0.009972105
63	0xb8e99718	-0.00011138449
64	0xb8eb179e	-0.00011210072
65	0xb8fe45b5	-0.00012124648
66	0xb8e7e964	-0.00011058411
67	0xb8f68c0c	-0.0001175628
68	0xb8efa1b9	-0.00011426531
69	0xb8e4c4df	-0.00010908557
70	0xb8f8273e	-0.00011832871
71	0xb8e54790	-0.000109329005
72	0xbcc07f5d	-0.023498232
73	0x3c5eae4a	0.013591358
74	0xbcd04a52	-0.025426064
75	0xbcab33bc	-0.020898692
76	0x3cd21f65	0.025649736
77	0xbc7f138b	-0.015568624
78	0x3c2b0939	0.010439211
79	0xbc93a23e	-0.018021699
80	0x3c3cdcbd	0.0115272375
81	0x3c97d66b	0.01853486
82	0xbae54dec	-0.0017494536
83	0xbc33da71	-0.010977373
84	0x3c0fa036	0.008766225
85	0xbc9948b2	-0.018711422
86	0xbbc1a0fe	-0.0059090843
87	0xbbbcbb01	-0.0057595973
88	0x3ad64b7a	0.0016349398
89	0x39a50e32	0.0003148183
90	0xbb71c9e0	-0.0036894009
91	0x3b1bf432	0.0023796675
92	0x3c77102b	0.015079538
93	0xbb470d77	-0.0030373016
94	0x3b171d6b	0.0023058306
95	0x3c8d6a25	0.017262528
96	0x39e23782	0.00043147436
97	0x3c189fc0	0.009315431
98	0x3ce3e499	0.027818965
99	0x000005d2	2.088e-42
100	0x80003421	-1.87e-41
101	0x800012f8	-6.805e-42
102	0x80010f44	-9.7312e-41
103	0x80016678	-1.28594e-40
104	0x00002388	1.2746e-41
105	0x8000fefa	-9.1468e-41
106	0x80013604	-1.11213e-40
107	0x80004737	-2.5547e-41
108	0x8000fef2	-9.1457e-41
109	0x991bbe7d	-8.051781e-24
110	0x8000a6a4	-5.978e-41
111	0x00019c53	1.47914e-40
112	0x0000453f	2.4841e-41
113	0x800068d9	-3.7612e-41
114	0x000085e3	4.803e-41
115	0x80001252	-6.572e-42
116	0x8001031c	-9.2951e-41
117	0x31a1de07	4.7109583e-09
118	0xb16e06d5	-3.4637442e-09
119	0x319bedab	4.5381134e-09
120	0x31985bcd	4.4342188e-09
121	0x319f5895	4.6375797e-09
122	0x319ebd90	4.619956e-09
123	0x31a004fb	4.657179e-09
124	0xb2b0af56	-2.056883e-08
125	0xb47a5c4c	-2.3316642e-07
126	0x00004e77	2.8148e-41
127	0x80009f94	-5.7246e-41
128	0x0000938c	5.293e-41
129	0x80000c97	-4.516e-42
130	0x8000279e	-1.4212e-41
131	0x00009814	5.4555e-41
132	0x800051d4	-2.9354e-41
133	0x0000f7c0	8.8876e-41
134	0x8000bc17	-6.7474e-41
135	0x0000f9e7	8.9648e-41
136	0x800044bf	-2.4661e-41
137	0x00000f14	5.409e-42
138	0x80006a4f	-3.8136e-41
139	0x80007796	-4.29e-41
140	0x00009682	5.3992e-41
141	0x0000a762	6.0046e-41
142	0x0000708d	4.0376e-41
143	0x000058f6	3.1913e-41
144	0xbc089035	-0.008335163
145	0xbb99315c	-0.0046750735
146	0xba6b44de	-0.00089748006
147	0xbc0a0599	-0.008424186
148	0xbb6871c1	-0.0035468193
149	0xb76cf848	-1.4124504e-05
150	0xba8c7d99	-0.0010718583
151	0x3b85a1d9	0.0040781316
152	0x3bb72b53	0.0055898814
153	0xbc9e0025	-0.019287178
154	0x3bdc3446	0.0067200987
155	0x3c946682	0.018115286
156	0x3a9bae79	0.0011877558
157	0x3c1ae100	0.009453058
158	0xbc1ffa42	-0.009764256
159	0x3c03182d	0.008001369
160	0xbc2429ee	-0.010019762
161	0xbc5d18f3	-0.013494718
162	0xbaff62cf	-0.0019484403
163	0xba48537a	-0.00076418335
164	0x3b38e4b7	0.0028212497
165	0xbab2c24c	-0.0013638227
166	0x3a96b09d	0.0011496727
167	0x3b9b9f75	0.0047492334
168	0x3aeafb34	0.0017927648
169	0x3b5983eb	0.0033190202
170	0x3b8d1a08	0.0043060817
171	0xbc4d58ae	-0.01253335
172	0x3c0619fc	0.008184906
173	0x3ca33370	0.019921988
174	0x3c7bd39e	0.015370278
175	0x3b9cf647	0.0047901007
176	0x3acbf593	0.0015560858
177	0xbc4e4971	-0.012590752
178	0xbb7efe93	-0.0038909062
179	0x3b32132c	0.0027172072
180	0x8000ab0a	-6.1357e-41
181	0x03d26635	1.2366156e-36
182	0x8001041f	-9.3314e-41
183	0x80010840	-9.4795e-41
184	0x0000cc69	7.3329e-41
185	0x80000402	-1.438e-42
186	0x80002114	-1.1866e-41
187	0x0000c8fc	7.21e-41
188	0x00003673	1.9533e-41
189	0xbbcee4f4	-0.0063139144
190	0xbb7db186	-0.0038710549
191	0xbb954200	-0.004554987
192	0xb92287a1	-0.0001550005
193	0x38e44775	0.00010885197
194	0xbc859337	-0.01630555
195	0x39aec8bc	0.00033337425
196	0xb9f416d2	-0.0004655631
197	0x3b3ce2d2	0.002882172
198	0xb93383dd	-0.00017119893
199	0x3b41d5ff	0.0029577015
200	0x3c8ce6f8	0.017199978
201	0x3c0b2383	0.008492353
202	0x3c2e9880	0.010656476
203	0xbc4400d0	-0.011963084
204	0xbb4e2ace	-0.003145862
205	0xbbdf6582	-0.0068175206
206	0xbc94cf41	-0.018165233
207	0xbbe5b6ff	-0.00701034
208	0x3c19ffd5	0.009399374
209	0x3b8d583a	0.004313496
210	0x3c8e6fee	0.017387357
211	0xbbe01d70	-0.0068394467
212	0x3ac48dcb	0.0014995871
213	0xbc8ba752	-0.017047558
214	0x3cc75700	0.024333477
215	0xbc98c3a3	-0.018647974
216	0x3c7fddbe	0.015616832
217	0x3cfe613b	0.031052222
218	0xbd0a09c5	-0.033700723
219	0x3b13ad20	0.002253361
220	0xbc45f3d0	-0.012082055
221	0xbbd5116b	-0.0065023205
222	0xbcc3b99d	-0.023892218
223	0xbcf31bfd	-0.029676432
224	0x3bfa048b	0.007629936
225	0x000005eb	2.123e-42
226	0x00009497	5.3304e-41
227	0x80005a04	-3.2292e-41
228	0x8000af3c	-6.2862e-41
229	0x00002b23	1.5475e-41
230	0x00006d66	3.9245e-41
231	0x0000da08	7.8215e-41
232	0x8000b1e2	-6.3812e-41
233	0x0000ce07	7.3909e-41
234	0x3ba62efb	0.0050715185
235	0x3c4a9bc8	0.012366243
236	0x3c42aa1a	0.011881376
237	0x3b21b55e	0.0024674754
238	0x3c1252a3	0.008930835
239	0x3c00c68a	0.007859835
240	0xba92e3bf	-0.001120679
241	0x3baa5542	0.005198152
242	0x3b98f96c	0.0046684053
243	0xbc81eb4e	-0.015859272
244	0xbc3fdc2c	-0.011710208
245	0xbbba8000	-0.0056915283
246	0xbc1be047	-0.009513921
247	0x3b09af54	0.0021009045
248	0x3d25496d	0.040353227
249	0x3c3c6265	0.011498068
250	0xbc61d516	-0.013783714
251	0x3b0a569a	0.0021108747
252	0x00004588	2.4943e-41
253	0x0000a37a	5.8644e-41
254	0x00005ec9	3.4003e-41
255	0x80005ce0	-3.3317e-41

e_conv5.bias f4 [32]
0	0x3ca9e6bb	0.020739904
1	0xb81840d2	-3.6299993e-05
2	0x9e1cf551	-8.3093015e-21
3	0x3c6235f3	0.013806808
4	0x9dfc031a	-6.670705e-21
5	0x3bc11757	0.005892675
6	0x3c42740d	0.011868489
7	0x3cea8fa0	0.028632939
8	0x3c49d552	0.012318926
9	0xb6d973e3	-6.480595e-06
10	0x3d2d05e1	0.042241935
11	0x3ce9644c	0.028490208
12	0x9558ea49	-4.380567e-26
13	0xbaaa1cb4	-0.0012978525
14	0x3cd8cc87	0.026464714
15	0x3d0bf8da	0.03417287
16	0x3b4089ed	0.0029379085
17	0x3a8ecf69	0.0010895553
18	0x93111ae6	-1.8314835e-27
19	0x3bed9638	0.0072505735
20	0x3cd43291	0.025903018
21	0x3cee6757	0.02910201
22	0x3c2180f2	0.009857403
23	0xa5e44d6f	-3.9604166e-16
24	0x3ca350f8	0.01993607
25	0x9cb74ce6	-1.2129802e-21
26	0x3cb264de	0.021776613
27	0x3c17fee3	0.009277078
28	0x3d297fd0	0.041381657
29	0xb8cdb24d	-9.808373e-05
30	0xb390bdcf	-6.7400485e-08
31	0xb1236f0e	-2.378275e-09

e_conv7.weight f4 [8, 64, 3, 3]
0	0x3a0b5eea	0.00053165725
1	0x3b336516	0.0027373484
2	0xbafd6775	-0.0019333201
3	0x3c19791c	0.009367254
4	0x3c0b7a94	0.008513112
5	0x3bb7c683	0.0056083812
6	0x3c28331c	0.010266092
7	0x3c0f0b90	0.008730784
8	0x3bb35992	0.005473324
9	0x3acaafa7	0.0015463725
10	0x3b0a8370	0.0021135472
11	0x3bc2a558	0.0059401207
12	0x3bb8aaf4	0.0056356136
13	0x3bafb9f2	0.0053627426
14	0x3c19d8e3	0.009390089
15	0x3c01934c	0.0079086535
16	0x3c1ba200	0.009499073
17	0x3c5f1eaa	0.013618151
18	0x80009d24	-5.6371e-41
19	0x80009317	-5.2766e-41
20	0x00006436	3.5949e-41
21	0x80012e38	-1.08416e-40
22	0x00005601	3.0852e-41
23	0x800044b1	-2.4642e-41
24	0x80017596	-1.34017e-40
25	0x0000d165	7.5117e-41
26	0x800069fd	-3.8021e-41
27	0x2c360118	2.5864363e-12
28	0x2c15ab09	2.1269117e-12
29	0xaaefc52e	-4.259175e-13
30	0xac119b00	-2.0691782e-12
31	0xac691a30	-3.3125828e-12
32	0xaa0a77c1	-1.229841e-13
33	0x2b0bf3dd	4.972115e-13
34	0x2b9d71e7	1.1187135e-12
35	0x2b20390a	5.6922576e-13
36	0xb9d60b68	-0.0004082576
37	0xba905f7e	-0.0011014787
38	0xbbc979fb	-0.0061485744
39	0x3bba16e9	0.0056790006
40	0x3b7155a6	0.0036824732
41	0xba64b36b	-0.0008724245
42	0x3b97c7df	0.004631981
43	0x3b6c12b3	0.0036021888
44	0xbaa813a0	-0.0012823232
45	0xbc2163b0	-0.0098504275
46	0xbbee7731	-0.0072773923
47	0xbbb6a7c8	-0.0055742003
48	0x3a162ab3	0.00057284086
49	0x3ba50882	0.0050364146
50	0x3bb63d69	0.00556152
51	0x3bb381bf	0.0054781134
52	0x3c2243c1	0.009903849
53	0x3c2ecf96	0.0106696095
54	0x3be09e65	0.0068548196
55	0x3bcd492c	0.0062648263
56	0x3bc58179	0.0060273972
57	0x3b27f18f	0.0025626158
58	0x3bd98521	0.0066381847
59	0x3bae5f27	0.0053214016
60	0x3b892e56	0.004186432
61	0x3bb494a8	0.0055108853
62	0x3bcdd8bb	0.00628194
63	0xbc6a90a0	-0.014316708
64	0xbccf88c7	-0.025333775
65	0xbd1e4540	-0.03864026
66	0x3a3105ca	0.0006752877
67	0xbc269450	-0.010167196
68	0xbcc1a596	-0.023638528
69	0x3c480ed7	0.012210569
70	0xbb2e2f8f	-0.002657864
71	0xbc88bbd5	-0.016691128
72	0xaab5b822	-3.2279827e-13
73	0xa9ec96f3	-1.0506691e-13
74	0x2a08202d	1.209039e-13
75	0x2a7027f1	2.133014e-13
76	0x2a06194f	1.1910372e-13
77	0x29edcdb7	1.05606e-13
78	0x2a8c2b83	2.4899188e-13
79	0x2a384e51	1.6369654e-13
80	0x2a89f9d3	2.450944e-13
81	0x0000c9d3	7.2401e-41
82	0x800020e0	-1.1793e-41
83	0x8000ecde	-8.4972e-41
84	0x800132e4	-1.10092e-40
85	0x00005a7e	3.2462e-41
86	0x80009357	-5.2856e-41
87	0x0000d4a1	7.6277e-41
88	0x00018ded	1.42749e-40
89	0x00005741	3.1301e-41
90	0x3b073b1f	0.0020634604
91	0xba8aa878	-0.0010578772
92	0xb8ed117c	-0.000113042974
93	0x3ab60176	0.0013885933
94	0xbabb7cf1	-0.0014304203
95	0xb9d596d6	-0.00040738907
96	0xba9360f3	-0.0011244103
97	0xbb8906f1	-0.0041817357
98	0xbb3b6a2e	-0.0028597224
99	0xbbe5ef57	-0.007017057
100	0xbbad836a	-0.005295207
101	0xbc2203b8	-0.009888582
102	0xbb0a2cb0	-0.0021083765
103	0x39ff9122	0.00048745523
104	0xbba409fb	-0.0050060726
105	0xbb46036a	-0.0030214437
106	0xba9dba31	-0.0012033639
107	0xbbc7653e	-0.006085067
108	0x3a931a75	0.0011223095
109	0x3ba6afab	0.005086859
110	0x3b6b0adf	0.0035864634
111	0xb8f850d3	-0.00011840616
112	0x3b8c7e2d	0.0042875023
113	0x3b294981	0.0025831165
114	0xbbbe9b79	-0.0058168736
115	0xbaf20aff	-0.0018466412
116	0xbb4d0d5a	-0.0031288476
117	0xbca54f8c	-0.020179532
118	0xbcbcef4c	-0.023063324
119	0xbc17b645	-0.009259765
120	0xbc959083	-0.018257385
121	0xbcb2f026	-0.021843027
122	0xbbfd8be9	-0.007737626
123	0xbb29049c	-0.00257901
124	0xbbc71e43	-0.0060766055
125	0x3c1a8188	0.009430297
126	0xbaa8af97	-0.0012869713
127	0x3b86485c	0.0040979814
128	0x3b386f08	0.0028142352
129	0x39330dfa	0.00017075977
130	0x3b973179	0.004614052
131	0x3b9f0fb9	0.004854169
132	0x3b18a9cf	0.0023294573
133	0x3bf085ae	0.0073401546
134	0x3be61539	0.007021573
135	0xbb53e41e	-0.0032332013
136	0xbb1dc6c1	-0.0024074765
137	0xbb48aa3a	-0.003061904
138	0x3b0aae19	0.00211609
139	0x3a90424a	0.0011006084
140	0x3a6d94b4	0.0009062991
141	0x3b00a7dc	0.0019631302
142	0x3a99ac1c	0.0011724266
143	0x3acc10da	0.0015568987
144	0x80012c2c	-1.07681e-40
145	0x000090cd	5.1945e-41
146	0x80012a34	-1.06975e-40
147	0x000053ce	3.0063e-41
148	0x80007583	-4.2155e-41
149	0x800069e9	-3.7993e-41
150	0x000034c7	1.8933e-41
151	0x0000e79a	8.3083e-41
152	0x00002a52	1.5182e-41
153	0x3bf4684d	0.0074587227
154	0x3d472173	0.048615884
155	0x3c720772	0.014772283
156	0x3d1e092a	0.03858296
157	0x3da2a002	0.07940675
158	0x3d3f2102	0.046662338
159	0xbc0a8c82	-0.008456351
160	0x3d04e932	0.032448955
161	0xba5a6279	-0.00083307136
162	0x0000c705	7.1395e-41
163	0x80006041	-3.453e-41
164	0x800139ef	-1.12618e-40
165	0x00009fa8	5.7274e-41
166	0x0000bb1c	6.7122e-41
167	0x800178ff	-1.35241e-40
168	0x800062c0	-3.5425e-41
169	0x8000f5df	-8.8202e-41
170	0x00010ff6	9.7561e-41
171	0xbc27843d	-0.010224399
172	0xbb1d5125	-0.0024004665
173	0xbc0e2ee1	-0.008678169
174	0xbc15d5ff	-0.009145259
175	0xbb1356b9	-0.002248211
176	0xbc24736a	-0.0100372825
177	0xbc80040a	-0.015626926
178	0xbc265c93	-0.010153907
179	0xbc8a025b	-0.016846826
180	0xbb64a68a	-0.0034889304
181	0x3b729e3b	0.0037020582
182	0xb9928cf9	-0.00027952323
183	0x3a81261a	0.0009853274
184	0x3c06d724	0.008230004
185	0x3b8d45de	0.0043113073
186	0xbb715e8d	-0.0036830038
187	0x3b684dbd	0.0035446726
188	0xba14e94e	-0.0005680517
189	0x80018925	-1.41034e-40
190	0x800111ad	-9.8176e-41
191	0x00007830	4.3115e-41
192	0x8000e0c1	-8.0627e-41
193	0x8000f13e	-8.6541e-41
194	0x80002dbb	-1.6405e-41
195	0x8000c142	-6.9328e-41
196	0x00007f2b	4.5619e-41
197	0x00018e06	1.42784e-40
198	0xbb133d92	-0.0022467119
199	0xba3c80f9	-0.0007190849
200	0xbbc63d43	-0.0060497834
201	0x3b96b885	0.004599633
202	0x3bd3493d	0.0064479397
203	0x3a5c6926	0.00084080023
204	0x3b555d52	0.0032556844
205	0x3b9902c3	0.0046695187
206	0xba26c0cf	-0.0006361128
207	0x8000bfbb	-6.878e-41
208	0x8000182b	-8.67e-42
209	0x00004fca	2.8623e-41
210	0x80010970	-9.5221e-41
211	0x0000fd62	9.0897e-41
212	0x80000c67	-4.449e-42
213	0x8000c9c4	-7.238e-41
214	0x000104a7	9.3504e-41
215	0x80002bbd	-1.569e-41
216	0x9a84b807	-5.489123e-23
217	0x9a0994e7	-2.8451218e-23
218	0x1a2b5c48	3.5436515e-23
219	0x9ae46bf2	-9.4472985e-23
220	0x1a8b0320	5.74941e-23
221	0x9af0743d	-9.9449467e-23
222	0x9a32c0ab	-3.6965173e-23
223	0x9ac0d7cf	-7.9757996e-23
224	0x1a49f2be	4.176191e-23
225	0x3b9d9fc8	0.004810307
226	0x3c059cbe	0.008155046
227	0x3b10dff6	0.0022106147
228	0x3b3a887f	0.0028462706
229	0x3bd3cbbe	0.006463497
230	0x3ab50335	0.001381016
231	0xbae7efe1	-0.0017695391
232	0x3b0728ea	0.0020623752
233	0xbb781ed0	-0.0037860163
234	0x3ba1f3d5	0.004942397
235	0x3bba528f	0.0056861113
236	0x3d50bd4f	0.05096179
237	0xbd2c0320	-0.041995168
238	0xbd2535cf	-0.04033452
239	0x39c39ce0	0.0003731018
240	0xbd3fe2ad	-0.046847034
241	0xbd27a0f7	-0.040924992
242	0x3b284d49	0.0025680831
243	0x3b966864	0.004590081
244	0x3ba63584	0.0050722975
245	0x3b52df0a	0.0032176399
246	0x3c34644f	0.011010244
247	0x3c3470ec	0.011013251
248	0x3c30af26	0.010783946
249	0x3bfd8d1e	0.0077377697
250	0x3c2bb24d	0.010479522
251	0x3c11e590	0.00890483
252	0xbca70c16	-0.020391505
253	0x3cb1d896	0.021709722
254	0xbc9cb47e	-0.019129034
255	0x3c61c475	0.013779749

e_conv7.bias f4 [8]
0	0x3ca34560	0.019930542
1	0x3bda1bcc	0.0066561457
2	0x3d4f323b	0.050585013
3	0x3d0405cb	0.032232087
4	0x3c3eb094	0.011638779
5	0x3ca03701	0.019557478
6	0x3beca075	0.0072212764
7	0xbb4a795a	-0.0030895085
