snapshots/Epoch109.pth (torch, 304045 bytes, 14 tensors)

e_conv1.weight f4 [32, 3, 3, 3]
5.6601e-41 7.7712e-41 2.7606e-41 -1.04485e-40 1.12429e-40 -6.9933e-41 2.2712e-41 -1.375e-41
-4.01e-42 6.1444e-41 4.3932e-41 8.9488e-41 -9.476e-41 -5.0668e-41 1.43036e-40 1.44077e-40
1.54619e-40 -8.0949e-41 1.39101e-40 -7.0085e-41 -4.4358e-41 1.19648e-40 -5.3269e-41 -5.4474e-41
-7.008e-41 -1.32992e-40 9.6154e-41 0.0038112465 0.004199948 -0.00574232 0.017411422 0.013746007
0.020198368 0.040634815 0.029549219 0.044995822 0.007971603 -0.0064466777 0.023618434 0.006530188
0.011626142 0.018387979 0.038862813 0.03742993 0.036071435 -0.011573138 -0.013203585 -0.02699554
-0.008956259 -0.013716358 -0.017241068 -0.0046119285 -0.006588987 0.020430423 -0.016553221 -0.04045613
-0.022747135 -0.0074521946 -0.02920109 -0.025816254 0.0010056148 -0.01385776 -0.016485905 0.00027712548
0.0077823102 0.0042513376 0.0034120108 0.0071011567 0.0038702574 0.042536527 0.020841861 -0.0121297855
0.037107777 0.03907051 0.03582843 0.046692282 0.0352112 0.04290806 0.050447404 0.030119756
0.029512057 -0.009896942 0.0069691804 0.010050773 -0.027605765 -0.008908381 0.008763029 -0.028186424
-0.01259952 0.028601944 -0.02872087 0.003117283 0.012025647 -0.019893479 -0.0067343465 0.009968922
-0.037394747 0.003006286 0.027251739 -0.0064128335 0.0021473886 -7.807424e-05 -0.011246328 0.007820882
0.004311139 -0.026691686 0.0022578738 0.028068949 0.027151885 0.025850033 0.07040268 0.011799391
0.006576178 0.04306044 -0.0019376397 -0.0032840506 0.031937502 0.026222585 0.025599353 0.064375356
0.0026494528 -0.003313931 0.025332509 -0.0057990365 0.006686414 0.03576899 0.013688798 0.0068431543
0.0426571 -0.016432203 -0.015158138 0.012143273 -0.028392702 -0.014311442 0.010288402 1.53937e-40
1.83576e-40 -1.2459e-41 -1.08456e-40 4.9872e-41 -9.8004e-41 1.41932e-40 -1.21764e-40 8.1654e-41
-8.033e-41 -7.1559e-41 4.2801e-41 -7.9835e-41 1.4886e-41 -7.5026e-41 9.2383e-41 7.5073e-41
6.5275e-41 1.3385e-41 5.5029e-41 9.9575e-41 -3.2404e-41 1.0091e-40 9.652e-41 -2.3962e-41
-4.4643e-41 -1.88665e-40 0.057769123 0.018467043 -0.023057403 0.039245296 0.014335512 -0.03588021
0.037292372 0.00037223395 -0.03880257 0.055486098 0.027847284 -0.036875162 0.035083335 0.011923762
-0.021561168 0.02572204 -0.02494942 -0.06216131 0.025403595 -0.0029221596 -0.026943224 0.015914
0.0050225733 -0.021017505 0.030489523 -0.016811537 -0.057511955 -1.12e-42 3.6036e-41 4.397e-41
-7.3089e-41 -4.8174e-41 5.5386e-41 -1.293e-42 8.839e-41 8.8639e-41 2.4006e-41 -5.701e-41
2.0037e-41 -8.3767e-41 -5.7382e-41 -6.489e-41 -2.2251e-41 1.08404e-40 4.7489e-41 5.3255e-41
6.893e-41 -9.995e-41 1.34033e-40 -7.99e-41 -5.0346e-41 7.9221e-41 1.2652e-41 -3.5558e-41
6.626e-41 8.3045e-41 -5.3799e-41 -4.246e-42 -6.7499e-41 7.7332e-41 -4.3254e-41 -2.5844e-41
-7.0176e-41 -9.7352e-41 5.5327e-41 7.6002e-41 -5.7031e-41 -6.5839e-41 2.8075e-41 -8.5192e-41
-2.0114e-41 1.05619e-40 -9.705e-42 -9.5281e-41 -3.9612e-41 1.4742e-41 5.2577e-41 1.11459e-40
-8.3459e-41 -8.278e-41 4.2119e-41 -0.058474533 -0.030737184 -0.056844275 -0.031568408 -0.017103037
-0.01845682 -0.012264285 0.014979467 0.009976947 -0.053183064 -0.015646152 -0.039112244 -0.020465124
00000000: c89d 0000 a1d8 0000 f44c 0000 4323 0180
00000010: 6839 0100 f2c2 0080 503f 0000 5426 0080
00000020: 2e0b 0080 48ab 0000 777a 0000 75f9 0000
00000030: 2708 0180 3e8d 0080 ba8e 0100 a191 0100
00000040: 04af 0100 a7e1 0080 c283 0100 5ec3 0080
00000050: a77b 0080 884d 0100 7e94 0080 da97 0080
00000060: 5bc3 0080 ba72 0180 0a0c 0100 1bc6 793b
00000070: b89f 893b 122a bcbb 66a2 8e3c ef36 613c
00000080: 0c77 a53c b170 263d 3411 f23c 8a4d 383d
00000090: 549b 023c a73e d3bb 727b c13c 30fb d53b
000000a0: 937b 3e3c 63a2 963c 9d2e 1f3d 2050 193d
000000b0: a4bf 133d 429d 3dbc d953 58bc c025 ddbc
000000c0: 46bd 12bc 93ba 60bc 243d 8dbc a91f 97bb
000000d0: 6ee8 d7bb b45d a73c 9f9a 87bc 54b5 25bd
000000e0: 3358 babc 8a31 f4bb 2037 efbc 9c7c d3bc
000000f0: d5ce 833a a80b 63bc 730d 87bc 274b 9139
00000100: c002 ff3b ce4e 8b3b 0b9c 5f3b d2b0 e83b
00000110: 25a4 7d3b c83a 2e3d 8dbc aa3c 02bc 46bc
00000120: 53fe 173d 6608 203d d5c0 123d 6840 3f3d
00000130: 9f39 103d 5dc0 2f3d f0a1 4e3d b5bd f63c
00000140: 45c3 f13c c926 22bc b95d e43b ffab 243c
00000150: 7c25 e2bc 75f4 11bc cf92 0f3c 37e7 e6bc
00000160: 386e 4ebc a04e ea3c 0848 ebbc 554b 4c3b
00000170: 3807 453c a6f7 a2bc cbab dcbb b054 233c
00000180: 3c2b 19bd 1c05 453b 0a3f df3c bf22 d2bb
00000190: 34bb 0c3b cabb a3b8 8542 38bc 2823 003c
000001a0: 7544 8d3b 86a8 dabc d6f8 133b daf0 e53c
000001b0: a16d de3c 73c3 d33c 482f 903d 3c52 413c
000001c0: fb7c d73b 2560 303d 66f8 fdba 3a39 57bb
000001d0: e6d0 023d bfd0 d63c bcb5 d13c 3ad7 833d
000001e0: 71a2 2d3b 892e 59bb 1f86 cf3c d805 bebb
000001f0: b519 db3b 8182 123d fb46 603c 8a3c e03b
00000200: 36b9 2e3d d49c 86bc d759 78bc 94f4 463c
00000210: d097 e8bc 8a7a 6abc b090 283c 1dad 0100
00000220: bcff 0100 bb22 0080 552e 0180 068b 0000
00000230: 3211 0180 a68b 0100 6e53 0180 9ee3 0000
00000240: eddf 0080 7ac7 0080 5077 0000 8cde 0080
00000250: 7f29 0000 24d1 0080 8701 0100 46d1 0000
00000260: f6b5 0000 5025 0000 6699 0000 9315 0100
00000270: 545a 0080 4c19 0100 0f0d 0100 cc42 0080
00000280: 727c 0080 ec0d 0280 519f 6c3d 3248 973c
00000290: e1e2 bcbc adbf 203d 7fdf 6a3c 21f7 12bd
000002a0: e3bf 183d 6528 c339 72ef 1ebd 6445 633d
000002b0: fd1f e43c 690a 17bd 8bb3 0f3d e25b 433c
000002c0: 0ca1 b0bc 07b7 d23c ba62 ccbc dc9c 7ebd
000002d0: 331b d03c b481 3fbb 09b8 dcbc 145e 823c
000002e0: 6694 a43b e72c acbc 2ac5 f93c 59b8 89bc
000002f0: a891 6bbd 1f03 0080 7464 0000 927a 0000
00000300: becb 0080 4a86 0080 659a 0000 9b03 0080
00000310: 65f6 0000 17f7 0000 eb42 0000 ec9e 0080
00000320: db37 0000 82e9 0080 f59f 0080 e3b4 0080
00000330: 073e 0080 302e 0100 6184 0000 7494 0000
00000340: 26c0 0000 9f16 0180 a175 0100 bbde 0080
00000350: 588c 0080 d6dc 0000 4523 0000 1f63 0080
00000360: b5b8 0000 7fe7 0000 f895 0080 d60b 0080
00000370: 29bc 0080 92d7 0000 9378 0080 0b48 0080
00000380: 9fc3 0080 610f 0180 3b9a 0000 ddd3 0000
00000390: fb9e 0080 88b7 0080 434e 0000 7bed 0080
000003a0: 1238 0080 6c26 0100 0e1b 0080 9b09 0180
000003b0: 6c6e 0080 1829 0000 9092 0000 b436 0100
000003c0: a6e8 0080 c2e6 0080 6975 0000 fe82 6fbd
000003d0: 8ccc fbbc 8bd5 68bd e04d 01bd ab1b 8cbc
000003e0: c232 97bc 24f0 48bc 706c 753c 5976 233c
000003f0: 7cd6 59bd 5c2c 80bc 2934 20bd 7aa6 a7bc

e_conv1.bias f4 [32]
-4.920741e-22 0.06377186 0.020098744 0.11576195 0.05894174 -6.084228e-29 0.06919269 -5.917396e-15
-8.6340895e-16 0.07828189 -2.6282696e-17 -2.5538795e-31 -0.009052316 0.061566465 -7.7074226e-21 0.15022346
0.121280834 0.09581008 0.17985113 0.15705715 -1.4326855e-23 0.1487096 -0.015389362 0.11720284
-1.8289527e-21 -0.0002249439 0.031115575 -2.8434714e-19 -1.238312e-17 -0.012761336 0.10865663 -2.249203e-24
00000000: 64b8 149c d29a 823d 1fa6 a43c 9a14 ed3d
00000010: e56c 713d e640 9a90 e6b4 8d3d 5832 d5a7
00000020: 56dc 78a6 4152 a03d 436a f2a3 9ac1 a58c
00000030: 2a50 14bc 1e2d 7c3d cf96 119e 2ed4 193e
00000040: 1662 f83d 1338 c43d e52a 383e 97d3 203e
00000050: 938f 8a99 5447 183e aa23 7cbc 0b08 f03d
00000060: 1731 0a9d ebde 6bb9 17e6 fe3c 53d9 a7a0
00000070: a16d 64a3 ec14 51bc 5e87 de3d 0e06 2e98

e_conv2.weight f4 [32, 32, 3, 3]
4.455e-41 -6.26e-42 5.6928e-41 -1.24137e-40 -6.2644e-41 -9.1771e-41 9.6384e-41 4.3132e-41
-3.5646e-41 0.0070282305 -0.014528721 0.0029299054 -0.0033788506 -0.0009939887 -0.0057477723 0.009946161
0.021441277 0.0007139835 -0.006932597 -0.008530959 -0.0060220277 0.0025988834 -0.0043467293 -0.0040796767
0.004272496 0.00158023 0.004027416 -0.01925624 0.014987263 0.027966369 -0.0115261 -0.0045515215
-0.0035401061 -0.027568951 0.0039666784 0.013482155 -1.8539586e-05 -0.0019951384 -0.00087129447 0.008432236
-0.011417786 0.005078353 0.010033501 -0.01367124 -0.007838257 2.3124e-41 8.1954e-41 -8.7044e-41
-1.8127e-41 9.822e-41 8.1071e-41 -1.60117e-40 -1.37549e-40 -4.5785e-41 0.0017670701 0.0058739986
-0.0018406514 -0.0016119916 0.0035440968 0.0043022824 0.005231896 0.0053666835 0.010789804 2.3283e-41
-5.4463e-41 1.05387e-40 2.7423e-41 1.23957e-40 -2.6433e-41 6.6602e-41 7.2503e-41 -1.11758e-40
-5.5609e-41 8.928e-41 -6.1485e-41 9.2278e-41 -4.4404e-41 -4.6688e-41 3.8728e-41 1.00853e-40
3.5883e-41 0.007331122 0.0015561486 0.007813406 -0.002629032 0.0021897396 0.004622937 0.0012523194
0.00050851214 -0.00087416114 1.4683e-41 -6.098e-42 5.164e-41 -1.1806e-41 -2.00206e-40 6.059e-41
-6.795e-41 -9.4173e-41 -3.7611e-41 7.3261e-41 2.1012e-41 9.9684e-41 -1.5674e-41 -2.208e-42
7.6117e-41 2.4247e-41 -5.4844e-41 -1.01406e-40 -0.0025149807 -0.0024869882 -0.0018878264 0.0009339194
0.00045759807 0.00057185336 0.0017969108 0.0012188815 0.000714057 0.0019394243 0.0069654123 0.0031641643
0.0025167775 0.0014889934 0.001984402 -0.000640909 0.004603008 0.0016551113 6.0246e-41 1.5563e-41
-1.7338e-41 1.04805e-40 -6.3591e-41 1.8873e-40 -6.5682e-41 3.0949e-41 8.4427e-41 0.0056102592
0.010795378 0.0041155796 0.012953192 0.014232644 0.0119527 -0.0018536444 -0.014912824 -0.0054977206
-0.011004437 -0.013487096 -0.004755926 -0.015095101 0.011870989 0.013438117 -0.022786012 0.0013118917
0.0006490411 0.01134118 0.0003120243 0.0024124724 -0.003008879 0.006379109 0.004431202 0.0037601893
0.009634177 0.011731474 0.0008400084 -0.018288288 -0.012626193 -0.0016078664 0.00078585726 0.015345178
-0.029350292 0.013776283 0.02902554 0.016218973 0.01581638 -0.000538228 0.0061070193 0.008308616
-0.00024834173 -0.008132853 -0.0052436823 0.022115566 -1.017499e-24 -5.6326266e-24 -4.8557564e-24 -3.485058e-24
-1.3618447e-24 -4.758413e-24 -2.0004917e-24 -1.968766e-24 -4.7626578e-24 -0.016110705 0.011262816 0.0155109055
-0.014897855 0.039318666 0.026507393 0.009750404 0.024088556 0.01491539 0.0022846437 0.00244866
-0.0046891966 -0.001960731 7.786776e-05 -0.0027116633 -0.006924373 0.0031038919 -0.0063379207 0.013011835
0.010077843 0.016836727 0.008284412 0.014710094 0.0044602356 -0.025684979 0.017290017 -0.001420331
7.0065e-41 9.7396e-41 -6.002e-42 -1.8273e-41 2.3301e-41 -7.4056e-41 7.4923e-41 7.2088e-41
-4.0475e-41 -1.0111846e-09 -6.0877536e-10 3.3299058e-10 -3.76198e-09 -1.3302678e-09 -4.6501047e-10 -2.97397e-09
-2.0650628e-09 -2.438666e-09 0.003356842 0.0017982583 0.0041890894 -0.0031164302 -0.0038342448 -0.011975482
0.012607447 -0.006860793 -0.016516848 -7.586693e-21 -2.7776632e-21 6.8144286e-21 3.0980578e-21 1.0216827e-20
-6.130273e-21 -4.578565e-21 -5.895058e-21 1.2003474e-20 -1.4990288e-35 1.3709844e-35 -3.9379448e-36 -6.9284616e-36
00000000: 307c 0000 7311 0080 b19e 0000 0b5a 0180
00000010: a0ae 0080 d2ff 0080 ae0c 0100 3c78 0000
00000020: 5e63 0080 124d e63b df09 6ebc a803 403b
00000030: b56f 5dbb ba48 82ba cf57 bcbb 39f5 223c
00000040: 9ea5 af3c 9f2a 3b3a d72a e3bb 6fc5 0bbc
00000050: 6e54 c5bb 0752 2a3b 026f 8ebb cfae 85bb
00000060: 4b00 8c3b b81f cf3a 6af8 833b 43bf 9dbc
00000070: 238d 753c ba19 e53c f8d7 3cbc ee24 95bb
00000080: 2001 68bb 48d8 e1bc e9fa 813b 42e4 5c3c
00000090: 7585 9bb7 dec0 02bb 9567 64ba 5c27 0a3c
000000a0: aa11 3bbc 5068 a63b 8e63 243c 56fd 5fbc
000000b0: 086c 00bc 7640 0000 74e4 0000 a5f2 0080
000000c0: 8832 0080 cc11 0100 fee1 0000 57be 0180
000000d0: 6e7f 0180 a17f 0080 099d e73a ac7a c03b
000000e0: 0342 f1ba 7649 d3ba 1444 683b 29fa 8c3b
000000f0: 5370 ab3b 01db af3b b8c7 303c e740 0000
00000100: d297 0080 c725 0100 724c 0000 8b59 0100
00000110: af49 0080 a9b9 0000 1cca 0000 8937 0180
00000120: 049b 0080 e0f8 0000 65ab 0080 3c01 0100
00000130: c87b 0080 2682 0080 f56b 0000 2319 0100
00000140: 0764 0000 e939 f03b aff7 cb3a cd03 003c
00000150: d64b 2cbb bc81 0f3b 027c 973b de24 a43a
00000160: ac4d 053a f627 65ba ee28 0000 0011 0080
00000170: f48f 0000 e920 0080 182e 0280 e6a8 0000
00000180: 6bbd 0080 8406 0180 d868 0080 39cc 0000
00000190: 933a 0000 e115 0100 b12b 0080 2806 0080
000001a0: 2fd4 0000 9743 0000 e298 0080 ae1a 0180
000001b0: 60d2 24bb bdfc 22bb f170 f7ba 45d2 743a
000001c0: c6e9 ef39 6ee8 153a 5286 eb3a e0c2 9f3a
000001d0: 8e2f 3b3a 4834 fe3a 1d3e e43b de5d 4f3b
000001e0: 85f0 243b 542a c33a be0c 023b ad02 28ba
000001f0: d4d4 963b 52f0 d83a f1a7 0000 622b 0000
00000200: 5530 0080 2724 0100 44b1 0080 1a0e 0200
00000210: 18b7 0080 4656 0000 59eb 0000 44d6 b73b
00000220: 19df 303c fcdb 863b a039 543c 0930 693c
00000230: 42d5 433c fcf5 f2ba eb54 74bc 3926 b4bb
00000240: f44b 34bc fbf8 5cbc 99d7 9bbb 7151 77bc
00000250: 897e 423c 8c2b 5c3c bba9 babc c8f3 ab3a
00000260: 6924 2a3a 5bd0 393c 3197 a339 921a 1e3b
00000270: 9d30 45bb d807 d13b 9e33 913b 826d 763b
00000280: abd8 1d3c 5e35 403c 0234 5c3a 52d1 95bc
00000290: 18de 4ebc 0bbf d2ba fd01 4e3a 576a 7b3c
000002a0: 0670 f0bc ebb5 613c f8c6 ed3c a7dd 843c
000002b0: 5a91 813c df17 0dba 641d c83b dc20 083c
000002c0: dd33 82b9 a83f 05bc 32d3 abbb b42b b53c
000002d0: 4a73 9d97 d5e6 d998 15d9 bb98 58d2 8698
000002e0: 3abc d297 0a15 b898 d2c7 1a98 6e53 1898
000002f0: 143f b898 99fa 83bc ad87 383c 7421 7e3c
00000300: 2216 74bc 9c0c 213d 0826 d93c 29c0 1f3c
00000310: 5d55 c53c ae5f 743c f6b9 153b b379 203b
00000320: d5a7 99bb 9c7f 00bb ef4c a338 29b6 31bb
00000330: dae5 e2bb aa6a 4b3b 55ae cfbb 972f 553c
00000340: 8a1d 253c 2ded 893c 58bb 073c 9b02 713c
00000350: 2b27 923b 4e69 d2bc cba3 8d3c 662a baba
00000360: 50c3 0000 800f 0100 bb10 0080 f032 0080
00000370: f440 0000 70ce 0080 dbd0 0000 f4c8 0000
00000380: d470 0080 e5f9 8ab0 c256 27b0 4210 b72f
00000390: ba42 81b1 a3d4 b6b0 68a4 ffaf a25e 4cb1
000003a0: f8e8 0db1 7795 27b1 77fe 5b3b 89b3 eb3a
000003b0: a144 893b 063d 4cbb f447 7bbb d034 44bc
000003c0: 778f 4e3c 81d0 e0bb 574e 87bc ff4e 0f9e
000003d0: d2df 519d 8eb8 001e 2715 6a1d 8bfd 401e
000003e0: 5d98 e79d 2af9 ac9d 81b5 de9d 3dbd 621e
000003f0: 7267 9f85 bfc9 9105 6c80 a784 225a 1385

e_conv2.bias f4 [32]
-0.032784693 -1.8750787e-05 0.043799173 -0.00041169615 0.03863072 0.033287488 0.001553174 0.04365172
0.054975264 0.03564316 -0.026176075 -3.9563125e-07 -1.2734549e-17 -0.008211039 0.0100599015 -1.6311313e-18
0.031771842 0.0118838325 -6.9835354e-05 -0.011876865 -1.5630334e-13 0.01548364 -0.00017498725 0.03918936
-7.7425656e-19 0.055144504 0.046206743 -1.1413446e-05 -3.9429235e-18 0.0006901477 -0.00029509046 0.050260477
00000000: 3e49 06bd 024b 9db7 c366 333d ecd8 d7b9
00000010: 3f3b 1e3d 7658 083d df93 cb3a 25cc 323d
00000020: be2d 613d 90fe 113d 356f d6bc 2567 d4b4
00000030: 35e9 6aa3 9887 06bc 49d2 243c 66b6 f0a1
00000040: 3123 023d 68b4 423c 9274 92b8 2f97 42bc
00000050: 5ffb 2faa 18af 7d3c c87c 37b9 0685 203d
00000060: 2c85 64a1 34df 613d 4843 3d3d 617c 3fb7
00000070: dc77 91a2 07eb 343a 5fb6 9ab9 eedd 4d3d

e_conv3.weight f4 [32, 64, 3, 3]
-4.2443e-41 -5.0395e-41 9.0588e-41 -2.3826e-41 -4.875e-41 6.89e-42 8.4982e-41 6.9562e-41
6.5693e-41 -0.00047260552 0.012514959 0.017277136 -0.00816842 0.0046046427 0.008379829 -0.026036667
-0.007933646 -0.00793762 -0.004465449 0.0065929075 0.0066315443 -0.0053883023 0.0051116473 0.0043348894
-0.0122412825 -0.0043948167 -0.0052883495 0.0053618746 0.006621718 0.007945508 0.0016158216 0.0037807608
0.004022736 -0.008828539 -0.010525722 -0.013905056 -0.0005684137 0.014500432 0.014507079 -0.0019516153
0.008418668 0.0063181156 -0.015235519 -0.009043861 -0.007998555 1.34298e-40 -5.6105e-41 3.5872e-41
8.4703e-41 -7.4e-41 -5.0147e-41 -1.13522e-40 1.1261e-41 -1.35747e-40 -9.392551e-05 0.00787619
0.0013066328 0.0007542581 0.013054175 0.007453581 -0.005912505 0.0034977891 -0.0060450295 9.7533e-41
-1.7083e-41 -3.5667e-41 -9.0147e-41 8.3611e-41 -3.7591e-41 8.714e-41 -1.03625e-40 -7.7092e-41
1.62808e-40 6.0096e-41 7.2638e-41 4.6324e-41 -5.0147e-41 -6.7974e-41 1.4195e-41 -3.9151e-41
-9.201e-41 0.0023268787 0.0039802548 -0.0032620633 0.004907507 0.0039507286 -0.0028002851 -0.0023885223
-0.0038731312 -0.007239675 -5.4701e-41 -9.6495e-41 -5.9184e-41 3.156e-41 -1.6022e-41 -2.8839e-41
7.3054e-41 9.4717e-41 8.0178e-41 9.3783e-41 -2.8575e-41 -1.0789e-41 2.8875e-41 -8.1787e-41
-9.2801e-41 -6.7872e-41 -8.884e-41 4.2214e-41 -0.0018446266 -0.0007559265 -0.0010724298 -0.0005415752
-0.0005485811 -0.000742649 8.917478e-05 -0.00017813292 0.00019381582 -0.0050900555 -0.0014969419 -0.0033503638
-0.006548615 -0.0026408294 -0.0041749133 -0.012081256 -0.008412673 -0.010249102 8.696e-41 -7.5597e-41
-1.06602e-40 -1.55028e-40 8.273e-41 9.5245e-41 6.5689e-41 -2.0187e-41 6.278e-41 -0.015704965
0.007657798 0.016134458 -0.00057400746 0.004192926 0.0073296106 -0.03968172 -0.021924661 -0.014379392
-0.0011995236 0.008020853 0.015395887 -0.008147437 0.00805344 -0.0014360477 -0.025447665 -0.008723561
-0.008581983 0.0016210966 0.0048639528 0.00072887837 0.001055354 0.007012532 0.003187524 -0.008275821
-0.0027911093 -0.008254143 -0.0009426548 0.014435707 0.017637394 0.00049338094 0.0026460008 0.01947926
-0.033918206 -0.016013611 -0.0076637627 0.006256549 0.00448421 0.007871254 0.0011514825 0.00047651204
-0.005915264 -0.017040823 -0.012536193 -0.0105062025 8.3919756e-26 1.1489826e-25 4.9126726e-26 2.0060539e-25
4.106378e-25 3.8216616e-25 -6.691796e-26 1.8479376e-26 2.26156e-25 -0.002276213 0.0052617523 0.0023070474
-0.0026827352 0.009664648 0.012119614 -0.022800116 -0.018359942 -0.005483993 -0.0056873164 0.0042813355
0.014044553 -0.014025604 -0.0021201118 0.0072656022 -0.021324039 -0.010412261 -0.0027380504 -0.0023464775
0.007280295 0.0034855914 0.0015726417 0.009710259 0.008611164 -0.012212852 -0.0043729637 -0.003896239
-4.4919e-41 -3.9271e-41 -1.05103e-40 -8.3617e-41 -4.386e-42 3.9629e-41 3.099e-41 4.7916e-41
-9.2766e-41 1.7182887e-09 1.2897098e-09 -2.505608e-10 1.1901198e-09 1.2999547e-09 3.82918e-10 2.078814e-09
2.0138462e-09 -6.5537864e-10 -0.0048733023 0.0029861617 0.011694165 -0.007914789 0.0184377 0.007339707
-0.022099247 -0.010751347 -0.009158909 -3.105077e-20 2.5943342e-20 -5.477937e-20 -4.2489473e-20 -5.6907506e-21
-4.9038362e-20 -1.9450428e-20 1.3663229e-20 1.9319777e-20 -1.3932258e-35 2.659204e-35 5.989798e-36 2.0380041e-35
00000000: 5076 0080 7b8c 0080 86fc 0000 6b42 0080
00000010: e587 0080 3513 0000 e5ec 0000 e9c1 0000
00000020: 20b7 0000 0ac8 f7b9 8b0b 4d3c c888 8d3c
00000030: d6d4 05bc 8be2 963b 8d4b 093c d94a d5bc
00000040: 20fc 01bc cb0c 02bc e752 92bb 5109 d83b
00000050: 6d4d d93b 5b90 b0bb 9b7f a73b b00b 8e3b
00000060: a98f 48bc 6502 90bb e449 adbb aab2 af3b
00000070: fffa d83b e02d 023c fac9 d33a a4c6 773b
00000080: 28d1 833b 94a5 10bc 1474 2cbc 08d2 63bc
00000090: 9901 15ba 3893 6d3c 19af 6d3c 58cd ffba
000000a0: 74ee 093c 3208 cf3b 669e 79bc b42c 14bc
000000b0: 5f0c 03bc 5e76 0100 669c 0080 ff63 0000
000000c0: 1eec 0000 48ce 0080 ca8b 0080 743c 0180
000000d0: 641f 0000 687a 0180 e0f9 c4b8 230b 013c
000000e0: 5243 ab3a 67b9 453a 2ee1 553c 2b3d f43b
000000f0: b0bd c1bb 2a3b 653b 6215 c6bb e20f 0100
00000100: 9f2f 0080 6d63 0080 4bfb 0080 13e9 0000
00000110: ca68 0080 e9f2 0000 dd20 0180 e7d6 0080
00000120: d8c5 0100 86a7 0000 7cca 0000 2281 0000
00000130: ca8b 0080 7cbd 0080 9227 0000 236d 0080
00000140: 7d00 0180 8c7e 183b cc6c 823b 57c8 55bb
00000150: 27cf a03b 1d75 813b fd84 37bb c188 1cbb
00000160: 5cd4 7dbb cc3a edbb 7c98 0080 fd0c 0180
00000170: fba4 0080 fa57 0000 aa2c 0080 6450 0080
00000180: a5cb 0000 0808 0100 81df 0000 6e05 0100
00000190: a84f 0080 131e 0080 7e50 0000 fde3 0080
000001a0: b102 0180 33bd 0080 a6f7 0080 ad75 0000
000001b0: 66c7 f1ba 5e29 46ba c690 8cba 7ff8 0dba
000001c0: a8ce 0fba 55ae 42ba 5803 bb38 31c9 3ab9
000001d0: 0a3b 4b39 7bca a6bb 0935 c4ba c791 5bbb
000001e0: c495 d6bb c411 2dbb b6cd 88bb 76f0 45bc
000001f0: 4fd5 09bc d9eb 27bc 69f2 0000 bcd2 0080
00000200: 2a29 0180 28b0 0180 9ee6 0000 8109 0100
00000210: 1db7 0000 4638 0080 01af 0000 b3a7 80bc
00000220: 44ee fa3b 692c 843c fd78 16ba d064 893b
00000230: 3b2d f03b 4d89 22bd 599b b3bc 8b97 6bbc
00000240: 5539 9dba e569 033c 083f 7c3c d47c 05bc
00000250: 93f2 033c c439 bcba 9f77 d0bc 44ed 0ebc
00000260: 729b 0cbc fa7a d43a cb61 9f3b 3312 3f3a
00000270: ce53 8a3a 62c9 e53b c7e5 503b 4f97 07bc
00000280: 0beb 36bb 633c 07bc 7e1c 77ba be83 6c3c
00000290: 4c7c 903c 3c56 013a 8768 2d3b f892 9f3c
000002a0: d1ed 0abd fa2e 83bc 4d20 fbbb bd03 cd3b
000002b0: 48f0 923b 6ff6 003c 57ed 963a 5dd4 f939
000002c0: d5d4 c1bb 3299 8bbc 9b64 4dbc 3522 2cbc
000002d0: 77c6 cf15 b63c 0e16 8643 7315 6356 7816
000002e0: 282c fe16 a58c ec16 4cae a595 c902 b714
000002f0: d9fb 8b16 842c 15bb c76a ac3b d531 173b
00000300: d4d0 2fbb 7958 1e3c 5891 463c 4fc7 babc
00000310: 9767 96bc 11b3 b3bb ab5c babb 724a 8c3b
00000320: 201b 663c a6cb 65bc 93f1 0abb 4a14 ee3b
00000330: c0af aebc 3098 2abc dd70 33bb 5cc7 19bb
00000340: 8a8f ee3b 856e 643b 1921 ce3a c717 1f3c
00000350: d715 0d3c 6a18 48bc 144b 8fbb 0b58 7fbb
00000360: 377d 0080 796d 0080 fc24 0180 17e9 0080
00000370: 3a0c 0080 786e 0000 6356 0000 9285 0000
00000380: 9802 0180 e928 ec30 a141 b130 4cbf 89af
00000390: 9e91 a330 17aa b230 eb82 d22f e2da 0e31
000003a0: f563 0a31 2c26 34b0 39b0 9fbb 7bb3 433b
000003b0: e298 3f3c 08ad 01bc a90a 973c ed81 f03b
000003c0: 7b09 b5bc 6b26 30bc 400f 16bc 14a2 129f
000003d0: 2707 f51e 1958 819f 9fa6 489f 90fd d69d
000003e0: be93 679f 40b4 b79e a90b 811e 5b78 b61e
000003f0: 3727 9485 3663 0d06 20c7 fe04 c0b7 d805

e_conv3.bias f4 [32]
0.038427815 0.030482963 -0.000103808765 0.010337787 0.038351722 -3.1603122e-06 -0.01283957 -1.3562289e-05
0.034040943 0.0055631357 0.032580998 -3.9247372e-33 -0.00046210742 -1.441196e-25 -5.061309e-06 -3.6203026e-05
0.085044645 -0.012780163 0.0690707 -0.008633626 -0.00065871194 0.018611593 -0.0010849513 -0.009929012
0.01301124 -2.1096474e-05 0.0053077084 0.0392458 -0.0007255803 -0.017599776 0.035646304 -0.01754008
00000000: 7c66 1d3d 68b7 f93c e8b3 d9b8 d25f 293c
00000010: b216 1d3d c015 54b6 0f5d 52bc 9689 63b7
00000020: 846e 0b3d f74a b63b a773 053d f706 a389
00000030: 0247 f2b9 5369 3296 50d4 a9b6 b4d8 17b8
00000040: e32b ae3d e463 51bc f074 8d3d 0d74 0dbc
00000050: 69ad 2cba 5777 983c ed34 8eba 4bad 22bc
00000060: 192d 553c 55f8 b0b7 49ec ad3b 34c0 203d
00000070: df34 3eba 682d 90bc dc01 123d 37b0 8fbc

e_conv4.weight f4 [32, 64, 3, 3]
-0.0027504507 0.009807587 -0.031950615 0.0042592064 -0.0057094716 -0.0064681377 0.01226586 -0.0030525469
-0.010741609 3.6665227e-20 3.523083e-20 2.8207718e-20 2.918478e-20 4.6116805e-20 2.2961337e-20 3.5024582e-20
2.1931506e-20 1.923041e-20 0.00011166288 0.0027158533 0.0016135932 -0.00057204516 0.0016584292 0.00018309998
-0.0033385206 -0.0014866301 -0.0041471203 4.346879e-17 4.3811975e-17 4.5251673e-17 4.5055297e-17 4.4394678e-17
4.729442e-17 3.9841065e-17 3.937956e-17 4.6696063e-17 -0.0013971615 -0.0063670347 -0.0195678 -0.0033954675
0.033414297 -0.000408007 -0.02620629 -0.006311627 0.0011891274 -0.0022396678 0.00016603811 -0.0046214694
0.00051031326 0.002032449 -0.0032140734 0.0029409623 0.004546469 -0.00040439918 0.0015820959 0.002181989
0.0012442832 -0.005193795 0.0011962899 -0.0013082913 -0.0014221901 -7.0697147e-06 -0.00039978104 -0.010687985
-0.013578835 -0.02041191 -0.017971069 0.014560211 0.0072461246 -0.008198423 0.0057271477 -0.0074656326
-0.015399692 0.0056778705 0.009984123 -0.0073410915 0.023581458 -0.0053238207 -0.004818108 -0.00836024
-0.018559132 -0.013344093 0.00024784097 -0.016465273 0.021485507 -0.009536276 0.010943068 0.003682289
0.0021624456 -0.00939751 0.0064383033 -0.0148675125 -0.0060215476 -0.011145573 0.012637116 0.03396949
-0.008805129 0.013111292 0.0016231415 3.2083075e-36 3.466279e-36 6.8612035e-37 2.5203552e-36 5.7637335e-36
2.0318769e-36 3.490472e-36 3.541601e-36 2.7582743e-36 2.793e-41 -5.4873e-41 1.9705e-41 1.1149e-41
2.0145e-41 -4.6341e-41 1.3238e-41 -1.9537e-41 -5.274e-41 -0.0102137 0.024061425 0.0077020274
0.008080731 0.014782313 -0.0059150853 -0.041132025 0.022717962 -0.0016951807 -0.0020746472 -0.0010707917
-0.0015645118 -0.0007566545 -0.00083245704 -0.0025721404 0.0006696233 -0.00042172367 -0.0033077085 -3.3208e-41
-7.4755e-41 1.6069e-41 -5.6185e-41 1.7619e-41 -8.2843e-41 -7.883e-41 -6.1001e-41 -8.784e-41
0.0037231974 -0.04105624 -0.020491563 -0.020048596 -0.02565868 0.010712736 0.01057743 0.0141732115
0.026259964 0.0015861795 -0.0015058876 -0.0013338167 0.0011133581 -0.0021927115 -0.0022159843 -0.00012383345
-0.0038447042 -0.0039923927 -4.1635122e-23 -5.771254e-23 -3.0229327e-23 -1.7185915e-23 -6.3374725e-23 1.04228405e-23
-2.7355866e-23 -1.5728935e-23 -4.7397723e-23 -0.0051275096 -0.008840929 0.004941676 -0.004279396 0.0051523577
-0.003782793 -0.0019502457 0.006560034 -0.005246465 -9.444e-41 -4.0192e-41 1.145e-42 -1.8564e-41
8.0947e-41 2.782e-42 -8.4636e-41 -9.487e-42 3.9494e-41 0.003598636 -0.00012156469 -0.0020156791
0.0026276393 -0.0010661323 -0.0040143076 0.0050686356 0.001431664 -0.0024329037 -3.1568346e-09 -3.1086156e-09
-2.8912595e-09 -2.7896216e-09 -2.9902436e-09 -2.9688383e-09 -2.7631513e-09 -2.8251401e-09 -2.794626e-09 -0.002476474
-0.003076324 -0.0019860175 -0.00300056 0.0009537949 0.0027219076 -0.0026699803 0.00030944482 -0.00080786855
4.9079e-41 7.5816e-41 6.9817e-41 7.5241e-41 7.411e-41 6.4371e-41 7.6358e-41 7.2842e-41
6.3654e-41 -0.000109760236 -0.006955492 -0.0055358633 0.0048781577 -0.0025274644 -0.0008138302 0.0041221855
-0.0027368418 -0.0012592811 0.009675504 -0.012887802 -0.0014106275 -0.003267681 -0.0049245493 0.0072322786
0.01263381 0.016863681 0.010222882 9.39e-43 6.98e-42 7.2631e-41 -9.1841e-41 8.5817e-41
-6.532e-41 8.2581e-41 8.699e-41 3.6547e-41 -4.4976e-41 -6.2185e-41 -5.9477e-41 -4.3283e-41
00000000: e840 34bb 00b0 203c a6de 02bd d090 8b3b
00000010: 8516 bbbb acf2 d3bb bff6 483c 3d0d 48bb
00000020: 93fd 2fbc 8a25 2d1f 765f 261f 0a35 051f
00000030: 3cd2 091f ccc7 591f 1bdd d81e 1f66 251f
00000040: 2123 cf1e 47a0 b51e 8d2c ea38 75fc 313b
00000050: 347f d33a 4df5 15ba a65f d93a 87fe 3f39
00000060: 15cb 5abb 07db c2ba 91e4 87bb e476 4824
00000070: 0d0c 4a24 bfaf 5024 e8c7 4f24 fcbb 4c24
00000080: 651b 5a24 07bc 3724 2e9b 3524 fb58 5724
00000090: f620 b7ba 8fa2 d0bb a74c a0bc 7e86 5ebb
000000a0: 6edd 083d c6e9 d5b9 93ae d6bc c4d1 cebb
000000b0: 7fdc 9b3a 64c7 12bb 841a 2e39 b26f 97bb
000000c0: 8bc6 053a d632 053b 34a3 52bb 29bd 403b
000000d0: 8cfa 943b 8a05 d4b9 545e cf3a b3ff 0e3b
000000e0: 3717 a33a b630 aabb d4cc 9c3a f97a abba
000000f0: c868 baba 6338 edb6 b499 d1b9 a91c 2fbc
00000100: c379 5ebc e136 a7bc 1038 93bc f48d 6e3c
00000110: e670 ed3b ae52 06bc ccaa bb3b 44a2 f4bb
00000120: fd4e 7cbc 6e0d ba3b 7294 233c 8a8d f0bb
00000130: e72d c13c 7273 aebb 38e1 9dbb 63f9 08bc
00000140: 5209 98bc 2fa1 5abc a7f0 8139 2ee2 86bc
00000150: 6002 b03c 0a3e 1cbc 8e4a 333c 8f52 713b
00000160: d1b7 0d3b 04f8 19bc 67f8 d23b de96 73bc
00000170: 6750 c5bb ec9b 36bc e80b 4f3c 9823 0b3d
00000180: 6343 10bc bfd0 563c 97bf d43a 6077 8804
00000190: 7070 9304 8379 6903 7a68 5604 8029 f504
000001a0: 5cda 2c04 e077 9404 9fa4 9604 e5a5 6a04
000001b0: dc4d 0000 f798 0080 ee36 0000 141f 0000
000001c0: 2838 0000 2e81 0080 e724 0000 7636 0080
000001d0: 0593 0080 5d57 27bc 771c c53c 4a61 fc3b
000001e0: 0b65 043c 8431 723c 55d3 c1bb 0e7a 28bd
000001f0: 051b ba3c d330 deba cef6 07bb cf59 8cba
00000200: 4e10 cdba 395a 46ba 3f39 5aba 5b91 28bb
00000210: a989 2f3a cb1a ddb9 24c6 58bb 925c 0080
00000220: 63d0 0080 cb2c 0000 9f9c 0080 1d31 0000
00000230: efe6 0080 bfdb 0080 0caa 0080 ddf4 0080
00000240: e300 743b 972a 28bd ecdd a7bc f43c a4bc
00000250: 2732 d2bc 7984 2f3c f54c 2d3c c236 683c
00000260: 231f d73c 5ae7 cf3a 3461 c5ba 76d3 aeba
00000270: 19ee 913a 98b3 0fbb 0c3a 11bb 4ad9 01b9
00000280: 6ff7 7bbb 9ed2 82bb c955 499a 558a 8b9a
00000290: 182e 129a 4436 a699 0e3b 999a 689b 4919
000002a0: ec48 049a f51e 9899 8a33 659a ab04 a8bb
000002b0: 8bd9 10bc c8ed a13b 2d3a 8cbb 1cd5 a83b
000002c0: bce8 77bb 639f ffba 8ef5 d63b 8aea abbb
000002d0: 4307 0180 0a70 0080 3103 0000 c033 0080
000002e0: a6e1 0000 c107 0000 eeeb 0080 721a 0080
000002f0: 186e 0000 18d7 6b3b 8cf0 feb8 7c19 04bb
00000300: 7934 2c3b 77bd 8bba 748a 83bb cc16 a63b
00000310: aca6 bb3a 5a71 1fbb 9fef 58b1 589f 55b1
00000320: 93af 46b1 8bb3 3fb1 ec7c 4db1 5b04 4cb1
00000330: dfe1 3db1 6424 42b1 950b 40b1 574c 22bb
00000340: 279c 49bb d827 02bb 0ba5 44bb 1808 7a3a
00000350: 0862 323b d6fa 2ebb fb3c a239 24c7 53ba
00000360: d088 0000 58d3 0000 9fc2 0000 bed1 0000
00000370: 97ce 0000 71b3 0000 dbd4 0000 0ecb 0000
00000380: 71b1 0000 142f e6b8 e5ea e3bb 3066 b5bb
00000390: f4d8 9f3b d1a3 25bb 3857 55ba 6613 873b
000003a0: 965c 33bb 760e a5ba 0186 1e3c 5c27 53bc
000003b0: cee4 b8ba 9726 56bb 1d5e a1bb c0fc ec3b
000003c0: 0afe 4e3c b425 8a3c e07d 273c 9e02 0000
000003d0: 7513 0000 77ca 0000 0400 0180 39ef 0000
000003e0: 16b6 0080 34e6 0000 7ef2 0000 e165 0000
000003f0: 607d 0080 59ad 0080 cca5 0080 a878 0080

e_conv4.bias f4 [32]
0.033028737 0.0027379394 -0.005413793 -1.2967149e-07 0.016716776 0.016191596 0.013268857 0.019219846
-4.130274e-18 -6.2516925e-21 0.018612778 0.025930595 0.024677042 0.013908953 0.022578787 0.012495485
-6.8681775e-06 0.06810443 -1.38853685e-11 0.031860013 0.00755888 -5.127895e-22 0.025114177 -1.760482e-12
-0.0005148735 0.03680035 -0.0009540061 0.03181008 0.0651121 0.02197426 2.2802747e-37 0.022768306
00000000: 2449 073d 006f 333b 3066 b1bb d43b 0bb4
00000010: 9ff1 883c 3da4 843c 9f65 593c f072 9d3c
00000020: 5661 98a2 a92e ec9d d379 983c 666c d43c
00000030: 8227 ca3c 61e2 633c 26f7 b83c ddb9 4c3c
00000040: 3275 e6b6 567a 8b3d 2446 74ad a57f 023d
00000050: 7bb0 f73b 2afb 1a9c 3fbc cd3c 0cc4 f7ab
00000060: 93f8 06ba f7bb 163d 4416 7aba 494b 023d
00000070: 7e59 853d 5d03 b43c fd2f 9b02 9984 ba3c

e_conv5.weight f4 [32, 64, 3, 3]
4.885785e-06 0.000886416 -0.0027437408 0.004742659 0.0040564286 -0.00016184154 0.0060667065 0.0059768273
0.0023207595 0.007126434 0.0005752549 0.001844507 0.0044315816 -0.0008829329 0.00010411499 0.0015863439
-0.0026191017 -0.0011883745 2.5534662e-38 2.2250593e-38 -1.7396807e-38 -2.1324981e-38 -7.7223877e-38 4.4559775e-38
5.8527226e-38 -1.9932257e-38 -6.0873476e-38 0.009351093 -0.00032220283 0.013428578 0.0032727192 0.009220328
0.012108943 -0.0021994882 0.010609221 0.011297686 0.008785445 0.0061191553 0.0018403549 0.010689895
-0.0035166773 0.0041510793 -0.013688744 -0.009477131 -0.015480018 -2.6729645e-11 2.1085703e-11 1.7529485e-11
2.1829778e-11 2.0875048e-11 -3.0273208e-11 2.3597468e-11 1.7037073e-11 -3.4432346e-11 0.0033459216 0.010167573
0.009893649 0.0015516729 0.0067200335 0.008355598 0.0019166413 0.0059297495 0.009358627 6.6272e-41
6.7223e-41 1.2173e-41 5.9464e-41 6.5107e-41 6.5854e-41 5.3699e-41 6.0026e-41 4.8346e-41
-0.021336488 0.012304002 -0.022120291 -0.018691171 0.023525314 -0.01323044 0.00889577 -0.016683083
0.010333727 0.012426086 -0.0016599327 -0.007081941 0.006012105 -0.012935873 -0.0036944072 -0.0057444363
-0.0003215132 -0.0013960346 -0.0036858998 0.0023814533 0.013443068 -0.0032106268 0.0008202462 0.01342643
0.00068168633 0.008319162 0.024419088 1.9676194e-32 1.97725e-32 -8.820762e-33 1.6858335e-32 1.889105e-32
-3.4085024e-33 1.9016796e-32 1.9923076e-32 2.7574633e-33 3.7336216e-14 1.225821e-13 -1.5611247e-13 2.6895812e-14
-1.8365253e-13 -1.011395e-13 -2.5045131e-14 -5.7574056e-14 -9.520108e-14 -4.9022e-41 3.9781e-41 2.6249e-41
2.6407e-41 -2.1786e-41 1.177e-42 -1.5718e-41 3.3609e-41 -1.6475e-41 7.68053e-40 9.46974e-40
5.95371e-40 1.2214e-40 -9.58389e-40 9.80915e-40 -7.46973e-40 -5.6105e-40 4.04446e-40 -1.07645e-40
-2.888e-41 -6.323e-41 8.3558e-41 6.1408e-41 -6.7606e-41 7.6395e-41 9.2376e-41 9.7606e-41
-0.0064837546 -0.00434177 -0.0030137622 -0.007105525 -0.0035055664 -0.002428414 -0.000868241 0.0033971244
0.002920047 -0.008079965 0.0007450616 0.0062823775 -0.00040206287 0.0016377064 -0.005269346 0.002439084
-0.006531272 -0.007995928 -0.0032039776 -0.00045425908 0.002818846 -0.0007151533 0.0034009714 0.006519937
0.0003272454 0.0039565773 0.0047891987 -0.008830045 0.006180773 0.015772004 0.011685664 0.0037917232
0.0028686456 -0.009349386 -0.0030978422 0.0032001496 8.63407e-15 1.6522048e-14 -3.0838925e-14 -1.1775498e-14
6.229551e-15 -1.0305198e-15 1.12925145e-14 -2.2519e-15 -2.8652035e-14 -0.005992337 -0.0022117242 -0.0033030717
-0.00021047579 0.0018294512 -0.012192168 -0.00043784842 0.0007010327 0.0029946347 -0.00017587388 0.0022048333
0.012342215 0.0060466384 0.007766054 -0.00730034 -0.0034678134 -0.0054300088 -0.013036237 -0.0035899181
0.0062975376 0.0028888546 0.012206709 -0.0044655213 0.0020139092 -0.009885974 0.016352877 -0.011026042
0.00845883 0.0132843 -0.01885079 0.001906991 -0.00649564 -0.0059095803 -0.011842165 -0.01584545
-0.00033694427 -3.046419e-19 1.2095776e-19 6.647676e-20 6.0488265e-19 9.789483e-19 -5.6722915e-20 3.2831742e-20
9.281336e-19 7.7959426e-19 0.0030392986 0.010188034 0.011741199 0.0020458174 0.008322718 0.009213769
-0.0012935072 0.0046644798 0.0061308555 -0.014499637 -0.010838715 -0.005072196 -0.008808351 0.0017503949
0.03690576 0.010107609 -0.012723341 0.0023515231 -1.0430427e-13 -9.18503e-14 -9.394889e-14 -8.417619e-14
00000000: 93f0 a336 5f5e 683a 55d0 33bb 4f68 9b3b
00000010: caeb 843b 02b4 29b9 39cb c63b 43d9 c33b
00000020: e217 183b dc84 e93b b4cc 163a 62c3 f13a
00000030: cd36 913b a074 67ba 4f58 da38 deec cf3a
00000040: 3ca5 2bbb 3bc3 9bba 2006 0b01 9a49 f200
00000050: 386f bd80 5f35 e880 3039 d281 439b 7201
00000060: 8653 9f01 060b d980 9fb6 a581 5435 193c
00000070: 55ed a8b9 8a03 5c3c 1e7b 563b dc10 173c
00000080: 9764 463c 4a25 10bb 4cd2 2d3c ee19 393c
00000090: d4f0 0f3c 3283 c83b 1038 f13a ab24 2f3c
000000a0: 0e78 66bb c705 883b c146 60bc f845 1bbc
000000b0: e79f 7dbc cf1d ebad c878 b92d e430 9a2d
000000c0: 4a04 c02d 6e9e b72d 9a24 05ae c690 cf2d
000000d0: 14dc 952d 606f 17ae 4047 5b3b e495 263c
000000e0: f918 223c 8161 cb3a ba33 dc3b ebe5 083c
000000f0: cf37 fb3a 584e c23b ed54 193c bdb8 0000
00000100: 64bb 0000 ef21 0000 c3a5 0000 7eb5 0000
00000110: 93b7 0000 b195 0000 54a7 0000 c586 0000
00000120: dcc9 aebc ba96 493c 9d35 b5bc 3a1e 99bc
00000130: 29b8 c03c 7dc4 58bc 90bf 113c f6aa 88bc
00000140: cb4e 293c c896 4b3c 1992 d9ba a00f e8bb
00000150: 3101 c53b fcf0 53bc de1d 72bb d33b bcbb
00000160: c590 a8b9 26fb b6ba 238f 71bb 2812 1c3b
00000170: 5040 5c3c 6169 52bb ca05 573a 87fa 5b3c
00000180: 32b3 323a 184d 083c 8a0a c83c 4c54 cc0a
00000190: 5254 cd0a 3733 378a 2411 af0a 062d c40a
000001a0: 6a95 8d89 517b c50a 9fe4 ce0a c214 6509
000001b0: ba25 2829 e303 0a2a 5bc4 2faa 8541 f228
000001c0: 3dc6 4eaa f4be e3a9 2496 e1a8 2fa5 81a9
000001d0: b05f d6a9 a788 0080 e56e 0000 2c49 0000
000001e0: 9d49 0000 bb3c 0080 4803 0000 d12b 0080
000001f0: b05d 0000 ed2d 0080 055d 0800 c74f 0a00
00000200: a77b 0600 7a54 0100 996f 0a80 64ae 0a00
00000210: 4222 0880 fb1b 0680 6e67 0400 122c 0180
00000220: 8150 0080 42b0 0080 ede8 0000 2eab 0000
00000230: 75bc 0080 f5d4 0000 8201 0100 1610 0100
00000240: ad75 d4bb 6845 8ebb 8a82 45bb 77d5 e8bb
00000250: a5bd 65bb 0726 1fbb ab9a 63ba 4aa2 5e3b
00000260: 425e 3f3b d461 04bc 3d50 433a 67dc cd3b
00000270: f7cb d2b9 4fa8 d63a 7aaa acbb 0ad9 1f3b
00000280: 4804 d6bb 5a01 03bc d3f9 51bb 9f29 eeb9
00000290: 63bc 383b 2079 3bba d5e2 5e3b 32a5 d53b
000002a0: 2292 ab39 2da6 813b b6ee 9c3b e5ab 10bc
000002b0: 1588 ca3b 4a34 813c 3a75 3f3c 8f7e 783b
000002c0: e3ff 3b3b 2b2e 19bc 2b05 4bbb 9ab9 513b
000002d0: 9f89 1b28 40d1 9428 dce2 0aa9 e620 54a8
000002e0: 7771 e027 7883 94a6 886d 4b28 3944 22a7
000002f0: 8c09 01a9 5e5b c4bb 93f2 10bb 5978 58bb
00000300: 2ab3 5cb9 32ca ef3a a9c1 47bc 058f e5b9
00000310: 82c5 373a a241 443b c96a 38b9 f77e 103b
00000320: 0037 4a3c e122 c63b 627a fe3b b137 efbb
00000330: 4144 63bb 37ee b1bb f195 55bc d544 6bbb
00000340: 935b ce3b f052 3d3b a6fe 473c 8253 92bb
00000350: cafb 033b c8f8 21bc 78f6 853c 92a6 34bc
00000360: e896 0a3c 65a6 593c f96c 9abc 00f4 f93a
00000370: 61d9 d4bb 27a5 c1bb a405 42bc 51ce 81bc
00000380: e5a7 b0b9 2fd4 b3a0 3dcd 0e20 bcf6 9c1f
00000390: a487 3221 9f77 9021 e6ee 859f 240b 1b1f
000003a0: e5f7 8821 7a18 6621 f82e 473b b6eb 263c
000003b0: 285e 403c 1f13 063b 025c 083c 59f5 163c
000003c0: e68a a9ba 7ed8 983b 58e5 c83b e38f 6dbc
000003d0: de94 31bc aa34 a6bb e750 10bc 826d e53a
000003e0: 7f2a 173d 639a 253c 8f75 50bc 031c 1a3b
000003f0: 51df eaa9 18d4 cea9 d98d d3a9 458c bda9

e_conv5.bias f4 [32]
0.021089742 -4.515342e-12 -0.0023341516 0.036246732 -0.0011340637 0.0065022414 0.04657371 0.028572135
0.017632496 -7.739463e-18 0.041963995 0.028835092 -5.9699414e-07 0.0007856835 0.026563376 0.03342962
0.004530062 0.0033078422 -0.0010909995 0.008018176 0.02636432 0.029801834 0.010384853 -0.00016228714
0.02082593 -3.2113746e-08 0.024764903 0.009781216 0.045493104 -1.9627995e-10 -4.1218036e-27 -8.006042e-09
00000000: 65c4 ac3c 96de 9eac 91f8 18bb 7477 143d
00000010: dda4 94ba c110 d53b 13c4 3e3d 1c10 ea3c
00000020: 0672 903c 95c4 0ea3 70e2 2b3d 9237 ec3c
00000030: 2041 20b5 54f6 4d3a 709b d93c 7fed 083d
00000040: ea70 943b 62c8 583b deff 8eba ab5e 033c
00000050: fdf9 d73c fa22 f43c 3b25 2a3c 9f2b 2ab9
00000060: 249b aa3c 70ed 09b3 c4df ca3c 6541 203c
00000070: fa56 3a3d e5cf 57af 0e48 a393 f28a 09b2

e_conv7.weight f4 [8, 64, 3, 3]
-0.00012516294 -0.000916016 -0.004723806 0.0070532346 0.006210522 0.003021989 0.0097401105 0.008796156
0.0048977416 0.0018790482 0.00064513 0.004164486 0.002933746 0.0015234756 0.005885115 0.0085599525
0.009392311 0.013683476 -6.1845e-41 -5.1366e-41 8.105e-41 -1.11259e-40 -1.08533e-40 -1.06003e-40
7.378e-42 -9.5639e-41 3.6735e-41 -1.9229e-41 -1.57007e-40 3.82e-41 1.31325e-40 -1.35595e-40
-1.25694e-40 -7.1222e-41 -8.4529e-41 -4.8108e-41 -0.00045885553 -0.0036003091 -0.005387025 0.0045454567
0.00088246155 -0.0015234788 0.005196553 0.0013620934 -0.0013497876 -0.010227118 -0.0072835437 -0.00629969
-0.0009749854 0.0019674944 0.0025851054 0.005520302 0.0087646535 0.008804341 0.0036193195 0.0023305498
0.005139419 0.0039545544 0.0028820478 0.0062781796 0.0051847845 0.004588334 0.0076483698 -0.013311776
-0.025342142 -0.03776876 0.0064975885 -0.0063010193 -0.020367788 0.016378526 -0.0023335055 -0.01698549
3.1784e-41 4.3023e-41 -4.0764e-41 5.481e-41 1.01017e-40 2.1377e-41 2.5169e-41 4.5552e-41
-8.119e-42 -1.0555e-41 -7.8372e-41 -7.6239e-41 1.45937e-40 3.9582e-41 1.73186e-40 -9.4617e-41
-1.53814e-40 2.0048e-41 0.00051430985 -0.003607328 -0.00046861355 0.000118575124 -0.003478282 -0.000808372
0.0011540106 -0.0029112268 0.00041028686 -0.0071195024 -0.0047728433 -0.008573606 -0.0028075178 -5.346691e-06
-0.004804259 -0.0033568945 -0.0014378808 -0.0056729238 -0.0013301432 0.010441127 0.0012947924 -0.0016711649
0.009959053 0.00092204486 -0.0064268676 0.004897513 -0.00406934 -0.017139316 -0.021711905 -0.008133012
-0.01567049 -0.021026546 -0.007387057 -0.0011588123 -0.0065297284 0.008171504 -0.00223925 0.00078139646
0.0005115943 -0.0010387875 0.0022732888 0.0026532833 0.0015941426 0.005179159 0.00513564 -0.0033413828
-0.004027269 -0.0031309954 0.00083013345 0.00057864696 0.0012376809 0.002176511 0.0022760374 0.0033726208
1.63809e-40 -3.9909e-41 1.76401e-40 6.7482e-41 1.07244e-40 2.8013e-41 -1.18839e-40 -7.9218e-41
1.05572e-40 0.0021620162 0.04215402 0.003633872 0.032605346 0.07349549 0.0351328 -0.008491486
0.031420637 -0.00614182 8.7917e-41 1.13326e-40 -2.3462e-41 -1.88306e-40 8.1947e-41 1.37369e-40
6.6441e-41 -7.5042e-41 4.6736e-41 -0.009138884 -0.0030308936 -0.0077574556 -0.0072893538 -0.0017365426
-0.008064449 -0.013736142 -0.0095872395 -0.015344473 -0.0033318214 0.0030156283 0.0005676962 0.0019252
0.008408921 0.005944329 -0.0049834023 0.0012791419 -0.0010564781 -8.8563e-41 -1.26298e-40 7.1064e-41
9.4296e-41 -5.6477e-41 4.633e-42 -2.9663e-41 6.3121e-41 -1.2181e-40 -0.0024428936 -0.0021564823
-0.0047157086 0.0028227677 0.0032923443 0.00054029777 -3.2620549e-06 0.0013067727 -0.0013303694 -1.32198e-40
1.1355e-41 -3.9762e-41 -7.816e-41 4.085e-42 6.659e-42 -5.4197e-41 1.4192e-40 8.702e-42
-4.90729e-38 -5.729888e-38 4.966967e-39 4.1994973e-38 -1.0574047e-37 -1.2555694e-37 -8.551137e-38 -1.2678723e-37
6.80369e-38 0.0045944564 0.006509304 0.0014117185 9.229189e-05 0.0025527854 -0.0013843703 -0.0012753197
0.0013979618 -0.0025963755 0.0053208414 0.0017042817 0.044687193 -0.039393038 -0.04251775 -0.004286203
-0.033594087 -0.03401416 0.0051919175 0.002938394 0.001421904 0.0008842676 0.008554016 0.007320986
0.008227586 0.007937834 0.0073522194 0.008628624 -0.02043815 0.02126955 -0.018747395 0.018058298
00000000: 2c3e 03b9 cb20 70ba 28ca 9abb d21e e73b
00000010: a281 cb3b 900c 463b fc94 1f3c c11d 103c
00000020: 3c7d a03b 654a f63a f11d 293a 3e76 883b
00000030: 1744 403b 5caf c73a ecd7 c03b 0b3f 0c3c
00000040: 35e2 193c a830 603c 66ac 0080 308f 0080
00000050: efe1 0000 2536 0180 8c2e 0180 7e27 0180
00000060: 9114 0000 9a0a 0180 6766 0000 9a35 0080
00000070: acb5 0180 7c6a 0000 156e 0100 fc79 0180
00000080: 625e 0180 8ac6 0080 a2eb 0080 1b86 0080
00000090: 8c92 f0b9 2af3 6bbb a485 b0bb 0ef2 943b
000000a0: fe54 673a 77af c7ba d947 aa3b 4588 b23a
000000b0: 5beb b0ba a48f 27bc cbaa eebb a16d cebb
000000c0: 2a96 7fba 14f1 003b df6a 293b a6e3 b43b
000000d0: 9f99 0f3c 1540 103c 1b32 6d3b 23bc 183b
000000e0: 9268 a83b 3595 813b bde0 3c3b 30b9 cd3b
000000f0: 20e5 a93b bc59 963b 2d9f fa3b a319 5abc
00000100: 539a cfbc 6ab3 1abd b9e9 d43b c878 cebb
00000110: 59da a6bc 422c 863c baed 18bb 2825 8bbc
00000120: 9a58 0000 ee77 0000 a271 0080 ca98 0000
00000130: 9819 0100 973b 0000 2946 0000 fb7e 0000
00000140: a216 0080 6c1d 0080 78da 0080 86d4 0080
00000150: d096 0100 576e 0000 c6e2 0100 c107 0180
00000160: c5ac 0180 e337 0000 c0d2 063a ec68 6cbb
00000170: 3fb0 f5b9 89ab f838 e3f3 63bb ede8 53ba
00000180: 2c42 973a 48ca 3ebb c51b d739 b74a e9bb
00000190: 8365 9cbb 4f78 0cbc 55fe 37bb ba67 b3b6
000001a0: 0c6d 9dbb 58ff 5bbb 4677 bcba efe3 b9bb
000001b0: 3358 aeba 4311 2b3c 06b6 a93a fd0a dbba
000001c0: 4c2b 233c 62b5 713a 7998 d2bb 517b a03b
000001d0: 1958 85bb c067 8cbc 2add b1bc 5340 05bc
000001e0: 665f 80bc dd3f acbc 200f f2bb 4ae3 97ba
000001f0: 55f7 d5bb c6e1 053c 62c0 12bb a1d6 4c3a
00000200: 831c 063a ed27 88ba 75fb 143b b5e2 2d3b
00000210: 8df2 d03a efb5 a93b df48 a83b 1afb 5abb
00000220: 2ef7 83bb 6331 4dbb 509d 593a 57b0 173a
00000230: ae39 a23a cca3 0e3b 9229 153b 3007 5d3b
00000240: a2c8 0100 406f 0080 bceb 0100 1dbc 0000
00000250: f42a 0100 174e 0000 464b 0180 d4dc 0080
00000260: 4b26 0100 9db0 0d3b b2a9 2c3d 4126 6e3b
00000270: 2f8d 053d ce84 963d 69e7 0f3d e01f 0bbc
00000280: edb2 003d 5241 c9bb 14f5 0000 e83b 0100
00000290: 6741 0080 ec0c 0280 6fe4 0000 ee7e 0100
000002a0: 36b9 0000 30d1 0080 4882 0000 42bb 15bc
000002b0: f5a1 46bb 4132 febb 88db eebb b39c e3ba
000002c0: c020 04bc 8e0d 61bc cc13 1dbc 6267 7bbc
000002d0: b05a 5abb d9a1 453b 72d1 143a fe56 fc3a
000002e0: 92c5 093c a5c8 c23b cf4b a3bb e1a8 a73a
000002f0: 8679 8aba e1f6 0080 1160 0180 19c6 0000
00000300: dc06 0100 6f9d 0080 ea0c 0000 b052 0080
00000310: f5af 0000 8f53 0180 f418 20bb c553 0dbb
00000320: 3b86 9abb 2ffe 383b 5fc4 573b c5a2 0d3a
00000330: ade9 5ab6 0448 ab3a ca5f aeba 8470 0180
00000340: a71f 0000 d76e 0080 e1d9 0080 630b 0000
00000350: 9012 0000 1497 0080 9d8b 0100 4218 0000
00000360: d296 8581 7efb 9b81 e215 3600 73a4 6401
00000370: 2ded 0f82 35e6 2a82 bac8 e881 e792 2c82
00000380: cd36 b901 188d 963b 004c d53b 6a09 b93a
00000390: d58c c138 a24c 273b c273 b5ba a128 a7ba
000003a0: d03b b73a f427 2abb 745a ae3b 3462 df3a
000003b0: eb09 373d 985a 21bd 1827 2ebd 4773 8cbb
000003c0: f499 09bd 6f52 0bbd f620 aa3b 1292 403b
000003d0: 2e5f ba3a 32ce 673a 2526 0c3c e2e4 ef3b
000003e0: ffcc 063c b00d 023c e3ea f03b 125f 0d3c
000003f0: e86d a7bc 7b3d ae3c 2394 99bc ffee 933c

e_conv7.bias f4 [8]
0.02331977 0.011958335 0.054882742 0.03815552 0.018954147 0.026925968 0.015374317 0.0056580957
00000000: 1a09 bf3c e4ec 433c bacc 603d f648 1c3d
00000010: ba45 9b3c d993 dc3c 8fe4 7b3c 8c67 b93b

e_conv8.weight f4 [8, 64, 3, 3]
0.045517284 0.037389014 0.0023440402 -0.019209823 0.0006410124 0.009780408 0.0053749853 0.0109481085
-0.02759735 -0.015164604 0.0065315356 -0.009227958 0.012464167 0.02896686 0.018922536 -0.020194698
0.008755996 0.013903405 1.702e-41 6.5294e-41 2.2251e-41 5.1009e-41 2.7254e-41 1.1893e-41
4.8837e-41 4.2161e-41 -5.1174e-41 8.5342e-41 -8.5963e-41 -8.653e-42 -8.709e-41 4.7574e-41
8.4273e-41 1.4167e-41 -7.6773e-41 4.0095e-41 -0.0034581455 0.011098599 -0.0054584625 -0.032896176
0.0030846787 0.036483914 -0.026795303 0.016477231 0.016507665 -0.0019024389 0.02278588 0.036774185
0.055425737 -0.009510168 0.016397636 -0.012454972 0.030273972 0.02359884 0.021347132 0.012023333
-0.0070513026 0.014445189 0.009464796 -0.028459193 0.012112429 0.035723235 -0.035832323 0.007390471
0.0023358127 0.0034963922 -0.008447014 0.0031072693 -0.0048122737 -0.0016148048 -0.0027166565 -0.00024982335
-9.1255e-41 -9.8134e-41 -9.3052e-41 -6.864e-41 6.9286e-41 5.6048e-41 2.4287e-41 -2.7953e-41
8.0945e-41 6.63e-42 2.9827e-41 -1.2624e-41 7.0016e-41 -1.7593e-41 2.0791e-41 -2.1078e-41
-6.41e-41 -8.6972e-41 0.0013047309 0.008477895 0.0015444168 0.0074937814 0.01724582 0.008231288
-0.00052851107 0.0029901043 -0.0026495694 0.004931332 -0.014157159 0.012143692 0.016883202 -0.01079359
-0.00069532177 0.023297813 0.005884088 0.021278 -0.002701302 0.0010018259 -0.0038233488 0.0036739705
0.010958243 0.004036697 -0.002099568 -0.0035151576 -0.0045892578 -0.00072320725 0.005292605 0.002120246
-0.004383119 0.0064794957 0.0011776281 -0.0059901183 0.0025046454 -0.0056291763 0.027507866 0.010400705
-0.0023344192 -0.0073514786 -0.014058215 0.011849905 -0.01671976 0.007832193 0.0099073965 0.051545326
0.024911923 0.009007583 0.037357196 0.022261472 0.0020389429 -0.021031624 -0.016053502 -0.0005404908
3.528e-42 9.7984e-41 1.5075e-41 -4.4819e-41 7.6657e-41 9.5629e-41 -7.6008e-41 -7.4478e-41
9.1297e-41 0.0011461651 0.001341614 -0.012944046 0.004978625 -0.0024096705 0.0069908686 -0.0018100974
0.011867245 -0.0060700118 6.9758e-41 -3.4957e-41 -1.18564e-40 -4.2546e-41 6.8575e-41 -2.7893e-41
-1.3041e-40 -5.7075e-41 5.185e-42 -0.00013532936 0.0115374895 -0.0077323886 -0.0034663414 0.02488418
-0.0026477752 -0.013745405 -0.009613998 0.021698002 -0.0010006396 -0.004882527 -0.00073764514 -0.0014631565
-0.0040487656 -0.0010249752 0.0024292553 -0.0029829568 0.0022386706 3.3005e-41 6.6661e-41 5.618e-41
4.8952e-41 4.2137e-41 1.6475e-41 5.83e-42 7.3142e-41 -4.4281e-41 -0.0050794124 0.025332212
-0.006629998 0.01323218 0.04898185 0.008823943 0.00044574056 0.03425346 -0.00030809545 -9.698e-42
6.8802e-41 7.5534e-41 -6.1638e-41 -7.3438e-41 4.3167e-41 -5.6642e-41 -5.1436e-41 7.3275e-41
-5.091092e-08 -5.3298017e-08 -5.213682e-08 -5.2832327e-08 -5.5611707e-08 -5.2791837e-08 -5.2123806e-08 -5.0954043e-08
-5.2187822e-08 -0.0236167 -0.009773776 0.017979475 0.0034269607 0.006445332 0.0052528363 -0.007063585
0.010898204 0.027570376 -0.0022099656 0.00499731 -0.002875635 0.0015282121 0.0066118864 -0.0021859528
-0.0006904401 0.003763592 -0.003775464 -0.027165784 0.0017562674 -0.014822802 0.016310083 -0.0095156515
-0.0029506092 0.008231165 0.031113835 -0.017244201 -0.00055585743 0.013311413 -0.0040415414 0.014514233
00000000: 5570 3a3d 3925 193d 789e 193b eb5d 9dbc
00000010: 9d09 283a 013e 203c a520 b03b b25f 333c
00000020: d613 e2bc f674 78bc 7e06 d63b dc30 17bc
00000030: 8136 4c3c e94b ed3c 6f03 9b3c 5a6f a5bc
00000040: 4f75 0f3c 1bcb 633c 722f 0000 03b6 0000
00000050: 073e 0000 318e 0000 f94b 0000 2721 0000
00000060: 2388 0000 8775 0000 a78e 0080 e6ed 0000
00000070: a1ef 0080 1f18 0080 c6f2 0080 9e84 0000
00000080: ebea 0000 7e27 0000 03d6 0080 c56f 0000
00000090: 0ea2 62bb e6d6 353c e7dc b2bb 24be 06bd
000000a0: 5228 4a3b 2870 153d d381 dbbc 42fb 863c
000000b0: 153b 873c 425b f9ba 74a9 ba3c 87a0 163d
000000c0: 1906 633d 89d0 1bbc 5654 863c f00f 4cbc
000000d0: 1f01 f83c 5b52 c13c 2ee0 ae3c 84fd 443c
000000e0: 9d0e e7bb 84ab 6c3c 3b12 1b3c 4123 e9bc
000000f0: 3673 463c 8752 123d eac4 12bd c42b f23b
00000100: 6f14 193b ba23 653b 5865 0abc 54a3 4b3b
00000110: 47b0 9dbb dca7 d3ba ef09 32bb b9fa 82b9
00000120: 62fe 0080 8f11 0180 6403 0180 57bf 0080
00000130: 24c1 0000 3d9c 0000 b443 0000 ec4d 0080
00000140: a4e1 0000 7b12 0000 2553 0000 3123 0080
00000150: 2dc3 0000 0b31 0080 f539 0000 c23a 0080
00000160: afb2 0080 71f2 0080 8103 ab3a dee6 0a3c
00000170: 076e ca3a 658e f53b 1b47 8d3c 86dc 063c
00000180: c78b 0aba a0f5 433b 66a4 2dbb 0397 a13b
00000190: 6ef3 67bc 56f6 463c a44e 8a3c 99d7 30bc
000001a0: 4146 36ba 0edb be3c 4fcf c03b 334f ae3c
000001b0: 5408 31bb b34f 833a 2691 7abb ffc6 703b
000001c0: 348a 333c 4546 843b e898 09bb 8f5e 66bb
000001d0: 7c61 96bb 9e95 3dba 976d ad3b d3f3 0a3b
000001e0: 44a0 8fbb f351 d43b a45a 9a3a c148 c4bb
000001f0: fa24 243b f474 b8bb 2d58 e13c b867 2a3c
00000200: 0efd 18bb ace4 f0bb 6d54 66bc 1b26 423c
00000210: e1f7 88bc 9952 003c a252 223c 3121 533d
00000220: 1714 cc3c 8b94 133c dc03 193d b15d b63c
00000230: c99f 053b 834a acbc a282 83bc b9af 0dba
00000240: d609 0000 2411 0100 062a 0000 f07c 0080
00000250: b0d5 0000 930a 0100 e1d3 0080 9dcf 0080
00000260: 80fe 0000 eb3a 963a 19d9 af3a 4413 54bc
00000270: bc23 a33b 90eb 1dbb a813 e53b ca40 edba
00000280: d56e 423c f3e6 c6bb 75c2 0000 7261 0080
00000290: 824a 0180 9a76 0080 29bf 0000 c14d 0080
000002a0: 886b 0180 1a9f 0080 740e 0000 33e7 0db9
000002b0: bd07 3d3c fa5f fdbb 8f2b 63bb e8d9 cb3c
000002c0: 4c86 2dbb 6834 61bc 0884 1dbc 02c0 b13c
000002d0: e527 83ba 9bfd 9fbb 875e 41ba 63c7 bfba
000002e0: 82ab 84bb 7658 86ba 2434 1f3b b67d 43bb
000002f0: a9b6 123b 015c 0000 d3b9 0000 9b9c 0000
00000300: 7588 0000 7675 0000 ed2d 0000 4010 0000
00000310: e4cb 0000 707b 0080 3371 a6bb 8085 cf3c
00000320: 7440 d9bb c9cb 583c 31a1 483d 4d92 103c
00000330: 49b2 e939 5b4d 0c3d df87 a1b9 091b 0080
00000340: cbbf 0000 8fd2 0000 d2ab 0080 b7cc 0080
00000350: 5578 0000 e59d 0080 628f 0080 43cc 0000
00000360: 26a9 5ab3 cae9 64b3 0aed 5fb3 c2e9 62b3
00000370: b8d9 6eb3 3dbd 62b3 bbde 5fb3 90d8 5ab3
00000380: 1e25 60b3 cf77 c1bc 3022 20bc b149 933c
00000390: dc96 603b 5d33 d33b fc1f ac3b a575 e7bb
000003a0: 618e 323c 45db e13c 12d5 10bb 7ac0 a33b
000003b0: 2675 3cbb 4a4e c83a 86a8 d83b 3442 0fbb
000003c0: a7fe 34ba 99a6 763b c66d 77bb c78a debc
000003d0: 8e32 e63a 56db 72bc b99c 853c 89e7 1bbc
000003e0: 025f 41bb 02dc 063c 71e2 fe3c b643 8dbc
000003f0: f6b6 11ba 1d18 5a3c e86e 84bb 1bcd 6d3c

e_conv8.bias f4 [8]
-0.028002791 -0.0028857852 0.0012246935 -0.007353068 0.02999797 0.005754842 -0.007639506 0.017897379
00000000: 1c66 e5bc 711f 3dbb e585 a03a 01f2 f0bb
00000010: 4ebe f53c 1d93 bc3b d254 fabb 869d 923c
